…
I0704 15:10:35.341729 22197 net.cpp:287] The NetState phase (0) differed from the phase (1) specified by a rule in layer loss3/top-5
I0704 15:10:35.342355 22197 net.cpp:42] Initializing net from parameters: 
name: "GoogleNet"
state {
  phase: TRAIN
}
layer {
  name: "data"
  type: "Data"
  top: "data"
  top: "label"
  include {
    phase: TRAIN
  }
  transform_param {
    mirror: true
    crop_size: 224
    mean_value: 104
    mean_value: 117
    mean_value: 123
  }
  data_param {
    source: "examples/stanford_cars/stanford_cars_train_lmdb"
    batch_size: 30
    backend: LMDB
  }
}
layer {
  name: "conv1/7x7_s2"
  type: "Convolution"
  bottom: "data"
  top: "conv1/7x7_s2"
  param {
    lr_mult: 1
    decay_mult: 1
  }
  param {
    lr_mult: 2
    decay_mult: 0
  }
  convolution_param {
    num_output: 64
    pad: 3
    kernel_size: 7
    stride: 2
    weight_filler {
      type: "xavier"
      std: 0.1
    }
    bias_filler {
      type: "constant"
      value: 0.2
    }
  }
}
layer {
  name: "conv1/relu_7x7"
  type: "ReLU"
  bottom: "conv1/7x7_s2"
  top: "conv1/7x7_s2"
}
layer {
  name: "pool1/3x3_s2"
  type: "Pooling"
  bottom: "conv1/7x7_s2"
  top: "pool1/3x3_s2"
  pooling_param {
    pool: MAX
    kernel_size: 3
    stride: 2
  }
}
layer {
  name: "pool1/norm1"
  type: "LRN"
  bottom: "pool1/3x3_s2"
  top: "pool1/norm1"
  lrn_param {
    local_size: 5
    alpha: 0.0001
    beta: 0.75
  }
}
layer {
  name: "conv2/3x3_reduce"
  type: "Convolution"
  bottom: "pool1/norm1"
  top: "conv2/3x3_reduce"
  param {
    lr_mult: 1
    decay_mult: 1
  }
  param {
    lr_mult: 2
    decay_mult: 0
  }
  convolution_param {
    num_output: 64
    kernel_size: 1
    weight_filler {
      type: "xavier"
      std: 0.1
    }
    bias_filler {
      type: "constant"
      value: 0.2
    }
  }
}
layer {
  name: "conv2/relu_3x3_reduce"
  type: "ReLU"
  bottom: "conv2/3x3_reduce"
  top: "conv2/3x3_reduce"
}
layer {
  name: "conv2/3x3"
  type: "Convolution"
  bottom: "conv2/3x3_reduce"
  top: "conv2/3x3"
  param {
    lr_mult: 1
    decay_mult: 1
  }
  param {
    lr_mult: 2
    decay_mult: 0
  }
  convolution_param {
    num_output: 192
    pad: 1
    kernel_size: 3
    weight_filler {
      type: "xavier"
      std: 0.03
    }
    bias_filler {
      type: "constant"
      value: 0.2
    }
  }
}
layer {
  name: "conv2/relu_3x3"
  type: "ReLU"
  bottom: "conv2/3x3"
  top: "conv2/3x3"
}
layer {
  name: "conv2/norm2"
  type: "LRN"
  bottom: "conv2/3x3"
  top: "conv2/norm2"
  lrn_param {
    local_size: 5
    alpha: 0.0001
    beta: 0.75
  }
}
layer {
  name: "pool2/3x3_s2"
  type: "Pooling"
  bottom: "conv2/norm2"
  top: "pool2/3x3_s2"
  pooling_param {
    pool: MAX
    kernel_size: 3
    stride: 2
  }
}
layer {
  name: "inception_3a/1x1"
  type: "Convolution"
  bottom: "pool2/3x3_s2"
  top: "inception_3a/1x1"
  param {
    lr_mult: 1
    decay_mult: 1
  }
  param {
    lr_mult: 2
    decay_mult: 0
  }
  convolution_param {
    num_output: 64
    kernel_size: 1
    weight_filler {
      type: "xavier"
      std: 0.03
    }
    bias_filler {
      type: "constant"
      value: 0.2
    }
  }
}
layer {
  name: "inception_3a/relu_1x1"
  type: "ReLU"
  bottom: "inception_3a/1x1"
  top: "inception_3a/1x1"
}
layer {
  name: "inception_3a/3x3_reduce"
  type: "Convolution"
  bottom: "pool2/3x3_s2"
  top: "inception_3a/3x3_reduce"
  param {
    lr_mult: 1
    decay_mult: 1
  }
  param {
    lr_mult: 2
    decay_mult: 0
  }
  convolution_param {
    num_output: 96
    kernel_size: 1
    weight_filler {
      type: "xavier"
      std: 0.09
    }
    bias_filler {
      type: "constant"
      value: 0.2
    }
  }
}
layer {
  name: "inception_3a/relu_3x3_reduce"
  type: "ReLU"
  bottom: "inception_3a/3x3_reduce"
  top: "inception_3a/3x3_reduce"
}
layer {
  name: "inception_3a/3x3"
  type: "Convolution"
  bottom: "inception_3a/3x3_reduce"
  top: "inception_3a/3x3"
  param {
    lr_mult: 1
    decay_mult: 1
  }
  param {
    lr_mult: 2
    decay_mult: 0
  }
  convolution_param {
    num_output: 128
    pad: 1
    kernel_size: 3
    weight_filler {
      type: "xavier"
      std: 0.03
    }
    bias_filler {
      type: "constant"
      value: 0.2
    }
  }
}
layer {
  name: "inception_3a/relu_3x3"
  type: "ReLU"
  bottom: "inception_3a/3x3"
  top: "inception_3a/3x3"
}
layer {
  name: "inception_3a/5x5_reduce"
  type: "Convolution"
  bottom: "pool2/3x3_s2"
  top: "inception_3a/5x5_reduce"
  param {
    lr_mult: 1
    decay_mult: 1
  }
  param {
    lr_mult: 2
    decay_mult: 0
  }
  convolution_param {
    num_output: 16
    kernel_size: 1
    weight_filler {
      type: "xavier"
      std: 0.2
    }
    bias_filler {
      type: "constant"
      value: 0.2
    }
  }
}
layer {
  name: "inception_3a/relu_5x5_reduce"
  type: "ReLU"
  bottom: "inception_3a/5x5_reduce"
  top: "inception_3a/5x5_reduce"
}
layer {
  name: "inception_3a/5x5"
  type: "Convolution"
  bottom: "inception_3a/5x5_reduce"
  top: "inception_3a/5x5"
  param {
    lr_mult: 1
    decay_mult: 1
  }
  param {
    lr_mult: 2
    decay_mult: 0
  }
  convolution_param {
    num_output: 32
    pad: 2
    kernel_size: 5
    weight_filler {
      type: "xavier"
      std: 0.03
    }
    bias_filler {
      type: "constant"
      value: 0.2
    }
  }
}
layer {
  name: "inception_3a/relu_5x5"
  type: "ReLU"
  bottom: "inception_3a/5x5"
  top: "inception_3a/5x5"
}
layer {
  name: "inception_3a/pool"
  type: "Pooling"
  bottom: "pool2/3x3_s2"
  top: "inception_3a/pool"
  pooling_param {
    pool: MAX
    kernel_size: 3
    stride: 1
    pad: 1
  }
}
layer {
  name: "inception_3a/pool_proj"
  type: "Convolution"
  bottom: "inception_3a/pool"
  top: "inception_3a/pool_proj"
  param {
    lr_mult: 1
    decay_mult: 1
  }
  param {
    lr_mult: 2
    decay_mult: 0
  }
  convolution_param {
    num_output: 32
    kernel_size: 1
    weight_filler {
      type: "xavier"
      std: 0.1
    }
    bias_filler {
      type: "constant"
      value: 0.2
    }
  }
}
layer {
  name: "inception_3a/relu_pool_proj"
  type: "ReLU"
  bottom: "inception_3a/pool_proj"
  top: "inception_3a/pool_proj"
}
layer {
  name: "inception_3a/output"
  type: "Concat"
  bottom: "inception_3a/1x1"
  bottom: "inception_3a/3x3"
  bottom: "inception_3a/5x5"
  bottom: "inception_3a/pool_proj"
  top: "inception_3a/output"
}
layer {
  name: "inception_3b/1x1"
  type: "Convolution"
  bottom: "inception_3a/output"
  top: "inception_3b/1x1"
  param {
    lr_mult: 1
    decay_mult: 1
  }
  param {
    lr_mult: 2
    decay_mult: 0
  }
  convolution_param {
    num_output: 128
    kernel_size: 1
    weight_filler {
      type: "xavier"
      std: 0.03
    }
    bias_filler {
      type: "constant"
      value: 0.2
    }
  }
}
layer {
  name: "inception_3b/relu_1x1"
  type: "ReLU"
  bottom: "inception_3b/1x1"
  top: "inception_3b/1x1"
}
layer {
  name: "inception_3b/3x3_reduce"
  type: "Convolution"
  bottom: "inception_3a/output"
  top: "inception_3b/3x3_reduce"
  param {
    lr_mult: 1
    decay_mult: 1
  }
  param {
    lr_mult: 2
    decay_mult: 0
  }
  convolution_param {
    num_output: 128
    kernel_size: 1
    weight_filler {
      type: "xavier"
      std: 0.09
    }
    bias_filler {
      type: "constant"
      value: 0.2
    }
  }
}
layer {
  name: "inception_3b/relu_3x3_reduce"
  type: "ReLU"
  bottom: "inception_3b/3x3_reduce"
  top: "inception_3b/3x3_reduce"
}
layer {
  name: "inception_3b/3x3"
  type: "Convolution"
  bottom: "inception_3b/3x3_reduce"
  top: "inception_3b/3x3"
  param {
    lr_mult: 1
    decay_mult: 1
  }
  param {
    lr_mult: 2
    decay_mult: 0
  }
  convolution_param {
    num_output: 192
    pad: 1
    kernel_size: 3
    weight_filler {
      type: "xavier"
      std: 0.03
    }
    bias_filler {
      type: "constant"
      value: 0.2
    }
  }
}
layer {
  name: "inception_3b/relu_3x3"
  type: "ReLU"
  bottom: "inception_3b/3x3"
  top: "inception_3b/3x3"
}
layer {
  name: "inception_3b/5x5_reduce"
  type: "Convolution"
  bottom: "inception_3a/output"
  top: "inception_3b/5x5_reduce"
  param {
    lr_mult: 1
    decay_mult: 1
  }
  param {
    lr_mult: 2
    decay_mult: 0
  }
  convolution_param {
    num_output: 32
    kernel_size: 1
    weight_filler {
      type: "xavier"
      std: 0.2
    }
    bias_filler {
      type: "constant"
      value: 0.2
    }
  }
}
layer {
  name: "inception_3b/relu_5x5_reduce"
  type: "ReLU"
  bottom: "inception_3b/5x5_reduce"
  top: "inception_3b/5x5_reduce"
}
layer {
  name: "inception_3b/5x5"
  type: "Convolution"
  bottom: "inception_3b/5x5_reduce"
  top: "inception_3b/5x5"
  param {
    lr_mult: 1
    decay_mult: 1
  }
  param {
    lr_mult: 2
    decay_mult: 0
  }
  convolution_param {
    num_output: 96
    pad: 2
    kernel_size: 5
    weight_filler {
      type: "xavier"
      std: 0.03
    }
    bias_filler {
      type: "constant"
      value: 0.2
    }
  }
}
layer {
  name: "inception_3b/relu_5x5"
  type: "ReLU"
  bottom: "inception_3b/5x5"
  top: "inception_3b/5x5"
}
layer {
  name: "inception_3b/pool"
  type: "Pooling"
  bottom: "inception_3a/output"
  top: "inception_3b/pool"
  pooling_param {
    pool: MAX
    kernel_size: 3
    stride: 1
    pad: 1
  }
}
layer {
  name: "inception_3b/pool_proj"
  type: "Convolution"
  bottom: "inception_3b/pool"
  top: "inception_3b/pool_proj"
  param {
    lr_mult: 1
    decay_mult: 1
  }
  param {
    lr_mult: 2
    decay_mult: 0
  }
  convolution_param {
    num_output: 64
    kernel_size: 1
    weight_filler {
      type: "xavier"
      std: 0.1
    }
    bias_filler {
      type: "constant"
      value: 0.2
    }
  }
}
layer {
  name: "inception_3b/relu_pool_proj"
  type: "ReLU"
  bottom: "inception_3b/pool_proj"
  top: "inception_3b/pool_proj"
}
layer {
  name: "inception_3b/output"
  type: "Concat"
  bottom: "inception_3b/1x1"
  bottom: "inception_3b/3x3"
  bottom: "inception_3b/5x5"
  bottom: "inception_3b/pool_proj"
  top: "inception_3b/output"
}
layer {
  name: "pool3/3x3_s2"
  type: "Pooling"
  bottom: "inception_3b/output"
  top: "pool3/3x3_s2"
  pooling_param {
    pool: MAX
    kernel_size: 3
    stride: 2
  }
}
layer {
  name: "inception_4a/1x1"
  type: "Convolution"
  bottom: "pool3/3x3_s2"
  top: "inception_4a/1x1"
  param {
    lr_mult: 1
    decay_mult: 1
  }
  param {
    lr_mult: 2
    decay_mult: 0
  }
  convolution_param {
    num_output: 192
    kernel_size: 1
    weight_filler {
      type: "xavier"
      std: 0.03
    }
    bias_filler {
      type: "constant"
      value: 0.2
    }
  }
}
layer {
  name: "inception_4a/relu_1x1"
  type: "ReLU"
  bottom: "inception_4a/1x1"
  top: "inception_4a/1x1"
}
layer {
  name: "inception_4a/3x3_reduce"
  type: "Convolution"
  bottom: "pool3/3x3_s2"
  top: "inception_4a/3x3_reduce"
  param {
    lr_mult: 1
    decay_mult: 1
  }
  param {
    lr_mult: 2
    decay_mult: 0
  }
  convolution_param {
    num_output: 96
    kernel_size: 1
    weight_filler {
      type: "xavier"
      std: 0.09
    }
    bias_filler {
      type: "constant"
      value: 0.2
    }
  }
}
layer {
  name: "inception_4a/relu_3x3_reduce"
  type: "ReLU"
  bottom: "inception_4a/3x3_reduce"
  top: "inception_4a/3x3_reduce"
}
layer {
  name: "inception_4a/3x3"
  type: "Convolution"
  bottom: "inception_4a/3x3_reduce"
  top: "inception_4a/3x3"
  param {
    lr_mult: 1
    decay_mult: 1
  }
  param {
    lr_mult: 2
    decay_mult: 0
  }
  convolution_param {
    num_output: 208
    pad: 1
    kernel_size: 3
    weight_filler {
      type: "xavier"
      std: 0.03
    }
    bias_filler {
      type: "constant"
      value: 0.2
    }
  }
}
layer {
  name: "inception_4a/relu_3x3"
  type: "ReLU"
  bottom: "inception_4a/3x3"
  top: "inception_4a/3x3"
}
layer {
  name: "inception_4a/5x5_reduce"
  type: "Convolution"
  bottom: "pool3/3x3_s2"
  top: "inception_4a/5x5_reduce"
  param {
    lr_mult: 1
    decay_mult: 1
  }
  param {
    lr_mult: 2
    decay_mult: 0
  }
  convolution_param {
    num_output: 16
    kernel_size: 1
    weight_filler {
      type: "xavier"
      std: 0.2
    }
    bias_filler {
      type: "constant"
      value: 0.2
    }
  }
}
layer {
  name: "inception_4a/relu_5x5_reduce"
  type: "ReLU"
  bottom: "inception_4a/5x5_reduce"
  top: "inception_4a/5x5_reduce"
}
layer {
  name: "inception_4a/5x5"
  type: "Convolution"
  bottom: "inception_4a/5x5_reduce"
  top: "inception_4a/5x5"
  param {
    lr_mult: 1
    decay_mult: 1
  }
  param {
    lr_mult: 2
    decay_mult: 0
  }
  convolution_param {
    num_output: 48
    pad: 2
    kernel_size: 5
    weight_filler {
      type: "xavier"
      std: 0.03
    }
    bias_filler {
      type: "constant"
      value: 0.2
    }
  }
}
layer {
  name: "inception_4a/relu_5x5"
  type: "ReLU"
  bottom: "inception_4a/5x5"
  top: "inception_4a/5x5"
}
layer {
  name: "inception_4a/pool"
  type: "Pooling"
  bottom: "pool3/3x3_s2"
  top: "inception_4a/pool"
  pooling_param {
    pool: MAX
    kernel_size: 3
    stride: 1
    pad: 1
  }
}
layer {
  name: "inception_4a/pool_proj"
  type: "Convolution"
  bottom: "inception_4a/pool"
  top: "inception_4a/pool_proj"
  param {
    lr_mult: 1
    decay_mult: 1
  }
  param {
    lr_mult: 2
    decay_mult: 0
  }
  convolution_param {
    num_output: 64
    kernel_size: 1
    weight_filler {
      type: "xavier"
      std: 0.1
    }
    bias_filler {
      type: "constant"
      value: 0.2
    }
  }
}
layer {
  name: "inception_4a/relu_pool_proj"
  type: "ReLU"
  bottom: "inception_4a/pool_proj"
  top: "inception_4a/pool_proj"
}
layer {
  name: "inception_4a/output"
  type: "Concat"
  bottom: "inception_4a/1x1"
  bottom: "inception_4a/3x3"
  bottom: "inception_4a/5x5"
  bottom: "inception_4a/pool_proj"
  top: "inception_4a/output"
}
layer {
  name: "loss1/ave_pool"
  type: "Pooling"
  bottom: "inception_4a/output"
  top: "loss1/ave_pool"
  pooling_param {
    pool: AVE
    kernel_size: 5
    stride: 3
  }
}
layer {
  name: "loss1/conv"
  type: "Convolution"
  bottom: "loss1/ave_pool"
  top: "loss1/conv"
  param {
    lr_mult: 1
    decay_mult: 1
  }
  param {
    lr_mult: 2
    decay_mult: 0
  }
  convolution_param {
    num_output: 128
    kernel_size: 1
    weight_filler {
      type: "xavier"
      std: 0.08
    }
    bias_filler {
      type: "constant"
      value: 0.2
    }
  }
}
layer {
  name: "loss1/relu_conv"
  type: "ReLU"
  bottom: "loss1/conv"
  top: "loss1/conv"
}
layer {
  name: "loss1/fc"
  type: "InnerProduct"
  bottom: "loss1/conv"
  top: "loss1/fc"
  param {
    lr_mult: 1
    decay_mult: 1
  }
  param {
    lr_mult: 2
    decay_mult: 0
  }
  inner_product_param {
    num_output: 1024
    weight_filler {
      type: "xavier"
      std: 0.02
    }
    bias_filler {
      type: "constant"
      value: 0.2
    }
  }
}
layer {
  name: "loss1/relu_fc"
  type: "ReLU"
  bottom: "loss1/fc"
  top: "loss1/fc"
}
layer {
  name: "loss1/drop_fc"
  type: "Dropout"
  bottom: "loss1/fc"
  top: "loss1/fc"
  dropout_param {
    dropout_ratio: 0.2
  }
}
layer {
  name: "stanford_cars_loss1/classifier"
  type: "InnerProduct"
  bottom: "loss1/fc"
  top: "stanford_cars_loss1/classifier"
  param {
    lr_mult: 1
    decay_mult: 1
  }
  param {
    lr_mult: 2
    decay_mult: 0
  }
  inner_product_param {
    num_output: 196
    weight_filler {
      type: "xavier"
      std: 0.0009765625
    }
    bias_filler {
      type: "constant"
      value: 0
    }
  }
}
layer {
  name: "loss1/loss"
  type: "SoftmaxWithLoss"
  bottom: "stanford_cars_loss1/classifier"
  bottom: "label"
  top: "loss1/loss1"
  loss_weight: 0.3
}
layer {
  name: "inception_4b/1x1"
  type: "Convolution"
  bottom: "inception_4a/output"
  top: "inception_4b/1x1"
  param {
    lr_mult: 1
    decay_mult: 1
  }
  param {
    lr_mult: 2
    decay_mult: 0
  }
  convolution_param {
    num_output: 160
    kernel_size: 1
    weight_filler {
      type: "xavier"
      std: 0.03
    }
    bias_filler {
      type: "constant"
      value: 0.2
    }
  }
}
layer {
  name: "inception_4b/relu_1x1"
  type: "ReLU"
  bottom: "inception_4b/1x1"
  top: "inception_4b/1x1"
}
layer {
  name: "inception_4b/3x3_reduce"
  type: "Convolution"
  bottom: "inception_4a/output"
  top: "inception_4b/3x3_reduce"
  param {
    lr_mult: 1
    decay_mult: 1
  }
  param {
    lr_mult: 2
    decay_mult: 0
  }
  convolution_param {
    num_output: 112
    kernel_size: 1
    weight_filler {
      type: "xavier"
      std: 0.09
    }
    bias_filler {
      type: "constant"
      value: 0.2
    }
  }
}
layer {
  name: "inception_4b/relu_3x3_reduce"
  type: "ReLU"
  bottom: "inception_4b/3x3_reduce"
  top: "inception_4b/3x3_reduce"
}
layer {
  name: "inception_4b/3x3"
  type: "Convolution"
  bottom: "inception_4b/3x3_reduce"
  top: "inception_4b/3x3"
  param {
    lr_mult: 1
    decay_mult: 1
  }
  param {
    lr_mult: 2
    decay_mult: 0
  }
  convolution_param {
    num_output: 224
    pad: 1
    kernel_size: 3
    weight_filler {
      type: "xavier"
      std: 0.03
    }
    bias_filler {
      type: "constant"
      value: 0.2
    }
  }
}
layer {
  name: "inception_4b/relu_3x3"
  type: "ReLU"
  bottom: "inception_4b/3x3"
  top: "inception_4b/3x3"
}
layer {
  name: "inception_4b/5x5_reduce"
  type: "Convolution"
  bottom: "inception_4a/output"
  top: "inception_4b/5x5_reduce"
  param {
    lr_mult: 1
    decay_mult: 1
  }
  param {
    lr_mult: 2
    decay_mult: 0
  }
  convolution_param {
    num_output: 24
    kernel_size: 1
    weight_filler {
      type: "xavier"
      std: 0.2
    }
    bias_filler {
      type: "constant"
      value: 0.2
    }
  }
}
layer {
  name: "inception_4b/relu_5x5_reduce"
  type: "ReLU"
  bottom: "inception_4b/5x5_reduce"
  top: "inception_4b/5x5_reduce"
}
layer {
  name: "inception_4b/5x5"
  type: "Convolution"
  bottom: "inception_4b/5x5_reduce"
  top: "inception_4b/5x5"
  param {
    lr_mult: 1
    decay_mult: 1
  }
  param {
    lr_mult: 2
    decay_mult: 0
  }
  convolution_param {
    num_output: 64
    pad: 2
    kernel_size: 5
    weight_filler {
      type: "xavier"
      std: 0.03
    }
    bias_filler {
      type: "constant"
      value: 0.2
    }
  }
}
layer {
  name: "inception_4b/relu_5x5"
  type: "ReLU"
  bottom: "inception_4b/5x5"
  top: "inception_4b/5x5"
}
layer {
  name: "inception_4b/pool"
  type: "Pooling"
  bottom: "inception_4a/output"
  top: "inception_4b/pool"
  pooling_param {
    pool: MAX
    kernel_size: 3
    stride: 1
    pad: 1
  }
}
layer {
  name: "inception_4b/pool_proj"
  type: "Convolution"
  bottom: "inception_4b/pool"
  top: "inception_4b/pool_proj"
  param {
    lr_mult: 1
    decay_mult: 1
  }
  param {
    lr_mult: 2
    decay_mult: 0
  }
  convolution_param {
    num_output: 64
    kernel_size: 1
    weight_filler {
      type: "xavier"
      std: 0.1
    }
    bias_filler {
      type: "constant"
      value: 0.2
    }
  }
}
layer {
  name: "inception_4b/relu_pool_proj"
  type: "ReLU"
  bottom: "inception_4b/pool_proj"
  top: "inception_4b/pool_proj"
}
layer {
  name: "inception_4b/output"
  type: "Concat"
  bottom: "inception_4b/1x1"
  bottom: "inception_4b/3x3"
  bottom: "inception_4b/5x5"
  bottom: "inception_4b/pool_proj"
  top: "inception_4b/output"
}
layer {
  name: "inception_4c/1x1"
  type: "Convolution"
  bottom: "inception_4b/output"
  top: "inception_4c/1x1"
  param {
    lr_mult: 1
    decay_mult: 1
  }
  param {
    lr_mult: 2
    decay_mult: 0
  }
  convolution_param {
    num_output: 128
    kernel_size: 1
    weight_filler {
      type: "xavier"
      std: 0.03
    }
    bias_filler {
      type: "constant"
      value: 0.2
    }
  }
}
layer {
  name: "inception_4c/relu_1x1"
  type: "ReLU"
  bottom: "inception_4c/1x1"
  top: "inception_4c/1x1"
}
layer {
  name: "inception_4c/3x3_reduce"
  type: "Convolution"
  bottom: "inception_4b/output"
  top: "inception_4c/3x3_reduce"
  param {
    lr_mult: 1
    decay_mult: 1
  }
  param {
    lr_mult: 2
    decay_mult: 0
  }
  convolution_param {
    num_output: 128
    kernel_size: 1
    weight_filler {
      type: "xavier"
      std: 0.09
    }
    bias_filler {
      type: "constant"
      value: 0.2
    }
  }
}
layer {
  name: "inception_4c/relu_3x3_reduce"
  type: "ReLU"
  bottom: "inception_4c/3x3_reduce"
  top: "inception_4c/3x3_reduce"
}
layer {
  name: "inception_4c/3x3"
  type: "Convolution"
  bottom: "inception_4c/3x3_reduce"
  top: "inception_4c/3x3"
  param {
    lr_mult: 1
    decay_mult: 1
  }
  param {
    lr_mult: 2
    decay_mult: 0
  }
  convolution_param {
    num_output: 256
    pad: 1
    kernel_size: 3
    weight_filler {
      type: "xavier"
      std: 0.03
    }
    bias_filler {
      type: "constant"
      value: 0.2
    }
  }
}
layer {
  name: "inception_4c/relu_3x3"
  type: "ReLU"
  bottom: "inception_4c/3x3"
  top: "inception_4c/3x3"
}
layer {
  name: "inception_4c/5x5_reduce"
  type: "Convolution"
  bottom: "inception_4b/output"
  top: "inception_4c/5x5_reduce"
  param {
    lr_mult: 1
    decay_mult: 1
  }
  param {
    lr_mult: 2
    decay_mult: 0
  }
  convolution_param {
    num_output: 24
    kernel_size: 1
    weight_filler {
      type: "xavier"
      std: 0.2
    }
    bias_filler {
      type: "constant"
      value: 0.2
    }
  }
}
layer {
  name: "inception_4c/relu_5x5_reduce"
  type: "ReLU"
  bottom: "inception_4c/5x5_reduce"
  top: "inception_4c/5x5_reduce"
}
layer {
  name: "inception_4c/5x5"
  type: "Convolution"
  bottom: "inception_4c/5x5_reduce"
  top: "inception_4c/5x5"
  param {
    lr_mult: 1
    decay_mult: 1
  }
  param {
    lr_mult: 2
    decay_mult: 0
  }
  convolution_param {
    num_output: 64
    pad: 2
    kernel_size: 5
    weight_filler {
      type: "xavier"
      std: 0.03
    }
    bias_filler {
      type: "constant"
      value: 0.2
    }
  }
}
layer {
  name: "inception_4c/relu_5x5"
  type: "ReLU"
  bottom: "inception_4c/5x5"
  top: "inception_4c/5x5"
}
layer {
  name: "inception_4c/pool"
  type: "Pooling"
  bottom: "inception_4b/output"
  top: "inception_4c/pool"
  pooling_param {
    pool: MAX
    kernel_size: 3
    stride: 1
    pad: 1
  }
}
layer {
  name: "inception_4c/pool_proj"
  type: "Convolution"
  bottom: "inception_4c/pool"
  top: "inception_4c/pool_proj"
  param {
    lr_mult: 1
    decay_mult: 1
  }
  param {
    lr_mult: 2
    decay_mult: 0
  }
  convolution_param {
    num_output: 64
    kernel_size: 1
    weight_filler {
      type: "xavier"
      std: 0.1
    }
    bias_filler {
      type: "constant"
      value: 0.2
    }
  }
}
layer {
  name: "inception_4c/relu_pool_proj"
  type: "ReLU"
  bottom: "inception_4c/pool_proj"
  top: "inception_4c/pool_proj"
}
layer {
  name: "inception_4c/output"
  type: "Concat"
  bottom: "inception_4c/1x1"
  bottom: "inception_4c/3x3"
  bottom: "inception_4c/5x5"
  bottom: "inception_4c/pool_proj"
  top: "inception_4c/output"
}
layer {
  name: "inception_4d/1x1"
  type: "Convolution"
  bottom: "inception_4c/output"
  top: "inception_4d/1x1"
  param {
    lr_mult: 1
    decay_mult: 1
  }
  param {
    lr_mult: 2
    decay_mult: 0
  }
  convolution_param {
    num_output: 112
    kernel_size: 1
    weight_filler {
      type: "xavier"
      std: 0.03
    }
    bias_filler {
      type: "constant"
      value: 0.2
    }
  }
}
layer {
  name: "inception_4d/relu_1x1"
  type: "ReLU"
  bottom: "inception_4d/1x1"
  top: "inception_4d/1x1"
}
layer {
  name: "inception_4d/3x3_reduce"
  type: "Convolution"
  bottom: "inception_4c/output"
  top: "inception_4d/3x3_reduce"
  param {
    lr_mult: 1
    decay_mult: 1
  }
  param {
    lr_mult: 2
    decay_mult: 0
  }
  convolution_param {
    num_output: 144
    kernel_size: 1
    weight_filler {
      type: "xavier"
      std: 0.09
    }
    bias_filler {
      type: "constant"
      value: 0.2
    }
  }
}
layer {
  name: "inception_4d/relu_3x3_reduce"
  type: "ReLU"
  bottom: "inception_4d/3x3_reduce"
  top: "inception_4d/3x3_reduce"
}
layer {
  name: "inception_4d/3x3"
  type: "Convolution"
  bottom: "inception_4d/3x3_reduce"
  top: "inception_4d/3x3"
  param {
    lr_mult: 1
    decay_mult: 1
  }
  param {
    lr_mult: 2
    decay_mult: 0
  }
  convolution_param {
    num_output: 288
    pad: 1
    kernel_size: 3
    weight_filler {
      type: "xavier"
      std: 0.03
    }
    bias_filler {
      type: "constant"
      value: 0.2
    }
  }
}
layer {
  name: "inception_4d/relu_3x3"
  type: "ReLU"
  bottom: "inception_4d/3x3"
  top: "inception_4d/3x3"
}
layer {
  name: "inception_4d/5x5_reduce"
  type: "Convolution"
  bottom: "inception_4c/output"
  top: "inception_4d/5x5_reduce"
  param {
    lr_mult: 1
    decay_mult: 1
  }
  param {
    lr_mult: 2
    decay_mult: 0
  }
  convolution_param {
    num_output: 32
    kernel_size: 1
    weight_filler {
      type: "xavier"
      std: 0.2
    }
    bias_filler {
      type: "constant"
      value: 0.2
    }
  }
}
layer {
  name: "inception_4d/relu_5x5_reduce"
  type: "ReLU"
  bottom: "inception_4d/5x5_reduce"
  top: "inception_4d/5x5_reduce"
}
layer {
  name: "inception_4d/5x5"
  type: "Convolution"
  bottom: "inception_4d/5x5_reduce"
  top: "inception_4d/5x5"
  param {
    lr_mult: 1
    decay_mult: 1
  }
  param {
    lr_mult: 2
    decay_mult: 0
  }
  convolution_param {
    num_output: 64
    pad: 2
    kernel_size: 5
    weight_filler {
      type: "xavier"
      std: 0.03
    }
    bias_filler {
      type: "constant"
      value: 0.2
    }
  }
}
layer {
  name: "inception_4d/relu_5x5"
  type: "ReLU"
  bottom: "inception_4d/5x5"
  top: "inception_4d/5x5"
}
layer {
  name: "inception_4d/pool"
  type: "Pooling"
  bottom: "inception_4c/output"
  top: "inception_4d/pool"
  pooling_param {
    pool: MAX
    kernel_size: 3
    stride: 1
    pad: 1
  }
}
layer {
  name: "inception_4d/pool_proj"
  type: "Convolution"
  bottom: "inception_4d/pool"
  top: "inception_4d/pool_proj"
  param {
    lr_mult: 1
    decay_mult: 1
  }
  param {
    lr_mult: 2
    decay_mult: 0
  }
  convolution_param {
    num_output: 64
    kernel_size: 1
    weight_filler {
      type: "xavier"
      std: 0.1
    }
    bias_filler {
      type: "constant"
      value: 0.2
    }
  }
}
layer {
  name: "inception_4d/relu_pool_proj"
  type: "ReLU"
  bottom: "inception_4d/pool_proj"
  top: "inception_4d/pool_proj"
}
layer {
  name: "inception_4d/output"
  type: "Concat"
  bottom: "inception_4d/1x1"
  bottom: "inception_4d/3x3"
  bottom: "inception_4d/5x5"
  bottom: "inception_4d/pool_proj"
  top: "inception_4d/output"
}
layer {
  name: "loss2/ave_pool"
  type: "Pooling"
  bottom: "inception_4d/output"
  top: "loss2/ave_pool"
  pooling_param {
    pool: AVE
    kernel_size: 5
    stride: 3
  }
}
layer {
  name: "loss2/conv"
  type: "Convolution"
  bottom: "loss2/ave_pool"
  top: "loss2/conv"
  param {
    lr_mult: 1
    decay_mult: 1
  }
  param {
    lr_mult: 2
    decay_mult: 0
  }
  convolution_param {
    num_output: 128
    kernel_size: 1
    weight_filler {
      type: "xavier"
      std: 0.08
    }
    bias_filler {
      type: "constant"
      value: 0.2
    }
  }
}
layer {
  name: "loss2/relu_conv"
  type: "ReLU"
  bottom: "loss2/conv"
  top: "loss2/conv"
}
layer {
  name: "loss2/fc"
  type: "InnerProduct"
  bottom: "loss2/conv"
  top: "loss2/fc"
  param {
    lr_mult: 1
    decay_mult: 1
  }
  param {
    lr_mult: 2
    decay_mult: 0
  }
  inner_product_param {
    num_output: 1024
    weight_filler {
      type: "xavier"
      std: 0.02
    }
    bias_filler {
      type: "constant"
      value: 0.2
    }
  }
}
layer {
  name: "loss2/relu_fc"
  type: "ReLU"
  bottom: "loss2/fc"
  top: "loss2/fc"
}
layer {
  name: "loss2/drop_fc"
  type: "Dropout"
  bottom: "loss2/fc"
  top: "loss2/fc"
  dropout_param {
    dropout_ratio: 0.2
  }
}
layer {
  name: "stanford_cars_loss2/classifier"
  type: "InnerProduct"
  bottom: "loss2/fc"
  top: "stanford_cars_loss2/classifier"
  param {
    lr_mult: 1
    decay_mult: 1
  }
  param {
    lr_mult: 2
    decay_mult: 0
  }
  inner_product_param {
    num_output: 196
    weight_filler {
      type: "xavier"
      std: 0.0009765625
    }
    bias_filler {
      type: "constant"
      value: 0
    }
  }
}
layer {
  name: "stanford_cars_loss2/loss"
  type: "SoftmaxWithLoss"
  bottom: "stanford_cars_loss2/classifier"
  bottom: "label"
  top: "loss2/loss1"
  loss_weight: 0.3
}
layer {
  name: "inception_4e/1x1"
  type: "Convolution"
  bottom: "inception_4d/output"
  top: "inception_4e/1x1"
  param {
    lr_mult: 1
    decay_mult: 1
  }
  param {
    lr_mult: 2
    decay_mult: 0
  }
  convolution_param {
    num_output: 256
    kernel_size: 1
    weight_filler {
      type: "xavier"
      std: 0.03
    }
    bias_filler {
      type: "constant"
      value: 0.2
    }
  }
}
layer {
  name: "inception_4e/relu_1x1"
  type: "ReLU"
  bottom: "inception_4e/1x1"
  top: "inception_4e/1x1"
}
layer {
  name: "inception_4e/3x3_reduce"
  type: "Convolution"
  bottom: "inception_4d/output"
  top: "inception_4e/3x3_reduce"
  param {
    lr_mult: 1
    decay_mult: 1
  }
  param {
    lr_mult: 2
    decay_mult: 0
  }
  convolution_param {
    num_output: 160
    kernel_size: 1
    weight_filler {
      type: "xavier"
      std: 0.09
    }
    bias_filler {
      type: "constant"
      value: 0.2
    }
  }
}
layer {
  name: "inception_4e/relu_3x3_reduce"
  type: "ReLU"
  bottom: "inception_4e/3x3_reduce"
  top: "inception_4e/3x3_reduce"
}
layer {
  name: "inception_4e/3x3"
  type: "Convolution"
  bottom: "inception_4e/3x3_reduce"
  top: "inception_4e/3x3"
  param {
    lr_mult: 1
    decay_mult: 1
  }
  param {
    lr_mult: 2
    decay_mult: 0
  }
  convolution_param {
    num_output: 320
    pad: 1
    kernel_size: 3
    weight_filler {
      type: "xavier"
      std: 0.03
    }
    bias_filler {
      type: "constant"
      value: 0.2
    }
  }
}
layer {
  name: "inception_4e/relu_3x3"
  type: "ReLU"
  bottom: "inception_4e/3x3"
  top: "inception_4e/3x3"
}
layer {
  name: "inception_4e/5x5_reduce"
  type: "Convolution"
  bottom: "inception_4d/output"
  top: "inception_4e/5x5_reduce"
  param {
    lr_mult: 1
    decay_mult: 1
  }
  param {
    lr_mult: 2
    decay_mult: 0
  }
  convolution_param {
    num_output: 32
    kernel_size: 1
    weight_filler {
      type: "xavier"
      std: 0.2
    }
    
I0704 15:10:35.348019 22197 layer_factory.hpp:74] Creating layer data
I0704 15:10:35.348045 22197 net.cpp:90] Creating Layer data
I0704 15:10:35.348062 22197 net.cpp:368] data -> data
I0704 15:10:35.348093 22197 net.cpp:368] data -> label
I0704 15:10:35.348109 22197 net.cpp:120] Setting up data
I0704 15:10:35.348168 22197 db.cpp:34] Opened lmdb examples/stanford_cars/stanford_cars_train_lmdb
I0704 15:10:35.348322 22197 data_layer.cpp:67] output data size: 30,3,224,224
I0704 15:10:35.350661 22197 net.cpp:127] Top shape: 30 3 224 224 (4515840)
I0704 15:10:35.350688 22197 net.cpp:127] Top shape: 30 (30)
I0704 15:10:35.350700 22197 layer_factory.hpp:74] Creating layer label_data_1_split
I0704 15:10:35.350719 22197 net.cpp:90] Creating Layer label_data_1_split
I0704 15:10:35.350731 22197 net.cpp:410] label_data_1_split <- label
I0704 15:10:35.350750 22197 net.cpp:368] label_data_1_split -> label_data_1_split_0
I0704 15:10:35.350766 22197 net.cpp:368] label_data_1_split -> label_data_1_split_1
I0704 15:10:35.350780 22197 net.cpp:368] label_data_1_split -> label_data_1_split_2
I0704 15:10:35.350791 22197 net.cpp:120] Setting up label_data_1_split
I0704 15:10:35.350807 22197 net.cpp:127] Top shape: 30 (30)
I0704 15:10:35.350839 22197 net.cpp:127] Top shape: 30 (30)
I0704 15:10:35.350850 22197 net.cpp:127] Top shape: 30 (30)
I0704 15:10:35.350859 22197 layer_factory.hpp:74] Creating layer conv1/7x7_s2
I0704 15:10:35.350878 22197 net.cpp:90] Creating Layer conv1/7x7_s2
I0704 15:10:35.350886 22197 net.cpp:410] conv1/7x7_s2 <- data
I0704 15:10:35.350898 22197 net.cpp:368] conv1/7x7_s2 -> conv1/7x7_s2
I0704 15:10:35.350914 22197 net.cpp:120] Setting up conv1/7x7_s2
I0704 15:10:35.381211 22197 net.cpp:127] Top shape: 30 64 112 112 (24084480)
I0704 15:10:35.381248 22197 layer_factory.hpp:74] Creating layer conv1/relu_7x7
I0704 15:10:35.381265 22197 net.cpp:90] Creating Layer conv1/relu_7x7
I0704 15:10:35.381275 22197 net.cpp:410] conv1/relu_7x7 <- conv1/7x7_s2
I0704 15:10:35.381288 22197 net.cpp:357] conv1/relu_7x7 -> conv1/7x7_s2 (in-place)
I0704 15:10:35.381300 22197 net.cpp:120] Setting up conv1/relu_7x7
I0704 15:10:35.381356 22197 net.cpp:127] Top shape: 30 64 112 112 (24084480)
I0704 15:10:35.381367 22197 layer_factory.hpp:74] Creating layer pool1/3x3_s2
I0704 15:10:35.381384 22197 net.cpp:90] Creating Layer pool1/3x3_s2
I0704 15:10:35.381393 22197 net.cpp:410] pool1/3x3_s2 <- conv1/7x7_s2
I0704 15:10:35.381404 22197 net.cpp:368] pool1/3x3_s2 -> pool1/3x3_s2
I0704 15:10:35.381417 22197 net.cpp:120] Setting up pool1/3x3_s2
I0704 15:10:35.381547 22197 net.cpp:127] Top shape: 30 64 56 56 (6021120)
I0704 15:10:35.381561 22197 layer_factory.hpp:74] Creating layer pool1/norm1
I0704 15:10:35.381573 22197 net.cpp:90] Creating Layer pool1/norm1
I0704 15:10:35.381582 22197 net.cpp:410] pool1/norm1 <- pool1/3x3_s2
I0704 15:10:35.381593 22197 net.cpp:368] pool1/norm1 -> pool1/norm1
I0704 15:10:35.381606 22197 net.cpp:120] Setting up pool1/norm1
I0704 15:10:35.381620 22197 net.cpp:127] Top shape: 30 64 56 56 (6021120)
I0704 15:10:35.381630 22197 layer_factory.hpp:74] Creating layer conv2/3x3_reduce
I0704 15:10:35.381644 22197 net.cpp:90] Creating Layer conv2/3x3_reduce
I0704 15:10:35.381652 22197 net.cpp:410] conv2/3x3_reduce <- pool1/norm1
I0704 15:10:35.381664 22197 net.cpp:368] conv2/3x3_reduce -> conv2/3x3_reduce
I0704 15:10:35.381678 22197 net.cpp:120] Setting up conv2/3x3_reduce
I0704 15:10:35.381898 22197 net.cpp:127] Top shape: 30 64 56 56 (6021120)
I0704 15:10:35.381916 22197 layer_factory.hpp:74] Creating layer conv2/relu_3x3_reduce
I0704 15:10:35.381927 22197 net.cpp:90] Creating Layer conv2/relu_3x3_reduce
I0704 15:10:35.381937 22197 net.cpp:410] conv2/relu_3x3_reduce <- conv2/3x3_reduce
I0704 15:10:35.381948 22197 net.cpp:357] conv2/relu_3x3_reduce -> conv2/3x3_reduce (in-place)
I0704 15:10:35.381959 22197 net.cpp:120] Setting up conv2/relu_3x3_reduce
I0704 15:10:35.382010 22197 net.cpp:127] Top shape: 30 64 56 56 (6021120)
I0704 15:10:35.382021 22197 layer_factory.hpp:74] Creating layer conv2/3x3
I0704 15:10:35.382035 22197 net.cpp:90] Creating Layer conv2/3x3
I0704 15:10:35.382043 22197 net.cpp:410] conv2/3x3 <- conv2/3x3_reduce
I0704 15:10:35.382055 22197 net.cpp:368] conv2/3x3 -> conv2/3x3
I0704 15:10:35.382067 22197 net.cpp:120] Setting up conv2/3x3
I0704 15:10:35.382803 22197 net.cpp:127] Top shape: 30 192 56 56 (18063360)
I0704 15:10:35.382822 22197 layer_factory.hpp:74] Creating layer conv2/relu_3x3
I0704 15:10:35.382833 22197 net.cpp:90] Creating Layer conv2/relu_3x3
I0704 15:10:35.382843 22197 net.cpp:410] conv2/relu_3x3 <- conv2/3x3
I0704 15:10:35.382853 22197 net.cpp:357] conv2/relu_3x3 -> conv2/3x3 (in-place)
I0704 15:10:35.382864 22197 net.cpp:120] Setting up conv2/relu_3x3
I0704 15:10:35.382915 22197 net.cpp:127] Top shape: 30 192 56 56 (18063360)
I0704 15:10:35.382925 22197 layer_factory.hpp:74] Creating layer conv2/norm2
I0704 15:10:35.382936 22197 net.cpp:90] Creating Layer conv2/norm2
I0704 15:10:35.382946 22197 net.cpp:410] conv2/norm2 <- conv2/3x3
I0704 15:10:35.382956 22197 net.cpp:368] conv2/norm2 -> conv2/norm2
I0704 15:10:35.382967 22197 net.cpp:120] Setting up conv2/norm2
I0704 15:10:35.382979 22197 net.cpp:127] Top shape: 30 192 56 56 (18063360)
I0704 15:10:35.382988 22197 layer_factory.hpp:74] Creating layer pool2/3x3_s2
I0704 15:10:35.383019 22197 net.cpp:90] Creating Layer pool2/3x3_s2
I0704 15:10:35.383029 22197 net.cpp:410] pool2/3x3_s2 <- conv2/norm2
I0704 15:10:35.383040 22197 net.cpp:368] pool2/3x3_s2 -> pool2/3x3_s2
I0704 15:10:35.383052 22197 net.cpp:120] Setting up pool2/3x3_s2
I0704 15:10:35.383102 22197 net.cpp:127] Top shape: 30 192 28 28 (4515840)
I0704 15:10:35.383112 22197 layer_factory.hpp:74] Creating layer pool2/3x3_s2_pool2/3x3_s2_0_split
I0704 15:10:35.383124 22197 net.cpp:90] Creating Layer pool2/3x3_s2_pool2/3x3_s2_0_split
I0704 15:10:35.383133 22197 net.cpp:410] pool2/3x3_s2_pool2/3x3_s2_0_split <- pool2/3x3_s2
I0704 15:10:35.383143 22197 net.cpp:368] pool2/3x3_s2_pool2/3x3_s2_0_split -> pool2/3x3_s2_pool2/3x3_s2_0_split_0
I0704 15:10:35.383157 22197 net.cpp:368] pool2/3x3_s2_pool2/3x3_s2_0_split -> pool2/3x3_s2_pool2/3x3_s2_0_split_1
I0704 15:10:35.383168 22197 net.cpp:368] pool2/3x3_s2_pool2/3x3_s2_0_split -> pool2/3x3_s2_pool2/3x3_s2_0_split_2
I0704 15:10:35.383180 22197 net.cpp:368] pool2/3x3_s2_pool2/3x3_s2_0_split -> pool2/3x3_s2_pool2/3x3_s2_0_split_3
I0704 15:10:35.383190 22197 net.cpp:120] Setting up pool2/3x3_s2_pool2/3x3_s2_0_split
I0704 15:10:35.383203 22197 net.cpp:127] Top shape: 30 192 28 28 (4515840)
I0704 15:10:35.383211 22197 net.cpp:127] Top shape: 30 192 28 28 (4515840)
I0704 15:10:35.383220 22197 net.cpp:127] Top shape: 30 192 28 28 (4515840)
I0704 15:10:35.383229 22197 net.cpp:127] Top shape: 30 192 28 28 (4515840)
I0704 15:10:35.383239 22197 layer_factory.hpp:74] Creating layer inception_3a/1x1
I0704 15:10:35.383249 22197 net.cpp:90] Creating Layer inception_3a/1x1
I0704 15:10:35.383257 22197 net.cpp:410] inception_3a/1x1 <- pool2/3x3_s2_pool2/3x3_s2_0_split_0
I0704 15:10:35.383270 22197 net.cpp:368] inception_3a/1x1 -> inception_3a/1x1
I0704 15:10:35.383281 22197 net.cpp:120] Setting up inception_3a/1x1
I0704 15:10:35.383545 22197 net.cpp:127] Top shape: 30 64 28 28 (1505280)
I0704 15:10:35.383561 22197 layer_factory.hpp:74] Creating layer inception_3a/relu_1x1
I0704 15:10:35.383572 22197 net.cpp:90] Creating Layer inception_3a/relu_1x1
I0704 15:10:35.383582 22197 net.cpp:410] inception_3a/relu_1x1 <- inception_3a/1x1
I0704 15:10:35.383594 22197 net.cpp:357] inception_3a/relu_1x1 -> inception_3a/1x1 (in-place)
I0704 15:10:35.383605 22197 net.cpp:120] Setting up inception_3a/relu_1x1
I0704 15:10:35.383719 22197 net.cpp:127] Top shape: 30 64 28 28 (1505280)
I0704 15:10:35.383731 22197 layer_factory.hpp:74] Creating layer inception_3a/3x3_reduce
I0704 15:10:35.383744 22197 net.cpp:90] Creating Layer inception_3a/3x3_reduce
I0704 15:10:35.383754 22197 net.cpp:410] inception_3a/3x3_reduce <- pool2/3x3_s2_pool2/3x3_s2_0_split_1
I0704 15:10:35.383765 22197 net.cpp:368] inception_3a/3x3_reduce -> inception_3a/3x3_reduce
I0704 15:10:35.383779 22197 net.cpp:120] Setting up inception_3a/3x3_reduce
I0704 15:10:35.384057 22197 net.cpp:127] Top shape: 30 96 28 28 (2257920)
I0704 15:10:35.384074 22197 layer_factory.hpp:74] Creating layer inception_3a/relu_3x3_reduce
I0704 15:10:35.384086 22197 net.cpp:90] Creating Layer inception_3a/relu_3x3_reduce
I0704 15:10:35.384096 22197 net.cpp:410] inception_3a/relu_3x3_reduce <- inception_3a/3x3_reduce
I0704 15:10:35.384107 22197 net.cpp:357] inception_3a/relu_3x3_reduce -> inception_3a/3x3_reduce (in-place)
I0704 15:10:35.384119 22197 net.cpp:120] Setting up inception_3a/relu_3x3_reduce
I0704 15:10:35.384169 22197 net.cpp:127] Top shape: 30 96 28 28 (2257920)
I0704 15:10:35.384181 22197 layer_factory.hpp:74] Creating layer inception_3a/3x3
I0704 15:10:35.384191 22197 net.cpp:90] Creating Layer inception_3a/3x3
I0704 15:10:35.384202 22197 net.cpp:410] inception_3a/3x3 <- inception_3a/3x3_reduce
I0704 15:10:35.384212 22197 net.cpp:368] inception_3a/3x3 -> inception_3a/3x3
I0704 15:10:35.384225 22197 net.cpp:120] Setting up inception_3a/3x3
I0704 15:10:35.384975 22197 net.cpp:127] Top shape: 30 128 28 28 (3010560)
I0704 15:10:35.384991 22197 layer_factory.hpp:74] Creating layer inception_3a/relu_3x3
I0704 15:10:35.385004 22197 net.cpp:90] Creating Layer inception_3a/relu_3x3
I0704 15:10:35.385022 22197 net.cpp:410] inception_3a/relu_3x3 <- inception_3a/3x3
I0704 15:10:35.385035 22197 net.cpp:357] inception_3a/relu_3x3 -> inception_3a/3x3 (in-place)
I0704 15:10:35.385046 22197 net.cpp:120] Setting up inception_3a/relu_3x3
I0704 15:10:35.385098 22197 net.cpp:127] Top shape: 30 128 28 28 (3010560)
I0704 15:10:35.385108 22197 layer_factory.hpp:74] Creating layer inception_3a/5x5_reduce
I0704 15:10:35.385121 22197 net.cpp:90] Creating Layer inception_3a/5x5_reduce
I0704 15:10:35.385131 22197 net.cpp:410] inception_3a/5x5_reduce <- pool2/3x3_s2_pool2/3x3_s2_0_split_2
I0704 15:10:35.385144 22197 net.cpp:368] inception_3a/5x5_reduce -> inception_3a/5x5_reduce
I0704 15:10:35.385156 22197 net.cpp:120] Setting up inception_3a/5x5_reduce
I0704 15:10:35.385385 22197 net.cpp:127] Top shape: 30 16 28 28 (376320)
I0704 15:10:35.385401 22197 layer_factory.hpp:74] Creating layer inception_3a/relu_5x5_reduce
I0704 15:10:35.385411 22197 net.cpp:90] Creating Layer inception_3a/relu_5x5_reduce
I0704 15:10:35.385421 22197 net.cpp:410] inception_3a/relu_5x5_reduce <- inception_3a/5x5_reduce
I0704 15:10:35.385432 22197 net.cpp:357] inception_3a/relu_5x5_reduce -> inception_3a/5x5_reduce (in-place)
I0704 15:10:35.385442 22197 net.cpp:120] Setting up inception_3a/relu_5x5_reduce
I0704 15:10:35.385566 22197 net.cpp:127] Top shape: 30 16 28 28 (376320)
I0704 15:10:35.385578 22197 layer_factory.hpp:74] Creating layer inception_3a/5x5
I0704 15:10:35.385591 22197 net.cpp:90] Creating Layer inception_3a/5x5
I0704 15:10:35.385599 22197 net.cpp:410] inception_3a/5x5 <- inception_3a/5x5_reduce
I0704 15:10:35.385614 22197 net.cpp:368] inception_3a/5x5 -> inception_3a/5x5
I0704 15:10:35.385627 22197 net.cpp:120] Setting up inception_3a/5x5
I0704 15:10:35.385895 22197 net.cpp:127] Top shape: 30 32 28 28 (752640)
I0704 15:10:35.385910 22197 layer_factory.hpp:74] Creating layer inception_3a/relu_5x5
I0704 15:10:35.385921 22197 net.cpp:90] Creating Layer inception_3a/relu_5x5
I0704 15:10:35.385931 22197 net.cpp:410] inception_3a/relu_5x5 <- inception_3a/5x5
I0704 15:10:35.385942 22197 net.cpp:357] inception_3a/relu_5x5 -> inception_3a/5x5 (in-place)
I0704 15:10:35.385952 22197 net.cpp:120] Setting up inception_3a/relu_5x5
I0704 15:10:35.386008 22197 net.cpp:127] Top shape: 30 32 28 28 (752640)
I0704 15:10:35.386018 22197 layer_factory.hpp:74] Creating layer inception_3a/pool
I0704 15:10:35.386028 22197 layer_factory.cpp:55] CUDNN does not support padding or multiple tops. Using Caffe's own pooling layer.
I0704 15:10:35.386037 22197 net.cpp:90] Creating Layer inception_3a/pool
I0704 15:10:35.386046 22197 net.cpp:410] inception_3a/pool <- pool2/3x3_s2_pool2/3x3_s2_0_split_3
I0704 15:10:35.386057 22197 net.cpp:368] inception_3a/pool -> inception_3a/pool
I0704 15:10:35.386068 22197 net.cpp:120] Setting up inception_3a/pool
I0704 15:10:35.386081 22197 net.cpp:127] Top shape: 30 192 28 28 (4515840)
I0704 15:10:35.386090 22197 layer_factory.hpp:74] Creating layer inception_3a/pool_proj
I0704 15:10:35.386103 22197 net.cpp:90] Creating Layer inception_3a/pool_proj
I0704 15:10:35.386112 22197 net.cpp:410] inception_3a/pool_proj <- inception_3a/pool
I0704 15:10:35.386124 22197 net.cpp:368] inception_3a/pool_proj -> inception_3a/pool_proj
I0704 15:10:35.386137 22197 net.cpp:120] Setting up inception_3a/pool_proj
I0704 15:10:35.386376 22197 net.cpp:127] Top shape: 30 32 28 28 (752640)
I0704 15:10:35.386394 22197 layer_factory.hpp:74] Creating layer inception_3a/relu_pool_proj
I0704 15:10:35.386406 22197 net.cpp:90] Creating Layer inception_3a/relu_pool_proj
I0704 15:10:35.386415 22197 net.cpp:410] inception_3a/relu_pool_proj <- inception_3a/pool_proj
I0704 15:10:35.386425 22197 net.cpp:357] inception_3a/relu_pool_proj -> inception_3a/pool_proj (in-place)
I0704 15:10:35.386436 22197 net.cpp:120] Setting up inception_3a/relu_pool_proj
I0704 15:10:35.386492 22197 net.cpp:127] Top shape: 30 32 28 28 (752640)
I0704 15:10:35.386502 22197 layer_factory.hpp:74] Creating layer inception_3a/output
I0704 15:10:35.386523 22197 net.cpp:90] Creating Layer inception_3a/output
I0704 15:10:35.386533 22197 net.cpp:410] inception_3a/output <- inception_3a/1x1
I0704 15:10:35.386543 22197 net.cpp:410] inception_3a/output <- inception_3a/3x3
I0704 15:10:35.386553 22197 net.cpp:410] inception_3a/output <- inception_3a/5x5
I0704 15:10:35.386562 22197 net.cpp:410] inception_3a/output <- inception_3a/pool_proj
I0704 15:10:35.386572 22197 net.cpp:368] inception_3a/output -> inception_3a/output
I0704 15:10:35.386584 22197 net.cpp:120] Setting up inception_3a/output
I0704 15:10:35.386598 22197 net.cpp:127] Top shape: 30 256 28 28 (6021120)
I0704 15:10:35.386607 22197 layer_factory.hpp:74] Creating layer inception_3a/output_inception_3a/output_0_split
I0704 15:10:35.386618 22197 net.cpp:90] Creating Layer inception_3a/output_inception_3a/output_0_split
I0704 15:10:35.386626 22197 net.cpp:410] inception_3a/output_inception_3a/output_0_split <- inception_3a/output
I0704 15:10:35.386639 22197 net.cpp:368] inception_3a/output_inception_3a/output_0_split -> inception_3a/output_inception_3a/output_0_split_0
I0704 15:10:35.386651 22197 net.cpp:368] inception_3a/output_inception_3a/output_0_split -> inception_3a/output_inception_3a/output_0_split_1
I0704 15:10:35.386664 22197 net.cpp:368] inception_3a/output_inception_3a/output_0_split -> inception_3a/output_inception_3a/output_0_split_2
I0704 15:10:35.386675 22197 net.cpp:368] inception_3a/output_inception_3a/output_0_split -> inception_3a/output_inception_3a/output_0_split_3
I0704 15:10:35.386685 22197 net.cpp:120] Setting up inception_3a/output_inception_3a/output_0_split
I0704 15:10:35.386699 22197 net.cpp:127] Top shape: 30 256 28 28 (6021120)
I0704 15:10:35.386708 22197 net.cpp:127] Top shape: 30 256 28 28 (6021120)
I0704 15:10:35.386718 22197 net.cpp:127] Top shape: 30 256 28 28 (6021120)
I0704 15:10:35.386725 22197 net.cpp:127] Top shape: 30 256 28 28 (6021120)
I0704 15:10:35.386734 22197 layer_factory.hpp:74] Creating layer inception_3b/1x1
I0704 15:10:35.386745 22197 net.cpp:90] Creating Layer inception_3b/1x1
I0704 15:10:35.386754 22197 net.cpp:410] inception_3b/1x1 <- inception_3a/output_inception_3a/output_0_split_0
I0704 15:10:35.386765 22197 net.cpp:368] inception_3b/1x1 -> inception_3b/1x1
I0704 15:10:35.386776 22197 net.cpp:120] Setting up inception_3b/1x1
I0704 15:10:35.387157 22197 net.cpp:127] Top shape: 30 128 28 28 (3010560)
I0704 15:10:35.387173 22197 layer_factory.hpp:74] Creating layer inception_3b/relu_1x1
I0704 15:10:35.387187 22197 net.cpp:90] Creating Layer inception_3b/relu_1x1
I0704 15:10:35.387195 22197 net.cpp:410] inception_3b/relu_1x1 <- inception_3b/1x1
I0704 15:10:35.387207 22197 net.cpp:357] inception_3b/relu_1x1 -> inception_3b/1x1 (in-place)
I0704 15:10:35.387217 22197 net.cpp:120] Setting up inception_3b/relu_1x1
I0704 15:10:35.387271 22197 net.cpp:127] Top shape: 30 128 28 28 (3010560)
I0704 15:10:35.387282 22197 layer_factory.hpp:74] Creating layer inception_3b/3x3_reduce
I0704 15:10:35.387295 22197 net.cpp:90] Creating Layer inception_3b/3x3_reduce
I0704 15:10:35.387305 22197 net.cpp:410] inception_3b/3x3_reduce <- inception_3a/output_inception_3a/output_0_split_1
I0704 15:10:35.387327 22197 net.cpp:368] inception_3b/3x3_reduce -> inception_3b/3x3_reduce
I0704 15:10:35.387343 22197 net.cpp:120] Setting up inception_3b/3x3_reduce
I0704 15:10:35.387712 22197 net.cpp:127] Top shape: 30 128 28 28 (3010560)
I0704 15:10:35.387728 22197 layer_factory.hpp:74] Creating layer inception_3b/relu_3x3_reduce
I0704 15:10:35.387739 22197 net.cpp:90] Creating Layer inception_3b/relu_3x3_reduce
I0704 15:10:35.387749 22197 net.cpp:410] inception_3b/relu_3x3_reduce <- inception_3b/3x3_reduce
I0704 15:10:35.387759 22197 net.cpp:357] inception_3b/relu_3x3_reduce -> inception_3b/3x3_reduce (in-place)
I0704 15:10:35.387771 22197 net.cpp:120] Setting up inception_3b/relu_3x3_reduce
I0704 15:10:35.387892 22197 net.cpp:127] Top shape: 30 128 28 28 (3010560)
I0704 15:10:35.387904 22197 layer_factory.hpp:74] Creating layer inception_3b/3x3
I0704 15:10:35.387922 22197 net.cpp:90] Creating Layer inception_3b/3x3
I0704 15:10:35.387941 22197 net.cpp:410] inception_3b/3x3 <- inception_3b/3x3_reduce
I0704 15:10:35.387955 22197 net.cpp:368] inception_3b/3x3 -> inception_3b/3x3
I0704 15:10:35.387969 22197 net.cpp:120] Setting up inception_3b/3x3
I0704 15:10:35.389245 22197 net.cpp:127] Top shape: 30 192 28 28 (4515840)
I0704 15:10:35.389261 22197 layer_factory.hpp:74] Creating layer inception_3b/relu_3x3
I0704 15:10:35.389273 22197 net.cpp:90] Creating Layer inception_3b/relu_3x3
I0704 15:10:35.389283 22197 net.cpp:410] inception_3b/relu_3x3 <- inception_3b/3x3
I0704 15:10:35.389294 22197 net.cpp:357] inception_3b/relu_3x3 -> inception_3b/3x3 (in-place)
I0704 15:10:35.389305 22197 net.cpp:120] Setting up inception_3b/relu_3x3
I0704 15:10:35.389360 22197 net.cpp:127] Top shape: 30 192 28 28 (4515840)
I0704 15:10:35.389371 22197 layer_factory.hpp:74] Creating layer inception_3b/5x5_reduce
I0704 15:10:35.389384 22197 net.cpp:90] Creating Layer inception_3b/5x5_reduce
I0704 15:10:35.389392 22197 net.cpp:410] inception_3b/5x5_reduce <- inception_3a/output_inception_3a/output_0_split_2
I0704 15:10:35.389405 22197 net.cpp:368] inception_3b/5x5_reduce -> inception_3b/5x5_reduce
I0704 15:10:35.389418 22197 net.cpp:120] Setting up inception_3b/5x5_reduce
I0704 15:10:35.389672 22197 net.cpp:127] Top shape: 30 32 28 28 (752640)
I0704 15:10:35.389688 22197 layer_factory.hpp:74] Creating layer inception_3b/relu_5x5_reduce
I0704 15:10:35.389699 22197 net.cpp:90] Creating Layer inception_3b/relu_5x5_reduce
I0704 15:10:35.389708 22197 net.cpp:410] inception_3b/relu_5x5_reduce <- inception_3b/5x5_reduce
I0704 15:10:35.389719 22197 net.cpp:357] inception_3b/relu_5x5_reduce -> inception_3b/5x5_reduce (in-place)
I0704 15:10:35.389731 22197 net.cpp:120] Setting up inception_3b/relu_5x5_reduce
I0704 15:10:35.389785 22197 net.cpp:127] Top shape: 30 32 28 28 (752640)
I0704 15:10:35.389796 22197 layer_factory.hpp:74] Creating layer inception_3b/5x5
I0704 15:10:35.389811 22197 net.cpp:90] Creating Layer inception_3b/5x5
I0704 15:10:35.389819 22197 net.cpp:410] inception_3b/5x5 <- inception_3b/5x5_reduce
I0704 15:10:35.389832 22197 net.cpp:368] inception_3b/5x5 -> inception_3b/5x5
I0704 15:10:35.389847 22197 net.cpp:120] Setting up inception_3b/5x5
I0704 15:10:35.390434 22197 net.cpp:127] Top shape: 30 96 28 28 (2257920)
I0704 15:10:35.390450 22197 layer_factory.hpp:74] Creating layer inception_3b/relu_5x5
I0704 15:10:35.390461 22197 net.cpp:90] Creating Layer inception_3b/relu_5x5
I0704 15:10:35.390471 22197 net.cpp:410] inception_3b/relu_5x5 <- inception_3b/5x5
I0704 15:10:35.390481 22197 net.cpp:357] inception_3b/relu_5x5 -> inception_3b/5x5 (in-place)
I0704 15:10:35.390492 22197 net.cpp:120] Setting up inception_3b/relu_5x5
I0704 15:10:35.390547 22197 net.cpp:127] Top shape: 30 96 28 28 (2257920)
I0704 15:10:35.390558 22197 layer_factory.hpp:74] Creating layer inception_3b/pool
I0704 15:10:35.390566 22197 layer_factory.cpp:55] CUDNN does not support padding or multiple tops. Using Caffe's own pooling layer.
I0704 15:10:35.390578 22197 net.cpp:90] Creating Layer inception_3b/pool
I0704 15:10:35.390588 22197 net.cpp:410] inception_3b/pool <- inception_3a/output_inception_3a/output_0_split_3
I0704 15:10:35.390599 22197 net.cpp:368] inception_3b/pool -> inception_3b/pool
I0704 15:10:35.390609 22197 net.cpp:120] Setting up inception_3b/pool
I0704 15:10:35.390624 22197 net.cpp:127] Top shape: 30 256 28 28 (6021120)
I0704 15:10:35.390631 22197 layer_factory.hpp:74] Creating layer inception_3b/pool_proj
I0704 15:10:35.390643 22197 net.cpp:90] Creating Layer inception_3b/pool_proj
I0704 15:10:35.390652 22197 net.cpp:410] inception_3b/pool_proj <- inception_3b/pool
I0704 15:10:35.390663 22197 net.cpp:368] inception_3b/pool_proj -> inception_3b/pool_proj
I0704 15:10:35.390676 22197 net.cpp:120] Setting up inception_3b/pool_proj
I0704 15:10:35.390969 22197 net.cpp:127] Top shape: 30 64 28 28 (1505280)
I0704 15:10:35.390983 22197 layer_factory.hpp:74] Creating layer inception_3b/relu_pool_proj
I0704 15:10:35.390996 22197 net.cpp:90] Creating Layer inception_3b/relu_pool_proj
I0704 15:10:35.391015 22197 net.cpp:410] inception_3b/relu_pool_proj <- inception_3b/pool_proj
I0704 15:10:35.391026 22197 net.cpp:357] inception_3b/relu_pool_proj -> inception_3b/pool_proj (in-place)
I0704 15:10:35.391037 22197 net.cpp:120] Setting up inception_3b/relu_pool_proj
I0704 15:10:35.391161 22197 net.cpp:127] Top shape: 30 64 28 28 (1505280)
I0704 15:10:35.391175 22197 layer_factory.hpp:74] Creating layer inception_3b/output
I0704 15:10:35.391186 22197 net.cpp:90] Creating Layer inception_3b/output
I0704 15:10:35.391196 22197 net.cpp:410] inception_3b/output <- inception_3b/1x1
I0704 15:10:35.391206 22197 net.cpp:410] inception_3b/output <- inception_3b/3x3
I0704 15:10:35.391216 22197 net.cpp:410] inception_3b/output <- inception_3b/5x5
I0704 15:10:35.391224 22197 net.cpp:410] inception_3b/output <- inception_3b/pool_proj
I0704 15:10:35.391235 22197 net.cpp:368] inception_3b/output -> inception_3b/output
I0704 15:10:35.391247 22197 net.cpp:120] Setting up inception_3b/output
I0704 15:10:35.391259 22197 net.cpp:127] Top shape: 30 480 28 28 (11289600)
I0704 15:10:35.391268 22197 layer_factory.hpp:74] Creating layer pool3/3x3_s2
I0704 15:10:35.391279 22197 net.cpp:90] Creating Layer pool3/3x3_s2
I0704 15:10:35.391288 22197 net.cpp:410] pool3/3x3_s2 <- inception_3b/output
I0704 15:10:35.391299 22197 net.cpp:368] pool3/3x3_s2 -> pool3/3x3_s2
I0704 15:10:35.391315 22197 net.cpp:120] Setting up pool3/3x3_s2
I0704 15:10:35.391371 22197 net.cpp:127] Top shape: 30 480 14 14 (2822400)
I0704 15:10:35.391381 22197 layer_factory.hpp:74] Creating layer pool3/3x3_s2_pool3/3x3_s2_0_split
I0704 15:10:35.391391 22197 net.cpp:90] Creating Layer pool3/3x3_s2_pool3/3x3_s2_0_split
I0704 15:10:35.391402 22197 net.cpp:410] pool3/3x3_s2_pool3/3x3_s2_0_split <- pool3/3x3_s2
I0704 15:10:35.391412 22197 net.cpp:368] pool3/3x3_s2_pool3/3x3_s2_0_split -> pool3/3x3_s2_pool3/3x3_s2_0_split_0
I0704 15:10:35.391425 22197 net.cpp:368] pool3/3x3_s2_pool3/3x3_s2_0_split -> pool3/3x3_s2_pool3/3x3_s2_0_split_1
I0704 15:10:35.391438 22197 net.cpp:368] pool3/3x3_s2_pool3/3x3_s2_0_split -> pool3/3x3_s2_pool3/3x3_s2_0_split_2
I0704 15:10:35.391449 22197 net.cpp:368] pool3/3x3_s2_pool3/3x3_s2_0_split -> pool3/3x3_s2_pool3/3x3_s2_0_split_3
I0704 15:10:35.391459 22197 net.cpp:120] Setting up pool3/3x3_s2_pool3/3x3_s2_0_split
I0704 15:10:35.391471 22197 net.cpp:127] Top shape: 30 480 14 14 (2822400)
I0704 15:10:35.391481 22197 net.cpp:127] Top shape: 30 480 14 14 (2822400)
I0704 15:10:35.391489 22197 net.cpp:127] Top shape: 30 480 14 14 (2822400)
I0704 15:10:35.391499 22197 net.cpp:127] Top shape: 30 480 14 14 (2822400)
I0704 15:10:35.391507 22197 layer_factory.hpp:74] Creating layer inception_4a/1x1
I0704 15:10:35.391520 22197 net.cpp:90] Creating Layer inception_4a/1x1
I0704 15:10:35.391528 22197 net.cpp:410] inception_4a/1x1 <- pool3/3x3_s2_pool3/3x3_s2_0_split_0
I0704 15:10:35.391540 22197 net.cpp:368] inception_4a/1x1 -> inception_4a/1x1
I0704 15:10:35.391551 22197 net.cpp:120] Setting up inception_4a/1x1
I0704 15:10:35.392213 22197 net.cpp:127] Top shape: 30 192 14 14 (1128960)
I0704 15:10:35.392230 22197 layer_factory.hpp:74] Creating layer inception_4a/relu_1x1
I0704 15:10:35.392243 22197 net.cpp:90] Creating Layer inception_4a/relu_1x1
I0704 15:10:35.392253 22197 net.cpp:410] inception_4a/relu_1x1 <- inception_4a/1x1
I0704 15:10:35.392264 22197 net.cpp:357] inception_4a/relu_1x1 -> inception_4a/1x1 (in-place)
I0704 15:10:35.392276 22197 net.cpp:120] Setting up inception_4a/relu_1x1
I0704 15:10:35.392329 22197 net.cpp:127] Top shape: 30 192 14 14 (1128960)
I0704 15:10:35.392341 22197 layer_factory.hpp:74] Creating layer inception_4a/3x3_reduce
I0704 15:10:35.392354 22197 net.cpp:90] Creating Layer inception_4a/3x3_reduce
I0704 15:10:35.392364 22197 net.cpp:410] inception_4a/3x3_reduce <- pool3/3x3_s2_pool3/3x3_s2_0_split_1
I0704 15:10:35.392375 22197 net.cpp:368] inception_4a/3x3_reduce -> inception_4a/3x3_reduce
I0704 15:10:35.392388 22197 net.cpp:120] Setting up inception_4a/3x3_reduce
I0704 15:10:35.392819 22197 net.cpp:127] Top shape: 30 96 14 14 (564480)
I0704 15:10:35.392846 22197 layer_factory.hpp:74] Creating layer inception_4a/relu_3x3_reduce
I0704 15:10:35.392858 22197 net.cpp:90] Creating Layer inception_4a/relu_3x3_reduce
I0704 15:10:35.392868 22197 net.cpp:410] inception_4a/relu_3x3_reduce <- inception_4a/3x3_reduce
I0704 15:10:35.392879 22197 net.cpp:357] inception_4a/relu_3x3_reduce -> inception_4a/3x3_reduce (in-place)
I0704 15:10:35.392890 22197 net.cpp:120] Setting up inception_4a/relu_3x3_reduce
I0704 15:10:35.392945 22197 net.cpp:127] Top shape: 30 96 14 14 (564480)
I0704 15:10:35.392954 22197 layer_factory.hpp:74] Creating layer inception_4a/3x3
I0704 15:10:35.392966 22197 net.cpp:90] Creating Layer inception_4a/3x3
I0704 15:10:35.392976 22197 net.cpp:410] inception_4a/3x3 <- inception_4a/3x3_reduce
I0704 15:10:35.392988 22197 net.cpp:368] inception_4a/3x3 -> inception_4a/3x3
I0704 15:10:35.393002 22197 net.cpp:120] Setting up inception_4a/3x3
I0704 15:10:35.394078 22197 net.cpp:127] Top shape: 30 208 14 14 (1223040)
I0704 15:10:35.394094 22197 layer_factory.hpp:74] Creating layer inception_4a/relu_3x3
I0704 15:10:35.394107 22197 net.cpp:90] Creating Layer inception_4a/relu_3x3
I0704 15:10:35.394117 22197 net.cpp:410] inception_4a/relu_3x3 <- inception_4a/3x3
I0704 15:10:35.394127 22197 net.cpp:357] inception_4a/relu_3x3 -> inception_4a/3x3 (in-place)
I0704 15:10:35.394140 22197 net.cpp:120] Setting up inception_4a/relu_3x3
I0704 15:10:35.394259 22197 net.cpp:127] Top shape: 30 208 14 14 (1223040)
I0704 15:10:35.394271 22197 layer_factory.hpp:74] Creating layer inception_4a/5x5_reduce
I0704 15:10:35.394284 22197 net.cpp:90] Creating Layer inception_4a/5x5_reduce
I0704 15:10:35.394294 22197 net.cpp:410] inception_4a/5x5_reduce <- pool3/3x3_s2_pool3/3x3_s2_0_split_2
I0704 15:10:35.394306 22197 net.cpp:368] inception_4a/5x5_reduce -> inception_4a/5x5_reduce
I0704 15:10:35.394320 22197 net.cpp:120] Setting up inception_4a/5x5_reduce
I0704 15:10:35.394567 22197 net.cpp:127] Top shape: 30 16 14 14 (94080)
I0704 15:10:35.394582 22197 layer_factory.hpp:74] Creating layer inception_4a/relu_5x5_reduce
I0704 15:10:35.394594 22197 net.cpp:90] Creating Layer inception_4a/relu_5x5_reduce
I0704 15:10:35.394604 22197 net.cpp:410] inception_4a/relu_5x5_reduce <- inception_4a/5x5_reduce
I0704 15:10:35.394615 22197 net.cpp:357] inception_4a/relu_5x5_reduce -> inception_4a/5x5_reduce (in-place)
I0704 15:10:35.394626 22197 net.cpp:120] Setting up inception_4a/relu_5x5_reduce
I0704 15:10:35.394683 22197 net.cpp:127] Top shape: 30 16 14 14 (94080)
I0704 15:10:35.394693 22197 layer_factory.hpp:74] Creating layer inception_4a/5x5
I0704 15:10:35.394706 22197 net.cpp:90] Creating Layer inception_4a/5x5
I0704 15:10:35.394714 22197 net.cpp:410] inception_4a/5x5 <- inception_4a/5x5_reduce
I0704 15:10:35.394727 22197 net.cpp:368] inception_4a/5x5 -> inception_4a/5x5
I0704 15:10:35.394740 22197 net.cpp:120] Setting up inception_4a/5x5
I0704 15:10:35.395040 22197 net.cpp:127] Top shape: 30 48 14 14 (282240)
I0704 15:10:35.395056 22197 layer_factory.hpp:74] Creating layer inception_4a/relu_5x5
I0704 15:10:35.395069 22197 net.cpp:90] Creating Layer inception_4a/relu_5x5
I0704 15:10:35.395079 22197 net.cpp:410] inception_4a/relu_5x5 <- inception_4a/5x5
I0704 15:10:35.395089 22197 net.cpp:357] inception_4a/relu_5x5 -> inception_4a/5x5 (in-place)
I0704 15:10:35.395102 22197 net.cpp:120] Setting up inception_4a/relu_5x5
I0704 15:10:35.395153 22197 net.cpp:127] Top shape: 30 48 14 14 (282240)
I0704 15:10:35.395164 22197 layer_factory.hpp:74] Creating layer inception_4a/pool
I0704 15:10:35.395172 22197 layer_factory.cpp:55] CUDNN does not support padding or multiple tops. Using Caffe's own pooling layer.
I0704 15:10:35.395184 22197 net.cpp:90] Creating Layer inception_4a/pool
I0704 15:10:35.395192 22197 net.cpp:410] inception_4a/pool <- pool3/3x3_s2_pool3/3x3_s2_0_split_3
I0704 15:10:35.395203 22197 net.cpp:368] inception_4a/pool -> inception_4a/pool
I0704 15:10:35.395215 22197 net.cpp:120] Setting up inception_4a/pool
I0704 15:10:35.395226 22197 net.cpp:127] Top shape: 30 480 14 14 (2822400)
I0704 15:10:35.395243 22197 layer_factory.hpp:74] Creating layer inception_4a/pool_proj
I0704 15:10:35.395257 22197 net.cpp:90] Creating Layer inception_4a/pool_proj
I0704 15:10:35.395267 22197 net.cpp:410] inception_4a/pool_proj <- inception_4a/pool
I0704 15:10:35.395279 22197 net.cpp:368] inception_4a/pool_proj -> inception_4a/pool_proj
I0704 15:10:35.395292 22197 net.cpp:120] Setting up inception_4a/pool_proj
I0704 15:10:35.395687 22197 net.cpp:127] Top shape: 30 64 14 14 (376320)
I0704 15:10:35.395704 22197 layer_factory.hpp:74] Creating layer inception_4a/relu_pool_proj
I0704 15:10:35.395714 22197 net.cpp:90] Creating Layer inception_4a/relu_pool_proj
I0704 15:10:35.395723 22197 net.cpp:410] inception_4a/relu_pool_proj <- inception_4a/pool_proj
I0704 15:10:35.395736 22197 net.cpp:357] inception_4a/relu_pool_proj -> inception_4a/pool_proj (in-place)
I0704 15:10:35.395747 22197 net.cpp:120] Setting up inception_4a/relu_pool_proj
I0704 15:10:35.395871 22197 net.cpp:127] Top shape: 30 64 14 14 (376320)
I0704 15:10:35.395884 22197 layer_factory.hpp:74] Creating layer inception_4a/output
I0704 15:10:35.395895 22197 net.cpp:90] Creating Layer inception_4a/output
I0704 15:10:35.395903 22197 net.cpp:410] inception_4a/output <- inception_4a/1x1
I0704 15:10:35.395915 22197 net.cpp:410] inception_4a/output <- inception_4a/3x3
I0704 15:10:35.395925 22197 net.cpp:410] inception_4a/output <- inception_4a/5x5
I0704 15:10:35.395933 22197 net.cpp:410] inception_4a/output <- inception_4a/pool_proj
I0704 15:10:35.395944 22197 net.cpp:368] inception_4a/output -> inception_4a/output
I0704 15:10:35.395956 22197 net.cpp:120] Setting up inception_4a/output
I0704 15:10:35.395967 22197 net.cpp:127] Top shape: 30 512 14 14 (3010560)
I0704 15:10:35.395977 22197 layer_factory.hpp:74] Creating layer inception_4a/output_inception_4a/output_0_split
I0704 15:10:35.395987 22197 net.cpp:90] Creating Layer inception_4a/output_inception_4a/output_0_split
I0704 15:10:35.395995 22197 net.cpp:410] inception_4a/output_inception_4a/output_0_split <- inception_4a/output
I0704 15:10:35.396008 22197 net.cpp:368] inception_4a/output_inception_4a/output_0_split -> inception_4a/output_inception_4a/output_0_split_0
I0704 15:10:35.396020 22197 net.cpp:368] inception_4a/output_inception_4a/output_0_split -> inception_4a/output_inception_4a/output_0_split_1
I0704 15:10:35.396033 22197 net.cpp:368] inception_4a/output_inception_4a/output_0_split -> inception_4a/output_inception_4a/output_0_split_2
I0704 15:10:35.396044 22197 net.cpp:368] inception_4a/output_inception_4a/output_0_split -> inception_4a/output_inception_4a/output_0_split_3
I0704 15:10:35.396056 22197 net.cpp:368] inception_4a/output_inception_4a/output_0_split -> inception_4a/output_inception_4a/output_0_split_4
I0704 15:10:35.396066 22197 net.cpp:120] Setting up inception_4a/output_inception_4a/output_0_split
I0704 15:10:35.396078 22197 net.cpp:127] Top shape: 30 512 14 14 (3010560)
I0704 15:10:35.396087 22197 net.cpp:127] Top shape: 30 512 14 14 (3010560)
I0704 15:10:35.396096 22197 net.cpp:127] Top shape: 30 512 14 14 (3010560)
I0704 15:10:35.396106 22197 net.cpp:127] Top shape: 30 512 14 14 (3010560)
I0704 15:10:35.396114 22197 net.cpp:127] Top shape: 30 512 14 14 (3010560)
I0704 15:10:35.396122 22197 layer_factory.hpp:74] Creating layer loss1/ave_pool
I0704 15:10:35.396133 22197 net.cpp:90] Creating Layer loss1/ave_pool
I0704 15:10:35.396142 22197 net.cpp:410] loss1/ave_pool <- inception_4a/output_inception_4a/output_0_split_0
I0704 15:10:35.396152 22197 net.cpp:368] loss1/ave_pool -> loss1/ave_pool
I0704 15:10:35.396162 22197 net.cpp:120] Setting up loss1/ave_pool
I0704 15:10:35.396225 22197 net.cpp:127] Top shape: 30 512 4 4 (245760)
I0704 15:10:35.396237 22197 layer_factory.hpp:74] Creating layer loss1/conv
I0704 15:10:35.396250 22197 net.cpp:90] Creating Layer loss1/conv
I0704 15:10:35.396260 22197 net.cpp:410] loss1/conv <- loss1/ave_pool
I0704 15:10:35.396270 22197 net.cpp:368] loss1/conv -> loss1/conv
I0704 15:10:35.396281 22197 net.cpp:120] Setting up loss1/conv
I0704 15:10:35.396833 22197 net.cpp:127] Top shape: 30 128 4 4 (61440)
I0704 15:10:35.396849 22197 layer_factory.hpp:74] Creating layer loss1/relu_conv
I0704 15:10:35.396863 22197 net.cpp:90] Creating Layer loss1/relu_conv
I0704 15:10:35.396873 22197 net.cpp:410] loss1/relu_conv <- loss1/conv
I0704 15:10:35.396884 22197 net.cpp:357] loss1/relu_conv -> loss1/conv (in-place)
I0704 15:10:35.396895 22197 net.cpp:120] Setting up loss1/relu_conv
I0704 15:10:35.396949 22197 net.cpp:127] Top shape: 30 128 4 4 (61440)
I0704 15:10:35.396960 22197 layer_factory.hpp:74] Creating layer loss1/fc
I0704 15:10:35.396975 22197 net.cpp:90] Creating Layer loss1/fc
I0704 15:10:35.396985 22197 net.cpp:410] loss1/fc <- loss1/conv
I0704 15:10:35.396997 22197 net.cpp:368] loss1/fc -> loss1/fc
I0704 15:10:35.397012 22197 net.cpp:120] Setting up loss1/fc
I0704 15:10:35.407133 22197 net.cpp:127] Top shape: 30 1024 (30720)
I0704 15:10:35.407166 22197 layer_factory.hpp:74] Creating layer loss1/relu_fc
I0704 15:10:35.407179 22197 net.cpp:90] Creating Layer loss1/relu_fc
I0704 15:10:35.407188 22197 net.cpp:410] loss1/relu_fc <- loss1/fc
I0704 15:10:35.407202 22197 net.cpp:357] loss1/relu_fc -> loss1/fc (in-place)
I0704 15:10:35.407214 22197 net.cpp:120] Setting up loss1/relu_fc
I0704 15:10:35.407299 22197 net.cpp:127] Top shape: 30 1024 (30720)
I0704 15:10:35.407318 22197 layer_factory.hpp:74] Creating layer loss1/drop_fc
I0704 15:10:35.407344 22197 net.cpp:90] Creating Layer loss1/drop_fc
I0704 15:10:35.407354 22197 net.cpp:410] loss1/drop_fc <- loss1/fc
I0704 15:10:35.407364 22197 net.cpp:357] loss1/drop_fc -> loss1/fc (in-place)
I0704 15:10:35.407378 22197 net.cpp:120] Setting up loss1/drop_fc
I0704 15:10:35.407393 22197 net.cpp:127] Top shape: 30 1024 (30720)
I0704 15:10:35.407403 22197 layer_factory.hpp:74] Creating layer stanford_cars_loss1/classifier
I0704 15:10:35.407416 22197 net.cpp:90] Creating Layer stanford_cars_loss1/classifier
I0704 15:10:35.407425 22197 net.cpp:410] stanford_cars_loss1/classifier <- loss1/fc
I0704 15:10:35.407438 22197 net.cpp:368] stanford_cars_loss1/classifier -> stanford_cars_loss1/classifier
I0704 15:10:35.407450 22197 net.cpp:120] Setting up stanford_cars_loss1/classifier
I0704 15:10:35.408506 22197 net.cpp:127] Top shape: 30 196 (5880)
I0704 15:10:35.408520 22197 layer_factory.hpp:74] Creating layer loss1/loss
I0704 15:10:35.408535 22197 net.cpp:90] Creating Layer loss1/loss
I0704 15:10:35.408545 22197 net.cpp:410] loss1/loss <- stanford_cars_loss1/classifier
I0704 15:10:35.408555 22197 net.cpp:410] loss1/loss <- label_data_1_split_0
I0704 15:10:35.408566 22197 net.cpp:368] loss1/loss -> loss1/loss1
I0704 15:10:35.408579 22197 net.cpp:120] Setting up loss1/loss
I0704 15:10:35.408592 22197 layer_factory.hpp:74] Creating layer loss1/loss
I0704 15:10:35.408788 22197 net.cpp:127] Top shape: (1)
I0704 15:10:35.408800 22197 net.cpp:129]     with loss weight 0.3
I0704 15:10:35.408826 22197 layer_factory.hpp:74] Creating layer inception_4b/1x1
I0704 15:10:35.408840 22197 net.cpp:90] Creating Layer inception_4b/1x1
I0704 15:10:35.408853 22197 net.cpp:410] inception_4b/1x1 <- inception_4a/output_inception_4a/output_0_split_1
I0704 15:10:35.408865 22197 net.cpp:368] inception_4b/1x1 -> inception_4b/1x1
I0704 15:10:35.408879 22197 net.cpp:120] Setting up inception_4b/1x1
I0704 15:10:35.409495 22197 net.cpp:127] Top shape: 30 160 14 14 (940800)
I0704 15:10:35.409512 22197 layer_factory.hpp:74] Creating layer inception_4b/relu_1x1
I0704 15:10:35.409523 22197 net.cpp:90] Creating Layer inception_4b/relu_1x1
I0704 15:10:35.409533 22197 net.cpp:410] inception_4b/relu_1x1 <- inception_4b/1x1
I0704 15:10:35.409544 22197 net.cpp:357] inception_4b/relu_1x1 -> inception_4b/1x1 (in-place)
I0704 15:10:35.409555 22197 net.cpp:120] Setting up inception_4b/relu_1x1
I0704 15:10:35.409611 22197 net.cpp:127] Top shape: 30 160 14 14 (940800)
I0704 15:10:35.409621 22197 layer_factory.hpp:74] Creating layer inception_4b/3x3_reduce
I0704 15:10:35.409636 22197 net.cpp:90] Creating Layer inception_4b/3x3_reduce
I0704 15:10:35.409646 22197 net.cpp:410] inception_4b/3x3_reduce <- inception_4a/output_inception_4a/output_0_split_2
I0704 15:10:35.409678 22197 net.cpp:368] inception_4b/3x3_reduce -> inception_4b/3x3_reduce
I0704 15:10:35.409693 22197 net.cpp:120] Setting up inception_4b/3x3_reduce
I0704 15:10:35.410184 22197 net.cpp:127] Top shape: 30 112 14 14 (658560)
I0704 15:10:35.410200 22197 layer_factory.hpp:74] Creating layer inception_4b/relu_3x3_reduce
I0704 15:10:35.410213 22197 net.cpp:90] Creating Layer inception_4b/relu_3x3_reduce
I0704 15:10:35.410223 22197 net.cpp:410] inception_4b/relu_3x3_reduce <- inception_4b/3x3_reduce
I0704 15:10:35.410233 22197 net.cpp:357] inception_4b/relu_3x3_reduce -> inception_4b/3x3_reduce (in-place)
I0704 15:10:35.410244 22197 net.cpp:120] Setting up inception_4b/relu_3x3_reduce
I0704 15:10:35.410300 22197 net.cpp:127] Top shape: 30 112 14 14 (658560)
I0704 15:10:35.410310 22197 layer_factory.hpp:74] Creating layer inception_4b/3x3
I0704 15:10:35.410322 22197 net.cpp:90] Creating Layer inception_4b/3x3
I0704 15:10:35.410332 22197 net.cpp:410] inception_4b/3x3 <- inception_4b/3x3_reduce
I0704 15:10:35.410346 22197 net.cpp:368] inception_4b/3x3 -> inception_4b/3x3
I0704 15:10:35.410359 22197 net.cpp:120] Setting up inception_4b/3x3
I0704 15:10:35.411690 22197 net.cpp:127] Top shape: 30 224 14 14 (1317120)
I0704 15:10:35.411706 22197 layer_factory.hpp:74] Creating layer inception_4b/relu_3x3
I0704 15:10:35.411717 22197 net.cpp:90] Creating Layer inception_4b/relu_3x3
I0704 15:10:35.411727 22197 net.cpp:410] inception_4b/relu_3x3 <- inception_4b/3x3
I0704 15:10:35.411737 22197 net.cpp:357] inception_4b/relu_3x3 -> inception_4b/3x3 (in-place)
I0704 15:10:35.411748 22197 net.cpp:120] Setting up inception_4b/relu_3x3
I0704 15:10:35.411804 22197 net.cpp:127] Top shape: 30 224 14 14 (1317120)
I0704 15:10:35.411814 22197 layer_factory.hpp:74] Creating layer inception_4b/5x5_reduce
I0704 15:10:35.411828 22197 net.cpp:90] Creating Layer inception_4b/5x5_reduce
I0704 15:10:35.411837 22197 net.cpp:410] inception_4b/5x5_reduce <- inception_4a/output_inception_4a/output_0_split_3
I0704 15:10:35.411849 22197 net.cpp:368] inception_4b/5x5_reduce -> inception_4b/5x5_reduce
I0704 15:10:35.411861 22197 net.cpp:120] Setting up inception_4b/5x5_reduce
I0704 15:10:35.412144 22197 net.cpp:127] Top shape: 30 24 14 14 (141120)
I0704 15:10:35.412159 22197 layer_factory.hpp:74] Creating layer inception_4b/relu_5x5_reduce
I0704 15:10:35.412170 22197 net.cpp:90] Creating Layer inception_4b/relu_5x5_reduce
I0704 15:10:35.412180 22197 net.cpp:410] inception_4b/relu_5x5_reduce <- inception_4b/5x5_reduce
I0704 15:10:35.412190 22197 net.cpp:357] inception_4b/relu_5x5_reduce -> inception_4b/5x5_reduce (in-place)
I0704 15:10:35.412202 22197 net.cpp:120] Setting up inception_4b/relu_5x5_reduce
I0704 15:10:35.412329 22197 net.cpp:127] Top shape: 30 24 14 14 (141120)
I0704 15:10:35.412343 22197 layer_factory.hpp:74] Creating layer inception_4b/5x5
I0704 15:10:35.412354 22197 net.cpp:90] Creating Layer inception_4b/5x5
I0704 15:10:35.412364 22197 net.cpp:410] inception_4b/5x5 <- inception_4b/5x5_reduce
I0704 15:10:35.412377 22197 net.cpp:368] inception_4b/5x5 -> inception_4b/5x5
I0704 15:10:35.412390 22197 net.cpp:120] Setting up inception_4b/5x5
I0704 15:10:35.412787 22197 net.cpp:127] Top shape: 30 64 14 14 (376320)
I0704 15:10:35.412802 22197 layer_factory.hpp:74] Creating layer inception_4b/relu_5x5
I0704 15:10:35.412816 22197 net.cpp:90] Creating Layer inception_4b/relu_5x5
I0704 15:10:35.412824 22197 net.cpp:410] inception_4b/relu_5x5 <- inception_4b/5x5
I0704 15:10:35.412835 22197 net.cpp:357] inception_4b/relu_5x5 -> inception_4b/5x5 (in-place)
I0704 15:10:35.412847 22197 net.cpp:120] Setting up inception_4b/relu_5x5
I0704 15:10:35.412902 22197 net.cpp:127] Top shape: 30 64 14 14 (376320)
I0704 15:10:35.412914 22197 layer_factory.hpp:74] Creating layer inception_4b/pool
I0704 15:10:35.412924 22197 layer_factory.cpp:55] CUDNN does not support padding or multiple tops. Using Caffe's own pooling layer.
I0704 15:10:35.412935 22197 net.cpp:90] Creating Layer inception_4b/pool
I0704 15:10:35.412952 22197 net.cpp:410] inception_4b/pool <- inception_4a/output_inception_4a/output_0_split_4
I0704 15:10:35.412966 22197 net.cpp:368] inception_4b/pool -> inception_4b/pool
I0704 15:10:35.412982 22197 net.cpp:120] Setting up inception_4b/pool
I0704 15:10:35.412998 22197 net.cpp:127] Top shape: 30 512 14 14 (3010560)
I0704 15:10:35.413007 22197 layer_factory.hpp:74] Creating layer inception_4b/pool_proj
I0704 15:10:35.413022 22197 net.cpp:90] Creating Layer inception_4b/pool_proj
I0704 15:10:35.413030 22197 net.cpp:410] inception_4b/pool_proj <- inception_4b/pool
I0704 15:10:35.413043 22197 net.cpp:368] inception_4b/pool_proj -> inception_4b/pool_proj
I0704 15:10:35.413056 22197 net.cpp:120] Setting up inception_4b/pool_proj
I0704 15:10:35.413430 22197 net.cpp:127] Top shape: 30 64 14 14 (376320)
I0704 15:10:35.413446 22197 layer_factory.hpp:74] Creating layer inception_4b/relu_pool_proj
I0704 15:10:35.413458 22197 net.cpp:90] Creating Layer inception_4b/relu_pool_proj
I0704 15:10:35.413468 22197 net.cpp:410] inception_4b/relu_pool_proj <- inception_4b/pool_proj
I0704 15:10:35.413480 22197 net.cpp:357] inception_4b/relu_pool_proj -> inception_4b/pool_proj (in-place)
I0704 15:10:35.413491 22197 net.cpp:120] Setting up inception_4b/relu_pool_proj
I0704 15:10:35.413545 22197 net.cpp:127] Top shape: 30 64 14 14 (376320)
I0704 15:10:35.413557 22197 layer_factory.hpp:74] Creating layer inception_4b/output
I0704 15:10:35.413568 22197 net.cpp:90] Creating Layer inception_4b/output
I0704 15:10:35.413576 22197 net.cpp:410] inception_4b/output <- inception_4b/1x1
I0704 15:10:35.413585 22197 net.cpp:410] inception_4b/output <- inception_4b/3x3
I0704 15:10:35.413595 22197 net.cpp:410] inception_4b/output <- inception_4b/5x5
I0704 15:10:35.413604 22197 net.cpp:410] inception_4b/output <- inception_4b/pool_proj
I0704 15:10:35.413616 22197 net.cpp:368] inception_4b/output -> inception_4b/output
I0704 15:10:35.413627 22197 net.cpp:120] Setting up inception_4b/output
I0704 15:10:35.413640 22197 net.cpp:127] Top shape: 30 512 14 14 (3010560)
I0704 15:10:35.413648 22197 layer_factory.hpp:74] Creating layer inception_4b/output_inception_4b/output_0_split
I0704 15:10:35.413661 22197 net.cpp:90] Creating Layer inception_4b/output_inception_4b/output_0_split
I0704 15:10:35.413668 22197 net.cpp:410] inception_4b/output_inception_4b/output_0_split <- inception_4b/output
I0704 15:10:35.413679 22197 net.cpp:368] inception_4b/output_inception_4b/output_0_split -> inception_4b/output_inception_4b/output_0_split_0
I0704 15:10:35.413692 22197 net.cpp:368] inception_4b/output_inception_4b/output_0_split -> inception_4b/output_inception_4b/output_0_split_1
I0704 15:10:35.413704 22197 net.cpp:368] inception_4b/output_inception_4b/output_0_split -> inception_4b/output_inception_4b/output_0_split_2
I0704 15:10:35.413717 22197 net.cpp:368] inception_4b/output_inception_4b/output_0_split -> inception_4b/output_inception_4b/output_0_split_3
I0704 15:10:35.413727 22197 net.cpp:120] Setting up inception_4b/output_inception_4b/output_0_split
I0704 15:10:35.413738 22197 net.cpp:127] Top shape: 30 512 14 14 (3010560)
I0704 15:10:35.413748 22197 net.cpp:127] Top shape: 30 512 14 14 (3010560)
I0704 15:10:35.413756 22197 net.cpp:127] Top shape: 30 512 14 14 (3010560)
I0704 15:10:35.413765 22197 net.cpp:127] Top shape: 30 512 14 14 (3010560)
I0704 15:10:35.413774 22197 layer_factory.hpp:74] Creating layer inception_4c/1x1
I0704 15:10:35.413786 22197 net.cpp:90] Creating Layer inception_4c/1x1
I0704 15:10:35.413794 22197 net.cpp:410] inception_4c/1x1 <- inception_4b/output_inception_4b/output_0_split_0
I0704 15:10:35.413806 22197 net.cpp:368] inception_4c/1x1 -> inception_4c/1x1
I0704 15:10:35.413818 22197 net.cpp:120] Setting up inception_4c/1x1
I0704 15:10:35.414362 22197 net.cpp:127] Top shape: 30 128 14 14 (752640)
I0704 15:10:35.414378 22197 layer_factory.hpp:74] Creating layer inception_4c/relu_1x1
I0704 15:10:35.414389 22197 net.cpp:90] Creating Layer inception_4c/relu_1x1
I0704 15:10:35.414398 22197 net.cpp:410] inception_4c/relu_1x1 <- inception_4c/1x1
I0704 15:10:35.414418 22197 net.cpp:357] inception_4c/relu_1x1 -> inception_4c/1x1 (in-place)
I0704 15:10:35.414432 22197 net.cpp:120] Setting up inception_4c/relu_1x1
I0704 15:10:35.414484 22197 net.cpp:127] Top shape: 30 128 14 14 (752640)
I0704 15:10:35.414495 22197 layer_factory.hpp:74] Creating layer inception_4c/3x3_reduce
I0704 15:10:35.414508 22197 net.cpp:90] Creating Layer inception_4c/3x3_reduce
I0704 15:10:35.414518 22197 net.cpp:410] inception_4c/3x3_reduce <- inception_4b/output_inception_4b/output_0_split_1
I0704 15:10:35.414530 22197 net.cpp:368] inception_4c/3x3_reduce -> inception_4c/3x3_reduce
I0704 15:10:35.414543 22197 net.cpp:120] Setting up inception_4c/3x3_reduce
I0704 15:10:35.415074 22197 net.cpp:127] Top shape: 30 128 14 14 (752640)
I0704 15:10:35.415091 22197 layer_factory.hpp:74] Creating layer inception_4c/relu_3x3_reduce
I0704 15:10:35.415102 22197 net.cpp:90] Creating Layer inception_4c/relu_3x3_reduce
I0704 15:10:35.415110 22197 net.cpp:410] inception_4c/relu_3x3_reduce <- inception_4c/3x3_reduce
I0704 15:10:35.415123 22197 net.cpp:357] inception_4c/relu_3x3_reduce -> inception_4c/3x3_reduce (in-place)
I0704 15:10:35.415134 22197 net.cpp:120] Setting up inception_4c/relu_3x3_reduce
I0704 15:10:35.415254 22197 net.cpp:127] Top shape: 30 128 14 14 (752640)
I0704 15:10:35.415268 22197 layer_factory.hpp:74] Creating layer inception_4c/3x3
I0704 15:10:35.415282 22197 net.cpp:90] Creating Layer inception_4c/3x3
I0704 15:10:35.415292 22197 net.cpp:410] inception_4c/3x3 <- inception_4c/3x3_reduce
I0704 15:10:35.415303 22197 net.cpp:368] inception_4c/3x3 -> inception_4c/3x3
I0704 15:10:35.415325 22197 net.cpp:120] Setting up inception_4c/3x3
I0704 15:10:35.416964 22197 net.cpp:127] Top shape: 30 256 14 14 (1505280)
I0704 15:10:35.416986 22197 layer_factory.hpp:74] Creating layer inception_4c/relu_3x3
I0704 15:10:35.417001 22197 net.cpp:90] Creating Layer inception_4c/relu_3x3
I0704 15:10:35.417009 22197 net.cpp:410] inception_4c/relu_3x3 <- inception_4c/3x3
I0704 15:10:35.417021 22197 net.cpp:357] inception_4c/relu_3x3 -> inception_4c/3x3 (in-place)
I0704 15:10:35.417032 22197 net.cpp:120] Setting up inception_4c/relu_3x3
I0704 15:10:35.417088 22197 net.cpp:127] Top shape: 30 256 14 14 (1505280)
I0704 15:10:35.417098 22197 layer_factory.hpp:74] Creating layer inception_4c/5x5_reduce
I0704 15:10:35.417110 22197 net.cpp:90] Creating Layer inception_4c/5x5_reduce
I0704 15:10:35.417119 22197 net.cpp:410] inception_4c/5x5_reduce <- inception_4b/output_inception_4b/output_0_split_2
I0704 15:10:35.417132 22197 net.cpp:368] inception_4c/5x5_reduce -> inception_4c/5x5_reduce
I0704 15:10:35.417145 22197 net.cpp:120] Setting up inception_4c/5x5_reduce
I0704 15:10:35.417423 22197 net.cpp:127] Top shape: 30 24 14 14 (141120)
I0704 15:10:35.417438 22197 layer_factory.hpp:74] Creating layer inception_4c/relu_5x5_reduce
I0704 15:10:35.417449 22197 net.cpp:90] Creating Layer inception_4c/relu_5x5_reduce
I0704 15:10:35.417459 22197 net.cpp:410] inception_4c/relu_5x5_reduce <- inception_4c/5x5_reduce
I0704 15:10:35.417469 22197 net.cpp:357] inception_4c/relu_5x5_reduce -> inception_4c/5x5_reduce (in-place)
I0704 15:10:35.417480 22197 net.cpp:120] Setting up inception_4c/relu_5x5_reduce
I0704 15:10:35.417536 22197 net.cpp:127] Top shape: 30 24 14 14 (141120)
I0704 15:10:35.417546 22197 layer_factory.hpp:74] Creating layer inception_4c/5x5
I0704 15:10:35.417557 22197 net.cpp:90] Creating Layer inception_4c/5x5
I0704 15:10:35.417567 22197 net.cpp:410] inception_4c/5x5 <- inception_4c/5x5_reduce
I0704 15:10:35.417579 22197 net.cpp:368] inception_4c/5x5 -> inception_4c/5x5
I0704 15:10:35.417592 22197 net.cpp:120] Setting up inception_4c/5x5
I0704 15:10:35.417994 22197 net.cpp:127] Top shape: 30 64 14 14 (376320)
I0704 15:10:35.418009 22197 layer_factory.hpp:74] Creating layer inception_4c/relu_5x5
I0704 15:10:35.418021 22197 net.cpp:90] Creating Layer inception_4c/relu_5x5
I0704 15:10:35.418031 22197 net.cpp:410] inception_4c/relu_5x5 <- inception_4c/5x5
I0704 15:10:35.418042 22197 net.cpp:357] inception_4c/relu_5x5 -> inception_4c/5x5 (in-place)
I0704 15:10:35.418062 22197 net.cpp:120] Setting up inception_4c/relu_5x5
I0704 15:10:35.418186 22197 net.cpp:127] Top shape: 30 64 14 14 (376320)
I0704 15:10:35.418200 22197 layer_factory.hpp:74] Creating layer inception_4c/pool
I0704 15:10:35.418208 22197 layer_factory.cpp:55] CUDNN does not support padding or multiple tops. Using Caffe's own pooling layer.
I0704 15:10:35.418220 22197 net.cpp:90] Creating Layer inception_4c/pool
I0704 15:10:35.418227 22197 net.cpp:410] inception_4c/pool <- inception_4b/output_inception_4b/output_0_split_3
I0704 15:10:35.418241 22197 net.cpp:368] inception_4c/pool -> inception_4c/pool
I0704 15:10:35.418252 22197 net.cpp:120] Setting up inception_4c/pool
I0704 15:10:35.418265 22197 net.cpp:127] Top shape: 30 512 14 14 (3010560)
I0704 15:10:35.418273 22197 layer_factory.hpp:74] Creating layer inception_4c/pool_proj
I0704 15:10:35.418285 22197 net.cpp:90] Creating Layer inception_4c/pool_proj
I0704 15:10:35.418294 22197 net.cpp:410] inception_4c/pool_proj <- inception_4c/pool
I0704 15:10:35.418306 22197 net.cpp:368] inception_4c/pool_proj -> inception_4c/pool_proj
I0704 15:10:35.418319 22197 net.cpp:120] Setting up inception_4c/pool_proj
I0704 15:10:35.418690 22197 net.cpp:127] Top shape: 30 64 14 14 (376320)
I0704 15:10:35.418705 22197 layer_factory.hpp:74] Creating layer inception_4c/relu_pool_proj
I0704 15:10:35.418719 22197 net.cpp:90] Creating Layer inception_4c/relu_pool_proj
I0704 15:10:35.418728 22197 net.cpp:410] inception_4c/relu_pool_proj <- inception_4c/pool_proj
I0704 15:10:35.418740 22197 net.cpp:357] inception_4c/relu_pool_proj -> inception_4c/pool_proj (in-place)
I0704 15:10:35.418751 22197 net.cpp:120] Setting up inception_4c/relu_pool_proj
I0704 15:10:35.418807 22197 net.cpp:127] Top shape: 30 64 14 14 (376320)
I0704 15:10:35.418817 22197 layer_factory.hpp:74] Creating layer inception_4c/output
I0704 15:10:35.418828 22197 net.cpp:90] Creating Layer inception_4c/output
I0704 15:10:35.418838 22197 net.cpp:410] inception_4c/output <- inception_4c/1x1
I0704 15:10:35.418848 22197 net.cpp:410] inception_4c/output <- inception_4c/3x3
I0704 15:10:35.418858 22197 net.cpp:410] inception_4c/output <- inception_4c/5x5
I0704 15:10:35.418866 22197 net.cpp:410] inception_4c/output <- inception_4c/pool_proj
I0704 15:10:35.418876 22197 net.cpp:368] inception_4c/output -> inception_4c/output
I0704 15:10:35.418887 22197 net.cpp:120] Setting up inception_4c/output
I0704 15:10:35.418900 22197 net.cpp:127] Top shape: 30 512 14 14 (3010560)
I0704 15:10:35.418907 22197 layer_factory.hpp:74] Creating layer inception_4c/output_inception_4c/output_0_split
I0704 15:10:35.418920 22197 net.cpp:90] Creating Layer inception_4c/output_inception_4c/output_0_split
I0704 15:10:35.418928 22197 net.cpp:410] inception_4c/output_inception_4c/output_0_split <- inception_4c/output
I0704 15:10:35.418941 22197 net.cpp:368] inception_4c/output_inception_4c/output_0_split -> inception_4c/output_inception_4c/output_0_split_0
I0704 15:10:35.418951 22197 net.cpp:368] inception_4c/output_inception_4c/output_0_split -> inception_4c/output_inception_4c/output_0_split_1
I0704 15:10:35.418964 22197 net.cpp:368] inception_4c/output_inception_4c/output_0_split -> inception_4c/output_inception_4c/output_0_split_2
I0704 15:10:35.418978 22197 net.cpp:368] inception_4c/output_inception_4c/output_0_split -> inception_4c/output_inception_4c/output_0_split_3
I0704 15:10:35.418988 22197 net.cpp:120] Setting up inception_4c/output_inception_4c/output_0_split
I0704 15:10:35.419000 22197 net.cpp:127] Top shape: 30 512 14 14 (3010560)
I0704 15:10:35.419009 22197 net.cpp:127] Top shape: 30 512 14 14 (3010560)
I0704 15:10:35.419018 22197 net.cpp:127] Top shape: 30 512 14 14 (3010560)
I0704 15:10:35.419028 22197 net.cpp:127] Top shape: 30 512 14 14 (3010560)
I0704 15:10:35.419035 22197 layer_factory.hpp:74] Creating layer inception_4d/1x1
I0704 15:10:35.419046 22197 net.cpp:90] Creating Layer inception_4d/1x1
I0704 15:10:35.419054 22197 net.cpp:410] inception_4d/1x1 <- inception_4c/output_inception_4c/output_0_split_0
I0704 15:10:35.419076 22197 net.cpp:368] inception_4d/1x1 -> inception_4d/1x1
I0704 15:10:35.419090 22197 net.cpp:120] Setting up inception_4d/1x1
I0704 15:10:35.419598 22197 net.cpp:127] Top shape: 30 112 14 14 (658560)
I0704 15:10:35.419613 22197 layer_factory.hpp:74] Creating layer inception_4d/relu_1x1
I0704 15:10:35.419625 22197 net.cpp:90] Creating Layer inception_4d/relu_1x1
I0704 15:10:35.419634 22197 net.cpp:410] inception_4d/relu_1x1 <- inception_4d/1x1
I0704 15:10:35.419646 22197 net.cpp:357] inception_4d/relu_1x1 -> inception_4d/1x1 (in-place)
I0704 15:10:35.419656 22197 net.cpp:120] Setting up inception_4d/relu_1x1
I0704 15:10:35.419710 22197 net.cpp:127] Top shape: 30 112 14 14 (658560)
I0704 15:10:35.419720 22197 layer_factory.hpp:74] Creating layer inception_4d/3x3_reduce
I0704 15:10:35.419733 22197 net.cpp:90] Creating Layer inception_4d/3x3_reduce
I0704 15:10:35.419741 22197 net.cpp:410] inception_4d/3x3_reduce <- inception_4c/output_inception_4c/output_0_split_1
I0704 15:10:35.419755 22197 net.cpp:368] inception_4d/3x3_reduce -> inception_4d/3x3_reduce
I0704 15:10:35.419769 22197 net.cpp:120] Setting up inception_4d/3x3_reduce
I0704 15:10:35.420337 22197 net.cpp:127] Top shape: 30 144 14 14 (846720)
I0704 15:10:35.420352 22197 layer_factory.hpp:74] Creating layer inception_4d/relu_3x3_reduce
I0704 15:10:35.420363 22197 net.cpp:90] Creating Layer inception_4d/relu_3x3_reduce
I0704 15:10:35.420373 22197 net.cpp:410] inception_4d/relu_3x3_reduce <- inception_4d/3x3_reduce
I0704 15:10:35.420387 22197 net.cpp:357] inception_4d/relu_3x3_reduce -> inception_4d/3x3_reduce (in-place)
I0704 15:10:35.420398 22197 net.cpp:120] Setting up inception_4d/relu_3x3_reduce
I0704 15:10:35.420454 22197 net.cpp:127] Top shape: 30 144 14 14 (846720)
I0704 15:10:35.420464 22197 layer_factory.hpp:74] Creating layer inception_4d/3x3
I0704 15:10:35.420475 22197 net.cpp:90] Creating Layer inception_4d/3x3
I0704 15:10:35.420485 22197 net.cpp:410] inception_4d/3x3 <- inception_4d/3x3_reduce
I0704 15:10:35.420498 22197 net.cpp:368] inception_4d/3x3 -> inception_4d/3x3
I0704 15:10:35.420511 22197 net.cpp:120] Setting up inception_4d/3x3
I0704 15:10:35.422526 22197 net.cpp:127] Top shape: 30 288 14 14 (1693440)
I0704 15:10:35.422543 22197 layer_factory.hpp:74] Creating layer inception_4d/relu_3x3
I0704 15:10:35.422554 22197 net.cpp:90] Creating Layer inception_4d/relu_3x3
I0704 15:10:35.422564 22197 net.cpp:410] inception_4d/relu_3x3 <- inception_4d/3x3
I0704 15:10:35.422575 22197 net.cpp:357] inception_4d/relu_3x3 -> inception_4d/3x3 (in-place)
I0704 15:10:35.422587 22197 net.cpp:120] Setting up inception_4d/relu_3x3
I0704 15:10:35.422719 22197 net.cpp:127] Top shape: 30 288 14 14 (1693440)
I0704 15:10:35.422731 22197 layer_factory.hpp:74] Creating layer inception_4d/5x5_reduce
I0704 15:10:35.422744 22197 net.cpp:90] Creating Layer inception_4d/5x5_reduce
I0704 15:10:35.422752 22197 net.cpp:410] inception_4d/5x5_reduce <- inception_4c/output_inception_4c/output_0_split_2
I0704 15:10:35.422766 22197 net.cpp:368] inception_4d/5x5_reduce -> inception_4d/5x5_reduce
I0704 15:10:35.422780 22197 net.cpp:120] Setting up inception_4d/5x5_reduce
I0704 15:10:35.423081 22197 net.cpp:127] Top shape: 30 32 14 14 (188160)
I0704 15:10:35.423097 22197 layer_factory.hpp:74] Creating layer inception_4d/relu_5x5_reduce
I0704 15:10:35.423108 22197 net.cpp:90] Creating Layer inception_4d/relu_5x5_reduce
I0704 15:10:35.423118 22197 net.cpp:410] inception_4d/relu_5x5_reduce <- inception_4d/5x5_reduce
I0704 15:10:35.423128 22197 net.cpp:357] inception_4d/relu_5x5_reduce -> inception_4d/5x5_reduce (in-place)
I0704 15:10:35.423141 22197 net.cpp:120] Setting up inception_4d/relu_5x5_reduce
I0704 15:10:35.423197 22197 net.cpp:127] Top shape: 30 32 14 14 (188160)
I0704 15:10:35.423207 22197 layer_factory.hpp:74] Creating layer inception_4d/5x5
I0704 15:10:35.423218 22197 net.cpp:90] Creating Layer inception_4d/5x5
I0704 15:10:35.423228 22197 net.cpp:410] inception_4d/5x5 <- inception_4d/5x5_reduce
I0704 15:10:35.423241 22197 net.cpp:368] inception_4d/5x5 -> inception_4d/5x5
I0704 15:10:35.423264 22197 net.cpp:120] Setting up inception_4d/5x5
I0704 15:10:35.423753 22197 net.cpp:127] Top shape: 30 64 14 14 (376320)
I0704 15:10:35.423770 22197 layer_factory.hpp:74] Creating layer inception_4d/relu_5x5
I0704 15:10:35.423781 22197 net.cpp:90] Creating Layer inception_4d/relu_5x5
I0704 15:10:35.423791 22197 net.cpp:410] inception_4d/relu_5x5 <- inception_4d/5x5
I0704 15:10:35.423802 22197 net.cpp:357] inception_4d/relu_5x5 -> inception_4d/5x5 (in-place)
I0704 15:10:35.423813 22197 net.cpp:120] Setting up inception_4d/relu_5x5
I0704 15:10:35.423869 22197 net.cpp:127] Top shape: 30 64 14 14 (376320)
I0704 15:10:35.423881 22197 layer_factory.hpp:74] Creating layer inception_4d/pool
I0704 15:10:35.423890 22197 layer_factory.cpp:55] CUDNN does not support padding or multiple tops. Using Caffe's own pooling layer.
I0704 15:10:35.423900 22197 net.cpp:90] Creating Layer inception_4d/pool
I0704 15:10:35.423909 22197 net.cpp:410] inception_4d/pool <- inception_4c/output_inception_4c/output_0_split_3
I0704 15:10:35.423921 22197 net.cpp:368] inception_4d/pool -> inception_4d/pool
I0704 15:10:35.423933 22197 net.cpp:120] Setting up inception_4d/pool
I0704 15:10:35.423946 22197 net.cpp:127] Top shape: 30 512 14 14 (3010560)
I0704 15:10:35.423954 22197 layer_factory.hpp:74] Creating layer inception_4d/pool_proj
I0704 15:10:35.423966 22197 net.cpp:90] Creating Layer inception_4d/pool_proj
I0704 15:10:35.423974 22197 net.cpp:410] inception_4d/pool_proj <- inception_4d/pool
I0704 15:10:35.423986 22197 net.cpp:368] inception_4d/pool_proj -> inception_4d/pool_proj
I0704 15:10:35.424000 22197 net.cpp:120] Setting up inception_4d/pool_proj
I0704 15:10:35.424378 22197 net.cpp:127] Top shape: 30 64 14 14 (376320)
I0704 15:10:35.424394 22197 layer_factory.hpp:74] Creating layer inception_4d/relu_pool_proj
I0704 15:10:35.424406 22197 net.cpp:90] Creating Layer inception_4d/relu_pool_proj
I0704 15:10:35.424415 22197 net.cpp:410] inception_4d/relu_pool_proj <- inception_4d/pool_proj
I0704 15:10:35.424425 22197 net.cpp:357] inception_4d/relu_pool_proj -> inception_4d/pool_proj (in-place)
I0704 15:10:35.424437 22197 net.cpp:120] Setting up inception_4d/relu_pool_proj
I0704 15:10:35.424490 22197 net.cpp:127] Top shape: 30 64 14 14 (376320)
I0704 15:10:35.424500 22197 layer_factory.hpp:74] Creating layer inception_4d/output
I0704 15:10:35.424511 22197 net.cpp:90] Creating Layer inception_4d/output
I0704 15:10:35.424520 22197 net.cpp:410] inception_4d/output <- inception_4d/1x1
I0704 15:10:35.424525 22197 net.cpp:410] inception_4d/output <- inception_4d/3x3
I0704 15:10:35.424530 22197 net.cpp:410] inception_4d/output <- inception_4d/5x5
I0704 15:10:35.424535 22197 net.cpp:410] inception_4d/output <- inception_4d/pool_proj
I0704 15:10:35.424541 22197 net.cpp:368] inception_4d/output -> inception_4d/output
I0704 15:10:35.424547 22197 net.cpp:120] Setting up inception_4d/output
I0704 15:10:35.424554 22197 net.cpp:127] Top shape: 30 528 14 14 (3104640)
I0704 15:10:35.424559 22197 layer_factory.hpp:74] Creating layer inception_4d/output_inception_4d/output_0_split
I0704 15:10:35.424567 22197 net.cpp:90] Creating Layer inception_4d/output_inception_4d/output_0_split
I0704 15:10:35.424572 22197 net.cpp:410] inception_4d/output_inception_4d/output_0_split <- inception_4d/output
I0704 15:10:35.424578 22197 net.cpp:368] inception_4d/output_inception_4d/output_0_split -> inception_4d/output_inception_4d/output_0_split_0
I0704 15:10:35.424585 22197 net.cpp:368] inception_4d/output_inception_4d/output_0_split -> inception_4d/output_inception_4d/output_0_split_1
I0704 15:10:35.424593 22197 net.cpp:368] inception_4d/output_inception_4d/output_0_split -> inception_4d/output_inception_4d/output_0_split_2
I0704 15:10:35.424599 22197 net.cpp:368] inception_4d/output_inception_4d/output_0_split -> inception_4d/output_inception_4d/output_0_split_3
I0704 15:10:35.424607 22197 net.cpp:368] inception_4d/output_inception_4d/output_0_split -> inception_4d/output_inception_4d/output_0_split_4
I0704 15:10:35.424612 22197 net.cpp:120] Setting up inception_4d/output_inception_4d/output_0_split
I0704 15:10:35.424625 22197 net.cpp:127] Top shape: 30 528 14 14 (3104640)
I0704 15:10:35.424631 22197 net.cpp:127] Top shape: 30 528 14 14 (3104640)
I0704 15:10:35.424636 22197 net.cpp:127] Top shape: 30 528 14 14 (3104640)
I0704 15:10:35.424641 22197 net.cpp:127] Top shape: 30 528 14 14 (3104640)
I0704 15:10:35.424646 22197 net.cpp:127] Top shape: 30 528 14 14 (3104640)
I0704 15:10:35.424651 22197 layer_factory.hpp:74] Creating layer loss2/ave_pool
I0704 15:10:35.424657 22197 net.cpp:90] Creating Layer loss2/ave_pool
I0704 15:10:35.424662 22197 net.cpp:410] loss2/ave_pool <- inception_4d/output_inception_4d/output_0_split_0
I0704 15:10:35.424670 22197 net.cpp:368] loss2/ave_pool -> loss2/ave_pool
I0704 15:10:35.424676 22197 net.cpp:120] Setting up loss2/ave_pool
I0704 15:10:35.424800 22197 net.cpp:127] Top shape: 30 528 4 4 (253440)
I0704 15:10:35.424809 22197 layer_factory.hpp:74] Creating layer loss2/conv
I0704 15:10:35.424818 22197 net.cpp:90] Creating Layer loss2/conv
I0704 15:10:35.424823 22197 net.cpp:410] loss2/conv <- loss2/ave_pool
I0704 15:10:35.424830 22197 net.cpp:368] loss2/conv -> loss2/conv
I0704 15:10:35.424839 22197 net.cpp:120] Setting up loss2/conv
I0704 15:10:35.425375 22197 net.cpp:127] Top shape: 30 128 4 4 (61440)
I0704 15:10:35.425386 22197 layer_factory.hpp:74] Creating layer loss2/relu_conv
I0704 15:10:35.425395 22197 net.cpp:90] Creating Layer loss2/relu_conv
I0704 15:10:35.425400 22197 net.cpp:410] loss2/relu_conv <- loss2/conv
I0704 15:10:35.425406 22197 net.cpp:357] loss2/relu_conv -> loss2/conv (in-place)
I0704 15:10:35.425412 22197 net.cpp:120] Setting up loss2/relu_conv
I0704 15:10:35.425453 22197 net.cpp:127] Top shape: 30 128 4 4 (61440)
I0704 15:10:35.425459 22197 layer_factory.hpp:74] Creating layer loss2/fc
I0704 15:10:35.425467 22197 net.cpp:90] Creating Layer loss2/fc
I0704 15:10:35.425473 22197 net.cpp:410] loss2/fc <- loss2/conv
I0704 15:10:35.425480 22197 net.cpp:368] loss2/fc -> loss2/fc
I0704 15:10:35.425487 22197 net.cpp:120] Setting up loss2/fc
I0704 15:10:35.435557 22197 net.cpp:127] Top shape: 30 1024 (30720)
I0704 15:10:35.435585 22197 layer_factory.hpp:74] Creating layer loss2/relu_fc
I0704 15:10:35.435598 22197 net.cpp:90] Creating Layer loss2/relu_fc
I0704 15:10:35.435611 22197 net.cpp:410] loss2/relu_fc <- loss2/fc
I0704 15:10:35.435623 22197 net.cpp:357] loss2/relu_fc -> loss2/fc (in-place)
I0704 15:10:35.435636 22197 net.cpp:120] Setting up loss2/relu_fc
I0704 15:10:35.435717 22197 net.cpp:127] Top shape: 30 1024 (30720)
I0704 15:10:35.435729 22197 layer_factory.hpp:74] Creating layer loss2/drop_fc
I0704 15:10:35.435741 22197 net.cpp:90] Creating Layer loss2/drop_fc
I0704 15:10:35.435751 22197 net.cpp:410] loss2/drop_fc <- loss2/fc
I0704 15:10:35.435761 22197 net.cpp:357] loss2/drop_fc -> loss2/fc (in-place)
I0704 15:10:35.435772 22197 net.cpp:120] Setting up loss2/drop_fc
I0704 15:10:35.435784 22197 net.cpp:127] Top shape: 30 1024 (30720)
I0704 15:10:35.435793 22197 layer_factory.hpp:74] Creating layer stanford_cars_loss2/classifier
I0704 15:10:35.435806 22197 net.cpp:90] Creating Layer stanford_cars_loss2/classifier
I0704 15:10:35.435816 22197 net.cpp:410] stanford_cars_loss2/classifier <- loss2/fc
I0704 15:10:35.435828 22197 net.cpp:368] stanford_cars_loss2/classifier -> stanford_cars_loss2/classifier
I0704 15:10:35.435842 22197 net.cpp:120] Setting up stanford_cars_loss2/classifier
I0704 15:10:35.436841 22197 net.cpp:127] Top shape: 30 196 (5880)
I0704 15:10:35.436854 22197 layer_factory.hpp:74] Creating layer stanford_cars_loss2/loss
I0704 15:10:35.436866 22197 net.cpp:90] Creating Layer stanford_cars_loss2/loss
I0704 15:10:35.436875 22197 net.cpp:410] stanford_cars_loss2/loss <- stanford_cars_loss2/classifier
I0704 15:10:35.436885 22197 net.cpp:410] stanford_cars_loss2/loss <- label_data_1_split_1
I0704 15:10:35.436897 22197 net.cpp:368] stanford_cars_loss2/loss -> loss2/loss1
I0704 15:10:35.436909 22197 net.cpp:120] Setting up stanford_cars_loss2/loss
I0704 15:10:35.436920 22197 layer_factory.hpp:74] Creating layer stanford_cars_loss2/loss
I0704 15:10:35.437011 22197 net.cpp:127] Top shape: (1)
I0704 15:10:35.437021 22197 net.cpp:129]     with loss weight 0.3
I0704 15:10:35.437041 22197 layer_factory.hpp:74] Creating layer inception_4e/1x1
I0704 15:10:35.437055 22197 net.cpp:90] Creating Layer inception_4e/1x1
I0704 15:10:35.437067 22197 net.cpp:410] inception_4e/1x1 <- inception_4d/output_inception_4d/output_0_split_1
I0704 15:10:35.437077 22197 net.cpp:368] inception_4e/1x1 -> inception_4e/1x1
I0704 15:10:35.437090 22197 net.cpp:120] Setting up inception_4e/1x1
I0704 15:10:35.438024 22197 net.cpp:127] Top shape: 30 256 14 14 (1505280)
I0704 15:10:35.438041 22197 layer_factory.hpp:74] Creating layer inception_4e/relu_1x1
I0704 15:10:35.438053 22197 net.cpp:90] Creating Layer inception_4e/relu_1x1
I0704 15:10:35.438063 22197 net.cpp:410] inception_4e/relu_1x1 <- inception_4e/1x1
I0704 15:10:35.438074 22197 net.cpp:357] inception_4e/relu_1x1 -> inception_4e/1x1 (in-place)
I0704 15:10:35.438086 22197 net.cpp:120] Setting up inception_4e/relu_1x1
I0704 15:10:35.438210 22197 net.cpp:127] Top shape: 30 256 14 14 (1505280)
I0704 15:10:35.438222 22197 layer_factory.hpp:74] Creating layer inception_4e/3x3_reduce
I0704 15:10:35.438235 22197 net.cpp:90] Creating Layer inception_4e/3x3_reduce
I0704 15:10:35.438246 22197 net.cpp:410] inception_4e/3x3_reduce <- inception_4d/output_inception_4d/output_0_split_2
I0704 15:10:35.438257 22197 net.cpp:368] inception_4e/3x3_reduce -> inception_4e/3x3_reduce
I0704 15:10:35.438271 22197 net.cpp:120] Setting up inception_4e/3x3_reduce
I0704 15:10:35.438895 22197 net.cpp:127] Top shape: 30 160 14 14 (940800)
I0704 15:10:35.438911 22197 layer_factory.hpp:74] Creating layer inception_4e/relu_3x3_reduce
I0704 15:10:35.438925 22197 net.cpp:90] Creating Layer inception_4e/relu_3x3_reduce
I0704 15:10:35.438935 22197 net.cpp:410] inception_4e/relu_3x3_reduce <- inception_4e/3x3_reduce
I0704 15:10:35.438946 22197 net.cpp:357] inception_4e/relu_3x3_reduce -> inception_4e/3x3_reduce (in-place)
I0704 15:10:35.438957 22197 net.cpp:120] Setting up inception_4e/relu_3x3_reduce
I0704 15:10:35.439015 22197 net.cpp:127] Top shape: 30 160 14 14 (940800)
I0704 15:10:35.439025 22197 layer_factory.hpp:74] Creating layer inception_4e/3x3
I0704 15:10:35.439039 22197 net.cpp:90] Creating Layer inception_4e/3x3
I0704 15:10:35.439049 22197 net.cpp:410] inception_4e/3x3 <- inception_4e/3x3_reduce
I0704 15:10:35.439061 22197 net.cpp:368] inception_4e/3x3 -> inception_4e/3x3
I0704 15:10:35.439074 22197 net.cpp:120] Setting up inception_4e/3x3
I0704 15:10:35.441520 22197 net.cpp:127] Top shape: 30 320 14 14 (1881600)
I0704 15:10:35.441537 22197 layer_factory.hpp:74] Creating layer inception_4e/relu_3x3
I0704 15:10:35.441548 22197 net.cpp:90] Creating Layer inception_4e/relu_3x3
I0704 15:10:35.441560 22197 net.cpp:410] inception_4e/relu_3x3 <- inception_4e/3x3
I0704 15:10:35.441571 22197 net.cpp:357] inception_4e/relu_3x3 -> inception_4e/3x3 (in-place)
I0704 15:10:35.441582 22197 net.cpp:120] Setting up inception_4e/relu_3x3
I0704 15:10:35.441637 22197 net.cpp:127] Top shape: 30 320 14 14 (1881600)
I0704 15:10:35.441648 22197 layer_factory.hpp:74] Creating layer inception_4e/5x5_reduce
I0704 15:10:35.441661 22197 net.cpp:90] Creating Layer inception_4e/5x5_reduce
I0704 15:10:35.441670 22197 net.cpp:410] inception_4e/5x5_reduce <- inception_4d/output_inception_4d/output_0_split_3
I0704 15:10:35.441683 22197 net.cpp:368] inception_4e/5x5_reduce -> inception_4e/5x5_reduce
I0704 15:10:35.441694 22197 net.cpp:120] Setting up inception_4e/5x5_reduce
I0704 15:10:35.441998 22197 net.cpp:127] Top shape: 30 32 14 14 (188160)
I0704 15:10:35.442013 22197 layer_factory.hpp:74] Creating layer inception_4e/relu_5x5_reduce
I0704 15:10:35.442025 22197 net.cpp:90] Creating Layer inception_4e/relu_5x5_reduce
I0704 15:10:35.442034 22197 net.cpp:410] inception_4e/relu_5x5_reduce <- inception_4e/5x5_reduce
I0704 15:10:35.442047 22197 net.cpp:357] inception_4e/relu_5x5_reduce -> inception_4e/5x5_reduce (in-place)
I0704 15:10:35.442069 22197 net.cpp:120] Setting up inception_4e/relu_5x5_reduce
I0704 15:10:35.442194 22197 net.cpp:127] Top shape: 30 32 14 14 (188160)
I0704 15:10:35.442206 22197 layer_factory.hpp:74] Creating layer inception_4e/5x5
I0704 15:10:35.442232 22197 net.cpp:90] Creating Layer inception_4e/5x5
I0704 15:10:35.442244 22197 net.cpp:410] inception_4e/5x5 <- inception_4e/5x5_reduce
I0704 15:10:35.442256 22197 net.cpp:368] inception_4e/5x5 -> inception_4e/5x5
I0704 15:10:35.442270 22197 net.cpp:120] Setting up inception_4e/5x5
I0704 15:10:35.442978 22197 net.cpp:127] Top shape: 30 128 14 14 (752640)
I0704 15:10:35.442994 22197 layer_factory.hpp:74] Creating layer inception_4e/relu_5x5
I0704 15:10:35.443007 22197 net.cpp:90] Creating Layer inception_4e/relu_5x5
I0704 15:10:35.443017 22197 net.cpp:410] inception_4e/relu_5x5 <- inception_4e/5x5
I0704 15:10:35.443028 22197 net.cpp:357] inception_4e/relu_5x5 -> inception_4e/5x5 (in-place)
I0704 15:10:35.443039 22197 net.cpp:120] Setting up inception_4e/relu_5x5
I0704 15:10:35.443099 22197 net.cpp:127] Top shape: 30 128 14 14 (752640)
I0704 15:10:35.443109 22197 layer_factory.hpp:74] Creating layer inception_4e/pool
I0704 15:10:35.443119 22197 layer_factory.cpp:55] CUDNN does not support padding or multiple tops. Using Caffe's own pooling layer.
I0704 15:10:35.443130 22197 net.cpp:90] Creating Layer inception_4e/pool
I0704 15:10:35.443138 22197 net.cpp:410] inception_4e/pool <- inception_4d/output_inception_4d/output_0_split_4
I0704 15:10:35.443150 22197 net.cpp:368] inception_4e/pool -> inception_4e/pool
I0704 15:10:35.443161 22197 net.cpp:120] Setting up inception_4e/pool
I0704 15:10:35.443176 22197 net.cpp:127] Top shape: 30 528 14 14 (3104640)
I0704 15:10:35.443184 22197 layer_factory.hpp:74] Creating layer inception_4e/pool_proj
I0704 15:10:35.443197 22197 net.cpp:90] Creating Layer inception_4e/pool_proj
I0704 15:10:35.443205 22197 net.cpp:410] inception_4e/pool_proj <- inception_4e/pool
I0704 15:10:35.443219 22197 net.cpp:368] inception_4e/pool_proj -> inception_4e/pool_proj
I0704 15:10:35.443231 22197 net.cpp:120] Setting up inception_4e/pool_proj
I0704 15:10:35.443783 22197 net.cpp:127] Top shape: 30 128 14 14 (752640)
I0704 15:10:35.443799 22197 layer_factory.hpp:74] Creating layer inception_4e/relu_pool_proj
I0704 15:10:35.443810 22197 net.cpp:90] Creating Layer inception_4e/relu_pool_proj
I0704 15:10:35.443820 22197 net.cpp:410] inception_4e/relu_pool_proj <- inception_4e/pool_proj
I0704 15:10:35.443831 22197 net.cpp:357] inception_4e/relu_pool_proj -> inception_4e/pool_proj (in-place)
I0704 15:10:35.443843 22197 net.cpp:120] Setting up inception_4e/relu_pool_proj
I0704 15:10:35.443900 22197 net.cpp:127] Top shape: 30 128 14 14 (752640)
I0704 15:10:35.443912 22197 layer_factory.hpp:74] Creating layer inception_4e/output
I0704 15:10:35.443922 22197 net.cpp:90] Creating Layer inception_4e/output
I0704 15:10:35.443931 22197 net.cpp:410] inception_4e/output <- inception_4e/1x1
I0704 15:10:35.443941 22197 net.cpp:410] inception_4e/output <- inception_4e/3x3
I0704 15:10:35.443950 22197 net.cpp:410] inception_4e/output <- inception_4e/5x5
I0704 15:10:35.443960 22197 net.cpp:410] inception_4e/output <- inception_4e/pool_proj
I0704 15:10:35.443971 22197 net.cpp:368] inception_4e/output -> inception_4e/output
I0704 15:10:35.443981 22197 net.cpp:120] Setting up inception_4e/output
I0704 15:10:35.443989 22197 net.cpp:127] Top shape: 30 832 14 14 (4892160)
I0704 15:10:35.443994 22197 layer_factory.hpp:74] Creating layer pool4/3x3_s2
I0704 15:10:35.444000 22197 net.cpp:90] Creating Layer pool4/3x3_s2
I0704 15:10:35.444005 22197 net.cpp:410] pool4/3x3_s2 <- inception_4e/output
I0704 15:10:35.444011 22197 net.cpp:368] pool4/3x3_s2 -> pool4/3x3_s2
I0704 15:10:35.444018 22197 net.cpp:120] Setting up pool4/3x3_s2
I0704 15:10:35.444063 22197 net.cpp:127] Top shape: 30 832 7 7 (1223040)
I0704 15:10:35.444070 22197 layer_factory.hpp:74] Creating layer pool4/3x3_s2_pool4/3x3_s2_0_split
I0704 15:10:35.444077 22197 net.cpp:90] Creating Layer pool4/3x3_s2_pool4/3x3_s2_0_split
I0704 15:10:35.444088 22197 net.cpp:410] pool4/3x3_s2_pool4/3x3_s2_0_split <- pool4/3x3_s2
I0704 15:10:35.444095 22197 net.cpp:368] pool4/3x3_s2_pool4/3x3_s2_0_split -> pool4/3x3_s2_pool4/3x3_s2_0_split_0
I0704 15:10:35.444103 22197 net.cpp:368] pool4/3x3_s2_pool4/3x3_s2_0_split -> pool4/3x3_s2_pool4/3x3_s2_0_split_1
I0704 15:10:35.444108 22197 net.cpp:368] pool4/3x3_s2_pool4/3x3_s2_0_split -> pool4/3x3_s2_pool4/3x3_s2_0_split_2
I0704 15:10:35.444115 22197 net.cpp:368] pool4/3x3_s2_pool4/3x3_s2_0_split -> pool4/3x3_s2_pool4/3x3_s2_0_split_3
I0704 15:10:35.444121 22197 net.cpp:120] Setting up pool4/3x3_s2_pool4/3x3_s2_0_split
I0704 15:10:35.444128 22197 net.cpp:127] Top shape: 30 832 7 7 (1223040)
I0704 15:10:35.444134 22197 net.cpp:127] Top shape: 30 832 7 7 (1223040)
I0704 15:10:35.444139 22197 net.cpp:127] Top shape: 30 832 7 7 (1223040)
I0704 15:10:35.444144 22197 net.cpp:127] Top shape: 30 832 7 7 (1223040)
I0704 15:10:35.444149 22197 layer_factory.hpp:74] Creating layer inception_5a/1x1
I0704 15:10:35.444155 22197 net.cpp:90] Creating Layer inception_5a/1x1
I0704 15:10:35.444161 22197 net.cpp:410] inception_5a/1x1 <- pool4/3x3_s2_pool4/3x3_s2_0_split_0
I0704 15:10:35.444167 22197 net.cpp:368] inception_5a/1x1 -> inception_5a/1x1
I0704 15:10:35.444175 22197 net.cpp:120] Setting up inception_5a/1x1
I0704 15:10:35.445415 22197 net.cpp:127] Top shape: 30 256 7 7 (376320)
I0704 15:10:35.445428 22197 layer_factory.hpp:74] Creating layer inception_5a/relu_1x1
I0704 15:10:35.445436 22197 net.cpp:90] Creating Layer inception_5a/relu_1x1
I0704 15:10:35.445441 22197 net.cpp:410] inception_5a/relu_1x1 <- inception_5a/1x1
I0704 15:10:35.445447 22197 net.cpp:357] inception_5a/relu_1x1 -> inception_5a/1x1 (in-place)
I0704 15:10:35.445454 22197 net.cpp:120] Setting up inception_5a/relu_1x1
I0704 15:10:35.445564 22197 net.cpp:127] Top shape: 30 256 7 7 (376320)
I0704 15:10:35.445574 22197 layer_factory.hpp:74] Creating layer inception_5a/3x3_reduce
I0704 15:10:35.445580 22197 net.cpp:90] Creating Layer inception_5a/3x3_reduce
I0704 15:10:35.445586 22197 net.cpp:410] inception_5a/3x3_reduce <- pool4/3x3_s2_pool4/3x3_s2_0_split_1
I0704 15:10:35.445593 22197 net.cpp:368] inception_5a/3x3_reduce -> inception_5a/3x3_reduce
I0704 15:10:35.445601 22197 net.cpp:120] Setting up inception_5a/3x3_reduce
I0704 15:10:35.446446 22197 net.cpp:127] Top shape: 30 160 7 7 (235200)
I0704 15:10:35.446458 22197 layer_factory.hpp:74] Creating layer inception_5a/relu_3x3_reduce
I0704 15:10:35.446466 22197 net.cpp:90] Creating Layer inception_5a/relu_3x3_reduce
I0704 15:10:35.446472 22197 net.cpp:410] inception_5a/relu_3x3_reduce <- inception_5a/3x3_reduce
I0704 15:10:35.446478 22197 net.cpp:357] inception_5a/relu_3x3_reduce -> inception_5a/3x3_reduce (in-place)
I0704 15:10:35.446485 22197 net.cpp:120] Setting up inception_5a/relu_3x3_reduce
I0704 15:10:35.446527 22197 net.cpp:127] Top shape: 30 160 7 7 (235200)
I0704 15:10:35.446533 22197 layer_factory.hpp:74] Creating layer inception_5a/3x3
I0704 15:10:35.446542 22197 net.cpp:90] Creating Layer inception_5a/3x3
I0704 15:10:35.446547 22197 net.cpp:410] inception_5a/3x3 <- inception_5a/3x3_reduce
I0704 15:10:35.446552 22197 net.cpp:368] inception_5a/3x3 -> inception_5a/3x3
I0704 15:10:35.446559 22197 net.cpp:120] Setting up inception_5a/3x3
I0704 15:10:35.448993 22197 net.cpp:127] Top shape: 30 320 7 7 (470400)
I0704 15:10:35.449005 22197 layer_factory.hpp:74] Creating layer inception_5a/relu_3x3
I0704 15:10:35.449012 22197 net.cpp:90] Creating Layer inception_5a/relu_3x3
I0704 15:10:35.449018 22197 net.cpp:410] inception_5a/relu_3x3 <- inception_5a/3x3
I0704 15:10:35.449023 22197 net.cpp:357] inception_5a/relu_3x3 -> inception_5a/3x3 (in-place)
I0704 15:10:35.449029 22197 net.cpp:120] Setting up inception_5a/relu_3x3
I0704 15:10:35.449070 22197 net.cpp:127] Top shape: 30 320 7 7 (470400)
I0704 15:10:35.449077 22197 layer_factory.hpp:74] Creating layer inception_5a/5x5_reduce
I0704 15:10:35.449084 22197 net.cpp:90] Creating Layer inception_5a/5x5_reduce
I0704 15:10:35.449090 22197 net.cpp:410] inception_5a/5x5_reduce <- pool4/3x3_s2_pool4/3x3_s2_0_split_2
I0704 15:10:35.449105 22197 net.cpp:368] inception_5a/5x5_reduce -> inception_5a/5x5_reduce
I0704 15:10:35.449112 22197 net.cpp:120] Setting up inception_5a/5x5_reduce
I0704 15:10:35.449447 22197 net.cpp:127] Top shape: 30 32 7 7 (47040)
I0704 15:10:35.449460 22197 layer_factory.hpp:74] Creating layer inception_5a/relu_5x5_reduce
I0704 15:10:35.449467 22197 net.cpp:90] Creating Layer inception_5a/relu_5x5_reduce
I0704 15:10:35.449472 22197 net.cpp:410] inception_5a/relu_5x5_reduce <- inception_5a/5x5_reduce
I0704 15:10:35.449478 22197 net.cpp:357] inception_5a/relu_5x5_reduce -> inception_5a/5x5_reduce (in-place)
I0704 15:10:35.449486 22197 net.cpp:120] Setting up inception_5a/relu_5x5_reduce
I0704 15:10:35.449563 22197 net.cpp:127] Top shape: 30 32 7 7 (47040)
I0704 15:10:35.449570 22197 layer_factory.hpp:74] Creating layer inception_5a/5x5
I0704 15:10:35.449579 22197 net.cpp:90] Creating Layer inception_5a/5x5
I0704 15:10:35.449584 22197 net.cpp:410] inception_5a/5x5 <- inception_5a/5x5_reduce
I0704 15:10:35.449591 22197 net.cpp:368] inception_5a/5x5 -> inception_5a/5x5
I0704 15:10:35.449599 22197 net.cpp:120] Setting up inception_5a/5x5
I0704 15:10:35.450316 22197 net.cpp:127] Top shape: 30 128 7 7 (188160)
I0704 15:10:35.450328 22197 layer_factory.hpp:74] Creating layer inception_5a/relu_5x5
I0704 15:10:35.450335 22197 net.cpp:90] Creating Layer inception_5a/relu_5x5
I0704 15:10:35.450340 22197 net.cpp:410] inception_5a/relu_5x5 <- inception_5a/5x5
I0704 15:10:35.450346 22197 net.cpp:357] inception_5a/relu_5x5 -> inception_5a/5x5 (in-place)
I0704 15:10:35.450352 22197 net.cpp:120] Setting up inception_5a/relu_5x5
I0704 15:10:35.450459 22197 net.cpp:127] Top shape: 30 128 7 7 (188160)
I0704 15:10:35.450469 22197 layer_factory.hpp:74] Creating layer inception_5a/pool
I0704 15:10:35.450474 22197 layer_factory.cpp:55] CUDNN does not support padding or multiple tops. Using Caffe's own pooling layer.
I0704 15:10:35.450481 22197 net.cpp:90] Creating Layer inception_5a/pool
I0704 15:10:35.450487 22197 net.cpp:410] inception_5a/pool <- pool4/3x3_s2_pool4/3x3_s2_0_split_3
I0704 15:10:35.450494 22197 net.cpp:368] inception_5a/pool -> inception_5a/pool
I0704 15:10:35.450500 22197 net.cpp:120] Setting up inception_5a/pool
I0704 15:10:35.450508 22197 net.cpp:127] Top shape: 30 832 7 7 (1223040)
I0704 15:10:35.450513 22197 layer_factory.hpp:74] Creating layer inception_5a/pool_proj
I0704 15:10:35.450520 22197 net.cpp:90] Creating Layer inception_5a/pool_proj
I0704 15:10:35.450525 22197 net.cpp:410] inception_5a/pool_proj <- inception_5a/pool
I0704 15:10:35.450533 22197 net.cpp:368] inception_5a/pool_proj -> inception_5a/pool_proj
I0704 15:10:35.450541 22197 net.cpp:120] Setting up inception_5a/pool_proj
I0704 15:10:35.451258 22197 net.cpp:127] Top shape: 30 128 7 7 (188160)
I0704 15:10:35.451270 22197 layer_factory.hpp:74] Creating layer inception_5a/relu_pool_proj
I0704 15:10:35.451277 22197 net.cpp:90] Creating Layer inception_5a/relu_pool_proj
I0704 15:10:35.451282 22197 net.cpp:410] inception_5a/relu_pool_proj <- inception_5a/pool_proj
I0704 15:10:35.451288 22197 net.cpp:357] inception_5a/relu_pool_proj -> inception_5a/pool_proj (in-place)
I0704 15:10:35.451295 22197 net.cpp:120] Setting up inception_5a/relu_pool_proj
I0704 15:10:35.451340 22197 net.cpp:127] Top shape: 30 128 7 7 (188160)
I0704 15:10:35.451347 22197 layer_factory.hpp:74] Creating layer inception_5a/output
I0704 15:10:35.451354 22197 net.cpp:90] Creating Layer inception_5a/output
I0704 15:10:35.451359 22197 net.cpp:410] inception_5a/output <- inception_5a/1x1
I0704 15:10:35.451364 22197 net.cpp:410] inception_5a/output <- inception_5a/3x3
I0704 15:10:35.451370 22197 net.cpp:410] inception_5a/output <- inception_5a/5x5
I0704 15:10:35.451375 22197 net.cpp:410] inception_5a/output <- inception_5a/pool_proj
I0704 15:10:35.451380 22197 net.cpp:368] inception_5a/output -> inception_5a/output
I0704 15:10:35.451387 22197 net.cpp:120] Setting up inception_5a/output
I0704 15:10:35.451395 22197 net.cpp:127] Top shape: 30 832 7 7 (1223040)
I0704 15:10:35.451406 22197 layer_factory.hpp:74] Creating layer inception_5a/output_inception_5a/output_0_split
I0704 15:10:35.451412 22197 net.cpp:90] Creating Layer inception_5a/output_inception_5a/output_0_split
I0704 15:10:35.451417 22197 net.cpp:410] inception_5a/output_inception_5a/output_0_split <- inception_5a/output
I0704 15:10:35.451424 22197 net.cpp:368] inception_5a/output_inception_5a/output_0_split -> inception_5a/output_inception_5a/output_0_split_0
I0704 15:10:35.451431 22197 net.cpp:368] inception_5a/output_inception_5a/output_0_split -> inception_5a/output_inception_5a/output_0_split_1
I0704 15:10:35.451438 22197 net.cpp:368] inception_5a/output_inception_5a/output_0_split -> inception_5a/output_inception_5a/output_0_split_2
I0704 15:10:35.451445 22197 net.cpp:368] inception_5a/output_inception_5a/output_0_split -> inception_5a/output_inception_5a/output_0_split_3
I0704 15:10:35.451452 22197 net.cpp:120] Setting up inception_5a/output_inception_5a/output_0_split
I0704 15:10:35.451457 22197 net.cpp:127] Top shape: 30 832 7 7 (1223040)
I0704 15:10:35.451462 22197 net.cpp:127] Top shape: 30 832 7 7 (1223040)
I0704 15:10:35.451467 22197 net.cpp:127] Top shape: 30 832 7 7 (1223040)
I0704 15:10:35.451472 22197 net.cpp:127] Top shape: 30 832 7 7 (1223040)
I0704 15:10:35.451478 22197 layer_factory.hpp:74] Creating layer inception_5b/1x1
I0704 15:10:35.451484 22197 net.cpp:90] Creating Layer inception_5b/1x1
I0704 15:10:35.451489 22197 net.cpp:410] inception_5b/1x1 <- inception_5a/output_inception_5a/output_0_split_0
I0704 15:10:35.451496 22197 net.cpp:368] inception_5b/1x1 -> inception_5b/1x1
I0704 15:10:35.451503 22197 net.cpp:120] Setting up inception_5b/1x1
I0704 15:10:35.453258 22197 net.cpp:127] Top shape: 30 384 7 7 (564480)
I0704 15:10:35.453270 22197 layer_factory.hpp:74] Creating layer inception_5b/relu_1x1
I0704 15:10:35.453277 22197 net.cpp:90] Creating Layer inception_5b/relu_1x1
I0704 15:10:35.453282 22197 net.cpp:410] inception_5b/relu_1x1 <- inception_5b/1x1
I0704 15:10:35.453289 22197 net.cpp:357] inception_5b/relu_1x1 -> inception_5b/1x1 (in-place)
I0704 15:10:35.453295 22197 net.cpp:120] Setting up inception_5b/relu_1x1
I0704 15:10:35.453336 22197 net.cpp:127] Top shape: 30 384 7 7 (564480)
I0704 15:10:35.453342 22197 layer_factory.hpp:74] Creating layer inception_5b/3x3_reduce
I0704 15:10:35.453349 22197 net.cpp:90] Creating Layer inception_5b/3x3_reduce
I0704 15:10:35.453354 22197 net.cpp:410] inception_5b/3x3_reduce <- inception_5a/output_inception_5a/output_0_split_1
I0704 15:10:35.453362 22197 net.cpp:368] inception_5b/3x3_reduce -> inception_5b/3x3_reduce
I0704 15:10:35.453371 22197 net.cpp:120] Setting up inception_5b/3x3_reduce
I0704 15:10:35.454349 22197 net.cpp:127] Top shape: 30 192 7 7 (282240)
I0704 15:10:35.454360 22197 layer_factory.hpp:74] Creating layer inception_5b/relu_3x3_reduce
I0704 15:10:35.454367 22197 net.cpp:90] Creating Layer inception_5b/relu_3x3_reduce
I0704 15:10:35.454372 22197 net.cpp:410] inception_5b/relu_3x3_reduce <- inception_5b/3x3_reduce
I0704 15:10:35.454378 22197 net.cpp:357] inception_5b/relu_3x3_reduce -> inception_5b/3x3_reduce (in-place)
I0704 15:10:35.454385 22197 net.cpp:120] Setting up inception_5b/relu_3x3_reduce
I0704 15:10:35.454427 22197 net.cpp:127] Top shape: 30 192 7 7 (282240)
I0704 15:10:35.454433 22197 layer_factory.hpp:74] Creating layer inception_5b/3x3
I0704 15:10:35.454440 22197 net.cpp:90] Creating Layer inception_5b/3x3
I0704 15:10:35.454447 22197 net.cpp:410] inception_5b/3x3 <- inception_5b/3x3_reduce
I0704 15:10:35.454452 22197 net.cpp:368] inception_5b/3x3 -> inception_5b/3x3
I0704 15:10:35.454469 22197 net.cpp:120] Setting up inception_5b/3x3
I0704 15:10:35.457702 22197 net.cpp:127] Top shape: 30 384 7 7 (564480)
I0704 15:10:35.457715 22197 layer_factory.hpp:74] Creating layer inception_5b/relu_3x3
I0704 15:10:35.457722 22197 net.cpp:90] Creating Layer inception_5b/relu_3x3
I0704 15:10:35.457728 22197 net.cpp:410] inception_5b/relu_3x3 <- inception_5b/3x3
I0704 15:10:35.457734 22197 net.cpp:357] inception_5b/relu_3x3 -> inception_5b/3x3 (in-place)
I0704 15:10:35.457751 22197 net.cpp:120] Setting up inception_5b/relu_3x3
I0704 15:10:35.457864 22197 net.cpp:127] Top shape: 30 384 7 7 (564480)
I0704 15:10:35.457872 22197 layer_factory.hpp:74] Creating layer inception_5b/5x5_reduce
I0704 15:10:35.457880 22197 net.cpp:90] Creating Layer inception_5b/5x5_reduce
I0704 15:10:35.457885 22197 net.cpp:410] inception_5b/5x5_reduce <- inception_5a/output_inception_5a/output_0_split_2
I0704 15:10:35.457895 22197 net.cpp:368] inception_5b/5x5_reduce -> inception_5b/5x5_reduce
I0704 15:10:35.457901 22197 net.cpp:120] Setting up inception_5b/5x5_reduce
I0704 15:10:35.458362 22197 net.cpp:127] Top shape: 30 48 7 7 (70560)
I0704 15:10:35.458386 22197 layer_factory.hpp:74] Creating layer inception_5b/relu_5x5_reduce
I0704 15:10:35.458401 22197 net.cpp:90] Creating Layer inception_5b/relu_5x5_reduce
I0704 15:10:35.458407 22197 net.cpp:410] inception_5b/relu_5x5_reduce <- inception_5b/5x5_reduce
I0704 15:10:35.458413 22197 net.cpp:357] inception_5b/relu_5x5_reduce -> inception_5b/5x5_reduce (in-place)
I0704 15:10:35.458420 22197 net.cpp:120] Setting up inception_5b/relu_5x5_reduce
I0704 15:10:35.458462 22197 net.cpp:127] Top shape: 30 48 7 7 (70560)
I0704 15:10:35.458469 22197 layer_factory.hpp:74] Creating layer inception_5b/5x5
I0704 15:10:35.458477 22197 net.cpp:90] Creating Layer inception_5b/5x5
I0704 15:10:35.458483 22197 net.cpp:410] inception_5b/5x5 <- inception_5b/5x5_reduce
I0704 15:10:35.458489 22197 net.cpp:368] inception_5b/5x5 -> inception_5b/5x5
I0704 15:10:35.458497 22197 net.cpp:120] Setting up inception_5b/5x5
I0704 15:10:35.459604 22197 net.cpp:127] Top shape: 30 128 7 7 (188160)
I0704 15:10:35.459616 22197 layer_factory.hpp:74] Creating layer inception_5b/relu_5x5
I0704 15:10:35.459624 22197 net.cpp:90] Creating Layer inception_5b/relu_5x5
I0704 15:10:35.459630 22197 net.cpp:410] inception_5b/relu_5x5 <- inception_5b/5x5
I0704 15:10:35.459635 22197 net.cpp:357] inception_5b/relu_5x5 -> inception_5b/5x5 (in-place)
I0704 15:10:35.459641 22197 net.cpp:120] Setting up inception_5b/relu_5x5
I0704 15:10:35.459684 22197 net.cpp:127] Top shape: 30 128 7 7 (188160)
I0704 15:10:35.459692 22197 layer_factory.hpp:74] Creating layer inception_5b/pool
I0704 15:10:35.459697 22197 layer_factory.cpp:55] CUDNN does not support padding or multiple tops. Using Caffe's own pooling layer.
I0704 15:10:35.459703 22197 net.cpp:90] Creating Layer inception_5b/pool
I0704 15:10:35.459708 22197 net.cpp:410] inception_5b/pool <- inception_5a/output_inception_5a/output_0_split_3
I0704 15:10:35.459715 22197 net.cpp:368] inception_5b/pool -> inception_5b/pool
I0704 15:10:35.459722 22197 net.cpp:120] Setting up inception_5b/pool
I0704 15:10:35.459730 22197 net.cpp:127] Top shape: 30 832 7 7 (1223040)
I0704 15:10:35.459734 22197 layer_factory.hpp:74] Creating layer inception_5b/pool_proj
I0704 15:10:35.459741 22197 net.cpp:90] Creating Layer inception_5b/pool_proj
I0704 15:10:35.459746 22197 net.cpp:410] inception_5b/pool_proj <- inception_5b/pool
I0704 15:10:35.459753 22197 net.cpp:368] inception_5b/pool_proj -> inception_5b/pool_proj
I0704 15:10:35.459760 22197 net.cpp:120] Setting up inception_5b/pool_proj
I0704 15:10:35.460741 22197 net.cpp:127] Top shape: 30 128 7 7 (188160)
I0704 15:10:35.460759 22197 layer_factory.hpp:74] Creating layer inception_5b/relu_pool_proj
I0704 15:10:35.460770 22197 net.cpp:90] Creating Layer inception_5b/relu_pool_proj
I0704 15:10:35.460779 22197 net.cpp:410] inception_5b/relu_pool_proj <- inception_5b/pool_proj
I0704 15:10:35.460789 22197 net.cpp:357] inception_5b/relu_pool_proj -> inception_5b/pool_proj (in-place)
I0704 15:10:35.460799 22197 net.cpp:120] Setting up inception_5b/relu_pool_proj
I0704 15:10:35.460947 22197 net.cpp:127] Top shape: 30 128 7 7 (188160)
I0704 15:10:35.460960 22197 layer_factory.hpp:74] Creating layer inception_5b/output
I0704 15:10:35.460968 22197 net.cpp:90] Creating Layer inception_5b/output
I0704 15:10:35.460978 22197 net.cpp:410] inception_5b/output <- inception_5b/1x1
I0704 15:10:35.460997 22197 net.cpp:410] inception_5b/output <- inception_5b/3x3
I0704 15:10:35.461078 22197 net.cpp:410] inception_5b/output <- inception_5b/5x5
I0704 15:10:35.461088 22197 net.cpp:410] inception_5b/output <- inception_5b/pool_proj
I0704 15:10:35.461100 22197 net.cpp:368] inception_5b/output -> inception_5b/output
I0704 15:10:35.461122 22197 net.cpp:120] Setting up inception_5b/output
I0704 15:10:35.461143 22197 net.cpp:127] Top shape: 30 1024 7 7 (1505280)
I0704 15:10:35.461153 22197 layer_factory.hpp:74] Creating layer pool5/7x7_s1
I0704 15:10:35.461163 22197 net.cpp:90] Creating Layer pool5/7x7_s1
I0704 15:10:35.461170 22197 net.cpp:410] pool5/7x7_s1 <- inception_5b/output
I0704 15:10:35.461182 22197 net.cpp:368] pool5/7x7_s1 -> pool5/7x7_s1
I0704 15:10:35.461192 22197 net.cpp:120] Setting up pool5/7x7_s1
I0704 15:10:35.461262 22197 net.cpp:127] Top shape: 30 1024 1 1 (30720)
I0704 15:10:35.461272 22197 layer_factory.hpp:74] Creating layer pool5/drop_7x7_s1
I0704 15:10:35.461285 22197 net.cpp:90] Creating Layer pool5/drop_7x7_s1
I0704 15:10:35.461293 22197 net.cpp:410] pool5/drop_7x7_s1 <- pool5/7x7_s1
I0704 15:10:35.461303 22197 net.cpp:357] pool5/drop_7x7_s1 -> pool5/7x7_s1 (in-place)
I0704 15:10:35.461313 22197 net.cpp:120] Setting up pool5/drop_7x7_s1
I0704 15:10:35.461324 22197 net.cpp:127] Top shape: 30 1024 1 1 (30720)
I0704 15:10:35.461333 22197 layer_factory.hpp:74] Creating layer stanford_cars_loss3/classifier
I0704 15:10:35.461346 22197 net.cpp:90] Creating Layer stanford_cars_loss3/classifier
I0704 15:10:35.461354 22197 net.cpp:410] stanford_cars_loss3/classifier <- pool5/7x7_s1
I0704 15:10:35.461365 22197 net.cpp:368] stanford_cars_loss3/classifier -> stanford_cars_loss3/classifier
I0704 15:10:35.461376 22197 net.cpp:120] Setting up stanford_cars_loss3/classifier
I0704 15:10:35.462666 22197 net.cpp:127] Top shape: 30 196 (5880)
I0704 15:10:35.462678 22197 layer_factory.hpp:74] Creating layer loss3/loss3
I0704 15:10:35.462687 22197 net.cpp:90] Creating Layer loss3/loss3
I0704 15:10:35.462692 22197 net.cpp:410] loss3/loss3 <- stanford_cars_loss3/classifier
I0704 15:10:35.462698 22197 net.cpp:410] loss3/loss3 <- label_data_1_split_2
I0704 15:10:35.462704 22197 net.cpp:368] loss3/loss3 -> loss3/loss3
I0704 15:10:35.462712 22197 net.cpp:120] Setting up loss3/loss3
…
I0704 15:10:35.466620 22197 net.cpp:287] The NetState phase (1) differed from the phase (0) specified by a rule in layer data
I0704 15:10:35.467293 22197 net.cpp:42] Initializing net from parameters: 
name: "GoogleNet"
state {
  phase: TEST
}
layer {
  name: "data"
  type: "Data"
  top: "data"
  top: "label"
  include {
    phase: TEST
  }
  transform_param {
    mirror: false
    crop_size: 224
    mean_value: 104
    mean_value: 117
    mean_value: 123
  }
  data_param {
    source: "examples/stanford_cars/stanford_cars_val_lmdb"
    batch_size: 10
    backend: LMDB
  }
}
layer {
  name: "conv1/7x7_s2"
  type: "Convolution"
  bottom: "data"
  top: "conv1/7x7_s2"
  param {
    lr_mult: 1
    decay_mult: 1
  }
  param {
    lr_mult: 2
    decay_mult: 0
  }
  convolution_param {
    num_output: 64
    pad: 3
    kernel_size: 7
    stride: 2
    weight_filler {
      type: "xavier"
      std: 0.1
    }
    bias_filler {
      type: "constant"
      value: 0.2
    }
  }
}
layer {
  name: "conv1/relu_7x7"
  type: "ReLU"
  bottom: "conv1/7x7_s2"
  top: "conv1/7x7_s2"
}
layer {
  name: "pool1/3x3_s2"
  type: "Pooling"
  bottom: "conv1/7x7_s2"
  top: "pool1/3x3_s2"
  pooling_param {
    pool: MAX
    kernel_size: 3
    stride: 2
  }
}
layer {
  name: "pool1/norm1"
  type: "LRN"
  bottom: "pool1/3x3_s2"
  top: "pool1/norm1"
  lrn_param {
    local_size: 5
    alpha: 0.0001
    beta: 0.75
  }
}
layer {
  name: "conv2/3x3_reduce"
  type: "Convolution"
  bottom: "pool1/norm1"
  top: "conv2/3x3_reduce"
  param {
    lr_mult: 1
    decay_mult: 1
  }
  param {
    lr_mult: 2
    decay_mult: 0
  }
  convolution_param {
    num_output: 64
    kernel_size: 1
    weight_filler {
      type: "xavier"
      std: 0.1
    }
    bias_filler {
      type: "constant"
      value: 0.2
    }
  }
}
layer {
  name: "conv2/relu_3x3_reduce"
  type: "ReLU"
  bottom: "conv2/3x3_reduce"
  top: "conv2/3x3_reduce"
}
layer {
  name: "conv2/3x3"
  type: "Convolution"
  bottom: "conv2/3x3_reduce"
  top: "conv2/3x3"
  param {
    lr_mult: 1
    decay_mult: 1
  }
  param {
    lr_mult: 2
    decay_mult: 0
  }
  convolution_param {
    num_output: 192
    pad: 1
    kernel_size: 3
    weight_filler {
      type: "xavier"
      std: 0.03
    }
    bias_filler {
      type: "constant"
      value: 0.2
    }
  }
}
layer {
  name: "conv2/relu_3x3"
  type: "ReLU"
  bottom: "conv2/3x3"
  top: "conv2/3x3"
}
layer {
  name: "conv2/norm2"
  type: "LRN"
  bottom: "conv2/3x3"
  top: "conv2/norm2"
  lrn_param {
    local_size: 5
    alpha: 0.0001
    beta: 0.75
  }
}
layer {
  name: "pool2/3x3_s2"
  type: "Pooling"
  bottom: "conv2/norm2"
  top: "pool2/3x3_s2"
  pooling_param {
    pool: MAX
    kernel_size: 3
    stride: 2
  }
}
layer {
  name: "inception_3a/1x1"
  type: "Convolution"
  bottom: "pool2/3x3_s2"
  top: "inception_3a/1x1"
  param {
    lr_mult: 1
    decay_mult: 1
  }
  param {
    lr_mult: 2
    decay_mult: 0
  }
  convolution_param {
    num_output: 64
    kernel_size: 1
    weight_filler {
      type: "xavier"
      std: 0.03
    }
    bias_filler {
      type: "constant"
      value: 0.2
    }
  }
}
layer {
  name: "inception_3a/relu_1x1"
  type: "ReLU"
  bottom: "inception_3a/1x1"
  top: "inception_3a/1x1"
}
layer {
  name: "inception_3a/3x3_reduce"
  type: "Convolution"
  bottom: "pool2/3x3_s2"
  top: "inception_3a/3x3_reduce"
  param {
    lr_mult: 1
    decay_mult: 1
  }
  param {
    lr_mult: 2
    decay_mult: 0
  }
  convolution_param {
    num_output: 96
    kernel_size: 1
    weight_filler {
      type: "xavier"
      std: 0.09
    }
    bias_filler {
      type: "constant"
      value: 0.2
    }
  }
}
layer {
  name: "inception_3a/relu_3x3_reduce"
  type: "ReLU"
  bottom: "inception_3a/3x3_reduce"
  top: "inception_3a/3x3_reduce"
}
layer {
  name: "inception_3a/3x3"
  type: "Convolution"
  bottom: "inception_3a/3x3_reduce"
  top: "inception_3a/3x3"
  param {
    lr_mult: 1
    decay_mult: 1
  }
  param {
    lr_mult: 2
    decay_mult: 0
  }
  convolution_param {
    num_output: 128
    pad: 1
    kernel_size: 3
    weight_filler {
      type: "xavier"
      std: 0.03
    }
    bias_filler {
      type: "constant"
      value: 0.2
    }
  }
}
layer {
  name: "inception_3a/relu_3x3"
  type: "ReLU"
  bottom: "inception_3a/3x3"
  top: "inception_3a/3x3"
}
layer {
  name: "inception_3a/5x5_reduce"
  type: "Convolution"
  bottom: "pool2/3x3_s2"
  top: "inception_3a/5x5_reduce"
  param {
    lr_mult: 1
    decay_mult: 1
  }
  param {
    lr_mult: 2
    decay_mult: 0
  }
  convolution_param {
    num_output: 16
    kernel_size: 1
    weight_filler {
      type: "xavier"
      std: 0.2
    }
    bias_filler {
      type: "constant"
      value: 0.2
    }
  }
}
layer {
  name: "inception_3a/relu_5x5_reduce"
  type: "ReLU"
  bottom: "inception_3a/5x5_reduce"
  top: "inception_3a/5x5_reduce"
}
layer {
  name: "inception_3a/5x5"
  type: "Convolution"
  bottom: "inception_3a/5x5_reduce"
  top: "inception_3a/5x5"
  param {
    lr_mult: 1
    decay_mult: 1
  }
  param {
    lr_mult: 2
    decay_mult: 0
  }
  convolution_param {
    num_output: 32
    pad: 2
    kernel_size: 5
    weight_filler {
      type: "xavier"
      std: 0.03
    }
    bias_filler {
      type: "constant"
      value: 0.2
    }
  }
}
layer {
  name: "inception_3a/relu_5x5"
  type: "ReLU"
  bottom: "inception_3a/5x5"
  top: "inception_3a/5x5"
}
layer {
  name: "inception_3a/pool"
  type: "Pooling"
  bottom: "pool2/3x3_s2"
  top: "inception_3a/pool"
  pooling_param {
    pool: MAX
    kernel_size: 3
    stride: 1
    pad: 1
  }
}
layer {
  name: "inception_3a/pool_proj"
  type: "Convolution"
  bottom: "inception_3a/pool"
  top: "inception_3a/pool_proj"
  param {
    lr_mult: 1
    decay_mult: 1
  }
  param {
    lr_mult: 2
    decay_mult: 0
  }
  convolution_param {
    num_output: 32
    kernel_size: 1
    weight_filler {
      type: "xavier"
      std: 0.1
    }
    bias_filler {
      type: "constant"
      value: 0.2
    }
  }
}
layer {
  name: "inception_3a/relu_pool_proj"
  type: "ReLU"
  bottom: "inception_3a/pool_proj"
  top: "inception_3a/pool_proj"
}
layer {
  name: "inception_3a/output"
  type: "Concat"
  bottom: "inception_3a/1x1"
  bottom: "inception_3a/3x3"
  bottom: "inception_3a/5x5"
  bottom: "inception_3a/pool_proj"
  top: "inception_3a/output"
}
layer {
  name: "inception_3b/1x1"
  type: "Convolution"
  bottom: "inception_3a/output"
  top: "inception_3b/1x1"
  param {
    lr_mult: 1
    decay_mult: 1
  }
  param {
    lr_mult: 2
    decay_mult: 0
  }
  convolution_param {
    num_output: 128
    kernel_size: 1
    weight_filler {
      type: "xavier"
      std: 0.03
    }
    bias_filler {
      type: "constant"
      value: 0.2
    }
  }
}
layer {
  name: "inception_3b/relu_1x1"
  type: "ReLU"
  bottom: "inception_3b/1x1"
  top: "inception_3b/1x1"
}
layer {
  name: "inception_3b/3x3_reduce"
  type: "Convolution"
  bottom: "inception_3a/output"
  top: "inception_3b/3x3_reduce"
  param {
    lr_mult: 1
    decay_mult: 1
  }
  param {
    lr_mult: 2
    decay_mult: 0
  }
  convolution_param {
    num_output: 128
    kernel_size: 1
    weight_filler {
      type: "xavier"
      std: 0.09
    }
    bias_filler {
      type: "constant"
      value: 0.2
    }
  }
}
layer {
  name: "inception_3b/relu_3x3_reduce"
  type: "ReLU"
  bottom: "inception_3b/3x3_reduce"
  top: "inception_3b/3x3_reduce"
}
layer {
  name: "inception_3b/3x3"
  type: "Convolution"
  bottom: "inception_3b/3x3_reduce"
  top: "inception_3b/3x3"
  param {
    lr_mult: 1
    decay_mult: 1
  }
  param {
    lr_mult: 2
    decay_mult: 0
  }
  convolution_param {
    num_output: 192
    pad: 1
    kernel_size: 3
    weight_filler {
      type: "xavier"
      std: 0.03
    }
    bias_filler {
      type: "constant"
      value: 0.2
    }
  }
}
layer {
  name: "inception_3b/relu_3x3"
  type: "ReLU"
  bottom: "inception_3b/3x3"
  top: "inception_3b/3x3"
}
layer {
  name: "inception_3b/5x5_reduce"
  type: "Convolution"
  bottom: "inception_3a/output"
  top: "inception_3b/5x5_reduce"
  param {
    lr_mult: 1
    decay_mult: 1
  }
  param {
    lr_mult: 2
    decay_mult: 0
  }
  convolution_param {
    num_output: 32
    kernel_size: 1
    weight_filler {
      type: "xavier"
      std: 0.2
    }
    bias_filler {
      type: "constant"
      value: 0.2
    }
  }
}
layer {
  name: "inception_3b/relu_5x5_reduce"
  type: "ReLU"
  bottom: "inception_3b/5x5_reduce"
  top: "inception_3b/5x5_reduce"
}
layer {
  name: "inception_3b/5x5"
  type: "Convolution"
  bottom: "inception_3b/5x5_reduce"
  top: "inception_3b/5x5"
  param {
    lr_mult: 1
    decay_mult: 1
  }
  param {
    lr_mult: 2
    decay_mult: 0
  }
  convolution_param {
    num_output: 96
    pad: 2
    kernel_size: 5
    weight_filler {
      type: "xavier"
      std: 0.03
    }
    bias_filler {
      type: "constant"
      value: 0.2
    }
  }
}
layer {
  name: "inception_3b/relu_5x5"
  type: "ReLU"
  bottom: "inception_3b/5x5"
  top: "inception_3b/5x5"
}
layer {
  name: "inception_3b/pool"
  type: "Pooling"
  bottom: "inception_3a/output"
  top: "inception_3b/pool"
  pooling_param {
    pool: MAX
    kernel_size: 3
    stride: 1
    pad: 1
  }
}
layer {
  name: "inception_3b/pool_proj"
  type: "Convolution"
  bottom: "inception_3b/pool"
  top: "inception_3b/pool_proj"
  param {
    lr_mult: 1
    decay_mult: 1
  }
  param {
    lr_mult: 2
    decay_mult: 0
  }
  convolution_param {
    num_output: 64
    kernel_size: 1
    weight_filler {
      type: "xavier"
      std: 0.1
    }
    bias_filler {
      type: "constant"
      value: 0.2
    }
  }
}
layer {
  name: "inception_3b/relu_pool_proj"
  type: "ReLU"
  bottom: "inception_3b/pool_proj"
  top: "inception_3b/pool_proj"
}
layer {
  name: "inception_3b/output"
  type: "Concat"
  bottom: "inception_3b/1x1"
  bottom: "inception_3b/3x3"
  bottom: "inception_3b/5x5"
  bottom: "inception_3b/pool_proj"
  top: "inception_3b/output"
}
layer {
  name: "pool3/3x3_s2"
  type: "Pooling"
  bottom: "inception_3b/output"
  top: "pool3/3x3_s2"
  pooling_param {
    pool: MAX
    kernel_size: 3
    stride: 2
  }
}
layer {
  name: "inception_4a/1x1"
  type: "Convolution"
  bottom: "pool3/3x3_s2"
  top: "inception_4a/1x1"
  param {
    lr_mult: 1
    decay_mult: 1
  }
  param {
    lr_mult: 2
    decay_mult: 0
  }
  convolution_param {
    num_output: 192
    kernel_size: 1
    weight_filler {
      type: "xavier"
      std: 0.03
    }
    bias_filler {
      type: "constant"
      value: 0.2
    }
  }
}
layer {
  name: "inception_4a/relu_1x1"
  type: "ReLU"
  bottom: "inception_4a/1x1"
  top: "inception_4a/1x1"
}
layer {
  name: "inception_4a/3x3_reduce"
  type: "Convolution"
  bottom: "pool3/3x3_s2"
  top: "inception_4a/3x3_reduce"
  param {
    lr_mult: 1
    decay_mult: 1
  }
  param {
    lr_mult: 2
    decay_mult: 0
  }
  convolution_param {
    num_output: 96
    kernel_size: 1
    weight_filler {
      type: "xavier"
      std: 0.09
    }
    bias_filler {
      type: "constant"
      value: 0.2
    }
  }
}
layer {
  name: "inception_4a/relu_3x3_reduce"
  type: "ReLU"
  bottom: "inception_4a/3x3_reduce"
  top: "inception_4a/3x3_reduce"
}
layer {
  name: "inception_4a/3x3"
  type: "Convolution"
  bottom: "inception_4a/3x3_reduce"
  top: "inception_4a/3x3"
  param {
    lr_mult: 1
    decay_mult: 1
  }
  param {
    lr_mult: 2
    decay_mult: 0
  }
  convolution_param {
    num_output: 208
    pad: 1
    kernel_size: 3
    weight_filler {
      type: "xavier"
      std: 0.03
    }
    bias_filler {
      type: "constant"
      value: 0.2
    }
  }
}
layer {
  name: "inception_4a/relu_3x3"
  type: "ReLU"
  bottom: "inception_4a/3x3"
  top: "inception_4a/3x3"
}
layer {
  name: "inception_4a/5x5_reduce"
  type: "Convolution"
  bottom: "pool3/3x3_s2"
  top: "inception_4a/5x5_reduce"
  param {
    lr_mult: 1
    decay_mult: 1
  }
  param {
    lr_mult: 2
    decay_mult: 0
  }
  convolution_param {
    num_output: 16
    kernel_size: 1
    weight_filler {
      type: "xavier"
      std: 0.2
    }
    bias_filler {
      type: "constant"
      value: 0.2
    }
  }
}
layer {
  name: "inception_4a/relu_5x5_reduce"
  type: "ReLU"
  bottom: "inception_4a/5x5_reduce"
  top: "inception_4a/5x5_reduce"
}
layer {
  name: "inception_4a/5x5"
  type: "Convolution"
  bottom: "inception_4a/5x5_reduce"
  top: "inception_4a/5x5"
  param {
    lr_mult: 1
    decay_mult: 1
  }
  param {
    lr_mult: 2
    decay_mult: 0
  }
  convolution_param {
    num_output: 48
    pad: 2
    kernel_size: 5
    weight_filler {
      type: "xavier"
      std: 0.03
    }
    bias_filler {
      type: "constant"
      value: 0.2
    }
  }
}
layer {
  name: "inception_4a/relu_5x5"
  type: "ReLU"
  bottom: "inception_4a/5x5"
  top: "inception_4a/5x5"
}
layer {
  name: "inception_4a/pool"
  type: "Pooling"
  bottom: "pool3/3x3_s2"
  top: "inception_4a/pool"
  pooling_param {
    pool: MAX
    kernel_size: 3
    stride: 1
    pad: 1
  }
}
layer {
  name: "inception_4a/pool_proj"
  type: "Convolution"
  bottom: "inception_4a/pool"
  top: "inception_4a/pool_proj"
  param {
    lr_mult: 1
    decay_mult: 1
  }
  param {
    lr_mult: 2
    decay_mult: 0
  }
  convolution_param {
    num_output: 64
    kernel_size: 1
    weight_filler {
      type: "xavier"
      std: 0.1
    }
    bias_filler {
      type: "constant"
      value: 0.2
    }
  }
}
layer {
  name: "inception_4a/relu_pool_proj"
  type: "ReLU"
  bottom: "inception_4a/pool_proj"
  top: "inception_4a/pool_proj"
}
layer {
  name: "inception_4a/output"
  type: "Concat"
  bottom: "inception_4a/1x1"
  bottom: "inception_4a/3x3"
  bottom: "inception_4a/5x5"
  bottom: "inception_4a/pool_proj"
  top: "inception_4a/output"
}
layer {
  name: "loss1/ave_pool"
  type: "Pooling"
  bottom: "inception_4a/output"
  top: "loss1/ave_pool"
  pooling_param {
    pool: AVE
    kernel_size: 5
    stride: 3
  }
}
layer {
  name: "loss1/conv"
  type: "Convolution"
  bottom: "loss1/ave_pool"
  top: "loss1/conv"
  param {
    lr_mult: 1
    decay_mult: 1
  }
  param {
    lr_mult: 2
    decay_mult: 0
  }
  convolution_param {
    num_output: 128
    kernel_size: 1
    weight_filler {
      type: "xavier"
      std: 0.08
    }
    bias_filler {
      type: "constant"
      value: 0.2
    }
  }
}
layer {
  name: "loss1/relu_conv"
  type: "ReLU"
  bottom: "loss1/conv"
  top: "loss1/conv"
}
layer {
  name: "loss1/fc"
  type: "InnerProduct"
  bottom: "loss1/conv"
  top: "loss1/fc"
  param {
    lr_mult: 1
    decay_mult: 1
  }
  param {
    lr_mult: 2
    decay_mult: 0
  }
  inner_product_param {
    num_output: 1024
    weight_filler {
      type: "xavier"
      std: 0.02
    }
    bias_filler {
      type: "constant"
      value: 0.2
    }
  }
}
layer {
  name: "loss1/relu_fc"
  type: "ReLU"
  bottom: "loss1/fc"
  top: "loss1/fc"
}
layer {
  name: "loss1/drop_fc"
  type: "Dropout"
  bottom: "loss1/fc"
  top: "loss1/fc"
  dropout_param {
    dropout_ratio: 0.2
  }
}
layer {
  name: "stanford_cars_loss1/classifier"
  type: "InnerProduct"
  bottom: "loss1/fc"
  top: "stanford_cars_loss1/classifier"
  param {
    lr_mult: 1
    decay_mult: 1
  }
  param {
    lr_mult: 2
    decay_mult: 0
  }
  inner_product_param {
    num_output: 196
    weight_filler {
      type: "xavier"
      std: 0.0009765625
    }
    bias_filler {
      type: "constant"
      value: 0
    }
  }
}
layer {
  name: "loss1/loss"
  type: "SoftmaxWithLoss"
  bottom: "stanford_cars_loss1/classifier"
  bottom: "label"
  top: "loss1/loss1"
  loss_weight: 0.3
}
layer {
  name: "loss1/top-1"
  type: "Accuracy"
  bottom: "stanford_cars_loss1/classifier"
  bottom: "label"
  top: "loss1/top-1"
  include {
    phase: TEST
  }
}
layer {
  name: "loss1/top-5"
  type: "Accuracy"
  bottom: "stanford_cars_loss1/classifier"
  bottom: "label"
  top: "loss1/top-5"
  include {
    phase: TEST
  }
  accuracy_param {
    top_k: 5
  }
}
layer {
  name: "inception_4b/1x1"
  type: "Convolution"
  bottom: "inception_4a/output"
  top: "inception_4b/1x1"
  param {
    lr_mult: 1
    decay_mult: 1
  }
  param {
    lr_mult: 2
    decay_mult: 0
  }
  convolution_param {
    num_output: 160
    kernel_size: 1
    weight_filler {
      type: "xavier"
      std: 0.03
    }
    bias_filler {
      type: "constant"
      value: 0.2
    }
  }
}
layer {
  name: "inception_4b/relu_1x1"
  type: "ReLU"
  bottom: "inception_4b/1x1"
  top: "inception_4b/1x1"
}
layer {
  name: "inception_4b/3x3_reduce"
  type: "Convolution"
  bottom: "inception_4a/output"
  top: "inception_4b/3x3_reduce"
  param {
    lr_mult: 1
    decay_mult: 1
  }
  param {
    lr_mult: 2
    decay_mult: 0
  }
  convolution_param {
    num_output: 112
    kernel_size: 1
    weight_filler {
      type: "xavier"
      std: 0.09
    }
    bias_filler {
      type: "constant"
      value: 0.2
    }
  }
}
layer {
  name: "inception_4b/relu_3x3_reduce"
  type: "ReLU"
  bottom: "inception_4b/3x3_reduce"
  top: "inception_4b/3x3_reduce"
}
layer {
  name: "inception_4b/3x3"
  type: "Convolution"
  bottom: "inception_4b/3x3_reduce"
  top: "inception_4b/3x3"
  param {
    lr_mult: 1
    decay_mult: 1
  }
  param {
    lr_mult: 2
    decay_mult: 0
  }
  convolution_param {
    num_output: 224
    pad: 1
    kernel_size: 3
    weight_filler {
      type: "xavier"
      std: 0.03
    }
    bias_filler {
      type: "constant"
      value: 0.2
    }
  }
}
layer {
  name: "inception_4b/relu_3x3"
  type: "ReLU"
  bottom: "inception_4b/3x3"
  top: "inception_4b/3x3"
}
layer {
  name: "inception_4b/5x5_reduce"
  type: "Convolution"
  bottom: "inception_4a/output"
  top: "inception_4b/5x5_reduce"
  param {
    lr_mult: 1
    decay_mult: 1
  }
  param {
    lr_mult: 2
    decay_mult: 0
  }
  convolution_param {
    num_output: 24
    kernel_size: 1
    weight_filler {
      type: "xavier"
      std: 0.2
    }
    bias_filler {
      type: "constant"
      value: 0.2
    }
  }
}
layer {
  name: "inception_4b/relu_5x5_reduce"
  type: "ReLU"
  bottom: "inception_4b/5x5_reduce"
  top: "inception_4b/5x5_reduce"
}
layer {
  name: "inception_4b/5x5"
  type: "Convolution"
  bottom: "inception_4b/5x5_reduce"
  top: "inception_4b/5x5"
  param {
    lr_mult: 1
    decay_mult: 1
  }
  param {
    lr_mult: 2
    decay_mult: 0
  }
  convolution_param {
    num_output: 64
    pad: 2
    kernel_size: 5
    weight_filler {
      type: "xavier"
      std: 0.03
    }
    bias_filler {
      type: "constant"
      value: 0.2
    }
  }
}
layer {
  name: "inception_4b/relu_5x5"
  type: "ReLU"
  bottom: "inception_4b/5x5"
  top: "inception_4b/5x5"
}
layer {
  name: "inception_4b/pool"
  type: "Pooling"
  bottom: "inception_4a/output"
  top: "inception_4b/pool"
  pooling_param {
    pool: MAX
    kernel_size: 3
    stride: 1
    pad: 1
  }
}
layer {
  name: "inception_4b/pool_proj"
  type: "Convolution"
  bottom: "inception_4b/pool"
  top: "inception_4b/pool_proj"
  param {
    lr_mult: 1
    decay_mult: 1
  }
  param {
    lr_mult: 2
    decay_mult: 0
  }
  convolution_param {
    num_output: 64
    kernel_size: 1
    weight_filler {
      type: "xavier"
      std: 0.1
    }
    bias_filler {
      type: "constant"
      value: 0.2
    }
  }
}
layer {
  name: "inception_4b/relu_pool_proj"
  type: "ReLU"
  bottom: "inception_4b/pool_proj"
  top: "inception_4b/pool_proj"
}
layer {
  name: "inception_4b/output"
  type: "Concat"
  bottom: "inception_4b/1x1"
  bottom: "inception_4b/3x3"
  bottom: "inception_4b/5x5"
  bottom: "inception_4b/pool_proj"
  top: "inception_4b/output"
}
layer {
  name: "inception_4c/1x1"
  type: "Convolution"
  bottom: "inception_4b/output"
  top: "inception_4c/1x1"
  param {
    lr_mult: 1
    decay_mult: 1
  }
  param {
    lr_mult: 2
    decay_mult: 0
  }
  convolution_param {
    num_output: 128
    kernel_size: 1
    weight_filler {
      type: "xavier"
      std: 0.03
    }
    bias_filler {
      type: "constant"
      value: 0.2
    }
  }
}
layer {
  name: "inception_4c/relu_1x1"
  type: "ReLU"
  bottom: "inception_4c/1x1"
  top: "inception_4c/1x1"
}
layer {
  name: "inception_4c/3x3_reduce"
  type: "Convolution"
  bottom: "inception_4b/output"
  top: "inception_4c/3x3_reduce"
  param {
    lr_mult: 1
    decay_mult: 1
  }
  param {
    lr_mult: 2
    decay_mult: 0
  }
  convolution_param {
    num_output: 128
    kernel_size: 1
    weight_filler {
      type: "xavier"
      std: 0.09
    }
    bias_filler {
      type: "constant"
      value: 0.2
    }
  }
}
layer {
  name: "inception_4c/relu_3x3_reduce"
  type: "ReLU"
  bottom: "inception_4c/3x3_reduce"
  top: "inception_4c/3x3_reduce"
}
layer {
  name: "inception_4c/3x3"
  type: "Convolution"
  bottom: "inception_4c/3x3_reduce"
  top: "inception_4c/3x3"
  param {
    lr_mult: 1
    decay_mult: 1
  }
  param {
    lr_mult: 2
    decay_mult: 0
  }
  convolution_param {
    num_output: 256
    pad: 1
    kernel_size: 3
    weight_filler {
      type: "xavier"
      std: 0.03
    }
    bias_filler {
      type: "constant"
      value: 0.2
    }
  }
}
layer {
  name: "inception_4c/relu_3x3"
  type: "ReLU"
  bottom: "inception_4c/3x3"
  top: "inception_4c/3x3"
}
layer {
  name: "inception_4c/5x5_reduce"
  type: "Convolution"
  bottom: "inception_4b/output"
  top: "inception_4c/5x5_reduce"
  param {
    lr_mult: 1
    decay_mult: 1
  }
  param {
    lr_mult: 2
    decay_mult: 0
  }
  convolution_param {
    num_output: 24
    kernel_size: 1
    weight_filler {
      type: "xavier"
      std: 0.2
    }
    bias_filler {
      type: "constant"
      value: 0.2
    }
  }
}
layer {
  name: "inception_4c/relu_5x5_reduce"
  type: "ReLU"
  bottom: "inception_4c/5x5_reduce"
  top: "inception_4c/5x5_reduce"
}
layer {
  name: "inception_4c/5x5"
  type: "Convolution"
  bottom: "inception_4c/5x5_reduce"
  top: "inception_4c/5x5"
  param {
    lr_mult: 1
    decay_mult: 1
  }
  param {
    lr_mult: 2
    decay_mult: 0
  }
  convolution_param {
    num_output: 64
    pad: 2
    kernel_size: 5
    weight_filler {
      type: "xavier"
      std: 0.03
    }
    bias_filler {
      type: "constant"
      value: 0.2
    }
  }
}
layer {
  name: "inception_4c/relu_5x5"
  type: "ReLU"
  bottom: "inception_4c/5x5"
  top: "inception_4c/5x5"
}
layer {
  name: "inception_4c/pool"
  type: "Pooling"
  bottom: "inception_4b/output"
  top: "inception_4c/pool"
  pooling_param {
    pool: MAX
    kernel_size: 3
    stride: 1
    pad: 1
  }
}
layer {
  name: "inception_4c/pool_proj"
  type: "Convolution"
  bottom: "inception_4c/pool"
  top: "inception_4c/pool_proj"
  param {
    lr_mult: 1
    decay_mult: 1
  }
  param {
    lr_mult: 2
    decay_mult: 0
  }
  convolution_param {
    num_output: 64
    kernel_size: 1
    weight_filler {
      type: "xavier"
      std: 0.1
    }
    bias_filler {
      type: "constant"
      value: 0.2
    }
  }
}
layer {
  name: "inception_4c/relu_pool_proj"
  type: "ReLU"
  bottom: "inception_4c/pool_proj"
  top: "inception_4c/pool_proj"
}
layer {
  name: "inception_4c/output"
  type: "Concat"
  bottom: "inception_4c/1x1"
  bottom: "inception_4c/3x3"
  bottom: "inception_4c/5x5"
  bottom: "inception_4c/pool_proj"
  top: "inception_4c/output"
}
layer {
  name: "inception_4d/1x1"
  type: "Convolution"
  bottom: "inception_4c/output"
  top: "inception_4d/1x1"
  param {
    lr_mult: 1
    decay_mult: 1
  }
  param {
    lr_mult: 2
    decay_mult: 0
  }
  convolution_param {
    num_output: 112
    kernel_size: 1
    weight_filler {
      type: "xavier"
      std: 0.03
    }
    bias_filler {
      type: "constant"
      value: 0.2
    }
  }
}
layer {
  name: "inception_4d/relu_1x1"
  type: "ReLU"
  bottom: "inception_4d/1x1"
  top: "inception_4d/1x1"
}
layer {
  name: "inception_4d/3x3_reduce"
  type: "Convolution"
  bottom: "inception_4c/output"
  top: "inception_4d/3x3_reduce"
  param {
    lr_mult: 1
    decay_mult: 1
  }
  param {
    lr_mult: 2
    decay_mult: 0
  }
  convolution_param {
    num_output: 144
    kernel_size: 1
    weight_filler {
      type: "xavier"
      std: 0.09
    }
    bias_filler {
      type: "constant"
      value: 0.2
    }
  }
}
layer {
  name: "inception_4d/relu_3x3_reduce"
  type: "ReLU"
  bottom: "inception_4d/3x3_reduce"
  top: "inception_4d/3x3_reduce"
}
layer {
  name: "inception_4d/3x3"
  type: "Convolution"
  bottom: "inception_4d/3x3_reduce"
  top: "inception_4d/3x3"
  param {
    lr_mult: 1
    decay_mult: 1
  }
  param {
    lr_mult: 2
    decay_mult: 0
  }
  convolution_param {
    num_output: 288
    pad: 1
    kernel_size: 3
    weight_filler {
      type: "xavier"
      std: 0.03
    }
    bias_filler {
      type: "constant"
      value: 0.2
    }
  }
}
layer {
  name: "inception_4d/relu_3x3"
  type: "ReLU"
  bottom: "inception_4d/3x3"
  top: "inception_4d/3x3"
}
layer {
  name: "inception_4d/5x5_reduce"
  type: "Convolution"
  bottom: "inception_4c/output"
  top: "inception_4d/5x5_reduce"
  param {
    lr_mult: 1
    decay_mult: 1
  }
  param {
    lr_mult: 2
    decay_mult: 0
  }
  convolution_param {
    num_output: 32
    kernel_size: 1
    weight_filler {
      type: "xavier"
      std: 0.2
    }
    bias_filler {
      type: "constant"
      value: 0.2
    }
  }
}
layer {
  name: "inception_4d/relu_5x5_reduce"
  type: "ReLU"
  bottom: "inception_4d/5x5_reduce"
  top: "inception_4d/5x5_reduce"
}
layer {
  name: "inception_4d/5x5"
  type: "Convolution"
  bottom: "inception_4d/5x5_reduce"
  top: "inception_4d/5x5"
  param {
    lr_mult: 1
    decay_mult: 1
  }
  param {
    lr_mult: 2
    decay_mult: 0
  }
  convolution_param {
    num_output: 64
    pad: 2
    kernel_size: 5
    weight_filler {
      type: "xavier"
      std: 0.03
    }
    bias_filler {
      type: "constant"
      value: 0.2
    }
  }
}
layer {
  name: "inception_4d/relu_5x5"
  type: "ReLU"
  bottom: "inception_4d/5x5"
  top: "inception_4d/5x5"
}
layer {
  name: "inception_4d/pool"
  type: "Pooling"
  bottom: "inception_4c/output"
  top: "inception_4d/pool"
  pooling_param {
    pool: MAX
    kernel_size: 3
    stride: 1
    pad: 1
  }
}
layer {
  name: "inception_4d/pool_proj"
  type: "Convolution"
  bottom: "inception_4d/pool"
  top: "inception_4d/pool_proj"
  param {
    lr_mult: 1
    decay_mult: 1
  }
  param {
    lr_mult: 2
    decay_mult: 0
  }
  convolution_param {
    num_output: 64
    kernel_size: 1
…
I0704 15:10:35.562777 22197 net.cpp:127] Top shape: 10 128 14 14 (250880)
I0704 15:10:35.562827 22197 layer_factory.hpp:74] Creating layer inception_4c/relu_1x1
I0704 15:10:35.562858 22197 net.cpp:90] Creating Layer inception_4c/relu_1x1
I0704 15:10:35.562882 22197 net.cpp:410] inception_4c/relu_1x1 <- inception_4c/1x1
I0704 15:10:35.562908 22197 net.cpp:357] inception_4c/relu_1x1 -> inception_4c/1x1 (in-place)
I0704 15:10:35.562937 22197 net.cpp:120] Setting up inception_4c/relu_1x1
I0704 15:10:35.563145 22197 net.cpp:127] Top shape: 10 128 14 14 (250880)
I0704 15:10:35.563179 22197 layer_factory.hpp:74] Creating layer inception_4c/3x3_reduce
I0704 15:10:35.563207 22197 net.cpp:90] Creating Layer inception_4c/3x3_reduce
I0704 15:10:35.563230 22197 net.cpp:410] inception_4c/3x3_reduce <- inception_4b/output_inception_4b/output_0_split_1
I0704 15:10:35.563261 22197 net.cpp:368] inception_4c/3x3_reduce -> inception_4c/3x3_reduce
I0704 15:10:35.563293 22197 net.cpp:120] Setting up inception_4c/3x3_reduce
I0704 15:10:35.563875 22197 net.cpp:127] Top shape: 10 128 14 14 (250880)
I0704 15:10:35.563887 22197 layer_factory.hpp:74] Creating layer inception_4c/relu_3x3_reduce
I0704 15:10:35.563894 22197 net.cpp:90] Creating Layer inception_4c/relu_3x3_reduce
I0704 15:10:35.563899 22197 net.cpp:410] inception_4c/relu_3x3_reduce <- inception_4c/3x3_reduce
I0704 15:10:35.563905 22197 net.cpp:357] inception_4c/relu_3x3_reduce -> inception_4c/3x3_reduce (in-place)
I0704 15:10:35.563912 22197 net.cpp:120] Setting up inception_4c/relu_3x3_reduce
I0704 15:10:35.564029 22197 net.cpp:127] Top shape: 10 128 14 14 (250880)
I0704 15:10:35.564038 22197 layer_factory.hpp:74] Creating layer inception_4c/3x3
I0704 15:10:35.564045 22197 net.cpp:90] Creating Layer inception_4c/3x3
I0704 15:10:35.564050 22197 net.cpp:410] inception_4c/3x3 <- inception_4c/3x3_reduce
I0704 15:10:35.564057 22197 net.cpp:368] inception_4c/3x3 -> inception_4c/3x3
I0704 15:10:35.564065 22197 net.cpp:120] Setting up inception_4c/3x3
I0704 15:10:35.565700 22197 net.cpp:127] Top shape: 10 256 14 14 (501760)
I0704 15:10:35.565718 22197 layer_factory.hpp:74] Creating layer inception_4c/relu_3x3
I0704 15:10:35.565726 22197 net.cpp:90] Creating Layer inception_4c/relu_3x3
I0704 15:10:35.565732 22197 net.cpp:410] inception_4c/relu_3x3 <- inception_4c/3x3
I0704 15:10:35.565737 22197 net.cpp:357] inception_4c/relu_3x3 -> inception_4c/3x3 (in-place)
I0704 15:10:35.565743 22197 net.cpp:120] Setting up inception_4c/relu_3x3
I0704 15:10:35.565788 22197 net.cpp:127] Top shape: 10 256 14 14 (501760)
I0704 15:10:35.565793 22197 layer_factory.hpp:74] Creating layer inception_4c/5x5_reduce
I0704 15:10:35.565801 22197 net.cpp:90] Creating Layer inception_4c/5x5_reduce
I0704 15:10:35.565806 22197 net.cpp:410] inception_4c/5x5_reduce <- inception_4b/output_inception_4b/output_0_split_2
I0704 15:10:35.565814 22197 net.cpp:368] inception_4c/5x5_reduce -> inception_4c/5x5_reduce
I0704 15:10:35.565820 22197 net.cpp:120] Setting up inception_4c/5x5_reduce
I0704 15:10:35.566087 22197 net.cpp:127] Top shape: 10 24 14 14 (47040)
I0704 15:10:35.566099 22197 layer_factory.hpp:74] Creating layer inception_4c/relu_5x5_reduce
I0704 15:10:35.566107 22197 net.cpp:90] Creating Layer inception_4c/relu_5x5_reduce
I0704 15:10:35.566112 22197 net.cpp:410] inception_4c/relu_5x5_reduce <- inception_4c/5x5_reduce
I0704 15:10:35.566118 22197 net.cpp:357] inception_4c/relu_5x5_reduce -> inception_4c/5x5_reduce (in-place)
I0704 15:10:35.566125 22197 net.cpp:120] Setting up inception_4c/relu_5x5_reduce
I0704 15:10:35.566166 22197 net.cpp:127] Top shape: 10 24 14 14 (47040)
I0704 15:10:35.566172 22197 layer_factory.hpp:74] Creating layer inception_4c/5x5
I0704 15:10:35.566180 22197 net.cpp:90] Creating Layer inception_4c/5x5
I0704 15:10:35.566185 22197 net.cpp:410] inception_4c/5x5 <- inception_4c/5x5_reduce
I0704 15:10:35.566191 22197 net.cpp:368] inception_4c/5x5 -> inception_4c/5x5
I0704 15:10:35.566198 22197 net.cpp:120] Setting up inception_4c/5x5
I0704 15:10:35.566592 22197 net.cpp:127] Top shape: 10 64 14 14 (125440)
I0704 15:10:35.566604 22197 layer_factory.hpp:74] Creating layer inception_4c/relu_5x5
I0704 15:10:35.566611 22197 net.cpp:90] Creating Layer inception_4c/relu_5x5
I0704 15:10:35.566617 22197 net.cpp:410] inception_4c/relu_5x5 <- inception_4c/5x5
I0704 15:10:35.566622 22197 net.cpp:357] inception_4c/relu_5x5 -> inception_4c/5x5 (in-place)
I0704 15:10:35.566629 22197 net.cpp:120] Setting up inception_4c/relu_5x5
I0704 15:10:35.566673 22197 net.cpp:127] Top shape: 10 64 14 14 (125440)
I0704 15:10:35.566686 22197 layer_factory.hpp:74] Creating layer inception_4c/pool
I0704 15:10:35.566692 22197 layer_factory.cpp:55] CUDNN does not support padding or multiple tops. Using Caffe's own pooling layer.
I0704 15:10:35.566699 22197 net.cpp:90] Creating Layer inception_4c/pool
I0704 15:10:35.566704 22197 net.cpp:410] inception_4c/pool <- inception_4b/output_inception_4b/output_0_split_3
I0704 15:10:35.566709 22197 net.cpp:368] inception_4c/pool -> inception_4c/pool
I0704 15:10:35.566715 22197 net.cpp:120] Setting up inception_4c/pool
I0704 15:10:35.566722 22197 net.cpp:127] Top shape: 10 512 14 14 (1003520)
I0704 15:10:35.566727 22197 layer_factory.hpp:74] Creating layer inception_4c/pool_proj
I0704 15:10:35.566735 22197 net.cpp:90] Creating Layer inception_4c/pool_proj
I0704 15:10:35.566740 22197 net.cpp:410] inception_4c/pool_proj <- inception_4c/pool
I0704 15:10:35.566747 22197 net.cpp:368] inception_4c/pool_proj -> inception_4c/pool_proj
I0704 15:10:35.566754 22197 net.cpp:120] Setting up inception_4c/pool_proj
I0704 15:10:35.567121 22197 net.cpp:127] Top shape: 10 64 14 14 (125440)
I0704 15:10:35.567132 22197 layer_factory.hpp:74] Creating layer inception_4c/relu_pool_proj
I0704 15:10:35.567139 22197 net.cpp:90] Creating Layer inception_4c/relu_pool_proj
I0704 15:10:35.567145 22197 net.cpp:410] inception_4c/relu_pool_proj <- inception_4c/pool_proj
I0704 15:10:35.567152 22197 net.cpp:357] inception_4c/relu_pool_proj -> inception_4c/pool_proj (in-place)
I0704 15:10:35.567157 22197 net.cpp:120] Setting up inception_4c/relu_pool_proj
I0704 15:10:35.567270 22197 net.cpp:127] Top shape: 10 64 14 14 (125440)
I0704 15:10:35.567278 22197 layer_factory.hpp:74] Creating layer inception_4c/output
I0704 15:10:35.567286 22197 net.cpp:90] Creating Layer inception_4c/output
I0704 15:10:35.567291 22197 net.cpp:410] inception_4c/output <- inception_4c/1x1
I0704 15:10:35.567296 22197 net.cpp:410] inception_4c/output <- inception_4c/3x3
I0704 15:10:35.567302 22197 net.cpp:410] inception_4c/output <- inception_4c/5x5
I0704 15:10:35.567312 22197 net.cpp:410] inception_4c/output <- inception_4c/pool_proj
I0704 15:10:35.567318 22197 net.cpp:368] inception_4c/output -> inception_4c/output
I0704 15:10:35.567325 22197 net.cpp:120] Setting up inception_4c/output
I0704 15:10:35.567332 22197 net.cpp:127] Top shape: 10 512 14 14 (1003520)
I0704 15:10:35.567337 22197 layer_factory.hpp:74] Creating layer inception_4c/output_inception_4c/output_0_split
I0704 15:10:35.567343 22197 net.cpp:90] Creating Layer inception_4c/output_inception_4c/output_0_split
I0704 15:10:35.567348 22197 net.cpp:410] inception_4c/output_inception_4c/output_0_split <- inception_4c/output
I0704 15:10:35.567353 22197 net.cpp:368] inception_4c/output_inception_4c/output_0_split -> inception_4c/output_inception_4c/output_0_split_0
I0704 15:10:35.567361 22197 net.cpp:368] inception_4c/output_inception_4c/output_0_split -> inception_4c/output_inception_4c/output_0_split_1
I0704 15:10:35.583721 22197 net.cpp:368] inception_4c/output_inception_4c/output_0_split -> inception_4c/output_inception_4c/output_0_split_2
I0704 15:10:35.583812 22197 net.cpp:368] inception_4c/output_inception_4c/output_0_split -> inception_4c/output_inception_4c/output_0_split_3
I0704 15:10:35.583863 22197 net.cpp:120] Setting up inception_4c/output_inception_4c/output_0_split
I0704 15:10:35.583920 22197 net.cpp:127] Top shape: 10 512 14 14 (1003520)
I0704 15:10:35.583961 22197 net.cpp:127] Top shape: 10 512 14 14 (1003520)
I0704 15:10:35.583999 22197 net.cpp:127] Top shape: 10 512 14 14 (1003520)
I0704 15:10:35.584038 22197 net.cpp:127] Top shape: 10 512 14 14 (1003520)
I0704 15:10:35.584072 22197 layer_factory.hpp:74] Creating layer inception_4d/1x1
I0704 15:10:35.584133 22197 net.cpp:90] Creating Layer inception_4d/1x1
I0704 15:10:35.584172 22197 net.cpp:410] inception_4d/1x1 <- inception_4c/output_inception_4c/output_0_split_0
I0704 15:10:35.584221 22197 net.cpp:368] inception_4d/1x1 -> inception_4d/1x1
I0704 15:10:35.584271 22197 net.cpp:120] Setting up inception_4d/1x1
I0704 15:10:35.587453 22197 net.cpp:127] Top shape: 10 112 14 14 (219520)
I0704 15:10:35.587471 22197 layer_factory.hpp:74] Creating layer inception_4d/relu_1x1
I0704 15:10:35.587482 22197 net.cpp:90] Creating Layer inception_4d/relu_1x1
I0704 15:10:35.587488 22197 net.cpp:410] inception_4d/relu_1x1 <- inception_4d/1x1
I0704 15:10:35.587496 22197 net.cpp:357] inception_4d/relu_1x1 -> inception_4d/1x1 (in-place)
I0704 15:10:35.587503 22197 net.cpp:120] Setting up inception_4d/relu_1x1
I0704 15:10:35.587554 22197 net.cpp:127] Top shape: 10 112 14 14 (219520)
I0704 15:10:35.587563 22197 layer_factory.hpp:74] Creating layer inception_4d/3x3_reduce
I0704 15:10:35.587571 22197 net.cpp:90] Creating Layer inception_4d/3x3_reduce
I0704 15:10:35.587579 22197 net.cpp:410] inception_4d/3x3_reduce <- inception_4c/output_inception_4c/output_0_split_1
I0704 15:10:35.587585 22197 net.cpp:368] inception_4d/3x3_reduce -> inception_4d/3x3_reduce
I0704 15:10:35.587594 22197 net.cpp:120] Setting up inception_4d/3x3_reduce
I0704 15:10:35.588253 22197 net.cpp:127] Top shape: 10 144 14 14 (282240)
I0704 15:10:35.588266 22197 layer_factory.hpp:74] Creating layer inception_4d/relu_3x3_reduce
I0704 15:10:35.588275 22197 net.cpp:90] Creating Layer inception_4d/relu_3x3_reduce
I0704 15:10:35.588281 22197 net.cpp:410] inception_4d/relu_3x3_reduce <- inception_4d/3x3_reduce
I0704 15:10:35.588289 22197 net.cpp:357] inception_4d/relu_3x3_reduce -> inception_4d/3x3_reduce (in-place)
I0704 15:10:35.588296 22197 net.cpp:120] Setting up inception_4d/relu_3x3_reduce
I0704 15:10:35.588346 22197 net.cpp:127] Top shape: 10 144 14 14 (282240)
I0704 15:10:35.588353 22197 layer_factory.hpp:74] Creating layer inception_4d/3x3
I0704 15:10:35.588361 22197 net.cpp:90] Creating Layer inception_4d/3x3
I0704 15:10:35.588368 22197 net.cpp:410] inception_4d/3x3 <- inception_4d/3x3_reduce
I0704 15:10:35.588376 22197 net.cpp:368] inception_4d/3x3 -> inception_4d/3x3
I0704 15:10:35.588383 22197 net.cpp:120] Setting up inception_4d/3x3
I0704 15:10:35.590711 22197 net.cpp:127] Top shape: 10 288 14 14 (564480)
I0704 15:10:35.590725 22197 layer_factory.hpp:74] Creating layer inception_4d/relu_3x3
I0704 15:10:35.590734 22197 net.cpp:90] Creating Layer inception_4d/relu_3x3
I0704 15:10:35.590739 22197 net.cpp:410] inception_4d/relu_3x3 <- inception_4d/3x3
I0704 15:10:35.590747 22197 net.cpp:357] inception_4d/relu_3x3 -> inception_4d/3x3 (in-place)
I0704 15:10:35.590755 22197 net.cpp:120] Setting up inception_4d/relu_3x3
I0704 15:10:35.590881 22197 net.cpp:127] Top shape: 10 288 14 14 (564480)
I0704 15:10:35.590893 22197 layer_factory.hpp:74] Creating layer inception_4d/5x5_reduce
I0704 15:10:35.590903 22197 net.cpp:90] Creating Layer inception_4d/5x5_reduce
I0704 15:10:35.590909 22197 net.cpp:410] inception_4d/5x5_reduce <- inception_4c/output_inception_4c/output_0_split_2
I0704 15:10:35.590916 22197 net.cpp:368] inception_4d/5x5_reduce -> inception_4d/5x5_reduce
I0704 15:10:35.590925 22197 net.cpp:120] Setting up inception_4d/5x5_reduce
I0704 15:10:35.591250 22197 net.cpp:127] Top shape: 10 32 14 14 (62720)
I0704 15:10:35.591264 22197 layer_factory.hpp:74] Creating layer inception_4d/relu_5x5_reduce
I0704 15:10:35.591272 22197 net.cpp:90] Creating Layer inception_4d/relu_5x5_reduce
I0704 15:10:35.591279 22197 net.cpp:410] inception_4d/relu_5x5_reduce <- inception_4d/5x5_reduce
I0704 15:10:35.591285 22197 net.cpp:357] inception_4d/relu_5x5_reduce -> inception_4d/5x5_reduce (in-place)
I0704 15:10:35.591295 22197 net.cpp:120] Setting up inception_4d/relu_5x5_reduce
I0704 15:10:35.591353 22197 net.cpp:127] Top shape: 10 32 14 14 (62720)
I0704 15:10:35.591362 22197 layer_factory.hpp:74] Creating layer inception_4d/5x5
I0704 15:10:35.591372 22197 net.cpp:90] Creating Layer inception_4d/5x5
I0704 15:10:35.591377 22197 net.cpp:410] inception_4d/5x5 <- inception_4d/5x5_reduce
I0704 15:10:35.591387 22197 net.cpp:368] inception_4d/5x5 -> inception_4d/5x5
I0704 15:10:35.591394 22197 net.cpp:120] Setting up inception_4d/5x5
I0704 15:10:35.591914 22197 net.cpp:127] Top shape: 10 64 14 14 (125440)
I0704 15:10:35.591935 22197 layer_factory.hpp:74] Creating layer inception_4d/relu_5x5
I0704 15:10:35.591945 22197 net.cpp:90] Creating Layer inception_4d/relu_5x5
I0704 15:10:35.591951 22197 net.cpp:410] inception_4d/relu_5x5 <- inception_4d/5x5
I0704 15:10:35.591958 22197 net.cpp:357] inception_4d/relu_5x5 -> inception_4d/5x5 (in-place)
I0704 15:10:35.591967 22197 net.cpp:120] Setting up inception_4d/relu_5x5
I0704 15:10:35.592015 22197 net.cpp:127] Top shape: 10 64 14 14 (125440)
I0704 15:10:35.592023 22197 layer_factory.hpp:74] Creating layer inception_4d/pool
I0704 15:10:35.592030 22197 layer_factory.cpp:55] CUDNN does not support padding or multiple tops. Using Caffe's own pooling layer.
I0704 15:10:35.592036 22197 net.cpp:90] Creating Layer inception_4d/pool
I0704 15:10:35.592041 22197 net.cpp:410] inception_4d/pool <- inception_4c/output_inception_4c/output_0_split_3
I0704 15:10:35.592049 22197 net.cpp:368] inception_4d/pool -> inception_4d/pool
I0704 15:10:35.592057 22197 net.cpp:120] Setting up inception_4d/pool
I0704 15:10:35.592067 22197 net.cpp:127] Top shape: 10 512 14 14 (1003520)
I0704 15:10:35.592072 22197 layer_factory.hpp:74] Creating layer inception_4d/pool_proj
I0704 15:10:35.592080 22197 net.cpp:90] Creating Layer inception_4d/pool_proj
I0704 15:10:35.592087 22197 net.cpp:410] inception_4d/pool_proj <- inception_4d/pool
I0704 15:10:35.592094 22197 net.cpp:368] inception_4d/pool_proj -> inception_4d/pool_proj
I0704 15:10:35.592102 22197 net.cpp:120] Setting up inception_4d/pool_proj
I0704 15:10:35.592521 22197 net.cpp:127] Top shape: 10 64 14 14 (125440)
I0704 15:10:35.592535 22197 layer_factory.hpp:74] Creating layer inception_4d/relu_pool_proj
I0704 15:10:35.592542 22197 net.cpp:90] Creating Layer inception_4d/relu_pool_proj
I0704 15:10:35.592550 22197 net.cpp:410] inception_4d/relu_pool_proj <- inception_4d/pool_proj
I0704 15:10:35.592556 22197 net.cpp:357] inception_4d/relu_pool_proj -> inception_4d/pool_proj (in-place)
I0704 15:10:35.592564 22197 net.cpp:120] Setting up inception_4d/relu_pool_proj
I0704 15:10:35.592612 22197 net.cpp:127] Top shape: 10 64 14 14 (125440)
I0704 15:10:35.592620 22197 layer_factory.hpp:74] Creating layer inception_4d/output
I0704 15:10:35.592628 22197 net.cpp:90] Creating Layer inception_4d/output
I0704 15:10:35.592634 22197 net.cpp:410] inception_4d/output <- inception_4d/1x1
I0704 15:10:35.592641 22197 net.cpp:410] inception_4d/output <- inception_4d/3x3
I0704 15:10:35.592648 22197 net.cpp:410] inception_4d/output <- inception_4d/5x5
I0704 15:10:35.592653 22197 net.cpp:410] inception_4d/output <- inception_4d/pool_proj
I0704 15:10:35.592659 22197 net.cpp:368] inception_4d/output -> inception_4d/output
I0704 15:10:35.592667 22197 net.cpp:120] Setting up inception_4d/output
I0704 15:10:35.592675 22197 net.cpp:127] Top shape: 10 528 14 14 (1034880)
I0704 15:10:35.592680 22197 layer_factory.hpp:74] Creating layer inception_4d/output_inception_4d/output_0_split
I0704 15:10:35.592689 22197 net.cpp:90] Creating Layer inception_4d/output_inception_4d/output_0_split
I0704 15:10:35.592694 22197 net.cpp:410] inception_4d/output_inception_4d/output_0_split <- inception_4d/output
I0704 15:10:35.592700 22197 net.cpp:368] inception_4d/output_inception_4d/output_0_split -> inception_4d/output_inception_4d/output_0_split_0
I0704 15:10:35.592710 22197 net.cpp:368] inception_4d/output_inception_4d/output_0_split -> inception_4d/output_inception_4d/output_0_split_1
I0704 15:10:35.592717 22197 net.cpp:368] inception_4d/output_inception_4d/output_0_split -> inception_4d/output_inception_4d/output_0_split_2
I0704 15:10:35.592725 22197 net.cpp:368] inception_4d/output_inception_4d/output_0_split -> inception_4d/output_inception_4d/output_0_split_3
I0704 15:10:35.592732 22197 net.cpp:368] inception_4d/output_inception_4d/output_0_split -> inception_4d/output_inception_4d/output_0_split_4
I0704 15:10:35.592739 22197 net.cpp:120] Setting up inception_4d/output_inception_4d/output_0_split
I0704 15:10:35.592746 22197 net.cpp:127] Top shape: 10 528 14 14 (1034880)
I0704 15:10:35.592753 22197 net.cpp:127] Top shape: 10 528 14 14 (1034880)
I0704 15:10:35.592767 22197 net.cpp:127] Top shape: 10 528 14 14 (1034880)
I0704 15:10:35.592772 22197 net.cpp:127] Top shape: 10 528 14 14 (1034880)
I0704 15:10:35.592777 22197 net.cpp:127] Top shape: 10 528 14 14 (1034880)
I0704 15:10:35.592783 22197 layer_factory.hpp:74] Creating layer loss2/ave_pool
I0704 15:10:35.592790 22197 net.cpp:90] Creating Layer loss2/ave_pool
I0704 15:10:35.592795 22197 net.cpp:410] loss2/ave_pool <- inception_4d/output_inception_4d/output_0_split_0
I0704 15:10:35.592803 22197 net.cpp:368] loss2/ave_pool -> loss2/ave_pool
I0704 15:10:35.592810 22197 net.cpp:120] Setting up loss2/ave_pool
I0704 15:10:35.592944 22197 net.cpp:127] Top shape: 10 528 4 4 (84480)
I0704 15:10:35.592954 22197 layer_factory.hpp:74] Creating layer loss2/conv
I0704 15:10:35.592962 22197 net.cpp:90] Creating Layer loss2/conv
I0704 15:10:35.592968 22197 net.cpp:410] loss2/conv <- loss2/ave_pool
I0704 15:10:35.592978 22197 net.cpp:368] loss2/conv -> loss2/conv
I0704 15:10:35.592985 22197 net.cpp:120] Setting up loss2/conv
I0704 15:10:35.593602 22197 net.cpp:127] Top shape: 10 128 4 4 (20480)
I0704 15:10:35.593616 22197 layer_factory.hpp:74] Creating layer loss2/relu_conv
I0704 15:10:35.593623 22197 net.cpp:90] Creating Layer loss2/relu_conv
I0704 15:10:35.593629 22197 net.cpp:410] loss2/relu_conv <- loss2/conv
I0704 15:10:35.593636 22197 net.cpp:357] loss2/relu_conv -> loss2/conv (in-place)
I0704 15:10:35.593643 22197 net.cpp:120] Setting up loss2/relu_conv
I0704 15:10:35.593691 22197 net.cpp:127] Top shape: 10 128 4 4 (20480)
I0704 15:10:35.593699 22197 layer_factory.hpp:74] Creating layer loss2/fc
I0704 15:10:35.593708 22197 net.cpp:90] Creating Layer loss2/fc
I0704 15:10:35.593713 22197 net.cpp:410] loss2/fc <- loss2/conv
I0704 15:10:35.593721 22197 net.cpp:368] loss2/fc -> loss2/fc
I0704 15:10:35.593729 22197 net.cpp:120] Setting up loss2/fc
I0704 15:10:35.604075 22197 net.cpp:127] Top shape: 10 1024 (10240)
I0704 15:10:35.604101 22197 layer_factory.hpp:74] Creating layer loss2/relu_fc
I0704 15:10:35.604111 22197 net.cpp:90] Creating Layer loss2/relu_fc
I0704 15:10:35.604120 22197 net.cpp:410] loss2/relu_fc <- loss2/fc
I0704 15:10:35.604126 22197 net.cpp:357] loss2/relu_fc -> loss2/fc (in-place)
I0704 15:10:35.604135 22197 net.cpp:120] Setting up loss2/relu_fc
I0704 15:10:35.604209 22197 net.cpp:127] Top shape: 10 1024 (10240)
I0704 15:10:35.612776 22197 layer_factory.hpp:74] Creating layer loss2/drop_fc
I0704 15:10:35.612815 22197 net.cpp:90] Creating Layer loss2/drop_fc
I0704 15:10:35.612828 22197 net.cpp:410] loss2/drop_fc <- loss2/fc
I0704 15:10:35.612840 22197 net.cpp:357] loss2/drop_fc -> loss2/fc (in-place)
I0704 15:10:35.612854 22197 net.cpp:120] Setting up loss2/drop_fc
I0704 15:10:35.612870 22197 net.cpp:127] Top shape: 10 1024 (10240)
I0704 15:10:35.612879 22197 layer_factory.hpp:74] Creating layer stanford_cars_loss2/classifier
I0704 15:10:35.612901 22197 net.cpp:90] Creating Layer stanford_cars_loss2/classifier
I0704 15:10:35.612910 22197 net.cpp:410] stanford_cars_loss2/classifier <- loss2/fc
I0704 15:10:35.612921 22197 net.cpp:368] stanford_cars_loss2/classifier -> stanford_cars_loss2/classifier
I0704 15:10:35.612933 22197 net.cpp:120] Setting up stanford_cars_loss2/classifier
I0704 15:10:35.614135 22197 net.cpp:127] Top shape: 10 196 (1960)
I0704 15:10:35.614146 22197 layer_factory.hpp:74] Creating layer stanford_cars_loss2/classifier_stanford_cars_loss2/classifier_0_split
I0704 15:10:35.614156 22197 net.cpp:90] Creating Layer stanford_cars_loss2/classifier_stanford_cars_loss2/classifier_0_split
I0704 15:10:35.614161 22197 net.cpp:410] stanford_cars_loss2/classifier_stanford_cars_loss2/classifier_0_split <- stanford_cars_loss2/classifier
I0704 15:10:35.614167 22197 net.cpp:368] stanford_cars_loss2/classifier_stanford_cars_loss2/classifier_0_split -> stanford_cars_loss2/classifier_stanford_cars_loss2/classifier_0_split_0
I0704 15:10:35.614174 22197 net.cpp:368] stanford_cars_loss2/classifier_stanford_cars_loss2/classifier_0_split -> stanford_cars_loss2/classifier_stanford_cars_loss2/classifier_0_split_1
I0704 15:10:35.614197 22197 net.cpp:368] stanford_cars_loss2/classifier_stanford_cars_loss2/classifier_0_split -> stanford_cars_loss2/classifier_stanford_cars_loss2/classifier_0_split_2
I0704 15:10:35.614203 22197 net.cpp:120] Setting up stanford_cars_loss2/classifier_stanford_cars_loss2/classifier_0_split
I0704 15:10:35.614212 22197 net.cpp:127] Top shape: 10 196 (1960)
I0704 15:10:35.614217 22197 net.cpp:127] Top shape: 10 196 (1960)
I0704 15:10:35.614222 22197 net.cpp:127] Top shape: 10 196 (1960)
I0704 15:10:35.614225 22197 layer_factory.hpp:74] Creating layer stanford_cars_loss2/loss
I0704 15:10:35.614233 22197 net.cpp:90] Creating Layer stanford_cars_loss2/loss
I0704 15:10:35.614238 22197 net.cpp:410] stanford_cars_loss2/loss <- stanford_cars_loss2/classifier_stanford_cars_loss2/classifier_0_split_0
I0704 15:10:35.614244 22197 net.cpp:410] stanford_cars_loss2/loss <- label_data_1_split_3
…
I0704 15:10:35.614511 22197 net.cpp:368] loss2/top-5 -> loss2/top-5
I0704 15:10:35.614522 22197 net.cpp:120] Setting up loss2/top-5
I0704 15:10:35.614531 22197 net.cpp:127] Top shape: (1)
I0704 15:10:35.614539 22197 layer_factory.hpp:74] Creating layer inception_4e/1x1
I0704 15:10:35.614552 22197 net.cpp:90] Creating Layer inception_4e/1x1
I0704 15:10:35.614560 22197 net.cpp:410] inception_4e/1x1 <- inception_4d/output_inception_4d/output_0_split_1
I0704 15:10:35.614572 22197 net.cpp:368] inception_4e/1x1 -> inception_4e/1x1
I0704 15:10:35.614583 22197 net.cpp:120] Setting up inception_4e/1x1
I0704 15:10:35.616315 22197 net.cpp:127] Top shape: 10 256 14 14 (501760)
I0704 15:10:35.616348 22197 layer_factory.hpp:74] Creating layer inception_4e/relu_1x1
I0704 15:10:35.616364 22197 net.cpp:90] Creating Layer inception_4e/relu_1x1
I0704 15:10:35.616376 22197 net.cpp:410] inception_4e/relu_1x1 <- inception_4e/1x1
I0704 15:10:35.616390 22197 net.cpp:357] inception_4e/relu_1x1 -> inception_4e/1x1 (in-place)
I0704 15:10:35.616405 22197 net.cpp:120] Setting up inception_4e/relu_1x1
I0704 15:10:35.616648 22197 net.cpp:127] Top shape: 10 256 14 14 (501760)
I0704 15:10:35.616668 22197 layer_factory.hpp:74] Creating layer inception_4e/3x3_reduce
I0704 15:10:35.616703 22197 net.cpp:90] Creating Layer inception_4e/3x3_reduce
I0704 15:10:35.616718 22197 net.cpp:410] inception_4e/3x3_reduce <- inception_4d/output_inception_4d/output_0_split_2
I0704 15:10:35.616734 22197 net.cpp:368] inception_4e/3x3_reduce -> inception_4e/3x3_reduce
I0704 15:10:35.616750 22197 net.cpp:120] Setting up inception_4e/3x3_reduce
I0704 15:10:35.618185 22197 net.cpp:127] Top shape: 10 160 14 14 (313600)
I0704 15:10:35.618214 22197 layer_factory.hpp:74] Creating layer inception_4e/relu_3x3_reduce
I0704 15:10:35.618229 22197 net.cpp:90] Creating Layer inception_4e/relu_3x3_reduce
I0704 15:10:35.618242 22197 net.cpp:410] inception_4e/relu_3x3_reduce <- inception_4e/3x3_reduce
I0704 15:10:35.618271 22197 net.cpp:357] inception_4e/relu_3x3_reduce -> inception_4e/3x3_reduce (in-place)
I0704 15:10:35.618288 22197 net.cpp:120] Setting up inception_4e/relu_3x3_reduce
I0704 15:10:35.618386 22197 net.cpp:127] Top shape: 10 160 14 14 (313600)
I0704 15:10:35.618402 22197 layer_factory.hpp:74] Creating layer inception_4e/3x3
I0704 15:10:35.618418 22197 net.cpp:90] Creating Layer inception_4e/3x3
I0704 15:10:35.618432 22197 net.cpp:410] inception_4e/3x3 <- inception_4e/3x3_reduce
I0704 15:10:35.618449 22197 net.cpp:368] inception_4e/3x3 -> inception_4e/3x3
I0704 15:10:35.618466 22197 net.cpp:120] Setting up inception_4e/3x3
I0704 15:10:35.623693 22197 net.cpp:127] Top shape: 10 320 14 14 (627200)
I0704 15:10:35.623709 22197 layer_factory.hpp:74] Creating layer inception_4e/relu_3x3
I0704 15:10:35.623716 22197 net.cpp:90] Creating Layer inception_4e/relu_3x3
I0704 15:10:35.623723 22197 net.cpp:410] inception_4e/relu_3x3 <- inception_4e/3x3
I0704 15:10:35.623729 22197 net.cpp:357] inception_4e/relu_3x3 -> inception_4e/3x3 (in-place)
I0704 15:10:35.623735 22197 net.cpp:120] Setting up inception_4e/relu_3x3
I0704 15:10:35.623776 22197 net.cpp:127] Top shape: 10 320 14 14 (627200)
I0704 15:10:35.623785 22197 layer_factory.hpp:74] Creating layer inception_4e/5x5_reduce
I0704 15:10:35.623791 22197 net.cpp:90] Creating Layer inception_4e/5x5_reduce
I0704 15:10:35.623797 22197 net.cpp:410] inception_4e/5x5_reduce <- inception_4d/output_inception_4d/output_0_split_3
I0704 15:10:35.623803 22197 net.cpp:368] inception_4e/5x5_reduce -> inception_4e/5x5_reduce
I0704 15:10:35.623811 22197 net.cpp:120] Setting up inception_4e/5x5_reduce
I0704 15:10:35.624145 22197 net.cpp:127] Top shape: 10 32 14 14 (62720)
I0704 15:10:35.624156 22197 layer_factory.hpp:74] Creating layer inception_4e/relu_5x5_reduce
I0704 15:10:35.624163 22197 net.cpp:90] Creating Layer inception_4e/relu_5x5_reduce
I0704 15:10:35.624168 22197 net.cpp:410] inception_4e/relu_5x5_reduce <- inception_4e/5x5_reduce
I0704 15:10:35.624174 22197 net.cpp:357] inception_4e/relu_5x5_reduce -> inception_4e/5x5_reduce (in-place)
I0704 15:10:35.624181 22197 net.cpp:120] Setting up inception_4e/relu_5x5_reduce
I0704 15:10:35.624219 22197 net.cpp:127] Top shape: 10 32 14 14 (62720)
I0704 15:10:35.624227 22197 layer_factory.hpp:74] Creating layer inception_4e/5x5
I0704 15:10:35.624233 22197 net.cpp:90] Creating Layer inception_4e/5x5
I0704 15:10:35.624238 22197 net.cpp:410] inception_4e/5x5 <- inception_4e/5x5_reduce
I0704 15:10:35.624244 22197 net.cpp:368] inception_4e/5x5 -> inception_4e/5x5
I0704 15:10:35.624251 22197 net.cpp:120] Setting up inception_4e/5x5
I0704 15:10:35.624959 22197 net.cpp:127] Top shape: 10 128 14 14 (250880)
I0704 15:10:35.624970 22197 layer_factory.hpp:74] Creating layer inception_4e/relu_5x5
I0704 15:10:35.624979 22197 net.cpp:90] Creating Layer inception_4e/relu_5x5
I0704 15:10:35.624984 22197 net.cpp:410] inception_4e/relu_5x5 <- inception_4e/5x5
I0704 15:10:35.624989 22197 net.cpp:357] inception_4e/relu_5x5 -> inception_4e/5x5 (in-place)
I0704 15:10:35.624996 22197 net.cpp:120] Setting up inception_4e/relu_5x5
I0704 15:10:35.625119 22197 net.cpp:127] Top shape: 10 128 14 14 (250880)
I0704 15:10:35.625128 22197 layer_factory.hpp:74] Creating layer inception_4e/pool
I0704 15:10:35.625134 22197 layer_factory.cpp:55] CUDNN does not support padding or multiple tops. Using Caffe's own pooling layer.
I0704 15:10:35.625140 22197 net.cpp:90] Creating Layer inception_4e/pool
I0704 15:10:35.625145 22197 net.cpp:410] inception_4e/pool <- inception_4d/output_inception_4d/output_0_split_4
I0704 15:10:35.625152 22197 net.cpp:368] inception_4e/pool -> inception_4e/pool
I0704 15:10:35.625159 22197 net.cpp:120] Setting up inception_4e/pool
I0704 15:10:35.625166 22197 net.cpp:127] Top shape: 10 528 14 14 (1034880)
I0704 15:10:35.625171 22197 layer_factory.hpp:74] Creating layer inception_4e/pool_proj
I0704 15:10:35.625180 22197 net.cpp:90] Creating Layer inception_4e/pool_proj
I0704 15:10:35.625192 22197 net.cpp:410] inception_4e/pool_proj <- inception_4e/pool
I0704 15:10:35.625200 22197 net.cpp:368] inception_4e/pool_proj -> inception_4e/pool_proj
I0704 15:10:35.625216 22197 net.cpp:120] Setting up inception_4e/pool_proj
I0704 15:10:35.625793 22197 net.cpp:127] Top shape: 10 128 14 14 (250880)
I0704 15:10:35.625805 22197 layer_factory.hpp:74] Creating layer inception_4e/relu_pool_proj
I0704 15:10:35.625813 22197 net.cpp:90] Creating Layer inception_4e/relu_pool_proj
I0704 15:10:35.625818 22197 net.cpp:410] inception_4e/relu_pool_proj <- inception_4e/pool_proj
I0704 15:10:35.625824 22197 net.cpp:357] inception_4e/relu_pool_proj -> inception_4e/pool_proj (in-place)
I0704 15:10:35.625830 22197 net.cpp:120] Setting up inception_4e/relu_pool_proj
I0704 15:10:35.625872 22197 net.cpp:127] Top shape: 10 128 14 14 (250880)
I0704 15:10:35.625880 22197 layer_factory.hpp:74] Creating layer inception_4e/output
I0704 15:10:35.625885 22197 net.cpp:90] Creating Layer inception_4e/output
I0704 15:10:35.625890 22197 net.cpp:410] inception_4e/output <- inception_4e/1x1
I0704 15:10:35.625895 22197 net.cpp:410] inception_4e/output <- inception_4e/3x3
I0704 15:10:35.625901 22197 net.cpp:410] inception_4e/output <- inception_4e/5x5
I0704 15:10:35.625906 22197 net.cpp:410] inception_4e/output <- inception_4e/pool_proj
I0704 15:10:35.625913 22197 net.cpp:368] inception_4e/output -> inception_4e/output
I0704 15:10:35.625919 22197 net.cpp:120] Setting up inception_4e/output
I0704 15:10:35.625926 22197 net.cpp:127] Top shape: 10 832 14 14 (1630720)
I0704 15:10:35.625931 22197 layer_factory.hpp:74] Creating layer pool4/3x3_s2
I0704 15:10:35.625937 22197 net.cpp:90] Creating Layer pool4/3x3_s2
I0704 15:10:35.625942 22197 net.cpp:410] pool4/3x3_s2 <- inception_4e/output
I0704 15:10:35.645292 22197 net.cpp:368] pool4/3x3_s2 -> pool4/3x3_s2
I0704 15:10:35.645323 22197 net.cpp:120] Setting up pool4/3x3_s2
I0704 15:10:35.645442 22197 net.cpp:127] Top shape: 10 832 7 7 (407680)
I0704 15:10:35.645454 22197 layer_factory.hpp:74] Creating layer pool4/3x3_s2_pool4/3x3_s2_0_split
I0704 15:10:35.645467 22197 net.cpp:90] Creating Layer pool4/3x3_s2_pool4/3x3_s2_0_split
I0704 15:10:35.645475 22197 net.cpp:410] pool4/3x3_s2_pool4/3x3_s2_0_split <- pool4/3x3_s2
I0704 15:10:35.645485 22197 net.cpp:368] pool4/3x3_s2_pool4/3x3_s2_0_split -> pool4/3x3_s2_pool4/3x3_s2_0_split_0
I0704 15:10:35.645498 22197 net.cpp:368] pool4/3x3_s2_pool4/3x3_s2_0_split -> pool4/3x3_s2_pool4/3x3_s2_0_split_1
I0704 15:10:35.645509 22197 net.cpp:368] pool4/3x3_s2_pool4/3x3_s2_0_split -> pool4/3x3_s2_pool4/3x3_s2_0_split_2
I0704 15:10:35.645535 22197 net.cpp:368] pool4/3x3_s2_pool4/3x3_s2_0_split -> pool4/3x3_s2_pool4/3x3_s2_0_split_3
I0704 15:10:35.645546 22197 net.cpp:120] Setting up pool4/3x3_s2_pool4/3x3_s2_0_split
I0704 15:10:35.645558 22197 net.cpp:127] Top shape: 10 832 7 7 (407680)
I0704 15:10:35.645567 22197 net.cpp:127] Top shape: 10 832 7 7 (407680)
I0704 15:10:35.645580 22197 net.cpp:127] Top shape: 10 832 7 7 (407680)
I0704 15:10:35.645588 22197 net.cpp:127] Top shape: 10 832 7 7 (407680)
I0704 15:10:35.645596 22197 layer_factory.hpp:74] Creating layer inception_5a/1x1
I0704 15:10:35.645609 22197 net.cpp:90] Creating Layer inception_5a/1x1
I0704 15:10:35.645617 22197 net.cpp:410] inception_5a/1x1 <- pool4/3x3_s2_pool4/3x3_s2_0_split_0
I0704 15:10:35.645629 22197 net.cpp:368] inception_5a/1x1 -> inception_5a/1x1
I0704 15:10:35.645642 22197 net.cpp:120] Setting up inception_5a/1x1
I0704 15:10:35.647526 22197 net.cpp:127] Top shape: 10 256 7 7 (125440)
I0704 15:10:35.647580 22197 layer_factory.hpp:74] Creating layer inception_5a/relu_1x1
I0704 15:10:35.647615 22197 net.cpp:90] Creating Layer inception_5a/relu_1x1
I0704 15:10:35.647640 22197 net.cpp:410] inception_5a/relu_1x1 <- inception_5a/1x1
I0704 15:10:35.647667 22197 net.cpp:357] inception_5a/relu_1x1 -> inception_5a/1x1 (in-place)
I0704 15:10:35.647699 22197 net.cpp:120] Setting up inception_5a/relu_1x1
I0704 15:10:35.648124 22197 net.cpp:127] Top shape: 10 256 7 7 (125440)
I0704 15:10:35.648164 22197 layer_factory.hpp:74] Creating layer inception_5a/3x3_reduce
I0704 15:10:35.648236 22197 net.cpp:90] Creating Layer inception_5a/3x3_reduce
I0704 15:10:35.648260 22197 net.cpp:410] inception_5a/3x3_reduce <- pool4/3x3_s2_pool4/3x3_s2_0_split_1
I0704 15:10:35.648294 22197 net.cpp:368] inception_5a/3x3_reduce -> inception_5a/3x3_reduce
I0704 15:10:35.648330 22197 net.cpp:120] Setting up inception_5a/3x3_reduce
I0704 15:10:35.652113 22197 net.cpp:127] Top shape: 10 160 7 7 (78400)
I0704 15:10:35.652166 22197 layer_factory.hpp:74] Creating layer inception_5a/relu_3x3_reduce
I0704 15:10:35.652199 22197 net.cpp:90] Creating Layer inception_5a/relu_3x3_reduce
I0704 15:10:35.652225 22197 net.cpp:410] inception_5a/relu_3x3_reduce <- inception_5a/3x3_reduce
I0704 15:10:35.652251 22197 net.cpp:357] inception_5a/relu_3x3_reduce -> inception_5a/3x3_reduce (in-place)
I0704 15:10:35.652279 22197 net.cpp:120] Setting up inception_5a/relu_3x3_reduce
I0704 15:10:35.652465 22197 net.cpp:127] Top shape: 10 160 7 7 (78400)
I0704 15:10:35.652497 22197 layer_factory.hpp:74] Creating layer inception_5a/3x3
I0704 15:10:35.652529 22197 net.cpp:90] Creating Layer inception_5a/3x3
I0704 15:10:35.652551 22197 net.cpp:410] inception_5a/3x3 <- inception_5a/3x3_reduce
I0704 15:10:35.652578 22197 net.cpp:368] inception_5a/3x3 -> inception_5a/3x3
I0704 15:10:35.652611 22197 net.cpp:120] Setting up inception_5a/3x3
I0704 15:10:35.660249 22197 net.cpp:127] Top shape: 10 320 7 7 (156800)
I0704 15:10:35.660264 22197 layer_factory.hpp:74] Creating layer inception_5a/relu_3x3
I0704 15:10:35.660270 22197 net.cpp:90] Creating Layer inception_5a/relu_3x3
I0704 15:10:35.660275 22197 net.cpp:410] inception_5a/relu_3x3 <- inception_5a/3x3
I0704 15:10:35.660284 22197 net.cpp:357] inception_5a/relu_3x3 -> inception_5a/3x3 (in-place)
I0704 15:10:35.660290 22197 net.cpp:120] Setting up inception_5a/relu_3x3
I0704 15:10:35.660331 22197 net.cpp:127] Top shape: 10 320 7 7 (156800)
I0704 15:10:35.660337 22197 layer_factory.hpp:74] Creating layer inception_5a/5x5_reduce
I0704 15:10:35.660346 22197 net.cpp:90] Creating Layer inception_5a/5x5_reduce
I0704 15:10:35.660351 22197 net.cpp:410] inception_5a/5x5_reduce <- pool4/3x3_s2_pool4/3x3_s2_0_split_2
I0704 15:10:35.660357 22197 net.cpp:368] inception_5a/5x5_reduce -> inception_5a/5x5_reduce
I0704 15:10:35.660364 22197 net.cpp:120] Setting up inception_5a/5x5_reduce
I0704 15:10:35.660704 22197 net.cpp:127] Top shape: 10 32 7 7 (15680)
I0704 15:10:35.660715 22197 layer_factory.hpp:74] Creating layer inception_5a/relu_5x5_reduce
I0704 15:10:35.660724 22197 net.cpp:90] Creating Layer inception_5a/relu_5x5_reduce
I0704 15:10:35.660729 22197 net.cpp:410] inception_5a/relu_5x5_reduce <- inception_5a/5x5_reduce
I0704 15:10:35.660735 22197 net.cpp:357] inception_5a/relu_5x5_reduce -> inception_5a/5x5_reduce (in-place)
I0704 15:10:35.660742 22197 net.cpp:120] Setting up inception_5a/relu_5x5_reduce
I0704 15:10:35.660785 22197 net.cpp:127] Top shape: 10 32 7 7 (15680)
I0704 15:10:35.660791 22197 layer_factory.hpp:74] Creating layer inception_5a/5x5
I0704 15:10:35.660799 22197 net.cpp:90] Creating Layer inception_5a/5x5
I0704 15:10:35.660804 22197 net.cpp:410] inception_5a/5x5 <- inception_5a/5x5_reduce
I0704 15:10:35.660811 22197 net.cpp:368] inception_5a/5x5 -> inception_5a/5x5
I0704 15:10:35.660819 22197 net.cpp:120] Setting up inception_5a/5x5
I0704 15:10:35.661525 22197 net.cpp:127] Top shape: 10 128 7 7 (62720)
I0704 15:10:35.661536 22197 layer_factory.hpp:74] Creating layer inception_5a/relu_5x5
I0704 15:10:35.661543 22197 net.cpp:90] Creating Layer inception_5a/relu_5x5
I0704 15:10:35.661550 22197 net.cpp:410] inception_5a/relu_5x5 <- inception_5a/5x5
I0704 15:10:35.661556 22197 net.cpp:357] inception_5a/relu_5x5 -> inception_5a/5x5 (in-place)
I0704 15:10:35.661561 22197 net.cpp:120] Setting up inception_5a/relu_5x5
I0704 15:10:35.661677 22197 net.cpp:127] Top shape: 10 128 7 7 (62720)
I0704 15:10:35.661686 22197 layer_factory.hpp:74] Creating layer inception_5a/pool
I0704 15:10:35.661692 22197 layer_factory.cpp:55] CUDNN does not support padding or multiple tops. Using Caffe's own pooling layer.
I0704 15:10:35.661708 22197 net.cpp:90] Creating Layer inception_5a/pool
I0704 15:10:35.661715 22197 net.cpp:410] inception_5a/pool <- pool4/3x3_s2_pool4/3x3_s2_0_split_3
I0704 15:10:35.661720 22197 net.cpp:368] inception_5a/pool -> inception_5a/pool
I0704 15:10:35.661727 22197 net.cpp:120] Setting up inception_5a/pool
I0704 15:10:35.661736 22197 net.cpp:127] Top shape: 10 832 7 7 (407680)
I0704 15:10:35.661741 22197 layer_factory.hpp:74] Creating layer inception_5a/pool_proj
I0704 15:10:35.661748 22197 net.cpp:90] Creating Layer inception_5a/pool_proj
I0704 15:10:35.661753 22197 net.cpp:410] inception_5a/pool_proj <- inception_5a/pool
I0704 15:10:35.661761 22197 net.cpp:368] inception_5a/pool_proj -> inception_5a/pool_proj
I0704 15:10:35.661768 22197 net.cpp:120] Setting up inception_5a/pool_proj
I0704 15:10:35.662495 22197 net.cpp:127] Top shape: 10 128 7 7 (62720)
I0704 15:10:35.662506 22197 layer_factory.hpp:74] Creating layer inception_5a/relu_pool_proj
I0704 15:10:35.662514 22197 net.cpp:90] Creating Layer inception_5a/relu_pool_proj
I0704 15:10:35.662519 22197 net.cpp:410] inception_5a/relu_pool_proj <- inception_5a/pool_proj
I0704 15:10:35.662526 22197 net.cpp:357] inception_5a/relu_pool_proj -> inception_5a/pool_proj (in-place)
I0704 15:10:35.662533 22197 net.cpp:120] Setting up inception_5a/relu_pool_proj
I0704 15:10:35.662574 22197 net.cpp:127] Top shape: 10 128 7 7 (62720)
I0704 15:10:35.662580 22197 layer_factory.hpp:74] Creating layer inception_5a/output
I0704 15:10:35.662587 22197 net.cpp:90] Creating Layer inception_5a/output
I0704 15:10:35.662592 22197 net.cpp:410] inception_5a/output <- inception_5a/1x1
I0704 15:10:35.662598 22197 net.cpp:410] inception_5a/output <- inception_5a/3x3
I0704 15:10:35.662603 22197 net.cpp:410] inception_5a/output <- inception_5a/5x5
I0704 15:10:35.662608 22197 net.cpp:410] inception_5a/output <- inception_5a/pool_proj
I0704 15:10:35.662614 22197 net.cpp:368] inception_5a/output -> inception_5a/output
I0704 15:10:35.662621 22197 net.cpp:120] Setting up inception_5a/output
I0704 15:10:35.662627 22197 net.cpp:127] Top shape: 10 832 7 7 (407680)
I0704 15:10:35.662632 22197 layer_factory.hpp:74] Creating layer inception_5a/output_inception_5a/output_0_split
I0704 15:10:35.662639 22197 net.cpp:90] Creating Layer inception_5a/output_inception_5a/output_0_split
I0704 15:10:35.662643 22197 net.cpp:410] inception_5a/output_inception_5a/output_0_split <- inception_5a/output
I0704 15:10:35.662650 22197 net.cpp:368] inception_5a/output_inception_5a/output_0_split -> inception_5a/output_inception_5a/output_0_split_0
I0704 15:10:35.662657 22197 net.cpp:368] inception_5a/output_inception_5a/output_0_split -> inception_5a/output_inception_5a/output_0_split_1
I0704 15:10:35.662664 22197 net.cpp:368] inception_5a/output_inception_5a/output_0_split -> inception_5a/output_inception_5a/output_0_split_2
I0704 15:10:35.662670 22197 net.cpp:368] inception_5a/output_inception_5a/output_0_split -> inception_5a/output_inception_5a/output_0_split_3
I0704 15:10:35.662677 22197 net.cpp:120] Setting up inception_5a/output_inception_5a/output_0_split
I0704 15:10:35.662683 22197 net.cpp:127] Top shape: 10 832 7 7 (407680)
I0704 15:10:35.662688 22197 net.cpp:127] Top shape: 10 832 7 7 (407680)
I0704 15:10:35.662693 22197 net.cpp:127] Top shape: 10 832 7 7 (407680)
I0704 15:10:35.662698 22197 net.cpp:127] Top shape: 10 832 7 7 (407680)
I0704 15:10:35.662703 22197 layer_factory.hpp:74] Creating layer inception_5b/1x1
I0704 15:10:35.662709 22197 net.cpp:90] Creating Layer inception_5b/1x1
I0704 15:10:35.662714 22197 net.cpp:410] inception_5b/1x1 <- inception_5a/output_inception_5a/output_0_split_0
I0704 15:10:35.662722 22197 net.cpp:368] inception_5b/1x1 -> inception_5b/1x1
I0704 15:10:35.662729 22197 net.cpp:120] Setting up inception_5b/1x1
I0704 15:10:35.664495 22197 net.cpp:127] Top shape: 10 384 7 7 (188160)
I0704 15:10:35.664508 22197 layer_factory.hpp:74] Creating layer inception_5b/relu_1x1
I0704 15:10:35.664515 22197 net.cpp:90] Creating Layer inception_5b/relu_1x1
I0704 15:10:35.664527 22197 net.cpp:410] inception_5b/relu_1x1 <- inception_5b/1x1
I0704 15:10:35.664533 22197 net.cpp:357] inception_5b/relu_1x1 -> inception_5b/1x1 (in-place)
I0704 15:10:35.664541 22197 net.cpp:120] Setting up inception_5b/relu_1x1
I0704 15:10:35.664583 22197 net.cpp:127] Top shape: 10 384 7 7 (188160)
I0704 15:10:35.664590 22197 layer_factory.hpp:74] Creating layer inception_5b/3x3_reduce
I0704 15:10:35.664598 22197 net.cpp:90] Creating Layer inception_5b/3x3_reduce
I0704 15:10:35.664603 22197 net.cpp:410] inception_5b/3x3_reduce <- inception_5a/output_inception_5a/output_0_split_1
I0704 15:10:35.664610 22197 net.cpp:368] inception_5b/3x3_reduce -> inception_5b/3x3_reduce
I0704 15:10:35.664618 22197 net.cpp:120] Setting up inception_5b/3x3_reduce
I0704 15:10:35.665602 22197 net.cpp:127] Top shape: 10 192 7 7 (94080)
I0704 15:10:35.665614 22197 layer_factory.hpp:74] Creating layer inception_5b/relu_3x3_reduce
I0704 15:10:35.665621 22197 net.cpp:90] Creating Layer inception_5b/relu_3x3_reduce
I0704 15:10:35.665627 22197 net.cpp:410] inception_5b/relu_3x3_reduce <- inception_5b/3x3_reduce
I0704 15:10:35.665632 22197 net.cpp:357] inception_5b/relu_3x3_reduce -> inception_5b/3x3_reduce (in-place)
I0704 15:10:35.665638 22197 net.cpp:120] Setting up inception_5b/relu_3x3_reduce
I0704 15:10:35.665683 22197 net.cpp:127] Top shape: 10 192 7 7 (94080)
I0704 15:10:35.665688 22197 layer_factory.hpp:74] Creating layer inception_5b/3x3
I0704 15:10:35.665696 22197 net.cpp:90] Creating Layer inception_5b/3x3
I0704 15:10:35.665701 22197 net.cpp:410] inception_5b/3x3 <- inception_5b/3x3_reduce
I0704 15:10:35.665709 22197 net.cpp:368] inception_5b/3x3 -> inception_5b/3x3
I0704 15:10:35.665714 22197 net.cpp:120] Setting up inception_5b/3x3
I0704 15:10:35.669152 22197 net.cpp:127] Top shape: 10 384 7 7 (188160)
I0704 15:10:35.669165 22197 layer_factory.hpp:74] Creating layer inception_5b/relu_3x3
I0704 15:10:35.669173 22197 net.cpp:90] Creating Layer inception_5b/relu_3x3
I0704 15:10:35.676100 22197 net.cpp:410] inception_5b/relu_3x3 <- inception_5b/3x3
I0704 15:10:35.676143 22197 net.cpp:357] inception_5b/relu_3x3 -> inception_5b/3x3 (in-place)
I0704 15:10:35.676167 22197 net.cpp:120] Setting up inception_5b/relu_3x3
I0704 15:10:35.676553 22197 net.cpp:127] Top shape: 10 384 7 7 (188160)
I0704 15:10:35.676578 22197 layer_factory.hpp:74] Creating layer inception_5b/5x5_reduce
I0704 15:10:35.676601 22197 net.cpp:90] Creating Layer inception_5b/5x5_reduce
I0704 15:10:35.676617 22197 net.cpp:410] inception_5b/5x5_reduce <- inception_5a/output_inception_5a/output_0_split_2
I0704 15:10:35.676637 22197 net.cpp:368] inception_5b/5x5_reduce -> inception_5b/5x5_reduce
I0704 15:10:35.676658 22197 net.cpp:120] Setting up inception_5b/5x5_reduce
I0704 15:10:35.677646 22197 net.cpp:127] Top shape: 10 48 7 7 (23520)
I0704 15:10:35.677670 22197 layer_factory.hpp:74] Creating layer inception_5b/relu_5x5_reduce
I0704 15:10:35.677682 22197 net.cpp:90] Creating Layer inception_5b/relu_5x5_reduce
I0704 15:10:35.677691 22197 net.cpp:410] inception_5b/relu_5x5_reduce <- inception_5b/5x5_reduce
I0704 15:10:35.677702 22197 net.cpp:357] inception_5b/relu_5x5_reduce -> inception_5b/5x5_reduce (in-place)
I0704 15:10:35.677713 22197 net.cpp:120] Setting up inception_5b/relu_5x5_reduce
I0704 15:10:35.677788 22197 net.cpp:127] Top shape: 10 48 7 7 (23520)
I0704 15:10:35.677798 22197 layer_factory.hpp:74] Creating layer inception_5b/5x5
I0704 15:10:35.677810 22197 net.cpp:90] Creating Layer inception_5b/5x5
I0704 15:10:35.677819 22197 net.cpp:410] inception_5b/5x5 <- inception_5b/5x5_reduce
I0704 15:10:35.677830 22197 net.cpp:368] inception_5b/5x5 -> inception_5b/5x5
I0704 15:10:35.677842 22197 net.cpp:120] Setting up inception_5b/5x5
I0704 15:10:35.679489 22197 net.cpp:127] Top shape: 10 128 7 7 (62720)
I0704 15:10:35.679509 22197 layer_factory.hpp:74] Creating layer inception_5b/relu_5x5
I0704 15:10:35.679520 22197 net.cpp:90] Creating Layer inception_5b/relu_5x5
I0704 15:10:35.679530 22197 net.cpp:410] inception_5b/relu_5x5 <- inception_5b/5x5
I0704 15:10:35.679563 22197 net.cpp:357] inception_5b/relu_5x5 -> inception_5b/5x5 (in-place)
I0704 15:10:35.679574 22197 net.cpp:120] Setting up inception_5b/relu_5x5
I0704 15:10:35.679646 22197 net.cpp:127] Top shape: 10 128 7 7 (62720)
I0704 15:10:35.679656 22197 layer_factory.hpp:74] Creating layer inception_5b/pool
I0704 15:10:35.679666 22197 layer_factory.cpp:55] CUDNN does not support padding or multiple tops. Using Caffe's own pooling layer.
I0704 15:10:35.679674 22197 net.cpp:90] Creating Layer inception_5b/pool
I0704 15:10:35.679683 22197 net.cpp:410] inception_5b/pool <- inception_5a/output_inception_5a/output_0_split_3
I0704 15:10:35.679695 22197 net.cpp:368] inception_5b/pool -> inception_5b/pool
I0704 15:10:35.679707 22197 net.cpp:120] Setting up inception_5b/pool
I0704 15:10:35.679719 22197 net.cpp:127] Top shape: 10 832 7 7 (407680)
I0704 15:10:35.679728 22197 layer_factory.hpp:74] Creating layer inception_5b/pool_proj
I0704 15:10:35.679738 22197 net.cpp:90] Creating Layer inception_5b/pool_proj
I0704 15:10:35.679746 22197 net.cpp:410] inception_5b/pool_proj <- inception_5b/pool
I0704 15:10:35.679759 22197 net.cpp:368] inception_5b/pool_proj -> inception_5b/pool_proj
I0704 15:10:35.679769 22197 net.cpp:120] Setting up inception_5b/pool_proj
I0704 15:10:35.681085 22197 net.cpp:127] Top shape: 10 128 7 7 (62720)
I0704 15:10:35.681105 22197 layer_factory.hpp:74] Creating layer inception_5b/relu_pool_proj
I0704 15:10:35.681116 22197 net.cpp:90] Creating Layer inception_5b/relu_pool_proj
I0704 15:10:35.681125 22197 net.cpp:410] inception_5b/relu_pool_proj <- inception_5b/pool_proj
I0704 15:10:35.681135 22197 net.cpp:357] inception_5b/relu_pool_proj -> inception_5b/pool_proj (in-place)
I0704 15:10:35.681146 22197 net.cpp:120] Setting up inception_5b/relu_pool_proj
I0704 15:10:35.681217 22197 net.cpp:127] Top shape: 10 128 7 7 (62720)
I0704 15:10:35.681228 22197 layer_factory.hpp:74] Creating layer inception_5b/output
I0704 15:10:35.681239 22197 net.cpp:90] Creating Layer inception_5b/output
I0704 15:10:35.681247 22197 net.cpp:410] inception_5b/output <- inception_5b/1x1
I0704 15:10:35.681257 22197 net.cpp:410] inception_5b/output <- inception_5b/3x3
I0704 15:10:35.681265 22197 net.cpp:410] inception_5b/output <- inception_5b/5x5
I0704 15:10:35.681274 22197 net.cpp:410] inception_5b/output <- inception_5b/pool_proj
I0704 15:10:35.681284 22197 net.cpp:368] inception_5b/output -> inception_5b/output
I0704 15:10:35.681295 22197 net.cpp:120] Setting up inception_5b/output
I0704 15:10:35.681306 22197 net.cpp:127] Top shape: 10 1024 7 7 (501760)
I0704 15:10:35.681314 22197 layer_factory.hpp:74] Creating layer pool5/7x7_s1
I0704 15:10:35.681326 22197 net.cpp:90] Creating Layer pool5/7x7_s1
I0704 15:10:35.681335 22197 net.cpp:410] pool5/7x7_s1 <- inception_5b/output
I0704 15:10:35.681345 22197 net.cpp:368] pool5/7x7_s1 -> pool5/7x7_s1
I0704 15:10:35.681355 22197 net.cpp:120] Setting up pool5/7x7_s1
I0704 15:10:35.681535 22197 net.cpp:127] Top shape: 10 1024 1 1 (10240)
I0704 15:10:35.681551 22197 layer_factory.hpp:74] Creating layer pool5/drop_7x7_s1
I0704 15:10:35.681562 22197 net.cpp:90] Creating Layer pool5/drop_7x7_s1
I0704 15:10:35.681571 22197 net.cpp:410] pool5/drop_7x7_s1 <- pool5/7x7_s1
I0704 15:10:35.681583 22197 net.cpp:357] pool5/drop_7x7_s1 -> pool5/7x7_s1 (in-place)
I0704 15:10:35.681593 22197 net.cpp:120] Setting up pool5/drop_7x7_s1
I0704 15:10:35.681604 22197 net.cpp:127] Top shape: 10 1024 1 1 (10240)
I0704 15:10:35.681612 22197 layer_factory.hpp:74] Creating layer stanford_cars_loss3/classifier
I0704 15:10:35.681624 22197 net.cpp:90] Creating Layer stanford_cars_loss3/classifier
I0704 15:10:35.681633 22197 net.cpp:410] stanford_cars_loss3/classifier <- pool5/7x7_s1
I0704 15:10:35.681644 22197 net.cpp:368] stanford_cars_loss3/classifier -> stanford_cars_loss3/classifier
I0704 15:10:35.681656 22197 net.cpp:120] Setting up stanford_cars_loss3/classifier
I0704 15:10:35.683331 22197 net.cpp:127] Top shape: 10 196 (1960)
I0704 15:10:35.683353 22197 layer_factory.hpp:74] Creating layer stanford_cars_loss3/classifier_stanford_cars_loss3/classifier_0_split
I0704 15:10:35.683377 22197 net.cpp:90] Creating Layer stanford_cars_loss3/classifier_stanford_cars_loss3/classifier_0_split
I0704 15:10:35.683382 22197 net.cpp:410] stanford_cars_loss3/classifier_stanford_cars_loss3/classifier_0_split <- stanford_cars_loss3/classifier
I0704 15:10:35.683388 22197 net.cpp:368] stanford_cars_loss3/classifier_stanford_cars_loss3/classifier_0_split -> stanford_cars_loss3/classifier_stanford_cars_loss3/classifier_0_split_0
I0704 15:10:35.683395 22197 net.cpp:368] stanford_cars_loss3/classifier_stanford_cars_loss3/classifier_0_split -> stanford_cars_loss3/classifier_stanford_cars_loss3/classifier_0_split_1
I0704 15:10:35.683403 22197 net.cpp:368] stanford_cars_loss3/classifier_stanford_cars_loss3/classifier_0_split -> stanford_cars_loss3/classifier_stanford_cars_loss3/classifier_0_split_2
I0704 15:10:35.683409 22197 net.cpp:120] Setting up stanford_cars_loss3/classifier_stanford_cars_loss3/classifier_0_split
I0704 15:10:35.683415 22197 net.cpp:127] Top shape: 10 196 (1960)
I0704 15:10:35.683421 22197 net.cpp:127] Top shape: 10 196 (1960)
I0704 15:10:35.683425 22197 net.cpp:127] Top shape: 10 196 (1960)
I0704 15:10:35.683430 22197 layer_factory.hpp:74] Creating layer loss3/loss3
I0704 15:10:35.683437 22197 net.cpp:90] Creating Layer loss3/loss3
I0704 15:10:35.683442 22197 net.cpp:410] loss3/loss3 <- stanford_cars_loss3/classifier_stanford_cars_loss3/classifier_0_split_0
I0704 15:10:35.683449 22197 net.cpp:410] loss3/loss3 <- label_data_1_split_6
I0704 15:10:35.683455 22197 net.cpp:368] loss3/loss3 -> loss3/loss3
…
