…
I0703 10:40:11.612342 28611 net.cpp:287] The NetState phase (0) differed from the phase (1) specified by a rule in layer loss3/top-5
I0703 10:40:11.613111 28611 net.cpp:42] Initializing net from parameters: 
name: "GoogleNet"
state {
  phase: TRAIN
}
layer {
  name: "data"
  type: "Data"
  top: "data"
  top: "label"
  include {
    phase: TRAIN
  }
  transform_param {
    mirror: true
    crop_size: 224
    mean_value: 104
    mean_value: 117
    mean_value: 123
  }
  data_param {
    source: "examples/stanford_cars/stanford_cars_train_lmdb"
    batch_size: 30
    backend: LMDB
  }
}
layer {
  name: "conv1/7x7_s2"
  type: "Convolution"
  bottom: "data"
  top: "conv1/7x7_s2"
  param {
    lr_mult: 1
    decay_mult: 1
  }
  param {
    lr_mult: 2
    decay_mult: 0
  }
  convolution_param {
    num_output: 64
    pad: 3
    kernel_size: 7
    stride: 2
    weight_filler {
      type: "xavier"
      std: 0.1
    }
    bias_filler {
      type: "constant"
      value: 0.2
    }
  }
}
layer {
  name: "conv1/relu_7x7"
  type: "ReLU"
  bottom: "conv1/7x7_s2"
  top: "conv1/7x7_s2"
}
layer {
  name: "pool1/3x3_s2"
  type: "Pooling"
  bottom: "conv1/7x7_s2"
  top: "pool1/3x3_s2"
  pooling_param {
    pool: MAX
    kernel_size: 3
    stride: 2
  }
}
layer {
  name: "pool1/norm1"
  type: "LRN"
  bottom: "pool1/3x3_s2"
  top: "pool1/norm1"
  lrn_param {
    local_size: 5
    alpha: 0.0001
    beta: 0.75
  }
}
layer {
  name: "conv2/3x3_reduce"
  type: "Convolution"
  bottom: "pool1/norm1"
  top: "conv2/3x3_reduce"
  param {
    lr_mult: 1
    decay_mult: 1
  }
  param {
    lr_mult: 2
    decay_mult: 0
  }
  convolution_param {
    num_output: 64
    kernel_size: 1
    weight_filler {
      type: "xavier"
      std: 0.1
    }
    bias_filler {
      type: "constant"
      value: 0.2
    }
  }
}
layer {
  name: "conv2/relu_3x3_reduce"
  type: "ReLU"
  bottom: "conv2/3x3_reduce"
  top: "conv2/3x3_reduce"
}
layer {
  name: "conv2/3x3"
  type: "Convolution"
  bottom: "conv2/3x3_reduce"
  top: "conv2/3x3"
  param {
    lr_mult: 1
    decay_mult: 1
  }
  param {
    lr_mult: 2
    decay_mult: 0
  }
  convolution_param {
    num_output: 192
    pad: 1
    kernel_size: 3
    weight_filler {
      type: "xavier"
      std: 0.03
    }
    bias_filler {
      type: "constant"
      value: 0.2
    }
  }
}
layer {
  name: "conv2/relu_3x3"
  type: "ReLU"
  bottom: "conv2/3x3"
  top: "conv2/3x3"
}
layer {
  name: "conv2/norm2"
  type: "LRN"
  bottom: "conv2/3x3"
  top: "conv2/norm2"
  lrn_param {
    local_size: 5
    alpha: 0.0001
    beta: 0.75
  }
}
layer {
  name: "pool2/3x3_s2"
  type: "Pooling"
  bottom: "conv2/norm2"
  top: "pool2/3x3_s2"
  pooling_param {
    pool: MAX
    kernel_size: 3
    stride: 2
  }
}
layer {
  name: "inception_3a/1x1"
  type: "Convolution"
  bottom: "pool2/3x3_s2"
  top: "inception_3a/1x1"
  param {
    lr_mult: 1
    decay_mult: 1
  }
  param {
    lr_mult: 2
    decay_mult: 0
  }
  convolution_param {
    num_output: 64
    kernel_size: 1
    weight_filler {
      type: "xavier"
      std: 0.03
    }
    bias_filler {
      type: "constant"
      value: 0.2
    }
  }
}
layer {
  name: "inception_3a/relu_1x1"
  type: "ReLU"
  bottom: "inception_3a/1x1"
  top: "inception_3a/1x1"
}
layer {
  name: "inception_3a/3x3_reduce"
  type: "Convolution"
  bottom: "pool2/3x3_s2"
  top: "inception_3a/3x3_reduce"
  param {
    lr_mult: 1
    decay_mult: 1
  }
  param {
    lr_mult: 2
    decay_mult: 0
  }
  convolution_param {
    num_output: 96
    kernel_size: 1
    weight_filler {
      type: "xavier"
      std: 0.09
    }
    bias_filler {
      type: "constant"
      value: 0.2
    }
  }
}
layer {
  name: "inception_3a/relu_3x3_reduce"
  type: "ReLU"
  bottom: "inception_3a/3x3_reduce"
  top: "inception_3a/3x3_reduce"
}
layer {
  name: "inception_3a/3x3"
  type: "Convolution"
  bottom: "inception_3a/3x3_reduce"
  top: "inception_3a/3x3"
  param {
    lr_mult: 1
    decay_mult: 1
  }
  param {
    lr_mult: 2
    decay_mult: 0
  }
  convolution_param {
    num_output: 128
    pad: 1
    kernel_size: 3
    weight_filler {
      type: "xavier"
      std: 0.03
    }
    bias_filler {
      type: "constant"
      value: 0.2
    }
  }
}
layer {
  name: "inception_3a/relu_3x3"
  type: "ReLU"
  bottom: "inception_3a/3x3"
  top: "inception_3a/3x3"
}
layer {
  name: "inception_3a/5x5_reduce"
  type: "Convolution"
  bottom: "pool2/3x3_s2"
  top: "inception_3a/5x5_reduce"
  param {
    lr_mult: 1
    decay_mult: 1
  }
  param {
    lr_mult: 2
    decay_mult: 0
  }
  convolution_param {
    num_output: 16
    kernel_size: 1
    weight_filler {
      type: "xavier"
      std: 0.2
    }
    bias_filler {
      type: "constant"
      value: 0.2
    }
  }
}
layer {
  name: "inception_3a/relu_5x5_reduce"
  type: "ReLU"
  bottom: "inception_3a/5x5_reduce"
  top: "inception_3a/5x5_reduce"
}
layer {
  name: "inception_3a/5x5"
  type: "Convolution"
  bottom: "inception_3a/5x5_reduce"
  top: "inception_3a/5x5"
  param {
    lr_mult: 1
    decay_mult: 1
  }
  param {
    lr_mult: 2
    decay_mult: 0
  }
  convolution_param {
    num_output: 32
    pad: 2
    kernel_size: 5
    weight_filler {
      type: "xavier"
      std: 0.03
    }
    bias_filler {
      type: "constant"
      value: 0.2
    }
  }
}
layer {
  name: "inception_3a/relu_5x5"
  type: "ReLU"
  bottom: "inception_3a/5x5"
  top: "inception_3a/5x5"
}
layer {
  name: "inception_3a/pool"
  type: "Pooling"
  bottom: "pool2/3x3_s2"
  top: "inception_3a/pool"
  pooling_param {
    pool: MAX
    kernel_size: 3
    stride: 1
    pad: 1
  }
}
layer {
  name: "inception_3a/pool_proj"
  type: "Convolution"
  bottom: "inception_3a/pool"
  top: "inception_3a/pool_proj"
  param {
    lr_mult: 1
    decay_mult: 1
  }
  param {
    lr_mult: 2
    decay_mult: 0
  }
  convolution_param {
    num_output: 32
    kernel_size: 1
    weight_filler {
      type: "xavier"
      std: 0.1
    }
    bias_filler {
      type: "constant"
      value: 0.2
    }
  }
}
layer {
  name: "inception_3a/relu_pool_proj"
  type: "ReLU"
  bottom: "inception_3a/pool_proj"
  top: "inception_3a/pool_proj"
}
layer {
  name: "inception_3a/output"
  type: "Concat"
  bottom: "inception_3a/1x1"
  bottom: "inception_3a/3x3"
  bottom: "inception_3a/5x5"
  bottom: "inception_3a/pool_proj"
  top: "inception_3a/output"
}
layer {
  name: "inception_3b/1x1"
  type: "Convolution"
  bottom: "inception_3a/output"
  top: "inception_3b/1x1"
  param {
    lr_mult: 1
    decay_mult: 1
  }
  param {
    lr_mult: 2
    decay_mult: 0
  }
  convolution_param {
    num_output: 128
    kernel_size: 1
    weight_filler {
      type: "xavier"
      std: 0.03
    }
    bias_filler {
      type: "constant"
      value: 0.2
    }
  }
}
layer {
  name: "inception_3b/relu_1x1"
  type: "ReLU"
  bottom: "inception_3b/1x1"
  top: "inception_3b/1x1"
}
layer {
  name: "inception_3b/3x3_reduce"
  type: "Convolution"
  bottom: "inception_3a/output"
  top: "inception_3b/3x3_reduce"
  param {
    lr_mult: 1
    decay_mult: 1
  }
  param {
    lr_mult: 2
    decay_mult: 0
  }
  convolution_param {
    num_output: 128
    kernel_size: 1
    weight_filler {
      type: "xavier"
      std: 0.09
    }
    bias_filler {
      type: "constant"
      value: 0.2
    }
  }
}
layer {
  name: "inception_3b/relu_3x3_reduce"
  type: "ReLU"
  bottom: "inception_3b/3x3_reduce"
  top: "inception_3b/3x3_reduce"
}
layer {
  name: "inception_3b/3x3"
  type: "Convolution"
  bottom: "inception_3b/3x3_reduce"
  top: "inception_3b/3x3"
  param {
    lr_mult: 1
    decay_mult: 1
  }
  param {
    lr_mult: 2
    decay_mult: 0
  }
  convolution_param {
    num_output: 192
    pad: 1
    kernel_size: 3
    weight_filler {
      type: "xavier"
      std: 0.03
    }
    bias_filler {
      type: "constant"
      value: 0.2
    }
  }
}
layer {
  name: "inception_3b/relu_3x3"
  type: "ReLU"
  bottom: "inception_3b/3x3"
  top: "inception_3b/3x3"
}
layer {
  name: "inception_3b/5x5_reduce"
  type: "Convolution"
  bottom: "inception_3a/output"
  top: "inception_3b/5x5_reduce"
  param {
    lr_mult: 1
    decay_mult: 1
  }
  param {
    lr_mult: 2
    decay_mult: 0
  }
  convolution_param {
    num_output: 32
    kernel_size: 1
    weight_filler {
      type: "xavier"
      std: 0.2
    }
    bias_filler {
      type: "constant"
      value: 0.2
    }
  }
}
layer {
  name: "inception_3b/relu_5x5_reduce"
  type: "ReLU"
  bottom: "inception_3b/5x5_reduce"
  top: "inception_3b/5x5_reduce"
}
layer {
  name: "inception_3b/5x5"
  type: "Convolution"
  bottom: "inception_3b/5x5_reduce"
  top: "inception_3b/5x5"
  param {
    lr_mult: 1
    decay_mult: 1
  }
  param {
    lr_mult: 2
    decay_mult: 0
  }
  convolution_param {
    num_output: 96
    pad: 2
    kernel_size: 5
    weight_filler {
      type: "xavier"
      std: 0.03
    }
    bias_filler {
      type: "constant"
      value: 0.2
    }
  }
}
layer {
  name: "inception_3b/relu_5x5"
  type: "ReLU"
  bottom: "inception_3b/5x5"
  top: "inception_3b/5x5"
}
layer {
  name: "inception_3b/pool"
  type: "Pooling"
  bottom: "inception_3a/output"
  top: "inception_3b/pool"
  pooling_param {
    pool: MAX
    kernel_size: 3
    stride: 1
    pad: 1
  }
}
layer {
  name: "inception_3b/pool_proj"
  type: "Convolution"
  bottom: "inception_3b/pool"
  top: "inception_3b/pool_proj"
  param {
    lr_mult: 1
    decay_mult: 1
  }
  param {
    lr_mult: 2
    decay_mult: 0
  }
  convolution_param {
    num_output: 64
    kernel_size: 1
    weight_filler {
      type: "xavier"
      std: 0.1
    }
    bias_filler {
      type: "constant"
      value: 0.2
    }
  }
}
layer {
  name: "inception_3b/relu_pool_proj"
  type: "ReLU"
  bottom: "inception_3b/pool_proj"
  top: "inception_3b/pool_proj"
}
layer {
  name: "inception_3b/output"
  type: "Concat"
  bottom: "inception_3b/1x1"
  bottom: "inception_3b/3x3"
  bottom: "inception_3b/5x5"
  bottom: "inception_3b/pool_proj"
  top: "inception_3b/output"
}
layer {
  name: "pool3/3x3_s2"
  type: "Pooling"
  bottom: "inception_3b/output"
  top: "pool3/3x3_s2"
  pooling_param {
    pool: MAX
    kernel_size: 3
    stride: 2
  }
}
layer {
  name: "inception_4a/1x1"
  type: "Convolution"
  bottom: "pool3/3x3_s2"
  top: "inception_4a/1x1"
  param {
    lr_mult: 1
    decay_mult: 1
  }
  param {
    lr_mult: 2
    decay_mult: 0
  }
  convolution_param {
    num_output: 192
    kernel_size: 1
    weight_filler {
      type: "xavier"
      std: 0.03
    }
    bias_filler {
      type: "constant"
      value: 0.2
    }
  }
}
layer {
  name: "inception_4a/relu_1x1"
  type: "ReLU"
  bottom: "inception_4a/1x1"
  top: "inception_4a/1x1"
}
layer {
  name: "inception_4a/3x3_reduce"
  type: "Convolution"
  bottom: "pool3/3x3_s2"
  top: "inception_4a/3x3_reduce"
  param {
    lr_mult: 1
    decay_mult: 1
  }
  param {
    lr_mult: 2
    decay_mult: 0
  }
  convolution_param {
    num_output: 96
    kernel_size: 1
    weight_filler {
      type: "xavier"
      std: 0.09
    }
    bias_filler {
      type: "constant"
      value: 0.2
    }
  }
}
layer {
  name: "inception_4a/relu_3x3_reduce"
  type: "ReLU"
  bottom: "inception_4a/3x3_reduce"
  top: "inception_4a/3x3_reduce"
}
layer {
  name: "inception_4a/3x3"
  type: "Convolution"
  bottom: "inception_4a/3x3_reduce"
  top: "inception_4a/3x3"
  param {
    lr_mult: 1
    decay_mult: 1
  }
  param {
    lr_mult: 2
    decay_mult: 0
  }
  convolution_param {
    num_output: 208
    pad: 1
    kernel_size: 3
    weight_filler {
      type: "xavier"
      std: 0.03
    }
    bias_filler {
      type: "constant"
      value: 0.2
    }
  }
}
layer {
  name: "inception_4a/relu_3x3"
  type: "ReLU"
  bottom: "inception_4a/3x3"
  top: "inception_4a/3x3"
}
layer {
  name: "inception_4a/5x5_reduce"
  type: "Convolution"
  bottom: "pool3/3x3_s2"
  top: "inception_4a/5x5_reduce"
  param {
    lr_mult: 1
    decay_mult: 1
  }
  param {
    lr_mult: 2
    decay_mult: 0
  }
  convolution_param {
    num_output: 16
    kernel_size: 1
    weight_filler {
      type: "xavier"
      std: 0.2
    }
    bias_filler {
      type: "constant"
      value: 0.2
    }
  }
}
layer {
  name: "inception_4a/relu_5x5_reduce"
  type: "ReLU"
  bottom: "inception_4a/5x5_reduce"
  top: "inception_4a/5x5_reduce"
}
layer {
  name: "inception_4a/5x5"
  type: "Convolution"
  bottom: "inception_4a/5x5_reduce"
  top: "inception_4a/5x5"
  param {
    lr_mult: 1
    decay_mult: 1
  }
  param {
    lr_mult: 2
    decay_mult: 0
  }
  convolution_param {
    num_output: 48
    pad: 2
    kernel_size: 5
    weight_filler {
      type: "xavier"
      std: 0.03
    }
    bias_filler {
      type: "constant"
      value: 0.2
    }
  }
}
layer {
  name: "inception_4a/relu_5x5"
  type: "ReLU"
  bottom: "inception_4a/5x5"
  top: "inception_4a/5x5"
}
layer {
  name: "inception_4a/pool"
  type: "Pooling"
  bottom: "pool3/3x3_s2"
  top: "inception_4a/pool"
  pooling_param {
    pool: MAX
    kernel_size: 3
    stride: 1
    pad: 1
  }
}
layer {
  name: "inception_4a/pool_proj"
  type: "Convolution"
  bottom: "inception_4a/pool"
  top: "inception_4a/pool_proj"
  param {
    lr_mult: 1
    decay_mult: 1
  }
  param {
    lr_mult: 2
    decay_mult: 0
  }
  convolution_param {
    num_output: 64
    kernel_size: 1
    weight_filler {
      type: "xavier"
      std: 0.1
    }
    bias_filler {
      type: "constant"
      value: 0.2
    }
  }
}
layer {
  name: "inception_4a/relu_pool_proj"
  type: "ReLU"
  bottom: "inception_4a/pool_proj"
  top: "inception_4a/pool_proj"
}
layer {
  name: "inception_4a/output"
  type: "Concat"
  bottom: "inception_4a/1x1"
  bottom: "inception_4a/3x3"
  bottom: "inception_4a/5x5"
  bottom: "inception_4a/pool_proj"
  top: "inception_4a/output"
}
layer {
  name: "loss1/ave_pool"
  type: "Pooling"
  bottom: "inception_4a/output"
  top: "loss1/ave_pool"
  pooling_param {
    pool: AVE
    kernel_size: 5
    stride: 3
  }
}
layer {
  name: "loss1/conv"
  type: "Convolution"
  bottom: "loss1/ave_pool"
  top: "loss1/conv"
  param {
    lr_mult: 1
    decay_mult: 1
  }
  param {
    lr_mult: 2
    decay_mult: 0
  }
  convolution_param {
    num_output: 128
    kernel_size: 1
    weight_filler {
      type: "xavier"
      std: 0.08
    }
    bias_filler {
      type: "constant"
      value: 0.2
    }
  }
}
layer {
  name: "loss1/relu_conv"
  type: "ReLU"
  bottom: "loss1/conv"
  top: "loss1/conv"
}
layer {
  name: "loss1/fc"
  type: "InnerProduct"
  bottom: "loss1/conv"
  top: "loss1/fc"
  param {
    lr_mult: 1
    decay_mult: 1
  }
  param {
    lr_mult: 2
    decay_mult: 0
  }
  inner_product_param {
    num_output: 1024
    weight_filler {
      type: "xavier"
      std: 0.02
    }
    bias_filler {
      type: "constant"
      value: 0.2
    }
  }
}
layer {
  name: "loss1/relu_fc"
  type: "ReLU"
  bottom: "loss1/fc"
  top: "loss1/fc"
}
layer {
  name: "loss1/drop_fc"
  type: "Dropout"
  bottom: "loss1/fc"
  top: "loss1/fc"
  dropout_param {
    dropout_ratio: 0.2
  }
}
layer {
  name: "stanford_cars_loss1/classifier"
  type: "InnerProduct"
  bottom: "loss1/fc"
  top: "stanford_cars_loss1/classifier"
  param {
    lr_mult: 1
    decay_mult: 1
  }
  param {
    lr_mult: 2
    decay_mult: 0
  }
  inner_product_param {
    num_output: 196
    weight_filler {
      type: "xavier"
      std: 0.0009765625
    }
    bias_filler {
      type: "constant"
      value: 0
    }
  }
}
layer {
  name: "loss1/loss"
  type: "SoftmaxWithLoss"
  bottom: "stanford_cars_loss1/classifier"
  bottom: "label"
  top: "loss1/loss1"
  loss_weight: 0.3
}
layer {
  name: "inception_4b/1x1"
  type: "Convolution"
  bottom: "inception_4a/output"
  top: "inception_4b/1x1"
  param {
    lr_mult: 1
    decay_mult: 1
  }
  param {
    lr_mult: 2
    decay_mult: 0
  }
  convolution_param {
    num_output: 160
    kernel_size: 1
    weight_filler {
      type: "xavier"
      std: 0.03
    }
    bias_filler {
      type: "constant"
      value: 0.2
    }
  }
}
layer {
  name: "inception_4b/relu_1x1"
  type: "ReLU"
  bottom: "inception_4b/1x1"
  top: "inception_4b/1x1"
}
layer {
  name: "inception_4b/3x3_reduce"
  type: "Convolution"
  bottom: "inception_4a/output"
  top: "inception_4b/3x3_reduce"
  param {
    lr_mult: 1
    decay_mult: 1
  }
  param {
    lr_mult: 2
    decay_mult: 0
  }
  convolution_param {
    num_output: 112
    kernel_size: 1
    weight_filler {
      type: "xavier"
      std: 0.09
    }
    bias_filler {
      type: "constant"
      value: 0.2
    }
  }
}
layer {
  name: "inception_4b/relu_3x3_reduce"
  type: "ReLU"
  bottom: "inception_4b/3x3_reduce"
  top: "inception_4b/3x3_reduce"
}
layer {
  name: "inception_4b/3x3"
  type: "Convolution"
  bottom: "inception_4b/3x3_reduce"
  top: "inception_4b/3x3"
  param {
    lr_mult: 1
    decay_mult: 1
  }
  param {
    lr_mult: 2
    decay_mult: 0
  }
  convolution_param {
    num_output: 224
    pad: 1
    kernel_size: 3
    weight_filler {
      type: "xavier"
      std: 0.03
    }
    bias_filler {
      type: "constant"
      value: 0.2
    }
  }
}
layer {
  name: "inception_4b/relu_3x3"
  type: "ReLU"
  bottom: "inception_4b/3x3"
  top: "inception_4b/3x3"
}
layer {
  name: "inception_4b/5x5_reduce"
  type: "Convolution"
  bottom: "inception_4a/output"
  top: "inception_4b/5x5_reduce"
  param {
    lr_mult: 1
    decay_mult: 1
  }
  param {
    lr_mult: 2
    decay_mult: 0
  }
  convolution_param {
    num_output: 24
    kernel_size: 1
    weight_filler {
      type: "xavier"
      std: 0.2
    }
    bias_filler {
      type: "constant"
      value: 0.2
    }
  }
}
layer {
  name: "inception_4b/relu_5x5_reduce"
  type: "ReLU"
  bottom: "inception_4b/5x5_reduce"
  top: "inception_4b/5x5_reduce"
}
layer {
  name: "inception_4b/5x5"
  type: "Convolution"
  bottom: "inception_4b/5x5_reduce"
  top: "inception_4b/5x5"
  param {
    lr_mult: 1
    decay_mult: 1
  }
  param {
    lr_mult: 2
    decay_mult: 0
  }
  convolution_param {
    num_output: 64
    pad: 2
    kernel_size: 5
    weight_filler {
      type: "xavier"
      std: 0.03
    }
    bias_filler {
      type: "constant"
      value: 0.2
    }
  }
}
layer {
  name: "inception_4b/relu_5x5"
  type: "ReLU"
  bottom: "inception_4b/5x5"
  top: "inception_4b/5x5"
}
layer {
  name: "inception_4b/pool"
  type: "Pooling"
  bottom: "inception_4a/output"
  top: "inception_4b/pool"
  pooling_param {
    pool: MAX
    kernel_size: 3
    stride: 1
    pad: 1
  }
}
layer {
  name: "inception_4b/pool_proj"
  type: "Convolution"
  bottom: "inception_4b/pool"
  top: "inception_4b/pool_proj"
  param {
    lr_mult: 1
    decay_mult: 1
  }
  param {
    lr_mult: 2
    decay_mult: 0
  }
  convolution_param {
    num_output: 64
    kernel_size: 1
    weight_filler {
      type: "xavier"
      std: 0.1
    }
    bias_filler {
      type: "constant"
      value: 0.2
    }
  }
}
layer {
  name: "inception_4b/relu_pool_proj"
  type: "ReLU"
  bottom: "inception_4b/pool_proj"
  top: "inception_4b/pool_proj"
}
layer {
  name: "inception_4b/output"
  type: "Concat"
  bottom: "inception_4b/1x1"
  bottom: "inception_4b/3x3"
  bottom: "inception_4b/5x5"
  bottom: "inception_4b/pool_proj"
  top: "inception_4b/output"
}
layer {
  name: "inception_4c/1x1"
  type: "Convolution"
  bottom: "inception_4b/output"
  top: "inception_4c/1x1"
  param {
    lr_mult: 1
    decay_mult: 1
  }
  param {
    lr_mult: 2
    decay_mult: 0
  }
  convolution_param {
    num_output: 128
    kernel_size: 1
    weight_filler {
      type: "xavier"
      std: 0.03
    }
    bias_filler {
      type: "constant"
      value: 0.2
    }
  }
}
layer {
  name: "inception_4c/relu_1x1"
  type: "ReLU"
  bottom: "inception_4c/1x1"
  top: "inception_4c/1x1"
}
layer {
  name: "inception_4c/3x3_reduce"
  type: "Convolution"
  bottom: "inception_4b/output"
  top: "inception_4c/3x3_reduce"
  param {
    lr_mult: 1
    decay_mult: 1
  }
  param {
    lr_mult: 2
    decay_mult: 0
  }
  convolution_param {
    num_output: 128
    kernel_size: 1
    weight_filler {
      type: "xavier"
      std: 0.09
    }
    bias_filler {
      type: "constant"
      value: 0.2
    }
  }
}
layer {
  name: "inception_4c/relu_3x3_reduce"
  type: "ReLU"
  bottom: "inception_4c/3x3_reduce"
  top: "inception_4c/3x3_reduce"
}
layer {
  name: "inception_4c/3x3"
  type: "Convolution"
  bottom: "inception_4c/3x3_reduce"
  top: "inception_4c/3x3"
  param {
    lr_mult: 1
    decay_mult: 1
  }
  param {
    lr_mult: 2
    decay_mult: 0
  }
  convolution_param {
    num_output: 256
    pad: 1
    kernel_size: 3
    weight_filler {
      type: "xavier"
      std: 0.03
    }
    bias_filler {
      type: "constant"
      value: 0.2
    }
  }
}
layer {
  name: "inception_4c/relu_3x3"
  type: "ReLU"
  bottom: "inception_4c/3x3"
  top: "inception_4c/3x3"
}
layer {
  name: "inception_4c/5x5_reduce"
  type: "Convolution"
  bottom: "inception_4b/output"
  top: "inception_4c/5x5_reduce"
  param {
    lr_mult: 1
    decay_mult: 1
  }
  param {
    lr_mult: 2
    decay_mult: 0
  }
  convolution_param {
    num_output: 24
    kernel_size: 1
    weight_filler {
      type: "xavier"
      std: 0.2
    }
    bias_filler {
      type: "constant"
      value: 0.2
    }
  }
}
layer {
  name: "inception_4c/relu_5x5_reduce"
  type: "ReLU"
  bottom: "inception_4c/5x5_reduce"
  top: "inception_4c/5x5_reduce"
}
layer {
  name: "inception_4c/5x5"
  type: "Convolution"
  bottom: "inception_4c/5x5_reduce"
  top: "inception_4c/5x5"
  param {
    lr_mult: 1
    decay_mult: 1
  }
  param {
    lr_mult: 2
    decay_mult: 0
  }
  convolution_param {
    num_output: 64
    pad: 2
    kernel_size: 5
    weight_filler {
      type: "xavier"
      std: 0.03
    }
    bias_filler {
      type: "constant"
      value: 0.2
    }
  }
}
layer {
  name: "inception_4c/relu_5x5"
  type: "ReLU"
  bottom: "inception_4c/5x5"
  top: "inception_4c/5x5"
}
layer {
  name: "inception_4c/pool"
  type: "Pooling"
  bottom: "inception_4b/output"
  top: "inception_4c/pool"
  pooling_param {
    pool: MAX
    kernel_size: 3
    stride: 1
    pad: 1
  }
}
layer {
  name: "inception_4c/pool_proj"
  type: "Convolution"
  bottom: "inception_4c/pool"
  top: "inception_4c/pool_proj"
  param {
    lr_mult: 1
    decay_mult: 1
  }
  param {
    lr_mult: 2
    decay_mult: 0
  }
  convolution_param {
    num_output: 64
    kernel_size: 1
    weight_filler {
      type: "xavier"
      std: 0.1
    }
    bias_filler {
      type: "constant"
      value: 0.2
    }
  }
}
layer {
  name: "inception_4c/relu_pool_proj"
  type: "ReLU"
  bottom: "inception_4c/pool_proj"
  top: "inception_4c/pool_proj"
}
layer {
  name: "inception_4c/output"
  type: "Concat"
  bottom: "inception_4c/1x1"
  bottom: "inception_4c/3x3"
  bottom: "inception_4c/5x5"
  bottom: "inception_4c/pool_proj"
  top: "inception_4c/output"
}
layer {
  name: "inception_4d/1x1"
  type: "Convolution"
  bottom: "inception_4c/output"
  top: "inception_4d/1x1"
  param {
    lr_mult: 1
    decay_mult: 1
  }
  param {
    lr_mult: 2
    decay_mult: 0
  }
  convolution_param {
    num_output: 112
    kernel_size: 1
    weight_filler {
      type: "xavier"
      std: 0.03
    }
    bias_filler {
      type: "constant"
      value: 0.2
    }
  }
}
layer {
  name: "inception_4d/relu_1x1"
  type: "ReLU"
  bottom: "inception_4d/1x1"
  top: "inception_4d/1x1"
}
layer {
  name: "inception_4d/3x3_reduce"
  type: "Convolution"
  bottom: "inception_4c/output"
  top: "inception_4d/3x3_reduce"
  param {
    lr_mult: 1
    decay_mult: 1
  }
  param {
    lr_mult: 2
    decay_mult: 0
  }
  convolution_param {
    num_output: 144
    kernel_size: 1
    weight_filler {
      type: "xavier"
      std: 0.09
    }
    bias_filler {
      type: "constant"
      value: 0.2
    }
  }
}
layer {
  name: "inception_4d/relu_3x3_reduce"
  type: "ReLU"
  bottom: "inception_4d/3x3_reduce"
  top: "inception_4d/3x3_reduce"
}
layer {
  name: "inception_4d/3x3"
  type: "Convolution"
  bottom: "inception_4d/3x3_reduce"
  top: "inception_4d/3x3"
  param {
    lr_mult: 1
    decay_mult: 1
  }
  param {
    lr_mult: 2
    decay_mult: 0
  }
  convolution_param {
    num_output: 288
    pad: 1
    kernel_size: 3
    weight_filler {
      type: "xavier"
      std: 0.03
    }
    bias_filler {
      type: "constant"
      value: 0.2
    }
  }
}
layer {
  name: "inception_4d/relu_3x3"
  type: "ReLU"
  bottom: "inception_4d/3x3"
  top: "inception_4d/3x3"
}
layer {
  name: "inception_4d/5x5_reduce"
  type: "Convolution"
  bottom: "inception_4c/output"
  top: "inception_4d/5x5_reduce"
  param {
    lr_mult: 1
    decay_mult: 1
  }
  param {
    lr_mult: 2
    decay_mult: 0
  }
  convolution_param {
    num_output: 32
    kernel_size: 1
    weight_filler {
      type: "xavier"
      std: 0.2
    }
    bias_filler {
      type: "constant"
      value: 0.2
    }
  }
}
layer {
  name: "inception_4d/relu_5x5_reduce"
  type: "ReLU"
  bottom: "inception_4d/5x5_reduce"
  top: "inception_4d/5x5_reduce"
}
layer {
  name: "inception_4d/5x5"
  type: "Convolution"
  bottom: "inception_4d/5x5_reduce"
  top: "inception_4d/5x5"
  param {
    lr_mult: 1
    decay_mult: 1
  }
  param {
    lr_mult: 2
    decay_mult: 0
  }
  convolution_param {
    num_output: 64
    pad: 2
    kernel_size: 5
    weight_filler {
      type: "xavier"
      std: 0.03
    }
    bias_filler {
      type: "constant"
      value: 0.2
    }
  }
}
layer {
  name: "inception_4d/relu_5x5"
  type: "ReLU"
  bottom: "inception_4d/5x5"
  top: "inception_4d/5x5"
}
layer {
  name: "inception_4d/pool"
  type: "Pooling"
  bottom: "inception_4c/output"
  top: "inception_4d/pool"
  pooling_param {
    pool: MAX
    kernel_size: 3
    stride: 1
    pad: 1
  }
}
layer {
  name: "inception_4d/pool_proj"
  type: "Convolution"
  bottom: "inception_4d/pool"
  top: "inception_4d/pool_proj"
  param {
    lr_mult: 1
    decay_mult: 1
  }
  param {
    lr_mult: 2
    decay_mult: 0
  }
  convolution_param {
    num_output: 64
    kernel_size: 1
    weight_filler {
      type: "xavier"
      std: 0.1
    }
    bias_filler {
      type: "constant"
      value: 0.2
    }
  }
}
layer {
  name: "inception_4d/relu_pool_proj"
  type: "ReLU"
  bottom: "inception_4d/pool_proj"
  top: "inception_4d/pool_proj"
}
layer {
  name: "inception_4d/output"
  type: "Concat"
  bottom: "inception_4d/1x1"
  bottom: "inception_4d/3x3"
  bottom: "inception_4d/5x5"
  bottom: "inception_4d/pool_proj"
  top: "inception_4d/output"
}
layer {
  name: "loss2/ave_pool"
  type: "Pooling"
  bottom: "inception_4d/output"
  top: "loss2/ave_pool"
  pooling_param {
    pool: AVE
    kernel_size: 5
    stride: 3
  }
}
layer {
  name: "loss2/conv"
  type: "Convolution"
  bottom: "loss2/ave_pool"
  top: "loss2/conv"
  param {
    lr_mult: 1
    decay_mult: 1
  }
  param {
    lr_mult: 2
    decay_mult: 0
  }
  convolution_param {
    num_output: 128
    kernel_size: 1
    weight_filler {
      type: "xavier"
      std: 0.08
    }
    bias_filler {
      type: "constant"
      value: 0.2
    }
  }
}
layer {
  name: "loss2/relu_conv"
  type: "ReLU"
  bottom: "loss2/conv"
  top: "loss2/conv"
}
layer {
  name: "loss2/fc"
  type: "InnerProduct"
  bottom: "loss2/conv"
  top: "loss2/fc"
  param {
    lr_mult: 1
    decay_mult: 1
  }
  param {
    lr_mult: 2
    decay_mult: 0
  }
  inner_product_param {
    num_output: 1024
    weight_filler {
      type: "xavier"
      std: 0.02
    }
    bias_filler {
      type: "constant"
      value: 0.2
    }
  }
}
layer {
  name: "loss2/relu_fc"
  type: "ReLU"
  bottom: "loss2/fc"
  top: "loss2/fc"
}
layer {
  name: "loss2/drop_fc"
  type: "Dropout"
  bottom: "loss2/fc"
  top: "loss2/fc"
  dropout_param {
    dropout_ratio: 0.2
  }
}
layer {
  name: "stanford_cars_loss2/classifier"
  type: "InnerProduct"
  bottom: "loss2/fc"
  top: "stanford_cars_loss2/classifier"
  param {
    lr_mult: 1
    decay_mult: 1
  }
  param {
    lr_mult: 2
    decay_mult: 0
  }
  inner_product_param {
    num_output: 196
    weight_filler {
      type: "xavier"
      std: 0.0009765625
    }
    bias_filler {
      type: "constant"
      value: 0
    }
  }
}
layer {
  name: "stanford_cars_loss2/loss"
  type: "SoftmaxWithLoss"
  bottom: "stanford_cars_loss2/classifier"
  bottom: "label"
  top: "loss2/loss1"
  loss_weight: 0.3
}
layer {
  name: "inception_4e/1x1"
  type: "Convolution"
  bottom: "inception_4d/output"
  top: "inception_4e/1x1"
  param {
    lr_mult: 1
    decay_mult: 1
  }
  param {
    lr_mult: 2
    decay_mult: 0
  }
  convolution_param {
    num_output: 256
    kernel_size: 1
    weight_filler {
      type: "xavier"
      std: 0.03
    }
    bias_filler {
      type: "constant"
      value: 0.2
    }
  }
}
layer {
  name: "inception_4e/relu_1x1"
  type: "ReLU"
  bottom: "inception_4e/1x1"
  top: "inception_4e/1x1"
}
layer {
  name: "inception_4e/3x3_reduce"
  type: "Convolution"
  bottom: "inception_4d/output"
  top: "inception_4e/3x3_reduce"
  param {
    lr_mult: 1
    decay_mult: 1
  }
  param {
    lr_mult: 2
    decay_mult: 0
  }
  convolution_param {
    num_output: 160
    kernel_size: 1
    weight_filler {
      type: "xavier"
      std: 0.09
    }
    bias_filler {
      type: "constant"
      value: 0.2
    }
  }
}
layer {
  name: "inception_4e/relu_3x3_reduce"
  type: "ReLU"
  bottom: "inception_4e/3x3_reduce"
  top: "inception_4e/3x3_reduce"
}
layer {
  name: "inception_4e/3x3"
  type: "Convolution"
  bottom: "inception_4e/3x3_reduce"
  top: "inception_4e/3x3"
  param {
    lr_mult: 1
    decay_mult: 1
  }
  param {
    lr_mult: 2
    decay_mult: 0
  }
  convolution_param {
    num_output: 320
    pad: 1
    kernel_size: 3
    weight_filler {
      type: "xavier"
      std: 0.03
    }
    bias_filler {
      type: "constant"
      value: 0.2
    }
  }
}
layer {
  name: "inception_4e/relu_3x3"
  type: "ReLU"
  bottom: "inception_4e/3x3"
  top: "inception_4e/3x3"
}
layer {
  name: "inception_4e/5x5_reduce"
  type: "Convolution"
  bottom: "inception_4d/output"
  top: "inception_4e/5x5_reduce"
  param {
    lr_mult: 1
    decay_mult: 1
  }
  param {
    lr_mult: 2
    decay_mult: 0
  }
  convolution_param {
    num_output: 32
    kernel_size: 1
    weight_filler {
      type: "xavier"
      std: 0.2
    }
    
I0703 10:40:11.616637 28611 layer_factory.hpp:74] Creating layer data
I0703 10:40:11.616669 28611 net.cpp:90] Creating Layer data
I0703 10:40:11.616679 28611 net.cpp:368] data -> data
I0703 10:40:11.616700 28611 net.cpp:368] data -> label
I0703 10:40:11.616721 28611 net.cpp:120] Setting up data
I0703 10:40:11.616793 28611 db.cpp:34] Opened lmdb examples/stanford_cars/stanford_cars_train_lmdb
I0703 10:40:11.616966 28611 data_layer.cpp:67] output data size: 30,3,224,224
I0703 10:40:11.618993 28611 net.cpp:127] Top shape: 30 3 224 224 (4515840)
I0703 10:40:11.619024 28611 net.cpp:127] Top shape: 30 (30)
I0703 10:40:11.619034 28611 layer_factory.hpp:74] Creating layer label_data_1_split
I0703 10:40:11.619051 28611 net.cpp:90] Creating Layer label_data_1_split
I0703 10:40:11.619058 28611 net.cpp:410] label_data_1_split <- label
I0703 10:40:11.619071 28611 net.cpp:368] label_data_1_split -> label_data_1_split_0
I0703 10:40:11.619081 28611 net.cpp:368] label_data_1_split -> label_data_1_split_1
I0703 10:40:11.619088 28611 net.cpp:368] label_data_1_split -> label_data_1_split_2
I0703 10:40:11.619096 28611 net.cpp:120] Setting up label_data_1_split
I0703 10:40:11.619105 28611 net.cpp:127] Top shape: 30 (30)
I0703 10:40:11.619130 28611 net.cpp:127] Top shape: 30 (30)
I0703 10:40:11.619137 28611 net.cpp:127] Top shape: 30 (30)
I0703 10:40:11.619141 28611 layer_factory.hpp:74] Creating layer conv1/7x7_s2
I0703 10:40:11.619153 28611 net.cpp:90] Creating Layer conv1/7x7_s2
I0703 10:40:11.619160 28611 net.cpp:410] conv1/7x7_s2 <- data
I0703 10:40:11.619168 28611 net.cpp:368] conv1/7x7_s2 -> conv1/7x7_s2
I0703 10:40:11.619176 28611 net.cpp:120] Setting up conv1/7x7_s2
I0703 10:40:11.652834 28611 net.cpp:127] Top shape: 30 64 112 112 (24084480)
I0703 10:40:11.652879 28611 layer_factory.hpp:74] Creating layer conv1/relu_7x7
I0703 10:40:11.652892 28611 net.cpp:90] Creating Layer conv1/relu_7x7
I0703 10:40:11.652899 28611 net.cpp:410] conv1/relu_7x7 <- conv1/7x7_s2
I0703 10:40:11.652906 28611 net.cpp:357] conv1/relu_7x7 -> conv1/7x7_s2 (in-place)
I0703 10:40:11.652915 28611 net.cpp:120] Setting up conv1/relu_7x7
I0703 10:40:11.652963 28611 net.cpp:127] Top shape: 30 64 112 112 (24084480)
I0703 10:40:11.652971 28611 layer_factory.hpp:74] Creating layer pool1/3x3_s2
I0703 10:40:11.652992 28611 net.cpp:90] Creating Layer pool1/3x3_s2
I0703 10:40:11.652997 28611 net.cpp:410] pool1/3x3_s2 <- conv1/7x7_s2
I0703 10:40:11.653002 28611 net.cpp:368] pool1/3x3_s2 -> pool1/3x3_s2
I0703 10:40:11.653010 28611 net.cpp:120] Setting up pool1/3x3_s2
I0703 10:40:11.653133 28611 net.cpp:127] Top shape: 30 64 56 56 (6021120)
I0703 10:40:11.653143 28611 layer_factory.hpp:74] Creating layer pool1/norm1
I0703 10:40:11.653162 28611 net.cpp:90] Creating Layer pool1/norm1
I0703 10:40:11.653167 28611 net.cpp:410] pool1/norm1 <- pool1/3x3_s2
I0703 10:40:11.653173 28611 net.cpp:368] pool1/norm1 -> pool1/norm1
I0703 10:40:11.653182 28611 net.cpp:120] Setting up pool1/norm1
I0703 10:40:11.653189 28611 net.cpp:127] Top shape: 30 64 56 56 (6021120)
I0703 10:40:11.653195 28611 layer_factory.hpp:74] Creating layer conv2/3x3_reduce
I0703 10:40:11.653203 28611 net.cpp:90] Creating Layer conv2/3x3_reduce
I0703 10:40:11.653209 28611 net.cpp:410] conv2/3x3_reduce <- pool1/norm1
I0703 10:40:11.653215 28611 net.cpp:368] conv2/3x3_reduce -> conv2/3x3_reduce
I0703 10:40:11.653223 28611 net.cpp:120] Setting up conv2/3x3_reduce
I0703 10:40:11.653436 28611 net.cpp:127] Top shape: 30 64 56 56 (6021120)
I0703 10:40:11.653460 28611 layer_factory.hpp:74] Creating layer conv2/relu_3x3_reduce
I0703 10:40:11.653466 28611 net.cpp:90] Creating Layer conv2/relu_3x3_reduce
I0703 10:40:11.653471 28611 net.cpp:410] conv2/relu_3x3_reduce <- conv2/3x3_reduce
I0703 10:40:11.653477 28611 net.cpp:357] conv2/relu_3x3_reduce -> conv2/3x3_reduce (in-place)
I0703 10:40:11.653484 28611 net.cpp:120] Setting up conv2/relu_3x3_reduce
I0703 10:40:11.653529 28611 net.cpp:127] Top shape: 30 64 56 56 (6021120)
I0703 10:40:11.653537 28611 layer_factory.hpp:74] Creating layer conv2/3x3
I0703 10:40:11.653554 28611 net.cpp:90] Creating Layer conv2/3x3
I0703 10:40:11.653559 28611 net.cpp:410] conv2/3x3 <- conv2/3x3_reduce
I0703 10:40:11.653565 28611 net.cpp:368] conv2/3x3 -> conv2/3x3
I0703 10:40:11.653573 28611 net.cpp:120] Setting up conv2/3x3
I0703 10:40:11.654305 28611 net.cpp:127] Top shape: 30 192 56 56 (18063360)
I0703 10:40:11.654330 28611 layer_factory.hpp:74] Creating layer conv2/relu_3x3
I0703 10:40:11.654337 28611 net.cpp:90] Creating Layer conv2/relu_3x3
I0703 10:40:11.654343 28611 net.cpp:410] conv2/relu_3x3 <- conv2/3x3
I0703 10:40:11.654348 28611 net.cpp:357] conv2/relu_3x3 -> conv2/3x3 (in-place)
I0703 10:40:11.654356 28611 net.cpp:120] Setting up conv2/relu_3x3
I0703 10:40:11.654402 28611 net.cpp:127] Top shape: 30 192 56 56 (18063360)
I0703 10:40:11.654408 28611 layer_factory.hpp:74] Creating layer conv2/norm2
I0703 10:40:11.654425 28611 net.cpp:90] Creating Layer conv2/norm2
I0703 10:40:11.654430 28611 net.cpp:410] conv2/norm2 <- conv2/3x3
I0703 10:40:11.654436 28611 net.cpp:368] conv2/norm2 -> conv2/norm2
I0703 10:40:11.654443 28611 net.cpp:120] Setting up conv2/norm2
I0703 10:40:11.654449 28611 net.cpp:127] Top shape: 30 192 56 56 (18063360)
I0703 10:40:11.654454 28611 layer_factory.hpp:74] Creating layer pool2/3x3_s2
I0703 10:40:11.654477 28611 net.cpp:90] Creating Layer pool2/3x3_s2
I0703 10:40:11.654484 28611 net.cpp:410] pool2/3x3_s2 <- conv2/norm2
I0703 10:40:11.654490 28611 net.cpp:368] pool2/3x3_s2 -> pool2/3x3_s2
I0703 10:40:11.654496 28611 net.cpp:120] Setting up pool2/3x3_s2
I0703 10:40:11.654544 28611 net.cpp:127] Top shape: 30 192 28 28 (4515840)
I0703 10:40:11.654551 28611 layer_factory.hpp:74] Creating layer pool2/3x3_s2_pool2/3x3_s2_0_split
I0703 10:40:11.654568 28611 net.cpp:90] Creating Layer pool2/3x3_s2_pool2/3x3_s2_0_split
I0703 10:40:11.654573 28611 net.cpp:410] pool2/3x3_s2_pool2/3x3_s2_0_split <- pool2/3x3_s2
I0703 10:40:11.654579 28611 net.cpp:368] pool2/3x3_s2_pool2/3x3_s2_0_split -> pool2/3x3_s2_pool2/3x3_s2_0_split_0
I0703 10:40:11.654587 28611 net.cpp:368] pool2/3x3_s2_pool2/3x3_s2_0_split -> pool2/3x3_s2_pool2/3x3_s2_0_split_1
I0703 10:40:11.654593 28611 net.cpp:368] pool2/3x3_s2_pool2/3x3_s2_0_split -> pool2/3x3_s2_pool2/3x3_s2_0_split_2
I0703 10:40:11.654599 28611 net.cpp:368] pool2/3x3_s2_pool2/3x3_s2_0_split -> pool2/3x3_s2_pool2/3x3_s2_0_split_3
I0703 10:40:11.654605 28611 net.cpp:120] Setting up pool2/3x3_s2_pool2/3x3_s2_0_split
I0703 10:40:11.654613 28611 net.cpp:127] Top shape: 30 192 28 28 (4515840)
I0703 10:40:11.654618 28611 net.cpp:127] Top shape: 30 192 28 28 (4515840)
I0703 10:40:11.654623 28611 net.cpp:127] Top shape: 30 192 28 28 (4515840)
I0703 10:40:11.654628 28611 net.cpp:127] Top shape: 30 192 28 28 (4515840)
I0703 10:40:11.654633 28611 layer_factory.hpp:74] Creating layer inception_3a/1x1
I0703 10:40:11.654639 28611 net.cpp:90] Creating Layer inception_3a/1x1
I0703 10:40:11.654644 28611 net.cpp:410] inception_3a/1x1 <- pool2/3x3_s2_pool2/3x3_s2_0_split_0
I0703 10:40:11.654649 28611 net.cpp:368] inception_3a/1x1 -> inception_3a/1x1
I0703 10:40:11.654657 28611 net.cpp:120] Setting up inception_3a/1x1
I0703 10:40:11.654918 28611 net.cpp:127] Top shape: 30 64 28 28 (1505280)
I0703 10:40:11.654942 28611 layer_factory.hpp:74] Creating layer inception_3a/relu_1x1
I0703 10:40:11.654949 28611 net.cpp:90] Creating Layer inception_3a/relu_1x1
I0703 10:40:11.654954 28611 net.cpp:410] inception_3a/relu_1x1 <- inception_3a/1x1
I0703 10:40:11.654960 28611 net.cpp:357] inception_3a/relu_1x1 -> inception_3a/1x1 (in-place)
I0703 10:40:11.654966 28611 net.cpp:120] Setting up inception_3a/relu_1x1
I0703 10:40:11.655074 28611 net.cpp:127] Top shape: 30 64 28 28 (1505280)
I0703 10:40:11.655086 28611 layer_factory.hpp:74] Creating layer inception_3a/3x3_reduce
I0703 10:40:11.655094 28611 net.cpp:90] Creating Layer inception_3a/3x3_reduce
I0703 10:40:11.655100 28611 net.cpp:410] inception_3a/3x3_reduce <- pool2/3x3_s2_pool2/3x3_s2_0_split_1
I0703 10:40:11.655107 28611 net.cpp:368] inception_3a/3x3_reduce -> inception_3a/3x3_reduce
I0703 10:40:11.655114 28611 net.cpp:120] Setting up inception_3a/3x3_reduce
I0703 10:40:11.655433 28611 net.cpp:127] Top shape: 30 96 28 28 (2257920)
I0703 10:40:11.655457 28611 layer_factory.hpp:74] Creating layer inception_3a/relu_3x3_reduce
I0703 10:40:11.655467 28611 net.cpp:90] Creating Layer inception_3a/relu_3x3_reduce
I0703 10:40:11.655472 28611 net.cpp:410] inception_3a/relu_3x3_reduce <- inception_3a/3x3_reduce
I0703 10:40:11.655478 28611 net.cpp:357] inception_3a/relu_3x3_reduce -> inception_3a/3x3_reduce (in-place)
I0703 10:40:11.655485 28611 net.cpp:120] Setting up inception_3a/relu_3x3_reduce
I0703 10:40:11.655534 28611 net.cpp:127] Top shape: 30 96 28 28 (2257920)
I0703 10:40:11.655551 28611 layer_factory.hpp:74] Creating layer inception_3a/3x3
I0703 10:40:11.655560 28611 net.cpp:90] Creating Layer inception_3a/3x3
I0703 10:40:11.655565 28611 net.cpp:410] inception_3a/3x3 <- inception_3a/3x3_reduce
I0703 10:40:11.655571 28611 net.cpp:368] inception_3a/3x3 -> inception_3a/3x3
I0703 10:40:11.655578 28611 net.cpp:120] Setting up inception_3a/3x3
I0703 10:40:11.656430 28611 net.cpp:127] Top shape: 30 128 28 28 (3010560)
I0703 10:40:11.656455 28611 layer_factory.hpp:74] Creating layer inception_3a/relu_3x3
I0703 10:40:11.656462 28611 net.cpp:90] Creating Layer inception_3a/relu_3x3
I0703 10:40:11.656484 28611 net.cpp:410] inception_3a/relu_3x3 <- inception_3a/3x3
I0703 10:40:11.656492 28611 net.cpp:357] inception_3a/relu_3x3 -> inception_3a/3x3 (in-place)
I0703 10:40:11.656499 28611 net.cpp:120] Setting up inception_3a/relu_3x3
I0703 10:40:11.656559 28611 net.cpp:127] Top shape: 30 128 28 28 (3010560)
I0703 10:40:11.656566 28611 layer_factory.hpp:74] Creating layer inception_3a/5x5_reduce
I0703 10:40:11.656586 28611 net.cpp:90] Creating Layer inception_3a/5x5_reduce
I0703 10:40:11.656601 28611 net.cpp:410] inception_3a/5x5_reduce <- pool2/3x3_s2_pool2/3x3_s2_0_split_2
I0703 10:40:11.656608 28611 net.cpp:368] inception_3a/5x5_reduce -> inception_3a/5x5_reduce
I0703 10:40:11.656615 28611 net.cpp:120] Setting up inception_3a/5x5_reduce
I0703 10:40:11.656855 28611 net.cpp:127] Top shape: 30 16 28 28 (376320)
I0703 10:40:11.656877 28611 layer_factory.hpp:74] Creating layer inception_3a/relu_5x5_reduce
I0703 10:40:11.656884 28611 net.cpp:90] Creating Layer inception_3a/relu_5x5_reduce
I0703 10:40:11.656893 28611 net.cpp:410] inception_3a/relu_5x5_reduce <- inception_3a/5x5_reduce
I0703 10:40:11.656898 28611 net.cpp:357] inception_3a/relu_5x5_reduce -> inception_3a/5x5_reduce (in-place)
I0703 10:40:11.656904 28611 net.cpp:120] Setting up inception_3a/relu_5x5_reduce
I0703 10:40:11.657022 28611 net.cpp:127] Top shape: 30 16 28 28 (376320)
I0703 10:40:11.657042 28611 layer_factory.hpp:74] Creating layer inception_3a/5x5
I0703 10:40:11.657050 28611 net.cpp:90] Creating Layer inception_3a/5x5
I0703 10:40:11.657055 28611 net.cpp:410] inception_3a/5x5 <- inception_3a/5x5_reduce
I0703 10:40:11.657062 28611 net.cpp:368] inception_3a/5x5 -> inception_3a/5x5
I0703 10:40:11.657069 28611 net.cpp:120] Setting up inception_3a/5x5
I0703 10:40:11.657337 28611 net.cpp:127] Top shape: 30 32 28 28 (752640)
I0703 10:40:11.657359 28611 layer_factory.hpp:74] Creating layer inception_3a/relu_5x5
I0703 10:40:11.657368 28611 net.cpp:90] Creating Layer inception_3a/relu_5x5
I0703 10:40:11.657373 28611 net.cpp:410] inception_3a/relu_5x5 <- inception_3a/5x5
I0703 10:40:11.657379 28611 net.cpp:357] inception_3a/relu_5x5 -> inception_3a/5x5 (in-place)
I0703 10:40:11.657387 28611 net.cpp:120] Setting up inception_3a/relu_5x5
I0703 10:40:11.657438 28611 net.cpp:127] Top shape: 30 32 28 28 (752640)
I0703 10:40:11.657444 28611 layer_factory.hpp:74] Creating layer inception_3a/pool
I0703 10:40:11.657460 28611 layer_factory.cpp:55] CUDNN does not support padding or multiple tops. Using Caffe's own pooling layer.
I0703 10:40:11.657466 28611 net.cpp:90] Creating Layer inception_3a/pool
I0703 10:40:11.657471 28611 net.cpp:410] inception_3a/pool <- pool2/3x3_s2_pool2/3x3_s2_0_split_3
I0703 10:40:11.657477 28611 net.cpp:368] inception_3a/pool -> inception_3a/pool
I0703 10:40:11.657485 28611 net.cpp:120] Setting up inception_3a/pool
I0703 10:40:11.657491 28611 net.cpp:127] Top shape: 30 192 28 28 (4515840)
I0703 10:40:11.657496 28611 layer_factory.hpp:74] Creating layer inception_3a/pool_proj
I0703 10:40:11.657505 28611 net.cpp:90] Creating Layer inception_3a/pool_proj
I0703 10:40:11.657510 28611 net.cpp:410] inception_3a/pool_proj <- inception_3a/pool
I0703 10:40:11.657516 28611 net.cpp:368] inception_3a/pool_proj -> inception_3a/pool_proj
I0703 10:40:11.657523 28611 net.cpp:120] Setting up inception_3a/pool_proj
I0703 10:40:11.657754 28611 net.cpp:127] Top shape: 30 32 28 28 (752640)
I0703 10:40:11.657778 28611 layer_factory.hpp:74] Creating layer inception_3a/relu_pool_proj
I0703 10:40:11.657786 28611 net.cpp:90] Creating Layer inception_3a/relu_pool_proj
I0703 10:40:11.657791 28611 net.cpp:410] inception_3a/relu_pool_proj <- inception_3a/pool_proj
I0703 10:40:11.657798 28611 net.cpp:357] inception_3a/relu_pool_proj -> inception_3a/pool_proj (in-place)
I0703 10:40:11.657804 28611 net.cpp:120] Setting up inception_3a/relu_pool_proj
I0703 10:40:11.657853 28611 net.cpp:127] Top shape: 30 32 28 28 (752640)
I0703 10:40:11.657860 28611 layer_factory.hpp:74] Creating layer inception_3a/output
I0703 10:40:11.657878 28611 net.cpp:90] Creating Layer inception_3a/output
I0703 10:40:11.657891 28611 net.cpp:410] inception_3a/output <- inception_3a/1x1
I0703 10:40:11.657896 28611 net.cpp:410] inception_3a/output <- inception_3a/3x3
I0703 10:40:11.657902 28611 net.cpp:410] inception_3a/output <- inception_3a/5x5
I0703 10:40:11.657907 28611 net.cpp:410] inception_3a/output <- inception_3a/pool_proj
I0703 10:40:11.657913 28611 net.cpp:368] inception_3a/output -> inception_3a/output
I0703 10:40:11.657922 28611 net.cpp:120] Setting up inception_3a/output
I0703 10:40:11.657932 28611 net.cpp:127] Top shape: 30 256 28 28 (6021120)
I0703 10:40:11.657937 28611 layer_factory.hpp:74] Creating layer inception_3a/output_inception_3a/output_0_split
I0703 10:40:11.657943 28611 net.cpp:90] Creating Layer inception_3a/output_inception_3a/output_0_split
I0703 10:40:11.657948 28611 net.cpp:410] inception_3a/output_inception_3a/output_0_split <- inception_3a/output
I0703 10:40:11.657954 28611 net.cpp:368] inception_3a/output_inception_3a/output_0_split -> inception_3a/output_inception_3a/output_0_split_0
I0703 10:40:11.657961 28611 net.cpp:368] inception_3a/output_inception_3a/output_0_split -> inception_3a/output_inception_3a/output_0_split_1
I0703 10:40:11.657968 28611 net.cpp:368] inception_3a/output_inception_3a/output_0_split -> inception_3a/output_inception_3a/output_0_split_2
I0703 10:40:11.657975 28611 net.cpp:368] inception_3a/output_inception_3a/output_0_split -> inception_3a/output_inception_3a/output_0_split_3
I0703 10:40:11.657981 28611 net.cpp:120] Setting up inception_3a/output_inception_3a/output_0_split
I0703 10:40:11.657989 28611 net.cpp:127] Top shape: 30 256 28 28 (6021120)
I0703 10:40:11.657994 28611 net.cpp:127] Top shape: 30 256 28 28 (6021120)
I0703 10:40:11.657999 28611 net.cpp:127] Top shape: 30 256 28 28 (6021120)
I0703 10:40:11.658004 28611 net.cpp:127] Top shape: 30 256 28 28 (6021120)
I0703 10:40:11.658009 28611 layer_factory.hpp:74] Creating layer inception_3b/1x1
I0703 10:40:11.658015 28611 net.cpp:90] Creating Layer inception_3b/1x1
I0703 10:40:11.658020 28611 net.cpp:410] inception_3b/1x1 <- inception_3a/output_inception_3a/output_0_split_0
I0703 10:40:11.658026 28611 net.cpp:368] inception_3b/1x1 -> inception_3b/1x1
I0703 10:40:11.658033 28611 net.cpp:120] Setting up inception_3b/1x1
I0703 10:40:11.658401 28611 net.cpp:127] Top shape: 30 128 28 28 (3010560)
I0703 10:40:11.658422 28611 layer_factory.hpp:74] Creating layer inception_3b/relu_1x1
I0703 10:40:11.658429 28611 net.cpp:90] Creating Layer inception_3b/relu_1x1
I0703 10:40:11.658434 28611 net.cpp:410] inception_3b/relu_1x1 <- inception_3b/1x1
I0703 10:40:11.658442 28611 net.cpp:357] inception_3b/relu_1x1 -> inception_3b/1x1 (in-place)
I0703 10:40:11.658448 28611 net.cpp:120] Setting up inception_3b/relu_1x1
I0703 10:40:11.658498 28611 net.cpp:127] Top shape: 30 128 28 28 (3010560)
I0703 10:40:11.658504 28611 layer_factory.hpp:74] Creating layer inception_3b/3x3_reduce
I0703 10:40:11.658522 28611 net.cpp:90] Creating Layer inception_3b/3x3_reduce
I0703 10:40:11.658527 28611 net.cpp:410] inception_3b/3x3_reduce <- inception_3a/output_inception_3a/output_0_split_1
I0703 10:40:11.658535 28611 net.cpp:368] inception_3b/3x3_reduce -> inception_3b/3x3_reduce
I0703 10:40:11.658541 28611 net.cpp:120] Setting up inception_3b/3x3_reduce
I0703 10:40:11.658905 28611 net.cpp:127] Top shape: 30 128 28 28 (3010560)
I0703 10:40:11.658926 28611 layer_factory.hpp:74] Creating layer inception_3b/relu_3x3_reduce
I0703 10:40:11.658933 28611 net.cpp:90] Creating Layer inception_3b/relu_3x3_reduce
I0703 10:40:11.658938 28611 net.cpp:410] inception_3b/relu_3x3_reduce <- inception_3b/3x3_reduce
I0703 10:40:11.658944 28611 net.cpp:357] inception_3b/relu_3x3_reduce -> inception_3b/3x3_reduce (in-place)
I0703 10:40:11.658951 28611 net.cpp:120] Setting up inception_3b/relu_3x3_reduce
I0703 10:40:11.659067 28611 net.cpp:127] Top shape: 30 128 28 28 (3010560)
I0703 10:40:11.659077 28611 layer_factory.hpp:74] Creating layer inception_3b/3x3
I0703 10:40:11.659097 28611 net.cpp:90] Creating Layer inception_3b/3x3
I0703 10:40:11.659109 28611 net.cpp:410] inception_3b/3x3 <- inception_3b/3x3_reduce
I0703 10:40:11.659117 28611 net.cpp:368] inception_3b/3x3 -> inception_3b/3x3
I0703 10:40:11.659126 28611 net.cpp:120] Setting up inception_3b/3x3
I0703 10:40:11.660444 28611 net.cpp:127] Top shape: 30 192 28 28 (4515840)
I0703 10:40:11.660468 28611 layer_factory.hpp:74] Creating layer inception_3b/relu_3x3
I0703 10:40:11.660475 28611 net.cpp:90] Creating Layer inception_3b/relu_3x3
I0703 10:40:11.660480 28611 net.cpp:410] inception_3b/relu_3x3 <- inception_3b/3x3
I0703 10:40:11.660487 28611 net.cpp:357] inception_3b/relu_3x3 -> inception_3b/3x3 (in-place)
I0703 10:40:11.660495 28611 net.cpp:120] Setting up inception_3b/relu_3x3
I0703 10:40:11.660545 28611 net.cpp:127] Top shape: 30 192 28 28 (4515840)
I0703 10:40:11.660552 28611 layer_factory.hpp:74] Creating layer inception_3b/5x5_reduce
I0703 10:40:11.660569 28611 net.cpp:90] Creating Layer inception_3b/5x5_reduce
I0703 10:40:11.660575 28611 net.cpp:410] inception_3b/5x5_reduce <- inception_3a/output_inception_3a/output_0_split_2
I0703 10:40:11.660583 28611 net.cpp:368] inception_3b/5x5_reduce -> inception_3b/5x5_reduce
I0703 10:40:11.660589 28611 net.cpp:120] Setting up inception_3b/5x5_reduce
I0703 10:40:11.660858 28611 net.cpp:127] Top shape: 30 32 28 28 (752640)
I0703 10:40:11.660882 28611 layer_factory.hpp:74] Creating layer inception_3b/relu_5x5_reduce
I0703 10:40:11.660889 28611 net.cpp:90] Creating Layer inception_3b/relu_5x5_reduce
I0703 10:40:11.660895 28611 net.cpp:410] inception_3b/relu_5x5_reduce <- inception_3b/5x5_reduce
I0703 10:40:11.660902 28611 net.cpp:357] inception_3b/relu_5x5_reduce -> inception_3b/5x5_reduce (in-place)
I0703 10:40:11.660907 28611 net.cpp:120] Setting up inception_3b/relu_5x5_reduce
I0703 10:40:11.660956 28611 net.cpp:127] Top shape: 30 32 28 28 (752640)
I0703 10:40:11.660964 28611 layer_factory.hpp:74] Creating layer inception_3b/5x5
I0703 10:40:11.660982 28611 net.cpp:90] Creating Layer inception_3b/5x5
I0703 10:40:11.660987 28611 net.cpp:410] inception_3b/5x5 <- inception_3b/5x5_reduce
I0703 10:40:11.660995 28611 net.cpp:368] inception_3b/5x5 -> inception_3b/5x5
I0703 10:40:11.661003 28611 net.cpp:120] Setting up inception_3b/5x5
I0703 10:40:11.661582 28611 net.cpp:127] Top shape: 30 96 28 28 (2257920)
I0703 10:40:11.661604 28611 layer_factory.hpp:74] Creating layer inception_3b/relu_5x5
I0703 10:40:11.661612 28611 net.cpp:90] Creating Layer inception_3b/relu_5x5
I0703 10:40:11.661617 28611 net.cpp:410] inception_3b/relu_5x5 <- inception_3b/5x5
I0703 10:40:11.661623 28611 net.cpp:357] inception_3b/relu_5x5 -> inception_3b/5x5 (in-place)
I0703 10:40:11.661630 28611 net.cpp:120] Setting up inception_3b/relu_5x5
I0703 10:40:11.661679 28611 net.cpp:127] Top shape: 30 96 28 28 (2257920)
I0703 10:40:11.661686 28611 layer_factory.hpp:74] Creating layer inception_3b/pool
I0703 10:40:11.661701 28611 layer_factory.cpp:55] CUDNN does not support padding or multiple tops. Using Caffe's own pooling layer.
I0703 10:40:11.661707 28611 net.cpp:90] Creating Layer inception_3b/pool
I0703 10:40:11.661712 28611 net.cpp:410] inception_3b/pool <- inception_3a/output_inception_3a/output_0_split_3
I0703 10:40:11.661720 28611 net.cpp:368] inception_3b/pool -> inception_3b/pool
I0703 10:40:11.661726 28611 net.cpp:120] Setting up inception_3b/pool
I0703 10:40:11.661733 28611 net.cpp:127] Top shape: 30 256 28 28 (6021120)
I0703 10:40:11.661738 28611 layer_factory.hpp:74] Creating layer inception_3b/pool_proj
I0703 10:40:11.661746 28611 net.cpp:90] Creating Layer inception_3b/pool_proj
I0703 10:40:11.661751 28611 net.cpp:410] inception_3b/pool_proj <- inception_3b/pool
I0703 10:40:11.661758 28611 net.cpp:368] inception_3b/pool_proj -> inception_3b/pool_proj
I0703 10:40:11.661766 28611 net.cpp:120] Setting up inception_3b/pool_proj
I0703 10:40:11.662048 28611 net.cpp:127] Top shape: 30 64 28 28 (1505280)
I0703 10:40:11.662071 28611 layer_factory.hpp:74] Creating layer inception_3b/relu_pool_proj
I0703 10:40:11.662078 28611 net.cpp:90] Creating Layer inception_3b/relu_pool_proj
I0703 10:40:11.662091 28611 net.cpp:410] inception_3b/relu_pool_proj <- inception_3b/pool_proj
I0703 10:40:11.662099 28611 net.cpp:357] inception_3b/relu_pool_proj -> inception_3b/pool_proj (in-place)
I0703 10:40:11.662106 28611 net.cpp:120] Setting up inception_3b/relu_pool_proj
I0703 10:40:11.662223 28611 net.cpp:127] Top shape: 30 64 28 28 (1505280)
I0703 10:40:11.662242 28611 layer_factory.hpp:74] Creating layer inception_3b/output
I0703 10:40:11.662250 28611 net.cpp:90] Creating Layer inception_3b/output
I0703 10:40:11.662256 28611 net.cpp:410] inception_3b/output <- inception_3b/1x1
I0703 10:40:11.662261 28611 net.cpp:410] inception_3b/output <- inception_3b/3x3
I0703 10:40:11.662267 28611 net.cpp:410] inception_3b/output <- inception_3b/5x5
I0703 10:40:11.662272 28611 net.cpp:410] inception_3b/output <- inception_3b/pool_proj
I0703 10:40:11.662277 28611 net.cpp:368] inception_3b/output -> inception_3b/output
I0703 10:40:11.662284 28611 net.cpp:120] Setting up inception_3b/output
I0703 10:40:11.662291 28611 net.cpp:127] Top shape: 30 480 28 28 (11289600)
I0703 10:40:11.662295 28611 layer_factory.hpp:74] Creating layer pool3/3x3_s2
I0703 10:40:11.662302 28611 net.cpp:90] Creating Layer pool3/3x3_s2
I0703 10:40:11.662308 28611 net.cpp:410] pool3/3x3_s2 <- inception_3b/output
I0703 10:40:11.662314 28611 net.cpp:368] pool3/3x3_s2 -> pool3/3x3_s2
I0703 10:40:11.662320 28611 net.cpp:120] Setting up pool3/3x3_s2
I0703 10:40:11.662369 28611 net.cpp:127] Top shape: 30 480 14 14 (2822400)
I0703 10:40:11.662376 28611 layer_factory.hpp:74] Creating layer pool3/3x3_s2_pool3/3x3_s2_0_split
I0703 10:40:11.662392 28611 net.cpp:90] Creating Layer pool3/3x3_s2_pool3/3x3_s2_0_split
I0703 10:40:11.662397 28611 net.cpp:410] pool3/3x3_s2_pool3/3x3_s2_0_split <- pool3/3x3_s2
I0703 10:40:11.662403 28611 net.cpp:368] pool3/3x3_s2_pool3/3x3_s2_0_split -> pool3/3x3_s2_pool3/3x3_s2_0_split_0
I0703 10:40:11.662410 28611 net.cpp:368] pool3/3x3_s2_pool3/3x3_s2_0_split -> pool3/3x3_s2_pool3/3x3_s2_0_split_1
I0703 10:40:11.662416 28611 net.cpp:368] pool3/3x3_s2_pool3/3x3_s2_0_split -> pool3/3x3_s2_pool3/3x3_s2_0_split_2
I0703 10:40:11.662422 28611 net.cpp:368] pool3/3x3_s2_pool3/3x3_s2_0_split -> pool3/3x3_s2_pool3/3x3_s2_0_split_3
I0703 10:40:11.662428 28611 net.cpp:120] Setting up pool3/3x3_s2_pool3/3x3_s2_0_split
I0703 10:40:11.662436 28611 net.cpp:127] Top shape: 30 480 14 14 (2822400)
I0703 10:40:11.662441 28611 net.cpp:127] Top shape: 30 480 14 14 (2822400)
I0703 10:40:11.662446 28611 net.cpp:127] Top shape: 30 480 14 14 (2822400)
I0703 10:40:11.662451 28611 net.cpp:127] Top shape: 30 480 14 14 (2822400)
I0703 10:40:11.662456 28611 layer_factory.hpp:74] Creating layer inception_4a/1x1
I0703 10:40:11.662463 28611 net.cpp:90] Creating Layer inception_4a/1x1
I0703 10:40:11.662468 28611 net.cpp:410] inception_4a/1x1 <- pool3/3x3_s2_pool3/3x3_s2_0_split_0
I0703 10:40:11.662475 28611 net.cpp:368] inception_4a/1x1 -> inception_4a/1x1
I0703 10:40:11.662482 28611 net.cpp:120] Setting up inception_4a/1x1
I0703 10:40:11.663153 28611 net.cpp:127] Top shape: 30 192 14 14 (1128960)
I0703 10:40:11.663177 28611 layer_factory.hpp:74] Creating layer inception_4a/relu_1x1
I0703 10:40:11.663183 28611 net.cpp:90] Creating Layer inception_4a/relu_1x1
I0703 10:40:11.663189 28611 net.cpp:410] inception_4a/relu_1x1 <- inception_4a/1x1
I0703 10:40:11.663197 28611 net.cpp:357] inception_4a/relu_1x1 -> inception_4a/1x1 (in-place)
I0703 10:40:11.663203 28611 net.cpp:120] Setting up inception_4a/relu_1x1
I0703 10:40:11.663254 28611 net.cpp:127] Top shape: 30 192 14 14 (1128960)
I0703 10:40:11.663261 28611 layer_factory.hpp:74] Creating layer inception_4a/3x3_reduce
I0703 10:40:11.663280 28611 net.cpp:90] Creating Layer inception_4a/3x3_reduce
I0703 10:40:11.663285 28611 net.cpp:410] inception_4a/3x3_reduce <- pool3/3x3_s2_pool3/3x3_s2_0_split_1
I0703 10:40:11.663291 28611 net.cpp:368] inception_4a/3x3_reduce -> inception_4a/3x3_reduce
I0703 10:40:11.663323 28611 net.cpp:120] Setting up inception_4a/3x3_reduce
I0703 10:40:11.663817 28611 net.cpp:127] Top shape: 30 96 14 14 (564480)
I0703 10:40:11.663841 28611 layer_factory.hpp:74] Creating layer inception_4a/relu_3x3_reduce
I0703 10:40:11.663849 28611 net.cpp:90] Creating Layer inception_4a/relu_3x3_reduce
I0703 10:40:11.663854 28611 net.cpp:410] inception_4a/relu_3x3_reduce <- inception_4a/3x3_reduce
I0703 10:40:11.663861 28611 net.cpp:357] inception_4a/relu_3x3_reduce -> inception_4a/3x3_reduce (in-place)
I0703 10:40:11.663867 28611 net.cpp:120] Setting up inception_4a/relu_3x3_reduce
I0703 10:40:11.663916 28611 net.cpp:127] Top shape: 30 96 14 14 (564480)
I0703 10:40:11.663933 28611 layer_factory.hpp:74] Creating layer inception_4a/3x3
I0703 10:40:11.663951 28611 net.cpp:90] Creating Layer inception_4a/3x3
I0703 10:40:11.663956 28611 net.cpp:410] inception_4a/3x3 <- inception_4a/3x3_reduce
I0703 10:40:11.663962 28611 net.cpp:368] inception_4a/3x3 -> inception_4a/3x3
I0703 10:40:11.663979 28611 net.cpp:120] Setting up inception_4a/3x3
I0703 10:40:11.665063 28611 net.cpp:127] Top shape: 30 208 14 14 (1223040)
I0703 10:40:11.665076 28611 layer_factory.hpp:74] Creating layer inception_4a/relu_3x3
I0703 10:40:11.665083 28611 net.cpp:90] Creating Layer inception_4a/relu_3x3
I0703 10:40:11.665089 28611 net.cpp:410] inception_4a/relu_3x3 <- inception_4a/3x3
I0703 10:40:11.665096 28611 net.cpp:357] inception_4a/relu_3x3 -> inception_4a/3x3 (in-place)
I0703 10:40:11.665102 28611 net.cpp:120] Setting up inception_4a/relu_3x3
I0703 10:40:11.665206 28611 net.cpp:127] Top shape: 30 208 14 14 (1223040)
I0703 10:40:11.665216 28611 layer_factory.hpp:74] Creating layer inception_4a/5x5_reduce
I0703 10:40:11.665225 28611 net.cpp:90] Creating Layer inception_4a/5x5_reduce
I0703 10:40:11.665230 28611 net.cpp:410] inception_4a/5x5_reduce <- pool3/3x3_s2_pool3/3x3_s2_0_split_2
I0703 10:40:11.665236 28611 net.cpp:368] inception_4a/5x5_reduce -> inception_4a/5x5_reduce
I0703 10:40:11.665243 28611 net.cpp:120] Setting up inception_4a/5x5_reduce
I0703 10:40:11.665472 28611 net.cpp:127] Top shape: 30 16 14 14 (94080)
I0703 10:40:11.665484 28611 layer_factory.hpp:74] Creating layer inception_4a/relu_5x5_reduce
I0703 10:40:11.665491 28611 net.cpp:90] Creating Layer inception_4a/relu_5x5_reduce
I0703 10:40:11.665498 28611 net.cpp:410] inception_4a/relu_5x5_reduce <- inception_4a/5x5_reduce
I0703 10:40:11.665503 28611 net.cpp:357] inception_4a/relu_5x5_reduce -> inception_4a/5x5_reduce (in-place)
I0703 10:40:11.665509 28611 net.cpp:120] Setting up inception_4a/relu_5x5_reduce
I0703 10:40:11.665549 28611 net.cpp:127] Top shape: 30 16 14 14 (94080)
I0703 10:40:11.665557 28611 layer_factory.hpp:74] Creating layer inception_4a/5x5
I0703 10:40:11.665575 28611 net.cpp:90] Creating Layer inception_4a/5x5
I0703 10:40:11.665580 28611 net.cpp:410] inception_4a/5x5 <- inception_4a/5x5_reduce
I0703 10:40:11.665587 28611 net.cpp:368] inception_4a/5x5 -> inception_4a/5x5
I0703 10:40:11.665594 28611 net.cpp:120] Setting up inception_4a/5x5
I0703 10:40:11.665910 28611 net.cpp:127] Top shape: 30 48 14 14 (282240)
I0703 10:40:11.665931 28611 layer_factory.hpp:74] Creating layer inception_4a/relu_5x5
I0703 10:40:11.665938 28611 net.cpp:90] Creating Layer inception_4a/relu_5x5
I0703 10:40:11.665943 28611 net.cpp:410] inception_4a/relu_5x5 <- inception_4a/5x5
I0703 10:40:11.665951 28611 net.cpp:357] inception_4a/relu_5x5 -> inception_4a/5x5 (in-place)
I0703 10:40:11.665957 28611 net.cpp:120] Setting up inception_4a/relu_5x5
I0703 10:40:11.666005 28611 net.cpp:127] Top shape: 30 48 14 14 (282240)
I0703 10:40:11.666023 28611 layer_factory.hpp:74] Creating layer inception_4a/pool
I0703 10:40:11.666028 28611 layer_factory.cpp:55] CUDNN does not support padding or multiple tops. Using Caffe's own pooling layer.
I0703 10:40:11.666034 28611 net.cpp:90] Creating Layer inception_4a/pool
I0703 10:40:11.666039 28611 net.cpp:410] inception_4a/pool <- pool3/3x3_s2_pool3/3x3_s2_0_split_3
I0703 10:40:11.666046 28611 net.cpp:368] inception_4a/pool -> inception_4a/pool
I0703 10:40:11.666052 28611 net.cpp:120] Setting up inception_4a/pool
I0703 10:40:11.666060 28611 net.cpp:127] Top shape: 30 480 14 14 (2822400)
I0703 10:40:11.666074 28611 layer_factory.hpp:74] Creating layer inception_4a/pool_proj
I0703 10:40:11.666081 28611 net.cpp:90] Creating Layer inception_4a/pool_proj
I0703 10:40:11.666086 28611 net.cpp:410] inception_4a/pool_proj <- inception_4a/pool
I0703 10:40:11.666095 28611 net.cpp:368] inception_4a/pool_proj -> inception_4a/pool_proj
I0703 10:40:11.666102 28611 net.cpp:120] Setting up inception_4a/pool_proj
I0703 10:40:11.666460 28611 net.cpp:127] Top shape: 30 64 14 14 (376320)
I0703 10:40:11.666481 28611 layer_factory.hpp:74] Creating layer inception_4a/relu_pool_proj
I0703 10:40:11.666487 28611 net.cpp:90] Creating Layer inception_4a/relu_pool_proj
I0703 10:40:11.666493 28611 net.cpp:410] inception_4a/relu_pool_proj <- inception_4a/pool_proj
I0703 10:40:11.666499 28611 net.cpp:357] inception_4a/relu_pool_proj -> inception_4a/pool_proj (in-place)
I0703 10:40:11.666506 28611 net.cpp:120] Setting up inception_4a/relu_pool_proj
I0703 10:40:11.666625 28611 net.cpp:127] Top shape: 30 64 14 14 (376320)
I0703 10:40:11.666646 28611 layer_factory.hpp:74] Creating layer inception_4a/output
I0703 10:40:11.666652 28611 net.cpp:90] Creating Layer inception_4a/output
I0703 10:40:11.666657 28611 net.cpp:410] inception_4a/output <- inception_4a/1x1
I0703 10:40:11.666664 28611 net.cpp:410] inception_4a/output <- inception_4a/3x3
I0703 10:40:11.666669 28611 net.cpp:410] inception_4a/output <- inception_4a/5x5
I0703 10:40:11.666674 28611 net.cpp:410] inception_4a/output <- inception_4a/pool_proj
I0703 10:40:11.666681 28611 net.cpp:368] inception_4a/output -> inception_4a/output
I0703 10:40:11.666687 28611 net.cpp:120] Setting up inception_4a/output
I0703 10:40:11.666693 28611 net.cpp:127] Top shape: 30 512 14 14 (3010560)
I0703 10:40:11.666698 28611 layer_factory.hpp:74] Creating layer inception_4a/output_inception_4a/output_0_split
I0703 10:40:11.666707 28611 net.cpp:90] Creating Layer inception_4a/output_inception_4a/output_0_split
I0703 10:40:11.666712 28611 net.cpp:410] inception_4a/output_inception_4a/output_0_split <- inception_4a/output
I0703 10:40:11.666718 28611 net.cpp:368] inception_4a/output_inception_4a/output_0_split -> inception_4a/output_inception_4a/output_0_split_0
I0703 10:40:11.666725 28611 net.cpp:368] inception_4a/output_inception_4a/output_0_split -> inception_4a/output_inception_4a/output_0_split_1
I0703 10:40:11.666733 28611 net.cpp:368] inception_4a/output_inception_4a/output_0_split -> inception_4a/output_inception_4a/output_0_split_2
I0703 10:40:11.666739 28611 net.cpp:368] inception_4a/output_inception_4a/output_0_split -> inception_4a/output_inception_4a/output_0_split_3
I0703 10:40:11.666745 28611 net.cpp:368] inception_4a/output_inception_4a/output_0_split -> inception_4a/output_inception_4a/output_0_split_4
I0703 10:40:11.666751 28611 net.cpp:120] Setting up inception_4a/output_inception_4a/output_0_split
I0703 10:40:11.666759 28611 net.cpp:127] Top shape: 30 512 14 14 (3010560)
I0703 10:40:11.666764 28611 net.cpp:127] Top shape: 30 512 14 14 (3010560)
I0703 10:40:11.666769 28611 net.cpp:127] Top shape: 30 512 14 14 (3010560)
I0703 10:40:11.666774 28611 net.cpp:127] Top shape: 30 512 14 14 (3010560)
I0703 10:40:11.666779 28611 net.cpp:127] Top shape: 30 512 14 14 (3010560)
I0703 10:40:11.666784 28611 layer_factory.hpp:74] Creating layer loss1/ave_pool
I0703 10:40:11.666790 28611 net.cpp:90] Creating Layer loss1/ave_pool
I0703 10:40:11.666795 28611 net.cpp:410] loss1/ave_pool <- inception_4a/output_inception_4a/output_0_split_0
I0703 10:40:11.666801 28611 net.cpp:368] loss1/ave_pool -> loss1/ave_pool
I0703 10:40:11.666807 28611 net.cpp:120] Setting up loss1/ave_pool
I0703 10:40:11.666858 28611 net.cpp:127] Top shape: 30 512 4 4 (245760)
I0703 10:40:11.666865 28611 layer_factory.hpp:74] Creating layer loss1/conv
I0703 10:40:11.666883 28611 net.cpp:90] Creating Layer loss1/conv
I0703 10:40:11.666889 28611 net.cpp:410] loss1/conv <- loss1/ave_pool
I0703 10:40:11.666896 28611 net.cpp:368] loss1/conv -> loss1/conv
I0703 10:40:11.666903 28611 net.cpp:120] Setting up loss1/conv
I0703 10:40:11.667502 28611 net.cpp:127] Top shape: 30 128 4 4 (61440)
I0703 10:40:11.667532 28611 layer_factory.hpp:74] Creating layer loss1/relu_conv
I0703 10:40:11.667539 28611 net.cpp:90] Creating Layer loss1/relu_conv
I0703 10:40:11.667546 28611 net.cpp:410] loss1/relu_conv <- loss1/conv
I0703 10:40:11.667564 28611 net.cpp:357] loss1/relu_conv -> loss1/conv (in-place)
I0703 10:40:11.667572 28611 net.cpp:120] Setting up loss1/relu_conv
I0703 10:40:11.667631 28611 net.cpp:127] Top shape: 30 128 4 4 (61440)
I0703 10:40:11.667639 28611 layer_factory.hpp:74] Creating layer loss1/fc
I0703 10:40:11.667659 28611 net.cpp:90] Creating Layer loss1/fc
I0703 10:40:11.667665 28611 net.cpp:410] loss1/fc <- loss1/conv
I0703 10:40:11.667671 28611 net.cpp:368] loss1/fc -> loss1/fc
I0703 10:40:11.667681 28611 net.cpp:120] Setting up loss1/fc
I0703 10:40:11.677706 28611 net.cpp:127] Top shape: 30 1024 (30720)
I0703 10:40:11.677749 28611 layer_factory.hpp:74] Creating layer loss1/relu_fc
I0703 10:40:11.677760 28611 net.cpp:90] Creating Layer loss1/relu_fc
I0703 10:40:11.677767 28611 net.cpp:410] loss1/relu_fc <- loss1/fc
I0703 10:40:11.677774 28611 net.cpp:357] loss1/relu_fc -> loss1/fc (in-place)
I0703 10:40:11.677783 28611 net.cpp:120] Setting up loss1/relu_fc
I0703 10:40:11.677865 28611 net.cpp:127] Top shape: 30 1024 (30720)
I0703 10:40:11.677872 28611 layer_factory.hpp:74] Creating layer loss1/drop_fc
I0703 10:40:11.677898 28611 net.cpp:90] Creating Layer loss1/drop_fc
I0703 10:40:11.677906 28611 net.cpp:410] loss1/drop_fc <- loss1/fc
I0703 10:40:11.677914 28611 net.cpp:357] loss1/drop_fc -> loss1/fc (in-place)
I0703 10:40:11.677922 28611 net.cpp:120] Setting up loss1/drop_fc
I0703 10:40:11.677933 28611 net.cpp:127] Top shape: 30 1024 (30720)
I0703 10:40:11.677939 28611 layer_factory.hpp:74] Creating layer stanford_cars_loss1/classifier
I0703 10:40:11.677949 28611 net.cpp:90] Creating Layer stanford_cars_loss1/classifier
I0703 10:40:11.677954 28611 net.cpp:410] stanford_cars_loss1/classifier <- loss1/fc
I0703 10:40:11.677961 28611 net.cpp:368] stanford_cars_loss1/classifier -> stanford_cars_loss1/classifier
I0703 10:40:11.677969 28611 net.cpp:120] Setting up stanford_cars_loss1/classifier
I0703 10:40:11.678992 28611 net.cpp:127] Top shape: 30 196 (5880)
I0703 10:40:11.679011 28611 layer_factory.hpp:74] Creating layer loss1/loss
I0703 10:40:11.679021 28611 net.cpp:90] Creating Layer loss1/loss
I0703 10:40:11.679028 28611 net.cpp:410] loss1/loss <- stanford_cars_loss1/classifier
I0703 10:40:11.679033 28611 net.cpp:410] loss1/loss <- label_data_1_split_0
I0703 10:40:11.679039 28611 net.cpp:368] loss1/loss -> loss1/loss1
I0703 10:40:11.679047 28611 net.cpp:120] Setting up loss1/loss
I0703 10:40:11.679055 28611 layer_factory.hpp:74] Creating layer loss1/loss
I0703 10:40:11.679343 28611 net.cpp:127] Top shape: (1)
I0703 10:40:11.679358 28611 net.cpp:129]     with loss weight 0.3
I0703 10:40:11.679379 28611 layer_factory.hpp:74] Creating layer inception_4b/1x1
I0703 10:40:11.679389 28611 net.cpp:90] Creating Layer inception_4b/1x1
I0703 10:40:11.679397 28611 net.cpp:410] inception_4b/1x1 <- inception_4a/output_inception_4a/output_0_split_1
I0703 10:40:11.679406 28611 net.cpp:368] inception_4b/1x1 -> inception_4b/1x1
I0703 10:40:11.679415 28611 net.cpp:120] Setting up inception_4b/1x1
I0703 10:40:11.680055 28611 net.cpp:127] Top shape: 30 160 14 14 (940800)
I0703 10:40:11.680069 28611 layer_factory.hpp:74] Creating layer inception_4b/relu_1x1
I0703 10:40:11.680079 28611 net.cpp:90] Creating Layer inception_4b/relu_1x1
I0703 10:40:11.680086 28611 net.cpp:410] inception_4b/relu_1x1 <- inception_4b/1x1
I0703 10:40:11.680093 28611 net.cpp:357] inception_4b/relu_1x1 -> inception_4b/1x1 (in-place)
I0703 10:40:11.680099 28611 net.cpp:120] Setting up inception_4b/relu_1x1
I0703 10:40:11.680143 28611 net.cpp:127] Top shape: 30 160 14 14 (940800)
I0703 10:40:11.680151 28611 layer_factory.hpp:74] Creating layer inception_4b/3x3_reduce
I0703 10:40:11.680160 28611 net.cpp:90] Creating Layer inception_4b/3x3_reduce
I0703 10:40:11.680166 28611 net.cpp:410] inception_4b/3x3_reduce <- inception_4a/output_inception_4a/output_0_split_2
I0703 10:40:11.680191 28611 net.cpp:368] inception_4b/3x3_reduce -> inception_4b/3x3_reduce
I0703 10:40:11.680198 28611 net.cpp:120] Setting up inception_4b/3x3_reduce
I0703 10:40:11.680696 28611 net.cpp:127] Top shape: 30 112 14 14 (658560)
I0703 10:40:11.680709 28611 layer_factory.hpp:74] Creating layer inception_4b/relu_3x3_reduce
I0703 10:40:11.680717 28611 net.cpp:90] Creating Layer inception_4b/relu_3x3_reduce
I0703 10:40:11.680722 28611 net.cpp:410] inception_4b/relu_3x3_reduce <- inception_4b/3x3_reduce
I0703 10:40:11.680729 28611 net.cpp:357] inception_4b/relu_3x3_reduce -> inception_4b/3x3_reduce (in-place)
I0703 10:40:11.680737 28611 net.cpp:120] Setting up inception_4b/relu_3x3_reduce
I0703 10:40:11.680780 28611 net.cpp:127] Top shape: 30 112 14 14 (658560)
I0703 10:40:11.680788 28611 layer_factory.hpp:74] Creating layer inception_4b/3x3
I0703 10:40:11.680796 28611 net.cpp:90] Creating Layer inception_4b/3x3
I0703 10:40:11.680804 28611 net.cpp:410] inception_4b/3x3 <- inception_4b/3x3_reduce
I0703 10:40:11.680810 28611 net.cpp:368] inception_4b/3x3 -> inception_4b/3x3
I0703 10:40:11.680817 28611 net.cpp:120] Setting up inception_4b/3x3
I0703 10:40:11.682158 28611 net.cpp:127] Top shape: 30 224 14 14 (1317120)
I0703 10:40:11.682180 28611 layer_factory.hpp:74] Creating layer inception_4b/relu_3x3
I0703 10:40:11.682189 28611 net.cpp:90] Creating Layer inception_4b/relu_3x3
I0703 10:40:11.682194 28611 net.cpp:410] inception_4b/relu_3x3 <- inception_4b/3x3
I0703 10:40:11.682200 28611 net.cpp:357] inception_4b/relu_3x3 -> inception_4b/3x3 (in-place)
I0703 10:40:11.682207 28611 net.cpp:120] Setting up inception_4b/relu_3x3
I0703 10:40:11.682257 28611 net.cpp:127] Top shape: 30 224 14 14 (1317120)
I0703 10:40:11.682276 28611 layer_factory.hpp:74] Creating layer inception_4b/5x5_reduce
I0703 10:40:11.682284 28611 net.cpp:90] Creating Layer inception_4b/5x5_reduce
I0703 10:40:11.682289 28611 net.cpp:410] inception_4b/5x5_reduce <- inception_4a/output_inception_4a/output_0_split_3
I0703 10:40:11.682296 28611 net.cpp:368] inception_4b/5x5_reduce -> inception_4b/5x5_reduce
I0703 10:40:11.682303 28611 net.cpp:120] Setting up inception_4b/5x5_reduce
I0703 10:40:11.682587 28611 net.cpp:127] Top shape: 30 24 14 14 (141120)
I0703 10:40:11.682610 28611 layer_factory.hpp:74] Creating layer inception_4b/relu_5x5_reduce
I0703 10:40:11.682618 28611 net.cpp:90] Creating Layer inception_4b/relu_5x5_reduce
I0703 10:40:11.682623 28611 net.cpp:410] inception_4b/relu_5x5_reduce <- inception_4b/5x5_reduce
I0703 10:40:11.682629 28611 net.cpp:357] inception_4b/relu_5x5_reduce -> inception_4b/5x5_reduce (in-place)
I0703 10:40:11.682636 28611 net.cpp:120] Setting up inception_4b/relu_5x5_reduce
I0703 10:40:11.682755 28611 net.cpp:127] Top shape: 30 24 14 14 (141120)
I0703 10:40:11.682776 28611 layer_factory.hpp:74] Creating layer inception_4b/5x5
I0703 10:40:11.682785 28611 net.cpp:90] Creating Layer inception_4b/5x5
I0703 10:40:11.682790 28611 net.cpp:410] inception_4b/5x5 <- inception_4b/5x5_reduce
I0703 10:40:11.682796 28611 net.cpp:368] inception_4b/5x5 -> inception_4b/5x5
I0703 10:40:11.682804 28611 net.cpp:120] Setting up inception_4b/5x5
I0703 10:40:11.683204 28611 net.cpp:127] Top shape: 30 64 14 14 (376320)
I0703 10:40:11.683228 28611 layer_factory.hpp:74] Creating layer inception_4b/relu_5x5
I0703 10:40:11.683235 28611 net.cpp:90] Creating Layer inception_4b/relu_5x5
I0703 10:40:11.683240 28611 net.cpp:410] inception_4b/relu_5x5 <- inception_4b/5x5
I0703 10:40:11.683248 28611 net.cpp:357] inception_4b/relu_5x5 -> inception_4b/5x5 (in-place)
I0703 10:40:11.683254 28611 net.cpp:120] Setting up inception_4b/relu_5x5
I0703 10:40:11.683296 28611 net.cpp:127] Top shape: 30 64 14 14 (376320)
I0703 10:40:11.683303 28611 layer_factory.hpp:74] Creating layer inception_4b/pool
I0703 10:40:11.683316 28611 layer_factory.cpp:55] CUDNN does not support padding or multiple tops. Using Caffe's own pooling layer.
I0703 10:40:11.683323 28611 net.cpp:90] Creating Layer inception_4b/pool
I0703 10:40:11.683336 28611 net.cpp:410] inception_4b/pool <- inception_4a/output_inception_4a/output_0_split_4
I0703 10:40:11.683343 28611 net.cpp:368] inception_4b/pool -> inception_4b/pool
I0703 10:40:11.683357 28611 net.cpp:120] Setting up inception_4b/pool
I0703 10:40:11.683365 28611 net.cpp:127] Top shape: 30 512 14 14 (3010560)
I0703 10:40:11.683372 28611 layer_factory.hpp:74] Creating layer inception_4b/pool_proj
I0703 10:40:11.683382 28611 net.cpp:90] Creating Layer inception_4b/pool_proj
I0703 10:40:11.683387 28611 net.cpp:410] inception_4b/pool_proj <- inception_4b/pool
I0703 10:40:11.683393 28611 net.cpp:368] inception_4b/pool_proj -> inception_4b/pool_proj
I0703 10:40:11.683400 28611 net.cpp:120] Setting up inception_4b/pool_proj
I0703 10:40:11.683773 28611 net.cpp:127] Top shape: 30 64 14 14 (376320)
I0703 10:40:11.683794 28611 layer_factory.hpp:74] Creating layer inception_4b/relu_pool_proj
I0703 10:40:11.683802 28611 net.cpp:90] Creating Layer inception_4b/relu_pool_proj
I0703 10:40:11.683807 28611 net.cpp:410] inception_4b/relu_pool_proj <- inception_4b/pool_proj
I0703 10:40:11.683815 28611 net.cpp:357] inception_4b/relu_pool_proj -> inception_4b/pool_proj (in-place)
I0703 10:40:11.683821 28611 net.cpp:120] Setting up inception_4b/relu_pool_proj
I0703 10:40:11.683872 28611 net.cpp:127] Top shape: 30 64 14 14 (376320)
I0703 10:40:11.683879 28611 layer_factory.hpp:74] Creating layer inception_4b/output
I0703 10:40:11.683897 28611 net.cpp:90] Creating Layer inception_4b/output
I0703 10:40:11.683902 28611 net.cpp:410] inception_4b/output <- inception_4b/1x1
I0703 10:40:11.683907 28611 net.cpp:410] inception_4b/output <- inception_4b/3x3
I0703 10:40:11.683912 28611 net.cpp:410] inception_4b/output <- inception_4b/5x5
I0703 10:40:11.683918 28611 net.cpp:410] inception_4b/output <- inception_4b/pool_proj
I0703 10:40:11.683924 28611 net.cpp:368] inception_4b/output -> inception_4b/output
I0703 10:40:11.683930 28611 net.cpp:120] Setting up inception_4b/output
I0703 10:40:11.683938 28611 net.cpp:127] Top shape: 30 512 14 14 (3010560)
I0703 10:40:11.683943 28611 layer_factory.hpp:74] Creating layer inception_4b/output_inception_4b/output_0_split
I0703 10:40:11.683950 28611 net.cpp:90] Creating Layer inception_4b/output_inception_4b/output_0_split
I0703 10:40:11.683955 28611 net.cpp:410] inception_4b/output_inception_4b/output_0_split <- inception_4b/output
I0703 10:40:11.683961 28611 net.cpp:368] inception_4b/output_inception_4b/output_0_split -> inception_4b/output_inception_4b/output_0_split_0
I0703 10:40:11.683969 28611 net.cpp:368] inception_4b/output_inception_4b/output_0_split -> inception_4b/output_inception_4b/output_0_split_1
I0703 10:40:11.683975 28611 net.cpp:368] inception_4b/output_inception_4b/output_0_split -> inception_4b/output_inception_4b/output_0_split_2
I0703 10:40:11.683982 28611 net.cpp:368] inception_4b/output_inception_4b/output_0_split -> inception_4b/output_inception_4b/output_0_split_3
I0703 10:40:11.683990 28611 net.cpp:120] Setting up inception_4b/output_inception_4b/output_0_split
I0703 10:40:11.683997 28611 net.cpp:127] Top shape: 30 512 14 14 (3010560)
I0703 10:40:11.684002 28611 net.cpp:127] Top shape: 30 512 14 14 (3010560)
I0703 10:40:11.684007 28611 net.cpp:127] Top shape: 30 512 14 14 (3010560)
I0703 10:40:11.684012 28611 net.cpp:127] Top shape: 30 512 14 14 (3010560)
I0703 10:40:11.684017 28611 layer_factory.hpp:74] Creating layer inception_4c/1x1
I0703 10:40:11.684025 28611 net.cpp:90] Creating Layer inception_4c/1x1
I0703 10:40:11.684029 28611 net.cpp:410] inception_4c/1x1 <- inception_4b/output_inception_4b/output_0_split_0
I0703 10:40:11.684036 28611 net.cpp:368] inception_4c/1x1 -> inception_4c/1x1
I0703 10:40:11.684043 28611 net.cpp:120] Setting up inception_4c/1x1
I0703 10:40:11.684581 28611 net.cpp:127] Top shape: 30 128 14 14 (752640)
I0703 10:40:11.684602 28611 layer_factory.hpp:74] Creating layer inception_4c/relu_1x1
I0703 10:40:11.684609 28611 net.cpp:90] Creating Layer inception_4c/relu_1x1
I0703 10:40:11.684615 28611 net.cpp:410] inception_4c/relu_1x1 <- inception_4c/1x1
I0703 10:40:11.684628 28611 net.cpp:357] inception_4c/relu_1x1 -> inception_4c/1x1 (in-place)
I0703 10:40:11.684635 28611 net.cpp:120] Setting up inception_4c/relu_1x1
I0703 10:40:11.684687 28611 net.cpp:127] Top shape: 30 128 14 14 (752640)
I0703 10:40:11.684695 28611 layer_factory.hpp:74] Creating layer inception_4c/3x3_reduce
I0703 10:40:11.684711 28611 net.cpp:90] Creating Layer inception_4c/3x3_reduce
I0703 10:40:11.684716 28611 net.cpp:410] inception_4c/3x3_reduce <- inception_4b/output_inception_4b/output_0_split_1
I0703 10:40:11.684725 28611 net.cpp:368] inception_4c/3x3_reduce -> inception_4c/3x3_reduce
I0703 10:40:11.684731 28611 net.cpp:120] Setting up inception_4c/3x3_reduce
I0703 10:40:11.685268 28611 net.cpp:127] Top shape: 30 128 14 14 (752640)
I0703 10:40:11.685291 28611 layer_factory.hpp:74] Creating layer inception_4c/relu_3x3_reduce
I0703 10:40:11.685297 28611 net.cpp:90] Creating Layer inception_4c/relu_3x3_reduce
I0703 10:40:11.685303 28611 net.cpp:410] inception_4c/relu_3x3_reduce <- inception_4c/3x3_reduce
I0703 10:40:11.685309 28611 net.cpp:357] inception_4c/relu_3x3_reduce -> inception_4c/3x3_reduce (in-place)
I0703 10:40:11.685317 28611 net.cpp:120] Setting up inception_4c/relu_3x3_reduce
I0703 10:40:11.685433 28611 net.cpp:127] Top shape: 30 128 14 14 (752640)
I0703 10:40:11.685443 28611 layer_factory.hpp:74] Creating layer inception_4c/3x3
I0703 10:40:11.685461 28611 net.cpp:90] Creating Layer inception_4c/3x3
I0703 10:40:11.685467 28611 net.cpp:410] inception_4c/3x3 <- inception_4c/3x3_reduce
I0703 10:40:11.685474 28611 net.cpp:368] inception_4c/3x3 -> inception_4c/3x3
I0703 10:40:11.685482 28611 net.cpp:120] Setting up inception_4c/3x3
I0703 10:40:11.687151 28611 net.cpp:127] Top shape: 30 256 14 14 (1505280)
I0703 10:40:11.687180 28611 layer_factory.hpp:74] Creating layer inception_4c/relu_3x3
I0703 10:40:11.687187 28611 net.cpp:90] Creating Layer inception_4c/relu_3x3
I0703 10:40:11.687193 28611 net.cpp:410] inception_4c/relu_3x3 <- inception_4c/3x3
I0703 10:40:11.687201 28611 net.cpp:357] inception_4c/relu_3x3 -> inception_4c/3x3 (in-place)
I0703 10:40:11.687207 28611 net.cpp:120] Setting up inception_4c/relu_3x3
I0703 10:40:11.687259 28611 net.cpp:127] Top shape: 30 256 14 14 (1505280)
I0703 10:40:11.687266 28611 layer_factory.hpp:74] Creating layer inception_4c/5x5_reduce
I0703 10:40:11.687283 28611 net.cpp:90] Creating Layer inception_4c/5x5_reduce
I0703 10:40:11.687289 28611 net.cpp:410] inception_4c/5x5_reduce <- inception_4b/output_inception_4b/output_0_split_2
I0703 10:40:11.687296 28611 net.cpp:368] inception_4c/5x5_reduce -> inception_4c/5x5_reduce
I0703 10:40:11.687304 28611 net.cpp:120] Setting up inception_4c/5x5_reduce
I0703 10:40:11.687580 28611 net.cpp:127] Top shape: 30 24 14 14 (141120)
I0703 10:40:11.687602 28611 layer_factory.hpp:74] Creating layer inception_4c/relu_5x5_reduce
I0703 10:40:11.687611 28611 net.cpp:90] Creating Layer inception_4c/relu_5x5_reduce
I0703 10:40:11.687616 28611 net.cpp:410] inception_4c/relu_5x5_reduce <- inception_4c/5x5_reduce
I0703 10:40:11.687623 28611 net.cpp:357] inception_4c/relu_5x5_reduce -> inception_4c/5x5_reduce (in-place)
I0703 10:40:11.687630 28611 net.cpp:120] Setting up inception_4c/relu_5x5_reduce
I0703 10:40:11.687680 28611 net.cpp:127] Top shape: 30 24 14 14 (141120)
I0703 10:40:11.687687 28611 layer_factory.hpp:74] Creating layer inception_4c/5x5
I0703 10:40:11.687705 28611 net.cpp:90] Creating Layer inception_4c/5x5
I0703 10:40:11.687711 28611 net.cpp:410] inception_4c/5x5 <- inception_4c/5x5_reduce
I0703 10:40:11.687717 28611 net.cpp:368] inception_4c/5x5 -> inception_4c/5x5
I0703 10:40:11.687724 28611 net.cpp:120] Setting up inception_4c/5x5
I0703 10:40:11.688127 28611 net.cpp:127] Top shape: 30 64 14 14 (376320)
I0703 10:40:11.688148 28611 layer_factory.hpp:74] Creating layer inception_4c/relu_5x5
I0703 10:40:11.688156 28611 net.cpp:90] Creating Layer inception_4c/relu_5x5
I0703 10:40:11.688161 28611 net.cpp:410] inception_4c/relu_5x5 <- inception_4c/5x5
I0703 10:40:11.688169 28611 net.cpp:357] inception_4c/relu_5x5 -> inception_4c/5x5 (in-place)
I0703 10:40:11.688184 28611 net.cpp:120] Setting up inception_4c/relu_5x5
I0703 10:40:11.688303 28611 net.cpp:127] Top shape: 30 64 14 14 (376320)
I0703 10:40:11.688313 28611 layer_factory.hpp:74] Creating layer inception_4c/pool
I0703 10:40:11.688328 28611 layer_factory.cpp:55] CUDNN does not support padding or multiple tops. Using Caffe's own pooling layer.
I0703 10:40:11.688335 28611 net.cpp:90] Creating Layer inception_4c/pool
I0703 10:40:11.688341 28611 net.cpp:410] inception_4c/pool <- inception_4b/output_inception_4b/output_0_split_3
I0703 10:40:11.688347 28611 net.cpp:368] inception_4c/pool -> inception_4c/pool
I0703 10:40:11.688354 28611 net.cpp:120] Setting up inception_4c/pool
I0703 10:40:11.688364 28611 net.cpp:127] Top shape: 30 512 14 14 (3010560)
I0703 10:40:11.688369 28611 layer_factory.hpp:74] Creating layer inception_4c/pool_proj
I0703 10:40:11.688375 28611 net.cpp:90] Creating Layer inception_4c/pool_proj
I0703 10:40:11.688380 28611 net.cpp:410] inception_4c/pool_proj <- inception_4c/pool
I0703 10:40:11.688387 28611 net.cpp:368] inception_4c/pool_proj -> inception_4c/pool_proj
I0703 10:40:11.688395 28611 net.cpp:120] Setting up inception_4c/pool_proj
I0703 10:40:11.688766 28611 net.cpp:127] Top shape: 30 64 14 14 (376320)
I0703 10:40:11.688787 28611 layer_factory.hpp:74] Creating layer inception_4c/relu_pool_proj
I0703 10:40:11.688794 28611 net.cpp:90] Creating Layer inception_4c/relu_pool_proj
I0703 10:40:11.688801 28611 net.cpp:410] inception_4c/relu_pool_proj <- inception_4c/pool_proj
I0703 10:40:11.688807 28611 net.cpp:357] inception_4c/relu_pool_proj -> inception_4c/pool_proj (in-place)
I0703 10:40:11.688813 28611 net.cpp:120] Setting up inception_4c/relu_pool_proj
I0703 10:40:11.688863 28611 net.cpp:127] Top shape: 30 64 14 14 (376320)
I0703 10:40:11.688871 28611 layer_factory.hpp:74] Creating layer inception_4c/output
I0703 10:40:11.688889 28611 net.cpp:90] Creating Layer inception_4c/output
I0703 10:40:11.688894 28611 net.cpp:410] inception_4c/output <- inception_4c/1x1
I0703 10:40:11.688899 28611 net.cpp:410] inception_4c/output <- inception_4c/3x3
I0703 10:40:11.688905 28611 net.cpp:410] inception_4c/output <- inception_4c/5x5
I0703 10:40:11.688910 28611 net.cpp:410] inception_4c/output <- inception_4c/pool_proj
I0703 10:40:11.688916 28611 net.cpp:368] inception_4c/output -> inception_4c/output
I0703 10:40:11.688922 28611 net.cpp:120] Setting up inception_4c/output
I0703 10:40:11.688930 28611 net.cpp:127] Top shape: 30 512 14 14 (3010560)
I0703 10:40:11.688935 28611 layer_factory.hpp:74] Creating layer inception_4c/output_inception_4c/output_0_split
I0703 10:40:11.688941 28611 net.cpp:90] Creating Layer inception_4c/output_inception_4c/output_0_split
I0703 10:40:11.688946 28611 net.cpp:410] inception_4c/output_inception_4c/output_0_split <- inception_4c/output
I0703 10:40:11.688953 28611 net.cpp:368] inception_4c/output_inception_4c/output_0_split -> inception_4c/output_inception_4c/output_0_split_0
I0703 10:40:11.688961 28611 net.cpp:368] inception_4c/output_inception_4c/output_0_split -> inception_4c/output_inception_4c/output_0_split_1
I0703 10:40:11.688967 28611 net.cpp:368] inception_4c/output_inception_4c/output_0_split -> inception_4c/output_inception_4c/output_0_split_2
I0703 10:40:11.688973 28611 net.cpp:368] inception_4c/output_inception_4c/output_0_split -> inception_4c/output_inception_4c/output_0_split_3
I0703 10:40:11.688979 28611 net.cpp:120] Setting up inception_4c/output_inception_4c/output_0_split
I0703 10:40:11.688987 28611 net.cpp:127] Top shape: 30 512 14 14 (3010560)
I0703 10:40:11.688992 28611 net.cpp:127] Top shape: 30 512 14 14 (3010560)
I0703 10:40:11.688997 28611 net.cpp:127] Top shape: 30 512 14 14 (3010560)
I0703 10:40:11.689002 28611 net.cpp:127] Top shape: 30 512 14 14 (3010560)
I0703 10:40:11.689007 28611 layer_factory.hpp:74] Creating layer inception_4d/1x1
I0703 10:40:11.689014 28611 net.cpp:90] Creating Layer inception_4d/1x1
I0703 10:40:11.689019 28611 net.cpp:410] inception_4d/1x1 <- inception_4c/output_inception_4c/output_0_split_0
I0703 10:40:11.689033 28611 net.cpp:368] inception_4d/1x1 -> inception_4d/1x1
I0703 10:40:11.689041 28611 net.cpp:120] Setting up inception_4d/1x1
I0703 10:40:11.689538 28611 net.cpp:127] Top shape: 30 112 14 14 (658560)
I0703 10:40:11.689561 28611 layer_factory.hpp:74] Creating layer inception_4d/relu_1x1
I0703 10:40:11.689569 28611 net.cpp:90] Creating Layer inception_4d/relu_1x1
I0703 10:40:11.689575 28611 net.cpp:410] inception_4d/relu_1x1 <- inception_4d/1x1
I0703 10:40:11.689581 28611 net.cpp:357] inception_4d/relu_1x1 -> inception_4d/1x1 (in-place)
I0703 10:40:11.689587 28611 net.cpp:120] Setting up inception_4d/relu_1x1
I0703 10:40:11.689638 28611 net.cpp:127] Top shape: 30 112 14 14 (658560)
I0703 10:40:11.689646 28611 layer_factory.hpp:74] Creating layer inception_4d/3x3_reduce
I0703 10:40:11.689663 28611 net.cpp:90] Creating Layer inception_4d/3x3_reduce
I0703 10:40:11.689668 28611 net.cpp:410] inception_4d/3x3_reduce <- inception_4c/output_inception_4c/output_0_split_1
I0703 10:40:11.689677 28611 net.cpp:368] inception_4d/3x3_reduce -> inception_4d/3x3_reduce
I0703 10:40:11.689683 28611 net.cpp:120] Setting up inception_4d/3x3_reduce
I0703 10:40:11.690261 28611 net.cpp:127] Top shape: 30 144 14 14 (846720)
I0703 10:40:11.690284 28611 layer_factory.hpp:74] Creating layer inception_4d/relu_3x3_reduce
I0703 10:40:11.690291 28611 net.cpp:90] Creating Layer inception_4d/relu_3x3_reduce
I0703 10:40:11.690296 28611 net.cpp:410] inception_4d/relu_3x3_reduce <- inception_4d/3x3_reduce
I0703 10:40:11.690302 28611 net.cpp:357] inception_4d/relu_3x3_reduce -> inception_4d/3x3_reduce (in-place)
I0703 10:40:11.690310 28611 net.cpp:120] Setting up inception_4d/relu_3x3_reduce
I0703 10:40:11.690361 28611 net.cpp:127] Top shape: 30 144 14 14 (846720)
I0703 10:40:11.690367 28611 layer_factory.hpp:74] Creating layer inception_4d/3x3
I0703 10:40:11.690385 28611 net.cpp:90] Creating Layer inception_4d/3x3
I0703 10:40:11.690392 28611 net.cpp:410] inception_4d/3x3 <- inception_4d/3x3_reduce
I0703 10:40:11.690397 28611 net.cpp:368] inception_4d/3x3 -> inception_4d/3x3
I0703 10:40:11.690404 28611 net.cpp:120] Setting up inception_4d/3x3
I0703 10:40:11.692492 28611 net.cpp:127] Top shape: 30 288 14 14 (1693440)
I0703 10:40:11.692515 28611 layer_factory.hpp:74] Creating layer inception_4d/relu_3x3
I0703 10:40:11.692523 28611 net.cpp:90] Creating Layer inception_4d/relu_3x3
I0703 10:40:11.692529 28611 net.cpp:410] inception_4d/relu_3x3 <- inception_4d/3x3
I0703 10:40:11.692535 28611 net.cpp:357] inception_4d/relu_3x3 -> inception_4d/3x3 (in-place)
I0703 10:40:11.692543 28611 net.cpp:120] Setting up inception_4d/relu_3x3
I0703 10:40:11.692662 28611 net.cpp:127] Top shape: 30 288 14 14 (1693440)
I0703 10:40:11.692682 28611 layer_factory.hpp:74] Creating layer inception_4d/5x5_reduce
I0703 10:40:11.692690 28611 net.cpp:90] Creating Layer inception_4d/5x5_reduce
I0703 10:40:11.692697 28611 net.cpp:410] inception_4d/5x5_reduce <- inception_4c/output_inception_4c/output_0_split_2
I0703 10:40:11.692703 28611 net.cpp:368] inception_4d/5x5_reduce -> inception_4d/5x5_reduce
I0703 10:40:11.692710 28611 net.cpp:120] Setting up inception_4d/5x5_reduce
I0703 10:40:11.693003 28611 net.cpp:127] Top shape: 30 32 14 14 (188160)
I0703 10:40:11.693027 28611 layer_factory.hpp:74] Creating layer inception_4d/relu_5x5_reduce
I0703 10:40:11.693033 28611 net.cpp:90] Creating Layer inception_4d/relu_5x5_reduce
I0703 10:40:11.693039 28611 net.cpp:410] inception_4d/relu_5x5_reduce <- inception_4d/5x5_reduce
I0703 10:40:11.693045 28611 net.cpp:357] inception_4d/relu_5x5_reduce -> inception_4d/5x5_reduce (in-place)
I0703 10:40:11.693053 28611 net.cpp:120] Setting up inception_4d/relu_5x5_reduce
I0703 10:40:11.693104 28611 net.cpp:127] Top shape: 30 32 14 14 (188160)
I0703 10:40:11.693110 28611 layer_factory.hpp:74] Creating layer inception_4d/5x5
I0703 10:40:11.693127 28611 net.cpp:90] Creating Layer inception_4d/5x5
I0703 10:40:11.693133 28611 net.cpp:410] inception_4d/5x5 <- inception_4d/5x5_reduce
I0703 10:40:11.693140 28611 net.cpp:368] inception_4d/5x5 -> inception_4d/5x5
I0703 10:40:11.693157 28611 net.cpp:120] Setting up inception_4d/5x5
I0703 10:40:11.693641 28611 net.cpp:127] Top shape: 30 64 14 14 (376320)
I0703 10:40:11.693663 28611 layer_factory.hpp:74] Creating layer inception_4d/relu_5x5
I0703 10:40:11.693670 28611 net.cpp:90] Creating Layer inception_4d/relu_5x5
I0703 10:40:11.693676 28611 net.cpp:410] inception_4d/relu_5x5 <- inception_4d/5x5
I0703 10:40:11.693684 28611 net.cpp:357] inception_4d/relu_5x5 -> inception_4d/5x5 (in-place)
I0703 10:40:11.693691 28611 net.cpp:120] Setting up inception_4d/relu_5x5
I0703 10:40:11.693743 28611 net.cpp:127] Top shape: 30 64 14 14 (376320)
I0703 10:40:11.693750 28611 layer_factory.hpp:74] Creating layer inception_4d/pool
I0703 10:40:11.693766 28611 layer_factory.cpp:55] CUDNN does not support padding or multiple tops. Using Caffe's own pooling layer.
I0703 10:40:11.693773 28611 net.cpp:90] Creating Layer inception_4d/pool
I0703 10:40:11.693778 28611 net.cpp:410] inception_4d/pool <- inception_4c/output_inception_4c/output_0_split_3
I0703 10:40:11.693784 28611 net.cpp:368] inception_4d/pool -> inception_4d/pool
I0703 10:40:11.693791 28611 net.cpp:120] Setting up inception_4d/pool
I0703 10:40:11.693800 28611 net.cpp:127] Top shape: 30 512 14 14 (3010560)
I0703 10:40:11.693805 28611 layer_factory.hpp:74] Creating layer inception_4d/pool_proj
I0703 10:40:11.693814 28611 net.cpp:90] Creating Layer inception_4d/pool_proj
I0703 10:40:11.693819 28611 net.cpp:410] inception_4d/pool_proj <- inception_4d/pool
I0703 10:40:11.693825 28611 net.cpp:368] inception_4d/pool_proj -> inception_4d/pool_proj
I0703 10:40:11.693832 28611 net.cpp:120] Setting up inception_4d/pool_proj
I0703 10:40:11.694208 28611 net.cpp:127] Top shape: 30 64 14 14 (376320)
I0703 10:40:11.694231 28611 layer_factory.hpp:74] Creating layer inception_4d/relu_pool_proj
I0703 10:40:11.694238 28611 net.cpp:90] Creating Layer inception_4d/relu_pool_proj
I0703 10:40:11.694244 28611 net.cpp:410] inception_4d/relu_pool_proj <- inception_4d/pool_proj
I0703 10:40:11.694250 28611 net.cpp:357] inception_4d/relu_pool_proj -> inception_4d/pool_proj (in-place)
I0703 10:40:11.694257 28611 net.cpp:120] Setting up inception_4d/relu_pool_proj
I0703 10:40:11.694308 28611 net.cpp:127] Top shape: 30 64 14 14 (376320)
I0703 10:40:11.694315 28611 layer_factory.hpp:74] Creating layer inception_4d/output
I0703 10:40:11.694331 28611 net.cpp:90] Creating Layer inception_4d/output
I0703 10:40:11.694337 28611 net.cpp:410] inception_4d/output <- inception_4d/1x1
I0703 10:40:11.694342 28611 net.cpp:410] inception_4d/output <- inception_4d/3x3
I0703 10:40:11.694349 28611 net.cpp:410] inception_4d/output <- inception_4d/5x5
I0703 10:40:11.694353 28611 net.cpp:410] inception_4d/output <- inception_4d/pool_proj
I0703 10:40:11.694360 28611 net.cpp:368] inception_4d/output -> inception_4d/output
I0703 10:40:11.694366 28611 net.cpp:120] Setting up inception_4d/output
I0703 10:40:11.694372 28611 net.cpp:127] Top shape: 30 528 14 14 (3104640)
I0703 10:40:11.694377 28611 layer_factory.hpp:74] Creating layer inception_4d/output_inception_4d/output_0_split
I0703 10:40:11.694385 28611 net.cpp:90] Creating Layer inception_4d/output_inception_4d/output_0_split
I0703 10:40:11.694391 28611 net.cpp:410] inception_4d/output_inception_4d/output_0_split <- inception_4d/output
I0703 10:40:11.694397 28611 net.cpp:368] inception_4d/output_inception_4d/output_0_split -> inception_4d/output_inception_4d/output_0_split_0
I0703 10:40:11.694404 28611 net.cpp:368] inception_4d/output_inception_4d/output_0_split -> inception_4d/output_inception_4d/output_0_split_1
I0703 10:40:11.694411 28611 net.cpp:368] inception_4d/output_inception_4d/output_0_split -> inception_4d/output_inception_4d/output_0_split_2
I0703 10:40:11.694418 28611 net.cpp:368] inception_4d/output_inception_4d/output_0_split -> inception_4d/output_inception_4d/output_0_split_3
I0703 10:40:11.694424 28611 net.cpp:368] inception_4d/output_inception_4d/output_0_split -> inception_4d/output_inception_4d/output_0_split_4
I0703 10:40:11.694432 28611 net.cpp:120] Setting up inception_4d/output_inception_4d/output_0_split
I0703 10:40:11.694447 28611 net.cpp:127] Top shape: 30 528 14 14 (3104640)
I0703 10:40:11.694453 28611 net.cpp:127] Top shape: 30 528 14 14 (3104640)
I0703 10:40:11.694458 28611 net.cpp:127] Top shape: 30 528 14 14 (3104640)
I0703 10:40:11.694463 28611 net.cpp:127] Top shape: 30 528 14 14 (3104640)
I0703 10:40:11.694468 28611 net.cpp:127] Top shape: 30 528 14 14 (3104640)
I0703 10:40:11.694473 28611 layer_factory.hpp:74] Creating layer loss2/ave_pool
I0703 10:40:11.694480 28611 net.cpp:90] Creating Layer loss2/ave_pool
I0703 10:40:11.694485 28611 net.cpp:410] loss2/ave_pool <- inception_4d/output_inception_4d/output_0_split_0
I0703 10:40:11.694492 28611 net.cpp:368] loss2/ave_pool -> loss2/ave_pool
I0703 10:40:11.694499 28611 net.cpp:120] Setting up loss2/ave_pool
I0703 10:40:11.694625 28611 net.cpp:127] Top shape: 30 528 4 4 (253440)
I0703 10:40:11.694635 28611 layer_factory.hpp:74] Creating layer loss2/conv
I0703 10:40:11.694653 28611 net.cpp:90] Creating Layer loss2/conv
I0703 10:40:11.694659 28611 net.cpp:410] loss2/conv <- loss2/ave_pool
I0703 10:40:11.694666 28611 net.cpp:368] loss2/conv -> loss2/conv
I0703 10:40:11.694674 28611 net.cpp:120] Setting up loss2/conv
I0703 10:40:11.695225 28611 net.cpp:127] Top shape: 30 128 4 4 (61440)
I0703 10:40:11.695248 28611 layer_factory.hpp:74] Creating layer loss2/relu_conv
I0703 10:40:11.695255 28611 net.cpp:90] Creating Layer loss2/relu_conv
I0703 10:40:11.695261 28611 net.cpp:410] loss2/relu_conv <- loss2/conv
I0703 10:40:11.695276 28611 net.cpp:357] loss2/relu_conv -> loss2/conv (in-place)
I0703 10:40:11.695291 28611 net.cpp:120] Setting up loss2/relu_conv
I0703 10:40:11.695339 28611 net.cpp:127] Top shape: 30 128 4 4 (61440)
I0703 10:40:11.695346 28611 layer_factory.hpp:74] Creating layer loss2/fc
I0703 10:40:11.695354 28611 net.cpp:90] Creating Layer loss2/fc
I0703 10:40:11.695359 28611 net.cpp:410] loss2/fc <- loss2/conv
I0703 10:40:11.695366 28611 net.cpp:368] loss2/fc -> loss2/fc
I0703 10:40:11.695374 28611 net.cpp:120] Setting up loss2/fc
I0703 10:40:11.705672 28611 net.cpp:127] Top shape: 30 1024 (30720)
I0703 10:40:11.705698 28611 layer_factory.hpp:74] Creating layer loss2/relu_fc
I0703 10:40:11.705709 28611 net.cpp:90] Creating Layer loss2/relu_fc
I0703 10:40:11.705716 28611 net.cpp:410] loss2/relu_fc <- loss2/fc
I0703 10:40:11.705724 28611 net.cpp:357] loss2/relu_fc -> loss2/fc (in-place)
I0703 10:40:11.705731 28611 net.cpp:120] Setting up loss2/relu_fc
I0703 10:40:11.705806 28611 net.cpp:127] Top shape: 30 1024 (30720)
I0703 10:40:11.705816 28611 layer_factory.hpp:74] Creating layer loss2/drop_fc
I0703 10:40:11.705823 28611 net.cpp:90] Creating Layer loss2/drop_fc
I0703 10:40:11.705828 28611 net.cpp:410] loss2/drop_fc <- loss2/fc
I0703 10:40:11.705834 28611 net.cpp:357] loss2/drop_fc -> loss2/fc (in-place)
I0703 10:40:11.705842 28611 net.cpp:120] Setting up loss2/drop_fc
I0703 10:40:11.705848 28611 net.cpp:127] Top shape: 30 1024 (30720)
I0703 10:40:11.705853 28611 layer_factory.hpp:74] Creating layer stanford_cars_loss2/classifier
I0703 10:40:11.705860 28611 net.cpp:90] Creating Layer stanford_cars_loss2/classifier
I0703 10:40:11.705865 28611 net.cpp:410] stanford_cars_loss2/classifier <- loss2/fc
I0703 10:40:11.705873 28611 net.cpp:368] stanford_cars_loss2/classifier -> stanford_cars_loss2/classifier
I0703 10:40:11.705880 28611 net.cpp:120] Setting up stanford_cars_loss2/classifier
I0703 10:40:11.706890 28611 net.cpp:127] Top shape: 30 196 (5880)
I0703 10:40:11.706900 28611 layer_factory.hpp:74] Creating layer stanford_cars_loss2/loss
I0703 10:40:11.706908 28611 net.cpp:90] Creating Layer stanford_cars_loss2/loss
I0703 10:40:11.706913 28611 net.cpp:410] stanford_cars_loss2/loss <- stanford_cars_loss2/classifier
I0703 10:40:11.706919 28611 net.cpp:410] stanford_cars_loss2/loss <- label_data_1_split_1
I0703 10:40:11.706926 28611 net.cpp:368] stanford_cars_loss2/loss -> loss2/loss1
I0703 10:40:11.706933 28611 net.cpp:120] Setting up stanford_cars_loss2/loss
I0703 10:40:11.706938 28611 layer_factory.hpp:74] Creating layer stanford_cars_loss2/loss
I0703 10:40:11.707015 28611 net.cpp:127] Top shape: (1)
I0703 10:40:11.707025 28611 net.cpp:129]     with loss weight 0.3
I0703 10:40:11.707036 28611 layer_factory.hpp:74] Creating layer inception_4e/1x1
I0703 10:40:11.707044 28611 net.cpp:90] Creating Layer inception_4e/1x1
I0703 10:40:11.707051 28611 net.cpp:410] inception_4e/1x1 <- inception_4d/output_inception_4d/output_0_split_1
I0703 10:40:11.707058 28611 net.cpp:368] inception_4e/1x1 -> inception_4e/1x1
I0703 10:40:11.707065 28611 net.cpp:120] Setting up inception_4e/1x1
I0703 10:40:11.708019 28611 net.cpp:127] Top shape: 30 256 14 14 (1505280)
I0703 10:40:11.708032 28611 layer_factory.hpp:74] Creating layer inception_4e/relu_1x1
I0703 10:40:11.708039 28611 net.cpp:90] Creating Layer inception_4e/relu_1x1
I0703 10:40:11.708045 28611 net.cpp:410] inception_4e/relu_1x1 <- inception_4e/1x1
I0703 10:40:11.708052 28611 net.cpp:357] inception_4e/relu_1x1 -> inception_4e/1x1 (in-place)
I0703 10:40:11.708060 28611 net.cpp:120] Setting up inception_4e/relu_1x1
I0703 10:40:11.708170 28611 net.cpp:127] Top shape: 30 256 14 14 (1505280)
I0703 10:40:11.708180 28611 layer_factory.hpp:74] Creating layer inception_4e/3x3_reduce
I0703 10:40:11.708189 28611 net.cpp:90] Creating Layer inception_4e/3x3_reduce
I0703 10:40:11.708194 28611 net.cpp:410] inception_4e/3x3_reduce <- inception_4d/output_inception_4d/output_0_split_2
I0703 10:40:11.708201 28611 net.cpp:368] inception_4e/3x3_reduce -> inception_4e/3x3_reduce
I0703 10:40:11.708209 28611 net.cpp:120] Setting up inception_4e/3x3_reduce
I0703 10:40:11.708834 28611 net.cpp:127] Top shape: 30 160 14 14 (940800)
I0703 10:40:11.708847 28611 layer_factory.hpp:74] Creating layer inception_4e/relu_3x3_reduce
I0703 10:40:11.708855 28611 net.cpp:90] Creating Layer inception_4e/relu_3x3_reduce
I0703 10:40:11.708861 28611 net.cpp:410] inception_4e/relu_3x3_reduce <- inception_4e/3x3_reduce
I0703 10:40:11.708868 28611 net.cpp:357] inception_4e/relu_3x3_reduce -> inception_4e/3x3_reduce (in-place)
I0703 10:40:11.708874 28611 net.cpp:120] Setting up inception_4e/relu_3x3_reduce
I0703 10:40:11.708917 28611 net.cpp:127] Top shape: 30 160 14 14 (940800)
I0703 10:40:11.708925 28611 layer_factory.hpp:74] Creating layer inception_4e/3x3
I0703 10:40:11.708932 28611 net.cpp:90] Creating Layer inception_4e/3x3
I0703 10:40:11.708938 28611 net.cpp:410] inception_4e/3x3 <- inception_4e/3x3_reduce
I0703 10:40:11.708945 28611 net.cpp:368] inception_4e/3x3 -> inception_4e/3x3
I0703 10:40:11.708952 28611 net.cpp:120] Setting up inception_4e/3x3
I0703 10:40:11.711448 28611 net.cpp:127] Top shape: 30 320 14 14 (1881600)
I0703 10:40:11.711462 28611 layer_factory.hpp:74] Creating layer inception_4e/relu_3x3
I0703 10:40:11.711470 28611 net.cpp:90] Creating Layer inception_4e/relu_3x3
I0703 10:40:11.711477 28611 net.cpp:410] inception_4e/relu_3x3 <- inception_4e/3x3
I0703 10:40:11.711483 28611 net.cpp:357] inception_4e/relu_3x3 -> inception_4e/3x3 (in-place)
I0703 10:40:11.711489 28611 net.cpp:120] Setting up inception_4e/relu_3x3
I0703 10:40:11.711530 28611 net.cpp:127] Top shape: 30 320 14 14 (1881600)
I0703 10:40:11.711537 28611 layer_factory.hpp:74] Creating layer inception_4e/5x5_reduce
I0703 10:40:11.711546 28611 net.cpp:90] Creating Layer inception_4e/5x5_reduce
I0703 10:40:11.711552 28611 net.cpp:410] inception_4e/5x5_reduce <- inception_4d/output_inception_4d/output_0_split_3
I0703 10:40:11.711560 28611 net.cpp:368] inception_4e/5x5_reduce -> inception_4e/5x5_reduce
I0703 10:40:11.711566 28611 net.cpp:120] Setting up inception_4e/5x5_reduce
I0703 10:40:11.711858 28611 net.cpp:127] Top shape: 30 32 14 14 (188160)
I0703 10:40:11.711870 28611 layer_factory.hpp:74] Creating layer inception_4e/relu_5x5_reduce
I0703 10:40:11.711877 28611 net.cpp:90] Creating Layer inception_4e/relu_5x5_reduce
I0703 10:40:11.711884 28611 net.cpp:410] inception_4e/relu_5x5_reduce <- inception_4e/5x5_reduce
I0703 10:40:11.711889 28611 net.cpp:357] inception_4e/relu_5x5_reduce -> inception_4e/5x5_reduce (in-place)
I0703 10:40:11.711895 28611 net.cpp:120] Setting up inception_4e/relu_5x5_reduce
I0703 10:40:11.712016 28611 net.cpp:127] Top shape: 30 32 14 14 (188160)
I0703 10:40:11.712026 28611 layer_factory.hpp:74] Creating layer inception_4e/5x5
I0703 10:40:11.712045 28611 net.cpp:90] Creating Layer inception_4e/5x5
I0703 10:40:11.712052 28611 net.cpp:410] inception_4e/5x5 <- inception_4e/5x5_reduce
I0703 10:40:11.712059 28611 net.cpp:368] inception_4e/5x5 -> inception_4e/5x5
I0703 10:40:11.712067 28611 net.cpp:120] Setting up inception_4e/5x5
I0703 10:40:11.712827 28611 net.cpp:127] Top shape: 30 128 14 14 (752640)
I0703 10:40:11.712841 28611 layer_factory.hpp:74] Creating layer inception_4e/relu_5x5
I0703 10:40:11.712848 28611 net.cpp:90] Creating Layer inception_4e/relu_5x5
I0703 10:40:11.712853 28611 net.cpp:410] inception_4e/relu_5x5 <- inception_4e/5x5
I0703 10:40:11.712859 28611 net.cpp:357] inception_4e/relu_5x5 -> inception_4e/5x5 (in-place)
I0703 10:40:11.712867 28611 net.cpp:120] Setting up inception_4e/relu_5x5
I0703 10:40:11.712909 28611 net.cpp:127] Top shape: 30 128 14 14 (752640)
I0703 10:40:11.712918 28611 layer_factory.hpp:74] Creating layer inception_4e/pool
I0703 10:40:11.712924 28611 layer_factory.cpp:55] CUDNN does not support padding or multiple tops. Using Caffe's own pooling layer.
I0703 10:40:11.712930 28611 net.cpp:90] Creating Layer inception_4e/pool
I0703 10:40:11.712944 28611 net.cpp:410] inception_4e/pool <- inception_4d/output_inception_4d/output_0_split_4
I0703 10:40:11.712950 28611 net.cpp:368] inception_4e/pool -> inception_4e/pool
I0703 10:40:11.712966 28611 net.cpp:120] Setting up inception_4e/pool
I0703 10:40:11.712975 28611 net.cpp:127] Top shape: 30 528 14 14 (3104640)
I0703 10:40:11.712980 28611 layer_factory.hpp:74] Creating layer inception_4e/pool_proj
I0703 10:40:11.712988 28611 net.cpp:90] Creating Layer inception_4e/pool_proj
I0703 10:40:11.712993 28611 net.cpp:410] inception_4e/pool_proj <- inception_4e/pool
I0703 10:40:11.713001 28611 net.cpp:368] inception_4e/pool_proj -> inception_4e/pool_proj
I0703 10:40:11.713007 28611 net.cpp:120] Setting up inception_4e/pool_proj
I0703 10:40:11.713552 28611 net.cpp:127] Top shape: 30 128 14 14 (752640)
I0703 10:40:11.713564 28611 layer_factory.hpp:74] Creating layer inception_4e/relu_pool_proj
I0703 10:40:11.713572 28611 net.cpp:90] Creating Layer inception_4e/relu_pool_proj
I0703 10:40:11.713578 28611 net.cpp:410] inception_4e/relu_pool_proj <- inception_4e/pool_proj
I0703 10:40:11.713584 28611 net.cpp:357] inception_4e/relu_pool_proj -> inception_4e/pool_proj (in-place)
I0703 10:40:11.713590 28611 net.cpp:120] Setting up inception_4e/relu_pool_proj
I0703 10:40:11.713631 28611 net.cpp:127] Top shape: 30 128 14 14 (752640)
I0703 10:40:11.713639 28611 layer_factory.hpp:74] Creating layer inception_4e/output
I0703 10:40:11.713646 28611 net.cpp:90] Creating Layer inception_4e/output
I0703 10:40:11.713651 28611 net.cpp:410] inception_4e/output <- inception_4e/1x1
I0703 10:40:11.713656 28611 net.cpp:410] inception_4e/output <- inception_4e/3x3
I0703 10:40:11.713662 28611 net.cpp:410] inception_4e/output <- inception_4e/5x5
I0703 10:40:11.713667 28611 net.cpp:410] inception_4e/output <- inception_4e/pool_proj
I0703 10:40:11.713673 28611 net.cpp:368] inception_4e/output -> inception_4e/output
I0703 10:40:11.713680 28611 net.cpp:120] Setting up inception_4e/output
I0703 10:40:11.713687 28611 net.cpp:127] Top shape: 30 832 14 14 (4892160)
I0703 10:40:11.713692 28611 layer_factory.hpp:74] Creating layer pool4/3x3_s2
I0703 10:40:11.713701 28611 net.cpp:90] Creating Layer pool4/3x3_s2
I0703 10:40:11.713706 28611 net.cpp:410] pool4/3x3_s2 <- inception_4e/output
I0703 10:40:11.713711 28611 net.cpp:368] pool4/3x3_s2 -> pool4/3x3_s2
I0703 10:40:11.713717 28611 net.cpp:120] Setting up pool4/3x3_s2
I0703 10:40:11.713760 28611 net.cpp:127] Top shape: 30 832 7 7 (1223040)
I0703 10:40:11.713768 28611 layer_factory.hpp:74] Creating layer pool4/3x3_s2_pool4/3x3_s2_0_split
I0703 10:40:11.713775 28611 net.cpp:90] Creating Layer pool4/3x3_s2_pool4/3x3_s2_0_split
I0703 10:40:11.713780 28611 net.cpp:410] pool4/3x3_s2_pool4/3x3_s2_0_split <- pool4/3x3_s2
I0703 10:40:11.713794 28611 net.cpp:368] pool4/3x3_s2_pool4/3x3_s2_0_split -> pool4/3x3_s2_pool4/3x3_s2_0_split_0
I0703 10:40:11.713803 28611 net.cpp:368] pool4/3x3_s2_pool4/3x3_s2_0_split -> pool4/3x3_s2_pool4/3x3_s2_0_split_1
I0703 10:40:11.713809 28611 net.cpp:368] pool4/3x3_s2_pool4/3x3_s2_0_split -> pool4/3x3_s2_pool4/3x3_s2_0_split_2
I0703 10:40:11.713815 28611 net.cpp:368] pool4/3x3_s2_pool4/3x3_s2_0_split -> pool4/3x3_s2_pool4/3x3_s2_0_split_3
I0703 10:40:11.713821 28611 net.cpp:120] Setting up pool4/3x3_s2_pool4/3x3_s2_0_split
I0703 10:40:11.713829 28611 net.cpp:127] Top shape: 30 832 7 7 (1223040)
I0703 10:40:11.713834 28611 net.cpp:127] Top shape: 30 832 7 7 (1223040)
I0703 10:40:11.713839 28611 net.cpp:127] Top shape: 30 832 7 7 (1223040)
I0703 10:40:11.713842 28611 net.cpp:127] Top shape: 30 832 7 7 (1223040)
I0703 10:40:11.713847 28611 layer_factory.hpp:74] Creating layer inception_5a/1x1
I0703 10:40:11.713855 28611 net.cpp:90] Creating Layer inception_5a/1x1
I0703 10:40:11.713860 28611 net.cpp:410] inception_5a/1x1 <- pool4/3x3_s2_pool4/3x3_s2_0_split_0
I0703 10:40:11.713867 28611 net.cpp:368] inception_5a/1x1 -> inception_5a/1x1
I0703 10:40:11.713874 28611 net.cpp:120] Setting up inception_5a/1x1
I0703 10:40:11.715112 28611 net.cpp:127] Top shape: 30 256 7 7 (376320)
I0703 10:40:11.715124 28611 layer_factory.hpp:74] Creating layer inception_5a/relu_1x1
I0703 10:40:11.715131 28611 net.cpp:90] Creating Layer inception_5a/relu_1x1
I0703 10:40:11.715137 28611 net.cpp:410] inception_5a/relu_1x1 <- inception_5a/1x1
I0703 10:40:11.715143 28611 net.cpp:357] inception_5a/relu_1x1 -> inception_5a/1x1 (in-place)
I0703 10:40:11.715149 28611 net.cpp:120] Setting up inception_5a/relu_1x1
I0703 10:40:11.715260 28611 net.cpp:127] Top shape: 30 256 7 7 (376320)
I0703 10:40:11.715268 28611 layer_factory.hpp:74] Creating layer inception_5a/3x3_reduce
I0703 10:40:11.715276 28611 net.cpp:90] Creating Layer inception_5a/3x3_reduce
I0703 10:40:11.715281 28611 net.cpp:410] inception_5a/3x3_reduce <- pool4/3x3_s2_pool4/3x3_s2_0_split_1
I0703 10:40:11.715288 28611 net.cpp:368] inception_5a/3x3_reduce -> inception_5a/3x3_reduce
I0703 10:40:11.715296 28611 net.cpp:120] Setting up inception_5a/3x3_reduce
I0703 10:40:11.716148 28611 net.cpp:127] Top shape: 30 160 7 7 (235200)
I0703 10:40:11.716161 28611 layer_factory.hpp:74] Creating layer inception_5a/relu_3x3_reduce
I0703 10:40:11.716166 28611 net.cpp:90] Creating Layer inception_5a/relu_3x3_reduce
I0703 10:40:11.716172 28611 net.cpp:410] inception_5a/relu_3x3_reduce <- inception_5a/3x3_reduce
I0703 10:40:11.716178 28611 net.cpp:357] inception_5a/relu_3x3_reduce -> inception_5a/3x3_reduce (in-place)
I0703 10:40:11.716184 28611 net.cpp:120] Setting up inception_5a/relu_3x3_reduce
I0703 10:40:11.716226 28611 net.cpp:127] Top shape: 30 160 7 7 (235200)
I0703 10:40:11.716233 28611 layer_factory.hpp:74] Creating layer inception_5a/3x3
I0703 10:40:11.716241 28611 net.cpp:90] Creating Layer inception_5a/3x3
I0703 10:40:11.716246 28611 net.cpp:410] inception_5a/3x3 <- inception_5a/3x3_reduce
I0703 10:40:11.716253 28611 net.cpp:368] inception_5a/3x3 -> inception_5a/3x3
I0703 10:40:11.716260 28611 net.cpp:120] Setting up inception_5a/3x3
I0703 10:40:11.718694 28611 net.cpp:127] Top shape: 30 320 7 7 (470400)
I0703 10:40:11.718706 28611 layer_factory.hpp:74] Creating layer inception_5a/relu_3x3
I0703 10:40:11.718713 28611 net.cpp:90] Creating Layer inception_5a/relu_3x3
I0703 10:40:11.718719 28611 net.cpp:410] inception_5a/relu_3x3 <- inception_5a/3x3
I0703 10:40:11.718725 28611 net.cpp:357] inception_5a/relu_3x3 -> inception_5a/3x3 (in-place)
I0703 10:40:11.718731 28611 net.cpp:120] Setting up inception_5a/relu_3x3
I0703 10:40:11.718772 28611 net.cpp:127] Top shape: 30 320 7 7 (470400)
I0703 10:40:11.718778 28611 layer_factory.hpp:74] Creating layer inception_5a/5x5_reduce
I0703 10:40:11.718786 28611 net.cpp:90] Creating Layer inception_5a/5x5_reduce
I0703 10:40:11.718791 28611 net.cpp:410] inception_5a/5x5_reduce <- pool4/3x3_s2_pool4/3x3_s2_0_split_2
I0703 10:40:11.718807 28611 net.cpp:368] inception_5a/5x5_reduce -> inception_5a/5x5_reduce
I0703 10:40:11.718816 28611 net.cpp:120] Setting up inception_5a/5x5_reduce
I0703 10:40:11.719151 28611 net.cpp:127] Top shape: 30 32 7 7 (47040)
I0703 10:40:11.719163 28611 layer_factory.hpp:74] Creating layer inception_5a/relu_5x5_reduce
I0703 10:40:11.719169 28611 net.cpp:90] Creating Layer inception_5a/relu_5x5_reduce
I0703 10:40:11.719176 28611 net.cpp:410] inception_5a/relu_5x5_reduce <- inception_5a/5x5_reduce
I0703 10:40:11.719182 28611 net.cpp:357] inception_5a/relu_5x5_reduce -> inception_5a/5x5_reduce (in-place)
I0703 10:40:11.719188 28611 net.cpp:120] Setting up inception_5a/relu_5x5_reduce
I0703 10:40:11.719228 28611 net.cpp:127] Top shape: 30 32 7 7 (47040)
I0703 10:40:11.719234 28611 layer_factory.hpp:74] Creating layer inception_5a/5x5
I0703 10:40:11.719243 28611 net.cpp:90] Creating Layer inception_5a/5x5
I0703 10:40:11.719247 28611 net.cpp:410] inception_5a/5x5 <- inception_5a/5x5_reduce
I0703 10:40:11.719256 28611 net.cpp:368] inception_5a/5x5 -> inception_5a/5x5
I0703 10:40:11.719262 28611 net.cpp:120] Setting up inception_5a/5x5
I0703 10:40:11.719990 28611 net.cpp:127] Top shape: 30 128 7 7 (188160)
I0703 10:40:11.720001 28611 layer_factory.hpp:74] Creating layer inception_5a/relu_5x5
I0703 10:40:11.720007 28611 net.cpp:90] Creating Layer inception_5a/relu_5x5
I0703 10:40:11.720012 28611 net.cpp:410] inception_5a/relu_5x5 <- inception_5a/5x5
I0703 10:40:11.720018 28611 net.cpp:357] inception_5a/relu_5x5 -> inception_5a/5x5 (in-place)
I0703 10:40:11.720026 28611 net.cpp:120] Setting up inception_5a/relu_5x5
I0703 10:40:11.720131 28611 net.cpp:127] Top shape: 30 128 7 7 (188160)
I0703 10:40:11.720139 28611 layer_factory.hpp:74] Creating layer inception_5a/pool
I0703 10:40:11.720145 28611 layer_factory.cpp:55] CUDNN does not support padding or multiple tops. Using Caffe's own pooling layer.
I0703 10:40:11.720150 28611 net.cpp:90] Creating Layer inception_5a/pool
I0703 10:40:11.720155 28611 net.cpp:410] inception_5a/pool <- pool4/3x3_s2_pool4/3x3_s2_0_split_3
I0703 10:40:11.720165 28611 net.cpp:368] inception_5a/pool -> inception_5a/pool
I0703 10:40:11.720171 28611 net.cpp:120] Setting up inception_5a/pool
I0703 10:40:11.720178 28611 net.cpp:127] Top shape: 30 832 7 7 (1223040)
I0703 10:40:11.720183 28611 layer_factory.hpp:74] Creating layer inception_5a/pool_proj
I0703 10:40:11.720191 28611 net.cpp:90] Creating Layer inception_5a/pool_proj
I0703 10:40:11.720196 28611 net.cpp:410] inception_5a/pool_proj <- inception_5a/pool
I0703 10:40:11.720202 28611 net.cpp:368] inception_5a/pool_proj -> inception_5a/pool_proj
I0703 10:40:11.720208 28611 net.cpp:120] Setting up inception_5a/pool_proj
I0703 10:40:11.720928 28611 net.cpp:127] Top shape: 30 128 7 7 (188160)
I0703 10:40:11.720939 28611 layer_factory.hpp:74] Creating layer inception_5a/relu_pool_proj
I0703 10:40:11.720947 28611 net.cpp:90] Creating Layer inception_5a/relu_pool_proj
I0703 10:40:11.720952 28611 net.cpp:410] inception_5a/relu_pool_proj <- inception_5a/pool_proj
I0703 10:40:11.720958 28611 net.cpp:357] inception_5a/relu_pool_proj -> inception_5a/pool_proj (in-place)
I0703 10:40:11.720964 28611 net.cpp:120] Setting up inception_5a/relu_pool_proj
I0703 10:40:11.721005 28611 net.cpp:127] Top shape: 30 128 7 7 (188160)
I0703 10:40:11.721011 28611 layer_factory.hpp:74] Creating layer inception_5a/output
I0703 10:40:11.721019 28611 net.cpp:90] Creating Layer inception_5a/output
I0703 10:40:11.721022 28611 net.cpp:410] inception_5a/output <- inception_5a/1x1
I0703 10:40:11.721029 28611 net.cpp:410] inception_5a/output <- inception_5a/3x3
I0703 10:40:11.721034 28611 net.cpp:410] inception_5a/output <- inception_5a/5x5
I0703 10:40:11.721038 28611 net.cpp:410] inception_5a/output <- inception_5a/pool_proj
I0703 10:40:11.721045 28611 net.cpp:368] inception_5a/output -> inception_5a/output
I0703 10:40:11.721050 28611 net.cpp:120] Setting up inception_5a/output
I0703 10:40:11.721057 28611 net.cpp:127] Top shape: 30 832 7 7 (1223040)
I0703 10:40:11.721062 28611 layer_factory.hpp:74] Creating layer inception_5a/output_inception_5a/output_0_split
I0703 10:40:11.721076 28611 net.cpp:90] Creating Layer inception_5a/output_inception_5a/output_0_split
I0703 10:40:11.721081 28611 net.cpp:410] inception_5a/output_inception_5a/output_0_split <- inception_5a/output
I0703 10:40:11.721087 28611 net.cpp:368] inception_5a/output_inception_5a/output_0_split -> inception_5a/output_inception_5a/output_0_split_0
I0703 10:40:11.721094 28611 net.cpp:368] inception_5a/output_inception_5a/output_0_split -> inception_5a/output_inception_5a/output_0_split_1
I0703 10:40:11.721101 28611 net.cpp:368] inception_5a/output_inception_5a/output_0_split -> inception_5a/output_inception_5a/output_0_split_2
I0703 10:40:11.721108 28611 net.cpp:368] inception_5a/output_inception_5a/output_0_split -> inception_5a/output_inception_5a/output_0_split_3
I0703 10:40:11.721114 28611 net.cpp:120] Setting up inception_5a/output_inception_5a/output_0_split
I0703 10:40:11.721120 28611 net.cpp:127] Top shape: 30 832 7 7 (1223040)
I0703 10:40:11.721125 28611 net.cpp:127] Top shape: 30 832 7 7 (1223040)
I0703 10:40:11.721130 28611 net.cpp:127] Top shape: 30 832 7 7 (1223040)
I0703 10:40:11.721135 28611 net.cpp:127] Top shape: 30 832 7 7 (1223040)
I0703 10:40:11.721139 28611 layer_factory.hpp:74] Creating layer inception_5b/1x1
I0703 10:40:11.721148 28611 net.cpp:90] Creating Layer inception_5b/1x1
I0703 10:40:11.721153 28611 net.cpp:410] inception_5b/1x1 <- inception_5a/output_inception_5a/output_0_split_0
I0703 10:40:11.721158 28611 net.cpp:368] inception_5b/1x1 -> inception_5b/1x1
I0703 10:40:11.721164 28611 net.cpp:120] Setting up inception_5b/1x1
I0703 10:40:11.722918 28611 net.cpp:127] Top shape: 30 384 7 7 (564480)
I0703 10:40:11.722930 28611 layer_factory.hpp:74] Creating layer inception_5b/relu_1x1
I0703 10:40:11.722937 28611 net.cpp:90] Creating Layer inception_5b/relu_1x1
I0703 10:40:11.722944 28611 net.cpp:410] inception_5b/relu_1x1 <- inception_5b/1x1
I0703 10:40:11.722949 28611 net.cpp:357] inception_5b/relu_1x1 -> inception_5b/1x1 (in-place)
I0703 10:40:11.722955 28611 net.cpp:120] Setting up inception_5b/relu_1x1
I0703 10:40:11.722995 28611 net.cpp:127] Top shape: 30 384 7 7 (564480)
I0703 10:40:11.723001 28611 layer_factory.hpp:74] Creating layer inception_5b/3x3_reduce
I0703 10:40:11.723008 28611 net.cpp:90] Creating Layer inception_5b/3x3_reduce
I0703 10:40:11.723014 28611 net.cpp:410] inception_5b/3x3_reduce <- inception_5a/output_inception_5a/output_0_split_1
I0703 10:40:11.723021 28611 net.cpp:368] inception_5b/3x3_reduce -> inception_5b/3x3_reduce
I0703 10:40:11.723027 28611 net.cpp:120] Setting up inception_5b/3x3_reduce
I0703 10:40:11.724006 28611 net.cpp:127] Top shape: 30 192 7 7 (282240)
I0703 10:40:11.724019 28611 layer_factory.hpp:74] Creating layer inception_5b/relu_3x3_reduce
I0703 10:40:11.724025 28611 net.cpp:90] Creating Layer inception_5b/relu_3x3_reduce
I0703 10:40:11.724030 28611 net.cpp:410] inception_5b/relu_3x3_reduce <- inception_5b/3x3_reduce
I0703 10:40:11.724036 28611 net.cpp:357] inception_5b/relu_3x3_reduce -> inception_5b/3x3_reduce (in-place)
I0703 10:40:11.724043 28611 net.cpp:120] Setting up inception_5b/relu_3x3_reduce
I0703 10:40:11.724083 28611 net.cpp:127] Top shape: 30 192 7 7 (282240)
I0703 10:40:11.724089 28611 layer_factory.hpp:74] Creating layer inception_5b/3x3
I0703 10:40:11.724097 28611 net.cpp:90] Creating Layer inception_5b/3x3
I0703 10:40:11.724102 28611 net.cpp:410] inception_5b/3x3 <- inception_5b/3x3_reduce
I0703 10:40:11.724109 28611 net.cpp:368] inception_5b/3x3 -> inception_5b/3x3
I0703 10:40:11.724125 28611 net.cpp:120] Setting up inception_5b/3x3
I0703 10:40:11.727546 28611 net.cpp:127] Top shape: 30 384 7 7 (564480)
I0703 10:40:11.727560 28611 layer_factory.hpp:74] Creating layer inception_5b/relu_3x3
I0703 10:40:11.727566 28611 net.cpp:90] Creating Layer inception_5b/relu_3x3
I0703 10:40:11.727571 28611 net.cpp:410] inception_5b/relu_3x3 <- inception_5b/3x3
I0703 10:40:11.727577 28611 net.cpp:357] inception_5b/relu_3x3 -> inception_5b/3x3 (in-place)
I0703 10:40:11.727594 28611 net.cpp:120] Setting up inception_5b/relu_3x3
I0703 10:40:11.727707 28611 net.cpp:127] Top shape: 30 384 7 7 (564480)
I0703 10:40:11.727715 28611 layer_factory.hpp:74] Creating layer inception_5b/5x5_reduce
I0703 10:40:11.727723 28611 net.cpp:90] Creating Layer inception_5b/5x5_reduce
I0703 10:40:11.727728 28611 net.cpp:410] inception_5b/5x5_reduce <- inception_5a/output_inception_5a/output_0_split_2
I0703 10:40:11.727735 28611 net.cpp:368] inception_5b/5x5_reduce -> inception_5b/5x5_reduce
I0703 10:40:11.727743 28611 net.cpp:120] Setting up inception_5b/5x5_reduce
I0703 10:40:11.728143 28611 net.cpp:127] Top shape: 30 48 7 7 (70560)
I0703 10:40:11.728155 28611 layer_factory.hpp:74] Creating layer inception_5b/relu_5x5_reduce
I0703 10:40:11.728162 28611 net.cpp:90] Creating Layer inception_5b/relu_5x5_reduce
I0703 10:40:11.728168 28611 net.cpp:410] inception_5b/relu_5x5_reduce <- inception_5b/5x5_reduce
I0703 10:40:11.728174 28611 net.cpp:357] inception_5b/relu_5x5_reduce -> inception_5b/5x5_reduce (in-place)
I0703 10:40:11.728180 28611 net.cpp:120] Setting up inception_5b/relu_5x5_reduce
I0703 10:40:11.728221 28611 net.cpp:127] Top shape: 30 48 7 7 (70560)
I0703 10:40:11.728227 28611 layer_factory.hpp:74] Creating layer inception_5b/5x5
I0703 10:40:11.728236 28611 net.cpp:90] Creating Layer inception_5b/5x5
I0703 10:40:11.728242 28611 net.cpp:410] inception_5b/5x5 <- inception_5b/5x5_reduce
I0703 10:40:11.728248 28611 net.cpp:368] inception_5b/5x5 -> inception_5b/5x5
I0703 10:40:11.728255 28611 net.cpp:120] Setting up inception_5b/5x5
I0703 10:40:11.729245 28611 net.cpp:127] Top shape: 30 128 7 7 (188160)
I0703 10:40:11.729257 28611 layer_factory.hpp:74] Creating layer inception_5b/relu_5x5
I0703 10:40:11.729264 28611 net.cpp:90] Creating Layer inception_5b/relu_5x5
I0703 10:40:11.729270 28611 net.cpp:410] inception_5b/relu_5x5 <- inception_5b/5x5
I0703 10:40:11.729277 28611 net.cpp:357] inception_5b/relu_5x5 -> inception_5b/5x5 (in-place)
I0703 10:40:11.729284 28611 net.cpp:120] Setting up inception_5b/relu_5x5
I0703 10:40:11.729326 28611 net.cpp:127] Top shape: 30 128 7 7 (188160)
I0703 10:40:11.729333 28611 layer_factory.hpp:74] Creating layer inception_5b/pool
I0703 10:40:11.729339 28611 layer_factory.cpp:55] CUDNN does not support padding or multiple tops. Using Caffe's own pooling layer.
I0703 10:40:11.729346 28611 net.cpp:90] Creating Layer inception_5b/pool
I0703 10:40:11.729351 28611 net.cpp:410] inception_5b/pool <- inception_5a/output_inception_5a/output_0_split_3
I0703 10:40:11.729357 28611 net.cpp:368] inception_5b/pool -> inception_5b/pool
I0703 10:40:11.729364 28611 net.cpp:120] Setting up inception_5b/pool
I0703 10:40:11.729373 28611 net.cpp:127] Top shape: 30 832 7 7 (1223040)
I0703 10:40:11.729378 28611 layer_factory.hpp:74] Creating layer inception_5b/pool_proj
I0703 10:40:11.729385 28611 net.cpp:90] Creating Layer inception_5b/pool_proj
I0703 10:40:11.729390 28611 net.cpp:410] inception_5b/pool_proj <- inception_5b/pool
I0703 10:40:11.729396 28611 net.cpp:368] inception_5b/pool_proj -> inception_5b/pool_proj
I0703 10:40:11.729403 28611 net.cpp:120] Setting up inception_5b/pool_proj
I0703 10:40:11.730223 28611 net.cpp:127] Top shape: 30 128 7 7 (188160)
I0703 10:40:11.730237 28611 layer_factory.hpp:74] Creating layer inception_5b/relu_pool_proj
I0703 10:40:11.730244 28611 net.cpp:90] Creating Layer inception_5b/relu_pool_proj
I0703 10:40:11.730250 28611 net.cpp:410] inception_5b/relu_pool_proj <- inception_5b/pool_proj
I0703 10:40:11.730257 28611 net.cpp:357] inception_5b/relu_pool_proj -> inception_5b/pool_proj (in-place)
I0703 10:40:11.730264 28611 net.cpp:120] Setting up inception_5b/relu_pool_proj
I0703 10:40:11.730388 28611 net.cpp:127] Top shape: 30 128 7 7 (188160)
I0703 10:40:11.730408 28611 layer_factory.hpp:74] Creating layer inception_5b/output
I0703 10:40:11.730415 28611 net.cpp:90] Creating Layer inception_5b/output
I0703 10:40:11.730420 28611 net.cpp:410] inception_5b/output <- inception_5b/1x1
I0703 10:40:11.730427 28611 net.cpp:410] inception_5b/output <- inception_5b/3x3
I0703 10:40:11.730443 28611 net.cpp:410] inception_5b/output <- inception_5b/5x5
I0703 10:40:11.730458 28611 net.cpp:410] inception_5b/output <- inception_5b/pool_proj
I0703 10:40:11.730463 28611 net.cpp:368] inception_5b/output -> inception_5b/output
I0703 10:40:11.730469 28611 net.cpp:120] Setting up inception_5b/output
I0703 10:40:11.730478 28611 net.cpp:127] Top shape: 30 1024 7 7 (1505280)
I0703 10:40:11.730482 28611 layer_factory.hpp:74] Creating layer pool5/7x7_s1
I0703 10:40:11.730490 28611 net.cpp:90] Creating Layer pool5/7x7_s1
I0703 10:40:11.730495 28611 net.cpp:410] pool5/7x7_s1 <- inception_5b/output
I0703 10:40:11.730501 28611 net.cpp:368] pool5/7x7_s1 -> pool5/7x7_s1
I0703 10:40:11.730507 28611 net.cpp:120] Setting up pool5/7x7_s1
I0703 10:40:11.730571 28611 net.cpp:127] Top shape: 30 1024 1 1 (30720)
I0703 10:40:11.730578 28611 layer_factory.hpp:74] Creating layer pool5/drop_7x7_s1
I0703 10:40:11.730584 28611 net.cpp:90] Creating Layer pool5/drop_7x7_s1
I0703 10:40:11.730589 28611 net.cpp:410] pool5/drop_7x7_s1 <- pool5/7x7_s1
I0703 10:40:11.730605 28611 net.cpp:357] pool5/drop_7x7_s1 -> pool5/7x7_s1 (in-place)
I0703 10:40:11.730612 28611 net.cpp:120] Setting up pool5/drop_7x7_s1
I0703 10:40:11.730619 28611 net.cpp:127] Top shape: 30 1024 1 1 (30720)
I0703 10:40:11.730623 28611 layer_factory.hpp:74] Creating layer stanford_cars_loss3/classifier
I0703 10:40:11.730633 28611 net.cpp:90] Creating Layer stanford_cars_loss3/classifier
I0703 10:40:11.730638 28611 net.cpp:410] stanford_cars_loss3/classifier <- pool5/7x7_s1
I0703 10:40:11.730643 28611 net.cpp:368] stanford_cars_loss3/classifier -> stanford_cars_loss3/classifier
I0703 10:40:11.730650 28611 net.cpp:120] Setting up stanford_cars_loss3/classifier
I0703 10:40:11.731756 28611 net.cpp:127] Top shape: 30 196 (5880)
I0703 10:40:11.731768 28611 layer_factory.hpp:74] Creating layer loss3/loss3
I0703 10:40:11.731775 28611 net.cpp:90] Creating Layer loss3/loss3
I0703 10:40:11.731781 28611 net.cpp:410] loss3/loss3 <- stanford_cars_loss3/classifier
I0703 10:40:11.731786 28611 net.cpp:410] loss3/loss3 <- label_data_1_split_2
I0703 10:40:11.731793 28611 net.cpp:368] loss3/loss3 -> loss3/loss3
I0703 10:40:11.731801 28611 net.cpp:120] Setting up loss3/loss3
…
I0703 10:40:11.735795 28611 net.cpp:287] The NetState phase (1) differed from the phase (0) specified by a rule in layer data
I0703 10:40:11.736465 28611 net.cpp:42] Initializing net from parameters: 
name: "GoogleNet"
state {
  phase: TEST
}
layer {
  name: "data"
  type: "Data"
  top: "data"
  top: "label"
  include {
    phase: TEST
  }
  transform_param {
    mirror: false
    crop_size: 224
    mean_value: 104
    mean_value: 117
    mean_value: 123
  }
  data_param {
    source: "examples/stanford_cars/stanford_cars_val_lmdb"
    batch_size: 10
    backend: LMDB
  }
}
layer {
  name: "conv1/7x7_s2"
  type: "Convolution"
  bottom: "data"
  top: "conv1/7x7_s2"
  param {
    lr_mult: 1
    decay_mult: 1
  }
  param {
    lr_mult: 2
    decay_mult: 0
  }
  convolution_param {
    num_output: 64
    pad: 3
    kernel_size: 7
    stride: 2
    weight_filler {
      type: "xavier"
      std: 0.1
    }
    bias_filler {
      type: "constant"
      value: 0.2
    }
  }
}
layer {
  name: "conv1/relu_7x7"
  type: "ReLU"
  bottom: "conv1/7x7_s2"
  top: "conv1/7x7_s2"
}
layer {
  name: "pool1/3x3_s2"
  type: "Pooling"
  bottom: "conv1/7x7_s2"
  top: "pool1/3x3_s2"
  pooling_param {
    pool: MAX
    kernel_size: 3
    stride: 2
  }
}
layer {
  name: "pool1/norm1"
  type: "LRN"
  bottom: "pool1/3x3_s2"
  top: "pool1/norm1"
  lrn_param {
    local_size: 5
    alpha: 0.0001
    beta: 0.75
  }
}
layer {
  name: "conv2/3x3_reduce"
  type: "Convolution"
  bottom: "pool1/norm1"
  top: "conv2/3x3_reduce"
  param {
    lr_mult: 1
    decay_mult: 1
  }
  param {
    lr_mult: 2
    decay_mult: 0
  }
  convolution_param {
    num_output: 64
    kernel_size: 1
    weight_filler {
      type: "xavier"
      std: 0.1
    }
    bias_filler {
      type: "constant"
      value: 0.2
    }
  }
}
layer {
  name: "conv2/relu_3x3_reduce"
  type: "ReLU"
  bottom: "conv2/3x3_reduce"
  top: "conv2/3x3_reduce"
}
layer {
  name: "conv2/3x3"
  type: "Convolution"
  bottom: "conv2/3x3_reduce"
  top: "conv2/3x3"
  param {
    lr_mult: 1
    decay_mult: 1
  }
  param {
    lr_mult: 2
    decay_mult: 0
  }
  convolution_param {
    num_output: 192
    pad: 1
    kernel_size: 3
    weight_filler {
      type: "xavier"
      std: 0.03
    }
    bias_filler {
      type: "constant"
      value: 0.2
    }
  }
}
layer {
  name: "conv2/relu_3x3"
  type: "ReLU"
  bottom: "conv2/3x3"
  top: "conv2/3x3"
}
layer {
  name: "conv2/norm2"
  type: "LRN"
  bottom: "conv2/3x3"
  top: "conv2/norm2"
  lrn_param {
    local_size: 5
    alpha: 0.0001
    beta: 0.75
  }
}
layer {
  name: "pool2/3x3_s2"
  type: "Pooling"
  bottom: "conv2/norm2"
  top: "pool2/3x3_s2"
  pooling_param {
    pool: MAX
    kernel_size: 3
    stride: 2
  }
}
layer {
  name: "inception_3a/1x1"
  type: "Convolution"
  bottom: "pool2/3x3_s2"
  top: "inception_3a/1x1"
  param {
    lr_mult: 1
    decay_mult: 1
  }
  param {
    lr_mult: 2
    decay_mult: 0
  }
  convolution_param {
    num_output: 64
    kernel_size: 1
    weight_filler {
      type: "xavier"
      std: 0.03
    }
    bias_filler {
      type: "constant"
      value: 0.2
    }
  }
}
layer {
  name: "inception_3a/relu_1x1"
  type: "ReLU"
  bottom: "inception_3a/1x1"
  top: "inception_3a/1x1"
}
layer {
  name: "inception_3a/3x3_reduce"
  type: "Convolution"
  bottom: "pool2/3x3_s2"
  top: "inception_3a/3x3_reduce"
  param {
    lr_mult: 1
    decay_mult: 1
  }
  param {
    lr_mult: 2
    decay_mult: 0
  }
  convolution_param {
    num_output: 96
    kernel_size: 1
    weight_filler {
      type: "xavier"
      std: 0.09
    }
    bias_filler {
      type: "constant"
      value: 0.2
    }
  }
}
layer {
  name: "inception_3a/relu_3x3_reduce"
  type: "ReLU"
  bottom: "inception_3a/3x3_reduce"
  top: "inception_3a/3x3_reduce"
}
layer {
  name: "inception_3a/3x3"
  type: "Convolution"
  bottom: "inception_3a/3x3_reduce"
  top: "inception_3a/3x3"
  param {
    lr_mult: 1
    decay_mult: 1
  }
  param {
    lr_mult: 2
    decay_mult: 0
  }
  convolution_param {
    num_output: 128
    pad: 1
    kernel_size: 3
    weight_filler {
      type: "xavier"
      std: 0.03
    }
    bias_filler {
      type: "constant"
      value: 0.2
    }
  }
}
layer {
  name: "inception_3a/relu_3x3"
  type: "ReLU"
  bottom: "inception_3a/3x3"
  top: "inception_3a/3x3"
}
layer {
  name: "inception_3a/5x5_reduce"
  type: "Convolution"
  bottom: "pool2/3x3_s2"
  top: "inception_3a/5x5_reduce"
  param {
    lr_mult: 1
    decay_mult: 1
  }
  param {
    lr_mult: 2
    decay_mult: 0
  }
  convolution_param {
    num_output: 16
    kernel_size: 1
    weight_filler {
      type: "xavier"
      std: 0.2
    }
    bias_filler {
      type: "constant"
      value: 0.2
    }
  }
}
layer {
  name: "inception_3a/relu_5x5_reduce"
  type: "ReLU"
  bottom: "inception_3a/5x5_reduce"
  top: "inception_3a/5x5_reduce"
}
layer {
  name: "inception_3a/5x5"
  type: "Convolution"
  bottom: "inception_3a/5x5_reduce"
  top: "inception_3a/5x5"
  param {
    lr_mult: 1
    decay_mult: 1
  }
  param {
    lr_mult: 2
    decay_mult: 0
  }
  convolution_param {
    num_output: 32
    pad: 2
    kernel_size: 5
    weight_filler {
      type: "xavier"
      std: 0.03
    }
    bias_filler {
      type: "constant"
      value: 0.2
    }
  }
}
layer {
  name: "inception_3a/relu_5x5"
  type: "ReLU"
  bottom: "inception_3a/5x5"
  top: "inception_3a/5x5"
}
layer {
  name: "inception_3a/pool"
  type: "Pooling"
  bottom: "pool2/3x3_s2"
  top: "inception_3a/pool"
  pooling_param {
    pool: MAX
    kernel_size: 3
    stride: 1
    pad: 1
  }
}
layer {
  name: "inception_3a/pool_proj"
  type: "Convolution"
  bottom: "inception_3a/pool"
  top: "inception_3a/pool_proj"
  param {
    lr_mult: 1
    decay_mult: 1
  }
  param {
    lr_mult: 2
    decay_mult: 0
  }
  convolution_param {
    num_output: 32
    kernel_size: 1
    weight_filler {
      type: "xavier"
      std: 0.1
    }
    bias_filler {
      type: "constant"
      value: 0.2
    }
  }
}
layer {
  name: "inception_3a/relu_pool_proj"
  type: "ReLU"
  bottom: "inception_3a/pool_proj"
  top: "inception_3a/pool_proj"
}
layer {
  name: "inception_3a/output"
  type: "Concat"
  bottom: "inception_3a/1x1"
  bottom: "inception_3a/3x3"
  bottom: "inception_3a/5x5"
  bottom: "inception_3a/pool_proj"
  top: "inception_3a/output"
}
layer {
  name: "inception_3b/1x1"
  type: "Convolution"
  bottom: "inception_3a/output"
  top: "inception_3b/1x1"
  param {
    lr_mult: 1
    decay_mult: 1
  }
  param {
    lr_mult: 2
    decay_mult: 0
  }
  convolution_param {
    num_output: 128
    kernel_size: 1
    weight_filler {
      type: "xavier"
      std: 0.03
    }
    bias_filler {
      type: "constant"
      value: 0.2
    }
  }
}
layer {
  name: "inception_3b/relu_1x1"
  type: "ReLU"
  bottom: "inception_3b/1x1"
  top: "inception_3b/1x1"
}
layer {
  name: "inception_3b/3x3_reduce"
  type: "Convolution"
  bottom: "inception_3a/output"
  top: "inception_3b/3x3_reduce"
  param {
    lr_mult: 1
    decay_mult: 1
  }
  param {
    lr_mult: 2
    decay_mult: 0
  }
  convolution_param {
    num_output: 128
    kernel_size: 1
    weight_filler {
      type: "xavier"
      std: 0.09
    }
    bias_filler {
      type: "constant"
      value: 0.2
    }
  }
}
layer {
  name: "inception_3b/relu_3x3_reduce"
  type: "ReLU"
  bottom: "inception_3b/3x3_reduce"
  top: "inception_3b/3x3_reduce"
}
layer {
  name: "inception_3b/3x3"
  type: "Convolution"
  bottom: "inception_3b/3x3_reduce"
  top: "inception_3b/3x3"
  param {
    lr_mult: 1
    decay_mult: 1
  }
  param {
    lr_mult: 2
    decay_mult: 0
  }
  convolution_param {
    num_output: 192
    pad: 1
    kernel_size: 3
    weight_filler {
      type: "xavier"
      std: 0.03
    }
    bias_filler {
      type: "constant"
      value: 0.2
    }
  }
}
layer {
  name: "inception_3b/relu_3x3"
  type: "ReLU"
  bottom: "inception_3b/3x3"
  top: "inception_3b/3x3"
}
layer {
  name: "inception_3b/5x5_reduce"
  type: "Convolution"
  bottom: "inception_3a/output"
  top: "inception_3b/5x5_reduce"
  param {
    lr_mult: 1
    decay_mult: 1
  }
  param {
    lr_mult: 2
    decay_mult: 0
  }
  convolution_param {
    num_output: 32
    kernel_size: 1
    weight_filler {
      type: "xavier"
      std: 0.2
    }
    bias_filler {
      type: "constant"
      value: 0.2
    }
  }
}
layer {
  name: "inception_3b/relu_5x5_reduce"
  type: "ReLU"
  bottom: "inception_3b/5x5_reduce"
  top: "inception_3b/5x5_reduce"
}
layer {
  name: "inception_3b/5x5"
  type: "Convolution"
  bottom: "inception_3b/5x5_reduce"
  top: "inception_3b/5x5"
  param {
    lr_mult: 1
    decay_mult: 1
  }
  param {
    lr_mult: 2
    decay_mult: 0
  }
  convolution_param {
    num_output: 96
    pad: 2
    kernel_size: 5
    weight_filler {
      type: "xavier"
      std: 0.03
    }
    bias_filler {
      type: "constant"
      value: 0.2
    }
  }
}
layer {
  name: "inception_3b/relu_5x5"
  type: "ReLU"
  bottom: "inception_3b/5x5"
  top: "inception_3b/5x5"
}
layer {
  name: "inception_3b/pool"
  type: "Pooling"
  bottom: "inception_3a/output"
  top: "inception_3b/pool"
  pooling_param {
    pool: MAX
    kernel_size: 3
    stride: 1
    pad: 1
  }
}
layer {
  name: "inception_3b/pool_proj"
  type: "Convolution"
  bottom: "inception_3b/pool"
  top: "inception_3b/pool_proj"
  param {
    lr_mult: 1
    decay_mult: 1
  }
  param {
    lr_mult: 2
    decay_mult: 0
  }
  convolution_param {
    num_output: 64
    kernel_size: 1
    weight_filler {
      type: "xavier"
      std: 0.1
    }
    bias_filler {
      type: "constant"
      value: 0.2
    }
  }
}
layer {
  name: "inception_3b/relu_pool_proj"
  type: "ReLU"
  bottom: "inception_3b/pool_proj"
  top: "inception_3b/pool_proj"
}
layer {
  name: "inception_3b/output"
  type: "Concat"
  bottom: "inception_3b/1x1"
  bottom: "inception_3b/3x3"
  bottom: "inception_3b/5x5"
  bottom: "inception_3b/pool_proj"
  top: "inception_3b/output"
}
layer {
  name: "pool3/3x3_s2"
  type: "Pooling"
  bottom: "inception_3b/output"
  top: "pool3/3x3_s2"
  pooling_param {
    pool: MAX
    kernel_size: 3
    stride: 2
  }
}
layer {
  name: "inception_4a/1x1"
  type: "Convolution"
  bottom: "pool3/3x3_s2"
  top: "inception_4a/1x1"
  param {
    lr_mult: 1
    decay_mult: 1
  }
  param {
    lr_mult: 2
    decay_mult: 0
  }
  convolution_param {
    num_output: 192
    kernel_size: 1
    weight_filler {
      type: "xavier"
      std: 0.03
    }
    bias_filler {
      type: "constant"
      value: 0.2
    }
  }
}
layer {
  name: "inception_4a/relu_1x1"
  type: "ReLU"
  bottom: "inception_4a/1x1"
  top: "inception_4a/1x1"
}
layer {
  name: "inception_4a/3x3_reduce"
  type: "Convolution"
  bottom: "pool3/3x3_s2"
  top: "inception_4a/3x3_reduce"
  param {
    lr_mult: 1
    decay_mult: 1
  }
  param {
    lr_mult: 2
    decay_mult: 0
  }
  convolution_param {
    num_output: 96
    kernel_size: 1
    weight_filler {
      type: "xavier"
      std: 0.09
    }
    bias_filler {
      type: "constant"
      value: 0.2
    }
  }
}
layer {
  name: "inception_4a/relu_3x3_reduce"
  type: "ReLU"
  bottom: "inception_4a/3x3_reduce"
  top: "inception_4a/3x3_reduce"
}
layer {
  name: "inception_4a/3x3"
  type: "Convolution"
  bottom: "inception_4a/3x3_reduce"
  top: "inception_4a/3x3"
  param {
    lr_mult: 1
    decay_mult: 1
  }
  param {
    lr_mult: 2
    decay_mult: 0
  }
  convolution_param {
    num_output: 208
    pad: 1
    kernel_size: 3
    weight_filler {
      type: "xavier"
      std: 0.03
    }
    bias_filler {
      type: "constant"
      value: 0.2
    }
  }
}
layer {
  name: "inception_4a/relu_3x3"
  type: "ReLU"
  bottom: "inception_4a/3x3"
  top: "inception_4a/3x3"
}
layer {
  name: "inception_4a/5x5_reduce"
  type: "Convolution"
  bottom: "pool3/3x3_s2"
  top: "inception_4a/5x5_reduce"
  param {
    lr_mult: 1
    decay_mult: 1
  }
  param {
    lr_mult: 2
    decay_mult: 0
  }
  convolution_param {
    num_output: 16
    kernel_size: 1
    weight_filler {
      type: "xavier"
      std: 0.2
    }
    bias_filler {
      type: "constant"
      value: 0.2
    }
  }
}
layer {
  name: "inception_4a/relu_5x5_reduce"
  type: "ReLU"
  bottom: "inception_4a/5x5_reduce"
  top: "inception_4a/5x5_reduce"
}
layer {
  name: "inception_4a/5x5"
  type: "Convolution"
  bottom: "inception_4a/5x5_reduce"
  top: "inception_4a/5x5"
  param {
    lr_mult: 1
    decay_mult: 1
  }
  param {
    lr_mult: 2
    decay_mult: 0
  }
  convolution_param {
    num_output: 48
    pad: 2
    kernel_size: 5
    weight_filler {
      type: "xavier"
      std: 0.03
    }
    bias_filler {
      type: "constant"
      value: 0.2
    }
  }
}
layer {
  name: "inception_4a/relu_5x5"
  type: "ReLU"
  bottom: "inception_4a/5x5"
  top: "inception_4a/5x5"
}
layer {
  name: "inception_4a/pool"
  type: "Pooling"
  bottom: "pool3/3x3_s2"
  top: "inception_4a/pool"
  pooling_param {
    pool: MAX
    kernel_size: 3
    stride: 1
    pad: 1
  }
}
layer {
  name: "inception_4a/pool_proj"
  type: "Convolution"
  bottom: "inception_4a/pool"
  top: "inception_4a/pool_proj"
  param {
    lr_mult: 1
    decay_mult: 1
  }
  param {
    lr_mult: 2
    decay_mult: 0
  }
  convolution_param {
    num_output: 64
    kernel_size: 1
    weight_filler {
      type: "xavier"
      std: 0.1
    }
    bias_filler {
      type: "constant"
      value: 0.2
    }
  }
}
layer {
  name: "inception_4a/relu_pool_proj"
  type: "ReLU"
  bottom: "inception_4a/pool_proj"
  top: "inception_4a/pool_proj"
}
layer {
  name: "inception_4a/output"
  type: "Concat"
  bottom: "inception_4a/1x1"
  bottom: "inception_4a/3x3"
  bottom: "inception_4a/5x5"
  bottom: "inception_4a/pool_proj"
  top: "inception_4a/output"
}
layer {
  name: "loss1/ave_pool"
  type: "Pooling"
  bottom: "inception_4a/output"
  top: "loss1/ave_pool"
  pooling_param {
    pool: AVE
    kernel_size: 5
    stride: 3
  }
}
layer {
  name: "loss1/conv"
  type: "Convolution"
  bottom: "loss1/ave_pool"
  top: "loss1/conv"
  param {
    lr_mult: 1
    decay_mult: 1
  }
  param {
    lr_mult: 2
    decay_mult: 0
  }
  convolution_param {
    num_output: 128
    kernel_size: 1
    weight_filler {
      type: "xavier"
      std: 0.08
    }
    bias_filler {
      type: "constant"
      value: 0.2
    }
  }
}
layer {
  name: "loss1/relu_conv"
  type: "ReLU"
  bottom: "loss1/conv"
  top: "loss1/conv"
}
layer {
  name: "loss1/fc"
  type: "InnerProduct"
  bottom: "loss1/conv"
  top: "loss1/fc"
  param {
    lr_mult: 1
    decay_mult: 1
  }
  param {
    lr_mult: 2
    decay_mult: 0
  }
  inner_product_param {
    num_output: 1024
    weight_filler {
      type: "xavier"
      std: 0.02
    }
    bias_filler {
      type: "constant"
      value: 0.2
    }
  }
}
layer {
  name: "loss1/relu_fc"
  type: "ReLU"
  bottom: "loss1/fc"
  top: "loss1/fc"
}
layer {
  name: "loss1/drop_fc"
  type: "Dropout"
  bottom: "loss1/fc"
  top: "loss1/fc"
  dropout_param {
    dropout_ratio: 0.2
  }
}
layer {
  name: "stanford_cars_loss1/classifier"
  type: "InnerProduct"
  bottom: "loss1/fc"
  top: "stanford_cars_loss1/classifier"
  param {
    lr_mult: 1
    decay_mult: 1
  }
  param {
    lr_mult: 2
    decay_mult: 0
  }
  inner_product_param {
    num_output: 196
    weight_filler {
      type: "xavier"
      std: 0.0009765625
    }
    bias_filler {
      type: "constant"
      value: 0
    }
  }
}
layer {
  name: "loss1/loss"
  type: "SoftmaxWithLoss"
  bottom: "stanford_cars_loss1/classifier"
  bottom: "label"
  top: "loss1/loss1"
  loss_weight: 0.3
}
layer {
  name: "loss1/top-1"
  type: "Accuracy"
  bottom: "stanford_cars_loss1/classifier"
  bottom: "label"
  top: "loss1/top-1"
  include {
    phase: TEST
  }
}
layer {
  name: "loss1/top-5"
  type: "Accuracy"
  bottom: "stanford_cars_loss1/classifier"
  bottom: "label"
  top: "loss1/top-5"
  include {
    phase: TEST
  }
  accuracy_param {
    top_k: 5
  }
}
layer {
  name: "inception_4b/1x1"
  type: "Convolution"
  bottom: "inception_4a/output"
  top: "inception_4b/1x1"
  param {
    lr_mult: 1
    decay_mult: 1
  }
  param {
    lr_mult: 2
    decay_mult: 0
  }
  convolution_param {
    num_output: 160
    kernel_size: 1
    weight_filler {
      type: "xavier"
      std: 0.03
    }
    bias_filler {
      type: "constant"
      value: 0.2
    }
  }
}
layer {
  name: "inception_4b/relu_1x1"
  type: "ReLU"
  bottom: "inception_4b/1x1"
  top: "inception_4b/1x1"
}
layer {
  name: "inception_4b/3x3_reduce"
  type: "Convolution"
  bottom: "inception_4a/output"
  top: "inception_4b/3x3_reduce"
  param {
    lr_mult: 1
    decay_mult: 1
  }
  param {
    lr_mult: 2
    decay_mult: 0
  }
  convolution_param {
    num_output: 112
    kernel_size: 1
    weight_filler {
      type: "xavier"
      std: 0.09
    }
    bias_filler {
      type: "constant"
      value: 0.2
    }
  }
}
layer {
  name: "inception_4b/relu_3x3_reduce"
  type: "ReLU"
  bottom: "inception_4b/3x3_reduce"
  top: "inception_4b/3x3_reduce"
}
layer {
  name: "inception_4b/3x3"
  type: "Convolution"
  bottom: "inception_4b/3x3_reduce"
  top: "inception_4b/3x3"
  param {
    lr_mult: 1
    decay_mult: 1
  }
  param {
    lr_mult: 2
    decay_mult: 0
  }
  convolution_param {
    num_output: 224
    pad: 1
    kernel_size: 3
    weight_filler {
      type: "xavier"
      std: 0.03
    }
    bias_filler {
      type: "constant"
      value: 0.2
    }
  }
}
layer {
  name: "inception_4b/relu_3x3"
  type: "ReLU"
  bottom: "inception_4b/3x3"
  top: "inception_4b/3x3"
}
layer {
  name: "inception_4b/5x5_reduce"
  type: "Convolution"
  bottom: "inception_4a/output"
  top: "inception_4b/5x5_reduce"
  param {
    lr_mult: 1
    decay_mult: 1
  }
  param {
    lr_mult: 2
    decay_mult: 0
  }
  convolution_param {
    num_output: 24
    kernel_size: 1
    weight_filler {
      type: "xavier"
      std: 0.2
    }
    bias_filler {
      type: "constant"
      value: 0.2
    }
  }
}
layer {
  name: "inception_4b/relu_5x5_reduce"
  type: "ReLU"
  bottom: "inception_4b/5x5_reduce"
  top: "inception_4b/5x5_reduce"
}
layer {
  name: "inception_4b/5x5"
  type: "Convolution"
  bottom: "inception_4b/5x5_reduce"
  top: "inception_4b/5x5"
  param {
    lr_mult: 1
    decay_mult: 1
  }
  param {
    lr_mult: 2
    decay_mult: 0
  }
  convolution_param {
    num_output: 64
    pad: 2
    kernel_size: 5
    weight_filler {
      type: "xavier"
      std: 0.03
    }
    bias_filler {
      type: "constant"
      value: 0.2
    }
  }
}
layer {
  name: "inception_4b/relu_5x5"
  type: "ReLU"
  bottom: "inception_4b/5x5"
  top: "inception_4b/5x5"
}
layer {
  name: "inception_4b/pool"
  type: "Pooling"
  bottom: "inception_4a/output"
  top: "inception_4b/pool"
  pooling_param {
    pool: MAX
    kernel_size: 3
    stride: 1
    pad: 1
  }
}
layer {
  name: "inception_4b/pool_proj"
  type: "Convolution"
  bottom: "inception_4b/pool"
  top: "inception_4b/pool_proj"
  param {
    lr_mult: 1
    decay_mult: 1
  }
  param {
    lr_mult: 2
    decay_mult: 0
  }
  convolution_param {
    num_output: 64
    kernel_size: 1
    weight_filler {
      type: "xavier"
      std: 0.1
    }
    bias_filler {
      type: "constant"
      value: 0.2
    }
  }
}
layer {
  name: "inception_4b/relu_pool_proj"
  type: "ReLU"
  bottom: "inception_4b/pool_proj"
  top: "inception_4b/pool_proj"
}
layer {
  name: "inception_4b/output"
  type: "Concat"
  bottom: "inception_4b/1x1"
  bottom: "inception_4b/3x3"
  bottom: "inception_4b/5x5"
  bottom: "inception_4b/pool_proj"
  top: "inception_4b/output"
}
layer {
  name: "inception_4c/1x1"
  type: "Convolution"
  bottom: "inception_4b/output"
  top: "inception_4c/1x1"
  param {
    lr_mult: 1
    decay_mult: 1
  }
  param {
    lr_mult: 2
    decay_mult: 0
  }
  convolution_param {
    num_output: 128
    kernel_size: 1
    weight_filler {
      type: "xavier"
      std: 0.03
    }
    bias_filler {
      type: "constant"
      value: 0.2
    }
  }
}
layer {
  name: "inception_4c/relu_1x1"
  type: "ReLU"
  bottom: "inception_4c/1x1"
  top: "inception_4c/1x1"
}
layer {
  name: "inception_4c/3x3_reduce"
  type: "Convolution"
  bottom: "inception_4b/output"
  top: "inception_4c/3x3_reduce"
  param {
    lr_mult: 1
    decay_mult: 1
  }
  param {
    lr_mult: 2
    decay_mult: 0
  }
  convolution_param {
    num_output: 128
    kernel_size: 1
    weight_filler {
      type: "xavier"
      std: 0.09
    }
    bias_filler {
      type: "constant"
      value: 0.2
    }
  }
}
layer {
  name: "inception_4c/relu_3x3_reduce"
  type: "ReLU"
  bottom: "inception_4c/3x3_reduce"
  top: "inception_4c/3x3_reduce"
}
layer {
  name: "inception_4c/3x3"
  type: "Convolution"
  bottom: "inception_4c/3x3_reduce"
  top: "inception_4c/3x3"
  param {
    lr_mult: 1
    decay_mult: 1
  }
  param {
    lr_mult: 2
    decay_mult: 0
  }
  convolution_param {
    num_output: 256
    pad: 1
    kernel_size: 3
    weight_filler {
      type: "xavier"
      std: 0.03
    }
    bias_filler {
      type: "constant"
      value: 0.2
    }
  }
}
layer {
  name: "inception_4c/relu_3x3"
  type: "ReLU"
  bottom: "inception_4c/3x3"
  top: "inception_4c/3x3"
}
layer {
  name: "inception_4c/5x5_reduce"
  type: "Convolution"
  bottom: "inception_4b/output"
  top: "inception_4c/5x5_reduce"
  param {
    lr_mult: 1
    decay_mult: 1
  }
  param {
    lr_mult: 2
    decay_mult: 0
  }
  convolution_param {
    num_output: 24
    kernel_size: 1
    weight_filler {
      type: "xavier"
      std: 0.2
    }
    bias_filler {
      type: "constant"
      value: 0.2
    }
  }
}
layer {
  name: "inception_4c/relu_5x5_reduce"
  type: "ReLU"
  bottom: "inception_4c/5x5_reduce"
  top: "inception_4c/5x5_reduce"
}
layer {
  name: "inception_4c/5x5"
  type: "Convolution"
  bottom: "inception_4c/5x5_reduce"
  top: "inception_4c/5x5"
  param {
    lr_mult: 1
    decay_mult: 1
  }
  param {
    lr_mult: 2
    decay_mult: 0
  }
  convolution_param {
    num_output: 64
    pad: 2
    kernel_size: 5
    weight_filler {
      type: "xavier"
      std: 0.03
    }
    bias_filler {
      type: "constant"
      value: 0.2
    }
  }
}
layer {
  name: "inception_4c/relu_5x5"
  type: "ReLU"
  bottom: "inception_4c/5x5"
  top: "inception_4c/5x5"
}
layer {
  name: "inception_4c/pool"
  type: "Pooling"
  bottom: "inception_4b/output"
  top: "inception_4c/pool"
  pooling_param {
    pool: MAX
    kernel_size: 3
    stride: 1
    pad: 1
  }
}
layer {
  name: "inception_4c/pool_proj"
  type: "Convolution"
  bottom: "inception_4c/pool"
  top: "inception_4c/pool_proj"
  param {
    lr_mult: 1
    decay_mult: 1
  }
  param {
    lr_mult: 2
    decay_mult: 0
  }
  convolution_param {
    num_output: 64
    kernel_size: 1
    weight_filler {
      type: "xavier"
      std: 0.1
    }
    bias_filler {
      type: "constant"
      value: 0.2
    }
  }
}
layer {
  name: "inception_4c/relu_pool_proj"
  type: "ReLU"
  bottom: "inception_4c/pool_proj"
  top: "inception_4c/pool_proj"
}
layer {
  name: "inception_4c/output"
  type: "Concat"
  bottom: "inception_4c/1x1"
  bottom: "inception_4c/3x3"
  bottom: "inception_4c/5x5"
  bottom: "inception_4c/pool_proj"
  top: "inception_4c/output"
}
layer {
  name: "inception_4d/1x1"
  type: "Convolution"
  bottom: "inception_4c/output"
  top: "inception_4d/1x1"
  param {
    lr_mult: 1
    decay_mult: 1
  }
  param {
    lr_mult: 2
    decay_mult: 0
  }
  convolution_param {
    num_output: 112
    kernel_size: 1
    weight_filler {
      type: "xavier"
      std: 0.03
    }
    bias_filler {
      type: "constant"
      value: 0.2
    }
  }
}
layer {
  name: "inception_4d/relu_1x1"
  type: "ReLU"
  bottom: "inception_4d/1x1"
  top: "inception_4d/1x1"
}
layer {
  name: "inception_4d/3x3_reduce"
  type: "Convolution"
  bottom: "inception_4c/output"
  top: "inception_4d/3x3_reduce"
  param {
    lr_mult: 1
    decay_mult: 1
  }
  param {
    lr_mult: 2
    decay_mult: 0
  }
  convolution_param {
    num_output: 144
    kernel_size: 1
    weight_filler {
      type: "xavier"
      std: 0.09
    }
    bias_filler {
      type: "constant"
      value: 0.2
    }
  }
}
layer {
  name: "inception_4d/relu_3x3_reduce"
  type: "ReLU"
  bottom: "inception_4d/3x3_reduce"
  top: "inception_4d/3x3_reduce"
}
layer {
  name: "inception_4d/3x3"
  type: "Convolution"
  bottom: "inception_4d/3x3_reduce"
  top: "inception_4d/3x3"
  param {
    lr_mult: 1
    decay_mult: 1
  }
  param {
    lr_mult: 2
    decay_mult: 0
  }
  convolution_param {
    num_output: 288
    pad: 1
    kernel_size: 3
    weight_filler {
      type: "xavier"
      std: 0.03
    }
    bias_filler {
      type: "constant"
      value: 0.2
    }
  }
}
layer {
  name: "inception_4d/relu_3x3"
  type: "ReLU"
  bottom: "inception_4d/3x3"
  top: "inception_4d/3x3"
}
layer {
  name: "inception_4d/5x5_reduce"
  type: "Convolution"
  bottom: "inception_4c/output"
  top: "inception_4d/5x5_reduce"
  param {
    lr_mult: 1
    decay_mult: 1
  }
  param {
    lr_mult: 2
    decay_mult: 0
  }
  convolution_param {
    num_output: 32
    kernel_size: 1
    weight_filler {
      type: "xavier"
      std: 0.2
    }
    bias_filler {
      type: "constant"
      value: 0.2
    }
  }
}
layer {
  name: "inception_4d/relu_5x5_reduce"
  type: "ReLU"
  bottom: "inception_4d/5x5_reduce"
  top: "inception_4d/5x5_reduce"
}
layer {
  name: "inception_4d/5x5"
  type: "Convolution"
  bottom: "inception_4d/5x5_reduce"
  top: "inception_4d/5x5"
  param {
    lr_mult: 1
    decay_mult: 1
  }
  param {
    lr_mult: 2
    decay_mult: 0
  }
  convolution_param {
    num_output: 64
    pad: 2
    kernel_size: 5
    weight_filler {
      type: "xavier"
      std: 0.03
    }
    bias_filler {
      type: "constant"
      value: 0.2
    }
  }
}
layer {
  name: "inception_4d/relu_5x5"
  type: "ReLU"
  bottom: "inception_4d/5x5"
  top: "inception_4d/5x5"
}
layer {
  name: "inception_4d/pool"
  type: "Pooling"
  bottom: "inception_4c/output"
  top: "inception_4d/pool"
  pooling_param {
    pool: MAX
    kernel_size: 3
    stride: 1
    pad: 1
  }
}
layer {
  name: "inception_4d/pool_proj"
  type: "Convolution"
  bottom: "inception_4d/pool"
  top: "inception_4d/pool_proj"
  param {
    lr_mult: 1
    decay_mult: 1
  }
  param {
    lr_mult: 2
    decay_mult: 0
  }
  convolution_param {
    num_output: 64
    kernel_size: 1
…
I0703 10:40:11.823554 28611 net.cpp:127] Top shape: 10 128 14 14 (250880)
I0703 10:40:11.823567 28611 layer_factory.hpp:74] Creating layer inception_4c/relu_1x1
I0703 10:40:11.823575 28611 net.cpp:90] Creating Layer inception_4c/relu_1x1
I0703 10:40:11.823580 28611 net.cpp:410] inception_4c/relu_1x1 <- inception_4c/1x1
I0703 10:40:11.823586 28611 net.cpp:357] inception_4c/relu_1x1 -> inception_4c/1x1 (in-place)
I0703 10:40:11.823592 28611 net.cpp:120] Setting up inception_4c/relu_1x1
I0703 10:40:11.823642 28611 net.cpp:127] Top shape: 10 128 14 14 (250880)
I0703 10:40:11.823648 28611 layer_factory.hpp:74] Creating layer inception_4c/3x3_reduce
I0703 10:40:11.823657 28611 net.cpp:90] Creating Layer inception_4c/3x3_reduce
I0703 10:40:11.823662 28611 net.cpp:410] inception_4c/3x3_reduce <- inception_4b/output_inception_4b/output_0_split_1
I0703 10:40:11.823668 28611 net.cpp:368] inception_4c/3x3_reduce -> inception_4c/3x3_reduce
I0703 10:40:11.823675 28611 net.cpp:120] Setting up inception_4c/3x3_reduce
I0703 10:40:11.824286 28611 net.cpp:127] Top shape: 10 128 14 14 (250880)
I0703 10:40:11.824298 28611 layer_factory.hpp:74] Creating layer inception_4c/relu_3x3_reduce
I0703 10:40:11.824306 28611 net.cpp:90] Creating Layer inception_4c/relu_3x3_reduce
I0703 10:40:11.824312 28611 net.cpp:410] inception_4c/relu_3x3_reduce <- inception_4c/3x3_reduce
I0703 10:40:11.824328 28611 net.cpp:357] inception_4c/relu_3x3_reduce -> inception_4c/3x3_reduce (in-place)
I0703 10:40:11.824334 28611 net.cpp:120] Setting up inception_4c/relu_3x3_reduce
I0703 10:40:11.824517 28611 net.cpp:127] Top shape: 10 128 14 14 (250880)
I0703 10:40:11.824525 28611 layer_factory.hpp:74] Creating layer inception_4c/3x3
I0703 10:40:11.824533 28611 net.cpp:90] Creating Layer inception_4c/3x3
I0703 10:40:11.824538 28611 net.cpp:410] inception_4c/3x3 <- inception_4c/3x3_reduce
I0703 10:40:11.824544 28611 net.cpp:368] inception_4c/3x3 -> inception_4c/3x3
I0703 10:40:11.824551 28611 net.cpp:120] Setting up inception_4c/3x3
I0703 10:40:11.826236 28611 net.cpp:127] Top shape: 10 256 14 14 (501760)
I0703 10:40:11.826256 28611 layer_factory.hpp:74] Creating layer inception_4c/relu_3x3
I0703 10:40:11.826263 28611 net.cpp:90] Creating Layer inception_4c/relu_3x3
I0703 10:40:11.826268 28611 net.cpp:410] inception_4c/relu_3x3 <- inception_4c/3x3
I0703 10:40:11.826274 28611 net.cpp:357] inception_4c/relu_3x3 -> inception_4c/3x3 (in-place)
I0703 10:40:11.826280 28611 net.cpp:120] Setting up inception_4c/relu_3x3
I0703 10:40:11.826323 28611 net.cpp:127] Top shape: 10 256 14 14 (501760)
I0703 10:40:11.826328 28611 layer_factory.hpp:74] Creating layer inception_4c/5x5_reduce
I0703 10:40:11.826336 28611 net.cpp:90] Creating Layer inception_4c/5x5_reduce
I0703 10:40:11.826342 28611 net.cpp:410] inception_4c/5x5_reduce <- inception_4b/output_inception_4b/output_0_split_2
I0703 10:40:11.826349 28611 net.cpp:368] inception_4c/5x5_reduce -> inception_4c/5x5_reduce
I0703 10:40:11.826355 28611 net.cpp:120] Setting up inception_4c/5x5_reduce
I0703 10:40:11.826622 28611 net.cpp:127] Top shape: 10 24 14 14 (47040)
I0703 10:40:11.826632 28611 layer_factory.hpp:74] Creating layer inception_4c/relu_5x5_reduce
I0703 10:40:11.826640 28611 net.cpp:90] Creating Layer inception_4c/relu_5x5_reduce
I0703 10:40:11.826645 28611 net.cpp:410] inception_4c/relu_5x5_reduce <- inception_4c/5x5_reduce
I0703 10:40:11.826652 28611 net.cpp:357] inception_4c/relu_5x5_reduce -> inception_4c/5x5_reduce (in-place)
I0703 10:40:11.826658 28611 net.cpp:120] Setting up inception_4c/relu_5x5_reduce
I0703 10:40:11.826699 28611 net.cpp:127] Top shape: 10 24 14 14 (47040)
I0703 10:40:11.826704 28611 layer_factory.hpp:74] Creating layer inception_4c/5x5
I0703 10:40:11.826711 28611 net.cpp:90] Creating Layer inception_4c/5x5
I0703 10:40:11.826716 28611 net.cpp:410] inception_4c/5x5 <- inception_4c/5x5_reduce
I0703 10:40:11.826724 28611 net.cpp:368] inception_4c/5x5 -> inception_4c/5x5
I0703 10:40:11.826730 28611 net.cpp:120] Setting up inception_4c/5x5
I0703 10:40:11.827121 28611 net.cpp:127] Top shape: 10 64 14 14 (125440)
I0703 10:40:11.827132 28611 layer_factory.hpp:74] Creating layer inception_4c/relu_5x5
I0703 10:40:11.827138 28611 net.cpp:90] Creating Layer inception_4c/relu_5x5
I0703 10:40:11.827144 28611 net.cpp:410] inception_4c/relu_5x5 <- inception_4c/5x5
I0703 10:40:11.827149 28611 net.cpp:357] inception_4c/relu_5x5 -> inception_4c/5x5 (in-place)
I0703 10:40:11.827157 28611 net.cpp:120] Setting up inception_4c/relu_5x5
I0703 10:40:11.827199 28611 net.cpp:127] Top shape: 10 64 14 14 (125440)
I0703 10:40:11.827214 28611 layer_factory.hpp:74] Creating layer inception_4c/pool
I0703 10:40:11.827221 28611 layer_factory.cpp:55] CUDNN does not support padding or multiple tops. Using Caffe's own pooling layer.
I0703 10:40:11.827227 28611 net.cpp:90] Creating Layer inception_4c/pool
I0703 10:40:11.827232 28611 net.cpp:410] inception_4c/pool <- inception_4b/output_inception_4b/output_0_split_3
I0703 10:40:11.827239 28611 net.cpp:368] inception_4c/pool -> inception_4c/pool
I0703 10:40:11.827245 28611 net.cpp:120] Setting up inception_4c/pool
I0703 10:40:11.827252 28611 net.cpp:127] Top shape: 10 512 14 14 (1003520)
I0703 10:40:11.827257 28611 layer_factory.hpp:74] Creating layer inception_4c/pool_proj
I0703 10:40:11.827265 28611 net.cpp:90] Creating Layer inception_4c/pool_proj
I0703 10:40:11.827270 28611 net.cpp:410] inception_4c/pool_proj <- inception_4c/pool
I0703 10:40:11.827276 28611 net.cpp:368] inception_4c/pool_proj -> inception_4c/pool_proj
I0703 10:40:11.827282 28611 net.cpp:120] Setting up inception_4c/pool_proj
I0703 10:40:11.827678 28611 net.cpp:127] Top shape: 10 64 14 14 (125440)
I0703 10:40:11.827690 28611 layer_factory.hpp:74] Creating layer inception_4c/relu_pool_proj
I0703 10:40:11.827697 28611 net.cpp:90] Creating Layer inception_4c/relu_pool_proj
I0703 10:40:11.852078 28611 net.cpp:410] inception_4c/relu_pool_proj <- inception_4c/pool_proj
I0703 10:40:11.852108 28611 net.cpp:357] inception_4c/relu_pool_proj -> inception_4c/pool_proj (in-place)
I0703 10:40:11.852119 28611 net.cpp:120] Setting up inception_4c/relu_pool_proj
I0703 10:40:11.852355 28611 net.cpp:127] Top shape: 10 64 14 14 (125440)
I0703 10:40:11.852365 28611 layer_factory.hpp:74] Creating layer inception_4c/output
I0703 10:40:11.852375 28611 net.cpp:90] Creating Layer inception_4c/output
I0703 10:40:11.852396 28611 net.cpp:410] inception_4c/output <- inception_4c/1x1
I0703 10:40:11.852401 28611 net.cpp:410] inception_4c/output <- inception_4c/3x3
I0703 10:40:11.852407 28611 net.cpp:410] inception_4c/output <- inception_4c/5x5
I0703 10:40:11.852422 28611 net.cpp:410] inception_4c/output <- inception_4c/pool_proj
I0703 10:40:11.852428 28611 net.cpp:368] inception_4c/output -> inception_4c/output
I0703 10:40:11.852435 28611 net.cpp:120] Setting up inception_4c/output
I0703 10:40:11.852443 28611 net.cpp:127] Top shape: 10 512 14 14 (1003520)
I0703 10:40:11.852448 28611 layer_factory.hpp:74] Creating layer inception_4c/output_inception_4c/output_0_split
I0703 10:40:11.852458 28611 net.cpp:90] Creating Layer inception_4c/output_inception_4c/output_0_split
I0703 10:40:11.852462 28611 net.cpp:410] inception_4c/output_inception_4c/output_0_split <- inception_4c/output
I0703 10:40:11.852468 28611 net.cpp:368] inception_4c/output_inception_4c/output_0_split -> inception_4c/output_inception_4c/output_0_split_0
I0703 10:40:11.852474 28611 net.cpp:368] inception_4c/output_inception_4c/output_0_split -> inception_4c/output_inception_4c/output_0_split_1
I0703 10:40:11.852481 28611 net.cpp:368] inception_4c/output_inception_4c/output_0_split -> inception_4c/output_inception_4c/output_0_split_2
I0703 10:40:11.852488 28611 net.cpp:368] inception_4c/output_inception_4c/output_0_split -> inception_4c/output_inception_4c/output_0_split_3
I0703 10:40:11.852494 28611 net.cpp:120] Setting up inception_4c/output_inception_4c/output_0_split
I0703 10:40:11.852500 28611 net.cpp:127] Top shape: 10 512 14 14 (1003520)
I0703 10:40:11.852505 28611 net.cpp:127] Top shape: 10 512 14 14 (1003520)
I0703 10:40:11.852510 28611 net.cpp:127] Top shape: 10 512 14 14 (1003520)
I0703 10:40:11.852515 28611 net.cpp:127] Top shape: 10 512 14 14 (1003520)
I0703 10:40:11.852519 28611 layer_factory.hpp:74] Creating layer inception_4d/1x1
I0703 10:40:11.852529 28611 net.cpp:90] Creating Layer inception_4d/1x1
I0703 10:40:11.852535 28611 net.cpp:410] inception_4d/1x1 <- inception_4c/output_inception_4c/output_0_split_0
I0703 10:40:11.852540 28611 net.cpp:368] inception_4d/1x1 -> inception_4d/1x1
I0703 10:40:11.852548 28611 net.cpp:120] Setting up inception_4d/1x1
I0703 10:40:11.853226 28611 net.cpp:127] Top shape: 10 112 14 14 (219520)
I0703 10:40:11.853271 28611 layer_factory.hpp:74] Creating layer inception_4d/relu_1x1
I0703 10:40:11.853281 28611 net.cpp:90] Creating Layer inception_4d/relu_1x1
I0703 10:40:11.853286 28611 net.cpp:410] inception_4d/relu_1x1 <- inception_4d/1x1
I0703 10:40:11.853292 28611 net.cpp:357] inception_4d/relu_1x1 -> inception_4d/1x1 (in-place)
I0703 10:40:11.853299 28611 net.cpp:120] Setting up inception_4d/relu_1x1
I0703 10:40:11.853343 28611 net.cpp:127] Top shape: 10 112 14 14 (219520)
I0703 10:40:11.853359 28611 layer_factory.hpp:74] Creating layer inception_4d/3x3_reduce
I0703 10:40:11.853368 28611 net.cpp:90] Creating Layer inception_4d/3x3_reduce
I0703 10:40:11.853374 28611 net.cpp:410] inception_4d/3x3_reduce <- inception_4c/output_inception_4c/output_0_split_1
I0703 10:40:11.853379 28611 net.cpp:368] inception_4d/3x3_reduce -> inception_4d/3x3_reduce
I0703 10:40:11.853386 28611 net.cpp:120] Setting up inception_4d/3x3_reduce
I0703 10:40:11.854038 28611 net.cpp:127] Top shape: 10 144 14 14 (282240)
I0703 10:40:11.854048 28611 layer_factory.hpp:74] Creating layer inception_4d/relu_3x3_reduce
I0703 10:40:11.854065 28611 net.cpp:90] Creating Layer inception_4d/relu_3x3_reduce
I0703 10:40:11.854071 28611 net.cpp:410] inception_4d/relu_3x3_reduce <- inception_4d/3x3_reduce
I0703 10:40:11.854077 28611 net.cpp:357] inception_4d/relu_3x3_reduce -> inception_4d/3x3_reduce (in-place)
I0703 10:40:11.854094 28611 net.cpp:120] Setting up inception_4d/relu_3x3_reduce
I0703 10:40:11.854136 28611 net.cpp:127] Top shape: 10 144 14 14 (282240)
I0703 10:40:11.854142 28611 layer_factory.hpp:74] Creating layer inception_4d/3x3
I0703 10:40:11.854151 28611 net.cpp:90] Creating Layer inception_4d/3x3
I0703 10:40:11.854156 28611 net.cpp:410] inception_4d/3x3 <- inception_4d/3x3_reduce
I0703 10:40:11.854161 28611 net.cpp:368] inception_4d/3x3 -> inception_4d/3x3
I0703 10:40:11.854168 28611 net.cpp:120] Setting up inception_4d/3x3
I0703 10:40:11.857873 28611 net.cpp:127] Top shape: 10 288 14 14 (564480)
I0703 10:40:11.857908 28611 layer_factory.hpp:74] Creating layer inception_4d/relu_3x3
I0703 10:40:11.857926 28611 net.cpp:90] Creating Layer inception_4d/relu_3x3
I0703 10:40:11.857941 28611 net.cpp:410] inception_4d/relu_3x3 <- inception_4d/3x3
I0703 10:40:11.857959 28611 net.cpp:357] inception_4d/relu_3x3 -> inception_4d/3x3 (in-place)
I0703 10:40:11.857976 28611 net.cpp:120] Setting up inception_4d/relu_3x3
I0703 10:40:11.858253 28611 net.cpp:127] Top shape: 10 288 14 14 (564480)
I0703 10:40:11.858278 28611 layer_factory.hpp:74] Creating layer inception_4d/5x5_reduce
I0703 10:40:11.858301 28611 net.cpp:90] Creating Layer inception_4d/5x5_reduce
I0703 10:40:11.858317 28611 net.cpp:410] inception_4d/5x5_reduce <- inception_4c/output_inception_4c/output_0_split_2
I0703 10:40:11.858338 28611 net.cpp:368] inception_4d/5x5_reduce -> inception_4d/5x5_reduce
I0703 10:40:11.858360 28611 net.cpp:120] Setting up inception_4d/5x5_reduce
I0703 10:40:11.859139 28611 net.cpp:127] Top shape: 10 32 14 14 (62720)
I0703 10:40:11.859171 28611 layer_factory.hpp:74] Creating layer inception_4d/relu_5x5_reduce
I0703 10:40:11.859194 28611 net.cpp:90] Creating Layer inception_4d/relu_5x5_reduce
I0703 10:40:11.859210 28611 net.cpp:410] inception_4d/relu_5x5_reduce <- inception_4d/5x5_reduce
I0703 10:40:11.859226 28611 net.cpp:357] inception_4d/relu_5x5_reduce -> inception_4d/5x5_reduce (in-place)
I0703 10:40:11.859244 28611 net.cpp:120] Setting up inception_4d/relu_5x5_reduce
I0703 10:40:11.859380 28611 net.cpp:127] Top shape: 10 32 14 14 (62720)
I0703 10:40:11.859400 28611 layer_factory.hpp:74] Creating layer inception_4d/5x5
I0703 10:40:11.859424 28611 net.cpp:90] Creating Layer inception_4d/5x5
I0703 10:40:11.859438 28611 net.cpp:410] inception_4d/5x5 <- inception_4d/5x5_reduce
I0703 10:40:11.859459 28611 net.cpp:368] inception_4d/5x5 -> inception_4d/5x5
I0703 10:40:11.859479 28611 net.cpp:120] Setting up inception_4d/5x5
I0703 10:40:11.860752 28611 net.cpp:127] Top shape: 10 64 14 14 (125440)
I0703 10:40:11.860785 28611 layer_factory.hpp:74] Creating layer inception_4d/relu_5x5
I0703 10:40:11.860827 28611 net.cpp:90] Creating Layer inception_4d/relu_5x5
I0703 10:40:11.860844 28611 net.cpp:410] inception_4d/relu_5x5 <- inception_4d/5x5
I0703 10:40:11.860862 28611 net.cpp:357] inception_4d/relu_5x5 -> inception_4d/5x5 (in-place)
I0703 10:40:11.860880 28611 net.cpp:120] Setting up inception_4d/relu_5x5
I0703 10:40:11.861006 28611 net.cpp:127] Top shape: 10 64 14 14 (125440)
I0703 10:40:11.861023 28611 layer_factory.hpp:74] Creating layer inception_4d/pool
I0703 10:40:11.861038 28611 layer_factory.cpp:55] CUDNN does not support padding or multiple tops. Using Caffe's own pooling layer.
I0703 10:40:11.861054 28611 net.cpp:90] Creating Layer inception_4d/pool
I0703 10:40:11.861068 28611 net.cpp:410] inception_4d/pool <- inception_4c/output_inception_4c/output_0_split_3
I0703 10:40:11.861088 28611 net.cpp:368] inception_4d/pool -> inception_4d/pool
I0703 10:40:11.861106 28611 net.cpp:120] Setting up inception_4d/pool
I0703 10:40:11.861127 28611 net.cpp:127] Top shape: 10 512 14 14 (1003520)
I0703 10:40:11.861141 28611 layer_factory.hpp:74] Creating layer inception_4d/pool_proj
I0703 10:40:11.861160 28611 net.cpp:90] Creating Layer inception_4d/pool_proj
I0703 10:40:11.861176 28611 net.cpp:410] inception_4d/pool_proj <- inception_4d/pool
I0703 10:40:11.861194 28611 net.cpp:368] inception_4d/pool_proj -> inception_4d/pool_proj
I0703 10:40:11.861213 28611 net.cpp:120] Setting up inception_4d/pool_proj
I0703 10:40:11.862239 28611 net.cpp:127] Top shape: 10 64 14 14 (125440)
I0703 10:40:11.862272 28611 layer_factory.hpp:74] Creating layer inception_4d/relu_pool_proj
I0703 10:40:11.862293 28611 net.cpp:90] Creating Layer inception_4d/relu_pool_proj
I0703 10:40:11.862309 28611 net.cpp:410] inception_4d/relu_pool_proj <- inception_4d/pool_proj
I0703 10:40:11.862326 28611 net.cpp:357] inception_4d/relu_pool_proj -> inception_4d/pool_proj (in-place)
I0703 10:40:11.862344 28611 net.cpp:120] Setting up inception_4d/relu_pool_proj
I0703 10:40:11.862468 28611 net.cpp:127] Top shape: 10 64 14 14 (125440)
I0703 10:40:11.862485 28611 layer_factory.hpp:74] Creating layer inception_4d/output
I0703 10:40:11.862505 28611 net.cpp:90] Creating Layer inception_4d/output
I0703 10:40:11.862519 28611 net.cpp:410] inception_4d/output <- inception_4d/1x1
I0703 10:40:11.862535 28611 net.cpp:410] inception_4d/output <- inception_4d/3x3
I0703 10:40:11.862550 28611 net.cpp:410] inception_4d/output <- inception_4d/5x5
I0703 10:40:11.862565 28611 net.cpp:410] inception_4d/output <- inception_4d/pool_proj
I0703 10:40:11.862581 28611 net.cpp:368] inception_4d/output -> inception_4d/output
I0703 10:40:11.862601 28611 net.cpp:120] Setting up inception_4d/output
I0703 10:40:11.862619 28611 net.cpp:127] Top shape: 10 528 14 14 (1034880)
I0703 10:40:11.862633 28611 layer_factory.hpp:74] Creating layer inception_4d/output_inception_4d/output_0_split
I0703 10:40:11.862650 28611 net.cpp:90] Creating Layer inception_4d/output_inception_4d/output_0_split
I0703 10:40:11.862664 28611 net.cpp:410] inception_4d/output_inception_4d/output_0_split <- inception_4d/output
I0703 10:40:11.862680 28611 net.cpp:368] inception_4d/output_inception_4d/output_0_split -> inception_4d/output_inception_4d/output_0_split_0
I0703 10:40:11.862700 28611 net.cpp:368] inception_4d/output_inception_4d/output_0_split -> inception_4d/output_inception_4d/output_0_split_1
I0703 10:40:11.862720 28611 net.cpp:368] inception_4d/output_inception_4d/output_0_split -> inception_4d/output_inception_4d/output_0_split_2
I0703 10:40:11.862738 28611 net.cpp:368] inception_4d/output_inception_4d/output_0_split -> inception_4d/output_inception_4d/output_0_split_3
I0703 10:40:11.862758 28611 net.cpp:368] inception_4d/output_inception_4d/output_0_split -> inception_4d/output_inception_4d/output_0_split_4
I0703 10:40:11.862776 28611 net.cpp:120] Setting up inception_4d/output_inception_4d/output_0_split
I0703 10:40:11.862797 28611 net.cpp:127] Top shape: 10 528 14 14 (1034880)
I0703 10:40:11.862812 28611 net.cpp:127] Top shape: 10 528 14 14 (1034880)
I0703 10:40:11.862843 28611 net.cpp:127] Top shape: 10 528 14 14 (1034880)
I0703 10:40:11.862859 28611 net.cpp:127] Top shape: 10 528 14 14 (1034880)
I0703 10:40:11.862872 28611 net.cpp:127] Top shape: 10 528 14 14 (1034880)
I0703 10:40:11.862885 28611 layer_factory.hpp:74] Creating layer loss2/ave_pool
I0703 10:40:11.862902 28611 net.cpp:90] Creating Layer loss2/ave_pool
I0703 10:40:11.882937 28611 net.cpp:410] loss2/ave_pool <- inception_4d/output_inception_4d/output_0_split_0
I0703 10:40:11.882958 28611 net.cpp:368] loss2/ave_pool -> loss2/ave_pool
I0703 10:40:11.882968 28611 net.cpp:120] Setting up loss2/ave_pool
I0703 10:40:11.883154 28611 net.cpp:127] Top shape: 10 528 4 4 (84480)
I0703 10:40:11.883164 28611 layer_factory.hpp:74] Creating layer loss2/conv
I0703 10:40:11.883174 28611 net.cpp:90] Creating Layer loss2/conv
I0703 10:40:11.883179 28611 net.cpp:410] loss2/conv <- loss2/ave_pool
I0703 10:40:11.883188 28611 net.cpp:368] loss2/conv -> loss2/conv
I0703 10:40:11.883195 28611 net.cpp:120] Setting up loss2/conv
I0703 10:40:11.885859 28611 net.cpp:127] Top shape: 10 128 4 4 (20480)
I0703 10:40:11.885931 28611 layer_factory.hpp:74] Creating layer loss2/relu_conv
I0703 10:40:11.885975 28611 net.cpp:90] Creating Layer loss2/relu_conv
I0703 10:40:11.886006 28611 net.cpp:410] loss2/relu_conv <- loss2/conv
I0703 10:40:11.886039 28611 net.cpp:357] loss2/relu_conv -> loss2/conv (in-place)
I0703 10:40:11.886073 28611 net.cpp:120] Setting up loss2/relu_conv
I0703 10:40:11.886303 28611 net.cpp:127] Top shape: 10 128 4 4 (20480)
I0703 10:40:11.886338 28611 layer_factory.hpp:74] Creating layer loss2/fc
I0703 10:40:11.886382 28611 net.cpp:90] Creating Layer loss2/fc
I0703 10:40:11.886410 28611 net.cpp:410] loss2/fc <- loss2/conv
I0703 10:40:11.886443 28611 net.cpp:368] loss2/fc -> loss2/fc
I0703 10:40:11.886481 28611 net.cpp:120] Setting up loss2/fc
I0703 10:40:11.897086 28611 net.cpp:127] Top shape: 10 1024 (10240)
I0703 10:40:11.897114 28611 layer_factory.hpp:74] Creating layer loss2/relu_fc
I0703 10:40:11.897125 28611 net.cpp:90] Creating Layer loss2/relu_fc
I0703 10:40:11.897131 28611 net.cpp:410] loss2/relu_fc <- loss2/fc
I0703 10:40:11.897140 28611 net.cpp:357] loss2/relu_fc -> loss2/fc (in-place)
I0703 10:40:11.897147 28611 net.cpp:120] Setting up loss2/relu_fc
I0703 10:40:11.897222 28611 net.cpp:127] Top shape: 10 1024 (10240)
I0703 10:40:11.897229 28611 layer_factory.hpp:74] Creating layer loss2/drop_fc
I0703 10:40:11.897236 28611 net.cpp:90] Creating Layer loss2/drop_fc
I0703 10:40:11.897241 28611 net.cpp:410] loss2/drop_fc <- loss2/fc
I0703 10:40:11.897248 28611 net.cpp:357] loss2/drop_fc -> loss2/fc (in-place)
I0703 10:40:11.897254 28611 net.cpp:120] Setting up loss2/drop_fc
I0703 10:40:11.897260 28611 net.cpp:127] Top shape: 10 1024 (10240)
I0703 10:40:11.897265 28611 layer_factory.hpp:74] Creating layer stanford_cars_loss2/classifier
I0703 10:40:11.897274 28611 net.cpp:90] Creating Layer stanford_cars_loss2/classifier
I0703 10:40:11.897277 28611 net.cpp:410] stanford_cars_loss2/classifier <- loss2/fc
I0703 10:40:11.897284 28611 net.cpp:368] stanford_cars_loss2/classifier -> stanford_cars_loss2/classifier
I0703 10:40:11.897292 28611 net.cpp:120] Setting up stanford_cars_loss2/classifier
I0703 10:40:11.898285 28611 net.cpp:127] Top shape: 10 196 (1960)
I0703 10:40:11.898294 28611 layer_factory.hpp:74] Creating layer stanford_cars_loss2/classifier_stanford_cars_loss2/classifier_0_split
I0703 10:40:11.898301 28611 net.cpp:90] Creating Layer stanford_cars_loss2/classifier_stanford_cars_loss2/classifier_0_split
I0703 10:40:11.898306 28611 net.cpp:410] stanford_cars_loss2/classifier_stanford_cars_loss2/classifier_0_split <- stanford_cars_loss2/classifier
I0703 10:40:11.898313 28611 net.cpp:368] stanford_cars_loss2/classifier_stanford_cars_loss2/classifier_0_split -> stanford_cars_loss2/classifier_stanford_cars_loss2/classifier_0_split_0
I0703 10:40:11.898320 28611 net.cpp:368] stanford_cars_loss2/classifier_stanford_cars_loss2/classifier_0_split -> stanford_cars_loss2/classifier_stanford_cars_loss2/classifier_0_split_1
I0703 10:40:11.898346 28611 net.cpp:368] stanford_cars_loss2/classifier_stanford_cars_loss2/classifier_0_split -> stanford_cars_loss2/classifier_stanford_cars_loss2/classifier_0_split_2
I0703 10:40:11.898354 28611 net.cpp:120] Setting up stanford_cars_loss2/classifier_stanford_cars_loss2/classifier_0_split
I0703 10:40:11.898360 28611 net.cpp:127] Top shape: 10 196 (1960)
I0703 10:40:11.898365 28611 net.cpp:127] Top shape: 10 196 (1960)
I0703 10:40:11.898370 28611 net.cpp:127] Top shape: 10 196 (1960)
I0703 10:40:11.898375 28611 layer_factory.hpp:74] Creating layer stanford_cars_loss2/loss
I0703 10:40:11.898380 28611 net.cpp:90] Creating Layer stanford_cars_loss2/loss
I0703 10:40:11.898386 28611 net.cpp:410] stanford_cars_loss2/loss <- stanford_cars_loss2/classifier_stanford_cars_loss2/classifier_0_split_0
I0703 10:40:11.898391 28611 net.cpp:410] stanford_cars_loss2/loss <- label_data_1_split_3
…
I0703 10:40:11.898546 28611 net.cpp:368] loss2/top-5 -> loss2/top-5
I0703 10:40:11.898552 28611 net.cpp:120] Setting up loss2/top-5
I0703 10:40:11.898558 28611 net.cpp:127] Top shape: (1)
I0703 10:40:11.898562 28611 layer_factory.hpp:74] Creating layer inception_4e/1x1
I0703 10:40:11.898571 28611 net.cpp:90] Creating Layer inception_4e/1x1
I0703 10:40:11.898576 28611 net.cpp:410] inception_4e/1x1 <- inception_4d/output_inception_4d/output_0_split_1
I0703 10:40:11.898581 28611 net.cpp:368] inception_4e/1x1 -> inception_4e/1x1
I0703 10:40:11.898588 28611 net.cpp:120] Setting up inception_4e/1x1
I0703 10:40:11.899559 28611 net.cpp:127] Top shape: 10 256 14 14 (501760)
I0703 10:40:11.899572 28611 layer_factory.hpp:74] Creating layer inception_4e/relu_1x1
I0703 10:40:11.899580 28611 net.cpp:90] Creating Layer inception_4e/relu_1x1
I0703 10:40:11.899585 28611 net.cpp:410] inception_4e/relu_1x1 <- inception_4e/1x1
I0703 10:40:11.899591 28611 net.cpp:357] inception_4e/relu_1x1 -> inception_4e/1x1 (in-place)
I0703 10:40:11.899597 28611 net.cpp:120] Setting up inception_4e/relu_1x1
I0703 10:40:11.899713 28611 net.cpp:127] Top shape: 10 256 14 14 (501760)
I0703 10:40:11.899724 28611 layer_factory.hpp:74] Creating layer inception_4e/3x3_reduce
I0703 10:40:11.899742 28611 net.cpp:90] Creating Layer inception_4e/3x3_reduce
I0703 10:40:11.899749 28611 net.cpp:410] inception_4e/3x3_reduce <- inception_4d/output_inception_4d/output_0_split_2
I0703 10:40:11.899755 28611 net.cpp:368] inception_4e/3x3_reduce -> inception_4e/3x3_reduce
I0703 10:40:11.899762 28611 net.cpp:120] Setting up inception_4e/3x3_reduce
I0703 10:40:11.900384 28611 net.cpp:127] Top shape: 10 160 14 14 (313600)
I0703 10:40:11.900396 28611 layer_factory.hpp:74] Creating layer inception_4e/relu_3x3_reduce
I0703 10:40:11.900404 28611 net.cpp:90] Creating Layer inception_4e/relu_3x3_reduce
I0703 10:40:11.900410 28611 net.cpp:410] inception_4e/relu_3x3_reduce <- inception_4e/3x3_reduce
I0703 10:40:11.900424 28611 net.cpp:357] inception_4e/relu_3x3_reduce -> inception_4e/3x3_reduce (in-place)
I0703 10:40:11.900430 28611 net.cpp:120] Setting up inception_4e/relu_3x3_reduce
I0703 10:40:11.900475 28611 net.cpp:127] Top shape: 10 160 14 14 (313600)
I0703 10:40:11.900481 28611 layer_factory.hpp:74] Creating layer inception_4e/3x3
I0703 10:40:11.900490 28611 net.cpp:90] Creating Layer inception_4e/3x3
I0703 10:40:11.900496 28611 net.cpp:410] inception_4e/3x3 <- inception_4e/3x3_reduce
I0703 10:40:11.900501 28611 net.cpp:368] inception_4e/3x3 -> inception_4e/3x3
I0703 10:40:11.900508 28611 net.cpp:120] Setting up inception_4e/3x3
I0703 10:40:11.903080 28611 net.cpp:127] Top shape: 10 320 14 14 (627200)
I0703 10:40:11.903095 28611 layer_factory.hpp:74] Creating layer inception_4e/relu_3x3
I0703 10:40:11.903103 28611 net.cpp:90] Creating Layer inception_4e/relu_3x3
I0703 10:40:11.903108 28611 net.cpp:410] inception_4e/relu_3x3 <- inception_4e/3x3
I0703 10:40:11.903115 28611 net.cpp:357] inception_4e/relu_3x3 -> inception_4e/3x3 (in-place)
I0703 10:40:11.903121 28611 net.cpp:120] Setting up inception_4e/relu_3x3
I0703 10:40:11.903164 28611 net.cpp:127] Top shape: 10 320 14 14 (627200)
I0703 10:40:11.903170 28611 layer_factory.hpp:74] Creating layer inception_4e/5x5_reduce
I0703 10:40:11.903178 28611 net.cpp:90] Creating Layer inception_4e/5x5_reduce
I0703 10:40:11.903184 28611 net.cpp:410] inception_4e/5x5_reduce <- inception_4d/output_inception_4d/output_0_split_3
I0703 10:40:11.903192 28611 net.cpp:368] inception_4e/5x5_reduce -> inception_4e/5x5_reduce
I0703 10:40:11.903198 28611 net.cpp:120] Setting up inception_4e/5x5_reduce
I0703 10:40:11.903538 28611 net.cpp:127] Top shape: 10 32 14 14 (62720)
I0703 10:40:11.903550 28611 layer_factory.hpp:74] Creating layer inception_4e/relu_5x5_reduce
I0703 10:40:11.903558 28611 net.cpp:90] Creating Layer inception_4e/relu_5x5_reduce
I0703 10:40:11.903563 28611 net.cpp:410] inception_4e/relu_5x5_reduce <- inception_4e/5x5_reduce
I0703 10:40:11.903568 28611 net.cpp:357] inception_4e/relu_5x5_reduce -> inception_4e/5x5_reduce (in-place)
I0703 10:40:11.903575 28611 net.cpp:120] Setting up inception_4e/relu_5x5_reduce
I0703 10:40:11.903615 28611 net.cpp:127] Top shape: 10 32 14 14 (62720)
I0703 10:40:11.903621 28611 layer_factory.hpp:74] Creating layer inception_4e/5x5
I0703 10:40:11.903628 28611 net.cpp:90] Creating Layer inception_4e/5x5
I0703 10:40:11.903633 28611 net.cpp:410] inception_4e/5x5 <- inception_4e/5x5_reduce
I0703 10:40:11.903640 28611 net.cpp:368] inception_4e/5x5 -> inception_4e/5x5
I0703 10:40:11.903646 28611 net.cpp:120] Setting up inception_4e/5x5
I0703 10:40:11.904366 28611 net.cpp:127] Top shape: 10 128 14 14 (250880)
I0703 10:40:11.904378 28611 layer_factory.hpp:74] Creating layer inception_4e/relu_5x5
I0703 10:40:11.904386 28611 net.cpp:90] Creating Layer inception_4e/relu_5x5
I0703 10:40:11.904391 28611 net.cpp:410] inception_4e/relu_5x5 <- inception_4e/5x5
I0703 10:40:11.904397 28611 net.cpp:357] inception_4e/relu_5x5 -> inception_4e/5x5 (in-place)
I0703 10:40:11.904403 28611 net.cpp:120] Setting up inception_4e/relu_5x5
I0703 10:40:11.904518 28611 net.cpp:127] Top shape: 10 128 14 14 (250880)
I0703 10:40:11.904527 28611 layer_factory.hpp:74] Creating layer inception_4e/pool
I0703 10:40:11.904533 28611 layer_factory.cpp:55] CUDNN does not support padding or multiple tops. Using Caffe's own pooling layer.
I0703 10:40:11.904539 28611 net.cpp:90] Creating Layer inception_4e/pool
I0703 10:40:11.904544 28611 net.cpp:410] inception_4e/pool <- inception_4d/output_inception_4d/output_0_split_4
I0703 10:40:11.904551 28611 net.cpp:368] inception_4e/pool -> inception_4e/pool
I0703 10:40:11.904557 28611 net.cpp:120] Setting up inception_4e/pool
I0703 10:40:11.915591 28611 net.cpp:127] Top shape: 10 528 14 14 (1034880)
I0703 10:40:11.915621 28611 layer_factory.hpp:74] Creating layer inception_4e/pool_proj
I0703 10:40:11.915650 28611 net.cpp:90] Creating Layer inception_4e/pool_proj
I0703 10:40:11.915668 28611 net.cpp:410] inception_4e/pool_proj <- inception_4e/pool
I0703 10:40:11.915719 28611 net.cpp:368] inception_4e/pool_proj -> inception_4e/pool_proj
I0703 10:40:11.915745 28611 net.cpp:120] Setting up inception_4e/pool_proj
I0703 10:40:11.917357 28611 net.cpp:127] Top shape: 10 128 14 14 (250880)
I0703 10:40:11.917393 28611 layer_factory.hpp:74] Creating layer inception_4e/relu_pool_proj
I0703 10:40:11.917415 28611 net.cpp:90] Creating Layer inception_4e/relu_pool_proj
I0703 10:40:11.917433 28611 net.cpp:410] inception_4e/relu_pool_proj <- inception_4e/pool_proj
I0703 10:40:11.917448 28611 net.cpp:357] inception_4e/relu_pool_proj -> inception_4e/pool_proj (in-place)
I0703 10:40:11.917467 28611 net.cpp:120] Setting up inception_4e/relu_pool_proj
I0703 10:40:11.917593 28611 net.cpp:127] Top shape: 10 128 14 14 (250880)
I0703 10:40:11.917610 28611 layer_factory.hpp:74] Creating layer inception_4e/output
I0703 10:40:11.917630 28611 net.cpp:90] Creating Layer inception_4e/output
I0703 10:40:11.917645 28611 net.cpp:410] inception_4e/output <- inception_4e/1x1
I0703 10:40:11.917660 28611 net.cpp:410] inception_4e/output <- inception_4e/3x3
I0703 10:40:11.917675 28611 net.cpp:410] inception_4e/output <- inception_4e/5x5
I0703 10:40:11.917690 28611 net.cpp:410] inception_4e/output <- inception_4e/pool_proj
I0703 10:40:11.917706 28611 net.cpp:368] inception_4e/output -> inception_4e/output
I0703 10:40:11.917724 28611 net.cpp:120] Setting up inception_4e/output
I0703 10:40:11.917744 28611 net.cpp:127] Top shape: 10 832 14 14 (1630720)
I0703 10:40:11.917758 28611 layer_factory.hpp:74] Creating layer pool4/3x3_s2
I0703 10:40:11.917778 28611 net.cpp:90] Creating Layer pool4/3x3_s2
I0703 10:40:11.917791 28611 net.cpp:410] pool4/3x3_s2 <- inception_4e/output
I0703 10:40:11.917809 28611 net.cpp:368] pool4/3x3_s2 -> pool4/3x3_s2
I0703 10:40:11.917826 28611 net.cpp:120] Setting up pool4/3x3_s2
I0703 10:40:11.917953 28611 net.cpp:127] Top shape: 10 832 7 7 (407680)
I0703 10:40:11.917970 28611 layer_factory.hpp:74] Creating layer pool4/3x3_s2_pool4/3x3_s2_0_split
I0703 10:40:11.917987 28611 net.cpp:90] Creating Layer pool4/3x3_s2_pool4/3x3_s2_0_split
I0703 10:40:11.918002 28611 net.cpp:410] pool4/3x3_s2_pool4/3x3_s2_0_split <- pool4/3x3_s2
I0703 10:40:11.918018 28611 net.cpp:368] pool4/3x3_s2_pool4/3x3_s2_0_split -> pool4/3x3_s2_pool4/3x3_s2_0_split_0
I0703 10:40:11.918037 28611 net.cpp:368] pool4/3x3_s2_pool4/3x3_s2_0_split -> pool4/3x3_s2_pool4/3x3_s2_0_split_1
I0703 10:40:11.918056 28611 net.cpp:368] pool4/3x3_s2_pool4/3x3_s2_0_split -> pool4/3x3_s2_pool4/3x3_s2_0_split_2
I0703 10:40:11.918098 28611 net.cpp:368] pool4/3x3_s2_pool4/3x3_s2_0_split -> pool4/3x3_s2_pool4/3x3_s2_0_split_3
I0703 10:40:11.918118 28611 net.cpp:120] Setting up pool4/3x3_s2_pool4/3x3_s2_0_split
I0703 10:40:11.918136 28611 net.cpp:127] Top shape: 10 832 7 7 (407680)
I0703 10:40:11.918151 28611 net.cpp:127] Top shape: 10 832 7 7 (407680)
I0703 10:40:11.918166 28611 net.cpp:127] Top shape: 10 832 7 7 (407680)
I0703 10:40:11.918181 28611 net.cpp:127] Top shape: 10 832 7 7 (407680)
I0703 10:40:11.918195 28611 layer_factory.hpp:74] Creating layer inception_5a/1x1
I0703 10:40:11.918215 28611 net.cpp:90] Creating Layer inception_5a/1x1
I0703 10:40:11.918229 28611 net.cpp:410] inception_5a/1x1 <- pool4/3x3_s2_pool4/3x3_s2_0_split_0
I0703 10:40:11.918247 28611 net.cpp:368] inception_5a/1x1 -> inception_5a/1x1
I0703 10:40:11.918267 28611 net.cpp:120] Setting up inception_5a/1x1
I0703 10:40:11.921877 28611 net.cpp:127] Top shape: 10 256 7 7 (125440)
I0703 10:40:11.921913 28611 layer_factory.hpp:74] Creating layer inception_5a/relu_1x1
I0703 10:40:11.921934 28611 net.cpp:90] Creating Layer inception_5a/relu_1x1
I0703 10:40:11.921950 28611 net.cpp:410] inception_5a/relu_1x1 <- inception_5a/1x1
I0703 10:40:11.921967 28611 net.cpp:357] inception_5a/relu_1x1 -> inception_5a/1x1 (in-place)
I0703 10:40:11.921986 28611 net.cpp:120] Setting up inception_5a/relu_1x1
I0703 10:40:11.922266 28611 net.cpp:127] Top shape: 10 256 7 7 (125440)
I0703 10:40:11.922291 28611 layer_factory.hpp:74] Creating layer inception_5a/3x3_reduce
I0703 10:40:11.922333 28611 net.cpp:90] Creating Layer inception_5a/3x3_reduce
I0703 10:40:11.922349 28611 net.cpp:410] inception_5a/3x3_reduce <- pool4/3x3_s2_pool4/3x3_s2_0_split_1
I0703 10:40:11.922369 28611 net.cpp:368] inception_5a/3x3_reduce -> inception_5a/3x3_reduce
I0703 10:40:11.922389 28611 net.cpp:120] Setting up inception_5a/3x3_reduce
I0703 10:40:11.923887 28611 net.cpp:127] Top shape: 10 160 7 7 (78400)
I0703 10:40:11.923898 28611 layer_factory.hpp:74] Creating layer inception_5a/relu_3x3_reduce
I0703 10:40:11.923905 28611 net.cpp:90] Creating Layer inception_5a/relu_3x3_reduce
I0703 10:40:11.923910 28611 net.cpp:410] inception_5a/relu_3x3_reduce <- inception_5a/3x3_reduce
I0703 10:40:11.923918 28611 net.cpp:357] inception_5a/relu_3x3_reduce -> inception_5a/3x3_reduce (in-place)
I0703 10:40:11.923924 28611 net.cpp:120] Setting up inception_5a/relu_3x3_reduce
I0703 10:40:11.923967 28611 net.cpp:127] Top shape: 10 160 7 7 (78400)
I0703 10:40:11.923974 28611 layer_factory.hpp:74] Creating layer inception_5a/3x3
I0703 10:40:11.923981 28611 net.cpp:90] Creating Layer inception_5a/3x3
I0703 10:40:11.923986 28611 net.cpp:410] inception_5a/3x3 <- inception_5a/3x3_reduce
I0703 10:40:11.923993 28611 net.cpp:368] inception_5a/3x3 -> inception_5a/3x3
I0703 10:40:11.924000 28611 net.cpp:120] Setting up inception_5a/3x3
I0703 10:40:11.926452 28611 net.cpp:127] Top shape: 10 320 7 7 (156800)
I0703 10:40:11.926465 28611 layer_factory.hpp:74] Creating layer inception_5a/relu_3x3
I0703 10:40:11.926472 28611 net.cpp:90] Creating Layer inception_5a/relu_3x3
I0703 10:40:11.926478 28611 net.cpp:410] inception_5a/relu_3x3 <- inception_5a/3x3
I0703 10:40:11.926483 28611 net.cpp:357] inception_5a/relu_3x3 -> inception_5a/3x3 (in-place)
I0703 10:40:11.926491 28611 net.cpp:120] Setting up inception_5a/relu_3x3
I0703 10:40:11.926532 28611 net.cpp:127] Top shape: 10 320 7 7 (156800)
I0703 10:40:11.926537 28611 layer_factory.hpp:74] Creating layer inception_5a/5x5_reduce
I0703 10:40:11.926545 28611 net.cpp:90] Creating Layer inception_5a/5x5_reduce
I0703 10:40:11.926551 28611 net.cpp:410] inception_5a/5x5_reduce <- pool4/3x3_s2_pool4/3x3_s2_0_split_2
I0703 10:40:11.926558 28611 net.cpp:368] inception_5a/5x5_reduce -> inception_5a/5x5_reduce
I0703 10:40:11.926565 28611 net.cpp:120] Setting up inception_5a/5x5_reduce
I0703 10:40:11.926910 28611 net.cpp:127] Top shape: 10 32 7 7 (15680)
I0703 10:40:11.926921 28611 layer_factory.hpp:74] Creating layer inception_5a/relu_5x5_reduce
I0703 10:40:11.926928 28611 net.cpp:90] Creating Layer inception_5a/relu_5x5_reduce
I0703 10:40:11.926934 28611 net.cpp:410] inception_5a/relu_5x5_reduce <- inception_5a/5x5_reduce
I0703 10:40:11.926940 28611 net.cpp:357] inception_5a/relu_5x5_reduce -> inception_5a/5x5_reduce (in-place)
I0703 10:40:11.926946 28611 net.cpp:120] Setting up inception_5a/relu_5x5_reduce
I0703 10:40:11.926988 28611 net.cpp:127] Top shape: 10 32 7 7 (15680)
I0703 10:40:11.926995 28611 layer_factory.hpp:74] Creating layer inception_5a/5x5
I0703 10:40:11.927002 28611 net.cpp:90] Creating Layer inception_5a/5x5
I0703 10:40:11.927007 28611 net.cpp:410] inception_5a/5x5 <- inception_5a/5x5_reduce
I0703 10:40:11.927014 28611 net.cpp:368] inception_5a/5x5 -> inception_5a/5x5
I0703 10:40:11.927021 28611 net.cpp:120] Setting up inception_5a/5x5
I0703 10:40:11.927732 28611 net.cpp:127] Top shape: 10 128 7 7 (62720)
I0703 10:40:11.927744 28611 layer_factory.hpp:74] Creating layer inception_5a/relu_5x5
I0703 10:40:11.927752 28611 net.cpp:90] Creating Layer inception_5a/relu_5x5
I0703 10:40:11.927757 28611 net.cpp:410] inception_5a/relu_5x5 <- inception_5a/5x5
I0703 10:40:11.927762 28611 net.cpp:357] inception_5a/relu_5x5 -> inception_5a/5x5 (in-place)
I0703 10:40:11.927768 28611 net.cpp:120] Setting up inception_5a/relu_5x5
I0703 10:40:11.927891 28611 net.cpp:127] Top shape: 10 128 7 7 (62720)
I0703 10:40:11.927898 28611 layer_factory.hpp:74] Creating layer inception_5a/pool
I0703 10:40:11.927904 28611 layer_factory.cpp:55] CUDNN does not support padding or multiple tops. Using Caffe's own pooling layer.
I0703 10:40:11.927920 28611 net.cpp:90] Creating Layer inception_5a/pool
I0703 10:40:11.927925 28611 net.cpp:410] inception_5a/pool <- pool4/3x3_s2_pool4/3x3_s2_0_split_3
I0703 10:40:11.927933 28611 net.cpp:368] inception_5a/pool -> inception_5a/pool
I0703 10:40:11.927940 28611 net.cpp:120] Setting up inception_5a/pool
I0703 10:40:11.927948 28611 net.cpp:127] Top shape: 10 832 7 7 (407680)
I0703 10:40:11.927953 28611 layer_factory.hpp:74] Creating layer inception_5a/pool_proj
I0703 10:40:11.927960 28611 net.cpp:90] Creating Layer inception_5a/pool_proj
I0703 10:40:11.927965 28611 net.cpp:410] inception_5a/pool_proj <- inception_5a/pool
I0703 10:40:11.927971 28611 net.cpp:368] inception_5a/pool_proj -> inception_5a/pool_proj
I0703 10:40:11.927978 28611 net.cpp:120] Setting up inception_5a/pool_proj
I0703 10:40:11.928714 28611 net.cpp:127] Top shape: 10 128 7 7 (62720)
I0703 10:40:11.928725 28611 layer_factory.hpp:74] Creating layer inception_5a/relu_pool_proj
I0703 10:40:11.928731 28611 net.cpp:90] Creating Layer inception_5a/relu_pool_proj
I0703 10:40:11.928737 28611 net.cpp:410] inception_5a/relu_pool_proj <- inception_5a/pool_proj
I0703 10:40:11.928743 28611 net.cpp:357] inception_5a/relu_pool_proj -> inception_5a/pool_proj (in-place)
I0703 10:40:11.928750 28611 net.cpp:120] Setting up inception_5a/relu_pool_proj
I0703 10:40:11.928791 28611 net.cpp:127] Top shape: 10 128 7 7 (62720)
I0703 10:40:11.928797 28611 layer_factory.hpp:74] Creating layer inception_5a/output
I0703 10:40:11.928804 28611 net.cpp:90] Creating Layer inception_5a/output
I0703 10:40:11.928809 28611 net.cpp:410] inception_5a/output <- inception_5a/1x1
I0703 10:40:11.928814 28611 net.cpp:410] inception_5a/output <- inception_5a/3x3
I0703 10:40:11.928819 28611 net.cpp:410] inception_5a/output <- inception_5a/5x5
I0703 10:40:11.928824 28611 net.cpp:410] inception_5a/output <- inception_5a/pool_proj
I0703 10:40:11.928830 28611 net.cpp:368] inception_5a/output -> inception_5a/output
I0703 10:40:11.928836 28611 net.cpp:120] Setting up inception_5a/output
I0703 10:40:11.928843 28611 net.cpp:127] Top shape: 10 832 7 7 (407680)
I0703 10:40:11.928848 28611 layer_factory.hpp:74] Creating layer inception_5a/output_inception_5a/output_0_split
I0703 10:40:11.928855 28611 net.cpp:90] Creating Layer inception_5a/output_inception_5a/output_0_split
I0703 10:40:11.928859 28611 net.cpp:410] inception_5a/output_inception_5a/output_0_split <- inception_5a/output
I0703 10:40:11.928865 28611 net.cpp:368] inception_5a/output_inception_5a/output_0_split -> inception_5a/output_inception_5a/output_0_split_0
I0703 10:40:11.928872 28611 net.cpp:368] inception_5a/output_inception_5a/output_0_split -> inception_5a/output_inception_5a/output_0_split_1
I0703 10:40:11.928879 28611 net.cpp:368] inception_5a/output_inception_5a/output_0_split -> inception_5a/output_inception_5a/output_0_split_2
I0703 10:40:11.928886 28611 net.cpp:368] inception_5a/output_inception_5a/output_0_split -> inception_5a/output_inception_5a/output_0_split_3
I0703 10:40:11.928891 28611 net.cpp:120] Setting up inception_5a/output_inception_5a/output_0_split
I0703 10:40:11.928899 28611 net.cpp:127] Top shape: 10 832 7 7 (407680)
I0703 10:40:11.928903 28611 net.cpp:127] Top shape: 10 832 7 7 (407680)
I0703 10:40:11.928908 28611 net.cpp:127] Top shape: 10 832 7 7 (407680)
I0703 10:40:11.928913 28611 net.cpp:127] Top shape: 10 832 7 7 (407680)
I0703 10:40:11.928917 28611 layer_factory.hpp:74] Creating layer inception_5b/1x1
I0703 10:40:11.928926 28611 net.cpp:90] Creating Layer inception_5b/1x1
I0703 10:40:11.928931 28611 net.cpp:410] inception_5b/1x1 <- inception_5a/output_inception_5a/output_0_split_0
I0703 10:40:11.946164 28611 net.cpp:368] inception_5b/1x1 -> inception_5b/1x1
I0703 10:40:11.946185 28611 net.cpp:120] Setting up inception_5b/1x1
I0703 10:40:11.950142 28611 net.cpp:127] Top shape: 10 384 7 7 (188160)
I0703 10:40:11.950191 28611 layer_factory.hpp:74] Creating layer inception_5b/relu_1x1
I0703 10:40:11.950217 28611 net.cpp:90] Creating Layer inception_5b/relu_1x1
I0703 10:40:11.950271 28611 net.cpp:410] inception_5b/relu_1x1 <- inception_5b/1x1
I0703 10:40:11.950294 28611 net.cpp:357] inception_5b/relu_1x1 -> inception_5b/1x1 (in-place)
I0703 10:40:11.950316 28611 net.cpp:120] Setting up inception_5b/relu_1x1
I0703 10:40:11.950462 28611 net.cpp:127] Top shape: 10 384 7 7 (188160)
I0703 10:40:11.950482 28611 layer_factory.hpp:74] Creating layer inception_5b/3x3_reduce
I0703 10:40:11.950508 28611 net.cpp:90] Creating Layer inception_5b/3x3_reduce
I0703 10:40:11.950526 28611 net.cpp:410] inception_5b/3x3_reduce <- inception_5a/output_inception_5a/output_0_split_1
I0703 10:40:11.950551 28611 net.cpp:368] inception_5b/3x3_reduce -> inception_5b/3x3_reduce
I0703 10:40:11.950574 28611 net.cpp:120] Setting up inception_5b/3x3_reduce
I0703 10:40:11.953889 28611 net.cpp:127] Top shape: 10 192 7 7 (94080)
I0703 10:40:11.953932 28611 layer_factory.hpp:74] Creating layer inception_5b/relu_3x3_reduce
I0703 10:40:11.953956 28611 net.cpp:90] Creating Layer inception_5b/relu_3x3_reduce
I0703 10:40:11.953976 28611 net.cpp:410] inception_5b/relu_3x3_reduce <- inception_5b/3x3_reduce
I0703 10:40:11.953995 28611 net.cpp:357] inception_5b/relu_3x3_reduce -> inception_5b/3x3_reduce (in-place)
I0703 10:40:11.954017 28611 net.cpp:120] Setting up inception_5b/relu_3x3_reduce
I0703 10:40:11.954160 28611 net.cpp:127] Top shape: 10 192 7 7 (94080)
I0703 10:40:11.954181 28611 layer_factory.hpp:74] Creating layer inception_5b/3x3
I0703 10:40:11.954206 28611 net.cpp:90] Creating Layer inception_5b/3x3
I0703 10:40:11.954223 28611 net.cpp:410] inception_5b/3x3 <- inception_5b/3x3_reduce
I0703 10:40:11.954246 28611 net.cpp:368] inception_5b/3x3 -> inception_5b/3x3
I0703 10:40:11.954268 28611 net.cpp:120] Setting up inception_5b/3x3
I0703 10:40:11.961272 28611 net.cpp:127] Top shape: 10 384 7 7 (188160)
I0703 10:40:11.961284 28611 layer_factory.hpp:74] Creating layer inception_5b/relu_3x3
I0703 10:40:11.961292 28611 net.cpp:90] Creating Layer inception_5b/relu_3x3
I0703 10:40:11.961297 28611 net.cpp:410] inception_5b/relu_3x3 <- inception_5b/3x3
I0703 10:40:11.961304 28611 net.cpp:357] inception_5b/relu_3x3 -> inception_5b/3x3 (in-place)
I0703 10:40:11.961310 28611 net.cpp:120] Setting up inception_5b/relu_3x3
I0703 10:40:11.961427 28611 net.cpp:127] Top shape: 10 384 7 7 (188160)
I0703 10:40:11.961436 28611 layer_factory.hpp:74] Creating layer inception_5b/5x5_reduce
I0703 10:40:11.961444 28611 net.cpp:90] Creating Layer inception_5b/5x5_reduce
I0703 10:40:11.961449 28611 net.cpp:410] inception_5b/5x5_reduce <- inception_5a/output_inception_5a/output_0_split_2
I0703 10:40:11.961457 28611 net.cpp:368] inception_5b/5x5_reduce -> inception_5b/5x5_reduce
I0703 10:40:11.961464 28611 net.cpp:120] Setting up inception_5b/5x5_reduce
I0703 10:40:11.961868 28611 net.cpp:127] Top shape: 10 48 7 7 (23520)
I0703 10:40:11.961879 28611 layer_factory.hpp:74] Creating layer inception_5b/relu_5x5_reduce
I0703 10:40:11.961886 28611 net.cpp:90] Creating Layer inception_5b/relu_5x5_reduce
I0703 10:40:11.961891 28611 net.cpp:410] inception_5b/relu_5x5_reduce <- inception_5b/5x5_reduce
I0703 10:40:11.961897 28611 net.cpp:357] inception_5b/relu_5x5_reduce -> inception_5b/5x5_reduce (in-place)
I0703 10:40:11.961904 28611 net.cpp:120] Setting up inception_5b/relu_5x5_reduce
I0703 10:40:11.961946 28611 net.cpp:127] Top shape: 10 48 7 7 (23520)
I0703 10:40:11.961953 28611 layer_factory.hpp:74] Creating layer inception_5b/5x5
I0703 10:40:11.961961 28611 net.cpp:90] Creating Layer inception_5b/5x5
I0703 10:40:11.961966 28611 net.cpp:410] inception_5b/5x5 <- inception_5b/5x5_reduce
I0703 10:40:11.961972 28611 net.cpp:368] inception_5b/5x5 -> inception_5b/5x5
I0703 10:40:11.961978 28611 net.cpp:120] Setting up inception_5b/5x5
I0703 10:40:11.962935 28611 net.cpp:127] Top shape: 10 128 7 7 (62720)
I0703 10:40:11.962946 28611 layer_factory.hpp:74] Creating layer inception_5b/relu_5x5
I0703 10:40:11.962954 28611 net.cpp:90] Creating Layer inception_5b/relu_5x5
I0703 10:40:11.962960 28611 net.cpp:410] inception_5b/relu_5x5 <- inception_5b/5x5
I0703 10:40:11.962976 28611 net.cpp:357] inception_5b/relu_5x5 -> inception_5b/5x5 (in-place)
I0703 10:40:11.962983 28611 net.cpp:120] Setting up inception_5b/relu_5x5
I0703 10:40:11.963026 28611 net.cpp:127] Top shape: 10 128 7 7 (62720)
I0703 10:40:11.963032 28611 layer_factory.hpp:74] Creating layer inception_5b/pool
I0703 10:40:11.963037 28611 layer_factory.cpp:55] CUDNN does not support padding or multiple tops. Using Caffe's own pooling layer.
I0703 10:40:11.963043 28611 net.cpp:90] Creating Layer inception_5b/pool
I0703 10:40:11.963049 28611 net.cpp:410] inception_5b/pool <- inception_5a/output_inception_5a/output_0_split_3
I0703 10:40:11.963055 28611 net.cpp:368] inception_5b/pool -> inception_5b/pool
I0703 10:40:11.963063 28611 net.cpp:120] Setting up inception_5b/pool
I0703 10:40:11.963070 28611 net.cpp:127] Top shape: 10 832 7 7 (407680)
I0703 10:40:11.963074 28611 layer_factory.hpp:74] Creating layer inception_5b/pool_proj
I0703 10:40:11.963081 28611 net.cpp:90] Creating Layer inception_5b/pool_proj
I0703 10:40:11.963086 28611 net.cpp:410] inception_5b/pool_proj <- inception_5b/pool
I0703 10:40:11.963093 28611 net.cpp:368] inception_5b/pool_proj -> inception_5b/pool_proj
I0703 10:40:11.963099 28611 net.cpp:120] Setting up inception_5b/pool_proj
I0703 10:40:11.963893 28611 net.cpp:127] Top shape: 10 128 7 7 (62720)
I0703 10:40:11.963914 28611 layer_factory.hpp:74] Creating layer inception_5b/relu_pool_proj
I0703 10:40:11.963932 28611 net.cpp:90] Creating Layer inception_5b/relu_pool_proj
I0703 10:40:11.963937 28611 net.cpp:410] inception_5b/relu_pool_proj <- inception_5b/pool_proj
I0703 10:40:11.963943 28611 net.cpp:357] inception_5b/relu_pool_proj -> inception_5b/pool_proj (in-place)
I0703 10:40:11.963949 28611 net.cpp:120] Setting up inception_5b/relu_pool_proj
I0703 10:40:11.963990 28611 net.cpp:127] Top shape: 10 128 7 7 (62720)
I0703 10:40:11.963996 28611 layer_factory.hpp:74] Creating layer inception_5b/output
I0703 10:40:11.964004 28611 net.cpp:90] Creating Layer inception_5b/output
I0703 10:40:11.964009 28611 net.cpp:410] inception_5b/output <- inception_5b/1x1
I0703 10:40:11.964015 28611 net.cpp:410] inception_5b/output <- inception_5b/3x3
I0703 10:40:11.964020 28611 net.cpp:410] inception_5b/output <- inception_5b/5x5
I0703 10:40:11.964025 28611 net.cpp:410] inception_5b/output <- inception_5b/pool_proj
I0703 10:40:11.964030 28611 net.cpp:368] inception_5b/output -> inception_5b/output
I0703 10:40:11.964035 28611 net.cpp:120] Setting up inception_5b/output
I0703 10:40:11.964043 28611 net.cpp:127] Top shape: 10 1024 7 7 (501760)
I0703 10:40:11.964047 28611 layer_factory.hpp:74] Creating layer pool5/7x7_s1
I0703 10:40:11.964053 28611 net.cpp:90] Creating Layer pool5/7x7_s1
I0703 10:40:11.964058 28611 net.cpp:410] pool5/7x7_s1 <- inception_5b/output
I0703 10:40:11.964066 28611 net.cpp:368] pool5/7x7_s1 -> pool5/7x7_s1
I0703 10:40:11.964072 28611 net.cpp:120] Setting up pool5/7x7_s1
I0703 10:40:11.964190 28611 net.cpp:127] Top shape: 10 1024 1 1 (10240)
I0703 10:40:11.964208 28611 layer_factory.hpp:74] Creating layer pool5/drop_7x7_s1
I0703 10:40:11.964215 28611 net.cpp:90] Creating Layer pool5/drop_7x7_s1
I0703 10:40:11.964231 28611 net.cpp:410] pool5/drop_7x7_s1 <- pool5/7x7_s1
I0703 10:40:11.964236 28611 net.cpp:357] pool5/drop_7x7_s1 -> pool5/7x7_s1 (in-place)
I0703 10:40:11.964241 28611 net.cpp:120] Setting up pool5/drop_7x7_s1
I0703 10:40:11.964258 28611 net.cpp:127] Top shape: 10 1024 1 1 (10240)
I0703 10:40:11.964263 28611 layer_factory.hpp:74] Creating layer stanford_cars_loss3/classifier
I0703 10:40:11.964280 28611 net.cpp:90] Creating Layer stanford_cars_loss3/classifier
I0703 10:40:11.964287 28611 net.cpp:410] stanford_cars_loss3/classifier <- pool5/7x7_s1
I0703 10:40:11.964303 28611 net.cpp:368] stanford_cars_loss3/classifier -> stanford_cars_loss3/classifier
I0703 10:40:11.964318 28611 net.cpp:120] Setting up stanford_cars_loss3/classifier
I0703 10:40:11.965359 28611 net.cpp:127] Top shape: 10 196 (1960)
I0703 10:40:11.965368 28611 layer_factory.hpp:74] Creating layer stanford_cars_loss3/classifier_stanford_cars_loss3/classifier_0_split
I0703 10:40:11.965384 28611 net.cpp:90] Creating Layer stanford_cars_loss3/classifier_stanford_cars_loss3/classifier_0_split
I0703 10:40:11.965390 28611 net.cpp:410] stanford_cars_loss3/classifier_stanford_cars_loss3/classifier_0_split <- stanford_cars_loss3/classifier
I0703 10:40:11.965396 28611 net.cpp:368] stanford_cars_loss3/classifier_stanford_cars_loss3/classifier_0_split -> stanford_cars_loss3/classifier_stanford_cars_loss3/classifier_0_split_0
I0703 10:40:11.965404 28611 net.cpp:368] stanford_cars_loss3/classifier_stanford_cars_loss3/classifier_0_split -> stanford_cars_loss3/classifier_stanford_cars_loss3/classifier_0_split_1
I0703 10:40:11.965410 28611 net.cpp:368] stanford_cars_loss3/classifier_stanford_cars_loss3/classifier_0_split -> stanford_cars_loss3/classifier_stanford_cars_loss3/classifier_0_split_2
I0703 10:40:11.965416 28611 net.cpp:120] Setting up stanford_cars_loss3/classifier_stanford_cars_loss3/classifier_0_split
I0703 10:40:11.965422 28611 net.cpp:127] Top shape: 10 196 (1960)
I0703 10:40:11.965428 28611 net.cpp:127] Top shape: 10 196 (1960)
I0703 10:40:11.965432 28611 net.cpp:127] Top shape: 10 196 (1960)
I0703 10:40:11.965437 28611 layer_factory.hpp:74] Creating layer loss3/loss3
I0703 10:40:11.965443 28611 net.cpp:90] Creating Layer loss3/loss3
I0703 10:40:11.965448 28611 net.cpp:410] loss3/loss3 <- stanford_cars_loss3/classifier_stanford_cars_loss3/classifier_0_split_0
I0703 10:40:11.965453 28611 net.cpp:410] loss3/loss3 <- label_data_1_split_6
I0703 10:40:11.965461 28611 net.cpp:368] loss3/loss3 -> loss3/loss3
…
