…
I0712 22:28:04.030454 32223 net.cpp:287] The NetState phase (0) differed from the phase (1) specified by a rule in layer loss3/top-5
I0712 22:28:04.031060 32223 net.cpp:42] Initializing net from parameters: 
name: "GoogleNet"
state {
  phase: TRAIN
}
layer {
  name: "data"
  type: "Data"
  top: "data"
  top: "label"
  include {
    phase: TRAIN
  }
  transform_param {
    mirror: true
    crop_size: 224
    mean_value: 104
    mean_value: 117
    mean_value: 123
  }
  data_param {
    source: "examples/stanford_cars/stanford_cars_train_lmdb"
    batch_size: 30
    backend: LMDB
  }
}
layer {
  name: "conv1/7x7_s2"
  type: "Convolution"
  bottom: "data"
  top: "conv1/7x7_s2"
  param {
    lr_mult: 1
    decay_mult: 1
  }
  param {
    lr_mult: 2
    decay_mult: 0
  }
  convolution_param {
    num_output: 64
    pad: 3
    kernel_size: 7
    stride: 2
    weight_filler {
      type: "xavier"
      std: 0.1
    }
    bias_filler {
      type: "constant"
      value: 0.2
    }
  }
}
layer {
  name: "conv1/relu_7x7"
  type: "ReLU"
  bottom: "conv1/7x7_s2"
  top: "conv1/7x7_s2"
}
layer {
  name: "pool1/3x3_s2"
  type: "Pooling"
  bottom: "conv1/7x7_s2"
  top: "pool1/3x3_s2"
  pooling_param {
    pool: MAX
    kernel_size: 3
    stride: 2
  }
}
layer {
  name: "pool1/norm1"
  type: "LRN"
  bottom: "pool1/3x3_s2"
  top: "pool1/norm1"
  lrn_param {
    local_size: 5
    alpha: 0.0001
    beta: 0.75
  }
}
layer {
  name: "conv2/3x3_reduce"
  type: "Convolution"
  bottom: "pool1/norm1"
  top: "conv2/3x3_reduce"
  param {
    lr_mult: 1
    decay_mult: 1
  }
  param {
    lr_mult: 2
    decay_mult: 0
  }
  convolution_param {
    num_output: 64
    kernel_size: 1
    weight_filler {
      type: "xavier"
      std: 0.1
    }
    bias_filler {
      type: "constant"
      value: 0.2
    }
  }
}
layer {
  name: "conv2/relu_3x3_reduce"
  type: "ReLU"
  bottom: "conv2/3x3_reduce"
  top: "conv2/3x3_reduce"
}
layer {
  name: "conv2/3x3"
  type: "Convolution"
  bottom: "conv2/3x3_reduce"
  top: "conv2/3x3"
  param {
    lr_mult: 1
    decay_mult: 1
  }
  param {
    lr_mult: 2
    decay_mult: 0
  }
  convolution_param {
    num_output: 192
    pad: 1
    kernel_size: 3
    weight_filler {
      type: "xavier"
      std: 0.03
    }
    bias_filler {
      type: "constant"
      value: 0.2
    }
  }
}
layer {
  name: "conv2/relu_3x3"
  type: "ReLU"
  bottom: "conv2/3x3"
  top: "conv2/3x3"
}
layer {
  name: "conv2/norm2"
  type: "LRN"
  bottom: "conv2/3x3"
  top: "conv2/norm2"
  lrn_param {
    local_size: 5
    alpha: 0.0001
    beta: 0.75
  }
}
layer {
  name: "pool2/3x3_s2"
  type: "Pooling"
  bottom: "conv2/norm2"
  top: "pool2/3x3_s2"
  pooling_param {
    pool: MAX
    kernel_size: 3
    stride: 2
  }
}
layer {
  name: "inception_3a/1x1"
  type: "Convolution"
  bottom: "pool2/3x3_s2"
  top: "inception_3a/1x1"
  param {
    lr_mult: 1
    decay_mult: 1
  }
  param {
    lr_mult: 2
    decay_mult: 0
  }
  convolution_param {
    num_output: 64
    kernel_size: 1
    weight_filler {
      type: "xavier"
      std: 0.03
    }
    bias_filler {
      type: "constant"
      value: 0.2
    }
  }
}
layer {
  name: "inception_3a/relu_1x1"
  type: "ReLU"
  bottom: "inception_3a/1x1"
  top: "inception_3a/1x1"
}
layer {
  name: "inception_3a/3x3_reduce"
  type: "Convolution"
  bottom: "pool2/3x3_s2"
  top: "inception_3a/3x3_reduce"
  param {
    lr_mult: 1
    decay_mult: 1
  }
  param {
    lr_mult: 2
    decay_mult: 0
  }
  convolution_param {
    num_output: 96
    kernel_size: 1
    weight_filler {
      type: "xavier"
      std: 0.09
    }
    bias_filler {
      type: "constant"
      value: 0.2
    }
  }
}
layer {
  name: "inception_3a/relu_3x3_reduce"
  type: "ReLU"
  bottom: "inception_3a/3x3_reduce"
  top: "inception_3a/3x3_reduce"
}
layer {
  name: "inception_3a/3x3"
  type: "Convolution"
  bottom: "inception_3a/3x3_reduce"
  top: "inception_3a/3x3"
  param {
    lr_mult: 1
    decay_mult: 1
  }
  param {
    lr_mult: 2
    decay_mult: 0
  }
  convolution_param {
    num_output: 128
    pad: 1
    kernel_size: 3
    weight_filler {
      type: "xavier"
      std: 0.03
    }
    bias_filler {
      type: "constant"
      value: 0.2
    }
  }
}
layer {
  name: "inception_3a/relu_3x3"
  type: "ReLU"
  bottom: "inception_3a/3x3"
  top: "inception_3a/3x3"
}
layer {
  name: "inception_3a/5x5_reduce"
  type: "Convolution"
  bottom: "pool2/3x3_s2"
  top: "inception_3a/5x5_reduce"
  param {
    lr_mult: 1
    decay_mult: 1
  }
  param {
    lr_mult: 2
    decay_mult: 0
  }
  convolution_param {
    num_output: 16
    kernel_size: 1
    weight_filler {
      type: "xavier"
      std: 0.2
    }
    bias_filler {
      type: "constant"
      value: 0.2
    }
  }
}
layer {
  name: "inception_3a/relu_5x5_reduce"
  type: "ReLU"
  bottom: "inception_3a/5x5_reduce"
  top: "inception_3a/5x5_reduce"
}
layer {
  name: "inception_3a/5x5"
  type: "Convolution"
  bottom: "inception_3a/5x5_reduce"
  top: "inception_3a/5x5"
  param {
    lr_mult: 1
    decay_mult: 1
  }
  param {
    lr_mult: 2
    decay_mult: 0
  }
  convolution_param {
    num_output: 32
    pad: 2
    kernel_size: 5
    weight_filler {
      type: "xavier"
      std: 0.03
    }
    bias_filler {
      type: "constant"
      value: 0.2
    }
  }
}
layer {
  name: "inception_3a/relu_5x5"
  type: "ReLU"
  bottom: "inception_3a/5x5"
  top: "inception_3a/5x5"
}
layer {
  name: "inception_3a/pool"
  type: "Pooling"
  bottom: "pool2/3x3_s2"
  top: "inception_3a/pool"
  pooling_param {
    pool: MAX
    kernel_size: 3
    stride: 1
    pad: 1
  }
}
layer {
  name: "inception_3a/pool_proj"
  type: "Convolution"
  bottom: "inception_3a/pool"
  top: "inception_3a/pool_proj"
  param {
    lr_mult: 1
    decay_mult: 1
  }
  param {
    lr_mult: 2
    decay_mult: 0
  }
  convolution_param {
    num_output: 32
    kernel_size: 1
    weight_filler {
      type: "xavier"
      std: 0.1
    }
    bias_filler {
      type: "constant"
      value: 0.2
    }
  }
}
layer {
  name: "inception_3a/relu_pool_proj"
  type: "ReLU"
  bottom: "inception_3a/pool_proj"
  top: "inception_3a/pool_proj"
}
layer {
  name: "inception_3a/output"
  type: "Concat"
  bottom: "inception_3a/1x1"
  bottom: "inception_3a/3x3"
  bottom: "inception_3a/5x5"
  bottom: "inception_3a/pool_proj"
  top: "inception_3a/output"
}
layer {
  name: "inception_3b/1x1"
  type: "Convolution"
  bottom: "inception_3a/output"
  top: "inception_3b/1x1"
  param {
    lr_mult: 1
    decay_mult: 1
  }
  param {
    lr_mult: 2
    decay_mult: 0
  }
  convolution_param {
    num_output: 128
    kernel_size: 1
    weight_filler {
      type: "xavier"
      std: 0.03
    }
    bias_filler {
      type: "constant"
      value: 0.2
    }
  }
}
layer {
  name: "inception_3b/relu_1x1"
  type: "ReLU"
  bottom: "inception_3b/1x1"
  top: "inception_3b/1x1"
}
layer {
  name: "inception_3b/3x3_reduce"
  type: "Convolution"
  bottom: "inception_3a/output"
  top: "inception_3b/3x3_reduce"
  param {
    lr_mult: 1
    decay_mult: 1
  }
  param {
    lr_mult: 2
    decay_mult: 0
  }
  convolution_param {
    num_output: 128
    kernel_size: 1
    weight_filler {
      type: "xavier"
      std: 0.09
    }
    bias_filler {
      type: "constant"
      value: 0.2
    }
  }
}
layer {
  name: "inception_3b/relu_3x3_reduce"
  type: "ReLU"
  bottom: "inception_3b/3x3_reduce"
  top: "inception_3b/3x3_reduce"
}
layer {
  name: "inception_3b/3x3"
  type: "Convolution"
  bottom: "inception_3b/3x3_reduce"
  top: "inception_3b/3x3"
  param {
    lr_mult: 1
    decay_mult: 1
  }
  param {
    lr_mult: 2
    decay_mult: 0
  }
  convolution_param {
    num_output: 192
    pad: 1
    kernel_size: 3
    weight_filler {
      type: "xavier"
      std: 0.03
    }
    bias_filler {
      type: "constant"
      value: 0.2
    }
  }
}
layer {
  name: "inception_3b/relu_3x3"
  type: "ReLU"
  bottom: "inception_3b/3x3"
  top: "inception_3b/3x3"
}
layer {
  name: "inception_3b/5x5_reduce"
  type: "Convolution"
  bottom: "inception_3a/output"
  top: "inception_3b/5x5_reduce"
  param {
    lr_mult: 1
    decay_mult: 1
  }
  param {
    lr_mult: 2
    decay_mult: 0
  }
  convolution_param {
    num_output: 32
    kernel_size: 1
    weight_filler {
      type: "xavier"
      std: 0.2
    }
    bias_filler {
      type: "constant"
      value: 0.2
    }
  }
}
layer {
  name: "inception_3b/relu_5x5_reduce"
  type: "ReLU"
  bottom: "inception_3b/5x5_reduce"
  top: "inception_3b/5x5_reduce"
}
layer {
  name: "inception_3b/5x5"
  type: "Convolution"
  bottom: "inception_3b/5x5_reduce"
  top: "inception_3b/5x5"
  param {
    lr_mult: 1
    decay_mult: 1
  }
  param {
    lr_mult: 2
    decay_mult: 0
  }
  convolution_param {
    num_output: 96
    pad: 2
    kernel_size: 5
    weight_filler {
      type: "xavier"
      std: 0.03
    }
    bias_filler {
      type: "constant"
      value: 0.2
    }
  }
}
layer {
  name: "inception_3b/relu_5x5"
  type: "ReLU"
  bottom: "inception_3b/5x5"
  top: "inception_3b/5x5"
}
layer {
  name: "inception_3b/pool"
  type: "Pooling"
  bottom: "inception_3a/output"
  top: "inception_3b/pool"
  pooling_param {
    pool: MAX
    kernel_size: 3
    stride: 1
    pad: 1
  }
}
layer {
  name: "inception_3b/pool_proj"
  type: "Convolution"
  bottom: "inception_3b/pool"
  top: "inception_3b/pool_proj"
  param {
    lr_mult: 1
    decay_mult: 1
  }
  param {
    lr_mult: 2
    decay_mult: 0
  }
  convolution_param {
    num_output: 64
    kernel_size: 1
    weight_filler {
      type: "xavier"
      std: 0.1
    }
    bias_filler {
      type: "constant"
      value: 0.2
    }
  }
}
layer {
  name: "inception_3b/relu_pool_proj"
  type: "ReLU"
  bottom: "inception_3b/pool_proj"
  top: "inception_3b/pool_proj"
}
layer {
  name: "inception_3b/output"
  type: "Concat"
  bottom: "inception_3b/1x1"
  bottom: "inception_3b/3x3"
  bottom: "inception_3b/5x5"
  bottom: "inception_3b/pool_proj"
  top: "inception_3b/output"
}
layer {
  name: "pool3/3x3_s2"
  type: "Pooling"
  bottom: "inception_3b/output"
  top: "pool3/3x3_s2"
  pooling_param {
    pool: MAX
    kernel_size: 3
    stride: 2
  }
}
layer {
  name: "inception_4a/1x1"
  type: "Convolution"
  bottom: "pool3/3x3_s2"
  top: "inception_4a/1x1"
  param {
    lr_mult: 1
    decay_mult: 1
  }
  param {
    lr_mult: 2
    decay_mult: 0
  }
  convolution_param {
    num_output: 192
    kernel_size: 1
    weight_filler {
      type: "xavier"
      std: 0.03
    }
    bias_filler {
      type: "constant"
      value: 0.2
    }
  }
}
layer {
  name: "inception_4a/relu_1x1"
  type: "ReLU"
  bottom: "inception_4a/1x1"
  top: "inception_4a/1x1"
}
layer {
  name: "inception_4a/3x3_reduce"
  type: "Convolution"
  bottom: "pool3/3x3_s2"
  top: "inception_4a/3x3_reduce"
  param {
    lr_mult: 1
    decay_mult: 1
  }
  param {
    lr_mult: 2
    decay_mult: 0
  }
  convolution_param {
    num_output: 96
    kernel_size: 1
    weight_filler {
      type: "xavier"
      std: 0.09
    }
    bias_filler {
      type: "constant"
      value: 0.2
    }
  }
}
layer {
  name: "inception_4a/relu_3x3_reduce"
  type: "ReLU"
  bottom: "inception_4a/3x3_reduce"
  top: "inception_4a/3x3_reduce"
}
layer {
  name: "inception_4a/3x3"
  type: "Convolution"
  bottom: "inception_4a/3x3_reduce"
  top: "inception_4a/3x3"
  param {
    lr_mult: 1
    decay_mult: 1
  }
  param {
    lr_mult: 2
    decay_mult: 0
  }
  convolution_param {
    num_output: 208
    pad: 1
    kernel_size: 3
    weight_filler {
      type: "xavier"
      std: 0.03
    }
    bias_filler {
      type: "constant"
      value: 0.2
    }
  }
}
layer {
  name: "inception_4a/relu_3x3"
  type: "ReLU"
  bottom: "inception_4a/3x3"
  top: "inception_4a/3x3"
}
layer {
  name: "inception_4a/5x5_reduce"
  type: "Convolution"
  bottom: "pool3/3x3_s2"
  top: "inception_4a/5x5_reduce"
  param {
    lr_mult: 1
    decay_mult: 1
  }
  param {
    lr_mult: 2
    decay_mult: 0
  }
  convolution_param {
    num_output: 16
    kernel_size: 1
    weight_filler {
      type: "xavier"
      std: 0.2
    }
    bias_filler {
      type: "constant"
      value: 0.2
    }
  }
}
layer {
  name: "inception_4a/relu_5x5_reduce"
  type: "ReLU"
  bottom: "inception_4a/5x5_reduce"
  top: "inception_4a/5x5_reduce"
}
layer {
  name: "inception_4a/5x5"
  type: "Convolution"
  bottom: "inception_4a/5x5_reduce"
  top: "inception_4a/5x5"
  param {
    lr_mult: 1
    decay_mult: 1
  }
  param {
    lr_mult: 2
    decay_mult: 0
  }
  convolution_param {
    num_output: 48
    pad: 2
    kernel_size: 5
    weight_filler {
      type: "xavier"
      std: 0.03
    }
    bias_filler {
      type: "constant"
      value: 0.2
    }
  }
}
layer {
  name: "inception_4a/relu_5x5"
  type: "ReLU"
  bottom: "inception_4a/5x5"
  top: "inception_4a/5x5"
}
layer {
  name: "inception_4a/pool"
  type: "Pooling"
  bottom: "pool3/3x3_s2"
  top: "inception_4a/pool"
  pooling_param {
    pool: MAX
    kernel_size: 3
    stride: 1
    pad: 1
  }
}
layer {
  name: "inception_4a/pool_proj"
  type: "Convolution"
  bottom: "inception_4a/pool"
  top: "inception_4a/pool_proj"
  param {
    lr_mult: 1
    decay_mult: 1
  }
  param {
    lr_mult: 2
    decay_mult: 0
  }
  convolution_param {
    num_output: 64
    kernel_size: 1
    weight_filler {
      type: "xavier"
      std: 0.1
    }
    bias_filler {
      type: "constant"
      value: 0.2
    }
  }
}
layer {
  name: "inception_4a/relu_pool_proj"
  type: "ReLU"
  bottom: "inception_4a/pool_proj"
  top: "inception_4a/pool_proj"
}
layer {
  name: "inception_4a/output"
  type: "Concat"
  bottom: "inception_4a/1x1"
  bottom: "inception_4a/3x3"
  bottom: "inception_4a/5x5"
  bottom: "inception_4a/pool_proj"
  top: "inception_4a/output"
}
layer {
  name: "loss1/ave_pool"
  type: "Pooling"
  bottom: "inception_4a/output"
  top: "loss1/ave_pool"
  pooling_param {
    pool: AVE
    kernel_size: 5
    stride: 3
  }
}
layer {
  name: "loss1/conv"
  type: "Convolution"
  bottom: "loss1/ave_pool"
  top: "loss1/conv"
  param {
    lr_mult: 1
    decay_mult: 1
  }
  param {
    lr_mult: 2
    decay_mult: 0
  }
  convolution_param {
    num_output: 128
    kernel_size: 1
    weight_filler {
      type: "xavier"
      std: 0.08
    }
    bias_filler {
      type: "constant"
      value: 0.2
    }
  }
}
layer {
  name: "loss1/relu_conv"
  type: "ReLU"
  bottom: "loss1/conv"
  top: "loss1/conv"
}
layer {
  name: "loss1/fc"
  type: "InnerProduct"
  bottom: "loss1/conv"
  top: "loss1/fc"
  param {
    lr_mult: 1
    decay_mult: 1
  }
  param {
    lr_mult: 2
    decay_mult: 0
  }
  inner_product_param {
    num_output: 1024
    weight_filler {
      type: "xavier"
      std: 0.02
    }
    bias_filler {
      type: "constant"
      value: 0.2
    }
  }
}
layer {
  name: "loss1/relu_fc"
  type: "ReLU"
  bottom: "loss1/fc"
  top: "loss1/fc"
}
layer {
  name: "loss1/drop_fc"
  type: "Dropout"
  bottom: "loss1/fc"
  top: "loss1/fc"
  dropout_param {
    dropout_ratio: 0.2
  }
}
layer {
  name: "stanford_cars_loss1/classifier"
  type: "InnerProduct"
  bottom: "loss1/fc"
  top: "stanford_cars_loss1/classifier"
  param {
    lr_mult: 1
    decay_mult: 1
  }
  param {
    lr_mult: 2
    decay_mult: 0
  }
  inner_product_param {
    num_output: 196
    weight_filler {
      type: "xavier"
      std: 0.0009765625
    }
    bias_filler {
      type: "constant"
      value: 0
    }
  }
}
layer {
  name: "loss1/loss"
  type: "SoftmaxWithLoss"
  bottom: "stanford_cars_loss1/classifier"
  bottom: "label"
  top: "loss1/loss1"
  loss_weight: 0.3
}
layer {
  name: "inception_4b/1x1"
  type: "Convolution"
  bottom: "inception_4a/output"
  top: "inception_4b/1x1"
  param {
    lr_mult: 1
    decay_mult: 1
  }
  param {
    lr_mult: 2
    decay_mult: 0
  }
  convolution_param {
    num_output: 160
    kernel_size: 1
    weight_filler {
      type: "xavier"
      std: 0.03
    }
    bias_filler {
      type: "constant"
      value: 0.2
    }
  }
}
layer {
  name: "inception_4b/relu_1x1"
  type: "ReLU"
  bottom: "inception_4b/1x1"
  top: "inception_4b/1x1"
}
layer {
  name: "inception_4b/3x3_reduce"
  type: "Convolution"
  bottom: "inception_4a/output"
  top: "inception_4b/3x3_reduce"
  param {
    lr_mult: 1
    decay_mult: 1
  }
  param {
    lr_mult: 2
    decay_mult: 0
  }
  convolution_param {
    num_output: 112
    kernel_size: 1
    weight_filler {
      type: "xavier"
      std: 0.09
    }
    bias_filler {
      type: "constant"
      value: 0.2
    }
  }
}
layer {
  name: "inception_4b/relu_3x3_reduce"
  type: "ReLU"
  bottom: "inception_4b/3x3_reduce"
  top: "inception_4b/3x3_reduce"
}
layer {
  name: "inception_4b/3x3"
  type: "Convolution"
  bottom: "inception_4b/3x3_reduce"
  top: "inception_4b/3x3"
  param {
    lr_mult: 1
    decay_mult: 1
  }
  param {
    lr_mult: 2
    decay_mult: 0
  }
  convolution_param {
    num_output: 224
    pad: 1
    kernel_size: 3
    weight_filler {
      type: "xavier"
      std: 0.03
    }
    bias_filler {
      type: "constant"
      value: 0.2
    }
  }
}
layer {
  name: "inception_4b/relu_3x3"
  type: "ReLU"
  bottom: "inception_4b/3x3"
  top: "inception_4b/3x3"
}
layer {
  name: "inception_4b/5x5_reduce"
  type: "Convolution"
  bottom: "inception_4a/output"
  top: "inception_4b/5x5_reduce"
  param {
    lr_mult: 1
    decay_mult: 1
  }
  param {
    lr_mult: 2
    decay_mult: 0
  }
  convolution_param {
    num_output: 24
    kernel_size: 1
    weight_filler {
      type: "xavier"
      std: 0.2
    }
    bias_filler {
      type: "constant"
      value: 0.2
    }
  }
}
layer {
  name: "inception_4b/relu_5x5_reduce"
  type: "ReLU"
  bottom: "inception_4b/5x5_reduce"
  top: "inception_4b/5x5_reduce"
}
layer {
  name: "inception_4b/5x5"
  type: "Convolution"
  bottom: "inception_4b/5x5_reduce"
  top: "inception_4b/5x5"
  param {
    lr_mult: 1
    decay_mult: 1
  }
  param {
    lr_mult: 2
    decay_mult: 0
  }
  convolution_param {
    num_output: 64
    pad: 2
    kernel_size: 5
    weight_filler {
      type: "xavier"
      std: 0.03
    }
    bias_filler {
      type: "constant"
      value: 0.2
    }
  }
}
layer {
  name: "inception_4b/relu_5x5"
  type: "ReLU"
  bottom: "inception_4b/5x5"
  top: "inception_4b/5x5"
}
layer {
  name: "inception_4b/pool"
  type: "Pooling"
  bottom: "inception_4a/output"
  top: "inception_4b/pool"
  pooling_param {
    pool: MAX
    kernel_size: 3
    stride: 1
    pad: 1
  }
}
layer {
  name: "inception_4b/pool_proj"
  type: "Convolution"
  bottom: "inception_4b/pool"
  top: "inception_4b/pool_proj"
  param {
    lr_mult: 1
    decay_mult: 1
  }
  param {
    lr_mult: 2
    decay_mult: 0
  }
  convolution_param {
    num_output: 64
    kernel_size: 1
    weight_filler {
      type: "xavier"
      std: 0.1
    }
    bias_filler {
      type: "constant"
      value: 0.2
    }
  }
}
layer {
  name: "inception_4b/relu_pool_proj"
  type: "ReLU"
  bottom: "inception_4b/pool_proj"
  top: "inception_4b/pool_proj"
}
layer {
  name: "inception_4b/output"
  type: "Concat"
  bottom: "inception_4b/1x1"
  bottom: "inception_4b/3x3"
  bottom: "inception_4b/5x5"
  bottom: "inception_4b/pool_proj"
  top: "inception_4b/output"
}
layer {
  name: "inception_4c/1x1"
  type: "Convolution"
  bottom: "inception_4b/output"
  top: "inception_4c/1x1"
  param {
    lr_mult: 1
    decay_mult: 1
  }
  param {
    lr_mult: 2
    decay_mult: 0
  }
  convolution_param {
    num_output: 128
    kernel_size: 1
    weight_filler {
      type: "xavier"
      std: 0.03
    }
    bias_filler {
      type: "constant"
      value: 0.2
    }
  }
}
layer {
  name: "inception_4c/relu_1x1"
  type: "ReLU"
  bottom: "inception_4c/1x1"
  top: "inception_4c/1x1"
}
layer {
  name: "inception_4c/3x3_reduce"
  type: "Convolution"
  bottom: "inception_4b/output"
  top: "inception_4c/3x3_reduce"
  param {
    lr_mult: 1
    decay_mult: 1
  }
  param {
    lr_mult: 2
    decay_mult: 0
  }
  convolution_param {
    num_output: 128
    kernel_size: 1
    weight_filler {
      type: "xavier"
      std: 0.09
    }
    bias_filler {
      type: "constant"
      value: 0.2
    }
  }
}
layer {
  name: "inception_4c/relu_3x3_reduce"
  type: "ReLU"
  bottom: "inception_4c/3x3_reduce"
  top: "inception_4c/3x3_reduce"
}
layer {
  name: "inception_4c/3x3"
  type: "Convolution"
  bottom: "inception_4c/3x3_reduce"
  top: "inception_4c/3x3"
  param {
    lr_mult: 1
    decay_mult: 1
  }
  param {
    lr_mult: 2
    decay_mult: 0
  }
  convolution_param {
    num_output: 256
    pad: 1
    kernel_size: 3
    weight_filler {
      type: "xavier"
      std: 0.03
    }
    bias_filler {
      type: "constant"
      value: 0.2
    }
  }
}
layer {
  name: "inception_4c/relu_3x3"
  type: "ReLU"
  bottom: "inception_4c/3x3"
  top: "inception_4c/3x3"
}
layer {
  name: "inception_4c/5x5_reduce"
  type: "Convolution"
  bottom: "inception_4b/output"
  top: "inception_4c/5x5_reduce"
  param {
    lr_mult: 1
    decay_mult: 1
  }
  param {
    lr_mult: 2
    decay_mult: 0
  }
  convolution_param {
    num_output: 24
    kernel_size: 1
    weight_filler {
      type: "xavier"
      std: 0.2
    }
    bias_filler {
      type: "constant"
      value: 0.2
    }
  }
}
layer {
  name: "inception_4c/relu_5x5_reduce"
  type: "ReLU"
  bottom: "inception_4c/5x5_reduce"
  top: "inception_4c/5x5_reduce"
}
layer {
  name: "inception_4c/5x5"
  type: "Convolution"
  bottom: "inception_4c/5x5_reduce"
  top: "inception_4c/5x5"
  param {
    lr_mult: 1
    decay_mult: 1
  }
  param {
    lr_mult: 2
    decay_mult: 0
  }
  convolution_param {
    num_output: 64
    pad: 2
    kernel_size: 5
    weight_filler {
      type: "xavier"
      std: 0.03
    }
    bias_filler {
      type: "constant"
      value: 0.2
    }
  }
}
layer {
  name: "inception_4c/relu_5x5"
  type: "ReLU"
  bottom: "inception_4c/5x5"
  top: "inception_4c/5x5"
}
layer {
  name: "inception_4c/pool"
  type: "Pooling"
  bottom: "inception_4b/output"
  top: "inception_4c/pool"
  pooling_param {
    pool: MAX
    kernel_size: 3
    stride: 1
    pad: 1
  }
}
layer {
  name: "inception_4c/pool_proj"
  type: "Convolution"
  bottom: "inception_4c/pool"
  top: "inception_4c/pool_proj"
  param {
    lr_mult: 1
    decay_mult: 1
  }
  param {
    lr_mult: 2
    decay_mult: 0
  }
  convolution_param {
    num_output: 64
    kernel_size: 1
    weight_filler {
      type: "xavier"
      std: 0.1
    }
    bias_filler {
      type: "constant"
      value: 0.2
    }
  }
}
layer {
  name: "inception_4c/relu_pool_proj"
  type: "ReLU"
  bottom: "inception_4c/pool_proj"
  top: "inception_4c/pool_proj"
}
layer {
  name: "inception_4c/output"
  type: "Concat"
  bottom: "inception_4c/1x1"
  bottom: "inception_4c/3x3"
  bottom: "inception_4c/5x5"
  bottom: "inception_4c/pool_proj"
  top: "inception_4c/output"
}
layer {
  name: "inception_4d/1x1"
  type: "Convolution"
  bottom: "inception_4c/output"
  top: "inception_4d/1x1"
  param {
    lr_mult: 1
    decay_mult: 1
  }
  param {
    lr_mult: 2
    decay_mult: 0
  }
  convolution_param {
    num_output: 112
    kernel_size: 1
    weight_filler {
      type: "xavier"
      std: 0.03
    }
    bias_filler {
      type: "constant"
      value: 0.2
    }
  }
}
layer {
  name: "inception_4d/relu_1x1"
  type: "ReLU"
  bottom: "inception_4d/1x1"
  top: "inception_4d/1x1"
}
layer {
  name: "inception_4d/3x3_reduce"
  type: "Convolution"
  bottom: "inception_4c/output"
  top: "inception_4d/3x3_reduce"
  param {
    lr_mult: 1
    decay_mult: 1
  }
  param {
    lr_mult: 2
    decay_mult: 0
  }
  convolution_param {
    num_output: 144
    kernel_size: 1
    weight_filler {
      type: "xavier"
      std: 0.09
    }
    bias_filler {
      type: "constant"
      value: 0.2
    }
  }
}
layer {
  name: "inception_4d/relu_3x3_reduce"
  type: "ReLU"
  bottom: "inception_4d/3x3_reduce"
  top: "inception_4d/3x3_reduce"
}
layer {
  name: "inception_4d/3x3"
  type: "Convolution"
  bottom: "inception_4d/3x3_reduce"
  top: "inception_4d/3x3"
  param {
    lr_mult: 1
    decay_mult: 1
  }
  param {
    lr_mult: 2
    decay_mult: 0
  }
  convolution_param {
    num_output: 288
    pad: 1
    kernel_size: 3
    weight_filler {
      type: "xavier"
      std: 0.03
    }
    bias_filler {
      type: "constant"
      value: 0.2
    }
  }
}
layer {
  name: "inception_4d/relu_3x3"
  type: "ReLU"
  bottom: "inception_4d/3x3"
  top: "inception_4d/3x3"
}
layer {
  name: "inception_4d/5x5_reduce"
  type: "Convolution"
  bottom: "inception_4c/output"
  top: "inception_4d/5x5_reduce"
  param {
    lr_mult: 1
    decay_mult: 1
  }
  param {
    lr_mult: 2
    decay_mult: 0
  }
  convolution_param {
    num_output: 32
    kernel_size: 1
    weight_filler {
      type: "xavier"
      std: 0.2
    }
    bias_filler {
      type: "constant"
      value: 0.2
    }
  }
}
layer {
  name: "inception_4d/relu_5x5_reduce"
  type: "ReLU"
  bottom: "inception_4d/5x5_reduce"
  top: "inception_4d/5x5_reduce"
}
layer {
  name: "inception_4d/5x5"
  type: "Convolution"
  bottom: "inception_4d/5x5_reduce"
  top: "inception_4d/5x5"
  param {
    lr_mult: 1
    decay_mult: 1
  }
  param {
    lr_mult: 2
    decay_mult: 0
  }
  convolution_param {
    num_output: 64
    pad: 2
    kernel_size: 5
    weight_filler {
      type: "xavier"
      std: 0.03
    }
    bias_filler {
      type: "constant"
      value: 0.2
    }
  }
}
layer {
  name: "inception_4d/relu_5x5"
  type: "ReLU"
  bottom: "inception_4d/5x5"
  top: "inception_4d/5x5"
}
layer {
  name: "inception_4d/pool"
  type: "Pooling"
  bottom: "inception_4c/output"
  top: "inception_4d/pool"
  pooling_param {
    pool: MAX
    kernel_size: 3
    stride: 1
    pad: 1
  }
}
layer {
  name: "inception_4d/pool_proj"
  type: "Convolution"
  bottom: "inception_4d/pool"
  top: "inception_4d/pool_proj"
  param {
    lr_mult: 1
    decay_mult: 1
  }
  param {
    lr_mult: 2
    decay_mult: 0
  }
  convolution_param {
    num_output: 64
    kernel_size: 1
    weight_filler {
      type: "xavier"
      std: 0.1
    }
    bias_filler {
      type: "constant"
      value: 0.2
    }
  }
}
layer {
  name: "inception_4d/relu_pool_proj"
  type: "ReLU"
  bottom: "inception_4d/pool_proj"
  top: "inception_4d/pool_proj"
}
layer {
  name: "inception_4d/output"
  type: "Concat"
  bottom: "inception_4d/1x1"
  bottom: "inception_4d/3x3"
  bottom: "inception_4d/5x5"
  bottom: "inception_4d/pool_proj"
  top: "inception_4d/output"
}
layer {
  name: "loss2/ave_pool"
  type: "Pooling"
  bottom: "inception_4d/output"
  top: "loss2/ave_pool"
  pooling_param {
    pool: AVE
    kernel_size: 5
    stride: 3
  }
}
layer {
  name: "loss2/conv"
  type: "Convolution"
  bottom: "loss2/ave_pool"
  top: "loss2/conv"
  param {
    lr_mult: 1
    decay_mult: 1
  }
  param {
    lr_mult: 2
    decay_mult: 0
  }
  convolution_param {
    num_output: 128
    kernel_size: 1
    weight_filler {
      type: "xavier"
      std: 0.08
    }
    bias_filler {
      type: "constant"
      value: 0.2
    }
  }
}
layer {
  name: "loss2/relu_conv"
  type: "ReLU"
  bottom: "loss2/conv"
  top: "loss2/conv"
}
layer {
  name: "loss2/fc"
  type: "InnerProduct"
  bottom: "loss2/conv"
  top: "loss2/fc"
  param {
    lr_mult: 1
    decay_mult: 1
  }
  param {
    lr_mult: 2
    decay_mult: 0
  }
  inner_product_param {
    num_output: 1024
    weight_filler {
      type: "xavier"
      std: 0.02
    }
    bias_filler {
      type: "constant"
      value: 0.2
    }
  }
}
layer {
  name: "loss2/relu_fc"
  type: "ReLU"
  bottom: "loss2/fc"
  top: "loss2/fc"
}
layer {
  name: "loss2/drop_fc"
  type: "Dropout"
  bottom: "loss2/fc"
  top: "loss2/fc"
  dropout_param {
    dropout_ratio: 0.2
  }
}
layer {
  name: "stanford_cars_loss2/classifier"
  type: "InnerProduct"
  bottom: "loss2/fc"
  top: "stanford_cars_loss2/classifier"
  param {
    lr_mult: 1
    decay_mult: 1
  }
  param {
    lr_mult: 2
    decay_mult: 0
  }
  inner_product_param {
    num_output: 196
    weight_filler {
      type: "xavier"
      std: 0.0009765625
    }
    bias_filler {
      type: "constant"
      value: 0
    }
  }
}
layer {
  name: "stanford_cars_loss2/loss"
  type: "SoftmaxWithLoss"
  bottom: "stanford_cars_loss2/classifier"
  bottom: "label"
  top: "loss2/loss1"
  loss_weight: 0.3
}
layer {
  name: "inception_4e/1x1"
  type: "Convolution"
  bottom: "inception_4d/output"
  top: "inception_4e/1x1"
  param {
    lr_mult: 1
    decay_mult: 1
  }
  param {
    lr_mult: 2
    decay_mult: 0
  }
  convolution_param {
    num_output: 256
    kernel_size: 1
    weight_filler {
      type: "xavier"
      std: 0.03
    }
    bias_filler {
      type: "constant"
      value: 0.2
    }
  }
}
layer {
  name: "inception_4e/relu_1x1"
  type: "ReLU"
  bottom: "inception_4e/1x1"
  top: "inception_4e/1x1"
}
layer {
  name: "inception_4e/3x3_reduce"
  type: "Convolution"
  bottom: "inception_4d/output"
  top: "inception_4e/3x3_reduce"
  param {
    lr_mult: 1
    decay_mult: 1
  }
  param {
    lr_mult: 2
    decay_mult: 0
  }
  convolution_param {
    num_output: 160
    kernel_size: 1
    weight_filler {
      type: "xavier"
      std: 0.09
    }
    bias_filler {
      type: "constant"
      value: 0.2
    }
  }
}
layer {
  name: "inception_4e/relu_3x3_reduce"
  type: "ReLU"
  bottom: "inception_4e/3x3_reduce"
  top: "inception_4e/3x3_reduce"
}
layer {
  name: "inception_4e/3x3"
  type: "Convolution"
  bottom: "inception_4e/3x3_reduce"
  top: "inception_4e/3x3"
  param {
    lr_mult: 1
    decay_mult: 1
  }
  param {
    lr_mult: 2
    decay_mult: 0
  }
  convolution_param {
    num_output: 320
    pad: 1
    kernel_size: 3
    weight_filler {
      type: "xavier"
      std: 0.03
    }
    bias_filler {
      type: "constant"
      value: 0.2
    }
  }
}
layer {
  name: "inception_4e/relu_3x3"
  type: "ReLU"
  bottom: "inception_4e/3x3"
  top: "inception_4e/3x3"
}
layer {
  name: "inception_4e/5x5_reduce"
  type: "Convolution"
  bottom: "inception_4d/output"
  top: "inception_4e/5x5_reduce"
  param {
    lr_mult: 1
    decay_mult: 1
  }
  param {
    lr_mult: 2
    decay_mult: 0
  }
  convolution_param {
    num_output: 32
    kernel_size: 1
    weight_filler {
      type: "xavier"
      std: 0.2
    }
    
I0712 22:28:04.034345 32223 layer_factory.hpp:74] Creating layer data
I0712 22:28:04.034365 32223 net.cpp:90] Creating Layer data
I0712 22:28:04.034373 32223 net.cpp:368] data -> data
I0712 22:28:04.034394 32223 net.cpp:368] data -> label
I0712 22:28:04.034404 32223 net.cpp:120] Setting up data
I0712 22:28:04.034453 32223 db.cpp:34] Opened lmdb examples/stanford_cars/stanford_cars_train_lmdb
I0712 22:28:04.034610 32223 data_layer.cpp:67] output data size: 30,3,224,224
I0712 22:28:04.038600 32223 net.cpp:127] Top shape: 30 3 224 224 (4515840)
I0712 22:28:04.038625 32223 net.cpp:127] Top shape: 30 (30)
I0712 22:28:04.038635 32223 layer_factory.hpp:74] Creating layer label_data_1_split
I0712 22:28:04.038647 32223 net.cpp:90] Creating Layer label_data_1_split
I0712 22:28:04.038655 32223 net.cpp:410] label_data_1_split <- label
I0712 22:28:04.038666 32223 net.cpp:368] label_data_1_split -> label_data_1_split_0
I0712 22:28:04.038676 32223 net.cpp:368] label_data_1_split -> label_data_1_split_1
I0712 22:28:04.038681 32223 net.cpp:368] label_data_1_split -> label_data_1_split_2
I0712 22:28:04.038688 32223 net.cpp:120] Setting up label_data_1_split
I0712 22:28:04.038697 32223 net.cpp:127] Top shape: 30 (30)
I0712 22:28:04.038718 32223 net.cpp:127] Top shape: 30 (30)
I0712 22:28:04.038724 32223 net.cpp:127] Top shape: 30 (30)
I0712 22:28:04.038728 32223 layer_factory.hpp:74] Creating layer conv1/7x7_s2
I0712 22:28:04.038740 32223 net.cpp:90] Creating Layer conv1/7x7_s2
I0712 22:28:04.038744 32223 net.cpp:410] conv1/7x7_s2 <- data
I0712 22:28:04.038751 32223 net.cpp:368] conv1/7x7_s2 -> conv1/7x7_s2
I0712 22:28:04.038760 32223 net.cpp:120] Setting up conv1/7x7_s2
I0712 22:28:04.069859 32223 net.cpp:127] Top shape: 30 64 112 112 (24084480)
I0712 22:28:04.069892 32223 layer_factory.hpp:74] Creating layer conv1/relu_7x7
I0712 22:28:04.069903 32223 net.cpp:90] Creating Layer conv1/relu_7x7
I0712 22:28:04.069910 32223 net.cpp:410] conv1/relu_7x7 <- conv1/7x7_s2
I0712 22:28:04.069916 32223 net.cpp:357] conv1/relu_7x7 -> conv1/7x7_s2 (in-place)
I0712 22:28:04.069924 32223 net.cpp:120] Setting up conv1/relu_7x7
I0712 22:28:04.069963 32223 net.cpp:127] Top shape: 30 64 112 112 (24084480)
I0712 22:28:04.069969 32223 layer_factory.hpp:74] Creating layer pool1/3x3_s2
I0712 22:28:04.069979 32223 net.cpp:90] Creating Layer pool1/3x3_s2
I0712 22:28:04.069984 32223 net.cpp:410] pool1/3x3_s2 <- conv1/7x7_s2
I0712 22:28:04.069989 32223 net.cpp:368] pool1/3x3_s2 -> pool1/3x3_s2
I0712 22:28:04.069995 32223 net.cpp:120] Setting up pool1/3x3_s2
I0712 22:28:04.070112 32223 net.cpp:127] Top shape: 30 64 56 56 (6021120)
I0712 22:28:04.070122 32223 layer_factory.hpp:74] Creating layer pool1/norm1
I0712 22:28:04.070129 32223 net.cpp:90] Creating Layer pool1/norm1
I0712 22:28:04.070134 32223 net.cpp:410] pool1/norm1 <- pool1/3x3_s2
I0712 22:28:04.070139 32223 net.cpp:368] pool1/norm1 -> pool1/norm1
I0712 22:28:04.070147 32223 net.cpp:120] Setting up pool1/norm1
I0712 22:28:04.070154 32223 net.cpp:127] Top shape: 30 64 56 56 (6021120)
I0712 22:28:04.070158 32223 layer_factory.hpp:74] Creating layer conv2/3x3_reduce
I0712 22:28:04.070166 32223 net.cpp:90] Creating Layer conv2/3x3_reduce
I0712 22:28:04.070170 32223 net.cpp:410] conv2/3x3_reduce <- pool1/norm1
I0712 22:28:04.070176 32223 net.cpp:368] conv2/3x3_reduce -> conv2/3x3_reduce
I0712 22:28:04.070184 32223 net.cpp:120] Setting up conv2/3x3_reduce
I0712 22:28:04.070400 32223 net.cpp:127] Top shape: 30 64 56 56 (6021120)
I0712 22:28:04.070413 32223 layer_factory.hpp:74] Creating layer conv2/relu_3x3_reduce
I0712 22:28:04.070420 32223 net.cpp:90] Creating Layer conv2/relu_3x3_reduce
I0712 22:28:04.070425 32223 net.cpp:410] conv2/relu_3x3_reduce <- conv2/3x3_reduce
I0712 22:28:04.070431 32223 net.cpp:357] conv2/relu_3x3_reduce -> conv2/3x3_reduce (in-place)
I0712 22:28:04.070437 32223 net.cpp:120] Setting up conv2/relu_3x3_reduce
I0712 22:28:04.070475 32223 net.cpp:127] Top shape: 30 64 56 56 (6021120)
I0712 22:28:04.070482 32223 layer_factory.hpp:74] Creating layer conv2/3x3
I0712 22:28:04.070489 32223 net.cpp:90] Creating Layer conv2/3x3
I0712 22:28:04.070494 32223 net.cpp:410] conv2/3x3 <- conv2/3x3_reduce
I0712 22:28:04.070500 32223 net.cpp:368] conv2/3x3 -> conv2/3x3
I0712 22:28:04.070508 32223 net.cpp:120] Setting up conv2/3x3
I0712 22:28:04.071244 32223 net.cpp:127] Top shape: 30 192 56 56 (18063360)
I0712 22:28:04.071257 32223 layer_factory.hpp:74] Creating layer conv2/relu_3x3
I0712 22:28:04.071264 32223 net.cpp:90] Creating Layer conv2/relu_3x3
I0712 22:28:04.071269 32223 net.cpp:410] conv2/relu_3x3 <- conv2/3x3
I0712 22:28:04.071274 32223 net.cpp:357] conv2/relu_3x3 -> conv2/3x3 (in-place)
I0712 22:28:04.071280 32223 net.cpp:120] Setting up conv2/relu_3x3
I0712 22:28:04.071331 32223 net.cpp:127] Top shape: 30 192 56 56 (18063360)
I0712 22:28:04.071338 32223 layer_factory.hpp:74] Creating layer conv2/norm2
I0712 22:28:04.071344 32223 net.cpp:90] Creating Layer conv2/norm2
I0712 22:28:04.071349 32223 net.cpp:410] conv2/norm2 <- conv2/3x3
I0712 22:28:04.071355 32223 net.cpp:368] conv2/norm2 -> conv2/norm2
I0712 22:28:04.071362 32223 net.cpp:120] Setting up conv2/norm2
I0712 22:28:04.071367 32223 net.cpp:127] Top shape: 30 192 56 56 (18063360)
I0712 22:28:04.071372 32223 layer_factory.hpp:74] Creating layer pool2/3x3_s2
I0712 22:28:04.071393 32223 net.cpp:90] Creating Layer pool2/3x3_s2
I0712 22:28:04.071398 32223 net.cpp:410] pool2/3x3_s2 <- conv2/norm2
I0712 22:28:04.071404 32223 net.cpp:368] pool2/3x3_s2 -> pool2/3x3_s2
I0712 22:28:04.071410 32223 net.cpp:120] Setting up pool2/3x3_s2
I0712 22:28:04.071450 32223 net.cpp:127] Top shape: 30 192 28 28 (4515840)
I0712 22:28:04.071456 32223 layer_factory.hpp:74] Creating layer pool2/3x3_s2_pool2/3x3_s2_0_split
I0712 22:28:04.071463 32223 net.cpp:90] Creating Layer pool2/3x3_s2_pool2/3x3_s2_0_split
I0712 22:28:04.071467 32223 net.cpp:410] pool2/3x3_s2_pool2/3x3_s2_0_split <- pool2/3x3_s2
I0712 22:28:04.071473 32223 net.cpp:368] pool2/3x3_s2_pool2/3x3_s2_0_split -> pool2/3x3_s2_pool2/3x3_s2_0_split_0
I0712 22:28:04.071480 32223 net.cpp:368] pool2/3x3_s2_pool2/3x3_s2_0_split -> pool2/3x3_s2_pool2/3x3_s2_0_split_1
I0712 22:28:04.071485 32223 net.cpp:368] pool2/3x3_s2_pool2/3x3_s2_0_split -> pool2/3x3_s2_pool2/3x3_s2_0_split_2
I0712 22:28:04.071492 32223 net.cpp:368] pool2/3x3_s2_pool2/3x3_s2_0_split -> pool2/3x3_s2_pool2/3x3_s2_0_split_3
I0712 22:28:04.071497 32223 net.cpp:120] Setting up pool2/3x3_s2_pool2/3x3_s2_0_split
I0712 22:28:04.071503 32223 net.cpp:127] Top shape: 30 192 28 28 (4515840)
I0712 22:28:04.071508 32223 net.cpp:127] Top shape: 30 192 28 28 (4515840)
I0712 22:28:04.071512 32223 net.cpp:127] Top shape: 30 192 28 28 (4515840)
I0712 22:28:04.071517 32223 net.cpp:127] Top shape: 30 192 28 28 (4515840)
I0712 22:28:04.071521 32223 layer_factory.hpp:74] Creating layer inception_3a/1x1
I0712 22:28:04.071527 32223 net.cpp:90] Creating Layer inception_3a/1x1
I0712 22:28:04.071532 32223 net.cpp:410] inception_3a/1x1 <- pool2/3x3_s2_pool2/3x3_s2_0_split_0
I0712 22:28:04.071538 32223 net.cpp:368] inception_3a/1x1 -> inception_3a/1x1
I0712 22:28:04.071545 32223 net.cpp:120] Setting up inception_3a/1x1
I0712 22:28:04.071796 32223 net.cpp:127] Top shape: 30 64 28 28 (1505280)
I0712 22:28:04.071809 32223 layer_factory.hpp:74] Creating layer inception_3a/relu_1x1
I0712 22:28:04.071815 32223 net.cpp:90] Creating Layer inception_3a/relu_1x1
I0712 22:28:04.071820 32223 net.cpp:410] inception_3a/relu_1x1 <- inception_3a/1x1
I0712 22:28:04.071825 32223 net.cpp:357] inception_3a/relu_1x1 -> inception_3a/1x1 (in-place)
I0712 22:28:04.071831 32223 net.cpp:120] Setting up inception_3a/relu_1x1
I0712 22:28:04.071936 32223 net.cpp:127] Top shape: 30 64 28 28 (1505280)
I0712 22:28:04.071945 32223 layer_factory.hpp:74] Creating layer inception_3a/3x3_reduce
I0712 22:28:04.071954 32223 net.cpp:90] Creating Layer inception_3a/3x3_reduce
I0712 22:28:04.071957 32223 net.cpp:410] inception_3a/3x3_reduce <- pool2/3x3_s2_pool2/3x3_s2_0_split_1
I0712 22:28:04.071964 32223 net.cpp:368] inception_3a/3x3_reduce -> inception_3a/3x3_reduce
I0712 22:28:04.071970 32223 net.cpp:120] Setting up inception_3a/3x3_reduce
I0712 22:28:04.072253 32223 net.cpp:127] Top shape: 30 96 28 28 (2257920)
I0712 22:28:04.072265 32223 layer_factory.hpp:74] Creating layer inception_3a/relu_3x3_reduce
I0712 22:28:04.072274 32223 net.cpp:90] Creating Layer inception_3a/relu_3x3_reduce
I0712 22:28:04.072279 32223 net.cpp:410] inception_3a/relu_3x3_reduce <- inception_3a/3x3_reduce
I0712 22:28:04.072285 32223 net.cpp:357] inception_3a/relu_3x3_reduce -> inception_3a/3x3_reduce (in-place)
I0712 22:28:04.072291 32223 net.cpp:120] Setting up inception_3a/relu_3x3_reduce
I0712 22:28:04.072332 32223 net.cpp:127] Top shape: 30 96 28 28 (2257920)
I0712 22:28:04.072337 32223 layer_factory.hpp:74] Creating layer inception_3a/3x3
I0712 22:28:04.072345 32223 net.cpp:90] Creating Layer inception_3a/3x3
I0712 22:28:04.072350 32223 net.cpp:410] inception_3a/3x3 <- inception_3a/3x3_reduce
I0712 22:28:04.072356 32223 net.cpp:368] inception_3a/3x3 -> inception_3a/3x3
I0712 22:28:04.072362 32223 net.cpp:120] Setting up inception_3a/3x3
I0712 22:28:04.073102 32223 net.cpp:127] Top shape: 30 128 28 28 (3010560)
I0712 22:28:04.073114 32223 layer_factory.hpp:74] Creating layer inception_3a/relu_3x3
I0712 22:28:04.073120 32223 net.cpp:90] Creating Layer inception_3a/relu_3x3
I0712 22:28:04.073132 32223 net.cpp:410] inception_3a/relu_3x3 <- inception_3a/3x3
I0712 22:28:04.073138 32223 net.cpp:357] inception_3a/relu_3x3 -> inception_3a/3x3 (in-place)
I0712 22:28:04.073144 32223 net.cpp:120] Setting up inception_3a/relu_3x3
I0712 22:28:04.073182 32223 net.cpp:127] Top shape: 30 128 28 28 (3010560)
I0712 22:28:04.073189 32223 layer_factory.hpp:74] Creating layer inception_3a/5x5_reduce
I0712 22:28:04.073195 32223 net.cpp:90] Creating Layer inception_3a/5x5_reduce
I0712 22:28:04.073200 32223 net.cpp:410] inception_3a/5x5_reduce <- pool2/3x3_s2_pool2/3x3_s2_0_split_2
I0712 22:28:04.073206 32223 net.cpp:368] inception_3a/5x5_reduce -> inception_3a/5x5_reduce
I0712 22:28:04.073214 32223 net.cpp:120] Setting up inception_3a/5x5_reduce
I0712 22:28:04.073422 32223 net.cpp:127] Top shape: 30 16 28 28 (376320)
I0712 22:28:04.073433 32223 layer_factory.hpp:74] Creating layer inception_3a/relu_5x5_reduce
I0712 22:28:04.073441 32223 net.cpp:90] Creating Layer inception_3a/relu_5x5_reduce
I0712 22:28:04.073446 32223 net.cpp:410] inception_3a/relu_5x5_reduce <- inception_3a/5x5_reduce
I0712 22:28:04.073451 32223 net.cpp:357] inception_3a/relu_5x5_reduce -> inception_3a/5x5_reduce (in-place)
I0712 22:28:04.073457 32223 net.cpp:120] Setting up inception_3a/relu_5x5_reduce
I0712 22:28:04.073561 32223 net.cpp:127] Top shape: 30 16 28 28 (376320)
I0712 22:28:04.073570 32223 layer_factory.hpp:74] Creating layer inception_3a/5x5
I0712 22:28:04.073578 32223 net.cpp:90] Creating Layer inception_3a/5x5
I0712 22:28:04.073583 32223 net.cpp:410] inception_3a/5x5 <- inception_3a/5x5_reduce
I0712 22:28:04.073590 32223 net.cpp:368] inception_3a/5x5 -> inception_3a/5x5
I0712 22:28:04.073596 32223 net.cpp:120] Setting up inception_3a/5x5
I0712 22:28:04.073851 32223 net.cpp:127] Top shape: 30 32 28 28 (752640)
I0712 22:28:04.073863 32223 layer_factory.hpp:74] Creating layer inception_3a/relu_5x5
I0712 22:28:04.073870 32223 net.cpp:90] Creating Layer inception_3a/relu_5x5
I0712 22:28:04.073874 32223 net.cpp:410] inception_3a/relu_5x5 <- inception_3a/5x5
I0712 22:28:04.073880 32223 net.cpp:357] inception_3a/relu_5x5 -> inception_3a/5x5 (in-place)
I0712 22:28:04.073886 32223 net.cpp:120] Setting up inception_3a/relu_5x5
I0712 22:28:04.073925 32223 net.cpp:127] Top shape: 30 32 28 28 (752640)
I0712 22:28:04.073930 32223 layer_factory.hpp:74] Creating layer inception_3a/pool
I0712 22:28:04.073935 32223 layer_factory.cpp:55] CUDNN does not support padding or multiple tops. Using Caffe's own pooling layer.
I0712 22:28:04.073941 32223 net.cpp:90] Creating Layer inception_3a/pool
I0712 22:28:04.073946 32223 net.cpp:410] inception_3a/pool <- pool2/3x3_s2_pool2/3x3_s2_0_split_3
I0712 22:28:04.073951 32223 net.cpp:368] inception_3a/pool -> inception_3a/pool
I0712 22:28:04.073957 32223 net.cpp:120] Setting up inception_3a/pool
I0712 22:28:04.073964 32223 net.cpp:127] Top shape: 30 192 28 28 (4515840)
I0712 22:28:04.073968 32223 layer_factory.hpp:74] Creating layer inception_3a/pool_proj
I0712 22:28:04.073976 32223 net.cpp:90] Creating Layer inception_3a/pool_proj
I0712 22:28:04.073981 32223 net.cpp:410] inception_3a/pool_proj <- inception_3a/pool
I0712 22:28:04.073987 32223 net.cpp:368] inception_3a/pool_proj -> inception_3a/pool_proj
I0712 22:28:04.073993 32223 net.cpp:120] Setting up inception_3a/pool_proj
I0712 22:28:04.074214 32223 net.cpp:127] Top shape: 30 32 28 28 (752640)
I0712 22:28:04.074228 32223 layer_factory.hpp:74] Creating layer inception_3a/relu_pool_proj
I0712 22:28:04.074234 32223 net.cpp:90] Creating Layer inception_3a/relu_pool_proj
I0712 22:28:04.074239 32223 net.cpp:410] inception_3a/relu_pool_proj <- inception_3a/pool_proj
I0712 22:28:04.074244 32223 net.cpp:357] inception_3a/relu_pool_proj -> inception_3a/pool_proj (in-place)
I0712 22:28:04.074249 32223 net.cpp:120] Setting up inception_3a/relu_pool_proj
I0712 22:28:04.074290 32223 net.cpp:127] Top shape: 30 32 28 28 (752640)
I0712 22:28:04.074295 32223 layer_factory.hpp:74] Creating layer inception_3a/output
I0712 22:28:04.074303 32223 net.cpp:90] Creating Layer inception_3a/output
I0712 22:28:04.074313 32223 net.cpp:410] inception_3a/output <- inception_3a/1x1
I0712 22:28:04.074319 32223 net.cpp:410] inception_3a/output <- inception_3a/3x3
I0712 22:28:04.074324 32223 net.cpp:410] inception_3a/output <- inception_3a/5x5
I0712 22:28:04.074328 32223 net.cpp:410] inception_3a/output <- inception_3a/pool_proj
I0712 22:28:04.074334 32223 net.cpp:368] inception_3a/output -> inception_3a/output
I0712 22:28:04.074342 32223 net.cpp:120] Setting up inception_3a/output
I0712 22:28:04.074350 32223 net.cpp:127] Top shape: 30 256 28 28 (6021120)
I0712 22:28:04.074354 32223 layer_factory.hpp:74] Creating layer inception_3a/output_inception_3a/output_0_split
I0712 22:28:04.074360 32223 net.cpp:90] Creating Layer inception_3a/output_inception_3a/output_0_split
I0712 22:28:04.074364 32223 net.cpp:410] inception_3a/output_inception_3a/output_0_split <- inception_3a/output
I0712 22:28:04.074370 32223 net.cpp:368] inception_3a/output_inception_3a/output_0_split -> inception_3a/output_inception_3a/output_0_split_0
I0712 22:28:04.074376 32223 net.cpp:368] inception_3a/output_inception_3a/output_0_split -> inception_3a/output_inception_3a/output_0_split_1
I0712 22:28:04.074383 32223 net.cpp:368] inception_3a/output_inception_3a/output_0_split -> inception_3a/output_inception_3a/output_0_split_2
I0712 22:28:04.074389 32223 net.cpp:368] inception_3a/output_inception_3a/output_0_split -> inception_3a/output_inception_3a/output_0_split_3
I0712 22:28:04.074394 32223 net.cpp:120] Setting up inception_3a/output_inception_3a/output_0_split
I0712 22:28:04.074401 32223 net.cpp:127] Top shape: 30 256 28 28 (6021120)
I0712 22:28:04.074405 32223 net.cpp:127] Top shape: 30 256 28 28 (6021120)
I0712 22:28:04.074410 32223 net.cpp:127] Top shape: 30 256 28 28 (6021120)
I0712 22:28:04.074414 32223 net.cpp:127] Top shape: 30 256 28 28 (6021120)
I0712 22:28:04.074419 32223 layer_factory.hpp:74] Creating layer inception_3b/1x1
I0712 22:28:04.074426 32223 net.cpp:90] Creating Layer inception_3b/1x1
I0712 22:28:04.074430 32223 net.cpp:410] inception_3b/1x1 <- inception_3a/output_inception_3a/output_0_split_0
I0712 22:28:04.074436 32223 net.cpp:368] inception_3b/1x1 -> inception_3b/1x1
I0712 22:28:04.074442 32223 net.cpp:120] Setting up inception_3b/1x1
I0712 22:28:04.074801 32223 net.cpp:127] Top shape: 30 128 28 28 (3010560)
I0712 22:28:04.074812 32223 layer_factory.hpp:74] Creating layer inception_3b/relu_1x1
I0712 22:28:04.074820 32223 net.cpp:90] Creating Layer inception_3b/relu_1x1
I0712 22:28:04.074826 32223 net.cpp:410] inception_3b/relu_1x1 <- inception_3b/1x1
I0712 22:28:04.074831 32223 net.cpp:357] inception_3b/relu_1x1 -> inception_3b/1x1 (in-place)
I0712 22:28:04.074836 32223 net.cpp:120] Setting up inception_3b/relu_1x1
I0712 22:28:04.074877 32223 net.cpp:127] Top shape: 30 128 28 28 (3010560)
I0712 22:28:04.074882 32223 layer_factory.hpp:74] Creating layer inception_3b/3x3_reduce
I0712 22:28:04.074888 32223 net.cpp:90] Creating Layer inception_3b/3x3_reduce
I0712 22:28:04.074893 32223 net.cpp:410] inception_3b/3x3_reduce <- inception_3a/output_inception_3a/output_0_split_1
I0712 22:28:04.074900 32223 net.cpp:368] inception_3b/3x3_reduce -> inception_3b/3x3_reduce
I0712 22:28:04.074908 32223 net.cpp:120] Setting up inception_3b/3x3_reduce
I0712 22:28:04.075261 32223 net.cpp:127] Top shape: 30 128 28 28 (3010560)
I0712 22:28:04.075273 32223 layer_factory.hpp:74] Creating layer inception_3b/relu_3x3_reduce
I0712 22:28:04.075280 32223 net.cpp:90] Creating Layer inception_3b/relu_3x3_reduce
I0712 22:28:04.075285 32223 net.cpp:410] inception_3b/relu_3x3_reduce <- inception_3b/3x3_reduce
I0712 22:28:04.075290 32223 net.cpp:357] inception_3b/relu_3x3_reduce -> inception_3b/3x3_reduce (in-place)
I0712 22:28:04.075296 32223 net.cpp:120] Setting up inception_3b/relu_3x3_reduce
I0712 22:28:04.075419 32223 net.cpp:127] Top shape: 30 128 28 28 (3010560)
I0712 22:28:04.075429 32223 layer_factory.hpp:74] Creating layer inception_3b/3x3
I0712 22:28:04.075438 32223 net.cpp:90] Creating Layer inception_3b/3x3
I0712 22:28:04.075451 32223 net.cpp:410] inception_3b/3x3 <- inception_3b/3x3_reduce
I0712 22:28:04.075459 32223 net.cpp:368] inception_3b/3x3 -> inception_3b/3x3
I0712 22:28:04.075466 32223 net.cpp:120] Setting up inception_3b/3x3
I0712 22:28:04.076746 32223 net.cpp:127] Top shape: 30 192 28 28 (4515840)
I0712 22:28:04.076758 32223 layer_factory.hpp:74] Creating layer inception_3b/relu_3x3
I0712 22:28:04.076764 32223 net.cpp:90] Creating Layer inception_3b/relu_3x3
I0712 22:28:04.076769 32223 net.cpp:410] inception_3b/relu_3x3 <- inception_3b/3x3
I0712 22:28:04.076776 32223 net.cpp:357] inception_3b/relu_3x3 -> inception_3b/3x3 (in-place)
I0712 22:28:04.076781 32223 net.cpp:120] Setting up inception_3b/relu_3x3
I0712 22:28:04.076820 32223 net.cpp:127] Top shape: 30 192 28 28 (4515840)
I0712 22:28:04.076825 32223 layer_factory.hpp:74] Creating layer inception_3b/5x5_reduce
I0712 22:28:04.076833 32223 net.cpp:90] Creating Layer inception_3b/5x5_reduce
I0712 22:28:04.076838 32223 net.cpp:410] inception_3b/5x5_reduce <- inception_3a/output_inception_3a/output_0_split_2
I0712 22:28:04.076844 32223 net.cpp:368] inception_3b/5x5_reduce -> inception_3b/5x5_reduce
I0712 22:28:04.076851 32223 net.cpp:120] Setting up inception_3b/5x5_reduce
I0712 22:28:04.077093 32223 net.cpp:127] Top shape: 30 32 28 28 (752640)
I0712 22:28:04.077105 32223 layer_factory.hpp:74] Creating layer inception_3b/relu_5x5_reduce
I0712 22:28:04.077111 32223 net.cpp:90] Creating Layer inception_3b/relu_5x5_reduce
I0712 22:28:04.077116 32223 net.cpp:410] inception_3b/relu_5x5_reduce <- inception_3b/5x5_reduce
I0712 22:28:04.077121 32223 net.cpp:357] inception_3b/relu_5x5_reduce -> inception_3b/5x5_reduce (in-place)
I0712 22:28:04.077126 32223 net.cpp:120] Setting up inception_3b/relu_5x5_reduce
I0712 22:28:04.077165 32223 net.cpp:127] Top shape: 30 32 28 28 (752640)
I0712 22:28:04.077172 32223 layer_factory.hpp:74] Creating layer inception_3b/5x5
I0712 22:28:04.077178 32223 net.cpp:90] Creating Layer inception_3b/5x5
I0712 22:28:04.077183 32223 net.cpp:410] inception_3b/5x5 <- inception_3b/5x5_reduce
I0712 22:28:04.077189 32223 net.cpp:368] inception_3b/5x5 -> inception_3b/5x5
I0712 22:28:04.077198 32223 net.cpp:120] Setting up inception_3b/5x5
I0712 22:28:04.077767 32223 net.cpp:127] Top shape: 30 96 28 28 (2257920)
I0712 22:28:04.077780 32223 layer_factory.hpp:74] Creating layer inception_3b/relu_5x5
I0712 22:28:04.077785 32223 net.cpp:90] Creating Layer inception_3b/relu_5x5
I0712 22:28:04.077790 32223 net.cpp:410] inception_3b/relu_5x5 <- inception_3b/5x5
I0712 22:28:04.077796 32223 net.cpp:357] inception_3b/relu_5x5 -> inception_3b/5x5 (in-place)
I0712 22:28:04.077802 32223 net.cpp:120] Setting up inception_3b/relu_5x5
I0712 22:28:04.077841 32223 net.cpp:127] Top shape: 30 96 28 28 (2257920)
I0712 22:28:04.077847 32223 layer_factory.hpp:74] Creating layer inception_3b/pool
I0712 22:28:04.077852 32223 layer_factory.cpp:55] CUDNN does not support padding or multiple tops. Using Caffe's own pooling layer.
I0712 22:28:04.077857 32223 net.cpp:90] Creating Layer inception_3b/pool
I0712 22:28:04.077862 32223 net.cpp:410] inception_3b/pool <- inception_3a/output_inception_3a/output_0_split_3
I0712 22:28:04.077867 32223 net.cpp:368] inception_3b/pool -> inception_3b/pool
I0712 22:28:04.077873 32223 net.cpp:120] Setting up inception_3b/pool
I0712 22:28:04.077879 32223 net.cpp:127] Top shape: 30 256 28 28 (6021120)
I0712 22:28:04.077884 32223 layer_factory.hpp:74] Creating layer inception_3b/pool_proj
I0712 22:28:04.077891 32223 net.cpp:90] Creating Layer inception_3b/pool_proj
I0712 22:28:04.077896 32223 net.cpp:410] inception_3b/pool_proj <- inception_3b/pool
I0712 22:28:04.077903 32223 net.cpp:368] inception_3b/pool_proj -> inception_3b/pool_proj
I0712 22:28:04.077908 32223 net.cpp:120] Setting up inception_3b/pool_proj
I0712 22:28:04.078184 32223 net.cpp:127] Top shape: 30 64 28 28 (1505280)
I0712 22:28:04.078197 32223 layer_factory.hpp:74] Creating layer inception_3b/relu_pool_proj
I0712 22:28:04.078202 32223 net.cpp:90] Creating Layer inception_3b/relu_pool_proj
I0712 22:28:04.078213 32223 net.cpp:410] inception_3b/relu_pool_proj <- inception_3b/pool_proj
I0712 22:28:04.078220 32223 net.cpp:357] inception_3b/relu_pool_proj -> inception_3b/pool_proj (in-place)
I0712 22:28:04.078227 32223 net.cpp:120] Setting up inception_3b/relu_pool_proj
I0712 22:28:04.078336 32223 net.cpp:127] Top shape: 30 64 28 28 (1505280)
I0712 22:28:04.078344 32223 layer_factory.hpp:74] Creating layer inception_3b/output
I0712 22:28:04.078351 32223 net.cpp:90] Creating Layer inception_3b/output
I0712 22:28:04.078354 32223 net.cpp:410] inception_3b/output <- inception_3b/1x1
I0712 22:28:04.078359 32223 net.cpp:410] inception_3b/output <- inception_3b/3x3
I0712 22:28:04.078364 32223 net.cpp:410] inception_3b/output <- inception_3b/5x5
I0712 22:28:04.078369 32223 net.cpp:410] inception_3b/output <- inception_3b/pool_proj
I0712 22:28:04.078375 32223 net.cpp:368] inception_3b/output -> inception_3b/output
I0712 22:28:04.078382 32223 net.cpp:120] Setting up inception_3b/output
I0712 22:28:04.078388 32223 net.cpp:127] Top shape: 30 480 28 28 (11289600)
I0712 22:28:04.078392 32223 layer_factory.hpp:74] Creating layer pool3/3x3_s2
I0712 22:28:04.078398 32223 net.cpp:90] Creating Layer pool3/3x3_s2
I0712 22:28:04.078402 32223 net.cpp:410] pool3/3x3_s2 <- inception_3b/output
I0712 22:28:04.078409 32223 net.cpp:368] pool3/3x3_s2 -> pool3/3x3_s2
I0712 22:28:04.078414 32223 net.cpp:120] Setting up pool3/3x3_s2
I0712 22:28:04.078454 32223 net.cpp:127] Top shape: 30 480 14 14 (2822400)
I0712 22:28:04.078459 32223 layer_factory.hpp:74] Creating layer pool3/3x3_s2_pool3/3x3_s2_0_split
I0712 22:28:04.078465 32223 net.cpp:90] Creating Layer pool3/3x3_s2_pool3/3x3_s2_0_split
I0712 22:28:04.078469 32223 net.cpp:410] pool3/3x3_s2_pool3/3x3_s2_0_split <- pool3/3x3_s2
I0712 22:28:04.078474 32223 net.cpp:368] pool3/3x3_s2_pool3/3x3_s2_0_split -> pool3/3x3_s2_pool3/3x3_s2_0_split_0
I0712 22:28:04.078480 32223 net.cpp:368] pool3/3x3_s2_pool3/3x3_s2_0_split -> pool3/3x3_s2_pool3/3x3_s2_0_split_1
I0712 22:28:04.078486 32223 net.cpp:368] pool3/3x3_s2_pool3/3x3_s2_0_split -> pool3/3x3_s2_pool3/3x3_s2_0_split_2
I0712 22:28:04.078492 32223 net.cpp:368] pool3/3x3_s2_pool3/3x3_s2_0_split -> pool3/3x3_s2_pool3/3x3_s2_0_split_3
I0712 22:28:04.078497 32223 net.cpp:120] Setting up pool3/3x3_s2_pool3/3x3_s2_0_split
I0712 22:28:04.078505 32223 net.cpp:127] Top shape: 30 480 14 14 (2822400)
I0712 22:28:04.078510 32223 net.cpp:127] Top shape: 30 480 14 14 (2822400)
I0712 22:28:04.078515 32223 net.cpp:127] Top shape: 30 480 14 14 (2822400)
I0712 22:28:04.078519 32223 net.cpp:127] Top shape: 30 480 14 14 (2822400)
I0712 22:28:04.078523 32223 layer_factory.hpp:74] Creating layer inception_4a/1x1
I0712 22:28:04.078531 32223 net.cpp:90] Creating Layer inception_4a/1x1
I0712 22:28:04.078536 32223 net.cpp:410] inception_4a/1x1 <- pool3/3x3_s2_pool3/3x3_s2_0_split_0
I0712 22:28:04.078541 32223 net.cpp:368] inception_4a/1x1 -> inception_4a/1x1
I0712 22:28:04.078548 32223 net.cpp:120] Setting up inception_4a/1x1
I0712 22:28:04.079192 32223 net.cpp:127] Top shape: 30 192 14 14 (1128960)
I0712 22:28:04.079205 32223 layer_factory.hpp:74] Creating layer inception_4a/relu_1x1
I0712 22:28:04.079210 32223 net.cpp:90] Creating Layer inception_4a/relu_1x1
I0712 22:28:04.079216 32223 net.cpp:410] inception_4a/relu_1x1 <- inception_4a/1x1
I0712 22:28:04.079221 32223 net.cpp:357] inception_4a/relu_1x1 -> inception_4a/1x1 (in-place)
I0712 22:28:04.079227 32223 net.cpp:120] Setting up inception_4a/relu_1x1
I0712 22:28:04.079267 32223 net.cpp:127] Top shape: 30 192 14 14 (1128960)
I0712 22:28:04.079272 32223 layer_factory.hpp:74] Creating layer inception_4a/3x3_reduce
I0712 22:28:04.079279 32223 net.cpp:90] Creating Layer inception_4a/3x3_reduce
I0712 22:28:04.079284 32223 net.cpp:410] inception_4a/3x3_reduce <- pool3/3x3_s2_pool3/3x3_s2_0_split_1
I0712 22:28:04.079291 32223 net.cpp:368] inception_4a/3x3_reduce -> inception_4a/3x3_reduce
I0712 22:28:04.079298 32223 net.cpp:120] Setting up inception_4a/3x3_reduce
I0712 22:28:04.079723 32223 net.cpp:127] Top shape: 30 96 14 14 (564480)
I0712 22:28:04.079744 32223 layer_factory.hpp:74] Creating layer inception_4a/relu_3x3_reduce
I0712 22:28:04.079753 32223 net.cpp:90] Creating Layer inception_4a/relu_3x3_reduce
I0712 22:28:04.079758 32223 net.cpp:410] inception_4a/relu_3x3_reduce <- inception_4a/3x3_reduce
I0712 22:28:04.079764 32223 net.cpp:357] inception_4a/relu_3x3_reduce -> inception_4a/3x3_reduce (in-place)
I0712 22:28:04.079771 32223 net.cpp:120] Setting up inception_4a/relu_3x3_reduce
I0712 22:28:04.079808 32223 net.cpp:127] Top shape: 30 96 14 14 (564480)
I0712 22:28:04.079814 32223 layer_factory.hpp:74] Creating layer inception_4a/3x3
I0712 22:28:04.079821 32223 net.cpp:90] Creating Layer inception_4a/3x3
I0712 22:28:04.079826 32223 net.cpp:410] inception_4a/3x3 <- inception_4a/3x3_reduce
I0712 22:28:04.079833 32223 net.cpp:368] inception_4a/3x3 -> inception_4a/3x3
I0712 22:28:04.079838 32223 net.cpp:120] Setting up inception_4a/3x3
I0712 22:28:04.080911 32223 net.cpp:127] Top shape: 30 208 14 14 (1223040)
I0712 22:28:04.080922 32223 layer_factory.hpp:74] Creating layer inception_4a/relu_3x3
I0712 22:28:04.080929 32223 net.cpp:90] Creating Layer inception_4a/relu_3x3
I0712 22:28:04.080935 32223 net.cpp:410] inception_4a/relu_3x3 <- inception_4a/3x3
I0712 22:28:04.080940 32223 net.cpp:357] inception_4a/relu_3x3 -> inception_4a/3x3 (in-place)
I0712 22:28:04.080946 32223 net.cpp:120] Setting up inception_4a/relu_3x3
I0712 22:28:04.081053 32223 net.cpp:127] Top shape: 30 208 14 14 (1223040)
I0712 22:28:04.081063 32223 layer_factory.hpp:74] Creating layer inception_4a/5x5_reduce
I0712 22:28:04.081070 32223 net.cpp:90] Creating Layer inception_4a/5x5_reduce
I0712 22:28:04.081075 32223 net.cpp:410] inception_4a/5x5_reduce <- pool3/3x3_s2_pool3/3x3_s2_0_split_2
I0712 22:28:04.081081 32223 net.cpp:368] inception_4a/5x5_reduce -> inception_4a/5x5_reduce
I0712 22:28:04.081089 32223 net.cpp:120] Setting up inception_4a/5x5_reduce
I0712 22:28:04.081322 32223 net.cpp:127] Top shape: 30 16 14 14 (94080)
I0712 22:28:04.081333 32223 layer_factory.hpp:74] Creating layer inception_4a/relu_5x5_reduce
I0712 22:28:04.081339 32223 net.cpp:90] Creating Layer inception_4a/relu_5x5_reduce
I0712 22:28:04.081344 32223 net.cpp:410] inception_4a/relu_5x5_reduce <- inception_4a/5x5_reduce
I0712 22:28:04.081349 32223 net.cpp:357] inception_4a/relu_5x5_reduce -> inception_4a/5x5_reduce (in-place)
I0712 22:28:04.081356 32223 net.cpp:120] Setting up inception_4a/relu_5x5_reduce
I0712 22:28:04.081396 32223 net.cpp:127] Top shape: 30 16 14 14 (94080)
I0712 22:28:04.081403 32223 layer_factory.hpp:74] Creating layer inception_4a/5x5
I0712 22:28:04.081410 32223 net.cpp:90] Creating Layer inception_4a/5x5
I0712 22:28:04.081414 32223 net.cpp:410] inception_4a/5x5 <- inception_4a/5x5_reduce
I0712 22:28:04.081420 32223 net.cpp:368] inception_4a/5x5 -> inception_4a/5x5
I0712 22:28:04.081426 32223 net.cpp:120] Setting up inception_4a/5x5
I0712 22:28:04.081717 32223 net.cpp:127] Top shape: 30 48 14 14 (282240)
I0712 22:28:04.081728 32223 layer_factory.hpp:74] Creating layer inception_4a/relu_5x5
I0712 22:28:04.081735 32223 net.cpp:90] Creating Layer inception_4a/relu_5x5
I0712 22:28:04.081740 32223 net.cpp:410] inception_4a/relu_5x5 <- inception_4a/5x5
I0712 22:28:04.081746 32223 net.cpp:357] inception_4a/relu_5x5 -> inception_4a/5x5 (in-place)
I0712 22:28:04.081751 32223 net.cpp:120] Setting up inception_4a/relu_5x5
I0712 22:28:04.081791 32223 net.cpp:127] Top shape: 30 48 14 14 (282240)
I0712 22:28:04.081797 32223 layer_factory.hpp:74] Creating layer inception_4a/pool
I0712 22:28:04.081802 32223 layer_factory.cpp:55] CUDNN does not support padding or multiple tops. Using Caffe's own pooling layer.
I0712 22:28:04.081807 32223 net.cpp:90] Creating Layer inception_4a/pool
I0712 22:28:04.081811 32223 net.cpp:410] inception_4a/pool <- pool3/3x3_s2_pool3/3x3_s2_0_split_3
I0712 22:28:04.081817 32223 net.cpp:368] inception_4a/pool -> inception_4a/pool
I0712 22:28:04.081823 32223 net.cpp:120] Setting up inception_4a/pool
I0712 22:28:04.081830 32223 net.cpp:127] Top shape: 30 480 14 14 (2822400)
I0712 22:28:04.081840 32223 layer_factory.hpp:74] Creating layer inception_4a/pool_proj
I0712 22:28:04.081847 32223 net.cpp:90] Creating Layer inception_4a/pool_proj
I0712 22:28:04.081852 32223 net.cpp:410] inception_4a/pool_proj <- inception_4a/pool
I0712 22:28:04.081858 32223 net.cpp:368] inception_4a/pool_proj -> inception_4a/pool_proj
I0712 22:28:04.081866 32223 net.cpp:120] Setting up inception_4a/pool_proj
I0712 22:28:04.082211 32223 net.cpp:127] Top shape: 30 64 14 14 (376320)
I0712 22:28:04.082222 32223 layer_factory.hpp:74] Creating layer inception_4a/relu_pool_proj
I0712 22:28:04.082229 32223 net.cpp:90] Creating Layer inception_4a/relu_pool_proj
I0712 22:28:04.082233 32223 net.cpp:410] inception_4a/relu_pool_proj <- inception_4a/pool_proj
I0712 22:28:04.082239 32223 net.cpp:357] inception_4a/relu_pool_proj -> inception_4a/pool_proj (in-place)
I0712 22:28:04.082245 32223 net.cpp:120] Setting up inception_4a/relu_pool_proj
I0712 22:28:04.082350 32223 net.cpp:127] Top shape: 30 64 14 14 (376320)
I0712 22:28:04.082360 32223 layer_factory.hpp:74] Creating layer inception_4a/output
I0712 22:28:04.082365 32223 net.cpp:90] Creating Layer inception_4a/output
I0712 22:28:04.082370 32223 net.cpp:410] inception_4a/output <- inception_4a/1x1
I0712 22:28:04.082376 32223 net.cpp:410] inception_4a/output <- inception_4a/3x3
I0712 22:28:04.082381 32223 net.cpp:410] inception_4a/output <- inception_4a/5x5
I0712 22:28:04.082386 32223 net.cpp:410] inception_4a/output <- inception_4a/pool_proj
I0712 22:28:04.082391 32223 net.cpp:368] inception_4a/output -> inception_4a/output
I0712 22:28:04.082397 32223 net.cpp:120] Setting up inception_4a/output
I0712 22:28:04.082404 32223 net.cpp:127] Top shape: 30 512 14 14 (3010560)
I0712 22:28:04.082408 32223 layer_factory.hpp:74] Creating layer inception_4a/output_inception_4a/output_0_split
I0712 22:28:04.082415 32223 net.cpp:90] Creating Layer inception_4a/output_inception_4a/output_0_split
I0712 22:28:04.082419 32223 net.cpp:410] inception_4a/output_inception_4a/output_0_split <- inception_4a/output
I0712 22:28:04.082425 32223 net.cpp:368] inception_4a/output_inception_4a/output_0_split -> inception_4a/output_inception_4a/output_0_split_0
I0712 22:28:04.082432 32223 net.cpp:368] inception_4a/output_inception_4a/output_0_split -> inception_4a/output_inception_4a/output_0_split_1
I0712 22:28:04.082438 32223 net.cpp:368] inception_4a/output_inception_4a/output_0_split -> inception_4a/output_inception_4a/output_0_split_2
I0712 22:28:04.082445 32223 net.cpp:368] inception_4a/output_inception_4a/output_0_split -> inception_4a/output_inception_4a/output_0_split_3
I0712 22:28:04.082450 32223 net.cpp:368] inception_4a/output_inception_4a/output_0_split -> inception_4a/output_inception_4a/output_0_split_4
I0712 22:28:04.082456 32223 net.cpp:120] Setting up inception_4a/output_inception_4a/output_0_split
I0712 22:28:04.082463 32223 net.cpp:127] Top shape: 30 512 14 14 (3010560)
I0712 22:28:04.082468 32223 net.cpp:127] Top shape: 30 512 14 14 (3010560)
I0712 22:28:04.082473 32223 net.cpp:127] Top shape: 30 512 14 14 (3010560)
I0712 22:28:04.082476 32223 net.cpp:127] Top shape: 30 512 14 14 (3010560)
I0712 22:28:04.082480 32223 net.cpp:127] Top shape: 30 512 14 14 (3010560)
I0712 22:28:04.082485 32223 layer_factory.hpp:74] Creating layer loss1/ave_pool
I0712 22:28:04.082490 32223 net.cpp:90] Creating Layer loss1/ave_pool
I0712 22:28:04.082494 32223 net.cpp:410] loss1/ave_pool <- inception_4a/output_inception_4a/output_0_split_0
I0712 22:28:04.082501 32223 net.cpp:368] loss1/ave_pool -> loss1/ave_pool
I0712 22:28:04.082507 32223 net.cpp:120] Setting up loss1/ave_pool
I0712 22:28:04.082548 32223 net.cpp:127] Top shape: 30 512 4 4 (245760)
I0712 22:28:04.082554 32223 layer_factory.hpp:74] Creating layer loss1/conv
I0712 22:28:04.082561 32223 net.cpp:90] Creating Layer loss1/conv
I0712 22:28:04.082566 32223 net.cpp:410] loss1/conv <- loss1/ave_pool
I0712 22:28:04.082572 32223 net.cpp:368] loss1/conv -> loss1/conv
I0712 22:28:04.082578 32223 net.cpp:120] Setting up loss1/conv
I0712 22:28:04.083096 32223 net.cpp:127] Top shape: 30 128 4 4 (61440)
I0712 22:28:04.083112 32223 layer_factory.hpp:74] Creating layer loss1/relu_conv
I0712 22:28:04.083119 32223 net.cpp:90] Creating Layer loss1/relu_conv
I0712 22:28:04.083124 32223 net.cpp:410] loss1/relu_conv <- loss1/conv
I0712 22:28:04.083130 32223 net.cpp:357] loss1/relu_conv -> loss1/conv (in-place)
I0712 22:28:04.083137 32223 net.cpp:120] Setting up loss1/relu_conv
I0712 22:28:04.083178 32223 net.cpp:127] Top shape: 30 128 4 4 (61440)
I0712 22:28:04.083183 32223 layer_factory.hpp:74] Creating layer loss1/fc
I0712 22:28:04.083192 32223 net.cpp:90] Creating Layer loss1/fc
I0712 22:28:04.083197 32223 net.cpp:410] loss1/fc <- loss1/conv
I0712 22:28:04.083202 32223 net.cpp:368] loss1/fc -> loss1/fc
I0712 22:28:04.083210 32223 net.cpp:120] Setting up loss1/fc
I0712 22:28:04.093998 32223 net.cpp:127] Top shape: 30 1024 (30720)
I0712 22:28:04.094025 32223 layer_factory.hpp:74] Creating layer loss1/relu_fc
I0712 22:28:04.094035 32223 net.cpp:90] Creating Layer loss1/relu_fc
I0712 22:28:04.094041 32223 net.cpp:410] loss1/relu_fc <- loss1/fc
I0712 22:28:04.094048 32223 net.cpp:357] loss1/relu_fc -> loss1/fc (in-place)
I0712 22:28:04.094055 32223 net.cpp:120] Setting up loss1/relu_fc
I0712 22:28:04.094127 32223 net.cpp:127] Top shape: 30 1024 (30720)
I0712 22:28:04.094133 32223 layer_factory.hpp:74] Creating layer loss1/drop_fc
I0712 22:28:04.094149 32223 net.cpp:90] Creating Layer loss1/drop_fc
I0712 22:28:04.094153 32223 net.cpp:410] loss1/drop_fc <- loss1/fc
I0712 22:28:04.094161 32223 net.cpp:357] loss1/drop_fc -> loss1/fc (in-place)
I0712 22:28:04.094167 32223 net.cpp:120] Setting up loss1/drop_fc
I0712 22:28:04.094176 32223 net.cpp:127] Top shape: 30 1024 (30720)
I0712 22:28:04.094180 32223 layer_factory.hpp:74] Creating layer stanford_cars_loss1/classifier
I0712 22:28:04.094188 32223 net.cpp:90] Creating Layer stanford_cars_loss1/classifier
I0712 22:28:04.094192 32223 net.cpp:410] stanford_cars_loss1/classifier <- loss1/fc
I0712 22:28:04.094198 32223 net.cpp:368] stanford_cars_loss1/classifier -> stanford_cars_loss1/classifier
I0712 22:28:04.094205 32223 net.cpp:120] Setting up stanford_cars_loss1/classifier
I0712 22:28:04.095202 32223 net.cpp:127] Top shape: 30 196 (5880)
I0712 22:28:04.095211 32223 layer_factory.hpp:74] Creating layer loss1/loss
I0712 22:28:04.095219 32223 net.cpp:90] Creating Layer loss1/loss
I0712 22:28:04.095224 32223 net.cpp:410] loss1/loss <- stanford_cars_loss1/classifier
I0712 22:28:04.095229 32223 net.cpp:410] loss1/loss <- label_data_1_split_0
I0712 22:28:04.095234 32223 net.cpp:368] loss1/loss -> loss1/loss1
I0712 22:28:04.095242 32223 net.cpp:120] Setting up loss1/loss
I0712 22:28:04.095249 32223 layer_factory.hpp:74] Creating layer loss1/loss
I0712 22:28:04.095438 32223 net.cpp:127] Top shape: (1)
I0712 22:28:04.095448 32223 net.cpp:129]     with loss weight 0.3
I0712 22:28:04.095465 32223 layer_factory.hpp:74] Creating layer inception_4b/1x1
I0712 22:28:04.095474 32223 net.cpp:90] Creating Layer inception_4b/1x1
I0712 22:28:04.095479 32223 net.cpp:410] inception_4b/1x1 <- inception_4a/output_inception_4a/output_0_split_1
I0712 22:28:04.095486 32223 net.cpp:368] inception_4b/1x1 -> inception_4b/1x1
I0712 22:28:04.095494 32223 net.cpp:120] Setting up inception_4b/1x1
I0712 22:28:04.096101 32223 net.cpp:127] Top shape: 30 160 14 14 (940800)
I0712 22:28:04.096112 32223 layer_factory.hpp:74] Creating layer inception_4b/relu_1x1
I0712 22:28:04.096119 32223 net.cpp:90] Creating Layer inception_4b/relu_1x1
I0712 22:28:04.096124 32223 net.cpp:410] inception_4b/relu_1x1 <- inception_4b/1x1
I0712 22:28:04.096130 32223 net.cpp:357] inception_4b/relu_1x1 -> inception_4b/1x1 (in-place)
I0712 22:28:04.096137 32223 net.cpp:120] Setting up inception_4b/relu_1x1
I0712 22:28:04.096179 32223 net.cpp:127] Top shape: 30 160 14 14 (940800)
I0712 22:28:04.096184 32223 layer_factory.hpp:74] Creating layer inception_4b/3x3_reduce
I0712 22:28:04.096190 32223 net.cpp:90] Creating Layer inception_4b/3x3_reduce
I0712 22:28:04.096195 32223 net.cpp:410] inception_4b/3x3_reduce <- inception_4a/output_inception_4a/output_0_split_2
I0712 22:28:04.096217 32223 net.cpp:368] inception_4b/3x3_reduce -> inception_4b/3x3_reduce
I0712 22:28:04.096225 32223 net.cpp:120] Setting up inception_4b/3x3_reduce
I0712 22:28:04.096709 32223 net.cpp:127] Top shape: 30 112 14 14 (658560)
I0712 22:28:04.096721 32223 layer_factory.hpp:74] Creating layer inception_4b/relu_3x3_reduce
I0712 22:28:04.096727 32223 net.cpp:90] Creating Layer inception_4b/relu_3x3_reduce
I0712 22:28:04.096732 32223 net.cpp:410] inception_4b/relu_3x3_reduce <- inception_4b/3x3_reduce
I0712 22:28:04.096739 32223 net.cpp:357] inception_4b/relu_3x3_reduce -> inception_4b/3x3_reduce (in-place)
I0712 22:28:04.096745 32223 net.cpp:120] Setting up inception_4b/relu_3x3_reduce
I0712 22:28:04.096783 32223 net.cpp:127] Top shape: 30 112 14 14 (658560)
I0712 22:28:04.096789 32223 layer_factory.hpp:74] Creating layer inception_4b/3x3
I0712 22:28:04.096797 32223 net.cpp:90] Creating Layer inception_4b/3x3
I0712 22:28:04.096801 32223 net.cpp:410] inception_4b/3x3 <- inception_4b/3x3_reduce
I0712 22:28:04.096807 32223 net.cpp:368] inception_4b/3x3 -> inception_4b/3x3
I0712 22:28:04.096813 32223 net.cpp:120] Setting up inception_4b/3x3
I0712 22:28:04.098114 32223 net.cpp:127] Top shape: 30 224 14 14 (1317120)
I0712 22:28:04.098126 32223 layer_factory.hpp:74] Creating layer inception_4b/relu_3x3
I0712 22:28:04.098134 32223 net.cpp:90] Creating Layer inception_4b/relu_3x3
I0712 22:28:04.098139 32223 net.cpp:410] inception_4b/relu_3x3 <- inception_4b/3x3
I0712 22:28:04.098143 32223 net.cpp:357] inception_4b/relu_3x3 -> inception_4b/3x3 (in-place)
I0712 22:28:04.098150 32223 net.cpp:120] Setting up inception_4b/relu_3x3
I0712 22:28:04.098191 32223 net.cpp:127] Top shape: 30 224 14 14 (1317120)
I0712 22:28:04.098196 32223 layer_factory.hpp:74] Creating layer inception_4b/5x5_reduce
I0712 22:28:04.098203 32223 net.cpp:90] Creating Layer inception_4b/5x5_reduce
I0712 22:28:04.098208 32223 net.cpp:410] inception_4b/5x5_reduce <- inception_4a/output_inception_4a/output_0_split_3
I0712 22:28:04.098215 32223 net.cpp:368] inception_4b/5x5_reduce -> inception_4b/5x5_reduce
I0712 22:28:04.098222 32223 net.cpp:120] Setting up inception_4b/5x5_reduce
I0712 22:28:04.098506 32223 net.cpp:127] Top shape: 30 24 14 14 (141120)
I0712 22:28:04.098517 32223 layer_factory.hpp:74] Creating layer inception_4b/relu_5x5_reduce
I0712 22:28:04.098526 32223 net.cpp:90] Creating Layer inception_4b/relu_5x5_reduce
I0712 22:28:04.098531 32223 net.cpp:410] inception_4b/relu_5x5_reduce <- inception_4b/5x5_reduce
I0712 22:28:04.098536 32223 net.cpp:357] inception_4b/relu_5x5_reduce -> inception_4b/5x5_reduce (in-place)
I0712 22:28:04.098542 32223 net.cpp:120] Setting up inception_4b/relu_5x5_reduce
I0712 22:28:04.098650 32223 net.cpp:127] Top shape: 30 24 14 14 (141120)
I0712 22:28:04.098659 32223 layer_factory.hpp:74] Creating layer inception_4b/5x5
I0712 22:28:04.098667 32223 net.cpp:90] Creating Layer inception_4b/5x5
I0712 22:28:04.098672 32223 net.cpp:410] inception_4b/5x5 <- inception_4b/5x5_reduce
I0712 22:28:04.098678 32223 net.cpp:368] inception_4b/5x5 -> inception_4b/5x5
I0712 22:28:04.098685 32223 net.cpp:120] Setting up inception_4b/5x5
I0712 22:28:04.099071 32223 net.cpp:127] Top shape: 30 64 14 14 (376320)
I0712 22:28:04.099082 32223 layer_factory.hpp:74] Creating layer inception_4b/relu_5x5
I0712 22:28:04.099088 32223 net.cpp:90] Creating Layer inception_4b/relu_5x5
I0712 22:28:04.099093 32223 net.cpp:410] inception_4b/relu_5x5 <- inception_4b/5x5
I0712 22:28:04.099099 32223 net.cpp:357] inception_4b/relu_5x5 -> inception_4b/5x5 (in-place)
I0712 22:28:04.099105 32223 net.cpp:120] Setting up inception_4b/relu_5x5
I0712 22:28:04.099145 32223 net.cpp:127] Top shape: 30 64 14 14 (376320)
I0712 22:28:04.099151 32223 layer_factory.hpp:74] Creating layer inception_4b/pool
I0712 22:28:04.099156 32223 layer_factory.cpp:55] CUDNN does not support padding or multiple tops. Using Caffe's own pooling layer.
I0712 22:28:04.099162 32223 net.cpp:90] Creating Layer inception_4b/pool
I0712 22:28:04.099174 32223 net.cpp:410] inception_4b/pool <- inception_4a/output_inception_4a/output_0_split_4
I0712 22:28:04.099179 32223 net.cpp:368] inception_4b/pool -> inception_4b/pool
I0712 22:28:04.099191 32223 net.cpp:120] Setting up inception_4b/pool
I0712 22:28:04.099200 32223 net.cpp:127] Top shape: 30 512 14 14 (3010560)
I0712 22:28:04.099205 32223 layer_factory.hpp:74] Creating layer inception_4b/pool_proj
I0712 22:28:04.099212 32223 net.cpp:90] Creating Layer inception_4b/pool_proj
I0712 22:28:04.099216 32223 net.cpp:410] inception_4b/pool_proj <- inception_4b/pool
I0712 22:28:04.099222 32223 net.cpp:368] inception_4b/pool_proj -> inception_4b/pool_proj
I0712 22:28:04.099228 32223 net.cpp:120] Setting up inception_4b/pool_proj
I0712 22:28:04.099598 32223 net.cpp:127] Top shape: 30 64 14 14 (376320)
I0712 22:28:04.099609 32223 layer_factory.hpp:74] Creating layer inception_4b/relu_pool_proj
I0712 22:28:04.099616 32223 net.cpp:90] Creating Layer inception_4b/relu_pool_proj
I0712 22:28:04.099622 32223 net.cpp:410] inception_4b/relu_pool_proj <- inception_4b/pool_proj
I0712 22:28:04.099627 32223 net.cpp:357] inception_4b/relu_pool_proj -> inception_4b/pool_proj (in-place)
I0712 22:28:04.099633 32223 net.cpp:120] Setting up inception_4b/relu_pool_proj
I0712 22:28:04.099674 32223 net.cpp:127] Top shape: 30 64 14 14 (376320)
I0712 22:28:04.099680 32223 layer_factory.hpp:74] Creating layer inception_4b/output
I0712 22:28:04.099685 32223 net.cpp:90] Creating Layer inception_4b/output
I0712 22:28:04.099690 32223 net.cpp:410] inception_4b/output <- inception_4b/1x1
I0712 22:28:04.099695 32223 net.cpp:410] inception_4b/output <- inception_4b/3x3
I0712 22:28:04.099700 32223 net.cpp:410] inception_4b/output <- inception_4b/5x5
I0712 22:28:04.099704 32223 net.cpp:410] inception_4b/output <- inception_4b/pool_proj
I0712 22:28:04.099709 32223 net.cpp:368] inception_4b/output -> inception_4b/output
I0712 22:28:04.099715 32223 net.cpp:120] Setting up inception_4b/output
I0712 22:28:04.099722 32223 net.cpp:127] Top shape: 30 512 14 14 (3010560)
I0712 22:28:04.099726 32223 layer_factory.hpp:74] Creating layer inception_4b/output_inception_4b/output_0_split
I0712 22:28:04.099732 32223 net.cpp:90] Creating Layer inception_4b/output_inception_4b/output_0_split
I0712 22:28:04.099737 32223 net.cpp:410] inception_4b/output_inception_4b/output_0_split <- inception_4b/output
I0712 22:28:04.099743 32223 net.cpp:368] inception_4b/output_inception_4b/output_0_split -> inception_4b/output_inception_4b/output_0_split_0
I0712 22:28:04.099750 32223 net.cpp:368] inception_4b/output_inception_4b/output_0_split -> inception_4b/output_inception_4b/output_0_split_1
I0712 22:28:04.099756 32223 net.cpp:368] inception_4b/output_inception_4b/output_0_split -> inception_4b/output_inception_4b/output_0_split_2
I0712 22:28:04.099762 32223 net.cpp:368] inception_4b/output_inception_4b/output_0_split -> inception_4b/output_inception_4b/output_0_split_3
I0712 22:28:04.099767 32223 net.cpp:120] Setting up inception_4b/output_inception_4b/output_0_split
I0712 22:28:04.099774 32223 net.cpp:127] Top shape: 30 512 14 14 (3010560)
I0712 22:28:04.099779 32223 net.cpp:127] Top shape: 30 512 14 14 (3010560)
I0712 22:28:04.099784 32223 net.cpp:127] Top shape: 30 512 14 14 (3010560)
I0712 22:28:04.099788 32223 net.cpp:127] Top shape: 30 512 14 14 (3010560)
I0712 22:28:04.099792 32223 layer_factory.hpp:74] Creating layer inception_4c/1x1
I0712 22:28:04.099799 32223 net.cpp:90] Creating Layer inception_4c/1x1
I0712 22:28:04.099803 32223 net.cpp:410] inception_4c/1x1 <- inception_4b/output_inception_4b/output_0_split_0
I0712 22:28:04.099809 32223 net.cpp:368] inception_4c/1x1 -> inception_4c/1x1
I0712 22:28:04.099815 32223 net.cpp:120] Setting up inception_4c/1x1
I0712 22:28:04.100337 32223 net.cpp:127] Top shape: 30 128 14 14 (752640)
I0712 22:28:04.100347 32223 layer_factory.hpp:74] Creating layer inception_4c/relu_1x1
I0712 22:28:04.100353 32223 net.cpp:90] Creating Layer inception_4c/relu_1x1
I0712 22:28:04.100358 32223 net.cpp:410] inception_4c/relu_1x1 <- inception_4c/1x1
I0712 22:28:04.100370 32223 net.cpp:357] inception_4c/relu_1x1 -> inception_4c/1x1 (in-place)
I0712 22:28:04.100376 32223 net.cpp:120] Setting up inception_4c/relu_1x1
I0712 22:28:04.100416 32223 net.cpp:127] Top shape: 30 128 14 14 (752640)
I0712 22:28:04.100422 32223 layer_factory.hpp:74] Creating layer inception_4c/3x3_reduce
I0712 22:28:04.100428 32223 net.cpp:90] Creating Layer inception_4c/3x3_reduce
I0712 22:28:04.100433 32223 net.cpp:410] inception_4c/3x3_reduce <- inception_4b/output_inception_4b/output_0_split_1
I0712 22:28:04.100440 32223 net.cpp:368] inception_4c/3x3_reduce -> inception_4c/3x3_reduce
I0712 22:28:04.100446 32223 net.cpp:120] Setting up inception_4c/3x3_reduce
I0712 22:28:04.100971 32223 net.cpp:127] Top shape: 30 128 14 14 (752640)
I0712 22:28:04.100983 32223 layer_factory.hpp:74] Creating layer inception_4c/relu_3x3_reduce
I0712 22:28:04.100989 32223 net.cpp:90] Creating Layer inception_4c/relu_3x3_reduce
I0712 22:28:04.100994 32223 net.cpp:410] inception_4c/relu_3x3_reduce <- inception_4c/3x3_reduce
I0712 22:28:04.100999 32223 net.cpp:357] inception_4c/relu_3x3_reduce -> inception_4c/3x3_reduce (in-place)
I0712 22:28:04.101006 32223 net.cpp:120] Setting up inception_4c/relu_3x3_reduce
I0712 22:28:04.101114 32223 net.cpp:127] Top shape: 30 128 14 14 (752640)
I0712 22:28:04.101122 32223 layer_factory.hpp:74] Creating layer inception_4c/3x3
I0712 22:28:04.101130 32223 net.cpp:90] Creating Layer inception_4c/3x3
I0712 22:28:04.101135 32223 net.cpp:410] inception_4c/3x3 <- inception_4c/3x3_reduce
I0712 22:28:04.101141 32223 net.cpp:368] inception_4c/3x3 -> inception_4c/3x3
I0712 22:28:04.101148 32223 net.cpp:120] Setting up inception_4c/3x3
I0712 22:28:04.102787 32223 net.cpp:127] Top shape: 30 256 14 14 (1505280)
I0712 22:28:04.102805 32223 layer_factory.hpp:74] Creating layer inception_4c/relu_3x3
I0712 22:28:04.102813 32223 net.cpp:90] Creating Layer inception_4c/relu_3x3
I0712 22:28:04.102818 32223 net.cpp:410] inception_4c/relu_3x3 <- inception_4c/3x3
I0712 22:28:04.102823 32223 net.cpp:357] inception_4c/relu_3x3 -> inception_4c/3x3 (in-place)
I0712 22:28:04.102828 32223 net.cpp:120] Setting up inception_4c/relu_3x3
I0712 22:28:04.102869 32223 net.cpp:127] Top shape: 30 256 14 14 (1505280)
I0712 22:28:04.102874 32223 layer_factory.hpp:74] Creating layer inception_4c/5x5_reduce
I0712 22:28:04.102882 32223 net.cpp:90] Creating Layer inception_4c/5x5_reduce
I0712 22:28:04.102886 32223 net.cpp:410] inception_4c/5x5_reduce <- inception_4b/output_inception_4b/output_0_split_2
I0712 22:28:04.102893 32223 net.cpp:368] inception_4c/5x5_reduce -> inception_4c/5x5_reduce
I0712 22:28:04.102900 32223 net.cpp:120] Setting up inception_4c/5x5_reduce
I0712 22:28:04.103159 32223 net.cpp:127] Top shape: 30 24 14 14 (141120)
I0712 22:28:04.103170 32223 layer_factory.hpp:74] Creating layer inception_4c/relu_5x5_reduce
I0712 22:28:04.103178 32223 net.cpp:90] Creating Layer inception_4c/relu_5x5_reduce
I0712 22:28:04.103183 32223 net.cpp:410] inception_4c/relu_5x5_reduce <- inception_4c/5x5_reduce
I0712 22:28:04.103188 32223 net.cpp:357] inception_4c/relu_5x5_reduce -> inception_4c/5x5_reduce (in-place)
I0712 22:28:04.103194 32223 net.cpp:120] Setting up inception_4c/relu_5x5_reduce
I0712 22:28:04.103234 32223 net.cpp:127] Top shape: 30 24 14 14 (141120)
I0712 22:28:04.103238 32223 layer_factory.hpp:74] Creating layer inception_4c/5x5
I0712 22:28:04.103245 32223 net.cpp:90] Creating Layer inception_4c/5x5
I0712 22:28:04.103252 32223 net.cpp:410] inception_4c/5x5 <- inception_4c/5x5_reduce
I0712 22:28:04.103257 32223 net.cpp:368] inception_4c/5x5 -> inception_4c/5x5
I0712 22:28:04.103265 32223 net.cpp:120] Setting up inception_4c/5x5
I0712 22:28:04.103659 32223 net.cpp:127] Top shape: 30 64 14 14 (376320)
I0712 22:28:04.103672 32223 layer_factory.hpp:74] Creating layer inception_4c/relu_5x5
I0712 22:28:04.103677 32223 net.cpp:90] Creating Layer inception_4c/relu_5x5
I0712 22:28:04.103682 32223 net.cpp:410] inception_4c/relu_5x5 <- inception_4c/5x5
I0712 22:28:04.103688 32223 net.cpp:357] inception_4c/relu_5x5 -> inception_4c/5x5 (in-place)
I0712 22:28:04.103700 32223 net.cpp:120] Setting up inception_4c/relu_5x5
I0712 22:28:04.103811 32223 net.cpp:127] Top shape: 30 64 14 14 (376320)
I0712 22:28:04.103819 32223 layer_factory.hpp:74] Creating layer inception_4c/pool
I0712 22:28:04.103824 32223 layer_factory.cpp:55] CUDNN does not support padding or multiple tops. Using Caffe's own pooling layer.
I0712 22:28:04.103831 32223 net.cpp:90] Creating Layer inception_4c/pool
I0712 22:28:04.103835 32223 net.cpp:410] inception_4c/pool <- inception_4b/output_inception_4b/output_0_split_3
I0712 22:28:04.103842 32223 net.cpp:368] inception_4c/pool -> inception_4c/pool
I0712 22:28:04.103847 32223 net.cpp:120] Setting up inception_4c/pool
I0712 22:28:04.103854 32223 net.cpp:127] Top shape: 30 512 14 14 (3010560)
I0712 22:28:04.103859 32223 layer_factory.hpp:74] Creating layer inception_4c/pool_proj
I0712 22:28:04.103865 32223 net.cpp:90] Creating Layer inception_4c/pool_proj
I0712 22:28:04.103870 32223 net.cpp:410] inception_4c/pool_proj <- inception_4c/pool
I0712 22:28:04.103875 32223 net.cpp:368] inception_4c/pool_proj -> inception_4c/pool_proj
I0712 22:28:04.103883 32223 net.cpp:120] Setting up inception_4c/pool_proj
I0712 22:28:04.104240 32223 net.cpp:127] Top shape: 30 64 14 14 (376320)
I0712 22:28:04.104253 32223 layer_factory.hpp:74] Creating layer inception_4c/relu_pool_proj
I0712 22:28:04.104259 32223 net.cpp:90] Creating Layer inception_4c/relu_pool_proj
I0712 22:28:04.104264 32223 net.cpp:410] inception_4c/relu_pool_proj <- inception_4c/pool_proj
I0712 22:28:04.104269 32223 net.cpp:357] inception_4c/relu_pool_proj -> inception_4c/pool_proj (in-place)
I0712 22:28:04.104274 32223 net.cpp:120] Setting up inception_4c/relu_pool_proj
I0712 22:28:04.104316 32223 net.cpp:127] Top shape: 30 64 14 14 (376320)
I0712 22:28:04.104322 32223 layer_factory.hpp:74] Creating layer inception_4c/output
I0712 22:28:04.104328 32223 net.cpp:90] Creating Layer inception_4c/output
I0712 22:28:04.104333 32223 net.cpp:410] inception_4c/output <- inception_4c/1x1
I0712 22:28:04.104338 32223 net.cpp:410] inception_4c/output <- inception_4c/3x3
I0712 22:28:04.104343 32223 net.cpp:410] inception_4c/output <- inception_4c/5x5
I0712 22:28:04.104347 32223 net.cpp:410] inception_4c/output <- inception_4c/pool_proj
I0712 22:28:04.104352 32223 net.cpp:368] inception_4c/output -> inception_4c/output
I0712 22:28:04.104358 32223 net.cpp:120] Setting up inception_4c/output
I0712 22:28:04.104364 32223 net.cpp:127] Top shape: 30 512 14 14 (3010560)
I0712 22:28:04.104368 32223 layer_factory.hpp:74] Creating layer inception_4c/output_inception_4c/output_0_split
I0712 22:28:04.104374 32223 net.cpp:90] Creating Layer inception_4c/output_inception_4c/output_0_split
I0712 22:28:04.104378 32223 net.cpp:410] inception_4c/output_inception_4c/output_0_split <- inception_4c/output
I0712 22:28:04.104384 32223 net.cpp:368] inception_4c/output_inception_4c/output_0_split -> inception_4c/output_inception_4c/output_0_split_0
I0712 22:28:04.104392 32223 net.cpp:368] inception_4c/output_inception_4c/output_0_split -> inception_4c/output_inception_4c/output_0_split_1
I0712 22:28:04.104398 32223 net.cpp:368] inception_4c/output_inception_4c/output_0_split -> inception_4c/output_inception_4c/output_0_split_2
I0712 22:28:04.104403 32223 net.cpp:368] inception_4c/output_inception_4c/output_0_split -> inception_4c/output_inception_4c/output_0_split_3
I0712 22:28:04.104409 32223 net.cpp:120] Setting up inception_4c/output_inception_4c/output_0_split
I0712 22:28:04.104415 32223 net.cpp:127] Top shape: 30 512 14 14 (3010560)
I0712 22:28:04.104419 32223 net.cpp:127] Top shape: 30 512 14 14 (3010560)
I0712 22:28:04.104424 32223 net.cpp:127] Top shape: 30 512 14 14 (3010560)
I0712 22:28:04.104429 32223 net.cpp:127] Top shape: 30 512 14 14 (3010560)
I0712 22:28:04.104432 32223 layer_factory.hpp:74] Creating layer inception_4d/1x1
I0712 22:28:04.104439 32223 net.cpp:90] Creating Layer inception_4d/1x1
I0712 22:28:04.104444 32223 net.cpp:410] inception_4d/1x1 <- inception_4c/output_inception_4c/output_0_split_0
I0712 22:28:04.104455 32223 net.cpp:368] inception_4d/1x1 -> inception_4d/1x1
I0712 22:28:04.104462 32223 net.cpp:120] Setting up inception_4d/1x1
I0712 22:28:04.104945 32223 net.cpp:127] Top shape: 30 112 14 14 (658560)
I0712 22:28:04.104957 32223 layer_factory.hpp:74] Creating layer inception_4d/relu_1x1
I0712 22:28:04.104964 32223 net.cpp:90] Creating Layer inception_4d/relu_1x1
I0712 22:28:04.104969 32223 net.cpp:410] inception_4d/relu_1x1 <- inception_4d/1x1
I0712 22:28:04.104974 32223 net.cpp:357] inception_4d/relu_1x1 -> inception_4d/1x1 (in-place)
I0712 22:28:04.104980 32223 net.cpp:120] Setting up inception_4d/relu_1x1
I0712 22:28:04.105020 32223 net.cpp:127] Top shape: 30 112 14 14 (658560)
I0712 22:28:04.105025 32223 layer_factory.hpp:74] Creating layer inception_4d/3x3_reduce
I0712 22:28:04.105031 32223 net.cpp:90] Creating Layer inception_4d/3x3_reduce
I0712 22:28:04.105036 32223 net.cpp:410] inception_4d/3x3_reduce <- inception_4c/output_inception_4c/output_0_split_1
I0712 22:28:04.105043 32223 net.cpp:368] inception_4d/3x3_reduce -> inception_4d/3x3_reduce
I0712 22:28:04.105049 32223 net.cpp:120] Setting up inception_4d/3x3_reduce
I0712 22:28:04.105608 32223 net.cpp:127] Top shape: 30 144 14 14 (846720)
I0712 22:28:04.105620 32223 layer_factory.hpp:74] Creating layer inception_4d/relu_3x3_reduce
I0712 22:28:04.105626 32223 net.cpp:90] Creating Layer inception_4d/relu_3x3_reduce
I0712 22:28:04.105631 32223 net.cpp:410] inception_4d/relu_3x3_reduce <- inception_4d/3x3_reduce
I0712 22:28:04.105638 32223 net.cpp:357] inception_4d/relu_3x3_reduce -> inception_4d/3x3_reduce (in-place)
I0712 22:28:04.105643 32223 net.cpp:120] Setting up inception_4d/relu_3x3_reduce
I0712 22:28:04.105684 32223 net.cpp:127] Top shape: 30 144 14 14 (846720)
I0712 22:28:04.105690 32223 layer_factory.hpp:74] Creating layer inception_4d/3x3
I0712 22:28:04.105698 32223 net.cpp:90] Creating Layer inception_4d/3x3
I0712 22:28:04.105702 32223 net.cpp:410] inception_4d/3x3 <- inception_4d/3x3_reduce
I0712 22:28:04.105708 32223 net.cpp:368] inception_4d/3x3 -> inception_4d/3x3
I0712 22:28:04.105715 32223 net.cpp:120] Setting up inception_4d/3x3
I0712 22:28:04.107748 32223 net.cpp:127] Top shape: 30 288 14 14 (1693440)
I0712 22:28:04.107759 32223 layer_factory.hpp:74] Creating layer inception_4d/relu_3x3
I0712 22:28:04.107766 32223 net.cpp:90] Creating Layer inception_4d/relu_3x3
I0712 22:28:04.107771 32223 net.cpp:410] inception_4d/relu_3x3 <- inception_4d/3x3
I0712 22:28:04.107776 32223 net.cpp:357] inception_4d/relu_3x3 -> inception_4d/3x3 (in-place)
I0712 22:28:04.107782 32223 net.cpp:120] Setting up inception_4d/relu_3x3
I0712 22:28:04.107890 32223 net.cpp:127] Top shape: 30 288 14 14 (1693440)
I0712 22:28:04.107899 32223 layer_factory.hpp:74] Creating layer inception_4d/5x5_reduce
I0712 22:28:04.107908 32223 net.cpp:90] Creating Layer inception_4d/5x5_reduce
I0712 22:28:04.107913 32223 net.cpp:410] inception_4d/5x5_reduce <- inception_4c/output_inception_4c/output_0_split_2
I0712 22:28:04.107919 32223 net.cpp:368] inception_4d/5x5_reduce -> inception_4d/5x5_reduce
I0712 22:28:04.107925 32223 net.cpp:120] Setting up inception_4d/5x5_reduce
I0712 22:28:04.108204 32223 net.cpp:127] Top shape: 30 32 14 14 (188160)
I0712 22:28:04.108216 32223 layer_factory.hpp:74] Creating layer inception_4d/relu_5x5_reduce
I0712 22:28:04.108222 32223 net.cpp:90] Creating Layer inception_4d/relu_5x5_reduce
I0712 22:28:04.108227 32223 net.cpp:410] inception_4d/relu_5x5_reduce <- inception_4d/5x5_reduce
I0712 22:28:04.108233 32223 net.cpp:357] inception_4d/relu_5x5_reduce -> inception_4d/5x5_reduce (in-place)
I0712 22:28:04.108239 32223 net.cpp:120] Setting up inception_4d/relu_5x5_reduce
I0712 22:28:04.108278 32223 net.cpp:127] Top shape: 30 32 14 14 (188160)
I0712 22:28:04.108284 32223 layer_factory.hpp:74] Creating layer inception_4d/5x5
I0712 22:28:04.108291 32223 net.cpp:90] Creating Layer inception_4d/5x5
I0712 22:28:04.108296 32223 net.cpp:410] inception_4d/5x5 <- inception_4d/5x5_reduce
I0712 22:28:04.108302 32223 net.cpp:368] inception_4d/5x5 -> inception_4d/5x5
I0712 22:28:04.108317 32223 net.cpp:120] Setting up inception_4d/5x5
I0712 22:28:04.108784 32223 net.cpp:127] Top shape: 30 64 14 14 (376320)
I0712 22:28:04.108796 32223 layer_factory.hpp:74] Creating layer inception_4d/relu_5x5
I0712 22:28:04.108803 32223 net.cpp:90] Creating Layer inception_4d/relu_5x5
I0712 22:28:04.108808 32223 net.cpp:410] inception_4d/relu_5x5 <- inception_4d/5x5
I0712 22:28:04.108814 32223 net.cpp:357] inception_4d/relu_5x5 -> inception_4d/5x5 (in-place)
I0712 22:28:04.108820 32223 net.cpp:120] Setting up inception_4d/relu_5x5
I0712 22:28:04.108860 32223 net.cpp:127] Top shape: 30 64 14 14 (376320)
I0712 22:28:04.108865 32223 layer_factory.hpp:74] Creating layer inception_4d/pool
I0712 22:28:04.108870 32223 layer_factory.cpp:55] CUDNN does not support padding or multiple tops. Using Caffe's own pooling layer.
I0712 22:28:04.108875 32223 net.cpp:90] Creating Layer inception_4d/pool
I0712 22:28:04.108880 32223 net.cpp:410] inception_4d/pool <- inception_4c/output_inception_4c/output_0_split_3
I0712 22:28:04.108886 32223 net.cpp:368] inception_4d/pool -> inception_4d/pool
I0712 22:28:04.108891 32223 net.cpp:120] Setting up inception_4d/pool
I0712 22:28:04.108901 32223 net.cpp:127] Top shape: 30 512 14 14 (3010560)
I0712 22:28:04.108906 32223 layer_factory.hpp:74] Creating layer inception_4d/pool_proj
I0712 22:28:04.108911 32223 net.cpp:90] Creating Layer inception_4d/pool_proj
I0712 22:28:04.108916 32223 net.cpp:410] inception_4d/pool_proj <- inception_4d/pool
I0712 22:28:04.108922 32223 net.cpp:368] inception_4d/pool_proj -> inception_4d/pool_proj
I0712 22:28:04.108927 32223 net.cpp:120] Setting up inception_4d/pool_proj
I0712 22:28:04.109290 32223 net.cpp:127] Top shape: 30 64 14 14 (376320)
I0712 22:28:04.109302 32223 layer_factory.hpp:74] Creating layer inception_4d/relu_pool_proj
I0712 22:28:04.109308 32223 net.cpp:90] Creating Layer inception_4d/relu_pool_proj
I0712 22:28:04.109313 32223 net.cpp:410] inception_4d/relu_pool_proj <- inception_4d/pool_proj
I0712 22:28:04.109319 32223 net.cpp:357] inception_4d/relu_pool_proj -> inception_4d/pool_proj (in-place)
I0712 22:28:04.109325 32223 net.cpp:120] Setting up inception_4d/relu_pool_proj
I0712 22:28:04.109364 32223 net.cpp:127] Top shape: 30 64 14 14 (376320)
I0712 22:28:04.109370 32223 layer_factory.hpp:74] Creating layer inception_4d/output
I0712 22:28:04.109376 32223 net.cpp:90] Creating Layer inception_4d/output
I0712 22:28:04.109381 32223 net.cpp:410] inception_4d/output <- inception_4d/1x1
I0712 22:28:04.109386 32223 net.cpp:410] inception_4d/output <- inception_4d/3x3
I0712 22:28:04.109391 32223 net.cpp:410] inception_4d/output <- inception_4d/5x5
I0712 22:28:04.109396 32223 net.cpp:410] inception_4d/output <- inception_4d/pool_proj
I0712 22:28:04.109401 32223 net.cpp:368] inception_4d/output -> inception_4d/output
I0712 22:28:04.109407 32223 net.cpp:120] Setting up inception_4d/output
I0712 22:28:04.109413 32223 net.cpp:127] Top shape: 30 528 14 14 (3104640)
I0712 22:28:04.109417 32223 layer_factory.hpp:74] Creating layer inception_4d/output_inception_4d/output_0_split
I0712 22:28:04.109423 32223 net.cpp:90] Creating Layer inception_4d/output_inception_4d/output_0_split
I0712 22:28:04.109427 32223 net.cpp:410] inception_4d/output_inception_4d/output_0_split <- inception_4d/output
I0712 22:28:04.109433 32223 net.cpp:368] inception_4d/output_inception_4d/output_0_split -> inception_4d/output_inception_4d/output_0_split_0
I0712 22:28:04.109441 32223 net.cpp:368] inception_4d/output_inception_4d/output_0_split -> inception_4d/output_inception_4d/output_0_split_1
I0712 22:28:04.109447 32223 net.cpp:368] inception_4d/output_inception_4d/output_0_split -> inception_4d/output_inception_4d/output_0_split_2
I0712 22:28:04.109452 32223 net.cpp:368] inception_4d/output_inception_4d/output_0_split -> inception_4d/output_inception_4d/output_0_split_3
I0712 22:28:04.109458 32223 net.cpp:368] inception_4d/output_inception_4d/output_0_split -> inception_4d/output_inception_4d/output_0_split_4
I0712 22:28:04.109464 32223 net.cpp:120] Setting up inception_4d/output_inception_4d/output_0_split
I0712 22:28:04.109477 32223 net.cpp:127] Top shape: 30 528 14 14 (3104640)
I0712 22:28:04.109483 32223 net.cpp:127] Top shape: 30 528 14 14 (3104640)
I0712 22:28:04.109488 32223 net.cpp:127] Top shape: 30 528 14 14 (3104640)
I0712 22:28:04.109491 32223 net.cpp:127] Top shape: 30 528 14 14 (3104640)
I0712 22:28:04.109495 32223 net.cpp:127] Top shape: 30 528 14 14 (3104640)
I0712 22:28:04.109500 32223 layer_factory.hpp:74] Creating layer loss2/ave_pool
I0712 22:28:04.109505 32223 net.cpp:90] Creating Layer loss2/ave_pool
I0712 22:28:04.109510 32223 net.cpp:410] loss2/ave_pool <- inception_4d/output_inception_4d/output_0_split_0
I0712 22:28:04.109515 32223 net.cpp:368] loss2/ave_pool -> loss2/ave_pool
I0712 22:28:04.109521 32223 net.cpp:120] Setting up loss2/ave_pool
I0712 22:28:04.109635 32223 net.cpp:127] Top shape: 30 528 4 4 (253440)
I0712 22:28:04.109643 32223 layer_factory.hpp:74] Creating layer loss2/conv
I0712 22:28:04.109652 32223 net.cpp:90] Creating Layer loss2/conv
I0712 22:28:04.109657 32223 net.cpp:410] loss2/conv <- loss2/ave_pool
I0712 22:28:04.109663 32223 net.cpp:368] loss2/conv -> loss2/conv
I0712 22:28:04.109669 32223 net.cpp:120] Setting up loss2/conv
I0712 22:28:04.110203 32223 net.cpp:127] Top shape: 30 128 4 4 (61440)
I0712 22:28:04.110214 32223 layer_factory.hpp:74] Creating layer loss2/relu_conv
I0712 22:28:04.110220 32223 net.cpp:90] Creating Layer loss2/relu_conv
I0712 22:28:04.110225 32223 net.cpp:410] loss2/relu_conv <- loss2/conv
I0712 22:28:04.110231 32223 net.cpp:357] loss2/relu_conv -> loss2/conv (in-place)
I0712 22:28:04.110236 32223 net.cpp:120] Setting up loss2/relu_conv
I0712 22:28:04.110276 32223 net.cpp:127] Top shape: 30 128 4 4 (61440)
I0712 22:28:04.110282 32223 layer_factory.hpp:74] Creating layer loss2/fc
I0712 22:28:04.110290 32223 net.cpp:90] Creating Layer loss2/fc
I0712 22:28:04.110293 32223 net.cpp:410] loss2/fc <- loss2/conv
I0712 22:28:04.110299 32223 net.cpp:368] loss2/fc -> loss2/fc
I0712 22:28:04.110306 32223 net.cpp:120] Setting up loss2/fc
I0712 22:28:04.121106 32223 net.cpp:127] Top shape: 30 1024 (30720)
I0712 22:28:04.121131 32223 layer_factory.hpp:74] Creating layer loss2/relu_fc
I0712 22:28:04.121142 32223 net.cpp:90] Creating Layer loss2/relu_fc
I0712 22:28:04.121150 32223 net.cpp:410] loss2/relu_fc <- loss2/fc
I0712 22:28:04.121157 32223 net.cpp:357] loss2/relu_fc -> loss2/fc (in-place)
I0712 22:28:04.121165 32223 net.cpp:120] Setting up loss2/relu_fc
I0712 22:28:04.121239 32223 net.cpp:127] Top shape: 30 1024 (30720)
I0712 22:28:04.121247 32223 layer_factory.hpp:74] Creating layer loss2/drop_fc
I0712 22:28:04.121253 32223 net.cpp:90] Creating Layer loss2/drop_fc
I0712 22:28:04.121258 32223 net.cpp:410] loss2/drop_fc <- loss2/fc
I0712 22:28:04.121263 32223 net.cpp:357] loss2/drop_fc -> loss2/fc (in-place)
I0712 22:28:04.121269 32223 net.cpp:120] Setting up loss2/drop_fc
I0712 22:28:04.121275 32223 net.cpp:127] Top shape: 30 1024 (30720)
I0712 22:28:04.121280 32223 layer_factory.hpp:74] Creating layer stanford_cars_loss2/classifier
I0712 22:28:04.121287 32223 net.cpp:90] Creating Layer stanford_cars_loss2/classifier
I0712 22:28:04.121291 32223 net.cpp:410] stanford_cars_loss2/classifier <- loss2/fc
I0712 22:28:04.121299 32223 net.cpp:368] stanford_cars_loss2/classifier -> stanford_cars_loss2/classifier
I0712 22:28:04.121305 32223 net.cpp:120] Setting up stanford_cars_loss2/classifier
I0712 22:28:04.122304 32223 net.cpp:127] Top shape: 30 196 (5880)
I0712 22:28:04.122313 32223 layer_factory.hpp:74] Creating layer stanford_cars_loss2/loss
I0712 22:28:04.122319 32223 net.cpp:90] Creating Layer stanford_cars_loss2/loss
I0712 22:28:04.122324 32223 net.cpp:410] stanford_cars_loss2/loss <- stanford_cars_loss2/classifier
I0712 22:28:04.122330 32223 net.cpp:410] stanford_cars_loss2/loss <- label_data_1_split_1
I0712 22:28:04.122335 32223 net.cpp:368] stanford_cars_loss2/loss -> loss2/loss1
I0712 22:28:04.122341 32223 net.cpp:120] Setting up stanford_cars_loss2/loss
I0712 22:28:04.122347 32223 layer_factory.hpp:74] Creating layer stanford_cars_loss2/loss
I0712 22:28:04.122416 32223 net.cpp:127] Top shape: (1)
I0712 22:28:04.122423 32223 net.cpp:129]     with loss weight 0.3
I0712 22:28:04.122432 32223 layer_factory.hpp:74] Creating layer inception_4e/1x1
I0712 22:28:04.122441 32223 net.cpp:90] Creating Layer inception_4e/1x1
I0712 22:28:04.122445 32223 net.cpp:410] inception_4e/1x1 <- inception_4d/output_inception_4d/output_0_split_1
I0712 22:28:04.122452 32223 net.cpp:368] inception_4e/1x1 -> inception_4e/1x1
I0712 22:28:04.122459 32223 net.cpp:120] Setting up inception_4e/1x1
I0712 22:28:04.123399 32223 net.cpp:127] Top shape: 30 256 14 14 (1505280)
I0712 22:28:04.123409 32223 layer_factory.hpp:74] Creating layer inception_4e/relu_1x1
I0712 22:28:04.123417 32223 net.cpp:90] Creating Layer inception_4e/relu_1x1
I0712 22:28:04.123422 32223 net.cpp:410] inception_4e/relu_1x1 <- inception_4e/1x1
I0712 22:28:04.123428 32223 net.cpp:357] inception_4e/relu_1x1 -> inception_4e/1x1 (in-place)
I0712 22:28:04.123435 32223 net.cpp:120] Setting up inception_4e/relu_1x1
I0712 22:28:04.123548 32223 net.cpp:127] Top shape: 30 256 14 14 (1505280)
I0712 22:28:04.123556 32223 layer_factory.hpp:74] Creating layer inception_4e/3x3_reduce
I0712 22:28:04.123564 32223 net.cpp:90] Creating Layer inception_4e/3x3_reduce
I0712 22:28:04.123569 32223 net.cpp:410] inception_4e/3x3_reduce <- inception_4d/output_inception_4d/output_0_split_2
I0712 22:28:04.123575 32223 net.cpp:368] inception_4e/3x3_reduce -> inception_4e/3x3_reduce
I0712 22:28:04.123582 32223 net.cpp:120] Setting up inception_4e/3x3_reduce
I0712 22:28:04.124200 32223 net.cpp:127] Top shape: 30 160 14 14 (940800)
I0712 22:28:04.124212 32223 layer_factory.hpp:74] Creating layer inception_4e/relu_3x3_reduce
I0712 22:28:04.124219 32223 net.cpp:90] Creating Layer inception_4e/relu_3x3_reduce
I0712 22:28:04.124224 32223 net.cpp:410] inception_4e/relu_3x3_reduce <- inception_4e/3x3_reduce
I0712 22:28:04.124229 32223 net.cpp:357] inception_4e/relu_3x3_reduce -> inception_4e/3x3_reduce (in-place)
I0712 22:28:04.124235 32223 net.cpp:120] Setting up inception_4e/relu_3x3_reduce
I0712 22:28:04.124279 32223 net.cpp:127] Top shape: 30 160 14 14 (940800)
I0712 22:28:04.124284 32223 layer_factory.hpp:74] Creating layer inception_4e/3x3
I0712 22:28:04.124290 32223 net.cpp:90] Creating Layer inception_4e/3x3
I0712 22:28:04.124295 32223 net.cpp:410] inception_4e/3x3 <- inception_4e/3x3_reduce
I0712 22:28:04.124301 32223 net.cpp:368] inception_4e/3x3 -> inception_4e/3x3
I0712 22:28:04.124308 32223 net.cpp:120] Setting up inception_4e/3x3
I0712 22:28:04.126765 32223 net.cpp:127] Top shape: 30 320 14 14 (1881600)
I0712 22:28:04.126776 32223 layer_factory.hpp:74] Creating layer inception_4e/relu_3x3
I0712 22:28:04.126785 32223 net.cpp:90] Creating Layer inception_4e/relu_3x3
I0712 22:28:04.126790 32223 net.cpp:410] inception_4e/relu_3x3 <- inception_4e/3x3
I0712 22:28:04.126795 32223 net.cpp:357] inception_4e/relu_3x3 -> inception_4e/3x3 (in-place)
I0712 22:28:04.126801 32223 net.cpp:120] Setting up inception_4e/relu_3x3
I0712 22:28:04.126842 32223 net.cpp:127] Top shape: 30 320 14 14 (1881600)
I0712 22:28:04.126847 32223 layer_factory.hpp:74] Creating layer inception_4e/5x5_reduce
I0712 22:28:04.126853 32223 net.cpp:90] Creating Layer inception_4e/5x5_reduce
I0712 22:28:04.126858 32223 net.cpp:410] inception_4e/5x5_reduce <- inception_4d/output_inception_4d/output_0_split_3
I0712 22:28:04.126865 32223 net.cpp:368] inception_4e/5x5_reduce -> inception_4e/5x5_reduce
I0712 22:28:04.126871 32223 net.cpp:120] Setting up inception_4e/5x5_reduce
I0712 22:28:04.127158 32223 net.cpp:127] Top shape: 30 32 14 14 (188160)
I0712 22:28:04.127171 32223 layer_factory.hpp:74] Creating layer inception_4e/relu_5x5_reduce
I0712 22:28:04.127177 32223 net.cpp:90] Creating Layer inception_4e/relu_5x5_reduce
I0712 22:28:04.127182 32223 net.cpp:410] inception_4e/relu_5x5_reduce <- inception_4e/5x5_reduce
I0712 22:28:04.127187 32223 net.cpp:357] inception_4e/relu_5x5_reduce -> inception_4e/5x5_reduce (in-place)
I0712 22:28:04.127192 32223 net.cpp:120] Setting up inception_4e/relu_5x5_reduce
I0712 22:28:04.127315 32223 net.cpp:127] Top shape: 30 32 14 14 (188160)
I0712 22:28:04.127323 32223 layer_factory.hpp:74] Creating layer inception_4e/5x5
I0712 22:28:04.127341 32223 net.cpp:90] Creating Layer inception_4e/5x5
I0712 22:28:04.127346 32223 net.cpp:410] inception_4e/5x5 <- inception_4e/5x5_reduce
I0712 22:28:04.127352 32223 net.cpp:368] inception_4e/5x5 -> inception_4e/5x5
I0712 22:28:04.127359 32223 net.cpp:120] Setting up inception_4e/5x5
I0712 22:28:04.128067 32223 net.cpp:127] Top shape: 30 128 14 14 (752640)
I0712 22:28:04.128078 32223 layer_factory.hpp:74] Creating layer inception_4e/relu_5x5
I0712 22:28:04.128084 32223 net.cpp:90] Creating Layer inception_4e/relu_5x5
I0712 22:28:04.128089 32223 net.cpp:410] inception_4e/relu_5x5 <- inception_4e/5x5
I0712 22:28:04.128095 32223 net.cpp:357] inception_4e/relu_5x5 -> inception_4e/5x5 (in-place)
I0712 22:28:04.128100 32223 net.cpp:120] Setting up inception_4e/relu_5x5
I0712 22:28:04.128141 32223 net.cpp:127] Top shape: 30 128 14 14 (752640)
I0712 22:28:04.128147 32223 layer_factory.hpp:74] Creating layer inception_4e/pool
I0712 22:28:04.128154 32223 layer_factory.cpp:55] CUDNN does not support padding or multiple tops. Using Caffe's own pooling layer.
I0712 22:28:04.128159 32223 net.cpp:90] Creating Layer inception_4e/pool
I0712 22:28:04.128164 32223 net.cpp:410] inception_4e/pool <- inception_4d/output_inception_4d/output_0_split_4
I0712 22:28:04.128170 32223 net.cpp:368] inception_4e/pool -> inception_4e/pool
I0712 22:28:04.128175 32223 net.cpp:120] Setting up inception_4e/pool
I0712 22:28:04.128182 32223 net.cpp:127] Top shape: 30 528 14 14 (3104640)
I0712 22:28:04.128186 32223 layer_factory.hpp:74] Creating layer inception_4e/pool_proj
I0712 22:28:04.128195 32223 net.cpp:90] Creating Layer inception_4e/pool_proj
I0712 22:28:04.128198 32223 net.cpp:410] inception_4e/pool_proj <- inception_4e/pool
I0712 22:28:04.128206 32223 net.cpp:368] inception_4e/pool_proj -> inception_4e/pool_proj
I0712 22:28:04.128212 32223 net.cpp:120] Setting up inception_4e/pool_proj
I0712 22:28:04.128746 32223 net.cpp:127] Top shape: 30 128 14 14 (752640)
I0712 22:28:04.128757 32223 layer_factory.hpp:74] Creating layer inception_4e/relu_pool_proj
I0712 22:28:04.128763 32223 net.cpp:90] Creating Layer inception_4e/relu_pool_proj
I0712 22:28:04.128768 32223 net.cpp:410] inception_4e/relu_pool_proj <- inception_4e/pool_proj
I0712 22:28:04.128775 32223 net.cpp:357] inception_4e/relu_pool_proj -> inception_4e/pool_proj (in-place)
I0712 22:28:04.128782 32223 net.cpp:120] Setting up inception_4e/relu_pool_proj
I0712 22:28:04.128823 32223 net.cpp:127] Top shape: 30 128 14 14 (752640)
I0712 22:28:04.128829 32223 layer_factory.hpp:74] Creating layer inception_4e/output
I0712 22:28:04.128834 32223 net.cpp:90] Creating Layer inception_4e/output
I0712 22:28:04.128839 32223 net.cpp:410] inception_4e/output <- inception_4e/1x1
I0712 22:28:04.128844 32223 net.cpp:410] inception_4e/output <- inception_4e/3x3
I0712 22:28:04.128849 32223 net.cpp:410] inception_4e/output <- inception_4e/5x5
I0712 22:28:04.128854 32223 net.cpp:410] inception_4e/output <- inception_4e/pool_proj
I0712 22:28:04.128859 32223 net.cpp:368] inception_4e/output -> inception_4e/output
I0712 22:28:04.128865 32223 net.cpp:120] Setting up inception_4e/output
I0712 22:28:04.128871 32223 net.cpp:127] Top shape: 30 832 14 14 (4892160)
I0712 22:28:04.128875 32223 layer_factory.hpp:74] Creating layer pool4/3x3_s2
I0712 22:28:04.128881 32223 net.cpp:90] Creating Layer pool4/3x3_s2
I0712 22:28:04.128887 32223 net.cpp:410] pool4/3x3_s2 <- inception_4e/output
I0712 22:28:04.128893 32223 net.cpp:368] pool4/3x3_s2 -> pool4/3x3_s2
I0712 22:28:04.128898 32223 net.cpp:120] Setting up pool4/3x3_s2
I0712 22:28:04.128939 32223 net.cpp:127] Top shape: 30 832 7 7 (1223040)
I0712 22:28:04.128947 32223 layer_factory.hpp:74] Creating layer pool4/3x3_s2_pool4/3x3_s2_0_split
I0712 22:28:04.128952 32223 net.cpp:90] Creating Layer pool4/3x3_s2_pool4/3x3_s2_0_split
I0712 22:28:04.128957 32223 net.cpp:410] pool4/3x3_s2_pool4/3x3_s2_0_split <- pool4/3x3_s2
I0712 22:28:04.128969 32223 net.cpp:368] pool4/3x3_s2_pool4/3x3_s2_0_split -> pool4/3x3_s2_pool4/3x3_s2_0_split_0
I0712 22:28:04.128976 32223 net.cpp:368] pool4/3x3_s2_pool4/3x3_s2_0_split -> pool4/3x3_s2_pool4/3x3_s2_0_split_1
I0712 22:28:04.128983 32223 net.cpp:368] pool4/3x3_s2_pool4/3x3_s2_0_split -> pool4/3x3_s2_pool4/3x3_s2_0_split_2
I0712 22:28:04.128988 32223 net.cpp:368] pool4/3x3_s2_pool4/3x3_s2_0_split -> pool4/3x3_s2_pool4/3x3_s2_0_split_3
I0712 22:28:04.128994 32223 net.cpp:120] Setting up pool4/3x3_s2_pool4/3x3_s2_0_split
I0712 22:28:04.129000 32223 net.cpp:127] Top shape: 30 832 7 7 (1223040)
I0712 22:28:04.129005 32223 net.cpp:127] Top shape: 30 832 7 7 (1223040)
I0712 22:28:04.129009 32223 net.cpp:127] Top shape: 30 832 7 7 (1223040)
I0712 22:28:04.129014 32223 net.cpp:127] Top shape: 30 832 7 7 (1223040)
I0712 22:28:04.129019 32223 layer_factory.hpp:74] Creating layer inception_5a/1x1
I0712 22:28:04.129025 32223 net.cpp:90] Creating Layer inception_5a/1x1
I0712 22:28:04.129030 32223 net.cpp:410] inception_5a/1x1 <- pool4/3x3_s2_pool4/3x3_s2_0_split_0
I0712 22:28:04.129037 32223 net.cpp:368] inception_5a/1x1 -> inception_5a/1x1
I0712 22:28:04.129043 32223 net.cpp:120] Setting up inception_5a/1x1
I0712 22:28:04.130295 32223 net.cpp:127] Top shape: 30 256 7 7 (376320)
I0712 22:28:04.130306 32223 layer_factory.hpp:74] Creating layer inception_5a/relu_1x1
I0712 22:28:04.130313 32223 net.cpp:90] Creating Layer inception_5a/relu_1x1
I0712 22:28:04.130318 32223 net.cpp:410] inception_5a/relu_1x1 <- inception_5a/1x1
I0712 22:28:04.130324 32223 net.cpp:357] inception_5a/relu_1x1 -> inception_5a/1x1 (in-place)
I0712 22:28:04.130331 32223 net.cpp:120] Setting up inception_5a/relu_1x1
I0712 22:28:04.130444 32223 net.cpp:127] Top shape: 30 256 7 7 (376320)
I0712 22:28:04.130452 32223 layer_factory.hpp:74] Creating layer inception_5a/3x3_reduce
I0712 22:28:04.130460 32223 net.cpp:90] Creating Layer inception_5a/3x3_reduce
I0712 22:28:04.130465 32223 net.cpp:410] inception_5a/3x3_reduce <- pool4/3x3_s2_pool4/3x3_s2_0_split_1
I0712 22:28:04.130471 32223 net.cpp:368] inception_5a/3x3_reduce -> inception_5a/3x3_reduce
I0712 22:28:04.130478 32223 net.cpp:120] Setting up inception_5a/3x3_reduce
I0712 22:28:04.131347 32223 net.cpp:127] Top shape: 30 160 7 7 (235200)
I0712 22:28:04.131360 32223 layer_factory.hpp:74] Creating layer inception_5a/relu_3x3_reduce
I0712 22:28:04.131366 32223 net.cpp:90] Creating Layer inception_5a/relu_3x3_reduce
I0712 22:28:04.131371 32223 net.cpp:410] inception_5a/relu_3x3_reduce <- inception_5a/3x3_reduce
I0712 22:28:04.131376 32223 net.cpp:357] inception_5a/relu_3x3_reduce -> inception_5a/3x3_reduce (in-place)
I0712 22:28:04.131382 32223 net.cpp:120] Setting up inception_5a/relu_3x3_reduce
I0712 22:28:04.148751 32223 net.cpp:127] Top shape: 30 160 7 7 (235200)
I0712 22:28:04.148759 32223 layer_factory.hpp:74] Creating layer inception_5a/3x3
I0712 22:28:04.148768 32223 net.cpp:90] Creating Layer inception_5a/3x3
I0712 22:28:04.148774 32223 net.cpp:410] inception_5a/3x3 <- inception_5a/3x3_reduce
I0712 22:28:04.148782 32223 net.cpp:368] inception_5a/3x3 -> inception_5a/3x3
I0712 22:28:04.148788 32223 net.cpp:120] Setting up inception_5a/3x3
I0712 22:28:04.151543 32223 net.cpp:127] Top shape: 30 320 7 7 (470400)
I0712 22:28:04.151557 32223 layer_factory.hpp:74] Creating layer inception_5a/relu_3x3
I0712 22:28:04.151564 32223 net.cpp:90] Creating Layer inception_5a/relu_3x3
I0712 22:28:04.151569 32223 net.cpp:410] inception_5a/relu_3x3 <- inception_5a/3x3
I0712 22:28:04.151576 32223 net.cpp:357] inception_5a/relu_3x3 -> inception_5a/3x3 (in-place)
I0712 22:28:04.151582 32223 net.cpp:120] Setting up inception_5a/relu_3x3
I0712 22:28:04.151623 32223 net.cpp:127] Top shape: 30 320 7 7 (470400)
I0712 22:28:04.151629 32223 layer_factory.hpp:74] Creating layer inception_5a/5x5_reduce
I0712 22:28:04.151636 32223 net.cpp:90] Creating Layer inception_5a/5x5_reduce
I0712 22:28:04.151643 32223 net.cpp:410] inception_5a/5x5_reduce <- pool4/3x3_s2_pool4/3x3_s2_0_split_2
I0712 22:28:04.151659 32223 net.cpp:368] inception_5a/5x5_reduce -> inception_5a/5x5_reduce
I0712 22:28:04.151666 32223 net.cpp:120] Setting up inception_5a/5x5_reduce
I0712 22:28:04.152007 32223 net.cpp:127] Top shape: 30 32 7 7 (47040)
I0712 22:28:04.152019 32223 layer_factory.hpp:74] Creating layer inception_5a/relu_5x5_reduce
I0712 22:28:04.152025 32223 net.cpp:90] Creating Layer inception_5a/relu_5x5_reduce
I0712 22:28:04.152030 32223 net.cpp:410] inception_5a/relu_5x5_reduce <- inception_5a/5x5_reduce
I0712 22:28:04.152036 32223 net.cpp:357] inception_5a/relu_5x5_reduce -> inception_5a/5x5_reduce (in-place)
I0712 22:28:04.152042 32223 net.cpp:120] Setting up inception_5a/relu_5x5_reduce
I0712 22:28:04.152083 32223 net.cpp:127] Top shape: 30 32 7 7 (47040)
I0712 22:28:04.152089 32223 layer_factory.hpp:74] Creating layer inception_5a/5x5
I0712 22:28:04.152098 32223 net.cpp:90] Creating Layer inception_5a/5x5
I0712 22:28:04.152103 32223 net.cpp:410] inception_5a/5x5 <- inception_5a/5x5_reduce
I0712 22:28:04.152109 32223 net.cpp:368] inception_5a/5x5 -> inception_5a/5x5
I0712 22:28:04.152117 32223 net.cpp:120] Setting up inception_5a/5x5
I0712 22:28:04.152840 32223 net.cpp:127] Top shape: 30 128 7 7 (188160)
I0712 22:28:04.152851 32223 layer_factory.hpp:74] Creating layer inception_5a/relu_5x5
I0712 22:28:04.152858 32223 net.cpp:90] Creating Layer inception_5a/relu_5x5
I0712 22:28:04.152863 32223 net.cpp:410] inception_5a/relu_5x5 <- inception_5a/5x5
I0712 22:28:04.152868 32223 net.cpp:357] inception_5a/relu_5x5 -> inception_5a/5x5 (in-place)
I0712 22:28:04.152874 32223 net.cpp:120] Setting up inception_5a/relu_5x5
I0712 22:28:04.152981 32223 net.cpp:127] Top shape: 30 128 7 7 (188160)
I0712 22:28:04.152990 32223 layer_factory.hpp:74] Creating layer inception_5a/pool
I0712 22:28:04.152997 32223 layer_factory.cpp:55] CUDNN does not support padding or multiple tops. Using Caffe's own pooling layer.
I0712 22:28:04.153002 32223 net.cpp:90] Creating Layer inception_5a/pool
I0712 22:28:04.153007 32223 net.cpp:410] inception_5a/pool <- pool4/3x3_s2_pool4/3x3_s2_0_split_3
I0712 22:28:04.153013 32223 net.cpp:368] inception_5a/pool -> inception_5a/pool
I0712 22:28:04.153020 32223 net.cpp:120] Setting up inception_5a/pool
I0712 22:28:04.153028 32223 net.cpp:127] Top shape: 30 832 7 7 (1223040)
I0712 22:28:04.153033 32223 layer_factory.hpp:74] Creating layer inception_5a/pool_proj
I0712 22:28:04.153039 32223 net.cpp:90] Creating Layer inception_5a/pool_proj
I0712 22:28:04.153044 32223 net.cpp:410] inception_5a/pool_proj <- inception_5a/pool
I0712 22:28:04.153049 32223 net.cpp:368] inception_5a/pool_proj -> inception_5a/pool_proj
I0712 22:28:04.153055 32223 net.cpp:120] Setting up inception_5a/pool_proj
I0712 22:28:04.153781 32223 net.cpp:127] Top shape: 30 128 7 7 (188160)
I0712 22:28:04.153795 32223 layer_factory.hpp:74] Creating layer inception_5a/relu_pool_proj
I0712 22:28:04.153800 32223 net.cpp:90] Creating Layer inception_5a/relu_pool_proj
I0712 22:28:04.153805 32223 net.cpp:410] inception_5a/relu_pool_proj <- inception_5a/pool_proj
I0712 22:28:04.153812 32223 net.cpp:357] inception_5a/relu_pool_proj -> inception_5a/pool_proj (in-place)
I0712 22:28:04.153818 32223 net.cpp:120] Setting up inception_5a/relu_pool_proj
I0712 22:28:04.153858 32223 net.cpp:127] Top shape: 30 128 7 7 (188160)
I0712 22:28:04.153864 32223 layer_factory.hpp:74] Creating layer inception_5a/output
I0712 22:28:04.153870 32223 net.cpp:90] Creating Layer inception_5a/output
I0712 22:28:04.153875 32223 net.cpp:410] inception_5a/output <- inception_5a/1x1
I0712 22:28:04.153880 32223 net.cpp:410] inception_5a/output <- inception_5a/3x3
I0712 22:28:04.153885 32223 net.cpp:410] inception_5a/output <- inception_5a/5x5
I0712 22:28:04.153889 32223 net.cpp:410] inception_5a/output <- inception_5a/pool_proj
I0712 22:28:04.153895 32223 net.cpp:368] inception_5a/output -> inception_5a/output
I0712 22:28:04.153902 32223 net.cpp:120] Setting up inception_5a/output
I0712 22:28:04.153908 32223 net.cpp:127] Top shape: 30 832 7 7 (1223040)
I0712 22:28:04.153913 32223 layer_factory.hpp:74] Creating layer inception_5a/output_inception_5a/output_0_split
I0712 22:28:04.153925 32223 net.cpp:90] Creating Layer inception_5a/output_inception_5a/output_0_split
I0712 22:28:04.153930 32223 net.cpp:410] inception_5a/output_inception_5a/output_0_split <- inception_5a/output
I0712 22:28:04.153935 32223 net.cpp:368] inception_5a/output_inception_5a/output_0_split -> inception_5a/output_inception_5a/output_0_split_0
I0712 22:28:04.153941 32223 net.cpp:368] inception_5a/output_inception_5a/output_0_split -> inception_5a/output_inception_5a/output_0_split_1
I0712 22:28:04.153949 32223 net.cpp:368] inception_5a/output_inception_5a/output_0_split -> inception_5a/output_inception_5a/output_0_split_2
I0712 22:28:04.153954 32223 net.cpp:368] inception_5a/output_inception_5a/output_0_split -> inception_5a/output_inception_5a/output_0_split_3
I0712 22:28:04.153960 32223 net.cpp:120] Setting up inception_5a/output_inception_5a/output_0_split
I0712 22:28:04.153967 32223 net.cpp:127] Top shape: 30 832 7 7 (1223040)
I0712 22:28:04.153972 32223 net.cpp:127] Top shape: 30 832 7 7 (1223040)
I0712 22:28:04.153976 32223 net.cpp:127] Top shape: 30 832 7 7 (1223040)
I0712 22:28:04.153981 32223 net.cpp:127] Top shape: 30 832 7 7 (1223040)
I0712 22:28:04.153985 32223 layer_factory.hpp:74] Creating layer inception_5b/1x1
I0712 22:28:04.153992 32223 net.cpp:90] Creating Layer inception_5b/1x1
I0712 22:28:04.153996 32223 net.cpp:410] inception_5b/1x1 <- inception_5a/output_inception_5a/output_0_split_0
I0712 22:28:04.154002 32223 net.cpp:368] inception_5b/1x1 -> inception_5b/1x1
I0712 22:28:04.154008 32223 net.cpp:120] Setting up inception_5b/1x1
I0712 22:28:04.155783 32223 net.cpp:127] Top shape: 30 384 7 7 (564480)
I0712 22:28:04.155796 32223 layer_factory.hpp:74] Creating layer inception_5b/relu_1x1
I0712 22:28:04.155802 32223 net.cpp:90] Creating Layer inception_5b/relu_1x1
I0712 22:28:04.155807 32223 net.cpp:410] inception_5b/relu_1x1 <- inception_5b/1x1
I0712 22:28:04.155812 32223 net.cpp:357] inception_5b/relu_1x1 -> inception_5b/1x1 (in-place)
I0712 22:28:04.155818 32223 net.cpp:120] Setting up inception_5b/relu_1x1
I0712 22:28:04.155858 32223 net.cpp:127] Top shape: 30 384 7 7 (564480)
I0712 22:28:04.155864 32223 layer_factory.hpp:74] Creating layer inception_5b/3x3_reduce
I0712 22:28:04.155871 32223 net.cpp:90] Creating Layer inception_5b/3x3_reduce
I0712 22:28:04.155875 32223 net.cpp:410] inception_5b/3x3_reduce <- inception_5a/output_inception_5a/output_0_split_1
I0712 22:28:04.155881 32223 net.cpp:368] inception_5b/3x3_reduce -> inception_5b/3x3_reduce
I0712 22:28:04.155889 32223 net.cpp:120] Setting up inception_5b/3x3_reduce
I0712 22:28:04.156872 32223 net.cpp:127] Top shape: 30 192 7 7 (282240)
I0712 22:28:04.156883 32223 layer_factory.hpp:74] Creating layer inception_5b/relu_3x3_reduce
I0712 22:28:04.156890 32223 net.cpp:90] Creating Layer inception_5b/relu_3x3_reduce
I0712 22:28:04.156898 32223 net.cpp:410] inception_5b/relu_3x3_reduce <- inception_5b/3x3_reduce
I0712 22:28:04.156903 32223 net.cpp:357] inception_5b/relu_3x3_reduce -> inception_5b/3x3_reduce (in-place)
I0712 22:28:04.156908 32223 net.cpp:120] Setting up inception_5b/relu_3x3_reduce
I0712 22:28:04.156949 32223 net.cpp:127] Top shape: 30 192 7 7 (282240)
I0712 22:28:04.156955 32223 layer_factory.hpp:74] Creating layer inception_5b/3x3
I0712 22:28:04.156961 32223 net.cpp:90] Creating Layer inception_5b/3x3
I0712 22:28:04.156966 32223 net.cpp:410] inception_5b/3x3 <- inception_5b/3x3_reduce
I0712 22:28:04.156973 32223 net.cpp:368] inception_5b/3x3 -> inception_5b/3x3
I0712 22:28:04.156990 32223 net.cpp:120] Setting up inception_5b/3x3
I0712 22:28:04.160449 32223 net.cpp:127] Top shape: 30 384 7 7 (564480)
I0712 22:28:04.160462 32223 layer_factory.hpp:74] Creating layer inception_5b/relu_3x3
I0712 22:28:04.160470 32223 net.cpp:90] Creating Layer inception_5b/relu_3x3
I0712 22:28:04.160475 32223 net.cpp:410] inception_5b/relu_3x3 <- inception_5b/3x3
I0712 22:28:04.160481 32223 net.cpp:357] inception_5b/relu_3x3 -> inception_5b/3x3 (in-place)
I0712 22:28:04.160496 32223 net.cpp:120] Setting up inception_5b/relu_3x3
I0712 22:28:04.160608 32223 net.cpp:127] Top shape: 30 384 7 7 (564480)
I0712 22:28:04.160616 32223 layer_factory.hpp:74] Creating layer inception_5b/5x5_reduce
I0712 22:28:04.160625 32223 net.cpp:90] Creating Layer inception_5b/5x5_reduce
I0712 22:28:04.160630 32223 net.cpp:410] inception_5b/5x5_reduce <- inception_5a/output_inception_5a/output_0_split_2
I0712 22:28:04.160637 32223 net.cpp:368] inception_5b/5x5_reduce -> inception_5b/5x5_reduce
I0712 22:28:04.160645 32223 net.cpp:120] Setting up inception_5b/5x5_reduce
I0712 22:28:04.161044 32223 net.cpp:127] Top shape: 30 48 7 7 (70560)
I0712 22:28:04.161056 32223 layer_factory.hpp:74] Creating layer inception_5b/relu_5x5_reduce
I0712 22:28:04.161062 32223 net.cpp:90] Creating Layer inception_5b/relu_5x5_reduce
I0712 22:28:04.161067 32223 net.cpp:410] inception_5b/relu_5x5_reduce <- inception_5b/5x5_reduce
I0712 22:28:04.161074 32223 net.cpp:357] inception_5b/relu_5x5_reduce -> inception_5b/5x5_reduce (in-place)
I0712 22:28:04.161080 32223 net.cpp:120] Setting up inception_5b/relu_5x5_reduce
I0712 22:28:04.161120 32223 net.cpp:127] Top shape: 30 48 7 7 (70560)
I0712 22:28:04.161126 32223 layer_factory.hpp:74] Creating layer inception_5b/5x5
I0712 22:28:04.161134 32223 net.cpp:90] Creating Layer inception_5b/5x5
I0712 22:28:04.161139 32223 net.cpp:410] inception_5b/5x5 <- inception_5b/5x5_reduce
I0712 22:28:04.161145 32223 net.cpp:368] inception_5b/5x5 -> inception_5b/5x5
I0712 22:28:04.161151 32223 net.cpp:120] Setting up inception_5b/5x5
I0712 22:28:04.162103 32223 net.cpp:127] Top shape: 30 128 7 7 (188160)
I0712 22:28:04.162117 32223 layer_factory.hpp:74] Creating layer inception_5b/relu_5x5
I0712 22:28:04.162122 32223 net.cpp:90] Creating Layer inception_5b/relu_5x5
I0712 22:28:04.162127 32223 net.cpp:410] inception_5b/relu_5x5 <- inception_5b/5x5
I0712 22:28:04.162133 32223 net.cpp:357] inception_5b/relu_5x5 -> inception_5b/5x5 (in-place)
I0712 22:28:04.162139 32223 net.cpp:120] Setting up inception_5b/relu_5x5
I0712 22:28:04.162183 32223 net.cpp:127] Top shape: 30 128 7 7 (188160)
I0712 22:28:04.162188 32223 layer_factory.hpp:74] Creating layer inception_5b/pool
I0712 22:28:04.162192 32223 layer_factory.cpp:55] CUDNN does not support padding or multiple tops. Using Caffe's own pooling layer.
I0712 22:28:04.162199 32223 net.cpp:90] Creating Layer inception_5b/pool
I0712 22:28:04.162204 32223 net.cpp:410] inception_5b/pool <- inception_5a/output_inception_5a/output_0_split_3
I0712 22:28:04.162209 32223 net.cpp:368] inception_5b/pool -> inception_5b/pool
I0712 22:28:04.162215 32223 net.cpp:120] Setting up inception_5b/pool
I0712 22:28:04.177927 32223 net.cpp:127] Top shape: 30 832 7 7 (1223040)
I0712 22:28:04.177945 32223 layer_factory.hpp:74] Creating layer inception_5b/pool_proj
I0712 22:28:04.177963 32223 net.cpp:90] Creating Layer inception_5b/pool_proj
I0712 22:28:04.177971 32223 net.cpp:410] inception_5b/pool_proj <- inception_5b/pool
I0712 22:28:04.177978 32223 net.cpp:368] inception_5b/pool_proj -> inception_5b/pool_proj
I0712 22:28:04.177989 32223 net.cpp:120] Setting up inception_5b/pool_proj
I0712 22:28:04.178918 32223 net.cpp:127] Top shape: 30 128 7 7 (188160)
I0712 22:28:04.178946 32223 layer_factory.hpp:74] Creating layer inception_5b/relu_pool_proj
I0712 22:28:04.178958 32223 net.cpp:90] Creating Layer inception_5b/relu_pool_proj
I0712 22:28:04.178966 32223 net.cpp:410] inception_5b/relu_pool_proj <- inception_5b/pool_proj
I0712 22:28:04.178972 32223 net.cpp:357] inception_5b/relu_pool_proj -> inception_5b/pool_proj (in-place)
I0712 22:28:04.178979 32223 net.cpp:120] Setting up inception_5b/relu_pool_proj
I0712 22:28:04.179184 32223 net.cpp:127] Top shape: 30 128 7 7 (188160)
I0712 22:28:04.179208 32223 layer_factory.hpp:74] Creating layer inception_5b/output
I0712 22:28:04.179214 32223 net.cpp:90] Creating Layer inception_5b/output
I0712 22:28:04.179220 32223 net.cpp:410] inception_5b/output <- inception_5b/1x1
I0712 22:28:04.179226 32223 net.cpp:410] inception_5b/output <- inception_5b/3x3
I0712 22:28:04.179242 32223 net.cpp:410] inception_5b/output <- inception_5b/5x5
I0712 22:28:04.179249 32223 net.cpp:410] inception_5b/output <- inception_5b/pool_proj
I0712 22:28:04.179253 32223 net.cpp:368] inception_5b/output -> inception_5b/output
I0712 22:28:04.179270 32223 net.cpp:120] Setting up inception_5b/output
I0712 22:28:04.179277 32223 net.cpp:127] Top shape: 30 1024 7 7 (1505280)
I0712 22:28:04.179282 32223 layer_factory.hpp:74] Creating layer pool5/7x7_s1
I0712 22:28:04.179291 32223 net.cpp:90] Creating Layer pool5/7x7_s1
I0712 22:28:04.179296 32223 net.cpp:410] pool5/7x7_s1 <- inception_5b/output
I0712 22:28:04.179301 32223 net.cpp:368] pool5/7x7_s1 -> pool5/7x7_s1
I0712 22:28:04.179321 32223 net.cpp:120] Setting up pool5/7x7_s1
I0712 22:28:04.179368 32223 net.cpp:127] Top shape: 30 1024 1 1 (30720)
I0712 22:28:04.179373 32223 layer_factory.hpp:74] Creating layer pool5/drop_7x7_s1
I0712 22:28:04.179379 32223 net.cpp:90] Creating Layer pool5/drop_7x7_s1
I0712 22:28:04.179384 32223 net.cpp:410] pool5/drop_7x7_s1 <- pool5/7x7_s1
I0712 22:28:04.179390 32223 net.cpp:357] pool5/drop_7x7_s1 -> pool5/7x7_s1 (in-place)
I0712 22:28:04.179396 32223 net.cpp:120] Setting up pool5/drop_7x7_s1
I0712 22:28:04.179402 32223 net.cpp:127] Top shape: 30 1024 1 1 (30720)
I0712 22:28:04.179406 32223 layer_factory.hpp:74] Creating layer stanford_cars_loss3/classifier
I0712 22:28:04.179414 32223 net.cpp:90] Creating Layer stanford_cars_loss3/classifier
I0712 22:28:04.179419 32223 net.cpp:410] stanford_cars_loss3/classifier <- pool5/7x7_s1
I0712 22:28:04.179425 32223 net.cpp:368] stanford_cars_loss3/classifier -> stanford_cars_loss3/classifier
I0712 22:28:04.179431 32223 net.cpp:120] Setting up stanford_cars_loss3/classifier
I0712 22:28:04.180486 32223 net.cpp:127] Top shape: 30 196 (5880)
I0712 22:28:04.180495 32223 layer_factory.hpp:74] Creating layer loss3/loss3
I0712 22:28:04.180502 32223 net.cpp:90] Creating Layer loss3/loss3
I0712 22:28:04.180507 32223 net.cpp:410] loss3/loss3 <- stanford_cars_loss3/classifier
I0712 22:28:04.180512 32223 net.cpp:410] loss3/loss3 <- label_data_1_split_2
I0712 22:28:04.180519 32223 net.cpp:368] loss3/loss3 -> loss3/loss3
I0712 22:28:04.180526 32223 net.cpp:120] Setting up loss3/loss3
…
I0712 22:28:04.213515 32223 net.cpp:287] The NetState phase (1) differed from the phase (0) specified by a rule in layer data
I0712 22:28:04.214191 32223 net.cpp:42] Initializing net from parameters: 
name: "GoogleNet"
state {
  phase: TEST
}
layer {
  name: "data"
  type: "Data"
  top: "data"
  top: "label"
  include {
    phase: TEST
  }
  transform_param {
    mirror: false
    crop_size: 224
    mean_value: 104
    mean_value: 117
    mean_value: 123
  }
  data_param {
    source: "examples/stanford_cars/stanford_cars_val_lmdb"
    batch_size: 10
    backend: LMDB
  }
}
layer {
  name: "conv1/7x7_s2"
  type: "Convolution"
  bottom: "data"
  top: "conv1/7x7_s2"
  param {
    lr_mult: 1
    decay_mult: 1
  }
  param {
    lr_mult: 2
    decay_mult: 0
  }
  convolution_param {
    num_output: 64
    pad: 3
    kernel_size: 7
    stride: 2
    weight_filler {
      type: "xavier"
      std: 0.1
    }
    bias_filler {
      type: "constant"
      value: 0.2
    }
  }
}
layer {
  name: "conv1/relu_7x7"
  type: "ReLU"
  bottom: "conv1/7x7_s2"
  top: "conv1/7x7_s2"
}
layer {
  name: "pool1/3x3_s2"
  type: "Pooling"
  bottom: "conv1/7x7_s2"
  top: "pool1/3x3_s2"
  pooling_param {
    pool: MAX
    kernel_size: 3
    stride: 2
  }
}
layer {
  name: "pool1/norm1"
  type: "LRN"
  bottom: "pool1/3x3_s2"
  top: "pool1/norm1"
  lrn_param {
    local_size: 5
    alpha: 0.0001
    beta: 0.75
  }
}
layer {
  name: "conv2/3x3_reduce"
  type: "Convolution"
  bottom: "pool1/norm1"
  top: "conv2/3x3_reduce"
  param {
    lr_mult: 1
    decay_mult: 1
  }
  param {
    lr_mult: 2
    decay_mult: 0
  }
  convolution_param {
    num_output: 64
    kernel_size: 1
    weight_filler {
      type: "xavier"
      std: 0.1
    }
    bias_filler {
      type: "constant"
      value: 0.2
    }
  }
}
layer {
  name: "conv2/relu_3x3_reduce"
  type: "ReLU"
  bottom: "conv2/3x3_reduce"
  top: "conv2/3x3_reduce"
}
layer {
  name: "conv2/3x3"
  type: "Convolution"
  bottom: "conv2/3x3_reduce"
  top: "conv2/3x3"
  param {
    lr_mult: 1
    decay_mult: 1
  }
  param {
    lr_mult: 2
    decay_mult: 0
  }
  convolution_param {
    num_output: 192
    pad: 1
    kernel_size: 3
    weight_filler {
      type: "xavier"
      std: 0.03
    }
    bias_filler {
      type: "constant"
      value: 0.2
    }
  }
}
layer {
  name: "conv2/relu_3x3"
  type: "ReLU"
  bottom: "conv2/3x3"
  top: "conv2/3x3"
}
layer {
  name: "conv2/norm2"
  type: "LRN"
  bottom: "conv2/3x3"
  top: "conv2/norm2"
  lrn_param {
    local_size: 5
    alpha: 0.0001
    beta: 0.75
  }
}
layer {
  name: "pool2/3x3_s2"
  type: "Pooling"
  bottom: "conv2/norm2"
  top: "pool2/3x3_s2"
  pooling_param {
    pool: MAX
    kernel_size: 3
    stride: 2
  }
}
layer {
  name: "inception_3a/1x1"
  type: "Convolution"
  bottom: "pool2/3x3_s2"
  top: "inception_3a/1x1"
  param {
    lr_mult: 1
    decay_mult: 1
  }
  param {
    lr_mult: 2
    decay_mult: 0
  }
  convolution_param {
    num_output: 64
    kernel_size: 1
    weight_filler {
      type: "xavier"
      std: 0.03
    }
    bias_filler {
      type: "constant"
      value: 0.2
    }
  }
}
layer {
  name: "inception_3a/relu_1x1"
  type: "ReLU"
  bottom: "inception_3a/1x1"
  top: "inception_3a/1x1"
}
layer {
  name: "inception_3a/3x3_reduce"
  type: "Convolution"
  bottom: "pool2/3x3_s2"
  top: "inception_3a/3x3_reduce"
  param {
    lr_mult: 1
    decay_mult: 1
  }
  param {
    lr_mult: 2
    decay_mult: 0
  }
  convolution_param {
    num_output: 96
    kernel_size: 1
    weight_filler {
      type: "xavier"
      std: 0.09
    }
    bias_filler {
      type: "constant"
      value: 0.2
    }
  }
}
layer {
  name: "inception_3a/relu_3x3_reduce"
  type: "ReLU"
  bottom: "inception_3a/3x3_reduce"
  top: "inception_3a/3x3_reduce"
}
layer {
  name: "inception_3a/3x3"
  type: "Convolution"
  bottom: "inception_3a/3x3_reduce"
  top: "inception_3a/3x3"
  param {
    lr_mult: 1
    decay_mult: 1
  }
  param {
    lr_mult: 2
    decay_mult: 0
  }
  convolution_param {
    num_output: 128
    pad: 1
    kernel_size: 3
    weight_filler {
      type: "xavier"
      std: 0.03
    }
    bias_filler {
      type: "constant"
      value: 0.2
    }
  }
}
layer {
  name: "inception_3a/relu_3x3"
  type: "ReLU"
  bottom: "inception_3a/3x3"
  top: "inception_3a/3x3"
}
layer {
  name: "inception_3a/5x5_reduce"
  type: "Convolution"
  bottom: "pool2/3x3_s2"
  top: "inception_3a/5x5_reduce"
  param {
    lr_mult: 1
    decay_mult: 1
  }
  param {
    lr_mult: 2
    decay_mult: 0
  }
  convolution_param {
    num_output: 16
    kernel_size: 1
    weight_filler {
      type: "xavier"
      std: 0.2
    }
    bias_filler {
      type: "constant"
      value: 0.2
    }
  }
}
layer {
  name: "inception_3a/relu_5x5_reduce"
  type: "ReLU"
  bottom: "inception_3a/5x5_reduce"
  top: "inception_3a/5x5_reduce"
}
layer {
  name: "inception_3a/5x5"
  type: "Convolution"
  bottom: "inception_3a/5x5_reduce"
  top: "inception_3a/5x5"
  param {
    lr_mult: 1
    decay_mult: 1
  }
  param {
    lr_mult: 2
    decay_mult: 0
  }
  convolution_param {
    num_output: 32
    pad: 2
    kernel_size: 5
    weight_filler {
      type: "xavier"
      std: 0.03
    }
    bias_filler {
      type: "constant"
      value: 0.2
    }
  }
}
layer {
  name: "inception_3a/relu_5x5"
  type: "ReLU"
  bottom: "inception_3a/5x5"
  top: "inception_3a/5x5"
}
layer {
  name: "inception_3a/pool"
  type: "Pooling"
  bottom: "pool2/3x3_s2"
  top: "inception_3a/pool"
  pooling_param {
    pool: MAX
    kernel_size: 3
    stride: 1
    pad: 1
  }
}
layer {
  name: "inception_3a/pool_proj"
  type: "Convolution"
  bottom: "inception_3a/pool"
  top: "inception_3a/pool_proj"
  param {
    lr_mult: 1
    decay_mult: 1
  }
  param {
    lr_mult: 2
    decay_mult: 0
  }
  convolution_param {
    num_output: 32
    kernel_size: 1
    weight_filler {
      type: "xavier"
      std: 0.1
    }
    bias_filler {
      type: "constant"
      value: 0.2
    }
  }
}
layer {
  name: "inception_3a/relu_pool_proj"
  type: "ReLU"
  bottom: "inception_3a/pool_proj"
  top: "inception_3a/pool_proj"
}
layer {
  name: "inception_3a/output"
  type: "Concat"
  bottom: "inception_3a/1x1"
  bottom: "inception_3a/3x3"
  bottom: "inception_3a/5x5"
  bottom: "inception_3a/pool_proj"
  top: "inception_3a/output"
}
layer {
  name: "inception_3b/1x1"
  type: "Convolution"
  bottom: "inception_3a/output"
  top: "inception_3b/1x1"
  param {
    lr_mult: 1
    decay_mult: 1
  }
  param {
    lr_mult: 2
    decay_mult: 0
  }
  convolution_param {
    num_output: 128
    kernel_size: 1
    weight_filler {
      type: "xavier"
      std: 0.03
    }
    bias_filler {
      type: "constant"
      value: 0.2
    }
  }
}
layer {
  name: "inception_3b/relu_1x1"
  type: "ReLU"
  bottom: "inception_3b/1x1"
  top: "inception_3b/1x1"
}
layer {
  name: "inception_3b/3x3_reduce"
  type: "Convolution"
  bottom: "inception_3a/output"
  top: "inception_3b/3x3_reduce"
  param {
    lr_mult: 1
    decay_mult: 1
  }
  param {
    lr_mult: 2
    decay_mult: 0
  }
  convolution_param {
    num_output: 128
    kernel_size: 1
    weight_filler {
      type: "xavier"
      std: 0.09
    }
    bias_filler {
      type: "constant"
      value: 0.2
    }
  }
}
layer {
  name: "inception_3b/relu_3x3_reduce"
  type: "ReLU"
  bottom: "inception_3b/3x3_reduce"
  top: "inception_3b/3x3_reduce"
}
layer {
  name: "inception_3b/3x3"
  type: "Convolution"
  bottom: "inception_3b/3x3_reduce"
  top: "inception_3b/3x3"
  param {
    lr_mult: 1
    decay_mult: 1
  }
  param {
    lr_mult: 2
    decay_mult: 0
  }
  convolution_param {
    num_output: 192
    pad: 1
    kernel_size: 3
    weight_filler {
      type: "xavier"
      std: 0.03
    }
    bias_filler {
      type: "constant"
      value: 0.2
    }
  }
}
layer {
  name: "inception_3b/relu_3x3"
  type: "ReLU"
  bottom: "inception_3b/3x3"
  top: "inception_3b/3x3"
}
layer {
  name: "inception_3b/5x5_reduce"
  type: "Convolution"
  bottom: "inception_3a/output"
  top: "inception_3b/5x5_reduce"
  param {
    lr_mult: 1
    decay_mult: 1
  }
  param {
    lr_mult: 2
    decay_mult: 0
  }
  convolution_param {
    num_output: 32
    kernel_size: 1
    weight_filler {
      type: "xavier"
      std: 0.2
    }
    bias_filler {
      type: "constant"
      value: 0.2
    }
  }
}
layer {
  name: "inception_3b/relu_5x5_reduce"
  type: "ReLU"
  bottom: "inception_3b/5x5_reduce"
  top: "inception_3b/5x5_reduce"
}
layer {
  name: "inception_3b/5x5"
  type: "Convolution"
  bottom: "inception_3b/5x5_reduce"
  top: "inception_3b/5x5"
  param {
    lr_mult: 1
    decay_mult: 1
  }
  param {
    lr_mult: 2
    decay_mult: 0
  }
  convolution_param {
    num_output: 96
    pad: 2
    kernel_size: 5
    weight_filler {
      type: "xavier"
      std: 0.03
    }
    bias_filler {
      type: "constant"
      value: 0.2
    }
  }
}
layer {
  name: "inception_3b/relu_5x5"
  type: "ReLU"
  bottom: "inception_3b/5x5"
  top: "inception_3b/5x5"
}
layer {
  name: "inception_3b/pool"
  type: "Pooling"
  bottom: "inception_3a/output"
  top: "inception_3b/pool"
  pooling_param {
    pool: MAX
    kernel_size: 3
    stride: 1
    pad: 1
  }
}
layer {
  name: "inception_3b/pool_proj"
  type: "Convolution"
  bottom: "inception_3b/pool"
  top: "inception_3b/pool_proj"
  param {
    lr_mult: 1
    decay_mult: 1
  }
  param {
    lr_mult: 2
    decay_mult: 0
  }
  convolution_param {
    num_output: 64
    kernel_size: 1
    weight_filler {
      type: "xavier"
      std: 0.1
    }
    bias_filler {
      type: "constant"
      value: 0.2
    }
  }
}
layer {
  name: "inception_3b/relu_pool_proj"
  type: "ReLU"
  bottom: "inception_3b/pool_proj"
  top: "inception_3b/pool_proj"
}
layer {
  name: "inception_3b/output"
  type: "Concat"
  bottom: "inception_3b/1x1"
  bottom: "inception_3b/3x3"
  bottom: "inception_3b/5x5"
  bottom: "inception_3b/pool_proj"
  top: "inception_3b/output"
}
layer {
  name: "pool3/3x3_s2"
  type: "Pooling"
  bottom: "inception_3b/output"
  top: "pool3/3x3_s2"
  pooling_param {
    pool: MAX
    kernel_size: 3
    stride: 2
  }
}
layer {
  name: "inception_4a/1x1"
  type: "Convolution"
  bottom: "pool3/3x3_s2"
  top: "inception_4a/1x1"
  param {
    lr_mult: 1
    decay_mult: 1
  }
  param {
    lr_mult: 2
    decay_mult: 0
  }
  convolution_param {
    num_output: 192
    kernel_size: 1
    weight_filler {
      type: "xavier"
      std: 0.03
    }
    bias_filler {
      type: "constant"
      value: 0.2
    }
  }
}
layer {
  name: "inception_4a/relu_1x1"
  type: "ReLU"
  bottom: "inception_4a/1x1"
  top: "inception_4a/1x1"
}
layer {
  name: "inception_4a/3x3_reduce"
  type: "Convolution"
  bottom: "pool3/3x3_s2"
  top: "inception_4a/3x3_reduce"
  param {
    lr_mult: 1
    decay_mult: 1
  }
  param {
    lr_mult: 2
    decay_mult: 0
  }
  convolution_param {
    num_output: 96
    kernel_size: 1
    weight_filler {
      type: "xavier"
      std: 0.09
    }
    bias_filler {
      type: "constant"
      value: 0.2
    }
  }
}
layer {
  name: "inception_4a/relu_3x3_reduce"
  type: "ReLU"
  bottom: "inception_4a/3x3_reduce"
  top: "inception_4a/3x3_reduce"
}
layer {
  name: "inception_4a/3x3"
  type: "Convolution"
  bottom: "inception_4a/3x3_reduce"
  top: "inception_4a/3x3"
  param {
    lr_mult: 1
    decay_mult: 1
  }
  param {
    lr_mult: 2
    decay_mult: 0
  }
  convolution_param {
    num_output: 208
    pad: 1
    kernel_size: 3
    weight_filler {
      type: "xavier"
      std: 0.03
    }
    bias_filler {
      type: "constant"
      value: 0.2
    }
  }
}
layer {
  name: "inception_4a/relu_3x3"
  type: "ReLU"
  bottom: "inception_4a/3x3"
  top: "inception_4a/3x3"
}
layer {
  name: "inception_4a/5x5_reduce"
  type: "Convolution"
  bottom: "pool3/3x3_s2"
  top: "inception_4a/5x5_reduce"
  param {
    lr_mult: 1
    decay_mult: 1
  }
  param {
    lr_mult: 2
    decay_mult: 0
  }
  convolution_param {
    num_output: 16
    kernel_size: 1
    weight_filler {
      type: "xavier"
      std: 0.2
    }
    bias_filler {
      type: "constant"
      value: 0.2
    }
  }
}
layer {
  name: "inception_4a/relu_5x5_reduce"
  type: "ReLU"
  bottom: "inception_4a/5x5_reduce"
  top: "inception_4a/5x5_reduce"
}
layer {
  name: "inception_4a/5x5"
  type: "Convolution"
  bottom: "inception_4a/5x5_reduce"
  top: "inception_4a/5x5"
  param {
    lr_mult: 1
    decay_mult: 1
  }
  param {
    lr_mult: 2
    decay_mult: 0
  }
  convolution_param {
    num_output: 48
    pad: 2
    kernel_size: 5
    weight_filler {
      type: "xavier"
      std: 0.03
    }
    bias_filler {
      type: "constant"
      value: 0.2
    }
  }
}
layer {
  name: "inception_4a/relu_5x5"
  type: "ReLU"
  bottom: "inception_4a/5x5"
  top: "inception_4a/5x5"
}
layer {
  name: "inception_4a/pool"
  type: "Pooling"
  bottom: "pool3/3x3_s2"
  top: "inception_4a/pool"
  pooling_param {
    pool: MAX
    kernel_size: 3
    stride: 1
    pad: 1
  }
}
layer {
  name: "inception_4a/pool_proj"
  type: "Convolution"
  bottom: "inception_4a/pool"
  top: "inception_4a/pool_proj"
  param {
    lr_mult: 1
    decay_mult: 1
  }
  param {
    lr_mult: 2
    decay_mult: 0
  }
  convolution_param {
    num_output: 64
    kernel_size: 1
    weight_filler {
      type: "xavier"
      std: 0.1
    }
    bias_filler {
      type: "constant"
      value: 0.2
    }
  }
}
layer {
  name: "inception_4a/relu_pool_proj"
  type: "ReLU"
  bottom: "inception_4a/pool_proj"
  top: "inception_4a/pool_proj"
}
layer {
  name: "inception_4a/output"
  type: "Concat"
  bottom: "inception_4a/1x1"
  bottom: "inception_4a/3x3"
  bottom: "inception_4a/5x5"
  bottom: "inception_4a/pool_proj"
  top: "inception_4a/output"
}
layer {
  name: "loss1/ave_pool"
  type: "Pooling"
  bottom: "inception_4a/output"
  top: "loss1/ave_pool"
  pooling_param {
    pool: AVE
    kernel_size: 5
    stride: 3
  }
}
layer {
  name: "loss1/conv"
  type: "Convolution"
  bottom: "loss1/ave_pool"
  top: "loss1/conv"
  param {
    lr_mult: 1
    decay_mult: 1
  }
  param {
    lr_mult: 2
    decay_mult: 0
  }
  convolution_param {
    num_output: 128
    kernel_size: 1
    weight_filler {
      type: "xavier"
      std: 0.08
    }
    bias_filler {
      type: "constant"
      value: 0.2
    }
  }
}
layer {
  name: "loss1/relu_conv"
  type: "ReLU"
  bottom: "loss1/conv"
  top: "loss1/conv"
}
layer {
  name: "loss1/fc"
  type: "InnerProduct"
  bottom: "loss1/conv"
  top: "loss1/fc"
  param {
    lr_mult: 1
    decay_mult: 1
  }
  param {
    lr_mult: 2
    decay_mult: 0
  }
  inner_product_param {
    num_output: 1024
    weight_filler {
      type: "xavier"
      std: 0.02
    }
    bias_filler {
      type: "constant"
      value: 0.2
    }
  }
}
layer {
  name: "loss1/relu_fc"
  type: "ReLU"
  bottom: "loss1/fc"
  top: "loss1/fc"
}
layer {
  name: "loss1/drop_fc"
  type: "Dropout"
  bottom: "loss1/fc"
  top: "loss1/fc"
  dropout_param {
    dropout_ratio: 0.2
  }
}
layer {
  name: "stanford_cars_loss1/classifier"
  type: "InnerProduct"
  bottom: "loss1/fc"
  top: "stanford_cars_loss1/classifier"
  param {
    lr_mult: 1
    decay_mult: 1
  }
  param {
    lr_mult: 2
    decay_mult: 0
  }
  inner_product_param {
    num_output: 196
    weight_filler {
      type: "xavier"
      std: 0.0009765625
    }
    bias_filler {
      type: "constant"
      value: 0
    }
  }
}
layer {
  name: "loss1/loss"
  type: "SoftmaxWithLoss"
  bottom: "stanford_cars_loss1/classifier"
  bottom: "label"
  top: "loss1/loss1"
  loss_weight: 0.3
}
layer {
  name: "loss1/top-1"
  type: "Accuracy"
  bottom: "stanford_cars_loss1/classifier"
  bottom: "label"
  top: "loss1/top-1"
  include {
    phase: TEST
  }
}
layer {
  name: "loss1/top-5"
  type: "Accuracy"
  bottom: "stanford_cars_loss1/classifier"
  bottom: "label"
  top: "loss1/top-5"
  include {
    phase: TEST
  }
  accuracy_param {
    top_k: 5
  }
}
layer {
  name: "inception_4b/1x1"
  type: "Convolution"
  bottom: "inception_4a/output"
  top: "inception_4b/1x1"
  param {
    lr_mult: 1
    decay_mult: 1
  }
  param {
    lr_mult: 2
    decay_mult: 0
  }
  convolution_param {
    num_output: 160
    kernel_size: 1
    weight_filler {
      type: "xavier"
      std: 0.03
    }
    bias_filler {
      type: "constant"
      value: 0.2
    }
  }
}
layer {
  name: "inception_4b/relu_1x1"
  type: "ReLU"
  bottom: "inception_4b/1x1"
  top: "inception_4b/1x1"
}
layer {
  name: "inception_4b/3x3_reduce"
  type: "Convolution"
  bottom: "inception_4a/output"
  top: "inception_4b/3x3_reduce"
  param {
    lr_mult: 1
    decay_mult: 1
  }
  param {
    lr_mult: 2
    decay_mult: 0
  }
  convolution_param {
    num_output: 112
    kernel_size: 1
    weight_filler {
      type: "xavier"
      std: 0.09
    }
    bias_filler {
      type: "constant"
      value: 0.2
    }
  }
}
layer {
  name: "inception_4b/relu_3x3_reduce"
  type: "ReLU"
  bottom: "inception_4b/3x3_reduce"
  top: "inception_4b/3x3_reduce"
}
layer {
  name: "inception_4b/3x3"
  type: "Convolution"
  bottom: "inception_4b/3x3_reduce"
  top: "inception_4b/3x3"
  param {
    lr_mult: 1
    decay_mult: 1
  }
  param {
    lr_mult: 2
    decay_mult: 0
  }
  convolution_param {
    num_output: 224
    pad: 1
    kernel_size: 3
    weight_filler {
      type: "xavier"
      std: 0.03
    }
    bias_filler {
      type: "constant"
      value: 0.2
    }
  }
}
layer {
  name: "inception_4b/relu_3x3"
  type: "ReLU"
  bottom: "inception_4b/3x3"
  top: "inception_4b/3x3"
}
layer {
  name: "inception_4b/5x5_reduce"
  type: "Convolution"
  bottom: "inception_4a/output"
  top: "inception_4b/5x5_reduce"
  param {
    lr_mult: 1
    decay_mult: 1
  }
  param {
    lr_mult: 2
    decay_mult: 0
  }
  convolution_param {
    num_output: 24
    kernel_size: 1
    weight_filler {
      type: "xavier"
      std: 0.2
    }
    bias_filler {
      type: "constant"
      value: 0.2
    }
  }
}
layer {
  name: "inception_4b/relu_5x5_reduce"
  type: "ReLU"
  bottom: "inception_4b/5x5_reduce"
  top: "inception_4b/5x5_reduce"
}
layer {
  name: "inception_4b/5x5"
  type: "Convolution"
  bottom: "inception_4b/5x5_reduce"
  top: "inception_4b/5x5"
  param {
    lr_mult: 1
    decay_mult: 1
  }
  param {
    lr_mult: 2
    decay_mult: 0
  }
  convolution_param {
    num_output: 64
    pad: 2
    kernel_size: 5
    weight_filler {
      type: "xavier"
      std: 0.03
    }
    bias_filler {
      type: "constant"
      value: 0.2
    }
  }
}
layer {
  name: "inception_4b/relu_5x5"
  type: "ReLU"
  bottom: "inception_4b/5x5"
  top: "inception_4b/5x5"
}
layer {
  name: "inception_4b/pool"
  type: "Pooling"
  bottom: "inception_4a/output"
  top: "inception_4b/pool"
  pooling_param {
    pool: MAX
    kernel_size: 3
    stride: 1
    pad: 1
  }
}
layer {
  name: "inception_4b/pool_proj"
  type: "Convolution"
  bottom: "inception_4b/pool"
  top: "inception_4b/pool_proj"
  param {
    lr_mult: 1
    decay_mult: 1
  }
  param {
    lr_mult: 2
    decay_mult: 0
  }
  convolution_param {
    num_output: 64
    kernel_size: 1
    weight_filler {
      type: "xavier"
      std: 0.1
    }
    bias_filler {
      type: "constant"
      value: 0.2
    }
  }
}
layer {
  name: "inception_4b/relu_pool_proj"
  type: "ReLU"
  bottom: "inception_4b/pool_proj"
  top: "inception_4b/pool_proj"
}
layer {
  name: "inception_4b/output"
  type: "Concat"
  bottom: "inception_4b/1x1"
  bottom: "inception_4b/3x3"
  bottom: "inception_4b/5x5"
  bottom: "inception_4b/pool_proj"
  top: "inception_4b/output"
}
layer {
  name: "inception_4c/1x1"
  type: "Convolution"
  bottom: "inception_4b/output"
  top: "inception_4c/1x1"
  param {
    lr_mult: 1
    decay_mult: 1
  }
  param {
    lr_mult: 2
    decay_mult: 0
  }
  convolution_param {
    num_output: 128
    kernel_size: 1
    weight_filler {
      type: "xavier"
      std: 0.03
    }
    bias_filler {
      type: "constant"
      value: 0.2
    }
  }
}
layer {
  name: "inception_4c/relu_1x1"
  type: "ReLU"
  bottom: "inception_4c/1x1"
  top: "inception_4c/1x1"
}
layer {
  name: "inception_4c/3x3_reduce"
  type: "Convolution"
  bottom: "inception_4b/output"
  top: "inception_4c/3x3_reduce"
  param {
    lr_mult: 1
    decay_mult: 1
  }
  param {
    lr_mult: 2
    decay_mult: 0
  }
  convolution_param {
    num_output: 128
    kernel_size: 1
    weight_filler {
      type: "xavier"
      std: 0.09
    }
    bias_filler {
      type: "constant"
      value: 0.2
    }
  }
}
layer {
  name: "inception_4c/relu_3x3_reduce"
  type: "ReLU"
  bottom: "inception_4c/3x3_reduce"
  top: "inception_4c/3x3_reduce"
}
layer {
  name: "inception_4c/3x3"
  type: "Convolution"
  bottom: "inception_4c/3x3_reduce"
  top: "inception_4c/3x3"
  param {
    lr_mult: 1
    decay_mult: 1
  }
  param {
    lr_mult: 2
    decay_mult: 0
  }
  convolution_param {
    num_output: 256
    pad: 1
    kernel_size: 3
    weight_filler {
      type: "xavier"
      std: 0.03
    }
    bias_filler {
      type: "constant"
      value: 0.2
    }
  }
}
layer {
  name: "inception_4c/relu_3x3"
  type: "ReLU"
  bottom: "inception_4c/3x3"
  top: "inception_4c/3x3"
}
layer {
  name: "inception_4c/5x5_reduce"
  type: "Convolution"
  bottom: "inception_4b/output"
  top: "inception_4c/5x5_reduce"
  param {
    lr_mult: 1
    decay_mult: 1
  }
  param {
    lr_mult: 2
    decay_mult: 0
  }
  convolution_param {
    num_output: 24
    kernel_size: 1
    weight_filler {
      type: "xavier"
      std: 0.2
    }
    bias_filler {
      type: "constant"
      value: 0.2
    }
  }
}
layer {
  name: "inception_4c/relu_5x5_reduce"
  type: "ReLU"
  bottom: "inception_4c/5x5_reduce"
  top: "inception_4c/5x5_reduce"
}
layer {
  name: "inception_4c/5x5"
  type: "Convolution"
  bottom: "inception_4c/5x5_reduce"
  top: "inception_4c/5x5"
  param {
    lr_mult: 1
    decay_mult: 1
  }
  param {
    lr_mult: 2
    decay_mult: 0
  }
  convolution_param {
    num_output: 64
    pad: 2
    kernel_size: 5
    weight_filler {
      type: "xavier"
      std: 0.03
    }
    bias_filler {
      type: "constant"
      value: 0.2
    }
  }
}
layer {
  name: "inception_4c/relu_5x5"
  type: "ReLU"
  bottom: "inception_4c/5x5"
  top: "inception_4c/5x5"
}
layer {
  name: "inception_4c/pool"
  type: "Pooling"
  bottom: "inception_4b/output"
  top: "inception_4c/pool"
  pooling_param {
    pool: MAX
    kernel_size: 3
    stride: 1
    pad: 1
  }
}
layer {
  name: "inception_4c/pool_proj"
  type: "Convolution"
  bottom: "inception_4c/pool"
  top: "inception_4c/pool_proj"
  param {
    lr_mult: 1
    decay_mult: 1
  }
  param {
    lr_mult: 2
    decay_mult: 0
  }
  convolution_param {
    num_output: 64
    kernel_size: 1
    weight_filler {
      type: "xavier"
      std: 0.1
    }
    bias_filler {
      type: "constant"
      value: 0.2
    }
  }
}
layer {
  name: "inception_4c/relu_pool_proj"
  type: "ReLU"
  bottom: "inception_4c/pool_proj"
  top: "inception_4c/pool_proj"
}
layer {
  name: "inception_4c/output"
  type: "Concat"
  bottom: "inception_4c/1x1"
  bottom: "inception_4c/3x3"
  bottom: "inception_4c/5x5"
  bottom: "inception_4c/pool_proj"
  top: "inception_4c/output"
}
layer {
  name: "inception_4d/1x1"
  type: "Convolution"
  bottom: "inception_4c/output"
  top: "inception_4d/1x1"
  param {
    lr_mult: 1
    decay_mult: 1
  }
  param {
    lr_mult: 2
    decay_mult: 0
  }
  convolution_param {
    num_output: 112
    kernel_size: 1
    weight_filler {
      type: "xavier"
      std: 0.03
    }
    bias_filler {
      type: "constant"
      value: 0.2
    }
  }
}
layer {
  name: "inception_4d/relu_1x1"
  type: "ReLU"
  bottom: "inception_4d/1x1"
  top: "inception_4d/1x1"
}
layer {
  name: "inception_4d/3x3_reduce"
  type: "Convolution"
  bottom: "inception_4c/output"
  top: "inception_4d/3x3_reduce"
  param {
    lr_mult: 1
    decay_mult: 1
  }
  param {
    lr_mult: 2
    decay_mult: 0
  }
  convolution_param {
    num_output: 144
    kernel_size: 1
    weight_filler {
      type: "xavier"
      std: 0.09
    }
    bias_filler {
      type: "constant"
      value: 0.2
    }
  }
}
layer {
  name: "inception_4d/relu_3x3_reduce"
  type: "ReLU"
  bottom: "inception_4d/3x3_reduce"
  top: "inception_4d/3x3_reduce"
}
layer {
  name: "inception_4d/3x3"
  type: "Convolution"
  bottom: "inception_4d/3x3_reduce"
  top: "inception_4d/3x3"
  param {
    lr_mult: 1
    decay_mult: 1
  }
  param {
    lr_mult: 2
    decay_mult: 0
  }
  convolution_param {
    num_output: 288
    pad: 1
    kernel_size: 3
    weight_filler {
      type: "xavier"
      std: 0.03
    }
    bias_filler {
      type: "constant"
      value: 0.2
    }
  }
}
layer {
  name: "inception_4d/relu_3x3"
  type: "ReLU"
  bottom: "inception_4d/3x3"
  top: "inception_4d/3x3"
}
layer {
  name: "inception_4d/5x5_reduce"
  type: "Convolution"
  bottom: "inception_4c/output"
  top: "inception_4d/5x5_reduce"
  param {
    lr_mult: 1
    decay_mult: 1
  }
  param {
    lr_mult: 2
    decay_mult: 0
  }
  convolution_param {
    num_output: 32
    kernel_size: 1
    weight_filler {
      type: "xavier"
      std: 0.2
    }
    bias_filler {
      type: "constant"
      value: 0.2
    }
  }
}
layer {
  name: "inception_4d/relu_5x5_reduce"
  type: "ReLU"
  bottom: "inception_4d/5x5_reduce"
  top: "inception_4d/5x5_reduce"
}
layer {
  name: "inception_4d/5x5"
  type: "Convolution"
  bottom: "inception_4d/5x5_reduce"
  top: "inception_4d/5x5"
  param {
    lr_mult: 1
    decay_mult: 1
  }
  param {
    lr_mult: 2
    decay_mult: 0
  }
  convolution_param {
    num_output: 64
    pad: 2
    kernel_size: 5
    weight_filler {
      type: "xavier"
      std: 0.03
    }
    bias_filler {
      type: "constant"
      value: 0.2
    }
  }
}
layer {
  name: "inception_4d/relu_5x5"
  type: "ReLU"
  bottom: "inception_4d/5x5"
  top: "inception_4d/5x5"
}
layer {
  name: "inception_4d/pool"
  type: "Pooling"
  bottom: "inception_4c/output"
  top: "inception_4d/pool"
  pooling_param {
    pool: MAX
    kernel_size: 3
    stride: 1
    pad: 1
  }
}
layer {
  name: "inception_4d/pool_proj"
  type: "Convolution"
  bottom: "inception_4d/pool"
  top: "inception_4d/pool_proj"
  param {
    lr_mult: 1
    decay_mult: 1
  }
  param {
    lr_mult: 2
    decay_mult: 0
  }
  convolution_param {
    num_output: 64
    kernel_size: 1
…
I0712 22:28:04.425508 32223 net.cpp:127] Top shape: 10 128 14 14 (250880)
I0712 22:28:04.425521 32223 layer_factory.hpp:74] Creating layer inception_4c/relu_1x1
I0712 22:28:04.425539 32223 net.cpp:90] Creating Layer inception_4c/relu_1x1
I0712 22:28:04.425544 32223 net.cpp:410] inception_4c/relu_1x1 <- inception_4c/1x1
I0712 22:28:04.425550 32223 net.cpp:357] inception_4c/relu_1x1 -> inception_4c/1x1 (in-place)
I0712 22:28:04.425565 32223 net.cpp:120] Setting up inception_4c/relu_1x1
I0712 22:28:04.425622 32223 net.cpp:127] Top shape: 10 128 14 14 (250880)
I0712 22:28:04.425632 32223 layer_factory.hpp:74] Creating layer inception_4c/3x3_reduce
I0712 22:28:04.425654 32223 net.cpp:90] Creating Layer inception_4c/3x3_reduce
I0712 22:28:04.425662 32223 net.cpp:410] inception_4c/3x3_reduce <- inception_4b/output_inception_4b/output_0_split_1
I0712 22:28:04.425675 32223 net.cpp:368] inception_4c/3x3_reduce -> inception_4c/3x3_reduce
I0712 22:28:04.425683 32223 net.cpp:120] Setting up inception_4c/3x3_reduce
I0712 22:28:04.426352 32223 net.cpp:127] Top shape: 10 128 14 14 (250880)
I0712 22:28:04.426365 32223 layer_factory.hpp:74] Creating layer inception_4c/relu_3x3_reduce
I0712 22:28:04.426373 32223 net.cpp:90] Creating Layer inception_4c/relu_3x3_reduce
I0712 22:28:04.426378 32223 net.cpp:410] inception_4c/relu_3x3_reduce <- inception_4c/3x3_reduce
I0712 22:28:04.426384 32223 net.cpp:357] inception_4c/relu_3x3_reduce -> inception_4c/3x3_reduce (in-place)
I0712 22:28:04.426390 32223 net.cpp:120] Setting up inception_4c/relu_3x3_reduce
I0712 22:28:04.426506 32223 net.cpp:127] Top shape: 10 128 14 14 (250880)
I0712 22:28:04.426517 32223 layer_factory.hpp:74] Creating layer inception_4c/3x3
I0712 22:28:04.426524 32223 net.cpp:90] Creating Layer inception_4c/3x3
I0712 22:28:04.426529 32223 net.cpp:410] inception_4c/3x3 <- inception_4c/3x3_reduce
I0712 22:28:04.426535 32223 net.cpp:368] inception_4c/3x3 -> inception_4c/3x3
I0712 22:28:04.426542 32223 net.cpp:120] Setting up inception_4c/3x3
I0712 22:28:04.432770 32223 net.cpp:127] Top shape: 10 256 14 14 (501760)
I0712 22:28:04.432865 32223 layer_factory.hpp:74] Creating layer inception_4c/relu_3x3
I0712 22:28:04.432906 32223 net.cpp:90] Creating Layer inception_4c/relu_3x3
I0712 22:28:04.432935 32223 net.cpp:410] inception_4c/relu_3x3 <- inception_4c/3x3
I0712 22:28:04.432966 32223 net.cpp:357] inception_4c/relu_3x3 -> inception_4c/3x3 (in-place)
I0712 22:28:04.433001 32223 net.cpp:120] Setting up inception_4c/relu_3x3
I0712 22:28:04.433233 32223 net.cpp:127] Top shape: 10 256 14 14 (501760)
I0712 22:28:04.433264 32223 layer_factory.hpp:74] Creating layer inception_4c/5x5_reduce
I0712 22:28:04.433301 32223 net.cpp:90] Creating Layer inception_4c/5x5_reduce
I0712 22:28:04.433328 32223 net.cpp:410] inception_4c/5x5_reduce <- inception_4b/output_inception_4b/output_0_split_2
I0712 22:28:04.433364 32223 net.cpp:368] inception_4c/5x5_reduce -> inception_4c/5x5_reduce
I0712 22:28:04.433401 32223 net.cpp:120] Setting up inception_4c/5x5_reduce
I0712 22:28:04.434761 32223 net.cpp:127] Top shape: 10 24 14 14 (47040)
I0712 22:28:04.434823 32223 layer_factory.hpp:74] Creating layer inception_4c/relu_5x5_reduce
I0712 22:28:04.434860 32223 net.cpp:90] Creating Layer inception_4c/relu_5x5_reduce
I0712 22:28:04.434887 32223 net.cpp:410] inception_4c/relu_5x5_reduce <- inception_4c/5x5_reduce
I0712 22:28:04.434917 32223 net.cpp:357] inception_4c/relu_5x5_reduce -> inception_4c/5x5_reduce (in-place)
I0712 22:28:04.434950 32223 net.cpp:120] Setting up inception_4c/relu_5x5_reduce
I0712 22:28:04.435171 32223 net.cpp:127] Top shape: 10 24 14 14 (47040)
I0712 22:28:04.435202 32223 layer_factory.hpp:74] Creating layer inception_4c/5x5
I0712 22:28:04.435237 32223 net.cpp:90] Creating Layer inception_4c/5x5
I0712 22:28:04.435263 32223 net.cpp:410] inception_4c/5x5 <- inception_4c/5x5_reduce
I0712 22:28:04.435298 32223 net.cpp:368] inception_4c/5x5 -> inception_4c/5x5
I0712 22:28:04.435359 32223 net.cpp:120] Setting up inception_4c/5x5
I0712 22:28:04.435767 32223 net.cpp:127] Top shape: 10 64 14 14 (125440)
I0712 22:28:04.435778 32223 layer_factory.hpp:74] Creating layer inception_4c/relu_5x5
I0712 22:28:04.435788 32223 net.cpp:90] Creating Layer inception_4c/relu_5x5
I0712 22:28:04.435793 32223 net.cpp:410] inception_4c/relu_5x5 <- inception_4c/5x5
I0712 22:28:04.435799 32223 net.cpp:357] inception_4c/relu_5x5 -> inception_4c/5x5 (in-place)
I0712 22:28:04.435804 32223 net.cpp:120] Setting up inception_4c/relu_5x5
I0712 22:28:04.435847 32223 net.cpp:127] Top shape: 10 64 14 14 (125440)
I0712 22:28:04.435863 32223 layer_factory.hpp:74] Creating layer inception_4c/pool
I0712 22:28:04.435868 32223 layer_factory.cpp:55] CUDNN does not support padding or multiple tops. Using Caffe's own pooling layer.
I0712 22:28:04.435874 32223 net.cpp:90] Creating Layer inception_4c/pool
I0712 22:28:04.435879 32223 net.cpp:410] inception_4c/pool <- inception_4b/output_inception_4b/output_0_split_3
I0712 22:28:04.435885 32223 net.cpp:368] inception_4c/pool -> inception_4c/pool
I0712 22:28:04.435892 32223 net.cpp:120] Setting up inception_4c/pool
I0712 22:28:04.435899 32223 net.cpp:127] Top shape: 10 512 14 14 (1003520)
I0712 22:28:04.435904 32223 layer_factory.hpp:74] Creating layer inception_4c/pool_proj
I0712 22:28:04.435910 32223 net.cpp:90] Creating Layer inception_4c/pool_proj
I0712 22:28:04.435914 32223 net.cpp:410] inception_4c/pool_proj <- inception_4c/pool
I0712 22:28:04.435921 32223 net.cpp:368] inception_4c/pool_proj -> inception_4c/pool_proj
I0712 22:28:04.435927 32223 net.cpp:120] Setting up inception_4c/pool_proj
I0712 22:28:04.436300 32223 net.cpp:127] Top shape: 10 64 14 14 (125440)
I0712 22:28:04.436311 32223 layer_factory.hpp:74] Creating layer inception_4c/relu_pool_proj
I0712 22:28:04.436317 32223 net.cpp:90] Creating Layer inception_4c/relu_pool_proj
I0712 22:28:04.436322 32223 net.cpp:410] inception_4c/relu_pool_proj <- inception_4c/pool_proj
I0712 22:28:04.436328 32223 net.cpp:357] inception_4c/relu_pool_proj -> inception_4c/pool_proj (in-place)
I0712 22:28:04.436334 32223 net.cpp:120] Setting up inception_4c/relu_pool_proj
I0712 22:28:04.436447 32223 net.cpp:127] Top shape: 10 64 14 14 (125440)
I0712 22:28:04.436456 32223 layer_factory.hpp:74] Creating layer inception_4c/output
I0712 22:28:04.436465 32223 net.cpp:90] Creating Layer inception_4c/output
I0712 22:28:04.436470 32223 net.cpp:410] inception_4c/output <- inception_4c/1x1
I0712 22:28:04.436475 32223 net.cpp:410] inception_4c/output <- inception_4c/3x3
I0712 22:28:04.436480 32223 net.cpp:410] inception_4c/output <- inception_4c/5x5
I0712 22:28:04.436485 32223 net.cpp:410] inception_4c/output <- inception_4c/pool_proj
I0712 22:28:04.436489 32223 net.cpp:368] inception_4c/output -> inception_4c/output
I0712 22:28:04.436496 32223 net.cpp:120] Setting up inception_4c/output
I0712 22:28:04.436502 32223 net.cpp:127] Top shape: 10 512 14 14 (1003520)
I0712 22:28:04.436506 32223 layer_factory.hpp:74] Creating layer inception_4c/output_inception_4c/output_0_split
I0712 22:28:04.436512 32223 net.cpp:90] Creating Layer inception_4c/output_inception_4c/output_0_split
I0712 22:28:04.436517 32223 net.cpp:410] inception_4c/output_inception_4c/output_0_split <- inception_4c/output
I0712 22:28:04.436523 32223 net.cpp:368] inception_4c/output_inception_4c/output_0_split -> inception_4c/output_inception_4c/output_0_split_0
I0712 22:28:04.436530 32223 net.cpp:368] inception_4c/output_inception_4c/output_0_split -> inception_4c/output_inception_4c/output_0_split_1
I0712 22:28:04.436537 32223 net.cpp:368] inception_4c/output_inception_4c/output_0_split -> inception_4c/output_inception_4c/output_0_split_2
I0712 22:28:04.436542 32223 net.cpp:368] inception_4c/output_inception_4c/output_0_split -> inception_4c/output_inception_4c/output_0_split_3
I0712 22:28:04.436548 32223 net.cpp:120] Setting up inception_4c/output_inception_4c/output_0_split
I0712 22:28:04.436554 32223 net.cpp:127] Top shape: 10 512 14 14 (1003520)
I0712 22:28:04.436559 32223 net.cpp:127] Top shape: 10 512 14 14 (1003520)
I0712 22:28:04.436563 32223 net.cpp:127] Top shape: 10 512 14 14 (1003520)
I0712 22:28:04.436568 32223 net.cpp:127] Top shape: 10 512 14 14 (1003520)
I0712 22:28:04.455351 32223 layer_factory.hpp:74] Creating layer inception_4d/1x1
I0712 22:28:04.455448 32223 net.cpp:90] Creating Layer inception_4d/1x1
I0712 22:28:04.455483 32223 net.cpp:410] inception_4d/1x1 <- inception_4c/output_inception_4c/output_0_split_0
I0712 22:28:04.455528 32223 net.cpp:368] inception_4d/1x1 -> inception_4d/1x1
I0712 22:28:04.455572 32223 net.cpp:120] Setting up inception_4d/1x1
I0712 22:28:04.458444 32223 net.cpp:127] Top shape: 10 112 14 14 (219520)
I0712 22:28:04.458554 32223 layer_factory.hpp:74] Creating layer inception_4d/relu_1x1
I0712 22:28:04.458600 32223 net.cpp:90] Creating Layer inception_4d/relu_1x1
I0712 22:28:04.458629 32223 net.cpp:410] inception_4d/relu_1x1 <- inception_4d/1x1
I0712 22:28:04.458660 32223 net.cpp:357] inception_4d/relu_1x1 -> inception_4d/1x1 (in-place)
I0712 22:28:04.458694 32223 net.cpp:120] Setting up inception_4d/relu_1x1
I0712 22:28:04.458930 32223 net.cpp:127] Top shape: 10 112 14 14 (219520)
I0712 22:28:04.458963 32223 layer_factory.hpp:74] Creating layer inception_4d/3x3_reduce
I0712 22:28:04.459000 32223 net.cpp:90] Creating Layer inception_4d/3x3_reduce
I0712 22:28:04.459027 32223 net.cpp:410] inception_4d/3x3_reduce <- inception_4c/output_inception_4c/output_0_split_1
I0712 22:28:04.459064 32223 net.cpp:368] inception_4d/3x3_reduce -> inception_4d/3x3_reduce
I0712 22:28:04.459101 32223 net.cpp:120] Setting up inception_4d/3x3_reduce
I0712 22:28:04.460036 32223 net.cpp:127] Top shape: 10 144 14 14 (282240)
I0712 22:28:04.460050 32223 layer_factory.hpp:74] Creating layer inception_4d/relu_3x3_reduce
I0712 22:28:04.460058 32223 net.cpp:90] Creating Layer inception_4d/relu_3x3_reduce
I0712 22:28:04.460063 32223 net.cpp:410] inception_4d/relu_3x3_reduce <- inception_4d/3x3_reduce
I0712 22:28:04.460069 32223 net.cpp:357] inception_4d/relu_3x3_reduce -> inception_4d/3x3_reduce (in-place)
I0712 22:28:04.460075 32223 net.cpp:120] Setting up inception_4d/relu_3x3_reduce
I0712 22:28:04.460124 32223 net.cpp:127] Top shape: 10 144 14 14 (282240)
I0712 22:28:04.460130 32223 layer_factory.hpp:74] Creating layer inception_4d/3x3
I0712 22:28:04.460137 32223 net.cpp:90] Creating Layer inception_4d/3x3
I0712 22:28:04.460142 32223 net.cpp:410] inception_4d/3x3 <- inception_4d/3x3_reduce
I0712 22:28:04.460149 32223 net.cpp:368] inception_4d/3x3 -> inception_4d/3x3
I0712 22:28:04.460155 32223 net.cpp:120] Setting up inception_4d/3x3
I0712 22:28:04.462532 32223 net.cpp:127] Top shape: 10 288 14 14 (564480)
I0712 22:28:04.462550 32223 layer_factory.hpp:74] Creating layer inception_4d/relu_3x3
I0712 22:28:04.462558 32223 net.cpp:90] Creating Layer inception_4d/relu_3x3
I0712 22:28:04.462564 32223 net.cpp:410] inception_4d/relu_3x3 <- inception_4d/3x3
I0712 22:28:04.462569 32223 net.cpp:357] inception_4d/relu_3x3 -> inception_4d/3x3 (in-place)
I0712 22:28:04.462576 32223 net.cpp:120] Setting up inception_4d/relu_3x3
I0712 22:28:04.462694 32223 net.cpp:127] Top shape: 10 288 14 14 (564480)
I0712 22:28:04.462704 32223 layer_factory.hpp:74] Creating layer inception_4d/5x5_reduce
I0712 22:28:04.462715 32223 net.cpp:90] Creating Layer inception_4d/5x5_reduce
I0712 22:28:04.462720 32223 net.cpp:410] inception_4d/5x5_reduce <- inception_4c/output_inception_4c/output_0_split_2
I0712 22:28:04.462728 32223 net.cpp:368] inception_4d/5x5_reduce -> inception_4d/5x5_reduce
I0712 22:28:04.462734 32223 net.cpp:120] Setting up inception_4d/5x5_reduce
I0712 22:28:04.463027 32223 net.cpp:127] Top shape: 10 32 14 14 (62720)
I0712 22:28:04.463037 32223 layer_factory.hpp:74] Creating layer inception_4d/relu_5x5_reduce
I0712 22:28:04.463044 32223 net.cpp:90] Creating Layer inception_4d/relu_5x5_reduce
I0712 22:28:04.463049 32223 net.cpp:410] inception_4d/relu_5x5_reduce <- inception_4d/5x5_reduce
I0712 22:28:04.463055 32223 net.cpp:357] inception_4d/relu_5x5_reduce -> inception_4d/5x5_reduce (in-place)
I0712 22:28:04.463062 32223 net.cpp:120] Setting up inception_4d/relu_5x5_reduce
I0712 22:28:04.463104 32223 net.cpp:127] Top shape: 10 32 14 14 (62720)
I0712 22:28:04.463110 32223 layer_factory.hpp:74] Creating layer inception_4d/5x5
I0712 22:28:04.463117 32223 net.cpp:90] Creating Layer inception_4d/5x5
I0712 22:28:04.463122 32223 net.cpp:410] inception_4d/5x5 <- inception_4d/5x5_reduce
I0712 22:28:04.463129 32223 net.cpp:368] inception_4d/5x5 -> inception_4d/5x5
I0712 22:28:04.463135 32223 net.cpp:120] Setting up inception_4d/5x5
I0712 22:28:04.463619 32223 net.cpp:127] Top shape: 10 64 14 14 (125440)
I0712 22:28:04.463630 32223 layer_factory.hpp:74] Creating layer inception_4d/relu_5x5
I0712 22:28:04.463646 32223 net.cpp:90] Creating Layer inception_4d/relu_5x5
I0712 22:28:04.463652 32223 net.cpp:410] inception_4d/relu_5x5 <- inception_4d/5x5
I0712 22:28:04.463659 32223 net.cpp:357] inception_4d/relu_5x5 -> inception_4d/5x5 (in-place)
I0712 22:28:04.463665 32223 net.cpp:120] Setting up inception_4d/relu_5x5
I0712 22:28:04.463708 32223 net.cpp:127] Top shape: 10 64 14 14 (125440)
I0712 22:28:04.463714 32223 layer_factory.hpp:74] Creating layer inception_4d/pool
I0712 22:28:04.463721 32223 layer_factory.cpp:55] CUDNN does not support padding or multiple tops. Using Caffe's own pooling layer.
I0712 22:28:04.463726 32223 net.cpp:90] Creating Layer inception_4d/pool
I0712 22:28:04.463731 32223 net.cpp:410] inception_4d/pool <- inception_4c/output_inception_4c/output_0_split_3
I0712 22:28:04.463735 32223 net.cpp:368] inception_4d/pool -> inception_4d/pool
I0712 22:28:04.463742 32223 net.cpp:120] Setting up inception_4d/pool
I0712 22:28:04.463749 32223 net.cpp:127] Top shape: 10 512 14 14 (1003520)
I0712 22:28:04.463753 32223 layer_factory.hpp:74] Creating layer inception_4d/pool_proj
I0712 22:28:04.463760 32223 net.cpp:90] Creating Layer inception_4d/pool_proj
I0712 22:28:04.463765 32223 net.cpp:410] inception_4d/pool_proj <- inception_4d/pool
I0712 22:28:04.463773 32223 net.cpp:368] inception_4d/pool_proj -> inception_4d/pool_proj
I0712 22:28:04.463778 32223 net.cpp:120] Setting up inception_4d/pool_proj
I0712 22:28:04.464160 32223 net.cpp:127] Top shape: 10 64 14 14 (125440)
I0712 22:28:04.464172 32223 layer_factory.hpp:74] Creating layer inception_4d/relu_pool_proj
I0712 22:28:04.464180 32223 net.cpp:90] Creating Layer inception_4d/relu_pool_proj
I0712 22:28:04.464185 32223 net.cpp:410] inception_4d/relu_pool_proj <- inception_4d/pool_proj
I0712 22:28:04.464191 32223 net.cpp:357] inception_4d/relu_pool_proj -> inception_4d/pool_proj (in-place)
I0712 22:28:04.464197 32223 net.cpp:120] Setting up inception_4d/relu_pool_proj
I0712 22:28:04.464238 32223 net.cpp:127] Top shape: 10 64 14 14 (125440)
I0712 22:28:04.464244 32223 layer_factory.hpp:74] Creating layer inception_4d/output
I0712 22:28:04.464251 32223 net.cpp:90] Creating Layer inception_4d/output
I0712 22:28:04.464257 32223 net.cpp:410] inception_4d/output <- inception_4d/1x1
I0712 22:28:04.464262 32223 net.cpp:410] inception_4d/output <- inception_4d/3x3
I0712 22:28:04.464265 32223 net.cpp:410] inception_4d/output <- inception_4d/5x5
I0712 22:28:04.464270 32223 net.cpp:410] inception_4d/output <- inception_4d/pool_proj
I0712 22:28:04.464275 32223 net.cpp:368] inception_4d/output -> inception_4d/output
I0712 22:28:04.464282 32223 net.cpp:120] Setting up inception_4d/output
I0712 22:28:04.464288 32223 net.cpp:127] Top shape: 10 528 14 14 (1034880)
I0712 22:28:04.464293 32223 layer_factory.hpp:74] Creating layer inception_4d/output_inception_4d/output_0_split
I0712 22:28:04.464299 32223 net.cpp:90] Creating Layer inception_4d/output_inception_4d/output_0_split
I0712 22:28:04.464304 32223 net.cpp:410] inception_4d/output_inception_4d/output_0_split <- inception_4d/output
I0712 22:28:04.464310 32223 net.cpp:368] inception_4d/output_inception_4d/output_0_split -> inception_4d/output_inception_4d/output_0_split_0
I0712 22:28:04.464316 32223 net.cpp:368] inception_4d/output_inception_4d/output_0_split -> inception_4d/output_inception_4d/output_0_split_1
I0712 22:28:04.464323 32223 net.cpp:368] inception_4d/output_inception_4d/output_0_split -> inception_4d/output_inception_4d/output_0_split_2
I0712 22:28:04.464329 32223 net.cpp:368] inception_4d/output_inception_4d/output_0_split -> inception_4d/output_inception_4d/output_0_split_3
I0712 22:28:04.464335 32223 net.cpp:368] inception_4d/output_inception_4d/output_0_split -> inception_4d/output_inception_4d/output_0_split_4
I0712 22:28:04.464340 32223 net.cpp:120] Setting up inception_4d/output_inception_4d/output_0_split
I0712 22:28:04.464347 32223 net.cpp:127] Top shape: 10 528 14 14 (1034880)
I0712 22:28:04.464351 32223 net.cpp:127] Top shape: 10 528 14 14 (1034880)
I0712 22:28:04.464364 32223 net.cpp:127] Top shape: 10 528 14 14 (1034880)
I0712 22:28:04.464368 32223 net.cpp:127] Top shape: 10 528 14 14 (1034880)
I0712 22:28:04.464372 32223 net.cpp:127] Top shape: 10 528 14 14 (1034880)
I0712 22:28:04.464376 32223 layer_factory.hpp:74] Creating layer loss2/ave_pool
I0712 22:28:04.464383 32223 net.cpp:90] Creating Layer loss2/ave_pool
I0712 22:28:04.464387 32223 net.cpp:410] loss2/ave_pool <- inception_4d/output_inception_4d/output_0_split_0
I0712 22:28:04.464395 32223 net.cpp:368] loss2/ave_pool -> loss2/ave_pool
I0712 22:28:04.464401 32223 net.cpp:120] Setting up loss2/ave_pool
I0712 22:28:04.464520 32223 net.cpp:127] Top shape: 10 528 4 4 (84480)
I0712 22:28:04.464529 32223 layer_factory.hpp:74] Creating layer loss2/conv
I0712 22:28:04.464536 32223 net.cpp:90] Creating Layer loss2/conv
I0712 22:28:04.464541 32223 net.cpp:410] loss2/conv <- loss2/ave_pool
I0712 22:28:04.464547 32223 net.cpp:368] loss2/conv -> loss2/conv
I0712 22:28:04.464555 32223 net.cpp:120] Setting up loss2/conv
I0712 22:28:04.465093 32223 net.cpp:127] Top shape: 10 128 4 4 (20480)
I0712 22:28:04.465104 32223 layer_factory.hpp:74] Creating layer loss2/relu_conv
I0712 22:28:04.465111 32223 net.cpp:90] Creating Layer loss2/relu_conv
I0712 22:28:04.465116 32223 net.cpp:410] loss2/relu_conv <- loss2/conv
I0712 22:28:04.465123 32223 net.cpp:357] loss2/relu_conv -> loss2/conv (in-place)
I0712 22:28:04.465129 32223 net.cpp:120] Setting up loss2/relu_conv
I0712 22:28:04.465172 32223 net.cpp:127] Top shape: 10 128 4 4 (20480)
I0712 22:28:04.465178 32223 layer_factory.hpp:74] Creating layer loss2/fc
I0712 22:28:04.465186 32223 net.cpp:90] Creating Layer loss2/fc
I0712 22:28:04.465191 32223 net.cpp:410] loss2/fc <- loss2/conv
I0712 22:28:04.465196 32223 net.cpp:368] loss2/fc -> loss2/fc
I0712 22:28:04.465204 32223 net.cpp:120] Setting up loss2/fc
I0712 22:28:04.475492 32223 net.cpp:127] Top shape: 10 1024 (10240)
I0712 22:28:04.475513 32223 layer_factory.hpp:74] Creating layer loss2/relu_fc
I0712 22:28:04.475523 32223 net.cpp:90] Creating Layer loss2/relu_fc
I0712 22:28:04.475530 32223 net.cpp:410] loss2/relu_fc <- loss2/fc
I0712 22:28:04.475536 32223 net.cpp:357] loss2/relu_fc -> loss2/fc (in-place)
I0712 22:28:04.475543 32223 net.cpp:120] Setting up loss2/relu_fc
I0712 22:28:04.475620 32223 net.cpp:127] Top shape: 10 1024 (10240)
I0712 22:28:04.475625 32223 layer_factory.hpp:74] Creating layer loss2/drop_fc
I0712 22:28:04.475632 32223 net.cpp:90] Creating Layer loss2/drop_fc
I0712 22:28:04.475636 32223 net.cpp:410] loss2/drop_fc <- loss2/fc
I0712 22:28:04.475642 32223 net.cpp:357] loss2/drop_fc -> loss2/fc (in-place)
I0712 22:28:04.475648 32223 net.cpp:120] Setting up loss2/drop_fc
I0712 22:28:04.475656 32223 net.cpp:127] Top shape: 10 1024 (10240)
I0712 22:28:04.475659 32223 layer_factory.hpp:74] Creating layer stanford_cars_loss2/classifier
I0712 22:28:04.475666 32223 net.cpp:90] Creating Layer stanford_cars_loss2/classifier
I0712 22:28:04.475672 32223 net.cpp:410] stanford_cars_loss2/classifier <- loss2/fc
I0712 22:28:04.475677 32223 net.cpp:368] stanford_cars_loss2/classifier -> stanford_cars_loss2/classifier
I0712 22:28:04.475684 32223 net.cpp:120] Setting up stanford_cars_loss2/classifier
I0712 22:28:04.486718 32223 net.cpp:127] Top shape: 10 196 (1960)
I0712 22:28:04.486739 32223 layer_factory.hpp:74] Creating layer stanford_cars_loss2/classifier_stanford_cars_loss2/classifier_0_split
I0712 22:28:04.486762 32223 net.cpp:90] Creating Layer stanford_cars_loss2/classifier_stanford_cars_loss2/classifier_0_split
I0712 22:28:04.486773 32223 net.cpp:410] stanford_cars_loss2/classifier_stanford_cars_loss2/classifier_0_split <- stanford_cars_loss2/classifier
I0712 22:28:04.486794 32223 net.cpp:368] stanford_cars_loss2/classifier_stanford_cars_loss2/classifier_0_split -> stanford_cars_loss2/classifier_stanford_cars_loss2/classifier_0_split_0
I0712 22:28:04.486819 32223 net.cpp:368] stanford_cars_loss2/classifier_stanford_cars_loss2/classifier_0_split -> stanford_cars_loss2/classifier_stanford_cars_loss2/classifier_0_split_1
I0712 22:28:04.486855 32223 net.cpp:368] stanford_cars_loss2/classifier_stanford_cars_loss2/classifier_0_split -> stanford_cars_loss2/classifier_stanford_cars_loss2/classifier_0_split_2
I0712 22:28:04.486865 32223 net.cpp:120] Setting up stanford_cars_loss2/classifier_stanford_cars_loss2/classifier_0_split
I0712 22:28:04.486872 32223 net.cpp:127] Top shape: 10 196 (1960)
I0712 22:28:04.486877 32223 net.cpp:127] Top shape: 10 196 (1960)
I0712 22:28:04.486882 32223 net.cpp:127] Top shape: 10 196 (1960)
I0712 22:28:04.486886 32223 layer_factory.hpp:74] Creating layer stanford_cars_loss2/loss
I0712 22:28:04.486902 32223 net.cpp:90] Creating Layer stanford_cars_loss2/loss
I0712 22:28:04.486907 32223 net.cpp:410] stanford_cars_loss2/loss <- stanford_cars_loss2/classifier_stanford_cars_loss2/classifier_0_split_0
I0712 22:28:04.486923 32223 net.cpp:410] stanford_cars_loss2/loss <- label_data_1_split_3
…
I0712 22:28:04.487118 32223 net.cpp:368] loss2/top-5 -> loss2/top-5
I0712 22:28:04.487123 32223 net.cpp:120] Setting up loss2/top-5
I0712 22:28:04.487128 32223 net.cpp:127] Top shape: (1)
I0712 22:28:04.487133 32223 layer_factory.hpp:74] Creating layer inception_4e/1x1
I0712 22:28:04.487140 32223 net.cpp:90] Creating Layer inception_4e/1x1
I0712 22:28:04.487145 32223 net.cpp:410] inception_4e/1x1 <- inception_4d/output_inception_4d/output_0_split_1
I0712 22:28:04.487151 32223 net.cpp:368] inception_4e/1x1 -> inception_4e/1x1
I0712 22:28:04.487157 32223 net.cpp:120] Setting up inception_4e/1x1
I0712 22:28:04.488458 32223 net.cpp:127] Top shape: 10 256 14 14 (501760)
I0712 22:28:04.488483 32223 layer_factory.hpp:74] Creating layer inception_4e/relu_1x1
I0712 22:28:04.488492 32223 net.cpp:90] Creating Layer inception_4e/relu_1x1
I0712 22:28:04.488497 32223 net.cpp:410] inception_4e/relu_1x1 <- inception_4e/1x1
I0712 22:28:04.488538 32223 net.cpp:357] inception_4e/relu_1x1 -> inception_4e/1x1 (in-place)
I0712 22:28:04.488546 32223 net.cpp:120] Setting up inception_4e/relu_1x1
I0712 22:28:04.488682 32223 net.cpp:127] Top shape: 10 256 14 14 (501760)
I0712 22:28:04.488692 32223 layer_factory.hpp:74] Creating layer inception_4e/3x3_reduce
I0712 22:28:04.488713 32223 net.cpp:90] Creating Layer inception_4e/3x3_reduce
I0712 22:28:04.488718 32223 net.cpp:410] inception_4e/3x3_reduce <- inception_4d/output_inception_4d/output_0_split_2
I0712 22:28:04.488724 32223 net.cpp:368] inception_4e/3x3_reduce -> inception_4e/3x3_reduce
I0712 22:28:04.488731 32223 net.cpp:120] Setting up inception_4e/3x3_reduce
I0712 22:28:04.489483 32223 net.cpp:127] Top shape: 10 160 14 14 (313600)
I0712 22:28:04.489496 32223 layer_factory.hpp:74] Creating layer inception_4e/relu_3x3_reduce
I0712 22:28:04.489503 32223 net.cpp:90] Creating Layer inception_4e/relu_3x3_reduce
I0712 22:28:04.489508 32223 net.cpp:410] inception_4e/relu_3x3_reduce <- inception_4e/3x3_reduce
I0712 22:28:04.489524 32223 net.cpp:357] inception_4e/relu_3x3_reduce -> inception_4e/3x3_reduce (in-place)
I0712 22:28:04.489531 32223 net.cpp:120] Setting up inception_4e/relu_3x3_reduce
I0712 22:28:04.489576 32223 net.cpp:127] Top shape: 10 160 14 14 (313600)
I0712 22:28:04.489583 32223 layer_factory.hpp:74] Creating layer inception_4e/3x3
I0712 22:28:04.489588 32223 net.cpp:90] Creating Layer inception_4e/3x3
I0712 22:28:04.489593 32223 net.cpp:410] inception_4e/3x3 <- inception_4e/3x3_reduce
I0712 22:28:04.489599 32223 net.cpp:368] inception_4e/3x3 -> inception_4e/3x3
I0712 22:28:04.489606 32223 net.cpp:120] Setting up inception_4e/3x3
I0712 22:28:04.493520 32223 net.cpp:127] Top shape: 10 320 14 14 (627200)
I0712 22:28:04.493556 32223 layer_factory.hpp:74] Creating layer inception_4e/relu_3x3
I0712 22:28:04.493574 32223 net.cpp:90] Creating Layer inception_4e/relu_3x3
I0712 22:28:04.493589 32223 net.cpp:410] inception_4e/relu_3x3 <- inception_4e/3x3
I0712 22:28:04.493607 32223 net.cpp:357] inception_4e/relu_3x3 -> inception_4e/3x3 (in-place)
I0712 22:28:04.493626 32223 net.cpp:120] Setting up inception_4e/relu_3x3
I0712 22:28:04.493748 32223 net.cpp:127] Top shape: 10 320 14 14 (627200)
I0712 22:28:04.493764 32223 layer_factory.hpp:74] Creating layer inception_4e/5x5_reduce
I0712 22:28:04.493784 32223 net.cpp:90] Creating Layer inception_4e/5x5_reduce
I0712 22:28:04.493798 32223 net.cpp:410] inception_4e/5x5_reduce <- inception_4d/output_inception_4d/output_0_split_3
I0712 22:28:04.493815 32223 net.cpp:368] inception_4e/5x5_reduce -> inception_4e/5x5_reduce
I0712 22:28:04.493837 32223 net.cpp:120] Setting up inception_4e/5x5_reduce
I0712 22:28:04.494745 32223 net.cpp:127] Top shape: 10 32 14 14 (62720)
I0712 22:28:04.494778 32223 layer_factory.hpp:74] Creating layer inception_4e/relu_5x5_reduce
I0712 22:28:04.494796 32223 net.cpp:90] Creating Layer inception_4e/relu_5x5_reduce
I0712 22:28:04.494810 32223 net.cpp:410] inception_4e/relu_5x5_reduce <- inception_4e/5x5_reduce
I0712 22:28:04.494827 32223 net.cpp:357] inception_4e/relu_5x5_reduce -> inception_4e/5x5_reduce (in-place)
I0712 22:28:04.494844 32223 net.cpp:120] Setting up inception_4e/relu_5x5_reduce
I0712 22:28:04.494956 32223 net.cpp:127] Top shape: 10 32 14 14 (62720)
I0712 22:28:04.494972 32223 layer_factory.hpp:74] Creating layer inception_4e/5x5
I0712 22:28:04.494989 32223 net.cpp:90] Creating Layer inception_4e/5x5
I0712 22:28:04.495003 32223 net.cpp:410] inception_4e/5x5 <- inception_4e/5x5_reduce
I0712 22:28:04.495020 32223 net.cpp:368] inception_4e/5x5 -> inception_4e/5x5
I0712 22:28:04.495039 32223 net.cpp:120] Setting up inception_4e/5x5
I0712 22:28:04.495955 32223 net.cpp:127] Top shape: 10 128 14 14 (250880)
I0712 22:28:04.495967 32223 layer_factory.hpp:74] Creating layer inception_4e/relu_5x5
I0712 22:28:04.495975 32223 net.cpp:90] Creating Layer inception_4e/relu_5x5
I0712 22:28:04.495980 32223 net.cpp:410] inception_4e/relu_5x5 <- inception_4e/5x5
I0712 22:28:04.495985 32223 net.cpp:357] inception_4e/relu_5x5 -> inception_4e/5x5 (in-place)
I0712 22:28:04.495991 32223 net.cpp:120] Setting up inception_4e/relu_5x5
I0712 22:28:04.496106 32223 net.cpp:127] Top shape: 10 128 14 14 (250880)
I0712 22:28:04.496115 32223 layer_factory.hpp:74] Creating layer inception_4e/pool
I0712 22:28:04.496121 32223 layer_factory.cpp:55] CUDNN does not support padding or multiple tops. Using Caffe's own pooling layer.
I0712 22:28:04.496127 32223 net.cpp:90] Creating Layer inception_4e/pool
I0712 22:28:04.496132 32223 net.cpp:410] inception_4e/pool <- inception_4d/output_inception_4d/output_0_split_4
I0712 22:28:04.496139 32223 net.cpp:368] inception_4e/pool -> inception_4e/pool
I0712 22:28:04.496145 32223 net.cpp:120] Setting up inception_4e/pool
I0712 22:28:04.496151 32223 net.cpp:127] Top shape: 10 528 14 14 (1034880)
I0712 22:28:04.496156 32223 layer_factory.hpp:74] Creating layer inception_4e/pool_proj
I0712 22:28:04.496163 32223 net.cpp:90] Creating Layer inception_4e/pool_proj
I0712 22:28:04.496168 32223 net.cpp:410] inception_4e/pool_proj <- inception_4e/pool
I0712 22:28:04.496184 32223 net.cpp:368] inception_4e/pool_proj -> inception_4e/pool_proj
I0712 22:28:04.496191 32223 net.cpp:120] Setting up inception_4e/pool_proj
I0712 22:28:04.496728 32223 net.cpp:127] Top shape: 10 128 14 14 (250880)
I0712 22:28:04.496740 32223 layer_factory.hpp:74] Creating layer inception_4e/relu_pool_proj
I0712 22:28:04.496747 32223 net.cpp:90] Creating Layer inception_4e/relu_pool_proj
I0712 22:28:04.496752 32223 net.cpp:410] inception_4e/relu_pool_proj <- inception_4e/pool_proj
I0712 22:28:04.496757 32223 net.cpp:357] inception_4e/relu_pool_proj -> inception_4e/pool_proj (in-place)
I0712 22:28:04.496764 32223 net.cpp:120] Setting up inception_4e/relu_pool_proj
I0712 22:28:04.496806 32223 net.cpp:127] Top shape: 10 128 14 14 (250880)
I0712 22:28:04.496812 32223 layer_factory.hpp:74] Creating layer inception_4e/output
I0712 22:28:04.496819 32223 net.cpp:90] Creating Layer inception_4e/output
I0712 22:28:04.496822 32223 net.cpp:410] inception_4e/output <- inception_4e/1x1
I0712 22:28:04.496829 32223 net.cpp:410] inception_4e/output <- inception_4e/3x3
I0712 22:28:04.496834 32223 net.cpp:410] inception_4e/output <- inception_4e/5x5
I0712 22:28:04.496840 32223 net.cpp:410] inception_4e/output <- inception_4e/pool_proj
I0712 22:28:04.496845 32223 net.cpp:368] inception_4e/output -> inception_4e/output
I0712 22:28:04.496850 32223 net.cpp:120] Setting up inception_4e/output
I0712 22:28:04.496856 32223 net.cpp:127] Top shape: 10 832 14 14 (1630720)
I0712 22:28:04.496861 32223 layer_factory.hpp:74] Creating layer pool4/3x3_s2
I0712 22:28:04.496866 32223 net.cpp:90] Creating Layer pool4/3x3_s2
I0712 22:28:04.496872 32223 net.cpp:410] pool4/3x3_s2 <- inception_4e/output
I0712 22:28:04.496877 32223 net.cpp:368] pool4/3x3_s2 -> pool4/3x3_s2
I0712 22:28:04.496883 32223 net.cpp:120] Setting up pool4/3x3_s2
I0712 22:28:04.496927 32223 net.cpp:127] Top shape: 10 832 7 7 (407680)
I0712 22:28:04.496934 32223 layer_factory.hpp:74] Creating layer pool4/3x3_s2_pool4/3x3_s2_0_split
I0712 22:28:04.496940 32223 net.cpp:90] Creating Layer pool4/3x3_s2_pool4/3x3_s2_0_split
I0712 22:28:04.496944 32223 net.cpp:410] pool4/3x3_s2_pool4/3x3_s2_0_split <- pool4/3x3_s2
I0712 22:28:04.496950 32223 net.cpp:368] pool4/3x3_s2_pool4/3x3_s2_0_split -> pool4/3x3_s2_pool4/3x3_s2_0_split_0
I0712 22:28:04.496956 32223 net.cpp:368] pool4/3x3_s2_pool4/3x3_s2_0_split -> pool4/3x3_s2_pool4/3x3_s2_0_split_1
I0712 22:28:04.496963 32223 net.cpp:368] pool4/3x3_s2_pool4/3x3_s2_0_split -> pool4/3x3_s2_pool4/3x3_s2_0_split_2
I0712 22:28:04.516741 32223 net.cpp:368] pool4/3x3_s2_pool4/3x3_s2_0_split -> pool4/3x3_s2_pool4/3x3_s2_0_split_3
I0712 22:28:04.516762 32223 net.cpp:120] Setting up pool4/3x3_s2_pool4/3x3_s2_0_split
I0712 22:28:04.516773 32223 net.cpp:127] Top shape: 10 832 7 7 (407680)
I0712 22:28:04.516778 32223 net.cpp:127] Top shape: 10 832 7 7 (407680)
I0712 22:28:04.516783 32223 net.cpp:127] Top shape: 10 832 7 7 (407680)
I0712 22:28:04.516788 32223 net.cpp:127] Top shape: 10 832 7 7 (407680)
I0712 22:28:04.516793 32223 layer_factory.hpp:74] Creating layer inception_5a/1x1
I0712 22:28:04.516803 32223 net.cpp:90] Creating Layer inception_5a/1x1
I0712 22:28:04.516808 32223 net.cpp:410] inception_5a/1x1 <- pool4/3x3_s2_pool4/3x3_s2_0_split_0
I0712 22:28:04.516815 32223 net.cpp:368] inception_5a/1x1 -> inception_5a/1x1
I0712 22:28:04.516824 32223 net.cpp:120] Setting up inception_5a/1x1
I0712 22:28:04.518371 32223 net.cpp:127] Top shape: 10 256 7 7 (125440)
I0712 22:28:04.518386 32223 layer_factory.hpp:74] Creating layer inception_5a/relu_1x1
I0712 22:28:04.518393 32223 net.cpp:90] Creating Layer inception_5a/relu_1x1
I0712 22:28:04.518409 32223 net.cpp:410] inception_5a/relu_1x1 <- inception_5a/1x1
I0712 22:28:04.518425 32223 net.cpp:357] inception_5a/relu_1x1 -> inception_5a/1x1 (in-place)
I0712 22:28:04.518432 32223 net.cpp:120] Setting up inception_5a/relu_1x1
I0712 22:28:04.518590 32223 net.cpp:127] Top shape: 10 256 7 7 (125440)
I0712 22:28:04.518599 32223 layer_factory.hpp:74] Creating layer inception_5a/3x3_reduce
I0712 22:28:04.518616 32223 net.cpp:90] Creating Layer inception_5a/3x3_reduce
I0712 22:28:04.518625 32223 net.cpp:410] inception_5a/3x3_reduce <- pool4/3x3_s2_pool4/3x3_s2_0_split_1
I0712 22:28:04.518630 32223 net.cpp:368] inception_5a/3x3_reduce -> inception_5a/3x3_reduce
I0712 22:28:04.518637 32223 net.cpp:120] Setting up inception_5a/3x3_reduce
I0712 22:28:04.520401 32223 net.cpp:127] Top shape: 10 160 7 7 (78400)
I0712 22:28:04.520467 32223 layer_factory.hpp:74] Creating layer inception_5a/relu_3x3_reduce
I0712 22:28:04.520508 32223 net.cpp:90] Creating Layer inception_5a/relu_3x3_reduce
I0712 22:28:04.520536 32223 net.cpp:410] inception_5a/relu_3x3_reduce <- inception_5a/3x3_reduce
I0712 22:28:04.520567 32223 net.cpp:357] inception_5a/relu_3x3_reduce -> inception_5a/3x3_reduce (in-place)
I0712 22:28:04.520601 32223 net.cpp:120] Setting up inception_5a/relu_3x3_reduce
I0712 22:28:04.520838 32223 net.cpp:127] Top shape: 10 160 7 7 (78400)
I0712 22:28:04.520869 32223 layer_factory.hpp:74] Creating layer inception_5a/3x3
I0712 22:28:04.520905 32223 net.cpp:90] Creating Layer inception_5a/3x3
I0712 22:28:04.520932 32223 net.cpp:410] inception_5a/3x3 <- inception_5a/3x3_reduce
I0712 22:28:04.520964 32223 net.cpp:368] inception_5a/3x3 -> inception_5a/3x3
I0712 22:28:04.520999 32223 net.cpp:120] Setting up inception_5a/3x3
I0712 22:28:04.531960 32223 net.cpp:127] Top shape: 10 320 7 7 (156800)
I0712 22:28:04.531977 32223 layer_factory.hpp:74] Creating layer inception_5a/relu_3x3
I0712 22:28:04.531985 32223 net.cpp:90] Creating Layer inception_5a/relu_3x3
I0712 22:28:04.531991 32223 net.cpp:410] inception_5a/relu_3x3 <- inception_5a/3x3
I0712 22:28:04.531997 32223 net.cpp:357] inception_5a/relu_3x3 -> inception_5a/3x3 (in-place)
I0712 22:28:04.532004 32223 net.cpp:120] Setting up inception_5a/relu_3x3
I0712 22:28:04.532047 32223 net.cpp:127] Top shape: 10 320 7 7 (156800)
I0712 22:28:04.532053 32223 layer_factory.hpp:74] Creating layer inception_5a/5x5_reduce
I0712 22:28:04.532062 32223 net.cpp:90] Creating Layer inception_5a/5x5_reduce
I0712 22:28:04.532066 32223 net.cpp:410] inception_5a/5x5_reduce <- pool4/3x3_s2_pool4/3x3_s2_0_split_2
I0712 22:28:04.532073 32223 net.cpp:368] inception_5a/5x5_reduce -> inception_5a/5x5_reduce
I0712 22:28:04.532081 32223 net.cpp:120] Setting up inception_5a/5x5_reduce
I0712 22:28:04.532434 32223 net.cpp:127] Top shape: 10 32 7 7 (15680)
I0712 22:28:04.532445 32223 layer_factory.hpp:74] Creating layer inception_5a/relu_5x5_reduce
I0712 22:28:04.532452 32223 net.cpp:90] Creating Layer inception_5a/relu_5x5_reduce
I0712 22:28:04.532457 32223 net.cpp:410] inception_5a/relu_5x5_reduce <- inception_5a/5x5_reduce
I0712 22:28:04.532462 32223 net.cpp:357] inception_5a/relu_5x5_reduce -> inception_5a/5x5_reduce (in-place)
I0712 22:28:04.532469 32223 net.cpp:120] Setting up inception_5a/relu_5x5_reduce
I0712 22:28:04.532510 32223 net.cpp:127] Top shape: 10 32 7 7 (15680)
I0712 22:28:04.532516 32223 layer_factory.hpp:74] Creating layer inception_5a/5x5
I0712 22:28:04.532524 32223 net.cpp:90] Creating Layer inception_5a/5x5
I0712 22:28:04.532528 32223 net.cpp:410] inception_5a/5x5 <- inception_5a/5x5_reduce
I0712 22:28:04.532534 32223 net.cpp:368] inception_5a/5x5 -> inception_5a/5x5
I0712 22:28:04.532541 32223 net.cpp:120] Setting up inception_5a/5x5
I0712 22:28:04.533262 32223 net.cpp:127] Top shape: 10 128 7 7 (62720)
I0712 22:28:04.533272 32223 layer_factory.hpp:74] Creating layer inception_5a/relu_5x5
I0712 22:28:04.533278 32223 net.cpp:90] Creating Layer inception_5a/relu_5x5
I0712 22:28:04.533283 32223 net.cpp:410] inception_5a/relu_5x5 <- inception_5a/5x5
I0712 22:28:04.533289 32223 net.cpp:357] inception_5a/relu_5x5 -> inception_5a/5x5 (in-place)
I0712 22:28:04.533295 32223 net.cpp:120] Setting up inception_5a/relu_5x5
I0712 22:28:04.533418 32223 net.cpp:127] Top shape: 10 128 7 7 (62720)
I0712 22:28:04.533427 32223 layer_factory.hpp:74] Creating layer inception_5a/pool
I0712 22:28:04.533433 32223 layer_factory.cpp:55] CUDNN does not support padding or multiple tops. Using Caffe's own pooling layer.
I0712 22:28:04.533452 32223 net.cpp:90] Creating Layer inception_5a/pool
I0712 22:28:04.533457 32223 net.cpp:410] inception_5a/pool <- pool4/3x3_s2_pool4/3x3_s2_0_split_3
I0712 22:28:04.533463 32223 net.cpp:368] inception_5a/pool -> inception_5a/pool
I0712 22:28:04.533470 32223 net.cpp:120] Setting up inception_5a/pool
I0712 22:28:04.533478 32223 net.cpp:127] Top shape: 10 832 7 7 (407680)
I0712 22:28:04.533483 32223 layer_factory.hpp:74] Creating layer inception_5a/pool_proj
I0712 22:28:04.533489 32223 net.cpp:90] Creating Layer inception_5a/pool_proj
I0712 22:28:04.533494 32223 net.cpp:410] inception_5a/pool_proj <- inception_5a/pool
I0712 22:28:04.533500 32223 net.cpp:368] inception_5a/pool_proj -> inception_5a/pool_proj
I0712 22:28:04.533506 32223 net.cpp:120] Setting up inception_5a/pool_proj
I0712 22:28:04.534245 32223 net.cpp:127] Top shape: 10 128 7 7 (62720)
I0712 22:28:04.534256 32223 layer_factory.hpp:74] Creating layer inception_5a/relu_pool_proj
I0712 22:28:04.534263 32223 net.cpp:90] Creating Layer inception_5a/relu_pool_proj
I0712 22:28:04.534270 32223 net.cpp:410] inception_5a/relu_pool_proj <- inception_5a/pool_proj
I0712 22:28:04.534274 32223 net.cpp:357] inception_5a/relu_pool_proj -> inception_5a/pool_proj (in-place)
I0712 22:28:04.534281 32223 net.cpp:120] Setting up inception_5a/relu_pool_proj
I0712 22:28:04.534322 32223 net.cpp:127] Top shape: 10 128 7 7 (62720)
I0712 22:28:04.534328 32223 layer_factory.hpp:74] Creating layer inception_5a/output
I0712 22:28:04.534335 32223 net.cpp:90] Creating Layer inception_5a/output
I0712 22:28:04.534340 32223 net.cpp:410] inception_5a/output <- inception_5a/1x1
I0712 22:28:04.534345 32223 net.cpp:410] inception_5a/output <- inception_5a/3x3
I0712 22:28:04.534350 32223 net.cpp:410] inception_5a/output <- inception_5a/5x5
I0712 22:28:04.534354 32223 net.cpp:410] inception_5a/output <- inception_5a/pool_proj
I0712 22:28:04.534359 32223 net.cpp:368] inception_5a/output -> inception_5a/output
I0712 22:28:04.534365 32223 net.cpp:120] Setting up inception_5a/output
I0712 22:28:04.534373 32223 net.cpp:127] Top shape: 10 832 7 7 (407680)
I0712 22:28:04.534376 32223 layer_factory.hpp:74] Creating layer inception_5a/output_inception_5a/output_0_split
I0712 22:28:04.534384 32223 net.cpp:90] Creating Layer inception_5a/output_inception_5a/output_0_split
I0712 22:28:04.534389 32223 net.cpp:410] inception_5a/output_inception_5a/output_0_split <- inception_5a/output
I0712 22:28:04.534394 32223 net.cpp:368] inception_5a/output_inception_5a/output_0_split -> inception_5a/output_inception_5a/output_0_split_0
I0712 22:28:04.534399 32223 net.cpp:368] inception_5a/output_inception_5a/output_0_split -> inception_5a/output_inception_5a/output_0_split_1
I0712 22:28:04.534405 32223 net.cpp:368] inception_5a/output_inception_5a/output_0_split -> inception_5a/output_inception_5a/output_0_split_2
I0712 22:28:04.534412 32223 net.cpp:368] inception_5a/output_inception_5a/output_0_split -> inception_5a/output_inception_5a/output_0_split_3
I0712 22:28:04.534417 32223 net.cpp:120] Setting up inception_5a/output_inception_5a/output_0_split
I0712 22:28:04.534423 32223 net.cpp:127] Top shape: 10 832 7 7 (407680)
I0712 22:28:04.534428 32223 net.cpp:127] Top shape: 10 832 7 7 (407680)
I0712 22:28:04.534432 32223 net.cpp:127] Top shape: 10 832 7 7 (407680)
I0712 22:28:04.534437 32223 net.cpp:127] Top shape: 10 832 7 7 (407680)
I0712 22:28:04.534441 32223 layer_factory.hpp:74] Creating layer inception_5b/1x1
I0712 22:28:04.534448 32223 net.cpp:90] Creating Layer inception_5b/1x1
I0712 22:28:04.534452 32223 net.cpp:410] inception_5b/1x1 <- inception_5a/output_inception_5a/output_0_split_0
I0712 22:28:04.534459 32223 net.cpp:368] inception_5b/1x1 -> inception_5b/1x1
I0712 22:28:04.534466 32223 net.cpp:120] Setting up inception_5b/1x1
I0712 22:28:04.536240 32223 net.cpp:127] Top shape: 10 384 7 7 (188160)
I0712 22:28:04.536253 32223 layer_factory.hpp:74] Creating layer inception_5b/relu_1x1
I0712 22:28:04.536260 32223 net.cpp:90] Creating Layer inception_5b/relu_1x1
I0712 22:28:04.536273 32223 net.cpp:410] inception_5b/relu_1x1 <- inception_5b/1x1
I0712 22:28:04.536280 32223 net.cpp:357] inception_5b/relu_1x1 -> inception_5b/1x1 (in-place)
I0712 22:28:04.536286 32223 net.cpp:120] Setting up inception_5b/relu_1x1
I0712 22:28:04.536329 32223 net.cpp:127] Top shape: 10 384 7 7 (188160)
I0712 22:28:04.536334 32223 layer_factory.hpp:74] Creating layer inception_5b/3x3_reduce
I0712 22:28:04.536342 32223 net.cpp:90] Creating Layer inception_5b/3x3_reduce
I0712 22:28:04.536347 32223 net.cpp:410] inception_5b/3x3_reduce <- inception_5a/output_inception_5a/output_0_split_1
I0712 22:28:04.536355 32223 net.cpp:368] inception_5b/3x3_reduce -> inception_5b/3x3_reduce
I0712 22:28:04.536361 32223 net.cpp:120] Setting up inception_5b/3x3_reduce
I0712 22:28:04.537351 32223 net.cpp:127] Top shape: 10 192 7 7 (94080)
I0712 22:28:04.537364 32223 layer_factory.hpp:74] Creating layer inception_5b/relu_3x3_reduce
I0712 22:28:04.537369 32223 net.cpp:90] Creating Layer inception_5b/relu_3x3_reduce
I0712 22:28:04.537374 32223 net.cpp:410] inception_5b/relu_3x3_reduce <- inception_5b/3x3_reduce
I0712 22:28:04.537381 32223 net.cpp:357] inception_5b/relu_3x3_reduce -> inception_5b/3x3_reduce (in-place)
I0712 22:28:04.537389 32223 net.cpp:120] Setting up inception_5b/relu_3x3_reduce
I0712 22:28:04.537430 32223 net.cpp:127] Top shape: 10 192 7 7 (94080)
I0712 22:28:04.537436 32223 layer_factory.hpp:74] Creating layer inception_5b/3x3
I0712 22:28:04.537442 32223 net.cpp:90] Creating Layer inception_5b/3x3
I0712 22:28:04.537447 32223 net.cpp:410] inception_5b/3x3 <- inception_5b/3x3_reduce
I0712 22:28:04.537453 32223 net.cpp:368] inception_5b/3x3 -> inception_5b/3x3
I0712 22:28:04.537461 32223 net.cpp:120] Setting up inception_5b/3x3
I0712 22:28:04.540920 32223 net.cpp:127] Top shape: 10 384 7 7 (188160)
I0712 22:28:04.540935 32223 layer_factory.hpp:74] Creating layer inception_5b/relu_3x3
I0712 22:28:04.540942 32223 net.cpp:90] Creating Layer inception_5b/relu_3x3
I0712 22:28:04.540948 32223 net.cpp:410] inception_5b/relu_3x3 <- inception_5b/3x3
I0712 22:28:04.540953 32223 net.cpp:357] inception_5b/relu_3x3 -> inception_5b/3x3 (in-place)
I0712 22:28:04.540959 32223 net.cpp:120] Setting up inception_5b/relu_3x3
I0712 22:28:04.541077 32223 net.cpp:127] Top shape: 10 384 7 7 (188160)
I0712 22:28:04.541086 32223 layer_factory.hpp:74] Creating layer inception_5b/5x5_reduce
I0712 22:28:04.541095 32223 net.cpp:90] Creating Layer inception_5b/5x5_reduce
I0712 22:28:04.541100 32223 net.cpp:410] inception_5b/5x5_reduce <- inception_5a/output_inception_5a/output_0_split_2
I0712 22:28:04.541106 32223 net.cpp:368] inception_5b/5x5_reduce -> inception_5b/5x5_reduce
I0712 22:28:04.541115 32223 net.cpp:120] Setting up inception_5b/5x5_reduce
I0712 22:28:04.541523 32223 net.cpp:127] Top shape: 10 48 7 7 (23520)
I0712 22:28:04.541534 32223 layer_factory.hpp:74] Creating layer inception_5b/relu_5x5_reduce
I0712 22:28:04.547755 32223 net.cpp:90] Creating Layer inception_5b/relu_5x5_reduce
I0712 22:28:04.547778 32223 net.cpp:410] inception_5b/relu_5x5_reduce <- inception_5b/5x5_reduce
I0712 22:28:04.547792 32223 net.cpp:357] inception_5b/relu_5x5_reduce -> inception_5b/5x5_reduce (in-place)
I0712 22:28:04.547811 32223 net.cpp:120] Setting up inception_5b/relu_5x5_reduce
I0712 22:28:04.547899 32223 net.cpp:127] Top shape: 10 48 7 7 (23520)
I0712 22:28:04.547906 32223 layer_factory.hpp:74] Creating layer inception_5b/5x5
I0712 22:28:04.547915 32223 net.cpp:90] Creating Layer inception_5b/5x5
I0712 22:28:04.547920 32223 net.cpp:410] inception_5b/5x5 <- inception_5b/5x5_reduce
I0712 22:28:04.547927 32223 net.cpp:368] inception_5b/5x5 -> inception_5b/5x5
I0712 22:28:04.547935 32223 net.cpp:120] Setting up inception_5b/5x5
I0712 22:28:04.549135 32223 net.cpp:127] Top shape: 10 128 7 7 (62720)
I0712 22:28:04.549149 32223 layer_factory.hpp:74] Creating layer inception_5b/relu_5x5
I0712 22:28:04.549156 32223 net.cpp:90] Creating Layer inception_5b/relu_5x5
I0712 22:28:04.549161 32223 net.cpp:410] inception_5b/relu_5x5 <- inception_5b/5x5
I0712 22:28:04.549178 32223 net.cpp:357] inception_5b/relu_5x5 -> inception_5b/5x5 (in-place)
I0712 22:28:04.549185 32223 net.cpp:120] Setting up inception_5b/relu_5x5
I0712 22:28:04.549229 32223 net.cpp:127] Top shape: 10 128 7 7 (62720)
I0712 22:28:04.549235 32223 layer_factory.hpp:74] Creating layer inception_5b/pool
I0712 22:28:04.549242 32223 layer_factory.cpp:55] CUDNN does not support padding or multiple tops. Using Caffe's own pooling layer.
I0712 22:28:04.549247 32223 net.cpp:90] Creating Layer inception_5b/pool
I0712 22:28:04.549252 32223 net.cpp:410] inception_5b/pool <- inception_5a/output_inception_5a/output_0_split_3
I0712 22:28:04.549258 32223 net.cpp:368] inception_5b/pool -> inception_5b/pool
I0712 22:28:04.549264 32223 net.cpp:120] Setting up inception_5b/pool
I0712 22:28:04.549273 32223 net.cpp:127] Top shape: 10 832 7 7 (407680)
I0712 22:28:04.549276 32223 layer_factory.hpp:74] Creating layer inception_5b/pool_proj
I0712 22:28:04.549283 32223 net.cpp:90] Creating Layer inception_5b/pool_proj
I0712 22:28:04.549288 32223 net.cpp:410] inception_5b/pool_proj <- inception_5b/pool
I0712 22:28:04.549294 32223 net.cpp:368] inception_5b/pool_proj -> inception_5b/pool_proj
I0712 22:28:04.549300 32223 net.cpp:120] Setting up inception_5b/pool_proj
I0712 22:28:04.550077 32223 net.cpp:127] Top shape: 10 128 7 7 (62720)
I0712 22:28:04.550091 32223 layer_factory.hpp:74] Creating layer inception_5b/relu_pool_proj
I0712 22:28:04.550096 32223 net.cpp:90] Creating Layer inception_5b/relu_pool_proj
I0712 22:28:04.550101 32223 net.cpp:410] inception_5b/relu_pool_proj <- inception_5b/pool_proj
I0712 22:28:04.550108 32223 net.cpp:357] inception_5b/relu_pool_proj -> inception_5b/pool_proj (in-place)
I0712 22:28:04.550114 32223 net.cpp:120] Setting up inception_5b/relu_pool_proj
I0712 22:28:04.550155 32223 net.cpp:127] Top shape: 10 128 7 7 (62720)
I0712 22:28:04.550160 32223 layer_factory.hpp:74] Creating layer inception_5b/output
I0712 22:28:04.550166 32223 net.cpp:90] Creating Layer inception_5b/output
I0712 22:28:04.550171 32223 net.cpp:410] inception_5b/output <- inception_5b/1x1
I0712 22:28:04.550178 32223 net.cpp:410] inception_5b/output <- inception_5b/3x3
I0712 22:28:04.550182 32223 net.cpp:410] inception_5b/output <- inception_5b/5x5
I0712 22:28:04.550186 32223 net.cpp:410] inception_5b/output <- inception_5b/pool_proj
I0712 22:28:04.550192 32223 net.cpp:368] inception_5b/output -> inception_5b/output
I0712 22:28:04.550199 32223 net.cpp:120] Setting up inception_5b/output
I0712 22:28:04.550206 32223 net.cpp:127] Top shape: 10 1024 7 7 (501760)
I0712 22:28:04.550211 32223 layer_factory.hpp:74] Creating layer pool5/7x7_s1
I0712 22:28:04.550216 32223 net.cpp:90] Creating Layer pool5/7x7_s1
I0712 22:28:04.550221 32223 net.cpp:410] pool5/7x7_s1 <- inception_5b/output
I0712 22:28:04.550227 32223 net.cpp:368] pool5/7x7_s1 -> pool5/7x7_s1
I0712 22:28:04.550233 32223 net.cpp:120] Setting up pool5/7x7_s1
I0712 22:28:04.550353 32223 net.cpp:127] Top shape: 10 1024 1 1 (10240)
I0712 22:28:04.550362 32223 layer_factory.hpp:74] Creating layer pool5/drop_7x7_s1
I0712 22:28:04.550369 32223 net.cpp:90] Creating Layer pool5/drop_7x7_s1
I0712 22:28:04.550374 32223 net.cpp:410] pool5/drop_7x7_s1 <- pool5/7x7_s1
I0712 22:28:04.550379 32223 net.cpp:357] pool5/drop_7x7_s1 -> pool5/7x7_s1 (in-place)
I0712 22:28:04.550385 32223 net.cpp:120] Setting up pool5/drop_7x7_s1
I0712 22:28:04.550392 32223 net.cpp:127] Top shape: 10 1024 1 1 (10240)
I0712 22:28:04.550396 32223 layer_factory.hpp:74] Creating layer stanford_cars_loss3/classifier
I0712 22:28:04.550403 32223 net.cpp:90] Creating Layer stanford_cars_loss3/classifier
I0712 22:28:04.550407 32223 net.cpp:410] stanford_cars_loss3/classifier <- pool5/7x7_s1
I0712 22:28:04.550415 32223 net.cpp:368] stanford_cars_loss3/classifier -> stanford_cars_loss3/classifier
I0712 22:28:04.550421 32223 net.cpp:120] Setting up stanford_cars_loss3/classifier
I0712 22:28:04.551769 32223 net.cpp:127] Top shape: 10 196 (1960)
I0712 22:28:04.551789 32223 layer_factory.hpp:74] Creating layer stanford_cars_loss3/classifier_stanford_cars_loss3/classifier_0_split
I0712 22:28:04.551815 32223 net.cpp:90] Creating Layer stanford_cars_loss3/classifier_stanford_cars_loss3/classifier_0_split
I0712 22:28:04.551823 32223 net.cpp:410] stanford_cars_loss3/classifier_stanford_cars_loss3/classifier_0_split <- stanford_cars_loss3/classifier
I0712 22:28:04.551832 32223 net.cpp:368] stanford_cars_loss3/classifier_stanford_cars_loss3/classifier_0_split -> stanford_cars_loss3/classifier_stanford_cars_loss3/classifier_0_split_0
I0712 22:28:04.551846 32223 net.cpp:368] stanford_cars_loss3/classifier_stanford_cars_loss3/classifier_0_split -> stanford_cars_loss3/classifier_stanford_cars_loss3/classifier_0_split_1
I0712 22:28:04.551856 32223 net.cpp:368] stanford_cars_loss3/classifier_stanford_cars_loss3/classifier_0_split -> stanford_cars_loss3/classifier_stanford_cars_loss3/classifier_0_split_2
I0712 22:28:04.551863 32223 net.cpp:120] Setting up stanford_cars_loss3/classifier_stanford_cars_loss3/classifier_0_split
I0712 22:28:04.551873 32223 net.cpp:127] Top shape: 10 196 (1960)
I0712 22:28:04.551880 32223 net.cpp:127] Top shape: 10 196 (1960)
I0712 22:28:04.551887 32223 net.cpp:127] Top shape: 10 196 (1960)
I0712 22:28:04.551893 32223 layer_factory.hpp:74] Creating layer loss3/loss3
I0712 22:28:04.551903 32223 net.cpp:90] Creating Layer loss3/loss3
I0712 22:28:04.551908 32223 net.cpp:410] loss3/loss3 <- stanford_cars_loss3/classifier_stanford_cars_loss3/classifier_0_split_0
I0712 22:28:04.551916 32223 net.cpp:410] loss3/loss3 <- label_data_1_split_6
I0712 22:28:04.551925 32223 net.cpp:368] loss3/loss3 -> loss3/loss3
…
