…
I0703 14:45:14.748643 30876 net.cpp:287] The NetState phase (0) differed from the phase (1) specified by a rule in layer loss3/top-5
I0703 14:45:14.749294 30876 net.cpp:42] Initializing net from parameters: 
name: "GoogleNet"
state {
  phase: TRAIN
}
layer {
  name: "data"
  type: "Data"
  top: "data"
  top: "label"
  include {
    phase: TRAIN
  }
  transform_param {
    mirror: true
    crop_size: 224
    mean_value: 104
    mean_value: 117
    mean_value: 123
  }
  data_param {
    source: "examples/stanford_cars/stanford_cars_train_lmdb"
    batch_size: 30
    backend: LMDB
  }
}
layer {
  name: "conv1/7x7_s2"
  type: "Convolution"
  bottom: "data"
  top: "conv1/7x7_s2"
  param {
    lr_mult: 1
    decay_mult: 1
  }
  param {
    lr_mult: 2
    decay_mult: 0
  }
  convolution_param {
    num_output: 64
    pad: 3
    kernel_size: 7
    stride: 2
    weight_filler {
      type: "xavier"
      std: 0.1
    }
    bias_filler {
      type: "constant"
      value: 0.2
    }
  }
}
layer {
  name: "conv1/relu_7x7"
  type: "ReLU"
  bottom: "conv1/7x7_s2"
  top: "conv1/7x7_s2"
}
layer {
  name: "pool1/3x3_s2"
  type: "Pooling"
  bottom: "conv1/7x7_s2"
  top: "pool1/3x3_s2"
  pooling_param {
    pool: MAX
    kernel_size: 3
    stride: 2
  }
}
layer {
  name: "pool1/norm1"
  type: "LRN"
  bottom: "pool1/3x3_s2"
  top: "pool1/norm1"
  lrn_param {
    local_size: 5
    alpha: 0.0001
    beta: 0.75
  }
}
layer {
  name: "conv2/3x3_reduce"
  type: "Convolution"
  bottom: "pool1/norm1"
  top: "conv2/3x3_reduce"
  param {
    lr_mult: 1
    decay_mult: 1
  }
  param {
    lr_mult: 2
    decay_mult: 0
  }
  convolution_param {
    num_output: 64
    kernel_size: 1
    weight_filler {
      type: "xavier"
      std: 0.1
    }
    bias_filler {
      type: "constant"
      value: 0.2
    }
  }
}
layer {
  name: "conv2/relu_3x3_reduce"
  type: "ReLU"
  bottom: "conv2/3x3_reduce"
  top: "conv2/3x3_reduce"
}
layer {
  name: "conv2/3x3"
  type: "Convolution"
  bottom: "conv2/3x3_reduce"
  top: "conv2/3x3"
  param {
    lr_mult: 1
    decay_mult: 1
  }
  param {
    lr_mult: 2
    decay_mult: 0
  }
  convolution_param {
    num_output: 192
    pad: 1
    kernel_size: 3
    weight_filler {
      type: "xavier"
      std: 0.03
    }
    bias_filler {
      type: "constant"
      value: 0.2
    }
  }
}
layer {
  name: "conv2/relu_3x3"
  type: "ReLU"
  bottom: "conv2/3x3"
  top: "conv2/3x3"
}
layer {
  name: "conv2/norm2"
  type: "LRN"
  bottom: "conv2/3x3"
  top: "conv2/norm2"
  lrn_param {
    local_size: 5
    alpha: 0.0001
    beta: 0.75
  }
}
layer {
  name: "pool2/3x3_s2"
  type: "Pooling"
  bottom: "conv2/norm2"
  top: "pool2/3x3_s2"
  pooling_param {
    pool: MAX
    kernel_size: 3
    stride: 2
  }
}
layer {
  name: "inception_3a/1x1"
  type: "Convolution"
  bottom: "pool2/3x3_s2"
  top: "inception_3a/1x1"
  param {
    lr_mult: 1
    decay_mult: 1
  }
  param {
    lr_mult: 2
    decay_mult: 0
  }
  convolution_param {
    num_output: 64
    kernel_size: 1
    weight_filler {
      type: "xavier"
      std: 0.03
    }
    bias_filler {
      type: "constant"
      value: 0.2
    }
  }
}
layer {
  name: "inception_3a/relu_1x1"
  type: "ReLU"
  bottom: "inception_3a/1x1"
  top: "inception_3a/1x1"
}
layer {
  name: "inception_3a/3x3_reduce"
  type: "Convolution"
  bottom: "pool2/3x3_s2"
  top: "inception_3a/3x3_reduce"
  param {
    lr_mult: 1
    decay_mult: 1
  }
  param {
    lr_mult: 2
    decay_mult: 0
  }
  convolution_param {
    num_output: 96
    kernel_size: 1
    weight_filler {
      type: "xavier"
      std: 0.09
    }
    bias_filler {
      type: "constant"
      value: 0.2
    }
  }
}
layer {
  name: "inception_3a/relu_3x3_reduce"
  type: "ReLU"
  bottom: "inception_3a/3x3_reduce"
  top: "inception_3a/3x3_reduce"
}
layer {
  name: "inception_3a/3x3"
  type: "Convolution"
  bottom: "inception_3a/3x3_reduce"
  top: "inception_3a/3x3"
  param {
    lr_mult: 1
    decay_mult: 1
  }
  param {
    lr_mult: 2
    decay_mult: 0
  }
  convolution_param {
    num_output: 128
    pad: 1
    kernel_size: 3
    weight_filler {
      type: "xavier"
      std: 0.03
    }
    bias_filler {
      type: "constant"
      value: 0.2
    }
  }
}
layer {
  name: "inception_3a/relu_3x3"
  type: "ReLU"
  bottom: "inception_3a/3x3"
  top: "inception_3a/3x3"
}
layer {
  name: "inception_3a/5x5_reduce"
  type: "Convolution"
  bottom: "pool2/3x3_s2"
  top: "inception_3a/5x5_reduce"
  param {
    lr_mult: 1
    decay_mult: 1
  }
  param {
    lr_mult: 2
    decay_mult: 0
  }
  convolution_param {
    num_output: 16
    kernel_size: 1
    weight_filler {
      type: "xavier"
      std: 0.2
    }
    bias_filler {
      type: "constant"
      value: 0.2
    }
  }
}
layer {
  name: "inception_3a/relu_5x5_reduce"
  type: "ReLU"
  bottom: "inception_3a/5x5_reduce"
  top: "inception_3a/5x5_reduce"
}
layer {
  name: "inception_3a/5x5"
  type: "Convolution"
  bottom: "inception_3a/5x5_reduce"
  top: "inception_3a/5x5"
  param {
    lr_mult: 1
    decay_mult: 1
  }
  param {
    lr_mult: 2
    decay_mult: 0
  }
  convolution_param {
    num_output: 32
    pad: 2
    kernel_size: 5
    weight_filler {
      type: "xavier"
      std: 0.03
    }
    bias_filler {
      type: "constant"
      value: 0.2
    }
  }
}
layer {
  name: "inception_3a/relu_5x5"
  type: "ReLU"
  bottom: "inception_3a/5x5"
  top: "inception_3a/5x5"
}
layer {
  name: "inception_3a/pool"
  type: "Pooling"
  bottom: "pool2/3x3_s2"
  top: "inception_3a/pool"
  pooling_param {
    pool: MAX
    kernel_size: 3
    stride: 1
    pad: 1
  }
}
layer {
  name: "inception_3a/pool_proj"
  type: "Convolution"
  bottom: "inception_3a/pool"
  top: "inception_3a/pool_proj"
  param {
    lr_mult: 1
    decay_mult: 1
  }
  param {
    lr_mult: 2
    decay_mult: 0
  }
  convolution_param {
    num_output: 32
    kernel_size: 1
    weight_filler {
      type: "xavier"
      std: 0.1
    }
    bias_filler {
      type: "constant"
      value: 0.2
    }
  }
}
layer {
  name: "inception_3a/relu_pool_proj"
  type: "ReLU"
  bottom: "inception_3a/pool_proj"
  top: "inception_3a/pool_proj"
}
layer {
  name: "inception_3a/output"
  type: "Concat"
  bottom: "inception_3a/1x1"
  bottom: "inception_3a/3x3"
  bottom: "inception_3a/5x5"
  bottom: "inception_3a/pool_proj"
  top: "inception_3a/output"
}
layer {
  name: "inception_3b/1x1"
  type: "Convolution"
  bottom: "inception_3a/output"
  top: "inception_3b/1x1"
  param {
    lr_mult: 1
    decay_mult: 1
  }
  param {
    lr_mult: 2
    decay_mult: 0
  }
  convolution_param {
    num_output: 128
    kernel_size: 1
    weight_filler {
      type: "xavier"
      std: 0.03
    }
    bias_filler {
      type: "constant"
      value: 0.2
    }
  }
}
layer {
  name: "inception_3b/relu_1x1"
  type: "ReLU"
  bottom: "inception_3b/1x1"
  top: "inception_3b/1x1"
}
layer {
  name: "inception_3b/3x3_reduce"
  type: "Convolution"
  bottom: "inception_3a/output"
  top: "inception_3b/3x3_reduce"
  param {
    lr_mult: 1
    decay_mult: 1
  }
  param {
    lr_mult: 2
    decay_mult: 0
  }
  convolution_param {
    num_output: 128
    kernel_size: 1
    weight_filler {
      type: "xavier"
      std: 0.09
    }
    bias_filler {
      type: "constant"
      value: 0.2
    }
  }
}
layer {
  name: "inception_3b/relu_3x3_reduce"
  type: "ReLU"
  bottom: "inception_3b/3x3_reduce"
  top: "inception_3b/3x3_reduce"
}
layer {
  name: "inception_3b/3x3"
  type: "Convolution"
  bottom: "inception_3b/3x3_reduce"
  top: "inception_3b/3x3"
  param {
    lr_mult: 1
    decay_mult: 1
  }
  param {
    lr_mult: 2
    decay_mult: 0
  }
  convolution_param {
    num_output: 192
    pad: 1
    kernel_size: 3
    weight_filler {
      type: "xavier"
      std: 0.03
    }
    bias_filler {
      type: "constant"
      value: 0.2
    }
  }
}
layer {
  name: "inception_3b/relu_3x3"
  type: "ReLU"
  bottom: "inception_3b/3x3"
  top: "inception_3b/3x3"
}
layer {
  name: "inception_3b/5x5_reduce"
  type: "Convolution"
  bottom: "inception_3a/output"
  top: "inception_3b/5x5_reduce"
  param {
    lr_mult: 1
    decay_mult: 1
  }
  param {
    lr_mult: 2
    decay_mult: 0
  }
  convolution_param {
    num_output: 32
    kernel_size: 1
    weight_filler {
      type: "xavier"
      std: 0.2
    }
    bias_filler {
      type: "constant"
      value: 0.2
    }
  }
}
layer {
  name: "inception_3b/relu_5x5_reduce"
  type: "ReLU"
  bottom: "inception_3b/5x5_reduce"
  top: "inception_3b/5x5_reduce"
}
layer {
  name: "inception_3b/5x5"
  type: "Convolution"
  bottom: "inception_3b/5x5_reduce"
  top: "inception_3b/5x5"
  param {
    lr_mult: 1
    decay_mult: 1
  }
  param {
    lr_mult: 2
    decay_mult: 0
  }
  convolution_param {
    num_output: 96
    pad: 2
    kernel_size: 5
    weight_filler {
      type: "xavier"
      std: 0.03
    }
    bias_filler {
      type: "constant"
      value: 0.2
    }
  }
}
layer {
  name: "inception_3b/relu_5x5"
  type: "ReLU"
  bottom: "inception_3b/5x5"
  top: "inception_3b/5x5"
}
layer {
  name: "inception_3b/pool"
  type: "Pooling"
  bottom: "inception_3a/output"
  top: "inception_3b/pool"
  pooling_param {
    pool: MAX
    kernel_size: 3
    stride: 1
    pad: 1
  }
}
layer {
  name: "inception_3b/pool_proj"
  type: "Convolution"
  bottom: "inception_3b/pool"
  top: "inception_3b/pool_proj"
  param {
    lr_mult: 1
    decay_mult: 1
  }
  param {
    lr_mult: 2
    decay_mult: 0
  }
  convolution_param {
    num_output: 64
    kernel_size: 1
    weight_filler {
      type: "xavier"
      std: 0.1
    }
    bias_filler {
      type: "constant"
      value: 0.2
    }
  }
}
layer {
  name: "inception_3b/relu_pool_proj"
  type: "ReLU"
  bottom: "inception_3b/pool_proj"
  top: "inception_3b/pool_proj"
}
layer {
  name: "inception_3b/output"
  type: "Concat"
  bottom: "inception_3b/1x1"
  bottom: "inception_3b/3x3"
  bottom: "inception_3b/5x5"
  bottom: "inception_3b/pool_proj"
  top: "inception_3b/output"
}
layer {
  name: "pool3/3x3_s2"
  type: "Pooling"
  bottom: "inception_3b/output"
  top: "pool3/3x3_s2"
  pooling_param {
    pool: MAX
    kernel_size: 3
    stride: 2
  }
}
layer {
  name: "inception_4a/1x1"
  type: "Convolution"
  bottom: "pool3/3x3_s2"
  top: "inception_4a/1x1"
  param {
    lr_mult: 1
    decay_mult: 1
  }
  param {
    lr_mult: 2
    decay_mult: 0
  }
  convolution_param {
    num_output: 192
    kernel_size: 1
    weight_filler {
      type: "xavier"
      std: 0.03
    }
    bias_filler {
      type: "constant"
      value: 0.2
    }
  }
}
layer {
  name: "inception_4a/relu_1x1"
  type: "ReLU"
  bottom: "inception_4a/1x1"
  top: "inception_4a/1x1"
}
layer {
  name: "inception_4a/3x3_reduce"
  type: "Convolution"
  bottom: "pool3/3x3_s2"
  top: "inception_4a/3x3_reduce"
  param {
    lr_mult: 1
    decay_mult: 1
  }
  param {
    lr_mult: 2
    decay_mult: 0
  }
  convolution_param {
    num_output: 96
    kernel_size: 1
    weight_filler {
      type: "xavier"
      std: 0.09
    }
    bias_filler {
      type: "constant"
      value: 0.2
    }
  }
}
layer {
  name: "inception_4a/relu_3x3_reduce"
  type: "ReLU"
  bottom: "inception_4a/3x3_reduce"
  top: "inception_4a/3x3_reduce"
}
layer {
  name: "inception_4a/3x3"
  type: "Convolution"
  bottom: "inception_4a/3x3_reduce"
  top: "inception_4a/3x3"
  param {
    lr_mult: 1
    decay_mult: 1
  }
  param {
    lr_mult: 2
    decay_mult: 0
  }
  convolution_param {
    num_output: 208
    pad: 1
    kernel_size: 3
    weight_filler {
      type: "xavier"
      std: 0.03
    }
    bias_filler {
      type: "constant"
      value: 0.2
    }
  }
}
layer {
  name: "inception_4a/relu_3x3"
  type: "ReLU"
  bottom: "inception_4a/3x3"
  top: "inception_4a/3x3"
}
layer {
  name: "inception_4a/5x5_reduce"
  type: "Convolution"
  bottom: "pool3/3x3_s2"
  top: "inception_4a/5x5_reduce"
  param {
    lr_mult: 1
    decay_mult: 1
  }
  param {
    lr_mult: 2
    decay_mult: 0
  }
  convolution_param {
    num_output: 16
    kernel_size: 1
    weight_filler {
      type: "xavier"
      std: 0.2
    }
    bias_filler {
      type: "constant"
      value: 0.2
    }
  }
}
layer {
  name: "inception_4a/relu_5x5_reduce"
  type: "ReLU"
  bottom: "inception_4a/5x5_reduce"
  top: "inception_4a/5x5_reduce"
}
layer {
  name: "inception_4a/5x5"
  type: "Convolution"
  bottom: "inception_4a/5x5_reduce"
  top: "inception_4a/5x5"
  param {
    lr_mult: 1
    decay_mult: 1
  }
  param {
    lr_mult: 2
    decay_mult: 0
  }
  convolution_param {
    num_output: 48
    pad: 2
    kernel_size: 5
    weight_filler {
      type: "xavier"
      std: 0.03
    }
    bias_filler {
      type: "constant"
      value: 0.2
    }
  }
}
layer {
  name: "inception_4a/relu_5x5"
  type: "ReLU"
  bottom: "inception_4a/5x5"
  top: "inception_4a/5x5"
}
layer {
  name: "inception_4a/pool"
  type: "Pooling"
  bottom: "pool3/3x3_s2"
  top: "inception_4a/pool"
  pooling_param {
    pool: MAX
    kernel_size: 3
    stride: 1
    pad: 1
  }
}
layer {
  name: "inception_4a/pool_proj"
  type: "Convolution"
  bottom: "inception_4a/pool"
  top: "inception_4a/pool_proj"
  param {
    lr_mult: 1
    decay_mult: 1
  }
  param {
    lr_mult: 2
    decay_mult: 0
  }
  convolution_param {
    num_output: 64
    kernel_size: 1
    weight_filler {
      type: "xavier"
      std: 0.1
    }
    bias_filler {
      type: "constant"
      value: 0.2
    }
  }
}
layer {
  name: "inception_4a/relu_pool_proj"
  type: "ReLU"
  bottom: "inception_4a/pool_proj"
  top: "inception_4a/pool_proj"
}
layer {
  name: "inception_4a/output"
  type: "Concat"
  bottom: "inception_4a/1x1"
  bottom: "inception_4a/3x3"
  bottom: "inception_4a/5x5"
  bottom: "inception_4a/pool_proj"
  top: "inception_4a/output"
}
layer {
  name: "loss1/ave_pool"
  type: "Pooling"
  bottom: "inception_4a/output"
  top: "loss1/ave_pool"
  pooling_param {
    pool: AVE
    kernel_size: 5
    stride: 3
  }
}
layer {
  name: "loss1/conv"
  type: "Convolution"
  bottom: "loss1/ave_pool"
  top: "loss1/conv"
  param {
    lr_mult: 1
    decay_mult: 1
  }
  param {
    lr_mult: 2
    decay_mult: 0
  }
  convolution_param {
    num_output: 128
    kernel_size: 1
    weight_filler {
      type: "xavier"
      std: 0.08
    }
    bias_filler {
      type: "constant"
      value: 0.2
    }
  }
}
layer {
  name: "loss1/relu_conv"
  type: "ReLU"
  bottom: "loss1/conv"
  top: "loss1/conv"
}
layer {
  name: "loss1/fc"
  type: "InnerProduct"
  bottom: "loss1/conv"
  top: "loss1/fc"
  param {
    lr_mult: 1
    decay_mult: 1
  }
  param {
    lr_mult: 2
    decay_mult: 0
  }
  inner_product_param {
    num_output: 1024
    weight_filler {
      type: "xavier"
      std: 0.02
    }
    bias_filler {
      type: "constant"
      value: 0.2
    }
  }
}
layer {
  name: "loss1/relu_fc"
  type: "ReLU"
  bottom: "loss1/fc"
  top: "loss1/fc"
}
layer {
  name: "loss1/drop_fc"
  type: "Dropout"
  bottom: "loss1/fc"
  top: "loss1/fc"
  dropout_param {
    dropout_ratio: 0.2
  }
}
layer {
  name: "stanford_cars_loss1/classifier"
  type: "InnerProduct"
  bottom: "loss1/fc"
  top: "stanford_cars_loss1/classifier"
  param {
    lr_mult: 1
    decay_mult: 1
  }
  param {
    lr_mult: 2
    decay_mult: 0
  }
  inner_product_param {
    num_output: 196
    weight_filler {
      type: "xavier"
      std: 0.0009765625
    }
    bias_filler {
      type: "constant"
      value: 0
    }
  }
}
layer {
  name: "loss1/loss"
  type: "SoftmaxWithLoss"
  bottom: "stanford_cars_loss1/classifier"
  bottom: "label"
  top: "loss1/loss1"
  loss_weight: 0.3
}
layer {
  name: "inception_4b/1x1"
  type: "Convolution"
  bottom: "inception_4a/output"
  top: "inception_4b/1x1"
  param {
    lr_mult: 1
    decay_mult: 1
  }
  param {
    lr_mult: 2
    decay_mult: 0
  }
  convolution_param {
    num_output: 160
    kernel_size: 1
    weight_filler {
      type: "xavier"
      std: 0.03
    }
    bias_filler {
      type: "constant"
      value: 0.2
    }
  }
}
layer {
  name: "inception_4b/relu_1x1"
  type: "ReLU"
  bottom: "inception_4b/1x1"
  top: "inception_4b/1x1"
}
layer {
  name: "inception_4b/3x3_reduce"
  type: "Convolution"
  bottom: "inception_4a/output"
  top: "inception_4b/3x3_reduce"
  param {
    lr_mult: 1
    decay_mult: 1
  }
  param {
    lr_mult: 2
    decay_mult: 0
  }
  convolution_param {
    num_output: 112
    kernel_size: 1
    weight_filler {
      type: "xavier"
      std: 0.09
    }
    bias_filler {
      type: "constant"
      value: 0.2
    }
  }
}
layer {
  name: "inception_4b/relu_3x3_reduce"
  type: "ReLU"
  bottom: "inception_4b/3x3_reduce"
  top: "inception_4b/3x3_reduce"
}
layer {
  name: "inception_4b/3x3"
  type: "Convolution"
  bottom: "inception_4b/3x3_reduce"
  top: "inception_4b/3x3"
  param {
    lr_mult: 1
    decay_mult: 1
  }
  param {
    lr_mult: 2
    decay_mult: 0
  }
  convolution_param {
    num_output: 224
    pad: 1
    kernel_size: 3
    weight_filler {
      type: "xavier"
      std: 0.03
    }
    bias_filler {
      type: "constant"
      value: 0.2
    }
  }
}
layer {
  name: "inception_4b/relu_3x3"
  type: "ReLU"
  bottom: "inception_4b/3x3"
  top: "inception_4b/3x3"
}
layer {
  name: "inception_4b/5x5_reduce"
  type: "Convolution"
  bottom: "inception_4a/output"
  top: "inception_4b/5x5_reduce"
  param {
    lr_mult: 1
    decay_mult: 1
  }
  param {
    lr_mult: 2
    decay_mult: 0
  }
  convolution_param {
    num_output: 24
    kernel_size: 1
    weight_filler {
      type: "xavier"
      std: 0.2
    }
    bias_filler {
      type: "constant"
      value: 0.2
    }
  }
}
layer {
  name: "inception_4b/relu_5x5_reduce"
  type: "ReLU"
  bottom: "inception_4b/5x5_reduce"
  top: "inception_4b/5x5_reduce"
}
layer {
  name: "inception_4b/5x5"
  type: "Convolution"
  bottom: "inception_4b/5x5_reduce"
  top: "inception_4b/5x5"
  param {
    lr_mult: 1
    decay_mult: 1
  }
  param {
    lr_mult: 2
    decay_mult: 0
  }
  convolution_param {
    num_output: 64
    pad: 2
    kernel_size: 5
    weight_filler {
      type: "xavier"
      std: 0.03
    }
    bias_filler {
      type: "constant"
      value: 0.2
    }
  }
}
layer {
  name: "inception_4b/relu_5x5"
  type: "ReLU"
  bottom: "inception_4b/5x5"
  top: "inception_4b/5x5"
}
layer {
  name: "inception_4b/pool"
  type: "Pooling"
  bottom: "inception_4a/output"
  top: "inception_4b/pool"
  pooling_param {
    pool: MAX
    kernel_size: 3
    stride: 1
    pad: 1
  }
}
layer {
  name: "inception_4b/pool_proj"
  type: "Convolution"
  bottom: "inception_4b/pool"
  top: "inception_4b/pool_proj"
  param {
    lr_mult: 1
    decay_mult: 1
  }
  param {
    lr_mult: 2
    decay_mult: 0
  }
  convolution_param {
    num_output: 64
    kernel_size: 1
    weight_filler {
      type: "xavier"
      std: 0.1
    }
    bias_filler {
      type: "constant"
      value: 0.2
    }
  }
}
layer {
  name: "inception_4b/relu_pool_proj"
  type: "ReLU"
  bottom: "inception_4b/pool_proj"
  top: "inception_4b/pool_proj"
}
layer {
  name: "inception_4b/output"
  type: "Concat"
  bottom: "inception_4b/1x1"
  bottom: "inception_4b/3x3"
  bottom: "inception_4b/5x5"
  bottom: "inception_4b/pool_proj"
  top: "inception_4b/output"
}
layer {
  name: "inception_4c/1x1"
  type: "Convolution"
  bottom: "inception_4b/output"
  top: "inception_4c/1x1"
  param {
    lr_mult: 1
    decay_mult: 1
  }
  param {
    lr_mult: 2
    decay_mult: 0
  }
  convolution_param {
    num_output: 128
    kernel_size: 1
    weight_filler {
      type: "xavier"
      std: 0.03
    }
    bias_filler {
      type: "constant"
      value: 0.2
    }
  }
}
layer {
  name: "inception_4c/relu_1x1"
  type: "ReLU"
  bottom: "inception_4c/1x1"
  top: "inception_4c/1x1"
}
layer {
  name: "inception_4c/3x3_reduce"
  type: "Convolution"
  bottom: "inception_4b/output"
  top: "inception_4c/3x3_reduce"
  param {
    lr_mult: 1
    decay_mult: 1
  }
  param {
    lr_mult: 2
    decay_mult: 0
  }
  convolution_param {
    num_output: 128
    kernel_size: 1
    weight_filler {
      type: "xavier"
      std: 0.09
    }
    bias_filler {
      type: "constant"
      value: 0.2
    }
  }
}
layer {
  name: "inception_4c/relu_3x3_reduce"
  type: "ReLU"
  bottom: "inception_4c/3x3_reduce"
  top: "inception_4c/3x3_reduce"
}
layer {
  name: "inception_4c/3x3"
  type: "Convolution"
  bottom: "inception_4c/3x3_reduce"
  top: "inception_4c/3x3"
  param {
    lr_mult: 1
    decay_mult: 1
  }
  param {
    lr_mult: 2
    decay_mult: 0
  }
  convolution_param {
    num_output: 256
    pad: 1
    kernel_size: 3
    weight_filler {
      type: "xavier"
      std: 0.03
    }
    bias_filler {
      type: "constant"
      value: 0.2
    }
  }
}
layer {
  name: "inception_4c/relu_3x3"
  type: "ReLU"
  bottom: "inception_4c/3x3"
  top: "inception_4c/3x3"
}
layer {
  name: "inception_4c/5x5_reduce"
  type: "Convolution"
  bottom: "inception_4b/output"
  top: "inception_4c/5x5_reduce"
  param {
    lr_mult: 1
    decay_mult: 1
  }
  param {
    lr_mult: 2
    decay_mult: 0
  }
  convolution_param {
    num_output: 24
    kernel_size: 1
    weight_filler {
      type: "xavier"
      std: 0.2
    }
    bias_filler {
      type: "constant"
      value: 0.2
    }
  }
}
layer {
  name: "inception_4c/relu_5x5_reduce"
  type: "ReLU"
  bottom: "inception_4c/5x5_reduce"
  top: "inception_4c/5x5_reduce"
}
layer {
  name: "inception_4c/5x5"
  type: "Convolution"
  bottom: "inception_4c/5x5_reduce"
  top: "inception_4c/5x5"
  param {
    lr_mult: 1
    decay_mult: 1
  }
  param {
    lr_mult: 2
    decay_mult: 0
  }
  convolution_param {
    num_output: 64
    pad: 2
    kernel_size: 5
    weight_filler {
      type: "xavier"
      std: 0.03
    }
    bias_filler {
      type: "constant"
      value: 0.2
    }
  }
}
layer {
  name: "inception_4c/relu_5x5"
  type: "ReLU"
  bottom: "inception_4c/5x5"
  top: "inception_4c/5x5"
}
layer {
  name: "inception_4c/pool"
  type: "Pooling"
  bottom: "inception_4b/output"
  top: "inception_4c/pool"
  pooling_param {
    pool: MAX
    kernel_size: 3
    stride: 1
    pad: 1
  }
}
layer {
  name: "inception_4c/pool_proj"
  type: "Convolution"
  bottom: "inception_4c/pool"
  top: "inception_4c/pool_proj"
  param {
    lr_mult: 1
    decay_mult: 1
  }
  param {
    lr_mult: 2
    decay_mult: 0
  }
  convolution_param {
    num_output: 64
    kernel_size: 1
    weight_filler {
      type: "xavier"
      std: 0.1
    }
    bias_filler {
      type: "constant"
      value: 0.2
    }
  }
}
layer {
  name: "inception_4c/relu_pool_proj"
  type: "ReLU"
  bottom: "inception_4c/pool_proj"
  top: "inception_4c/pool_proj"
}
layer {
  name: "inception_4c/output"
  type: "Concat"
  bottom: "inception_4c/1x1"
  bottom: "inception_4c/3x3"
  bottom: "inception_4c/5x5"
  bottom: "inception_4c/pool_proj"
  top: "inception_4c/output"
}
layer {
  name: "inception_4d/1x1"
  type: "Convolution"
  bottom: "inception_4c/output"
  top: "inception_4d/1x1"
  param {
    lr_mult: 1
    decay_mult: 1
  }
  param {
    lr_mult: 2
    decay_mult: 0
  }
  convolution_param {
    num_output: 112
    kernel_size: 1
    weight_filler {
      type: "xavier"
      std: 0.03
    }
    bias_filler {
      type: "constant"
      value: 0.2
    }
  }
}
layer {
  name: "inception_4d/relu_1x1"
  type: "ReLU"
  bottom: "inception_4d/1x1"
  top: "inception_4d/1x1"
}
layer {
  name: "inception_4d/3x3_reduce"
  type: "Convolution"
  bottom: "inception_4c/output"
  top: "inception_4d/3x3_reduce"
  param {
    lr_mult: 1
    decay_mult: 1
  }
  param {
    lr_mult: 2
    decay_mult: 0
  }
  convolution_param {
    num_output: 144
    kernel_size: 1
    weight_filler {
      type: "xavier"
      std: 0.09
    }
    bias_filler {
      type: "constant"
      value: 0.2
    }
  }
}
layer {
  name: "inception_4d/relu_3x3_reduce"
  type: "ReLU"
  bottom: "inception_4d/3x3_reduce"
  top: "inception_4d/3x3_reduce"
}
layer {
  name: "inception_4d/3x3"
  type: "Convolution"
  bottom: "inception_4d/3x3_reduce"
  top: "inception_4d/3x3"
  param {
    lr_mult: 1
    decay_mult: 1
  }
  param {
    lr_mult: 2
    decay_mult: 0
  }
  convolution_param {
    num_output: 288
    pad: 1
    kernel_size: 3
    weight_filler {
      type: "xavier"
      std: 0.03
    }
    bias_filler {
      type: "constant"
      value: 0.2
    }
  }
}
layer {
  name: "inception_4d/relu_3x3"
  type: "ReLU"
  bottom: "inception_4d/3x3"
  top: "inception_4d/3x3"
}
layer {
  name: "inception_4d/5x5_reduce"
  type: "Convolution"
  bottom: "inception_4c/output"
  top: "inception_4d/5x5_reduce"
  param {
    lr_mult: 1
    decay_mult: 1
  }
  param {
    lr_mult: 2
    decay_mult: 0
  }
  convolution_param {
    num_output: 32
    kernel_size: 1
    weight_filler {
      type: "xavier"
      std: 0.2
    }
    bias_filler {
      type: "constant"
      value: 0.2
    }
  }
}
layer {
  name: "inception_4d/relu_5x5_reduce"
  type: "ReLU"
  bottom: "inception_4d/5x5_reduce"
  top: "inception_4d/5x5_reduce"
}
layer {
  name: "inception_4d/5x5"
  type: "Convolution"
  bottom: "inception_4d/5x5_reduce"
  top: "inception_4d/5x5"
  param {
    lr_mult: 1
    decay_mult: 1
  }
  param {
    lr_mult: 2
    decay_mult: 0
  }
  convolution_param {
    num_output: 64
    pad: 2
    kernel_size: 5
    weight_filler {
      type: "xavier"
      std: 0.03
    }
    bias_filler {
      type: "constant"
      value: 0.2
    }
  }
}
layer {
  name: "inception_4d/relu_5x5"
  type: "ReLU"
  bottom: "inception_4d/5x5"
  top: "inception_4d/5x5"
}
layer {
  name: "inception_4d/pool"
  type: "Pooling"
  bottom: "inception_4c/output"
  top: "inception_4d/pool"
  pooling_param {
    pool: MAX
    kernel_size: 3
    stride: 1
    pad: 1
  }
}
layer {
  name: "inception_4d/pool_proj"
  type: "Convolution"
  bottom: "inception_4d/pool"
  top: "inception_4d/pool_proj"
  param {
    lr_mult: 1
    decay_mult: 1
  }
  param {
    lr_mult: 2
    decay_mult: 0
  }
  convolution_param {
    num_output: 64
    kernel_size: 1
    weight_filler {
      type: "xavier"
      std: 0.1
    }
    bias_filler {
      type: "constant"
      value: 0.2
    }
  }
}
layer {
  name: "inception_4d/relu_pool_proj"
  type: "ReLU"
  bottom: "inception_4d/pool_proj"
  top: "inception_4d/pool_proj"
}
layer {
  name: "inception_4d/output"
  type: "Concat"
  bottom: "inception_4d/1x1"
  bottom: "inception_4d/3x3"
  bottom: "inception_4d/5x5"
  bottom: "inception_4d/pool_proj"
  top: "inception_4d/output"
}
layer {
  name: "loss2/ave_pool"
  type: "Pooling"
  bottom: "inception_4d/output"
  top: "loss2/ave_pool"
  pooling_param {
    pool: AVE
    kernel_size: 5
    stride: 3
  }
}
layer {
  name: "loss2/conv"
  type: "Convolution"
  bottom: "loss2/ave_pool"
  top: "loss2/conv"
  param {
    lr_mult: 1
    decay_mult: 1
  }
  param {
    lr_mult: 2
    decay_mult: 0
  }
  convolution_param {
    num_output: 128
    kernel_size: 1
    weight_filler {
      type: "xavier"
      std: 0.08
    }
    bias_filler {
      type: "constant"
      value: 0.2
    }
  }
}
layer {
  name: "loss2/relu_conv"
  type: "ReLU"
  bottom: "loss2/conv"
  top: "loss2/conv"
}
layer {
  name: "loss2/fc"
  type: "InnerProduct"
  bottom: "loss2/conv"
  top: "loss2/fc"
  param {
    lr_mult: 1
    decay_mult: 1
  }
  param {
    lr_mult: 2
    decay_mult: 0
  }
  inner_product_param {
    num_output: 1024
    weight_filler {
      type: "xavier"
      std: 0.02
    }
    bias_filler {
      type: "constant"
      value: 0.2
    }
  }
}
layer {
  name: "loss2/relu_fc"
  type: "ReLU"
  bottom: "loss2/fc"
  top: "loss2/fc"
}
layer {
  name: "loss2/drop_fc"
  type: "Dropout"
  bottom: "loss2/fc"
  top: "loss2/fc"
  dropout_param {
    dropout_ratio: 0.2
  }
}
layer {
  name: "stanford_cars_loss2/classifier"
  type: "InnerProduct"
  bottom: "loss2/fc"
  top: "stanford_cars_loss2/classifier"
  param {
    lr_mult: 1
    decay_mult: 1
  }
  param {
    lr_mult: 2
    decay_mult: 0
  }
  inner_product_param {
    num_output: 196
    weight_filler {
      type: "xavier"
      std: 0.0009765625
    }
    bias_filler {
      type: "constant"
      value: 0
    }
  }
}
layer {
  name: "stanford_cars_loss2/loss"
  type: "SoftmaxWithLoss"
  bottom: "stanford_cars_loss2/classifier"
  bottom: "label"
  top: "loss2/loss1"
  loss_weight: 0.3
}
layer {
  name: "inception_4e/1x1"
  type: "Convolution"
  bottom: "inception_4d/output"
  top: "inception_4e/1x1"
  param {
    lr_mult: 1
    decay_mult: 1
  }
  param {
    lr_mult: 2
    decay_mult: 0
  }
  convolution_param {
    num_output: 256
    kernel_size: 1
    weight_filler {
      type: "xavier"
      std: 0.03
    }
    bias_filler {
      type: "constant"
      value: 0.2
    }
  }
}
layer {
  name: "inception_4e/relu_1x1"
  type: "ReLU"
  bottom: "inception_4e/1x1"
  top: "inception_4e/1x1"
}
layer {
  name: "inception_4e/3x3_reduce"
  type: "Convolution"
  bottom: "inception_4d/output"
  top: "inception_4e/3x3_reduce"
  param {
    lr_mult: 1
    decay_mult: 1
  }
  param {
    lr_mult: 2
    decay_mult: 0
  }
  convolution_param {
    num_output: 160
    kernel_size: 1
    weight_filler {
      type: "xavier"
      std: 0.09
    }
    bias_filler {
      type: "constant"
      value: 0.2
    }
  }
}
layer {
  name: "inception_4e/relu_3x3_reduce"
  type: "ReLU"
  bottom: "inception_4e/3x3_reduce"
  top: "inception_4e/3x3_reduce"
}
layer {
  name: "inception_4e/3x3"
  type: "Convolution"
  bottom: "inception_4e/3x3_reduce"
  top: "inception_4e/3x3"
  param {
    lr_mult: 1
    decay_mult: 1
  }
  param {
    lr_mult: 2
    decay_mult: 0
  }
  convolution_param {
    num_output: 320
    pad: 1
    kernel_size: 3
    weight_filler {
      type: "xavier"
      std: 0.03
    }
    bias_filler {
      type: "constant"
      value: 0.2
    }
  }
}
layer {
  name: "inception_4e/relu_3x3"
  type: "ReLU"
  bottom: "inception_4e/3x3"
  top: "inception_4e/3x3"
}
layer {
  name: "inception_4e/5x5_reduce"
  type: "Convolution"
  bottom: "inception_4d/output"
  top: "inception_4e/5x5_reduce"
  param {
    lr_mult: 1
    decay_mult: 1
  }
  param {
    lr_mult: 2
    decay_mult: 0
  }
  convolution_param {
    num_output: 32
    kernel_size: 1
    weight_filler {
      type: "xavier"
      std: 0.2
    }
    
I0703 14:45:14.754962 30876 layer_factory.hpp:74] Creating layer data
I0703 14:45:14.754988 30876 net.cpp:90] Creating Layer data
I0703 14:45:14.755004 30876 net.cpp:368] data -> data
I0703 14:45:14.755033 30876 net.cpp:368] data -> label
I0703 14:45:14.755049 30876 net.cpp:120] Setting up data
I0703 14:45:14.755106 30876 db.cpp:34] Opened lmdb examples/stanford_cars/stanford_cars_train_lmdb
I0703 14:45:14.755264 30876 data_layer.cpp:67] output data size: 30,3,224,224
I0703 14:45:14.757552 30876 net.cpp:127] Top shape: 30 3 224 224 (4515840)
I0703 14:45:14.757580 30876 net.cpp:127] Top shape: 30 (30)
I0703 14:45:14.757591 30876 layer_factory.hpp:74] Creating layer label_data_1_split
I0703 14:45:14.757609 30876 net.cpp:90] Creating Layer label_data_1_split
I0703 14:45:14.757621 30876 net.cpp:410] label_data_1_split <- label
I0703 14:45:14.757638 30876 net.cpp:368] label_data_1_split -> label_data_1_split_0
I0703 14:45:14.757654 30876 net.cpp:368] label_data_1_split -> label_data_1_split_1
I0703 14:45:14.757668 30876 net.cpp:368] label_data_1_split -> label_data_1_split_2
I0703 14:45:14.757678 30876 net.cpp:120] Setting up label_data_1_split
I0703 14:45:14.757694 30876 net.cpp:127] Top shape: 30 (30)
I0703 14:45:14.757725 30876 net.cpp:127] Top shape: 30 (30)
I0703 14:45:14.757736 30876 net.cpp:127] Top shape: 30 (30)
I0703 14:45:14.757745 30876 layer_factory.hpp:74] Creating layer conv1/7x7_s2
I0703 14:45:14.757762 30876 net.cpp:90] Creating Layer conv1/7x7_s2
I0703 14:45:14.757771 30876 net.cpp:410] conv1/7x7_s2 <- data
I0703 14:45:14.757783 30876 net.cpp:368] conv1/7x7_s2 -> conv1/7x7_s2
I0703 14:45:14.757798 30876 net.cpp:120] Setting up conv1/7x7_s2
I0703 14:45:14.788105 30876 net.cpp:127] Top shape: 30 64 112 112 (24084480)
I0703 14:45:14.788143 30876 layer_factory.hpp:74] Creating layer conv1/relu_7x7
I0703 14:45:14.788159 30876 net.cpp:90] Creating Layer conv1/relu_7x7
I0703 14:45:14.788168 30876 net.cpp:410] conv1/relu_7x7 <- conv1/7x7_s2
I0703 14:45:14.788182 30876 net.cpp:357] conv1/relu_7x7 -> conv1/7x7_s2 (in-place)
I0703 14:45:14.788193 30876 net.cpp:120] Setting up conv1/relu_7x7
I0703 14:45:14.788249 30876 net.cpp:127] Top shape: 30 64 112 112 (24084480)
I0703 14:45:14.788260 30876 layer_factory.hpp:74] Creating layer pool1/3x3_s2
I0703 14:45:14.788276 30876 net.cpp:90] Creating Layer pool1/3x3_s2
I0703 14:45:14.788285 30876 net.cpp:410] pool1/3x3_s2 <- conv1/7x7_s2
I0703 14:45:14.788295 30876 net.cpp:368] pool1/3x3_s2 -> pool1/3x3_s2
I0703 14:45:14.788307 30876 net.cpp:120] Setting up pool1/3x3_s2
I0703 14:45:14.788436 30876 net.cpp:127] Top shape: 30 64 56 56 (6021120)
I0703 14:45:14.788449 30876 layer_factory.hpp:74] Creating layer pool1/norm1
I0703 14:45:14.788461 30876 net.cpp:90] Creating Layer pool1/norm1
I0703 14:45:14.788471 30876 net.cpp:410] pool1/norm1 <- pool1/3x3_s2
I0703 14:45:14.788481 30876 net.cpp:368] pool1/norm1 -> pool1/norm1
I0703 14:45:14.788494 30876 net.cpp:120] Setting up pool1/norm1
I0703 14:45:14.788508 30876 net.cpp:127] Top shape: 30 64 56 56 (6021120)
I0703 14:45:14.788518 30876 layer_factory.hpp:74] Creating layer conv2/3x3_reduce
I0703 14:45:14.788532 30876 net.cpp:90] Creating Layer conv2/3x3_reduce
I0703 14:45:14.788539 30876 net.cpp:410] conv2/3x3_reduce <- pool1/norm1
I0703 14:45:14.788550 30876 net.cpp:368] conv2/3x3_reduce -> conv2/3x3_reduce
I0703 14:45:14.788564 30876 net.cpp:120] Setting up conv2/3x3_reduce
I0703 14:45:14.788784 30876 net.cpp:127] Top shape: 30 64 56 56 (6021120)
I0703 14:45:14.788802 30876 layer_factory.hpp:74] Creating layer conv2/relu_3x3_reduce
I0703 14:45:14.788815 30876 net.cpp:90] Creating Layer conv2/relu_3x3_reduce
I0703 14:45:14.788823 30876 net.cpp:410] conv2/relu_3x3_reduce <- conv2/3x3_reduce
I0703 14:45:14.788835 30876 net.cpp:357] conv2/relu_3x3_reduce -> conv2/3x3_reduce (in-place)
I0703 14:45:14.788844 30876 net.cpp:120] Setting up conv2/relu_3x3_reduce
I0703 14:45:14.788895 30876 net.cpp:127] Top shape: 30 64 56 56 (6021120)
I0703 14:45:14.788905 30876 layer_factory.hpp:74] Creating layer conv2/3x3
I0703 14:45:14.788918 30876 net.cpp:90] Creating Layer conv2/3x3
I0703 14:45:14.788928 30876 net.cpp:410] conv2/3x3 <- conv2/3x3_reduce
I0703 14:45:14.788938 30876 net.cpp:368] conv2/3x3 -> conv2/3x3
I0703 14:45:14.788950 30876 net.cpp:120] Setting up conv2/3x3
I0703 14:45:14.789614 30876 net.cpp:127] Top shape: 30 192 56 56 (18063360)
I0703 14:45:14.789633 30876 layer_factory.hpp:74] Creating layer conv2/relu_3x3
I0703 14:45:14.789644 30876 net.cpp:90] Creating Layer conv2/relu_3x3
I0703 14:45:14.789654 30876 net.cpp:410] conv2/relu_3x3 <- conv2/3x3
I0703 14:45:14.789664 30876 net.cpp:357] conv2/relu_3x3 -> conv2/3x3 (in-place)
I0703 14:45:14.789674 30876 net.cpp:120] Setting up conv2/relu_3x3
I0703 14:45:14.789726 30876 net.cpp:127] Top shape: 30 192 56 56 (18063360)
I0703 14:45:14.789736 30876 layer_factory.hpp:74] Creating layer conv2/norm2
I0703 14:45:14.789746 30876 net.cpp:90] Creating Layer conv2/norm2
I0703 14:45:14.789754 30876 net.cpp:410] conv2/norm2 <- conv2/3x3
I0703 14:45:14.789764 30876 net.cpp:368] conv2/norm2 -> conv2/norm2
I0703 14:45:14.789775 30876 net.cpp:120] Setting up conv2/norm2
I0703 14:45:14.789788 30876 net.cpp:127] Top shape: 30 192 56 56 (18063360)
I0703 14:45:14.789795 30876 layer_factory.hpp:74] Creating layer pool2/3x3_s2
I0703 14:45:14.789825 30876 net.cpp:90] Creating Layer pool2/3x3_s2
I0703 14:45:14.789835 30876 net.cpp:410] pool2/3x3_s2 <- conv2/norm2
I0703 14:45:14.789845 30876 net.cpp:368] pool2/3x3_s2 -> pool2/3x3_s2
I0703 14:45:14.789856 30876 net.cpp:120] Setting up pool2/3x3_s2
I0703 14:45:14.789907 30876 net.cpp:127] Top shape: 30 192 28 28 (4515840)
I0703 14:45:14.789917 30876 layer_factory.hpp:74] Creating layer pool2/3x3_s2_pool2/3x3_s2_0_split
I0703 14:45:14.789927 30876 net.cpp:90] Creating Layer pool2/3x3_s2_pool2/3x3_s2_0_split
I0703 14:45:14.789937 30876 net.cpp:410] pool2/3x3_s2_pool2/3x3_s2_0_split <- pool2/3x3_s2
I0703 14:45:14.789947 30876 net.cpp:368] pool2/3x3_s2_pool2/3x3_s2_0_split -> pool2/3x3_s2_pool2/3x3_s2_0_split_0
I0703 14:45:14.789958 30876 net.cpp:368] pool2/3x3_s2_pool2/3x3_s2_0_split -> pool2/3x3_s2_pool2/3x3_s2_0_split_1
I0703 14:45:14.789969 30876 net.cpp:368] pool2/3x3_s2_pool2/3x3_s2_0_split -> pool2/3x3_s2_pool2/3x3_s2_0_split_2
I0703 14:45:14.789980 30876 net.cpp:368] pool2/3x3_s2_pool2/3x3_s2_0_split -> pool2/3x3_s2_pool2/3x3_s2_0_split_3
I0703 14:45:14.789990 30876 net.cpp:120] Setting up pool2/3x3_s2_pool2/3x3_s2_0_split
I0703 14:45:14.790001 30876 net.cpp:127] Top shape: 30 192 28 28 (4515840)
I0703 14:45:14.790011 30876 net.cpp:127] Top shape: 30 192 28 28 (4515840)
I0703 14:45:14.790019 30876 net.cpp:127] Top shape: 30 192 28 28 (4515840)
I0703 14:45:14.790029 30876 net.cpp:127] Top shape: 30 192 28 28 (4515840)
I0703 14:45:14.790035 30876 layer_factory.hpp:74] Creating layer inception_3a/1x1
I0703 14:45:14.790047 30876 net.cpp:90] Creating Layer inception_3a/1x1
I0703 14:45:14.790055 30876 net.cpp:410] inception_3a/1x1 <- pool2/3x3_s2_pool2/3x3_s2_0_split_0
I0703 14:45:14.790066 30876 net.cpp:368] inception_3a/1x1 -> inception_3a/1x1
I0703 14:45:14.790077 30876 net.cpp:120] Setting up inception_3a/1x1
I0703 14:45:14.790333 30876 net.cpp:127] Top shape: 30 64 28 28 (1505280)
I0703 14:45:14.790349 30876 layer_factory.hpp:74] Creating layer inception_3a/relu_1x1
I0703 14:45:14.790359 30876 net.cpp:90] Creating Layer inception_3a/relu_1x1
I0703 14:45:14.790369 30876 net.cpp:410] inception_3a/relu_1x1 <- inception_3a/1x1
I0703 14:45:14.790380 30876 net.cpp:357] inception_3a/relu_1x1 -> inception_3a/1x1 (in-place)
I0703 14:45:14.790390 30876 net.cpp:120] Setting up inception_3a/relu_1x1
I0703 14:45:14.790500 30876 net.cpp:127] Top shape: 30 64 28 28 (1505280)
I0703 14:45:14.790513 30876 layer_factory.hpp:74] Creating layer inception_3a/3x3_reduce
I0703 14:45:14.790524 30876 net.cpp:90] Creating Layer inception_3a/3x3_reduce
I0703 14:45:14.790534 30876 net.cpp:410] inception_3a/3x3_reduce <- pool2/3x3_s2_pool2/3x3_s2_0_split_1
I0703 14:45:14.790544 30876 net.cpp:368] inception_3a/3x3_reduce -> inception_3a/3x3_reduce
I0703 14:45:14.790557 30876 net.cpp:120] Setting up inception_3a/3x3_reduce
I0703 14:45:14.790830 30876 net.cpp:127] Top shape: 30 96 28 28 (2257920)
I0703 14:45:14.790848 30876 layer_factory.hpp:74] Creating layer inception_3a/relu_3x3_reduce
I0703 14:45:14.790860 30876 net.cpp:90] Creating Layer inception_3a/relu_3x3_reduce
I0703 14:45:14.790869 30876 net.cpp:410] inception_3a/relu_3x3_reduce <- inception_3a/3x3_reduce
I0703 14:45:14.790879 30876 net.cpp:357] inception_3a/relu_3x3_reduce -> inception_3a/3x3_reduce (in-place)
I0703 14:45:14.790890 30876 net.cpp:120] Setting up inception_3a/relu_3x3_reduce
I0703 14:45:14.790942 30876 net.cpp:127] Top shape: 30 96 28 28 (2257920)
I0703 14:45:14.790952 30876 layer_factory.hpp:74] Creating layer inception_3a/3x3
I0703 14:45:14.790963 30876 net.cpp:90] Creating Layer inception_3a/3x3
I0703 14:45:14.790972 30876 net.cpp:410] inception_3a/3x3 <- inception_3a/3x3_reduce
I0703 14:45:14.790983 30876 net.cpp:368] inception_3a/3x3 -> inception_3a/3x3
I0703 14:45:14.790995 30876 net.cpp:120] Setting up inception_3a/3x3
I0703 14:45:14.791695 30876 net.cpp:127] Top shape: 30 128 28 28 (3010560)
I0703 14:45:14.791712 30876 layer_factory.hpp:74] Creating layer inception_3a/relu_3x3
I0703 14:45:14.791723 30876 net.cpp:90] Creating Layer inception_3a/relu_3x3
I0703 14:45:14.791741 30876 net.cpp:410] inception_3a/relu_3x3 <- inception_3a/3x3
I0703 14:45:14.791754 30876 net.cpp:357] inception_3a/relu_3x3 -> inception_3a/3x3 (in-place)
I0703 14:45:14.791765 30876 net.cpp:120] Setting up inception_3a/relu_3x3
I0703 14:45:14.791817 30876 net.cpp:127] Top shape: 30 128 28 28 (3010560)
I0703 14:45:14.791827 30876 layer_factory.hpp:74] Creating layer inception_3a/5x5_reduce
I0703 14:45:14.791841 30876 net.cpp:90] Creating Layer inception_3a/5x5_reduce
I0703 14:45:14.791851 30876 net.cpp:410] inception_3a/5x5_reduce <- pool2/3x3_s2_pool2/3x3_s2_0_split_2
I0703 14:45:14.791862 30876 net.cpp:368] inception_3a/5x5_reduce -> inception_3a/5x5_reduce
I0703 14:45:14.791874 30876 net.cpp:120] Setting up inception_3a/5x5_reduce
I0703 14:45:14.792109 30876 net.cpp:127] Top shape: 30 16 28 28 (376320)
I0703 14:45:14.792124 30876 layer_factory.hpp:74] Creating layer inception_3a/relu_5x5_reduce
I0703 14:45:14.792136 30876 net.cpp:90] Creating Layer inception_3a/relu_5x5_reduce
I0703 14:45:14.792145 30876 net.cpp:410] inception_3a/relu_5x5_reduce <- inception_3a/5x5_reduce
I0703 14:45:14.792156 30876 net.cpp:357] inception_3a/relu_5x5_reduce -> inception_3a/5x5_reduce (in-place)
I0703 14:45:14.792166 30876 net.cpp:120] Setting up inception_3a/relu_5x5_reduce
I0703 14:45:14.792294 30876 net.cpp:127] Top shape: 30 16 28 28 (376320)
I0703 14:45:14.792306 30876 layer_factory.hpp:74] Creating layer inception_3a/5x5
I0703 14:45:14.792320 30876 net.cpp:90] Creating Layer inception_3a/5x5
I0703 14:45:14.792328 30876 net.cpp:410] inception_3a/5x5 <- inception_3a/5x5_reduce
I0703 14:45:14.792340 30876 net.cpp:368] inception_3a/5x5 -> inception_3a/5x5
I0703 14:45:14.792351 30876 net.cpp:120] Setting up inception_3a/5x5
I0703 14:45:14.792628 30876 net.cpp:127] Top shape: 30 32 28 28 (752640)
I0703 14:45:14.792642 30876 layer_factory.hpp:74] Creating layer inception_3a/relu_5x5
I0703 14:45:14.792656 30876 net.cpp:90] Creating Layer inception_3a/relu_5x5
I0703 14:45:14.792666 30876 net.cpp:410] inception_3a/relu_5x5 <- inception_3a/5x5
I0703 14:45:14.792677 30876 net.cpp:357] inception_3a/relu_5x5 -> inception_3a/5x5 (in-place)
I0703 14:45:14.792687 30876 net.cpp:120] Setting up inception_3a/relu_5x5
I0703 14:45:14.792742 30876 net.cpp:127] Top shape: 30 32 28 28 (752640)
I0703 14:45:14.792752 30876 layer_factory.hpp:74] Creating layer inception_3a/pool
I0703 14:45:14.792760 30876 layer_factory.cpp:55] CUDNN does not support padding or multiple tops. Using Caffe's own pooling layer.
I0703 14:45:14.792773 30876 net.cpp:90] Creating Layer inception_3a/pool
I0703 14:45:14.792780 30876 net.cpp:410] inception_3a/pool <- pool2/3x3_s2_pool2/3x3_s2_0_split_3
I0703 14:45:14.792790 30876 net.cpp:368] inception_3a/pool -> inception_3a/pool
I0703 14:45:14.792801 30876 net.cpp:120] Setting up inception_3a/pool
I0703 14:45:14.792814 30876 net.cpp:127] Top shape: 30 192 28 28 (4515840)
I0703 14:45:14.792822 30876 layer_factory.hpp:74] Creating layer inception_3a/pool_proj
I0703 14:45:14.792835 30876 net.cpp:90] Creating Layer inception_3a/pool_proj
I0703 14:45:14.792845 30876 net.cpp:410] inception_3a/pool_proj <- inception_3a/pool
I0703 14:45:14.792856 30876 net.cpp:368] inception_3a/pool_proj -> inception_3a/pool_proj
I0703 14:45:14.792868 30876 net.cpp:120] Setting up inception_3a/pool_proj
I0703 14:45:14.793118 30876 net.cpp:127] Top shape: 30 32 28 28 (752640)
I0703 14:45:14.793136 30876 layer_factory.hpp:74] Creating layer inception_3a/relu_pool_proj
I0703 14:45:14.793149 30876 net.cpp:90] Creating Layer inception_3a/relu_pool_proj
I0703 14:45:14.793159 30876 net.cpp:410] inception_3a/relu_pool_proj <- inception_3a/pool_proj
I0703 14:45:14.793169 30876 net.cpp:357] inception_3a/relu_pool_proj -> inception_3a/pool_proj (in-place)
I0703 14:45:14.793179 30876 net.cpp:120] Setting up inception_3a/relu_pool_proj
I0703 14:45:14.793234 30876 net.cpp:127] Top shape: 30 32 28 28 (752640)
I0703 14:45:14.793244 30876 layer_factory.hpp:74] Creating layer inception_3a/output
I0703 14:45:14.793257 30876 net.cpp:90] Creating Layer inception_3a/output
I0703 14:45:14.793274 30876 net.cpp:410] inception_3a/output <- inception_3a/1x1
I0703 14:45:14.793284 30876 net.cpp:410] inception_3a/output <- inception_3a/3x3
I0703 14:45:14.793295 30876 net.cpp:410] inception_3a/output <- inception_3a/5x5
I0703 14:45:14.793304 30876 net.cpp:410] inception_3a/output <- inception_3a/pool_proj
I0703 14:45:14.793314 30876 net.cpp:368] inception_3a/output -> inception_3a/output
I0703 14:45:14.793325 30876 net.cpp:120] Setting up inception_3a/output
I0703 14:45:14.793340 30876 net.cpp:127] Top shape: 30 256 28 28 (6021120)
I0703 14:45:14.793349 30876 layer_factory.hpp:74] Creating layer inception_3a/output_inception_3a/output_0_split
I0703 14:45:14.793359 30876 net.cpp:90] Creating Layer inception_3a/output_inception_3a/output_0_split
I0703 14:45:14.793367 30876 net.cpp:410] inception_3a/output_inception_3a/output_0_split <- inception_3a/output
I0703 14:45:14.793377 30876 net.cpp:368] inception_3a/output_inception_3a/output_0_split -> inception_3a/output_inception_3a/output_0_split_0
I0703 14:45:14.793390 30876 net.cpp:368] inception_3a/output_inception_3a/output_0_split -> inception_3a/output_inception_3a/output_0_split_1
I0703 14:45:14.793403 30876 net.cpp:368] inception_3a/output_inception_3a/output_0_split -> inception_3a/output_inception_3a/output_0_split_2
I0703 14:45:14.793416 30876 net.cpp:368] inception_3a/output_inception_3a/output_0_split -> inception_3a/output_inception_3a/output_0_split_3
I0703 14:45:14.793426 30876 net.cpp:120] Setting up inception_3a/output_inception_3a/output_0_split
I0703 14:45:14.793437 30876 net.cpp:127] Top shape: 30 256 28 28 (6021120)
I0703 14:45:14.793447 30876 net.cpp:127] Top shape: 30 256 28 28 (6021120)
I0703 14:45:14.793455 30876 net.cpp:127] Top shape: 30 256 28 28 (6021120)
I0703 14:45:14.793463 30876 net.cpp:127] Top shape: 30 256 28 28 (6021120)
I0703 14:45:14.793470 30876 layer_factory.hpp:74] Creating layer inception_3b/1x1
I0703 14:45:14.793483 30876 net.cpp:90] Creating Layer inception_3b/1x1
I0703 14:45:14.793491 30876 net.cpp:410] inception_3b/1x1 <- inception_3a/output_inception_3a/output_0_split_0
I0703 14:45:14.793503 30876 net.cpp:368] inception_3b/1x1 -> inception_3b/1x1
I0703 14:45:14.793514 30876 net.cpp:120] Setting up inception_3b/1x1
I0703 14:45:14.793900 30876 net.cpp:127] Top shape: 30 128 28 28 (3010560)
I0703 14:45:14.793917 30876 layer_factory.hpp:74] Creating layer inception_3b/relu_1x1
I0703 14:45:14.793928 30876 net.cpp:90] Creating Layer inception_3b/relu_1x1
I0703 14:45:14.793937 30876 net.cpp:410] inception_3b/relu_1x1 <- inception_3b/1x1
I0703 14:45:14.793949 30876 net.cpp:357] inception_3b/relu_1x1 -> inception_3b/1x1 (in-place)
I0703 14:45:14.793961 30876 net.cpp:120] Setting up inception_3b/relu_1x1
I0703 14:45:14.794013 30876 net.cpp:127] Top shape: 30 128 28 28 (3010560)
I0703 14:45:14.794024 30876 layer_factory.hpp:74] Creating layer inception_3b/3x3_reduce
I0703 14:45:14.794036 30876 net.cpp:90] Creating Layer inception_3b/3x3_reduce
I0703 14:45:14.794046 30876 net.cpp:410] inception_3b/3x3_reduce <- inception_3a/output_inception_3a/output_0_split_1
I0703 14:45:14.794059 30876 net.cpp:368] inception_3b/3x3_reduce -> inception_3b/3x3_reduce
I0703 14:45:14.794071 30876 net.cpp:120] Setting up inception_3b/3x3_reduce
I0703 14:45:14.794445 30876 net.cpp:127] Top shape: 30 128 28 28 (3010560)
I0703 14:45:14.794461 30876 layer_factory.hpp:74] Creating layer inception_3b/relu_3x3_reduce
I0703 14:45:14.794472 30876 net.cpp:90] Creating Layer inception_3b/relu_3x3_reduce
I0703 14:45:14.794481 30876 net.cpp:410] inception_3b/relu_3x3_reduce <- inception_3b/3x3_reduce
I0703 14:45:14.794492 30876 net.cpp:357] inception_3b/relu_3x3_reduce -> inception_3b/3x3_reduce (in-place)
I0703 14:45:14.794502 30876 net.cpp:120] Setting up inception_3b/relu_3x3_reduce
I0703 14:45:14.794631 30876 net.cpp:127] Top shape: 30 128 28 28 (3010560)
I0703 14:45:14.794643 30876 layer_factory.hpp:74] Creating layer inception_3b/3x3
I0703 14:45:14.794659 30876 net.cpp:90] Creating Layer inception_3b/3x3
I0703 14:45:14.794678 30876 net.cpp:410] inception_3b/3x3 <- inception_3b/3x3_reduce
I0703 14:45:14.794693 30876 net.cpp:368] inception_3b/3x3 -> inception_3b/3x3
I0703 14:45:14.794706 30876 net.cpp:120] Setting up inception_3b/3x3
I0703 14:45:14.796005 30876 net.cpp:127] Top shape: 30 192 28 28 (4515840)
I0703 14:45:14.796021 30876 layer_factory.hpp:74] Creating layer inception_3b/relu_3x3
I0703 14:45:14.796032 30876 net.cpp:90] Creating Layer inception_3b/relu_3x3
I0703 14:45:14.796042 30876 net.cpp:410] inception_3b/relu_3x3 <- inception_3b/3x3
I0703 14:45:14.796053 30876 net.cpp:357] inception_3b/relu_3x3 -> inception_3b/3x3 (in-place)
I0703 14:45:14.796066 30876 net.cpp:120] Setting up inception_3b/relu_3x3
I0703 14:45:14.796121 30876 net.cpp:127] Top shape: 30 192 28 28 (4515840)
I0703 14:45:14.796131 30876 layer_factory.hpp:74] Creating layer inception_3b/5x5_reduce
I0703 14:45:14.796144 30876 net.cpp:90] Creating Layer inception_3b/5x5_reduce
I0703 14:45:14.796152 30876 net.cpp:410] inception_3b/5x5_reduce <- inception_3a/output_inception_3a/output_0_split_2
I0703 14:45:14.796164 30876 net.cpp:368] inception_3b/5x5_reduce -> inception_3b/5x5_reduce
I0703 14:45:14.796177 30876 net.cpp:120] Setting up inception_3b/5x5_reduce
I0703 14:45:14.796434 30876 net.cpp:127] Top shape: 30 32 28 28 (752640)
I0703 14:45:14.796449 30876 layer_factory.hpp:74] Creating layer inception_3b/relu_5x5_reduce
I0703 14:45:14.796461 30876 net.cpp:90] Creating Layer inception_3b/relu_5x5_reduce
I0703 14:45:14.796470 30876 net.cpp:410] inception_3b/relu_5x5_reduce <- inception_3b/5x5_reduce
I0703 14:45:14.796480 30876 net.cpp:357] inception_3b/relu_5x5_reduce -> inception_3b/5x5_reduce (in-place)
I0703 14:45:14.796491 30876 net.cpp:120] Setting up inception_3b/relu_5x5_reduce
I0703 14:45:14.796545 30876 net.cpp:127] Top shape: 30 32 28 28 (752640)
I0703 14:45:14.796555 30876 layer_factory.hpp:74] Creating layer inception_3b/5x5
I0703 14:45:14.796567 30876 net.cpp:90] Creating Layer inception_3b/5x5
I0703 14:45:14.796577 30876 net.cpp:410] inception_3b/5x5 <- inception_3b/5x5_reduce
I0703 14:45:14.796589 30876 net.cpp:368] inception_3b/5x5 -> inception_3b/5x5
I0703 14:45:14.796603 30876 net.cpp:120] Setting up inception_3b/5x5
I0703 14:45:14.797188 30876 net.cpp:127] Top shape: 30 96 28 28 (2257920)
I0703 14:45:14.797204 30876 layer_factory.hpp:74] Creating layer inception_3b/relu_5x5
I0703 14:45:14.797214 30876 net.cpp:90] Creating Layer inception_3b/relu_5x5
I0703 14:45:14.797224 30876 net.cpp:410] inception_3b/relu_5x5 <- inception_3b/5x5
I0703 14:45:14.797235 30876 net.cpp:357] inception_3b/relu_5x5 -> inception_3b/5x5 (in-place)
I0703 14:45:14.797246 30876 net.cpp:120] Setting up inception_3b/relu_5x5
I0703 14:45:14.797299 30876 net.cpp:127] Top shape: 30 96 28 28 (2257920)
I0703 14:45:14.797309 30876 layer_factory.hpp:74] Creating layer inception_3b/pool
I0703 14:45:14.797318 30876 layer_factory.cpp:55] CUDNN does not support padding or multiple tops. Using Caffe's own pooling layer.
I0703 14:45:14.797328 30876 net.cpp:90] Creating Layer inception_3b/pool
I0703 14:45:14.797336 30876 net.cpp:410] inception_3b/pool <- inception_3a/output_inception_3a/output_0_split_3
I0703 14:45:14.797348 30876 net.cpp:368] inception_3b/pool -> inception_3b/pool
I0703 14:45:14.797358 30876 net.cpp:120] Setting up inception_3b/pool
I0703 14:45:14.797371 30876 net.cpp:127] Top shape: 30 256 28 28 (6021120)
I0703 14:45:14.797379 30876 layer_factory.hpp:74] Creating layer inception_3b/pool_proj
I0703 14:45:14.797392 30876 net.cpp:90] Creating Layer inception_3b/pool_proj
I0703 14:45:14.797401 30876 net.cpp:410] inception_3b/pool_proj <- inception_3b/pool
I0703 14:45:14.797412 30876 net.cpp:368] inception_3b/pool_proj -> inception_3b/pool_proj
I0703 14:45:14.797423 30876 net.cpp:120] Setting up inception_3b/pool_proj
I0703 14:45:14.797720 30876 net.cpp:127] Top shape: 30 64 28 28 (1505280)
I0703 14:45:14.797735 30876 layer_factory.hpp:74] Creating layer inception_3b/relu_pool_proj
I0703 14:45:14.797746 30876 net.cpp:90] Creating Layer inception_3b/relu_pool_proj
I0703 14:45:14.797765 30876 net.cpp:410] inception_3b/relu_pool_proj <- inception_3b/pool_proj
I0703 14:45:14.797777 30876 net.cpp:357] inception_3b/relu_pool_proj -> inception_3b/pool_proj (in-place)
I0703 14:45:14.797790 30876 net.cpp:120] Setting up inception_3b/relu_pool_proj
I0703 14:45:14.797914 30876 net.cpp:127] Top shape: 30 64 28 28 (1505280)
I0703 14:45:14.797925 30876 layer_factory.hpp:74] Creating layer inception_3b/output
I0703 14:45:14.797937 30876 net.cpp:90] Creating Layer inception_3b/output
I0703 14:45:14.797946 30876 net.cpp:410] inception_3b/output <- inception_3b/1x1
I0703 14:45:14.797956 30876 net.cpp:410] inception_3b/output <- inception_3b/3x3
I0703 14:45:14.797966 30876 net.cpp:410] inception_3b/output <- inception_3b/5x5
I0703 14:45:14.797973 30876 net.cpp:410] inception_3b/output <- inception_3b/pool_proj
I0703 14:45:14.797983 30876 net.cpp:368] inception_3b/output -> inception_3b/output
I0703 14:45:14.797994 30876 net.cpp:120] Setting up inception_3b/output
I0703 14:45:14.798007 30876 net.cpp:127] Top shape: 30 480 28 28 (11289600)
I0703 14:45:14.798014 30876 layer_factory.hpp:74] Creating layer pool3/3x3_s2
I0703 14:45:14.798027 30876 net.cpp:90] Creating Layer pool3/3x3_s2
I0703 14:45:14.798035 30876 net.cpp:410] pool3/3x3_s2 <- inception_3b/output
I0703 14:45:14.798045 30876 net.cpp:368] pool3/3x3_s2 -> pool3/3x3_s2
I0703 14:45:14.798056 30876 net.cpp:120] Setting up pool3/3x3_s2
I0703 14:45:14.798111 30876 net.cpp:127] Top shape: 30 480 14 14 (2822400)
I0703 14:45:14.798121 30876 layer_factory.hpp:74] Creating layer pool3/3x3_s2_pool3/3x3_s2_0_split
I0703 14:45:14.798132 30876 net.cpp:90] Creating Layer pool3/3x3_s2_pool3/3x3_s2_0_split
I0703 14:45:14.798141 30876 net.cpp:410] pool3/3x3_s2_pool3/3x3_s2_0_split <- pool3/3x3_s2
I0703 14:45:14.798151 30876 net.cpp:368] pool3/3x3_s2_pool3/3x3_s2_0_split -> pool3/3x3_s2_pool3/3x3_s2_0_split_0
I0703 14:45:14.798163 30876 net.cpp:368] pool3/3x3_s2_pool3/3x3_s2_0_split -> pool3/3x3_s2_pool3/3x3_s2_0_split_1
I0703 14:45:14.798173 30876 net.cpp:368] pool3/3x3_s2_pool3/3x3_s2_0_split -> pool3/3x3_s2_pool3/3x3_s2_0_split_2
I0703 14:45:14.798187 30876 net.cpp:368] pool3/3x3_s2_pool3/3x3_s2_0_split -> pool3/3x3_s2_pool3/3x3_s2_0_split_3
I0703 14:45:14.798197 30876 net.cpp:120] Setting up pool3/3x3_s2_pool3/3x3_s2_0_split
I0703 14:45:14.798208 30876 net.cpp:127] Top shape: 30 480 14 14 (2822400)
I0703 14:45:14.798218 30876 net.cpp:127] Top shape: 30 480 14 14 (2822400)
I0703 14:45:14.798226 30876 net.cpp:127] Top shape: 30 480 14 14 (2822400)
I0703 14:45:14.798234 30876 net.cpp:127] Top shape: 30 480 14 14 (2822400)
I0703 14:45:14.798241 30876 layer_factory.hpp:74] Creating layer inception_4a/1x1
I0703 14:45:14.798254 30876 net.cpp:90] Creating Layer inception_4a/1x1
I0703 14:45:14.798262 30876 net.cpp:410] inception_4a/1x1 <- pool3/3x3_s2_pool3/3x3_s2_0_split_0
I0703 14:45:14.798272 30876 net.cpp:368] inception_4a/1x1 -> inception_4a/1x1
I0703 14:45:14.798284 30876 net.cpp:120] Setting up inception_4a/1x1
I0703 14:45:14.798949 30876 net.cpp:127] Top shape: 30 192 14 14 (1128960)
I0703 14:45:14.798964 30876 layer_factory.hpp:74] Creating layer inception_4a/relu_1x1
I0703 14:45:14.798975 30876 net.cpp:90] Creating Layer inception_4a/relu_1x1
I0703 14:45:14.798985 30876 net.cpp:410] inception_4a/relu_1x1 <- inception_4a/1x1
I0703 14:45:14.798996 30876 net.cpp:357] inception_4a/relu_1x1 -> inception_4a/1x1 (in-place)
I0703 14:45:14.799007 30876 net.cpp:120] Setting up inception_4a/relu_1x1
I0703 14:45:14.799062 30876 net.cpp:127] Top shape: 30 192 14 14 (1128960)
I0703 14:45:14.799072 30876 layer_factory.hpp:74] Creating layer inception_4a/3x3_reduce
I0703 14:45:14.799085 30876 net.cpp:90] Creating Layer inception_4a/3x3_reduce
I0703 14:45:14.799094 30876 net.cpp:410] inception_4a/3x3_reduce <- pool3/3x3_s2_pool3/3x3_s2_0_split_1
I0703 14:45:14.799108 30876 net.cpp:368] inception_4a/3x3_reduce -> inception_4a/3x3_reduce
I0703 14:45:14.799119 30876 net.cpp:120] Setting up inception_4a/3x3_reduce
I0703 14:45:14.799566 30876 net.cpp:127] Top shape: 30 96 14 14 (564480)
I0703 14:45:14.799592 30876 layer_factory.hpp:74] Creating layer inception_4a/relu_3x3_reduce
I0703 14:45:14.799607 30876 net.cpp:90] Creating Layer inception_4a/relu_3x3_reduce
I0703 14:45:14.799617 30876 net.cpp:410] inception_4a/relu_3x3_reduce <- inception_4a/3x3_reduce
I0703 14:45:14.799628 30876 net.cpp:357] inception_4a/relu_3x3_reduce -> inception_4a/3x3_reduce (in-place)
I0703 14:45:14.799638 30876 net.cpp:120] Setting up inception_4a/relu_3x3_reduce
I0703 14:45:14.799691 30876 net.cpp:127] Top shape: 30 96 14 14 (564480)
I0703 14:45:14.799701 30876 layer_factory.hpp:74] Creating layer inception_4a/3x3
I0703 14:45:14.799715 30876 net.cpp:90] Creating Layer inception_4a/3x3
I0703 14:45:14.799724 30876 net.cpp:410] inception_4a/3x3 <- inception_4a/3x3_reduce
I0703 14:45:14.799736 30876 net.cpp:368] inception_4a/3x3 -> inception_4a/3x3
I0703 14:45:14.799747 30876 net.cpp:120] Setting up inception_4a/3x3
I0703 14:45:14.800827 30876 net.cpp:127] Top shape: 30 208 14 14 (1223040)
I0703 14:45:14.800843 30876 layer_factory.hpp:74] Creating layer inception_4a/relu_3x3
I0703 14:45:14.800855 30876 net.cpp:90] Creating Layer inception_4a/relu_3x3
I0703 14:45:14.800864 30876 net.cpp:410] inception_4a/relu_3x3 <- inception_4a/3x3
I0703 14:45:14.800875 30876 net.cpp:357] inception_4a/relu_3x3 -> inception_4a/3x3 (in-place)
I0703 14:45:14.800886 30876 net.cpp:120] Setting up inception_4a/relu_3x3
I0703 14:45:14.801004 30876 net.cpp:127] Top shape: 30 208 14 14 (1223040)
I0703 14:45:14.801017 30876 layer_factory.hpp:74] Creating layer inception_4a/5x5_reduce
I0703 14:45:14.801029 30876 net.cpp:90] Creating Layer inception_4a/5x5_reduce
I0703 14:45:14.801039 30876 net.cpp:410] inception_4a/5x5_reduce <- pool3/3x3_s2_pool3/3x3_s2_0_split_2
I0703 14:45:14.801050 30876 net.cpp:368] inception_4a/5x5_reduce -> inception_4a/5x5_reduce
I0703 14:45:14.801062 30876 net.cpp:120] Setting up inception_4a/5x5_reduce
I0703 14:45:14.801311 30876 net.cpp:127] Top shape: 30 16 14 14 (94080)
I0703 14:45:14.801326 30876 layer_factory.hpp:74] Creating layer inception_4a/relu_5x5_reduce
I0703 14:45:14.801337 30876 net.cpp:90] Creating Layer inception_4a/relu_5x5_reduce
I0703 14:45:14.801347 30876 net.cpp:410] inception_4a/relu_5x5_reduce <- inception_4a/5x5_reduce
I0703 14:45:14.801358 30876 net.cpp:357] inception_4a/relu_5x5_reduce -> inception_4a/5x5_reduce (in-place)
I0703 14:45:14.801369 30876 net.cpp:120] Setting up inception_4a/relu_5x5_reduce
I0703 14:45:14.801426 30876 net.cpp:127] Top shape: 30 16 14 14 (94080)
I0703 14:45:14.801436 30876 layer_factory.hpp:74] Creating layer inception_4a/5x5
I0703 14:45:14.801447 30876 net.cpp:90] Creating Layer inception_4a/5x5
I0703 14:45:14.801456 30876 net.cpp:410] inception_4a/5x5 <- inception_4a/5x5_reduce
I0703 14:45:14.801470 30876 net.cpp:368] inception_4a/5x5 -> inception_4a/5x5
I0703 14:45:14.801481 30876 net.cpp:120] Setting up inception_4a/5x5
I0703 14:45:14.801785 30876 net.cpp:127] Top shape: 30 48 14 14 (282240)
I0703 14:45:14.801800 30876 layer_factory.hpp:74] Creating layer inception_4a/relu_5x5
I0703 14:45:14.801811 30876 net.cpp:90] Creating Layer inception_4a/relu_5x5
I0703 14:45:14.801820 30876 net.cpp:410] inception_4a/relu_5x5 <- inception_4a/5x5
I0703 14:45:14.801832 30876 net.cpp:357] inception_4a/relu_5x5 -> inception_4a/5x5 (in-place)
I0703 14:45:14.801843 30876 net.cpp:120] Setting up inception_4a/relu_5x5
I0703 14:45:14.801897 30876 net.cpp:127] Top shape: 30 48 14 14 (282240)
I0703 14:45:14.801908 30876 layer_factory.hpp:74] Creating layer inception_4a/pool
I0703 14:45:14.801915 30876 layer_factory.cpp:55] CUDNN does not support padding or multiple tops. Using Caffe's own pooling layer.
I0703 14:45:14.801925 30876 net.cpp:90] Creating Layer inception_4a/pool
I0703 14:45:14.801934 30876 net.cpp:410] inception_4a/pool <- pool3/3x3_s2_pool3/3x3_s2_0_split_3
I0703 14:45:14.801945 30876 net.cpp:368] inception_4a/pool -> inception_4a/pool
I0703 14:45:14.801957 30876 net.cpp:120] Setting up inception_4a/pool
I0703 14:45:14.801970 30876 net.cpp:127] Top shape: 30 480 14 14 (2822400)
I0703 14:45:14.801986 30876 layer_factory.hpp:74] Creating layer inception_4a/pool_proj
I0703 14:45:14.801998 30876 net.cpp:90] Creating Layer inception_4a/pool_proj
I0703 14:45:14.802006 30876 net.cpp:410] inception_4a/pool_proj <- inception_4a/pool
I0703 14:45:14.802019 30876 net.cpp:368] inception_4a/pool_proj -> inception_4a/pool_proj
I0703 14:45:14.802031 30876 net.cpp:120] Setting up inception_4a/pool_proj
I0703 14:45:14.802392 30876 net.cpp:127] Top shape: 30 64 14 14 (376320)
I0703 14:45:14.802408 30876 layer_factory.hpp:74] Creating layer inception_4a/relu_pool_proj
I0703 14:45:14.802419 30876 net.cpp:90] Creating Layer inception_4a/relu_pool_proj
I0703 14:45:14.802429 30876 net.cpp:410] inception_4a/relu_pool_proj <- inception_4a/pool_proj
I0703 14:45:14.802439 30876 net.cpp:357] inception_4a/relu_pool_proj -> inception_4a/pool_proj (in-place)
I0703 14:45:14.802450 30876 net.cpp:120] Setting up inception_4a/relu_pool_proj
I0703 14:45:14.802572 30876 net.cpp:127] Top shape: 30 64 14 14 (376320)
I0703 14:45:14.802584 30876 layer_factory.hpp:74] Creating layer inception_4a/output
I0703 14:45:14.802595 30876 net.cpp:90] Creating Layer inception_4a/output
I0703 14:45:14.802604 30876 net.cpp:410] inception_4a/output <- inception_4a/1x1
I0703 14:45:14.802613 30876 net.cpp:410] inception_4a/output <- inception_4a/3x3
I0703 14:45:14.802623 30876 net.cpp:410] inception_4a/output <- inception_4a/5x5
I0703 14:45:14.802631 30876 net.cpp:410] inception_4a/output <- inception_4a/pool_proj
I0703 14:45:14.802640 30876 net.cpp:368] inception_4a/output -> inception_4a/output
I0703 14:45:14.802651 30876 net.cpp:120] Setting up inception_4a/output
I0703 14:45:14.802664 30876 net.cpp:127] Top shape: 30 512 14 14 (3010560)
I0703 14:45:14.802671 30876 layer_factory.hpp:74] Creating layer inception_4a/output_inception_4a/output_0_split
I0703 14:45:14.802682 30876 net.cpp:90] Creating Layer inception_4a/output_inception_4a/output_0_split
I0703 14:45:14.802691 30876 net.cpp:410] inception_4a/output_inception_4a/output_0_split <- inception_4a/output
I0703 14:45:14.802701 30876 net.cpp:368] inception_4a/output_inception_4a/output_0_split -> inception_4a/output_inception_4a/output_0_split_0
I0703 14:45:14.802714 30876 net.cpp:368] inception_4a/output_inception_4a/output_0_split -> inception_4a/output_inception_4a/output_0_split_1
I0703 14:45:14.802727 30876 net.cpp:368] inception_4a/output_inception_4a/output_0_split -> inception_4a/output_inception_4a/output_0_split_2
I0703 14:45:14.802739 30876 net.cpp:368] inception_4a/output_inception_4a/output_0_split -> inception_4a/output_inception_4a/output_0_split_3
I0703 14:45:14.802749 30876 net.cpp:368] inception_4a/output_inception_4a/output_0_split -> inception_4a/output_inception_4a/output_0_split_4
I0703 14:45:14.802759 30876 net.cpp:120] Setting up inception_4a/output_inception_4a/output_0_split
I0703 14:45:14.802772 30876 net.cpp:127] Top shape: 30 512 14 14 (3010560)
I0703 14:45:14.802780 30876 net.cpp:127] Top shape: 30 512 14 14 (3010560)
I0703 14:45:14.802788 30876 net.cpp:127] Top shape: 30 512 14 14 (3010560)
I0703 14:45:14.802796 30876 net.cpp:127] Top shape: 30 512 14 14 (3010560)
I0703 14:45:14.802805 30876 net.cpp:127] Top shape: 30 512 14 14 (3010560)
I0703 14:45:14.802813 30876 layer_factory.hpp:74] Creating layer loss1/ave_pool
I0703 14:45:14.802822 30876 net.cpp:90] Creating Layer loss1/ave_pool
I0703 14:45:14.802830 30876 net.cpp:410] loss1/ave_pool <- inception_4a/output_inception_4a/output_0_split_0
I0703 14:45:14.802842 30876 net.cpp:368] loss1/ave_pool -> loss1/ave_pool
I0703 14:45:14.802852 30876 net.cpp:120] Setting up loss1/ave_pool
I0703 14:45:14.802917 30876 net.cpp:127] Top shape: 30 512 4 4 (245760)
I0703 14:45:14.802927 30876 layer_factory.hpp:74] Creating layer loss1/conv
I0703 14:45:14.802939 30876 net.cpp:90] Creating Layer loss1/conv
I0703 14:45:14.802948 30876 net.cpp:410] loss1/conv <- loss1/ave_pool
I0703 14:45:14.802960 30876 net.cpp:368] loss1/conv -> loss1/conv
I0703 14:45:14.802973 30876 net.cpp:120] Setting up loss1/conv
I0703 14:45:14.803527 30876 net.cpp:127] Top shape: 30 128 4 4 (61440)
I0703 14:45:14.803550 30876 layer_factory.hpp:74] Creating layer loss1/relu_conv
I0703 14:45:14.803563 30876 net.cpp:90] Creating Layer loss1/relu_conv
I0703 14:45:14.803573 30876 net.cpp:410] loss1/relu_conv <- loss1/conv
I0703 14:45:14.803585 30876 net.cpp:357] loss1/relu_conv -> loss1/conv (in-place)
I0703 14:45:14.803596 30876 net.cpp:120] Setting up loss1/relu_conv
I0703 14:45:14.803649 30876 net.cpp:127] Top shape: 30 128 4 4 (61440)
I0703 14:45:14.803659 30876 layer_factory.hpp:74] Creating layer loss1/fc
I0703 14:45:14.803676 30876 net.cpp:90] Creating Layer loss1/fc
I0703 14:45:14.803686 30876 net.cpp:410] loss1/fc <- loss1/conv
I0703 14:45:14.803699 30876 net.cpp:368] loss1/fc -> loss1/fc
I0703 14:45:14.803712 30876 net.cpp:120] Setting up loss1/fc
I0703 14:45:14.813730 30876 net.cpp:127] Top shape: 30 1024 (30720)
I0703 14:45:14.813761 30876 layer_factory.hpp:74] Creating layer loss1/relu_fc
I0703 14:45:14.813774 30876 net.cpp:90] Creating Layer loss1/relu_fc
I0703 14:45:14.813783 30876 net.cpp:410] loss1/relu_fc <- loss1/fc
I0703 14:45:14.813794 30876 net.cpp:357] loss1/relu_fc -> loss1/fc (in-place)
I0703 14:45:14.813805 30876 net.cpp:120] Setting up loss1/relu_fc
I0703 14:45:14.813887 30876 net.cpp:127] Top shape: 30 1024 (30720)
I0703 14:45:14.813899 30876 layer_factory.hpp:74] Creating layer loss1/drop_fc
I0703 14:45:14.813921 30876 net.cpp:90] Creating Layer loss1/drop_fc
I0703 14:45:14.813933 30876 net.cpp:410] loss1/drop_fc <- loss1/fc
I0703 14:45:14.813946 30876 net.cpp:357] loss1/drop_fc -> loss1/fc (in-place)
I0703 14:45:14.813959 30876 net.cpp:120] Setting up loss1/drop_fc
I0703 14:45:14.813973 30876 net.cpp:127] Top shape: 30 1024 (30720)
I0703 14:45:14.813985 30876 layer_factory.hpp:74] Creating layer stanford_cars_loss1/classifier
I0703 14:45:14.813998 30876 net.cpp:90] Creating Layer stanford_cars_loss1/classifier
I0703 14:45:14.814007 30876 net.cpp:410] stanford_cars_loss1/classifier <- loss1/fc
I0703 14:45:14.814018 30876 net.cpp:368] stanford_cars_loss1/classifier -> stanford_cars_loss1/classifier
I0703 14:45:14.814031 30876 net.cpp:120] Setting up stanford_cars_loss1/classifier
I0703 14:45:14.815032 30876 net.cpp:127] Top shape: 30 196 (5880)
I0703 14:45:14.815045 30876 layer_factory.hpp:74] Creating layer loss1/loss
I0703 14:45:14.815060 30876 net.cpp:90] Creating Layer loss1/loss
I0703 14:45:14.815070 30876 net.cpp:410] loss1/loss <- stanford_cars_loss1/classifier
I0703 14:45:14.815080 30876 net.cpp:410] loss1/loss <- label_data_1_split_0
I0703 14:45:14.815093 30876 net.cpp:368] loss1/loss -> loss1/loss1
I0703 14:45:14.815105 30876 net.cpp:120] Setting up loss1/loss
I0703 14:45:14.815119 30876 layer_factory.hpp:74] Creating layer loss1/loss
I0703 14:45:14.815323 30876 net.cpp:127] Top shape: (1)
I0703 14:45:14.815333 30876 net.cpp:129]     with loss weight 0.3
I0703 14:45:14.815361 30876 layer_factory.hpp:74] Creating layer inception_4b/1x1
I0703 14:45:14.815376 30876 net.cpp:90] Creating Layer inception_4b/1x1
I0703 14:45:14.815387 30876 net.cpp:410] inception_4b/1x1 <- inception_4a/output_inception_4a/output_0_split_1
I0703 14:45:14.815399 30876 net.cpp:368] inception_4b/1x1 -> inception_4b/1x1
I0703 14:45:14.815412 30876 net.cpp:120] Setting up inception_4b/1x1
I0703 14:45:14.816030 30876 net.cpp:127] Top shape: 30 160 14 14 (940800)
I0703 14:45:14.816046 30876 layer_factory.hpp:74] Creating layer inception_4b/relu_1x1
I0703 14:45:14.816059 30876 net.cpp:90] Creating Layer inception_4b/relu_1x1
I0703 14:45:14.816068 30876 net.cpp:410] inception_4b/relu_1x1 <- inception_4b/1x1
I0703 14:45:14.816079 30876 net.cpp:357] inception_4b/relu_1x1 -> inception_4b/1x1 (in-place)
I0703 14:45:14.816089 30876 net.cpp:120] Setting up inception_4b/relu_1x1
I0703 14:45:14.816146 30876 net.cpp:127] Top shape: 30 160 14 14 (940800)
I0703 14:45:14.816156 30876 layer_factory.hpp:74] Creating layer inception_4b/3x3_reduce
I0703 14:45:14.816169 30876 net.cpp:90] Creating Layer inception_4b/3x3_reduce
I0703 14:45:14.816179 30876 net.cpp:410] inception_4b/3x3_reduce <- inception_4a/output_inception_4a/output_0_split_2
I0703 14:45:14.816210 30876 net.cpp:368] inception_4b/3x3_reduce -> inception_4b/3x3_reduce
I0703 14:45:14.816225 30876 net.cpp:120] Setting up inception_4b/3x3_reduce
I0703 14:45:14.816720 30876 net.cpp:127] Top shape: 30 112 14 14 (658560)
I0703 14:45:14.816735 30876 layer_factory.hpp:74] Creating layer inception_4b/relu_3x3_reduce
I0703 14:45:14.816746 30876 net.cpp:90] Creating Layer inception_4b/relu_3x3_reduce
I0703 14:45:14.816756 30876 net.cpp:410] inception_4b/relu_3x3_reduce <- inception_4b/3x3_reduce
I0703 14:45:14.816767 30876 net.cpp:357] inception_4b/relu_3x3_reduce -> inception_4b/3x3_reduce (in-place)
I0703 14:45:14.816778 30876 net.cpp:120] Setting up inception_4b/relu_3x3_reduce
I0703 14:45:14.816833 30876 net.cpp:127] Top shape: 30 112 14 14 (658560)
I0703 14:45:14.816843 30876 layer_factory.hpp:74] Creating layer inception_4b/3x3
I0703 14:45:14.816855 30876 net.cpp:90] Creating Layer inception_4b/3x3
I0703 14:45:14.816864 30876 net.cpp:410] inception_4b/3x3 <- inception_4b/3x3_reduce
I0703 14:45:14.816876 30876 net.cpp:368] inception_4b/3x3 -> inception_4b/3x3
I0703 14:45:14.816890 30876 net.cpp:120] Setting up inception_4b/3x3
I0703 14:45:14.818194 30876 net.cpp:127] Top shape: 30 224 14 14 (1317120)
I0703 14:45:14.818210 30876 layer_factory.hpp:74] Creating layer inception_4b/relu_3x3
I0703 14:45:14.818223 30876 net.cpp:90] Creating Layer inception_4b/relu_3x3
I0703 14:45:14.818233 30876 net.cpp:410] inception_4b/relu_3x3 <- inception_4b/3x3
I0703 14:45:14.818243 30876 net.cpp:357] inception_4b/relu_3x3 -> inception_4b/3x3 (in-place)
I0703 14:45:14.818254 30876 net.cpp:120] Setting up inception_4b/relu_3x3
I0703 14:45:14.818316 30876 net.cpp:127] Top shape: 30 224 14 14 (1317120)
I0703 14:45:14.818328 30876 layer_factory.hpp:74] Creating layer inception_4b/5x5_reduce
I0703 14:45:14.818341 30876 net.cpp:90] Creating Layer inception_4b/5x5_reduce
I0703 14:45:14.818351 30876 net.cpp:410] inception_4b/5x5_reduce <- inception_4a/output_inception_4a/output_0_split_3
I0703 14:45:14.818362 30876 net.cpp:368] inception_4b/5x5_reduce -> inception_4b/5x5_reduce
I0703 14:45:14.818374 30876 net.cpp:120] Setting up inception_4b/5x5_reduce
I0703 14:45:14.818660 30876 net.cpp:127] Top shape: 30 24 14 14 (141120)
I0703 14:45:14.818675 30876 layer_factory.hpp:74] Creating layer inception_4b/relu_5x5_reduce
I0703 14:45:14.818687 30876 net.cpp:90] Creating Layer inception_4b/relu_5x5_reduce
I0703 14:45:14.818697 30876 net.cpp:410] inception_4b/relu_5x5_reduce <- inception_4b/5x5_reduce
I0703 14:45:14.818708 30876 net.cpp:357] inception_4b/relu_5x5_reduce -> inception_4b/5x5_reduce (in-place)
I0703 14:45:14.818718 30876 net.cpp:120] Setting up inception_4b/relu_5x5_reduce
I0703 14:45:14.818845 30876 net.cpp:127] Top shape: 30 24 14 14 (141120)
I0703 14:45:14.818856 30876 layer_factory.hpp:74] Creating layer inception_4b/5x5
I0703 14:45:14.818868 30876 net.cpp:90] Creating Layer inception_4b/5x5
I0703 14:45:14.818877 30876 net.cpp:410] inception_4b/5x5 <- inception_4b/5x5_reduce
I0703 14:45:14.818889 30876 net.cpp:368] inception_4b/5x5 -> inception_4b/5x5
I0703 14:45:14.818902 30876 net.cpp:120] Setting up inception_4b/5x5
I0703 14:45:14.819303 30876 net.cpp:127] Top shape: 30 64 14 14 (376320)
I0703 14:45:14.819322 30876 layer_factory.hpp:74] Creating layer inception_4b/relu_5x5
I0703 14:45:14.819335 30876 net.cpp:90] Creating Layer inception_4b/relu_5x5
I0703 14:45:14.819345 30876 net.cpp:410] inception_4b/relu_5x5 <- inception_4b/5x5
I0703 14:45:14.819356 30876 net.cpp:357] inception_4b/relu_5x5 -> inception_4b/5x5 (in-place)
I0703 14:45:14.819366 30876 net.cpp:120] Setting up inception_4b/relu_5x5
I0703 14:45:14.819422 30876 net.cpp:127] Top shape: 30 64 14 14 (376320)
I0703 14:45:14.819432 30876 layer_factory.hpp:74] Creating layer inception_4b/pool
I0703 14:45:14.819440 30876 layer_factory.cpp:55] CUDNN does not support padding or multiple tops. Using Caffe's own pooling layer.
I0703 14:45:14.819453 30876 net.cpp:90] Creating Layer inception_4b/pool
I0703 14:45:14.819470 30876 net.cpp:410] inception_4b/pool <- inception_4a/output_inception_4a/output_0_split_4
I0703 14:45:14.819483 30876 net.cpp:368] inception_4b/pool -> inception_4b/pool
I0703 14:45:14.819500 30876 net.cpp:120] Setting up inception_4b/pool
I0703 14:45:14.819515 30876 net.cpp:127] Top shape: 30 512 14 14 (3010560)
I0703 14:45:14.819525 30876 layer_factory.hpp:74] Creating layer inception_4b/pool_proj
I0703 14:45:14.819538 30876 net.cpp:90] Creating Layer inception_4b/pool_proj
I0703 14:45:14.819547 30876 net.cpp:410] inception_4b/pool_proj <- inception_4b/pool
I0703 14:45:14.819560 30876 net.cpp:368] inception_4b/pool_proj -> inception_4b/pool_proj
I0703 14:45:14.819572 30876 net.cpp:120] Setting up inception_4b/pool_proj
I0703 14:45:14.819948 30876 net.cpp:127] Top shape: 30 64 14 14 (376320)
I0703 14:45:14.819964 30876 layer_factory.hpp:74] Creating layer inception_4b/relu_pool_proj
I0703 14:45:14.819977 30876 net.cpp:90] Creating Layer inception_4b/relu_pool_proj
I0703 14:45:14.819985 30876 net.cpp:410] inception_4b/relu_pool_proj <- inception_4b/pool_proj
I0703 14:45:14.819998 30876 net.cpp:357] inception_4b/relu_pool_proj -> inception_4b/pool_proj (in-place)
I0703 14:45:14.820010 30876 net.cpp:120] Setting up inception_4b/relu_pool_proj
I0703 14:45:14.820066 30876 net.cpp:127] Top shape: 30 64 14 14 (376320)
I0703 14:45:14.820076 30876 layer_factory.hpp:74] Creating layer inception_4b/output
I0703 14:45:14.820087 30876 net.cpp:90] Creating Layer inception_4b/output
I0703 14:45:14.820096 30876 net.cpp:410] inception_4b/output <- inception_4b/1x1
I0703 14:45:14.820104 30876 net.cpp:410] inception_4b/output <- inception_4b/3x3
I0703 14:45:14.820114 30876 net.cpp:410] inception_4b/output <- inception_4b/5x5
I0703 14:45:14.820122 30876 net.cpp:410] inception_4b/output <- inception_4b/pool_proj
I0703 14:45:14.820132 30876 net.cpp:368] inception_4b/output -> inception_4b/output
I0703 14:45:14.820143 30876 net.cpp:120] Setting up inception_4b/output
I0703 14:45:14.820154 30876 net.cpp:127] Top shape: 30 512 14 14 (3010560)
I0703 14:45:14.820163 30876 layer_factory.hpp:74] Creating layer inception_4b/output_inception_4b/output_0_split
I0703 14:45:14.820173 30876 net.cpp:90] Creating Layer inception_4b/output_inception_4b/output_0_split
I0703 14:45:14.820181 30876 net.cpp:410] inception_4b/output_inception_4b/output_0_split <- inception_4b/output
I0703 14:45:14.820194 30876 net.cpp:368] inception_4b/output_inception_4b/output_0_split -> inception_4b/output_inception_4b/output_0_split_0
I0703 14:45:14.820205 30876 net.cpp:368] inception_4b/output_inception_4b/output_0_split -> inception_4b/output_inception_4b/output_0_split_1
I0703 14:45:14.820217 30876 net.cpp:368] inception_4b/output_inception_4b/output_0_split -> inception_4b/output_inception_4b/output_0_split_2
I0703 14:45:14.820229 30876 net.cpp:368] inception_4b/output_inception_4b/output_0_split -> inception_4b/output_inception_4b/output_0_split_3
I0703 14:45:14.820240 30876 net.cpp:120] Setting up inception_4b/output_inception_4b/output_0_split
I0703 14:45:14.820251 30876 net.cpp:127] Top shape: 30 512 14 14 (3010560)
I0703 14:45:14.820261 30876 net.cpp:127] Top shape: 30 512 14 14 (3010560)
I0703 14:45:14.820269 30876 net.cpp:127] Top shape: 30 512 14 14 (3010560)
I0703 14:45:14.820277 30876 net.cpp:127] Top shape: 30 512 14 14 (3010560)
I0703 14:45:14.820286 30876 layer_factory.hpp:74] Creating layer inception_4c/1x1
I0703 14:45:14.820296 30876 net.cpp:90] Creating Layer inception_4c/1x1
I0703 14:45:14.820303 30876 net.cpp:410] inception_4c/1x1 <- inception_4b/output_inception_4b/output_0_split_0
I0703 14:45:14.820315 30876 net.cpp:368] inception_4c/1x1 -> inception_4c/1x1
I0703 14:45:14.820327 30876 net.cpp:120] Setting up inception_4c/1x1
I0703 14:45:14.820875 30876 net.cpp:127] Top shape: 30 128 14 14 (752640)
I0703 14:45:14.820891 30876 layer_factory.hpp:74] Creating layer inception_4c/relu_1x1
I0703 14:45:14.820902 30876 net.cpp:90] Creating Layer inception_4c/relu_1x1
I0703 14:45:14.820911 30876 net.cpp:410] inception_4c/relu_1x1 <- inception_4c/1x1
I0703 14:45:14.820930 30876 net.cpp:357] inception_4c/relu_1x1 -> inception_4c/1x1 (in-place)
I0703 14:45:14.820941 30876 net.cpp:120] Setting up inception_4c/relu_1x1
I0703 14:45:14.820996 30876 net.cpp:127] Top shape: 30 128 14 14 (752640)
I0703 14:45:14.821005 30876 layer_factory.hpp:74] Creating layer inception_4c/3x3_reduce
I0703 14:45:14.821017 30876 net.cpp:90] Creating Layer inception_4c/3x3_reduce
I0703 14:45:14.821027 30876 net.cpp:410] inception_4c/3x3_reduce <- inception_4b/output_inception_4b/output_0_split_1
I0703 14:45:14.821038 30876 net.cpp:368] inception_4c/3x3_reduce -> inception_4c/3x3_reduce
I0703 14:45:14.821051 30876 net.cpp:120] Setting up inception_4c/3x3_reduce
I0703 14:45:14.821585 30876 net.cpp:127] Top shape: 30 128 14 14 (752640)
I0703 14:45:14.821601 30876 layer_factory.hpp:74] Creating layer inception_4c/relu_3x3_reduce
I0703 14:45:14.821612 30876 net.cpp:90] Creating Layer inception_4c/relu_3x3_reduce
I0703 14:45:14.821621 30876 net.cpp:410] inception_4c/relu_3x3_reduce <- inception_4c/3x3_reduce
I0703 14:45:14.821632 30876 net.cpp:357] inception_4c/relu_3x3_reduce -> inception_4c/3x3_reduce (in-place)
I0703 14:45:14.821642 30876 net.cpp:120] Setting up inception_4c/relu_3x3_reduce
I0703 14:45:14.821763 30876 net.cpp:127] Top shape: 30 128 14 14 (752640)
I0703 14:45:14.821775 30876 layer_factory.hpp:74] Creating layer inception_4c/3x3
I0703 14:45:14.821789 30876 net.cpp:90] Creating Layer inception_4c/3x3
I0703 14:45:14.821799 30876 net.cpp:410] inception_4c/3x3 <- inception_4c/3x3_reduce
I0703 14:45:14.821810 30876 net.cpp:368] inception_4c/3x3 -> inception_4c/3x3
I0703 14:45:14.821823 30876 net.cpp:120] Setting up inception_4c/3x3
I0703 14:45:14.823475 30876 net.cpp:127] Top shape: 30 256 14 14 (1505280)
I0703 14:45:14.823499 30876 layer_factory.hpp:74] Creating layer inception_4c/relu_3x3
I0703 14:45:14.823513 30876 net.cpp:90] Creating Layer inception_4c/relu_3x3
I0703 14:45:14.823523 30876 net.cpp:410] inception_4c/relu_3x3 <- inception_4c/3x3
I0703 14:45:14.823534 30876 net.cpp:357] inception_4c/relu_3x3 -> inception_4c/3x3 (in-place)
I0703 14:45:14.823545 30876 net.cpp:120] Setting up inception_4c/relu_3x3
I0703 14:45:14.823602 30876 net.cpp:127] Top shape: 30 256 14 14 (1505280)
I0703 14:45:14.823612 30876 layer_factory.hpp:74] Creating layer inception_4c/5x5_reduce
I0703 14:45:14.823623 30876 net.cpp:90] Creating Layer inception_4c/5x5_reduce
I0703 14:45:14.823632 30876 net.cpp:410] inception_4c/5x5_reduce <- inception_4b/output_inception_4b/output_0_split_2
I0703 14:45:14.823645 30876 net.cpp:368] inception_4c/5x5_reduce -> inception_4c/5x5_reduce
I0703 14:45:14.823657 30876 net.cpp:120] Setting up inception_4c/5x5_reduce
I0703 14:45:14.823930 30876 net.cpp:127] Top shape: 30 24 14 14 (141120)
I0703 14:45:14.823946 30876 layer_factory.hpp:74] Creating layer inception_4c/relu_5x5_reduce
I0703 14:45:14.823959 30876 net.cpp:90] Creating Layer inception_4c/relu_5x5_reduce
I0703 14:45:14.823968 30876 net.cpp:410] inception_4c/relu_5x5_reduce <- inception_4c/5x5_reduce
I0703 14:45:14.823979 30876 net.cpp:357] inception_4c/relu_5x5_reduce -> inception_4c/5x5_reduce (in-place)
I0703 14:45:14.823989 30876 net.cpp:120] Setting up inception_4c/relu_5x5_reduce
I0703 14:45:14.824044 30876 net.cpp:127] Top shape: 30 24 14 14 (141120)
I0703 14:45:14.824054 30876 layer_factory.hpp:74] Creating layer inception_4c/5x5
I0703 14:45:14.824065 30876 net.cpp:90] Creating Layer inception_4c/5x5
I0703 14:45:14.824074 30876 net.cpp:410] inception_4c/5x5 <- inception_4c/5x5_reduce
I0703 14:45:14.824086 30876 net.cpp:368] inception_4c/5x5 -> inception_4c/5x5
I0703 14:45:14.824100 30876 net.cpp:120] Setting up inception_4c/5x5
I0703 14:45:14.824499 30876 net.cpp:127] Top shape: 30 64 14 14 (376320)
I0703 14:45:14.824515 30876 layer_factory.hpp:74] Creating layer inception_4c/relu_5x5
I0703 14:45:14.824527 30876 net.cpp:90] Creating Layer inception_4c/relu_5x5
I0703 14:45:14.824537 30876 net.cpp:410] inception_4c/relu_5x5 <- inception_4c/5x5
I0703 14:45:14.824548 30876 net.cpp:357] inception_4c/relu_5x5 -> inception_4c/5x5 (in-place)
I0703 14:45:14.824568 30876 net.cpp:120] Setting up inception_4c/relu_5x5
I0703 14:45:14.824693 30876 net.cpp:127] Top shape: 30 64 14 14 (376320)
I0703 14:45:14.824705 30876 layer_factory.hpp:74] Creating layer inception_4c/pool
I0703 14:45:14.824714 30876 layer_factory.cpp:55] CUDNN does not support padding or multiple tops. Using Caffe's own pooling layer.
I0703 14:45:14.824726 30876 net.cpp:90] Creating Layer inception_4c/pool
I0703 14:45:14.824734 30876 net.cpp:410] inception_4c/pool <- inception_4b/output_inception_4b/output_0_split_3
I0703 14:45:14.824744 30876 net.cpp:368] inception_4c/pool -> inception_4c/pool
I0703 14:45:14.824756 30876 net.cpp:120] Setting up inception_4c/pool
I0703 14:45:14.824769 30876 net.cpp:127] Top shape: 30 512 14 14 (3010560)
I0703 14:45:14.824779 30876 layer_factory.hpp:74] Creating layer inception_4c/pool_proj
I0703 14:45:14.824790 30876 net.cpp:90] Creating Layer inception_4c/pool_proj
I0703 14:45:14.824798 30876 net.cpp:410] inception_4c/pool_proj <- inception_4c/pool
I0703 14:45:14.824810 30876 net.cpp:368] inception_4c/pool_proj -> inception_4c/pool_proj
I0703 14:45:14.824822 30876 net.cpp:120] Setting up inception_4c/pool_proj
I0703 14:45:14.825197 30876 net.cpp:127] Top shape: 30 64 14 14 (376320)
I0703 14:45:14.825213 30876 layer_factory.hpp:74] Creating layer inception_4c/relu_pool_proj
I0703 14:45:14.825224 30876 net.cpp:90] Creating Layer inception_4c/relu_pool_proj
I0703 14:45:14.825234 30876 net.cpp:410] inception_4c/relu_pool_proj <- inception_4c/pool_proj
I0703 14:45:14.825244 30876 net.cpp:357] inception_4c/relu_pool_proj -> inception_4c/pool_proj (in-place)
I0703 14:45:14.825255 30876 net.cpp:120] Setting up inception_4c/relu_pool_proj
I0703 14:45:14.825310 30876 net.cpp:127] Top shape: 30 64 14 14 (376320)
I0703 14:45:14.825321 30876 layer_factory.hpp:74] Creating layer inception_4c/output
I0703 14:45:14.825332 30876 net.cpp:90] Creating Layer inception_4c/output
I0703 14:45:14.825340 30876 net.cpp:410] inception_4c/output <- inception_4c/1x1
I0703 14:45:14.825350 30876 net.cpp:410] inception_4c/output <- inception_4c/3x3
I0703 14:45:14.825359 30876 net.cpp:410] inception_4c/output <- inception_4c/5x5
I0703 14:45:14.825367 30876 net.cpp:410] inception_4c/output <- inception_4c/pool_proj
I0703 14:45:14.825377 30876 net.cpp:368] inception_4c/output -> inception_4c/output
I0703 14:45:14.825387 30876 net.cpp:120] Setting up inception_4c/output
I0703 14:45:14.825398 30876 net.cpp:127] Top shape: 30 512 14 14 (3010560)
I0703 14:45:14.825407 30876 layer_factory.hpp:74] Creating layer inception_4c/output_inception_4c/output_0_split
I0703 14:45:14.825417 30876 net.cpp:90] Creating Layer inception_4c/output_inception_4c/output_0_split
I0703 14:45:14.825424 30876 net.cpp:410] inception_4c/output_inception_4c/output_0_split <- inception_4c/output
I0703 14:45:14.825436 30876 net.cpp:368] inception_4c/output_inception_4c/output_0_split -> inception_4c/output_inception_4c/output_0_split_0
I0703 14:45:14.825448 30876 net.cpp:368] inception_4c/output_inception_4c/output_0_split -> inception_4c/output_inception_4c/output_0_split_1
I0703 14:45:14.825459 30876 net.cpp:368] inception_4c/output_inception_4c/output_0_split -> inception_4c/output_inception_4c/output_0_split_2
I0703 14:45:14.825471 30876 net.cpp:368] inception_4c/output_inception_4c/output_0_split -> inception_4c/output_inception_4c/output_0_split_3
I0703 14:45:14.825481 30876 net.cpp:120] Setting up inception_4c/output_inception_4c/output_0_split
I0703 14:45:14.825494 30876 net.cpp:127] Top shape: 30 512 14 14 (3010560)
I0703 14:45:14.825502 30876 net.cpp:127] Top shape: 30 512 14 14 (3010560)
I0703 14:45:14.825511 30876 net.cpp:127] Top shape: 30 512 14 14 (3010560)
I0703 14:45:14.825520 30876 net.cpp:127] Top shape: 30 512 14 14 (3010560)
I0703 14:45:14.825527 30876 layer_factory.hpp:74] Creating layer inception_4d/1x1
I0703 14:45:14.825538 30876 net.cpp:90] Creating Layer inception_4d/1x1
I0703 14:45:14.825546 30876 net.cpp:410] inception_4d/1x1 <- inception_4c/output_inception_4c/output_0_split_0
I0703 14:45:14.825567 30876 net.cpp:368] inception_4d/1x1 -> inception_4d/1x1
I0703 14:45:14.825579 30876 net.cpp:120] Setting up inception_4d/1x1
I0703 14:45:14.826087 30876 net.cpp:127] Top shape: 30 112 14 14 (658560)
I0703 14:45:14.826104 30876 layer_factory.hpp:74] Creating layer inception_4d/relu_1x1
I0703 14:45:14.826115 30876 net.cpp:90] Creating Layer inception_4d/relu_1x1
I0703 14:45:14.826125 30876 net.cpp:410] inception_4d/relu_1x1 <- inception_4d/1x1
I0703 14:45:14.826135 30876 net.cpp:357] inception_4d/relu_1x1 -> inception_4d/1x1 (in-place)
I0703 14:45:14.826146 30876 net.cpp:120] Setting up inception_4d/relu_1x1
I0703 14:45:14.826203 30876 net.cpp:127] Top shape: 30 112 14 14 (658560)
I0703 14:45:14.826213 30876 layer_factory.hpp:74] Creating layer inception_4d/3x3_reduce
I0703 14:45:14.826225 30876 net.cpp:90] Creating Layer inception_4d/3x3_reduce
I0703 14:45:14.826234 30876 net.cpp:410] inception_4d/3x3_reduce <- inception_4c/output_inception_4c/output_0_split_1
I0703 14:45:14.826246 30876 net.cpp:368] inception_4d/3x3_reduce -> inception_4d/3x3_reduce
I0703 14:45:14.826259 30876 net.cpp:120] Setting up inception_4d/3x3_reduce
I0703 14:45:14.826833 30876 net.cpp:127] Top shape: 30 144 14 14 (846720)
I0703 14:45:14.826848 30876 layer_factory.hpp:74] Creating layer inception_4d/relu_3x3_reduce
I0703 14:45:14.826859 30876 net.cpp:90] Creating Layer inception_4d/relu_3x3_reduce
I0703 14:45:14.826869 30876 net.cpp:410] inception_4d/relu_3x3_reduce <- inception_4d/3x3_reduce
I0703 14:45:14.826879 30876 net.cpp:357] inception_4d/relu_3x3_reduce -> inception_4d/3x3_reduce (in-place)
I0703 14:45:14.826890 30876 net.cpp:120] Setting up inception_4d/relu_3x3_reduce
I0703 14:45:14.826946 30876 net.cpp:127] Top shape: 30 144 14 14 (846720)
I0703 14:45:14.826956 30876 layer_factory.hpp:74] Creating layer inception_4d/3x3
I0703 14:45:14.826968 30876 net.cpp:90] Creating Layer inception_4d/3x3
I0703 14:45:14.826978 30876 net.cpp:410] inception_4d/3x3 <- inception_4d/3x3_reduce
I0703 14:45:14.826989 30876 net.cpp:368] inception_4d/3x3 -> inception_4d/3x3
I0703 14:45:14.827000 30876 net.cpp:120] Setting up inception_4d/3x3
I0703 14:45:14.829036 30876 net.cpp:127] Top shape: 30 288 14 14 (1693440)
I0703 14:45:14.829052 30876 layer_factory.hpp:74] Creating layer inception_4d/relu_3x3
I0703 14:45:14.829066 30876 net.cpp:90] Creating Layer inception_4d/relu_3x3
I0703 14:45:14.829076 30876 net.cpp:410] inception_4d/relu_3x3 <- inception_4d/3x3
I0703 14:45:14.829087 30876 net.cpp:357] inception_4d/relu_3x3 -> inception_4d/3x3 (in-place)
I0703 14:45:14.829097 30876 net.cpp:120] Setting up inception_4d/relu_3x3
I0703 14:45:14.829222 30876 net.cpp:127] Top shape: 30 288 14 14 (1693440)
I0703 14:45:14.829234 30876 layer_factory.hpp:74] Creating layer inception_4d/5x5_reduce
I0703 14:45:14.829247 30876 net.cpp:90] Creating Layer inception_4d/5x5_reduce
I0703 14:45:14.829257 30876 net.cpp:410] inception_4d/5x5_reduce <- inception_4c/output_inception_4c/output_0_split_2
I0703 14:45:14.829268 30876 net.cpp:368] inception_4d/5x5_reduce -> inception_4d/5x5_reduce
I0703 14:45:14.829280 30876 net.cpp:120] Setting up inception_4d/5x5_reduce
I0703 14:45:14.829577 30876 net.cpp:127] Top shape: 30 32 14 14 (188160)
I0703 14:45:14.829592 30876 layer_factory.hpp:74] Creating layer inception_4d/relu_5x5_reduce
I0703 14:45:14.829603 30876 net.cpp:90] Creating Layer inception_4d/relu_5x5_reduce
I0703 14:45:14.829614 30876 net.cpp:410] inception_4d/relu_5x5_reduce <- inception_4d/5x5_reduce
I0703 14:45:14.829625 30876 net.cpp:357] inception_4d/relu_5x5_reduce -> inception_4d/5x5_reduce (in-place)
I0703 14:45:14.829635 30876 net.cpp:120] Setting up inception_4d/relu_5x5_reduce
I0703 14:45:14.829691 30876 net.cpp:127] Top shape: 30 32 14 14 (188160)
I0703 14:45:14.829701 30876 layer_factory.hpp:74] Creating layer inception_4d/5x5
I0703 14:45:14.829715 30876 net.cpp:90] Creating Layer inception_4d/5x5
I0703 14:45:14.829723 30876 net.cpp:410] inception_4d/5x5 <- inception_4d/5x5_reduce
I0703 14:45:14.829735 30876 net.cpp:368] inception_4d/5x5 -> inception_4d/5x5
I0703 14:45:14.829757 30876 net.cpp:120] Setting up inception_4d/5x5
I0703 14:45:14.830240 30876 net.cpp:127] Top shape: 30 64 14 14 (376320)
I0703 14:45:14.830256 30876 layer_factory.hpp:74] Creating layer inception_4d/relu_5x5
I0703 14:45:14.830267 30876 net.cpp:90] Creating Layer inception_4d/relu_5x5
I0703 14:45:14.830278 30876 net.cpp:410] inception_4d/relu_5x5 <- inception_4d/5x5
I0703 14:45:14.830288 30876 net.cpp:357] inception_4d/relu_5x5 -> inception_4d/5x5 (in-place)
I0703 14:45:14.830299 30876 net.cpp:120] Setting up inception_4d/relu_5x5
I0703 14:45:14.830356 30876 net.cpp:127] Top shape: 30 64 14 14 (376320)
I0703 14:45:14.830366 30876 layer_factory.hpp:74] Creating layer inception_4d/pool
I0703 14:45:14.830375 30876 layer_factory.cpp:55] CUDNN does not support padding or multiple tops. Using Caffe's own pooling layer.
I0703 14:45:14.830387 30876 net.cpp:90] Creating Layer inception_4d/pool
I0703 14:45:14.830396 30876 net.cpp:410] inception_4d/pool <- inception_4c/output_inception_4c/output_0_split_3
I0703 14:45:14.830407 30876 net.cpp:368] inception_4d/pool -> inception_4d/pool
I0703 14:45:14.830418 30876 net.cpp:120] Setting up inception_4d/pool
I0703 14:45:14.830432 30876 net.cpp:127] Top shape: 30 512 14 14 (3010560)
I0703 14:45:14.830440 30876 layer_factory.hpp:74] Creating layer inception_4d/pool_proj
I0703 14:45:14.830452 30876 net.cpp:90] Creating Layer inception_4d/pool_proj
I0703 14:45:14.830461 30876 net.cpp:410] inception_4d/pool_proj <- inception_4d/pool
I0703 14:45:14.830472 30876 net.cpp:368] inception_4d/pool_proj -> inception_4d/pool_proj
I0703 14:45:14.830484 30876 net.cpp:120] Setting up inception_4d/pool_proj
I0703 14:45:14.830862 30876 net.cpp:127] Top shape: 30 64 14 14 (376320)
I0703 14:45:14.830878 30876 layer_factory.hpp:74] Creating layer inception_4d/relu_pool_proj
I0703 14:45:14.830893 30876 net.cpp:90] Creating Layer inception_4d/relu_pool_proj
I0703 14:45:14.830903 30876 net.cpp:410] inception_4d/relu_pool_proj <- inception_4d/pool_proj
I0703 14:45:14.830912 30876 net.cpp:357] inception_4d/relu_pool_proj -> inception_4d/pool_proj (in-place)
I0703 14:45:14.830924 30876 net.cpp:120] Setting up inception_4d/relu_pool_proj
I0703 14:45:14.830981 30876 net.cpp:127] Top shape: 30 64 14 14 (376320)
I0703 14:45:14.830991 30876 layer_factory.hpp:74] Creating layer inception_4d/output
I0703 14:45:14.831001 30876 net.cpp:90] Creating Layer inception_4d/output
I0703 14:45:14.831009 30876 net.cpp:410] inception_4d/output <- inception_4d/1x1
I0703 14:45:14.831018 30876 net.cpp:410] inception_4d/output <- inception_4d/3x3
I0703 14:45:14.831027 30876 net.cpp:410] inception_4d/output <- inception_4d/5x5
I0703 14:45:14.831037 30876 net.cpp:410] inception_4d/output <- inception_4d/pool_proj
I0703 14:45:14.831046 30876 net.cpp:368] inception_4d/output -> inception_4d/output
I0703 14:45:14.831056 30876 net.cpp:120] Setting up inception_4d/output
I0703 14:45:14.831068 30876 net.cpp:127] Top shape: 30 528 14 14 (3104640)
I0703 14:45:14.831075 30876 layer_factory.hpp:74] Creating layer inception_4d/output_inception_4d/output_0_split
I0703 14:45:14.831085 30876 net.cpp:90] Creating Layer inception_4d/output_inception_4d/output_0_split
I0703 14:45:14.831094 30876 net.cpp:410] inception_4d/output_inception_4d/output_0_split <- inception_4d/output
I0703 14:45:14.831105 30876 net.cpp:368] inception_4d/output_inception_4d/output_0_split -> inception_4d/output_inception_4d/output_0_split_0
I0703 14:45:14.831117 30876 net.cpp:368] inception_4d/output_inception_4d/output_0_split -> inception_4d/output_inception_4d/output_0_split_1
I0703 14:45:14.831128 30876 net.cpp:368] inception_4d/output_inception_4d/output_0_split -> inception_4d/output_inception_4d/output_0_split_2
I0703 14:45:14.831141 30876 net.cpp:368] inception_4d/output_inception_4d/output_0_split -> inception_4d/output_inception_4d/output_0_split_3
I0703 14:45:14.831151 30876 net.cpp:368] inception_4d/output_inception_4d/output_0_split -> inception_4d/output_inception_4d/output_0_split_4
I0703 14:45:14.831162 30876 net.cpp:120] Setting up inception_4d/output_inception_4d/output_0_split
I0703 14:45:14.831182 30876 net.cpp:127] Top shape: 30 528 14 14 (3104640)
I0703 14:45:14.831192 30876 net.cpp:127] Top shape: 30 528 14 14 (3104640)
I0703 14:45:14.831200 30876 net.cpp:127] Top shape: 30 528 14 14 (3104640)
I0703 14:45:14.831209 30876 net.cpp:127] Top shape: 30 528 14 14 (3104640)
I0703 14:45:14.831218 30876 net.cpp:127] Top shape: 30 528 14 14 (3104640)
I0703 14:45:14.831224 30876 layer_factory.hpp:74] Creating layer loss2/ave_pool
I0703 14:45:14.831234 30876 net.cpp:90] Creating Layer loss2/ave_pool
I0703 14:45:14.831243 30876 net.cpp:410] loss2/ave_pool <- inception_4d/output_inception_4d/output_0_split_0
I0703 14:45:14.831248 30876 net.cpp:368] loss2/ave_pool -> loss2/ave_pool
I0703 14:45:14.831254 30876 net.cpp:120] Setting up loss2/ave_pool
I0703 14:45:14.831378 30876 net.cpp:127] Top shape: 30 528 4 4 (253440)
I0703 14:45:14.831387 30876 layer_factory.hpp:74] Creating layer loss2/conv
I0703 14:45:14.831395 30876 net.cpp:90] Creating Layer loss2/conv
I0703 14:45:14.831400 30876 net.cpp:410] loss2/conv <- loss2/ave_pool
I0703 14:45:14.831408 30876 net.cpp:368] loss2/conv -> loss2/conv
I0703 14:45:14.831414 30876 net.cpp:120] Setting up loss2/conv
I0703 14:45:14.831945 30876 net.cpp:127] Top shape: 30 128 4 4 (61440)
I0703 14:45:14.831957 30876 layer_factory.hpp:74] Creating layer loss2/relu_conv
I0703 14:45:14.831964 30876 net.cpp:90] Creating Layer loss2/relu_conv
I0703 14:45:14.831969 30876 net.cpp:410] loss2/relu_conv <- loss2/conv
I0703 14:45:14.831975 30876 net.cpp:357] loss2/relu_conv -> loss2/conv (in-place)
I0703 14:45:14.831982 30876 net.cpp:120] Setting up loss2/relu_conv
I0703 14:45:14.832025 30876 net.cpp:127] Top shape: 30 128 4 4 (61440)
I0703 14:45:14.832031 30876 layer_factory.hpp:74] Creating layer loss2/fc
I0703 14:45:14.832037 30876 net.cpp:90] Creating Layer loss2/fc
I0703 14:45:14.832041 30876 net.cpp:410] loss2/fc <- loss2/conv
I0703 14:45:14.832048 30876 net.cpp:368] loss2/fc -> loss2/fc
I0703 14:45:14.832056 30876 net.cpp:120] Setting up loss2/fc
I0703 14:45:14.841985 30876 net.cpp:127] Top shape: 30 1024 (30720)
I0703 14:45:14.842011 30876 layer_factory.hpp:74] Creating layer loss2/relu_fc
I0703 14:45:14.842025 30876 net.cpp:90] Creating Layer loss2/relu_fc
I0703 14:45:14.842036 30876 net.cpp:410] loss2/relu_fc <- loss2/fc
I0703 14:45:14.842047 30876 net.cpp:357] loss2/relu_fc -> loss2/fc (in-place)
I0703 14:45:14.842059 30876 net.cpp:120] Setting up loss2/relu_fc
I0703 14:45:14.842141 30876 net.cpp:127] Top shape: 30 1024 (30720)
I0703 14:45:14.842151 30876 layer_factory.hpp:74] Creating layer loss2/drop_fc
I0703 14:45:14.842164 30876 net.cpp:90] Creating Layer loss2/drop_fc
I0703 14:45:14.842172 30876 net.cpp:410] loss2/drop_fc <- loss2/fc
I0703 14:45:14.842185 30876 net.cpp:357] loss2/drop_fc -> loss2/fc (in-place)
I0703 14:45:14.842197 30876 net.cpp:120] Setting up loss2/drop_fc
I0703 14:45:14.842209 30876 net.cpp:127] Top shape: 30 1024 (30720)
I0703 14:45:14.842218 30876 layer_factory.hpp:74] Creating layer stanford_cars_loss2/classifier
I0703 14:45:14.842231 30876 net.cpp:90] Creating Layer stanford_cars_loss2/classifier
I0703 14:45:14.842239 30876 net.cpp:410] stanford_cars_loss2/classifier <- loss2/fc
I0703 14:45:14.842252 30876 net.cpp:368] stanford_cars_loss2/classifier -> stanford_cars_loss2/classifier
I0703 14:45:14.842267 30876 net.cpp:120] Setting up stanford_cars_loss2/classifier
I0703 14:45:14.843268 30876 net.cpp:127] Top shape: 30 196 (5880)
I0703 14:45:14.843282 30876 layer_factory.hpp:74] Creating layer stanford_cars_loss2/loss
I0703 14:45:14.843293 30876 net.cpp:90] Creating Layer stanford_cars_loss2/loss
I0703 14:45:14.843303 30876 net.cpp:410] stanford_cars_loss2/loss <- stanford_cars_loss2/classifier
I0703 14:45:14.843320 30876 net.cpp:410] stanford_cars_loss2/loss <- label_data_1_split_1
I0703 14:45:14.843332 30876 net.cpp:368] stanford_cars_loss2/loss -> loss2/loss1
I0703 14:45:14.843343 30876 net.cpp:120] Setting up stanford_cars_loss2/loss
I0703 14:45:14.843353 30876 layer_factory.hpp:74] Creating layer stanford_cars_loss2/loss
I0703 14:45:14.843441 30876 net.cpp:127] Top shape: (1)
I0703 14:45:14.843452 30876 net.cpp:129]     with loss weight 0.3
I0703 14:45:14.843472 30876 layer_factory.hpp:74] Creating layer inception_4e/1x1
I0703 14:45:14.843487 30876 net.cpp:90] Creating Layer inception_4e/1x1
I0703 14:45:14.843497 30876 net.cpp:410] inception_4e/1x1 <- inception_4d/output_inception_4d/output_0_split_1
I0703 14:45:14.843509 30876 net.cpp:368] inception_4e/1x1 -> inception_4e/1x1
I0703 14:45:14.843521 30876 net.cpp:120] Setting up inception_4e/1x1
I0703 14:45:14.844456 30876 net.cpp:127] Top shape: 30 256 14 14 (1505280)
I0703 14:45:14.844473 30876 layer_factory.hpp:74] Creating layer inception_4e/relu_1x1
I0703 14:45:14.844485 30876 net.cpp:90] Creating Layer inception_4e/relu_1x1
I0703 14:45:14.844493 30876 net.cpp:410] inception_4e/relu_1x1 <- inception_4e/1x1
I0703 14:45:14.844506 30876 net.cpp:357] inception_4e/relu_1x1 -> inception_4e/1x1 (in-place)
I0703 14:45:14.844516 30876 net.cpp:120] Setting up inception_4e/relu_1x1
I0703 14:45:14.844640 30876 net.cpp:127] Top shape: 30 256 14 14 (1505280)
I0703 14:45:14.844652 30876 layer_factory.hpp:74] Creating layer inception_4e/3x3_reduce
I0703 14:45:14.844665 30876 net.cpp:90] Creating Layer inception_4e/3x3_reduce
I0703 14:45:14.844673 30876 net.cpp:410] inception_4e/3x3_reduce <- inception_4d/output_inception_4d/output_0_split_2
I0703 14:45:14.844686 30876 net.cpp:368] inception_4e/3x3_reduce -> inception_4e/3x3_reduce
I0703 14:45:14.844699 30876 net.cpp:120] Setting up inception_4e/3x3_reduce
I0703 14:45:14.845329 30876 net.cpp:127] Top shape: 30 160 14 14 (940800)
I0703 14:45:14.845345 30876 layer_factory.hpp:74] Creating layer inception_4e/relu_3x3_reduce
I0703 14:45:14.845357 30876 net.cpp:90] Creating Layer inception_4e/relu_3x3_reduce
I0703 14:45:14.845367 30876 net.cpp:410] inception_4e/relu_3x3_reduce <- inception_4e/3x3_reduce
I0703 14:45:14.845379 30876 net.cpp:357] inception_4e/relu_3x3_reduce -> inception_4e/3x3_reduce (in-place)
I0703 14:45:14.845391 30876 net.cpp:120] Setting up inception_4e/relu_3x3_reduce
I0703 14:45:14.845448 30876 net.cpp:127] Top shape: 30 160 14 14 (940800)
I0703 14:45:14.845458 30876 layer_factory.hpp:74] Creating layer inception_4e/3x3
I0703 14:45:14.845471 30876 net.cpp:90] Creating Layer inception_4e/3x3
I0703 14:45:14.845481 30876 net.cpp:410] inception_4e/3x3 <- inception_4e/3x3_reduce
I0703 14:45:14.845494 30876 net.cpp:368] inception_4e/3x3 -> inception_4e/3x3
I0703 14:45:14.845506 30876 net.cpp:120] Setting up inception_4e/3x3
I0703 14:45:14.847973 30876 net.cpp:127] Top shape: 30 320 14 14 (1881600)
I0703 14:45:14.847990 30876 layer_factory.hpp:74] Creating layer inception_4e/relu_3x3
I0703 14:45:14.848003 30876 net.cpp:90] Creating Layer inception_4e/relu_3x3
I0703 14:45:14.848014 30876 net.cpp:410] inception_4e/relu_3x3 <- inception_4e/3x3
I0703 14:45:14.848024 30876 net.cpp:357] inception_4e/relu_3x3 -> inception_4e/3x3 (in-place)
I0703 14:45:14.848037 30876 net.cpp:120] Setting up inception_4e/relu_3x3
I0703 14:45:14.848094 30876 net.cpp:127] Top shape: 30 320 14 14 (1881600)
I0703 14:45:14.848105 30876 layer_factory.hpp:74] Creating layer inception_4e/5x5_reduce
I0703 14:45:14.848117 30876 net.cpp:90] Creating Layer inception_4e/5x5_reduce
I0703 14:45:14.848127 30876 net.cpp:410] inception_4e/5x5_reduce <- inception_4d/output_inception_4d/output_0_split_3
I0703 14:45:14.848140 30876 net.cpp:368] inception_4e/5x5_reduce -> inception_4e/5x5_reduce
I0703 14:45:14.848151 30876 net.cpp:120] Setting up inception_4e/5x5_reduce
I0703 14:45:14.848454 30876 net.cpp:127] Top shape: 30 32 14 14 (188160)
I0703 14:45:14.848470 30876 layer_factory.hpp:74] Creating layer inception_4e/relu_5x5_reduce
I0703 14:45:14.848481 30876 net.cpp:90] Creating Layer inception_4e/relu_5x5_reduce
I0703 14:45:14.848490 30876 net.cpp:410] inception_4e/relu_5x5_reduce <- inception_4e/5x5_reduce
I0703 14:45:14.848501 30876 net.cpp:357] inception_4e/relu_5x5_reduce -> inception_4e/5x5_reduce (in-place)
I0703 14:45:14.848511 30876 net.cpp:120] Setting up inception_4e/relu_5x5_reduce
I0703 14:45:14.848649 30876 net.cpp:127] Top shape: 30 32 14 14 (188160)
I0703 14:45:14.848660 30876 layer_factory.hpp:74] Creating layer inception_4e/5x5
I0703 14:45:14.848686 30876 net.cpp:90] Creating Layer inception_4e/5x5
I0703 14:45:14.848698 30876 net.cpp:410] inception_4e/5x5 <- inception_4e/5x5_reduce
I0703 14:45:14.848711 30876 net.cpp:368] inception_4e/5x5 -> inception_4e/5x5
I0703 14:45:14.848724 30876 net.cpp:120] Setting up inception_4e/5x5
I0703 14:45:14.849441 30876 net.cpp:127] Top shape: 30 128 14 14 (752640)
I0703 14:45:14.849457 30876 layer_factory.hpp:74] Creating layer inception_4e/relu_5x5
I0703 14:45:14.849468 30876 net.cpp:90] Creating Layer inception_4e/relu_5x5
I0703 14:45:14.849478 30876 net.cpp:410] inception_4e/relu_5x5 <- inception_4e/5x5
I0703 14:45:14.849489 30876 net.cpp:357] inception_4e/relu_5x5 -> inception_4e/5x5 (in-place)
I0703 14:45:14.849500 30876 net.cpp:120] Setting up inception_4e/relu_5x5
I0703 14:45:14.849558 30876 net.cpp:127] Top shape: 30 128 14 14 (752640)
I0703 14:45:14.849568 30876 layer_factory.hpp:74] Creating layer inception_4e/pool
I0703 14:45:14.849577 30876 layer_factory.cpp:55] CUDNN does not support padding or multiple tops. Using Caffe's own pooling layer.
I0703 14:45:14.849587 30876 net.cpp:90] Creating Layer inception_4e/pool
I0703 14:45:14.849596 30876 net.cpp:410] inception_4e/pool <- inception_4d/output_inception_4d/output_0_split_4
I0703 14:45:14.849607 30876 net.cpp:368] inception_4e/pool -> inception_4e/pool
I0703 14:45:14.849617 30876 net.cpp:120] Setting up inception_4e/pool
I0703 14:45:14.849630 30876 net.cpp:127] Top shape: 30 528 14 14 (3104640)
I0703 14:45:14.849639 30876 layer_factory.hpp:74] Creating layer inception_4e/pool_proj
I0703 14:45:14.849652 30876 net.cpp:90] Creating Layer inception_4e/pool_proj
I0703 14:45:14.849660 30876 net.cpp:410] inception_4e/pool_proj <- inception_4e/pool
I0703 14:45:14.849673 30876 net.cpp:368] inception_4e/pool_proj -> inception_4e/pool_proj
I0703 14:45:14.849684 30876 net.cpp:120] Setting up inception_4e/pool_proj
I0703 14:45:14.850234 30876 net.cpp:127] Top shape: 30 128 14 14 (752640)
I0703 14:45:14.850250 30876 layer_factory.hpp:74] Creating layer inception_4e/relu_pool_proj
I0703 14:45:14.850262 30876 net.cpp:90] Creating Layer inception_4e/relu_pool_proj
I0703 14:45:14.850271 30876 net.cpp:410] inception_4e/relu_pool_proj <- inception_4e/pool_proj
I0703 14:45:14.850282 30876 net.cpp:357] inception_4e/relu_pool_proj -> inception_4e/pool_proj (in-place)
I0703 14:45:14.850293 30876 net.cpp:120] Setting up inception_4e/relu_pool_proj
I0703 14:45:14.850350 30876 net.cpp:127] Top shape: 30 128 14 14 (752640)
I0703 14:45:14.850360 30876 layer_factory.hpp:74] Creating layer inception_4e/output
I0703 14:45:14.850371 30876 net.cpp:90] Creating Layer inception_4e/output
I0703 14:45:14.850380 30876 net.cpp:410] inception_4e/output <- inception_4e/1x1
I0703 14:45:14.850390 30876 net.cpp:410] inception_4e/output <- inception_4e/3x3
I0703 14:45:14.850399 30876 net.cpp:410] inception_4e/output <- inception_4e/5x5
I0703 14:45:14.850407 30876 net.cpp:410] inception_4e/output <- inception_4e/pool_proj
I0703 14:45:14.850419 30876 net.cpp:368] inception_4e/output -> inception_4e/output
I0703 14:45:14.850428 30876 net.cpp:120] Setting up inception_4e/output
I0703 14:45:14.850441 30876 net.cpp:127] Top shape: 30 832 14 14 (4892160)
I0703 14:45:14.850450 30876 layer_factory.hpp:74] Creating layer pool4/3x3_s2
I0703 14:45:14.850461 30876 net.cpp:90] Creating Layer pool4/3x3_s2
I0703 14:45:14.850469 30876 net.cpp:410] pool4/3x3_s2 <- inception_4e/output
I0703 14:45:14.850481 30876 net.cpp:368] pool4/3x3_s2 -> pool4/3x3_s2
I0703 14:45:14.850492 30876 net.cpp:120] Setting up pool4/3x3_s2
I0703 14:45:14.850548 30876 net.cpp:127] Top shape: 30 832 7 7 (1223040)
I0703 14:45:14.850559 30876 layer_factory.hpp:74] Creating layer pool4/3x3_s2_pool4/3x3_s2_0_split
I0703 14:45:14.850569 30876 net.cpp:90] Creating Layer pool4/3x3_s2_pool4/3x3_s2_0_split
I0703 14:45:14.850579 30876 net.cpp:410] pool4/3x3_s2_pool4/3x3_s2_0_split <- pool4/3x3_s2
I0703 14:45:14.850597 30876 net.cpp:368] pool4/3x3_s2_pool4/3x3_s2_0_split -> pool4/3x3_s2_pool4/3x3_s2_0_split_0
I0703 14:45:14.850610 30876 net.cpp:368] pool4/3x3_s2_pool4/3x3_s2_0_split -> pool4/3x3_s2_pool4/3x3_s2_0_split_1
I0703 14:45:14.850622 30876 net.cpp:368] pool4/3x3_s2_pool4/3x3_s2_0_split -> pool4/3x3_s2_pool4/3x3_s2_0_split_2
I0703 14:45:14.850632 30876 net.cpp:368] pool4/3x3_s2_pool4/3x3_s2_0_split -> pool4/3x3_s2_pool4/3x3_s2_0_split_3
I0703 14:45:14.850639 30876 net.cpp:120] Setting up pool4/3x3_s2_pool4/3x3_s2_0_split
I0703 14:45:14.850646 30876 net.cpp:127] Top shape: 30 832 7 7 (1223040)
I0703 14:45:14.850651 30876 net.cpp:127] Top shape: 30 832 7 7 (1223040)
I0703 14:45:14.850656 30876 net.cpp:127] Top shape: 30 832 7 7 (1223040)
I0703 14:45:14.850661 30876 net.cpp:127] Top shape: 30 832 7 7 (1223040)
I0703 14:45:14.850666 30876 layer_factory.hpp:74] Creating layer inception_5a/1x1
I0703 14:45:14.850673 30876 net.cpp:90] Creating Layer inception_5a/1x1
I0703 14:45:14.850678 30876 net.cpp:410] inception_5a/1x1 <- pool4/3x3_s2_pool4/3x3_s2_0_split_0
I0703 14:45:14.850684 30876 net.cpp:368] inception_5a/1x1 -> inception_5a/1x1
I0703 14:45:14.850692 30876 net.cpp:120] Setting up inception_5a/1x1
I0703 14:45:14.851945 30876 net.cpp:127] Top shape: 30 256 7 7 (376320)
I0703 14:45:14.851958 30876 layer_factory.hpp:74] Creating layer inception_5a/relu_1x1
I0703 14:45:14.851965 30876 net.cpp:90] Creating Layer inception_5a/relu_1x1
I0703 14:45:14.851970 30876 net.cpp:410] inception_5a/relu_1x1 <- inception_5a/1x1
I0703 14:45:14.851976 30876 net.cpp:357] inception_5a/relu_1x1 -> inception_5a/1x1 (in-place)
I0703 14:45:14.851982 30876 net.cpp:120] Setting up inception_5a/relu_1x1
I0703 14:45:14.852094 30876 net.cpp:127] Top shape: 30 256 7 7 (376320)
I0703 14:45:14.852103 30876 layer_factory.hpp:74] Creating layer inception_5a/3x3_reduce
I0703 14:45:14.852111 30876 net.cpp:90] Creating Layer inception_5a/3x3_reduce
I0703 14:45:14.852116 30876 net.cpp:410] inception_5a/3x3_reduce <- pool4/3x3_s2_pool4/3x3_s2_0_split_1
I0703 14:45:14.852123 30876 net.cpp:368] inception_5a/3x3_reduce -> inception_5a/3x3_reduce
I0703 14:45:14.852130 30876 net.cpp:120] Setting up inception_5a/3x3_reduce
I0703 14:45:14.852983 30876 net.cpp:127] Top shape: 30 160 7 7 (235200)
I0703 14:45:14.852995 30876 layer_factory.hpp:74] Creating layer inception_5a/relu_3x3_reduce
I0703 14:45:14.853003 30876 net.cpp:90] Creating Layer inception_5a/relu_3x3_reduce
I0703 14:45:14.853008 30876 net.cpp:410] inception_5a/relu_3x3_reduce <- inception_5a/3x3_reduce
I0703 14:45:14.853013 30876 net.cpp:357] inception_5a/relu_3x3_reduce -> inception_5a/3x3_reduce (in-place)
I0703 14:45:14.853020 30876 net.cpp:120] Setting up inception_5a/relu_3x3_reduce
I0703 14:45:14.853062 30876 net.cpp:127] Top shape: 30 160 7 7 (235200)
I0703 14:45:14.853068 30876 layer_factory.hpp:74] Creating layer inception_5a/3x3
I0703 14:45:14.853075 30876 net.cpp:90] Creating Layer inception_5a/3x3
I0703 14:45:14.853080 30876 net.cpp:410] inception_5a/3x3 <- inception_5a/3x3_reduce
I0703 14:45:14.853087 30876 net.cpp:368] inception_5a/3x3 -> inception_5a/3x3
I0703 14:45:14.853094 30876 net.cpp:120] Setting up inception_5a/3x3
I0703 14:45:14.855540 30876 net.cpp:127] Top shape: 30 320 7 7 (470400)
I0703 14:45:14.855551 30876 layer_factory.hpp:74] Creating layer inception_5a/relu_3x3
I0703 14:45:14.855559 30876 net.cpp:90] Creating Layer inception_5a/relu_3x3
I0703 14:45:14.855564 30876 net.cpp:410] inception_5a/relu_3x3 <- inception_5a/3x3
I0703 14:45:14.855571 30876 net.cpp:357] inception_5a/relu_3x3 -> inception_5a/3x3 (in-place)
I0703 14:45:14.855576 30876 net.cpp:120] Setting up inception_5a/relu_3x3
I0703 14:45:14.855618 30876 net.cpp:127] Top shape: 30 320 7 7 (470400)
I0703 14:45:14.855623 30876 layer_factory.hpp:74] Creating layer inception_5a/5x5_reduce
I0703 14:45:14.855631 30876 net.cpp:90] Creating Layer inception_5a/5x5_reduce
I0703 14:45:14.855636 30876 net.cpp:410] inception_5a/5x5_reduce <- pool4/3x3_s2_pool4/3x3_s2_0_split_2
I0703 14:45:14.855653 30876 net.cpp:368] inception_5a/5x5_reduce -> inception_5a/5x5_reduce
I0703 14:45:14.855660 30876 net.cpp:120] Setting up inception_5a/5x5_reduce
I0703 14:45:14.855998 30876 net.cpp:127] Top shape: 30 32 7 7 (47040)
I0703 14:45:14.856009 30876 layer_factory.hpp:74] Creating layer inception_5a/relu_5x5_reduce
I0703 14:45:14.856015 30876 net.cpp:90] Creating Layer inception_5a/relu_5x5_reduce
I0703 14:45:14.856021 30876 net.cpp:410] inception_5a/relu_5x5_reduce <- inception_5a/5x5_reduce
I0703 14:45:14.856026 30876 net.cpp:357] inception_5a/relu_5x5_reduce -> inception_5a/5x5_reduce (in-place)
I0703 14:45:14.856034 30876 net.cpp:120] Setting up inception_5a/relu_5x5_reduce
I0703 14:45:14.856073 30876 net.cpp:127] Top shape: 30 32 7 7 (47040)
I0703 14:45:14.856079 30876 layer_factory.hpp:74] Creating layer inception_5a/5x5
I0703 14:45:14.856087 30876 net.cpp:90] Creating Layer inception_5a/5x5
I0703 14:45:14.856092 30876 net.cpp:410] inception_5a/5x5 <- inception_5a/5x5_reduce
I0703 14:45:14.856099 30876 net.cpp:368] inception_5a/5x5 -> inception_5a/5x5
I0703 14:45:14.856106 30876 net.cpp:120] Setting up inception_5a/5x5
I0703 14:45:14.856827 30876 net.cpp:127] Top shape: 30 128 7 7 (188160)
I0703 14:45:14.856839 30876 layer_factory.hpp:74] Creating layer inception_5a/relu_5x5
I0703 14:45:14.856847 30876 net.cpp:90] Creating Layer inception_5a/relu_5x5
I0703 14:45:14.856851 30876 net.cpp:410] inception_5a/relu_5x5 <- inception_5a/5x5
I0703 14:45:14.856858 30876 net.cpp:357] inception_5a/relu_5x5 -> inception_5a/5x5 (in-place)
I0703 14:45:14.856863 30876 net.cpp:120] Setting up inception_5a/relu_5x5
I0703 14:45:14.856971 30876 net.cpp:127] Top shape: 30 128 7 7 (188160)
I0703 14:45:14.856979 30876 layer_factory.hpp:74] Creating layer inception_5a/pool
I0703 14:45:14.856984 30876 layer_factory.cpp:55] CUDNN does not support padding or multiple tops. Using Caffe's own pooling layer.
I0703 14:45:14.856992 30876 net.cpp:90] Creating Layer inception_5a/pool
I0703 14:45:14.856997 30876 net.cpp:410] inception_5a/pool <- pool4/3x3_s2_pool4/3x3_s2_0_split_3
I0703 14:45:14.857002 30876 net.cpp:368] inception_5a/pool -> inception_5a/pool
I0703 14:45:14.857008 30876 net.cpp:120] Setting up inception_5a/pool
I0703 14:45:14.857015 30876 net.cpp:127] Top shape: 30 832 7 7 (1223040)
I0703 14:45:14.857020 30876 layer_factory.hpp:74] Creating layer inception_5a/pool_proj
I0703 14:45:14.857028 30876 net.cpp:90] Creating Layer inception_5a/pool_proj
I0703 14:45:14.857033 30876 net.cpp:410] inception_5a/pool_proj <- inception_5a/pool
I0703 14:45:14.857039 30876 net.cpp:368] inception_5a/pool_proj -> inception_5a/pool_proj
I0703 14:45:14.857045 30876 net.cpp:120] Setting up inception_5a/pool_proj
I0703 14:45:14.857767 30876 net.cpp:127] Top shape: 30 128 7 7 (188160)
I0703 14:45:14.857779 30876 layer_factory.hpp:74] Creating layer inception_5a/relu_pool_proj
I0703 14:45:14.857785 30876 net.cpp:90] Creating Layer inception_5a/relu_pool_proj
I0703 14:45:14.857790 30876 net.cpp:410] inception_5a/relu_pool_proj <- inception_5a/pool_proj
I0703 14:45:14.857797 30876 net.cpp:357] inception_5a/relu_pool_proj -> inception_5a/pool_proj (in-place)
I0703 14:45:14.857803 30876 net.cpp:120] Setting up inception_5a/relu_pool_proj
I0703 14:45:14.857844 30876 net.cpp:127] Top shape: 30 128 7 7 (188160)
I0703 14:45:14.857851 30876 layer_factory.hpp:74] Creating layer inception_5a/output
I0703 14:45:14.857856 30876 net.cpp:90] Creating Layer inception_5a/output
I0703 14:45:14.857861 30876 net.cpp:410] inception_5a/output <- inception_5a/1x1
I0703 14:45:14.857866 30876 net.cpp:410] inception_5a/output <- inception_5a/3x3
I0703 14:45:14.857870 30876 net.cpp:410] inception_5a/output <- inception_5a/5x5
I0703 14:45:14.857875 30876 net.cpp:410] inception_5a/output <- inception_5a/pool_proj
I0703 14:45:14.857882 30876 net.cpp:368] inception_5a/output -> inception_5a/output
I0703 14:45:14.857887 30876 net.cpp:120] Setting up inception_5a/output
I0703 14:45:14.857894 30876 net.cpp:127] Top shape: 30 832 7 7 (1223040)
I0703 14:45:14.857899 30876 layer_factory.hpp:74] Creating layer inception_5a/output_inception_5a/output_0_split
I0703 14:45:14.857911 30876 net.cpp:90] Creating Layer inception_5a/output_inception_5a/output_0_split
I0703 14:45:14.857916 30876 net.cpp:410] inception_5a/output_inception_5a/output_0_split <- inception_5a/output
I0703 14:45:14.857921 30876 net.cpp:368] inception_5a/output_inception_5a/output_0_split -> inception_5a/output_inception_5a/output_0_split_0
I0703 14:45:14.857928 30876 net.cpp:368] inception_5a/output_inception_5a/output_0_split -> inception_5a/output_inception_5a/output_0_split_1
I0703 14:45:14.857936 30876 net.cpp:368] inception_5a/output_inception_5a/output_0_split -> inception_5a/output_inception_5a/output_0_split_2
I0703 14:45:14.857944 30876 net.cpp:368] inception_5a/output_inception_5a/output_0_split -> inception_5a/output_inception_5a/output_0_split_3
I0703 14:45:14.857949 30876 net.cpp:120] Setting up inception_5a/output_inception_5a/output_0_split
I0703 14:45:14.857955 30876 net.cpp:127] Top shape: 30 832 7 7 (1223040)
I0703 14:45:14.857960 30876 net.cpp:127] Top shape: 30 832 7 7 (1223040)
I0703 14:45:14.857965 30876 net.cpp:127] Top shape: 30 832 7 7 (1223040)
I0703 14:45:14.857969 30876 net.cpp:127] Top shape: 30 832 7 7 (1223040)
I0703 14:45:14.857975 30876 layer_factory.hpp:74] Creating layer inception_5b/1x1
I0703 14:45:14.857981 30876 net.cpp:90] Creating Layer inception_5b/1x1
I0703 14:45:14.857985 30876 net.cpp:410] inception_5b/1x1 <- inception_5a/output_inception_5a/output_0_split_0
I0703 14:45:14.857991 30876 net.cpp:368] inception_5b/1x1 -> inception_5b/1x1
I0703 14:45:14.857998 30876 net.cpp:120] Setting up inception_5b/1x1
I0703 14:45:14.859760 30876 net.cpp:127] Top shape: 30 384 7 7 (564480)
I0703 14:45:14.859771 30876 layer_factory.hpp:74] Creating layer inception_5b/relu_1x1
I0703 14:45:14.859779 30876 net.cpp:90] Creating Layer inception_5b/relu_1x1
I0703 14:45:14.859784 30876 net.cpp:410] inception_5b/relu_1x1 <- inception_5b/1x1
I0703 14:45:14.859791 30876 net.cpp:357] inception_5b/relu_1x1 -> inception_5b/1x1 (in-place)
I0703 14:45:14.859797 30876 net.cpp:120] Setting up inception_5b/relu_1x1
I0703 14:45:14.859838 30876 net.cpp:127] Top shape: 30 384 7 7 (564480)
I0703 14:45:14.859843 30876 layer_factory.hpp:74] Creating layer inception_5b/3x3_reduce
I0703 14:45:14.859850 30876 net.cpp:90] Creating Layer inception_5b/3x3_reduce
I0703 14:45:14.859855 30876 net.cpp:410] inception_5b/3x3_reduce <- inception_5a/output_inception_5a/output_0_split_1
I0703 14:45:14.859861 30876 net.cpp:368] inception_5b/3x3_reduce -> inception_5b/3x3_reduce
I0703 14:45:14.859869 30876 net.cpp:120] Setting up inception_5b/3x3_reduce
I0703 14:45:14.860846 30876 net.cpp:127] Top shape: 30 192 7 7 (282240)
I0703 14:45:14.860857 30876 layer_factory.hpp:74] Creating layer inception_5b/relu_3x3_reduce
I0703 14:45:14.860864 30876 net.cpp:90] Creating Layer inception_5b/relu_3x3_reduce
I0703 14:45:14.860869 30876 net.cpp:410] inception_5b/relu_3x3_reduce <- inception_5b/3x3_reduce
I0703 14:45:14.860875 30876 net.cpp:357] inception_5b/relu_3x3_reduce -> inception_5b/3x3_reduce (in-place)
I0703 14:45:14.860882 30876 net.cpp:120] Setting up inception_5b/relu_3x3_reduce
I0703 14:45:14.860923 30876 net.cpp:127] Top shape: 30 192 7 7 (282240)
I0703 14:45:14.860929 30876 layer_factory.hpp:74] Creating layer inception_5b/3x3
I0703 14:45:14.860935 30876 net.cpp:90] Creating Layer inception_5b/3x3
I0703 14:45:14.860940 30876 net.cpp:410] inception_5b/3x3 <- inception_5b/3x3_reduce
I0703 14:45:14.860947 30876 net.cpp:368] inception_5b/3x3 -> inception_5b/3x3
I0703 14:45:14.860965 30876 net.cpp:120] Setting up inception_5b/3x3
I0703 14:45:14.864397 30876 net.cpp:127] Top shape: 30 384 7 7 (564480)
I0703 14:45:14.864409 30876 layer_factory.hpp:74] Creating layer inception_5b/relu_3x3
I0703 14:45:14.864416 30876 net.cpp:90] Creating Layer inception_5b/relu_3x3
I0703 14:45:14.864421 30876 net.cpp:410] inception_5b/relu_3x3 <- inception_5b/3x3
I0703 14:45:14.864428 30876 net.cpp:357] inception_5b/relu_3x3 -> inception_5b/3x3 (in-place)
I0703 14:45:14.864444 30876 net.cpp:120] Setting up inception_5b/relu_3x3
I0703 14:45:14.864555 30876 net.cpp:127] Top shape: 30 384 7 7 (564480)
I0703 14:45:14.864575 30876 layer_factory.hpp:74] Creating layer inception_5b/5x5_reduce
I0703 14:45:14.864586 30876 net.cpp:90] Creating Layer inception_5b/5x5_reduce
I0703 14:45:14.864593 30876 net.cpp:410] inception_5b/5x5_reduce <- inception_5a/output_inception_5a/output_0_split_2
I0703 14:45:14.864609 30876 net.cpp:368] inception_5b/5x5_reduce -> inception_5b/5x5_reduce
I0703 14:45:14.864617 30876 net.cpp:120] Setting up inception_5b/5x5_reduce
I0703 14:45:14.865058 30876 net.cpp:127] Top shape: 30 48 7 7 (70560)
I0703 14:45:14.865070 30876 layer_factory.hpp:74] Creating layer inception_5b/relu_5x5_reduce
I0703 14:45:14.865078 30876 net.cpp:90] Creating Layer inception_5b/relu_5x5_reduce
I0703 14:45:14.865083 30876 net.cpp:410] inception_5b/relu_5x5_reduce <- inception_5b/5x5_reduce
I0703 14:45:14.865089 30876 net.cpp:357] inception_5b/relu_5x5_reduce -> inception_5b/5x5_reduce (in-place)
I0703 14:45:14.865095 30876 net.cpp:120] Setting up inception_5b/relu_5x5_reduce
I0703 14:45:14.865139 30876 net.cpp:127] Top shape: 30 48 7 7 (70560)
I0703 14:45:14.865144 30876 layer_factory.hpp:74] Creating layer inception_5b/5x5
I0703 14:45:14.865152 30876 net.cpp:90] Creating Layer inception_5b/5x5
I0703 14:45:14.865157 30876 net.cpp:410] inception_5b/5x5 <- inception_5b/5x5_reduce
I0703 14:45:14.865164 30876 net.cpp:368] inception_5b/5x5 -> inception_5b/5x5
I0703 14:45:14.865170 30876 net.cpp:120] Setting up inception_5b/5x5
I0703 14:45:14.866260 30876 net.cpp:127] Top shape: 30 128 7 7 (188160)
I0703 14:45:14.866271 30876 layer_factory.hpp:74] Creating layer inception_5b/relu_5x5
I0703 14:45:14.866278 30876 net.cpp:90] Creating Layer inception_5b/relu_5x5
I0703 14:45:14.866283 30876 net.cpp:410] inception_5b/relu_5x5 <- inception_5b/5x5
I0703 14:45:14.866289 30876 net.cpp:357] inception_5b/relu_5x5 -> inception_5b/5x5 (in-place)
I0703 14:45:14.866297 30876 net.cpp:120] Setting up inception_5b/relu_5x5
I0703 14:45:14.866338 30876 net.cpp:127] Top shape: 30 128 7 7 (188160)
I0703 14:45:14.866344 30876 layer_factory.hpp:74] Creating layer inception_5b/pool
I0703 14:45:14.866349 30876 layer_factory.cpp:55] CUDNN does not support padding or multiple tops. Using Caffe's own pooling layer.
I0703 14:45:14.866355 30876 net.cpp:90] Creating Layer inception_5b/pool
I0703 14:45:14.866360 30876 net.cpp:410] inception_5b/pool <- inception_5a/output_inception_5a/output_0_split_3
I0703 14:45:14.866366 30876 net.cpp:368] inception_5b/pool -> inception_5b/pool
I0703 14:45:14.866372 30876 net.cpp:120] Setting up inception_5b/pool
I0703 14:45:14.866381 30876 net.cpp:127] Top shape: 30 832 7 7 (1223040)
I0703 14:45:14.866386 30876 layer_factory.hpp:74] Creating layer inception_5b/pool_proj
I0703 14:45:14.866392 30876 net.cpp:90] Creating Layer inception_5b/pool_proj
I0703 14:45:14.866397 30876 net.cpp:410] inception_5b/pool_proj <- inception_5b/pool
I0703 14:45:14.866405 30876 net.cpp:368] inception_5b/pool_proj -> inception_5b/pool_proj
I0703 14:45:14.866410 30876 net.cpp:120] Setting up inception_5b/pool_proj
I0703 14:45:14.867198 30876 net.cpp:127] Top shape: 30 128 7 7 (188160)
I0703 14:45:14.867216 30876 layer_factory.hpp:74] Creating layer inception_5b/relu_pool_proj
I0703 14:45:14.867228 30876 net.cpp:90] Creating Layer inception_5b/relu_pool_proj
I0703 14:45:14.867236 30876 net.cpp:410] inception_5b/relu_pool_proj <- inception_5b/pool_proj
I0703 14:45:14.867246 30876 net.cpp:357] inception_5b/relu_pool_proj -> inception_5b/pool_proj (in-place)
I0703 14:45:14.867256 30876 net.cpp:120] Setting up inception_5b/relu_pool_proj
I0703 14:45:14.867414 30876 net.cpp:127] Top shape: 30 128 7 7 (188160)
I0703 14:45:14.867427 30876 layer_factory.hpp:74] Creating layer inception_5b/output
I0703 14:45:14.867437 30876 net.cpp:90] Creating Layer inception_5b/output
I0703 14:45:14.867445 30876 net.cpp:410] inception_5b/output <- inception_5b/1x1
I0703 14:45:14.867455 30876 net.cpp:410] inception_5b/output <- inception_5b/3x3
I0703 14:45:14.867475 30876 net.cpp:410] inception_5b/output <- inception_5b/5x5
I0703 14:45:14.867485 30876 net.cpp:410] inception_5b/output <- inception_5b/pool_proj
I0703 14:45:14.867493 30876 net.cpp:368] inception_5b/output -> inception_5b/output
I0703 14:45:14.867504 30876 net.cpp:120] Setting up inception_5b/output
I0703 14:45:14.867516 30876 net.cpp:127] Top shape: 30 1024 7 7 (1505280)
I0703 14:45:14.867523 30876 layer_factory.hpp:74] Creating layer pool5/7x7_s1
I0703 14:45:14.867534 30876 net.cpp:90] Creating Layer pool5/7x7_s1
I0703 14:45:14.867542 30876 net.cpp:410] pool5/7x7_s1 <- inception_5b/output
I0703 14:45:14.867552 30876 net.cpp:368] pool5/7x7_s1 -> pool5/7x7_s1
I0703 14:45:14.867563 30876 net.cpp:120] Setting up pool5/7x7_s1
I0703 14:45:14.867630 30876 net.cpp:127] Top shape: 30 1024 1 1 (30720)
I0703 14:45:14.867640 30876 layer_factory.hpp:74] Creating layer pool5/drop_7x7_s1
I0703 14:45:14.867650 30876 net.cpp:90] Creating Layer pool5/drop_7x7_s1
I0703 14:45:14.867660 30876 net.cpp:410] pool5/drop_7x7_s1 <- pool5/7x7_s1
I0703 14:45:14.867668 30876 net.cpp:357] pool5/drop_7x7_s1 -> pool5/7x7_s1 (in-place)
I0703 14:45:14.867676 30876 net.cpp:120] Setting up pool5/drop_7x7_s1
I0703 14:45:14.867684 30876 net.cpp:127] Top shape: 30 1024 1 1 (30720)
I0703 14:45:14.867692 30876 layer_factory.hpp:74] Creating layer stanford_cars_loss3/classifier
I0703 14:45:14.867705 30876 net.cpp:90] Creating Layer stanford_cars_loss3/classifier
I0703 14:45:14.867713 30876 net.cpp:410] stanford_cars_loss3/classifier <- pool5/7x7_s1
I0703 14:45:14.867723 30876 net.cpp:368] stanford_cars_loss3/classifier -> stanford_cars_loss3/classifier
I0703 14:45:14.867733 30876 net.cpp:120] Setting up stanford_cars_loss3/classifier
I0703 14:45:14.869297 30876 net.cpp:127] Top shape: 30 196 (5880)
I0703 14:45:14.869307 30876 layer_factory.hpp:74] Creating layer loss3/loss3
I0703 14:45:14.869315 30876 net.cpp:90] Creating Layer loss3/loss3
I0703 14:45:14.869320 30876 net.cpp:410] loss3/loss3 <- stanford_cars_loss3/classifier
I0703 14:45:14.869325 30876 net.cpp:410] loss3/loss3 <- label_data_1_split_2
I0703 14:45:14.869333 30876 net.cpp:368] loss3/loss3 -> loss3/loss3
I0703 14:45:14.869340 30876 net.cpp:120] Setting up loss3/loss3
…
I0703 14:45:14.873167 30876 net.cpp:287] The NetState phase (1) differed from the phase (0) specified by a rule in layer data
I0703 14:45:14.873872 30876 net.cpp:42] Initializing net from parameters: 
name: "GoogleNet"
state {
  phase: TEST
}
layer {
  name: "data"
  type: "Data"
  top: "data"
  top: "label"
  include {
    phase: TEST
  }
  transform_param {
    mirror: false
    crop_size: 224
    mean_value: 104
    mean_value: 117
    mean_value: 123
  }
  data_param {
    source: "examples/stanford_cars/stanford_cars_val_lmdb"
    batch_size: 10
    backend: LMDB
  }
}
layer {
  name: "conv1/7x7_s2"
  type: "Convolution"
  bottom: "data"
  top: "conv1/7x7_s2"
  param {
    lr_mult: 1
    decay_mult: 1
  }
  param {
    lr_mult: 2
    decay_mult: 0
  }
  convolution_param {
    num_output: 64
    pad: 3
    kernel_size: 7
    stride: 2
    weight_filler {
      type: "xavier"
      std: 0.1
    }
    bias_filler {
      type: "constant"
      value: 0.2
    }
  }
}
layer {
  name: "conv1/relu_7x7"
  type: "ReLU"
  bottom: "conv1/7x7_s2"
  top: "conv1/7x7_s2"
}
layer {
  name: "pool1/3x3_s2"
  type: "Pooling"
  bottom: "conv1/7x7_s2"
  top: "pool1/3x3_s2"
  pooling_param {
    pool: MAX
    kernel_size: 3
    stride: 2
  }
}
layer {
  name: "pool1/norm1"
  type: "LRN"
  bottom: "pool1/3x3_s2"
  top: "pool1/norm1"
  lrn_param {
    local_size: 5
    alpha: 0.0001
    beta: 0.75
  }
}
layer {
  name: "conv2/3x3_reduce"
  type: "Convolution"
  bottom: "pool1/norm1"
  top: "conv2/3x3_reduce"
  param {
    lr_mult: 1
    decay_mult: 1
  }
  param {
    lr_mult: 2
    decay_mult: 0
  }
  convolution_param {
    num_output: 64
    kernel_size: 1
    weight_filler {
      type: "xavier"
      std: 0.1
    }
    bias_filler {
      type: "constant"
      value: 0.2
    }
  }
}
layer {
  name: "conv2/relu_3x3_reduce"
  type: "ReLU"
  bottom: "conv2/3x3_reduce"
  top: "conv2/3x3_reduce"
}
layer {
  name: "conv2/3x3"
  type: "Convolution"
  bottom: "conv2/3x3_reduce"
  top: "conv2/3x3"
  param {
    lr_mult: 1
    decay_mult: 1
  }
  param {
    lr_mult: 2
    decay_mult: 0
  }
  convolution_param {
    num_output: 192
    pad: 1
    kernel_size: 3
    weight_filler {
      type: "xavier"
      std: 0.03
    }
    bias_filler {
      type: "constant"
      value: 0.2
    }
  }
}
layer {
  name: "conv2/relu_3x3"
  type: "ReLU"
  bottom: "conv2/3x3"
  top: "conv2/3x3"
}
layer {
  name: "conv2/norm2"
  type: "LRN"
  bottom: "conv2/3x3"
  top: "conv2/norm2"
  lrn_param {
    local_size: 5
    alpha: 0.0001
    beta: 0.75
  }
}
layer {
  name: "pool2/3x3_s2"
  type: "Pooling"
  bottom: "conv2/norm2"
  top: "pool2/3x3_s2"
  pooling_param {
    pool: MAX
    kernel_size: 3
    stride: 2
  }
}
layer {
  name: "inception_3a/1x1"
  type: "Convolution"
  bottom: "pool2/3x3_s2"
  top: "inception_3a/1x1"
  param {
    lr_mult: 1
    decay_mult: 1
  }
  param {
    lr_mult: 2
    decay_mult: 0
  }
  convolution_param {
    num_output: 64
    kernel_size: 1
    weight_filler {
      type: "xavier"
      std: 0.03
    }
    bias_filler {
      type: "constant"
      value: 0.2
    }
  }
}
layer {
  name: "inception_3a/relu_1x1"
  type: "ReLU"
  bottom: "inception_3a/1x1"
  top: "inception_3a/1x1"
}
layer {
  name: "inception_3a/3x3_reduce"
  type: "Convolution"
  bottom: "pool2/3x3_s2"
  top: "inception_3a/3x3_reduce"
  param {
    lr_mult: 1
    decay_mult: 1
  }
  param {
    lr_mult: 2
    decay_mult: 0
  }
  convolution_param {
    num_output: 96
    kernel_size: 1
    weight_filler {
      type: "xavier"
      std: 0.09
    }
    bias_filler {
      type: "constant"
      value: 0.2
    }
  }
}
layer {
  name: "inception_3a/relu_3x3_reduce"
  type: "ReLU"
  bottom: "inception_3a/3x3_reduce"
  top: "inception_3a/3x3_reduce"
}
layer {
  name: "inception_3a/3x3"
  type: "Convolution"
  bottom: "inception_3a/3x3_reduce"
  top: "inception_3a/3x3"
  param {
    lr_mult: 1
    decay_mult: 1
  }
  param {
    lr_mult: 2
    decay_mult: 0
  }
  convolution_param {
    num_output: 128
    pad: 1
    kernel_size: 3
    weight_filler {
      type: "xavier"
      std: 0.03
    }
    bias_filler {
      type: "constant"
      value: 0.2
    }
  }
}
layer {
  name: "inception_3a/relu_3x3"
  type: "ReLU"
  bottom: "inception_3a/3x3"
  top: "inception_3a/3x3"
}
layer {
  name: "inception_3a/5x5_reduce"
  type: "Convolution"
  bottom: "pool2/3x3_s2"
  top: "inception_3a/5x5_reduce"
  param {
    lr_mult: 1
    decay_mult: 1
  }
  param {
    lr_mult: 2
    decay_mult: 0
  }
  convolution_param {
    num_output: 16
    kernel_size: 1
    weight_filler {
      type: "xavier"
      std: 0.2
    }
    bias_filler {
      type: "constant"
      value: 0.2
    }
  }
}
layer {
  name: "inception_3a/relu_5x5_reduce"
  type: "ReLU"
  bottom: "inception_3a/5x5_reduce"
  top: "inception_3a/5x5_reduce"
}
layer {
  name: "inception_3a/5x5"
  type: "Convolution"
  bottom: "inception_3a/5x5_reduce"
  top: "inception_3a/5x5"
  param {
    lr_mult: 1
    decay_mult: 1
  }
  param {
    lr_mult: 2
    decay_mult: 0
  }
  convolution_param {
    num_output: 32
    pad: 2
    kernel_size: 5
    weight_filler {
      type: "xavier"
      std: 0.03
    }
    bias_filler {
      type: "constant"
      value: 0.2
    }
  }
}
layer {
  name: "inception_3a/relu_5x5"
  type: "ReLU"
  bottom: "inception_3a/5x5"
  top: "inception_3a/5x5"
}
layer {
  name: "inception_3a/pool"
  type: "Pooling"
  bottom: "pool2/3x3_s2"
  top: "inception_3a/pool"
  pooling_param {
    pool: MAX
    kernel_size: 3
    stride: 1
    pad: 1
  }
}
layer {
  name: "inception_3a/pool_proj"
  type: "Convolution"
  bottom: "inception_3a/pool"
  top: "inception_3a/pool_proj"
  param {
    lr_mult: 1
    decay_mult: 1
  }
  param {
    lr_mult: 2
    decay_mult: 0
  }
  convolution_param {
    num_output: 32
    kernel_size: 1
    weight_filler {
      type: "xavier"
      std: 0.1
    }
    bias_filler {
      type: "constant"
      value: 0.2
    }
  }
}
layer {
  name: "inception_3a/relu_pool_proj"
  type: "ReLU"
  bottom: "inception_3a/pool_proj"
  top: "inception_3a/pool_proj"
}
layer {
  name: "inception_3a/output"
  type: "Concat"
  bottom: "inception_3a/1x1"
  bottom: "inception_3a/3x3"
  bottom: "inception_3a/5x5"
  bottom: "inception_3a/pool_proj"
  top: "inception_3a/output"
}
layer {
  name: "inception_3b/1x1"
  type: "Convolution"
  bottom: "inception_3a/output"
  top: "inception_3b/1x1"
  param {
    lr_mult: 1
    decay_mult: 1
  }
  param {
    lr_mult: 2
    decay_mult: 0
  }
  convolution_param {
    num_output: 128
    kernel_size: 1
    weight_filler {
      type: "xavier"
      std: 0.03
    }
    bias_filler {
      type: "constant"
      value: 0.2
    }
  }
}
layer {
  name: "inception_3b/relu_1x1"
  type: "ReLU"
  bottom: "inception_3b/1x1"
  top: "inception_3b/1x1"
}
layer {
  name: "inception_3b/3x3_reduce"
  type: "Convolution"
  bottom: "inception_3a/output"
  top: "inception_3b/3x3_reduce"
  param {
    lr_mult: 1
    decay_mult: 1
  }
  param {
    lr_mult: 2
    decay_mult: 0
  }
  convolution_param {
    num_output: 128
    kernel_size: 1
    weight_filler {
      type: "xavier"
      std: 0.09
    }
    bias_filler {
      type: "constant"
      value: 0.2
    }
  }
}
layer {
  name: "inception_3b/relu_3x3_reduce"
  type: "ReLU"
  bottom: "inception_3b/3x3_reduce"
  top: "inception_3b/3x3_reduce"
}
layer {
  name: "inception_3b/3x3"
  type: "Convolution"
  bottom: "inception_3b/3x3_reduce"
  top: "inception_3b/3x3"
  param {
    lr_mult: 1
    decay_mult: 1
  }
  param {
    lr_mult: 2
    decay_mult: 0
  }
  convolution_param {
    num_output: 192
    pad: 1
    kernel_size: 3
    weight_filler {
      type: "xavier"
      std: 0.03
    }
    bias_filler {
      type: "constant"
      value: 0.2
    }
  }
}
layer {
  name: "inception_3b/relu_3x3"
  type: "ReLU"
  bottom: "inception_3b/3x3"
  top: "inception_3b/3x3"
}
layer {
  name: "inception_3b/5x5_reduce"
  type: "Convolution"
  bottom: "inception_3a/output"
  top: "inception_3b/5x5_reduce"
  param {
    lr_mult: 1
    decay_mult: 1
  }
  param {
    lr_mult: 2
    decay_mult: 0
  }
  convolution_param {
    num_output: 32
    kernel_size: 1
    weight_filler {
      type: "xavier"
      std: 0.2
    }
    bias_filler {
      type: "constant"
      value: 0.2
    }
  }
}
layer {
  name: "inception_3b/relu_5x5_reduce"
  type: "ReLU"
  bottom: "inception_3b/5x5_reduce"
  top: "inception_3b/5x5_reduce"
}
layer {
  name: "inception_3b/5x5"
  type: "Convolution"
  bottom: "inception_3b/5x5_reduce"
  top: "inception_3b/5x5"
  param {
    lr_mult: 1
    decay_mult: 1
  }
  param {
    lr_mult: 2
    decay_mult: 0
  }
  convolution_param {
    num_output: 96
    pad: 2
    kernel_size: 5
    weight_filler {
      type: "xavier"
      std: 0.03
    }
    bias_filler {
      type: "constant"
      value: 0.2
    }
  }
}
layer {
  name: "inception_3b/relu_5x5"
  type: "ReLU"
  bottom: "inception_3b/5x5"
  top: "inception_3b/5x5"
}
layer {
  name: "inception_3b/pool"
  type: "Pooling"
  bottom: "inception_3a/output"
  top: "inception_3b/pool"
  pooling_param {
    pool: MAX
    kernel_size: 3
    stride: 1
    pad: 1
  }
}
layer {
  name: "inception_3b/pool_proj"
  type: "Convolution"
  bottom: "inception_3b/pool"
  top: "inception_3b/pool_proj"
  param {
    lr_mult: 1
    decay_mult: 1
  }
  param {
    lr_mult: 2
    decay_mult: 0
  }
  convolution_param {
    num_output: 64
    kernel_size: 1
    weight_filler {
      type: "xavier"
      std: 0.1
    }
    bias_filler {
      type: "constant"
      value: 0.2
    }
  }
}
layer {
  name: "inception_3b/relu_pool_proj"
  type: "ReLU"
  bottom: "inception_3b/pool_proj"
  top: "inception_3b/pool_proj"
}
layer {
  name: "inception_3b/output"
  type: "Concat"
  bottom: "inception_3b/1x1"
  bottom: "inception_3b/3x3"
  bottom: "inception_3b/5x5"
  bottom: "inception_3b/pool_proj"
  top: "inception_3b/output"
}
layer {
  name: "pool3/3x3_s2"
  type: "Pooling"
  bottom: "inception_3b/output"
  top: "pool3/3x3_s2"
  pooling_param {
    pool: MAX
    kernel_size: 3
    stride: 2
  }
}
layer {
  name: "inception_4a/1x1"
  type: "Convolution"
  bottom: "pool3/3x3_s2"
  top: "inception_4a/1x1"
  param {
    lr_mult: 1
    decay_mult: 1
  }
  param {
    lr_mult: 2
    decay_mult: 0
  }
  convolution_param {
    num_output: 192
    kernel_size: 1
    weight_filler {
      type: "xavier"
      std: 0.03
    }
    bias_filler {
      type: "constant"
      value: 0.2
    }
  }
}
layer {
  name: "inception_4a/relu_1x1"
  type: "ReLU"
  bottom: "inception_4a/1x1"
  top: "inception_4a/1x1"
}
layer {
  name: "inception_4a/3x3_reduce"
  type: "Convolution"
  bottom: "pool3/3x3_s2"
  top: "inception_4a/3x3_reduce"
  param {
    lr_mult: 1
    decay_mult: 1
  }
  param {
    lr_mult: 2
    decay_mult: 0
  }
  convolution_param {
    num_output: 96
    kernel_size: 1
    weight_filler {
      type: "xavier"
      std: 0.09
    }
    bias_filler {
      type: "constant"
      value: 0.2
    }
  }
}
layer {
  name: "inception_4a/relu_3x3_reduce"
  type: "ReLU"
  bottom: "inception_4a/3x3_reduce"
  top: "inception_4a/3x3_reduce"
}
layer {
  name: "inception_4a/3x3"
  type: "Convolution"
  bottom: "inception_4a/3x3_reduce"
  top: "inception_4a/3x3"
  param {
    lr_mult: 1
    decay_mult: 1
  }
  param {
    lr_mult: 2
    decay_mult: 0
  }
  convolution_param {
    num_output: 208
    pad: 1
    kernel_size: 3
    weight_filler {
      type: "xavier"
      std: 0.03
    }
    bias_filler {
      type: "constant"
      value: 0.2
    }
  }
}
layer {
  name: "inception_4a/relu_3x3"
  type: "ReLU"
  bottom: "inception_4a/3x3"
  top: "inception_4a/3x3"
}
layer {
  name: "inception_4a/5x5_reduce"
  type: "Convolution"
  bottom: "pool3/3x3_s2"
  top: "inception_4a/5x5_reduce"
  param {
    lr_mult: 1
    decay_mult: 1
  }
  param {
    lr_mult: 2
    decay_mult: 0
  }
  convolution_param {
    num_output: 16
    kernel_size: 1
    weight_filler {
      type: "xavier"
      std: 0.2
    }
    bias_filler {
      type: "constant"
      value: 0.2
    }
  }
}
layer {
  name: "inception_4a/relu_5x5_reduce"
  type: "ReLU"
  bottom: "inception_4a/5x5_reduce"
  top: "inception_4a/5x5_reduce"
}
layer {
  name: "inception_4a/5x5"
  type: "Convolution"
  bottom: "inception_4a/5x5_reduce"
  top: "inception_4a/5x5"
  param {
    lr_mult: 1
    decay_mult: 1
  }
  param {
    lr_mult: 2
    decay_mult: 0
  }
  convolution_param {
    num_output: 48
    pad: 2
    kernel_size: 5
    weight_filler {
      type: "xavier"
      std: 0.03
    }
    bias_filler {
      type: "constant"
      value: 0.2
    }
  }
}
layer {
  name: "inception_4a/relu_5x5"
  type: "ReLU"
  bottom: "inception_4a/5x5"
  top: "inception_4a/5x5"
}
layer {
  name: "inception_4a/pool"
  type: "Pooling"
  bottom: "pool3/3x3_s2"
  top: "inception_4a/pool"
  pooling_param {
    pool: MAX
    kernel_size: 3
    stride: 1
    pad: 1
  }
}
layer {
  name: "inception_4a/pool_proj"
  type: "Convolution"
  bottom: "inception_4a/pool"
  top: "inception_4a/pool_proj"
  param {
    lr_mult: 1
    decay_mult: 1
  }
  param {
    lr_mult: 2
    decay_mult: 0
  }
  convolution_param {
    num_output: 64
    kernel_size: 1
    weight_filler {
      type: "xavier"
      std: 0.1
    }
    bias_filler {
      type: "constant"
      value: 0.2
    }
  }
}
layer {
  name: "inception_4a/relu_pool_proj"
  type: "ReLU"
  bottom: "inception_4a/pool_proj"
  top: "inception_4a/pool_proj"
}
layer {
  name: "inception_4a/output"
  type: "Concat"
  bottom: "inception_4a/1x1"
  bottom: "inception_4a/3x3"
  bottom: "inception_4a/5x5"
  bottom: "inception_4a/pool_proj"
  top: "inception_4a/output"
}
layer {
  name: "loss1/ave_pool"
  type: "Pooling"
  bottom: "inception_4a/output"
  top: "loss1/ave_pool"
  pooling_param {
    pool: AVE
    kernel_size: 5
    stride: 3
  }
}
layer {
  name: "loss1/conv"
  type: "Convolution"
  bottom: "loss1/ave_pool"
  top: "loss1/conv"
  param {
    lr_mult: 1
    decay_mult: 1
  }
  param {
    lr_mult: 2
    decay_mult: 0
  }
  convolution_param {
    num_output: 128
    kernel_size: 1
    weight_filler {
      type: "xavier"
      std: 0.08
    }
    bias_filler {
      type: "constant"
      value: 0.2
    }
  }
}
layer {
  name: "loss1/relu_conv"
  type: "ReLU"
  bottom: "loss1/conv"
  top: "loss1/conv"
}
layer {
  name: "loss1/fc"
  type: "InnerProduct"
  bottom: "loss1/conv"
  top: "loss1/fc"
  param {
    lr_mult: 1
    decay_mult: 1
  }
  param {
    lr_mult: 2
    decay_mult: 0
  }
  inner_product_param {
    num_output: 1024
    weight_filler {
      type: "xavier"
      std: 0.02
    }
    bias_filler {
      type: "constant"
      value: 0.2
    }
  }
}
layer {
  name: "loss1/relu_fc"
  type: "ReLU"
  bottom: "loss1/fc"
  top: "loss1/fc"
}
layer {
  name: "loss1/drop_fc"
  type: "Dropout"
  bottom: "loss1/fc"
  top: "loss1/fc"
  dropout_param {
    dropout_ratio: 0.2
  }
}
layer {
  name: "stanford_cars_loss1/classifier"
  type: "InnerProduct"
  bottom: "loss1/fc"
  top: "stanford_cars_loss1/classifier"
  param {
    lr_mult: 1
    decay_mult: 1
  }
  param {
    lr_mult: 2
    decay_mult: 0
  }
  inner_product_param {
    num_output: 196
    weight_filler {
      type: "xavier"
      std: 0.0009765625
    }
    bias_filler {
      type: "constant"
      value: 0
    }
  }
}
layer {
  name: "loss1/loss"
  type: "SoftmaxWithLoss"
  bottom: "stanford_cars_loss1/classifier"
  bottom: "label"
  top: "loss1/loss1"
  loss_weight: 0.3
}
layer {
  name: "loss1/top-1"
  type: "Accuracy"
  bottom: "stanford_cars_loss1/classifier"
  bottom: "label"
  top: "loss1/top-1"
  include {
    phase: TEST
  }
}
layer {
  name: "loss1/top-5"
  type: "Accuracy"
  bottom: "stanford_cars_loss1/classifier"
  bottom: "label"
  top: "loss1/top-5"
  include {
    phase: TEST
  }
  accuracy_param {
    top_k: 5
  }
}
layer {
  name: "inception_4b/1x1"
  type: "Convolution"
  bottom: "inception_4a/output"
  top: "inception_4b/1x1"
  param {
    lr_mult: 1
    decay_mult: 1
  }
  param {
    lr_mult: 2
    decay_mult: 0
  }
  convolution_param {
    num_output: 160
    kernel_size: 1
    weight_filler {
      type: "xavier"
      std: 0.03
    }
    bias_filler {
      type: "constant"
      value: 0.2
    }
  }
}
layer {
  name: "inception_4b/relu_1x1"
  type: "ReLU"
  bottom: "inception_4b/1x1"
  top: "inception_4b/1x1"
}
layer {
  name: "inception_4b/3x3_reduce"
  type: "Convolution"
  bottom: "inception_4a/output"
  top: "inception_4b/3x3_reduce"
  param {
    lr_mult: 1
    decay_mult: 1
  }
  param {
    lr_mult: 2
    decay_mult: 0
  }
  convolution_param {
    num_output: 112
    kernel_size: 1
    weight_filler {
      type: "xavier"
      std: 0.09
    }
    bias_filler {
      type: "constant"
      value: 0.2
    }
  }
}
layer {
  name: "inception_4b/relu_3x3_reduce"
  type: "ReLU"
  bottom: "inception_4b/3x3_reduce"
  top: "inception_4b/3x3_reduce"
}
layer {
  name: "inception_4b/3x3"
  type: "Convolution"
  bottom: "inception_4b/3x3_reduce"
  top: "inception_4b/3x3"
  param {
    lr_mult: 1
    decay_mult: 1
  }
  param {
    lr_mult: 2
    decay_mult: 0
  }
  convolution_param {
    num_output: 224
    pad: 1
    kernel_size: 3
    weight_filler {
      type: "xavier"
      std: 0.03
    }
    bias_filler {
      type: "constant"
      value: 0.2
    }
  }
}
layer {
  name: "inception_4b/relu_3x3"
  type: "ReLU"
  bottom: "inception_4b/3x3"
  top: "inception_4b/3x3"
}
layer {
  name: "inception_4b/5x5_reduce"
  type: "Convolution"
  bottom: "inception_4a/output"
  top: "inception_4b/5x5_reduce"
  param {
    lr_mult: 1
    decay_mult: 1
  }
  param {
    lr_mult: 2
    decay_mult: 0
  }
  convolution_param {
    num_output: 24
    kernel_size: 1
    weight_filler {
      type: "xavier"
      std: 0.2
    }
    bias_filler {
      type: "constant"
      value: 0.2
    }
  }
}
layer {
  name: "inception_4b/relu_5x5_reduce"
  type: "ReLU"
  bottom: "inception_4b/5x5_reduce"
  top: "inception_4b/5x5_reduce"
}
layer {
  name: "inception_4b/5x5"
  type: "Convolution"
  bottom: "inception_4b/5x5_reduce"
  top: "inception_4b/5x5"
  param {
    lr_mult: 1
    decay_mult: 1
  }
  param {
    lr_mult: 2
    decay_mult: 0
  }
  convolution_param {
    num_output: 64
    pad: 2
    kernel_size: 5
    weight_filler {
      type: "xavier"
      std: 0.03
    }
    bias_filler {
      type: "constant"
      value: 0.2
    }
  }
}
layer {
  name: "inception_4b/relu_5x5"
  type: "ReLU"
  bottom: "inception_4b/5x5"
  top: "inception_4b/5x5"
}
layer {
  name: "inception_4b/pool"
  type: "Pooling"
  bottom: "inception_4a/output"
  top: "inception_4b/pool"
  pooling_param {
    pool: MAX
    kernel_size: 3
    stride: 1
    pad: 1
  }
}
layer {
  name: "inception_4b/pool_proj"
  type: "Convolution"
  bottom: "inception_4b/pool"
  top: "inception_4b/pool_proj"
  param {
    lr_mult: 1
    decay_mult: 1
  }
  param {
    lr_mult: 2
    decay_mult: 0
  }
  convolution_param {
    num_output: 64
    kernel_size: 1
    weight_filler {
      type: "xavier"
      std: 0.1
    }
    bias_filler {
      type: "constant"
      value: 0.2
    }
  }
}
layer {
  name: "inception_4b/relu_pool_proj"
  type: "ReLU"
  bottom: "inception_4b/pool_proj"
  top: "inception_4b/pool_proj"
}
layer {
  name: "inception_4b/output"
  type: "Concat"
  bottom: "inception_4b/1x1"
  bottom: "inception_4b/3x3"
  bottom: "inception_4b/5x5"
  bottom: "inception_4b/pool_proj"
  top: "inception_4b/output"
}
layer {
  name: "inception_4c/1x1"
  type: "Convolution"
  bottom: "inception_4b/output"
  top: "inception_4c/1x1"
  param {
    lr_mult: 1
    decay_mult: 1
  }
  param {
    lr_mult: 2
    decay_mult: 0
  }
  convolution_param {
    num_output: 128
    kernel_size: 1
    weight_filler {
      type: "xavier"
      std: 0.03
    }
    bias_filler {
      type: "constant"
      value: 0.2
    }
  }
}
layer {
  name: "inception_4c/relu_1x1"
  type: "ReLU"
  bottom: "inception_4c/1x1"
  top: "inception_4c/1x1"
}
layer {
  name: "inception_4c/3x3_reduce"
  type: "Convolution"
  bottom: "inception_4b/output"
  top: "inception_4c/3x3_reduce"
  param {
    lr_mult: 1
    decay_mult: 1
  }
  param {
    lr_mult: 2
    decay_mult: 0
  }
  convolution_param {
    num_output: 128
    kernel_size: 1
    weight_filler {
      type: "xavier"
      std: 0.09
    }
    bias_filler {
      type: "constant"
      value: 0.2
    }
  }
}
layer {
  name: "inception_4c/relu_3x3_reduce"
  type: "ReLU"
  bottom: "inception_4c/3x3_reduce"
  top: "inception_4c/3x3_reduce"
}
layer {
  name: "inception_4c/3x3"
  type: "Convolution"
  bottom: "inception_4c/3x3_reduce"
  top: "inception_4c/3x3"
  param {
    lr_mult: 1
    decay_mult: 1
  }
  param {
    lr_mult: 2
    decay_mult: 0
  }
  convolution_param {
    num_output: 256
    pad: 1
    kernel_size: 3
    weight_filler {
      type: "xavier"
      std: 0.03
    }
    bias_filler {
      type: "constant"
      value: 0.2
    }
  }
}
layer {
  name: "inception_4c/relu_3x3"
  type: "ReLU"
  bottom: "inception_4c/3x3"
  top: "inception_4c/3x3"
}
layer {
  name: "inception_4c/5x5_reduce"
  type: "Convolution"
  bottom: "inception_4b/output"
  top: "inception_4c/5x5_reduce"
  param {
    lr_mult: 1
    decay_mult: 1
  }
  param {
    lr_mult: 2
    decay_mult: 0
  }
  convolution_param {
    num_output: 24
    kernel_size: 1
    weight_filler {
      type: "xavier"
      std: 0.2
    }
    bias_filler {
      type: "constant"
      value: 0.2
    }
  }
}
layer {
  name: "inception_4c/relu_5x5_reduce"
  type: "ReLU"
  bottom: "inception_4c/5x5_reduce"
  top: "inception_4c/5x5_reduce"
}
layer {
  name: "inception_4c/5x5"
  type: "Convolution"
  bottom: "inception_4c/5x5_reduce"
  top: "inception_4c/5x5"
  param {
    lr_mult: 1
    decay_mult: 1
  }
  param {
    lr_mult: 2
    decay_mult: 0
  }
  convolution_param {
    num_output: 64
    pad: 2
    kernel_size: 5
    weight_filler {
      type: "xavier"
      std: 0.03
    }
    bias_filler {
      type: "constant"
      value: 0.2
    }
  }
}
layer {
  name: "inception_4c/relu_5x5"
  type: "ReLU"
  bottom: "inception_4c/5x5"
  top: "inception_4c/5x5"
}
layer {
  name: "inception_4c/pool"
  type: "Pooling"
  bottom: "inception_4b/output"
  top: "inception_4c/pool"
  pooling_param {
    pool: MAX
    kernel_size: 3
    stride: 1
    pad: 1
  }
}
layer {
  name: "inception_4c/pool_proj"
  type: "Convolution"
  bottom: "inception_4c/pool"
  top: "inception_4c/pool_proj"
  param {
    lr_mult: 1
    decay_mult: 1
  }
  param {
    lr_mult: 2
    decay_mult: 0
  }
  convolution_param {
    num_output: 64
    kernel_size: 1
    weight_filler {
      type: "xavier"
      std: 0.1
    }
    bias_filler {
      type: "constant"
      value: 0.2
    }
  }
}
layer {
  name: "inception_4c/relu_pool_proj"
  type: "ReLU"
  bottom: "inception_4c/pool_proj"
  top: "inception_4c/pool_proj"
}
layer {
  name: "inception_4c/output"
  type: "Concat"
  bottom: "inception_4c/1x1"
  bottom: "inception_4c/3x3"
  bottom: "inception_4c/5x5"
  bottom: "inception_4c/pool_proj"
  top: "inception_4c/output"
}
layer {
  name: "inception_4d/1x1"
  type: "Convolution"
  bottom: "inception_4c/output"
  top: "inception_4d/1x1"
  param {
    lr_mult: 1
    decay_mult: 1
  }
  param {
    lr_mult: 2
    decay_mult: 0
  }
  convolution_param {
    num_output: 112
    kernel_size: 1
    weight_filler {
      type: "xavier"
      std: 0.03
    }
    bias_filler {
      type: "constant"
      value: 0.2
    }
  }
}
layer {
  name: "inception_4d/relu_1x1"
  type: "ReLU"
  bottom: "inception_4d/1x1"
  top: "inception_4d/1x1"
}
layer {
  name: "inception_4d/3x3_reduce"
  type: "Convolution"
  bottom: "inception_4c/output"
  top: "inception_4d/3x3_reduce"
  param {
    lr_mult: 1
    decay_mult: 1
  }
  param {
    lr_mult: 2
    decay_mult: 0
  }
  convolution_param {
    num_output: 144
    kernel_size: 1
    weight_filler {
      type: "xavier"
      std: 0.09
    }
    bias_filler {
      type: "constant"
      value: 0.2
    }
  }
}
layer {
  name: "inception_4d/relu_3x3_reduce"
  type: "ReLU"
  bottom: "inception_4d/3x3_reduce"
  top: "inception_4d/3x3_reduce"
}
layer {
  name: "inception_4d/3x3"
  type: "Convolution"
  bottom: "inception_4d/3x3_reduce"
  top: "inception_4d/3x3"
  param {
    lr_mult: 1
    decay_mult: 1
  }
  param {
    lr_mult: 2
    decay_mult: 0
  }
  convolution_param {
    num_output: 288
    pad: 1
    kernel_size: 3
    weight_filler {
      type: "xavier"
      std: 0.03
    }
    bias_filler {
      type: "constant"
      value: 0.2
    }
  }
}
layer {
  name: "inception_4d/relu_3x3"
  type: "ReLU"
  bottom: "inception_4d/3x3"
  top: "inception_4d/3x3"
}
layer {
  name: "inception_4d/5x5_reduce"
  type: "Convolution"
  bottom: "inception_4c/output"
  top: "inception_4d/5x5_reduce"
  param {
    lr_mult: 1
    decay_mult: 1
  }
  param {
    lr_mult: 2
    decay_mult: 0
  }
  convolution_param {
    num_output: 32
    kernel_size: 1
    weight_filler {
      type: "xavier"
      std: 0.2
    }
    bias_filler {
      type: "constant"
      value: 0.2
    }
  }
}
layer {
  name: "inception_4d/relu_5x5_reduce"
  type: "ReLU"
  bottom: "inception_4d/5x5_reduce"
  top: "inception_4d/5x5_reduce"
}
layer {
  name: "inception_4d/5x5"
  type: "Convolution"
  bottom: "inception_4d/5x5_reduce"
  top: "inception_4d/5x5"
  param {
    lr_mult: 1
    decay_mult: 1
  }
  param {
    lr_mult: 2
    decay_mult: 0
  }
  convolution_param {
    num_output: 64
    pad: 2
    kernel_size: 5
    weight_filler {
      type: "xavier"
      std: 0.03
    }
    bias_filler {
      type: "constant"
      value: 0.2
    }
  }
}
layer {
  name: "inception_4d/relu_5x5"
  type: "ReLU"
  bottom: "inception_4d/5x5"
  top: "inception_4d/5x5"
}
layer {
  name: "inception_4d/pool"
  type: "Pooling"
  bottom: "inception_4c/output"
  top: "inception_4d/pool"
  pooling_param {
    pool: MAX
    kernel_size: 3
    stride: 1
    pad: 1
  }
}
layer {
  name: "inception_4d/pool_proj"
  type: "Convolution"
  bottom: "inception_4d/pool"
  top: "inception_4d/pool_proj"
  param {
    lr_mult: 1
    decay_mult: 1
  }
  param {
    lr_mult: 2
    decay_mult: 0
  }
  convolution_param {
    num_output: 64
    kernel_size: 1
…
I0703 14:45:14.963973 30876 net.cpp:127] Top shape: 10 128 14 14 (250880)
I0703 14:45:14.963994 30876 layer_factory.hpp:74] Creating layer inception_4c/relu_1x1
I0703 14:45:14.964004 30876 net.cpp:90] Creating Layer inception_4c/relu_1x1
I0703 14:45:14.964014 30876 net.cpp:410] inception_4c/relu_1x1 <- inception_4c/1x1
I0703 14:45:14.964025 30876 net.cpp:357] inception_4c/relu_1x1 -> inception_4c/1x1 (in-place)
I0703 14:45:14.964035 30876 net.cpp:120] Setting up inception_4c/relu_1x1
I0703 14:45:14.964117 30876 net.cpp:127] Top shape: 10 128 14 14 (250880)
I0703 14:45:14.964128 30876 layer_factory.hpp:74] Creating layer inception_4c/3x3_reduce
I0703 14:45:14.964139 30876 net.cpp:90] Creating Layer inception_4c/3x3_reduce
I0703 14:45:14.964148 30876 net.cpp:410] inception_4c/3x3_reduce <- inception_4b/output_inception_4b/output_0_split_1
I0703 14:45:14.964159 30876 net.cpp:368] inception_4c/3x3_reduce -> inception_4c/3x3_reduce
I0703 14:45:14.964169 30876 net.cpp:120] Setting up inception_4c/3x3_reduce
I0703 14:45:14.965042 30876 net.cpp:127] Top shape: 10 128 14 14 (250880)
I0703 14:45:14.965061 30876 layer_factory.hpp:74] Creating layer inception_4c/relu_3x3_reduce
I0703 14:45:14.965073 30876 net.cpp:90] Creating Layer inception_4c/relu_3x3_reduce
I0703 14:45:14.965082 30876 net.cpp:410] inception_4c/relu_3x3_reduce <- inception_4c/3x3_reduce
I0703 14:45:14.965092 30876 net.cpp:357] inception_4c/relu_3x3_reduce -> inception_4c/3x3_reduce (in-place)
I0703 14:45:14.965102 30876 net.cpp:120] Setting up inception_4c/relu_3x3_reduce
I0703 14:45:14.965276 30876 net.cpp:127] Top shape: 10 128 14 14 (250880)
I0703 14:45:14.965291 30876 layer_factory.hpp:74] Creating layer inception_4c/3x3
I0703 14:45:14.965302 30876 net.cpp:90] Creating Layer inception_4c/3x3
I0703 14:45:14.965312 30876 net.cpp:410] inception_4c/3x3 <- inception_4c/3x3_reduce
I0703 14:45:14.965322 30876 net.cpp:368] inception_4c/3x3 -> inception_4c/3x3
I0703 14:45:14.965332 30876 net.cpp:120] Setting up inception_4c/3x3
I0703 14:45:14.968078 30876 net.cpp:127] Top shape: 10 256 14 14 (501760)
I0703 14:45:14.968109 30876 layer_factory.hpp:74] Creating layer inception_4c/relu_3x3
I0703 14:45:14.968122 30876 net.cpp:90] Creating Layer inception_4c/relu_3x3
I0703 14:45:14.968130 30876 net.cpp:410] inception_4c/relu_3x3 <- inception_4c/3x3
I0703 14:45:14.968140 30876 net.cpp:357] inception_4c/relu_3x3 -> inception_4c/3x3 (in-place)
I0703 14:45:14.968150 30876 net.cpp:120] Setting up inception_4c/relu_3x3
I0703 14:45:14.968220 30876 net.cpp:127] Top shape: 10 256 14 14 (501760)
I0703 14:45:14.968231 30876 layer_factory.hpp:74] Creating layer inception_4c/5x5_reduce
I0703 14:45:14.968243 30876 net.cpp:90] Creating Layer inception_4c/5x5_reduce
I0703 14:45:14.968252 30876 net.cpp:410] inception_4c/5x5_reduce <- inception_4b/output_inception_4b/output_0_split_2
I0703 14:45:14.968262 30876 net.cpp:368] inception_4c/5x5_reduce -> inception_4c/5x5_reduce
I0703 14:45:14.968273 30876 net.cpp:120] Setting up inception_4c/5x5_reduce
I0703 14:45:14.968704 30876 net.cpp:127] Top shape: 10 24 14 14 (47040)
I0703 14:45:14.968722 30876 layer_factory.hpp:74] Creating layer inception_4c/relu_5x5_reduce
I0703 14:45:14.968735 30876 net.cpp:90] Creating Layer inception_4c/relu_5x5_reduce
I0703 14:45:14.968744 30876 net.cpp:410] inception_4c/relu_5x5_reduce <- inception_4c/5x5_reduce
I0703 14:45:14.968754 30876 net.cpp:357] inception_4c/relu_5x5_reduce -> inception_4c/5x5_reduce (in-place)
I0703 14:45:14.968763 30876 net.cpp:120] Setting up inception_4c/relu_5x5_reduce
I0703 14:45:14.968832 30876 net.cpp:127] Top shape: 10 24 14 14 (47040)
I0703 14:45:14.968842 30876 layer_factory.hpp:74] Creating layer inception_4c/5x5
I0703 14:45:14.968853 30876 net.cpp:90] Creating Layer inception_4c/5x5
I0703 14:45:14.968861 30876 net.cpp:410] inception_4c/5x5 <- inception_4c/5x5_reduce
I0703 14:45:14.968873 30876 net.cpp:368] inception_4c/5x5 -> inception_4c/5x5
I0703 14:45:14.968884 30876 net.cpp:120] Setting up inception_4c/5x5
I0703 14:45:14.969529 30876 net.cpp:127] Top shape: 10 64 14 14 (125440)
I0703 14:45:14.969548 30876 layer_factory.hpp:74] Creating layer inception_4c/relu_5x5
I0703 14:45:14.969558 30876 net.cpp:90] Creating Layer inception_4c/relu_5x5
I0703 14:45:14.969568 30876 net.cpp:410] inception_4c/relu_5x5 <- inception_4c/5x5
I0703 14:45:14.969576 30876 net.cpp:357] inception_4c/relu_5x5 -> inception_4c/5x5 (in-place)
I0703 14:45:14.969586 30876 net.cpp:120] Setting up inception_4c/relu_5x5
I0703 14:45:14.969657 30876 net.cpp:127] Top shape: 10 64 14 14 (125440)
I0703 14:45:14.969678 30876 layer_factory.hpp:74] Creating layer inception_4c/pool
I0703 14:45:14.969687 30876 layer_factory.cpp:55] CUDNN does not support padding or multiple tops. Using Caffe's own pooling layer.
I0703 14:45:14.969697 30876 net.cpp:90] Creating Layer inception_4c/pool
I0703 14:45:14.969705 30876 net.cpp:410] inception_4c/pool <- inception_4b/output_inception_4b/output_0_split_3
I0703 14:45:14.969715 30876 net.cpp:368] inception_4c/pool -> inception_4c/pool
I0703 14:45:14.969727 30876 net.cpp:120] Setting up inception_4c/pool
I0703 14:45:14.969738 30876 net.cpp:127] Top shape: 10 512 14 14 (1003520)
I0703 14:45:14.969745 30876 layer_factory.hpp:74] Creating layer inception_4c/pool_proj
I0703 14:45:14.969758 30876 net.cpp:90] Creating Layer inception_4c/pool_proj
I0703 14:45:14.969765 30876 net.cpp:410] inception_4c/pool_proj <- inception_4c/pool
I0703 14:45:14.969775 30876 net.cpp:368] inception_4c/pool_proj -> inception_4c/pool_proj
I0703 14:45:14.969786 30876 net.cpp:120] Setting up inception_4c/pool_proj
I0703 14:45:14.970387 30876 net.cpp:127] Top shape: 10 64 14 14 (125440)
I0703 14:45:14.970407 30876 layer_factory.hpp:74] Creating layer inception_4c/relu_pool_proj
I0703 14:45:14.970417 30876 net.cpp:90] Creating Layer inception_4c/relu_pool_proj
I0703 14:45:14.970425 30876 net.cpp:410] inception_4c/relu_pool_proj <- inception_4c/pool_proj
I0703 14:45:14.970435 30876 net.cpp:357] inception_4c/relu_pool_proj -> inception_4c/pool_proj (in-place)
I0703 14:45:14.970446 30876 net.cpp:120] Setting up inception_4c/relu_pool_proj
I0703 14:45:14.970618 30876 net.cpp:127] Top shape: 10 64 14 14 (125440)
I0703 14:45:14.970633 30876 layer_factory.hpp:74] Creating layer inception_4c/output
I0703 14:45:14.970643 30876 net.cpp:90] Creating Layer inception_4c/output
I0703 14:45:14.970652 30876 net.cpp:410] inception_4c/output <- inception_4c/1x1
I0703 14:45:14.970661 30876 net.cpp:410] inception_4c/output <- inception_4c/3x3
I0703 14:45:14.970669 30876 net.cpp:410] inception_4c/output <- inception_4c/5x5
I0703 14:45:14.970677 30876 net.cpp:410] inception_4c/output <- inception_4c/pool_proj
I0703 14:45:14.970686 30876 net.cpp:368] inception_4c/output -> inception_4c/output
I0703 14:45:14.970698 30876 net.cpp:120] Setting up inception_4c/output
I0703 14:45:14.970710 30876 net.cpp:127] Top shape: 10 512 14 14 (1003520)
I0703 14:45:14.970716 30876 layer_factory.hpp:74] Creating layer inception_4c/output_inception_4c/output_0_split
I0703 14:45:14.970726 30876 net.cpp:90] Creating Layer inception_4c/output_inception_4c/output_0_split
I0703 14:45:14.970733 30876 net.cpp:410] inception_4c/output_inception_4c/output_0_split <- inception_4c/output
I0703 14:45:14.970743 30876 net.cpp:368] inception_4c/output_inception_4c/output_0_split -> inception_4c/output_inception_4c/output_0_split_0
I0703 14:45:14.970754 30876 net.cpp:368] inception_4c/output_inception_4c/output_0_split -> inception_4c/output_inception_4c/output_0_split_1
I0703 14:45:14.970765 30876 net.cpp:368] inception_4c/output_inception_4c/output_0_split -> inception_4c/output_inception_4c/output_0_split_2
I0703 14:45:14.970775 30876 net.cpp:368] inception_4c/output_inception_4c/output_0_split -> inception_4c/output_inception_4c/output_0_split_3
I0703 14:45:14.970784 30876 net.cpp:120] Setting up inception_4c/output_inception_4c/output_0_split
I0703 14:45:14.970796 30876 net.cpp:127] Top shape: 10 512 14 14 (1003520)
I0703 14:45:14.970805 30876 net.cpp:127] Top shape: 10 512 14 14 (1003520)
I0703 14:45:14.970813 30876 net.cpp:127] Top shape: 10 512 14 14 (1003520)
I0703 14:45:14.970820 30876 net.cpp:127] Top shape: 10 512 14 14 (1003520)
I0703 14:45:14.970827 30876 layer_factory.hpp:74] Creating layer inception_4d/1x1
I0703 14:45:14.970837 30876 net.cpp:90] Creating Layer inception_4d/1x1
I0703 14:45:14.970846 30876 net.cpp:410] inception_4d/1x1 <- inception_4c/output_inception_4c/output_0_split_0
I0703 14:45:14.990489 30876 net.cpp:368] inception_4d/1x1 -> inception_4d/1x1
I0703 14:45:14.990532 30876 net.cpp:120] Setting up inception_4d/1x1
I0703 14:45:14.992086 30876 net.cpp:127] Top shape: 10 112 14 14 (219520)
I0703 14:45:14.992172 30876 layer_factory.hpp:74] Creating layer inception_4d/relu_1x1
I0703 14:45:14.992203 30876 net.cpp:90] Creating Layer inception_4d/relu_1x1
I0703 14:45:14.992225 30876 net.cpp:410] inception_4d/relu_1x1 <- inception_4d/1x1
I0703 14:45:14.992252 30876 net.cpp:357] inception_4d/relu_1x1 -> inception_4d/1x1 (in-place)
I0703 14:45:14.992280 30876 net.cpp:120] Setting up inception_4d/relu_1x1
I0703 14:45:14.992421 30876 net.cpp:127] Top shape: 10 112 14 14 (219520)
I0703 14:45:14.992444 30876 layer_factory.hpp:74] Creating layer inception_4d/3x3_reduce
I0703 14:45:14.992465 30876 net.cpp:90] Creating Layer inception_4d/3x3_reduce
I0703 14:45:14.992478 30876 net.cpp:410] inception_4d/3x3_reduce <- inception_4c/output_inception_4c/output_0_split_1
I0703 14:45:14.992496 30876 net.cpp:368] inception_4d/3x3_reduce -> inception_4d/3x3_reduce
I0703 14:45:14.992513 30876 net.cpp:120] Setting up inception_4d/3x3_reduce
I0703 14:45:14.993952 30876 net.cpp:127] Top shape: 10 144 14 14 (282240)
I0703 14:45:14.993981 30876 layer_factory.hpp:74] Creating layer inception_4d/relu_3x3_reduce
I0703 14:45:14.993999 30876 net.cpp:90] Creating Layer inception_4d/relu_3x3_reduce
I0703 14:45:14.994012 30876 net.cpp:410] inception_4d/relu_3x3_reduce <- inception_4d/3x3_reduce
I0703 14:45:14.994029 30876 net.cpp:357] inception_4d/relu_3x3_reduce -> inception_4d/3x3_reduce (in-place)
I0703 14:45:14.994045 30876 net.cpp:120] Setting up inception_4d/relu_3x3_reduce
I0703 14:45:14.994155 30876 net.cpp:127] Top shape: 10 144 14 14 (282240)
I0703 14:45:14.994170 30876 layer_factory.hpp:74] Creating layer inception_4d/3x3
I0703 14:45:14.994191 30876 net.cpp:90] Creating Layer inception_4d/3x3
I0703 14:45:14.994204 30876 net.cpp:410] inception_4d/3x3 <- inception_4d/3x3_reduce
I0703 14:45:14.994222 30876 net.cpp:368] inception_4d/3x3 -> inception_4d/3x3
I0703 14:45:14.994240 30876 net.cpp:120] Setting up inception_4d/3x3
I0703 14:45:14.996950 30876 net.cpp:127] Top shape: 10 288 14 14 (564480)
I0703 14:45:14.996963 30876 layer_factory.hpp:74] Creating layer inception_4d/relu_3x3
I0703 14:45:14.996969 30876 net.cpp:90] Creating Layer inception_4d/relu_3x3
I0703 14:45:14.996975 30876 net.cpp:410] inception_4d/relu_3x3 <- inception_4d/3x3
I0703 14:45:14.996981 30876 net.cpp:357] inception_4d/relu_3x3 -> inception_4d/3x3 (in-place)
I0703 14:45:14.996987 30876 net.cpp:120] Setting up inception_4d/relu_3x3
I0703 14:45:14.997107 30876 net.cpp:127] Top shape: 10 288 14 14 (564480)
I0703 14:45:14.997115 30876 layer_factory.hpp:74] Creating layer inception_4d/5x5_reduce
I0703 14:45:14.997123 30876 net.cpp:90] Creating Layer inception_4d/5x5_reduce
I0703 14:45:14.997129 30876 net.cpp:410] inception_4d/5x5_reduce <- inception_4c/output_inception_4c/output_0_split_2
I0703 14:45:14.997136 30876 net.cpp:368] inception_4d/5x5_reduce -> inception_4d/5x5_reduce
I0703 14:45:14.997143 30876 net.cpp:120] Setting up inception_4d/5x5_reduce
I0703 14:45:14.997437 30876 net.cpp:127] Top shape: 10 32 14 14 (62720)
I0703 14:45:14.997448 30876 layer_factory.hpp:74] Creating layer inception_4d/relu_5x5_reduce
I0703 14:45:14.997457 30876 net.cpp:90] Creating Layer inception_4d/relu_5x5_reduce
I0703 14:45:14.997462 30876 net.cpp:410] inception_4d/relu_5x5_reduce <- inception_4d/5x5_reduce
I0703 14:45:14.997467 30876 net.cpp:357] inception_4d/relu_5x5_reduce -> inception_4d/5x5_reduce (in-place)
I0703 14:45:14.997473 30876 net.cpp:120] Setting up inception_4d/relu_5x5_reduce
I0703 14:45:14.997519 30876 net.cpp:127] Top shape: 10 32 14 14 (62720)
I0703 14:45:14.997525 30876 layer_factory.hpp:74] Creating layer inception_4d/5x5
I0703 14:45:14.997531 30876 net.cpp:90] Creating Layer inception_4d/5x5
I0703 14:45:14.997536 30876 net.cpp:410] inception_4d/5x5 <- inception_4d/5x5_reduce
I0703 14:45:14.997544 30876 net.cpp:368] inception_4d/5x5 -> inception_4d/5x5
I0703 14:45:14.997550 30876 net.cpp:120] Setting up inception_4d/5x5
I0703 14:45:14.998006 30876 net.cpp:127] Top shape: 10 64 14 14 (125440)
I0703 14:45:14.998018 30876 layer_factory.hpp:74] Creating layer inception_4d/relu_5x5
I0703 14:45:14.998035 30876 net.cpp:90] Creating Layer inception_4d/relu_5x5
I0703 14:45:14.998040 30876 net.cpp:410] inception_4d/relu_5x5 <- inception_4d/5x5
I0703 14:45:14.998046 30876 net.cpp:357] inception_4d/relu_5x5 -> inception_4d/5x5 (in-place)
I0703 14:45:14.998052 30876 net.cpp:120] Setting up inception_4d/relu_5x5
I0703 14:45:14.998096 30876 net.cpp:127] Top shape: 10 64 14 14 (125440)
I0703 14:45:14.998102 30876 layer_factory.hpp:74] Creating layer inception_4d/pool
I0703 14:45:14.998107 30876 layer_factory.cpp:55] CUDNN does not support padding or multiple tops. Using Caffe's own pooling layer.
I0703 14:45:14.998113 30876 net.cpp:90] Creating Layer inception_4d/pool
I0703 14:45:14.998118 30876 net.cpp:410] inception_4d/pool <- inception_4c/output_inception_4c/output_0_split_3
I0703 14:45:14.998124 30876 net.cpp:368] inception_4d/pool -> inception_4d/pool
I0703 14:45:14.998131 30876 net.cpp:120] Setting up inception_4d/pool
I0703 14:45:14.998138 30876 net.cpp:127] Top shape: 10 512 14 14 (1003520)
I0703 14:45:14.998143 30876 layer_factory.hpp:74] Creating layer inception_4d/pool_proj
I0703 14:45:14.998150 30876 net.cpp:90] Creating Layer inception_4d/pool_proj
I0703 14:45:14.998155 30876 net.cpp:410] inception_4d/pool_proj <- inception_4d/pool
I0703 14:45:14.998162 30876 net.cpp:368] inception_4d/pool_proj -> inception_4d/pool_proj
I0703 14:45:14.998168 30876 net.cpp:120] Setting up inception_4d/pool_proj
I0703 14:45:14.998541 30876 net.cpp:127] Top shape: 10 64 14 14 (125440)
I0703 14:45:14.998553 30876 layer_factory.hpp:74] Creating layer inception_4d/relu_pool_proj
I0703 14:45:14.998560 30876 net.cpp:90] Creating Layer inception_4d/relu_pool_proj
I0703 14:45:14.998565 30876 net.cpp:410] inception_4d/relu_pool_proj <- inception_4d/pool_proj
I0703 14:45:14.998571 30876 net.cpp:357] inception_4d/relu_pool_proj -> inception_4d/pool_proj (in-place)
I0703 14:45:14.998579 30876 net.cpp:120] Setting up inception_4d/relu_pool_proj
I0703 14:45:14.998620 30876 net.cpp:127] Top shape: 10 64 14 14 (125440)
I0703 14:45:14.998627 30876 layer_factory.hpp:74] Creating layer inception_4d/output
I0703 14:45:14.998633 30876 net.cpp:90] Creating Layer inception_4d/output
I0703 14:45:14.998638 30876 net.cpp:410] inception_4d/output <- inception_4d/1x1
I0703 14:45:14.998643 30876 net.cpp:410] inception_4d/output <- inception_4d/3x3
I0703 14:45:14.998647 30876 net.cpp:410] inception_4d/output <- inception_4d/5x5
I0703 14:45:14.998652 30876 net.cpp:410] inception_4d/output <- inception_4d/pool_proj
I0703 14:45:14.998658 30876 net.cpp:368] inception_4d/output -> inception_4d/output
I0703 14:45:14.998664 30876 net.cpp:120] Setting up inception_4d/output
I0703 14:45:14.998672 30876 net.cpp:127] Top shape: 10 528 14 14 (1034880)
I0703 14:45:14.998677 30876 layer_factory.hpp:74] Creating layer inception_4d/output_inception_4d/output_0_split
I0703 14:45:14.998682 30876 net.cpp:90] Creating Layer inception_4d/output_inception_4d/output_0_split
I0703 14:45:14.998687 30876 net.cpp:410] inception_4d/output_inception_4d/output_0_split <- inception_4d/output
I0703 14:45:14.998692 30876 net.cpp:368] inception_4d/output_inception_4d/output_0_split -> inception_4d/output_inception_4d/output_0_split_0
I0703 14:45:14.998699 30876 net.cpp:368] inception_4d/output_inception_4d/output_0_split -> inception_4d/output_inception_4d/output_0_split_1
I0703 14:45:14.998705 30876 net.cpp:368] inception_4d/output_inception_4d/output_0_split -> inception_4d/output_inception_4d/output_0_split_2
I0703 14:45:14.998713 30876 net.cpp:368] inception_4d/output_inception_4d/output_0_split -> inception_4d/output_inception_4d/output_0_split_3
I0703 14:45:14.998719 30876 net.cpp:368] inception_4d/output_inception_4d/output_0_split -> inception_4d/output_inception_4d/output_0_split_4
I0703 14:45:14.998724 30876 net.cpp:120] Setting up inception_4d/output_inception_4d/output_0_split
I0703 14:45:14.998731 30876 net.cpp:127] Top shape: 10 528 14 14 (1034880)
I0703 14:45:14.998736 30876 net.cpp:127] Top shape: 10 528 14 14 (1034880)
I0703 14:45:14.998747 30876 net.cpp:127] Top shape: 10 528 14 14 (1034880)
I0703 14:45:14.998752 30876 net.cpp:127] Top shape: 10 528 14 14 (1034880)
I0703 14:45:14.998757 30876 net.cpp:127] Top shape: 10 528 14 14 (1034880)
I0703 14:45:14.998761 30876 layer_factory.hpp:74] Creating layer loss2/ave_pool
I0703 14:45:14.998767 30876 net.cpp:90] Creating Layer loss2/ave_pool
I0703 14:45:14.998772 30876 net.cpp:410] loss2/ave_pool <- inception_4d/output_inception_4d/output_0_split_0
I0703 14:45:14.998780 30876 net.cpp:368] loss2/ave_pool -> loss2/ave_pool
I0703 14:45:14.998785 30876 net.cpp:120] Setting up loss2/ave_pool
I0703 14:45:14.998905 30876 net.cpp:127] Top shape: 10 528 4 4 (84480)
I0703 14:45:14.998914 30876 layer_factory.hpp:74] Creating layer loss2/conv
I0703 14:45:14.998920 30876 net.cpp:90] Creating Layer loss2/conv
I0703 14:45:14.998926 30876 net.cpp:410] loss2/conv <- loss2/ave_pool
I0703 14:45:14.998934 30876 net.cpp:368] loss2/conv -> loss2/conv
I0703 14:45:14.998940 30876 net.cpp:120] Setting up loss2/conv
I0703 14:45:14.999488 30876 net.cpp:127] Top shape: 10 128 4 4 (20480)
I0703 14:45:14.999500 30876 layer_factory.hpp:74] Creating layer loss2/relu_conv
I0703 14:45:14.999507 30876 net.cpp:90] Creating Layer loss2/relu_conv
I0703 14:45:14.999513 30876 net.cpp:410] loss2/relu_conv <- loss2/conv
I0703 14:45:14.999518 30876 net.cpp:357] loss2/relu_conv -> loss2/conv (in-place)
I0703 14:45:14.999524 30876 net.cpp:120] Setting up loss2/relu_conv
I0703 14:45:14.999567 30876 net.cpp:127] Top shape: 10 128 4 4 (20480)
I0703 14:45:14.999572 30876 layer_factory.hpp:74] Creating layer loss2/fc
I0703 14:45:14.999580 30876 net.cpp:90] Creating Layer loss2/fc
I0703 14:45:14.999585 30876 net.cpp:410] loss2/fc <- loss2/conv
I0703 14:45:14.999591 30876 net.cpp:368] loss2/fc -> loss2/fc
I0703 14:45:14.999598 30876 net.cpp:120] Setting up loss2/fc
I0703 14:45:15.009202 30876 net.cpp:127] Top shape: 10 1024 (10240)
I0703 14:45:15.009224 30876 layer_factory.hpp:74] Creating layer loss2/relu_fc
I0703 14:45:15.009234 30876 net.cpp:90] Creating Layer loss2/relu_fc
I0703 14:45:15.009240 30876 net.cpp:410] loss2/relu_fc <- loss2/fc
I0703 14:45:15.009249 30876 net.cpp:357] loss2/relu_fc -> loss2/fc (in-place)
I0703 14:45:15.009256 30876 net.cpp:120] Setting up loss2/relu_fc
I0703 14:45:15.009330 30876 net.cpp:127] Top shape: 10 1024 (10240)
I0703 14:45:15.009335 30876 layer_factory.hpp:74] Creating layer loss2/drop_fc
I0703 14:45:15.009342 30876 net.cpp:90] Creating Layer loss2/drop_fc
I0703 14:45:15.009347 30876 net.cpp:410] loss2/drop_fc <- loss2/fc
I0703 14:45:15.009353 30876 net.cpp:357] loss2/drop_fc -> loss2/fc (in-place)
I0703 14:45:15.009359 30876 net.cpp:120] Setting up loss2/drop_fc
I0703 14:45:15.009366 30876 net.cpp:127] Top shape: 10 1024 (10240)
I0703 14:45:15.009371 30876 layer_factory.hpp:74] Creating layer stanford_cars_loss2/classifier
I0703 14:45:15.009378 30876 net.cpp:90] Creating Layer stanford_cars_loss2/classifier
I0703 14:45:15.009383 30876 net.cpp:410] stanford_cars_loss2/classifier <- loss2/fc
I0703 14:45:15.009389 30876 net.cpp:368] stanford_cars_loss2/classifier -> stanford_cars_loss2/classifier
I0703 14:45:15.009397 30876 net.cpp:120] Setting up stanford_cars_loss2/classifier
I0703 14:45:15.010393 30876 net.cpp:127] Top shape: 10 196 (1960)
I0703 14:45:15.010402 30876 layer_factory.hpp:74] Creating layer stanford_cars_loss2/classifier_stanford_cars_loss2/classifier_0_split
I0703 14:45:15.020279 30876 net.cpp:90] Creating Layer stanford_cars_loss2/classifier_stanford_cars_loss2/classifier_0_split
I0703 14:45:15.020341 30876 net.cpp:410] stanford_cars_loss2/classifier_stanford_cars_loss2/classifier_0_split <- stanford_cars_loss2/classifier
I0703 14:45:15.020392 30876 net.cpp:368] stanford_cars_loss2/classifier_stanford_cars_loss2/classifier_0_split -> stanford_cars_loss2/classifier_stanford_cars_loss2/classifier_0_split_0
I0703 14:45:15.020439 30876 net.cpp:368] stanford_cars_loss2/classifier_stanford_cars_loss2/classifier_0_split -> stanford_cars_loss2/classifier_stanford_cars_loss2/classifier_0_split_1
I0703 14:45:15.020526 30876 net.cpp:368] stanford_cars_loss2/classifier_stanford_cars_loss2/classifier_0_split -> stanford_cars_loss2/classifier_stanford_cars_loss2/classifier_0_split_2
I0703 14:45:15.020565 30876 net.cpp:120] Setting up stanford_cars_loss2/classifier_stanford_cars_loss2/classifier_0_split
I0703 14:45:15.020607 30876 net.cpp:127] Top shape: 10 196 (1960)
I0703 14:45:15.020637 30876 net.cpp:127] Top shape: 10 196 (1960)
I0703 14:45:15.020664 30876 net.cpp:127] Top shape: 10 196 (1960)
I0703 14:45:15.020690 30876 layer_factory.hpp:74] Creating layer stanford_cars_loss2/loss
I0703 14:45:15.020722 30876 net.cpp:90] Creating Layer stanford_cars_loss2/loss
I0703 14:45:15.020748 30876 net.cpp:410] stanford_cars_loss2/loss <- stanford_cars_loss2/classifier_stanford_cars_loss2/classifier_0_split_0
I0703 14:45:15.020779 30876 net.cpp:410] stanford_cars_loss2/loss <- label_data_1_split_3
…
I0703 14:45:15.021623 30876 net.cpp:368] loss2/top-5 -> loss2/top-5
I0703 14:45:15.021658 30876 net.cpp:120] Setting up loss2/top-5
I0703 14:45:15.021693 30876 net.cpp:127] Top shape: (1)
I0703 14:45:15.021720 30876 layer_factory.hpp:74] Creating layer inception_4e/1x1
I0703 14:45:15.021756 30876 net.cpp:90] Creating Layer inception_4e/1x1
I0703 14:45:15.021785 30876 net.cpp:410] inception_4e/1x1 <- inception_4d/output_inception_4d/output_0_split_1
I0703 14:45:15.021821 30876 net.cpp:368] inception_4e/1x1 -> inception_4e/1x1
I0703 14:45:15.021859 30876 net.cpp:120] Setting up inception_4e/1x1
I0703 14:45:15.025293 30876 net.cpp:127] Top shape: 10 256 14 14 (501760)
I0703 14:45:15.025338 30876 layer_factory.hpp:74] Creating layer inception_4e/relu_1x1
I0703 14:45:15.025363 30876 net.cpp:90] Creating Layer inception_4e/relu_1x1
I0703 14:45:15.025382 30876 net.cpp:410] inception_4e/relu_1x1 <- inception_4e/1x1
I0703 14:45:15.025401 30876 net.cpp:357] inception_4e/relu_1x1 -> inception_4e/1x1 (in-place)
I0703 14:45:15.025421 30876 net.cpp:120] Setting up inception_4e/relu_1x1
I0703 14:45:15.025755 30876 net.cpp:127] Top shape: 10 256 14 14 (501760)
I0703 14:45:15.025785 30876 layer_factory.hpp:74] Creating layer inception_4e/3x3_reduce
I0703 14:45:15.025835 30876 net.cpp:90] Creating Layer inception_4e/3x3_reduce
I0703 14:45:15.025854 30876 net.cpp:410] inception_4e/3x3_reduce <- inception_4d/output_inception_4d/output_0_split_2
I0703 14:45:15.025876 30876 net.cpp:368] inception_4e/3x3_reduce -> inception_4e/3x3_reduce
I0703 14:45:15.025899 30876 net.cpp:120] Setting up inception_4e/3x3_reduce
I0703 14:45:15.027961 30876 net.cpp:127] Top shape: 10 160 14 14 (313600)
I0703 14:45:15.028002 30876 layer_factory.hpp:74] Creating layer inception_4e/relu_3x3_reduce
I0703 14:45:15.028025 30876 net.cpp:90] Creating Layer inception_4e/relu_3x3_reduce
I0703 14:45:15.028044 30876 net.cpp:410] inception_4e/relu_3x3_reduce <- inception_4e/3x3_reduce
I0703 14:45:15.028090 30876 net.cpp:357] inception_4e/relu_3x3_reduce -> inception_4e/3x3_reduce (in-place)
I0703 14:45:15.028112 30876 net.cpp:120] Setting up inception_4e/relu_3x3_reduce
I0703 14:45:15.028262 30876 net.cpp:127] Top shape: 10 160 14 14 (313600)
I0703 14:45:15.028283 30876 layer_factory.hpp:74] Creating layer inception_4e/3x3
I0703 14:45:15.028306 30876 net.cpp:90] Creating Layer inception_4e/3x3
I0703 14:45:15.028322 30876 net.cpp:410] inception_4e/3x3 <- inception_4e/3x3_reduce
I0703 14:45:15.028343 30876 net.cpp:368] inception_4e/3x3 -> inception_4e/3x3
I0703 14:45:15.028365 30876 net.cpp:120] Setting up inception_4e/3x3
I0703 14:45:15.033149 30876 net.cpp:127] Top shape: 10 320 14 14 (627200)
I0703 14:45:15.033162 30876 layer_factory.hpp:74] Creating layer inception_4e/relu_3x3
I0703 14:45:15.033171 30876 net.cpp:90] Creating Layer inception_4e/relu_3x3
I0703 14:45:15.033177 30876 net.cpp:410] inception_4e/relu_3x3 <- inception_4e/3x3
I0703 14:45:15.033185 30876 net.cpp:357] inception_4e/relu_3x3 -> inception_4e/3x3 (in-place)
I0703 14:45:15.033191 30876 net.cpp:120] Setting up inception_4e/relu_3x3
I0703 14:45:15.033241 30876 net.cpp:127] Top shape: 10 320 14 14 (627200)
I0703 14:45:15.033247 30876 layer_factory.hpp:74] Creating layer inception_4e/5x5_reduce
I0703 14:45:15.033256 30876 net.cpp:90] Creating Layer inception_4e/5x5_reduce
I0703 14:45:15.033262 30876 net.cpp:410] inception_4e/5x5_reduce <- inception_4d/output_inception_4d/output_0_split_3
I0703 14:45:15.033269 30876 net.cpp:368] inception_4e/5x5_reduce -> inception_4e/5x5_reduce
I0703 14:45:15.033278 30876 net.cpp:120] Setting up inception_4e/5x5_reduce
I0703 14:45:15.033658 30876 net.cpp:127] Top shape: 10 32 14 14 (62720)
I0703 14:45:15.033670 30876 layer_factory.hpp:74] Creating layer inception_4e/relu_5x5_reduce
I0703 14:45:15.033679 30876 net.cpp:90] Creating Layer inception_4e/relu_5x5_reduce
I0703 14:45:15.033684 30876 net.cpp:410] inception_4e/relu_5x5_reduce <- inception_4e/5x5_reduce
I0703 14:45:15.033690 30876 net.cpp:357] inception_4e/relu_5x5_reduce -> inception_4e/5x5_reduce (in-place)
I0703 14:45:15.033697 30876 net.cpp:120] Setting up inception_4e/relu_5x5_reduce
I0703 14:45:15.033743 30876 net.cpp:127] Top shape: 10 32 14 14 (62720)
I0703 14:45:15.033749 30876 layer_factory.hpp:74] Creating layer inception_4e/5x5
I0703 14:45:15.033757 30876 net.cpp:90] Creating Layer inception_4e/5x5
I0703 14:45:15.033762 30876 net.cpp:410] inception_4e/5x5 <- inception_4e/5x5_reduce
I0703 14:45:15.033769 30876 net.cpp:368] inception_4e/5x5 -> inception_4e/5x5
I0703 14:45:15.033777 30876 net.cpp:120] Setting up inception_4e/5x5
I0703 14:45:15.034587 30876 net.cpp:127] Top shape: 10 128 14 14 (250880)
I0703 14:45:15.034600 30876 layer_factory.hpp:74] Creating layer inception_4e/relu_5x5
I0703 14:45:15.034607 30876 net.cpp:90] Creating Layer inception_4e/relu_5x5
I0703 14:45:15.034613 30876 net.cpp:410] inception_4e/relu_5x5 <- inception_4e/5x5
I0703 14:45:15.034621 30876 net.cpp:357] inception_4e/relu_5x5 -> inception_4e/5x5 (in-place)
I0703 14:45:15.034628 30876 net.cpp:120] Setting up inception_4e/relu_5x5
I0703 14:45:15.034756 30876 net.cpp:127] Top shape: 10 128 14 14 (250880)
I0703 14:45:15.034766 30876 layer_factory.hpp:74] Creating layer inception_4e/pool
I0703 14:45:15.034772 30876 layer_factory.cpp:55] CUDNN does not support padding or multiple tops. Using Caffe's own pooling layer.
I0703 14:45:15.034778 30876 net.cpp:90] Creating Layer inception_4e/pool
I0703 14:45:15.034785 30876 net.cpp:410] inception_4e/pool <- inception_4d/output_inception_4d/output_0_split_4
I0703 14:45:15.034791 30876 net.cpp:368] inception_4e/pool -> inception_4e/pool
I0703 14:45:15.034798 30876 net.cpp:120] Setting up inception_4e/pool
I0703 14:45:15.034807 30876 net.cpp:127] Top shape: 10 528 14 14 (1034880)
I0703 14:45:15.034812 30876 layer_factory.hpp:74] Creating layer inception_4e/pool_proj
I0703 14:45:15.034821 30876 net.cpp:90] Creating Layer inception_4e/pool_proj
I0703 14:45:15.034826 30876 net.cpp:410] inception_4e/pool_proj <- inception_4e/pool
I0703 14:45:15.034843 30876 net.cpp:368] inception_4e/pool_proj -> inception_4e/pool_proj
I0703 14:45:15.034852 30876 net.cpp:120] Setting up inception_4e/pool_proj
I0703 14:45:15.035475 30876 net.cpp:127] Top shape: 10 128 14 14 (250880)
I0703 14:45:15.035488 30876 layer_factory.hpp:74] Creating layer inception_4e/relu_pool_proj
I0703 14:45:15.035497 30876 net.cpp:90] Creating Layer inception_4e/relu_pool_proj
I0703 14:45:15.035503 30876 net.cpp:410] inception_4e/relu_pool_proj <- inception_4e/pool_proj
I0703 14:45:15.035511 30876 net.cpp:357] inception_4e/relu_pool_proj -> inception_4e/pool_proj (in-place)
I0703 14:45:15.035517 30876 net.cpp:120] Setting up inception_4e/relu_pool_proj
I0703 14:45:15.035567 30876 net.cpp:127] Top shape: 10 128 14 14 (250880)
I0703 14:45:15.035573 30876 layer_factory.hpp:74] Creating layer inception_4e/output
I0703 14:45:15.035581 30876 net.cpp:90] Creating Layer inception_4e/output
I0703 14:45:15.035588 30876 net.cpp:410] inception_4e/output <- inception_4e/1x1
I0703 14:45:15.035593 30876 net.cpp:410] inception_4e/output <- inception_4e/3x3
I0703 14:45:15.035599 30876 net.cpp:410] inception_4e/output <- inception_4e/5x5
I0703 14:45:15.035604 30876 net.cpp:410] inception_4e/output <- inception_4e/pool_proj
I0703 14:45:15.035611 30876 net.cpp:368] inception_4e/output -> inception_4e/output
I0703 14:45:15.035619 30876 net.cpp:120] Setting up inception_4e/output
I0703 14:45:15.035626 30876 net.cpp:127] Top shape: 10 832 14 14 (1630720)
I0703 14:45:15.035631 30876 layer_factory.hpp:74] Creating layer pool4/3x3_s2
I0703 14:45:15.035640 30876 net.cpp:90] Creating Layer pool4/3x3_s2
I0703 14:45:15.035645 30876 net.cpp:410] pool4/3x3_s2 <- inception_4e/output
I0703 14:45:15.035651 30876 net.cpp:368] pool4/3x3_s2 -> pool4/3x3_s2
I0703 14:45:15.035658 30876 net.cpp:120] Setting up pool4/3x3_s2
I0703 14:45:15.035707 30876 net.cpp:127] Top shape: 10 832 7 7 (407680)
I0703 14:45:15.035715 30876 layer_factory.hpp:74] Creating layer pool4/3x3_s2_pool4/3x3_s2_0_split
I0703 14:45:15.035722 30876 net.cpp:90] Creating Layer pool4/3x3_s2_pool4/3x3_s2_0_split
I0703 14:45:15.035727 30876 net.cpp:410] pool4/3x3_s2_pool4/3x3_s2_0_split <- pool4/3x3_s2
I0703 14:45:15.035733 30876 net.cpp:368] pool4/3x3_s2_pool4/3x3_s2_0_split -> pool4/3x3_s2_pool4/3x3_s2_0_split_0
I0703 14:45:15.035742 30876 net.cpp:368] pool4/3x3_s2_pool4/3x3_s2_0_split -> pool4/3x3_s2_pool4/3x3_s2_0_split_1
I0703 14:45:15.035749 30876 net.cpp:368] pool4/3x3_s2_pool4/3x3_s2_0_split -> pool4/3x3_s2_pool4/3x3_s2_0_split_2
I0703 14:45:15.035768 30876 net.cpp:368] pool4/3x3_s2_pool4/3x3_s2_0_split -> pool4/3x3_s2_pool4/3x3_s2_0_split_3
I0703 14:45:15.035775 30876 net.cpp:120] Setting up pool4/3x3_s2_pool4/3x3_s2_0_split
I0703 14:45:15.048383 30876 net.cpp:127] Top shape: 10 832 7 7 (407680)
I0703 14:45:15.048408 30876 net.cpp:127] Top shape: 10 832 7 7 (407680)
I0703 14:45:15.048420 30876 net.cpp:127] Top shape: 10 832 7 7 (407680)
I0703 14:45:15.048430 30876 net.cpp:127] Top shape: 10 832 7 7 (407680)
I0703 14:45:15.048440 30876 layer_factory.hpp:74] Creating layer inception_5a/1x1
I0703 14:45:15.048466 30876 net.cpp:90] Creating Layer inception_5a/1x1
I0703 14:45:15.048480 30876 net.cpp:410] inception_5a/1x1 <- pool4/3x3_s2_pool4/3x3_s2_0_split_0
I0703 14:45:15.048496 30876 net.cpp:368] inception_5a/1x1 -> inception_5a/1x1
I0703 14:45:15.048512 30876 net.cpp:120] Setting up inception_5a/1x1
I0703 14:45:15.050184 30876 net.cpp:127] Top shape: 10 256 7 7 (125440)
I0703 14:45:15.050200 30876 layer_factory.hpp:74] Creating layer inception_5a/relu_1x1
I0703 14:45:15.050210 30876 net.cpp:90] Creating Layer inception_5a/relu_1x1
I0703 14:45:15.050217 30876 net.cpp:410] inception_5a/relu_1x1 <- inception_5a/1x1
I0703 14:45:15.050225 30876 net.cpp:357] inception_5a/relu_1x1 -> inception_5a/1x1 (in-place)
I0703 14:45:15.050231 30876 net.cpp:120] Setting up inception_5a/relu_1x1
I0703 14:45:15.050372 30876 net.cpp:127] Top shape: 10 256 7 7 (125440)
I0703 14:45:15.050382 30876 layer_factory.hpp:74] Creating layer inception_5a/3x3_reduce
I0703 14:45:15.050410 30876 net.cpp:90] Creating Layer inception_5a/3x3_reduce
I0703 14:45:15.050415 30876 net.cpp:410] inception_5a/3x3_reduce <- pool4/3x3_s2_pool4/3x3_s2_0_split_1
I0703 14:45:15.050423 30876 net.cpp:368] inception_5a/3x3_reduce -> inception_5a/3x3_reduce
I0703 14:45:15.050432 30876 net.cpp:120] Setting up inception_5a/3x3_reduce
I0703 14:45:15.052441 30876 net.cpp:127] Top shape: 10 160 7 7 (78400)
I0703 14:45:15.052479 30876 layer_factory.hpp:74] Creating layer inception_5a/relu_3x3_reduce
I0703 14:45:15.052500 30876 net.cpp:90] Creating Layer inception_5a/relu_3x3_reduce
I0703 14:45:15.052515 30876 net.cpp:410] inception_5a/relu_3x3_reduce <- inception_5a/3x3_reduce
I0703 14:45:15.052533 30876 net.cpp:357] inception_5a/relu_3x3_reduce -> inception_5a/3x3_reduce (in-place)
I0703 14:45:15.052553 30876 net.cpp:120] Setting up inception_5a/relu_3x3_reduce
I0703 14:45:15.052680 30876 net.cpp:127] Top shape: 10 160 7 7 (78400)
I0703 14:45:15.052698 30876 layer_factory.hpp:74] Creating layer inception_5a/3x3
I0703 14:45:15.052719 30876 net.cpp:90] Creating Layer inception_5a/3x3
I0703 14:45:15.052733 30876 net.cpp:410] inception_5a/3x3 <- inception_5a/3x3_reduce
I0703 14:45:15.052752 30876 net.cpp:368] inception_5a/3x3 -> inception_5a/3x3
I0703 14:45:15.052773 30876 net.cpp:120] Setting up inception_5a/3x3
I0703 14:45:15.056923 30876 net.cpp:127] Top shape: 10 320 7 7 (156800)
I0703 14:45:15.056938 30876 layer_factory.hpp:74] Creating layer inception_5a/relu_3x3
I0703 14:45:15.056946 30876 net.cpp:90] Creating Layer inception_5a/relu_3x3
I0703 14:45:15.056951 30876 net.cpp:410] inception_5a/relu_3x3 <- inception_5a/3x3
I0703 14:45:15.056957 30876 net.cpp:357] inception_5a/relu_3x3 -> inception_5a/3x3 (in-place)
I0703 14:45:15.056964 30876 net.cpp:120] Setting up inception_5a/relu_3x3
I0703 14:45:15.057008 30876 net.cpp:127] Top shape: 10 320 7 7 (156800)
I0703 14:45:15.057013 30876 layer_factory.hpp:74] Creating layer inception_5a/5x5_reduce
I0703 14:45:15.057021 30876 net.cpp:90] Creating Layer inception_5a/5x5_reduce
I0703 14:45:15.057027 30876 net.cpp:410] inception_5a/5x5_reduce <- pool4/3x3_s2_pool4/3x3_s2_0_split_2
I0703 14:45:15.057034 30876 net.cpp:368] inception_5a/5x5_reduce -> inception_5a/5x5_reduce
I0703 14:45:15.057041 30876 net.cpp:120] Setting up inception_5a/5x5_reduce
I0703 14:45:15.057384 30876 net.cpp:127] Top shape: 10 32 7 7 (15680)
I0703 14:45:15.057395 30876 layer_factory.hpp:74] Creating layer inception_5a/relu_5x5_reduce
I0703 14:45:15.057402 30876 net.cpp:90] Creating Layer inception_5a/relu_5x5_reduce
I0703 14:45:15.057407 30876 net.cpp:410] inception_5a/relu_5x5_reduce <- inception_5a/5x5_reduce
I0703 14:45:15.057413 30876 net.cpp:357] inception_5a/relu_5x5_reduce -> inception_5a/5x5_reduce (in-place)
I0703 14:45:15.057420 30876 net.cpp:120] Setting up inception_5a/relu_5x5_reduce
I0703 14:45:15.057461 30876 net.cpp:127] Top shape: 10 32 7 7 (15680)
I0703 14:45:15.057467 30876 layer_factory.hpp:74] Creating layer inception_5a/5x5
I0703 14:45:15.057476 30876 net.cpp:90] Creating Layer inception_5a/5x5
I0703 14:45:15.057481 30876 net.cpp:410] inception_5a/5x5 <- inception_5a/5x5_reduce
I0703 14:45:15.057487 30876 net.cpp:368] inception_5a/5x5 -> inception_5a/5x5
I0703 14:45:15.057493 30876 net.cpp:120] Setting up inception_5a/5x5
I0703 14:45:15.058203 30876 net.cpp:127] Top shape: 10 128 7 7 (62720)
I0703 14:45:15.058215 30876 layer_factory.hpp:74] Creating layer inception_5a/relu_5x5
I0703 14:45:15.058221 30876 net.cpp:90] Creating Layer inception_5a/relu_5x5
I0703 14:45:15.058226 30876 net.cpp:410] inception_5a/relu_5x5 <- inception_5a/5x5
I0703 14:45:15.058233 30876 net.cpp:357] inception_5a/relu_5x5 -> inception_5a/5x5 (in-place)
I0703 14:45:15.058239 30876 net.cpp:120] Setting up inception_5a/relu_5x5
I0703 14:45:15.058357 30876 net.cpp:127] Top shape: 10 128 7 7 (62720)
I0703 14:45:15.058365 30876 layer_factory.hpp:74] Creating layer inception_5a/pool
I0703 14:45:15.058372 30876 layer_factory.cpp:55] CUDNN does not support padding or multiple tops. Using Caffe's own pooling layer.
I0703 14:45:15.058389 30876 net.cpp:90] Creating Layer inception_5a/pool
I0703 14:45:15.058395 30876 net.cpp:410] inception_5a/pool <- pool4/3x3_s2_pool4/3x3_s2_0_split_3
I0703 14:45:15.058401 30876 net.cpp:368] inception_5a/pool -> inception_5a/pool
I0703 14:45:15.058408 30876 net.cpp:120] Setting up inception_5a/pool
I0703 14:45:15.058416 30876 net.cpp:127] Top shape: 10 832 7 7 (407680)
I0703 14:45:15.058420 30876 layer_factory.hpp:74] Creating layer inception_5a/pool_proj
I0703 14:45:15.058429 30876 net.cpp:90] Creating Layer inception_5a/pool_proj
I0703 14:45:15.058434 30876 net.cpp:410] inception_5a/pool_proj <- inception_5a/pool
I0703 14:45:15.058439 30876 net.cpp:368] inception_5a/pool_proj -> inception_5a/pool_proj
I0703 14:45:15.058445 30876 net.cpp:120] Setting up inception_5a/pool_proj
I0703 14:45:15.059177 30876 net.cpp:127] Top shape: 10 128 7 7 (62720)
I0703 14:45:15.059190 30876 layer_factory.hpp:74] Creating layer inception_5a/relu_pool_proj
I0703 14:45:15.059196 30876 net.cpp:90] Creating Layer inception_5a/relu_pool_proj
I0703 14:45:15.059201 30876 net.cpp:410] inception_5a/relu_pool_proj <- inception_5a/pool_proj
I0703 14:45:15.059208 30876 net.cpp:357] inception_5a/relu_pool_proj -> inception_5a/pool_proj (in-place)
I0703 14:45:15.059216 30876 net.cpp:120] Setting up inception_5a/relu_pool_proj
I0703 14:45:15.059257 30876 net.cpp:127] Top shape: 10 128 7 7 (62720)
I0703 14:45:15.059262 30876 layer_factory.hpp:74] Creating layer inception_5a/output
I0703 14:45:15.059268 30876 net.cpp:90] Creating Layer inception_5a/output
I0703 14:45:15.059273 30876 net.cpp:410] inception_5a/output <- inception_5a/1x1
I0703 14:45:15.059278 30876 net.cpp:410] inception_5a/output <- inception_5a/3x3
I0703 14:45:15.059283 30876 net.cpp:410] inception_5a/output <- inception_5a/5x5
I0703 14:45:15.059288 30876 net.cpp:410] inception_5a/output <- inception_5a/pool_proj
I0703 14:45:15.059294 30876 net.cpp:368] inception_5a/output -> inception_5a/output
I0703 14:45:15.059301 30876 net.cpp:120] Setting up inception_5a/output
I0703 14:45:15.059314 30876 net.cpp:127] Top shape: 10 832 7 7 (407680)
I0703 14:45:15.059319 30876 layer_factory.hpp:74] Creating layer inception_5a/output_inception_5a/output_0_split
I0703 14:45:15.059326 30876 net.cpp:90] Creating Layer inception_5a/output_inception_5a/output_0_split
I0703 14:45:15.059330 30876 net.cpp:410] inception_5a/output_inception_5a/output_0_split <- inception_5a/output
I0703 14:45:15.059336 30876 net.cpp:368] inception_5a/output_inception_5a/output_0_split -> inception_5a/output_inception_5a/output_0_split_0
I0703 14:45:15.059344 30876 net.cpp:368] inception_5a/output_inception_5a/output_0_split -> inception_5a/output_inception_5a/output_0_split_1
I0703 14:45:15.059351 30876 net.cpp:368] inception_5a/output_inception_5a/output_0_split -> inception_5a/output_inception_5a/output_0_split_2
I0703 14:45:15.059358 30876 net.cpp:368] inception_5a/output_inception_5a/output_0_split -> inception_5a/output_inception_5a/output_0_split_3
I0703 14:45:15.059363 30876 net.cpp:120] Setting up inception_5a/output_inception_5a/output_0_split
I0703 14:45:15.059370 30876 net.cpp:127] Top shape: 10 832 7 7 (407680)
I0703 14:45:15.059376 30876 net.cpp:127] Top shape: 10 832 7 7 (407680)
I0703 14:45:15.059379 30876 net.cpp:127] Top shape: 10 832 7 7 (407680)
I0703 14:45:15.059383 30876 net.cpp:127] Top shape: 10 832 7 7 (407680)
I0703 14:45:15.059388 30876 layer_factory.hpp:74] Creating layer inception_5b/1x1
I0703 14:45:15.059396 30876 net.cpp:90] Creating Layer inception_5b/1x1
I0703 14:45:15.059399 30876 net.cpp:410] inception_5b/1x1 <- inception_5a/output_inception_5a/output_0_split_0
I0703 14:45:15.059406 30876 net.cpp:368] inception_5b/1x1 -> inception_5b/1x1
I0703 14:45:15.059412 30876 net.cpp:120] Setting up inception_5b/1x1
I0703 14:45:15.061180 30876 net.cpp:127] Top shape: 10 384 7 7 (188160)
I0703 14:45:15.061193 30876 layer_factory.hpp:74] Creating layer inception_5b/relu_1x1
I0703 14:45:15.061200 30876 net.cpp:90] Creating Layer inception_5b/relu_1x1
I0703 14:45:15.061213 30876 net.cpp:410] inception_5b/relu_1x1 <- inception_5b/1x1
I0703 14:45:15.061219 30876 net.cpp:357] inception_5b/relu_1x1 -> inception_5b/1x1 (in-place)
I0703 14:45:15.061225 30876 net.cpp:120] Setting up inception_5b/relu_1x1
I0703 14:45:15.061269 30876 net.cpp:127] Top shape: 10 384 7 7 (188160)
I0703 14:45:15.061276 30876 layer_factory.hpp:74] Creating layer inception_5b/3x3_reduce
I0703 14:45:15.061283 30876 net.cpp:90] Creating Layer inception_5b/3x3_reduce
I0703 14:45:15.061290 30876 net.cpp:410] inception_5b/3x3_reduce <- inception_5a/output_inception_5a/output_0_split_1
I0703 14:45:15.061295 30876 net.cpp:368] inception_5b/3x3_reduce -> inception_5b/3x3_reduce
I0703 14:45:15.061302 30876 net.cpp:120] Setting up inception_5b/3x3_reduce
I0703 14:45:15.062293 30876 net.cpp:127] Top shape: 10 192 7 7 (94080)
I0703 14:45:15.062304 30876 layer_factory.hpp:74] Creating layer inception_5b/relu_3x3_reduce
I0703 14:45:15.062312 30876 net.cpp:90] Creating Layer inception_5b/relu_3x3_reduce
I0703 14:45:15.062317 30876 net.cpp:410] inception_5b/relu_3x3_reduce <- inception_5b/3x3_reduce
I0703 14:45:15.062324 30876 net.cpp:357] inception_5b/relu_3x3_reduce -> inception_5b/3x3_reduce (in-place)
I0703 14:45:15.062330 30876 net.cpp:120] Setting up inception_5b/relu_3x3_reduce
I0703 14:45:15.062372 30876 net.cpp:127] Top shape: 10 192 7 7 (94080)
I0703 14:45:15.062378 30876 layer_factory.hpp:74] Creating layer inception_5b/3x3
I0703 14:45:15.062386 30876 net.cpp:90] Creating Layer inception_5b/3x3
I0703 14:45:15.062391 30876 net.cpp:410] inception_5b/3x3 <- inception_5b/3x3_reduce
I0703 14:45:15.062397 30876 net.cpp:368] inception_5b/3x3 -> inception_5b/3x3
I0703 14:45:15.062404 30876 net.cpp:120] Setting up inception_5b/3x3
I0703 14:45:15.065640 30876 net.cpp:127] Top shape: 10 384 7 7 (188160)
I0703 14:45:15.065654 30876 layer_factory.hpp:74] Creating layer inception_5b/relu_3x3
I0703 14:45:15.065661 30876 net.cpp:90] Creating Layer inception_5b/relu_3x3
I0703 14:45:15.065666 30876 net.cpp:410] inception_5b/relu_3x3 <- inception_5b/3x3
I0703 14:45:15.065673 30876 net.cpp:357] inception_5b/relu_3x3 -> inception_5b/3x3 (in-place)
I0703 14:45:15.065680 30876 net.cpp:120] Setting up inception_5b/relu_3x3
I0703 14:45:15.065795 30876 net.cpp:127] Top shape: 10 384 7 7 (188160)
I0703 14:45:15.065804 30876 layer_factory.hpp:74] Creating layer inception_5b/5x5_reduce
I0703 14:45:15.065811 30876 net.cpp:90] Creating Layer inception_5b/5x5_reduce
I0703 14:45:15.065816 30876 net.cpp:410] inception_5b/5x5_reduce <- inception_5a/output_inception_5a/output_0_split_2
I0703 14:45:15.065824 30876 net.cpp:368] inception_5b/5x5_reduce -> inception_5b/5x5_reduce
I0703 14:45:15.065831 30876 net.cpp:120] Setting up inception_5b/5x5_reduce
I0703 14:45:15.066237 30876 net.cpp:127] Top shape: 10 48 7 7 (23520)
I0703 14:45:15.066249 30876 layer_factory.hpp:74] Creating layer inception_5b/relu_5x5_reduce
I0703 14:45:15.066256 30876 net.cpp:90] Creating Layer inception_5b/relu_5x5_reduce
I0703 14:45:15.066262 30876 net.cpp:410] inception_5b/relu_5x5_reduce <- inception_5b/5x5_reduce
I0703 14:45:15.066267 30876 net.cpp:357] inception_5b/relu_5x5_reduce -> inception_5b/5x5_reduce (in-place)
I0703 14:45:15.066273 30876 net.cpp:120] Setting up inception_5b/relu_5x5_reduce
I0703 14:45:15.081044 30876 net.cpp:127] Top shape: 10 48 7 7 (23520)
I0703 14:45:15.081070 30876 layer_factory.hpp:74] Creating layer inception_5b/5x5
I0703 14:45:15.081089 30876 net.cpp:90] Creating Layer inception_5b/5x5
I0703 14:45:15.081100 30876 net.cpp:410] inception_5b/5x5 <- inception_5b/5x5_reduce
I0703 14:45:15.081114 30876 net.cpp:368] inception_5b/5x5 -> inception_5b/5x5
I0703 14:45:15.081128 30876 net.cpp:120] Setting up inception_5b/5x5
I0703 14:45:15.082484 30876 net.cpp:127] Top shape: 10 128 7 7 (62720)
I0703 14:45:15.082497 30876 layer_factory.hpp:74] Creating layer inception_5b/relu_5x5
I0703 14:45:15.082506 30876 net.cpp:90] Creating Layer inception_5b/relu_5x5
I0703 14:45:15.082512 30876 net.cpp:410] inception_5b/relu_5x5 <- inception_5b/5x5
I0703 14:45:15.082533 30876 net.cpp:357] inception_5b/relu_5x5 -> inception_5b/5x5 (in-place)
I0703 14:45:15.082541 30876 net.cpp:120] Setting up inception_5b/relu_5x5
I0703 14:45:15.082586 30876 net.cpp:127] Top shape: 10 128 7 7 (62720)
I0703 14:45:15.082592 30876 layer_factory.hpp:74] Creating layer inception_5b/pool
I0703 14:45:15.082597 30876 layer_factory.cpp:55] CUDNN does not support padding or multiple tops. Using Caffe's own pooling layer.
I0703 14:45:15.082603 30876 net.cpp:90] Creating Layer inception_5b/pool
I0703 14:45:15.082608 30876 net.cpp:410] inception_5b/pool <- inception_5a/output_inception_5a/output_0_split_3
I0703 14:45:15.082615 30876 net.cpp:368] inception_5b/pool -> inception_5b/pool
I0703 14:45:15.082623 30876 net.cpp:120] Setting up inception_5b/pool
I0703 14:45:15.082630 30876 net.cpp:127] Top shape: 10 832 7 7 (407680)
I0703 14:45:15.082634 30876 layer_factory.hpp:74] Creating layer inception_5b/pool_proj
I0703 14:45:15.082641 30876 net.cpp:90] Creating Layer inception_5b/pool_proj
I0703 14:45:15.082646 30876 net.cpp:410] inception_5b/pool_proj <- inception_5b/pool
I0703 14:45:15.082653 30876 net.cpp:368] inception_5b/pool_proj -> inception_5b/pool_proj
I0703 14:45:15.082659 30876 net.cpp:120] Setting up inception_5b/pool_proj
I0703 14:45:15.083621 30876 net.cpp:127] Top shape: 10 128 7 7 (62720)
I0703 14:45:15.083647 30876 layer_factory.hpp:74] Creating layer inception_5b/relu_pool_proj
I0703 14:45:15.083664 30876 net.cpp:90] Creating Layer inception_5b/relu_pool_proj
I0703 14:45:15.083677 30876 net.cpp:410] inception_5b/relu_pool_proj <- inception_5b/pool_proj
I0703 14:45:15.083689 30876 net.cpp:357] inception_5b/relu_pool_proj -> inception_5b/pool_proj (in-place)
I0703 14:45:15.083704 30876 net.cpp:120] Setting up inception_5b/relu_pool_proj
I0703 14:45:15.083801 30876 net.cpp:127] Top shape: 10 128 7 7 (62720)
I0703 14:45:15.083816 30876 layer_factory.hpp:74] Creating layer inception_5b/output
I0703 14:45:15.083828 30876 net.cpp:90] Creating Layer inception_5b/output
I0703 14:45:15.083839 30876 net.cpp:410] inception_5b/output <- inception_5b/1x1
I0703 14:45:15.083852 30876 net.cpp:410] inception_5b/output <- inception_5b/3x3
I0703 14:45:15.083863 30876 net.cpp:410] inception_5b/output <- inception_5b/5x5
I0703 14:45:15.083874 30876 net.cpp:410] inception_5b/output <- inception_5b/pool_proj
I0703 14:45:15.083886 30876 net.cpp:368] inception_5b/output -> inception_5b/output
I0703 14:45:15.083900 30876 net.cpp:120] Setting up inception_5b/output
I0703 14:45:15.083915 30876 net.cpp:127] Top shape: 10 1024 7 7 (501760)
I0703 14:45:15.083926 30876 layer_factory.hpp:74] Creating layer pool5/7x7_s1
I0703 14:45:15.083940 30876 net.cpp:90] Creating Layer pool5/7x7_s1
I0703 14:45:15.083950 30876 net.cpp:410] pool5/7x7_s1 <- inception_5b/output
I0703 14:45:15.083964 30876 net.cpp:368] pool5/7x7_s1 -> pool5/7x7_s1
I0703 14:45:15.083978 30876 net.cpp:120] Setting up pool5/7x7_s1
I0703 14:45:15.084215 30876 net.cpp:127] Top shape: 10 1024 1 1 (10240)
I0703 14:45:15.084236 30876 layer_factory.hpp:74] Creating layer pool5/drop_7x7_s1
I0703 14:45:15.084252 30876 net.cpp:90] Creating Layer pool5/drop_7x7_s1
I0703 14:45:15.084264 30876 net.cpp:410] pool5/drop_7x7_s1 <- pool5/7x7_s1
I0703 14:45:15.084276 30876 net.cpp:357] pool5/drop_7x7_s1 -> pool5/7x7_s1 (in-place)
I0703 14:45:15.084290 30876 net.cpp:120] Setting up pool5/drop_7x7_s1
I0703 14:45:15.084305 30876 net.cpp:127] Top shape: 10 1024 1 1 (10240)
I0703 14:45:15.084314 30876 layer_factory.hpp:74] Creating layer stanford_cars_loss3/classifier
I0703 14:45:15.084331 30876 net.cpp:90] Creating Layer stanford_cars_loss3/classifier
I0703 14:45:15.084342 30876 net.cpp:410] stanford_cars_loss3/classifier <- pool5/7x7_s1
I0703 14:45:15.084354 30876 net.cpp:368] stanford_cars_loss3/classifier -> stanford_cars_loss3/classifier
I0703 14:45:15.084370 30876 net.cpp:120] Setting up stanford_cars_loss3/classifier
I0703 14:45:15.086632 30876 net.cpp:127] Top shape: 10 196 (1960)
I0703 14:45:15.086652 30876 layer_factory.hpp:74] Creating layer stanford_cars_loss3/classifier_stanford_cars_loss3/classifier_0_split
I0703 14:45:15.086683 30876 net.cpp:90] Creating Layer stanford_cars_loss3/classifier_stanford_cars_loss3/classifier_0_split
I0703 14:45:15.086695 30876 net.cpp:410] stanford_cars_loss3/classifier_stanford_cars_loss3/classifier_0_split <- stanford_cars_loss3/classifier
I0703 14:45:15.086709 30876 net.cpp:368] stanford_cars_loss3/classifier_stanford_cars_loss3/classifier_0_split -> stanford_cars_loss3/classifier_stanford_cars_loss3/classifier_0_split_0
I0703 14:45:15.086724 30876 net.cpp:368] stanford_cars_loss3/classifier_stanford_cars_loss3/classifier_0_split -> stanford_cars_loss3/classifier_stanford_cars_loss3/classifier_0_split_1
I0703 14:45:15.086740 30876 net.cpp:368] stanford_cars_loss3/classifier_stanford_cars_loss3/classifier_0_split -> stanford_cars_loss3/classifier_stanford_cars_loss3/classifier_0_split_2
I0703 14:45:15.086752 30876 net.cpp:120] Setting up stanford_cars_loss3/classifier_stanford_cars_loss3/classifier_0_split
I0703 14:45:15.086767 30876 net.cpp:127] Top shape: 10 196 (1960)
I0703 14:45:15.086778 30876 net.cpp:127] Top shape: 10 196 (1960)
I0703 14:45:15.086789 30876 net.cpp:127] Top shape: 10 196 (1960)
I0703 14:45:15.086798 30876 layer_factory.hpp:74] Creating layer loss3/loss3
I0703 14:45:15.086812 30876 net.cpp:90] Creating Layer loss3/loss3
I0703 14:45:15.086822 30876 net.cpp:410] loss3/loss3 <- stanford_cars_loss3/classifier_stanford_cars_loss3/classifier_0_split_0
I0703 14:45:15.086833 30876 net.cpp:410] loss3/loss3 <- label_data_1_split_6
I0703 14:45:15.086849 30876 net.cpp:368] loss3/loss3 -> loss3/loss3
…
