…
I0703 17:51:03.749166 18087 net.cpp:287] The NetState phase (0) differed from the phase (1) specified by a rule in layer loss3/top-5
I0703 17:51:03.749812 18087 net.cpp:42] Initializing net from parameters: 
name: "GoogleNet"
state {
  phase: TRAIN
}
layer {
  name: "data"
  type: "Data"
  top: "data"
  top: "label"
  include {
    phase: TRAIN
  }
  transform_param {
    mirror: true
    crop_size: 224
    mean_value: 104
    mean_value: 117
    mean_value: 123
  }
  data_param {
    source: "examples/stanford_cars/stanford_cars_train_lmdb"
    batch_size: 30
    backend: LMDB
  }
}
layer {
  name: "conv1/7x7_s2"
  type: "Convolution"
  bottom: "data"
  top: "conv1/7x7_s2"
  param {
    lr_mult: 1
    decay_mult: 1
  }
  param {
    lr_mult: 2
    decay_mult: 0
  }
  convolution_param {
    num_output: 64
    pad: 3
    kernel_size: 7
    stride: 2
    weight_filler {
      type: "xavier"
      std: 0.1
    }
    bias_filler {
      type: "constant"
      value: 0.2
    }
  }
}
layer {
  name: "conv1/relu_7x7"
  type: "ReLU"
  bottom: "conv1/7x7_s2"
  top: "conv1/7x7_s2"
}
layer {
  name: "pool1/3x3_s2"
  type: "Pooling"
  bottom: "conv1/7x7_s2"
  top: "pool1/3x3_s2"
  pooling_param {
    pool: MAX
    kernel_size: 3
    stride: 2
  }
}
layer {
  name: "pool1/norm1"
  type: "LRN"
  bottom: "pool1/3x3_s2"
  top: "pool1/norm1"
  lrn_param {
    local_size: 5
    alpha: 0.0001
    beta: 0.75
  }
}
layer {
  name: "conv2/3x3_reduce"
  type: "Convolution"
  bottom: "pool1/norm1"
  top: "conv2/3x3_reduce"
  param {
    lr_mult: 1
    decay_mult: 1
  }
  param {
    lr_mult: 2
    decay_mult: 0
  }
  convolution_param {
    num_output: 64
    kernel_size: 1
    weight_filler {
      type: "xavier"
      std: 0.1
    }
    bias_filler {
      type: "constant"
      value: 0.2
    }
  }
}
layer {
  name: "conv2/relu_3x3_reduce"
  type: "ReLU"
  bottom: "conv2/3x3_reduce"
  top: "conv2/3x3_reduce"
}
layer {
  name: "conv2/3x3"
  type: "Convolution"
  bottom: "conv2/3x3_reduce"
  top: "conv2/3x3"
  param {
    lr_mult: 1
    decay_mult: 1
  }
  param {
    lr_mult: 2
    decay_mult: 0
  }
  convolution_param {
    num_output: 192
    pad: 1
    kernel_size: 3
    weight_filler {
      type: "xavier"
      std: 0.03
    }
    bias_filler {
      type: "constant"
      value: 0.2
    }
  }
}
layer {
  name: "conv2/relu_3x3"
  type: "ReLU"
  bottom: "conv2/3x3"
  top: "conv2/3x3"
}
layer {
  name: "conv2/norm2"
  type: "LRN"
  bottom: "conv2/3x3"
  top: "conv2/norm2"
  lrn_param {
    local_size: 5
    alpha: 0.0001
    beta: 0.75
  }
}
layer {
  name: "pool2/3x3_s2"
  type: "Pooling"
  bottom: "conv2/norm2"
  top: "pool2/3x3_s2"
  pooling_param {
    pool: MAX
    kernel_size: 3
    stride: 2
  }
}
layer {
  name: "inception_3a/1x1"
  type: "Convolution"
  bottom: "pool2/3x3_s2"
  top: "inception_3a/1x1"
  param {
    lr_mult: 1
    decay_mult: 1
  }
  param {
    lr_mult: 2
    decay_mult: 0
  }
  convolution_param {
    num_output: 64
    kernel_size: 1
    weight_filler {
      type: "xavier"
      std: 0.03
    }
    bias_filler {
      type: "constant"
      value: 0.2
    }
  }
}
layer {
  name: "inception_3a/relu_1x1"
  type: "ReLU"
  bottom: "inception_3a/1x1"
  top: "inception_3a/1x1"
}
layer {
  name: "inception_3a/3x3_reduce"
  type: "Convolution"
  bottom: "pool2/3x3_s2"
  top: "inception_3a/3x3_reduce"
  param {
    lr_mult: 1
    decay_mult: 1
  }
  param {
    lr_mult: 2
    decay_mult: 0
  }
  convolution_param {
    num_output: 96
    kernel_size: 1
    weight_filler {
      type: "xavier"
      std: 0.09
    }
    bias_filler {
      type: "constant"
      value: 0.2
    }
  }
}
layer {
  name: "inception_3a/relu_3x3_reduce"
  type: "ReLU"
  bottom: "inception_3a/3x3_reduce"
  top: "inception_3a/3x3_reduce"
}
layer {
  name: "inception_3a/3x3"
  type: "Convolution"
  bottom: "inception_3a/3x3_reduce"
  top: "inception_3a/3x3"
  param {
    lr_mult: 1
    decay_mult: 1
  }
  param {
    lr_mult: 2
    decay_mult: 0
  }
  convolution_param {
    num_output: 128
    pad: 1
    kernel_size: 3
    weight_filler {
      type: "xavier"
      std: 0.03
    }
    bias_filler {
      type: "constant"
      value: 0.2
    }
  }
}
layer {
  name: "inception_3a/relu_3x3"
  type: "ReLU"
  bottom: "inception_3a/3x3"
  top: "inception_3a/3x3"
}
layer {
  name: "inception_3a/5x5_reduce"
  type: "Convolution"
  bottom: "pool2/3x3_s2"
  top: "inception_3a/5x5_reduce"
  param {
    lr_mult: 1
    decay_mult: 1
  }
  param {
    lr_mult: 2
    decay_mult: 0
  }
  convolution_param {
    num_output: 16
    kernel_size: 1
    weight_filler {
      type: "xavier"
      std: 0.2
    }
    bias_filler {
      type: "constant"
      value: 0.2
    }
  }
}
layer {
  name: "inception_3a/relu_5x5_reduce"
  type: "ReLU"
  bottom: "inception_3a/5x5_reduce"
  top: "inception_3a/5x5_reduce"
}
layer {
  name: "inception_3a/5x5"
  type: "Convolution"
  bottom: "inception_3a/5x5_reduce"
  top: "inception_3a/5x5"
  param {
    lr_mult: 1
    decay_mult: 1
  }
  param {
    lr_mult: 2
    decay_mult: 0
  }
  convolution_param {
    num_output: 32
    pad: 2
    kernel_size: 5
    weight_filler {
      type: "xavier"
      std: 0.03
    }
    bias_filler {
      type: "constant"
      value: 0.2
    }
  }
}
layer {
  name: "inception_3a/relu_5x5"
  type: "ReLU"
  bottom: "inception_3a/5x5"
  top: "inception_3a/5x5"
}
layer {
  name: "inception_3a/pool"
  type: "Pooling"
  bottom: "pool2/3x3_s2"
  top: "inception_3a/pool"
  pooling_param {
    pool: MAX
    kernel_size: 3
    stride: 1
    pad: 1
  }
}
layer {
  name: "inception_3a/pool_proj"
  type: "Convolution"
  bottom: "inception_3a/pool"
  top: "inception_3a/pool_proj"
  param {
    lr_mult: 1
    decay_mult: 1
  }
  param {
    lr_mult: 2
    decay_mult: 0
  }
  convolution_param {
    num_output: 32
    kernel_size: 1
    weight_filler {
      type: "xavier"
      std: 0.1
    }
    bias_filler {
      type: "constant"
      value: 0.2
    }
  }
}
layer {
  name: "inception_3a/relu_pool_proj"
  type: "ReLU"
  bottom: "inception_3a/pool_proj"
  top: "inception_3a/pool_proj"
}
layer {
  name: "inception_3a/output"
  type: "Concat"
  bottom: "inception_3a/1x1"
  bottom: "inception_3a/3x3"
  bottom: "inception_3a/5x5"
  bottom: "inception_3a/pool_proj"
  top: "inception_3a/output"
}
layer {
  name: "inception_3b/1x1"
  type: "Convolution"
  bottom: "inception_3a/output"
  top: "inception_3b/1x1"
  param {
    lr_mult: 1
    decay_mult: 1
  }
  param {
    lr_mult: 2
    decay_mult: 0
  }
  convolution_param {
    num_output: 128
    kernel_size: 1
    weight_filler {
      type: "xavier"
      std: 0.03
    }
    bias_filler {
      type: "constant"
      value: 0.2
    }
  }
}
layer {
  name: "inception_3b/relu_1x1"
  type: "ReLU"
  bottom: "inception_3b/1x1"
  top: "inception_3b/1x1"
}
layer {
  name: "inception_3b/3x3_reduce"
  type: "Convolution"
  bottom: "inception_3a/output"
  top: "inception_3b/3x3_reduce"
  param {
    lr_mult: 1
    decay_mult: 1
  }
  param {
    lr_mult: 2
    decay_mult: 0
  }
  convolution_param {
    num_output: 128
    kernel_size: 1
    weight_filler {
      type: "xavier"
      std: 0.09
    }
    bias_filler {
      type: "constant"
      value: 0.2
    }
  }
}
layer {
  name: "inception_3b/relu_3x3_reduce"
  type: "ReLU"
  bottom: "inception_3b/3x3_reduce"
  top: "inception_3b/3x3_reduce"
}
layer {
  name: "inception_3b/3x3"
  type: "Convolution"
  bottom: "inception_3b/3x3_reduce"
  top: "inception_3b/3x3"
  param {
    lr_mult: 1
    decay_mult: 1
  }
  param {
    lr_mult: 2
    decay_mult: 0
  }
  convolution_param {
    num_output: 192
    pad: 1
    kernel_size: 3
    weight_filler {
      type: "xavier"
      std: 0.03
    }
    bias_filler {
      type: "constant"
      value: 0.2
    }
  }
}
layer {
  name: "inception_3b/relu_3x3"
  type: "ReLU"
  bottom: "inception_3b/3x3"
  top: "inception_3b/3x3"
}
layer {
  name: "inception_3b/5x5_reduce"
  type: "Convolution"
  bottom: "inception_3a/output"
  top: "inception_3b/5x5_reduce"
  param {
    lr_mult: 1
    decay_mult: 1
  }
  param {
    lr_mult: 2
    decay_mult: 0
  }
  convolution_param {
    num_output: 32
    kernel_size: 1
    weight_filler {
      type: "xavier"
      std: 0.2
    }
    bias_filler {
      type: "constant"
      value: 0.2
    }
  }
}
layer {
  name: "inception_3b/relu_5x5_reduce"
  type: "ReLU"
  bottom: "inception_3b/5x5_reduce"
  top: "inception_3b/5x5_reduce"
}
layer {
  name: "inception_3b/5x5"
  type: "Convolution"
  bottom: "inception_3b/5x5_reduce"
  top: "inception_3b/5x5"
  param {
    lr_mult: 1
    decay_mult: 1
  }
  param {
    lr_mult: 2
    decay_mult: 0
  }
  convolution_param {
    num_output: 96
    pad: 2
    kernel_size: 5
    weight_filler {
      type: "xavier"
      std: 0.03
    }
    bias_filler {
      type: "constant"
      value: 0.2
    }
  }
}
layer {
  name: "inception_3b/relu_5x5"
  type: "ReLU"
  bottom: "inception_3b/5x5"
  top: "inception_3b/5x5"
}
layer {
  name: "inception_3b/pool"
  type: "Pooling"
  bottom: "inception_3a/output"
  top: "inception_3b/pool"
  pooling_param {
    pool: MAX
    kernel_size: 3
    stride: 1
    pad: 1
  }
}
layer {
  name: "inception_3b/pool_proj"
  type: "Convolution"
  bottom: "inception_3b/pool"
  top: "inception_3b/pool_proj"
  param {
    lr_mult: 1
    decay_mult: 1
  }
  param {
    lr_mult: 2
    decay_mult: 0
  }
  convolution_param {
    num_output: 64
    kernel_size: 1
    weight_filler {
      type: "xavier"
      std: 0.1
    }
    bias_filler {
      type: "constant"
      value: 0.2
    }
  }
}
layer {
  name: "inception_3b/relu_pool_proj"
  type: "ReLU"
  bottom: "inception_3b/pool_proj"
  top: "inception_3b/pool_proj"
}
layer {
  name: "inception_3b/output"
  type: "Concat"
  bottom: "inception_3b/1x1"
  bottom: "inception_3b/3x3"
  bottom: "inception_3b/5x5"
  bottom: "inception_3b/pool_proj"
  top: "inception_3b/output"
}
layer {
  name: "pool3/3x3_s2"
  type: "Pooling"
  bottom: "inception_3b/output"
  top: "pool3/3x3_s2"
  pooling_param {
    pool: MAX
    kernel_size: 3
    stride: 2
  }
}
layer {
  name: "inception_4a/1x1"
  type: "Convolution"
  bottom: "pool3/3x3_s2"
  top: "inception_4a/1x1"
  param {
    lr_mult: 1
    decay_mult: 1
  }
  param {
    lr_mult: 2
    decay_mult: 0
  }
  convolution_param {
    num_output: 192
    kernel_size: 1
    weight_filler {
      type: "xavier"
      std: 0.03
    }
    bias_filler {
      type: "constant"
      value: 0.2
    }
  }
}
layer {
  name: "inception_4a/relu_1x1"
  type: "ReLU"
  bottom: "inception_4a/1x1"
  top: "inception_4a/1x1"
}
layer {
  name: "inception_4a/3x3_reduce"
  type: "Convolution"
  bottom: "pool3/3x3_s2"
  top: "inception_4a/3x3_reduce"
  param {
    lr_mult: 1
    decay_mult: 1
  }
  param {
    lr_mult: 2
    decay_mult: 0
  }
  convolution_param {
    num_output: 96
    kernel_size: 1
    weight_filler {
      type: "xavier"
      std: 0.09
    }
    bias_filler {
      type: "constant"
      value: 0.2
    }
  }
}
layer {
  name: "inception_4a/relu_3x3_reduce"
  type: "ReLU"
  bottom: "inception_4a/3x3_reduce"
  top: "inception_4a/3x3_reduce"
}
layer {
  name: "inception_4a/3x3"
  type: "Convolution"
  bottom: "inception_4a/3x3_reduce"
  top: "inception_4a/3x3"
  param {
    lr_mult: 1
    decay_mult: 1
  }
  param {
    lr_mult: 2
    decay_mult: 0
  }
  convolution_param {
    num_output: 208
    pad: 1
    kernel_size: 3
    weight_filler {
      type: "xavier"
      std: 0.03
    }
    bias_filler {
      type: "constant"
      value: 0.2
    }
  }
}
layer {
  name: "inception_4a/relu_3x3"
  type: "ReLU"
  bottom: "inception_4a/3x3"
  top: "inception_4a/3x3"
}
layer {
  name: "inception_4a/5x5_reduce"
  type: "Convolution"
  bottom: "pool3/3x3_s2"
  top: "inception_4a/5x5_reduce"
  param {
    lr_mult: 1
    decay_mult: 1
  }
  param {
    lr_mult: 2
    decay_mult: 0
  }
  convolution_param {
    num_output: 16
    kernel_size: 1
    weight_filler {
      type: "xavier"
      std: 0.2
    }
    bias_filler {
      type: "constant"
      value: 0.2
    }
  }
}
layer {
  name: "inception_4a/relu_5x5_reduce"
  type: "ReLU"
  bottom: "inception_4a/5x5_reduce"
  top: "inception_4a/5x5_reduce"
}
layer {
  name: "inception_4a/5x5"
  type: "Convolution"
  bottom: "inception_4a/5x5_reduce"
  top: "inception_4a/5x5"
  param {
    lr_mult: 1
    decay_mult: 1
  }
  param {
    lr_mult: 2
    decay_mult: 0
  }
  convolution_param {
    num_output: 48
    pad: 2
    kernel_size: 5
    weight_filler {
      type: "xavier"
      std: 0.03
    }
    bias_filler {
      type: "constant"
      value: 0.2
    }
  }
}
layer {
  name: "inception_4a/relu_5x5"
  type: "ReLU"
  bottom: "inception_4a/5x5"
  top: "inception_4a/5x5"
}
layer {
  name: "inception_4a/pool"
  type: "Pooling"
  bottom: "pool3/3x3_s2"
  top: "inception_4a/pool"
  pooling_param {
    pool: MAX
    kernel_size: 3
    stride: 1
    pad: 1
  }
}
layer {
  name: "inception_4a/pool_proj"
  type: "Convolution"
  bottom: "inception_4a/pool"
  top: "inception_4a/pool_proj"
  param {
    lr_mult: 1
    decay_mult: 1
  }
  param {
    lr_mult: 2
    decay_mult: 0
  }
  convolution_param {
    num_output: 64
    kernel_size: 1
    weight_filler {
      type: "xavier"
      std: 0.1
    }
    bias_filler {
      type: "constant"
      value: 0.2
    }
  }
}
layer {
  name: "inception_4a/relu_pool_proj"
  type: "ReLU"
  bottom: "inception_4a/pool_proj"
  top: "inception_4a/pool_proj"
}
layer {
  name: "inception_4a/output"
  type: "Concat"
  bottom: "inception_4a/1x1"
  bottom: "inception_4a/3x3"
  bottom: "inception_4a/5x5"
  bottom: "inception_4a/pool_proj"
  top: "inception_4a/output"
}
layer {
  name: "loss1/ave_pool"
  type: "Pooling"
  bottom: "inception_4a/output"
  top: "loss1/ave_pool"
  pooling_param {
    pool: AVE
    kernel_size: 5
    stride: 3
  }
}
layer {
  name: "loss1/conv"
  type: "Convolution"
  bottom: "loss1/ave_pool"
  top: "loss1/conv"
  param {
    lr_mult: 1
    decay_mult: 1
  }
  param {
    lr_mult: 2
    decay_mult: 0
  }
  convolution_param {
    num_output: 128
    kernel_size: 1
    weight_filler {
      type: "xavier"
      std: 0.08
    }
    bias_filler {
      type: "constant"
      value: 0.2
    }
  }
}
layer {
  name: "loss1/relu_conv"
  type: "ReLU"
  bottom: "loss1/conv"
  top: "loss1/conv"
}
layer {
  name: "loss1/fc"
  type: "InnerProduct"
  bottom: "loss1/conv"
  top: "loss1/fc"
  param {
    lr_mult: 1
    decay_mult: 1
  }
  param {
    lr_mult: 2
    decay_mult: 0
  }
  inner_product_param {
    num_output: 1024
    weight_filler {
      type: "xavier"
      std: 0.02
    }
    bias_filler {
      type: "constant"
      value: 0.2
    }
  }
}
layer {
  name: "loss1/relu_fc"
  type: "ReLU"
  bottom: "loss1/fc"
  top: "loss1/fc"
}
layer {
  name: "loss1/drop_fc"
  type: "Dropout"
  bottom: "loss1/fc"
  top: "loss1/fc"
  dropout_param {
    dropout_ratio: 0.7
  }
}
layer {
  name: "stanford_cars_loss1/classifier"
  type: "InnerProduct"
  bottom: "loss1/fc"
  top: "stanford_cars_loss1/classifier"
  param {
    lr_mult: 1
    decay_mult: 1
  }
  param {
    lr_mult: 2
    decay_mult: 0
  }
  inner_product_param {
    num_output: 196
    weight_filler {
      type: "xavier"
      std: 0.0009765625
    }
    bias_filler {
      type: "constant"
      value: 0
    }
  }
}
layer {
  name: "loss1/loss"
  type: "SoftmaxWithLoss"
  bottom: "stanford_cars_loss1/classifier"
  bottom: "label"
  top: "loss1/loss1"
  loss_weight: 0.3
}
layer {
  name: "inception_4b/1x1"
  type: "Convolution"
  bottom: "inception_4a/output"
  top: "inception_4b/1x1"
  param {
    lr_mult: 1
    decay_mult: 1
  }
  param {
    lr_mult: 2
    decay_mult: 0
  }
  convolution_param {
    num_output: 160
    kernel_size: 1
    weight_filler {
      type: "xavier"
      std: 0.03
    }
    bias_filler {
      type: "constant"
      value: 0.2
    }
  }
}
layer {
  name: "inception_4b/relu_1x1"
  type: "ReLU"
  bottom: "inception_4b/1x1"
  top: "inception_4b/1x1"
}
layer {
  name: "inception_4b/3x3_reduce"
  type: "Convolution"
  bottom: "inception_4a/output"
  top: "inception_4b/3x3_reduce"
  param {
    lr_mult: 1
    decay_mult: 1
  }
  param {
    lr_mult: 2
    decay_mult: 0
  }
  convolution_param {
    num_output: 112
    kernel_size: 1
    weight_filler {
      type: "xavier"
      std: 0.09
    }
    bias_filler {
      type: "constant"
      value: 0.2
    }
  }
}
layer {
  name: "inception_4b/relu_3x3_reduce"
  type: "ReLU"
  bottom: "inception_4b/3x3_reduce"
  top: "inception_4b/3x3_reduce"
}
layer {
  name: "inception_4b/3x3"
  type: "Convolution"
  bottom: "inception_4b/3x3_reduce"
  top: "inception_4b/3x3"
  param {
    lr_mult: 1
    decay_mult: 1
  }
  param {
    lr_mult: 2
    decay_mult: 0
  }
  convolution_param {
    num_output: 224
    pad: 1
    kernel_size: 3
    weight_filler {
      type: "xavier"
      std: 0.03
    }
    bias_filler {
      type: "constant"
      value: 0.2
    }
  }
}
layer {
  name: "inception_4b/relu_3x3"
  type: "ReLU"
  bottom: "inception_4b/3x3"
  top: "inception_4b/3x3"
}
layer {
  name: "inception_4b/5x5_reduce"
  type: "Convolution"
  bottom: "inception_4a/output"
  top: "inception_4b/5x5_reduce"
  param {
    lr_mult: 1
    decay_mult: 1
  }
  param {
    lr_mult: 2
    decay_mult: 0
  }
  convolution_param {
    num_output: 24
    kernel_size: 1
    weight_filler {
      type: "xavier"
      std: 0.2
    }
    bias_filler {
      type: "constant"
      value: 0.2
    }
  }
}
layer {
  name: "inception_4b/relu_5x5_reduce"
  type: "ReLU"
  bottom: "inception_4b/5x5_reduce"
  top: "inception_4b/5x5_reduce"
}
layer {
  name: "inception_4b/5x5"
  type: "Convolution"
  bottom: "inception_4b/5x5_reduce"
  top: "inception_4b/5x5"
  param {
    lr_mult: 1
    decay_mult: 1
  }
  param {
    lr_mult: 2
    decay_mult: 0
  }
  convolution_param {
    num_output: 64
    pad: 2
    kernel_size: 5
    weight_filler {
      type: "xavier"
      std: 0.03
    }
    bias_filler {
      type: "constant"
      value: 0.2
    }
  }
}
layer {
  name: "inception_4b/relu_5x5"
  type: "ReLU"
  bottom: "inception_4b/5x5"
  top: "inception_4b/5x5"
}
layer {
  name: "inception_4b/pool"
  type: "Pooling"
  bottom: "inception_4a/output"
  top: "inception_4b/pool"
  pooling_param {
    pool: MAX
    kernel_size: 3
    stride: 1
    pad: 1
  }
}
layer {
  name: "inception_4b/pool_proj"
  type: "Convolution"
  bottom: "inception_4b/pool"
  top: "inception_4b/pool_proj"
  param {
    lr_mult: 1
    decay_mult: 1
  }
  param {
    lr_mult: 2
    decay_mult: 0
  }
  convolution_param {
    num_output: 64
    kernel_size: 1
    weight_filler {
      type: "xavier"
      std: 0.1
    }
    bias_filler {
      type: "constant"
      value: 0.2
    }
  }
}
layer {
  name: "inception_4b/relu_pool_proj"
  type: "ReLU"
  bottom: "inception_4b/pool_proj"
  top: "inception_4b/pool_proj"
}
layer {
  name: "inception_4b/output"
  type: "Concat"
  bottom: "inception_4b/1x1"
  bottom: "inception_4b/3x3"
  bottom: "inception_4b/5x5"
  bottom: "inception_4b/pool_proj"
  top: "inception_4b/output"
}
layer {
  name: "inception_4c/1x1"
  type: "Convolution"
  bottom: "inception_4b/output"
  top: "inception_4c/1x1"
  param {
    lr_mult: 1
    decay_mult: 1
  }
  param {
    lr_mult: 2
    decay_mult: 0
  }
  convolution_param {
    num_output: 128
    kernel_size: 1
    weight_filler {
      type: "xavier"
      std: 0.03
    }
    bias_filler {
      type: "constant"
      value: 0.2
    }
  }
}
layer {
  name: "inception_4c/relu_1x1"
  type: "ReLU"
  bottom: "inception_4c/1x1"
  top: "inception_4c/1x1"
}
layer {
  name: "inception_4c/3x3_reduce"
  type: "Convolution"
  bottom: "inception_4b/output"
  top: "inception_4c/3x3_reduce"
  param {
    lr_mult: 1
    decay_mult: 1
  }
  param {
    lr_mult: 2
    decay_mult: 0
  }
  convolution_param {
    num_output: 128
    kernel_size: 1
    weight_filler {
      type: "xavier"
      std: 0.09
    }
    bias_filler {
      type: "constant"
      value: 0.2
    }
  }
}
layer {
  name: "inception_4c/relu_3x3_reduce"
  type: "ReLU"
  bottom: "inception_4c/3x3_reduce"
  top: "inception_4c/3x3_reduce"
}
layer {
  name: "inception_4c/3x3"
  type: "Convolution"
  bottom: "inception_4c/3x3_reduce"
  top: "inception_4c/3x3"
  param {
    lr_mult: 1
    decay_mult: 1
  }
  param {
    lr_mult: 2
    decay_mult: 0
  }
  convolution_param {
    num_output: 256
    pad: 1
    kernel_size: 3
    weight_filler {
      type: "xavier"
      std: 0.03
    }
    bias_filler {
      type: "constant"
      value: 0.2
    }
  }
}
layer {
  name: "inception_4c/relu_3x3"
  type: "ReLU"
  bottom: "inception_4c/3x3"
  top: "inception_4c/3x3"
}
layer {
  name: "inception_4c/5x5_reduce"
  type: "Convolution"
  bottom: "inception_4b/output"
  top: "inception_4c/5x5_reduce"
  param {
    lr_mult: 1
    decay_mult: 1
  }
  param {
    lr_mult: 2
    decay_mult: 0
  }
  convolution_param {
    num_output: 24
    kernel_size: 1
    weight_filler {
      type: "xavier"
      std: 0.2
    }
    bias_filler {
      type: "constant"
      value: 0.2
    }
  }
}
layer {
  name: "inception_4c/relu_5x5_reduce"
  type: "ReLU"
  bottom: "inception_4c/5x5_reduce"
  top: "inception_4c/5x5_reduce"
}
layer {
  name: "inception_4c/5x5"
  type: "Convolution"
  bottom: "inception_4c/5x5_reduce"
  top: "inception_4c/5x5"
  param {
    lr_mult: 1
    decay_mult: 1
  }
  param {
    lr_mult: 2
    decay_mult: 0
  }
  convolution_param {
    num_output: 64
    pad: 2
    kernel_size: 5
    weight_filler {
      type: "xavier"
      std: 0.03
    }
    bias_filler {
      type: "constant"
      value: 0.2
    }
  }
}
layer {
  name: "inception_4c/relu_5x5"
  type: "ReLU"
  bottom: "inception_4c/5x5"
  top: "inception_4c/5x5"
}
layer {
  name: "inception_4c/pool"
  type: "Pooling"
  bottom: "inception_4b/output"
  top: "inception_4c/pool"
  pooling_param {
    pool: MAX
    kernel_size: 3
    stride: 1
    pad: 1
  }
}
layer {
  name: "inception_4c/pool_proj"
  type: "Convolution"
  bottom: "inception_4c/pool"
  top: "inception_4c/pool_proj"
  param {
    lr_mult: 1
    decay_mult: 1
  }
  param {
    lr_mult: 2
    decay_mult: 0
  }
  convolution_param {
    num_output: 64
    kernel_size: 1
    weight_filler {
      type: "xavier"
      std: 0.1
    }
    bias_filler {
      type: "constant"
      value: 0.2
    }
  }
}
layer {
  name: "inception_4c/relu_pool_proj"
  type: "ReLU"
  bottom: "inception_4c/pool_proj"
  top: "inception_4c/pool_proj"
}
layer {
  name: "inception_4c/output"
  type: "Concat"
  bottom: "inception_4c/1x1"
  bottom: "inception_4c/3x3"
  bottom: "inception_4c/5x5"
  bottom: "inception_4c/pool_proj"
  top: "inception_4c/output"
}
layer {
  name: "inception_4d/1x1"
  type: "Convolution"
  bottom: "inception_4c/output"
  top: "inception_4d/1x1"
  param {
    lr_mult: 1
    decay_mult: 1
  }
  param {
    lr_mult: 2
    decay_mult: 0
  }
  convolution_param {
    num_output: 112
    kernel_size: 1
    weight_filler {
      type: "xavier"
      std: 0.03
    }
    bias_filler {
      type: "constant"
      value: 0.2
    }
  }
}
layer {
  name: "inception_4d/relu_1x1"
  type: "ReLU"
  bottom: "inception_4d/1x1"
  top: "inception_4d/1x1"
}
layer {
  name: "inception_4d/3x3_reduce"
  type: "Convolution"
  bottom: "inception_4c/output"
  top: "inception_4d/3x3_reduce"
  param {
    lr_mult: 1
    decay_mult: 1
  }
  param {
    lr_mult: 2
    decay_mult: 0
  }
  convolution_param {
    num_output: 144
    kernel_size: 1
    weight_filler {
      type: "xavier"
      std: 0.09
    }
    bias_filler {
      type: "constant"
      value: 0.2
    }
  }
}
layer {
  name: "inception_4d/relu_3x3_reduce"
  type: "ReLU"
  bottom: "inception_4d/3x3_reduce"
  top: "inception_4d/3x3_reduce"
}
layer {
  name: "inception_4d/3x3"
  type: "Convolution"
  bottom: "inception_4d/3x3_reduce"
  top: "inception_4d/3x3"
  param {
    lr_mult: 1
    decay_mult: 1
  }
  param {
    lr_mult: 2
    decay_mult: 0
  }
  convolution_param {
    num_output: 288
    pad: 1
    kernel_size: 3
    weight_filler {
      type: "xavier"
      std: 0.03
    }
    bias_filler {
      type: "constant"
      value: 0.2
    }
  }
}
layer {
  name: "inception_4d/relu_3x3"
  type: "ReLU"
  bottom: "inception_4d/3x3"
  top: "inception_4d/3x3"
}
layer {
  name: "inception_4d/5x5_reduce"
  type: "Convolution"
  bottom: "inception_4c/output"
  top: "inception_4d/5x5_reduce"
  param {
    lr_mult: 1
    decay_mult: 1
  }
  param {
    lr_mult: 2
    decay_mult: 0
  }
  convolution_param {
    num_output: 32
    kernel_size: 1
    weight_filler {
      type: "xavier"
      std: 0.2
    }
    bias_filler {
      type: "constant"
      value: 0.2
    }
  }
}
layer {
  name: "inception_4d/relu_5x5_reduce"
  type: "ReLU"
  bottom: "inception_4d/5x5_reduce"
  top: "inception_4d/5x5_reduce"
}
layer {
  name: "inception_4d/5x5"
  type: "Convolution"
  bottom: "inception_4d/5x5_reduce"
  top: "inception_4d/5x5"
  param {
    lr_mult: 1
    decay_mult: 1
  }
  param {
    lr_mult: 2
    decay_mult: 0
  }
  convolution_param {
    num_output: 64
    pad: 2
    kernel_size: 5
    weight_filler {
      type: "xavier"
      std: 0.03
    }
    bias_filler {
      type: "constant"
      value: 0.2
    }
  }
}
layer {
  name: "inception_4d/relu_5x5"
  type: "ReLU"
  bottom: "inception_4d/5x5"
  top: "inception_4d/5x5"
}
layer {
  name: "inception_4d/pool"
  type: "Pooling"
  bottom: "inception_4c/output"
  top: "inception_4d/pool"
  pooling_param {
    pool: MAX
    kernel_size: 3
    stride: 1
    pad: 1
  }
}
layer {
  name: "inception_4d/pool_proj"
  type: "Convolution"
  bottom: "inception_4d/pool"
  top: "inception_4d/pool_proj"
  param {
    lr_mult: 1
    decay_mult: 1
  }
  param {
    lr_mult: 2
    decay_mult: 0
  }
  convolution_param {
    num_output: 64
    kernel_size: 1
    weight_filler {
      type: "xavier"
      std: 0.1
    }
    bias_filler {
      type: "constant"
      value: 0.2
    }
  }
}
layer {
  name: "inception_4d/relu_pool_proj"
  type: "ReLU"
  bottom: "inception_4d/pool_proj"
  top: "inception_4d/pool_proj"
}
layer {
  name: "inception_4d/output"
  type: "Concat"
  bottom: "inception_4d/1x1"
  bottom: "inception_4d/3x3"
  bottom: "inception_4d/5x5"
  bottom: "inception_4d/pool_proj"
  top: "inception_4d/output"
}
layer {
  name: "loss2/ave_pool"
  type: "Pooling"
  bottom: "inception_4d/output"
  top: "loss2/ave_pool"
  pooling_param {
    pool: AVE
    kernel_size: 5
    stride: 3
  }
}
layer {
  name: "loss2/conv"
  type: "Convolution"
  bottom: "loss2/ave_pool"
  top: "loss2/conv"
  param {
    lr_mult: 1
    decay_mult: 1
  }
  param {
    lr_mult: 2
    decay_mult: 0
  }
  convolution_param {
    num_output: 128
    kernel_size: 1
    weight_filler {
      type: "xavier"
      std: 0.08
    }
    bias_filler {
      type: "constant"
      value: 0.2
    }
  }
}
layer {
  name: "loss2/relu_conv"
  type: "ReLU"
  bottom: "loss2/conv"
  top: "loss2/conv"
}
layer {
  name: "loss2/fc"
  type: "InnerProduct"
  bottom: "loss2/conv"
  top: "loss2/fc"
  param {
    lr_mult: 1
    decay_mult: 1
  }
  param {
    lr_mult: 2
    decay_mult: 0
  }
  inner_product_param {
    num_output: 1024
    weight_filler {
      type: "xavier"
      std: 0.02
    }
    bias_filler {
      type: "constant"
      value: 0.2
    }
  }
}
layer {
  name: "loss2/relu_fc"
  type: "ReLU"
  bottom: "loss2/fc"
  top: "loss2/fc"
}
layer {
  name: "loss2/drop_fc"
  type: "Dropout"
  bottom: "loss2/fc"
  top: "loss2/fc"
  dropout_param {
    dropout_ratio: 0.7
  }
}
layer {
  name: "stanford_cars_loss2/classifier"
  type: "InnerProduct"
  bottom: "loss2/fc"
  top: "stanford_cars_loss2/classifier"
  param {
    lr_mult: 1
    decay_mult: 1
  }
  param {
    lr_mult: 2
    decay_mult: 0
  }
  inner_product_param {
    num_output: 196
    weight_filler {
      type: "xavier"
      std: 0.0009765625
    }
    bias_filler {
      type: "constant"
      value: 0
    }
  }
}
layer {
  name: "stanford_cars_loss2/loss"
  type: "SoftmaxWithLoss"
  bottom: "stanford_cars_loss2/classifier"
  bottom: "label"
  top: "loss2/loss1"
  loss_weight: 0.3
}
layer {
  name: "inception_4e/1x1"
  type: "Convolution"
  bottom: "inception_4d/output"
  top: "inception_4e/1x1"
  param {
    lr_mult: 1
    decay_mult: 1
  }
  param {
    lr_mult: 2
    decay_mult: 0
  }
  convolution_param {
    num_output: 256
    kernel_size: 1
    weight_filler {
      type: "xavier"
      std: 0.03
    }
    bias_filler {
      type: "constant"
      value: 0.2
    }
  }
}
layer {
  name: "inception_4e/relu_1x1"
  type: "ReLU"
  bottom: "inception_4e/1x1"
  top: "inception_4e/1x1"
}
layer {
  name: "inception_4e/3x3_reduce"
  type: "Convolution"
  bottom: "inception_4d/output"
  top: "inception_4e/3x3_reduce"
  param {
    lr_mult: 1
    decay_mult: 1
  }
  param {
    lr_mult: 2
    decay_mult: 0
  }
  convolution_param {
    num_output: 160
    kernel_size: 1
    weight_filler {
      type: "xavier"
      std: 0.09
    }
    bias_filler {
      type: "constant"
      value: 0.2
    }
  }
}
layer {
  name: "inception_4e/relu_3x3_reduce"
  type: "ReLU"
  bottom: "inception_4e/3x3_reduce"
  top: "inception_4e/3x3_reduce"
}
layer {
  name: "inception_4e/3x3"
  type: "Convolution"
  bottom: "inception_4e/3x3_reduce"
  top: "inception_4e/3x3"
  param {
    lr_mult: 1
    decay_mult: 1
  }
  param {
    lr_mult: 2
    decay_mult: 0
  }
  convolution_param {
    num_output: 320
    pad: 1
    kernel_size: 3
    weight_filler {
      type: "xavier"
      std: 0.03
    }
    bias_filler {
      type: "constant"
      value: 0.2
    }
  }
}
layer {
  name: "inception_4e/relu_3x3"
  type: "ReLU"
  bottom: "inception_4e/3x3"
  top: "inception_4e/3x3"
}
layer {
  name: "inception_4e/5x5_reduce"
  type: "Convolution"
  bottom: "inception_4d/output"
  top: "inception_4e/5x5_reduce"
  param {
    lr_mult: 1
    decay_mult: 1
  }
  param {
    lr_mult: 2
    decay_mult: 0
  }
  convolution_param {
    num_output: 32
    kernel_size: 1
    weight_filler {
      type: "xavier"
      std: 0.2
    }
    
I0703 17:51:03.753352 18087 layer_factory.hpp:74] Creating layer data
I0703 17:51:03.753383 18087 net.cpp:90] Creating Layer data
I0703 17:51:03.753392 18087 net.cpp:368] data -> data
I0703 17:51:03.753412 18087 net.cpp:368] data -> label
I0703 17:51:03.753433 18087 net.cpp:120] Setting up data
I0703 17:51:03.753504 18087 db.cpp:34] Opened lmdb examples/stanford_cars/stanford_cars_train_lmdb
I0703 17:51:03.753676 18087 data_layer.cpp:67] output data size: 30,3,224,224
I0703 17:51:03.755949 18087 net.cpp:127] Top shape: 30 3 224 224 (4515840)
I0703 17:51:03.755977 18087 net.cpp:127] Top shape: 30 (30)
I0703 17:51:03.755986 18087 layer_factory.hpp:74] Creating layer label_data_1_split
I0703 17:51:03.756001 18087 net.cpp:90] Creating Layer label_data_1_split
I0703 17:51:03.756008 18087 net.cpp:410] label_data_1_split <- label
I0703 17:51:03.756021 18087 net.cpp:368] label_data_1_split -> label_data_1_split_0
I0703 17:51:03.756047 18087 net.cpp:368] label_data_1_split -> label_data_1_split_1
I0703 17:51:03.756055 18087 net.cpp:368] label_data_1_split -> label_data_1_split_2
I0703 17:51:03.756062 18087 net.cpp:120] Setting up label_data_1_split
I0703 17:51:03.756072 18087 net.cpp:127] Top shape: 30 (30)
I0703 17:51:03.756078 18087 net.cpp:127] Top shape: 30 (30)
I0703 17:51:03.756083 18087 net.cpp:127] Top shape: 30 (30)
I0703 17:51:03.756086 18087 layer_factory.hpp:74] Creating layer conv1/7x7_s2
I0703 17:51:03.756098 18087 net.cpp:90] Creating Layer conv1/7x7_s2
I0703 17:51:03.756103 18087 net.cpp:410] conv1/7x7_s2 <- data
I0703 17:51:03.756109 18087 net.cpp:368] conv1/7x7_s2 -> conv1/7x7_s2
I0703 17:51:03.756119 18087 net.cpp:120] Setting up conv1/7x7_s2
I0703 17:51:03.787214 18087 net.cpp:127] Top shape: 30 64 112 112 (24084480)
I0703 17:51:03.787250 18087 layer_factory.hpp:74] Creating layer conv1/relu_7x7
I0703 17:51:03.787261 18087 net.cpp:90] Creating Layer conv1/relu_7x7
I0703 17:51:03.787267 18087 net.cpp:410] conv1/relu_7x7 <- conv1/7x7_s2
I0703 17:51:03.787274 18087 net.cpp:357] conv1/relu_7x7 -> conv1/7x7_s2 (in-place)
I0703 17:51:03.787282 18087 net.cpp:120] Setting up conv1/relu_7x7
I0703 17:51:03.787334 18087 net.cpp:127] Top shape: 30 64 112 112 (24084480)
I0703 17:51:03.787343 18087 layer_factory.hpp:74] Creating layer pool1/3x3_s2
I0703 17:51:03.787353 18087 net.cpp:90] Creating Layer pool1/3x3_s2
I0703 17:51:03.787358 18087 net.cpp:410] pool1/3x3_s2 <- conv1/7x7_s2
I0703 17:51:03.787364 18087 net.cpp:368] pool1/3x3_s2 -> pool1/3x3_s2
I0703 17:51:03.787370 18087 net.cpp:120] Setting up pool1/3x3_s2
I0703 17:51:03.787487 18087 net.cpp:127] Top shape: 30 64 56 56 (6021120)
I0703 17:51:03.787497 18087 layer_factory.hpp:74] Creating layer pool1/norm1
I0703 17:51:03.787505 18087 net.cpp:90] Creating Layer pool1/norm1
I0703 17:51:03.787510 18087 net.cpp:410] pool1/norm1 <- pool1/3x3_s2
I0703 17:51:03.787516 18087 net.cpp:368] pool1/norm1 -> pool1/norm1
I0703 17:51:03.787523 18087 net.cpp:120] Setting up pool1/norm1
I0703 17:51:03.787531 18087 net.cpp:127] Top shape: 30 64 56 56 (6021120)
I0703 17:51:03.787536 18087 layer_factory.hpp:74] Creating layer conv2/3x3_reduce
I0703 17:51:03.787547 18087 net.cpp:90] Creating Layer conv2/3x3_reduce
I0703 17:51:03.787554 18087 net.cpp:410] conv2/3x3_reduce <- pool1/norm1
I0703 17:51:03.787559 18087 net.cpp:368] conv2/3x3_reduce -> conv2/3x3_reduce
I0703 17:51:03.787567 18087 net.cpp:120] Setting up conv2/3x3_reduce
I0703 17:51:03.787786 18087 net.cpp:127] Top shape: 30 64 56 56 (6021120)
I0703 17:51:03.787801 18087 layer_factory.hpp:74] Creating layer conv2/relu_3x3_reduce
I0703 17:51:03.787807 18087 net.cpp:90] Creating Layer conv2/relu_3x3_reduce
I0703 17:51:03.787813 18087 net.cpp:410] conv2/relu_3x3_reduce <- conv2/3x3_reduce
I0703 17:51:03.787819 18087 net.cpp:357] conv2/relu_3x3_reduce -> conv2/3x3_reduce (in-place)
I0703 17:51:03.787825 18087 net.cpp:120] Setting up conv2/relu_3x3_reduce
I0703 17:51:03.787883 18087 net.cpp:127] Top shape: 30 64 56 56 (6021120)
I0703 17:51:03.787890 18087 layer_factory.hpp:74] Creating layer conv2/3x3
I0703 17:51:03.787899 18087 net.cpp:90] Creating Layer conv2/3x3
I0703 17:51:03.787904 18087 net.cpp:410] conv2/3x3 <- conv2/3x3_reduce
I0703 17:51:03.787910 18087 net.cpp:368] conv2/3x3 -> conv2/3x3
I0703 17:51:03.787917 18087 net.cpp:120] Setting up conv2/3x3
I0703 17:51:03.788646 18087 net.cpp:127] Top shape: 30 192 56 56 (18063360)
I0703 17:51:03.788661 18087 layer_factory.hpp:74] Creating layer conv2/relu_3x3
I0703 17:51:03.788668 18087 net.cpp:90] Creating Layer conv2/relu_3x3
I0703 17:51:03.788673 18087 net.cpp:410] conv2/relu_3x3 <- conv2/3x3
I0703 17:51:03.788678 18087 net.cpp:357] conv2/relu_3x3 -> conv2/3x3 (in-place)
I0703 17:51:03.788684 18087 net.cpp:120] Setting up conv2/relu_3x3
I0703 17:51:03.788727 18087 net.cpp:127] Top shape: 30 192 56 56 (18063360)
I0703 17:51:03.788734 18087 layer_factory.hpp:74] Creating layer conv2/norm2
I0703 17:51:03.788741 18087 net.cpp:90] Creating Layer conv2/norm2
I0703 17:51:03.788745 18087 net.cpp:410] conv2/norm2 <- conv2/3x3
I0703 17:51:03.788768 18087 net.cpp:368] conv2/norm2 -> conv2/norm2
I0703 17:51:03.788774 18087 net.cpp:120] Setting up conv2/norm2
I0703 17:51:03.788780 18087 net.cpp:127] Top shape: 30 192 56 56 (18063360)
I0703 17:51:03.788785 18087 layer_factory.hpp:74] Creating layer pool2/3x3_s2
I0703 17:51:03.788791 18087 net.cpp:90] Creating Layer pool2/3x3_s2
I0703 17:51:03.788795 18087 net.cpp:410] pool2/3x3_s2 <- conv2/norm2
I0703 17:51:03.788802 18087 net.cpp:368] pool2/3x3_s2 -> pool2/3x3_s2
I0703 17:51:03.788808 18087 net.cpp:120] Setting up pool2/3x3_s2
I0703 17:51:03.788847 18087 net.cpp:127] Top shape: 30 192 28 28 (4515840)
I0703 17:51:03.788856 18087 layer_factory.hpp:74] Creating layer pool2/3x3_s2_pool2/3x3_s2_0_split
I0703 17:51:03.788862 18087 net.cpp:90] Creating Layer pool2/3x3_s2_pool2/3x3_s2_0_split
I0703 17:51:03.788867 18087 net.cpp:410] pool2/3x3_s2_pool2/3x3_s2_0_split <- pool2/3x3_s2
I0703 17:51:03.788873 18087 net.cpp:368] pool2/3x3_s2_pool2/3x3_s2_0_split -> pool2/3x3_s2_pool2/3x3_s2_0_split_0
I0703 17:51:03.788879 18087 net.cpp:368] pool2/3x3_s2_pool2/3x3_s2_0_split -> pool2/3x3_s2_pool2/3x3_s2_0_split_1
I0703 17:51:03.788887 18087 net.cpp:368] pool2/3x3_s2_pool2/3x3_s2_0_split -> pool2/3x3_s2_pool2/3x3_s2_0_split_2
I0703 17:51:03.788893 18087 net.cpp:368] pool2/3x3_s2_pool2/3x3_s2_0_split -> pool2/3x3_s2_pool2/3x3_s2_0_split_3
I0703 17:51:03.788898 18087 net.cpp:120] Setting up pool2/3x3_s2_pool2/3x3_s2_0_split
I0703 17:51:03.788904 18087 net.cpp:127] Top shape: 30 192 28 28 (4515840)
I0703 17:51:03.788909 18087 net.cpp:127] Top shape: 30 192 28 28 (4515840)
I0703 17:51:03.788914 18087 net.cpp:127] Top shape: 30 192 28 28 (4515840)
I0703 17:51:03.788919 18087 net.cpp:127] Top shape: 30 192 28 28 (4515840)
I0703 17:51:03.788923 18087 layer_factory.hpp:74] Creating layer inception_3a/1x1
I0703 17:51:03.788929 18087 net.cpp:90] Creating Layer inception_3a/1x1
I0703 17:51:03.788934 18087 net.cpp:410] inception_3a/1x1 <- pool2/3x3_s2_pool2/3x3_s2_0_split_0
I0703 17:51:03.788941 18087 net.cpp:368] inception_3a/1x1 -> inception_3a/1x1
I0703 17:51:03.788949 18087 net.cpp:120] Setting up inception_3a/1x1
I0703 17:51:03.789199 18087 net.cpp:127] Top shape: 30 64 28 28 (1505280)
I0703 17:51:03.789212 18087 layer_factory.hpp:74] Creating layer inception_3a/relu_1x1
I0703 17:51:03.789219 18087 net.cpp:90] Creating Layer inception_3a/relu_1x1
I0703 17:51:03.789225 18087 net.cpp:410] inception_3a/relu_1x1 <- inception_3a/1x1
I0703 17:51:03.789232 18087 net.cpp:357] inception_3a/relu_1x1 -> inception_3a/1x1 (in-place)
I0703 17:51:03.789237 18087 net.cpp:120] Setting up inception_3a/relu_1x1
I0703 17:51:03.789341 18087 net.cpp:127] Top shape: 30 64 28 28 (1505280)
I0703 17:51:03.789350 18087 layer_factory.hpp:74] Creating layer inception_3a/3x3_reduce
I0703 17:51:03.789358 18087 net.cpp:90] Creating Layer inception_3a/3x3_reduce
I0703 17:51:03.789365 18087 net.cpp:410] inception_3a/3x3_reduce <- pool2/3x3_s2_pool2/3x3_s2_0_split_1
I0703 17:51:03.789371 18087 net.cpp:368] inception_3a/3x3_reduce -> inception_3a/3x3_reduce
I0703 17:51:03.789377 18087 net.cpp:120] Setting up inception_3a/3x3_reduce
I0703 17:51:03.789659 18087 net.cpp:127] Top shape: 30 96 28 28 (2257920)
I0703 17:51:03.789672 18087 layer_factory.hpp:74] Creating layer inception_3a/relu_3x3_reduce
I0703 17:51:03.789681 18087 net.cpp:90] Creating Layer inception_3a/relu_3x3_reduce
I0703 17:51:03.789686 18087 net.cpp:410] inception_3a/relu_3x3_reduce <- inception_3a/3x3_reduce
I0703 17:51:03.789692 18087 net.cpp:357] inception_3a/relu_3x3_reduce -> inception_3a/3x3_reduce (in-place)
I0703 17:51:03.789700 18087 net.cpp:120] Setting up inception_3a/relu_3x3_reduce
I0703 17:51:03.789737 18087 net.cpp:127] Top shape: 30 96 28 28 (2257920)
I0703 17:51:03.789746 18087 layer_factory.hpp:74] Creating layer inception_3a/3x3
I0703 17:51:03.789753 18087 net.cpp:90] Creating Layer inception_3a/3x3
I0703 17:51:03.789758 18087 net.cpp:410] inception_3a/3x3 <- inception_3a/3x3_reduce
I0703 17:51:03.789764 18087 net.cpp:368] inception_3a/3x3 -> inception_3a/3x3
I0703 17:51:03.789777 18087 net.cpp:120] Setting up inception_3a/3x3
I0703 17:51:03.790509 18087 net.cpp:127] Top shape: 30 128 28 28 (3010560)
I0703 17:51:03.790523 18087 layer_factory.hpp:74] Creating layer inception_3a/relu_3x3
I0703 17:51:03.790529 18087 net.cpp:90] Creating Layer inception_3a/relu_3x3
I0703 17:51:03.790534 18087 net.cpp:410] inception_3a/relu_3x3 <- inception_3a/3x3
I0703 17:51:03.790540 18087 net.cpp:357] inception_3a/relu_3x3 -> inception_3a/3x3 (in-place)
I0703 17:51:03.790546 18087 net.cpp:120] Setting up inception_3a/relu_3x3
I0703 17:51:03.790585 18087 net.cpp:127] Top shape: 30 128 28 28 (3010560)
I0703 17:51:03.790592 18087 layer_factory.hpp:74] Creating layer inception_3a/5x5_reduce
I0703 17:51:03.790599 18087 net.cpp:90] Creating Layer inception_3a/5x5_reduce
I0703 17:51:03.790604 18087 net.cpp:410] inception_3a/5x5_reduce <- pool2/3x3_s2_pool2/3x3_s2_0_split_2
I0703 17:51:03.790611 18087 net.cpp:368] inception_3a/5x5_reduce -> inception_3a/5x5_reduce
I0703 17:51:03.790618 18087 net.cpp:120] Setting up inception_3a/5x5_reduce
I0703 17:51:03.790848 18087 net.cpp:127] Top shape: 30 16 28 28 (376320)
I0703 17:51:03.790860 18087 layer_factory.hpp:74] Creating layer inception_3a/relu_5x5_reduce
I0703 17:51:03.790868 18087 net.cpp:90] Creating Layer inception_3a/relu_5x5_reduce
I0703 17:51:03.790873 18087 net.cpp:410] inception_3a/relu_5x5_reduce <- inception_3a/5x5_reduce
I0703 17:51:03.790879 18087 net.cpp:357] inception_3a/relu_5x5_reduce -> inception_3a/5x5_reduce (in-place)
I0703 17:51:03.790884 18087 net.cpp:120] Setting up inception_3a/relu_5x5_reduce
I0703 17:51:03.790990 18087 net.cpp:127] Top shape: 30 16 28 28 (376320)
I0703 17:51:03.791000 18087 layer_factory.hpp:74] Creating layer inception_3a/5x5
I0703 17:51:03.791008 18087 net.cpp:90] Creating Layer inception_3a/5x5
I0703 17:51:03.791013 18087 net.cpp:410] inception_3a/5x5 <- inception_3a/5x5_reduce
I0703 17:51:03.791020 18087 net.cpp:368] inception_3a/5x5 -> inception_3a/5x5
I0703 17:51:03.791028 18087 net.cpp:120] Setting up inception_3a/5x5
I0703 17:51:03.791280 18087 net.cpp:127] Top shape: 30 32 28 28 (752640)
I0703 17:51:03.791292 18087 layer_factory.hpp:74] Creating layer inception_3a/relu_5x5
I0703 17:51:03.791301 18087 net.cpp:90] Creating Layer inception_3a/relu_5x5
I0703 17:51:03.791313 18087 net.cpp:410] inception_3a/relu_5x5 <- inception_3a/5x5
I0703 17:51:03.791331 18087 net.cpp:357] inception_3a/relu_5x5 -> inception_3a/5x5 (in-place)
I0703 17:51:03.791347 18087 net.cpp:120] Setting up inception_3a/relu_5x5
I0703 17:51:03.791406 18087 net.cpp:127] Top shape: 30 32 28 28 (752640)
I0703 17:51:03.791414 18087 layer_factory.hpp:74] Creating layer inception_3a/pool
I0703 17:51:03.791419 18087 layer_factory.cpp:55] CUDNN does not support padding or multiple tops. Using Caffe's own pooling layer.
I0703 17:51:03.791424 18087 net.cpp:90] Creating Layer inception_3a/pool
I0703 17:51:03.791429 18087 net.cpp:410] inception_3a/pool <- pool2/3x3_s2_pool2/3x3_s2_0_split_3
I0703 17:51:03.791435 18087 net.cpp:368] inception_3a/pool -> inception_3a/pool
I0703 17:51:03.791441 18087 net.cpp:120] Setting up inception_3a/pool
I0703 17:51:03.791448 18087 net.cpp:127] Top shape: 30 192 28 28 (4515840)
I0703 17:51:03.791452 18087 layer_factory.hpp:74] Creating layer inception_3a/pool_proj
I0703 17:51:03.791460 18087 net.cpp:90] Creating Layer inception_3a/pool_proj
I0703 17:51:03.791465 18087 net.cpp:410] inception_3a/pool_proj <- inception_3a/pool
I0703 17:51:03.791471 18087 net.cpp:368] inception_3a/pool_proj -> inception_3a/pool_proj
I0703 17:51:03.791478 18087 net.cpp:120] Setting up inception_3a/pool_proj
I0703 17:51:03.791699 18087 net.cpp:127] Top shape: 30 32 28 28 (752640)
I0703 17:51:03.791714 18087 layer_factory.hpp:74] Creating layer inception_3a/relu_pool_proj
I0703 17:51:03.791721 18087 net.cpp:90] Creating Layer inception_3a/relu_pool_proj
I0703 17:51:03.791726 18087 net.cpp:410] inception_3a/relu_pool_proj <- inception_3a/pool_proj
I0703 17:51:03.791733 18087 net.cpp:357] inception_3a/relu_pool_proj -> inception_3a/pool_proj (in-place)
I0703 17:51:03.791755 18087 net.cpp:120] Setting up inception_3a/relu_pool_proj
I0703 17:51:03.791826 18087 net.cpp:127] Top shape: 30 32 28 28 (752640)
I0703 17:51:03.791834 18087 layer_factory.hpp:74] Creating layer inception_3a/output
I0703 17:51:03.791852 18087 net.cpp:90] Creating Layer inception_3a/output
I0703 17:51:03.791858 18087 net.cpp:410] inception_3a/output <- inception_3a/1x1
I0703 17:51:03.791864 18087 net.cpp:410] inception_3a/output <- inception_3a/3x3
I0703 17:51:03.791879 18087 net.cpp:410] inception_3a/output <- inception_3a/5x5
I0703 17:51:03.791884 18087 net.cpp:410] inception_3a/output <- inception_3a/pool_proj
I0703 17:51:03.791890 18087 net.cpp:368] inception_3a/output -> inception_3a/output
I0703 17:51:03.791898 18087 net.cpp:120] Setting up inception_3a/output
I0703 17:51:03.791916 18087 net.cpp:127] Top shape: 30 256 28 28 (6021120)
I0703 17:51:03.791921 18087 layer_factory.hpp:74] Creating layer inception_3a/output_inception_3a/output_0_split
I0703 17:51:03.791928 18087 net.cpp:90] Creating Layer inception_3a/output_inception_3a/output_0_split
I0703 17:51:03.791932 18087 net.cpp:410] inception_3a/output_inception_3a/output_0_split <- inception_3a/output
I0703 17:51:03.791949 18087 net.cpp:368] inception_3a/output_inception_3a/output_0_split -> inception_3a/output_inception_3a/output_0_split_0
I0703 17:51:03.791956 18087 net.cpp:368] inception_3a/output_inception_3a/output_0_split -> inception_3a/output_inception_3a/output_0_split_1
I0703 17:51:03.791971 18087 net.cpp:368] inception_3a/output_inception_3a/output_0_split -> inception_3a/output_inception_3a/output_0_split_2
I0703 17:51:03.791978 18087 net.cpp:368] inception_3a/output_inception_3a/output_0_split -> inception_3a/output_inception_3a/output_0_split_3
I0703 17:51:03.791993 18087 net.cpp:120] Setting up inception_3a/output_inception_3a/output_0_split
I0703 17:51:03.792001 18087 net.cpp:127] Top shape: 30 256 28 28 (6021120)
I0703 17:51:03.792006 18087 net.cpp:127] Top shape: 30 256 28 28 (6021120)
I0703 17:51:03.792009 18087 net.cpp:127] Top shape: 30 256 28 28 (6021120)
I0703 17:51:03.792014 18087 net.cpp:127] Top shape: 30 256 28 28 (6021120)
I0703 17:51:03.792018 18087 layer_factory.hpp:74] Creating layer inception_3b/1x1
I0703 17:51:03.792026 18087 net.cpp:90] Creating Layer inception_3b/1x1
I0703 17:51:03.792031 18087 net.cpp:410] inception_3b/1x1 <- inception_3a/output_inception_3a/output_0_split_0
I0703 17:51:03.792037 18087 net.cpp:368] inception_3b/1x1 -> inception_3b/1x1
I0703 17:51:03.792042 18087 net.cpp:120] Setting up inception_3b/1x1
I0703 17:51:03.792397 18087 net.cpp:127] Top shape: 30 128 28 28 (3010560)
I0703 17:51:03.792410 18087 layer_factory.hpp:74] Creating layer inception_3b/relu_1x1
I0703 17:51:03.792418 18087 net.cpp:90] Creating Layer inception_3b/relu_1x1
I0703 17:51:03.792423 18087 net.cpp:410] inception_3b/relu_1x1 <- inception_3b/1x1
I0703 17:51:03.792428 18087 net.cpp:357] inception_3b/relu_1x1 -> inception_3b/1x1 (in-place)
I0703 17:51:03.792435 18087 net.cpp:120] Setting up inception_3b/relu_1x1
I0703 17:51:03.792484 18087 net.cpp:127] Top shape: 30 128 28 28 (3010560)
I0703 17:51:03.792501 18087 layer_factory.hpp:74] Creating layer inception_3b/3x3_reduce
I0703 17:51:03.792521 18087 net.cpp:90] Creating Layer inception_3b/3x3_reduce
I0703 17:51:03.792526 18087 net.cpp:410] inception_3b/3x3_reduce <- inception_3a/output_inception_3a/output_0_split_1
I0703 17:51:03.792534 18087 net.cpp:368] inception_3b/3x3_reduce -> inception_3b/3x3_reduce
I0703 17:51:03.792542 18087 net.cpp:120] Setting up inception_3b/3x3_reduce
I0703 17:51:03.792927 18087 net.cpp:127] Top shape: 30 128 28 28 (3010560)
I0703 17:51:03.792939 18087 layer_factory.hpp:74] Creating layer inception_3b/relu_3x3_reduce
I0703 17:51:03.792947 18087 net.cpp:90] Creating Layer inception_3b/relu_3x3_reduce
I0703 17:51:03.792951 18087 net.cpp:410] inception_3b/relu_3x3_reduce <- inception_3b/3x3_reduce
I0703 17:51:03.792958 18087 net.cpp:357] inception_3b/relu_3x3_reduce -> inception_3b/3x3_reduce (in-place)
I0703 17:51:03.792969 18087 net.cpp:120] Setting up inception_3b/relu_3x3_reduce
I0703 17:51:03.793076 18087 net.cpp:127] Top shape: 30 128 28 28 (3010560)
I0703 17:51:03.793087 18087 layer_factory.hpp:74] Creating layer inception_3b/3x3
I0703 17:51:03.793097 18087 net.cpp:90] Creating Layer inception_3b/3x3
I0703 17:51:03.793102 18087 net.cpp:410] inception_3b/3x3 <- inception_3b/3x3_reduce
I0703 17:51:03.793109 18087 net.cpp:368] inception_3b/3x3 -> inception_3b/3x3
I0703 17:51:03.793117 18087 net.cpp:120] Setting up inception_3b/3x3
I0703 17:51:03.794380 18087 net.cpp:127] Top shape: 30 192 28 28 (4515840)
I0703 17:51:03.794394 18087 layer_factory.hpp:74] Creating layer inception_3b/relu_3x3
I0703 17:51:03.794399 18087 net.cpp:90] Creating Layer inception_3b/relu_3x3
I0703 17:51:03.794404 18087 net.cpp:410] inception_3b/relu_3x3 <- inception_3b/3x3
I0703 17:51:03.794411 18087 net.cpp:357] inception_3b/relu_3x3 -> inception_3b/3x3 (in-place)
I0703 17:51:03.794417 18087 net.cpp:120] Setting up inception_3b/relu_3x3
I0703 17:51:03.794458 18087 net.cpp:127] Top shape: 30 192 28 28 (4515840)
I0703 17:51:03.794466 18087 layer_factory.hpp:74] Creating layer inception_3b/5x5_reduce
I0703 17:51:03.794473 18087 net.cpp:90] Creating Layer inception_3b/5x5_reduce
I0703 17:51:03.794478 18087 net.cpp:410] inception_3b/5x5_reduce <- inception_3a/output_inception_3a/output_0_split_2
I0703 17:51:03.794486 18087 net.cpp:368] inception_3b/5x5_reduce -> inception_3b/5x5_reduce
I0703 17:51:03.794492 18087 net.cpp:120] Setting up inception_3b/5x5_reduce
I0703 17:51:03.794726 18087 net.cpp:127] Top shape: 30 32 28 28 (752640)
I0703 17:51:03.794739 18087 layer_factory.hpp:74] Creating layer inception_3b/relu_5x5_reduce
I0703 17:51:03.794746 18087 net.cpp:90] Creating Layer inception_3b/relu_5x5_reduce
I0703 17:51:03.794751 18087 net.cpp:410] inception_3b/relu_5x5_reduce <- inception_3b/5x5_reduce
I0703 17:51:03.794756 18087 net.cpp:357] inception_3b/relu_5x5_reduce -> inception_3b/5x5_reduce (in-place)
I0703 17:51:03.794762 18087 net.cpp:120] Setting up inception_3b/relu_5x5_reduce
I0703 17:51:03.794806 18087 net.cpp:127] Top shape: 30 32 28 28 (752640)
I0703 17:51:03.794813 18087 layer_factory.hpp:74] Creating layer inception_3b/5x5
I0703 17:51:03.794822 18087 net.cpp:90] Creating Layer inception_3b/5x5
I0703 17:51:03.794827 18087 net.cpp:410] inception_3b/5x5 <- inception_3b/5x5_reduce
I0703 17:51:03.794834 18087 net.cpp:368] inception_3b/5x5 -> inception_3b/5x5
I0703 17:51:03.794842 18087 net.cpp:120] Setting up inception_3b/5x5
I0703 17:51:03.795416 18087 net.cpp:127] Top shape: 30 96 28 28 (2257920)
I0703 17:51:03.795429 18087 layer_factory.hpp:74] Creating layer inception_3b/relu_5x5
I0703 17:51:03.795435 18087 net.cpp:90] Creating Layer inception_3b/relu_5x5
I0703 17:51:03.795440 18087 net.cpp:410] inception_3b/relu_5x5 <- inception_3b/5x5
I0703 17:51:03.795447 18087 net.cpp:357] inception_3b/relu_5x5 -> inception_3b/5x5 (in-place)
I0703 17:51:03.795454 18087 net.cpp:120] Setting up inception_3b/relu_5x5
I0703 17:51:03.795491 18087 net.cpp:127] Top shape: 30 96 28 28 (2257920)
I0703 17:51:03.795500 18087 layer_factory.hpp:74] Creating layer inception_3b/pool
I0703 17:51:03.795505 18087 layer_factory.cpp:55] CUDNN does not support padding or multiple tops. Using Caffe's own pooling layer.
I0703 17:51:03.795511 18087 net.cpp:90] Creating Layer inception_3b/pool
I0703 17:51:03.795516 18087 net.cpp:410] inception_3b/pool <- inception_3a/output_inception_3a/output_0_split_3
I0703 17:51:03.795521 18087 net.cpp:368] inception_3b/pool -> inception_3b/pool
I0703 17:51:03.795527 18087 net.cpp:120] Setting up inception_3b/pool
I0703 17:51:03.795534 18087 net.cpp:127] Top shape: 30 256 28 28 (6021120)
I0703 17:51:03.795538 18087 layer_factory.hpp:74] Creating layer inception_3b/pool_proj
I0703 17:51:03.795545 18087 net.cpp:90] Creating Layer inception_3b/pool_proj
I0703 17:51:03.795550 18087 net.cpp:410] inception_3b/pool_proj <- inception_3b/pool
I0703 17:51:03.795557 18087 net.cpp:368] inception_3b/pool_proj -> inception_3b/pool_proj
I0703 17:51:03.795570 18087 net.cpp:120] Setting up inception_3b/pool_proj
I0703 17:51:03.795847 18087 net.cpp:127] Top shape: 30 64 28 28 (1505280)
I0703 17:51:03.795861 18087 layer_factory.hpp:74] Creating layer inception_3b/relu_pool_proj
I0703 17:51:03.795866 18087 net.cpp:90] Creating Layer inception_3b/relu_pool_proj
I0703 17:51:03.795871 18087 net.cpp:410] inception_3b/relu_pool_proj <- inception_3b/pool_proj
I0703 17:51:03.795878 18087 net.cpp:357] inception_3b/relu_pool_proj -> inception_3b/pool_proj (in-place)
I0703 17:51:03.795884 18087 net.cpp:120] Setting up inception_3b/relu_pool_proj
I0703 17:51:03.795992 18087 net.cpp:127] Top shape: 30 64 28 28 (1505280)
I0703 17:51:03.796002 18087 layer_factory.hpp:74] Creating layer inception_3b/output
I0703 17:51:03.796010 18087 net.cpp:90] Creating Layer inception_3b/output
I0703 17:51:03.796015 18087 net.cpp:410] inception_3b/output <- inception_3b/1x1
I0703 17:51:03.796020 18087 net.cpp:410] inception_3b/output <- inception_3b/3x3
I0703 17:51:03.796026 18087 net.cpp:410] inception_3b/output <- inception_3b/5x5
I0703 17:51:03.796030 18087 net.cpp:410] inception_3b/output <- inception_3b/pool_proj
I0703 17:51:03.796038 18087 net.cpp:368] inception_3b/output -> inception_3b/output
I0703 17:51:03.796046 18087 net.cpp:120] Setting up inception_3b/output
I0703 17:51:03.796051 18087 net.cpp:127] Top shape: 30 480 28 28 (11289600)
I0703 17:51:03.796057 18087 layer_factory.hpp:74] Creating layer pool3/3x3_s2
I0703 17:51:03.796064 18087 net.cpp:90] Creating Layer pool3/3x3_s2
I0703 17:51:03.796069 18087 net.cpp:410] pool3/3x3_s2 <- inception_3b/output
I0703 17:51:03.796075 18087 net.cpp:368] pool3/3x3_s2 -> pool3/3x3_s2
I0703 17:51:03.796080 18087 net.cpp:120] Setting up pool3/3x3_s2
I0703 17:51:03.796121 18087 net.cpp:127] Top shape: 30 480 14 14 (2822400)
I0703 17:51:03.796128 18087 layer_factory.hpp:74] Creating layer pool3/3x3_s2_pool3/3x3_s2_0_split
I0703 17:51:03.796134 18087 net.cpp:90] Creating Layer pool3/3x3_s2_pool3/3x3_s2_0_split
I0703 17:51:03.796140 18087 net.cpp:410] pool3/3x3_s2_pool3/3x3_s2_0_split <- pool3/3x3_s2
I0703 17:51:03.796145 18087 net.cpp:368] pool3/3x3_s2_pool3/3x3_s2_0_split -> pool3/3x3_s2_pool3/3x3_s2_0_split_0
I0703 17:51:03.796151 18087 net.cpp:368] pool3/3x3_s2_pool3/3x3_s2_0_split -> pool3/3x3_s2_pool3/3x3_s2_0_split_1
I0703 17:51:03.796159 18087 net.cpp:368] pool3/3x3_s2_pool3/3x3_s2_0_split -> pool3/3x3_s2_pool3/3x3_s2_0_split_2
I0703 17:51:03.796165 18087 net.cpp:368] pool3/3x3_s2_pool3/3x3_s2_0_split -> pool3/3x3_s2_pool3/3x3_s2_0_split_3
I0703 17:51:03.796171 18087 net.cpp:120] Setting up pool3/3x3_s2_pool3/3x3_s2_0_split
I0703 17:51:03.796178 18087 net.cpp:127] Top shape: 30 480 14 14 (2822400)
I0703 17:51:03.796183 18087 net.cpp:127] Top shape: 30 480 14 14 (2822400)
I0703 17:51:03.796187 18087 net.cpp:127] Top shape: 30 480 14 14 (2822400)
I0703 17:51:03.796192 18087 net.cpp:127] Top shape: 30 480 14 14 (2822400)
I0703 17:51:03.796196 18087 layer_factory.hpp:74] Creating layer inception_4a/1x1
I0703 17:51:03.796203 18087 net.cpp:90] Creating Layer inception_4a/1x1
I0703 17:51:03.796208 18087 net.cpp:410] inception_4a/1x1 <- pool3/3x3_s2_pool3/3x3_s2_0_split_0
I0703 17:51:03.796216 18087 net.cpp:368] inception_4a/1x1 -> inception_4a/1x1
I0703 17:51:03.796221 18087 net.cpp:120] Setting up inception_4a/1x1
I0703 17:51:03.796864 18087 net.cpp:127] Top shape: 30 192 14 14 (1128960)
I0703 17:51:03.796876 18087 layer_factory.hpp:74] Creating layer inception_4a/relu_1x1
I0703 17:51:03.796883 18087 net.cpp:90] Creating Layer inception_4a/relu_1x1
I0703 17:51:03.796890 18087 net.cpp:410] inception_4a/relu_1x1 <- inception_4a/1x1
I0703 17:51:03.796895 18087 net.cpp:357] inception_4a/relu_1x1 -> inception_4a/1x1 (in-place)
I0703 17:51:03.796901 18087 net.cpp:120] Setting up inception_4a/relu_1x1
I0703 17:51:03.796941 18087 net.cpp:127] Top shape: 30 192 14 14 (1128960)
I0703 17:51:03.796948 18087 layer_factory.hpp:74] Creating layer inception_4a/3x3_reduce
I0703 17:51:03.796955 18087 net.cpp:90] Creating Layer inception_4a/3x3_reduce
I0703 17:51:03.796960 18087 net.cpp:410] inception_4a/3x3_reduce <- pool3/3x3_s2_pool3/3x3_s2_0_split_1
I0703 17:51:03.796974 18087 net.cpp:368] inception_4a/3x3_reduce -> inception_4a/3x3_reduce
I0703 17:51:03.796982 18087 net.cpp:120] Setting up inception_4a/3x3_reduce
I0703 17:51:03.797400 18087 net.cpp:127] Top shape: 30 96 14 14 (564480)
I0703 17:51:03.797415 18087 layer_factory.hpp:74] Creating layer inception_4a/relu_3x3_reduce
I0703 17:51:03.797425 18087 net.cpp:90] Creating Layer inception_4a/relu_3x3_reduce
I0703 17:51:03.797430 18087 net.cpp:410] inception_4a/relu_3x3_reduce <- inception_4a/3x3_reduce
I0703 17:51:03.797435 18087 net.cpp:357] inception_4a/relu_3x3_reduce -> inception_4a/3x3_reduce (in-place)
I0703 17:51:03.797441 18087 net.cpp:120] Setting up inception_4a/relu_3x3_reduce
I0703 17:51:03.797480 18087 net.cpp:127] Top shape: 30 96 14 14 (564480)
I0703 17:51:03.797487 18087 layer_factory.hpp:74] Creating layer inception_4a/3x3
I0703 17:51:03.797495 18087 net.cpp:90] Creating Layer inception_4a/3x3
I0703 17:51:03.797500 18087 net.cpp:410] inception_4a/3x3 <- inception_4a/3x3_reduce
I0703 17:51:03.797505 18087 net.cpp:368] inception_4a/3x3 -> inception_4a/3x3
I0703 17:51:03.797513 18087 net.cpp:120] Setting up inception_4a/3x3
I0703 17:51:03.798576 18087 net.cpp:127] Top shape: 30 208 14 14 (1223040)
I0703 17:51:03.798589 18087 layer_factory.hpp:74] Creating layer inception_4a/relu_3x3
I0703 17:51:03.798596 18087 net.cpp:90] Creating Layer inception_4a/relu_3x3
I0703 17:51:03.798602 18087 net.cpp:410] inception_4a/relu_3x3 <- inception_4a/3x3
I0703 17:51:03.798607 18087 net.cpp:357] inception_4a/relu_3x3 -> inception_4a/3x3 (in-place)
I0703 17:51:03.798614 18087 net.cpp:120] Setting up inception_4a/relu_3x3
I0703 17:51:03.798719 18087 net.cpp:127] Top shape: 30 208 14 14 (1223040)
I0703 17:51:03.798729 18087 layer_factory.hpp:74] Creating layer inception_4a/5x5_reduce
I0703 17:51:03.798738 18087 net.cpp:90] Creating Layer inception_4a/5x5_reduce
I0703 17:51:03.798743 18087 net.cpp:410] inception_4a/5x5_reduce <- pool3/3x3_s2_pool3/3x3_s2_0_split_2
I0703 17:51:03.798749 18087 net.cpp:368] inception_4a/5x5_reduce -> inception_4a/5x5_reduce
I0703 17:51:03.798756 18087 net.cpp:120] Setting up inception_4a/5x5_reduce
I0703 17:51:03.798990 18087 net.cpp:127] Top shape: 30 16 14 14 (94080)
I0703 17:51:03.799001 18087 layer_factory.hpp:74] Creating layer inception_4a/relu_5x5_reduce
I0703 17:51:03.799008 18087 net.cpp:90] Creating Layer inception_4a/relu_5x5_reduce
I0703 17:51:03.799013 18087 net.cpp:410] inception_4a/relu_5x5_reduce <- inception_4a/5x5_reduce
I0703 17:51:03.799021 18087 net.cpp:357] inception_4a/relu_5x5_reduce -> inception_4a/5x5_reduce (in-place)
I0703 17:51:03.799026 18087 net.cpp:120] Setting up inception_4a/relu_5x5_reduce
I0703 17:51:03.799068 18087 net.cpp:127] Top shape: 30 16 14 14 (94080)
I0703 17:51:03.799075 18087 layer_factory.hpp:74] Creating layer inception_4a/5x5
I0703 17:51:03.799082 18087 net.cpp:90] Creating Layer inception_4a/5x5
I0703 17:51:03.799088 18087 net.cpp:410] inception_4a/5x5 <- inception_4a/5x5_reduce
I0703 17:51:03.799093 18087 net.cpp:368] inception_4a/5x5 -> inception_4a/5x5
I0703 17:51:03.799100 18087 net.cpp:120] Setting up inception_4a/5x5
I0703 17:51:03.799399 18087 net.cpp:127] Top shape: 30 48 14 14 (282240)
I0703 17:51:03.799412 18087 layer_factory.hpp:74] Creating layer inception_4a/relu_5x5
I0703 17:51:03.799418 18087 net.cpp:90] Creating Layer inception_4a/relu_5x5
I0703 17:51:03.799423 18087 net.cpp:410] inception_4a/relu_5x5 <- inception_4a/5x5
I0703 17:51:03.799430 18087 net.cpp:357] inception_4a/relu_5x5 -> inception_4a/5x5 (in-place)
I0703 17:51:03.799437 18087 net.cpp:120] Setting up inception_4a/relu_5x5
I0703 17:51:03.799475 18087 net.cpp:127] Top shape: 30 48 14 14 (282240)
I0703 17:51:03.799482 18087 layer_factory.hpp:74] Creating layer inception_4a/pool
I0703 17:51:03.799487 18087 layer_factory.cpp:55] CUDNN does not support padding or multiple tops. Using Caffe's own pooling layer.
I0703 17:51:03.799494 18087 net.cpp:90] Creating Layer inception_4a/pool
I0703 17:51:03.799504 18087 net.cpp:410] inception_4a/pool <- pool3/3x3_s2_pool3/3x3_s2_0_split_3
I0703 17:51:03.799512 18087 net.cpp:368] inception_4a/pool -> inception_4a/pool
I0703 17:51:03.799518 18087 net.cpp:120] Setting up inception_4a/pool
I0703 17:51:03.799525 18087 net.cpp:127] Top shape: 30 480 14 14 (2822400)
I0703 17:51:03.799530 18087 layer_factory.hpp:74] Creating layer inception_4a/pool_proj
I0703 17:51:03.799536 18087 net.cpp:90] Creating Layer inception_4a/pool_proj
I0703 17:51:03.799541 18087 net.cpp:410] inception_4a/pool_proj <- inception_4a/pool
I0703 17:51:03.799548 18087 net.cpp:368] inception_4a/pool_proj -> inception_4a/pool_proj
I0703 17:51:03.799554 18087 net.cpp:120] Setting up inception_4a/pool_proj
I0703 17:51:03.799899 18087 net.cpp:127] Top shape: 30 64 14 14 (376320)
I0703 17:51:03.799912 18087 layer_factory.hpp:74] Creating layer inception_4a/relu_pool_proj
I0703 17:51:03.799919 18087 net.cpp:90] Creating Layer inception_4a/relu_pool_proj
I0703 17:51:03.799924 18087 net.cpp:410] inception_4a/relu_pool_proj <- inception_4a/pool_proj
I0703 17:51:03.799929 18087 net.cpp:357] inception_4a/relu_pool_proj -> inception_4a/pool_proj (in-place)
I0703 17:51:03.799935 18087 net.cpp:120] Setting up inception_4a/relu_pool_proj
I0703 17:51:03.800043 18087 net.cpp:127] Top shape: 30 64 14 14 (376320)
I0703 17:51:03.800053 18087 layer_factory.hpp:74] Creating layer inception_4a/output
I0703 17:51:03.800060 18087 net.cpp:90] Creating Layer inception_4a/output
I0703 17:51:03.800065 18087 net.cpp:410] inception_4a/output <- inception_4a/1x1
I0703 17:51:03.800070 18087 net.cpp:410] inception_4a/output <- inception_4a/3x3
I0703 17:51:03.800075 18087 net.cpp:410] inception_4a/output <- inception_4a/5x5
I0703 17:51:03.800079 18087 net.cpp:410] inception_4a/output <- inception_4a/pool_proj
I0703 17:51:03.800086 18087 net.cpp:368] inception_4a/output -> inception_4a/output
I0703 17:51:03.800091 18087 net.cpp:120] Setting up inception_4a/output
I0703 17:51:03.800098 18087 net.cpp:127] Top shape: 30 512 14 14 (3010560)
I0703 17:51:03.800102 18087 layer_factory.hpp:74] Creating layer inception_4a/output_inception_4a/output_0_split
I0703 17:51:03.800109 18087 net.cpp:90] Creating Layer inception_4a/output_inception_4a/output_0_split
I0703 17:51:03.800113 18087 net.cpp:410] inception_4a/output_inception_4a/output_0_split <- inception_4a/output
I0703 17:51:03.800119 18087 net.cpp:368] inception_4a/output_inception_4a/output_0_split -> inception_4a/output_inception_4a/output_0_split_0
I0703 17:51:03.800127 18087 net.cpp:368] inception_4a/output_inception_4a/output_0_split -> inception_4a/output_inception_4a/output_0_split_1
I0703 17:51:03.800133 18087 net.cpp:368] inception_4a/output_inception_4a/output_0_split -> inception_4a/output_inception_4a/output_0_split_2
I0703 17:51:03.800139 18087 net.cpp:368] inception_4a/output_inception_4a/output_0_split -> inception_4a/output_inception_4a/output_0_split_3
I0703 17:51:03.800145 18087 net.cpp:368] inception_4a/output_inception_4a/output_0_split -> inception_4a/output_inception_4a/output_0_split_4
I0703 17:51:03.800151 18087 net.cpp:120] Setting up inception_4a/output_inception_4a/output_0_split
I0703 17:51:03.800158 18087 net.cpp:127] Top shape: 30 512 14 14 (3010560)
I0703 17:51:03.800163 18087 net.cpp:127] Top shape: 30 512 14 14 (3010560)
I0703 17:51:03.800168 18087 net.cpp:127] Top shape: 30 512 14 14 (3010560)
I0703 17:51:03.800173 18087 net.cpp:127] Top shape: 30 512 14 14 (3010560)
I0703 17:51:03.800178 18087 net.cpp:127] Top shape: 30 512 14 14 (3010560)
I0703 17:51:03.800181 18087 layer_factory.hpp:74] Creating layer loss1/ave_pool
I0703 17:51:03.800187 18087 net.cpp:90] Creating Layer loss1/ave_pool
I0703 17:51:03.800192 18087 net.cpp:410] loss1/ave_pool <- inception_4a/output_inception_4a/output_0_split_0
I0703 17:51:03.800197 18087 net.cpp:368] loss1/ave_pool -> loss1/ave_pool
I0703 17:51:03.800204 18087 net.cpp:120] Setting up loss1/ave_pool
I0703 17:51:03.800243 18087 net.cpp:127] Top shape: 30 512 4 4 (245760)
I0703 17:51:03.800251 18087 layer_factory.hpp:74] Creating layer loss1/conv
I0703 17:51:03.800264 18087 net.cpp:90] Creating Layer loss1/conv
I0703 17:51:03.800271 18087 net.cpp:410] loss1/conv <- loss1/ave_pool
I0703 17:51:03.800276 18087 net.cpp:368] loss1/conv -> loss1/conv
I0703 17:51:03.800283 18087 net.cpp:120] Setting up loss1/conv
I0703 17:51:03.800801 18087 net.cpp:127] Top shape: 30 128 4 4 (61440)
I0703 17:51:03.800813 18087 layer_factory.hpp:74] Creating layer loss1/relu_conv
I0703 17:51:03.800822 18087 net.cpp:90] Creating Layer loss1/relu_conv
I0703 17:51:03.800827 18087 net.cpp:410] loss1/relu_conv <- loss1/conv
I0703 17:51:03.800832 18087 net.cpp:357] loss1/relu_conv -> loss1/conv (in-place)
I0703 17:51:03.800838 18087 net.cpp:120] Setting up loss1/relu_conv
I0703 17:51:03.800879 18087 net.cpp:127] Top shape: 30 128 4 4 (61440)
I0703 17:51:03.800885 18087 layer_factory.hpp:74] Creating layer loss1/fc
I0703 17:51:03.800895 18087 net.cpp:90] Creating Layer loss1/fc
I0703 17:51:03.800900 18087 net.cpp:410] loss1/fc <- loss1/conv
I0703 17:51:03.800906 18087 net.cpp:368] loss1/fc -> loss1/fc
I0703 17:51:03.800915 18087 net.cpp:120] Setting up loss1/fc
I0703 17:51:03.811007 18087 net.cpp:127] Top shape: 30 1024 (30720)
I0703 17:51:03.811033 18087 layer_factory.hpp:74] Creating layer loss1/relu_fc
I0703 17:51:03.811043 18087 net.cpp:90] Creating Layer loss1/relu_fc
I0703 17:51:03.811048 18087 net.cpp:410] loss1/relu_fc <- loss1/fc
I0703 17:51:03.811056 18087 net.cpp:357] loss1/relu_fc -> loss1/fc (in-place)
I0703 17:51:03.811064 18087 net.cpp:120] Setting up loss1/relu_fc
I0703 17:51:03.811136 18087 net.cpp:127] Top shape: 30 1024 (30720)
I0703 17:51:03.811144 18087 layer_factory.hpp:74] Creating layer loss1/drop_fc
I0703 17:51:03.811161 18087 net.cpp:90] Creating Layer loss1/drop_fc
I0703 17:51:03.811167 18087 net.cpp:410] loss1/drop_fc <- loss1/fc
I0703 17:51:03.811172 18087 net.cpp:357] loss1/drop_fc -> loss1/fc (in-place)
I0703 17:51:03.811180 18087 net.cpp:120] Setting up loss1/drop_fc
I0703 17:51:03.811189 18087 net.cpp:127] Top shape: 30 1024 (30720)
I0703 17:51:03.811195 18087 layer_factory.hpp:74] Creating layer stanford_cars_loss1/classifier
I0703 17:51:03.811203 18087 net.cpp:90] Creating Layer stanford_cars_loss1/classifier
I0703 17:51:03.811208 18087 net.cpp:410] stanford_cars_loss1/classifier <- loss1/fc
I0703 17:51:03.811214 18087 net.cpp:368] stanford_cars_loss1/classifier -> stanford_cars_loss1/classifier
I0703 17:51:03.811221 18087 net.cpp:120] Setting up stanford_cars_loss1/classifier
I0703 17:51:03.812237 18087 net.cpp:127] Top shape: 30 196 (5880)
I0703 17:51:03.812247 18087 layer_factory.hpp:74] Creating layer loss1/loss
I0703 17:51:03.812255 18087 net.cpp:90] Creating Layer loss1/loss
I0703 17:51:03.812261 18087 net.cpp:410] loss1/loss <- stanford_cars_loss1/classifier
I0703 17:51:03.812266 18087 net.cpp:410] loss1/loss <- label_data_1_split_0
I0703 17:51:03.812273 18087 net.cpp:368] loss1/loss -> loss1/loss1
I0703 17:51:03.812281 18087 net.cpp:120] Setting up loss1/loss
I0703 17:51:03.812288 18087 layer_factory.hpp:74] Creating layer loss1/loss
I0703 17:51:03.812469 18087 net.cpp:127] Top shape: (1)
I0703 17:51:03.812479 18087 net.cpp:129]     with loss weight 0.3
I0703 17:51:03.812497 18087 layer_factory.hpp:74] Creating layer inception_4b/1x1
I0703 17:51:03.812508 18087 net.cpp:90] Creating Layer inception_4b/1x1
I0703 17:51:03.812515 18087 net.cpp:410] inception_4b/1x1 <- inception_4a/output_inception_4a/output_0_split_1
I0703 17:51:03.812521 18087 net.cpp:368] inception_4b/1x1 -> inception_4b/1x1
I0703 17:51:03.812528 18087 net.cpp:120] Setting up inception_4b/1x1
I0703 17:51:03.813132 18087 net.cpp:127] Top shape: 30 160 14 14 (940800)
I0703 17:51:03.813144 18087 layer_factory.hpp:74] Creating layer inception_4b/relu_1x1
I0703 17:51:03.813153 18087 net.cpp:90] Creating Layer inception_4b/relu_1x1
I0703 17:51:03.813158 18087 net.cpp:410] inception_4b/relu_1x1 <- inception_4b/1x1
I0703 17:51:03.813164 18087 net.cpp:357] inception_4b/relu_1x1 -> inception_4b/1x1 (in-place)
I0703 17:51:03.813170 18087 net.cpp:120] Setting up inception_4b/relu_1x1
I0703 17:51:03.813230 18087 net.cpp:127] Top shape: 30 160 14 14 (940800)
I0703 17:51:03.813236 18087 layer_factory.hpp:74] Creating layer inception_4b/3x3_reduce
I0703 17:51:03.813244 18087 net.cpp:90] Creating Layer inception_4b/3x3_reduce
I0703 17:51:03.813249 18087 net.cpp:410] inception_4b/3x3_reduce <- inception_4a/output_inception_4a/output_0_split_2
I0703 17:51:03.813256 18087 net.cpp:368] inception_4b/3x3_reduce -> inception_4b/3x3_reduce
I0703 17:51:03.813263 18087 net.cpp:120] Setting up inception_4b/3x3_reduce
I0703 17:51:03.813745 18087 net.cpp:127] Top shape: 30 112 14 14 (658560)
I0703 17:51:03.813758 18087 layer_factory.hpp:74] Creating layer inception_4b/relu_3x3_reduce
I0703 17:51:03.813765 18087 net.cpp:90] Creating Layer inception_4b/relu_3x3_reduce
I0703 17:51:03.813771 18087 net.cpp:410] inception_4b/relu_3x3_reduce <- inception_4b/3x3_reduce
I0703 17:51:03.813787 18087 net.cpp:357] inception_4b/relu_3x3_reduce -> inception_4b/3x3_reduce (in-place)
I0703 17:51:03.813794 18087 net.cpp:120] Setting up inception_4b/relu_3x3_reduce
I0703 17:51:03.813848 18087 net.cpp:127] Top shape: 30 112 14 14 (658560)
I0703 17:51:03.813854 18087 layer_factory.hpp:74] Creating layer inception_4b/3x3
I0703 17:51:03.813879 18087 net.cpp:90] Creating Layer inception_4b/3x3
I0703 17:51:03.813885 18087 net.cpp:410] inception_4b/3x3 <- inception_4b/3x3_reduce
I0703 17:51:03.813901 18087 net.cpp:368] inception_4b/3x3 -> inception_4b/3x3
I0703 17:51:03.813909 18087 net.cpp:120] Setting up inception_4b/3x3
I0703 17:51:03.815196 18087 net.cpp:127] Top shape: 30 224 14 14 (1317120)
I0703 17:51:03.815208 18087 layer_factory.hpp:74] Creating layer inception_4b/relu_3x3
I0703 17:51:03.815215 18087 net.cpp:90] Creating Layer inception_4b/relu_3x3
I0703 17:51:03.815222 18087 net.cpp:410] inception_4b/relu_3x3 <- inception_4b/3x3
I0703 17:51:03.815227 18087 net.cpp:357] inception_4b/relu_3x3 -> inception_4b/3x3 (in-place)
I0703 17:51:03.815233 18087 net.cpp:120] Setting up inception_4b/relu_3x3
I0703 17:51:03.815274 18087 net.cpp:127] Top shape: 30 224 14 14 (1317120)
I0703 17:51:03.815281 18087 layer_factory.hpp:74] Creating layer inception_4b/5x5_reduce
I0703 17:51:03.815289 18087 net.cpp:90] Creating Layer inception_4b/5x5_reduce
I0703 17:51:03.815294 18087 net.cpp:410] inception_4b/5x5_reduce <- inception_4a/output_inception_4a/output_0_split_3
I0703 17:51:03.815300 18087 net.cpp:368] inception_4b/5x5_reduce -> inception_4b/5x5_reduce
I0703 17:51:03.815312 18087 net.cpp:120] Setting up inception_4b/5x5_reduce
I0703 17:51:03.815577 18087 net.cpp:127] Top shape: 30 24 14 14 (141120)
I0703 17:51:03.815588 18087 layer_factory.hpp:74] Creating layer inception_4b/relu_5x5_reduce
I0703 17:51:03.815596 18087 net.cpp:90] Creating Layer inception_4b/relu_5x5_reduce
I0703 17:51:03.815601 18087 net.cpp:410] inception_4b/relu_5x5_reduce <- inception_4b/5x5_reduce
I0703 17:51:03.815608 18087 net.cpp:357] inception_4b/relu_5x5_reduce -> inception_4b/5x5_reduce (in-place)
I0703 17:51:03.815613 18087 net.cpp:120] Setting up inception_4b/relu_5x5_reduce
I0703 17:51:03.815723 18087 net.cpp:127] Top shape: 30 24 14 14 (141120)
I0703 17:51:03.815733 18087 layer_factory.hpp:74] Creating layer inception_4b/5x5
I0703 17:51:03.815742 18087 net.cpp:90] Creating Layer inception_4b/5x5
I0703 17:51:03.815747 18087 net.cpp:410] inception_4b/5x5 <- inception_4b/5x5_reduce
I0703 17:51:03.815753 18087 net.cpp:368] inception_4b/5x5 -> inception_4b/5x5
I0703 17:51:03.815760 18087 net.cpp:120] Setting up inception_4b/5x5
I0703 17:51:03.816144 18087 net.cpp:127] Top shape: 30 64 14 14 (376320)
I0703 17:51:03.816157 18087 layer_factory.hpp:74] Creating layer inception_4b/relu_5x5
I0703 17:51:03.816164 18087 net.cpp:90] Creating Layer inception_4b/relu_5x5
I0703 17:51:03.816170 18087 net.cpp:410] inception_4b/relu_5x5 <- inception_4b/5x5
I0703 17:51:03.816175 18087 net.cpp:357] inception_4b/relu_5x5 -> inception_4b/5x5 (in-place)
I0703 17:51:03.816181 18087 net.cpp:120] Setting up inception_4b/relu_5x5
I0703 17:51:03.816221 18087 net.cpp:127] Top shape: 30 64 14 14 (376320)
I0703 17:51:03.816236 18087 layer_factory.hpp:74] Creating layer inception_4b/pool
I0703 17:51:03.816241 18087 layer_factory.cpp:55] CUDNN does not support padding or multiple tops. Using Caffe's own pooling layer.
I0703 17:51:03.816248 18087 net.cpp:90] Creating Layer inception_4b/pool
I0703 17:51:03.816253 18087 net.cpp:410] inception_4b/pool <- inception_4a/output_inception_4a/output_0_split_4
I0703 17:51:03.816259 18087 net.cpp:368] inception_4b/pool -> inception_4b/pool
I0703 17:51:03.816272 18087 net.cpp:120] Setting up inception_4b/pool
I0703 17:51:03.816279 18087 net.cpp:127] Top shape: 30 512 14 14 (3010560)
I0703 17:51:03.816284 18087 layer_factory.hpp:74] Creating layer inception_4b/pool_proj
I0703 17:51:03.816293 18087 net.cpp:90] Creating Layer inception_4b/pool_proj
I0703 17:51:03.816296 18087 net.cpp:410] inception_4b/pool_proj <- inception_4b/pool
I0703 17:51:03.816303 18087 net.cpp:368] inception_4b/pool_proj -> inception_4b/pool_proj
I0703 17:51:03.816310 18087 net.cpp:120] Setting up inception_4b/pool_proj
I0703 17:51:03.816666 18087 net.cpp:127] Top shape: 30 64 14 14 (376320)
I0703 17:51:03.816679 18087 layer_factory.hpp:74] Creating layer inception_4b/relu_pool_proj
I0703 17:51:03.816686 18087 net.cpp:90] Creating Layer inception_4b/relu_pool_proj
I0703 17:51:03.816691 18087 net.cpp:410] inception_4b/relu_pool_proj <- inception_4b/pool_proj
I0703 17:51:03.816697 18087 net.cpp:357] inception_4b/relu_pool_proj -> inception_4b/pool_proj (in-place)
I0703 17:51:03.816704 18087 net.cpp:120] Setting up inception_4b/relu_pool_proj
I0703 17:51:03.816745 18087 net.cpp:127] Top shape: 30 64 14 14 (376320)
I0703 17:51:03.816751 18087 layer_factory.hpp:74] Creating layer inception_4b/output
I0703 17:51:03.816758 18087 net.cpp:90] Creating Layer inception_4b/output
I0703 17:51:03.816763 18087 net.cpp:410] inception_4b/output <- inception_4b/1x1
I0703 17:51:03.816768 18087 net.cpp:410] inception_4b/output <- inception_4b/3x3
I0703 17:51:03.816773 18087 net.cpp:410] inception_4b/output <- inception_4b/5x5
I0703 17:51:03.816778 18087 net.cpp:410] inception_4b/output <- inception_4b/pool_proj
I0703 17:51:03.816783 18087 net.cpp:368] inception_4b/output -> inception_4b/output
I0703 17:51:03.816789 18087 net.cpp:120] Setting up inception_4b/output
I0703 17:51:03.816797 18087 net.cpp:127] Top shape: 30 512 14 14 (3010560)
I0703 17:51:03.816802 18087 layer_factory.hpp:74] Creating layer inception_4b/output_inception_4b/output_0_split
I0703 17:51:03.816808 18087 net.cpp:90] Creating Layer inception_4b/output_inception_4b/output_0_split
I0703 17:51:03.816812 18087 net.cpp:410] inception_4b/output_inception_4b/output_0_split <- inception_4b/output
I0703 17:51:03.816818 18087 net.cpp:368] inception_4b/output_inception_4b/output_0_split -> inception_4b/output_inception_4b/output_0_split_0
I0703 17:51:03.816824 18087 net.cpp:368] inception_4b/output_inception_4b/output_0_split -> inception_4b/output_inception_4b/output_0_split_1
I0703 17:51:03.816831 18087 net.cpp:368] inception_4b/output_inception_4b/output_0_split -> inception_4b/output_inception_4b/output_0_split_2
I0703 17:51:03.816838 18087 net.cpp:368] inception_4b/output_inception_4b/output_0_split -> inception_4b/output_inception_4b/output_0_split_3
I0703 17:51:03.816844 18087 net.cpp:120] Setting up inception_4b/output_inception_4b/output_0_split
I0703 17:51:03.816851 18087 net.cpp:127] Top shape: 30 512 14 14 (3010560)
I0703 17:51:03.816856 18087 net.cpp:127] Top shape: 30 512 14 14 (3010560)
I0703 17:51:03.816861 18087 net.cpp:127] Top shape: 30 512 14 14 (3010560)
I0703 17:51:03.816865 18087 net.cpp:127] Top shape: 30 512 14 14 (3010560)
I0703 17:51:03.816869 18087 layer_factory.hpp:74] Creating layer inception_4c/1x1
I0703 17:51:03.816876 18087 net.cpp:90] Creating Layer inception_4c/1x1
I0703 17:51:03.816880 18087 net.cpp:410] inception_4c/1x1 <- inception_4b/output_inception_4b/output_0_split_0
I0703 17:51:03.816887 18087 net.cpp:368] inception_4c/1x1 -> inception_4c/1x1
I0703 17:51:03.816895 18087 net.cpp:120] Setting up inception_4c/1x1
I0703 17:51:03.817435 18087 net.cpp:127] Top shape: 30 128 14 14 (752640)
I0703 17:51:03.817448 18087 layer_factory.hpp:74] Creating layer inception_4c/relu_1x1
I0703 17:51:03.817455 18087 net.cpp:90] Creating Layer inception_4c/relu_1x1
I0703 17:51:03.817459 18087 net.cpp:410] inception_4c/relu_1x1 <- inception_4c/1x1
I0703 17:51:03.817466 18087 net.cpp:357] inception_4c/relu_1x1 -> inception_4c/1x1 (in-place)
I0703 17:51:03.817471 18087 net.cpp:120] Setting up inception_4c/relu_1x1
I0703 17:51:03.817510 18087 net.cpp:127] Top shape: 30 128 14 14 (752640)
I0703 17:51:03.817517 18087 layer_factory.hpp:74] Creating layer inception_4c/3x3_reduce
I0703 17:51:03.817524 18087 net.cpp:90] Creating Layer inception_4c/3x3_reduce
I0703 17:51:03.817529 18087 net.cpp:410] inception_4c/3x3_reduce <- inception_4b/output_inception_4b/output_0_split_1
I0703 17:51:03.817536 18087 net.cpp:368] inception_4c/3x3_reduce -> inception_4c/3x3_reduce
I0703 17:51:03.817543 18087 net.cpp:120] Setting up inception_4c/3x3_reduce
I0703 17:51:03.818059 18087 net.cpp:127] Top shape: 30 128 14 14 (752640)
I0703 17:51:03.818071 18087 layer_factory.hpp:74] Creating layer inception_4c/relu_3x3_reduce
I0703 17:51:03.818078 18087 net.cpp:90] Creating Layer inception_4c/relu_3x3_reduce
I0703 17:51:03.818084 18087 net.cpp:410] inception_4c/relu_3x3_reduce <- inception_4c/3x3_reduce
I0703 17:51:03.818089 18087 net.cpp:357] inception_4c/relu_3x3_reduce -> inception_4c/3x3_reduce (in-place)
I0703 17:51:03.818095 18087 net.cpp:120] Setting up inception_4c/relu_3x3_reduce
I0703 17:51:03.818202 18087 net.cpp:127] Top shape: 30 128 14 14 (752640)
I0703 17:51:03.818212 18087 layer_factory.hpp:74] Creating layer inception_4c/3x3
I0703 17:51:03.818219 18087 net.cpp:90] Creating Layer inception_4c/3x3
I0703 17:51:03.818225 18087 net.cpp:410] inception_4c/3x3 <- inception_4c/3x3_reduce
I0703 17:51:03.818231 18087 net.cpp:368] inception_4c/3x3 -> inception_4c/3x3
I0703 17:51:03.818239 18087 net.cpp:120] Setting up inception_4c/3x3
I0703 17:51:03.819880 18087 net.cpp:127] Top shape: 30 256 14 14 (1505280)
I0703 17:51:03.819900 18087 layer_factory.hpp:74] Creating layer inception_4c/relu_3x3
I0703 17:51:03.819906 18087 net.cpp:90] Creating Layer inception_4c/relu_3x3
I0703 17:51:03.819911 18087 net.cpp:410] inception_4c/relu_3x3 <- inception_4c/3x3
I0703 17:51:03.819918 18087 net.cpp:357] inception_4c/relu_3x3 -> inception_4c/3x3 (in-place)
I0703 17:51:03.819924 18087 net.cpp:120] Setting up inception_4c/relu_3x3
I0703 17:51:03.819968 18087 net.cpp:127] Top shape: 30 256 14 14 (1505280)
I0703 17:51:03.819977 18087 layer_factory.hpp:74] Creating layer inception_4c/5x5_reduce
I0703 17:51:03.819983 18087 net.cpp:90] Creating Layer inception_4c/5x5_reduce
I0703 17:51:03.819988 18087 net.cpp:410] inception_4c/5x5_reduce <- inception_4b/output_inception_4b/output_0_split_2
I0703 17:51:03.819995 18087 net.cpp:368] inception_4c/5x5_reduce -> inception_4c/5x5_reduce
I0703 17:51:03.820003 18087 net.cpp:120] Setting up inception_4c/5x5_reduce
I0703 17:51:03.820261 18087 net.cpp:127] Top shape: 30 24 14 14 (141120)
I0703 17:51:03.820274 18087 layer_factory.hpp:74] Creating layer inception_4c/relu_5x5_reduce
I0703 17:51:03.820281 18087 net.cpp:90] Creating Layer inception_4c/relu_5x5_reduce
I0703 17:51:03.820286 18087 net.cpp:410] inception_4c/relu_5x5_reduce <- inception_4c/5x5_reduce
I0703 17:51:03.820292 18087 net.cpp:357] inception_4c/relu_5x5_reduce -> inception_4c/5x5_reduce (in-place)
I0703 17:51:03.820298 18087 net.cpp:120] Setting up inception_4c/relu_5x5_reduce
I0703 17:51:03.820338 18087 net.cpp:127] Top shape: 30 24 14 14 (141120)
I0703 17:51:03.820345 18087 layer_factory.hpp:74] Creating layer inception_4c/5x5
I0703 17:51:03.820353 18087 net.cpp:90] Creating Layer inception_4c/5x5
I0703 17:51:03.820358 18087 net.cpp:410] inception_4c/5x5 <- inception_4c/5x5_reduce
I0703 17:51:03.820365 18087 net.cpp:368] inception_4c/5x5 -> inception_4c/5x5
I0703 17:51:03.820372 18087 net.cpp:120] Setting up inception_4c/5x5
I0703 17:51:03.820756 18087 net.cpp:127] Top shape: 30 64 14 14 (376320)
I0703 17:51:03.820775 18087 layer_factory.hpp:74] Creating layer inception_4c/relu_5x5
I0703 17:51:03.820783 18087 net.cpp:90] Creating Layer inception_4c/relu_5x5
I0703 17:51:03.820790 18087 net.cpp:410] inception_4c/relu_5x5 <- inception_4c/5x5
I0703 17:51:03.820796 18087 net.cpp:357] inception_4c/relu_5x5 -> inception_4c/5x5 (in-place)
I0703 17:51:03.820801 18087 net.cpp:120] Setting up inception_4c/relu_5x5
I0703 17:51:03.820911 18087 net.cpp:127] Top shape: 30 64 14 14 (376320)
I0703 17:51:03.820921 18087 layer_factory.hpp:74] Creating layer inception_4c/pool
I0703 17:51:03.820926 18087 layer_factory.cpp:55] CUDNN does not support padding or multiple tops. Using Caffe's own pooling layer.
I0703 17:51:03.820933 18087 net.cpp:90] Creating Layer inception_4c/pool
I0703 17:51:03.820940 18087 net.cpp:410] inception_4c/pool <- inception_4b/output_inception_4b/output_0_split_3
I0703 17:51:03.820945 18087 net.cpp:368] inception_4c/pool -> inception_4c/pool
I0703 17:51:03.820951 18087 net.cpp:120] Setting up inception_4c/pool
I0703 17:51:03.820960 18087 net.cpp:127] Top shape: 30 512 14 14 (3010560)
I0703 17:51:03.820965 18087 layer_factory.hpp:74] Creating layer inception_4c/pool_proj
I0703 17:51:03.820971 18087 net.cpp:90] Creating Layer inception_4c/pool_proj
I0703 17:51:03.820976 18087 net.cpp:410] inception_4c/pool_proj <- inception_4c/pool
I0703 17:51:03.820982 18087 net.cpp:368] inception_4c/pool_proj -> inception_4c/pool_proj
I0703 17:51:03.820989 18087 net.cpp:120] Setting up inception_4c/pool_proj
I0703 17:51:03.821346 18087 net.cpp:127] Top shape: 30 64 14 14 (376320)
I0703 17:51:03.821358 18087 layer_factory.hpp:74] Creating layer inception_4c/relu_pool_proj
I0703 17:51:03.821365 18087 net.cpp:90] Creating Layer inception_4c/relu_pool_proj
I0703 17:51:03.821370 18087 net.cpp:410] inception_4c/relu_pool_proj <- inception_4c/pool_proj
I0703 17:51:03.821377 18087 net.cpp:357] inception_4c/relu_pool_proj -> inception_4c/pool_proj (in-place)
I0703 17:51:03.821383 18087 net.cpp:120] Setting up inception_4c/relu_pool_proj
I0703 17:51:03.821426 18087 net.cpp:127] Top shape: 30 64 14 14 (376320)
I0703 17:51:03.821434 18087 layer_factory.hpp:74] Creating layer inception_4c/output
I0703 17:51:03.821439 18087 net.cpp:90] Creating Layer inception_4c/output
I0703 17:51:03.821444 18087 net.cpp:410] inception_4c/output <- inception_4c/1x1
I0703 17:51:03.821450 18087 net.cpp:410] inception_4c/output <- inception_4c/3x3
I0703 17:51:03.821455 18087 net.cpp:410] inception_4c/output <- inception_4c/5x5
I0703 17:51:03.821460 18087 net.cpp:410] inception_4c/output <- inception_4c/pool_proj
I0703 17:51:03.821465 18087 net.cpp:368] inception_4c/output -> inception_4c/output
I0703 17:51:03.821471 18087 net.cpp:120] Setting up inception_4c/output
I0703 17:51:03.821477 18087 net.cpp:127] Top shape: 30 512 14 14 (3010560)
I0703 17:51:03.821482 18087 layer_factory.hpp:74] Creating layer inception_4c/output_inception_4c/output_0_split
I0703 17:51:03.821488 18087 net.cpp:90] Creating Layer inception_4c/output_inception_4c/output_0_split
I0703 17:51:03.821492 18087 net.cpp:410] inception_4c/output_inception_4c/output_0_split <- inception_4c/output
I0703 17:51:03.821498 18087 net.cpp:368] inception_4c/output_inception_4c/output_0_split -> inception_4c/output_inception_4c/output_0_split_0
I0703 17:51:03.821506 18087 net.cpp:368] inception_4c/output_inception_4c/output_0_split -> inception_4c/output_inception_4c/output_0_split_1
I0703 17:51:03.821512 18087 net.cpp:368] inception_4c/output_inception_4c/output_0_split -> inception_4c/output_inception_4c/output_0_split_2
I0703 17:51:03.821518 18087 net.cpp:368] inception_4c/output_inception_4c/output_0_split -> inception_4c/output_inception_4c/output_0_split_3
I0703 17:51:03.821524 18087 net.cpp:120] Setting up inception_4c/output_inception_4c/output_0_split
I0703 17:51:03.821532 18087 net.cpp:127] Top shape: 30 512 14 14 (3010560)
I0703 17:51:03.821537 18087 net.cpp:127] Top shape: 30 512 14 14 (3010560)
I0703 17:51:03.821542 18087 net.cpp:127] Top shape: 30 512 14 14 (3010560)
I0703 17:51:03.821545 18087 net.cpp:127] Top shape: 30 512 14 14 (3010560)
I0703 17:51:03.821557 18087 layer_factory.hpp:74] Creating layer inception_4d/1x1
I0703 17:51:03.821563 18087 net.cpp:90] Creating Layer inception_4d/1x1
I0703 17:51:03.821568 18087 net.cpp:410] inception_4d/1x1 <- inception_4c/output_inception_4c/output_0_split_0
I0703 17:51:03.821575 18087 net.cpp:368] inception_4d/1x1 -> inception_4d/1x1
I0703 17:51:03.821583 18087 net.cpp:120] Setting up inception_4d/1x1
I0703 17:51:03.822065 18087 net.cpp:127] Top shape: 30 112 14 14 (658560)
I0703 17:51:03.822078 18087 layer_factory.hpp:74] Creating layer inception_4d/relu_1x1
I0703 17:51:03.822085 18087 net.cpp:90] Creating Layer inception_4d/relu_1x1
I0703 17:51:03.822090 18087 net.cpp:410] inception_4d/relu_1x1 <- inception_4d/1x1
I0703 17:51:03.822095 18087 net.cpp:357] inception_4d/relu_1x1 -> inception_4d/1x1 (in-place)
I0703 17:51:03.822103 18087 net.cpp:120] Setting up inception_4d/relu_1x1
I0703 17:51:03.822142 18087 net.cpp:127] Top shape: 30 112 14 14 (658560)
I0703 17:51:03.822149 18087 layer_factory.hpp:74] Creating layer inception_4d/3x3_reduce
I0703 17:51:03.822156 18087 net.cpp:90] Creating Layer inception_4d/3x3_reduce
I0703 17:51:03.822161 18087 net.cpp:410] inception_4d/3x3_reduce <- inception_4c/output_inception_4c/output_0_split_1
I0703 17:51:03.822178 18087 net.cpp:368] inception_4d/3x3_reduce -> inception_4d/3x3_reduce
I0703 17:51:03.822186 18087 net.cpp:120] Setting up inception_4d/3x3_reduce
I0703 17:51:03.822762 18087 net.cpp:127] Top shape: 30 144 14 14 (846720)
I0703 17:51:03.822773 18087 layer_factory.hpp:74] Creating layer inception_4d/relu_3x3_reduce
I0703 17:51:03.822780 18087 net.cpp:90] Creating Layer inception_4d/relu_3x3_reduce
I0703 17:51:03.822785 18087 net.cpp:410] inception_4d/relu_3x3_reduce <- inception_4d/3x3_reduce
I0703 17:51:03.822792 18087 net.cpp:357] inception_4d/relu_3x3_reduce -> inception_4d/3x3_reduce (in-place)
I0703 17:51:03.822798 18087 net.cpp:120] Setting up inception_4d/relu_3x3_reduce
I0703 17:51:03.822839 18087 net.cpp:127] Top shape: 30 144 14 14 (846720)
I0703 17:51:03.822846 18087 layer_factory.hpp:74] Creating layer inception_4d/3x3
I0703 17:51:03.822854 18087 net.cpp:90] Creating Layer inception_4d/3x3
I0703 17:51:03.822860 18087 net.cpp:410] inception_4d/3x3 <- inception_4d/3x3_reduce
I0703 17:51:03.822865 18087 net.cpp:368] inception_4d/3x3 -> inception_4d/3x3
I0703 17:51:03.822872 18087 net.cpp:120] Setting up inception_4d/3x3
I0703 17:51:03.824885 18087 net.cpp:127] Top shape: 30 288 14 14 (1693440)
I0703 17:51:03.824898 18087 layer_factory.hpp:74] Creating layer inception_4d/relu_3x3
I0703 17:51:03.824906 18087 net.cpp:90] Creating Layer inception_4d/relu_3x3
I0703 17:51:03.824911 18087 net.cpp:410] inception_4d/relu_3x3 <- inception_4d/3x3
I0703 17:51:03.824918 18087 net.cpp:357] inception_4d/relu_3x3 -> inception_4d/3x3 (in-place)
I0703 17:51:03.824923 18087 net.cpp:120] Setting up inception_4d/relu_3x3
I0703 17:51:03.825033 18087 net.cpp:127] Top shape: 30 288 14 14 (1693440)
I0703 17:51:03.825043 18087 layer_factory.hpp:74] Creating layer inception_4d/5x5_reduce
I0703 17:51:03.825052 18087 net.cpp:90] Creating Layer inception_4d/5x5_reduce
I0703 17:51:03.825057 18087 net.cpp:410] inception_4d/5x5_reduce <- inception_4c/output_inception_4c/output_0_split_2
I0703 17:51:03.825063 18087 net.cpp:368] inception_4d/5x5_reduce -> inception_4d/5x5_reduce
I0703 17:51:03.825070 18087 net.cpp:120] Setting up inception_4d/5x5_reduce
I0703 17:51:03.825387 18087 net.cpp:127] Top shape: 30 32 14 14 (188160)
I0703 17:51:03.825409 18087 layer_factory.hpp:74] Creating layer inception_4d/relu_5x5_reduce
I0703 17:51:03.825417 18087 net.cpp:90] Creating Layer inception_4d/relu_5x5_reduce
I0703 17:51:03.825423 18087 net.cpp:410] inception_4d/relu_5x5_reduce <- inception_4d/5x5_reduce
I0703 17:51:03.825428 18087 net.cpp:357] inception_4d/relu_5x5_reduce -> inception_4d/5x5_reduce (in-place)
I0703 17:51:03.825434 18087 net.cpp:120] Setting up inception_4d/relu_5x5_reduce
I0703 17:51:03.825486 18087 net.cpp:127] Top shape: 30 32 14 14 (188160)
I0703 17:51:03.825512 18087 layer_factory.hpp:74] Creating layer inception_4d/5x5
I0703 17:51:03.825521 18087 net.cpp:90] Creating Layer inception_4d/5x5
I0703 17:51:03.825526 18087 net.cpp:410] inception_4d/5x5 <- inception_4d/5x5_reduce
I0703 17:51:03.825533 18087 net.cpp:368] inception_4d/5x5 -> inception_4d/5x5
I0703 17:51:03.825541 18087 net.cpp:120] Setting up inception_4d/5x5
I0703 17:51:03.826073 18087 net.cpp:127] Top shape: 30 64 14 14 (376320)
I0703 17:51:03.826086 18087 layer_factory.hpp:74] Creating layer inception_4d/relu_5x5
I0703 17:51:03.826093 18087 net.cpp:90] Creating Layer inception_4d/relu_5x5
I0703 17:51:03.826099 18087 net.cpp:410] inception_4d/relu_5x5 <- inception_4d/5x5
I0703 17:51:03.826105 18087 net.cpp:357] inception_4d/relu_5x5 -> inception_4d/5x5 (in-place)
I0703 17:51:03.826112 18087 net.cpp:120] Setting up inception_4d/relu_5x5
I0703 17:51:03.826153 18087 net.cpp:127] Top shape: 30 64 14 14 (376320)
I0703 17:51:03.826160 18087 layer_factory.hpp:74] Creating layer inception_4d/pool
I0703 17:51:03.826165 18087 layer_factory.cpp:55] CUDNN does not support padding or multiple tops. Using Caffe's own pooling layer.
I0703 17:51:03.826171 18087 net.cpp:90] Creating Layer inception_4d/pool
I0703 17:51:03.826176 18087 net.cpp:410] inception_4d/pool <- inception_4c/output_inception_4c/output_0_split_3
I0703 17:51:03.826182 18087 net.cpp:368] inception_4d/pool -> inception_4d/pool
I0703 17:51:03.826189 18087 net.cpp:120] Setting up inception_4d/pool
I0703 17:51:03.826196 18087 net.cpp:127] Top shape: 30 512 14 14 (3010560)
I0703 17:51:03.826201 18087 layer_factory.hpp:74] Creating layer inception_4d/pool_proj
I0703 17:51:03.826208 18087 net.cpp:90] Creating Layer inception_4d/pool_proj
I0703 17:51:03.826212 18087 net.cpp:410] inception_4d/pool_proj <- inception_4d/pool
I0703 17:51:03.826220 18087 net.cpp:368] inception_4d/pool_proj -> inception_4d/pool_proj
I0703 17:51:03.826226 18087 net.cpp:120] Setting up inception_4d/pool_proj
I0703 17:51:03.826588 18087 net.cpp:127] Top shape: 30 64 14 14 (376320)
I0703 17:51:03.826601 18087 layer_factory.hpp:74] Creating layer inception_4d/relu_pool_proj
I0703 17:51:03.826607 18087 net.cpp:90] Creating Layer inception_4d/relu_pool_proj
I0703 17:51:03.826612 18087 net.cpp:410] inception_4d/relu_pool_proj <- inception_4d/pool_proj
I0703 17:51:03.826618 18087 net.cpp:357] inception_4d/relu_pool_proj -> inception_4d/pool_proj (in-place)
I0703 17:51:03.826624 18087 net.cpp:120] Setting up inception_4d/relu_pool_proj
I0703 17:51:03.826665 18087 net.cpp:127] Top shape: 30 64 14 14 (376320)
I0703 17:51:03.826671 18087 layer_factory.hpp:74] Creating layer inception_4d/output
I0703 17:51:03.826678 18087 net.cpp:90] Creating Layer inception_4d/output
I0703 17:51:03.826683 18087 net.cpp:410] inception_4d/output <- inception_4d/1x1
I0703 17:51:03.826688 18087 net.cpp:410] inception_4d/output <- inception_4d/3x3
I0703 17:51:03.826692 18087 net.cpp:410] inception_4d/output <- inception_4d/5x5
I0703 17:51:03.826697 18087 net.cpp:410] inception_4d/output <- inception_4d/pool_proj
I0703 17:51:03.826702 18087 net.cpp:368] inception_4d/output -> inception_4d/output
I0703 17:51:03.826709 18087 net.cpp:120] Setting up inception_4d/output
I0703 17:51:03.826714 18087 net.cpp:127] Top shape: 30 528 14 14 (3104640)
I0703 17:51:03.826719 18087 layer_factory.hpp:74] Creating layer inception_4d/output_inception_4d/output_0_split
I0703 17:51:03.826725 18087 net.cpp:90] Creating Layer inception_4d/output_inception_4d/output_0_split
I0703 17:51:03.826730 18087 net.cpp:410] inception_4d/output_inception_4d/output_0_split <- inception_4d/output
I0703 17:51:03.826736 18087 net.cpp:368] inception_4d/output_inception_4d/output_0_split -> inception_4d/output_inception_4d/output_0_split_0
I0703 17:51:03.826743 18087 net.cpp:368] inception_4d/output_inception_4d/output_0_split -> inception_4d/output_inception_4d/output_0_split_1
I0703 17:51:03.826750 18087 net.cpp:368] inception_4d/output_inception_4d/output_0_split -> inception_4d/output_inception_4d/output_0_split_2
I0703 17:51:03.826762 18087 net.cpp:368] inception_4d/output_inception_4d/output_0_split -> inception_4d/output_inception_4d/output_0_split_3
I0703 17:51:03.826769 18087 net.cpp:368] inception_4d/output_inception_4d/output_0_split -> inception_4d/output_inception_4d/output_0_split_4
I0703 17:51:03.826777 18087 net.cpp:120] Setting up inception_4d/output_inception_4d/output_0_split
I0703 17:51:03.826783 18087 net.cpp:127] Top shape: 30 528 14 14 (3104640)
I0703 17:51:03.826788 18087 net.cpp:127] Top shape: 30 528 14 14 (3104640)
I0703 17:51:03.826793 18087 net.cpp:127] Top shape: 30 528 14 14 (3104640)
I0703 17:51:03.826797 18087 net.cpp:127] Top shape: 30 528 14 14 (3104640)
I0703 17:51:03.826802 18087 net.cpp:127] Top shape: 30 528 14 14 (3104640)
I0703 17:51:03.826807 18087 layer_factory.hpp:74] Creating layer loss2/ave_pool
I0703 17:51:03.826812 18087 net.cpp:90] Creating Layer loss2/ave_pool
I0703 17:51:03.826817 18087 net.cpp:410] loss2/ave_pool <- inception_4d/output_inception_4d/output_0_split_0
I0703 17:51:03.826822 18087 net.cpp:368] loss2/ave_pool -> loss2/ave_pool
I0703 17:51:03.826828 18087 net.cpp:120] Setting up loss2/ave_pool
I0703 17:51:03.826942 18087 net.cpp:127] Top shape: 30 528 4 4 (253440)
I0703 17:51:03.826951 18087 layer_factory.hpp:74] Creating layer loss2/conv
I0703 17:51:03.826959 18087 net.cpp:90] Creating Layer loss2/conv
I0703 17:51:03.826964 18087 net.cpp:410] loss2/conv <- loss2/ave_pool
I0703 17:51:03.826972 18087 net.cpp:368] loss2/conv -> loss2/conv
I0703 17:51:03.826978 18087 net.cpp:120] Setting up loss2/conv
I0703 17:51:03.827508 18087 net.cpp:127] Top shape: 30 128 4 4 (61440)
I0703 17:51:03.827520 18087 layer_factory.hpp:74] Creating layer loss2/relu_conv
I0703 17:51:03.827527 18087 net.cpp:90] Creating Layer loss2/relu_conv
I0703 17:51:03.827533 18087 net.cpp:410] loss2/relu_conv <- loss2/conv
I0703 17:51:03.827538 18087 net.cpp:357] loss2/relu_conv -> loss2/conv (in-place)
I0703 17:51:03.827544 18087 net.cpp:120] Setting up loss2/relu_conv
I0703 17:51:03.827586 18087 net.cpp:127] Top shape: 30 128 4 4 (61440)
I0703 17:51:03.827592 18087 layer_factory.hpp:74] Creating layer loss2/fc
I0703 17:51:03.827600 18087 net.cpp:90] Creating Layer loss2/fc
I0703 17:51:03.827605 18087 net.cpp:410] loss2/fc <- loss2/conv
I0703 17:51:03.827610 18087 net.cpp:368] loss2/fc -> loss2/fc
I0703 17:51:03.827617 18087 net.cpp:120] Setting up loss2/fc
I0703 17:51:03.837509 18087 net.cpp:127] Top shape: 30 1024 (30720)
I0703 17:51:03.837532 18087 layer_factory.hpp:74] Creating layer loss2/relu_fc
I0703 17:51:03.837541 18087 net.cpp:90] Creating Layer loss2/relu_fc
I0703 17:51:03.837548 18087 net.cpp:410] loss2/relu_fc <- loss2/fc
I0703 17:51:03.837555 18087 net.cpp:357] loss2/relu_fc -> loss2/fc (in-place)
I0703 17:51:03.837563 18087 net.cpp:120] Setting up loss2/relu_fc
I0703 17:51:03.837641 18087 net.cpp:127] Top shape: 30 1024 (30720)
I0703 17:51:03.837648 18087 layer_factory.hpp:74] Creating layer loss2/drop_fc
I0703 17:51:03.837666 18087 net.cpp:90] Creating Layer loss2/drop_fc
I0703 17:51:03.837671 18087 net.cpp:410] loss2/drop_fc <- loss2/fc
I0703 17:51:03.837677 18087 net.cpp:357] loss2/drop_fc -> loss2/fc (in-place)
I0703 17:51:03.837684 18087 net.cpp:120] Setting up loss2/drop_fc
I0703 17:51:03.837702 18087 net.cpp:127] Top shape: 30 1024 (30720)
I0703 17:51:03.837705 18087 layer_factory.hpp:74] Creating layer stanford_cars_loss2/classifier
I0703 17:51:03.837787 18087 net.cpp:90] Creating Layer stanford_cars_loss2/classifier
I0703 17:51:03.837795 18087 net.cpp:410] stanford_cars_loss2/classifier <- loss2/fc
I0703 17:51:03.837813 18087 net.cpp:368] stanford_cars_loss2/classifier -> stanford_cars_loss2/classifier
I0703 17:51:03.837821 18087 net.cpp:120] Setting up stanford_cars_loss2/classifier
I0703 17:51:03.838986 18087 net.cpp:127] Top shape: 30 196 (5880)
I0703 17:51:03.838996 18087 layer_factory.hpp:74] Creating layer stanford_cars_loss2/loss
I0703 17:51:03.839004 18087 net.cpp:90] Creating Layer stanford_cars_loss2/loss
I0703 17:51:03.839010 18087 net.cpp:410] stanford_cars_loss2/loss <- stanford_cars_loss2/classifier
I0703 17:51:03.839030 18087 net.cpp:410] stanford_cars_loss2/loss <- label_data_1_split_1
I0703 17:51:03.839037 18087 net.cpp:368] stanford_cars_loss2/loss -> loss2/loss1
I0703 17:51:03.839045 18087 net.cpp:120] Setting up stanford_cars_loss2/loss
I0703 17:51:03.839051 18087 layer_factory.hpp:74] Creating layer stanford_cars_loss2/loss
I0703 17:51:03.839108 18087 net.cpp:127] Top shape: (1)
I0703 17:51:03.839117 18087 net.cpp:129]     with loss weight 0.3
I0703 17:51:03.839126 18087 layer_factory.hpp:74] Creating layer inception_4e/1x1
I0703 17:51:03.839135 18087 net.cpp:90] Creating Layer inception_4e/1x1
I0703 17:51:03.839141 18087 net.cpp:410] inception_4e/1x1 <- inception_4d/output_inception_4d/output_0_split_1
I0703 17:51:03.839148 18087 net.cpp:368] inception_4e/1x1 -> inception_4e/1x1
I0703 17:51:03.839155 18087 net.cpp:120] Setting up inception_4e/1x1
I0703 17:51:03.840085 18087 net.cpp:127] Top shape: 30 256 14 14 (1505280)
I0703 17:51:03.840098 18087 layer_factory.hpp:74] Creating layer inception_4e/relu_1x1
I0703 17:51:03.840104 18087 net.cpp:90] Creating Layer inception_4e/relu_1x1
I0703 17:51:03.840111 18087 net.cpp:410] inception_4e/relu_1x1 <- inception_4e/1x1
I0703 17:51:03.840116 18087 net.cpp:357] inception_4e/relu_1x1 -> inception_4e/1x1 (in-place)
I0703 17:51:03.840122 18087 net.cpp:120] Setting up inception_4e/relu_1x1
I0703 17:51:03.840234 18087 net.cpp:127] Top shape: 30 256 14 14 (1505280)
I0703 17:51:03.840243 18087 layer_factory.hpp:74] Creating layer inception_4e/3x3_reduce
I0703 17:51:03.840251 18087 net.cpp:90] Creating Layer inception_4e/3x3_reduce
I0703 17:51:03.840256 18087 net.cpp:410] inception_4e/3x3_reduce <- inception_4d/output_inception_4d/output_0_split_2
I0703 17:51:03.840263 18087 net.cpp:368] inception_4e/3x3_reduce -> inception_4e/3x3_reduce
I0703 17:51:03.840270 18087 net.cpp:120] Setting up inception_4e/3x3_reduce
I0703 17:51:03.840922 18087 net.cpp:127] Top shape: 30 160 14 14 (940800)
I0703 17:51:03.840946 18087 layer_factory.hpp:74] Creating layer inception_4e/relu_3x3_reduce
I0703 17:51:03.840963 18087 net.cpp:90] Creating Layer inception_4e/relu_3x3_reduce
I0703 17:51:03.840968 18087 net.cpp:410] inception_4e/relu_3x3_reduce <- inception_4e/3x3_reduce
I0703 17:51:03.840976 18087 net.cpp:357] inception_4e/relu_3x3_reduce -> inception_4e/3x3_reduce (in-place)
I0703 17:51:03.840982 18087 net.cpp:120] Setting up inception_4e/relu_3x3_reduce
I0703 17:51:03.841042 18087 net.cpp:127] Top shape: 30 160 14 14 (940800)
I0703 17:51:03.841050 18087 layer_factory.hpp:74] Creating layer inception_4e/3x3
I0703 17:51:03.841058 18087 net.cpp:90] Creating Layer inception_4e/3x3
I0703 17:51:03.841063 18087 net.cpp:410] inception_4e/3x3 <- inception_4e/3x3_reduce
I0703 17:51:03.841069 18087 net.cpp:368] inception_4e/3x3 -> inception_4e/3x3
I0703 17:51:03.841078 18087 net.cpp:120] Setting up inception_4e/3x3
I0703 17:51:03.843510 18087 net.cpp:127] Top shape: 30 320 14 14 (1881600)
I0703 17:51:03.843524 18087 layer_factory.hpp:74] Creating layer inception_4e/relu_3x3
I0703 17:51:03.843531 18087 net.cpp:90] Creating Layer inception_4e/relu_3x3
I0703 17:51:03.843538 18087 net.cpp:410] inception_4e/relu_3x3 <- inception_4e/3x3
I0703 17:51:03.843544 18087 net.cpp:357] inception_4e/relu_3x3 -> inception_4e/3x3 (in-place)
I0703 17:51:03.843550 18087 net.cpp:120] Setting up inception_4e/relu_3x3
I0703 17:51:03.843590 18087 net.cpp:127] Top shape: 30 320 14 14 (1881600)
I0703 17:51:03.843598 18087 layer_factory.hpp:74] Creating layer inception_4e/5x5_reduce
I0703 17:51:03.843607 18087 net.cpp:90] Creating Layer inception_4e/5x5_reduce
I0703 17:51:03.843613 18087 net.cpp:410] inception_4e/5x5_reduce <- inception_4d/output_inception_4d/output_0_split_3
I0703 17:51:03.843619 18087 net.cpp:368] inception_4e/5x5_reduce -> inception_4e/5x5_reduce
I0703 17:51:03.843626 18087 net.cpp:120] Setting up inception_4e/5x5_reduce
I0703 17:51:03.843909 18087 net.cpp:127] Top shape: 30 32 14 14 (188160)
I0703 17:51:03.843922 18087 layer_factory.hpp:74] Creating layer inception_4e/relu_5x5_reduce
I0703 17:51:03.843937 18087 net.cpp:90] Creating Layer inception_4e/relu_5x5_reduce
I0703 17:51:03.843943 18087 net.cpp:410] inception_4e/relu_5x5_reduce <- inception_4e/5x5_reduce
I0703 17:51:03.843950 18087 net.cpp:357] inception_4e/relu_5x5_reduce -> inception_4e/5x5_reduce (in-place)
I0703 17:51:03.843955 18087 net.cpp:120] Setting up inception_4e/relu_5x5_reduce
I0703 17:51:03.844068 18087 net.cpp:127] Top shape: 30 32 14 14 (188160)
I0703 17:51:03.844077 18087 layer_factory.hpp:74] Creating layer inception_4e/5x5
I0703 17:51:03.844095 18087 net.cpp:90] Creating Layer inception_4e/5x5
I0703 17:51:03.844101 18087 net.cpp:410] inception_4e/5x5 <- inception_4e/5x5_reduce
I0703 17:51:03.844108 18087 net.cpp:368] inception_4e/5x5 -> inception_4e/5x5
I0703 17:51:03.844115 18087 net.cpp:120] Setting up inception_4e/5x5
I0703 17:51:03.844811 18087 net.cpp:127] Top shape: 30 128 14 14 (752640)
I0703 17:51:03.844825 18087 layer_factory.hpp:74] Creating layer inception_4e/relu_5x5
I0703 17:51:03.844831 18087 net.cpp:90] Creating Layer inception_4e/relu_5x5
I0703 17:51:03.844837 18087 net.cpp:410] inception_4e/relu_5x5 <- inception_4e/5x5
I0703 17:51:03.844843 18087 net.cpp:357] inception_4e/relu_5x5 -> inception_4e/5x5 (in-place)
I0703 17:51:03.844849 18087 net.cpp:120] Setting up inception_4e/relu_5x5
I0703 17:51:03.844892 18087 net.cpp:127] Top shape: 30 128 14 14 (752640)
I0703 17:51:03.844899 18087 layer_factory.hpp:74] Creating layer inception_4e/pool
I0703 17:51:03.844904 18087 layer_factory.cpp:55] CUDNN does not support padding or multiple tops. Using Caffe's own pooling layer.
I0703 17:51:03.844910 18087 net.cpp:90] Creating Layer inception_4e/pool
I0703 17:51:03.844914 18087 net.cpp:410] inception_4e/pool <- inception_4d/output_inception_4d/output_0_split_4
I0703 17:51:03.844920 18087 net.cpp:368] inception_4e/pool -> inception_4e/pool
I0703 17:51:03.844926 18087 net.cpp:120] Setting up inception_4e/pool
I0703 17:51:03.844934 18087 net.cpp:127] Top shape: 30 528 14 14 (3104640)
I0703 17:51:03.844938 18087 layer_factory.hpp:74] Creating layer inception_4e/pool_proj
I0703 17:51:03.844946 18087 net.cpp:90] Creating Layer inception_4e/pool_proj
I0703 17:51:03.844951 18087 net.cpp:410] inception_4e/pool_proj <- inception_4e/pool
I0703 17:51:03.844959 18087 net.cpp:368] inception_4e/pool_proj -> inception_4e/pool_proj
I0703 17:51:03.844965 18087 net.cpp:120] Setting up inception_4e/pool_proj
I0703 17:51:03.845494 18087 net.cpp:127] Top shape: 30 128 14 14 (752640)
I0703 17:51:03.845505 18087 layer_factory.hpp:74] Creating layer inception_4e/relu_pool_proj
I0703 17:51:03.845513 18087 net.cpp:90] Creating Layer inception_4e/relu_pool_proj
I0703 17:51:03.845518 18087 net.cpp:410] inception_4e/relu_pool_proj <- inception_4e/pool_proj
I0703 17:51:03.845525 18087 net.cpp:357] inception_4e/relu_pool_proj -> inception_4e/pool_proj (in-place)
I0703 17:51:03.845530 18087 net.cpp:120] Setting up inception_4e/relu_pool_proj
I0703 17:51:03.845571 18087 net.cpp:127] Top shape: 30 128 14 14 (752640)
I0703 17:51:03.845577 18087 layer_factory.hpp:74] Creating layer inception_4e/output
I0703 17:51:03.845584 18087 net.cpp:90] Creating Layer inception_4e/output
I0703 17:51:03.845588 18087 net.cpp:410] inception_4e/output <- inception_4e/1x1
I0703 17:51:03.845594 18087 net.cpp:410] inception_4e/output <- inception_4e/3x3
I0703 17:51:03.845598 18087 net.cpp:410] inception_4e/output <- inception_4e/5x5
I0703 17:51:03.845603 18087 net.cpp:410] inception_4e/output <- inception_4e/pool_proj
I0703 17:51:03.845609 18087 net.cpp:368] inception_4e/output -> inception_4e/output
I0703 17:51:03.845615 18087 net.cpp:120] Setting up inception_4e/output
I0703 17:51:03.845621 18087 net.cpp:127] Top shape: 30 832 14 14 (4892160)
I0703 17:51:03.845626 18087 layer_factory.hpp:74] Creating layer pool4/3x3_s2
I0703 17:51:03.845633 18087 net.cpp:90] Creating Layer pool4/3x3_s2
I0703 17:51:03.845638 18087 net.cpp:410] pool4/3x3_s2 <- inception_4e/output
I0703 17:51:03.845643 18087 net.cpp:368] pool4/3x3_s2 -> pool4/3x3_s2
I0703 17:51:03.845649 18087 net.cpp:120] Setting up pool4/3x3_s2
I0703 17:51:03.845698 18087 net.cpp:127] Top shape: 30 832 7 7 (1223040)
I0703 17:51:03.845705 18087 layer_factory.hpp:74] Creating layer pool4/3x3_s2_pool4/3x3_s2_0_split
I0703 17:51:03.845712 18087 net.cpp:90] Creating Layer pool4/3x3_s2_pool4/3x3_s2_0_split
I0703 17:51:03.845717 18087 net.cpp:410] pool4/3x3_s2_pool4/3x3_s2_0_split <- pool4/3x3_s2
I0703 17:51:03.845722 18087 net.cpp:368] pool4/3x3_s2_pool4/3x3_s2_0_split -> pool4/3x3_s2_pool4/3x3_s2_0_split_0
I0703 17:51:03.845729 18087 net.cpp:368] pool4/3x3_s2_pool4/3x3_s2_0_split -> pool4/3x3_s2_pool4/3x3_s2_0_split_1
I0703 17:51:03.845736 18087 net.cpp:368] pool4/3x3_s2_pool4/3x3_s2_0_split -> pool4/3x3_s2_pool4/3x3_s2_0_split_2
I0703 17:51:03.845742 18087 net.cpp:368] pool4/3x3_s2_pool4/3x3_s2_0_split -> pool4/3x3_s2_pool4/3x3_s2_0_split_3
I0703 17:51:03.845748 18087 net.cpp:120] Setting up pool4/3x3_s2_pool4/3x3_s2_0_split
I0703 17:51:03.845754 18087 net.cpp:127] Top shape: 30 832 7 7 (1223040)
I0703 17:51:03.845759 18087 net.cpp:127] Top shape: 30 832 7 7 (1223040)
I0703 17:51:03.845764 18087 net.cpp:127] Top shape: 30 832 7 7 (1223040)
I0703 17:51:03.845768 18087 net.cpp:127] Top shape: 30 832 7 7 (1223040)
I0703 17:51:03.845772 18087 layer_factory.hpp:74] Creating layer inception_5a/1x1
I0703 17:51:03.845780 18087 net.cpp:90] Creating Layer inception_5a/1x1
I0703 17:51:03.845784 18087 net.cpp:410] inception_5a/1x1 <- pool4/3x3_s2_pool4/3x3_s2_0_split_0
I0703 17:51:03.845791 18087 net.cpp:368] inception_5a/1x1 -> inception_5a/1x1
I0703 17:51:03.845798 18087 net.cpp:120] Setting up inception_5a/1x1
I0703 17:51:03.847033 18087 net.cpp:127] Top shape: 30 256 7 7 (376320)
I0703 17:51:03.847045 18087 layer_factory.hpp:74] Creating layer inception_5a/relu_1x1
I0703 17:51:03.847054 18087 net.cpp:90] Creating Layer inception_5a/relu_1x1
I0703 17:51:03.847059 18087 net.cpp:410] inception_5a/relu_1x1 <- inception_5a/1x1
I0703 17:51:03.847064 18087 net.cpp:357] inception_5a/relu_1x1 -> inception_5a/1x1 (in-place)
I0703 17:51:03.847070 18087 net.cpp:120] Setting up inception_5a/relu_1x1
I0703 17:51:03.847180 18087 net.cpp:127] Top shape: 30 256 7 7 (376320)
I0703 17:51:03.847189 18087 layer_factory.hpp:74] Creating layer inception_5a/3x3_reduce
I0703 17:51:03.847198 18087 net.cpp:90] Creating Layer inception_5a/3x3_reduce
I0703 17:51:03.847203 18087 net.cpp:410] inception_5a/3x3_reduce <- pool4/3x3_s2_pool4/3x3_s2_0_split_1
I0703 17:51:03.847208 18087 net.cpp:368] inception_5a/3x3_reduce -> inception_5a/3x3_reduce
I0703 17:51:03.847215 18087 net.cpp:120] Setting up inception_5a/3x3_reduce
I0703 17:51:03.848072 18087 net.cpp:127] Top shape: 30 160 7 7 (235200)
I0703 17:51:03.848083 18087 layer_factory.hpp:74] Creating layer inception_5a/relu_3x3_reduce
I0703 17:51:03.848089 18087 net.cpp:90] Creating Layer inception_5a/relu_3x3_reduce
I0703 17:51:03.848094 18087 net.cpp:410] inception_5a/relu_3x3_reduce <- inception_5a/3x3_reduce
I0703 17:51:03.848103 18087 net.cpp:357] inception_5a/relu_3x3_reduce -> inception_5a/3x3_reduce (in-place)
I0703 17:51:03.848109 18087 net.cpp:120] Setting up inception_5a/relu_3x3_reduce
I0703 17:51:03.848150 18087 net.cpp:127] Top shape: 30 160 7 7 (235200)
I0703 17:51:03.848155 18087 layer_factory.hpp:74] Creating layer inception_5a/3x3
I0703 17:51:03.848163 18087 net.cpp:90] Creating Layer inception_5a/3x3
I0703 17:51:03.848167 18087 net.cpp:410] inception_5a/3x3 <- inception_5a/3x3_reduce
I0703 17:51:03.848175 18087 net.cpp:368] inception_5a/3x3 -> inception_5a/3x3
I0703 17:51:03.848181 18087 net.cpp:120] Setting up inception_5a/3x3
I0703 17:51:03.850610 18087 net.cpp:127] Top shape: 30 320 7 7 (470400)
I0703 17:51:03.850620 18087 layer_factory.hpp:74] Creating layer inception_5a/relu_3x3
I0703 17:51:03.850628 18087 net.cpp:90] Creating Layer inception_5a/relu_3x3
I0703 17:51:03.850633 18087 net.cpp:410] inception_5a/relu_3x3 <- inception_5a/3x3
I0703 17:51:03.850638 18087 net.cpp:357] inception_5a/relu_3x3 -> inception_5a/3x3 (in-place)
I0703 17:51:03.850644 18087 net.cpp:120] Setting up inception_5a/relu_3x3
I0703 17:51:03.850684 18087 net.cpp:127] Top shape: 30 320 7 7 (470400)
I0703 17:51:03.850698 18087 layer_factory.hpp:74] Creating layer inception_5a/5x5_reduce
I0703 17:51:03.850707 18087 net.cpp:90] Creating Layer inception_5a/5x5_reduce
I0703 17:51:03.850713 18087 net.cpp:410] inception_5a/5x5_reduce <- pool4/3x3_s2_pool4/3x3_s2_0_split_2
I0703 17:51:03.850719 18087 net.cpp:368] inception_5a/5x5_reduce -> inception_5a/5x5_reduce
I0703 17:51:03.850726 18087 net.cpp:120] Setting up inception_5a/5x5_reduce
I0703 17:51:03.851061 18087 net.cpp:127] Top shape: 30 32 7 7 (47040)
I0703 17:51:03.851073 18087 layer_factory.hpp:74] Creating layer inception_5a/relu_5x5_reduce
I0703 17:51:03.851080 18087 net.cpp:90] Creating Layer inception_5a/relu_5x5_reduce
I0703 17:51:03.851085 18087 net.cpp:410] inception_5a/relu_5x5_reduce <- inception_5a/5x5_reduce
I0703 17:51:03.851091 18087 net.cpp:357] inception_5a/relu_5x5_reduce -> inception_5a/5x5_reduce (in-place)
I0703 17:51:03.851097 18087 net.cpp:120] Setting up inception_5a/relu_5x5_reduce
I0703 17:51:03.851137 18087 net.cpp:127] Top shape: 30 32 7 7 (47040)
I0703 17:51:03.851143 18087 layer_factory.hpp:74] Creating layer inception_5a/5x5
I0703 17:51:03.851151 18087 net.cpp:90] Creating Layer inception_5a/5x5
I0703 17:51:03.851156 18087 net.cpp:410] inception_5a/5x5 <- inception_5a/5x5_reduce
I0703 17:51:03.851162 18087 net.cpp:368] inception_5a/5x5 -> inception_5a/5x5
I0703 17:51:03.851169 18087 net.cpp:120] Setting up inception_5a/5x5
I0703 17:51:03.851891 18087 net.cpp:127] Top shape: 30 128 7 7 (188160)
I0703 17:51:03.851903 18087 layer_factory.hpp:74] Creating layer inception_5a/relu_5x5
I0703 17:51:03.851910 18087 net.cpp:90] Creating Layer inception_5a/relu_5x5
I0703 17:51:03.851915 18087 net.cpp:410] inception_5a/relu_5x5 <- inception_5a/5x5
I0703 17:51:03.851920 18087 net.cpp:357] inception_5a/relu_5x5 -> inception_5a/5x5 (in-place)
I0703 17:51:03.851927 18087 net.cpp:120] Setting up inception_5a/relu_5x5
I0703 17:51:03.852035 18087 net.cpp:127] Top shape: 30 128 7 7 (188160)
I0703 17:51:03.852043 18087 layer_factory.hpp:74] Creating layer inception_5a/pool
I0703 17:51:03.852048 18087 layer_factory.cpp:55] CUDNN does not support padding or multiple tops. Using Caffe's own pooling layer.
I0703 17:51:03.852056 18087 net.cpp:90] Creating Layer inception_5a/pool
I0703 17:51:03.852061 18087 net.cpp:410] inception_5a/pool <- pool4/3x3_s2_pool4/3x3_s2_0_split_3
I0703 17:51:03.852066 18087 net.cpp:368] inception_5a/pool -> inception_5a/pool
I0703 17:51:03.852073 18087 net.cpp:120] Setting up inception_5a/pool
I0703 17:51:03.852080 18087 net.cpp:127] Top shape: 30 832 7 7 (1223040)
I0703 17:51:03.852084 18087 layer_factory.hpp:74] Creating layer inception_5a/pool_proj
I0703 17:51:03.852092 18087 net.cpp:90] Creating Layer inception_5a/pool_proj
I0703 17:51:03.852097 18087 net.cpp:410] inception_5a/pool_proj <- inception_5a/pool
I0703 17:51:03.852102 18087 net.cpp:368] inception_5a/pool_proj -> inception_5a/pool_proj
I0703 17:51:03.852108 18087 net.cpp:120] Setting up inception_5a/pool_proj
I0703 17:51:03.852828 18087 net.cpp:127] Top shape: 30 128 7 7 (188160)
I0703 17:51:03.852839 18087 layer_factory.hpp:74] Creating layer inception_5a/relu_pool_proj
I0703 17:51:03.852845 18087 net.cpp:90] Creating Layer inception_5a/relu_pool_proj
I0703 17:51:03.852850 18087 net.cpp:410] inception_5a/relu_pool_proj <- inception_5a/pool_proj
I0703 17:51:03.852857 18087 net.cpp:357] inception_5a/relu_pool_proj -> inception_5a/pool_proj (in-place)
I0703 17:51:03.852864 18087 net.cpp:120] Setting up inception_5a/relu_pool_proj
I0703 17:51:03.852903 18087 net.cpp:127] Top shape: 30 128 7 7 (188160)
I0703 17:51:03.852910 18087 layer_factory.hpp:74] Creating layer inception_5a/output
I0703 17:51:03.852916 18087 net.cpp:90] Creating Layer inception_5a/output
I0703 17:51:03.852921 18087 net.cpp:410] inception_5a/output <- inception_5a/1x1
I0703 17:51:03.852926 18087 net.cpp:410] inception_5a/output <- inception_5a/3x3
I0703 17:51:03.852931 18087 net.cpp:410] inception_5a/output <- inception_5a/5x5
I0703 17:51:03.852934 18087 net.cpp:410] inception_5a/output <- inception_5a/pool_proj
I0703 17:51:03.852947 18087 net.cpp:368] inception_5a/output -> inception_5a/output
I0703 17:51:03.852954 18087 net.cpp:120] Setting up inception_5a/output
I0703 17:51:03.852960 18087 net.cpp:127] Top shape: 30 832 7 7 (1223040)
I0703 17:51:03.852965 18087 layer_factory.hpp:74] Creating layer inception_5a/output_inception_5a/output_0_split
I0703 17:51:03.852972 18087 net.cpp:90] Creating Layer inception_5a/output_inception_5a/output_0_split
I0703 17:51:03.852975 18087 net.cpp:410] inception_5a/output_inception_5a/output_0_split <- inception_5a/output
I0703 17:51:03.852982 18087 net.cpp:368] inception_5a/output_inception_5a/output_0_split -> inception_5a/output_inception_5a/output_0_split_0
I0703 17:51:03.852988 18087 net.cpp:368] inception_5a/output_inception_5a/output_0_split -> inception_5a/output_inception_5a/output_0_split_1
I0703 17:51:03.852994 18087 net.cpp:368] inception_5a/output_inception_5a/output_0_split -> inception_5a/output_inception_5a/output_0_split_2
I0703 17:51:03.853001 18087 net.cpp:368] inception_5a/output_inception_5a/output_0_split -> inception_5a/output_inception_5a/output_0_split_3
I0703 17:51:03.853008 18087 net.cpp:120] Setting up inception_5a/output_inception_5a/output_0_split
I0703 17:51:03.853013 18087 net.cpp:127] Top shape: 30 832 7 7 (1223040)
I0703 17:51:03.853018 18087 net.cpp:127] Top shape: 30 832 7 7 (1223040)
I0703 17:51:03.853024 18087 net.cpp:127] Top shape: 30 832 7 7 (1223040)
I0703 17:51:03.853027 18087 net.cpp:127] Top shape: 30 832 7 7 (1223040)
I0703 17:51:03.853031 18087 layer_factory.hpp:74] Creating layer inception_5b/1x1
I0703 17:51:03.853039 18087 net.cpp:90] Creating Layer inception_5b/1x1
I0703 17:51:03.853044 18087 net.cpp:410] inception_5b/1x1 <- inception_5a/output_inception_5a/output_0_split_0
I0703 17:51:03.853049 18087 net.cpp:368] inception_5b/1x1 -> inception_5b/1x1
I0703 17:51:03.853055 18087 net.cpp:120] Setting up inception_5b/1x1
I0703 17:51:03.854807 18087 net.cpp:127] Top shape: 30 384 7 7 (564480)
I0703 17:51:03.854820 18087 layer_factory.hpp:74] Creating layer inception_5b/relu_1x1
I0703 17:51:03.854826 18087 net.cpp:90] Creating Layer inception_5b/relu_1x1
I0703 17:51:03.854831 18087 net.cpp:410] inception_5b/relu_1x1 <- inception_5b/1x1
I0703 17:51:03.854837 18087 net.cpp:357] inception_5b/relu_1x1 -> inception_5b/1x1 (in-place)
I0703 17:51:03.854843 18087 net.cpp:120] Setting up inception_5b/relu_1x1
I0703 17:51:03.854884 18087 net.cpp:127] Top shape: 30 384 7 7 (564480)
I0703 17:51:03.854892 18087 layer_factory.hpp:74] Creating layer inception_5b/3x3_reduce
I0703 17:51:03.854897 18087 net.cpp:90] Creating Layer inception_5b/3x3_reduce
I0703 17:51:03.854902 18087 net.cpp:410] inception_5b/3x3_reduce <- inception_5a/output_inception_5a/output_0_split_1
I0703 17:51:03.854909 18087 net.cpp:368] inception_5b/3x3_reduce -> inception_5b/3x3_reduce
I0703 17:51:03.854917 18087 net.cpp:120] Setting up inception_5b/3x3_reduce
I0703 17:51:03.855895 18087 net.cpp:127] Top shape: 30 192 7 7 (282240)
I0703 17:51:03.855906 18087 layer_factory.hpp:74] Creating layer inception_5b/relu_3x3_reduce
I0703 17:51:03.855914 18087 net.cpp:90] Creating Layer inception_5b/relu_3x3_reduce
I0703 17:51:03.855921 18087 net.cpp:410] inception_5b/relu_3x3_reduce <- inception_5b/3x3_reduce
I0703 17:51:03.855926 18087 net.cpp:357] inception_5b/relu_3x3_reduce -> inception_5b/3x3_reduce (in-place)
I0703 17:51:03.855931 18087 net.cpp:120] Setting up inception_5b/relu_3x3_reduce
I0703 17:51:03.855973 18087 net.cpp:127] Top shape: 30 192 7 7 (282240)
I0703 17:51:03.855979 18087 layer_factory.hpp:74] Creating layer inception_5b/3x3
I0703 17:51:03.855986 18087 net.cpp:90] Creating Layer inception_5b/3x3
I0703 17:51:03.855991 18087 net.cpp:410] inception_5b/3x3 <- inception_5b/3x3_reduce
I0703 17:51:03.855998 18087 net.cpp:368] inception_5b/3x3 -> inception_5b/3x3
I0703 17:51:03.856014 18087 net.cpp:120] Setting up inception_5b/3x3
I0703 17:51:03.860153 18087 net.cpp:127] Top shape: 30 384 7 7 (564480)
I0703 17:51:03.860172 18087 layer_factory.hpp:74] Creating layer inception_5b/relu_3x3
I0703 17:51:03.860194 18087 net.cpp:90] Creating Layer inception_5b/relu_3x3
I0703 17:51:03.860201 18087 net.cpp:410] inception_5b/relu_3x3 <- inception_5b/3x3
I0703 17:51:03.860208 18087 net.cpp:357] inception_5b/relu_3x3 -> inception_5b/3x3 (in-place)
I0703 17:51:03.860214 18087 net.cpp:120] Setting up inception_5b/relu_3x3
I0703 17:51:03.860329 18087 net.cpp:127] Top shape: 30 384 7 7 (564480)
I0703 17:51:03.860339 18087 layer_factory.hpp:74] Creating layer inception_5b/5x5_reduce
I0703 17:51:03.860347 18087 net.cpp:90] Creating Layer inception_5b/5x5_reduce
I0703 17:51:03.860353 18087 net.cpp:410] inception_5b/5x5_reduce <- inception_5a/output_inception_5a/output_0_split_2
I0703 17:51:03.860360 18087 net.cpp:368] inception_5b/5x5_reduce -> inception_5b/5x5_reduce
I0703 17:51:03.860368 18087 net.cpp:120] Setting up inception_5b/5x5_reduce
I0703 17:51:03.860784 18087 net.cpp:127] Top shape: 30 48 7 7 (70560)
I0703 17:51:03.860795 18087 layer_factory.hpp:74] Creating layer inception_5b/relu_5x5_reduce
I0703 17:51:03.860802 18087 net.cpp:90] Creating Layer inception_5b/relu_5x5_reduce
I0703 17:51:03.860808 18087 net.cpp:410] inception_5b/relu_5x5_reduce <- inception_5b/5x5_reduce
I0703 17:51:03.860815 18087 net.cpp:357] inception_5b/relu_5x5_reduce -> inception_5b/5x5_reduce (in-place)
I0703 17:51:03.860821 18087 net.cpp:120] Setting up inception_5b/relu_5x5_reduce
I0703 17:51:03.860862 18087 net.cpp:127] Top shape: 30 48 7 7 (70560)
I0703 17:51:03.860868 18087 layer_factory.hpp:74] Creating layer inception_5b/5x5
I0703 17:51:03.860877 18087 net.cpp:90] Creating Layer inception_5b/5x5
I0703 17:51:03.860882 18087 net.cpp:410] inception_5b/5x5 <- inception_5b/5x5_reduce
I0703 17:51:03.860888 18087 net.cpp:368] inception_5b/5x5 -> inception_5b/5x5
I0703 17:51:03.860895 18087 net.cpp:120] Setting up inception_5b/5x5
I0703 17:51:03.861860 18087 net.cpp:127] Top shape: 30 128 7 7 (188160)
I0703 17:51:03.861871 18087 layer_factory.hpp:74] Creating layer inception_5b/relu_5x5
I0703 17:51:03.861877 18087 net.cpp:90] Creating Layer inception_5b/relu_5x5
I0703 17:51:03.861882 18087 net.cpp:410] inception_5b/relu_5x5 <- inception_5b/5x5
I0703 17:51:03.861888 18087 net.cpp:357] inception_5b/relu_5x5 -> inception_5b/5x5 (in-place)
I0703 17:51:03.861896 18087 net.cpp:120] Setting up inception_5b/relu_5x5
I0703 17:51:03.861937 18087 net.cpp:127] Top shape: 30 128 7 7 (188160)
I0703 17:51:03.861944 18087 layer_factory.hpp:74] Creating layer inception_5b/pool
I0703 17:51:03.861949 18087 layer_factory.cpp:55] CUDNN does not support padding or multiple tops. Using Caffe's own pooling layer.
I0703 17:51:03.861956 18087 net.cpp:90] Creating Layer inception_5b/pool
I0703 17:51:03.861961 18087 net.cpp:410] inception_5b/pool <- inception_5a/output_inception_5a/output_0_split_3
I0703 17:51:03.861968 18087 net.cpp:368] inception_5b/pool -> inception_5b/pool
I0703 17:51:03.861974 18087 net.cpp:120] Setting up inception_5b/pool
I0703 17:51:03.861981 18087 net.cpp:127] Top shape: 30 832 7 7 (1223040)
I0703 17:51:03.861986 18087 layer_factory.hpp:74] Creating layer inception_5b/pool_proj
I0703 17:51:03.861994 18087 net.cpp:90] Creating Layer inception_5b/pool_proj
I0703 17:51:03.861997 18087 net.cpp:410] inception_5b/pool_proj <- inception_5b/pool
I0703 17:51:03.862004 18087 net.cpp:368] inception_5b/pool_proj -> inception_5b/pool_proj
I0703 17:51:03.862010 18087 net.cpp:120] Setting up inception_5b/pool_proj
I0703 17:51:03.862753 18087 net.cpp:127] Top shape: 30 128 7 7 (188160)
I0703 17:51:03.862764 18087 layer_factory.hpp:74] Creating layer inception_5b/relu_pool_proj
I0703 17:51:03.862771 18087 net.cpp:90] Creating Layer inception_5b/relu_pool_proj
I0703 17:51:03.862777 18087 net.cpp:410] inception_5b/relu_pool_proj <- inception_5b/pool_proj
I0703 17:51:03.862782 18087 net.cpp:357] inception_5b/relu_pool_proj -> inception_5b/pool_proj (in-place)
I0703 17:51:03.862788 18087 net.cpp:120] Setting up inception_5b/relu_pool_proj
I0703 17:51:03.862898 18087 net.cpp:127] Top shape: 30 128 7 7 (188160)
I0703 17:51:03.862915 18087 layer_factory.hpp:74] Creating layer inception_5b/output
I0703 17:51:03.862922 18087 net.cpp:90] Creating Layer inception_5b/output
I0703 17:51:03.862926 18087 net.cpp:410] inception_5b/output <- inception_5b/1x1
I0703 17:51:03.862932 18087 net.cpp:410] inception_5b/output <- inception_5b/3x3
I0703 17:51:03.862937 18087 net.cpp:410] inception_5b/output <- inception_5b/5x5
I0703 17:51:03.862941 18087 net.cpp:410] inception_5b/output <- inception_5b/pool_proj
I0703 17:51:03.862947 18087 net.cpp:368] inception_5b/output -> inception_5b/output
I0703 17:51:03.862953 18087 net.cpp:120] Setting up inception_5b/output
I0703 17:51:03.862961 18087 net.cpp:127] Top shape: 30 1024 7 7 (1505280)
I0703 17:51:03.862965 18087 layer_factory.hpp:74] Creating layer pool5/7x7_s1
I0703 17:51:03.862972 18087 net.cpp:90] Creating Layer pool5/7x7_s1
I0703 17:51:03.862977 18087 net.cpp:410] pool5/7x7_s1 <- inception_5b/output
I0703 17:51:03.862982 18087 net.cpp:368] pool5/7x7_s1 -> pool5/7x7_s1
I0703 17:51:03.862988 18087 net.cpp:120] Setting up pool5/7x7_s1
I0703 17:51:03.863031 18087 net.cpp:127] Top shape: 30 1024 1 1 (30720)
I0703 17:51:03.863039 18087 layer_factory.hpp:74] Creating layer pool5/drop_7x7_s1
I0703 17:51:03.863045 18087 net.cpp:90] Creating Layer pool5/drop_7x7_s1
I0703 17:51:03.863050 18087 net.cpp:410] pool5/drop_7x7_s1 <- pool5/7x7_s1
I0703 17:51:03.863055 18087 net.cpp:357] pool5/drop_7x7_s1 -> pool5/7x7_s1 (in-place)
I0703 17:51:03.863061 18087 net.cpp:120] Setting up pool5/drop_7x7_s1
I0703 17:51:03.863068 18087 net.cpp:127] Top shape: 30 1024 1 1 (30720)
I0703 17:51:03.863072 18087 layer_factory.hpp:74] Creating layer stanford_cars_loss3/classifier
I0703 17:51:03.863080 18087 net.cpp:90] Creating Layer stanford_cars_loss3/classifier
I0703 17:51:03.863085 18087 net.cpp:410] stanford_cars_loss3/classifier <- pool5/7x7_s1
I0703 17:51:03.863091 18087 net.cpp:368] stanford_cars_loss3/classifier -> stanford_cars_loss3/classifier
I0703 17:51:03.863097 18087 net.cpp:120] Setting up stanford_cars_loss3/classifier
I0703 17:51:03.864107 18087 net.cpp:127] Top shape: 30 196 (5880)
I0703 17:51:03.864116 18087 layer_factory.hpp:74] Creating layer loss3/loss3
I0703 17:51:03.864123 18087 net.cpp:90] Creating Layer loss3/loss3
I0703 17:51:03.864127 18087 net.cpp:410] loss3/loss3 <- stanford_cars_loss3/classifier
I0703 17:51:03.864133 18087 net.cpp:410] loss3/loss3 <- label_data_1_split_2
I0703 17:51:03.864140 18087 net.cpp:368] loss3/loss3 -> loss3/loss3
I0703 17:51:03.864146 18087 net.cpp:120] Setting up loss3/loss3
…
I0703 17:51:03.868468 18087 net.cpp:287] The NetState phase (1) differed from the phase (0) specified by a rule in layer data
I0703 17:51:03.869235 18087 net.cpp:42] Initializing net from parameters: 
name: "GoogleNet"
state {
  phase: TEST
}
layer {
  name: "data"
  type: "Data"
  top: "data"
  top: "label"
  include {
    phase: TEST
  }
  transform_param {
    mirror: false
    crop_size: 224
    mean_value: 104
    mean_value: 117
    mean_value: 123
  }
  data_param {
    source: "examples/stanford_cars/stanford_cars_val_lmdb"
    batch_size: 10
    backend: LMDB
  }
}
layer {
  name: "conv1/7x7_s2"
  type: "Convolution"
  bottom: "data"
  top: "conv1/7x7_s2"
  param {
    lr_mult: 1
    decay_mult: 1
  }
  param {
    lr_mult: 2
    decay_mult: 0
  }
  convolution_param {
    num_output: 64
    pad: 3
    kernel_size: 7
    stride: 2
    weight_filler {
      type: "xavier"
      std: 0.1
    }
    bias_filler {
      type: "constant"
      value: 0.2
    }
  }
}
layer {
  name: "conv1/relu_7x7"
  type: "ReLU"
  bottom: "conv1/7x7_s2"
  top: "conv1/7x7_s2"
}
layer {
  name: "pool1/3x3_s2"
  type: "Pooling"
  bottom: "conv1/7x7_s2"
  top: "pool1/3x3_s2"
  pooling_param {
    pool: MAX
    kernel_size: 3
    stride: 2
  }
}
layer {
  name: "pool1/norm1"
  type: "LRN"
  bottom: "pool1/3x3_s2"
  top: "pool1/norm1"
  lrn_param {
    local_size: 5
    alpha: 0.0001
    beta: 0.75
  }
}
layer {
  name: "conv2/3x3_reduce"
  type: "Convolution"
  bottom: "pool1/norm1"
  top: "conv2/3x3_reduce"
  param {
    lr_mult: 1
    decay_mult: 1
  }
  param {
    lr_mult: 2
    decay_mult: 0
  }
  convolution_param {
    num_output: 64
    kernel_size: 1
    weight_filler {
      type: "xavier"
      std: 0.1
    }
    bias_filler {
      type: "constant"
      value: 0.2
    }
  }
}
layer {
  name: "conv2/relu_3x3_reduce"
  type: "ReLU"
  bottom: "conv2/3x3_reduce"
  top: "conv2/3x3_reduce"
}
layer {
  name: "conv2/3x3"
  type: "Convolution"
  bottom: "conv2/3x3_reduce"
  top: "conv2/3x3"
  param {
    lr_mult: 1
    decay_mult: 1
  }
  param {
    lr_mult: 2
    decay_mult: 0
  }
  convolution_param {
    num_output: 192
    pad: 1
    kernel_size: 3
    weight_filler {
      type: "xavier"
      std: 0.03
    }
    bias_filler {
      type: "constant"
      value: 0.2
    }
  }
}
layer {
  name: "conv2/relu_3x3"
  type: "ReLU"
  bottom: "conv2/3x3"
  top: "conv2/3x3"
}
layer {
  name: "conv2/norm2"
  type: "LRN"
  bottom: "conv2/3x3"
  top: "conv2/norm2"
  lrn_param {
    local_size: 5
    alpha: 0.0001
    beta: 0.75
  }
}
layer {
  name: "pool2/3x3_s2"
  type: "Pooling"
  bottom: "conv2/norm2"
  top: "pool2/3x3_s2"
  pooling_param {
    pool: MAX
    kernel_size: 3
    stride: 2
  }
}
layer {
  name: "inception_3a/1x1"
  type: "Convolution"
  bottom: "pool2/3x3_s2"
  top: "inception_3a/1x1"
  param {
    lr_mult: 1
    decay_mult: 1
  }
  param {
    lr_mult: 2
    decay_mult: 0
  }
  convolution_param {
    num_output: 64
    kernel_size: 1
    weight_filler {
      type: "xavier"
      std: 0.03
    }
    bias_filler {
      type: "constant"
      value: 0.2
    }
  }
}
layer {
  name: "inception_3a/relu_1x1"
  type: "ReLU"
  bottom: "inception_3a/1x1"
  top: "inception_3a/1x1"
}
layer {
  name: "inception_3a/3x3_reduce"
  type: "Convolution"
  bottom: "pool2/3x3_s2"
  top: "inception_3a/3x3_reduce"
  param {
    lr_mult: 1
    decay_mult: 1
  }
  param {
    lr_mult: 2
    decay_mult: 0
  }
  convolution_param {
    num_output: 96
    kernel_size: 1
    weight_filler {
      type: "xavier"
      std: 0.09
    }
    bias_filler {
      type: "constant"
      value: 0.2
    }
  }
}
layer {
  name: "inception_3a/relu_3x3_reduce"
  type: "ReLU"
  bottom: "inception_3a/3x3_reduce"
  top: "inception_3a/3x3_reduce"
}
layer {
  name: "inception_3a/3x3"
  type: "Convolution"
  bottom: "inception_3a/3x3_reduce"
  top: "inception_3a/3x3"
  param {
    lr_mult: 1
    decay_mult: 1
  }
  param {
    lr_mult: 2
    decay_mult: 0
  }
  convolution_param {
    num_output: 128
    pad: 1
    kernel_size: 3
    weight_filler {
      type: "xavier"
      std: 0.03
    }
    bias_filler {
      type: "constant"
      value: 0.2
    }
  }
}
layer {
  name: "inception_3a/relu_3x3"
  type: "ReLU"
  bottom: "inception_3a/3x3"
  top: "inception_3a/3x3"
}
layer {
  name: "inception_3a/5x5_reduce"
  type: "Convolution"
  bottom: "pool2/3x3_s2"
  top: "inception_3a/5x5_reduce"
  param {
    lr_mult: 1
    decay_mult: 1
  }
  param {
    lr_mult: 2
    decay_mult: 0
  }
  convolution_param {
    num_output: 16
    kernel_size: 1
    weight_filler {
      type: "xavier"
      std: 0.2
    }
    bias_filler {
      type: "constant"
      value: 0.2
    }
  }
}
layer {
  name: "inception_3a/relu_5x5_reduce"
  type: "ReLU"
  bottom: "inception_3a/5x5_reduce"
  top: "inception_3a/5x5_reduce"
}
layer {
  name: "inception_3a/5x5"
  type: "Convolution"
  bottom: "inception_3a/5x5_reduce"
  top: "inception_3a/5x5"
  param {
    lr_mult: 1
    decay_mult: 1
  }
  param {
    lr_mult: 2
    decay_mult: 0
  }
  convolution_param {
    num_output: 32
    pad: 2
    kernel_size: 5
    weight_filler {
      type: "xavier"
      std: 0.03
    }
    bias_filler {
      type: "constant"
      value: 0.2
    }
  }
}
layer {
  name: "inception_3a/relu_5x5"
  type: "ReLU"
  bottom: "inception_3a/5x5"
  top: "inception_3a/5x5"
}
layer {
  name: "inception_3a/pool"
  type: "Pooling"
  bottom: "pool2/3x3_s2"
  top: "inception_3a/pool"
  pooling_param {
    pool: MAX
    kernel_size: 3
    stride: 1
    pad: 1
  }
}
layer {
  name: "inception_3a/pool_proj"
  type: "Convolution"
  bottom: "inception_3a/pool"
  top: "inception_3a/pool_proj"
  param {
    lr_mult: 1
    decay_mult: 1
  }
  param {
    lr_mult: 2
    decay_mult: 0
  }
  convolution_param {
    num_output: 32
    kernel_size: 1
    weight_filler {
      type: "xavier"
      std: 0.1
    }
    bias_filler {
      type: "constant"
      value: 0.2
    }
  }
}
layer {
  name: "inception_3a/relu_pool_proj"
  type: "ReLU"
  bottom: "inception_3a/pool_proj"
  top: "inception_3a/pool_proj"
}
layer {
  name: "inception_3a/output"
  type: "Concat"
  bottom: "inception_3a/1x1"
  bottom: "inception_3a/3x3"
  bottom: "inception_3a/5x5"
  bottom: "inception_3a/pool_proj"
  top: "inception_3a/output"
}
layer {
  name: "inception_3b/1x1"
  type: "Convolution"
  bottom: "inception_3a/output"
  top: "inception_3b/1x1"
  param {
    lr_mult: 1
    decay_mult: 1
  }
  param {
    lr_mult: 2
    decay_mult: 0
  }
  convolution_param {
    num_output: 128
    kernel_size: 1
    weight_filler {
      type: "xavier"
      std: 0.03
    }
    bias_filler {
      type: "constant"
      value: 0.2
    }
  }
}
layer {
  name: "inception_3b/relu_1x1"
  type: "ReLU"
  bottom: "inception_3b/1x1"
  top: "inception_3b/1x1"
}
layer {
  name: "inception_3b/3x3_reduce"
  type: "Convolution"
  bottom: "inception_3a/output"
  top: "inception_3b/3x3_reduce"
  param {
    lr_mult: 1
    decay_mult: 1
  }
  param {
    lr_mult: 2
    decay_mult: 0
  }
  convolution_param {
    num_output: 128
    kernel_size: 1
    weight_filler {
      type: "xavier"
      std: 0.09
    }
    bias_filler {
      type: "constant"
      value: 0.2
    }
  }
}
layer {
  name: "inception_3b/relu_3x3_reduce"
  type: "ReLU"
  bottom: "inception_3b/3x3_reduce"
  top: "inception_3b/3x3_reduce"
}
layer {
  name: "inception_3b/3x3"
  type: "Convolution"
  bottom: "inception_3b/3x3_reduce"
  top: "inception_3b/3x3"
  param {
    lr_mult: 1
    decay_mult: 1
  }
  param {
    lr_mult: 2
    decay_mult: 0
  }
  convolution_param {
    num_output: 192
    pad: 1
    kernel_size: 3
    weight_filler {
      type: "xavier"
      std: 0.03
    }
    bias_filler {
      type: "constant"
      value: 0.2
    }
  }
}
layer {
  name: "inception_3b/relu_3x3"
  type: "ReLU"
  bottom: "inception_3b/3x3"
  top: "inception_3b/3x3"
}
layer {
  name: "inception_3b/5x5_reduce"
  type: "Convolution"
  bottom: "inception_3a/output"
  top: "inception_3b/5x5_reduce"
  param {
    lr_mult: 1
    decay_mult: 1
  }
  param {
    lr_mult: 2
    decay_mult: 0
  }
  convolution_param {
    num_output: 32
    kernel_size: 1
    weight_filler {
      type: "xavier"
      std: 0.2
    }
    bias_filler {
      type: "constant"
      value: 0.2
    }
  }
}
layer {
  name: "inception_3b/relu_5x5_reduce"
  type: "ReLU"
  bottom: "inception_3b/5x5_reduce"
  top: "inception_3b/5x5_reduce"
}
layer {
  name: "inception_3b/5x5"
  type: "Convolution"
  bottom: "inception_3b/5x5_reduce"
  top: "inception_3b/5x5"
  param {
    lr_mult: 1
    decay_mult: 1
  }
  param {
    lr_mult: 2
    decay_mult: 0
  }
  convolution_param {
    num_output: 96
    pad: 2
    kernel_size: 5
    weight_filler {
      type: "xavier"
      std: 0.03
    }
    bias_filler {
      type: "constant"
      value: 0.2
    }
  }
}
layer {
  name: "inception_3b/relu_5x5"
  type: "ReLU"
  bottom: "inception_3b/5x5"
  top: "inception_3b/5x5"
}
layer {
  name: "inception_3b/pool"
  type: "Pooling"
  bottom: "inception_3a/output"
  top: "inception_3b/pool"
  pooling_param {
    pool: MAX
    kernel_size: 3
    stride: 1
    pad: 1
  }
}
layer {
  name: "inception_3b/pool_proj"
  type: "Convolution"
  bottom: "inception_3b/pool"
  top: "inception_3b/pool_proj"
  param {
    lr_mult: 1
    decay_mult: 1
  }
  param {
    lr_mult: 2
    decay_mult: 0
  }
  convolution_param {
    num_output: 64
    kernel_size: 1
    weight_filler {
      type: "xavier"
      std: 0.1
    }
    bias_filler {
      type: "constant"
      value: 0.2
    }
  }
}
layer {
  name: "inception_3b/relu_pool_proj"
  type: "ReLU"
  bottom: "inception_3b/pool_proj"
  top: "inception_3b/pool_proj"
}
layer {
  name: "inception_3b/output"
  type: "Concat"
  bottom: "inception_3b/1x1"
  bottom: "inception_3b/3x3"
  bottom: "inception_3b/5x5"
  bottom: "inception_3b/pool_proj"
  top: "inception_3b/output"
}
layer {
  name: "pool3/3x3_s2"
  type: "Pooling"
  bottom: "inception_3b/output"
  top: "pool3/3x3_s2"
  pooling_param {
    pool: MAX
    kernel_size: 3
    stride: 2
  }
}
layer {
  name: "inception_4a/1x1"
  type: "Convolution"
  bottom: "pool3/3x3_s2"
  top: "inception_4a/1x1"
  param {
    lr_mult: 1
    decay_mult: 1
  }
  param {
    lr_mult: 2
    decay_mult: 0
  }
  convolution_param {
    num_output: 192
    kernel_size: 1
    weight_filler {
      type: "xavier"
      std: 0.03
    }
    bias_filler {
      type: "constant"
      value: 0.2
    }
  }
}
layer {
  name: "inception_4a/relu_1x1"
  type: "ReLU"
  bottom: "inception_4a/1x1"
  top: "inception_4a/1x1"
}
layer {
  name: "inception_4a/3x3_reduce"
  type: "Convolution"
  bottom: "pool3/3x3_s2"
  top: "inception_4a/3x3_reduce"
  param {
    lr_mult: 1
    decay_mult: 1
  }
  param {
    lr_mult: 2
    decay_mult: 0
  }
  convolution_param {
    num_output: 96
    kernel_size: 1
    weight_filler {
      type: "xavier"
      std: 0.09
    }
    bias_filler {
      type: "constant"
      value: 0.2
    }
  }
}
layer {
  name: "inception_4a/relu_3x3_reduce"
  type: "ReLU"
  bottom: "inception_4a/3x3_reduce"
  top: "inception_4a/3x3_reduce"
}
layer {
  name: "inception_4a/3x3"
  type: "Convolution"
  bottom: "inception_4a/3x3_reduce"
  top: "inception_4a/3x3"
  param {
    lr_mult: 1
    decay_mult: 1
  }
  param {
    lr_mult: 2
    decay_mult: 0
  }
  convolution_param {
    num_output: 208
    pad: 1
    kernel_size: 3
    weight_filler {
      type: "xavier"
      std: 0.03
    }
    bias_filler {
      type: "constant"
      value: 0.2
    }
  }
}
layer {
  name: "inception_4a/relu_3x3"
  type: "ReLU"
  bottom: "inception_4a/3x3"
  top: "inception_4a/3x3"
}
layer {
  name: "inception_4a/5x5_reduce"
  type: "Convolution"
  bottom: "pool3/3x3_s2"
  top: "inception_4a/5x5_reduce"
  param {
    lr_mult: 1
    decay_mult: 1
  }
  param {
    lr_mult: 2
    decay_mult: 0
  }
  convolution_param {
    num_output: 16
    kernel_size: 1
    weight_filler {
      type: "xavier"
      std: 0.2
    }
    bias_filler {
      type: "constant"
      value: 0.2
    }
  }
}
layer {
  name: "inception_4a/relu_5x5_reduce"
  type: "ReLU"
  bottom: "inception_4a/5x5_reduce"
  top: "inception_4a/5x5_reduce"
}
layer {
  name: "inception_4a/5x5"
  type: "Convolution"
  bottom: "inception_4a/5x5_reduce"
  top: "inception_4a/5x5"
  param {
    lr_mult: 1
    decay_mult: 1
  }
  param {
    lr_mult: 2
    decay_mult: 0
  }
  convolution_param {
    num_output: 48
    pad: 2
    kernel_size: 5
    weight_filler {
      type: "xavier"
      std: 0.03
    }
    bias_filler {
      type: "constant"
      value: 0.2
    }
  }
}
layer {
  name: "inception_4a/relu_5x5"
  type: "ReLU"
  bottom: "inception_4a/5x5"
  top: "inception_4a/5x5"
}
layer {
  name: "inception_4a/pool"
  type: "Pooling"
  bottom: "pool3/3x3_s2"
  top: "inception_4a/pool"
  pooling_param {
    pool: MAX
    kernel_size: 3
    stride: 1
    pad: 1
  }
}
layer {
  name: "inception_4a/pool_proj"
  type: "Convolution"
  bottom: "inception_4a/pool"
  top: "inception_4a/pool_proj"
  param {
    lr_mult: 1
    decay_mult: 1
  }
  param {
    lr_mult: 2
    decay_mult: 0
  }
  convolution_param {
    num_output: 64
    kernel_size: 1
    weight_filler {
      type: "xavier"
      std: 0.1
    }
    bias_filler {
      type: "constant"
      value: 0.2
    }
  }
}
layer {
  name: "inception_4a/relu_pool_proj"
  type: "ReLU"
  bottom: "inception_4a/pool_proj"
  top: "inception_4a/pool_proj"
}
layer {
  name: "inception_4a/output"
  type: "Concat"
  bottom: "inception_4a/1x1"
  bottom: "inception_4a/3x3"
  bottom: "inception_4a/5x5"
  bottom: "inception_4a/pool_proj"
  top: "inception_4a/output"
}
layer {
  name: "loss1/ave_pool"
  type: "Pooling"
  bottom: "inception_4a/output"
  top: "loss1/ave_pool"
  pooling_param {
    pool: AVE
    kernel_size: 5
    stride: 3
  }
}
layer {
  name: "loss1/conv"
  type: "Convolution"
  bottom: "loss1/ave_pool"
  top: "loss1/conv"
  param {
    lr_mult: 1
    decay_mult: 1
  }
  param {
    lr_mult: 2
    decay_mult: 0
  }
  convolution_param {
    num_output: 128
    kernel_size: 1
    weight_filler {
      type: "xavier"
      std: 0.08
    }
    bias_filler {
      type: "constant"
      value: 0.2
    }
  }
}
layer {
  name: "loss1/relu_conv"
  type: "ReLU"
  bottom: "loss1/conv"
  top: "loss1/conv"
}
layer {
  name: "loss1/fc"
  type: "InnerProduct"
  bottom: "loss1/conv"
  top: "loss1/fc"
  param {
    lr_mult: 1
    decay_mult: 1
  }
  param {
    lr_mult: 2
    decay_mult: 0
  }
  inner_product_param {
    num_output: 1024
    weight_filler {
      type: "xavier"
      std: 0.02
    }
    bias_filler {
      type: "constant"
      value: 0.2
    }
  }
}
layer {
  name: "loss1/relu_fc"
  type: "ReLU"
  bottom: "loss1/fc"
  top: "loss1/fc"
}
layer {
  name: "loss1/drop_fc"
  type: "Dropout"
  bottom: "loss1/fc"
  top: "loss1/fc"
  dropout_param {
    dropout_ratio: 0.7
  }
}
layer {
  name: "stanford_cars_loss1/classifier"
  type: "InnerProduct"
  bottom: "loss1/fc"
  top: "stanford_cars_loss1/classifier"
  param {
    lr_mult: 1
    decay_mult: 1
  }
  param {
    lr_mult: 2
    decay_mult: 0
  }
  inner_product_param {
    num_output: 196
    weight_filler {
      type: "xavier"
      std: 0.0009765625
    }
    bias_filler {
      type: "constant"
      value: 0
    }
  }
}
layer {
  name: "loss1/loss"
  type: "SoftmaxWithLoss"
  bottom: "stanford_cars_loss1/classifier"
  bottom: "label"
  top: "loss1/loss1"
  loss_weight: 0.3
}
layer {
  name: "loss1/top-1"
  type: "Accuracy"
  bottom: "stanford_cars_loss1/classifier"
  bottom: "label"
  top: "loss1/top-1"
  include {
    phase: TEST
  }
}
layer {
  name: "loss1/top-5"
  type: "Accuracy"
  bottom: "stanford_cars_loss1/classifier"
  bottom: "label"
  top: "loss1/top-5"
  include {
    phase: TEST
  }
  accuracy_param {
    top_k: 5
  }
}
layer {
  name: "inception_4b/1x1"
  type: "Convolution"
  bottom: "inception_4a/output"
  top: "inception_4b/1x1"
  param {
    lr_mult: 1
    decay_mult: 1
  }
  param {
    lr_mult: 2
    decay_mult: 0
  }
  convolution_param {
    num_output: 160
    kernel_size: 1
    weight_filler {
      type: "xavier"
      std: 0.03
    }
    bias_filler {
      type: "constant"
      value: 0.2
    }
  }
}
layer {
  name: "inception_4b/relu_1x1"
  type: "ReLU"
  bottom: "inception_4b/1x1"
  top: "inception_4b/1x1"
}
layer {
  name: "inception_4b/3x3_reduce"
  type: "Convolution"
  bottom: "inception_4a/output"
  top: "inception_4b/3x3_reduce"
  param {
    lr_mult: 1
    decay_mult: 1
  }
  param {
    lr_mult: 2
    decay_mult: 0
  }
  convolution_param {
    num_output: 112
    kernel_size: 1
    weight_filler {
      type: "xavier"
      std: 0.09
    }
    bias_filler {
      type: "constant"
      value: 0.2
    }
  }
}
layer {
  name: "inception_4b/relu_3x3_reduce"
  type: "ReLU"
  bottom: "inception_4b/3x3_reduce"
  top: "inception_4b/3x3_reduce"
}
layer {
  name: "inception_4b/3x3"
  type: "Convolution"
  bottom: "inception_4b/3x3_reduce"
  top: "inception_4b/3x3"
  param {
    lr_mult: 1
    decay_mult: 1
  }
  param {
    lr_mult: 2
    decay_mult: 0
  }
  convolution_param {
    num_output: 224
    pad: 1
    kernel_size: 3
    weight_filler {
      type: "xavier"
      std: 0.03
    }
    bias_filler {
      type: "constant"
      value: 0.2
    }
  }
}
layer {
  name: "inception_4b/relu_3x3"
  type: "ReLU"
  bottom: "inception_4b/3x3"
  top: "inception_4b/3x3"
}
layer {
  name: "inception_4b/5x5_reduce"
  type: "Convolution"
  bottom: "inception_4a/output"
  top: "inception_4b/5x5_reduce"
  param {
    lr_mult: 1
    decay_mult: 1
  }
  param {
    lr_mult: 2
    decay_mult: 0
  }
  convolution_param {
    num_output: 24
    kernel_size: 1
    weight_filler {
      type: "xavier"
      std: 0.2
    }
    bias_filler {
      type: "constant"
      value: 0.2
    }
  }
}
layer {
  name: "inception_4b/relu_5x5_reduce"
  type: "ReLU"
  bottom: "inception_4b/5x5_reduce"
  top: "inception_4b/5x5_reduce"
}
layer {
  name: "inception_4b/5x5"
  type: "Convolution"
  bottom: "inception_4b/5x5_reduce"
  top: "inception_4b/5x5"
  param {
    lr_mult: 1
    decay_mult: 1
  }
  param {
    lr_mult: 2
    decay_mult: 0
  }
  convolution_param {
    num_output: 64
    pad: 2
    kernel_size: 5
    weight_filler {
      type: "xavier"
      std: 0.03
    }
    bias_filler {
      type: "constant"
      value: 0.2
    }
  }
}
layer {
  name: "inception_4b/relu_5x5"
  type: "ReLU"
  bottom: "inception_4b/5x5"
  top: "inception_4b/5x5"
}
layer {
  name: "inception_4b/pool"
  type: "Pooling"
  bottom: "inception_4a/output"
  top: "inception_4b/pool"
  pooling_param {
    pool: MAX
    kernel_size: 3
    stride: 1
    pad: 1
  }
}
layer {
  name: "inception_4b/pool_proj"
  type: "Convolution"
  bottom: "inception_4b/pool"
  top: "inception_4b/pool_proj"
  param {
    lr_mult: 1
    decay_mult: 1
  }
  param {
    lr_mult: 2
    decay_mult: 0
  }
  convolution_param {
    num_output: 64
    kernel_size: 1
    weight_filler {
      type: "xavier"
      std: 0.1
    }
    bias_filler {
      type: "constant"
      value: 0.2
    }
  }
}
layer {
  name: "inception_4b/relu_pool_proj"
  type: "ReLU"
  bottom: "inception_4b/pool_proj"
  top: "inception_4b/pool_proj"
}
layer {
  name: "inception_4b/output"
  type: "Concat"
  bottom: "inception_4b/1x1"
  bottom: "inception_4b/3x3"
  bottom: "inception_4b/5x5"
  bottom: "inception_4b/pool_proj"
  top: "inception_4b/output"
}
layer {
  name: "inception_4c/1x1"
  type: "Convolution"
  bottom: "inception_4b/output"
  top: "inception_4c/1x1"
  param {
    lr_mult: 1
    decay_mult: 1
  }
  param {
    lr_mult: 2
    decay_mult: 0
  }
  convolution_param {
    num_output: 128
    kernel_size: 1
    weight_filler {
      type: "xavier"
      std: 0.03
    }
    bias_filler {
      type: "constant"
      value: 0.2
    }
  }
}
layer {
  name: "inception_4c/relu_1x1"
  type: "ReLU"
  bottom: "inception_4c/1x1"
  top: "inception_4c/1x1"
}
layer {
  name: "inception_4c/3x3_reduce"
  type: "Convolution"
  bottom: "inception_4b/output"
  top: "inception_4c/3x3_reduce"
  param {
    lr_mult: 1
    decay_mult: 1
  }
  param {
    lr_mult: 2
    decay_mult: 0
  }
  convolution_param {
    num_output: 128
    kernel_size: 1
    weight_filler {
      type: "xavier"
      std: 0.09
    }
    bias_filler {
      type: "constant"
      value: 0.2
    }
  }
}
layer {
  name: "inception_4c/relu_3x3_reduce"
  type: "ReLU"
  bottom: "inception_4c/3x3_reduce"
  top: "inception_4c/3x3_reduce"
}
layer {
  name: "inception_4c/3x3"
  type: "Convolution"
  bottom: "inception_4c/3x3_reduce"
  top: "inception_4c/3x3"
  param {
    lr_mult: 1
    decay_mult: 1
  }
  param {
    lr_mult: 2
    decay_mult: 0
  }
  convolution_param {
    num_output: 256
    pad: 1
    kernel_size: 3
    weight_filler {
      type: "xavier"
      std: 0.03
    }
    bias_filler {
      type: "constant"
      value: 0.2
    }
  }
}
layer {
  name: "inception_4c/relu_3x3"
  type: "ReLU"
  bottom: "inception_4c/3x3"
  top: "inception_4c/3x3"
}
layer {
  name: "inception_4c/5x5_reduce"
  type: "Convolution"
  bottom: "inception_4b/output"
  top: "inception_4c/5x5_reduce"
  param {
    lr_mult: 1
    decay_mult: 1
  }
  param {
    lr_mult: 2
    decay_mult: 0
  }
  convolution_param {
    num_output: 24
    kernel_size: 1
    weight_filler {
      type: "xavier"
      std: 0.2
    }
    bias_filler {
      type: "constant"
      value: 0.2
    }
  }
}
layer {
  name: "inception_4c/relu_5x5_reduce"
  type: "ReLU"
  bottom: "inception_4c/5x5_reduce"
  top: "inception_4c/5x5_reduce"
}
layer {
  name: "inception_4c/5x5"
  type: "Convolution"
  bottom: "inception_4c/5x5_reduce"
  top: "inception_4c/5x5"
  param {
    lr_mult: 1
    decay_mult: 1
  }
  param {
    lr_mult: 2
    decay_mult: 0
  }
  convolution_param {
    num_output: 64
    pad: 2
    kernel_size: 5
    weight_filler {
      type: "xavier"
      std: 0.03
    }
    bias_filler {
      type: "constant"
      value: 0.2
    }
  }
}
layer {
  name: "inception_4c/relu_5x5"
  type: "ReLU"
  bottom: "inception_4c/5x5"
  top: "inception_4c/5x5"
}
layer {
  name: "inception_4c/pool"
  type: "Pooling"
  bottom: "inception_4b/output"
  top: "inception_4c/pool"
  pooling_param {
    pool: MAX
    kernel_size: 3
    stride: 1
    pad: 1
  }
}
layer {
  name: "inception_4c/pool_proj"
  type: "Convolution"
  bottom: "inception_4c/pool"
  top: "inception_4c/pool_proj"
  param {
    lr_mult: 1
    decay_mult: 1
  }
  param {
    lr_mult: 2
    decay_mult: 0
  }
  convolution_param {
    num_output: 64
    kernel_size: 1
    weight_filler {
      type: "xavier"
      std: 0.1
    }
    bias_filler {
      type: "constant"
      value: 0.2
    }
  }
}
layer {
  name: "inception_4c/relu_pool_proj"
  type: "ReLU"
  bottom: "inception_4c/pool_proj"
  top: "inception_4c/pool_proj"
}
layer {
  name: "inception_4c/output"
  type: "Concat"
  bottom: "inception_4c/1x1"
  bottom: "inception_4c/3x3"
  bottom: "inception_4c/5x5"
  bottom: "inception_4c/pool_proj"
  top: "inception_4c/output"
}
layer {
  name: "inception_4d/1x1"
  type: "Convolution"
  bottom: "inception_4c/output"
  top: "inception_4d/1x1"
  param {
    lr_mult: 1
    decay_mult: 1
  }
  param {
    lr_mult: 2
    decay_mult: 0
  }
  convolution_param {
    num_output: 112
    kernel_size: 1
    weight_filler {
      type: "xavier"
      std: 0.03
    }
    bias_filler {
      type: "constant"
      value: 0.2
    }
  }
}
layer {
  name: "inception_4d/relu_1x1"
  type: "ReLU"
  bottom: "inception_4d/1x1"
  top: "inception_4d/1x1"
}
layer {
  name: "inception_4d/3x3_reduce"
  type: "Convolution"
  bottom: "inception_4c/output"
  top: "inception_4d/3x3_reduce"
  param {
    lr_mult: 1
    decay_mult: 1
  }
  param {
    lr_mult: 2
    decay_mult: 0
  }
  convolution_param {
    num_output: 144
    kernel_size: 1
    weight_filler {
      type: "xavier"
      std: 0.09
    }
    bias_filler {
      type: "constant"
      value: 0.2
    }
  }
}
layer {
  name: "inception_4d/relu_3x3_reduce"
  type: "ReLU"
  bottom: "inception_4d/3x3_reduce"
  top: "inception_4d/3x3_reduce"
}
layer {
  name: "inception_4d/3x3"
  type: "Convolution"
  bottom: "inception_4d/3x3_reduce"
  top: "inception_4d/3x3"
  param {
    lr_mult: 1
    decay_mult: 1
  }
  param {
    lr_mult: 2
    decay_mult: 0
  }
  convolution_param {
    num_output: 288
    pad: 1
    kernel_size: 3
    weight_filler {
      type: "xavier"
      std: 0.03
    }
    bias_filler {
      type: "constant"
      value: 0.2
    }
  }
}
layer {
  name: "inception_4d/relu_3x3"
  type: "ReLU"
  bottom: "inception_4d/3x3"
  top: "inception_4d/3x3"
}
layer {
  name: "inception_4d/5x5_reduce"
  type: "Convolution"
  bottom: "inception_4c/output"
  top: "inception_4d/5x5_reduce"
  param {
    lr_mult: 1
    decay_mult: 1
  }
  param {
    lr_mult: 2
    decay_mult: 0
  }
  convolution_param {
    num_output: 32
    kernel_size: 1
    weight_filler {
      type: "xavier"
      std: 0.2
    }
    bias_filler {
      type: "constant"
      value: 0.2
    }
  }
}
layer {
  name: "inception_4d/relu_5x5_reduce"
  type: "ReLU"
  bottom: "inception_4d/5x5_reduce"
  top: "inception_4d/5x5_reduce"
}
layer {
  name: "inception_4d/5x5"
  type: "Convolution"
  bottom: "inception_4d/5x5_reduce"
  top: "inception_4d/5x5"
  param {
    lr_mult: 1
    decay_mult: 1
  }
  param {
    lr_mult: 2
    decay_mult: 0
  }
  convolution_param {
    num_output: 64
    pad: 2
    kernel_size: 5
    weight_filler {
      type: "xavier"
      std: 0.03
    }
    bias_filler {
      type: "constant"
      value: 0.2
    }
  }
}
layer {
  name: "inception_4d/relu_5x5"
  type: "ReLU"
  bottom: "inception_4d/5x5"
  top: "inception_4d/5x5"
}
layer {
  name: "inception_4d/pool"
  type: "Pooling"
  bottom: "inception_4c/output"
  top: "inception_4d/pool"
  pooling_param {
    pool: MAX
    kernel_size: 3
    stride: 1
    pad: 1
  }
}
layer {
  name: "inception_4d/pool_proj"
  type: "Convolution"
  bottom: "inception_4d/pool"
  top: "inception_4d/pool_proj"
  param {
    lr_mult: 1
    decay_mult: 1
  }
  param {
    lr_mult: 2
    decay_mult: 0
  }
  convolution_param {
    num_output: 64
    kernel_size: 1
…
I0703 17:51:03.967385 18087 net.cpp:127] Top shape: 10 128 14 14 (250880)
I0703 17:51:03.967407 18087 layer_factory.hpp:74] Creating layer inception_4c/relu_1x1
I0703 17:51:03.967419 18087 net.cpp:90] Creating Layer inception_4c/relu_1x1
I0703 17:51:03.967442 18087 net.cpp:410] inception_4c/relu_1x1 <- inception_4c/1x1
I0703 17:51:03.967456 18087 net.cpp:357] inception_4c/relu_1x1 -> inception_4c/1x1 (in-place)
I0703 17:51:03.967468 18087 net.cpp:120] Setting up inception_4c/relu_1x1
I0703 17:51:03.967550 18087 net.cpp:127] Top shape: 10 128 14 14 (250880)
I0703 17:51:03.967562 18087 layer_factory.hpp:74] Creating layer inception_4c/3x3_reduce
I0703 17:51:03.967577 18087 net.cpp:90] Creating Layer inception_4c/3x3_reduce
I0703 17:51:03.967587 18087 net.cpp:410] inception_4c/3x3_reduce <- inception_4b/output_inception_4b/output_0_split_1
I0703 17:51:03.967599 18087 net.cpp:368] inception_4c/3x3_reduce -> inception_4c/3x3_reduce
I0703 17:51:03.967612 18087 net.cpp:120] Setting up inception_4c/3x3_reduce
I0703 17:51:03.968631 18087 net.cpp:127] Top shape: 10 128 14 14 (250880)
I0703 17:51:03.968654 18087 layer_factory.hpp:74] Creating layer inception_4c/relu_3x3_reduce
I0703 17:51:03.968667 18087 net.cpp:90] Creating Layer inception_4c/relu_3x3_reduce
I0703 17:51:03.968677 18087 net.cpp:410] inception_4c/relu_3x3_reduce <- inception_4c/3x3_reduce
I0703 17:51:03.968689 18087 net.cpp:357] inception_4c/relu_3x3_reduce -> inception_4c/3x3_reduce (in-place)
I0703 17:51:03.968703 18087 net.cpp:120] Setting up inception_4c/relu_3x3_reduce
I0703 17:51:03.968899 18087 net.cpp:127] Top shape: 10 128 14 14 (250880)
I0703 17:51:03.968916 18087 layer_factory.hpp:74] Creating layer inception_4c/3x3
I0703 17:51:03.968931 18087 net.cpp:90] Creating Layer inception_4c/3x3
I0703 17:51:03.968941 18087 net.cpp:410] inception_4c/3x3 <- inception_4c/3x3_reduce
I0703 17:51:03.968953 18087 net.cpp:368] inception_4c/3x3 -> inception_4c/3x3
I0703 17:51:03.968966 18087 net.cpp:120] Setting up inception_4c/3x3
I0703 17:51:03.971791 18087 net.cpp:127] Top shape: 10 256 14 14 (501760)
I0703 17:51:03.971809 18087 layer_factory.hpp:74] Creating layer inception_4c/relu_3x3
I0703 17:51:03.971817 18087 net.cpp:90] Creating Layer inception_4c/relu_3x3
I0703 17:51:03.971822 18087 net.cpp:410] inception_4c/relu_3x3 <- inception_4c/3x3
I0703 17:51:03.971827 18087 net.cpp:357] inception_4c/relu_3x3 -> inception_4c/3x3 (in-place)
I0703 17:51:03.971832 18087 net.cpp:120] Setting up inception_4c/relu_3x3
I0703 17:51:03.971874 18087 net.cpp:127] Top shape: 10 256 14 14 (501760)
I0703 17:51:03.971881 18087 layer_factory.hpp:74] Creating layer inception_4c/5x5_reduce
I0703 17:51:03.971889 18087 net.cpp:90] Creating Layer inception_4c/5x5_reduce
I0703 17:51:03.971894 18087 net.cpp:410] inception_4c/5x5_reduce <- inception_4b/output_inception_4b/output_0_split_2
I0703 17:51:03.971900 18087 net.cpp:368] inception_4c/5x5_reduce -> inception_4c/5x5_reduce
I0703 17:51:03.971907 18087 net.cpp:120] Setting up inception_4c/5x5_reduce
I0703 17:51:03.972177 18087 net.cpp:127] Top shape: 10 24 14 14 (47040)
I0703 17:51:03.972188 18087 layer_factory.hpp:74] Creating layer inception_4c/relu_5x5_reduce
I0703 17:51:03.972195 18087 net.cpp:90] Creating Layer inception_4c/relu_5x5_reduce
I0703 17:51:03.972200 18087 net.cpp:410] inception_4c/relu_5x5_reduce <- inception_4c/5x5_reduce
I0703 17:51:03.972206 18087 net.cpp:357] inception_4c/relu_5x5_reduce -> inception_4c/5x5_reduce (in-place)
I0703 17:51:03.972213 18087 net.cpp:120] Setting up inception_4c/relu_5x5_reduce
I0703 17:51:03.972254 18087 net.cpp:127] Top shape: 10 24 14 14 (47040)
I0703 17:51:03.972259 18087 layer_factory.hpp:74] Creating layer inception_4c/5x5
I0703 17:51:03.972267 18087 net.cpp:90] Creating Layer inception_4c/5x5
I0703 17:51:03.972271 18087 net.cpp:410] inception_4c/5x5 <- inception_4c/5x5_reduce
I0703 17:51:03.972278 18087 net.cpp:368] inception_4c/5x5 -> inception_4c/5x5
I0703 17:51:03.972285 18087 net.cpp:120] Setting up inception_4c/5x5
I0703 17:51:03.972681 18087 net.cpp:127] Top shape: 10 64 14 14 (125440)
I0703 17:51:03.972692 18087 layer_factory.hpp:74] Creating layer inception_4c/relu_5x5
I0703 17:51:03.972698 18087 net.cpp:90] Creating Layer inception_4c/relu_5x5
I0703 17:51:03.972710 18087 net.cpp:410] inception_4c/relu_5x5 <- inception_4c/5x5
I0703 17:51:03.972717 18087 net.cpp:357] inception_4c/relu_5x5 -> inception_4c/5x5 (in-place)
I0703 17:51:03.972723 18087 net.cpp:120] Setting up inception_4c/relu_5x5
I0703 17:51:03.972764 18087 net.cpp:127] Top shape: 10 64 14 14 (125440)
I0703 17:51:03.972771 18087 layer_factory.hpp:74] Creating layer inception_4c/pool
I0703 17:51:03.972776 18087 layer_factory.cpp:55] CUDNN does not support padding or multiple tops. Using Caffe's own pooling layer.
I0703 17:51:03.972781 18087 net.cpp:90] Creating Layer inception_4c/pool
I0703 17:51:03.972786 18087 net.cpp:410] inception_4c/pool <- inception_4b/output_inception_4b/output_0_split_3
I0703 17:51:03.972792 18087 net.cpp:368] inception_4c/pool -> inception_4c/pool
I0703 17:51:03.972800 18087 net.cpp:120] Setting up inception_4c/pool
I0703 17:51:03.972805 18087 net.cpp:127] Top shape: 10 512 14 14 (1003520)
I0703 17:51:03.972810 18087 layer_factory.hpp:74] Creating layer inception_4c/pool_proj
I0703 17:51:03.972817 18087 net.cpp:90] Creating Layer inception_4c/pool_proj
I0703 17:51:03.972822 18087 net.cpp:410] inception_4c/pool_proj <- inception_4c/pool
I0703 17:51:03.972828 18087 net.cpp:368] inception_4c/pool_proj -> inception_4c/pool_proj
I0703 17:51:03.972834 18087 net.cpp:120] Setting up inception_4c/pool_proj
I0703 17:51:03.990007 18087 net.cpp:127] Top shape: 10 64 14 14 (125440)
I0703 17:51:03.990031 18087 layer_factory.hpp:74] Creating layer inception_4c/relu_pool_proj
I0703 17:51:03.990039 18087 net.cpp:90] Creating Layer inception_4c/relu_pool_proj
I0703 17:51:03.990047 18087 net.cpp:410] inception_4c/relu_pool_proj <- inception_4c/pool_proj
I0703 17:51:03.990053 18087 net.cpp:357] inception_4c/relu_pool_proj -> inception_4c/pool_proj (in-place)
I0703 17:51:03.990072 18087 net.cpp:120] Setting up inception_4c/relu_pool_proj
I0703 17:51:03.990218 18087 net.cpp:127] Top shape: 10 64 14 14 (125440)
I0703 17:51:03.990227 18087 layer_factory.hpp:74] Creating layer inception_4c/output
I0703 17:51:03.990236 18087 net.cpp:90] Creating Layer inception_4c/output
I0703 17:51:03.990252 18087 net.cpp:410] inception_4c/output <- inception_4c/1x1
I0703 17:51:03.990257 18087 net.cpp:410] inception_4c/output <- inception_4c/3x3
I0703 17:51:03.990262 18087 net.cpp:410] inception_4c/output <- inception_4c/5x5
I0703 17:51:03.990267 18087 net.cpp:410] inception_4c/output <- inception_4c/pool_proj
I0703 17:51:03.990273 18087 net.cpp:368] inception_4c/output -> inception_4c/output
I0703 17:51:03.990279 18087 net.cpp:120] Setting up inception_4c/output
I0703 17:51:03.990286 18087 net.cpp:127] Top shape: 10 512 14 14 (1003520)
I0703 17:51:03.990291 18087 layer_factory.hpp:74] Creating layer inception_4c/output_inception_4c/output_0_split
I0703 17:51:03.990309 18087 net.cpp:90] Creating Layer inception_4c/output_inception_4c/output_0_split
I0703 17:51:03.990314 18087 net.cpp:410] inception_4c/output_inception_4c/output_0_split <- inception_4c/output
I0703 17:51:03.990329 18087 net.cpp:368] inception_4c/output_inception_4c/output_0_split -> inception_4c/output_inception_4c/output_0_split_0
I0703 17:51:03.990335 18087 net.cpp:368] inception_4c/output_inception_4c/output_0_split -> inception_4c/output_inception_4c/output_0_split_1
I0703 17:51:03.990342 18087 net.cpp:368] inception_4c/output_inception_4c/output_0_split -> inception_4c/output_inception_4c/output_0_split_2
I0703 17:51:03.990348 18087 net.cpp:368] inception_4c/output_inception_4c/output_0_split -> inception_4c/output_inception_4c/output_0_split_3
I0703 17:51:03.990355 18087 net.cpp:120] Setting up inception_4c/output_inception_4c/output_0_split
I0703 17:51:03.990371 18087 net.cpp:127] Top shape: 10 512 14 14 (1003520)
I0703 17:51:03.990376 18087 net.cpp:127] Top shape: 10 512 14 14 (1003520)
I0703 17:51:03.990381 18087 net.cpp:127] Top shape: 10 512 14 14 (1003520)
I0703 17:51:03.990386 18087 net.cpp:127] Top shape: 10 512 14 14 (1003520)
I0703 17:51:03.990391 18087 layer_factory.hpp:74] Creating layer inception_4d/1x1
I0703 17:51:03.990397 18087 net.cpp:90] Creating Layer inception_4d/1x1
I0703 17:51:03.990437 18087 net.cpp:410] inception_4d/1x1 <- inception_4c/output_inception_4c/output_0_split_0
I0703 17:51:03.990449 18087 net.cpp:368] inception_4d/1x1 -> inception_4d/1x1
I0703 17:51:03.990470 18087 net.cpp:120] Setting up inception_4d/1x1
I0703 17:51:03.991041 18087 net.cpp:127] Top shape: 10 112 14 14 (219520)
I0703 17:51:03.991055 18087 layer_factory.hpp:74] Creating layer inception_4d/relu_1x1
I0703 17:51:03.991062 18087 net.cpp:90] Creating Layer inception_4d/relu_1x1
I0703 17:51:03.991076 18087 net.cpp:410] inception_4d/relu_1x1 <- inception_4d/1x1
I0703 17:51:03.991082 18087 net.cpp:357] inception_4d/relu_1x1 -> inception_4d/1x1 (in-place)
I0703 17:51:03.991089 18087 net.cpp:120] Setting up inception_4d/relu_1x1
I0703 17:51:03.991142 18087 net.cpp:127] Top shape: 10 112 14 14 (219520)
I0703 17:51:03.991148 18087 layer_factory.hpp:74] Creating layer inception_4d/3x3_reduce
I0703 17:51:03.991156 18087 net.cpp:90] Creating Layer inception_4d/3x3_reduce
I0703 17:51:03.991163 18087 net.cpp:410] inception_4d/3x3_reduce <- inception_4c/output_inception_4c/output_0_split_1
I0703 17:51:03.991168 18087 net.cpp:368] inception_4d/3x3_reduce -> inception_4d/3x3_reduce
I0703 17:51:03.991175 18087 net.cpp:120] Setting up inception_4d/3x3_reduce
I0703 17:51:03.993868 18087 net.cpp:127] Top shape: 10 144 14 14 (282240)
I0703 17:51:03.993937 18087 layer_factory.hpp:74] Creating layer inception_4d/relu_3x3_reduce
I0703 17:51:03.993973 18087 net.cpp:90] Creating Layer inception_4d/relu_3x3_reduce
I0703 17:51:03.994001 18087 net.cpp:410] inception_4d/relu_3x3_reduce <- inception_4d/3x3_reduce
I0703 17:51:03.994036 18087 net.cpp:357] inception_4d/relu_3x3_reduce -> inception_4d/3x3_reduce (in-place)
I0703 17:51:03.994071 18087 net.cpp:120] Setting up inception_4d/relu_3x3_reduce
I0703 17:51:03.994302 18087 net.cpp:127] Top shape: 10 144 14 14 (282240)
I0703 17:51:03.994336 18087 layer_factory.hpp:74] Creating layer inception_4d/3x3
I0703 17:51:03.994377 18087 net.cpp:90] Creating Layer inception_4d/3x3
I0703 17:51:03.994405 18087 net.cpp:410] inception_4d/3x3 <- inception_4d/3x3_reduce
I0703 17:51:03.994441 18087 net.cpp:368] inception_4d/3x3 -> inception_4d/3x3
I0703 17:51:03.994478 18087 net.cpp:120] Setting up inception_4d/3x3
I0703 17:51:04.003792 18087 net.cpp:127] Top shape: 10 288 14 14 (564480)
I0703 17:51:04.003805 18087 layer_factory.hpp:74] Creating layer inception_4d/relu_3x3
I0703 17:51:04.003813 18087 net.cpp:90] Creating Layer inception_4d/relu_3x3
I0703 17:51:04.003818 18087 net.cpp:410] inception_4d/relu_3x3 <- inception_4d/3x3
I0703 17:51:04.003823 18087 net.cpp:357] inception_4d/relu_3x3 -> inception_4d/3x3 (in-place)
I0703 17:51:04.003829 18087 net.cpp:120] Setting up inception_4d/relu_3x3
I0703 17:51:04.003944 18087 net.cpp:127] Top shape: 10 288 14 14 (564480)
I0703 17:51:04.003954 18087 layer_factory.hpp:74] Creating layer inception_4d/5x5_reduce
I0703 17:51:04.003962 18087 net.cpp:90] Creating Layer inception_4d/5x5_reduce
I0703 17:51:04.003968 18087 net.cpp:410] inception_4d/5x5_reduce <- inception_4c/output_inception_4c/output_0_split_2
I0703 17:51:04.003975 18087 net.cpp:368] inception_4d/5x5_reduce -> inception_4d/5x5_reduce
I0703 17:51:04.003983 18087 net.cpp:120] Setting up inception_4d/5x5_reduce
I0703 17:51:04.004274 18087 net.cpp:127] Top shape: 10 32 14 14 (62720)
I0703 17:51:04.004286 18087 layer_factory.hpp:74] Creating layer inception_4d/relu_5x5_reduce
I0703 17:51:04.004293 18087 net.cpp:90] Creating Layer inception_4d/relu_5x5_reduce
I0703 17:51:04.004298 18087 net.cpp:410] inception_4d/relu_5x5_reduce <- inception_4d/5x5_reduce
I0703 17:51:04.004303 18087 net.cpp:357] inception_4d/relu_5x5_reduce -> inception_4d/5x5_reduce (in-place)
I0703 17:51:04.004310 18087 net.cpp:120] Setting up inception_4d/relu_5x5_reduce
I0703 17:51:04.004354 18087 net.cpp:127] Top shape: 10 32 14 14 (62720)
I0703 17:51:04.004359 18087 layer_factory.hpp:74] Creating layer inception_4d/5x5
I0703 17:51:04.004366 18087 net.cpp:90] Creating Layer inception_4d/5x5
I0703 17:51:04.004379 18087 net.cpp:410] inception_4d/5x5 <- inception_4d/5x5_reduce
I0703 17:51:04.004389 18087 net.cpp:368] inception_4d/5x5 -> inception_4d/5x5
I0703 17:51:04.004395 18087 net.cpp:120] Setting up inception_4d/5x5
I0703 17:51:04.004854 18087 net.cpp:127] Top shape: 10 64 14 14 (125440)
I0703 17:51:04.004865 18087 layer_factory.hpp:74] Creating layer inception_4d/relu_5x5
I0703 17:51:04.004873 18087 net.cpp:90] Creating Layer inception_4d/relu_5x5
I0703 17:51:04.004878 18087 net.cpp:410] inception_4d/relu_5x5 <- inception_4d/5x5
I0703 17:51:04.004884 18087 net.cpp:357] inception_4d/relu_5x5 -> inception_4d/5x5 (in-place)
I0703 17:51:04.004889 18087 net.cpp:120] Setting up inception_4d/relu_5x5
I0703 17:51:04.004933 18087 net.cpp:127] Top shape: 10 64 14 14 (125440)
I0703 17:51:04.004940 18087 layer_factory.hpp:74] Creating layer inception_4d/pool
I0703 17:51:04.004945 18087 layer_factory.cpp:55] CUDNN does not support padding or multiple tops. Using Caffe's own pooling layer.
I0703 17:51:04.004951 18087 net.cpp:90] Creating Layer inception_4d/pool
I0703 17:51:04.004956 18087 net.cpp:410] inception_4d/pool <- inception_4c/output_inception_4c/output_0_split_3
I0703 17:51:04.004961 18087 net.cpp:368] inception_4d/pool -> inception_4d/pool
I0703 17:51:04.004967 18087 net.cpp:120] Setting up inception_4d/pool
I0703 17:51:04.004976 18087 net.cpp:127] Top shape: 10 512 14 14 (1003520)
I0703 17:51:04.004979 18087 layer_factory.hpp:74] Creating layer inception_4d/pool_proj
I0703 17:51:04.004987 18087 net.cpp:90] Creating Layer inception_4d/pool_proj
I0703 17:51:04.004990 18087 net.cpp:410] inception_4d/pool_proj <- inception_4d/pool
I0703 17:51:04.004997 18087 net.cpp:368] inception_4d/pool_proj -> inception_4d/pool_proj
I0703 17:51:04.005003 18087 net.cpp:120] Setting up inception_4d/pool_proj
I0703 17:51:04.005375 18087 net.cpp:127] Top shape: 10 64 14 14 (125440)
I0703 17:51:04.005386 18087 layer_factory.hpp:74] Creating layer inception_4d/relu_pool_proj
I0703 17:51:04.005393 18087 net.cpp:90] Creating Layer inception_4d/relu_pool_proj
I0703 17:51:04.005399 18087 net.cpp:410] inception_4d/relu_pool_proj <- inception_4d/pool_proj
I0703 17:51:04.005404 18087 net.cpp:357] inception_4d/relu_pool_proj -> inception_4d/pool_proj (in-place)
I0703 17:51:04.005410 18087 net.cpp:120] Setting up inception_4d/relu_pool_proj
I0703 17:51:04.005453 18087 net.cpp:127] Top shape: 10 64 14 14 (125440)
I0703 17:51:04.005460 18087 layer_factory.hpp:74] Creating layer inception_4d/output
I0703 17:51:04.005467 18087 net.cpp:90] Creating Layer inception_4d/output
I0703 17:51:04.005471 18087 net.cpp:410] inception_4d/output <- inception_4d/1x1
I0703 17:51:04.005477 18087 net.cpp:410] inception_4d/output <- inception_4d/3x3
I0703 17:51:04.005481 18087 net.cpp:410] inception_4d/output <- inception_4d/5x5
I0703 17:51:04.005486 18087 net.cpp:410] inception_4d/output <- inception_4d/pool_proj
I0703 17:51:04.005491 18087 net.cpp:368] inception_4d/output -> inception_4d/output
I0703 17:51:04.005497 18087 net.cpp:120] Setting up inception_4d/output
I0703 17:51:04.005506 18087 net.cpp:127] Top shape: 10 528 14 14 (1034880)
I0703 17:51:04.005511 18087 layer_factory.hpp:74] Creating layer inception_4d/output_inception_4d/output_0_split
I0703 17:51:04.005517 18087 net.cpp:90] Creating Layer inception_4d/output_inception_4d/output_0_split
I0703 17:51:04.005520 18087 net.cpp:410] inception_4d/output_inception_4d/output_0_split <- inception_4d/output
I0703 17:51:04.005525 18087 net.cpp:368] inception_4d/output_inception_4d/output_0_split -> inception_4d/output_inception_4d/output_0_split_0
I0703 17:51:04.005532 18087 net.cpp:368] inception_4d/output_inception_4d/output_0_split -> inception_4d/output_inception_4d/output_0_split_1
I0703 17:51:04.005538 18087 net.cpp:368] inception_4d/output_inception_4d/output_0_split -> inception_4d/output_inception_4d/output_0_split_2
I0703 17:51:04.005545 18087 net.cpp:368] inception_4d/output_inception_4d/output_0_split -> inception_4d/output_inception_4d/output_0_split_3
I0703 17:51:04.005553 18087 net.cpp:368] inception_4d/output_inception_4d/output_0_split -> inception_4d/output_inception_4d/output_0_split_4
I0703 17:51:04.005564 18087 net.cpp:120] Setting up inception_4d/output_inception_4d/output_0_split
I0703 17:51:04.005573 18087 net.cpp:127] Top shape: 10 528 14 14 (1034880)
I0703 17:51:04.005578 18087 net.cpp:127] Top shape: 10 528 14 14 (1034880)
I0703 17:51:04.005581 18087 net.cpp:127] Top shape: 10 528 14 14 (1034880)
I0703 17:51:04.005586 18087 net.cpp:127] Top shape: 10 528 14 14 (1034880)
I0703 17:51:04.005590 18087 net.cpp:127] Top shape: 10 528 14 14 (1034880)
I0703 17:51:04.005594 18087 layer_factory.hpp:74] Creating layer loss2/ave_pool
I0703 17:51:04.005600 18087 net.cpp:90] Creating Layer loss2/ave_pool
I0703 17:51:04.020376 18087 net.cpp:410] loss2/ave_pool <- inception_4d/output_inception_4d/output_0_split_0
I0703 17:51:04.020407 18087 net.cpp:368] loss2/ave_pool -> loss2/ave_pool
I0703 17:51:04.020421 18087 net.cpp:120] Setting up loss2/ave_pool
I0703 17:51:04.020678 18087 net.cpp:127] Top shape: 10 528 4 4 (84480)
I0703 17:51:04.020689 18087 layer_factory.hpp:74] Creating layer loss2/conv
I0703 17:51:04.020699 18087 net.cpp:90] Creating Layer loss2/conv
I0703 17:51:04.020704 18087 net.cpp:410] loss2/conv <- loss2/ave_pool
I0703 17:51:04.020710 18087 net.cpp:368] loss2/conv -> loss2/conv
I0703 17:51:04.020719 18087 net.cpp:120] Setting up loss2/conv
I0703 17:51:04.021349 18087 net.cpp:127] Top shape: 10 128 4 4 (20480)
I0703 17:51:04.021363 18087 layer_factory.hpp:74] Creating layer loss2/relu_conv
I0703 17:51:04.021373 18087 net.cpp:90] Creating Layer loss2/relu_conv
I0703 17:51:04.021378 18087 net.cpp:410] loss2/relu_conv <- loss2/conv
I0703 17:51:04.021392 18087 net.cpp:357] loss2/relu_conv -> loss2/conv (in-place)
I0703 17:51:04.021399 18087 net.cpp:120] Setting up loss2/relu_conv
I0703 17:51:04.021441 18087 net.cpp:127] Top shape: 10 128 4 4 (20480)
I0703 17:51:04.021447 18087 layer_factory.hpp:74] Creating layer loss2/fc
I0703 17:51:04.021456 18087 net.cpp:90] Creating Layer loss2/fc
I0703 17:51:04.021461 18087 net.cpp:410] loss2/fc <- loss2/conv
I0703 17:51:04.021466 18087 net.cpp:368] loss2/fc -> loss2/fc
I0703 17:51:04.021473 18087 net.cpp:120] Setting up loss2/fc
I0703 17:51:04.035274 18087 net.cpp:127] Top shape: 10 1024 (10240)
I0703 17:51:04.035300 18087 layer_factory.hpp:74] Creating layer loss2/relu_fc
I0703 17:51:04.035316 18087 net.cpp:90] Creating Layer loss2/relu_fc
I0703 17:51:04.035325 18087 net.cpp:410] loss2/relu_fc <- loss2/fc
I0703 17:51:04.035331 18087 net.cpp:357] loss2/relu_fc -> loss2/fc (in-place)
I0703 17:51:04.035341 18087 net.cpp:120] Setting up loss2/relu_fc
I0703 17:51:04.035421 18087 net.cpp:127] Top shape: 10 1024 (10240)
I0703 17:51:04.035429 18087 layer_factory.hpp:74] Creating layer loss2/drop_fc
I0703 17:51:04.035436 18087 net.cpp:90] Creating Layer loss2/drop_fc
I0703 17:51:04.035440 18087 net.cpp:410] loss2/drop_fc <- loss2/fc
I0703 17:51:04.035449 18087 net.cpp:357] loss2/drop_fc -> loss2/fc (in-place)
I0703 17:51:04.035455 18087 net.cpp:120] Setting up loss2/drop_fc
I0703 17:51:04.035462 18087 net.cpp:127] Top shape: 10 1024 (10240)
I0703 17:51:04.035466 18087 layer_factory.hpp:74] Creating layer stanford_cars_loss2/classifier
I0703 17:51:04.035475 18087 net.cpp:90] Creating Layer stanford_cars_loss2/classifier
I0703 17:51:04.035480 18087 net.cpp:410] stanford_cars_loss2/classifier <- loss2/fc
I0703 17:51:04.035486 18087 net.cpp:368] stanford_cars_loss2/classifier -> stanford_cars_loss2/classifier
I0703 17:51:04.035495 18087 net.cpp:120] Setting up stanford_cars_loss2/classifier
I0703 17:51:04.036525 18087 net.cpp:127] Top shape: 10 196 (1960)
I0703 17:51:04.036535 18087 layer_factory.hpp:74] Creating layer stanford_cars_loss2/classifier_stanford_cars_loss2/classifier_0_split
I0703 17:51:04.036542 18087 net.cpp:90] Creating Layer stanford_cars_loss2/classifier_stanford_cars_loss2/classifier_0_split
I0703 17:51:04.036548 18087 net.cpp:410] stanford_cars_loss2/classifier_stanford_cars_loss2/classifier_0_split <- stanford_cars_loss2/classifier
I0703 17:51:04.036555 18087 net.cpp:368] stanford_cars_loss2/classifier_stanford_cars_loss2/classifier_0_split -> stanford_cars_loss2/classifier_stanford_cars_loss2/classifier_0_split_0
I0703 17:51:04.036576 18087 net.cpp:368] stanford_cars_loss2/classifier_stanford_cars_loss2/classifier_0_split -> stanford_cars_loss2/classifier_stanford_cars_loss2/classifier_0_split_1
I0703 17:51:04.036584 18087 net.cpp:368] stanford_cars_loss2/classifier_stanford_cars_loss2/classifier_0_split -> stanford_cars_loss2/classifier_stanford_cars_loss2/classifier_0_split_2
I0703 17:51:04.036592 18087 net.cpp:120] Setting up stanford_cars_loss2/classifier_stanford_cars_loss2/classifier_0_split
I0703 17:51:04.036597 18087 net.cpp:127] Top shape: 10 196 (1960)
I0703 17:51:04.036602 18087 net.cpp:127] Top shape: 10 196 (1960)
I0703 17:51:04.036607 18087 net.cpp:127] Top shape: 10 196 (1960)
I0703 17:51:04.036612 18087 layer_factory.hpp:74] Creating layer stanford_cars_loss2/loss
I0703 17:51:04.036618 18087 net.cpp:90] Creating Layer stanford_cars_loss2/loss
I0703 17:51:04.036623 18087 net.cpp:410] stanford_cars_loss2/loss <- stanford_cars_loss2/classifier_stanford_cars_loss2/classifier_0_split_0
I0703 17:51:04.036628 18087 net.cpp:410] stanford_cars_loss2/loss <- label_data_1_split_3
…
I0703 17:51:04.036787 18087 net.cpp:368] loss2/top-5 -> loss2/top-5
I0703 17:51:04.036792 18087 net.cpp:120] Setting up loss2/top-5
I0703 17:51:04.036798 18087 net.cpp:127] Top shape: (1)
I0703 17:51:04.036803 18087 layer_factory.hpp:74] Creating layer inception_4e/1x1
I0703 17:51:04.036809 18087 net.cpp:90] Creating Layer inception_4e/1x1
I0703 17:51:04.036815 18087 net.cpp:410] inception_4e/1x1 <- inception_4d/output_inception_4d/output_0_split_1
I0703 17:51:04.036821 18087 net.cpp:368] inception_4e/1x1 -> inception_4e/1x1
I0703 17:51:04.036828 18087 net.cpp:120] Setting up inception_4e/1x1
I0703 17:51:04.037822 18087 net.cpp:127] Top shape: 10 256 14 14 (501760)
I0703 17:51:04.037834 18087 layer_factory.hpp:74] Creating layer inception_4e/relu_1x1
I0703 17:51:04.037842 18087 net.cpp:90] Creating Layer inception_4e/relu_1x1
I0703 17:51:04.037847 18087 net.cpp:410] inception_4e/relu_1x1 <- inception_4e/1x1
I0703 17:51:04.037854 18087 net.cpp:357] inception_4e/relu_1x1 -> inception_4e/1x1 (in-place)
I0703 17:51:04.037860 18087 net.cpp:120] Setting up inception_4e/relu_1x1
I0703 17:51:04.037981 18087 net.cpp:127] Top shape: 10 256 14 14 (501760)
I0703 17:51:04.037992 18087 layer_factory.hpp:74] Creating layer inception_4e/3x3_reduce
I0703 17:51:04.038010 18087 net.cpp:90] Creating Layer inception_4e/3x3_reduce
I0703 17:51:04.038017 18087 net.cpp:410] inception_4e/3x3_reduce <- inception_4d/output_inception_4d/output_0_split_2
I0703 17:51:04.038023 18087 net.cpp:368] inception_4e/3x3_reduce -> inception_4e/3x3_reduce
I0703 17:51:04.038031 18087 net.cpp:120] Setting up inception_4e/3x3_reduce
I0703 17:51:04.038693 18087 net.cpp:127] Top shape: 10 160 14 14 (313600)
I0703 17:51:04.038707 18087 layer_factory.hpp:74] Creating layer inception_4e/relu_3x3_reduce
I0703 17:51:04.038714 18087 net.cpp:90] Creating Layer inception_4e/relu_3x3_reduce
I0703 17:51:04.038719 18087 net.cpp:410] inception_4e/relu_3x3_reduce <- inception_4e/3x3_reduce
I0703 17:51:04.038725 18087 net.cpp:357] inception_4e/relu_3x3_reduce -> inception_4e/3x3_reduce (in-place)
I0703 17:51:04.038732 18087 net.cpp:120] Setting up inception_4e/relu_3x3_reduce
I0703 17:51:04.038776 18087 net.cpp:127] Top shape: 10 160 14 14 (313600)
I0703 17:51:04.038784 18087 layer_factory.hpp:74] Creating layer inception_4e/3x3
I0703 17:51:04.038790 18087 net.cpp:90] Creating Layer inception_4e/3x3
I0703 17:51:04.038795 18087 net.cpp:410] inception_4e/3x3 <- inception_4e/3x3_reduce
I0703 17:51:04.038801 18087 net.cpp:368] inception_4e/3x3 -> inception_4e/3x3
I0703 17:51:04.038808 18087 net.cpp:120] Setting up inception_4e/3x3
I0703 17:51:04.041368 18087 net.cpp:127] Top shape: 10 320 14 14 (627200)
I0703 17:51:04.041381 18087 layer_factory.hpp:74] Creating layer inception_4e/relu_3x3
I0703 17:51:04.041388 18087 net.cpp:90] Creating Layer inception_4e/relu_3x3
I0703 17:51:04.041394 18087 net.cpp:410] inception_4e/relu_3x3 <- inception_4e/3x3
I0703 17:51:04.041399 18087 net.cpp:357] inception_4e/relu_3x3 -> inception_4e/3x3 (in-place)
I0703 17:51:04.041406 18087 net.cpp:120] Setting up inception_4e/relu_3x3
I0703 17:51:04.041450 18087 net.cpp:127] Top shape: 10 320 14 14 (627200)
I0703 17:51:04.041457 18087 layer_factory.hpp:74] Creating layer inception_4e/5x5_reduce
I0703 17:51:04.041465 18087 net.cpp:90] Creating Layer inception_4e/5x5_reduce
I0703 17:51:04.041471 18087 net.cpp:410] inception_4e/5x5_reduce <- inception_4d/output_inception_4d/output_0_split_3
I0703 17:51:04.041477 18087 net.cpp:368] inception_4e/5x5_reduce -> inception_4e/5x5_reduce
I0703 17:51:04.041484 18087 net.cpp:120] Setting up inception_4e/5x5_reduce
I0703 17:51:04.041828 18087 net.cpp:127] Top shape: 10 32 14 14 (62720)
I0703 17:51:04.041841 18087 layer_factory.hpp:74] Creating layer inception_4e/relu_5x5_reduce
I0703 17:51:04.041847 18087 net.cpp:90] Creating Layer inception_4e/relu_5x5_reduce
I0703 17:51:04.041853 18087 net.cpp:410] inception_4e/relu_5x5_reduce <- inception_4e/5x5_reduce
I0703 17:51:04.041858 18087 net.cpp:357] inception_4e/relu_5x5_reduce -> inception_4e/5x5_reduce (in-place)
I0703 17:51:04.041865 18087 net.cpp:120] Setting up inception_4e/relu_5x5_reduce
I0703 17:51:04.041906 18087 net.cpp:127] Top shape: 10 32 14 14 (62720)
I0703 17:51:04.041913 18087 layer_factory.hpp:74] Creating layer inception_4e/5x5
I0703 17:51:04.041919 18087 net.cpp:90] Creating Layer inception_4e/5x5
I0703 17:51:04.041924 18087 net.cpp:410] inception_4e/5x5 <- inception_4e/5x5_reduce
I0703 17:51:04.041930 18087 net.cpp:368] inception_4e/5x5 -> inception_4e/5x5
I0703 17:51:04.041937 18087 net.cpp:120] Setting up inception_4e/5x5
I0703 17:51:04.042676 18087 net.cpp:127] Top shape: 10 128 14 14 (250880)
I0703 17:51:04.042688 18087 layer_factory.hpp:74] Creating layer inception_4e/relu_5x5
I0703 17:51:04.042695 18087 net.cpp:90] Creating Layer inception_4e/relu_5x5
I0703 17:51:04.042700 18087 net.cpp:410] inception_4e/relu_5x5 <- inception_4e/5x5
I0703 17:51:04.042706 18087 net.cpp:357] inception_4e/relu_5x5 -> inception_4e/5x5 (in-place)
I0703 17:51:04.042713 18087 net.cpp:120] Setting up inception_4e/relu_5x5
I0703 17:51:04.042834 18087 net.cpp:127] Top shape: 10 128 14 14 (250880)
I0703 17:51:04.042843 18087 layer_factory.hpp:74] Creating layer inception_4e/pool
I0703 17:51:04.042850 18087 layer_factory.cpp:55] CUDNN does not support padding or multiple tops. Using Caffe's own pooling layer.
I0703 17:51:04.042855 18087 net.cpp:90] Creating Layer inception_4e/pool
I0703 17:51:04.042860 18087 net.cpp:410] inception_4e/pool <- inception_4d/output_inception_4d/output_0_split_4
I0703 17:51:04.051095 18087 net.cpp:368] inception_4e/pool -> inception_4e/pool
I0703 17:51:04.051107 18087 net.cpp:120] Setting up inception_4e/pool
I0703 17:51:04.051126 18087 net.cpp:127] Top shape: 10 528 14 14 (1034880)
I0703 17:51:04.051131 18087 layer_factory.hpp:74] Creating layer inception_4e/pool_proj
I0703 17:51:04.051141 18087 net.cpp:90] Creating Layer inception_4e/pool_proj
I0703 17:51:04.051146 18087 net.cpp:410] inception_4e/pool_proj <- inception_4e/pool
I0703 17:51:04.051153 18087 net.cpp:368] inception_4e/pool_proj -> inception_4e/pool_proj
I0703 17:51:04.051161 18087 net.cpp:120] Setting up inception_4e/pool_proj
I0703 17:51:04.052670 18087 net.cpp:127] Top shape: 10 128 14 14 (250880)
I0703 17:51:04.052712 18087 layer_factory.hpp:74] Creating layer inception_4e/relu_pool_proj
I0703 17:51:04.052738 18087 net.cpp:90] Creating Layer inception_4e/relu_pool_proj
I0703 17:51:04.052757 18087 net.cpp:410] inception_4e/relu_pool_proj <- inception_4e/pool_proj
I0703 17:51:04.052775 18087 net.cpp:357] inception_4e/relu_pool_proj -> inception_4e/pool_proj (in-place)
I0703 17:51:04.052796 18087 net.cpp:120] Setting up inception_4e/relu_pool_proj
I0703 17:51:04.052976 18087 net.cpp:127] Top shape: 10 128 14 14 (250880)
I0703 17:51:04.053015 18087 layer_factory.hpp:74] Creating layer inception_4e/output
I0703 17:51:04.053045 18087 net.cpp:90] Creating Layer inception_4e/output
I0703 17:51:04.053062 18087 net.cpp:410] inception_4e/output <- inception_4e/1x1
I0703 17:51:04.053081 18087 net.cpp:410] inception_4e/output <- inception_4e/3x3
I0703 17:51:04.053098 18087 net.cpp:410] inception_4e/output <- inception_4e/5x5
I0703 17:51:04.053114 18087 net.cpp:410] inception_4e/output <- inception_4e/pool_proj
I0703 17:51:04.053133 18087 net.cpp:368] inception_4e/output -> inception_4e/output
I0703 17:51:04.053153 18087 net.cpp:120] Setting up inception_4e/output
I0703 17:51:04.053175 18087 net.cpp:127] Top shape: 10 832 14 14 (1630720)
I0703 17:51:04.053191 18087 layer_factory.hpp:74] Creating layer pool4/3x3_s2
I0703 17:51:04.053212 18087 net.cpp:90] Creating Layer pool4/3x3_s2
I0703 17:51:04.053228 18087 net.cpp:410] pool4/3x3_s2 <- inception_4e/output
I0703 17:51:04.053246 18087 net.cpp:368] pool4/3x3_s2 -> pool4/3x3_s2
I0703 17:51:04.053266 18087 net.cpp:120] Setting up pool4/3x3_s2
I0703 17:51:04.053416 18087 net.cpp:127] Top shape: 10 832 7 7 (407680)
I0703 17:51:04.053437 18087 layer_factory.hpp:74] Creating layer pool4/3x3_s2_pool4/3x3_s2_0_split
I0703 17:51:04.053457 18087 net.cpp:90] Creating Layer pool4/3x3_s2_pool4/3x3_s2_0_split
I0703 17:51:04.053472 18087 net.cpp:410] pool4/3x3_s2_pool4/3x3_s2_0_split <- pool4/3x3_s2
I0703 17:51:04.053490 18087 net.cpp:368] pool4/3x3_s2_pool4/3x3_s2_0_split -> pool4/3x3_s2_pool4/3x3_s2_0_split_0
I0703 17:51:04.053513 18087 net.cpp:368] pool4/3x3_s2_pool4/3x3_s2_0_split -> pool4/3x3_s2_pool4/3x3_s2_0_split_1
I0703 17:51:04.053534 18087 net.cpp:368] pool4/3x3_s2_pool4/3x3_s2_0_split -> pool4/3x3_s2_pool4/3x3_s2_0_split_2
I0703 17:51:04.053585 18087 net.cpp:368] pool4/3x3_s2_pool4/3x3_s2_0_split -> pool4/3x3_s2_pool4/3x3_s2_0_split_3
I0703 17:51:04.053606 18087 net.cpp:120] Setting up pool4/3x3_s2_pool4/3x3_s2_0_split
I0703 17:51:04.053627 18087 net.cpp:127] Top shape: 10 832 7 7 (407680)
I0703 17:51:04.053643 18087 net.cpp:127] Top shape: 10 832 7 7 (407680)
I0703 17:51:04.053660 18087 net.cpp:127] Top shape: 10 832 7 7 (407680)
I0703 17:51:04.053675 18087 net.cpp:127] Top shape: 10 832 7 7 (407680)
I0703 17:51:04.053689 18087 layer_factory.hpp:74] Creating layer inception_5a/1x1
I0703 17:51:04.053714 18087 net.cpp:90] Creating Layer inception_5a/1x1
I0703 17:51:04.053730 18087 net.cpp:410] inception_5a/1x1 <- pool4/3x3_s2_pool4/3x3_s2_0_split_0
I0703 17:51:04.053750 18087 net.cpp:368] inception_5a/1x1 -> inception_5a/1x1
I0703 17:51:04.053771 18087 net.cpp:120] Setting up inception_5a/1x1
I0703 17:51:04.058053 18087 net.cpp:127] Top shape: 10 256 7 7 (125440)
I0703 17:51:04.058097 18087 layer_factory.hpp:74] Creating layer inception_5a/relu_1x1
I0703 17:51:04.058122 18087 net.cpp:90] Creating Layer inception_5a/relu_1x1
I0703 17:51:04.058140 18087 net.cpp:410] inception_5a/relu_1x1 <- inception_5a/1x1
I0703 17:51:04.058186 18087 net.cpp:357] inception_5a/relu_1x1 -> inception_5a/1x1 (in-place)
I0703 17:51:04.058208 18087 net.cpp:120] Setting up inception_5a/relu_1x1
I0703 17:51:04.058537 18087 net.cpp:127] Top shape: 10 256 7 7 (125440)
I0703 17:51:04.058568 18087 layer_factory.hpp:74] Creating layer inception_5a/3x3_reduce
I0703 17:51:04.058593 18087 net.cpp:90] Creating Layer inception_5a/3x3_reduce
I0703 17:51:04.058611 18087 net.cpp:410] inception_5a/3x3_reduce <- pool4/3x3_s2_pool4/3x3_s2_0_split_1
I0703 17:51:04.058632 18087 net.cpp:368] inception_5a/3x3_reduce -> inception_5a/3x3_reduce
I0703 17:51:04.058656 18087 net.cpp:120] Setting up inception_5a/3x3_reduce
I0703 17:51:04.061513 18087 net.cpp:127] Top shape: 10 160 7 7 (78400)
I0703 17:51:04.061554 18087 layer_factory.hpp:74] Creating layer inception_5a/relu_3x3_reduce
I0703 17:51:04.061575 18087 net.cpp:90] Creating Layer inception_5a/relu_3x3_reduce
I0703 17:51:04.061592 18087 net.cpp:410] inception_5a/relu_3x3_reduce <- inception_5a/3x3_reduce
I0703 17:51:04.061614 18087 net.cpp:357] inception_5a/relu_3x3_reduce -> inception_5a/3x3_reduce (in-place)
I0703 17:51:04.061636 18087 net.cpp:120] Setting up inception_5a/relu_3x3_reduce
I0703 17:51:04.061787 18087 net.cpp:127] Top shape: 10 160 7 7 (78400)
I0703 17:51:04.061810 18087 layer_factory.hpp:74] Creating layer inception_5a/3x3
I0703 17:51:04.061833 18087 net.cpp:90] Creating Layer inception_5a/3x3
I0703 17:51:04.061849 18087 net.cpp:410] inception_5a/3x3 <- inception_5a/3x3_reduce
I0703 17:51:04.061872 18087 net.cpp:368] inception_5a/3x3 -> inception_5a/3x3
I0703 17:51:04.061894 18087 net.cpp:120] Setting up inception_5a/3x3
I0703 17:51:04.065356 18087 net.cpp:127] Top shape: 10 320 7 7 (156800)
I0703 17:51:04.065368 18087 layer_factory.hpp:74] Creating layer inception_5a/relu_3x3
I0703 17:51:04.065376 18087 net.cpp:90] Creating Layer inception_5a/relu_3x3
I0703 17:51:04.065382 18087 net.cpp:410] inception_5a/relu_3x3 <- inception_5a/3x3
I0703 17:51:04.065387 18087 net.cpp:357] inception_5a/relu_3x3 -> inception_5a/3x3 (in-place)
I0703 17:51:04.065393 18087 net.cpp:120] Setting up inception_5a/relu_3x3
I0703 17:51:04.065435 18087 net.cpp:127] Top shape: 10 320 7 7 (156800)
I0703 17:51:04.065441 18087 layer_factory.hpp:74] Creating layer inception_5a/5x5_reduce
I0703 17:51:04.065449 18087 net.cpp:90] Creating Layer inception_5a/5x5_reduce
I0703 17:51:04.065454 18087 net.cpp:410] inception_5a/5x5_reduce <- pool4/3x3_s2_pool4/3x3_s2_0_split_2
I0703 17:51:04.065462 18087 net.cpp:368] inception_5a/5x5_reduce -> inception_5a/5x5_reduce
I0703 17:51:04.065469 18087 net.cpp:120] Setting up inception_5a/5x5_reduce
I0703 17:51:04.065845 18087 net.cpp:127] Top shape: 10 32 7 7 (15680)
I0703 17:51:04.065856 18087 layer_factory.hpp:74] Creating layer inception_5a/relu_5x5_reduce
I0703 17:51:04.065863 18087 net.cpp:90] Creating Layer inception_5a/relu_5x5_reduce
I0703 17:51:04.065868 18087 net.cpp:410] inception_5a/relu_5x5_reduce <- inception_5a/5x5_reduce
I0703 17:51:04.065875 18087 net.cpp:357] inception_5a/relu_5x5_reduce -> inception_5a/5x5_reduce (in-place)
I0703 17:51:04.065881 18087 net.cpp:120] Setting up inception_5a/relu_5x5_reduce
I0703 17:51:04.065923 18087 net.cpp:127] Top shape: 10 32 7 7 (15680)
I0703 17:51:04.065929 18087 layer_factory.hpp:74] Creating layer inception_5a/5x5
I0703 17:51:04.065937 18087 net.cpp:90] Creating Layer inception_5a/5x5
I0703 17:51:04.065942 18087 net.cpp:410] inception_5a/5x5 <- inception_5a/5x5_reduce
I0703 17:51:04.065948 18087 net.cpp:368] inception_5a/5x5 -> inception_5a/5x5
I0703 17:51:04.065955 18087 net.cpp:120] Setting up inception_5a/5x5
I0703 17:51:04.066664 18087 net.cpp:127] Top shape: 10 128 7 7 (62720)
I0703 17:51:04.066676 18087 layer_factory.hpp:74] Creating layer inception_5a/relu_5x5
I0703 17:51:04.066683 18087 net.cpp:90] Creating Layer inception_5a/relu_5x5
I0703 17:51:04.066687 18087 net.cpp:410] inception_5a/relu_5x5 <- inception_5a/5x5
I0703 17:51:04.066694 18087 net.cpp:357] inception_5a/relu_5x5 -> inception_5a/5x5 (in-place)
I0703 17:51:04.066709 18087 net.cpp:120] Setting up inception_5a/relu_5x5
I0703 17:51:04.066828 18087 net.cpp:127] Top shape: 10 128 7 7 (62720)
I0703 17:51:04.066838 18087 layer_factory.hpp:74] Creating layer inception_5a/pool
I0703 17:51:04.066843 18087 layer_factory.cpp:55] CUDNN does not support padding or multiple tops. Using Caffe's own pooling layer.
I0703 17:51:04.066849 18087 net.cpp:90] Creating Layer inception_5a/pool
I0703 17:51:04.066854 18087 net.cpp:410] inception_5a/pool <- pool4/3x3_s2_pool4/3x3_s2_0_split_3
I0703 17:51:04.066860 18087 net.cpp:368] inception_5a/pool -> inception_5a/pool
I0703 17:51:04.066867 18087 net.cpp:120] Setting up inception_5a/pool
I0703 17:51:04.066874 18087 net.cpp:127] Top shape: 10 832 7 7 (407680)
I0703 17:51:04.066879 18087 layer_factory.hpp:74] Creating layer inception_5a/pool_proj
I0703 17:51:04.066886 18087 net.cpp:90] Creating Layer inception_5a/pool_proj
I0703 17:51:04.066891 18087 net.cpp:410] inception_5a/pool_proj <- inception_5a/pool
I0703 17:51:04.066897 18087 net.cpp:368] inception_5a/pool_proj -> inception_5a/pool_proj
I0703 17:51:04.066903 18087 net.cpp:120] Setting up inception_5a/pool_proj
I0703 17:51:04.067636 18087 net.cpp:127] Top shape: 10 128 7 7 (62720)
I0703 17:51:04.067648 18087 layer_factory.hpp:74] Creating layer inception_5a/relu_pool_proj
I0703 17:51:04.067654 18087 net.cpp:90] Creating Layer inception_5a/relu_pool_proj
I0703 17:51:04.067659 18087 net.cpp:410] inception_5a/relu_pool_proj <- inception_5a/pool_proj
I0703 17:51:04.067667 18087 net.cpp:357] inception_5a/relu_pool_proj -> inception_5a/pool_proj (in-place)
I0703 17:51:04.067672 18087 net.cpp:120] Setting up inception_5a/relu_pool_proj
I0703 17:51:04.067714 18087 net.cpp:127] Top shape: 10 128 7 7 (62720)
I0703 17:51:04.067721 18087 layer_factory.hpp:74] Creating layer inception_5a/output
I0703 17:51:04.067728 18087 net.cpp:90] Creating Layer inception_5a/output
I0703 17:51:04.067733 18087 net.cpp:410] inception_5a/output <- inception_5a/1x1
I0703 17:51:04.067739 18087 net.cpp:410] inception_5a/output <- inception_5a/3x3
I0703 17:51:04.067742 18087 net.cpp:410] inception_5a/output <- inception_5a/5x5
I0703 17:51:04.067747 18087 net.cpp:410] inception_5a/output <- inception_5a/pool_proj
I0703 17:51:04.067754 18087 net.cpp:368] inception_5a/output -> inception_5a/output
I0703 17:51:04.067759 18087 net.cpp:120] Setting up inception_5a/output
I0703 17:51:04.067766 18087 net.cpp:127] Top shape: 10 832 7 7 (407680)
I0703 17:51:04.067771 18087 layer_factory.hpp:74] Creating layer inception_5a/output_inception_5a/output_0_split
I0703 17:51:04.067777 18087 net.cpp:90] Creating Layer inception_5a/output_inception_5a/output_0_split
I0703 17:51:04.067782 18087 net.cpp:410] inception_5a/output_inception_5a/output_0_split <- inception_5a/output
I0703 17:51:04.067787 18087 net.cpp:368] inception_5a/output_inception_5a/output_0_split -> inception_5a/output_inception_5a/output_0_split_0
I0703 17:51:04.067795 18087 net.cpp:368] inception_5a/output_inception_5a/output_0_split -> inception_5a/output_inception_5a/output_0_split_1
I0703 17:51:04.067800 18087 net.cpp:368] inception_5a/output_inception_5a/output_0_split -> inception_5a/output_inception_5a/output_0_split_2
I0703 17:51:04.067807 18087 net.cpp:368] inception_5a/output_inception_5a/output_0_split -> inception_5a/output_inception_5a/output_0_split_3
I0703 17:51:04.067814 18087 net.cpp:120] Setting up inception_5a/output_inception_5a/output_0_split
I0703 17:51:04.067821 18087 net.cpp:127] Top shape: 10 832 7 7 (407680)
I0703 17:51:04.067826 18087 net.cpp:127] Top shape: 10 832 7 7 (407680)
I0703 17:51:04.067829 18087 net.cpp:127] Top shape: 10 832 7 7 (407680)
I0703 17:51:04.067834 18087 net.cpp:127] Top shape: 10 832 7 7 (407680)
I0703 17:51:04.082252 18087 layer_factory.hpp:74] Creating layer inception_5b/1x1
I0703 17:51:04.082283 18087 net.cpp:90] Creating Layer inception_5b/1x1
I0703 17:51:04.082291 18087 net.cpp:410] inception_5b/1x1 <- inception_5a/output_inception_5a/output_0_split_0
I0703 17:51:04.082300 18087 net.cpp:368] inception_5b/1x1 -> inception_5b/1x1
I0703 17:51:04.082329 18087 net.cpp:120] Setting up inception_5b/1x1
I0703 17:51:04.086722 18087 net.cpp:127] Top shape: 10 384 7 7 (188160)
I0703 17:51:04.086771 18087 layer_factory.hpp:74] Creating layer inception_5b/relu_1x1
I0703 17:51:04.086796 18087 net.cpp:90] Creating Layer inception_5b/relu_1x1
I0703 17:51:04.086814 18087 net.cpp:410] inception_5b/relu_1x1 <- inception_5b/1x1
I0703 17:51:04.086834 18087 net.cpp:357] inception_5b/relu_1x1 -> inception_5b/1x1 (in-place)
I0703 17:51:04.086855 18087 net.cpp:120] Setting up inception_5b/relu_1x1
I0703 17:51:04.087007 18087 net.cpp:127] Top shape: 10 384 7 7 (188160)
I0703 17:51:04.087028 18087 layer_factory.hpp:74] Creating layer inception_5b/3x3_reduce
I0703 17:51:04.087052 18087 net.cpp:90] Creating Layer inception_5b/3x3_reduce
I0703 17:51:04.087070 18087 net.cpp:410] inception_5b/3x3_reduce <- inception_5a/output_inception_5a/output_0_split_1
I0703 17:51:04.087093 18087 net.cpp:368] inception_5b/3x3_reduce -> inception_5b/3x3_reduce
I0703 17:51:04.087118 18087 net.cpp:120] Setting up inception_5b/3x3_reduce
I0703 17:51:04.088301 18087 net.cpp:127] Top shape: 10 192 7 7 (94080)
I0703 17:51:04.088315 18087 layer_factory.hpp:74] Creating layer inception_5b/relu_3x3_reduce
I0703 17:51:04.088322 18087 net.cpp:90] Creating Layer inception_5b/relu_3x3_reduce
I0703 17:51:04.088327 18087 net.cpp:410] inception_5b/relu_3x3_reduce <- inception_5b/3x3_reduce
I0703 17:51:04.088333 18087 net.cpp:357] inception_5b/relu_3x3_reduce -> inception_5b/3x3_reduce (in-place)
I0703 17:51:04.088340 18087 net.cpp:120] Setting up inception_5b/relu_3x3_reduce
I0703 17:51:04.088383 18087 net.cpp:127] Top shape: 10 192 7 7 (94080)
I0703 17:51:04.088390 18087 layer_factory.hpp:74] Creating layer inception_5b/3x3
I0703 17:51:04.088397 18087 net.cpp:90] Creating Layer inception_5b/3x3
I0703 17:51:04.088402 18087 net.cpp:410] inception_5b/3x3 <- inception_5b/3x3_reduce
I0703 17:51:04.088409 18087 net.cpp:368] inception_5b/3x3 -> inception_5b/3x3
I0703 17:51:04.088417 18087 net.cpp:120] Setting up inception_5b/3x3
I0703 17:51:04.091955 18087 net.cpp:127] Top shape: 10 384 7 7 (188160)
I0703 17:51:04.091974 18087 layer_factory.hpp:74] Creating layer inception_5b/relu_3x3
I0703 17:51:04.091982 18087 net.cpp:90] Creating Layer inception_5b/relu_3x3
I0703 17:51:04.091989 18087 net.cpp:410] inception_5b/relu_3x3 <- inception_5b/3x3
I0703 17:51:04.091995 18087 net.cpp:357] inception_5b/relu_3x3 -> inception_5b/3x3 (in-place)
I0703 17:51:04.092002 18087 net.cpp:120] Setting up inception_5b/relu_3x3
I0703 17:51:04.092121 18087 net.cpp:127] Top shape: 10 384 7 7 (188160)
I0703 17:51:04.092130 18087 layer_factory.hpp:74] Creating layer inception_5b/5x5_reduce
I0703 17:51:04.092139 18087 net.cpp:90] Creating Layer inception_5b/5x5_reduce
I0703 17:51:04.092144 18087 net.cpp:410] inception_5b/5x5_reduce <- inception_5a/output_inception_5a/output_0_split_2
I0703 17:51:04.092151 18087 net.cpp:368] inception_5b/5x5_reduce -> inception_5b/5x5_reduce
I0703 17:51:04.092159 18087 net.cpp:120] Setting up inception_5b/5x5_reduce
I0703 17:51:04.092568 18087 net.cpp:127] Top shape: 10 48 7 7 (23520)
I0703 17:51:04.092579 18087 layer_factory.hpp:74] Creating layer inception_5b/relu_5x5_reduce
I0703 17:51:04.092587 18087 net.cpp:90] Creating Layer inception_5b/relu_5x5_reduce
I0703 17:51:04.092592 18087 net.cpp:410] inception_5b/relu_5x5_reduce <- inception_5b/5x5_reduce
I0703 17:51:04.092598 18087 net.cpp:357] inception_5b/relu_5x5_reduce -> inception_5b/5x5_reduce (in-place)
I0703 17:51:04.092604 18087 net.cpp:120] Setting up inception_5b/relu_5x5_reduce
I0703 17:51:04.092648 18087 net.cpp:127] Top shape: 10 48 7 7 (23520)
I0703 17:51:04.092654 18087 layer_factory.hpp:74] Creating layer inception_5b/5x5
I0703 17:51:04.092663 18087 net.cpp:90] Creating Layer inception_5b/5x5
I0703 17:51:04.092667 18087 net.cpp:410] inception_5b/5x5 <- inception_5b/5x5_reduce
I0703 17:51:04.092674 18087 net.cpp:368] inception_5b/5x5 -> inception_5b/5x5
I0703 17:51:04.092680 18087 net.cpp:120] Setting up inception_5b/5x5
I0703 17:51:04.093652 18087 net.cpp:127] Top shape: 10 128 7 7 (62720)
I0703 17:51:04.093665 18087 layer_factory.hpp:74] Creating layer inception_5b/relu_5x5
I0703 17:51:04.093672 18087 net.cpp:90] Creating Layer inception_5b/relu_5x5
I0703 17:51:04.093677 18087 net.cpp:410] inception_5b/relu_5x5 <- inception_5b/5x5
I0703 17:51:04.093683 18087 net.cpp:357] inception_5b/relu_5x5 -> inception_5b/5x5 (in-place)
I0703 17:51:04.093689 18087 net.cpp:120] Setting up inception_5b/relu_5x5
I0703 17:51:04.093731 18087 net.cpp:127] Top shape: 10 128 7 7 (62720)
I0703 17:51:04.093739 18087 layer_factory.hpp:74] Creating layer inception_5b/pool
I0703 17:51:04.093744 18087 layer_factory.cpp:55] CUDNN does not support padding or multiple tops. Using Caffe's own pooling layer.
I0703 17:51:04.093750 18087 net.cpp:90] Creating Layer inception_5b/pool
I0703 17:51:04.093755 18087 net.cpp:410] inception_5b/pool <- inception_5a/output_inception_5a/output_0_split_3
I0703 17:51:04.093760 18087 net.cpp:368] inception_5b/pool -> inception_5b/pool
I0703 17:51:04.093766 18087 net.cpp:120] Setting up inception_5b/pool
I0703 17:51:04.093775 18087 net.cpp:127] Top shape: 10 832 7 7 (407680)
I0703 17:51:04.093780 18087 layer_factory.hpp:74] Creating layer inception_5b/pool_proj
I0703 17:51:04.093786 18087 net.cpp:90] Creating Layer inception_5b/pool_proj
I0703 17:51:04.093791 18087 net.cpp:410] inception_5b/pool_proj <- inception_5b/pool
I0703 17:51:04.093797 18087 net.cpp:368] inception_5b/pool_proj -> inception_5b/pool_proj
I0703 17:51:04.093804 18087 net.cpp:120] Setting up inception_5b/pool_proj
I0703 17:51:04.094534 18087 net.cpp:127] Top shape: 10 128 7 7 (62720)
I0703 17:51:04.094545 18087 layer_factory.hpp:74] Creating layer inception_5b/relu_pool_proj
I0703 17:51:04.094552 18087 net.cpp:90] Creating Layer inception_5b/relu_pool_proj
I0703 17:51:04.094558 18087 net.cpp:410] inception_5b/relu_pool_proj <- inception_5b/pool_proj
I0703 17:51:04.094563 18087 net.cpp:357] inception_5b/relu_pool_proj -> inception_5b/pool_proj (in-place)
I0703 17:51:04.094569 18087 net.cpp:120] Setting up inception_5b/relu_pool_proj
I0703 17:51:04.094611 18087 net.cpp:127] Top shape: 10 128 7 7 (62720)
I0703 17:51:04.094617 18087 layer_factory.hpp:74] Creating layer inception_5b/output
I0703 17:51:04.094624 18087 net.cpp:90] Creating Layer inception_5b/output
I0703 17:51:04.094630 18087 net.cpp:410] inception_5b/output <- inception_5b/1x1
I0703 17:51:04.094635 18087 net.cpp:410] inception_5b/output <- inception_5b/3x3
I0703 17:51:04.094640 18087 net.cpp:410] inception_5b/output <- inception_5b/5x5
I0703 17:51:04.094645 18087 net.cpp:410] inception_5b/output <- inception_5b/pool_proj
I0703 17:51:04.094650 18087 net.cpp:368] inception_5b/output -> inception_5b/output
I0703 17:51:04.094655 18087 net.cpp:120] Setting up inception_5b/output
I0703 17:51:04.094662 18087 net.cpp:127] Top shape: 10 1024 7 7 (501760)
I0703 17:51:04.094666 18087 layer_factory.hpp:74] Creating layer pool5/7x7_s1
I0703 17:51:04.094672 18087 net.cpp:90] Creating Layer pool5/7x7_s1
I0703 17:51:04.094677 18087 net.cpp:410] pool5/7x7_s1 <- inception_5b/output
I0703 17:51:04.094684 18087 net.cpp:368] pool5/7x7_s1 -> pool5/7x7_s1
I0703 17:51:04.094691 18087 net.cpp:120] Setting up pool5/7x7_s1
I0703 17:51:04.094808 18087 net.cpp:127] Top shape: 10 1024 1 1 (10240)
I0703 17:51:04.094817 18087 layer_factory.hpp:74] Creating layer pool5/drop_7x7_s1
I0703 17:51:04.094825 18087 net.cpp:90] Creating Layer pool5/drop_7x7_s1
I0703 17:51:04.094830 18087 net.cpp:410] pool5/drop_7x7_s1 <- pool5/7x7_s1
I0703 17:51:04.094835 18087 net.cpp:357] pool5/drop_7x7_s1 -> pool5/7x7_s1 (in-place)
I0703 17:51:04.094841 18087 net.cpp:120] Setting up pool5/drop_7x7_s1
I0703 17:51:04.094847 18087 net.cpp:127] Top shape: 10 1024 1 1 (10240)
I0703 17:51:04.094852 18087 layer_factory.hpp:74] Creating layer stanford_cars_loss3/classifier
I0703 17:51:04.094859 18087 net.cpp:90] Creating Layer stanford_cars_loss3/classifier
I0703 17:51:04.094864 18087 net.cpp:410] stanford_cars_loss3/classifier <- pool5/7x7_s1
I0703 17:51:04.094871 18087 net.cpp:368] stanford_cars_loss3/classifier -> stanford_cars_loss3/classifier
I0703 17:51:04.094883 18087 net.cpp:120] Setting up stanford_cars_loss3/classifier
I0703 17:51:04.095908 18087 net.cpp:127] Top shape: 10 196 (1960)
I0703 17:51:04.095916 18087 layer_factory.hpp:74] Creating layer stanford_cars_loss3/classifier_stanford_cars_loss3/classifier_0_split
I0703 17:51:04.095923 18087 net.cpp:90] Creating Layer stanford_cars_loss3/classifier_stanford_cars_loss3/classifier_0_split
I0703 17:51:04.095928 18087 net.cpp:410] stanford_cars_loss3/classifier_stanford_cars_loss3/classifier_0_split <- stanford_cars_loss3/classifier
I0703 17:51:04.095934 18087 net.cpp:368] stanford_cars_loss3/classifier_stanford_cars_loss3/classifier_0_split -> stanford_cars_loss3/classifier_stanford_cars_loss3/classifier_0_split_0
I0703 17:51:04.095942 18087 net.cpp:368] stanford_cars_loss3/classifier_stanford_cars_loss3/classifier_0_split -> stanford_cars_loss3/classifier_stanford_cars_loss3/classifier_0_split_1
I0703 17:51:04.095948 18087 net.cpp:368] stanford_cars_loss3/classifier_stanford_cars_loss3/classifier_0_split -> stanford_cars_loss3/classifier_stanford_cars_loss3/classifier_0_split_2
I0703 17:51:04.095954 18087 net.cpp:120] Setting up stanford_cars_loss3/classifier_stanford_cars_loss3/classifier_0_split
I0703 17:51:04.095962 18087 net.cpp:127] Top shape: 10 196 (1960)
I0703 17:51:04.095965 18087 net.cpp:127] Top shape: 10 196 (1960)
I0703 17:51:04.095970 18087 net.cpp:127] Top shape: 10 196 (1960)
I0703 17:51:04.095974 18087 layer_factory.hpp:74] Creating layer loss3/loss3
I0703 17:51:04.095980 18087 net.cpp:90] Creating Layer loss3/loss3
I0703 17:51:04.095984 18087 net.cpp:410] loss3/loss3 <- stanford_cars_loss3/classifier_stanford_cars_loss3/classifier_0_split_0
I0703 17:51:04.095989 18087 net.cpp:410] loss3/loss3 <- label_data_1_split_6
I0703 17:51:04.095999 18087 net.cpp:368] loss3/loss3 -> loss3/loss3
…
