…
I0704 13:25:32.022402 25786 net.cpp:287] The NetState phase (0) differed from the phase (1) specified by a rule in layer loss3/top-5
I0704 13:25:32.023035 25786 net.cpp:42] Initializing net from parameters: 
name: "GoogleNet"
state {
  phase: TRAIN
}
layer {
  name: "data"
  type: "Data"
  top: "data"
  top: "label"
  include {
    phase: TRAIN
  }
  transform_param {
    mirror: true
    crop_size: 224
    mean_value: 104
    mean_value: 117
    mean_value: 123
  }
  data_param {
    source: "examples/stanford_cars/stanford_cars_train_lmdb"
    batch_size: 30
    backend: LMDB
  }
}
layer {
  name: "conv1/7x7_s2"
  type: "Convolution"
  bottom: "data"
  top: "conv1/7x7_s2"
  param {
    lr_mult: 1
    decay_mult: 1
  }
  param {
    lr_mult: 2
    decay_mult: 0
  }
  convolution_param {
    num_output: 64
    pad: 3
    kernel_size: 7
    stride: 2
    weight_filler {
      type: "xavier"
      std: 0.1
    }
    bias_filler {
      type: "constant"
      value: 0.2
    }
  }
}
layer {
  name: "conv1/relu_7x7"
  type: "ReLU"
  bottom: "conv1/7x7_s2"
  top: "conv1/7x7_s2"
}
layer {
  name: "pool1/3x3_s2"
  type: "Pooling"
  bottom: "conv1/7x7_s2"
  top: "pool1/3x3_s2"
  pooling_param {
    pool: MAX
    kernel_size: 3
    stride: 2
  }
}
layer {
  name: "pool1/norm1"
  type: "LRN"
  bottom: "pool1/3x3_s2"
  top: "pool1/norm1"
  lrn_param {
    local_size: 5
    alpha: 0.0001
    beta: 0.75
  }
}
layer {
  name: "conv2/3x3_reduce"
  type: "Convolution"
  bottom: "pool1/norm1"
  top: "conv2/3x3_reduce"
  param {
    lr_mult: 1
    decay_mult: 1
  }
  param {
    lr_mult: 2
    decay_mult: 0
  }
  convolution_param {
    num_output: 64
    kernel_size: 1
    weight_filler {
      type: "xavier"
      std: 0.1
    }
    bias_filler {
      type: "constant"
      value: 0.2
    }
  }
}
layer {
  name: "conv2/relu_3x3_reduce"
  type: "ReLU"
  bottom: "conv2/3x3_reduce"
  top: "conv2/3x3_reduce"
}
layer {
  name: "conv2/3x3"
  type: "Convolution"
  bottom: "conv2/3x3_reduce"
  top: "conv2/3x3"
  param {
    lr_mult: 1
    decay_mult: 1
  }
  param {
    lr_mult: 2
    decay_mult: 0
  }
  convolution_param {
    num_output: 192
    pad: 1
    kernel_size: 3
    weight_filler {
      type: "xavier"
      std: 0.03
    }
    bias_filler {
      type: "constant"
      value: 0.2
    }
  }
}
layer {
  name: "conv2/relu_3x3"
  type: "ReLU"
  bottom: "conv2/3x3"
  top: "conv2/3x3"
}
layer {
  name: "conv2/norm2"
  type: "LRN"
  bottom: "conv2/3x3"
  top: "conv2/norm2"
  lrn_param {
    local_size: 5
    alpha: 0.0001
    beta: 0.75
  }
}
layer {
  name: "pool2/3x3_s2"
  type: "Pooling"
  bottom: "conv2/norm2"
  top: "pool2/3x3_s2"
  pooling_param {
    pool: MAX
    kernel_size: 3
    stride: 2
  }
}
layer {
  name: "inception_3a/1x1"
  type: "Convolution"
  bottom: "pool2/3x3_s2"
  top: "inception_3a/1x1"
  param {
    lr_mult: 1
    decay_mult: 1
  }
  param {
    lr_mult: 2
    decay_mult: 0
  }
  convolution_param {
    num_output: 64
    kernel_size: 1
    weight_filler {
      type: "xavier"
      std: 0.03
    }
    bias_filler {
      type: "constant"
      value: 0.2
    }
  }
}
layer {
  name: "inception_3a/relu_1x1"
  type: "ReLU"
  bottom: "inception_3a/1x1"
  top: "inception_3a/1x1"
}
layer {
  name: "inception_3a/3x3_reduce"
  type: "Convolution"
  bottom: "pool2/3x3_s2"
  top: "inception_3a/3x3_reduce"
  param {
    lr_mult: 1
    decay_mult: 1
  }
  param {
    lr_mult: 2
    decay_mult: 0
  }
  convolution_param {
    num_output: 96
    kernel_size: 1
    weight_filler {
      type: "xavier"
      std: 0.09
    }
    bias_filler {
      type: "constant"
      value: 0.2
    }
  }
}
layer {
  name: "inception_3a/relu_3x3_reduce"
  type: "ReLU"
  bottom: "inception_3a/3x3_reduce"
  top: "inception_3a/3x3_reduce"
}
layer {
  name: "inception_3a/3x3"
  type: "Convolution"
  bottom: "inception_3a/3x3_reduce"
  top: "inception_3a/3x3"
  param {
    lr_mult: 1
    decay_mult: 1
  }
  param {
    lr_mult: 2
    decay_mult: 0
  }
  convolution_param {
    num_output: 128
    pad: 1
    kernel_size: 3
    weight_filler {
      type: "xavier"
      std: 0.03
    }
    bias_filler {
      type: "constant"
      value: 0.2
    }
  }
}
layer {
  name: "inception_3a/relu_3x3"
  type: "ReLU"
  bottom: "inception_3a/3x3"
  top: "inception_3a/3x3"
}
layer {
  name: "inception_3a/5x5_reduce"
  type: "Convolution"
  bottom: "pool2/3x3_s2"
  top: "inception_3a/5x5_reduce"
  param {
    lr_mult: 1
    decay_mult: 1
  }
  param {
    lr_mult: 2
    decay_mult: 0
  }
  convolution_param {
    num_output: 16
    kernel_size: 1
    weight_filler {
      type: "xavier"
      std: 0.2
    }
    bias_filler {
      type: "constant"
      value: 0.2
    }
  }
}
layer {
  name: "inception_3a/relu_5x5_reduce"
  type: "ReLU"
  bottom: "inception_3a/5x5_reduce"
  top: "inception_3a/5x5_reduce"
}
layer {
  name: "inception_3a/5x5"
  type: "Convolution"
  bottom: "inception_3a/5x5_reduce"
  top: "inception_3a/5x5"
  param {
    lr_mult: 1
    decay_mult: 1
  }
  param {
    lr_mult: 2
    decay_mult: 0
  }
  convolution_param {
    num_output: 32
    pad: 2
    kernel_size: 5
    weight_filler {
      type: "xavier"
      std: 0.03
    }
    bias_filler {
      type: "constant"
      value: 0.2
    }
  }
}
layer {
  name: "inception_3a/relu_5x5"
  type: "ReLU"
  bottom: "inception_3a/5x5"
  top: "inception_3a/5x5"
}
layer {
  name: "inception_3a/pool"
  type: "Pooling"
  bottom: "pool2/3x3_s2"
  top: "inception_3a/pool"
  pooling_param {
    pool: MAX
    kernel_size: 3
    stride: 1
    pad: 1
  }
}
layer {
  name: "inception_3a/pool_proj"
  type: "Convolution"
  bottom: "inception_3a/pool"
  top: "inception_3a/pool_proj"
  param {
    lr_mult: 1
    decay_mult: 1
  }
  param {
    lr_mult: 2
    decay_mult: 0
  }
  convolution_param {
    num_output: 32
    kernel_size: 1
    weight_filler {
      type: "xavier"
      std: 0.1
    }
    bias_filler {
      type: "constant"
      value: 0.2
    }
  }
}
layer {
  name: "inception_3a/relu_pool_proj"
  type: "ReLU"
  bottom: "inception_3a/pool_proj"
  top: "inception_3a/pool_proj"
}
layer {
  name: "inception_3a/output"
  type: "Concat"
  bottom: "inception_3a/1x1"
  bottom: "inception_3a/3x3"
  bottom: "inception_3a/5x5"
  bottom: "inception_3a/pool_proj"
  top: "inception_3a/output"
}
layer {
  name: "inception_3b/1x1"
  type: "Convolution"
  bottom: "inception_3a/output"
  top: "inception_3b/1x1"
  param {
    lr_mult: 1
    decay_mult: 1
  }
  param {
    lr_mult: 2
    decay_mult: 0
  }
  convolution_param {
    num_output: 128
    kernel_size: 1
    weight_filler {
      type: "xavier"
      std: 0.03
    }
    bias_filler {
      type: "constant"
      value: 0.2
    }
  }
}
layer {
  name: "inception_3b/relu_1x1"
  type: "ReLU"
  bottom: "inception_3b/1x1"
  top: "inception_3b/1x1"
}
layer {
  name: "inception_3b/3x3_reduce"
  type: "Convolution"
  bottom: "inception_3a/output"
  top: "inception_3b/3x3_reduce"
  param {
    lr_mult: 1
    decay_mult: 1
  }
  param {
    lr_mult: 2
    decay_mult: 0
  }
  convolution_param {
    num_output: 128
    kernel_size: 1
    weight_filler {
      type: "xavier"
      std: 0.09
    }
    bias_filler {
      type: "constant"
      value: 0.2
    }
  }
}
layer {
  name: "inception_3b/relu_3x3_reduce"
  type: "ReLU"
  bottom: "inception_3b/3x3_reduce"
  top: "inception_3b/3x3_reduce"
}
layer {
  name: "inception_3b/3x3"
  type: "Convolution"
  bottom: "inception_3b/3x3_reduce"
  top: "inception_3b/3x3"
  param {
    lr_mult: 1
    decay_mult: 1
  }
  param {
    lr_mult: 2
    decay_mult: 0
  }
  convolution_param {
    num_output: 192
    pad: 1
    kernel_size: 3
    weight_filler {
      type: "xavier"
      std: 0.03
    }
    bias_filler {
      type: "constant"
      value: 0.2
    }
  }
}
layer {
  name: "inception_3b/relu_3x3"
  type: "ReLU"
  bottom: "inception_3b/3x3"
  top: "inception_3b/3x3"
}
layer {
  name: "inception_3b/5x5_reduce"
  type: "Convolution"
  bottom: "inception_3a/output"
  top: "inception_3b/5x5_reduce"
  param {
    lr_mult: 1
    decay_mult: 1
  }
  param {
    lr_mult: 2
    decay_mult: 0
  }
  convolution_param {
    num_output: 32
    kernel_size: 1
    weight_filler {
      type: "xavier"
      std: 0.2
    }
    bias_filler {
      type: "constant"
      value: 0.2
    }
  }
}
layer {
  name: "inception_3b/relu_5x5_reduce"
  type: "ReLU"
  bottom: "inception_3b/5x5_reduce"
  top: "inception_3b/5x5_reduce"
}
layer {
  name: "inception_3b/5x5"
  type: "Convolution"
  bottom: "inception_3b/5x5_reduce"
  top: "inception_3b/5x5"
  param {
    lr_mult: 1
    decay_mult: 1
  }
  param {
    lr_mult: 2
    decay_mult: 0
  }
  convolution_param {
    num_output: 96
    pad: 2
    kernel_size: 5
    weight_filler {
      type: "xavier"
      std: 0.03
    }
    bias_filler {
      type: "constant"
      value: 0.2
    }
  }
}
layer {
  name: "inception_3b/relu_5x5"
  type: "ReLU"
  bottom: "inception_3b/5x5"
  top: "inception_3b/5x5"
}
layer {
  name: "inception_3b/pool"
  type: "Pooling"
  bottom: "inception_3a/output"
  top: "inception_3b/pool"
  pooling_param {
    pool: MAX
    kernel_size: 3
    stride: 1
    pad: 1
  }
}
layer {
  name: "inception_3b/pool_proj"
  type: "Convolution"
  bottom: "inception_3b/pool"
  top: "inception_3b/pool_proj"
  param {
    lr_mult: 1
    decay_mult: 1
  }
  param {
    lr_mult: 2
    decay_mult: 0
  }
  convolution_param {
    num_output: 64
    kernel_size: 1
    weight_filler {
      type: "xavier"
      std: 0.1
    }
    bias_filler {
      type: "constant"
      value: 0.2
    }
  }
}
layer {
  name: "inception_3b/relu_pool_proj"
  type: "ReLU"
  bottom: "inception_3b/pool_proj"
  top: "inception_3b/pool_proj"
}
layer {
  name: "inception_3b/output"
  type: "Concat"
  bottom: "inception_3b/1x1"
  bottom: "inception_3b/3x3"
  bottom: "inception_3b/5x5"
  bottom: "inception_3b/pool_proj"
  top: "inception_3b/output"
}
layer {
  name: "pool3/3x3_s2"
  type: "Pooling"
  bottom: "inception_3b/output"
  top: "pool3/3x3_s2"
  pooling_param {
    pool: MAX
    kernel_size: 3
    stride: 2
  }
}
layer {
  name: "inception_4a/1x1"
  type: "Convolution"
  bottom: "pool3/3x3_s2"
  top: "inception_4a/1x1"
  param {
    lr_mult: 1
    decay_mult: 1
  }
  param {
    lr_mult: 2
    decay_mult: 0
  }
  convolution_param {
    num_output: 192
    kernel_size: 1
    weight_filler {
      type: "xavier"
      std: 0.03
    }
    bias_filler {
      type: "constant"
      value: 0.2
    }
  }
}
layer {
  name: "inception_4a/relu_1x1"
  type: "ReLU"
  bottom: "inception_4a/1x1"
  top: "inception_4a/1x1"
}
layer {
  name: "inception_4a/3x3_reduce"
  type: "Convolution"
  bottom: "pool3/3x3_s2"
  top: "inception_4a/3x3_reduce"
  param {
    lr_mult: 1
    decay_mult: 1
  }
  param {
    lr_mult: 2
    decay_mult: 0
  }
  convolution_param {
    num_output: 96
    kernel_size: 1
    weight_filler {
      type: "xavier"
      std: 0.09
    }
    bias_filler {
      type: "constant"
      value: 0.2
    }
  }
}
layer {
  name: "inception_4a/relu_3x3_reduce"
  type: "ReLU"
  bottom: "inception_4a/3x3_reduce"
  top: "inception_4a/3x3_reduce"
}
layer {
  name: "inception_4a/3x3"
  type: "Convolution"
  bottom: "inception_4a/3x3_reduce"
  top: "inception_4a/3x3"
  param {
    lr_mult: 1
    decay_mult: 1
  }
  param {
    lr_mult: 2
    decay_mult: 0
  }
  convolution_param {
    num_output: 208
    pad: 1
    kernel_size: 3
    weight_filler {
      type: "xavier"
      std: 0.03
    }
    bias_filler {
      type: "constant"
      value: 0.2
    }
  }
}
layer {
  name: "inception_4a/relu_3x3"
  type: "ReLU"
  bottom: "inception_4a/3x3"
  top: "inception_4a/3x3"
}
layer {
  name: "inception_4a/5x5_reduce"
  type: "Convolution"
  bottom: "pool3/3x3_s2"
  top: "inception_4a/5x5_reduce"
  param {
    lr_mult: 1
    decay_mult: 1
  }
  param {
    lr_mult: 2
    decay_mult: 0
  }
  convolution_param {
    num_output: 16
    kernel_size: 1
    weight_filler {
      type: "xavier"
      std: 0.2
    }
    bias_filler {
      type: "constant"
      value: 0.2
    }
  }
}
layer {
  name: "inception_4a/relu_5x5_reduce"
  type: "ReLU"
  bottom: "inception_4a/5x5_reduce"
  top: "inception_4a/5x5_reduce"
}
layer {
  name: "inception_4a/5x5"
  type: "Convolution"
  bottom: "inception_4a/5x5_reduce"
  top: "inception_4a/5x5"
  param {
    lr_mult: 1
    decay_mult: 1
  }
  param {
    lr_mult: 2
    decay_mult: 0
  }
  convolution_param {
    num_output: 48
    pad: 2
    kernel_size: 5
    weight_filler {
      type: "xavier"
      std: 0.03
    }
    bias_filler {
      type: "constant"
      value: 0.2
    }
  }
}
layer {
  name: "inception_4a/relu_5x5"
  type: "ReLU"
  bottom: "inception_4a/5x5"
  top: "inception_4a/5x5"
}
layer {
  name: "inception_4a/pool"
  type: "Pooling"
  bottom: "pool3/3x3_s2"
  top: "inception_4a/pool"
  pooling_param {
    pool: MAX
    kernel_size: 3
    stride: 1
    pad: 1
  }
}
layer {
  name: "inception_4a/pool_proj"
  type: "Convolution"
  bottom: "inception_4a/pool"
  top: "inception_4a/pool_proj"
  param {
    lr_mult: 1
    decay_mult: 1
  }
  param {
    lr_mult: 2
    decay_mult: 0
  }
  convolution_param {
    num_output: 64
    kernel_size: 1
    weight_filler {
      type: "xavier"
      std: 0.1
    }
    bias_filler {
      type: "constant"
      value: 0.2
    }
  }
}
layer {
  name: "inception_4a/relu_pool_proj"
  type: "ReLU"
  bottom: "inception_4a/pool_proj"
  top: "inception_4a/pool_proj"
}
layer {
  name: "inception_4a/output"
  type: "Concat"
  bottom: "inception_4a/1x1"
  bottom: "inception_4a/3x3"
  bottom: "inception_4a/5x5"
  bottom: "inception_4a/pool_proj"
  top: "inception_4a/output"
}
layer {
  name: "loss1/ave_pool"
  type: "Pooling"
  bottom: "inception_4a/output"
  top: "loss1/ave_pool"
  pooling_param {
    pool: AVE
    kernel_size: 5
    stride: 3
  }
}
layer {
  name: "loss1/conv"
  type: "Convolution"
  bottom: "loss1/ave_pool"
  top: "loss1/conv"
  param {
    lr_mult: 1
    decay_mult: 1
  }
  param {
    lr_mult: 2
    decay_mult: 0
  }
  convolution_param {
    num_output: 128
    kernel_size: 1
    weight_filler {
      type: "xavier"
      std: 0.08
    }
    bias_filler {
      type: "constant"
      value: 0.2
    }
  }
}
layer {
  name: "loss1/relu_conv"
  type: "ReLU"
  bottom: "loss1/conv"
  top: "loss1/conv"
}
layer {
  name: "loss1/fc"
  type: "InnerProduct"
  bottom: "loss1/conv"
  top: "loss1/fc"
  param {
    lr_mult: 1
    decay_mult: 1
  }
  param {
    lr_mult: 2
    decay_mult: 0
  }
  inner_product_param {
    num_output: 1024
    weight_filler {
      type: "xavier"
      std: 0.02
    }
    bias_filler {
      type: "constant"
      value: 0.2
    }
  }
}
layer {
  name: "loss1/relu_fc"
  type: "ReLU"
  bottom: "loss1/fc"
  top: "loss1/fc"
}
layer {
  name: "loss1/drop_fc"
  type: "Dropout"
  bottom: "loss1/fc"
  top: "loss1/fc"
  dropout_param {
    dropout_ratio: 0.2
  }
}
layer {
  name: "stanford_cars_loss1/classifier"
  type: "InnerProduct"
  bottom: "loss1/fc"
  top: "stanford_cars_loss1/classifier"
  param {
    lr_mult: 1
    decay_mult: 1
  }
  param {
    lr_mult: 2
    decay_mult: 0
  }
  inner_product_param {
    num_output: 196
    weight_filler {
      type: "xavier"
      std: 0.0009765625
    }
    bias_filler {
      type: "constant"
      value: 0
    }
  }
}
layer {
  name: "loss1/loss"
  type: "SoftmaxWithLoss"
  bottom: "stanford_cars_loss1/classifier"
  bottom: "label"
  top: "loss1/loss1"
  loss_weight: 0.3
}
layer {
  name: "inception_4b/1x1"
  type: "Convolution"
  bottom: "inception_4a/output"
  top: "inception_4b/1x1"
  param {
    lr_mult: 1
    decay_mult: 1
  }
  param {
    lr_mult: 2
    decay_mult: 0
  }
  convolution_param {
    num_output: 160
    kernel_size: 1
    weight_filler {
      type: "xavier"
      std: 0.03
    }
    bias_filler {
      type: "constant"
      value: 0.2
    }
  }
}
layer {
  name: "inception_4b/relu_1x1"
  type: "ReLU"
  bottom: "inception_4b/1x1"
  top: "inception_4b/1x1"
}
layer {
  name: "inception_4b/3x3_reduce"
  type: "Convolution"
  bottom: "inception_4a/output"
  top: "inception_4b/3x3_reduce"
  param {
    lr_mult: 1
    decay_mult: 1
  }
  param {
    lr_mult: 2
    decay_mult: 0
  }
  convolution_param {
    num_output: 112
    kernel_size: 1
    weight_filler {
      type: "xavier"
      std: 0.09
    }
    bias_filler {
      type: "constant"
      value: 0.2
    }
  }
}
layer {
  name: "inception_4b/relu_3x3_reduce"
  type: "ReLU"
  bottom: "inception_4b/3x3_reduce"
  top: "inception_4b/3x3_reduce"
}
layer {
  name: "inception_4b/3x3"
  type: "Convolution"
  bottom: "inception_4b/3x3_reduce"
  top: "inception_4b/3x3"
  param {
    lr_mult: 1
    decay_mult: 1
  }
  param {
    lr_mult: 2
    decay_mult: 0
  }
  convolution_param {
    num_output: 224
    pad: 1
    kernel_size: 3
    weight_filler {
      type: "xavier"
      std: 0.03
    }
    bias_filler {
      type: "constant"
      value: 0.2
    }
  }
}
layer {
  name: "inception_4b/relu_3x3"
  type: "ReLU"
  bottom: "inception_4b/3x3"
  top: "inception_4b/3x3"
}
layer {
  name: "inception_4b/5x5_reduce"
  type: "Convolution"
  bottom: "inception_4a/output"
  top: "inception_4b/5x5_reduce"
  param {
    lr_mult: 1
    decay_mult: 1
  }
  param {
    lr_mult: 2
    decay_mult: 0
  }
  convolution_param {
    num_output: 24
    kernel_size: 1
    weight_filler {
      type: "xavier"
      std: 0.2
    }
    bias_filler {
      type: "constant"
      value: 0.2
    }
  }
}
layer {
  name: "inception_4b/relu_5x5_reduce"
  type: "ReLU"
  bottom: "inception_4b/5x5_reduce"
  top: "inception_4b/5x5_reduce"
}
layer {
  name: "inception_4b/5x5"
  type: "Convolution"
  bottom: "inception_4b/5x5_reduce"
  top: "inception_4b/5x5"
  param {
    lr_mult: 1
    decay_mult: 1
  }
  param {
    lr_mult: 2
    decay_mult: 0
  }
  convolution_param {
    num_output: 64
    pad: 2
    kernel_size: 5
    weight_filler {
      type: "xavier"
      std: 0.03
    }
    bias_filler {
      type: "constant"
      value: 0.2
    }
  }
}
layer {
  name: "inception_4b/relu_5x5"
  type: "ReLU"
  bottom: "inception_4b/5x5"
  top: "inception_4b/5x5"
}
layer {
  name: "inception_4b/pool"
  type: "Pooling"
  bottom: "inception_4a/output"
  top: "inception_4b/pool"
  pooling_param {
    pool: MAX
    kernel_size: 3
    stride: 1
    pad: 1
  }
}
layer {
  name: "inception_4b/pool_proj"
  type: "Convolution"
  bottom: "inception_4b/pool"
  top: "inception_4b/pool_proj"
  param {
    lr_mult: 1
    decay_mult: 1
  }
  param {
    lr_mult: 2
    decay_mult: 0
  }
  convolution_param {
    num_output: 64
    kernel_size: 1
    weight_filler {
      type: "xavier"
      std: 0.1
    }
    bias_filler {
      type: "constant"
      value: 0.2
    }
  }
}
layer {
  name: "inception_4b/relu_pool_proj"
  type: "ReLU"
  bottom: "inception_4b/pool_proj"
  top: "inception_4b/pool_proj"
}
layer {
  name: "inception_4b/output"
  type: "Concat"
  bottom: "inception_4b/1x1"
  bottom: "inception_4b/3x3"
  bottom: "inception_4b/5x5"
  bottom: "inception_4b/pool_proj"
  top: "inception_4b/output"
}
layer {
  name: "inception_4c/1x1"
  type: "Convolution"
  bottom: "inception_4b/output"
  top: "inception_4c/1x1"
  param {
    lr_mult: 1
    decay_mult: 1
  }
  param {
    lr_mult: 2
    decay_mult: 0
  }
  convolution_param {
    num_output: 128
    kernel_size: 1
    weight_filler {
      type: "xavier"
      std: 0.03
    }
    bias_filler {
      type: "constant"
      value: 0.2
    }
  }
}
layer {
  name: "inception_4c/relu_1x1"
  type: "ReLU"
  bottom: "inception_4c/1x1"
  top: "inception_4c/1x1"
}
layer {
  name: "inception_4c/3x3_reduce"
  type: "Convolution"
  bottom: "inception_4b/output"
  top: "inception_4c/3x3_reduce"
  param {
    lr_mult: 1
    decay_mult: 1
  }
  param {
    lr_mult: 2
    decay_mult: 0
  }
  convolution_param {
    num_output: 128
    kernel_size: 1
    weight_filler {
      type: "xavier"
      std: 0.09
    }
    bias_filler {
      type: "constant"
      value: 0.2
    }
  }
}
layer {
  name: "inception_4c/relu_3x3_reduce"
  type: "ReLU"
  bottom: "inception_4c/3x3_reduce"
  top: "inception_4c/3x3_reduce"
}
layer {
  name: "inception_4c/3x3"
  type: "Convolution"
  bottom: "inception_4c/3x3_reduce"
  top: "inception_4c/3x3"
  param {
    lr_mult: 1
    decay_mult: 1
  }
  param {
    lr_mult: 2
    decay_mult: 0
  }
  convolution_param {
    num_output: 256
    pad: 1
    kernel_size: 3
    weight_filler {
      type: "xavier"
      std: 0.03
    }
    bias_filler {
      type: "constant"
      value: 0.2
    }
  }
}
layer {
  name: "inception_4c/relu_3x3"
  type: "ReLU"
  bottom: "inception_4c/3x3"
  top: "inception_4c/3x3"
}
layer {
  name: "inception_4c/5x5_reduce"
  type: "Convolution"
  bottom: "inception_4b/output"
  top: "inception_4c/5x5_reduce"
  param {
    lr_mult: 1
    decay_mult: 1
  }
  param {
    lr_mult: 2
    decay_mult: 0
  }
  convolution_param {
    num_output: 24
    kernel_size: 1
    weight_filler {
      type: "xavier"
      std: 0.2
    }
    bias_filler {
      type: "constant"
      value: 0.2
    }
  }
}
layer {
  name: "inception_4c/relu_5x5_reduce"
  type: "ReLU"
  bottom: "inception_4c/5x5_reduce"
  top: "inception_4c/5x5_reduce"
}
layer {
  name: "inception_4c/5x5"
  type: "Convolution"
  bottom: "inception_4c/5x5_reduce"
  top: "inception_4c/5x5"
  param {
    lr_mult: 1
    decay_mult: 1
  }
  param {
    lr_mult: 2
    decay_mult: 0
  }
  convolution_param {
    num_output: 64
    pad: 2
    kernel_size: 5
    weight_filler {
      type: "xavier"
      std: 0.03
    }
    bias_filler {
      type: "constant"
      value: 0.2
    }
  }
}
layer {
  name: "inception_4c/relu_5x5"
  type: "ReLU"
  bottom: "inception_4c/5x5"
  top: "inception_4c/5x5"
}
layer {
  name: "inception_4c/pool"
  type: "Pooling"
  bottom: "inception_4b/output"
  top: "inception_4c/pool"
  pooling_param {
    pool: MAX
    kernel_size: 3
    stride: 1
    pad: 1
  }
}
layer {
  name: "inception_4c/pool_proj"
  type: "Convolution"
  bottom: "inception_4c/pool"
  top: "inception_4c/pool_proj"
  param {
    lr_mult: 1
    decay_mult: 1
  }
  param {
    lr_mult: 2
    decay_mult: 0
  }
  convolution_param {
    num_output: 64
    kernel_size: 1
    weight_filler {
      type: "xavier"
      std: 0.1
    }
    bias_filler {
      type: "constant"
      value: 0.2
    }
  }
}
layer {
  name: "inception_4c/relu_pool_proj"
  type: "ReLU"
  bottom: "inception_4c/pool_proj"
  top: "inception_4c/pool_proj"
}
layer {
  name: "inception_4c/output"
  type: "Concat"
  bottom: "inception_4c/1x1"
  bottom: "inception_4c/3x3"
  bottom: "inception_4c/5x5"
  bottom: "inception_4c/pool_proj"
  top: "inception_4c/output"
}
layer {
  name: "inception_4d/1x1"
  type: "Convolution"
  bottom: "inception_4c/output"
  top: "inception_4d/1x1"
  param {
    lr_mult: 1
    decay_mult: 1
  }
  param {
    lr_mult: 2
    decay_mult: 0
  }
  convolution_param {
    num_output: 112
    kernel_size: 1
    weight_filler {
      type: "xavier"
      std: 0.03
    }
    bias_filler {
      type: "constant"
      value: 0.2
    }
  }
}
layer {
  name: "inception_4d/relu_1x1"
  type: "ReLU"
  bottom: "inception_4d/1x1"
  top: "inception_4d/1x1"
}
layer {
  name: "inception_4d/3x3_reduce"
  type: "Convolution"
  bottom: "inception_4c/output"
  top: "inception_4d/3x3_reduce"
  param {
    lr_mult: 1
    decay_mult: 1
  }
  param {
    lr_mult: 2
    decay_mult: 0
  }
  convolution_param {
    num_output: 144
    kernel_size: 1
    weight_filler {
      type: "xavier"
      std: 0.09
    }
    bias_filler {
      type: "constant"
      value: 0.2
    }
  }
}
layer {
  name: "inception_4d/relu_3x3_reduce"
  type: "ReLU"
  bottom: "inception_4d/3x3_reduce"
  top: "inception_4d/3x3_reduce"
}
layer {
  name: "inception_4d/3x3"
  type: "Convolution"
  bottom: "inception_4d/3x3_reduce"
  top: "inception_4d/3x3"
  param {
    lr_mult: 1
    decay_mult: 1
  }
  param {
    lr_mult: 2
    decay_mult: 0
  }
  convolution_param {
    num_output: 288
    pad: 1
    kernel_size: 3
    weight_filler {
      type: "xavier"
      std: 0.03
    }
    bias_filler {
      type: "constant"
      value: 0.2
    }
  }
}
layer {
  name: "inception_4d/relu_3x3"
  type: "ReLU"
  bottom: "inception_4d/3x3"
  top: "inception_4d/3x3"
}
layer {
  name: "inception_4d/5x5_reduce"
  type: "Convolution"
  bottom: "inception_4c/output"
  top: "inception_4d/5x5_reduce"
  param {
    lr_mult: 1
    decay_mult: 1
  }
  param {
    lr_mult: 2
    decay_mult: 0
  }
  convolution_param {
    num_output: 32
    kernel_size: 1
    weight_filler {
      type: "xavier"
      std: 0.2
    }
    bias_filler {
      type: "constant"
      value: 0.2
    }
  }
}
layer {
  name: "inception_4d/relu_5x5_reduce"
  type: "ReLU"
  bottom: "inception_4d/5x5_reduce"
  top: "inception_4d/5x5_reduce"
}
layer {
  name: "inception_4d/5x5"
  type: "Convolution"
  bottom: "inception_4d/5x5_reduce"
  top: "inception_4d/5x5"
  param {
    lr_mult: 1
    decay_mult: 1
  }
  param {
    lr_mult: 2
    decay_mult: 0
  }
  convolution_param {
    num_output: 64
    pad: 2
    kernel_size: 5
    weight_filler {
      type: "xavier"
      std: 0.03
    }
    bias_filler {
      type: "constant"
      value: 0.2
    }
  }
}
layer {
  name: "inception_4d/relu_5x5"
  type: "ReLU"
  bottom: "inception_4d/5x5"
  top: "inception_4d/5x5"
}
layer {
  name: "inception_4d/pool"
  type: "Pooling"
  bottom: "inception_4c/output"
  top: "inception_4d/pool"
  pooling_param {
    pool: MAX
    kernel_size: 3
    stride: 1
    pad: 1
  }
}
layer {
  name: "inception_4d/pool_proj"
  type: "Convolution"
  bottom: "inception_4d/pool"
  top: "inception_4d/pool_proj"
  param {
    lr_mult: 1
    decay_mult: 1
  }
  param {
    lr_mult: 2
    decay_mult: 0
  }
  convolution_param {
    num_output: 64
    kernel_size: 1
    weight_filler {
      type: "xavier"
      std: 0.1
    }
    bias_filler {
      type: "constant"
      value: 0.2
    }
  }
}
layer {
  name: "inception_4d/relu_pool_proj"
  type: "ReLU"
  bottom: "inception_4d/pool_proj"
  top: "inception_4d/pool_proj"
}
layer {
  name: "inception_4d/output"
  type: "Concat"
  bottom: "inception_4d/1x1"
  bottom: "inception_4d/3x3"
  bottom: "inception_4d/5x5"
  bottom: "inception_4d/pool_proj"
  top: "inception_4d/output"
}
layer {
  name: "loss2/ave_pool"
  type: "Pooling"
  bottom: "inception_4d/output"
  top: "loss2/ave_pool"
  pooling_param {
    pool: AVE
    kernel_size: 5
    stride: 3
  }
}
layer {
  name: "loss2/conv"
  type: "Convolution"
  bottom: "loss2/ave_pool"
  top: "loss2/conv"
  param {
    lr_mult: 1
    decay_mult: 1
  }
  param {
    lr_mult: 2
    decay_mult: 0
  }
  convolution_param {
    num_output: 128
    kernel_size: 1
    weight_filler {
      type: "xavier"
      std: 0.08
    }
    bias_filler {
      type: "constant"
      value: 0.2
    }
  }
}
layer {
  name: "loss2/relu_conv"
  type: "ReLU"
  bottom: "loss2/conv"
  top: "loss2/conv"
}
layer {
  name: "loss2/fc"
  type: "InnerProduct"
  bottom: "loss2/conv"
  top: "loss2/fc"
  param {
    lr_mult: 1
    decay_mult: 1
  }
  param {
    lr_mult: 2
    decay_mult: 0
  }
  inner_product_param {
    num_output: 1024
    weight_filler {
      type: "xavier"
      std: 0.02
    }
    bias_filler {
      type: "constant"
      value: 0.2
    }
  }
}
layer {
  name: "loss2/relu_fc"
  type: "ReLU"
  bottom: "loss2/fc"
  top: "loss2/fc"
}
layer {
  name: "loss2/drop_fc"
  type: "Dropout"
  bottom: "loss2/fc"
  top: "loss2/fc"
  dropout_param {
    dropout_ratio: 0.2
  }
}
layer {
  name: "stanford_cars_loss2/classifier"
  type: "InnerProduct"
  bottom: "loss2/fc"
  top: "stanford_cars_loss2/classifier"
  param {
    lr_mult: 1
    decay_mult: 1
  }
  param {
    lr_mult: 2
    decay_mult: 0
  }
  inner_product_param {
    num_output: 196
    weight_filler {
      type: "xavier"
      std: 0.0009765625
    }
    bias_filler {
      type: "constant"
      value: 0
    }
  }
}
layer {
  name: "stanford_cars_loss2/loss"
  type: "SoftmaxWithLoss"
  bottom: "stanford_cars_loss2/classifier"
  bottom: "label"
  top: "loss2/loss1"
  loss_weight: 0.3
}
layer {
  name: "inception_4e/1x1"
  type: "Convolution"
  bottom: "inception_4d/output"
  top: "inception_4e/1x1"
  param {
    lr_mult: 1
    decay_mult: 1
  }
  param {
    lr_mult: 2
    decay_mult: 0
  }
  convolution_param {
    num_output: 256
    kernel_size: 1
    weight_filler {
      type: "xavier"
      std: 0.03
    }
    bias_filler {
      type: "constant"
      value: 0.2
    }
  }
}
layer {
  name: "inception_4e/relu_1x1"
  type: "ReLU"
  bottom: "inception_4e/1x1"
  top: "inception_4e/1x1"
}
layer {
  name: "inception_4e/3x3_reduce"
  type: "Convolution"
  bottom: "inception_4d/output"
  top: "inception_4e/3x3_reduce"
  param {
    lr_mult: 1
    decay_mult: 1
  }
  param {
    lr_mult: 2
    decay_mult: 0
  }
  convolution_param {
    num_output: 160
    kernel_size: 1
    weight_filler {
      type: "xavier"
      std: 0.09
    }
    bias_filler {
      type: "constant"
      value: 0.2
    }
  }
}
layer {
  name: "inception_4e/relu_3x3_reduce"
  type: "ReLU"
  bottom: "inception_4e/3x3_reduce"
  top: "inception_4e/3x3_reduce"
}
layer {
  name: "inception_4e/3x3"
  type: "Convolution"
  bottom: "inception_4e/3x3_reduce"
  top: "inception_4e/3x3"
  param {
    lr_mult: 1
    decay_mult: 1
  }
  param {
    lr_mult: 2
    decay_mult: 0
  }
  convolution_param {
    num_output: 320
    pad: 1
    kernel_size: 3
    weight_filler {
      type: "xavier"
      std: 0.03
    }
    bias_filler {
      type: "constant"
      value: 0.2
    }
  }
}
layer {
  name: "inception_4e/relu_3x3"
  type: "ReLU"
  bottom: "inception_4e/3x3"
  top: "inception_4e/3x3"
}
layer {
  name: "inception_4e/5x5_reduce"
  type: "Convolution"
  bottom: "inception_4d/output"
  top: "inception_4e/5x5_reduce"
  param {
    lr_mult: 1
    decay_mult: 1
  }
  param {
    lr_mult: 2
    decay_mult: 0
  }
  convolution_param {
    num_output: 32
    kernel_size: 1
    weight_filler {
      type: "xavier"
      std: 0.2
    }
    
I0704 13:25:32.026465 25786 layer_factory.hpp:74] Creating layer data
I0704 13:25:32.026485 25786 net.cpp:90] Creating Layer data
I0704 13:25:32.026494 25786 net.cpp:368] data -> data
I0704 13:25:32.026516 25786 net.cpp:368] data -> label
I0704 13:25:32.026527 25786 net.cpp:120] Setting up data
I0704 13:25:32.026576 25786 db.cpp:34] Opened lmdb examples/stanford_cars/stanford_cars_train_lmdb
I0704 13:25:32.026728 25786 data_layer.cpp:67] output data size: 30,3,224,224
I0704 13:25:32.028913 25786 net.cpp:127] Top shape: 30 3 224 224 (4515840)
I0704 13:25:32.028944 25786 net.cpp:127] Top shape: 30 (30)
I0704 13:25:32.028952 25786 layer_factory.hpp:74] Creating layer label_data_1_split
I0704 13:25:32.028966 25786 net.cpp:90] Creating Layer label_data_1_split
I0704 13:25:32.028973 25786 net.cpp:410] label_data_1_split <- label
I0704 13:25:32.028986 25786 net.cpp:368] label_data_1_split -> label_data_1_split_0
I0704 13:25:32.028995 25786 net.cpp:368] label_data_1_split -> label_data_1_split_1
I0704 13:25:32.029002 25786 net.cpp:368] label_data_1_split -> label_data_1_split_2
I0704 13:25:32.029008 25786 net.cpp:120] Setting up label_data_1_split
I0704 13:25:32.029017 25786 net.cpp:127] Top shape: 30 (30)
I0704 13:25:32.029039 25786 net.cpp:127] Top shape: 30 (30)
I0704 13:25:32.029044 25786 net.cpp:127] Top shape: 30 (30)
I0704 13:25:32.029048 25786 layer_factory.hpp:74] Creating layer conv1/7x7_s2
I0704 13:25:32.029059 25786 net.cpp:90] Creating Layer conv1/7x7_s2
I0704 13:25:32.029064 25786 net.cpp:410] conv1/7x7_s2 <- data
I0704 13:25:32.029070 25786 net.cpp:368] conv1/7x7_s2 -> conv1/7x7_s2
I0704 13:25:32.029079 25786 net.cpp:120] Setting up conv1/7x7_s2
I0704 13:25:32.059248 25786 net.cpp:127] Top shape: 30 64 112 112 (24084480)
I0704 13:25:32.059295 25786 layer_factory.hpp:74] Creating layer conv1/relu_7x7
I0704 13:25:32.059320 25786 net.cpp:90] Creating Layer conv1/relu_7x7
I0704 13:25:32.059327 25786 net.cpp:410] conv1/relu_7x7 <- conv1/7x7_s2
I0704 13:25:32.059335 25786 net.cpp:357] conv1/relu_7x7 -> conv1/7x7_s2 (in-place)
I0704 13:25:32.059344 25786 net.cpp:120] Setting up conv1/relu_7x7
I0704 13:25:32.059394 25786 net.cpp:127] Top shape: 30 64 112 112 (24084480)
I0704 13:25:32.059401 25786 layer_factory.hpp:74] Creating layer pool1/3x3_s2
I0704 13:25:32.059422 25786 net.cpp:90] Creating Layer pool1/3x3_s2
I0704 13:25:32.059427 25786 net.cpp:410] pool1/3x3_s2 <- conv1/7x7_s2
I0704 13:25:32.059432 25786 net.cpp:368] pool1/3x3_s2 -> pool1/3x3_s2
I0704 13:25:32.059439 25786 net.cpp:120] Setting up pool1/3x3_s2
I0704 13:25:32.059564 25786 net.cpp:127] Top shape: 30 64 56 56 (6021120)
I0704 13:25:32.059584 25786 layer_factory.hpp:74] Creating layer pool1/norm1
I0704 13:25:32.059593 25786 net.cpp:90] Creating Layer pool1/norm1
I0704 13:25:32.059598 25786 net.cpp:410] pool1/norm1 <- pool1/3x3_s2
I0704 13:25:32.059604 25786 net.cpp:368] pool1/norm1 -> pool1/norm1
I0704 13:25:32.059612 25786 net.cpp:120] Setting up pool1/norm1
I0704 13:25:32.059619 25786 net.cpp:127] Top shape: 30 64 56 56 (6021120)
I0704 13:25:32.059625 25786 layer_factory.hpp:74] Creating layer conv2/3x3_reduce
I0704 13:25:32.059633 25786 net.cpp:90] Creating Layer conv2/3x3_reduce
I0704 13:25:32.059638 25786 net.cpp:410] conv2/3x3_reduce <- pool1/norm1
I0704 13:25:32.059644 25786 net.cpp:368] conv2/3x3_reduce -> conv2/3x3_reduce
I0704 13:25:32.059653 25786 net.cpp:120] Setting up conv2/3x3_reduce
I0704 13:25:32.059865 25786 net.cpp:127] Top shape: 30 64 56 56 (6021120)
I0704 13:25:32.059888 25786 layer_factory.hpp:74] Creating layer conv2/relu_3x3_reduce
I0704 13:25:32.059896 25786 net.cpp:90] Creating Layer conv2/relu_3x3_reduce
I0704 13:25:32.059901 25786 net.cpp:410] conv2/relu_3x3_reduce <- conv2/3x3_reduce
I0704 13:25:32.059907 25786 net.cpp:357] conv2/relu_3x3_reduce -> conv2/3x3_reduce (in-place)
I0704 13:25:32.059913 25786 net.cpp:120] Setting up conv2/relu_3x3_reduce
I0704 13:25:32.059958 25786 net.cpp:127] Top shape: 30 64 56 56 (6021120)
I0704 13:25:32.059965 25786 layer_factory.hpp:74] Creating layer conv2/3x3
I0704 13:25:32.059983 25786 net.cpp:90] Creating Layer conv2/3x3
I0704 13:25:32.059988 25786 net.cpp:410] conv2/3x3 <- conv2/3x3_reduce
I0704 13:25:32.059994 25786 net.cpp:368] conv2/3x3 -> conv2/3x3
I0704 13:25:32.060000 25786 net.cpp:120] Setting up conv2/3x3
I0704 13:25:32.060667 25786 net.cpp:127] Top shape: 30 192 56 56 (18063360)
I0704 13:25:32.060691 25786 layer_factory.hpp:74] Creating layer conv2/relu_3x3
I0704 13:25:32.060699 25786 net.cpp:90] Creating Layer conv2/relu_3x3
I0704 13:25:32.060704 25786 net.cpp:410] conv2/relu_3x3 <- conv2/3x3
I0704 13:25:32.060710 25786 net.cpp:357] conv2/relu_3x3 -> conv2/3x3 (in-place)
I0704 13:25:32.060717 25786 net.cpp:120] Setting up conv2/relu_3x3
I0704 13:25:32.060768 25786 net.cpp:127] Top shape: 30 192 56 56 (18063360)
I0704 13:25:32.060775 25786 layer_factory.hpp:74] Creating layer conv2/norm2
I0704 13:25:32.060791 25786 net.cpp:90] Creating Layer conv2/norm2
I0704 13:25:32.060796 25786 net.cpp:410] conv2/norm2 <- conv2/3x3
I0704 13:25:32.060802 25786 net.cpp:368] conv2/norm2 -> conv2/norm2
I0704 13:25:32.060808 25786 net.cpp:120] Setting up conv2/norm2
I0704 13:25:32.060816 25786 net.cpp:127] Top shape: 30 192 56 56 (18063360)
I0704 13:25:32.060819 25786 layer_factory.hpp:74] Creating layer pool2/3x3_s2
I0704 13:25:32.060844 25786 net.cpp:90] Creating Layer pool2/3x3_s2
I0704 13:25:32.060849 25786 net.cpp:410] pool2/3x3_s2 <- conv2/norm2
I0704 13:25:32.060855 25786 net.cpp:368] pool2/3x3_s2 -> pool2/3x3_s2
I0704 13:25:32.060863 25786 net.cpp:120] Setting up pool2/3x3_s2
I0704 13:25:32.060910 25786 net.cpp:127] Top shape: 30 192 28 28 (4515840)
I0704 13:25:32.060916 25786 layer_factory.hpp:74] Creating layer pool2/3x3_s2_pool2/3x3_s2_0_split
I0704 13:25:32.060933 25786 net.cpp:90] Creating Layer pool2/3x3_s2_pool2/3x3_s2_0_split
I0704 13:25:32.060940 25786 net.cpp:410] pool2/3x3_s2_pool2/3x3_s2_0_split <- pool2/3x3_s2
I0704 13:25:32.060945 25786 net.cpp:368] pool2/3x3_s2_pool2/3x3_s2_0_split -> pool2/3x3_s2_pool2/3x3_s2_0_split_0
I0704 13:25:32.060951 25786 net.cpp:368] pool2/3x3_s2_pool2/3x3_s2_0_split -> pool2/3x3_s2_pool2/3x3_s2_0_split_1
I0704 13:25:32.060958 25786 net.cpp:368] pool2/3x3_s2_pool2/3x3_s2_0_split -> pool2/3x3_s2_pool2/3x3_s2_0_split_2
I0704 13:25:32.060964 25786 net.cpp:368] pool2/3x3_s2_pool2/3x3_s2_0_split -> pool2/3x3_s2_pool2/3x3_s2_0_split_3
I0704 13:25:32.060971 25786 net.cpp:120] Setting up pool2/3x3_s2_pool2/3x3_s2_0_split
I0704 13:25:32.060977 25786 net.cpp:127] Top shape: 30 192 28 28 (4515840)
I0704 13:25:32.060982 25786 net.cpp:127] Top shape: 30 192 28 28 (4515840)
I0704 13:25:32.060986 25786 net.cpp:127] Top shape: 30 192 28 28 (4515840)
I0704 13:25:32.060992 25786 net.cpp:127] Top shape: 30 192 28 28 (4515840)
I0704 13:25:32.060997 25786 layer_factory.hpp:74] Creating layer inception_3a/1x1
I0704 13:25:32.061003 25786 net.cpp:90] Creating Layer inception_3a/1x1
I0704 13:25:32.061008 25786 net.cpp:410] inception_3a/1x1 <- pool2/3x3_s2_pool2/3x3_s2_0_split_0
I0704 13:25:32.061014 25786 net.cpp:368] inception_3a/1x1 -> inception_3a/1x1
I0704 13:25:32.061022 25786 net.cpp:120] Setting up inception_3a/1x1
I0704 13:25:32.061280 25786 net.cpp:127] Top shape: 30 64 28 28 (1505280)
I0704 13:25:32.061302 25786 layer_factory.hpp:74] Creating layer inception_3a/relu_1x1
I0704 13:25:32.061310 25786 net.cpp:90] Creating Layer inception_3a/relu_1x1
I0704 13:25:32.061314 25786 net.cpp:410] inception_3a/relu_1x1 <- inception_3a/1x1
I0704 13:25:32.061321 25786 net.cpp:357] inception_3a/relu_1x1 -> inception_3a/1x1 (in-place)
I0704 13:25:32.061326 25786 net.cpp:120] Setting up inception_3a/relu_1x1
I0704 13:25:32.061441 25786 net.cpp:127] Top shape: 30 64 28 28 (1505280)
I0704 13:25:32.061460 25786 layer_factory.hpp:74] Creating layer inception_3a/3x3_reduce
I0704 13:25:32.061468 25786 net.cpp:90] Creating Layer inception_3a/3x3_reduce
I0704 13:25:32.061473 25786 net.cpp:410] inception_3a/3x3_reduce <- pool2/3x3_s2_pool2/3x3_s2_0_split_1
I0704 13:25:32.061480 25786 net.cpp:368] inception_3a/3x3_reduce -> inception_3a/3x3_reduce
I0704 13:25:32.061488 25786 net.cpp:120] Setting up inception_3a/3x3_reduce
I0704 13:25:32.061775 25786 net.cpp:127] Top shape: 30 96 28 28 (2257920)
I0704 13:25:32.061799 25786 layer_factory.hpp:74] Creating layer inception_3a/relu_3x3_reduce
I0704 13:25:32.061807 25786 net.cpp:90] Creating Layer inception_3a/relu_3x3_reduce
I0704 13:25:32.061812 25786 net.cpp:410] inception_3a/relu_3x3_reduce <- inception_3a/3x3_reduce
I0704 13:25:32.061818 25786 net.cpp:357] inception_3a/relu_3x3_reduce -> inception_3a/3x3_reduce (in-place)
I0704 13:25:32.061825 25786 net.cpp:120] Setting up inception_3a/relu_3x3_reduce
I0704 13:25:32.061873 25786 net.cpp:127] Top shape: 30 96 28 28 (2257920)
I0704 13:25:32.061880 25786 layer_factory.hpp:74] Creating layer inception_3a/3x3
I0704 13:25:32.061897 25786 net.cpp:90] Creating Layer inception_3a/3x3
I0704 13:25:32.061902 25786 net.cpp:410] inception_3a/3x3 <- inception_3a/3x3_reduce
I0704 13:25:32.061909 25786 net.cpp:368] inception_3a/3x3 -> inception_3a/3x3
I0704 13:25:32.061916 25786 net.cpp:120] Setting up inception_3a/3x3
I0704 13:25:32.062656 25786 net.cpp:127] Top shape: 30 128 28 28 (3010560)
I0704 13:25:32.062680 25786 layer_factory.hpp:74] Creating layer inception_3a/relu_3x3
I0704 13:25:32.062687 25786 net.cpp:90] Creating Layer inception_3a/relu_3x3
I0704 13:25:32.062700 25786 net.cpp:410] inception_3a/relu_3x3 <- inception_3a/3x3
I0704 13:25:32.062705 25786 net.cpp:357] inception_3a/relu_3x3 -> inception_3a/3x3 (in-place)
I0704 13:25:32.062712 25786 net.cpp:120] Setting up inception_3a/relu_3x3
I0704 13:25:32.062760 25786 net.cpp:127] Top shape: 30 128 28 28 (3010560)
I0704 13:25:32.062767 25786 layer_factory.hpp:74] Creating layer inception_3a/5x5_reduce
I0704 13:25:32.062785 25786 net.cpp:90] Creating Layer inception_3a/5x5_reduce
I0704 13:25:32.062791 25786 net.cpp:410] inception_3a/5x5_reduce <- pool2/3x3_s2_pool2/3x3_s2_0_split_2
I0704 13:25:32.062798 25786 net.cpp:368] inception_3a/5x5_reduce -> inception_3a/5x5_reduce
I0704 13:25:32.062804 25786 net.cpp:120] Setting up inception_3a/5x5_reduce
I0704 13:25:32.063021 25786 net.cpp:127] Top shape: 30 16 28 28 (376320)
I0704 13:25:32.063043 25786 layer_factory.hpp:74] Creating layer inception_3a/relu_5x5_reduce
I0704 13:25:32.063050 25786 net.cpp:90] Creating Layer inception_3a/relu_5x5_reduce
I0704 13:25:32.063055 25786 net.cpp:410] inception_3a/relu_5x5_reduce <- inception_3a/5x5_reduce
I0704 13:25:32.063061 25786 net.cpp:357] inception_3a/relu_5x5_reduce -> inception_3a/5x5_reduce (in-place)
I0704 13:25:32.063067 25786 net.cpp:120] Setting up inception_3a/relu_5x5_reduce
I0704 13:25:32.063184 25786 net.cpp:127] Top shape: 30 16 28 28 (376320)
I0704 13:25:32.063204 25786 layer_factory.hpp:74] Creating layer inception_3a/5x5
I0704 13:25:32.063210 25786 net.cpp:90] Creating Layer inception_3a/5x5
I0704 13:25:32.063215 25786 net.cpp:410] inception_3a/5x5 <- inception_3a/5x5_reduce
I0704 13:25:32.063222 25786 net.cpp:368] inception_3a/5x5 -> inception_3a/5x5
I0704 13:25:32.063230 25786 net.cpp:120] Setting up inception_3a/5x5
I0704 13:25:32.063498 25786 net.cpp:127] Top shape: 30 32 28 28 (752640)
I0704 13:25:32.063520 25786 layer_factory.hpp:74] Creating layer inception_3a/relu_5x5
I0704 13:25:32.063527 25786 net.cpp:90] Creating Layer inception_3a/relu_5x5
I0704 13:25:32.063532 25786 net.cpp:410] inception_3a/relu_5x5 <- inception_3a/5x5
I0704 13:25:32.063539 25786 net.cpp:357] inception_3a/relu_5x5 -> inception_3a/5x5 (in-place)
I0704 13:25:32.063545 25786 net.cpp:120] Setting up inception_3a/relu_5x5
I0704 13:25:32.063596 25786 net.cpp:127] Top shape: 30 32 28 28 (752640)
I0704 13:25:32.063603 25786 layer_factory.hpp:74] Creating layer inception_3a/pool
I0704 13:25:32.063618 25786 layer_factory.cpp:55] CUDNN does not support padding or multiple tops. Using Caffe's own pooling layer.
I0704 13:25:32.063623 25786 net.cpp:90] Creating Layer inception_3a/pool
I0704 13:25:32.063628 25786 net.cpp:410] inception_3a/pool <- pool2/3x3_s2_pool2/3x3_s2_0_split_3
I0704 13:25:32.063635 25786 net.cpp:368] inception_3a/pool -> inception_3a/pool
I0704 13:25:32.063642 25786 net.cpp:120] Setting up inception_3a/pool
I0704 13:25:32.063649 25786 net.cpp:127] Top shape: 30 192 28 28 (4515840)
I0704 13:25:32.063654 25786 layer_factory.hpp:74] Creating layer inception_3a/pool_proj
I0704 13:25:32.063662 25786 net.cpp:90] Creating Layer inception_3a/pool_proj
I0704 13:25:32.063666 25786 net.cpp:410] inception_3a/pool_proj <- inception_3a/pool
I0704 13:25:32.063673 25786 net.cpp:368] inception_3a/pool_proj -> inception_3a/pool_proj
I0704 13:25:32.063680 25786 net.cpp:120] Setting up inception_3a/pool_proj
I0704 13:25:32.063909 25786 net.cpp:127] Top shape: 30 32 28 28 (752640)
I0704 13:25:32.063931 25786 layer_factory.hpp:74] Creating layer inception_3a/relu_pool_proj
I0704 13:25:32.063938 25786 net.cpp:90] Creating Layer inception_3a/relu_pool_proj
I0704 13:25:32.063943 25786 net.cpp:410] inception_3a/relu_pool_proj <- inception_3a/pool_proj
I0704 13:25:32.063951 25786 net.cpp:357] inception_3a/relu_pool_proj -> inception_3a/pool_proj (in-place)
I0704 13:25:32.063956 25786 net.cpp:120] Setting up inception_3a/relu_pool_proj
I0704 13:25:32.064007 25786 net.cpp:127] Top shape: 30 32 28 28 (752640)
I0704 13:25:32.064013 25786 layer_factory.hpp:74] Creating layer inception_3a/output
I0704 13:25:32.064038 25786 net.cpp:90] Creating Layer inception_3a/output
I0704 13:25:32.064043 25786 net.cpp:410] inception_3a/output <- inception_3a/1x1
I0704 13:25:32.064049 25786 net.cpp:410] inception_3a/output <- inception_3a/3x3
I0704 13:25:32.064054 25786 net.cpp:410] inception_3a/output <- inception_3a/5x5
I0704 13:25:32.064059 25786 net.cpp:410] inception_3a/output <- inception_3a/pool_proj
I0704 13:25:32.064064 25786 net.cpp:368] inception_3a/output -> inception_3a/output
I0704 13:25:32.064071 25786 net.cpp:120] Setting up inception_3a/output
I0704 13:25:32.064080 25786 net.cpp:127] Top shape: 30 256 28 28 (6021120)
I0704 13:25:32.064085 25786 layer_factory.hpp:74] Creating layer inception_3a/output_inception_3a/output_0_split
I0704 13:25:32.064093 25786 net.cpp:90] Creating Layer inception_3a/output_inception_3a/output_0_split
I0704 13:25:32.064098 25786 net.cpp:410] inception_3a/output_inception_3a/output_0_split <- inception_3a/output
I0704 13:25:32.064105 25786 net.cpp:368] inception_3a/output_inception_3a/output_0_split -> inception_3a/output_inception_3a/output_0_split_0
I0704 13:25:32.064111 25786 net.cpp:368] inception_3a/output_inception_3a/output_0_split -> inception_3a/output_inception_3a/output_0_split_1
I0704 13:25:32.064117 25786 net.cpp:368] inception_3a/output_inception_3a/output_0_split -> inception_3a/output_inception_3a/output_0_split_2
I0704 13:25:32.064124 25786 net.cpp:368] inception_3a/output_inception_3a/output_0_split -> inception_3a/output_inception_3a/output_0_split_3
I0704 13:25:32.064131 25786 net.cpp:120] Setting up inception_3a/output_inception_3a/output_0_split
I0704 13:25:32.064137 25786 net.cpp:127] Top shape: 30 256 28 28 (6021120)
I0704 13:25:32.064142 25786 net.cpp:127] Top shape: 30 256 28 28 (6021120)
I0704 13:25:32.064147 25786 net.cpp:127] Top shape: 30 256 28 28 (6021120)
I0704 13:25:32.064152 25786 net.cpp:127] Top shape: 30 256 28 28 (6021120)
I0704 13:25:32.064157 25786 layer_factory.hpp:74] Creating layer inception_3b/1x1
I0704 13:25:32.064163 25786 net.cpp:90] Creating Layer inception_3b/1x1
I0704 13:25:32.064168 25786 net.cpp:410] inception_3b/1x1 <- inception_3a/output_inception_3a/output_0_split_0
I0704 13:25:32.064174 25786 net.cpp:368] inception_3b/1x1 -> inception_3b/1x1
I0704 13:25:32.064182 25786 net.cpp:120] Setting up inception_3b/1x1
I0704 13:25:32.064543 25786 net.cpp:127] Top shape: 30 128 28 28 (3010560)
I0704 13:25:32.064566 25786 layer_factory.hpp:74] Creating layer inception_3b/relu_1x1
I0704 13:25:32.064573 25786 net.cpp:90] Creating Layer inception_3b/relu_1x1
I0704 13:25:32.064579 25786 net.cpp:410] inception_3b/relu_1x1 <- inception_3b/1x1
I0704 13:25:32.064584 25786 net.cpp:357] inception_3b/relu_1x1 -> inception_3b/1x1 (in-place)
I0704 13:25:32.064590 25786 net.cpp:120] Setting up inception_3b/relu_1x1
I0704 13:25:32.064640 25786 net.cpp:127] Top shape: 30 128 28 28 (3010560)
I0704 13:25:32.064646 25786 layer_factory.hpp:74] Creating layer inception_3b/3x3_reduce
I0704 13:25:32.064666 25786 net.cpp:90] Creating Layer inception_3b/3x3_reduce
I0704 13:25:32.064671 25786 net.cpp:410] inception_3b/3x3_reduce <- inception_3a/output_inception_3a/output_0_split_1
I0704 13:25:32.064677 25786 net.cpp:368] inception_3b/3x3_reduce -> inception_3b/3x3_reduce
I0704 13:25:32.064683 25786 net.cpp:120] Setting up inception_3b/3x3_reduce
I0704 13:25:32.065048 25786 net.cpp:127] Top shape: 30 128 28 28 (3010560)
I0704 13:25:32.065069 25786 layer_factory.hpp:74] Creating layer inception_3b/relu_3x3_reduce
I0704 13:25:32.065076 25786 net.cpp:90] Creating Layer inception_3b/relu_3x3_reduce
I0704 13:25:32.065083 25786 net.cpp:410] inception_3b/relu_3x3_reduce <- inception_3b/3x3_reduce
I0704 13:25:32.065089 25786 net.cpp:357] inception_3b/relu_3x3_reduce -> inception_3b/3x3_reduce (in-place)
I0704 13:25:32.065095 25786 net.cpp:120] Setting up inception_3b/relu_3x3_reduce
I0704 13:25:32.065210 25786 net.cpp:127] Top shape: 30 128 28 28 (3010560)
I0704 13:25:32.065229 25786 layer_factory.hpp:74] Creating layer inception_3b/3x3
I0704 13:25:32.065239 25786 net.cpp:90] Creating Layer inception_3b/3x3
I0704 13:25:32.065253 25786 net.cpp:410] inception_3b/3x3 <- inception_3b/3x3_reduce
I0704 13:25:32.065259 25786 net.cpp:368] inception_3b/3x3 -> inception_3b/3x3
I0704 13:25:32.065268 25786 net.cpp:120] Setting up inception_3b/3x3
I0704 13:25:32.066542 25786 net.cpp:127] Top shape: 30 192 28 28 (4515840)
I0704 13:25:32.066565 25786 layer_factory.hpp:74] Creating layer inception_3b/relu_3x3
I0704 13:25:32.066571 25786 net.cpp:90] Creating Layer inception_3b/relu_3x3
I0704 13:25:32.066577 25786 net.cpp:410] inception_3b/relu_3x3 <- inception_3b/3x3
I0704 13:25:32.066583 25786 net.cpp:357] inception_3b/relu_3x3 -> inception_3b/3x3 (in-place)
I0704 13:25:32.066591 25786 net.cpp:120] Setting up inception_3b/relu_3x3
I0704 13:25:32.066642 25786 net.cpp:127] Top shape: 30 192 28 28 (4515840)
I0704 13:25:32.066648 25786 layer_factory.hpp:74] Creating layer inception_3b/5x5_reduce
I0704 13:25:32.066665 25786 net.cpp:90] Creating Layer inception_3b/5x5_reduce
I0704 13:25:32.066670 25786 net.cpp:410] inception_3b/5x5_reduce <- inception_3a/output_inception_3a/output_0_split_2
I0704 13:25:32.066678 25786 net.cpp:368] inception_3b/5x5_reduce -> inception_3b/5x5_reduce
I0704 13:25:32.066685 25786 net.cpp:120] Setting up inception_3b/5x5_reduce
I0704 13:25:32.066931 25786 net.cpp:127] Top shape: 30 32 28 28 (752640)
I0704 13:25:32.066951 25786 layer_factory.hpp:74] Creating layer inception_3b/relu_5x5_reduce
I0704 13:25:32.066958 25786 net.cpp:90] Creating Layer inception_3b/relu_5x5_reduce
I0704 13:25:32.066964 25786 net.cpp:410] inception_3b/relu_5x5_reduce <- inception_3b/5x5_reduce
I0704 13:25:32.066970 25786 net.cpp:357] inception_3b/relu_5x5_reduce -> inception_3b/5x5_reduce (in-place)
I0704 13:25:32.066977 25786 net.cpp:120] Setting up inception_3b/relu_5x5_reduce
I0704 13:25:32.067025 25786 net.cpp:127] Top shape: 30 32 28 28 (752640)
I0704 13:25:32.067033 25786 layer_factory.hpp:74] Creating layer inception_3b/5x5
I0704 13:25:32.067049 25786 net.cpp:90] Creating Layer inception_3b/5x5
I0704 13:25:32.067054 25786 net.cpp:410] inception_3b/5x5 <- inception_3b/5x5_reduce
I0704 13:25:32.067060 25786 net.cpp:368] inception_3b/5x5 -> inception_3b/5x5
I0704 13:25:32.067070 25786 net.cpp:120] Setting up inception_3b/5x5
I0704 13:25:32.067672 25786 net.cpp:127] Top shape: 30 96 28 28 (2257920)
I0704 13:25:32.067694 25786 layer_factory.hpp:74] Creating layer inception_3b/relu_5x5
I0704 13:25:32.067700 25786 net.cpp:90] Creating Layer inception_3b/relu_5x5
I0704 13:25:32.067706 25786 net.cpp:410] inception_3b/relu_5x5 <- inception_3b/5x5
I0704 13:25:32.067713 25786 net.cpp:357] inception_3b/relu_5x5 -> inception_3b/5x5 (in-place)
I0704 13:25:32.067719 25786 net.cpp:120] Setting up inception_3b/relu_5x5
I0704 13:25:32.067769 25786 net.cpp:127] Top shape: 30 96 28 28 (2257920)
I0704 13:25:32.067785 25786 layer_factory.hpp:74] Creating layer inception_3b/pool
I0704 13:25:32.067791 25786 layer_factory.cpp:55] CUDNN does not support padding or multiple tops. Using Caffe's own pooling layer.
I0704 13:25:32.067797 25786 net.cpp:90] Creating Layer inception_3b/pool
I0704 13:25:32.067801 25786 net.cpp:410] inception_3b/pool <- inception_3a/output_inception_3a/output_0_split_3
I0704 13:25:32.067808 25786 net.cpp:368] inception_3b/pool -> inception_3b/pool
I0704 13:25:32.067816 25786 net.cpp:120] Setting up inception_3b/pool
I0704 13:25:32.067821 25786 net.cpp:127] Top shape: 30 256 28 28 (6021120)
I0704 13:25:32.067826 25786 layer_factory.hpp:74] Creating layer inception_3b/pool_proj
I0704 13:25:32.067833 25786 net.cpp:90] Creating Layer inception_3b/pool_proj
I0704 13:25:32.067838 25786 net.cpp:410] inception_3b/pool_proj <- inception_3b/pool
I0704 13:25:32.067844 25786 net.cpp:368] inception_3b/pool_proj -> inception_3b/pool_proj
I0704 13:25:32.067852 25786 net.cpp:120] Setting up inception_3b/pool_proj
I0704 13:25:32.068138 25786 net.cpp:127] Top shape: 30 64 28 28 (1505280)
I0704 13:25:32.068161 25786 layer_factory.hpp:74] Creating layer inception_3b/relu_pool_proj
I0704 13:25:32.068166 25786 net.cpp:90] Creating Layer inception_3b/relu_pool_proj
I0704 13:25:32.068178 25786 net.cpp:410] inception_3b/relu_pool_proj <- inception_3b/pool_proj
I0704 13:25:32.068186 25786 net.cpp:357] inception_3b/relu_pool_proj -> inception_3b/pool_proj (in-place)
I0704 13:25:32.068194 25786 net.cpp:120] Setting up inception_3b/relu_pool_proj
I0704 13:25:32.068310 25786 net.cpp:127] Top shape: 30 64 28 28 (1505280)
I0704 13:25:32.068330 25786 layer_factory.hpp:74] Creating layer inception_3b/output
I0704 13:25:32.068336 25786 net.cpp:90] Creating Layer inception_3b/output
I0704 13:25:32.068341 25786 net.cpp:410] inception_3b/output <- inception_3b/1x1
I0704 13:25:32.068346 25786 net.cpp:410] inception_3b/output <- inception_3b/3x3
I0704 13:25:32.068351 25786 net.cpp:410] inception_3b/output <- inception_3b/5x5
I0704 13:25:32.068356 25786 net.cpp:410] inception_3b/output <- inception_3b/pool_proj
I0704 13:25:32.068362 25786 net.cpp:368] inception_3b/output -> inception_3b/output
I0704 13:25:32.068369 25786 net.cpp:120] Setting up inception_3b/output
I0704 13:25:32.068377 25786 net.cpp:127] Top shape: 30 480 28 28 (11289600)
I0704 13:25:32.068382 25786 layer_factory.hpp:74] Creating layer pool3/3x3_s2
I0704 13:25:32.068387 25786 net.cpp:90] Creating Layer pool3/3x3_s2
I0704 13:25:32.068392 25786 net.cpp:410] pool3/3x3_s2 <- inception_3b/output
I0704 13:25:32.068398 25786 net.cpp:368] pool3/3x3_s2 -> pool3/3x3_s2
I0704 13:25:32.068404 25786 net.cpp:120] Setting up pool3/3x3_s2
I0704 13:25:32.068454 25786 net.cpp:127] Top shape: 30 480 14 14 (2822400)
I0704 13:25:32.068461 25786 layer_factory.hpp:74] Creating layer pool3/3x3_s2_pool3/3x3_s2_0_split
I0704 13:25:32.068477 25786 net.cpp:90] Creating Layer pool3/3x3_s2_pool3/3x3_s2_0_split
I0704 13:25:32.068481 25786 net.cpp:410] pool3/3x3_s2_pool3/3x3_s2_0_split <- pool3/3x3_s2
I0704 13:25:32.068488 25786 net.cpp:368] pool3/3x3_s2_pool3/3x3_s2_0_split -> pool3/3x3_s2_pool3/3x3_s2_0_split_0
I0704 13:25:32.068495 25786 net.cpp:368] pool3/3x3_s2_pool3/3x3_s2_0_split -> pool3/3x3_s2_pool3/3x3_s2_0_split_1
I0704 13:25:32.068501 25786 net.cpp:368] pool3/3x3_s2_pool3/3x3_s2_0_split -> pool3/3x3_s2_pool3/3x3_s2_0_split_2
I0704 13:25:32.068508 25786 net.cpp:368] pool3/3x3_s2_pool3/3x3_s2_0_split -> pool3/3x3_s2_pool3/3x3_s2_0_split_3
I0704 13:25:32.068513 25786 net.cpp:120] Setting up pool3/3x3_s2_pool3/3x3_s2_0_split
I0704 13:25:32.068521 25786 net.cpp:127] Top shape: 30 480 14 14 (2822400)
I0704 13:25:32.068526 25786 net.cpp:127] Top shape: 30 480 14 14 (2822400)
I0704 13:25:32.068531 25786 net.cpp:127] Top shape: 30 480 14 14 (2822400)
I0704 13:25:32.068536 25786 net.cpp:127] Top shape: 30 480 14 14 (2822400)
I0704 13:25:32.068541 25786 layer_factory.hpp:74] Creating layer inception_4a/1x1
I0704 13:25:32.068547 25786 net.cpp:90] Creating Layer inception_4a/1x1
I0704 13:25:32.068552 25786 net.cpp:410] inception_4a/1x1 <- pool3/3x3_s2_pool3/3x3_s2_0_split_0
I0704 13:25:32.068557 25786 net.cpp:368] inception_4a/1x1 -> inception_4a/1x1
I0704 13:25:32.068564 25786 net.cpp:120] Setting up inception_4a/1x1
I0704 13:25:32.069221 25786 net.cpp:127] Top shape: 30 192 14 14 (1128960)
I0704 13:25:32.069242 25786 layer_factory.hpp:74] Creating layer inception_4a/relu_1x1
I0704 13:25:32.069248 25786 net.cpp:90] Creating Layer inception_4a/relu_1x1
I0704 13:25:32.069254 25786 net.cpp:410] inception_4a/relu_1x1 <- inception_4a/1x1
I0704 13:25:32.069260 25786 net.cpp:357] inception_4a/relu_1x1 -> inception_4a/1x1 (in-place)
I0704 13:25:32.069267 25786 net.cpp:120] Setting up inception_4a/relu_1x1
I0704 13:25:32.069315 25786 net.cpp:127] Top shape: 30 192 14 14 (1128960)
I0704 13:25:32.069322 25786 layer_factory.hpp:74] Creating layer inception_4a/3x3_reduce
I0704 13:25:32.069340 25786 net.cpp:90] Creating Layer inception_4a/3x3_reduce
I0704 13:25:32.069345 25786 net.cpp:410] inception_4a/3x3_reduce <- pool3/3x3_s2_pool3/3x3_s2_0_split_1
I0704 13:25:32.069351 25786 net.cpp:368] inception_4a/3x3_reduce -> inception_4a/3x3_reduce
I0704 13:25:32.069358 25786 net.cpp:120] Setting up inception_4a/3x3_reduce
I0704 13:25:32.069785 25786 net.cpp:127] Top shape: 30 96 14 14 (564480)
I0704 13:25:32.069815 25786 layer_factory.hpp:74] Creating layer inception_4a/relu_3x3_reduce
I0704 13:25:32.069823 25786 net.cpp:90] Creating Layer inception_4a/relu_3x3_reduce
I0704 13:25:32.069828 25786 net.cpp:410] inception_4a/relu_3x3_reduce <- inception_4a/3x3_reduce
I0704 13:25:32.069833 25786 net.cpp:357] inception_4a/relu_3x3_reduce -> inception_4a/3x3_reduce (in-place)
I0704 13:25:32.069840 25786 net.cpp:120] Setting up inception_4a/relu_3x3_reduce
I0704 13:25:32.069890 25786 net.cpp:127] Top shape: 30 96 14 14 (564480)
I0704 13:25:32.069897 25786 layer_factory.hpp:74] Creating layer inception_4a/3x3
I0704 13:25:32.069913 25786 net.cpp:90] Creating Layer inception_4a/3x3
I0704 13:25:32.069918 25786 net.cpp:410] inception_4a/3x3 <- inception_4a/3x3_reduce
I0704 13:25:32.069926 25786 net.cpp:368] inception_4a/3x3 -> inception_4a/3x3
I0704 13:25:32.069933 25786 net.cpp:120] Setting up inception_4a/3x3
I0704 13:25:32.071008 25786 net.cpp:127] Top shape: 30 208 14 14 (1223040)
I0704 13:25:32.071030 25786 layer_factory.hpp:74] Creating layer inception_4a/relu_3x3
I0704 13:25:32.071037 25786 net.cpp:90] Creating Layer inception_4a/relu_3x3
I0704 13:25:32.071043 25786 net.cpp:410] inception_4a/relu_3x3 <- inception_4a/3x3
I0704 13:25:32.071048 25786 net.cpp:357] inception_4a/relu_3x3 -> inception_4a/3x3 (in-place)
I0704 13:25:32.071055 25786 net.cpp:120] Setting up inception_4a/relu_3x3
I0704 13:25:32.071171 25786 net.cpp:127] Top shape: 30 208 14 14 (1223040)
I0704 13:25:32.071189 25786 layer_factory.hpp:74] Creating layer inception_4a/5x5_reduce
I0704 13:25:32.071197 25786 net.cpp:90] Creating Layer inception_4a/5x5_reduce
I0704 13:25:32.071202 25786 net.cpp:410] inception_4a/5x5_reduce <- pool3/3x3_s2_pool3/3x3_s2_0_split_2
I0704 13:25:32.071209 25786 net.cpp:368] inception_4a/5x5_reduce -> inception_4a/5x5_reduce
I0704 13:25:32.071218 25786 net.cpp:120] Setting up inception_4a/5x5_reduce
I0704 13:25:32.071466 25786 net.cpp:127] Top shape: 30 16 14 14 (94080)
I0704 13:25:32.071488 25786 layer_factory.hpp:74] Creating layer inception_4a/relu_5x5_reduce
I0704 13:25:32.071496 25786 net.cpp:90] Creating Layer inception_4a/relu_5x5_reduce
I0704 13:25:32.071501 25786 net.cpp:410] inception_4a/relu_5x5_reduce <- inception_4a/5x5_reduce
I0704 13:25:32.071507 25786 net.cpp:357] inception_4a/relu_5x5_reduce -> inception_4a/5x5_reduce (in-place)
I0704 13:25:32.071514 25786 net.cpp:120] Setting up inception_4a/relu_5x5_reduce
I0704 13:25:32.071564 25786 net.cpp:127] Top shape: 30 16 14 14 (94080)
I0704 13:25:32.071571 25786 layer_factory.hpp:74] Creating layer inception_4a/5x5
I0704 13:25:32.071588 25786 net.cpp:90] Creating Layer inception_4a/5x5
I0704 13:25:32.071594 25786 net.cpp:410] inception_4a/5x5 <- inception_4a/5x5_reduce
I0704 13:25:32.071600 25786 net.cpp:368] inception_4a/5x5 -> inception_4a/5x5
I0704 13:25:32.071607 25786 net.cpp:120] Setting up inception_4a/5x5
I0704 13:25:32.071903 25786 net.cpp:127] Top shape: 30 48 14 14 (282240)
I0704 13:25:32.071924 25786 layer_factory.hpp:74] Creating layer inception_4a/relu_5x5
I0704 13:25:32.071931 25786 net.cpp:90] Creating Layer inception_4a/relu_5x5
I0704 13:25:32.071938 25786 net.cpp:410] inception_4a/relu_5x5 <- inception_4a/5x5
I0704 13:25:32.071943 25786 net.cpp:357] inception_4a/relu_5x5 -> inception_4a/5x5 (in-place)
I0704 13:25:32.071949 25786 net.cpp:120] Setting up inception_4a/relu_5x5
I0704 13:25:32.072000 25786 net.cpp:127] Top shape: 30 48 14 14 (282240)
I0704 13:25:32.072005 25786 layer_factory.hpp:74] Creating layer inception_4a/pool
I0704 13:25:32.072021 25786 layer_factory.cpp:55] CUDNN does not support padding or multiple tops. Using Caffe's own pooling layer.
I0704 13:25:32.072026 25786 net.cpp:90] Creating Layer inception_4a/pool
I0704 13:25:32.072031 25786 net.cpp:410] inception_4a/pool <- pool3/3x3_s2_pool3/3x3_s2_0_split_3
I0704 13:25:32.072037 25786 net.cpp:368] inception_4a/pool -> inception_4a/pool
I0704 13:25:32.072043 25786 net.cpp:120] Setting up inception_4a/pool
I0704 13:25:32.072051 25786 net.cpp:127] Top shape: 30 480 14 14 (2822400)
I0704 13:25:32.072062 25786 layer_factory.hpp:74] Creating layer inception_4a/pool_proj
I0704 13:25:32.072070 25786 net.cpp:90] Creating Layer inception_4a/pool_proj
I0704 13:25:32.072075 25786 net.cpp:410] inception_4a/pool_proj <- inception_4a/pool
I0704 13:25:32.072082 25786 net.cpp:368] inception_4a/pool_proj -> inception_4a/pool_proj
I0704 13:25:32.072089 25786 net.cpp:120] Setting up inception_4a/pool_proj
I0704 13:25:32.072443 25786 net.cpp:127] Top shape: 30 64 14 14 (376320)
I0704 13:25:32.072465 25786 layer_factory.hpp:74] Creating layer inception_4a/relu_pool_proj
I0704 13:25:32.072473 25786 net.cpp:90] Creating Layer inception_4a/relu_pool_proj
I0704 13:25:32.072477 25786 net.cpp:410] inception_4a/relu_pool_proj <- inception_4a/pool_proj
I0704 13:25:32.072484 25786 net.cpp:357] inception_4a/relu_pool_proj -> inception_4a/pool_proj (in-place)
I0704 13:25:32.072490 25786 net.cpp:120] Setting up inception_4a/relu_pool_proj
I0704 13:25:32.072607 25786 net.cpp:127] Top shape: 30 64 14 14 (376320)
I0704 13:25:32.072625 25786 layer_factory.hpp:74] Creating layer inception_4a/output
I0704 13:25:32.072633 25786 net.cpp:90] Creating Layer inception_4a/output
I0704 13:25:32.072638 25786 net.cpp:410] inception_4a/output <- inception_4a/1x1
I0704 13:25:32.072643 25786 net.cpp:410] inception_4a/output <- inception_4a/3x3
I0704 13:25:32.072649 25786 net.cpp:410] inception_4a/output <- inception_4a/5x5
I0704 13:25:32.072654 25786 net.cpp:410] inception_4a/output <- inception_4a/pool_proj
I0704 13:25:32.072659 25786 net.cpp:368] inception_4a/output -> inception_4a/output
I0704 13:25:32.072665 25786 net.cpp:120] Setting up inception_4a/output
I0704 13:25:32.072672 25786 net.cpp:127] Top shape: 30 512 14 14 (3010560)
I0704 13:25:32.072679 25786 layer_factory.hpp:74] Creating layer inception_4a/output_inception_4a/output_0_split
I0704 13:25:32.072685 25786 net.cpp:90] Creating Layer inception_4a/output_inception_4a/output_0_split
I0704 13:25:32.072690 25786 net.cpp:410] inception_4a/output_inception_4a/output_0_split <- inception_4a/output
I0704 13:25:32.072696 25786 net.cpp:368] inception_4a/output_inception_4a/output_0_split -> inception_4a/output_inception_4a/output_0_split_0
I0704 13:25:32.072703 25786 net.cpp:368] inception_4a/output_inception_4a/output_0_split -> inception_4a/output_inception_4a/output_0_split_1
I0704 13:25:32.072710 25786 net.cpp:368] inception_4a/output_inception_4a/output_0_split -> inception_4a/output_inception_4a/output_0_split_2
I0704 13:25:32.072716 25786 net.cpp:368] inception_4a/output_inception_4a/output_0_split -> inception_4a/output_inception_4a/output_0_split_3
I0704 13:25:32.072723 25786 net.cpp:368] inception_4a/output_inception_4a/output_0_split -> inception_4a/output_inception_4a/output_0_split_4
I0704 13:25:32.072729 25786 net.cpp:120] Setting up inception_4a/output_inception_4a/output_0_split
I0704 13:25:32.072737 25786 net.cpp:127] Top shape: 30 512 14 14 (3010560)
I0704 13:25:32.072742 25786 net.cpp:127] Top shape: 30 512 14 14 (3010560)
I0704 13:25:32.072747 25786 net.cpp:127] Top shape: 30 512 14 14 (3010560)
I0704 13:25:32.072752 25786 net.cpp:127] Top shape: 30 512 14 14 (3010560)
I0704 13:25:32.072757 25786 net.cpp:127] Top shape: 30 512 14 14 (3010560)
I0704 13:25:32.072762 25786 layer_factory.hpp:74] Creating layer loss1/ave_pool
I0704 13:25:32.072767 25786 net.cpp:90] Creating Layer loss1/ave_pool
I0704 13:25:32.072772 25786 net.cpp:410] loss1/ave_pool <- inception_4a/output_inception_4a/output_0_split_0
I0704 13:25:32.072778 25786 net.cpp:368] loss1/ave_pool -> loss1/ave_pool
I0704 13:25:32.072784 25786 net.cpp:120] Setting up loss1/ave_pool
I0704 13:25:32.072832 25786 net.cpp:127] Top shape: 30 512 4 4 (245760)
I0704 13:25:32.072839 25786 layer_factory.hpp:74] Creating layer loss1/conv
I0704 13:25:32.072856 25786 net.cpp:90] Creating Layer loss1/conv
I0704 13:25:32.072861 25786 net.cpp:410] loss1/conv <- loss1/ave_pool
I0704 13:25:32.072867 25786 net.cpp:368] loss1/conv -> loss1/conv
I0704 13:25:32.072875 25786 net.cpp:120] Setting up loss1/conv
I0704 13:25:32.073406 25786 net.cpp:127] Top shape: 30 128 4 4 (61440)
I0704 13:25:32.073428 25786 layer_factory.hpp:74] Creating layer loss1/relu_conv
I0704 13:25:32.073436 25786 net.cpp:90] Creating Layer loss1/relu_conv
I0704 13:25:32.073441 25786 net.cpp:410] loss1/relu_conv <- loss1/conv
I0704 13:25:32.073448 25786 net.cpp:357] loss1/relu_conv -> loss1/conv (in-place)
I0704 13:25:32.073454 25786 net.cpp:120] Setting up loss1/relu_conv
I0704 13:25:32.073503 25786 net.cpp:127] Top shape: 30 128 4 4 (61440)
I0704 13:25:32.073510 25786 layer_factory.hpp:74] Creating layer loss1/fc
I0704 13:25:32.073529 25786 net.cpp:90] Creating Layer loss1/fc
I0704 13:25:32.073534 25786 net.cpp:410] loss1/fc <- loss1/conv
I0704 13:25:32.073540 25786 net.cpp:368] loss1/fc -> loss1/fc
I0704 13:25:32.073549 25786 net.cpp:120] Setting up loss1/fc
I0704 13:25:32.083566 25786 net.cpp:127] Top shape: 30 1024 (30720)
I0704 13:25:32.083591 25786 layer_factory.hpp:74] Creating layer loss1/relu_fc
I0704 13:25:32.083603 25786 net.cpp:90] Creating Layer loss1/relu_fc
I0704 13:25:32.083611 25786 net.cpp:410] loss1/relu_fc <- loss1/fc
I0704 13:25:32.083617 25786 net.cpp:357] loss1/relu_fc -> loss1/fc (in-place)
I0704 13:25:32.083626 25786 net.cpp:120] Setting up loss1/relu_fc
I0704 13:25:32.083701 25786 net.cpp:127] Top shape: 30 1024 (30720)
I0704 13:25:32.083709 25786 layer_factory.hpp:74] Creating layer loss1/drop_fc
I0704 13:25:32.083725 25786 net.cpp:90] Creating Layer loss1/drop_fc
I0704 13:25:32.083730 25786 net.cpp:410] loss1/drop_fc <- loss1/fc
I0704 13:25:32.083736 25786 net.cpp:357] loss1/drop_fc -> loss1/fc (in-place)
I0704 13:25:32.083745 25786 net.cpp:120] Setting up loss1/drop_fc
I0704 13:25:32.083752 25786 net.cpp:127] Top shape: 30 1024 (30720)
I0704 13:25:32.083758 25786 layer_factory.hpp:74] Creating layer stanford_cars_loss1/classifier
I0704 13:25:32.083765 25786 net.cpp:90] Creating Layer stanford_cars_loss1/classifier
I0704 13:25:32.083770 25786 net.cpp:410] stanford_cars_loss1/classifier <- loss1/fc
I0704 13:25:32.083776 25786 net.cpp:368] stanford_cars_loss1/classifier -> stanford_cars_loss1/classifier
I0704 13:25:32.083784 25786 net.cpp:120] Setting up stanford_cars_loss1/classifier
I0704 13:25:32.084775 25786 net.cpp:127] Top shape: 30 196 (5880)
I0704 13:25:32.084785 25786 layer_factory.hpp:74] Creating layer loss1/loss
I0704 13:25:32.084794 25786 net.cpp:90] Creating Layer loss1/loss
I0704 13:25:32.084800 25786 net.cpp:410] loss1/loss <- stanford_cars_loss1/classifier
I0704 13:25:32.084805 25786 net.cpp:410] loss1/loss <- label_data_1_split_0
I0704 13:25:32.084810 25786 net.cpp:368] loss1/loss -> loss1/loss1
I0704 13:25:32.084817 25786 net.cpp:120] Setting up loss1/loss
I0704 13:25:32.084825 25786 layer_factory.hpp:74] Creating layer loss1/loss
I0704 13:25:32.085003 25786 net.cpp:127] Top shape: (1)
I0704 13:25:32.085013 25786 net.cpp:129]     with loss weight 0.3
I0704 13:25:32.085031 25786 layer_factory.hpp:74] Creating layer inception_4b/1x1
I0704 13:25:32.085041 25786 net.cpp:90] Creating Layer inception_4b/1x1
I0704 13:25:32.085047 25786 net.cpp:410] inception_4b/1x1 <- inception_4a/output_inception_4a/output_0_split_1
I0704 13:25:32.085053 25786 net.cpp:368] inception_4b/1x1 -> inception_4b/1x1
I0704 13:25:32.085060 25786 net.cpp:120] Setting up inception_4b/1x1
I0704 13:25:32.085666 25786 net.cpp:127] Top shape: 30 160 14 14 (940800)
I0704 13:25:32.085680 25786 layer_factory.hpp:74] Creating layer inception_4b/relu_1x1
I0704 13:25:32.085687 25786 net.cpp:90] Creating Layer inception_4b/relu_1x1
I0704 13:25:32.085693 25786 net.cpp:410] inception_4b/relu_1x1 <- inception_4b/1x1
I0704 13:25:32.085700 25786 net.cpp:357] inception_4b/relu_1x1 -> inception_4b/1x1 (in-place)
I0704 13:25:32.085705 25786 net.cpp:120] Setting up inception_4b/relu_1x1
I0704 13:25:32.085746 25786 net.cpp:127] Top shape: 30 160 14 14 (940800)
I0704 13:25:32.085752 25786 layer_factory.hpp:74] Creating layer inception_4b/3x3_reduce
I0704 13:25:32.085760 25786 net.cpp:90] Creating Layer inception_4b/3x3_reduce
I0704 13:25:32.085767 25786 net.cpp:410] inception_4b/3x3_reduce <- inception_4a/output_inception_4a/output_0_split_2
I0704 13:25:32.085789 25786 net.cpp:368] inception_4b/3x3_reduce -> inception_4b/3x3_reduce
I0704 13:25:32.085798 25786 net.cpp:120] Setting up inception_4b/3x3_reduce
I0704 13:25:32.086277 25786 net.cpp:127] Top shape: 30 112 14 14 (658560)
I0704 13:25:32.086290 25786 layer_factory.hpp:74] Creating layer inception_4b/relu_3x3_reduce
I0704 13:25:32.086298 25786 net.cpp:90] Creating Layer inception_4b/relu_3x3_reduce
I0704 13:25:32.086304 25786 net.cpp:410] inception_4b/relu_3x3_reduce <- inception_4b/3x3_reduce
I0704 13:25:32.086310 25786 net.cpp:357] inception_4b/relu_3x3_reduce -> inception_4b/3x3_reduce (in-place)
I0704 13:25:32.086316 25786 net.cpp:120] Setting up inception_4b/relu_3x3_reduce
I0704 13:25:32.086356 25786 net.cpp:127] Top shape: 30 112 14 14 (658560)
I0704 13:25:32.086364 25786 layer_factory.hpp:74] Creating layer inception_4b/3x3
I0704 13:25:32.086371 25786 net.cpp:90] Creating Layer inception_4b/3x3
I0704 13:25:32.086377 25786 net.cpp:410] inception_4b/3x3 <- inception_4b/3x3_reduce
I0704 13:25:32.086383 25786 net.cpp:368] inception_4b/3x3 -> inception_4b/3x3
I0704 13:25:32.086390 25786 net.cpp:120] Setting up inception_4b/3x3
I0704 13:25:32.087688 25786 net.cpp:127] Top shape: 30 224 14 14 (1317120)
I0704 13:25:32.087702 25786 layer_factory.hpp:74] Creating layer inception_4b/relu_3x3
I0704 13:25:32.087708 25786 net.cpp:90] Creating Layer inception_4b/relu_3x3
I0704 13:25:32.087713 25786 net.cpp:410] inception_4b/relu_3x3 <- inception_4b/3x3
I0704 13:25:32.087719 25786 net.cpp:357] inception_4b/relu_3x3 -> inception_4b/3x3 (in-place)
I0704 13:25:32.087725 25786 net.cpp:120] Setting up inception_4b/relu_3x3
I0704 13:25:32.087767 25786 net.cpp:127] Top shape: 30 224 14 14 (1317120)
I0704 13:25:32.087774 25786 layer_factory.hpp:74] Creating layer inception_4b/5x5_reduce
I0704 13:25:32.087780 25786 net.cpp:90] Creating Layer inception_4b/5x5_reduce
I0704 13:25:32.087785 25786 net.cpp:410] inception_4b/5x5_reduce <- inception_4a/output_inception_4a/output_0_split_3
I0704 13:25:32.087793 25786 net.cpp:368] inception_4b/5x5_reduce -> inception_4b/5x5_reduce
I0704 13:25:32.087800 25786 net.cpp:120] Setting up inception_4b/5x5_reduce
I0704 13:25:32.088063 25786 net.cpp:127] Top shape: 30 24 14 14 (141120)
I0704 13:25:32.088075 25786 layer_factory.hpp:74] Creating layer inception_4b/relu_5x5_reduce
I0704 13:25:32.088081 25786 net.cpp:90] Creating Layer inception_4b/relu_5x5_reduce
I0704 13:25:32.088088 25786 net.cpp:410] inception_4b/relu_5x5_reduce <- inception_4b/5x5_reduce
I0704 13:25:32.088093 25786 net.cpp:357] inception_4b/relu_5x5_reduce -> inception_4b/5x5_reduce (in-place)
I0704 13:25:32.088099 25786 net.cpp:120] Setting up inception_4b/relu_5x5_reduce
I0704 13:25:32.088208 25786 net.cpp:127] Top shape: 30 24 14 14 (141120)
I0704 13:25:32.088217 25786 layer_factory.hpp:74] Creating layer inception_4b/5x5
I0704 13:25:32.088225 25786 net.cpp:90] Creating Layer inception_4b/5x5
I0704 13:25:32.088230 25786 net.cpp:410] inception_4b/5x5 <- inception_4b/5x5_reduce
I0704 13:25:32.088237 25786 net.cpp:368] inception_4b/5x5 -> inception_4b/5x5
I0704 13:25:32.088243 25786 net.cpp:120] Setting up inception_4b/5x5
I0704 13:25:32.088628 25786 net.cpp:127] Top shape: 30 64 14 14 (376320)
I0704 13:25:32.088639 25786 layer_factory.hpp:74] Creating layer inception_4b/relu_5x5
I0704 13:25:32.088646 25786 net.cpp:90] Creating Layer inception_4b/relu_5x5
I0704 13:25:32.088651 25786 net.cpp:410] inception_4b/relu_5x5 <- inception_4b/5x5
I0704 13:25:32.088659 25786 net.cpp:357] inception_4b/relu_5x5 -> inception_4b/5x5 (in-place)
I0704 13:25:32.088665 25786 net.cpp:120] Setting up inception_4b/relu_5x5
I0704 13:25:32.088704 25786 net.cpp:127] Top shape: 30 64 14 14 (376320)
I0704 13:25:32.088711 25786 layer_factory.hpp:74] Creating layer inception_4b/pool
I0704 13:25:32.088717 25786 layer_factory.cpp:55] CUDNN does not support padding or multiple tops. Using Caffe's own pooling layer.
I0704 13:25:32.088722 25786 net.cpp:90] Creating Layer inception_4b/pool
I0704 13:25:32.088735 25786 net.cpp:410] inception_4b/pool <- inception_4a/output_inception_4a/output_0_split_4
I0704 13:25:32.088742 25786 net.cpp:368] inception_4b/pool -> inception_4b/pool
I0704 13:25:32.088753 25786 net.cpp:120] Setting up inception_4b/pool
I0704 13:25:32.088762 25786 net.cpp:127] Top shape: 30 512 14 14 (3010560)
I0704 13:25:32.088768 25786 layer_factory.hpp:74] Creating layer inception_4b/pool_proj
I0704 13:25:32.088775 25786 net.cpp:90] Creating Layer inception_4b/pool_proj
I0704 13:25:32.088780 25786 net.cpp:410] inception_4b/pool_proj <- inception_4b/pool
I0704 13:25:32.088786 25786 net.cpp:368] inception_4b/pool_proj -> inception_4b/pool_proj
I0704 13:25:32.088793 25786 net.cpp:120] Setting up inception_4b/pool_proj
I0704 13:25:32.089150 25786 net.cpp:127] Top shape: 30 64 14 14 (376320)
I0704 13:25:32.089164 25786 layer_factory.hpp:74] Creating layer inception_4b/relu_pool_proj
I0704 13:25:32.089169 25786 net.cpp:90] Creating Layer inception_4b/relu_pool_proj
I0704 13:25:32.089175 25786 net.cpp:410] inception_4b/relu_pool_proj <- inception_4b/pool_proj
I0704 13:25:32.089182 25786 net.cpp:357] inception_4b/relu_pool_proj -> inception_4b/pool_proj (in-place)
I0704 13:25:32.089189 25786 net.cpp:120] Setting up inception_4b/relu_pool_proj
I0704 13:25:32.089228 25786 net.cpp:127] Top shape: 30 64 14 14 (376320)
I0704 13:25:32.089236 25786 layer_factory.hpp:74] Creating layer inception_4b/output
I0704 13:25:32.089241 25786 net.cpp:90] Creating Layer inception_4b/output
I0704 13:25:32.089246 25786 net.cpp:410] inception_4b/output <- inception_4b/1x1
I0704 13:25:32.089252 25786 net.cpp:410] inception_4b/output <- inception_4b/3x3
I0704 13:25:32.089257 25786 net.cpp:410] inception_4b/output <- inception_4b/5x5
I0704 13:25:32.089262 25786 net.cpp:410] inception_4b/output <- inception_4b/pool_proj
I0704 13:25:32.089268 25786 net.cpp:368] inception_4b/output -> inception_4b/output
I0704 13:25:32.089274 25786 net.cpp:120] Setting up inception_4b/output
I0704 13:25:32.089282 25786 net.cpp:127] Top shape: 30 512 14 14 (3010560)
I0704 13:25:32.089287 25786 layer_factory.hpp:74] Creating layer inception_4b/output_inception_4b/output_0_split
I0704 13:25:32.089293 25786 net.cpp:90] Creating Layer inception_4b/output_inception_4b/output_0_split
I0704 13:25:32.089298 25786 net.cpp:410] inception_4b/output_inception_4b/output_0_split <- inception_4b/output
I0704 13:25:32.089304 25786 net.cpp:368] inception_4b/output_inception_4b/output_0_split -> inception_4b/output_inception_4b/output_0_split_0
I0704 13:25:32.089311 25786 net.cpp:368] inception_4b/output_inception_4b/output_0_split -> inception_4b/output_inception_4b/output_0_split_1
I0704 13:25:32.089318 25786 net.cpp:368] inception_4b/output_inception_4b/output_0_split -> inception_4b/output_inception_4b/output_0_split_2
I0704 13:25:32.089323 25786 net.cpp:368] inception_4b/output_inception_4b/output_0_split -> inception_4b/output_inception_4b/output_0_split_3
I0704 13:25:32.089329 25786 net.cpp:120] Setting up inception_4b/output_inception_4b/output_0_split
I0704 13:25:32.089336 25786 net.cpp:127] Top shape: 30 512 14 14 (3010560)
I0704 13:25:32.089341 25786 net.cpp:127] Top shape: 30 512 14 14 (3010560)
I0704 13:25:32.089345 25786 net.cpp:127] Top shape: 30 512 14 14 (3010560)
I0704 13:25:32.089350 25786 net.cpp:127] Top shape: 30 512 14 14 (3010560)
I0704 13:25:32.089355 25786 layer_factory.hpp:74] Creating layer inception_4c/1x1
I0704 13:25:32.089362 25786 net.cpp:90] Creating Layer inception_4c/1x1
I0704 13:25:32.089366 25786 net.cpp:410] inception_4c/1x1 <- inception_4b/output_inception_4b/output_0_split_0
I0704 13:25:32.089373 25786 net.cpp:368] inception_4c/1x1 -> inception_4c/1x1
I0704 13:25:32.089380 25786 net.cpp:120] Setting up inception_4c/1x1
I0704 13:25:32.089901 25786 net.cpp:127] Top shape: 30 128 14 14 (752640)
I0704 13:25:32.089913 25786 layer_factory.hpp:74] Creating layer inception_4c/relu_1x1
I0704 13:25:32.089920 25786 net.cpp:90] Creating Layer inception_4c/relu_1x1
I0704 13:25:32.089926 25786 net.cpp:410] inception_4c/relu_1x1 <- inception_4c/1x1
I0704 13:25:32.089938 25786 net.cpp:357] inception_4c/relu_1x1 -> inception_4c/1x1 (in-place)
I0704 13:25:32.089946 25786 net.cpp:120] Setting up inception_4c/relu_1x1
I0704 13:25:32.089987 25786 net.cpp:127] Top shape: 30 128 14 14 (752640)
I0704 13:25:32.089993 25786 layer_factory.hpp:74] Creating layer inception_4c/3x3_reduce
I0704 13:25:32.090000 25786 net.cpp:90] Creating Layer inception_4c/3x3_reduce
I0704 13:25:32.090005 25786 net.cpp:410] inception_4c/3x3_reduce <- inception_4b/output_inception_4b/output_0_split_1
I0704 13:25:32.090013 25786 net.cpp:368] inception_4c/3x3_reduce -> inception_4c/3x3_reduce
I0704 13:25:32.090019 25786 net.cpp:120] Setting up inception_4c/3x3_reduce
I0704 13:25:32.090530 25786 net.cpp:127] Top shape: 30 128 14 14 (752640)
I0704 13:25:32.090543 25786 layer_factory.hpp:74] Creating layer inception_4c/relu_3x3_reduce
I0704 13:25:32.090549 25786 net.cpp:90] Creating Layer inception_4c/relu_3x3_reduce
I0704 13:25:32.090555 25786 net.cpp:410] inception_4c/relu_3x3_reduce <- inception_4c/3x3_reduce
I0704 13:25:32.090561 25786 net.cpp:357] inception_4c/relu_3x3_reduce -> inception_4c/3x3_reduce (in-place)
I0704 13:25:32.090567 25786 net.cpp:120] Setting up inception_4c/relu_3x3_reduce
I0704 13:25:32.090675 25786 net.cpp:127] Top shape: 30 128 14 14 (752640)
I0704 13:25:32.090685 25786 layer_factory.hpp:74] Creating layer inception_4c/3x3
I0704 13:25:32.090693 25786 net.cpp:90] Creating Layer inception_4c/3x3
I0704 13:25:32.090698 25786 net.cpp:410] inception_4c/3x3 <- inception_4c/3x3_reduce
I0704 13:25:32.090704 25786 net.cpp:368] inception_4c/3x3 -> inception_4c/3x3
I0704 13:25:32.090711 25786 net.cpp:120] Setting up inception_4c/3x3
I0704 13:25:32.092339 25786 net.cpp:127] Top shape: 30 256 14 14 (1505280)
I0704 13:25:32.092357 25786 layer_factory.hpp:74] Creating layer inception_4c/relu_3x3
I0704 13:25:32.092365 25786 net.cpp:90] Creating Layer inception_4c/relu_3x3
I0704 13:25:32.092370 25786 net.cpp:410] inception_4c/relu_3x3 <- inception_4c/3x3
I0704 13:25:32.092375 25786 net.cpp:357] inception_4c/relu_3x3 -> inception_4c/3x3 (in-place)
I0704 13:25:32.092381 25786 net.cpp:120] Setting up inception_4c/relu_3x3
I0704 13:25:32.092423 25786 net.cpp:127] Top shape: 30 256 14 14 (1505280)
I0704 13:25:32.092430 25786 layer_factory.hpp:74] Creating layer inception_4c/5x5_reduce
I0704 13:25:32.092439 25786 net.cpp:90] Creating Layer inception_4c/5x5_reduce
I0704 13:25:32.092445 25786 net.cpp:410] inception_4c/5x5_reduce <- inception_4b/output_inception_4b/output_0_split_2
I0704 13:25:32.092452 25786 net.cpp:368] inception_4c/5x5_reduce -> inception_4c/5x5_reduce
I0704 13:25:32.092458 25786 net.cpp:120] Setting up inception_4c/5x5_reduce
I0704 13:25:32.092715 25786 net.cpp:127] Top shape: 30 24 14 14 (141120)
I0704 13:25:32.092727 25786 layer_factory.hpp:74] Creating layer inception_4c/relu_5x5_reduce
I0704 13:25:32.092735 25786 net.cpp:90] Creating Layer inception_4c/relu_5x5_reduce
I0704 13:25:32.092739 25786 net.cpp:410] inception_4c/relu_5x5_reduce <- inception_4c/5x5_reduce
I0704 13:25:32.092746 25786 net.cpp:357] inception_4c/relu_5x5_reduce -> inception_4c/5x5_reduce (in-place)
I0704 13:25:32.092752 25786 net.cpp:120] Setting up inception_4c/relu_5x5_reduce
I0704 13:25:32.092792 25786 net.cpp:127] Top shape: 30 24 14 14 (141120)
I0704 13:25:32.092799 25786 layer_factory.hpp:74] Creating layer inception_4c/5x5
I0704 13:25:32.092808 25786 net.cpp:90] Creating Layer inception_4c/5x5
I0704 13:25:32.092813 25786 net.cpp:410] inception_4c/5x5 <- inception_4c/5x5_reduce
I0704 13:25:32.092818 25786 net.cpp:368] inception_4c/5x5 -> inception_4c/5x5
I0704 13:25:32.092825 25786 net.cpp:120] Setting up inception_4c/5x5
I0704 13:25:32.093209 25786 net.cpp:127] Top shape: 30 64 14 14 (376320)
I0704 13:25:32.093220 25786 layer_factory.hpp:74] Creating layer inception_4c/relu_5x5
I0704 13:25:32.093227 25786 net.cpp:90] Creating Layer inception_4c/relu_5x5
I0704 13:25:32.093232 25786 net.cpp:410] inception_4c/relu_5x5 <- inception_4c/5x5
I0704 13:25:32.093238 25786 net.cpp:357] inception_4c/relu_5x5 -> inception_4c/5x5 (in-place)
I0704 13:25:32.093251 25786 net.cpp:120] Setting up inception_4c/relu_5x5
I0704 13:25:32.093360 25786 net.cpp:127] Top shape: 30 64 14 14 (376320)
I0704 13:25:32.093369 25786 layer_factory.hpp:74] Creating layer inception_4c/pool
I0704 13:25:32.093375 25786 layer_factory.cpp:55] CUDNN does not support padding or multiple tops. Using Caffe's own pooling layer.
I0704 13:25:32.093381 25786 net.cpp:90] Creating Layer inception_4c/pool
I0704 13:25:32.093386 25786 net.cpp:410] inception_4c/pool <- inception_4b/output_inception_4b/output_0_split_3
I0704 13:25:32.093392 25786 net.cpp:368] inception_4c/pool -> inception_4c/pool
I0704 13:25:32.093400 25786 net.cpp:120] Setting up inception_4c/pool
I0704 13:25:32.093406 25786 net.cpp:127] Top shape: 30 512 14 14 (3010560)
I0704 13:25:32.093410 25786 layer_factory.hpp:74] Creating layer inception_4c/pool_proj
I0704 13:25:32.093418 25786 net.cpp:90] Creating Layer inception_4c/pool_proj
I0704 13:25:32.093423 25786 net.cpp:410] inception_4c/pool_proj <- inception_4c/pool
I0704 13:25:32.093430 25786 net.cpp:368] inception_4c/pool_proj -> inception_4c/pool_proj
I0704 13:25:32.093436 25786 net.cpp:120] Setting up inception_4c/pool_proj
I0704 13:25:32.093794 25786 net.cpp:127] Top shape: 30 64 14 14 (376320)
I0704 13:25:32.093806 25786 layer_factory.hpp:74] Creating layer inception_4c/relu_pool_proj
I0704 13:25:32.093813 25786 net.cpp:90] Creating Layer inception_4c/relu_pool_proj
I0704 13:25:32.093818 25786 net.cpp:410] inception_4c/relu_pool_proj <- inception_4c/pool_proj
I0704 13:25:32.093824 25786 net.cpp:357] inception_4c/relu_pool_proj -> inception_4c/pool_proj (in-place)
I0704 13:25:32.093832 25786 net.cpp:120] Setting up inception_4c/relu_pool_proj
I0704 13:25:32.093873 25786 net.cpp:127] Top shape: 30 64 14 14 (376320)
I0704 13:25:32.093879 25786 layer_factory.hpp:74] Creating layer inception_4c/output
I0704 13:25:32.093885 25786 net.cpp:90] Creating Layer inception_4c/output
I0704 13:25:32.093890 25786 net.cpp:410] inception_4c/output <- inception_4c/1x1
I0704 13:25:32.093895 25786 net.cpp:410] inception_4c/output <- inception_4c/3x3
I0704 13:25:32.093900 25786 net.cpp:410] inception_4c/output <- inception_4c/5x5
I0704 13:25:32.093905 25786 net.cpp:410] inception_4c/output <- inception_4c/pool_proj
I0704 13:25:32.093912 25786 net.cpp:368] inception_4c/output -> inception_4c/output
I0704 13:25:32.093919 25786 net.cpp:120] Setting up inception_4c/output
I0704 13:25:32.093925 25786 net.cpp:127] Top shape: 30 512 14 14 (3010560)
I0704 13:25:32.093930 25786 layer_factory.hpp:74] Creating layer inception_4c/output_inception_4c/output_0_split
I0704 13:25:32.093936 25786 net.cpp:90] Creating Layer inception_4c/output_inception_4c/output_0_split
I0704 13:25:32.093940 25786 net.cpp:410] inception_4c/output_inception_4c/output_0_split <- inception_4c/output
I0704 13:25:32.093946 25786 net.cpp:368] inception_4c/output_inception_4c/output_0_split -> inception_4c/output_inception_4c/output_0_split_0
I0704 13:25:32.093953 25786 net.cpp:368] inception_4c/output_inception_4c/output_0_split -> inception_4c/output_inception_4c/output_0_split_1
I0704 13:25:32.093961 25786 net.cpp:368] inception_4c/output_inception_4c/output_0_split -> inception_4c/output_inception_4c/output_0_split_2
I0704 13:25:32.093967 25786 net.cpp:368] inception_4c/output_inception_4c/output_0_split -> inception_4c/output_inception_4c/output_0_split_3
I0704 13:25:32.093973 25786 net.cpp:120] Setting up inception_4c/output_inception_4c/output_0_split
I0704 13:25:32.093979 25786 net.cpp:127] Top shape: 30 512 14 14 (3010560)
I0704 13:25:32.093984 25786 net.cpp:127] Top shape: 30 512 14 14 (3010560)
I0704 13:25:32.093989 25786 net.cpp:127] Top shape: 30 512 14 14 (3010560)
I0704 13:25:32.093994 25786 net.cpp:127] Top shape: 30 512 14 14 (3010560)
I0704 13:25:32.093999 25786 layer_factory.hpp:74] Creating layer inception_4d/1x1
I0704 13:25:32.094007 25786 net.cpp:90] Creating Layer inception_4d/1x1
I0704 13:25:32.094010 25786 net.cpp:410] inception_4d/1x1 <- inception_4c/output_inception_4c/output_0_split_0
I0704 13:25:32.094023 25786 net.cpp:368] inception_4d/1x1 -> inception_4d/1x1
I0704 13:25:32.094030 25786 net.cpp:120] Setting up inception_4d/1x1
I0704 13:25:32.094507 25786 net.cpp:127] Top shape: 30 112 14 14 (658560)
I0704 13:25:32.094519 25786 layer_factory.hpp:74] Creating layer inception_4d/relu_1x1
I0704 13:25:32.094527 25786 net.cpp:90] Creating Layer inception_4d/relu_1x1
I0704 13:25:32.094532 25786 net.cpp:410] inception_4d/relu_1x1 <- inception_4d/1x1
I0704 13:25:32.094537 25786 net.cpp:357] inception_4d/relu_1x1 -> inception_4d/1x1 (in-place)
I0704 13:25:32.094544 25786 net.cpp:120] Setting up inception_4d/relu_1x1
I0704 13:25:32.094584 25786 net.cpp:127] Top shape: 30 112 14 14 (658560)
I0704 13:25:32.094591 25786 layer_factory.hpp:74] Creating layer inception_4d/3x3_reduce
I0704 13:25:32.094599 25786 net.cpp:90] Creating Layer inception_4d/3x3_reduce
I0704 13:25:32.094604 25786 net.cpp:410] inception_4d/3x3_reduce <- inception_4c/output_inception_4c/output_0_split_1
I0704 13:25:32.094610 25786 net.cpp:368] inception_4d/3x3_reduce -> inception_4d/3x3_reduce
I0704 13:25:32.094619 25786 net.cpp:120] Setting up inception_4d/3x3_reduce
I0704 13:25:32.095173 25786 net.cpp:127] Top shape: 30 144 14 14 (846720)
I0704 13:25:32.095186 25786 layer_factory.hpp:74] Creating layer inception_4d/relu_3x3_reduce
I0704 13:25:32.095192 25786 net.cpp:90] Creating Layer inception_4d/relu_3x3_reduce
I0704 13:25:32.095197 25786 net.cpp:410] inception_4d/relu_3x3_reduce <- inception_4d/3x3_reduce
I0704 13:25:32.095204 25786 net.cpp:357] inception_4d/relu_3x3_reduce -> inception_4d/3x3_reduce (in-place)
I0704 13:25:32.095211 25786 net.cpp:120] Setting up inception_4d/relu_3x3_reduce
I0704 13:25:32.095252 25786 net.cpp:127] Top shape: 30 144 14 14 (846720)
I0704 13:25:32.095260 25786 layer_factory.hpp:74] Creating layer inception_4d/3x3
I0704 13:25:32.095266 25786 net.cpp:90] Creating Layer inception_4d/3x3
I0704 13:25:32.095271 25786 net.cpp:410] inception_4d/3x3 <- inception_4d/3x3_reduce
I0704 13:25:32.095278 25786 net.cpp:368] inception_4d/3x3 -> inception_4d/3x3
I0704 13:25:32.095285 25786 net.cpp:120] Setting up inception_4d/3x3
I0704 13:25:32.097300 25786 net.cpp:127] Top shape: 30 288 14 14 (1693440)
I0704 13:25:32.097311 25786 layer_factory.hpp:74] Creating layer inception_4d/relu_3x3
I0704 13:25:32.097318 25786 net.cpp:90] Creating Layer inception_4d/relu_3x3
I0704 13:25:32.097324 25786 net.cpp:410] inception_4d/relu_3x3 <- inception_4d/3x3
I0704 13:25:32.097331 25786 net.cpp:357] inception_4d/relu_3x3 -> inception_4d/3x3 (in-place)
I0704 13:25:32.097337 25786 net.cpp:120] Setting up inception_4d/relu_3x3
I0704 13:25:32.097443 25786 net.cpp:127] Top shape: 30 288 14 14 (1693440)
I0704 13:25:32.097452 25786 layer_factory.hpp:74] Creating layer inception_4d/5x5_reduce
I0704 13:25:32.097460 25786 net.cpp:90] Creating Layer inception_4d/5x5_reduce
I0704 13:25:32.097465 25786 net.cpp:410] inception_4d/5x5_reduce <- inception_4c/output_inception_4c/output_0_split_2
I0704 13:25:32.097472 25786 net.cpp:368] inception_4d/5x5_reduce -> inception_4d/5x5_reduce
I0704 13:25:32.097479 25786 net.cpp:120] Setting up inception_4d/5x5_reduce
I0704 13:25:32.097757 25786 net.cpp:127] Top shape: 30 32 14 14 (188160)
I0704 13:25:32.097769 25786 layer_factory.hpp:74] Creating layer inception_4d/relu_5x5_reduce
I0704 13:25:32.097776 25786 net.cpp:90] Creating Layer inception_4d/relu_5x5_reduce
I0704 13:25:32.097781 25786 net.cpp:410] inception_4d/relu_5x5_reduce <- inception_4d/5x5_reduce
I0704 13:25:32.097787 25786 net.cpp:357] inception_4d/relu_5x5_reduce -> inception_4d/5x5_reduce (in-place)
I0704 13:25:32.097793 25786 net.cpp:120] Setting up inception_4d/relu_5x5_reduce
I0704 13:25:32.097832 25786 net.cpp:127] Top shape: 30 32 14 14 (188160)
I0704 13:25:32.097839 25786 layer_factory.hpp:74] Creating layer inception_4d/5x5
I0704 13:25:32.097846 25786 net.cpp:90] Creating Layer inception_4d/5x5
I0704 13:25:32.097851 25786 net.cpp:410] inception_4d/5x5 <- inception_4d/5x5_reduce
I0704 13:25:32.097857 25786 net.cpp:368] inception_4d/5x5 -> inception_4d/5x5
I0704 13:25:32.097875 25786 net.cpp:120] Setting up inception_4d/5x5
I0704 13:25:32.098340 25786 net.cpp:127] Top shape: 30 64 14 14 (376320)
I0704 13:25:32.098353 25786 layer_factory.hpp:74] Creating layer inception_4d/relu_5x5
I0704 13:25:32.098359 25786 net.cpp:90] Creating Layer inception_4d/relu_5x5
I0704 13:25:32.098366 25786 net.cpp:410] inception_4d/relu_5x5 <- inception_4d/5x5
I0704 13:25:32.098371 25786 net.cpp:357] inception_4d/relu_5x5 -> inception_4d/5x5 (in-place)
I0704 13:25:32.098376 25786 net.cpp:120] Setting up inception_4d/relu_5x5
I0704 13:25:32.098417 25786 net.cpp:127] Top shape: 30 64 14 14 (376320)
I0704 13:25:32.098423 25786 layer_factory.hpp:74] Creating layer inception_4d/pool
I0704 13:25:32.098428 25786 layer_factory.cpp:55] CUDNN does not support padding or multiple tops. Using Caffe's own pooling layer.
I0704 13:25:32.098434 25786 net.cpp:90] Creating Layer inception_4d/pool
I0704 13:25:32.098439 25786 net.cpp:410] inception_4d/pool <- inception_4c/output_inception_4c/output_0_split_3
I0704 13:25:32.098445 25786 net.cpp:368] inception_4d/pool -> inception_4d/pool
I0704 13:25:32.098451 25786 net.cpp:120] Setting up inception_4d/pool
I0704 13:25:32.098459 25786 net.cpp:127] Top shape: 30 512 14 14 (3010560)
I0704 13:25:32.098464 25786 layer_factory.hpp:74] Creating layer inception_4d/pool_proj
I0704 13:25:32.098470 25786 net.cpp:90] Creating Layer inception_4d/pool_proj
I0704 13:25:32.098475 25786 net.cpp:410] inception_4d/pool_proj <- inception_4d/pool
I0704 13:25:32.098481 25786 net.cpp:368] inception_4d/pool_proj -> inception_4d/pool_proj
I0704 13:25:32.098489 25786 net.cpp:120] Setting up inception_4d/pool_proj
I0704 13:25:32.098847 25786 net.cpp:127] Top shape: 30 64 14 14 (376320)
I0704 13:25:32.098860 25786 layer_factory.hpp:74] Creating layer inception_4d/relu_pool_proj
I0704 13:25:32.098865 25786 net.cpp:90] Creating Layer inception_4d/relu_pool_proj
I0704 13:25:32.098871 25786 net.cpp:410] inception_4d/relu_pool_proj <- inception_4d/pool_proj
I0704 13:25:32.098877 25786 net.cpp:357] inception_4d/relu_pool_proj -> inception_4d/pool_proj (in-place)
I0704 13:25:32.098884 25786 net.cpp:120] Setting up inception_4d/relu_pool_proj
I0704 13:25:32.098924 25786 net.cpp:127] Top shape: 30 64 14 14 (376320)
I0704 13:25:32.098932 25786 layer_factory.hpp:74] Creating layer inception_4d/output
I0704 13:25:32.098937 25786 net.cpp:90] Creating Layer inception_4d/output
I0704 13:25:32.098942 25786 net.cpp:410] inception_4d/output <- inception_4d/1x1
I0704 13:25:32.098948 25786 net.cpp:410] inception_4d/output <- inception_4d/3x3
I0704 13:25:32.098953 25786 net.cpp:410] inception_4d/output <- inception_4d/5x5
I0704 13:25:32.098958 25786 net.cpp:410] inception_4d/output <- inception_4d/pool_proj
I0704 13:25:32.098963 25786 net.cpp:368] inception_4d/output -> inception_4d/output
I0704 13:25:32.098970 25786 net.cpp:120] Setting up inception_4d/output
I0704 13:25:32.098976 25786 net.cpp:127] Top shape: 30 528 14 14 (3104640)
I0704 13:25:32.098981 25786 layer_factory.hpp:74] Creating layer inception_4d/output_inception_4d/output_0_split
I0704 13:25:32.098987 25786 net.cpp:90] Creating Layer inception_4d/output_inception_4d/output_0_split
I0704 13:25:32.098992 25786 net.cpp:410] inception_4d/output_inception_4d/output_0_split <- inception_4d/output
I0704 13:25:32.098999 25786 net.cpp:368] inception_4d/output_inception_4d/output_0_split -> inception_4d/output_inception_4d/output_0_split_0
I0704 13:25:32.099005 25786 net.cpp:368] inception_4d/output_inception_4d/output_0_split -> inception_4d/output_inception_4d/output_0_split_1
I0704 13:25:32.099012 25786 net.cpp:368] inception_4d/output_inception_4d/output_0_split -> inception_4d/output_inception_4d/output_0_split_2
I0704 13:25:32.099019 25786 net.cpp:368] inception_4d/output_inception_4d/output_0_split -> inception_4d/output_inception_4d/output_0_split_3
I0704 13:25:32.099025 25786 net.cpp:368] inception_4d/output_inception_4d/output_0_split -> inception_4d/output_inception_4d/output_0_split_4
I0704 13:25:32.099030 25786 net.cpp:120] Setting up inception_4d/output_inception_4d/output_0_split
I0704 13:25:32.099043 25786 net.cpp:127] Top shape: 30 528 14 14 (3104640)
I0704 13:25:32.099048 25786 net.cpp:127] Top shape: 30 528 14 14 (3104640)
I0704 13:25:32.099053 25786 net.cpp:127] Top shape: 30 528 14 14 (3104640)
I0704 13:25:32.099058 25786 net.cpp:127] Top shape: 30 528 14 14 (3104640)
I0704 13:25:32.099063 25786 net.cpp:127] Top shape: 30 528 14 14 (3104640)
I0704 13:25:32.099067 25786 layer_factory.hpp:74] Creating layer loss2/ave_pool
I0704 13:25:32.099074 25786 net.cpp:90] Creating Layer loss2/ave_pool
I0704 13:25:32.099079 25786 net.cpp:410] loss2/ave_pool <- inception_4d/output_inception_4d/output_0_split_0
I0704 13:25:32.099086 25786 net.cpp:368] loss2/ave_pool -> loss2/ave_pool
I0704 13:25:32.099092 25786 net.cpp:120] Setting up loss2/ave_pool
I0704 13:25:32.099203 25786 net.cpp:127] Top shape: 30 528 4 4 (253440)
I0704 13:25:32.099215 25786 layer_factory.hpp:74] Creating layer loss2/conv
I0704 13:25:32.099222 25786 net.cpp:90] Creating Layer loss2/conv
I0704 13:25:32.099227 25786 net.cpp:410] loss2/conv <- loss2/ave_pool
I0704 13:25:32.099234 25786 net.cpp:368] loss2/conv -> loss2/conv
I0704 13:25:32.099241 25786 net.cpp:120] Setting up loss2/conv
I0704 13:25:32.099771 25786 net.cpp:127] Top shape: 30 128 4 4 (61440)
I0704 13:25:32.099783 25786 layer_factory.hpp:74] Creating layer loss2/relu_conv
I0704 13:25:32.099791 25786 net.cpp:90] Creating Layer loss2/relu_conv
I0704 13:25:32.099797 25786 net.cpp:410] loss2/relu_conv <- loss2/conv
I0704 13:25:32.099802 25786 net.cpp:357] loss2/relu_conv -> loss2/conv (in-place)
I0704 13:25:32.099807 25786 net.cpp:120] Setting up loss2/relu_conv
I0704 13:25:32.099848 25786 net.cpp:127] Top shape: 30 128 4 4 (61440)
I0704 13:25:32.099854 25786 layer_factory.hpp:74] Creating layer loss2/fc
I0704 13:25:32.099863 25786 net.cpp:90] Creating Layer loss2/fc
I0704 13:25:32.099867 25786 net.cpp:410] loss2/fc <- loss2/conv
I0704 13:25:32.099874 25786 net.cpp:368] loss2/fc -> loss2/fc
I0704 13:25:32.099881 25786 net.cpp:120] Setting up loss2/fc
I0704 13:25:32.109591 25786 net.cpp:127] Top shape: 30 1024 (30720)
I0704 13:25:32.109632 25786 layer_factory.hpp:74] Creating layer loss2/relu_fc
I0704 13:25:32.109649 25786 net.cpp:90] Creating Layer loss2/relu_fc
I0704 13:25:32.109663 25786 net.cpp:410] loss2/relu_fc <- loss2/fc
I0704 13:25:32.109685 25786 net.cpp:357] loss2/relu_fc -> loss2/fc (in-place)
I0704 13:25:32.109709 25786 net.cpp:120] Setting up loss2/relu_fc
I0704 13:25:32.109823 25786 net.cpp:127] Top shape: 30 1024 (30720)
I0704 13:25:32.109845 25786 layer_factory.hpp:74] Creating layer loss2/drop_fc
I0704 13:25:32.109865 25786 net.cpp:90] Creating Layer loss2/drop_fc
I0704 13:25:32.109874 25786 net.cpp:410] loss2/drop_fc <- loss2/fc
I0704 13:25:32.109881 25786 net.cpp:357] loss2/drop_fc -> loss2/fc (in-place)
I0704 13:25:32.109891 25786 net.cpp:120] Setting up loss2/drop_fc
I0704 13:25:32.109905 25786 net.cpp:127] Top shape: 30 1024 (30720)
I0704 13:25:32.109915 25786 layer_factory.hpp:74] Creating layer stanford_cars_loss2/classifier
I0704 13:25:32.109930 25786 net.cpp:90] Creating Layer stanford_cars_loss2/classifier
I0704 13:25:32.109938 25786 net.cpp:410] stanford_cars_loss2/classifier <- loss2/fc
I0704 13:25:32.109948 25786 net.cpp:368] stanford_cars_loss2/classifier -> stanford_cars_loss2/classifier
I0704 13:25:32.109961 25786 net.cpp:120] Setting up stanford_cars_loss2/classifier
I0704 13:25:32.111049 25786 net.cpp:127] Top shape: 30 196 (5880)
I0704 13:25:32.111062 25786 layer_factory.hpp:74] Creating layer stanford_cars_loss2/loss
I0704 13:25:32.111070 25786 net.cpp:90] Creating Layer stanford_cars_loss2/loss
I0704 13:25:32.111075 25786 net.cpp:410] stanford_cars_loss2/loss <- stanford_cars_loss2/classifier
I0704 13:25:32.111081 25786 net.cpp:410] stanford_cars_loss2/loss <- label_data_1_split_1
I0704 13:25:32.111088 25786 net.cpp:368] stanford_cars_loss2/loss -> loss2/loss1
I0704 13:25:32.111094 25786 net.cpp:120] Setting up stanford_cars_loss2/loss
I0704 13:25:32.111100 25786 layer_factory.hpp:74] Creating layer stanford_cars_loss2/loss
I0704 13:25:32.111177 25786 net.cpp:127] Top shape: (1)
I0704 13:25:32.111186 25786 net.cpp:129]     with loss weight 0.3
I0704 13:25:32.111196 25786 layer_factory.hpp:74] Creating layer inception_4e/1x1
I0704 13:25:32.111204 25786 net.cpp:90] Creating Layer inception_4e/1x1
I0704 13:25:32.111210 25786 net.cpp:410] inception_4e/1x1 <- inception_4d/output_inception_4d/output_0_split_1
I0704 13:25:32.111217 25786 net.cpp:368] inception_4e/1x1 -> inception_4e/1x1
I0704 13:25:32.111223 25786 net.cpp:120] Setting up inception_4e/1x1
I0704 13:25:32.112232 25786 net.cpp:127] Top shape: 30 256 14 14 (1505280)
I0704 13:25:32.112257 25786 layer_factory.hpp:74] Creating layer inception_4e/relu_1x1
I0704 13:25:32.112264 25786 net.cpp:90] Creating Layer inception_4e/relu_1x1
I0704 13:25:32.112269 25786 net.cpp:410] inception_4e/relu_1x1 <- inception_4e/1x1
I0704 13:25:32.112275 25786 net.cpp:357] inception_4e/relu_1x1 -> inception_4e/1x1 (in-place)
I0704 13:25:32.112282 25786 net.cpp:120] Setting up inception_4e/relu_1x1
I0704 13:25:32.112408 25786 net.cpp:127] Top shape: 30 256 14 14 (1505280)
I0704 13:25:32.112428 25786 layer_factory.hpp:74] Creating layer inception_4e/3x3_reduce
I0704 13:25:32.112437 25786 net.cpp:90] Creating Layer inception_4e/3x3_reduce
I0704 13:25:32.112444 25786 net.cpp:410] inception_4e/3x3_reduce <- inception_4d/output_inception_4d/output_0_split_2
I0704 13:25:32.112457 25786 net.cpp:368] inception_4e/3x3_reduce -> inception_4e/3x3_reduce
I0704 13:25:32.112521 25786 net.cpp:120] Setting up inception_4e/3x3_reduce
I0704 13:25:32.113160 25786 net.cpp:127] Top shape: 30 160 14 14 (940800)
I0704 13:25:32.113173 25786 layer_factory.hpp:74] Creating layer inception_4e/relu_3x3_reduce
I0704 13:25:32.113181 25786 net.cpp:90] Creating Layer inception_4e/relu_3x3_reduce
I0704 13:25:32.113186 25786 net.cpp:410] inception_4e/relu_3x3_reduce <- inception_4e/3x3_reduce
I0704 13:25:32.113193 25786 net.cpp:357] inception_4e/relu_3x3_reduce -> inception_4e/3x3_reduce (in-place)
I0704 13:25:32.113199 25786 net.cpp:120] Setting up inception_4e/relu_3x3_reduce
I0704 13:25:32.113243 25786 net.cpp:127] Top shape: 30 160 14 14 (940800)
I0704 13:25:32.113251 25786 layer_factory.hpp:74] Creating layer inception_4e/3x3
I0704 13:25:32.113258 25786 net.cpp:90] Creating Layer inception_4e/3x3
I0704 13:25:32.113263 25786 net.cpp:410] inception_4e/3x3 <- inception_4e/3x3_reduce
I0704 13:25:32.113270 25786 net.cpp:368] inception_4e/3x3 -> inception_4e/3x3
I0704 13:25:32.113277 25786 net.cpp:120] Setting up inception_4e/3x3
I0704 13:25:32.115721 25786 net.cpp:127] Top shape: 30 320 14 14 (1881600)
I0704 13:25:32.115735 25786 layer_factory.hpp:74] Creating layer inception_4e/relu_3x3
I0704 13:25:32.115742 25786 net.cpp:90] Creating Layer inception_4e/relu_3x3
I0704 13:25:32.115748 25786 net.cpp:410] inception_4e/relu_3x3 <- inception_4e/3x3
I0704 13:25:32.115753 25786 net.cpp:357] inception_4e/relu_3x3 -> inception_4e/3x3 (in-place)
I0704 13:25:32.115761 25786 net.cpp:120] Setting up inception_4e/relu_3x3
I0704 13:25:32.115802 25786 net.cpp:127] Top shape: 30 320 14 14 (1881600)
I0704 13:25:32.115808 25786 layer_factory.hpp:74] Creating layer inception_4e/5x5_reduce
I0704 13:25:32.115816 25786 net.cpp:90] Creating Layer inception_4e/5x5_reduce
I0704 13:25:32.115821 25786 net.cpp:410] inception_4e/5x5_reduce <- inception_4d/output_inception_4d/output_0_split_3
I0704 13:25:32.115828 25786 net.cpp:368] inception_4e/5x5_reduce -> inception_4e/5x5_reduce
I0704 13:25:32.115835 25786 net.cpp:120] Setting up inception_4e/5x5_reduce
I0704 13:25:32.116122 25786 net.cpp:127] Top shape: 30 32 14 14 (188160)
I0704 13:25:32.116134 25786 layer_factory.hpp:74] Creating layer inception_4e/relu_5x5_reduce
I0704 13:25:32.116142 25786 net.cpp:90] Creating Layer inception_4e/relu_5x5_reduce
I0704 13:25:32.116148 25786 net.cpp:410] inception_4e/relu_5x5_reduce <- inception_4e/5x5_reduce
I0704 13:25:32.116153 25786 net.cpp:357] inception_4e/relu_5x5_reduce -> inception_4e/5x5_reduce (in-place)
I0704 13:25:32.116169 25786 net.cpp:120] Setting up inception_4e/relu_5x5_reduce
I0704 13:25:32.116281 25786 net.cpp:127] Top shape: 30 32 14 14 (188160)
I0704 13:25:32.116291 25786 layer_factory.hpp:74] Creating layer inception_4e/5x5
I0704 13:25:32.116309 25786 net.cpp:90] Creating Layer inception_4e/5x5
I0704 13:25:32.116315 25786 net.cpp:410] inception_4e/5x5 <- inception_4e/5x5_reduce
I0704 13:25:32.116322 25786 net.cpp:368] inception_4e/5x5 -> inception_4e/5x5
I0704 13:25:32.116328 25786 net.cpp:120] Setting up inception_4e/5x5
I0704 13:25:32.117027 25786 net.cpp:127] Top shape: 30 128 14 14 (752640)
I0704 13:25:32.117039 25786 layer_factory.hpp:74] Creating layer inception_4e/relu_5x5
I0704 13:25:32.117048 25786 net.cpp:90] Creating Layer inception_4e/relu_5x5
I0704 13:25:32.117053 25786 net.cpp:410] inception_4e/relu_5x5 <- inception_4e/5x5
I0704 13:25:32.117059 25786 net.cpp:357] inception_4e/relu_5x5 -> inception_4e/5x5 (in-place)
I0704 13:25:32.117065 25786 net.cpp:120] Setting up inception_4e/relu_5x5
I0704 13:25:32.117108 25786 net.cpp:127] Top shape: 30 128 14 14 (752640)
I0704 13:25:32.117115 25786 layer_factory.hpp:74] Creating layer inception_4e/pool
I0704 13:25:32.117121 25786 layer_factory.cpp:55] CUDNN does not support padding or multiple tops. Using Caffe's own pooling layer.
I0704 13:25:32.117127 25786 net.cpp:90] Creating Layer inception_4e/pool
I0704 13:25:32.117131 25786 net.cpp:410] inception_4e/pool <- inception_4d/output_inception_4d/output_0_split_4
I0704 13:25:32.117138 25786 net.cpp:368] inception_4e/pool -> inception_4e/pool
I0704 13:25:32.117146 25786 net.cpp:120] Setting up inception_4e/pool
I0704 13:25:32.117152 25786 net.cpp:127] Top shape: 30 528 14 14 (3104640)
I0704 13:25:32.117157 25786 layer_factory.hpp:74] Creating layer inception_4e/pool_proj
I0704 13:25:32.117164 25786 net.cpp:90] Creating Layer inception_4e/pool_proj
I0704 13:25:32.117169 25786 net.cpp:410] inception_4e/pool_proj <- inception_4e/pool
I0704 13:25:32.117175 25786 net.cpp:368] inception_4e/pool_proj -> inception_4e/pool_proj
I0704 13:25:32.117182 25786 net.cpp:120] Setting up inception_4e/pool_proj
I0704 13:25:32.117712 25786 net.cpp:127] Top shape: 30 128 14 14 (752640)
I0704 13:25:32.117723 25786 layer_factory.hpp:74] Creating layer inception_4e/relu_pool_proj
I0704 13:25:32.117730 25786 net.cpp:90] Creating Layer inception_4e/relu_pool_proj
I0704 13:25:32.117735 25786 net.cpp:410] inception_4e/relu_pool_proj <- inception_4e/pool_proj
I0704 13:25:32.117743 25786 net.cpp:357] inception_4e/relu_pool_proj -> inception_4e/pool_proj (in-place)
I0704 13:25:32.117748 25786 net.cpp:120] Setting up inception_4e/relu_pool_proj
I0704 13:25:32.117789 25786 net.cpp:127] Top shape: 30 128 14 14 (752640)
I0704 13:25:32.117796 25786 layer_factory.hpp:74] Creating layer inception_4e/output
I0704 13:25:32.117802 25786 net.cpp:90] Creating Layer inception_4e/output
I0704 13:25:32.117807 25786 net.cpp:410] inception_4e/output <- inception_4e/1x1
I0704 13:25:32.117812 25786 net.cpp:410] inception_4e/output <- inception_4e/3x3
I0704 13:25:32.117818 25786 net.cpp:410] inception_4e/output <- inception_4e/5x5
I0704 13:25:32.117823 25786 net.cpp:410] inception_4e/output <- inception_4e/pool_proj
I0704 13:25:32.117830 25786 net.cpp:368] inception_4e/output -> inception_4e/output
I0704 13:25:32.117835 25786 net.cpp:120] Setting up inception_4e/output
I0704 13:25:32.117842 25786 net.cpp:127] Top shape: 30 832 14 14 (4892160)
I0704 13:25:32.117846 25786 layer_factory.hpp:74] Creating layer pool4/3x3_s2
I0704 13:25:32.117853 25786 net.cpp:90] Creating Layer pool4/3x3_s2
I0704 13:25:32.117858 25786 net.cpp:410] pool4/3x3_s2 <- inception_4e/output
I0704 13:25:32.117863 25786 net.cpp:368] pool4/3x3_s2 -> pool4/3x3_s2
I0704 13:25:32.117871 25786 net.cpp:120] Setting up pool4/3x3_s2
I0704 13:25:32.117913 25786 net.cpp:127] Top shape: 30 832 7 7 (1223040)
I0704 13:25:32.117919 25786 layer_factory.hpp:74] Creating layer pool4/3x3_s2_pool4/3x3_s2_0_split
I0704 13:25:32.117926 25786 net.cpp:90] Creating Layer pool4/3x3_s2_pool4/3x3_s2_0_split
I0704 13:25:32.117938 25786 net.cpp:410] pool4/3x3_s2_pool4/3x3_s2_0_split <- pool4/3x3_s2
I0704 13:25:32.117944 25786 net.cpp:368] pool4/3x3_s2_pool4/3x3_s2_0_split -> pool4/3x3_s2_pool4/3x3_s2_0_split_0
I0704 13:25:32.117950 25786 net.cpp:368] pool4/3x3_s2_pool4/3x3_s2_0_split -> pool4/3x3_s2_pool4/3x3_s2_0_split_1
I0704 13:25:32.117959 25786 net.cpp:368] pool4/3x3_s2_pool4/3x3_s2_0_split -> pool4/3x3_s2_pool4/3x3_s2_0_split_2
I0704 13:25:32.117964 25786 net.cpp:368] pool4/3x3_s2_pool4/3x3_s2_0_split -> pool4/3x3_s2_pool4/3x3_s2_0_split_3
I0704 13:25:32.117970 25786 net.cpp:120] Setting up pool4/3x3_s2_pool4/3x3_s2_0_split
I0704 13:25:32.117977 25786 net.cpp:127] Top shape: 30 832 7 7 (1223040)
I0704 13:25:32.117982 25786 net.cpp:127] Top shape: 30 832 7 7 (1223040)
I0704 13:25:32.117987 25786 net.cpp:127] Top shape: 30 832 7 7 (1223040)
I0704 13:25:32.117991 25786 net.cpp:127] Top shape: 30 832 7 7 (1223040)
I0704 13:25:32.117996 25786 layer_factory.hpp:74] Creating layer inception_5a/1x1
I0704 13:25:32.118003 25786 net.cpp:90] Creating Layer inception_5a/1x1
I0704 13:25:32.118008 25786 net.cpp:410] inception_5a/1x1 <- pool4/3x3_s2_pool4/3x3_s2_0_split_0
I0704 13:25:32.118013 25786 net.cpp:368] inception_5a/1x1 -> inception_5a/1x1
I0704 13:25:32.118021 25786 net.cpp:120] Setting up inception_5a/1x1
I0704 13:25:32.119257 25786 net.cpp:127] Top shape: 30 256 7 7 (376320)
I0704 13:25:32.119271 25786 layer_factory.hpp:74] Creating layer inception_5a/relu_1x1
I0704 13:25:32.119277 25786 net.cpp:90] Creating Layer inception_5a/relu_1x1
I0704 13:25:32.119283 25786 net.cpp:410] inception_5a/relu_1x1 <- inception_5a/1x1
I0704 13:25:32.119289 25786 net.cpp:357] inception_5a/relu_1x1 -> inception_5a/1x1 (in-place)
I0704 13:25:32.119295 25786 net.cpp:120] Setting up inception_5a/relu_1x1
I0704 13:25:32.119413 25786 net.cpp:127] Top shape: 30 256 7 7 (376320)
I0704 13:25:32.119422 25786 layer_factory.hpp:74] Creating layer inception_5a/3x3_reduce
I0704 13:25:32.119429 25786 net.cpp:90] Creating Layer inception_5a/3x3_reduce
I0704 13:25:32.119434 25786 net.cpp:410] inception_5a/3x3_reduce <- pool4/3x3_s2_pool4/3x3_s2_0_split_1
I0704 13:25:32.119441 25786 net.cpp:368] inception_5a/3x3_reduce -> inception_5a/3x3_reduce
I0704 13:25:32.119449 25786 net.cpp:120] Setting up inception_5a/3x3_reduce
I0704 13:25:32.120296 25786 net.cpp:127] Top shape: 30 160 7 7 (235200)
I0704 13:25:32.120307 25786 layer_factory.hpp:74] Creating layer inception_5a/relu_3x3_reduce
I0704 13:25:32.120314 25786 net.cpp:90] Creating Layer inception_5a/relu_3x3_reduce
I0704 13:25:32.120319 25786 net.cpp:410] inception_5a/relu_3x3_reduce <- inception_5a/3x3_reduce
I0704 13:25:32.120324 25786 net.cpp:357] inception_5a/relu_3x3_reduce -> inception_5a/3x3_reduce (in-place)
I0704 13:25:32.120332 25786 net.cpp:120] Setting up inception_5a/relu_3x3_reduce
I0704 13:25:32.120373 25786 net.cpp:127] Top shape: 30 160 7 7 (235200)
I0704 13:25:32.120379 25786 layer_factory.hpp:74] Creating layer inception_5a/3x3
I0704 13:25:32.120386 25786 net.cpp:90] Creating Layer inception_5a/3x3
I0704 13:25:32.120391 25786 net.cpp:410] inception_5a/3x3 <- inception_5a/3x3_reduce
I0704 13:25:32.120398 25786 net.cpp:368] inception_5a/3x3 -> inception_5a/3x3
I0704 13:25:32.120404 25786 net.cpp:120] Setting up inception_5a/3x3
I0704 13:25:32.122835 25786 net.cpp:127] Top shape: 30 320 7 7 (470400)
I0704 13:25:32.122848 25786 layer_factory.hpp:74] Creating layer inception_5a/relu_3x3
I0704 13:25:32.122853 25786 net.cpp:90] Creating Layer inception_5a/relu_3x3
I0704 13:25:32.122859 25786 net.cpp:410] inception_5a/relu_3x3 <- inception_5a/3x3
I0704 13:25:32.122864 25786 net.cpp:357] inception_5a/relu_3x3 -> inception_5a/3x3 (in-place)
I0704 13:25:32.122870 25786 net.cpp:120] Setting up inception_5a/relu_3x3
I0704 13:25:32.122911 25786 net.cpp:127] Top shape: 30 320 7 7 (470400)
I0704 13:25:32.122917 25786 layer_factory.hpp:74] Creating layer inception_5a/5x5_reduce
I0704 13:25:32.122925 25786 net.cpp:90] Creating Layer inception_5a/5x5_reduce
I0704 13:25:32.122930 25786 net.cpp:410] inception_5a/5x5_reduce <- pool4/3x3_s2_pool4/3x3_s2_0_split_2
I0704 13:25:32.122944 25786 net.cpp:368] inception_5a/5x5_reduce -> inception_5a/5x5_reduce
I0704 13:25:32.122952 25786 net.cpp:120] Setting up inception_5a/5x5_reduce
I0704 13:25:32.123289 25786 net.cpp:127] Top shape: 30 32 7 7 (47040)
I0704 13:25:32.123301 25786 layer_factory.hpp:74] Creating layer inception_5a/relu_5x5_reduce
I0704 13:25:32.123311 25786 net.cpp:90] Creating Layer inception_5a/relu_5x5_reduce
I0704 13:25:32.123317 25786 net.cpp:410] inception_5a/relu_5x5_reduce <- inception_5a/5x5_reduce
I0704 13:25:32.123322 25786 net.cpp:357] inception_5a/relu_5x5_reduce -> inception_5a/5x5_reduce (in-place)
I0704 13:25:32.123329 25786 net.cpp:120] Setting up inception_5a/relu_5x5_reduce
I0704 13:25:32.123369 25786 net.cpp:127] Top shape: 30 32 7 7 (47040)
I0704 13:25:32.123376 25786 layer_factory.hpp:74] Creating layer inception_5a/5x5
I0704 13:25:32.123384 25786 net.cpp:90] Creating Layer inception_5a/5x5
I0704 13:25:32.123389 25786 net.cpp:410] inception_5a/5x5 <- inception_5a/5x5_reduce
I0704 13:25:32.123395 25786 net.cpp:368] inception_5a/5x5 -> inception_5a/5x5
I0704 13:25:32.123401 25786 net.cpp:120] Setting up inception_5a/5x5
I0704 13:25:32.124119 25786 net.cpp:127] Top shape: 30 128 7 7 (188160)
I0704 13:25:32.124130 25786 layer_factory.hpp:74] Creating layer inception_5a/relu_5x5
I0704 13:25:32.124136 25786 net.cpp:90] Creating Layer inception_5a/relu_5x5
I0704 13:25:32.124141 25786 net.cpp:410] inception_5a/relu_5x5 <- inception_5a/5x5
I0704 13:25:32.124146 25786 net.cpp:357] inception_5a/relu_5x5 -> inception_5a/5x5 (in-place)
I0704 13:25:32.124153 25786 net.cpp:120] Setting up inception_5a/relu_5x5
I0704 13:25:32.124261 25786 net.cpp:127] Top shape: 30 128 7 7 (188160)
I0704 13:25:32.124270 25786 layer_factory.hpp:74] Creating layer inception_5a/pool
I0704 13:25:32.124275 25786 layer_factory.cpp:55] CUDNN does not support padding or multiple tops. Using Caffe's own pooling layer.
I0704 13:25:32.124281 25786 net.cpp:90] Creating Layer inception_5a/pool
I0704 13:25:32.124286 25786 net.cpp:410] inception_5a/pool <- pool4/3x3_s2_pool4/3x3_s2_0_split_3
I0704 13:25:32.124294 25786 net.cpp:368] inception_5a/pool -> inception_5a/pool
I0704 13:25:32.124300 25786 net.cpp:120] Setting up inception_5a/pool
I0704 13:25:32.124306 25786 net.cpp:127] Top shape: 30 832 7 7 (1223040)
I0704 13:25:32.124311 25786 layer_factory.hpp:74] Creating layer inception_5a/pool_proj
I0704 13:25:32.124317 25786 net.cpp:90] Creating Layer inception_5a/pool_proj
I0704 13:25:32.124322 25786 net.cpp:410] inception_5a/pool_proj <- inception_5a/pool
I0704 13:25:32.124330 25786 net.cpp:368] inception_5a/pool_proj -> inception_5a/pool_proj
I0704 13:25:32.124337 25786 net.cpp:120] Setting up inception_5a/pool_proj
I0704 13:25:32.125056 25786 net.cpp:127] Top shape: 30 128 7 7 (188160)
I0704 13:25:32.125067 25786 layer_factory.hpp:74] Creating layer inception_5a/relu_pool_proj
I0704 13:25:32.125074 25786 net.cpp:90] Creating Layer inception_5a/relu_pool_proj
I0704 13:25:32.125079 25786 net.cpp:410] inception_5a/relu_pool_proj <- inception_5a/pool_proj
I0704 13:25:32.125084 25786 net.cpp:357] inception_5a/relu_pool_proj -> inception_5a/pool_proj (in-place)
I0704 13:25:32.125092 25786 net.cpp:120] Setting up inception_5a/relu_pool_proj
I0704 13:25:32.125131 25786 net.cpp:127] Top shape: 30 128 7 7 (188160)
I0704 13:25:32.125138 25786 layer_factory.hpp:74] Creating layer inception_5a/output
I0704 13:25:32.125144 25786 net.cpp:90] Creating Layer inception_5a/output
I0704 13:25:32.125149 25786 net.cpp:410] inception_5a/output <- inception_5a/1x1
I0704 13:25:32.125154 25786 net.cpp:410] inception_5a/output <- inception_5a/3x3
I0704 13:25:32.125159 25786 net.cpp:410] inception_5a/output <- inception_5a/5x5
I0704 13:25:32.125164 25786 net.cpp:410] inception_5a/output <- inception_5a/pool_proj
I0704 13:25:32.125169 25786 net.cpp:368] inception_5a/output -> inception_5a/output
I0704 13:25:32.125174 25786 net.cpp:120] Setting up inception_5a/output
I0704 13:25:32.125180 25786 net.cpp:127] Top shape: 30 832 7 7 (1223040)
I0704 13:25:32.125191 25786 layer_factory.hpp:74] Creating layer inception_5a/output_inception_5a/output_0_split
I0704 13:25:32.125198 25786 net.cpp:90] Creating Layer inception_5a/output_inception_5a/output_0_split
I0704 13:25:32.125203 25786 net.cpp:410] inception_5a/output_inception_5a/output_0_split <- inception_5a/output
I0704 13:25:32.125210 25786 net.cpp:368] inception_5a/output_inception_5a/output_0_split -> inception_5a/output_inception_5a/output_0_split_0
I0704 13:25:32.125216 25786 net.cpp:368] inception_5a/output_inception_5a/output_0_split -> inception_5a/output_inception_5a/output_0_split_1
I0704 13:25:32.125223 25786 net.cpp:368] inception_5a/output_inception_5a/output_0_split -> inception_5a/output_inception_5a/output_0_split_2
I0704 13:25:32.125229 25786 net.cpp:368] inception_5a/output_inception_5a/output_0_split -> inception_5a/output_inception_5a/output_0_split_3
I0704 13:25:32.125236 25786 net.cpp:120] Setting up inception_5a/output_inception_5a/output_0_split
I0704 13:25:32.125242 25786 net.cpp:127] Top shape: 30 832 7 7 (1223040)
I0704 13:25:32.125247 25786 net.cpp:127] Top shape: 30 832 7 7 (1223040)
I0704 13:25:32.125252 25786 net.cpp:127] Top shape: 30 832 7 7 (1223040)
I0704 13:25:32.125257 25786 net.cpp:127] Top shape: 30 832 7 7 (1223040)
I0704 13:25:32.125262 25786 layer_factory.hpp:74] Creating layer inception_5b/1x1
I0704 13:25:32.125267 25786 net.cpp:90] Creating Layer inception_5b/1x1
I0704 13:25:32.125272 25786 net.cpp:410] inception_5b/1x1 <- inception_5a/output_inception_5a/output_0_split_0
I0704 13:25:32.125278 25786 net.cpp:368] inception_5b/1x1 -> inception_5b/1x1
I0704 13:25:32.125285 25786 net.cpp:120] Setting up inception_5b/1x1
I0704 13:25:32.127074 25786 net.cpp:127] Top shape: 30 384 7 7 (564480)
I0704 13:25:32.127086 25786 layer_factory.hpp:74] Creating layer inception_5b/relu_1x1
I0704 13:25:32.127094 25786 net.cpp:90] Creating Layer inception_5b/relu_1x1
I0704 13:25:32.127099 25786 net.cpp:410] inception_5b/relu_1x1 <- inception_5b/1x1
I0704 13:25:32.127104 25786 net.cpp:357] inception_5b/relu_1x1 -> inception_5b/1x1 (in-place)
I0704 13:25:32.127110 25786 net.cpp:120] Setting up inception_5b/relu_1x1
I0704 13:25:32.127151 25786 net.cpp:127] Top shape: 30 384 7 7 (564480)
I0704 13:25:32.127156 25786 layer_factory.hpp:74] Creating layer inception_5b/3x3_reduce
I0704 13:25:32.127163 25786 net.cpp:90] Creating Layer inception_5b/3x3_reduce
I0704 13:25:32.127168 25786 net.cpp:410] inception_5b/3x3_reduce <- inception_5a/output_inception_5a/output_0_split_1
I0704 13:25:32.127174 25786 net.cpp:368] inception_5b/3x3_reduce -> inception_5b/3x3_reduce
I0704 13:25:32.127182 25786 net.cpp:120] Setting up inception_5b/3x3_reduce
I0704 13:25:32.128161 25786 net.cpp:127] Top shape: 30 192 7 7 (282240)
I0704 13:25:32.128172 25786 layer_factory.hpp:74] Creating layer inception_5b/relu_3x3_reduce
I0704 13:25:32.128180 25786 net.cpp:90] Creating Layer inception_5b/relu_3x3_reduce
I0704 13:25:32.128185 25786 net.cpp:410] inception_5b/relu_3x3_reduce <- inception_5b/3x3_reduce
I0704 13:25:32.128190 25786 net.cpp:357] inception_5b/relu_3x3_reduce -> inception_5b/3x3_reduce (in-place)
I0704 13:25:32.128196 25786 net.cpp:120] Setting up inception_5b/relu_3x3_reduce
I0704 13:25:32.128242 25786 net.cpp:127] Top shape: 30 192 7 7 (282240)
I0704 13:25:32.128248 25786 layer_factory.hpp:74] Creating layer inception_5b/3x3
I0704 13:25:32.128255 25786 net.cpp:90] Creating Layer inception_5b/3x3
I0704 13:25:32.128260 25786 net.cpp:410] inception_5b/3x3 <- inception_5b/3x3_reduce
I0704 13:25:32.128267 25786 net.cpp:368] inception_5b/3x3 -> inception_5b/3x3
I0704 13:25:32.128285 25786 net.cpp:120] Setting up inception_5b/3x3
I0704 13:25:32.131705 25786 net.cpp:127] Top shape: 30 384 7 7 (564480)
I0704 13:25:32.131716 25786 layer_factory.hpp:74] Creating layer inception_5b/relu_3x3
I0704 13:25:32.131722 25786 net.cpp:90] Creating Layer inception_5b/relu_3x3
I0704 13:25:32.131728 25786 net.cpp:410] inception_5b/relu_3x3 <- inception_5b/3x3
I0704 13:25:32.131733 25786 net.cpp:357] inception_5b/relu_3x3 -> inception_5b/3x3 (in-place)
I0704 13:25:32.131750 25786 net.cpp:120] Setting up inception_5b/relu_3x3
I0704 13:25:32.131861 25786 net.cpp:127] Top shape: 30 384 7 7 (564480)
I0704 13:25:32.131870 25786 layer_factory.hpp:74] Creating layer inception_5b/5x5_reduce
I0704 13:25:32.131878 25786 net.cpp:90] Creating Layer inception_5b/5x5_reduce
I0704 13:25:32.131883 25786 net.cpp:410] inception_5b/5x5_reduce <- inception_5a/output_inception_5a/output_0_split_2
I0704 13:25:32.131891 25786 net.cpp:368] inception_5b/5x5_reduce -> inception_5b/5x5_reduce
I0704 13:25:32.131898 25786 net.cpp:120] Setting up inception_5b/5x5_reduce
I0704 13:25:32.132294 25786 net.cpp:127] Top shape: 30 48 7 7 (70560)
I0704 13:25:32.132305 25786 layer_factory.hpp:74] Creating layer inception_5b/relu_5x5_reduce
I0704 13:25:32.132311 25786 net.cpp:90] Creating Layer inception_5b/relu_5x5_reduce
I0704 13:25:32.132316 25786 net.cpp:410] inception_5b/relu_5x5_reduce <- inception_5b/5x5_reduce
I0704 13:25:32.132323 25786 net.cpp:357] inception_5b/relu_5x5_reduce -> inception_5b/5x5_reduce (in-place)
I0704 13:25:32.132328 25786 net.cpp:120] Setting up inception_5b/relu_5x5_reduce
I0704 13:25:32.132370 25786 net.cpp:127] Top shape: 30 48 7 7 (70560)
I0704 13:25:32.132376 25786 layer_factory.hpp:74] Creating layer inception_5b/5x5
I0704 13:25:32.132383 25786 net.cpp:90] Creating Layer inception_5b/5x5
I0704 13:25:32.132388 25786 net.cpp:410] inception_5b/5x5 <- inception_5b/5x5_reduce
I0704 13:25:32.132395 25786 net.cpp:368] inception_5b/5x5 -> inception_5b/5x5
I0704 13:25:32.132400 25786 net.cpp:120] Setting up inception_5b/5x5
I0704 13:25:32.133344 25786 net.cpp:127] Top shape: 30 128 7 7 (188160)
I0704 13:25:32.133355 25786 layer_factory.hpp:74] Creating layer inception_5b/relu_5x5
I0704 13:25:32.133361 25786 net.cpp:90] Creating Layer inception_5b/relu_5x5
I0704 13:25:32.133366 25786 net.cpp:410] inception_5b/relu_5x5 <- inception_5b/5x5
I0704 13:25:32.133373 25786 net.cpp:357] inception_5b/relu_5x5 -> inception_5b/5x5 (in-place)
I0704 13:25:32.133378 25786 net.cpp:120] Setting up inception_5b/relu_5x5
I0704 13:25:32.133419 25786 net.cpp:127] Top shape: 30 128 7 7 (188160)
I0704 13:25:32.133425 25786 layer_factory.hpp:74] Creating layer inception_5b/pool
I0704 13:25:32.133430 25786 layer_factory.cpp:55] CUDNN does not support padding or multiple tops. Using Caffe's own pooling layer.
I0704 13:25:32.133436 25786 net.cpp:90] Creating Layer inception_5b/pool
I0704 13:25:32.133441 25786 net.cpp:410] inception_5b/pool <- inception_5a/output_inception_5a/output_0_split_3
I0704 13:25:32.133447 25786 net.cpp:368] inception_5b/pool -> inception_5b/pool
I0704 13:25:32.133453 25786 net.cpp:120] Setting up inception_5b/pool
I0704 13:25:32.133460 25786 net.cpp:127] Top shape: 30 832 7 7 (1223040)
I0704 13:25:32.133466 25786 layer_factory.hpp:74] Creating layer inception_5b/pool_proj
I0704 13:25:32.133472 25786 net.cpp:90] Creating Layer inception_5b/pool_proj
I0704 13:25:32.133477 25786 net.cpp:410] inception_5b/pool_proj <- inception_5b/pool
I0704 13:25:32.133483 25786 net.cpp:368] inception_5b/pool_proj -> inception_5b/pool_proj
I0704 13:25:32.133489 25786 net.cpp:120] Setting up inception_5b/pool_proj
I0704 13:25:32.134208 25786 net.cpp:127] Top shape: 30 128 7 7 (188160)
I0704 13:25:32.134220 25786 layer_factory.hpp:74] Creating layer inception_5b/relu_pool_proj
I0704 13:25:32.134227 25786 net.cpp:90] Creating Layer inception_5b/relu_pool_proj
I0704 13:25:32.134232 25786 net.cpp:410] inception_5b/relu_pool_proj <- inception_5b/pool_proj
I0704 13:25:32.134238 25786 net.cpp:357] inception_5b/relu_pool_proj -> inception_5b/pool_proj (in-place)
I0704 13:25:32.134243 25786 net.cpp:120] Setting up inception_5b/relu_pool_proj
I0704 13:25:32.134353 25786 net.cpp:127] Top shape: 30 128 7 7 (188160)
I0704 13:25:32.134362 25786 layer_factory.hpp:74] Creating layer inception_5b/output
I0704 13:25:32.134369 25786 net.cpp:90] Creating Layer inception_5b/output
I0704 13:25:32.134374 25786 net.cpp:410] inception_5b/output <- inception_5b/1x1
I0704 13:25:32.134379 25786 net.cpp:410] inception_5b/output <- inception_5b/3x3
I0704 13:25:32.134392 25786 net.cpp:410] inception_5b/output <- inception_5b/5x5
I0704 13:25:32.134397 25786 net.cpp:410] inception_5b/output <- inception_5b/pool_proj
I0704 13:25:32.134402 25786 net.cpp:368] inception_5b/output -> inception_5b/output
I0704 13:25:32.134408 25786 net.cpp:120] Setting up inception_5b/output
I0704 13:25:32.134415 25786 net.cpp:127] Top shape: 30 1024 7 7 (1505280)
I0704 13:25:32.134420 25786 layer_factory.hpp:74] Creating layer pool5/7x7_s1
I0704 13:25:32.134428 25786 net.cpp:90] Creating Layer pool5/7x7_s1
I0704 13:25:32.134431 25786 net.cpp:410] pool5/7x7_s1 <- inception_5b/output
I0704 13:25:32.134438 25786 net.cpp:368] pool5/7x7_s1 -> pool5/7x7_s1
I0704 13:25:32.134443 25786 net.cpp:120] Setting up pool5/7x7_s1
I0704 13:25:32.134485 25786 net.cpp:127] Top shape: 30 1024 1 1 (30720)
I0704 13:25:32.134491 25786 layer_factory.hpp:74] Creating layer pool5/drop_7x7_s1
I0704 13:25:32.134497 25786 net.cpp:90] Creating Layer pool5/drop_7x7_s1
I0704 13:25:32.134502 25786 net.cpp:410] pool5/drop_7x7_s1 <- pool5/7x7_s1
I0704 13:25:32.134508 25786 net.cpp:357] pool5/drop_7x7_s1 -> pool5/7x7_s1 (in-place)
I0704 13:25:32.134515 25786 net.cpp:120] Setting up pool5/drop_7x7_s1
I0704 13:25:32.134521 25786 net.cpp:127] Top shape: 30 1024 1 1 (30720)
I0704 13:25:32.134526 25786 layer_factory.hpp:74] Creating layer stanford_cars_loss3/classifier
I0704 13:25:32.134532 25786 net.cpp:90] Creating Layer stanford_cars_loss3/classifier
I0704 13:25:32.134536 25786 net.cpp:410] stanford_cars_loss3/classifier <- pool5/7x7_s1
I0704 13:25:32.134544 25786 net.cpp:368] stanford_cars_loss3/classifier -> stanford_cars_loss3/classifier
I0704 13:25:32.134551 25786 net.cpp:120] Setting up stanford_cars_loss3/classifier
I0704 13:25:32.135535 25786 net.cpp:127] Top shape: 30 196 (5880)
I0704 13:25:32.135545 25786 layer_factory.hpp:74] Creating layer loss3/loss3
I0704 13:25:32.135551 25786 net.cpp:90] Creating Layer loss3/loss3
I0704 13:25:32.135555 25786 net.cpp:410] loss3/loss3 <- stanford_cars_loss3/classifier
I0704 13:25:32.135561 25786 net.cpp:410] loss3/loss3 <- label_data_1_split_2
I0704 13:25:32.135567 25786 net.cpp:368] loss3/loss3 -> loss3/loss3
I0704 13:25:32.135573 25786 net.cpp:120] Setting up loss3/loss3
…
I0704 13:25:32.139587 25786 net.cpp:287] The NetState phase (1) differed from the phase (0) specified by a rule in layer data
I0704 13:25:32.140334 25786 net.cpp:42] Initializing net from parameters: 
name: "GoogleNet"
state {
  phase: TEST
}
layer {
  name: "data"
  type: "Data"
  top: "data"
  top: "label"
  include {
    phase: TEST
  }
  transform_param {
    mirror: false
    crop_size: 224
    mean_value: 104
    mean_value: 117
    mean_value: 123
  }
  data_param {
    source: "examples/stanford_cars/stanford_cars_val_lmdb"
    batch_size: 10
    backend: LMDB
  }
}
layer {
  name: "conv1/7x7_s2"
  type: "Convolution"
  bottom: "data"
  top: "conv1/7x7_s2"
  param {
    lr_mult: 1
    decay_mult: 1
  }
  param {
    lr_mult: 2
    decay_mult: 0
  }
  convolution_param {
    num_output: 64
    pad: 3
    kernel_size: 7
    stride: 2
    weight_filler {
      type: "xavier"
      std: 0.1
    }
    bias_filler {
      type: "constant"
      value: 0.2
    }
  }
}
layer {
  name: "conv1/relu_7x7"
  type: "ReLU"
  bottom: "conv1/7x7_s2"
  top: "conv1/7x7_s2"
}
layer {
  name: "pool1/3x3_s2"
  type: "Pooling"
  bottom: "conv1/7x7_s2"
  top: "pool1/3x3_s2"
  pooling_param {
    pool: MAX
    kernel_size: 3
    stride: 2
  }
}
layer {
  name: "pool1/norm1"
  type: "LRN"
  bottom: "pool1/3x3_s2"
  top: "pool1/norm1"
  lrn_param {
    local_size: 5
    alpha: 0.0001
    beta: 0.75
  }
}
layer {
  name: "conv2/3x3_reduce"
  type: "Convolution"
  bottom: "pool1/norm1"
  top: "conv2/3x3_reduce"
  param {
    lr_mult: 1
    decay_mult: 1
  }
  param {
    lr_mult: 2
    decay_mult: 0
  }
  convolution_param {
    num_output: 64
    kernel_size: 1
    weight_filler {
      type: "xavier"
      std: 0.1
    }
    bias_filler {
      type: "constant"
      value: 0.2
    }
  }
}
layer {
  name: "conv2/relu_3x3_reduce"
  type: "ReLU"
  bottom: "conv2/3x3_reduce"
  top: "conv2/3x3_reduce"
}
layer {
  name: "conv2/3x3"
  type: "Convolution"
  bottom: "conv2/3x3_reduce"
  top: "conv2/3x3"
  param {
    lr_mult: 1
    decay_mult: 1
  }
  param {
    lr_mult: 2
    decay_mult: 0
  }
  convolution_param {
    num_output: 192
    pad: 1
    kernel_size: 3
    weight_filler {
      type: "xavier"
      std: 0.03
    }
    bias_filler {
      type: "constant"
      value: 0.2
    }
  }
}
layer {
  name: "conv2/relu_3x3"
  type: "ReLU"
  bottom: "conv2/3x3"
  top: "conv2/3x3"
}
layer {
  name: "conv2/norm2"
  type: "LRN"
  bottom: "conv2/3x3"
  top: "conv2/norm2"
  lrn_param {
    local_size: 5
    alpha: 0.0001
    beta: 0.75
  }
}
layer {
  name: "pool2/3x3_s2"
  type: "Pooling"
  bottom: "conv2/norm2"
  top: "pool2/3x3_s2"
  pooling_param {
    pool: MAX
    kernel_size: 3
    stride: 2
  }
}
layer {
  name: "inception_3a/1x1"
  type: "Convolution"
  bottom: "pool2/3x3_s2"
  top: "inception_3a/1x1"
  param {
    lr_mult: 1
    decay_mult: 1
  }
  param {
    lr_mult: 2
    decay_mult: 0
  }
  convolution_param {
    num_output: 64
    kernel_size: 1
    weight_filler {
      type: "xavier"
      std: 0.03
    }
    bias_filler {
      type: "constant"
      value: 0.2
    }
  }
}
layer {
  name: "inception_3a/relu_1x1"
  type: "ReLU"
  bottom: "inception_3a/1x1"
  top: "inception_3a/1x1"
}
layer {
  name: "inception_3a/3x3_reduce"
  type: "Convolution"
  bottom: "pool2/3x3_s2"
  top: "inception_3a/3x3_reduce"
  param {
    lr_mult: 1
    decay_mult: 1
  }
  param {
    lr_mult: 2
    decay_mult: 0
  }
  convolution_param {
    num_output: 96
    kernel_size: 1
    weight_filler {
      type: "xavier"
      std: 0.09
    }
    bias_filler {
      type: "constant"
      value: 0.2
    }
  }
}
layer {
  name: "inception_3a/relu_3x3_reduce"
  type: "ReLU"
  bottom: "inception_3a/3x3_reduce"
  top: "inception_3a/3x3_reduce"
}
layer {
  name: "inception_3a/3x3"
  type: "Convolution"
  bottom: "inception_3a/3x3_reduce"
  top: "inception_3a/3x3"
  param {
    lr_mult: 1
    decay_mult: 1
  }
  param {
    lr_mult: 2
    decay_mult: 0
  }
  convolution_param {
    num_output: 128
    pad: 1
    kernel_size: 3
    weight_filler {
      type: "xavier"
      std: 0.03
    }
    bias_filler {
      type: "constant"
      value: 0.2
    }
  }
}
layer {
  name: "inception_3a/relu_3x3"
  type: "ReLU"
  bottom: "inception_3a/3x3"
  top: "inception_3a/3x3"
}
layer {
  name: "inception_3a/5x5_reduce"
  type: "Convolution"
  bottom: "pool2/3x3_s2"
  top: "inception_3a/5x5_reduce"
  param {
    lr_mult: 1
    decay_mult: 1
  }
  param {
    lr_mult: 2
    decay_mult: 0
  }
  convolution_param {
    num_output: 16
    kernel_size: 1
    weight_filler {
      type: "xavier"
      std: 0.2
    }
    bias_filler {
      type: "constant"
      value: 0.2
    }
  }
}
layer {
  name: "inception_3a/relu_5x5_reduce"
  type: "ReLU"
  bottom: "inception_3a/5x5_reduce"
  top: "inception_3a/5x5_reduce"
}
layer {
  name: "inception_3a/5x5"
  type: "Convolution"
  bottom: "inception_3a/5x5_reduce"
  top: "inception_3a/5x5"
  param {
    lr_mult: 1
    decay_mult: 1
  }
  param {
    lr_mult: 2
    decay_mult: 0
  }
  convolution_param {
    num_output: 32
    pad: 2
    kernel_size: 5
    weight_filler {
      type: "xavier"
      std: 0.03
    }
    bias_filler {
      type: "constant"
      value: 0.2
    }
  }
}
layer {
  name: "inception_3a/relu_5x5"
  type: "ReLU"
  bottom: "inception_3a/5x5"
  top: "inception_3a/5x5"
}
layer {
  name: "inception_3a/pool"
  type: "Pooling"
  bottom: "pool2/3x3_s2"
  top: "inception_3a/pool"
  pooling_param {
    pool: MAX
    kernel_size: 3
    stride: 1
    pad: 1
  }
}
layer {
  name: "inception_3a/pool_proj"
  type: "Convolution"
  bottom: "inception_3a/pool"
  top: "inception_3a/pool_proj"
  param {
    lr_mult: 1
    decay_mult: 1
  }
  param {
    lr_mult: 2
    decay_mult: 0
  }
  convolution_param {
    num_output: 32
    kernel_size: 1
    weight_filler {
      type: "xavier"
      std: 0.1
    }
    bias_filler {
      type: "constant"
      value: 0.2
    }
  }
}
layer {
  name: "inception_3a/relu_pool_proj"
  type: "ReLU"
  bottom: "inception_3a/pool_proj"
  top: "inception_3a/pool_proj"
}
layer {
  name: "inception_3a/output"
  type: "Concat"
  bottom: "inception_3a/1x1"
  bottom: "inception_3a/3x3"
  bottom: "inception_3a/5x5"
  bottom: "inception_3a/pool_proj"
  top: "inception_3a/output"
}
layer {
  name: "inception_3b/1x1"
  type: "Convolution"
  bottom: "inception_3a/output"
  top: "inception_3b/1x1"
  param {
    lr_mult: 1
    decay_mult: 1
  }
  param {
    lr_mult: 2
    decay_mult: 0
  }
  convolution_param {
    num_output: 128
    kernel_size: 1
    weight_filler {
      type: "xavier"
      std: 0.03
    }
    bias_filler {
      type: "constant"
      value: 0.2
    }
  }
}
layer {
  name: "inception_3b/relu_1x1"
  type: "ReLU"
  bottom: "inception_3b/1x1"
  top: "inception_3b/1x1"
}
layer {
  name: "inception_3b/3x3_reduce"
  type: "Convolution"
  bottom: "inception_3a/output"
  top: "inception_3b/3x3_reduce"
  param {
    lr_mult: 1
    decay_mult: 1
  }
  param {
    lr_mult: 2
    decay_mult: 0
  }
  convolution_param {
    num_output: 128
    kernel_size: 1
    weight_filler {
      type: "xavier"
      std: 0.09
    }
    bias_filler {
      type: "constant"
      value: 0.2
    }
  }
}
layer {
  name: "inception_3b/relu_3x3_reduce"
  type: "ReLU"
  bottom: "inception_3b/3x3_reduce"
  top: "inception_3b/3x3_reduce"
}
layer {
  name: "inception_3b/3x3"
  type: "Convolution"
  bottom: "inception_3b/3x3_reduce"
  top: "inception_3b/3x3"
  param {
    lr_mult: 1
    decay_mult: 1
  }
  param {
    lr_mult: 2
    decay_mult: 0
  }
  convolution_param {
    num_output: 192
    pad: 1
    kernel_size: 3
    weight_filler {
      type: "xavier"
      std: 0.03
    }
    bias_filler {
      type: "constant"
      value: 0.2
    }
  }
}
layer {
  name: "inception_3b/relu_3x3"
  type: "ReLU"
  bottom: "inception_3b/3x3"
  top: "inception_3b/3x3"
}
layer {
  name: "inception_3b/5x5_reduce"
  type: "Convolution"
  bottom: "inception_3a/output"
  top: "inception_3b/5x5_reduce"
  param {
    lr_mult: 1
    decay_mult: 1
  }
  param {
    lr_mult: 2
    decay_mult: 0
  }
  convolution_param {
    num_output: 32
    kernel_size: 1
    weight_filler {
      type: "xavier"
      std: 0.2
    }
    bias_filler {
      type: "constant"
      value: 0.2
    }
  }
}
layer {
  name: "inception_3b/relu_5x5_reduce"
  type: "ReLU"
  bottom: "inception_3b/5x5_reduce"
  top: "inception_3b/5x5_reduce"
}
layer {
  name: "inception_3b/5x5"
  type: "Convolution"
  bottom: "inception_3b/5x5_reduce"
  top: "inception_3b/5x5"
  param {
    lr_mult: 1
    decay_mult: 1
  }
  param {
    lr_mult: 2
    decay_mult: 0
  }
  convolution_param {
    num_output: 96
    pad: 2
    kernel_size: 5
    weight_filler {
      type: "xavier"
      std: 0.03
    }
    bias_filler {
      type: "constant"
      value: 0.2
    }
  }
}
layer {
  name: "inception_3b/relu_5x5"
  type: "ReLU"
  bottom: "inception_3b/5x5"
  top: "inception_3b/5x5"
}
layer {
  name: "inception_3b/pool"
  type: "Pooling"
  bottom: "inception_3a/output"
  top: "inception_3b/pool"
  pooling_param {
    pool: MAX
    kernel_size: 3
    stride: 1
    pad: 1
  }
}
layer {
  name: "inception_3b/pool_proj"
  type: "Convolution"
  bottom: "inception_3b/pool"
  top: "inception_3b/pool_proj"
  param {
    lr_mult: 1
    decay_mult: 1
  }
  param {
    lr_mult: 2
    decay_mult: 0
  }
  convolution_param {
    num_output: 64
    kernel_size: 1
    weight_filler {
      type: "xavier"
      std: 0.1
    }
    bias_filler {
      type: "constant"
      value: 0.2
    }
  }
}
layer {
  name: "inception_3b/relu_pool_proj"
  type: "ReLU"
  bottom: "inception_3b/pool_proj"
  top: "inception_3b/pool_proj"
}
layer {
  name: "inception_3b/output"
  type: "Concat"
  bottom: "inception_3b/1x1"
  bottom: "inception_3b/3x3"
  bottom: "inception_3b/5x5"
  bottom: "inception_3b/pool_proj"
  top: "inception_3b/output"
}
layer {
  name: "pool3/3x3_s2"
  type: "Pooling"
  bottom: "inception_3b/output"
  top: "pool3/3x3_s2"
  pooling_param {
    pool: MAX
    kernel_size: 3
    stride: 2
  }
}
layer {
  name: "inception_4a/1x1"
  type: "Convolution"
  bottom: "pool3/3x3_s2"
  top: "inception_4a/1x1"
  param {
    lr_mult: 1
    decay_mult: 1
  }
  param {
    lr_mult: 2
    decay_mult: 0
  }
  convolution_param {
    num_output: 192
    kernel_size: 1
    weight_filler {
      type: "xavier"
      std: 0.03
    }
    bias_filler {
      type: "constant"
      value: 0.2
    }
  }
}
layer {
  name: "inception_4a/relu_1x1"
  type: "ReLU"
  bottom: "inception_4a/1x1"
  top: "inception_4a/1x1"
}
layer {
  name: "inception_4a/3x3_reduce"
  type: "Convolution"
  bottom: "pool3/3x3_s2"
  top: "inception_4a/3x3_reduce"
  param {
    lr_mult: 1
    decay_mult: 1
  }
  param {
    lr_mult: 2
    decay_mult: 0
  }
  convolution_param {
    num_output: 96
    kernel_size: 1
    weight_filler {
      type: "xavier"
      std: 0.09
    }
    bias_filler {
      type: "constant"
      value: 0.2
    }
  }
}
layer {
  name: "inception_4a/relu_3x3_reduce"
  type: "ReLU"
  bottom: "inception_4a/3x3_reduce"
  top: "inception_4a/3x3_reduce"
}
layer {
  name: "inception_4a/3x3"
  type: "Convolution"
  bottom: "inception_4a/3x3_reduce"
  top: "inception_4a/3x3"
  param {
    lr_mult: 1
    decay_mult: 1
  }
  param {
    lr_mult: 2
    decay_mult: 0
  }
  convolution_param {
    num_output: 208
    pad: 1
    kernel_size: 3
    weight_filler {
      type: "xavier"
      std: 0.03
    }
    bias_filler {
      type: "constant"
      value: 0.2
    }
  }
}
layer {
  name: "inception_4a/relu_3x3"
  type: "ReLU"
  bottom: "inception_4a/3x3"
  top: "inception_4a/3x3"
}
layer {
  name: "inception_4a/5x5_reduce"
  type: "Convolution"
  bottom: "pool3/3x3_s2"
  top: "inception_4a/5x5_reduce"
  param {
    lr_mult: 1
    decay_mult: 1
  }
  param {
    lr_mult: 2
    decay_mult: 0
  }
  convolution_param {
    num_output: 16
    kernel_size: 1
    weight_filler {
      type: "xavier"
      std: 0.2
    }
    bias_filler {
      type: "constant"
      value: 0.2
    }
  }
}
layer {
  name: "inception_4a/relu_5x5_reduce"
  type: "ReLU"
  bottom: "inception_4a/5x5_reduce"
  top: "inception_4a/5x5_reduce"
}
layer {
  name: "inception_4a/5x5"
  type: "Convolution"
  bottom: "inception_4a/5x5_reduce"
  top: "inception_4a/5x5"
  param {
    lr_mult: 1
    decay_mult: 1
  }
  param {
    lr_mult: 2
    decay_mult: 0
  }
  convolution_param {
    num_output: 48
    pad: 2
    kernel_size: 5
    weight_filler {
      type: "xavier"
      std: 0.03
    }
    bias_filler {
      type: "constant"
      value: 0.2
    }
  }
}
layer {
  name: "inception_4a/relu_5x5"
  type: "ReLU"
  bottom: "inception_4a/5x5"
  top: "inception_4a/5x5"
}
layer {
  name: "inception_4a/pool"
  type: "Pooling"
  bottom: "pool3/3x3_s2"
  top: "inception_4a/pool"
  pooling_param {
    pool: MAX
    kernel_size: 3
    stride: 1
    pad: 1
  }
}
layer {
  name: "inception_4a/pool_proj"
  type: "Convolution"
  bottom: "inception_4a/pool"
  top: "inception_4a/pool_proj"
  param {
    lr_mult: 1
    decay_mult: 1
  }
  param {
    lr_mult: 2
    decay_mult: 0
  }
  convolution_param {
    num_output: 64
    kernel_size: 1
    weight_filler {
      type: "xavier"
      std: 0.1
    }
    bias_filler {
      type: "constant"
      value: 0.2
    }
  }
}
layer {
  name: "inception_4a/relu_pool_proj"
  type: "ReLU"
  bottom: "inception_4a/pool_proj"
  top: "inception_4a/pool_proj"
}
layer {
  name: "inception_4a/output"
  type: "Concat"
  bottom: "inception_4a/1x1"
  bottom: "inception_4a/3x3"
  bottom: "inception_4a/5x5"
  bottom: "inception_4a/pool_proj"
  top: "inception_4a/output"
}
layer {
  name: "loss1/ave_pool"
  type: "Pooling"
  bottom: "inception_4a/output"
  top: "loss1/ave_pool"
  pooling_param {
    pool: AVE
    kernel_size: 5
    stride: 3
  }
}
layer {
  name: "loss1/conv"
  type: "Convolution"
  bottom: "loss1/ave_pool"
  top: "loss1/conv"
  param {
    lr_mult: 1
    decay_mult: 1
  }
  param {
    lr_mult: 2
    decay_mult: 0
  }
  convolution_param {
    num_output: 128
    kernel_size: 1
    weight_filler {
      type: "xavier"
      std: 0.08
    }
    bias_filler {
      type: "constant"
      value: 0.2
    }
  }
}
layer {
  name: "loss1/relu_conv"
  type: "ReLU"
  bottom: "loss1/conv"
  top: "loss1/conv"
}
layer {
  name: "loss1/fc"
  type: "InnerProduct"
  bottom: "loss1/conv"
  top: "loss1/fc"
  param {
    lr_mult: 1
    decay_mult: 1
  }
  param {
    lr_mult: 2
    decay_mult: 0
  }
  inner_product_param {
    num_output: 1024
    weight_filler {
      type: "xavier"
      std: 0.02
    }
    bias_filler {
      type: "constant"
      value: 0.2
    }
  }
}
layer {
  name: "loss1/relu_fc"
  type: "ReLU"
  bottom: "loss1/fc"
  top: "loss1/fc"
}
layer {
  name: "loss1/drop_fc"
  type: "Dropout"
  bottom: "loss1/fc"
  top: "loss1/fc"
  dropout_param {
    dropout_ratio: 0.2
  }
}
layer {
  name: "stanford_cars_loss1/classifier"
  type: "InnerProduct"
  bottom: "loss1/fc"
  top: "stanford_cars_loss1/classifier"
  param {
    lr_mult: 1
    decay_mult: 1
  }
  param {
    lr_mult: 2
    decay_mult: 0
  }
  inner_product_param {
    num_output: 196
    weight_filler {
      type: "xavier"
      std: 0.0009765625
    }
    bias_filler {
      type: "constant"
      value: 0
    }
  }
}
layer {
  name: "loss1/loss"
  type: "SoftmaxWithLoss"
  bottom: "stanford_cars_loss1/classifier"
  bottom: "label"
  top: "loss1/loss1"
  loss_weight: 0.3
}
layer {
  name: "loss1/top-1"
  type: "Accuracy"
  bottom: "stanford_cars_loss1/classifier"
  bottom: "label"
  top: "loss1/top-1"
  include {
    phase: TEST
  }
}
layer {
  name: "loss1/top-5"
  type: "Accuracy"
  bottom: "stanford_cars_loss1/classifier"
  bottom: "label"
  top: "loss1/top-5"
  include {
    phase: TEST
  }
  accuracy_param {
    top_k: 5
  }
}
layer {
  name: "inception_4b/1x1"
  type: "Convolution"
  bottom: "inception_4a/output"
  top: "inception_4b/1x1"
  param {
    lr_mult: 1
    decay_mult: 1
  }
  param {
    lr_mult: 2
    decay_mult: 0
  }
  convolution_param {
    num_output: 160
    kernel_size: 1
    weight_filler {
      type: "xavier"
      std: 0.03
    }
    bias_filler {
      type: "constant"
      value: 0.2
    }
  }
}
layer {
  name: "inception_4b/relu_1x1"
  type: "ReLU"
  bottom: "inception_4b/1x1"
  top: "inception_4b/1x1"
}
layer {
  name: "inception_4b/3x3_reduce"
  type: "Convolution"
  bottom: "inception_4a/output"
  top: "inception_4b/3x3_reduce"
  param {
    lr_mult: 1
    decay_mult: 1
  }
  param {
    lr_mult: 2
    decay_mult: 0
  }
  convolution_param {
    num_output: 112
    kernel_size: 1
    weight_filler {
      type: "xavier"
      std: 0.09
    }
    bias_filler {
      type: "constant"
      value: 0.2
    }
  }
}
layer {
  name: "inception_4b/relu_3x3_reduce"
  type: "ReLU"
  bottom: "inception_4b/3x3_reduce"
  top: "inception_4b/3x3_reduce"
}
layer {
  name: "inception_4b/3x3"
  type: "Convolution"
  bottom: "inception_4b/3x3_reduce"
  top: "inception_4b/3x3"
  param {
    lr_mult: 1
    decay_mult: 1
  }
  param {
    lr_mult: 2
    decay_mult: 0
  }
  convolution_param {
    num_output: 224
    pad: 1
    kernel_size: 3
    weight_filler {
      type: "xavier"
      std: 0.03
    }
    bias_filler {
      type: "constant"
      value: 0.2
    }
  }
}
layer {
  name: "inception_4b/relu_3x3"
  type: "ReLU"
  bottom: "inception_4b/3x3"
  top: "inception_4b/3x3"
}
layer {
  name: "inception_4b/5x5_reduce"
  type: "Convolution"
  bottom: "inception_4a/output"
  top: "inception_4b/5x5_reduce"
  param {
    lr_mult: 1
    decay_mult: 1
  }
  param {
    lr_mult: 2
    decay_mult: 0
  }
  convolution_param {
    num_output: 24
    kernel_size: 1
    weight_filler {
      type: "xavier"
      std: 0.2
    }
    bias_filler {
      type: "constant"
      value: 0.2
    }
  }
}
layer {
  name: "inception_4b/relu_5x5_reduce"
  type: "ReLU"
  bottom: "inception_4b/5x5_reduce"
  top: "inception_4b/5x5_reduce"
}
layer {
  name: "inception_4b/5x5"
  type: "Convolution"
  bottom: "inception_4b/5x5_reduce"
  top: "inception_4b/5x5"
  param {
    lr_mult: 1
    decay_mult: 1
  }
  param {
    lr_mult: 2
    decay_mult: 0
  }
  convolution_param {
    num_output: 64
    pad: 2
    kernel_size: 5
    weight_filler {
      type: "xavier"
      std: 0.03
    }
    bias_filler {
      type: "constant"
      value: 0.2
    }
  }
}
layer {
  name: "inception_4b/relu_5x5"
  type: "ReLU"
  bottom: "inception_4b/5x5"
  top: "inception_4b/5x5"
}
layer {
  name: "inception_4b/pool"
  type: "Pooling"
  bottom: "inception_4a/output"
  top: "inception_4b/pool"
  pooling_param {
    pool: MAX
    kernel_size: 3
    stride: 1
    pad: 1
  }
}
layer {
  name: "inception_4b/pool_proj"
  type: "Convolution"
  bottom: "inception_4b/pool"
  top: "inception_4b/pool_proj"
  param {
    lr_mult: 1
    decay_mult: 1
  }
  param {
    lr_mult: 2
    decay_mult: 0
  }
  convolution_param {
    num_output: 64
    kernel_size: 1
    weight_filler {
      type: "xavier"
      std: 0.1
    }
    bias_filler {
      type: "constant"
      value: 0.2
    }
  }
}
layer {
  name: "inception_4b/relu_pool_proj"
  type: "ReLU"
  bottom: "inception_4b/pool_proj"
  top: "inception_4b/pool_proj"
}
layer {
  name: "inception_4b/output"
  type: "Concat"
  bottom: "inception_4b/1x1"
  bottom: "inception_4b/3x3"
  bottom: "inception_4b/5x5"
  bottom: "inception_4b/pool_proj"
  top: "inception_4b/output"
}
layer {
  name: "inception_4c/1x1"
  type: "Convolution"
  bottom: "inception_4b/output"
  top: "inception_4c/1x1"
  param {
    lr_mult: 1
    decay_mult: 1
  }
  param {
    lr_mult: 2
    decay_mult: 0
  }
  convolution_param {
    num_output: 128
    kernel_size: 1
    weight_filler {
      type: "xavier"
      std: 0.03
    }
    bias_filler {
      type: "constant"
      value: 0.2
    }
  }
}
layer {
  name: "inception_4c/relu_1x1"
  type: "ReLU"
  bottom: "inception_4c/1x1"
  top: "inception_4c/1x1"
}
layer {
  name: "inception_4c/3x3_reduce"
  type: "Convolution"
  bottom: "inception_4b/output"
  top: "inception_4c/3x3_reduce"
  param {
    lr_mult: 1
    decay_mult: 1
  }
  param {
    lr_mult: 2
    decay_mult: 0
  }
  convolution_param {
    num_output: 128
    kernel_size: 1
    weight_filler {
      type: "xavier"
      std: 0.09
    }
    bias_filler {
      type: "constant"
      value: 0.2
    }
  }
}
layer {
  name: "inception_4c/relu_3x3_reduce"
  type: "ReLU"
  bottom: "inception_4c/3x3_reduce"
  top: "inception_4c/3x3_reduce"
}
layer {
  name: "inception_4c/3x3"
  type: "Convolution"
  bottom: "inception_4c/3x3_reduce"
  top: "inception_4c/3x3"
  param {
    lr_mult: 1
    decay_mult: 1
  }
  param {
    lr_mult: 2
    decay_mult: 0
  }
  convolution_param {
    num_output: 256
    pad: 1
    kernel_size: 3
    weight_filler {
      type: "xavier"
      std: 0.03
    }
    bias_filler {
      type: "constant"
      value: 0.2
    }
  }
}
layer {
  name: "inception_4c/relu_3x3"
  type: "ReLU"
  bottom: "inception_4c/3x3"
  top: "inception_4c/3x3"
}
layer {
  name: "inception_4c/5x5_reduce"
  type: "Convolution"
  bottom: "inception_4b/output"
  top: "inception_4c/5x5_reduce"
  param {
    lr_mult: 1
    decay_mult: 1
  }
  param {
    lr_mult: 2
    decay_mult: 0
  }
  convolution_param {
    num_output: 24
    kernel_size: 1
    weight_filler {
      type: "xavier"
      std: 0.2
    }
    bias_filler {
      type: "constant"
      value: 0.2
    }
  }
}
layer {
  name: "inception_4c/relu_5x5_reduce"
  type: "ReLU"
  bottom: "inception_4c/5x5_reduce"
  top: "inception_4c/5x5_reduce"
}
layer {
  name: "inception_4c/5x5"
  type: "Convolution"
  bottom: "inception_4c/5x5_reduce"
  top: "inception_4c/5x5"
  param {
    lr_mult: 1
    decay_mult: 1
  }
  param {
    lr_mult: 2
    decay_mult: 0
  }
  convolution_param {
    num_output: 64
    pad: 2
    kernel_size: 5
    weight_filler {
      type: "xavier"
      std: 0.03
    }
    bias_filler {
      type: "constant"
      value: 0.2
    }
  }
}
layer {
  name: "inception_4c/relu_5x5"
  type: "ReLU"
  bottom: "inception_4c/5x5"
  top: "inception_4c/5x5"
}
layer {
  name: "inception_4c/pool"
  type: "Pooling"
  bottom: "inception_4b/output"
  top: "inception_4c/pool"
  pooling_param {
    pool: MAX
    kernel_size: 3
    stride: 1
    pad: 1
  }
}
layer {
  name: "inception_4c/pool_proj"
  type: "Convolution"
  bottom: "inception_4c/pool"
  top: "inception_4c/pool_proj"
  param {
    lr_mult: 1
    decay_mult: 1
  }
  param {
    lr_mult: 2
    decay_mult: 0
  }
  convolution_param {
    num_output: 64
    kernel_size: 1
    weight_filler {
      type: "xavier"
      std: 0.1
    }
    bias_filler {
      type: "constant"
      value: 0.2
    }
  }
}
layer {
  name: "inception_4c/relu_pool_proj"
  type: "ReLU"
  bottom: "inception_4c/pool_proj"
  top: "inception_4c/pool_proj"
}
layer {
  name: "inception_4c/output"
  type: "Concat"
  bottom: "inception_4c/1x1"
  bottom: "inception_4c/3x3"
  bottom: "inception_4c/5x5"
  bottom: "inception_4c/pool_proj"
  top: "inception_4c/output"
}
layer {
  name: "inception_4d/1x1"
  type: "Convolution"
  bottom: "inception_4c/output"
  top: "inception_4d/1x1"
  param {
    lr_mult: 1
    decay_mult: 1
  }
  param {
    lr_mult: 2
    decay_mult: 0
  }
  convolution_param {
    num_output: 112
    kernel_size: 1
    weight_filler {
      type: "xavier"
      std: 0.03
    }
    bias_filler {
      type: "constant"
      value: 0.2
    }
  }
}
layer {
  name: "inception_4d/relu_1x1"
  type: "ReLU"
  bottom: "inception_4d/1x1"
  top: "inception_4d/1x1"
}
layer {
  name: "inception_4d/3x3_reduce"
  type: "Convolution"
  bottom: "inception_4c/output"
  top: "inception_4d/3x3_reduce"
  param {
    lr_mult: 1
    decay_mult: 1
  }
  param {
    lr_mult: 2
    decay_mult: 0
  }
  convolution_param {
    num_output: 144
    kernel_size: 1
    weight_filler {
      type: "xavier"
      std: 0.09
    }
    bias_filler {
      type: "constant"
      value: 0.2
    }
  }
}
layer {
  name: "inception_4d/relu_3x3_reduce"
  type: "ReLU"
  bottom: "inception_4d/3x3_reduce"
  top: "inception_4d/3x3_reduce"
}
layer {
  name: "inception_4d/3x3"
  type: "Convolution"
  bottom: "inception_4d/3x3_reduce"
  top: "inception_4d/3x3"
  param {
    lr_mult: 1
    decay_mult: 1
  }
  param {
    lr_mult: 2
    decay_mult: 0
  }
  convolution_param {
    num_output: 288
    pad: 1
    kernel_size: 3
    weight_filler {
      type: "xavier"
      std: 0.03
    }
    bias_filler {
      type: "constant"
      value: 0.2
    }
  }
}
layer {
  name: "inception_4d/relu_3x3"
  type: "ReLU"
  bottom: "inception_4d/3x3"
  top: "inception_4d/3x3"
}
layer {
  name: "inception_4d/5x5_reduce"
  type: "Convolution"
  bottom: "inception_4c/output"
  top: "inception_4d/5x5_reduce"
  param {
    lr_mult: 1
    decay_mult: 1
  }
  param {
    lr_mult: 2
    decay_mult: 0
  }
  convolution_param {
    num_output: 32
    kernel_size: 1
    weight_filler {
      type: "xavier"
      std: 0.2
    }
    bias_filler {
      type: "constant"
      value: 0.2
    }
  }
}
layer {
  name: "inception_4d/relu_5x5_reduce"
  type: "ReLU"
  bottom: "inception_4d/5x5_reduce"
  top: "inception_4d/5x5_reduce"
}
layer {
  name: "inception_4d/5x5"
  type: "Convolution"
  bottom: "inception_4d/5x5_reduce"
  top: "inception_4d/5x5"
  param {
    lr_mult: 1
    decay_mult: 1
  }
  param {
    lr_mult: 2
    decay_mult: 0
  }
  convolution_param {
    num_output: 64
    pad: 2
    kernel_size: 5
    weight_filler {
      type: "xavier"
      std: 0.03
    }
    bias_filler {
      type: "constant"
      value: 0.2
    }
  }
}
layer {
  name: "inception_4d/relu_5x5"
  type: "ReLU"
  bottom: "inception_4d/5x5"
  top: "inception_4d/5x5"
}
layer {
  name: "inception_4d/pool"
  type: "Pooling"
  bottom: "inception_4c/output"
  top: "inception_4d/pool"
  pooling_param {
    pool: MAX
    kernel_size: 3
    stride: 1
    pad: 1
  }
}
layer {
  name: "inception_4d/pool_proj"
  type: "Convolution"
  bottom: "inception_4d/pool"
  top: "inception_4d/pool_proj"
  param {
    lr_mult: 1
    decay_mult: 1
  }
  param {
    lr_mult: 2
    decay_mult: 0
  }
  convolution_param {
    num_output: 64
    kernel_size: 1
…
I0704 13:25:32.234707 25786 net.cpp:127] Top shape: 10 128 14 14 (250880)
I0704 13:25:32.234720 25786 layer_factory.hpp:74] Creating layer inception_4c/relu_1x1
I0704 13:25:32.234727 25786 net.cpp:90] Creating Layer inception_4c/relu_1x1
I0704 13:25:32.234732 25786 net.cpp:410] inception_4c/relu_1x1 <- inception_4c/1x1
I0704 13:25:32.234737 25786 net.cpp:357] inception_4c/relu_1x1 -> inception_4c/1x1 (in-place)
I0704 13:25:32.234745 25786 net.cpp:120] Setting up inception_4c/relu_1x1
I0704 13:25:32.234793 25786 net.cpp:127] Top shape: 10 128 14 14 (250880)
I0704 13:25:32.234799 25786 layer_factory.hpp:74] Creating layer inception_4c/3x3_reduce
I0704 13:25:32.234807 25786 net.cpp:90] Creating Layer inception_4c/3x3_reduce
I0704 13:25:32.234812 25786 net.cpp:410] inception_4c/3x3_reduce <- inception_4b/output_inception_4b/output_0_split_1
I0704 13:25:32.234818 25786 net.cpp:368] inception_4c/3x3_reduce -> inception_4c/3x3_reduce
I0704 13:25:32.234825 25786 net.cpp:120] Setting up inception_4c/3x3_reduce
I0704 13:25:32.235514 25786 net.cpp:127] Top shape: 10 128 14 14 (250880)
I0704 13:25:32.235533 25786 layer_factory.hpp:74] Creating layer inception_4c/relu_3x3_reduce
I0704 13:25:32.235543 25786 net.cpp:90] Creating Layer inception_4c/relu_3x3_reduce
I0704 13:25:32.235551 25786 net.cpp:410] inception_4c/relu_3x3_reduce <- inception_4c/3x3_reduce
I0704 13:25:32.235559 25786 net.cpp:357] inception_4c/relu_3x3_reduce -> inception_4c/3x3_reduce (in-place)
I0704 13:25:32.235569 25786 net.cpp:120] Setting up inception_4c/relu_3x3_reduce
I0704 13:25:32.235736 25786 net.cpp:127] Top shape: 10 128 14 14 (250880)
I0704 13:25:32.235750 25786 layer_factory.hpp:74] Creating layer inception_4c/3x3
I0704 13:25:32.235760 25786 net.cpp:90] Creating Layer inception_4c/3x3
I0704 13:25:32.235769 25786 net.cpp:410] inception_4c/3x3 <- inception_4c/3x3_reduce
I0704 13:25:32.235779 25786 net.cpp:368] inception_4c/3x3 -> inception_4c/3x3
I0704 13:25:32.235791 25786 net.cpp:120] Setting up inception_4c/3x3
I0704 13:25:32.238299 25786 net.cpp:127] Top shape: 10 256 14 14 (501760)
I0704 13:25:32.238327 25786 layer_factory.hpp:74] Creating layer inception_4c/relu_3x3
I0704 13:25:32.238338 25786 net.cpp:90] Creating Layer inception_4c/relu_3x3
I0704 13:25:32.238345 25786 net.cpp:410] inception_4c/relu_3x3 <- inception_4c/3x3
I0704 13:25:32.238356 25786 net.cpp:357] inception_4c/relu_3x3 -> inception_4c/3x3 (in-place)
I0704 13:25:32.238366 25786 net.cpp:120] Setting up inception_4c/relu_3x3
I0704 13:25:32.238431 25786 net.cpp:127] Top shape: 10 256 14 14 (501760)
I0704 13:25:32.238440 25786 layer_factory.hpp:74] Creating layer inception_4c/5x5_reduce
I0704 13:25:32.238450 25786 net.cpp:90] Creating Layer inception_4c/5x5_reduce
I0704 13:25:32.238456 25786 net.cpp:410] inception_4c/5x5_reduce <- inception_4b/output_inception_4b/output_0_split_2
I0704 13:25:32.238467 25786 net.cpp:368] inception_4c/5x5_reduce -> inception_4c/5x5_reduce
I0704 13:25:32.238478 25786 net.cpp:120] Setting up inception_4c/5x5_reduce
I0704 13:25:32.238878 25786 net.cpp:127] Top shape: 10 24 14 14 (47040)
I0704 13:25:32.238894 25786 layer_factory.hpp:74] Creating layer inception_4c/relu_5x5_reduce
I0704 13:25:32.238906 25786 net.cpp:90] Creating Layer inception_4c/relu_5x5_reduce
I0704 13:25:32.238914 25786 net.cpp:410] inception_4c/relu_5x5_reduce <- inception_4c/5x5_reduce
I0704 13:25:32.238922 25786 net.cpp:357] inception_4c/relu_5x5_reduce -> inception_4c/5x5_reduce (in-place)
I0704 13:25:32.238931 25786 net.cpp:120] Setting up inception_4c/relu_5x5_reduce
I0704 13:25:32.238993 25786 net.cpp:127] Top shape: 10 24 14 14 (47040)
I0704 13:25:32.239002 25786 layer_factory.hpp:74] Creating layer inception_4c/5x5
I0704 13:25:32.239012 25786 net.cpp:90] Creating Layer inception_4c/5x5
I0704 13:25:32.239020 25786 net.cpp:410] inception_4c/5x5 <- inception_4c/5x5_reduce
I0704 13:25:32.239030 25786 net.cpp:368] inception_4c/5x5 -> inception_4c/5x5
I0704 13:25:32.239040 25786 net.cpp:120] Setting up inception_4c/5x5
I0704 13:25:32.239554 25786 net.cpp:127] Top shape: 10 64 14 14 (125440)
I0704 13:25:32.239567 25786 layer_factory.hpp:74] Creating layer inception_4c/relu_5x5
I0704 13:25:32.239573 25786 net.cpp:90] Creating Layer inception_4c/relu_5x5
I0704 13:25:32.239578 25786 net.cpp:410] inception_4c/relu_5x5 <- inception_4c/5x5
I0704 13:25:32.239584 25786 net.cpp:357] inception_4c/relu_5x5 -> inception_4c/5x5 (in-place)
I0704 13:25:32.239590 25786 net.cpp:120] Setting up inception_4c/relu_5x5
I0704 13:25:32.239632 25786 net.cpp:127] Top shape: 10 64 14 14 (125440)
I0704 13:25:32.239646 25786 layer_factory.hpp:74] Creating layer inception_4c/pool
I0704 13:25:32.239652 25786 layer_factory.cpp:55] CUDNN does not support padding or multiple tops. Using Caffe's own pooling layer.
I0704 13:25:32.239657 25786 net.cpp:90] Creating Layer inception_4c/pool
I0704 13:25:32.239662 25786 net.cpp:410] inception_4c/pool <- inception_4b/output_inception_4b/output_0_split_3
I0704 13:25:32.239668 25786 net.cpp:368] inception_4c/pool -> inception_4c/pool
I0704 13:25:32.239675 25786 net.cpp:120] Setting up inception_4c/pool
I0704 13:25:32.239682 25786 net.cpp:127] Top shape: 10 512 14 14 (1003520)
I0704 13:25:32.239686 25786 layer_factory.hpp:74] Creating layer inception_4c/pool_proj
I0704 13:25:32.239693 25786 net.cpp:90] Creating Layer inception_4c/pool_proj
I0704 13:25:32.239698 25786 net.cpp:410] inception_4c/pool_proj <- inception_4c/pool
I0704 13:25:32.239704 25786 net.cpp:368] inception_4c/pool_proj -> inception_4c/pool_proj
I0704 13:25:32.239711 25786 net.cpp:120] Setting up inception_4c/pool_proj
I0704 13:25:32.240088 25786 net.cpp:127] Top shape: 10 64 14 14 (125440)
I0704 13:25:32.240100 25786 layer_factory.hpp:74] Creating layer inception_4c/relu_pool_proj
I0704 13:25:32.240108 25786 net.cpp:90] Creating Layer inception_4c/relu_pool_proj
I0704 13:25:32.240113 25786 net.cpp:410] inception_4c/relu_pool_proj <- inception_4c/pool_proj
I0704 13:25:32.240118 25786 net.cpp:357] inception_4c/relu_pool_proj -> inception_4c/pool_proj (in-place)
I0704 13:25:32.263279 25786 net.cpp:120] Setting up inception_4c/relu_pool_proj
I0704 13:25:32.264008 25786 net.cpp:127] Top shape: 10 64 14 14 (125440)
I0704 13:25:32.264065 25786 layer_factory.hpp:74] Creating layer inception_4c/output
I0704 13:25:32.264107 25786 net.cpp:90] Creating Layer inception_4c/output
I0704 13:25:32.264137 25786 net.cpp:410] inception_4c/output <- inception_4c/1x1
I0704 13:25:32.264168 25786 net.cpp:410] inception_4c/output <- inception_4c/3x3
I0704 13:25:32.264197 25786 net.cpp:410] inception_4c/output <- inception_4c/5x5
I0704 13:25:32.264225 25786 net.cpp:410] inception_4c/output <- inception_4c/pool_proj
I0704 13:25:32.264255 25786 net.cpp:368] inception_4c/output -> inception_4c/output
I0704 13:25:32.264291 25786 net.cpp:120] Setting up inception_4c/output
I0704 13:25:32.264328 25786 net.cpp:127] Top shape: 10 512 14 14 (1003520)
I0704 13:25:32.264353 25786 layer_factory.hpp:74] Creating layer inception_4c/output_inception_4c/output_0_split
I0704 13:25:32.264384 25786 net.cpp:90] Creating Layer inception_4c/output_inception_4c/output_0_split
I0704 13:25:32.264410 25786 net.cpp:410] inception_4c/output_inception_4c/output_0_split <- inception_4c/output
I0704 13:25:32.264443 25786 net.cpp:368] inception_4c/output_inception_4c/output_0_split -> inception_4c/output_inception_4c/output_0_split_0
I0704 13:25:32.264482 25786 net.cpp:368] inception_4c/output_inception_4c/output_0_split -> inception_4c/output_inception_4c/output_0_split_1
I0704 13:25:32.264518 25786 net.cpp:368] inception_4c/output_inception_4c/output_0_split -> inception_4c/output_inception_4c/output_0_split_2
I0704 13:25:32.264551 25786 net.cpp:368] inception_4c/output_inception_4c/output_0_split -> inception_4c/output_inception_4c/output_0_split_3
I0704 13:25:32.264582 25786 net.cpp:120] Setting up inception_4c/output_inception_4c/output_0_split
I0704 13:25:32.264617 25786 net.cpp:127] Top shape: 10 512 14 14 (1003520)
I0704 13:25:32.264643 25786 net.cpp:127] Top shape: 10 512 14 14 (1003520)
I0704 13:25:32.264668 25786 net.cpp:127] Top shape: 10 512 14 14 (1003520)
I0704 13:25:32.264693 25786 net.cpp:127] Top shape: 10 512 14 14 (1003520)
I0704 13:25:32.264716 25786 layer_factory.hpp:74] Creating layer inception_4d/1x1
I0704 13:25:32.264746 25786 net.cpp:90] Creating Layer inception_4d/1x1
I0704 13:25:32.264761 25786 net.cpp:410] inception_4d/1x1 <- inception_4c/output_inception_4c/output_0_split_0
I0704 13:25:32.264809 25786 net.cpp:368] inception_4d/1x1 -> inception_4d/1x1
I0704 13:25:32.264848 25786 net.cpp:120] Setting up inception_4d/1x1
I0704 13:25:32.267745 25786 net.cpp:127] Top shape: 10 112 14 14 (219520)
I0704 13:25:32.267838 25786 layer_factory.hpp:74] Creating layer inception_4d/relu_1x1
I0704 13:25:32.267901 25786 net.cpp:90] Creating Layer inception_4d/relu_1x1
I0704 13:25:32.267946 25786 net.cpp:410] inception_4d/relu_1x1 <- inception_4d/1x1
I0704 13:25:32.267997 25786 net.cpp:357] inception_4d/relu_1x1 -> inception_4d/1x1 (in-place)
I0704 13:25:32.268052 25786 net.cpp:120] Setting up inception_4d/relu_1x1
I0704 13:25:32.268398 25786 net.cpp:127] Top shape: 10 112 14 14 (219520)
I0704 13:25:32.268450 25786 layer_factory.hpp:74] Creating layer inception_4d/3x3_reduce
I0704 13:25:32.268504 25786 net.cpp:90] Creating Layer inception_4d/3x3_reduce
I0704 13:25:32.268548 25786 net.cpp:410] inception_4d/3x3_reduce <- inception_4c/output_inception_4c/output_0_split_1
I0704 13:25:32.268611 25786 net.cpp:368] inception_4d/3x3_reduce -> inception_4d/3x3_reduce
I0704 13:25:32.268676 25786 net.cpp:120] Setting up inception_4d/3x3_reduce
I0704 13:25:32.272055 25786 net.cpp:127] Top shape: 10 144 14 14 (282240)
I0704 13:25:32.272125 25786 layer_factory.hpp:74] Creating layer inception_4d/relu_3x3_reduce
I0704 13:25:32.272161 25786 net.cpp:90] Creating Layer inception_4d/relu_3x3_reduce
I0704 13:25:32.272191 25786 net.cpp:410] inception_4d/relu_3x3_reduce <- inception_4d/3x3_reduce
I0704 13:25:32.272222 25786 net.cpp:357] inception_4d/relu_3x3_reduce -> inception_4d/3x3_reduce (in-place)
I0704 13:25:32.272258 25786 net.cpp:120] Setting up inception_4d/relu_3x3_reduce
I0704 13:25:32.272614 25786 net.cpp:127] Top shape: 10 144 14 14 (282240)
I0704 13:25:32.272666 25786 layer_factory.hpp:74] Creating layer inception_4d/3x3
I0704 13:25:32.272709 25786 net.cpp:90] Creating Layer inception_4d/3x3
I0704 13:25:32.272738 25786 net.cpp:410] inception_4d/3x3 <- inception_4d/3x3_reduce
I0704 13:25:32.272773 25786 net.cpp:368] inception_4d/3x3 -> inception_4d/3x3
I0704 13:25:32.272811 25786 net.cpp:120] Setting up inception_4d/3x3
I0704 13:25:32.276944 25786 net.cpp:127] Top shape: 10 288 14 14 (564480)
I0704 13:25:32.276957 25786 layer_factory.hpp:74] Creating layer inception_4d/relu_3x3
I0704 13:25:32.276965 25786 net.cpp:90] Creating Layer inception_4d/relu_3x3
I0704 13:25:32.276970 25786 net.cpp:410] inception_4d/relu_3x3 <- inception_4d/3x3
I0704 13:25:32.276976 25786 net.cpp:357] inception_4d/relu_3x3 -> inception_4d/3x3 (in-place)
I0704 13:25:32.276983 25786 net.cpp:120] Setting up inception_4d/relu_3x3
I0704 13:25:32.277096 25786 net.cpp:127] Top shape: 10 288 14 14 (564480)
I0704 13:25:32.277106 25786 layer_factory.hpp:74] Creating layer inception_4d/5x5_reduce
I0704 13:25:32.277114 25786 net.cpp:90] Creating Layer inception_4d/5x5_reduce
I0704 13:25:32.277119 25786 net.cpp:410] inception_4d/5x5_reduce <- inception_4c/output_inception_4c/output_0_split_2
I0704 13:25:32.277127 25786 net.cpp:368] inception_4d/5x5_reduce -> inception_4d/5x5_reduce
I0704 13:25:32.277133 25786 net.cpp:120] Setting up inception_4d/5x5_reduce
I0704 13:25:32.277420 25786 net.cpp:127] Top shape: 10 32 14 14 (62720)
I0704 13:25:32.277431 25786 layer_factory.hpp:74] Creating layer inception_4d/relu_5x5_reduce
I0704 13:25:32.277436 25786 net.cpp:90] Creating Layer inception_4d/relu_5x5_reduce
I0704 13:25:32.277441 25786 net.cpp:410] inception_4d/relu_5x5_reduce <- inception_4d/5x5_reduce
I0704 13:25:32.277448 25786 net.cpp:357] inception_4d/relu_5x5_reduce -> inception_4d/5x5_reduce (in-place)
I0704 13:25:32.277454 25786 net.cpp:120] Setting up inception_4d/relu_5x5_reduce
I0704 13:25:32.277498 25786 net.cpp:127] Top shape: 10 32 14 14 (62720)
I0704 13:25:32.277504 25786 layer_factory.hpp:74] Creating layer inception_4d/5x5
I0704 13:25:32.277511 25786 net.cpp:90] Creating Layer inception_4d/5x5
I0704 13:25:32.277516 25786 net.cpp:410] inception_4d/5x5 <- inception_4d/5x5_reduce
I0704 13:25:32.277523 25786 net.cpp:368] inception_4d/5x5 -> inception_4d/5x5
I0704 13:25:32.277530 25786 net.cpp:120] Setting up inception_4d/5x5
I0704 13:25:32.277982 25786 net.cpp:127] Top shape: 10 64 14 14 (125440)
I0704 13:25:32.278003 25786 layer_factory.hpp:74] Creating layer inception_4d/relu_5x5
I0704 13:25:32.278010 25786 net.cpp:90] Creating Layer inception_4d/relu_5x5
I0704 13:25:32.278015 25786 net.cpp:410] inception_4d/relu_5x5 <- inception_4d/5x5
I0704 13:25:32.278022 25786 net.cpp:357] inception_4d/relu_5x5 -> inception_4d/5x5 (in-place)
I0704 13:25:32.278028 25786 net.cpp:120] Setting up inception_4d/relu_5x5
I0704 13:25:32.278070 25786 net.cpp:127] Top shape: 10 64 14 14 (125440)
I0704 13:25:32.278076 25786 layer_factory.hpp:74] Creating layer inception_4d/pool
I0704 13:25:32.278082 25786 layer_factory.cpp:55] CUDNN does not support padding or multiple tops. Using Caffe's own pooling layer.
I0704 13:25:32.278089 25786 net.cpp:90] Creating Layer inception_4d/pool
I0704 13:25:32.278094 25786 net.cpp:410] inception_4d/pool <- inception_4c/output_inception_4c/output_0_split_3
I0704 13:25:32.278100 25786 net.cpp:368] inception_4d/pool -> inception_4d/pool
I0704 13:25:32.278105 25786 net.cpp:120] Setting up inception_4d/pool
I0704 13:25:32.278113 25786 net.cpp:127] Top shape: 10 512 14 14 (1003520)
I0704 13:25:32.278118 25786 layer_factory.hpp:74] Creating layer inception_4d/pool_proj
I0704 13:25:32.278125 25786 net.cpp:90] Creating Layer inception_4d/pool_proj
I0704 13:25:32.278129 25786 net.cpp:410] inception_4d/pool_proj <- inception_4d/pool
I0704 13:25:32.278136 25786 net.cpp:368] inception_4d/pool_proj -> inception_4d/pool_proj
I0704 13:25:32.278142 25786 net.cpp:120] Setting up inception_4d/pool_proj
I0704 13:25:32.278513 25786 net.cpp:127] Top shape: 10 64 14 14 (125440)
I0704 13:25:32.278525 25786 layer_factory.hpp:74] Creating layer inception_4d/relu_pool_proj
I0704 13:25:32.278532 25786 net.cpp:90] Creating Layer inception_4d/relu_pool_proj
I0704 13:25:32.278537 25786 net.cpp:410] inception_4d/relu_pool_proj <- inception_4d/pool_proj
I0704 13:25:32.278543 25786 net.cpp:357] inception_4d/relu_pool_proj -> inception_4d/pool_proj (in-place)
I0704 13:25:32.278549 25786 net.cpp:120] Setting up inception_4d/relu_pool_proj
I0704 13:25:32.278590 25786 net.cpp:127] Top shape: 10 64 14 14 (125440)
I0704 13:25:32.278596 25786 layer_factory.hpp:74] Creating layer inception_4d/output
I0704 13:25:32.278602 25786 net.cpp:90] Creating Layer inception_4d/output
I0704 13:25:32.278606 25786 net.cpp:410] inception_4d/output <- inception_4d/1x1
I0704 13:25:32.278612 25786 net.cpp:410] inception_4d/output <- inception_4d/3x3
I0704 13:25:32.278617 25786 net.cpp:410] inception_4d/output <- inception_4d/5x5
I0704 13:25:32.278621 25786 net.cpp:410] inception_4d/output <- inception_4d/pool_proj
I0704 13:25:32.278627 25786 net.cpp:368] inception_4d/output -> inception_4d/output
I0704 13:25:32.278633 25786 net.cpp:120] Setting up inception_4d/output
I0704 13:25:32.278640 25786 net.cpp:127] Top shape: 10 528 14 14 (1034880)
I0704 13:25:32.278645 25786 layer_factory.hpp:74] Creating layer inception_4d/output_inception_4d/output_0_split
I0704 13:25:32.278650 25786 net.cpp:90] Creating Layer inception_4d/output_inception_4d/output_0_split
I0704 13:25:32.278655 25786 net.cpp:410] inception_4d/output_inception_4d/output_0_split <- inception_4d/output
I0704 13:25:32.278661 25786 net.cpp:368] inception_4d/output_inception_4d/output_0_split -> inception_4d/output_inception_4d/output_0_split_0
I0704 13:25:32.278667 25786 net.cpp:368] inception_4d/output_inception_4d/output_0_split -> inception_4d/output_inception_4d/output_0_split_1
I0704 13:25:32.278673 25786 net.cpp:368] inception_4d/output_inception_4d/output_0_split -> inception_4d/output_inception_4d/output_0_split_2
I0704 13:25:32.278681 25786 net.cpp:368] inception_4d/output_inception_4d/output_0_split -> inception_4d/output_inception_4d/output_0_split_3
I0704 13:25:32.278687 25786 net.cpp:368] inception_4d/output_inception_4d/output_0_split -> inception_4d/output_inception_4d/output_0_split_4
I0704 13:25:32.278692 25786 net.cpp:120] Setting up inception_4d/output_inception_4d/output_0_split
I0704 13:25:32.278699 25786 net.cpp:127] Top shape: 10 528 14 14 (1034880)
I0704 13:25:32.278704 25786 net.cpp:127] Top shape: 10 528 14 14 (1034880)
I0704 13:25:32.278714 25786 net.cpp:127] Top shape: 10 528 14 14 (1034880)
I0704 13:25:32.278719 25786 net.cpp:127] Top shape: 10 528 14 14 (1034880)
I0704 13:25:32.278724 25786 net.cpp:127] Top shape: 10 528 14 14 (1034880)
I0704 13:25:32.278728 25786 layer_factory.hpp:74] Creating layer loss2/ave_pool
I0704 13:25:32.278734 25786 net.cpp:90] Creating Layer loss2/ave_pool
I0704 13:25:32.278738 25786 net.cpp:410] loss2/ave_pool <- inception_4d/output_inception_4d/output_0_split_0
I0704 13:25:32.278745 25786 net.cpp:368] loss2/ave_pool -> loss2/ave_pool
I0704 13:25:32.278751 25786 net.cpp:120] Setting up loss2/ave_pool
I0704 13:25:32.278870 25786 net.cpp:127] Top shape: 10 528 4 4 (84480)
I0704 13:25:32.278879 25786 layer_factory.hpp:74] Creating layer loss2/conv
I0704 13:25:32.278887 25786 net.cpp:90] Creating Layer loss2/conv
I0704 13:25:32.278892 25786 net.cpp:410] loss2/conv <- loss2/ave_pool
I0704 13:25:32.278899 25786 net.cpp:368] loss2/conv -> loss2/conv
I0704 13:25:32.278908 25786 net.cpp:120] Setting up loss2/conv
I0704 13:25:32.279448 25786 net.cpp:127] Top shape: 10 128 4 4 (20480)
I0704 13:25:32.279460 25786 layer_factory.hpp:74] Creating layer loss2/relu_conv
I0704 13:25:32.279466 25786 net.cpp:90] Creating Layer loss2/relu_conv
I0704 13:25:32.279472 25786 net.cpp:410] loss2/relu_conv <- loss2/conv
I0704 13:25:32.279477 25786 net.cpp:357] loss2/relu_conv -> loss2/conv (in-place)
I0704 13:25:32.279484 25786 net.cpp:120] Setting up loss2/relu_conv
I0704 13:25:32.279525 25786 net.cpp:127] Top shape: 10 128 4 4 (20480)
I0704 13:25:32.279531 25786 layer_factory.hpp:74] Creating layer loss2/fc
I0704 13:25:32.279538 25786 net.cpp:90] Creating Layer loss2/fc
I0704 13:25:32.279542 25786 net.cpp:410] loss2/fc <- loss2/conv
I0704 13:25:32.279551 25786 net.cpp:368] loss2/fc -> loss2/fc
I0704 13:25:32.279559 25786 net.cpp:120] Setting up loss2/fc
I0704 13:25:32.289170 25786 net.cpp:127] Top shape: 10 1024 (10240)
I0704 13:25:32.289194 25786 layer_factory.hpp:74] Creating layer loss2/relu_fc
I0704 13:25:32.289204 25786 net.cpp:90] Creating Layer loss2/relu_fc
I0704 13:25:32.289211 25786 net.cpp:410] loss2/relu_fc <- loss2/fc
I0704 13:25:32.289218 25786 net.cpp:357] loss2/relu_fc -> loss2/fc (in-place)
I0704 13:25:32.289225 25786 net.cpp:120] Setting up loss2/relu_fc
I0704 13:25:32.289299 25786 net.cpp:127] Top shape: 10 1024 (10240)
I0704 13:25:32.289307 25786 layer_factory.hpp:74] Creating layer loss2/drop_fc
I0704 13:25:32.289315 25786 net.cpp:90] Creating Layer loss2/drop_fc
I0704 13:25:32.289319 25786 net.cpp:410] loss2/drop_fc <- loss2/fc
I0704 13:25:32.289326 25786 net.cpp:357] loss2/drop_fc -> loss2/fc (in-place)
I0704 13:25:32.289333 25786 net.cpp:120] Setting up loss2/drop_fc
I0704 13:25:32.289340 25786 net.cpp:127] Top shape: 10 1024 (10240)
I0704 13:25:32.289343 25786 layer_factory.hpp:74] Creating layer stanford_cars_loss2/classifier
I0704 13:25:32.289351 25786 net.cpp:90] Creating Layer stanford_cars_loss2/classifier
I0704 13:25:32.289355 25786 net.cpp:410] stanford_cars_loss2/classifier <- loss2/fc
I0704 13:25:32.289362 25786 net.cpp:368] stanford_cars_loss2/classifier -> stanford_cars_loss2/classifier
I0704 13:25:32.289371 25786 net.cpp:120] Setting up stanford_cars_loss2/classifier
I0704 13:25:32.290354 25786 net.cpp:127] Top shape: 10 196 (1960)
I0704 13:25:32.290364 25786 layer_factory.hpp:74] Creating layer stanford_cars_loss2/classifier_stanford_cars_loss2/classifier_0_split
I0704 13:25:32.290370 25786 net.cpp:90] Creating Layer stanford_cars_loss2/classifier_stanford_cars_loss2/classifier_0_split
I0704 13:25:32.290375 25786 net.cpp:410] stanford_cars_loss2/classifier_stanford_cars_loss2/classifier_0_split <- stanford_cars_loss2/classifier
I0704 13:25:32.290380 25786 net.cpp:368] stanford_cars_loss2/classifier_stanford_cars_loss2/classifier_0_split -> stanford_cars_loss2/classifier_stanford_cars_loss2/classifier_0_split_0
I0704 13:25:32.290387 25786 net.cpp:368] stanford_cars_loss2/classifier_stanford_cars_loss2/classifier_0_split -> stanford_cars_loss2/classifier_stanford_cars_loss2/classifier_0_split_1
I0704 13:25:32.290411 25786 net.cpp:368] stanford_cars_loss2/classifier_stanford_cars_loss2/classifier_0_split -> stanford_cars_loss2/classifier_stanford_cars_loss2/classifier_0_split_2
I0704 13:25:32.290418 25786 net.cpp:120] Setting up stanford_cars_loss2/classifier_stanford_cars_loss2/classifier_0_split
I0704 13:25:32.294335 25786 net.cpp:127] Top shape: 10 196 (1960)
I0704 13:25:32.294353 25786 net.cpp:127] Top shape: 10 196 (1960)
I0704 13:25:32.294358 25786 net.cpp:127] Top shape: 10 196 (1960)
I0704 13:25:32.294364 25786 layer_factory.hpp:74] Creating layer stanford_cars_loss2/loss
I0704 13:25:32.294381 25786 net.cpp:90] Creating Layer stanford_cars_loss2/loss
I0704 13:25:32.294389 25786 net.cpp:410] stanford_cars_loss2/loss <- stanford_cars_loss2/classifier_stanford_cars_loss2/classifier_0_split_0
I0704 13:25:32.294396 25786 net.cpp:410] stanford_cars_loss2/loss <- label_data_1_split_3
…
I0704 13:25:32.294602 25786 net.cpp:368] loss2/top-5 -> loss2/top-5
I0704 13:25:32.294608 25786 net.cpp:120] Setting up loss2/top-5
I0704 13:25:32.294613 25786 net.cpp:127] Top shape: (1)
I0704 13:25:32.294617 25786 layer_factory.hpp:74] Creating layer inception_4e/1x1
I0704 13:25:32.294625 25786 net.cpp:90] Creating Layer inception_4e/1x1
I0704 13:25:32.294631 25786 net.cpp:410] inception_4e/1x1 <- inception_4d/output_inception_4d/output_0_split_1
I0704 13:25:32.294637 25786 net.cpp:368] inception_4e/1x1 -> inception_4e/1x1
I0704 13:25:32.294644 25786 net.cpp:120] Setting up inception_4e/1x1
I0704 13:25:32.295840 25786 net.cpp:127] Top shape: 10 256 14 14 (501760)
I0704 13:25:32.295857 25786 layer_factory.hpp:74] Creating layer inception_4e/relu_1x1
I0704 13:25:32.295868 25786 net.cpp:90] Creating Layer inception_4e/relu_1x1
I0704 13:25:32.295876 25786 net.cpp:410] inception_4e/relu_1x1 <- inception_4e/1x1
I0704 13:25:32.295886 25786 net.cpp:357] inception_4e/relu_1x1 -> inception_4e/1x1 (in-place)
I0704 13:25:32.295912 25786 net.cpp:120] Setting up inception_4e/relu_1x1
I0704 13:25:32.296087 25786 net.cpp:127] Top shape: 10 256 14 14 (501760)
I0704 13:25:32.296103 25786 layer_factory.hpp:74] Creating layer inception_4e/3x3_reduce
I0704 13:25:32.296120 25786 net.cpp:90] Creating Layer inception_4e/3x3_reduce
I0704 13:25:32.296135 25786 net.cpp:410] inception_4e/3x3_reduce <- inception_4d/output_inception_4d/output_0_split_2
I0704 13:25:32.296144 25786 net.cpp:368] inception_4e/3x3_reduce -> inception_4e/3x3_reduce
I0704 13:25:32.296151 25786 net.cpp:120] Setting up inception_4e/3x3_reduce
I0704 13:25:32.296774 25786 net.cpp:127] Top shape: 10 160 14 14 (313600)
I0704 13:25:32.296787 25786 layer_factory.hpp:74] Creating layer inception_4e/relu_3x3_reduce
I0704 13:25:32.296794 25786 net.cpp:90] Creating Layer inception_4e/relu_3x3_reduce
I0704 13:25:32.296799 25786 net.cpp:410] inception_4e/relu_3x3_reduce <- inception_4e/3x3_reduce
I0704 13:25:32.296819 25786 net.cpp:357] inception_4e/relu_3x3_reduce -> inception_4e/3x3_reduce (in-place)
I0704 13:25:32.296826 25786 net.cpp:120] Setting up inception_4e/relu_3x3_reduce
I0704 13:25:32.296869 25786 net.cpp:127] Top shape: 10 160 14 14 (313600)
I0704 13:25:32.296875 25786 layer_factory.hpp:74] Creating layer inception_4e/3x3
I0704 13:25:32.296883 25786 net.cpp:90] Creating Layer inception_4e/3x3
I0704 13:25:32.296888 25786 net.cpp:410] inception_4e/3x3 <- inception_4e/3x3_reduce
I0704 13:25:32.296895 25786 net.cpp:368] inception_4e/3x3 -> inception_4e/3x3
I0704 13:25:32.296901 25786 net.cpp:120] Setting up inception_4e/3x3
I0704 13:25:32.299537 25786 net.cpp:127] Top shape: 10 320 14 14 (627200)
I0704 13:25:32.299559 25786 layer_factory.hpp:74] Creating layer inception_4e/relu_3x3
I0704 13:25:32.299571 25786 net.cpp:90] Creating Layer inception_4e/relu_3x3
I0704 13:25:32.299579 25786 net.cpp:410] inception_4e/relu_3x3 <- inception_4e/3x3
I0704 13:25:32.299588 25786 net.cpp:357] inception_4e/relu_3x3 -> inception_4e/3x3 (in-place)
I0704 13:25:32.299598 25786 net.cpp:120] Setting up inception_4e/relu_3x3
I0704 13:25:32.299661 25786 net.cpp:127] Top shape: 10 320 14 14 (627200)
I0704 13:25:32.299670 25786 layer_factory.hpp:74] Creating layer inception_4e/5x5_reduce
I0704 13:25:32.299680 25786 net.cpp:90] Creating Layer inception_4e/5x5_reduce
I0704 13:25:32.299688 25786 net.cpp:410] inception_4e/5x5_reduce <- inception_4d/output_inception_4d/output_0_split_3
I0704 13:25:32.299697 25786 net.cpp:368] inception_4e/5x5_reduce -> inception_4e/5x5_reduce
I0704 13:25:32.299708 25786 net.cpp:120] Setting up inception_4e/5x5_reduce
I0704 13:25:32.300192 25786 net.cpp:127] Top shape: 10 32 14 14 (62720)
I0704 13:25:32.300209 25786 layer_factory.hpp:74] Creating layer inception_4e/relu_5x5_reduce
I0704 13:25:32.300220 25786 net.cpp:90] Creating Layer inception_4e/relu_5x5_reduce
I0704 13:25:32.300227 25786 net.cpp:410] inception_4e/relu_5x5_reduce <- inception_4e/5x5_reduce
I0704 13:25:32.300236 25786 net.cpp:357] inception_4e/relu_5x5_reduce -> inception_4e/5x5_reduce (in-place)
I0704 13:25:32.300246 25786 net.cpp:120] Setting up inception_4e/relu_5x5_reduce
I0704 13:25:32.300305 25786 net.cpp:127] Top shape: 10 32 14 14 (62720)
I0704 13:25:32.300313 25786 layer_factory.hpp:74] Creating layer inception_4e/5x5
I0704 13:25:32.300323 25786 net.cpp:90] Creating Layer inception_4e/5x5
I0704 13:25:32.300330 25786 net.cpp:410] inception_4e/5x5 <- inception_4e/5x5_reduce
I0704 13:25:32.300339 25786 net.cpp:368] inception_4e/5x5 -> inception_4e/5x5
I0704 13:25:32.300349 25786 net.cpp:120] Setting up inception_4e/5x5
I0704 13:25:32.301404 25786 net.cpp:127] Top shape: 10 128 14 14 (250880)
I0704 13:25:32.301422 25786 layer_factory.hpp:74] Creating layer inception_4e/relu_5x5
I0704 13:25:32.301431 25786 net.cpp:90] Creating Layer inception_4e/relu_5x5
I0704 13:25:32.301439 25786 net.cpp:410] inception_4e/relu_5x5 <- inception_4e/5x5
I0704 13:25:32.301447 25786 net.cpp:357] inception_4e/relu_5x5 -> inception_4e/5x5 (in-place)
I0704 13:25:32.301456 25786 net.cpp:120] Setting up inception_4e/relu_5x5
I0704 13:25:32.301615 25786 net.cpp:127] Top shape: 10 128 14 14 (250880)
I0704 13:25:32.301627 25786 layer_factory.hpp:74] Creating layer inception_4e/pool
I0704 13:25:32.301636 25786 layer_factory.cpp:55] CUDNN does not support padding or multiple tops. Using Caffe's own pooling layer.
I0704 13:25:32.301645 25786 net.cpp:90] Creating Layer inception_4e/pool
I0704 13:25:32.301653 25786 net.cpp:410] inception_4e/pool <- inception_4d/output_inception_4d/output_0_split_4
I0704 13:25:32.301662 25786 net.cpp:368] inception_4e/pool -> inception_4e/pool
I0704 13:25:32.301672 25786 net.cpp:120] Setting up inception_4e/pool
I0704 13:25:32.301683 25786 net.cpp:127] Top shape: 10 528 14 14 (1034880)
I0704 13:25:32.301689 25786 layer_factory.hpp:74] Creating layer inception_4e/pool_proj
I0704 13:25:32.301700 25786 net.cpp:90] Creating Layer inception_4e/pool_proj
I0704 13:25:32.325284 25786 net.cpp:410] inception_4e/pool_proj <- inception_4e/pool
I0704 13:25:32.325319 25786 net.cpp:368] inception_4e/pool_proj -> inception_4e/pool_proj
I0704 13:25:32.325335 25786 net.cpp:120] Setting up inception_4e/pool_proj
I0704 13:25:32.326303 25786 net.cpp:127] Top shape: 10 128 14 14 (250880)
I0704 13:25:32.326323 25786 layer_factory.hpp:74] Creating layer inception_4e/relu_pool_proj
I0704 13:25:32.326336 25786 net.cpp:90] Creating Layer inception_4e/relu_pool_proj
I0704 13:25:32.326344 25786 net.cpp:410] inception_4e/relu_pool_proj <- inception_4e/pool_proj
I0704 13:25:32.326354 25786 net.cpp:357] inception_4e/relu_pool_proj -> inception_4e/pool_proj (in-place)
I0704 13:25:32.326364 25786 net.cpp:120] Setting up inception_4e/relu_pool_proj
I0704 13:25:32.326429 25786 net.cpp:127] Top shape: 10 128 14 14 (250880)
I0704 13:25:32.326438 25786 layer_factory.hpp:74] Creating layer inception_4e/output
I0704 13:25:32.326449 25786 net.cpp:90] Creating Layer inception_4e/output
I0704 13:25:32.326457 25786 net.cpp:410] inception_4e/output <- inception_4e/1x1
I0704 13:25:32.326468 25786 net.cpp:410] inception_4e/output <- inception_4e/3x3
I0704 13:25:32.326480 25786 net.cpp:410] inception_4e/output <- inception_4e/5x5
I0704 13:25:32.326491 25786 net.cpp:410] inception_4e/output <- inception_4e/pool_proj
I0704 13:25:32.326503 25786 net.cpp:368] inception_4e/output -> inception_4e/output
I0704 13:25:32.326516 25786 net.cpp:120] Setting up inception_4e/output
I0704 13:25:32.326531 25786 net.cpp:127] Top shape: 10 832 14 14 (1630720)
I0704 13:25:32.326542 25786 layer_factory.hpp:74] Creating layer pool4/3x3_s2
I0704 13:25:32.326555 25786 net.cpp:90] Creating Layer pool4/3x3_s2
I0704 13:25:32.326567 25786 net.cpp:410] pool4/3x3_s2 <- inception_4e/output
I0704 13:25:32.326584 25786 net.cpp:368] pool4/3x3_s2 -> pool4/3x3_s2
I0704 13:25:32.326596 25786 net.cpp:120] Setting up pool4/3x3_s2
I0704 13:25:32.326668 25786 net.cpp:127] Top shape: 10 832 7 7 (407680)
I0704 13:25:32.326678 25786 layer_factory.hpp:74] Creating layer pool4/3x3_s2_pool4/3x3_s2_0_split
I0704 13:25:32.326686 25786 net.cpp:90] Creating Layer pool4/3x3_s2_pool4/3x3_s2_0_split
I0704 13:25:32.326694 25786 net.cpp:410] pool4/3x3_s2_pool4/3x3_s2_0_split <- pool4/3x3_s2
I0704 13:25:32.326702 25786 net.cpp:368] pool4/3x3_s2_pool4/3x3_s2_0_split -> pool4/3x3_s2_pool4/3x3_s2_0_split_0
I0704 13:25:32.326712 25786 net.cpp:368] pool4/3x3_s2_pool4/3x3_s2_0_split -> pool4/3x3_s2_pool4/3x3_s2_0_split_1
I0704 13:25:32.326722 25786 net.cpp:368] pool4/3x3_s2_pool4/3x3_s2_0_split -> pool4/3x3_s2_pool4/3x3_s2_0_split_2
I0704 13:25:32.326745 25786 net.cpp:368] pool4/3x3_s2_pool4/3x3_s2_0_split -> pool4/3x3_s2_pool4/3x3_s2_0_split_3
I0704 13:25:32.326756 25786 net.cpp:120] Setting up pool4/3x3_s2_pool4/3x3_s2_0_split
I0704 13:25:32.326766 25786 net.cpp:127] Top shape: 10 832 7 7 (407680)
I0704 13:25:32.326772 25786 net.cpp:127] Top shape: 10 832 7 7 (407680)
I0704 13:25:32.326781 25786 net.cpp:127] Top shape: 10 832 7 7 (407680)
I0704 13:25:32.326787 25786 net.cpp:127] Top shape: 10 832 7 7 (407680)
I0704 13:25:32.326793 25786 layer_factory.hpp:74] Creating layer inception_5a/1x1
I0704 13:25:32.326804 25786 net.cpp:90] Creating Layer inception_5a/1x1
I0704 13:25:32.326812 25786 net.cpp:410] inception_5a/1x1 <- pool4/3x3_s2_pool4/3x3_s2_0_split_0
I0704 13:25:32.326822 25786 net.cpp:368] inception_5a/1x1 -> inception_5a/1x1
I0704 13:25:32.326830 25786 net.cpp:120] Setting up inception_5a/1x1
I0704 13:25:32.333045 25786 net.cpp:127] Top shape: 10 256 7 7 (125440)
I0704 13:25:32.333120 25786 layer_factory.hpp:74] Creating layer inception_5a/relu_1x1
I0704 13:25:32.333158 25786 net.cpp:90] Creating Layer inception_5a/relu_1x1
I0704 13:25:32.333186 25786 net.cpp:410] inception_5a/relu_1x1 <- inception_5a/1x1
I0704 13:25:32.333225 25786 net.cpp:357] inception_5a/relu_1x1 -> inception_5a/1x1 (in-place)
I0704 13:25:32.333262 25786 net.cpp:120] Setting up inception_5a/relu_1x1
I0704 13:25:32.333775 25786 net.cpp:127] Top shape: 10 256 7 7 (125440)
I0704 13:25:32.333820 25786 layer_factory.hpp:74] Creating layer inception_5a/3x3_reduce
I0704 13:25:32.333907 25786 net.cpp:90] Creating Layer inception_5a/3x3_reduce
I0704 13:25:32.333937 25786 net.cpp:410] inception_5a/3x3_reduce <- pool4/3x3_s2_pool4/3x3_s2_0_split_1
I0704 13:25:32.333979 25786 net.cpp:368] inception_5a/3x3_reduce -> inception_5a/3x3_reduce
I0704 13:25:32.334022 25786 net.cpp:120] Setting up inception_5a/3x3_reduce
I0704 13:25:32.335978 25786 net.cpp:127] Top shape: 10 160 7 7 (78400)
I0704 13:25:32.335988 25786 layer_factory.hpp:74] Creating layer inception_5a/relu_3x3_reduce
I0704 13:25:32.335995 25786 net.cpp:90] Creating Layer inception_5a/relu_3x3_reduce
I0704 13:25:32.336000 25786 net.cpp:410] inception_5a/relu_3x3_reduce <- inception_5a/3x3_reduce
I0704 13:25:32.336006 25786 net.cpp:357] inception_5a/relu_3x3_reduce -> inception_5a/3x3_reduce (in-place)
I0704 13:25:32.336012 25786 net.cpp:120] Setting up inception_5a/relu_3x3_reduce
I0704 13:25:32.336056 25786 net.cpp:127] Top shape: 10 160 7 7 (78400)
I0704 13:25:32.336062 25786 layer_factory.hpp:74] Creating layer inception_5a/3x3
I0704 13:25:32.336071 25786 net.cpp:90] Creating Layer inception_5a/3x3
I0704 13:25:32.336076 25786 net.cpp:410] inception_5a/3x3 <- inception_5a/3x3_reduce
I0704 13:25:32.336081 25786 net.cpp:368] inception_5a/3x3 -> inception_5a/3x3
I0704 13:25:32.336087 25786 net.cpp:120] Setting up inception_5a/3x3
I0704 13:25:32.338544 25786 net.cpp:127] Top shape: 10 320 7 7 (156800)
I0704 13:25:32.338559 25786 layer_factory.hpp:74] Creating layer inception_5a/relu_3x3
I0704 13:25:32.338567 25786 net.cpp:90] Creating Layer inception_5a/relu_3x3
I0704 13:25:32.338572 25786 net.cpp:410] inception_5a/relu_3x3 <- inception_5a/3x3
I0704 13:25:32.338577 25786 net.cpp:357] inception_5a/relu_3x3 -> inception_5a/3x3 (in-place)
I0704 13:25:32.338583 25786 net.cpp:120] Setting up inception_5a/relu_3x3
I0704 13:25:32.338624 25786 net.cpp:127] Top shape: 10 320 7 7 (156800)
I0704 13:25:32.338630 25786 layer_factory.hpp:74] Creating layer inception_5a/5x5_reduce
I0704 13:25:32.338637 25786 net.cpp:90] Creating Layer inception_5a/5x5_reduce
I0704 13:25:32.338644 25786 net.cpp:410] inception_5a/5x5_reduce <- pool4/3x3_s2_pool4/3x3_s2_0_split_2
I0704 13:25:32.338649 25786 net.cpp:368] inception_5a/5x5_reduce -> inception_5a/5x5_reduce
I0704 13:25:32.338656 25786 net.cpp:120] Setting up inception_5a/5x5_reduce
I0704 13:25:32.339006 25786 net.cpp:127] Top shape: 10 32 7 7 (15680)
I0704 13:25:32.339018 25786 layer_factory.hpp:74] Creating layer inception_5a/relu_5x5_reduce
I0704 13:25:32.339025 25786 net.cpp:90] Creating Layer inception_5a/relu_5x5_reduce
I0704 13:25:32.339030 25786 net.cpp:410] inception_5a/relu_5x5_reduce <- inception_5a/5x5_reduce
I0704 13:25:32.339036 25786 net.cpp:357] inception_5a/relu_5x5_reduce -> inception_5a/5x5_reduce (in-place)
I0704 13:25:32.339042 25786 net.cpp:120] Setting up inception_5a/relu_5x5_reduce
I0704 13:25:32.339084 25786 net.cpp:127] Top shape: 10 32 7 7 (15680)
I0704 13:25:32.339092 25786 layer_factory.hpp:74] Creating layer inception_5a/5x5
I0704 13:25:32.339098 25786 net.cpp:90] Creating Layer inception_5a/5x5
I0704 13:25:32.339103 25786 net.cpp:410] inception_5a/5x5 <- inception_5a/5x5_reduce
I0704 13:25:32.339109 25786 net.cpp:368] inception_5a/5x5 -> inception_5a/5x5
I0704 13:25:32.339115 25786 net.cpp:120] Setting up inception_5a/5x5
I0704 13:25:32.339854 25786 net.cpp:127] Top shape: 10 128 7 7 (62720)
I0704 13:25:32.339865 25786 layer_factory.hpp:74] Creating layer inception_5a/relu_5x5
I0704 13:25:32.339872 25786 net.cpp:90] Creating Layer inception_5a/relu_5x5
I0704 13:25:32.339879 25786 net.cpp:410] inception_5a/relu_5x5 <- inception_5a/5x5
I0704 13:25:32.339884 25786 net.cpp:357] inception_5a/relu_5x5 -> inception_5a/5x5 (in-place)
I0704 13:25:32.339891 25786 net.cpp:120] Setting up inception_5a/relu_5x5
I0704 13:25:32.340011 25786 net.cpp:127] Top shape: 10 128 7 7 (62720)
I0704 13:25:32.340020 25786 layer_factory.hpp:74] Creating layer inception_5a/pool
I0704 13:25:32.340026 25786 layer_factory.cpp:55] CUDNN does not support padding or multiple tops. Using Caffe's own pooling layer.
I0704 13:25:32.340040 25786 net.cpp:90] Creating Layer inception_5a/pool
I0704 13:25:32.340046 25786 net.cpp:410] inception_5a/pool <- pool4/3x3_s2_pool4/3x3_s2_0_split_3
I0704 13:25:32.340054 25786 net.cpp:368] inception_5a/pool -> inception_5a/pool
I0704 13:25:32.340060 25786 net.cpp:120] Setting up inception_5a/pool
I0704 13:25:32.340067 25786 net.cpp:127] Top shape: 10 832 7 7 (407680)
I0704 13:25:32.340071 25786 layer_factory.hpp:74] Creating layer inception_5a/pool_proj
I0704 13:25:32.340078 25786 net.cpp:90] Creating Layer inception_5a/pool_proj
I0704 13:25:32.340082 25786 net.cpp:410] inception_5a/pool_proj <- inception_5a/pool
I0704 13:25:32.340090 25786 net.cpp:368] inception_5a/pool_proj -> inception_5a/pool_proj
I0704 13:25:32.340096 25786 net.cpp:120] Setting up inception_5a/pool_proj
I0704 13:25:32.340833 25786 net.cpp:127] Top shape: 10 128 7 7 (62720)
I0704 13:25:32.340845 25786 layer_factory.hpp:74] Creating layer inception_5a/relu_pool_proj
I0704 13:25:32.340852 25786 net.cpp:90] Creating Layer inception_5a/relu_pool_proj
I0704 13:25:32.340857 25786 net.cpp:410] inception_5a/relu_pool_proj <- inception_5a/pool_proj
I0704 13:25:32.340862 25786 net.cpp:357] inception_5a/relu_pool_proj -> inception_5a/pool_proj (in-place)
I0704 13:25:32.340868 25786 net.cpp:120] Setting up inception_5a/relu_pool_proj
I0704 13:25:32.340910 25786 net.cpp:127] Top shape: 10 128 7 7 (62720)
I0704 13:25:32.340916 25786 layer_factory.hpp:74] Creating layer inception_5a/output
I0704 13:25:32.340922 25786 net.cpp:90] Creating Layer inception_5a/output
I0704 13:25:32.340927 25786 net.cpp:410] inception_5a/output <- inception_5a/1x1
I0704 13:25:32.340932 25786 net.cpp:410] inception_5a/output <- inception_5a/3x3
I0704 13:25:32.340937 25786 net.cpp:410] inception_5a/output <- inception_5a/5x5
I0704 13:25:32.340942 25786 net.cpp:410] inception_5a/output <- inception_5a/pool_proj
I0704 13:25:32.340948 25786 net.cpp:368] inception_5a/output -> inception_5a/output
I0704 13:25:32.340955 25786 net.cpp:120] Setting up inception_5a/output
I0704 13:25:32.340961 25786 net.cpp:127] Top shape: 10 832 7 7 (407680)
I0704 13:25:32.340965 25786 layer_factory.hpp:74] Creating layer inception_5a/output_inception_5a/output_0_split
I0704 13:25:32.340972 25786 net.cpp:90] Creating Layer inception_5a/output_inception_5a/output_0_split
I0704 13:25:32.340976 25786 net.cpp:410] inception_5a/output_inception_5a/output_0_split <- inception_5a/output
I0704 13:25:32.340983 25786 net.cpp:368] inception_5a/output_inception_5a/output_0_split -> inception_5a/output_inception_5a/output_0_split_0
I0704 13:25:32.340989 25786 net.cpp:368] inception_5a/output_inception_5a/output_0_split -> inception_5a/output_inception_5a/output_0_split_1
I0704 13:25:32.340996 25786 net.cpp:368] inception_5a/output_inception_5a/output_0_split -> inception_5a/output_inception_5a/output_0_split_2
I0704 13:25:32.341002 25786 net.cpp:368] inception_5a/output_inception_5a/output_0_split -> inception_5a/output_inception_5a/output_0_split_3
I0704 13:25:32.341009 25786 net.cpp:120] Setting up inception_5a/output_inception_5a/output_0_split
I0704 13:25:32.341016 25786 net.cpp:127] Top shape: 10 832 7 7 (407680)
I0704 13:25:32.341020 25786 net.cpp:127] Top shape: 10 832 7 7 (407680)
I0704 13:25:32.341025 25786 net.cpp:127] Top shape: 10 832 7 7 (407680)
I0704 13:25:32.341029 25786 net.cpp:127] Top shape: 10 832 7 7 (407680)
I0704 13:25:32.341033 25786 layer_factory.hpp:74] Creating layer inception_5b/1x1
I0704 13:25:32.341040 25786 net.cpp:90] Creating Layer inception_5b/1x1
I0704 13:25:32.341044 25786 net.cpp:410] inception_5b/1x1 <- inception_5a/output_inception_5a/output_0_split_0
I0704 13:25:32.341050 25786 net.cpp:368] inception_5b/1x1 -> inception_5b/1x1
I0704 13:25:32.341058 25786 net.cpp:120] Setting up inception_5b/1x1
I0704 13:25:32.358520 25786 net.cpp:127] Top shape: 10 384 7 7 (188160)
I0704 13:25:32.358541 25786 layer_factory.hpp:74] Creating layer inception_5b/relu_1x1
I0704 13:25:32.358551 25786 net.cpp:90] Creating Layer inception_5b/relu_1x1
I0704 13:25:32.358573 25786 net.cpp:410] inception_5b/relu_1x1 <- inception_5b/1x1
I0704 13:25:32.358582 25786 net.cpp:357] inception_5b/relu_1x1 -> inception_5b/1x1 (in-place)
I0704 13:25:32.358589 25786 net.cpp:120] Setting up inception_5b/relu_1x1
I0704 13:25:32.358633 25786 net.cpp:127] Top shape: 10 384 7 7 (188160)
I0704 13:25:32.358640 25786 layer_factory.hpp:74] Creating layer inception_5b/3x3_reduce
I0704 13:25:32.358649 25786 net.cpp:90] Creating Layer inception_5b/3x3_reduce
I0704 13:25:32.358654 25786 net.cpp:410] inception_5b/3x3_reduce <- inception_5a/output_inception_5a/output_0_split_1
I0704 13:25:32.358660 25786 net.cpp:368] inception_5b/3x3_reduce -> inception_5b/3x3_reduce
I0704 13:25:32.358667 25786 net.cpp:120] Setting up inception_5b/3x3_reduce
I0704 13:25:32.360843 25786 net.cpp:127] Top shape: 10 192 7 7 (94080)
I0704 13:25:32.360885 25786 layer_factory.hpp:74] Creating layer inception_5b/relu_3x3_reduce
I0704 13:25:32.360906 25786 net.cpp:90] Creating Layer inception_5b/relu_3x3_reduce
I0704 13:25:32.360923 25786 net.cpp:410] inception_5b/relu_3x3_reduce <- inception_5b/3x3_reduce
I0704 13:25:32.360940 25786 net.cpp:357] inception_5b/relu_3x3_reduce -> inception_5b/3x3_reduce (in-place)
I0704 13:25:32.360960 25786 net.cpp:120] Setting up inception_5b/relu_3x3_reduce
I0704 13:25:32.361085 25786 net.cpp:127] Top shape: 10 192 7 7 (94080)
I0704 13:25:32.361104 25786 layer_factory.hpp:74] Creating layer inception_5b/3x3
I0704 13:25:32.361124 25786 net.cpp:90] Creating Layer inception_5b/3x3
I0704 13:25:32.361140 25786 net.cpp:410] inception_5b/3x3 <- inception_5b/3x3_reduce
I0704 13:25:32.361158 25786 net.cpp:368] inception_5b/3x3 -> inception_5b/3x3
I0704 13:25:32.361179 25786 net.cpp:120] Setting up inception_5b/3x3
I0704 13:25:32.371181 25786 net.cpp:127] Top shape: 10 384 7 7 (188160)
I0704 13:25:32.371220 25786 layer_factory.hpp:74] Creating layer inception_5b/relu_3x3
I0704 13:25:32.371239 25786 net.cpp:90] Creating Layer inception_5b/relu_3x3
I0704 13:25:32.371254 25786 net.cpp:410] inception_5b/relu_3x3 <- inception_5b/3x3
I0704 13:25:32.371271 25786 net.cpp:357] inception_5b/relu_3x3 -> inception_5b/3x3 (in-place)
I0704 13:25:32.371289 25786 net.cpp:120] Setting up inception_5b/relu_3x3
I0704 13:25:32.371459 25786 net.cpp:127] Top shape: 10 384 7 7 (188160)
I0704 13:25:32.371470 25786 layer_factory.hpp:74] Creating layer inception_5b/5x5_reduce
I0704 13:25:32.371479 25786 net.cpp:90] Creating Layer inception_5b/5x5_reduce
I0704 13:25:32.371486 25786 net.cpp:410] inception_5b/5x5_reduce <- inception_5a/output_inception_5a/output_0_split_2
I0704 13:25:32.371495 25786 net.cpp:368] inception_5b/5x5_reduce -> inception_5b/5x5_reduce
I0704 13:25:32.371503 25786 net.cpp:120] Setting up inception_5b/5x5_reduce
I0704 13:25:32.371968 25786 net.cpp:127] Top shape: 10 48 7 7 (23520)
I0704 13:25:32.371981 25786 layer_factory.hpp:74] Creating layer inception_5b/relu_5x5_reduce
I0704 13:25:32.371989 25786 net.cpp:90] Creating Layer inception_5b/relu_5x5_reduce
I0704 13:25:32.371994 25786 net.cpp:410] inception_5b/relu_5x5_reduce <- inception_5b/5x5_reduce
I0704 13:25:32.372002 25786 net.cpp:357] inception_5b/relu_5x5_reduce -> inception_5b/5x5_reduce (in-place)
I0704 13:25:32.372009 25786 net.cpp:120] Setting up inception_5b/relu_5x5_reduce
I0704 13:25:32.372059 25786 net.cpp:127] Top shape: 10 48 7 7 (23520)
I0704 13:25:32.372066 25786 layer_factory.hpp:74] Creating layer inception_5b/5x5
I0704 13:25:32.372073 25786 net.cpp:90] Creating Layer inception_5b/5x5
I0704 13:25:32.372079 25786 net.cpp:410] inception_5b/5x5 <- inception_5b/5x5_reduce
I0704 13:25:32.372087 25786 net.cpp:368] inception_5b/5x5 -> inception_5b/5x5
I0704 13:25:32.372095 25786 net.cpp:120] Setting up inception_5b/5x5
I0704 13:25:32.373198 25786 net.cpp:127] Top shape: 10 128 7 7 (62720)
I0704 13:25:32.373210 25786 layer_factory.hpp:74] Creating layer inception_5b/relu_5x5
I0704 13:25:32.373219 25786 net.cpp:90] Creating Layer inception_5b/relu_5x5
I0704 13:25:32.373225 25786 net.cpp:410] inception_5b/relu_5x5 <- inception_5b/5x5
I0704 13:25:32.373245 25786 net.cpp:357] inception_5b/relu_5x5 -> inception_5b/5x5 (in-place)
I0704 13:25:32.373252 25786 net.cpp:120] Setting up inception_5b/relu_5x5
I0704 13:25:32.373302 25786 net.cpp:127] Top shape: 10 128 7 7 (62720)
I0704 13:25:32.373308 25786 layer_factory.hpp:74] Creating layer inception_5b/pool
I0704 13:25:32.373316 25786 layer_factory.cpp:55] CUDNN does not support padding or multiple tops. Using Caffe's own pooling layer.
I0704 13:25:32.373322 25786 net.cpp:90] Creating Layer inception_5b/pool
I0704 13:25:32.373328 25786 net.cpp:410] inception_5b/pool <- inception_5a/output_inception_5a/output_0_split_3
I0704 13:25:32.373334 25786 net.cpp:368] inception_5b/pool -> inception_5b/pool
I0704 13:25:32.373342 25786 net.cpp:120] Setting up inception_5b/pool
I0704 13:25:32.373350 25786 net.cpp:127] Top shape: 10 832 7 7 (407680)
I0704 13:25:32.373355 25786 layer_factory.hpp:74] Creating layer inception_5b/pool_proj
I0704 13:25:32.373364 25786 net.cpp:90] Creating Layer inception_5b/pool_proj
I0704 13:25:32.373370 25786 net.cpp:410] inception_5b/pool_proj <- inception_5b/pool
I0704 13:25:32.373378 25786 net.cpp:368] inception_5b/pool_proj -> inception_5b/pool_proj
I0704 13:25:32.373385 25786 net.cpp:120] Setting up inception_5b/pool_proj
I0704 13:25:32.374227 25786 net.cpp:127] Top shape: 10 128 7 7 (62720)
I0704 13:25:32.374239 25786 layer_factory.hpp:74] Creating layer inception_5b/relu_pool_proj
I0704 13:25:32.374248 25786 net.cpp:90] Creating Layer inception_5b/relu_pool_proj
I0704 13:25:32.374253 25786 net.cpp:410] inception_5b/relu_pool_proj <- inception_5b/pool_proj
I0704 13:25:32.374260 25786 net.cpp:357] inception_5b/relu_pool_proj -> inception_5b/pool_proj (in-place)
I0704 13:25:32.374269 25786 net.cpp:120] Setting up inception_5b/relu_pool_proj
I0704 13:25:32.374316 25786 net.cpp:127] Top shape: 10 128 7 7 (62720)
I0704 13:25:32.374323 25786 layer_factory.hpp:74] Creating layer inception_5b/output
I0704 13:25:32.374330 25786 net.cpp:90] Creating Layer inception_5b/output
I0704 13:25:32.374336 25786 net.cpp:410] inception_5b/output <- inception_5b/1x1
I0704 13:25:32.374341 25786 net.cpp:410] inception_5b/output <- inception_5b/3x3
I0704 13:25:32.374347 25786 net.cpp:410] inception_5b/output <- inception_5b/5x5
I0704 13:25:32.374353 25786 net.cpp:410] inception_5b/output <- inception_5b/pool_proj
I0704 13:25:32.374361 25786 net.cpp:368] inception_5b/output -> inception_5b/output
I0704 13:25:32.374367 25786 net.cpp:120] Setting up inception_5b/output
I0704 13:25:32.374375 25786 net.cpp:127] Top shape: 10 1024 7 7 (501760)
I0704 13:25:32.374380 25786 layer_factory.hpp:74] Creating layer pool5/7x7_s1
I0704 13:25:32.374387 25786 net.cpp:90] Creating Layer pool5/7x7_s1
I0704 13:25:32.374392 25786 net.cpp:410] pool5/7x7_s1 <- inception_5b/output
I0704 13:25:32.374399 25786 net.cpp:368] pool5/7x7_s1 -> pool5/7x7_s1
I0704 13:25:32.374408 25786 net.cpp:120] Setting up pool5/7x7_s1
I0704 13:25:32.374536 25786 net.cpp:127] Top shape: 10 1024 1 1 (10240)
I0704 13:25:32.374547 25786 layer_factory.hpp:74] Creating layer pool5/drop_7x7_s1
I0704 13:25:32.374554 25786 net.cpp:90] Creating Layer pool5/drop_7x7_s1
I0704 13:25:32.374559 25786 net.cpp:410] pool5/drop_7x7_s1 <- pool5/7x7_s1
I0704 13:25:32.374565 25786 net.cpp:357] pool5/drop_7x7_s1 -> pool5/7x7_s1 (in-place)
I0704 13:25:32.374572 25786 net.cpp:120] Setting up pool5/drop_7x7_s1
I0704 13:25:32.374580 25786 net.cpp:127] Top shape: 10 1024 1 1 (10240)
I0704 13:25:32.374585 25786 layer_factory.hpp:74] Creating layer stanford_cars_loss3/classifier
I0704 13:25:32.374593 25786 net.cpp:90] Creating Layer stanford_cars_loss3/classifier
I0704 13:25:32.374598 25786 net.cpp:410] stanford_cars_loss3/classifier <- pool5/7x7_s1
I0704 13:25:32.374606 25786 net.cpp:368] stanford_cars_loss3/classifier -> stanford_cars_loss3/classifier
I0704 13:25:32.374615 25786 net.cpp:120] Setting up stanford_cars_loss3/classifier
I0704 13:25:32.375757 25786 net.cpp:127] Top shape: 10 196 (1960)
I0704 13:25:32.375767 25786 layer_factory.hpp:74] Creating layer stanford_cars_loss3/classifier_stanford_cars_loss3/classifier_0_split
I0704 13:25:32.375783 25786 net.cpp:90] Creating Layer stanford_cars_loss3/classifier_stanford_cars_loss3/classifier_0_split
I0704 13:25:32.375789 25786 net.cpp:410] stanford_cars_loss3/classifier_stanford_cars_loss3/classifier_0_split <- stanford_cars_loss3/classifier
I0704 13:25:32.375797 25786 net.cpp:368] stanford_cars_loss3/classifier_stanford_cars_loss3/classifier_0_split -> stanford_cars_loss3/classifier_stanford_cars_loss3/classifier_0_split_0
I0704 13:25:32.375805 25786 net.cpp:368] stanford_cars_loss3/classifier_stanford_cars_loss3/classifier_0_split -> stanford_cars_loss3/classifier_stanford_cars_loss3/classifier_0_split_1
I0704 13:25:32.375814 25786 net.cpp:368] stanford_cars_loss3/classifier_stanford_cars_loss3/classifier_0_split -> stanford_cars_loss3/classifier_stanford_cars_loss3/classifier_0_split_2
I0704 13:25:32.375821 25786 net.cpp:120] Setting up stanford_cars_loss3/classifier_stanford_cars_loss3/classifier_0_split
I0704 13:25:32.375829 25786 net.cpp:127] Top shape: 10 196 (1960)
I0704 13:25:32.375834 25786 net.cpp:127] Top shape: 10 196 (1960)
I0704 13:25:32.375840 25786 net.cpp:127] Top shape: 10 196 (1960)
I0704 13:25:32.375844 25786 layer_factory.hpp:74] Creating layer loss3/loss3
I0704 13:25:32.375851 25786 net.cpp:90] Creating Layer loss3/loss3
I0704 13:25:32.375857 25786 net.cpp:410] loss3/loss3 <- stanford_cars_loss3/classifier_stanford_cars_loss3/classifier_0_split_0
I0704 13:25:32.375864 25786 net.cpp:410] loss3/loss3 <- label_data_1_split_6
I0704 13:25:32.375871 25786 net.cpp:368] loss3/loss3 -> loss3/loss3
…
