…
I0703 20:01:39.434805 21340 net.cpp:287] The NetState phase (0) differed from the phase (1) specified by a rule in layer loss3/top-5
I0703 20:01:39.435459 21340 net.cpp:42] Initializing net from parameters: 
name: "GoogleNet"
state {
  phase: TRAIN
}
layer {
  name: "data"
  type: "Data"
  top: "data"
  top: "label"
  include {
    phase: TRAIN
  }
  transform_param {
    mirror: true
    crop_size: 224
    mean_value: 104
    mean_value: 117
    mean_value: 123
  }
  data_param {
    source: "examples/stanford_cars/stanford_cars_train_lmdb"
    batch_size: 30
    backend: LMDB
  }
}
layer {
  name: "conv1/7x7_s2"
  type: "Convolution"
  bottom: "data"
  top: "conv1/7x7_s2"
  param {
    lr_mult: 1
    decay_mult: 1
  }
  param {
    lr_mult: 2
    decay_mult: 0
  }
  convolution_param {
    num_output: 64
    pad: 3
    kernel_size: 7
    stride: 2
    weight_filler {
      type: "xavier"
      std: 0.1
    }
    bias_filler {
      type: "constant"
      value: 0.2
    }
  }
}
layer {
  name: "conv1/relu_7x7"
  type: "ReLU"
  bottom: "conv1/7x7_s2"
  top: "conv1/7x7_s2"
}
layer {
  name: "pool1/3x3_s2"
  type: "Pooling"
  bottom: "conv1/7x7_s2"
  top: "pool1/3x3_s2"
  pooling_param {
    pool: MAX
    kernel_size: 3
    stride: 2
  }
}
layer {
  name: "pool1/norm1"
  type: "LRN"
  bottom: "pool1/3x3_s2"
  top: "pool1/norm1"
  lrn_param {
    local_size: 5
    alpha: 0.0001
    beta: 0.75
  }
}
layer {
  name: "conv2/3x3_reduce"
  type: "Convolution"
  bottom: "pool1/norm1"
  top: "conv2/3x3_reduce"
  param {
    lr_mult: 1
    decay_mult: 1
  }
  param {
    lr_mult: 2
    decay_mult: 0
  }
  convolution_param {
    num_output: 64
    kernel_size: 1
    weight_filler {
      type: "xavier"
      std: 0.1
    }
    bias_filler {
      type: "constant"
      value: 0.2
    }
  }
}
layer {
  name: "conv2/relu_3x3_reduce"
  type: "ReLU"
  bottom: "conv2/3x3_reduce"
  top: "conv2/3x3_reduce"
}
layer {
  name: "conv2/3x3"
  type: "Convolution"
  bottom: "conv2/3x3_reduce"
  top: "conv2/3x3"
  param {
    lr_mult: 1
    decay_mult: 1
  }
  param {
    lr_mult: 2
    decay_mult: 0
  }
  convolution_param {
    num_output: 192
    pad: 1
    kernel_size: 3
    weight_filler {
      type: "xavier"
      std: 0.03
    }
    bias_filler {
      type: "constant"
      value: 0.2
    }
  }
}
layer {
  name: "conv2/relu_3x3"
  type: "ReLU"
  bottom: "conv2/3x3"
  top: "conv2/3x3"
}
layer {
  name: "conv2/norm2"
  type: "LRN"
  bottom: "conv2/3x3"
  top: "conv2/norm2"
  lrn_param {
    local_size: 5
    alpha: 0.0001
    beta: 0.75
  }
}
layer {
  name: "pool2/3x3_s2"
  type: "Pooling"
  bottom: "conv2/norm2"
  top: "pool2/3x3_s2"
  pooling_param {
    pool: MAX
    kernel_size: 3
    stride: 2
  }
}
layer {
  name: "inception_3a/1x1"
  type: "Convolution"
  bottom: "pool2/3x3_s2"
  top: "inception_3a/1x1"
  param {
    lr_mult: 1
    decay_mult: 1
  }
  param {
    lr_mult: 2
    decay_mult: 0
  }
  convolution_param {
    num_output: 64
    kernel_size: 1
    weight_filler {
      type: "xavier"
      std: 0.03
    }
    bias_filler {
      type: "constant"
      value: 0.2
    }
  }
}
layer {
  name: "inception_3a/relu_1x1"
  type: "ReLU"
  bottom: "inception_3a/1x1"
  top: "inception_3a/1x1"
}
layer {
  name: "inception_3a/3x3_reduce"
  type: "Convolution"
  bottom: "pool2/3x3_s2"
  top: "inception_3a/3x3_reduce"
  param {
    lr_mult: 1
    decay_mult: 1
  }
  param {
    lr_mult: 2
    decay_mult: 0
  }
  convolution_param {
    num_output: 96
    kernel_size: 1
    weight_filler {
      type: "xavier"
      std: 0.09
    }
    bias_filler {
      type: "constant"
      value: 0.2
    }
  }
}
layer {
  name: "inception_3a/relu_3x3_reduce"
  type: "ReLU"
  bottom: "inception_3a/3x3_reduce"
  top: "inception_3a/3x3_reduce"
}
layer {
  name: "inception_3a/3x3"
  type: "Convolution"
  bottom: "inception_3a/3x3_reduce"
  top: "inception_3a/3x3"
  param {
    lr_mult: 1
    decay_mult: 1
  }
  param {
    lr_mult: 2
    decay_mult: 0
  }
  convolution_param {
    num_output: 128
    pad: 1
    kernel_size: 3
    weight_filler {
      type: "xavier"
      std: 0.03
    }
    bias_filler {
      type: "constant"
      value: 0.2
    }
  }
}
layer {
  name: "inception_3a/relu_3x3"
  type: "ReLU"
  bottom: "inception_3a/3x3"
  top: "inception_3a/3x3"
}
layer {
  name: "inception_3a/5x5_reduce"
  type: "Convolution"
  bottom: "pool2/3x3_s2"
  top: "inception_3a/5x5_reduce"
  param {
    lr_mult: 1
    decay_mult: 1
  }
  param {
    lr_mult: 2
    decay_mult: 0
  }
  convolution_param {
    num_output: 16
    kernel_size: 1
    weight_filler {
      type: "xavier"
      std: 0.2
    }
    bias_filler {
      type: "constant"
      value: 0.2
    }
  }
}
layer {
  name: "inception_3a/relu_5x5_reduce"
  type: "ReLU"
  bottom: "inception_3a/5x5_reduce"
  top: "inception_3a/5x5_reduce"
}
layer {
  name: "inception_3a/5x5"
  type: "Convolution"
  bottom: "inception_3a/5x5_reduce"
  top: "inception_3a/5x5"
  param {
    lr_mult: 1
    decay_mult: 1
  }
  param {
    lr_mult: 2
    decay_mult: 0
  }
  convolution_param {
    num_output: 32
    pad: 2
    kernel_size: 5
    weight_filler {
      type: "xavier"
      std: 0.03
    }
    bias_filler {
      type: "constant"
      value: 0.2
    }
  }
}
layer {
  name: "inception_3a/relu_5x5"
  type: "ReLU"
  bottom: "inception_3a/5x5"
  top: "inception_3a/5x5"
}
layer {
  name: "inception_3a/pool"
  type: "Pooling"
  bottom: "pool2/3x3_s2"
  top: "inception_3a/pool"
  pooling_param {
    pool: MAX
    kernel_size: 3
    stride: 1
    pad: 1
  }
}
layer {
  name: "inception_3a/pool_proj"
  type: "Convolution"
  bottom: "inception_3a/pool"
  top: "inception_3a/pool_proj"
  param {
    lr_mult: 1
    decay_mult: 1
  }
  param {
    lr_mult: 2
    decay_mult: 0
  }
  convolution_param {
    num_output: 32
    kernel_size: 1
    weight_filler {
      type: "xavier"
      std: 0.1
    }
    bias_filler {
      type: "constant"
      value: 0.2
    }
  }
}
layer {
  name: "inception_3a/relu_pool_proj"
  type: "ReLU"
  bottom: "inception_3a/pool_proj"
  top: "inception_3a/pool_proj"
}
layer {
  name: "inception_3a/output"
  type: "Concat"
  bottom: "inception_3a/1x1"
  bottom: "inception_3a/3x3"
  bottom: "inception_3a/5x5"
  bottom: "inception_3a/pool_proj"
  top: "inception_3a/output"
}
layer {
  name: "inception_3b/1x1"
  type: "Convolution"
  bottom: "inception_3a/output"
  top: "inception_3b/1x1"
  param {
    lr_mult: 1
    decay_mult: 1
  }
  param {
    lr_mult: 2
    decay_mult: 0
  }
  convolution_param {
    num_output: 128
    kernel_size: 1
    weight_filler {
      type: "xavier"
      std: 0.03
    }
    bias_filler {
      type: "constant"
      value: 0.2
    }
  }
}
layer {
  name: "inception_3b/relu_1x1"
  type: "ReLU"
  bottom: "inception_3b/1x1"
  top: "inception_3b/1x1"
}
layer {
  name: "inception_3b/3x3_reduce"
  type: "Convolution"
  bottom: "inception_3a/output"
  top: "inception_3b/3x3_reduce"
  param {
    lr_mult: 1
    decay_mult: 1
  }
  param {
    lr_mult: 2
    decay_mult: 0
  }
  convolution_param {
    num_output: 128
    kernel_size: 1
    weight_filler {
      type: "xavier"
      std: 0.09
    }
    bias_filler {
      type: "constant"
      value: 0.2
    }
  }
}
layer {
  name: "inception_3b/relu_3x3_reduce"
  type: "ReLU"
  bottom: "inception_3b/3x3_reduce"
  top: "inception_3b/3x3_reduce"
}
layer {
  name: "inception_3b/3x3"
  type: "Convolution"
  bottom: "inception_3b/3x3_reduce"
  top: "inception_3b/3x3"
  param {
    lr_mult: 1
    decay_mult: 1
  }
  param {
    lr_mult: 2
    decay_mult: 0
  }
  convolution_param {
    num_output: 192
    pad: 1
    kernel_size: 3
    weight_filler {
      type: "xavier"
      std: 0.03
    }
    bias_filler {
      type: "constant"
      value: 0.2
    }
  }
}
layer {
  name: "inception_3b/relu_3x3"
  type: "ReLU"
  bottom: "inception_3b/3x3"
  top: "inception_3b/3x3"
}
layer {
  name: "inception_3b/5x5_reduce"
  type: "Convolution"
  bottom: "inception_3a/output"
  top: "inception_3b/5x5_reduce"
  param {
    lr_mult: 1
    decay_mult: 1
  }
  param {
    lr_mult: 2
    decay_mult: 0
  }
  convolution_param {
    num_output: 32
    kernel_size: 1
    weight_filler {
      type: "xavier"
      std: 0.2
    }
    bias_filler {
      type: "constant"
      value: 0.2
    }
  }
}
layer {
  name: "inception_3b/relu_5x5_reduce"
  type: "ReLU"
  bottom: "inception_3b/5x5_reduce"
  top: "inception_3b/5x5_reduce"
}
layer {
  name: "inception_3b/5x5"
  type: "Convolution"
  bottom: "inception_3b/5x5_reduce"
  top: "inception_3b/5x5"
  param {
    lr_mult: 1
    decay_mult: 1
  }
  param {
    lr_mult: 2
    decay_mult: 0
  }
  convolution_param {
    num_output: 96
    pad: 2
    kernel_size: 5
    weight_filler {
      type: "xavier"
      std: 0.03
    }
    bias_filler {
      type: "constant"
      value: 0.2
    }
  }
}
layer {
  name: "inception_3b/relu_5x5"
  type: "ReLU"
  bottom: "inception_3b/5x5"
  top: "inception_3b/5x5"
}
layer {
  name: "inception_3b/pool"
  type: "Pooling"
  bottom: "inception_3a/output"
  top: "inception_3b/pool"
  pooling_param {
    pool: MAX
    kernel_size: 3
    stride: 1
    pad: 1
  }
}
layer {
  name: "inception_3b/pool_proj"
  type: "Convolution"
  bottom: "inception_3b/pool"
  top: "inception_3b/pool_proj"
  param {
    lr_mult: 1
    decay_mult: 1
  }
  param {
    lr_mult: 2
    decay_mult: 0
  }
  convolution_param {
    num_output: 64
    kernel_size: 1
    weight_filler {
      type: "xavier"
      std: 0.1
    }
    bias_filler {
      type: "constant"
      value: 0.2
    }
  }
}
layer {
  name: "inception_3b/relu_pool_proj"
  type: "ReLU"
  bottom: "inception_3b/pool_proj"
  top: "inception_3b/pool_proj"
}
layer {
  name: "inception_3b/output"
  type: "Concat"
  bottom: "inception_3b/1x1"
  bottom: "inception_3b/3x3"
  bottom: "inception_3b/5x5"
  bottom: "inception_3b/pool_proj"
  top: "inception_3b/output"
}
layer {
  name: "pool3/3x3_s2"
  type: "Pooling"
  bottom: "inception_3b/output"
  top: "pool3/3x3_s2"
  pooling_param {
    pool: MAX
    kernel_size: 3
    stride: 2
  }
}
layer {
  name: "inception_4a/1x1"
  type: "Convolution"
  bottom: "pool3/3x3_s2"
  top: "inception_4a/1x1"
  param {
    lr_mult: 1
    decay_mult: 1
  }
  param {
    lr_mult: 2
    decay_mult: 0
  }
  convolution_param {
    num_output: 192
    kernel_size: 1
    weight_filler {
      type: "xavier"
      std: 0.03
    }
    bias_filler {
      type: "constant"
      value: 0.2
    }
  }
}
layer {
  name: "inception_4a/relu_1x1"
  type: "ReLU"
  bottom: "inception_4a/1x1"
  top: "inception_4a/1x1"
}
layer {
  name: "inception_4a/3x3_reduce"
  type: "Convolution"
  bottom: "pool3/3x3_s2"
  top: "inception_4a/3x3_reduce"
  param {
    lr_mult: 1
    decay_mult: 1
  }
  param {
    lr_mult: 2
    decay_mult: 0
  }
  convolution_param {
    num_output: 96
    kernel_size: 1
    weight_filler {
      type: "xavier"
      std: 0.09
    }
    bias_filler {
      type: "constant"
      value: 0.2
    }
  }
}
layer {
  name: "inception_4a/relu_3x3_reduce"
  type: "ReLU"
  bottom: "inception_4a/3x3_reduce"
  top: "inception_4a/3x3_reduce"
}
layer {
  name: "inception_4a/3x3"
  type: "Convolution"
  bottom: "inception_4a/3x3_reduce"
  top: "inception_4a/3x3"
  param {
    lr_mult: 1
    decay_mult: 1
  }
  param {
    lr_mult: 2
    decay_mult: 0
  }
  convolution_param {
    num_output: 208
    pad: 1
    kernel_size: 3
    weight_filler {
      type: "xavier"
      std: 0.03
    }
    bias_filler {
      type: "constant"
      value: 0.2
    }
  }
}
layer {
  name: "inception_4a/relu_3x3"
  type: "ReLU"
  bottom: "inception_4a/3x3"
  top: "inception_4a/3x3"
}
layer {
  name: "inception_4a/5x5_reduce"
  type: "Convolution"
  bottom: "pool3/3x3_s2"
  top: "inception_4a/5x5_reduce"
  param {
    lr_mult: 1
    decay_mult: 1
  }
  param {
    lr_mult: 2
    decay_mult: 0
  }
  convolution_param {
    num_output: 16
    kernel_size: 1
    weight_filler {
      type: "xavier"
      std: 0.2
    }
    bias_filler {
      type: "constant"
      value: 0.2
    }
  }
}
layer {
  name: "inception_4a/relu_5x5_reduce"
  type: "ReLU"
  bottom: "inception_4a/5x5_reduce"
  top: "inception_4a/5x5_reduce"
}
layer {
  name: "inception_4a/5x5"
  type: "Convolution"
  bottom: "inception_4a/5x5_reduce"
  top: "inception_4a/5x5"
  param {
    lr_mult: 1
    decay_mult: 1
  }
  param {
    lr_mult: 2
    decay_mult: 0
  }
  convolution_param {
    num_output: 48
    pad: 2
    kernel_size: 5
    weight_filler {
      type: "xavier"
      std: 0.03
    }
    bias_filler {
      type: "constant"
      value: 0.2
    }
  }
}
layer {
  name: "inception_4a/relu_5x5"
  type: "ReLU"
  bottom: "inception_4a/5x5"
  top: "inception_4a/5x5"
}
layer {
  name: "inception_4a/pool"
  type: "Pooling"
  bottom: "pool3/3x3_s2"
  top: "inception_4a/pool"
  pooling_param {
    pool: MAX
    kernel_size: 3
    stride: 1
    pad: 1
  }
}
layer {
  name: "inception_4a/pool_proj"
  type: "Convolution"
  bottom: "inception_4a/pool"
  top: "inception_4a/pool_proj"
  param {
    lr_mult: 1
    decay_mult: 1
  }
  param {
    lr_mult: 2
    decay_mult: 0
  }
  convolution_param {
    num_output: 64
    kernel_size: 1
    weight_filler {
      type: "xavier"
      std: 0.1
    }
    bias_filler {
      type: "constant"
      value: 0.2
    }
  }
}
layer {
  name: "inception_4a/relu_pool_proj"
  type: "ReLU"
  bottom: "inception_4a/pool_proj"
  top: "inception_4a/pool_proj"
}
layer {
  name: "inception_4a/output"
  type: "Concat"
  bottom: "inception_4a/1x1"
  bottom: "inception_4a/3x3"
  bottom: "inception_4a/5x5"
  bottom: "inception_4a/pool_proj"
  top: "inception_4a/output"
}
layer {
  name: "loss1/ave_pool"
  type: "Pooling"
  bottom: "inception_4a/output"
  top: "loss1/ave_pool"
  pooling_param {
    pool: AVE
    kernel_size: 5
    stride: 3
  }
}
layer {
  name: "loss1/conv"
  type: "Convolution"
  bottom: "loss1/ave_pool"
  top: "loss1/conv"
  param {
    lr_mult: 1
    decay_mult: 1
  }
  param {
    lr_mult: 2
    decay_mult: 0
  }
  convolution_param {
    num_output: 128
    kernel_size: 1
    weight_filler {
      type: "xavier"
      std: 0.08
    }
    bias_filler {
      type: "constant"
      value: 0.2
    }
  }
}
layer {
  name: "loss1/relu_conv"
  type: "ReLU"
  bottom: "loss1/conv"
  top: "loss1/conv"
}
layer {
  name: "loss1/fc"
  type: "InnerProduct"
  bottom: "loss1/conv"
  top: "loss1/fc"
  param {
    lr_mult: 1
    decay_mult: 1
  }
  param {
    lr_mult: 2
    decay_mult: 0
  }
  inner_product_param {
    num_output: 1024
    weight_filler {
      type: "xavier"
      std: 0.02
    }
    bias_filler {
      type: "constant"
      value: 0.2
    }
  }
}
layer {
  name: "loss1/relu_fc"
  type: "ReLU"
  bottom: "loss1/fc"
  top: "loss1/fc"
}
layer {
  name: "loss1/drop_fc"
  type: "Dropout"
  bottom: "loss1/fc"
  top: "loss1/fc"
  dropout_param {
    dropout_ratio: 0.2
  }
}
layer {
  name: "stanford_cars_loss1/classifier"
  type: "InnerProduct"
  bottom: "loss1/fc"
  top: "stanford_cars_loss1/classifier"
  param {
    lr_mult: 1
    decay_mult: 1
  }
  param {
    lr_mult: 2
    decay_mult: 0
  }
  inner_product_param {
    num_output: 196
    weight_filler {
      type: "xavier"
      std: 0.0009765625
    }
    bias_filler {
      type: "constant"
      value: 0
    }
  }
}
layer {
  name: "loss1/loss"
  type: "SoftmaxWithLoss"
  bottom: "stanford_cars_loss1/classifier"
  bottom: "label"
  top: "loss1/loss1"
  loss_weight: 0.3
}
layer {
  name: "inception_4b/1x1"
  type: "Convolution"
  bottom: "inception_4a/output"
  top: "inception_4b/1x1"
  param {
    lr_mult: 1
    decay_mult: 1
  }
  param {
    lr_mult: 2
    decay_mult: 0
  }
  convolution_param {
    num_output: 160
    kernel_size: 1
    weight_filler {
      type: "xavier"
      std: 0.03
    }
    bias_filler {
      type: "constant"
      value: 0.2
    }
  }
}
layer {
  name: "inception_4b/relu_1x1"
  type: "ReLU"
  bottom: "inception_4b/1x1"
  top: "inception_4b/1x1"
}
layer {
  name: "inception_4b/3x3_reduce"
  type: "Convolution"
  bottom: "inception_4a/output"
  top: "inception_4b/3x3_reduce"
  param {
    lr_mult: 1
    decay_mult: 1
  }
  param {
    lr_mult: 2
    decay_mult: 0
  }
  convolution_param {
    num_output: 112
    kernel_size: 1
    weight_filler {
      type: "xavier"
      std: 0.09
    }
    bias_filler {
      type: "constant"
      value: 0.2
    }
  }
}
layer {
  name: "inception_4b/relu_3x3_reduce"
  type: "ReLU"
  bottom: "inception_4b/3x3_reduce"
  top: "inception_4b/3x3_reduce"
}
layer {
  name: "inception_4b/3x3"
  type: "Convolution"
  bottom: "inception_4b/3x3_reduce"
  top: "inception_4b/3x3"
  param {
    lr_mult: 1
    decay_mult: 1
  }
  param {
    lr_mult: 2
    decay_mult: 0
  }
  convolution_param {
    num_output: 224
    pad: 1
    kernel_size: 3
    weight_filler {
      type: "xavier"
      std: 0.03
    }
    bias_filler {
      type: "constant"
      value: 0.2
    }
  }
}
layer {
  name: "inception_4b/relu_3x3"
  type: "ReLU"
  bottom: "inception_4b/3x3"
  top: "inception_4b/3x3"
}
layer {
  name: "inception_4b/5x5_reduce"
  type: "Convolution"
  bottom: "inception_4a/output"
  top: "inception_4b/5x5_reduce"
  param {
    lr_mult: 1
    decay_mult: 1
  }
  param {
    lr_mult: 2
    decay_mult: 0
  }
  convolution_param {
    num_output: 24
    kernel_size: 1
    weight_filler {
      type: "xavier"
      std: 0.2
    }
    bias_filler {
      type: "constant"
      value: 0.2
    }
  }
}
layer {
  name: "inception_4b/relu_5x5_reduce"
  type: "ReLU"
  bottom: "inception_4b/5x5_reduce"
  top: "inception_4b/5x5_reduce"
}
layer {
  name: "inception_4b/5x5"
  type: "Convolution"
  bottom: "inception_4b/5x5_reduce"
  top: "inception_4b/5x5"
  param {
    lr_mult: 1
    decay_mult: 1
  }
  param {
    lr_mult: 2
    decay_mult: 0
  }
  convolution_param {
    num_output: 64
    pad: 2
    kernel_size: 5
    weight_filler {
      type: "xavier"
      std: 0.03
    }
    bias_filler {
      type: "constant"
      value: 0.2
    }
  }
}
layer {
  name: "inception_4b/relu_5x5"
  type: "ReLU"
  bottom: "inception_4b/5x5"
  top: "inception_4b/5x5"
}
layer {
  name: "inception_4b/pool"
  type: "Pooling"
  bottom: "inception_4a/output"
  top: "inception_4b/pool"
  pooling_param {
    pool: MAX
    kernel_size: 3
    stride: 1
    pad: 1
  }
}
layer {
  name: "inception_4b/pool_proj"
  type: "Convolution"
  bottom: "inception_4b/pool"
  top: "inception_4b/pool_proj"
  param {
    lr_mult: 1
    decay_mult: 1
  }
  param {
    lr_mult: 2
    decay_mult: 0
  }
  convolution_param {
    num_output: 64
    kernel_size: 1
    weight_filler {
      type: "xavier"
      std: 0.1
    }
    bias_filler {
      type: "constant"
      value: 0.2
    }
  }
}
layer {
  name: "inception_4b/relu_pool_proj"
  type: "ReLU"
  bottom: "inception_4b/pool_proj"
  top: "inception_4b/pool_proj"
}
layer {
  name: "inception_4b/output"
  type: "Concat"
  bottom: "inception_4b/1x1"
  bottom: "inception_4b/3x3"
  bottom: "inception_4b/5x5"
  bottom: "inception_4b/pool_proj"
  top: "inception_4b/output"
}
layer {
  name: "inception_4c/1x1"
  type: "Convolution"
  bottom: "inception_4b/output"
  top: "inception_4c/1x1"
  param {
    lr_mult: 1
    decay_mult: 1
  }
  param {
    lr_mult: 2
    decay_mult: 0
  }
  convolution_param {
    num_output: 128
    kernel_size: 1
    weight_filler {
      type: "xavier"
      std: 0.03
    }
    bias_filler {
      type: "constant"
      value: 0.2
    }
  }
}
layer {
  name: "inception_4c/relu_1x1"
  type: "ReLU"
  bottom: "inception_4c/1x1"
  top: "inception_4c/1x1"
}
layer {
  name: "inception_4c/3x3_reduce"
  type: "Convolution"
  bottom: "inception_4b/output"
  top: "inception_4c/3x3_reduce"
  param {
    lr_mult: 1
    decay_mult: 1
  }
  param {
    lr_mult: 2
    decay_mult: 0
  }
  convolution_param {
    num_output: 128
    kernel_size: 1
    weight_filler {
      type: "xavier"
      std: 0.09
    }
    bias_filler {
      type: "constant"
      value: 0.2
    }
  }
}
layer {
  name: "inception_4c/relu_3x3_reduce"
  type: "ReLU"
  bottom: "inception_4c/3x3_reduce"
  top: "inception_4c/3x3_reduce"
}
layer {
  name: "inception_4c/3x3"
  type: "Convolution"
  bottom: "inception_4c/3x3_reduce"
  top: "inception_4c/3x3"
  param {
    lr_mult: 1
    decay_mult: 1
  }
  param {
    lr_mult: 2
    decay_mult: 0
  }
  convolution_param {
    num_output: 256
    pad: 1
    kernel_size: 3
    weight_filler {
      type: "xavier"
      std: 0.03
    }
    bias_filler {
      type: "constant"
      value: 0.2
    }
  }
}
layer {
  name: "inception_4c/relu_3x3"
  type: "ReLU"
  bottom: "inception_4c/3x3"
  top: "inception_4c/3x3"
}
layer {
  name: "inception_4c/5x5_reduce"
  type: "Convolution"
  bottom: "inception_4b/output"
  top: "inception_4c/5x5_reduce"
  param {
    lr_mult: 1
    decay_mult: 1
  }
  param {
    lr_mult: 2
    decay_mult: 0
  }
  convolution_param {
    num_output: 24
    kernel_size: 1
    weight_filler {
      type: "xavier"
      std: 0.2
    }
    bias_filler {
      type: "constant"
      value: 0.2
    }
  }
}
layer {
  name: "inception_4c/relu_5x5_reduce"
  type: "ReLU"
  bottom: "inception_4c/5x5_reduce"
  top: "inception_4c/5x5_reduce"
}
layer {
  name: "inception_4c/5x5"
  type: "Convolution"
  bottom: "inception_4c/5x5_reduce"
  top: "inception_4c/5x5"
  param {
    lr_mult: 1
    decay_mult: 1
  }
  param {
    lr_mult: 2
    decay_mult: 0
  }
  convolution_param {
    num_output: 64
    pad: 2
    kernel_size: 5
    weight_filler {
      type: "xavier"
      std: 0.03
    }
    bias_filler {
      type: "constant"
      value: 0.2
    }
  }
}
layer {
  name: "inception_4c/relu_5x5"
  type: "ReLU"
  bottom: "inception_4c/5x5"
  top: "inception_4c/5x5"
}
layer {
  name: "inception_4c/pool"
  type: "Pooling"
  bottom: "inception_4b/output"
  top: "inception_4c/pool"
  pooling_param {
    pool: MAX
    kernel_size: 3
    stride: 1
    pad: 1
  }
}
layer {
  name: "inception_4c/pool_proj"
  type: "Convolution"
  bottom: "inception_4c/pool"
  top: "inception_4c/pool_proj"
  param {
    lr_mult: 1
    decay_mult: 1
  }
  param {
    lr_mult: 2
    decay_mult: 0
  }
  convolution_param {
    num_output: 64
    kernel_size: 1
    weight_filler {
      type: "xavier"
      std: 0.1
    }
    bias_filler {
      type: "constant"
      value: 0.2
    }
  }
}
layer {
  name: "inception_4c/relu_pool_proj"
  type: "ReLU"
  bottom: "inception_4c/pool_proj"
  top: "inception_4c/pool_proj"
}
layer {
  name: "inception_4c/output"
  type: "Concat"
  bottom: "inception_4c/1x1"
  bottom: "inception_4c/3x3"
  bottom: "inception_4c/5x5"
  bottom: "inception_4c/pool_proj"
  top: "inception_4c/output"
}
layer {
  name: "inception_4d/1x1"
  type: "Convolution"
  bottom: "inception_4c/output"
  top: "inception_4d/1x1"
  param {
    lr_mult: 1
    decay_mult: 1
  }
  param {
    lr_mult: 2
    decay_mult: 0
  }
  convolution_param {
    num_output: 112
    kernel_size: 1
    weight_filler {
      type: "xavier"
      std: 0.03
    }
    bias_filler {
      type: "constant"
      value: 0.2
    }
  }
}
layer {
  name: "inception_4d/relu_1x1"
  type: "ReLU"
  bottom: "inception_4d/1x1"
  top: "inception_4d/1x1"
}
layer {
  name: "inception_4d/3x3_reduce"
  type: "Convolution"
  bottom: "inception_4c/output"
  top: "inception_4d/3x3_reduce"
  param {
    lr_mult: 1
    decay_mult: 1
  }
  param {
    lr_mult: 2
    decay_mult: 0
  }
  convolution_param {
    num_output: 144
    kernel_size: 1
    weight_filler {
      type: "xavier"
      std: 0.09
    }
    bias_filler {
      type: "constant"
      value: 0.2
    }
  }
}
layer {
  name: "inception_4d/relu_3x3_reduce"
  type: "ReLU"
  bottom: "inception_4d/3x3_reduce"
  top: "inception_4d/3x3_reduce"
}
layer {
  name: "inception_4d/3x3"
  type: "Convolution"
  bottom: "inception_4d/3x3_reduce"
  top: "inception_4d/3x3"
  param {
    lr_mult: 1
    decay_mult: 1
  }
  param {
    lr_mult: 2
    decay_mult: 0
  }
  convolution_param {
    num_output: 288
    pad: 1
    kernel_size: 3
    weight_filler {
      type: "xavier"
      std: 0.03
    }
    bias_filler {
      type: "constant"
      value: 0.2
    }
  }
}
layer {
  name: "inception_4d/relu_3x3"
  type: "ReLU"
  bottom: "inception_4d/3x3"
  top: "inception_4d/3x3"
}
layer {
  name: "inception_4d/5x5_reduce"
  type: "Convolution"
  bottom: "inception_4c/output"
  top: "inception_4d/5x5_reduce"
  param {
    lr_mult: 1
    decay_mult: 1
  }
  param {
    lr_mult: 2
    decay_mult: 0
  }
  convolution_param {
    num_output: 32
    kernel_size: 1
    weight_filler {
      type: "xavier"
      std: 0.2
    }
    bias_filler {
      type: "constant"
      value: 0.2
    }
  }
}
layer {
  name: "inception_4d/relu_5x5_reduce"
  type: "ReLU"
  bottom: "inception_4d/5x5_reduce"
  top: "inception_4d/5x5_reduce"
}
layer {
  name: "inception_4d/5x5"
  type: "Convolution"
  bottom: "inception_4d/5x5_reduce"
  top: "inception_4d/5x5"
  param {
    lr_mult: 1
    decay_mult: 1
  }
  param {
    lr_mult: 2
    decay_mult: 0
  }
  convolution_param {
    num_output: 64
    pad: 2
    kernel_size: 5
    weight_filler {
      type: "xavier"
      std: 0.03
    }
    bias_filler {
      type: "constant"
      value: 0.2
    }
  }
}
layer {
  name: "inception_4d/relu_5x5"
  type: "ReLU"
  bottom: "inception_4d/5x5"
  top: "inception_4d/5x5"
}
layer {
  name: "inception_4d/pool"
  type: "Pooling"
  bottom: "inception_4c/output"
  top: "inception_4d/pool"
  pooling_param {
    pool: MAX
    kernel_size: 3
    stride: 1
    pad: 1
  }
}
layer {
  name: "inception_4d/pool_proj"
  type: "Convolution"
  bottom: "inception_4d/pool"
  top: "inception_4d/pool_proj"
  param {
    lr_mult: 1
    decay_mult: 1
  }
  param {
    lr_mult: 2
    decay_mult: 0
  }
  convolution_param {
    num_output: 64
    kernel_size: 1
    weight_filler {
      type: "xavier"
      std: 0.1
    }
    bias_filler {
      type: "constant"
      value: 0.2
    }
  }
}
layer {
  name: "inception_4d/relu_pool_proj"
  type: "ReLU"
  bottom: "inception_4d/pool_proj"
  top: "inception_4d/pool_proj"
}
layer {
  name: "inception_4d/output"
  type: "Concat"
  bottom: "inception_4d/1x1"
  bottom: "inception_4d/3x3"
  bottom: "inception_4d/5x5"
  bottom: "inception_4d/pool_proj"
  top: "inception_4d/output"
}
layer {
  name: "loss2/ave_pool"
  type: "Pooling"
  bottom: "inception_4d/output"
  top: "loss2/ave_pool"
  pooling_param {
    pool: AVE
    kernel_size: 5
    stride: 3
  }
}
layer {
  name: "loss2/conv"
  type: "Convolution"
  bottom: "loss2/ave_pool"
  top: "loss2/conv"
  param {
    lr_mult: 1
    decay_mult: 1
  }
  param {
    lr_mult: 2
    decay_mult: 0
  }
  convolution_param {
    num_output: 128
    kernel_size: 1
    weight_filler {
      type: "xavier"
      std: 0.08
    }
    bias_filler {
      type: "constant"
      value: 0.2
    }
  }
}
layer {
  name: "loss2/relu_conv"
  type: "ReLU"
  bottom: "loss2/conv"
  top: "loss2/conv"
}
layer {
  name: "loss2/fc"
  type: "InnerProduct"
  bottom: "loss2/conv"
  top: "loss2/fc"
  param {
    lr_mult: 1
    decay_mult: 1
  }
  param {
    lr_mult: 2
    decay_mult: 0
  }
  inner_product_param {
    num_output: 1024
    weight_filler {
      type: "xavier"
      std: 0.02
    }
    bias_filler {
      type: "constant"
      value: 0.2
    }
  }
}
layer {
  name: "loss2/relu_fc"
  type: "ReLU"
  bottom: "loss2/fc"
  top: "loss2/fc"
}
layer {
  name: "loss2/drop_fc"
  type: "Dropout"
  bottom: "loss2/fc"
  top: "loss2/fc"
  dropout_param {
    dropout_ratio: 0.2
  }
}
layer {
  name: "stanford_cars_loss2/classifier"
  type: "InnerProduct"
  bottom: "loss2/fc"
  top: "stanford_cars_loss2/classifier"
  param {
    lr_mult: 1
    decay_mult: 1
  }
  param {
    lr_mult: 2
    decay_mult: 0
  }
  inner_product_param {
    num_output: 196
    weight_filler {
      type: "xavier"
      std: 0.0009765625
    }
    bias_filler {
      type: "constant"
      value: 0
    }
  }
}
layer {
  name: "stanford_cars_loss2/loss"
  type: "SoftmaxWithLoss"
  bottom: "stanford_cars_loss2/classifier"
  bottom: "label"
  top: "loss2/loss1"
  loss_weight: 0.3
}
layer {
  name: "inception_4e/1x1"
  type: "Convolution"
  bottom: "inception_4d/output"
  top: "inception_4e/1x1"
  param {
    lr_mult: 1
    decay_mult: 1
  }
  param {
    lr_mult: 2
    decay_mult: 0
  }
  convolution_param {
    num_output: 256
    kernel_size: 1
    weight_filler {
      type: "xavier"
      std: 0.03
    }
    bias_filler {
      type: "constant"
      value: 0.2
    }
  }
}
layer {
  name: "inception_4e/relu_1x1"
  type: "ReLU"
  bottom: "inception_4e/1x1"
  top: "inception_4e/1x1"
}
layer {
  name: "inception_4e/3x3_reduce"
  type: "Convolution"
  bottom: "inception_4d/output"
  top: "inception_4e/3x3_reduce"
  param {
    lr_mult: 1
    decay_mult: 1
  }
  param {
    lr_mult: 2
    decay_mult: 0
  }
  convolution_param {
    num_output: 160
    kernel_size: 1
    weight_filler {
      type: "xavier"
      std: 0.09
    }
    bias_filler {
      type: "constant"
      value: 0.2
    }
  }
}
layer {
  name: "inception_4e/relu_3x3_reduce"
  type: "ReLU"
  bottom: "inception_4e/3x3_reduce"
  top: "inception_4e/3x3_reduce"
}
layer {
  name: "inception_4e/3x3"
  type: "Convolution"
  bottom: "inception_4e/3x3_reduce"
  top: "inception_4e/3x3"
  param {
    lr_mult: 1
    decay_mult: 1
  }
  param {
    lr_mult: 2
    decay_mult: 0
  }
  convolution_param {
    num_output: 320
    pad: 1
    kernel_size: 3
    weight_filler {
      type: "xavier"
      std: 0.03
    }
    bias_filler {
      type: "constant"
      value: 0.2
    }
  }
}
layer {
  name: "inception_4e/relu_3x3"
  type: "ReLU"
  bottom: "inception_4e/3x3"
  top: "inception_4e/3x3"
}
layer {
  name: "inception_4e/5x5_reduce"
  type: "Convolution"
  bottom: "inception_4d/output"
  top: "inception_4e/5x5_reduce"
  param {
    lr_mult: 1
    decay_mult: 1
  }
  param {
    lr_mult: 2
    decay_mult: 0
  }
  convolution_param {
    num_output: 32
    kernel_size: 1
    weight_filler {
      type: "xavier"
      std: 0.2
    }
    
I0703 20:01:39.439146 21340 layer_factory.hpp:74] Creating layer data
I0703 20:01:39.439167 21340 net.cpp:90] Creating Layer data
I0703 20:01:39.439177 21340 net.cpp:368] data -> data
I0703 20:01:39.439198 21340 net.cpp:368] data -> label
I0703 20:01:39.439209 21340 net.cpp:120] Setting up data
I0703 20:01:39.439261 21340 db.cpp:34] Opened lmdb examples/stanford_cars/stanford_cars_train_lmdb
I0703 20:01:39.439424 21340 data_layer.cpp:67] output data size: 30,3,224,224
I0703 20:01:39.441723 21340 net.cpp:127] Top shape: 30 3 224 224 (4515840)
I0703 20:01:39.441753 21340 net.cpp:127] Top shape: 30 (30)
I0703 20:01:39.441762 21340 layer_factory.hpp:74] Creating layer label_data_1_split
I0703 20:01:39.441777 21340 net.cpp:90] Creating Layer label_data_1_split
I0703 20:01:39.441783 21340 net.cpp:410] label_data_1_split <- label
I0703 20:01:39.441795 21340 net.cpp:368] label_data_1_split -> label_data_1_split_0
I0703 20:01:39.441807 21340 net.cpp:368] label_data_1_split -> label_data_1_split_1
I0703 20:01:39.441812 21340 net.cpp:368] label_data_1_split -> label_data_1_split_2
I0703 20:01:39.441818 21340 net.cpp:120] Setting up label_data_1_split
I0703 20:01:39.441828 21340 net.cpp:127] Top shape: 30 (30)
I0703 20:01:39.441850 21340 net.cpp:127] Top shape: 30 (30)
I0703 20:01:39.441855 21340 net.cpp:127] Top shape: 30 (30)
I0703 20:01:39.441860 21340 layer_factory.hpp:74] Creating layer conv1/7x7_s2
I0703 20:01:39.441871 21340 net.cpp:90] Creating Layer conv1/7x7_s2
I0703 20:01:39.441876 21340 net.cpp:410] conv1/7x7_s2 <- data
I0703 20:01:39.441882 21340 net.cpp:368] conv1/7x7_s2 -> conv1/7x7_s2
I0703 20:01:39.441891 21340 net.cpp:120] Setting up conv1/7x7_s2
I0703 20:01:39.472146 21340 net.cpp:127] Top shape: 30 64 112 112 (24084480)
I0703 20:01:39.472183 21340 layer_factory.hpp:74] Creating layer conv1/relu_7x7
I0703 20:01:39.472196 21340 net.cpp:90] Creating Layer conv1/relu_7x7
I0703 20:01:39.472203 21340 net.cpp:410] conv1/relu_7x7 <- conv1/7x7_s2
I0703 20:01:39.472209 21340 net.cpp:357] conv1/relu_7x7 -> conv1/7x7_s2 (in-place)
I0703 20:01:39.472216 21340 net.cpp:120] Setting up conv1/relu_7x7
I0703 20:01:39.472256 21340 net.cpp:127] Top shape: 30 64 112 112 (24084480)
I0703 20:01:39.472264 21340 layer_factory.hpp:74] Creating layer pool1/3x3_s2
I0703 20:01:39.472273 21340 net.cpp:90] Creating Layer pool1/3x3_s2
I0703 20:01:39.472280 21340 net.cpp:410] pool1/3x3_s2 <- conv1/7x7_s2
I0703 20:01:39.472285 21340 net.cpp:368] pool1/3x3_s2 -> pool1/3x3_s2
I0703 20:01:39.472291 21340 net.cpp:120] Setting up pool1/3x3_s2
I0703 20:01:39.472404 21340 net.cpp:127] Top shape: 30 64 56 56 (6021120)
I0703 20:01:39.472414 21340 layer_factory.hpp:74] Creating layer pool1/norm1
I0703 20:01:39.472422 21340 net.cpp:90] Creating Layer pool1/norm1
I0703 20:01:39.472427 21340 net.cpp:410] pool1/norm1 <- pool1/3x3_s2
I0703 20:01:39.472434 21340 net.cpp:368] pool1/norm1 -> pool1/norm1
I0703 20:01:39.472440 21340 net.cpp:120] Setting up pool1/norm1
I0703 20:01:39.472448 21340 net.cpp:127] Top shape: 30 64 56 56 (6021120)
I0703 20:01:39.472452 21340 layer_factory.hpp:74] Creating layer conv2/3x3_reduce
I0703 20:01:39.472460 21340 net.cpp:90] Creating Layer conv2/3x3_reduce
I0703 20:01:39.472465 21340 net.cpp:410] conv2/3x3_reduce <- pool1/norm1
I0703 20:01:39.472471 21340 net.cpp:368] conv2/3x3_reduce -> conv2/3x3_reduce
I0703 20:01:39.472479 21340 net.cpp:120] Setting up conv2/3x3_reduce
I0703 20:01:39.472684 21340 net.cpp:127] Top shape: 30 64 56 56 (6021120)
I0703 20:01:39.472698 21340 layer_factory.hpp:74] Creating layer conv2/relu_3x3_reduce
I0703 20:01:39.472704 21340 net.cpp:90] Creating Layer conv2/relu_3x3_reduce
I0703 20:01:39.472710 21340 net.cpp:410] conv2/relu_3x3_reduce <- conv2/3x3_reduce
I0703 20:01:39.472717 21340 net.cpp:357] conv2/relu_3x3_reduce -> conv2/3x3_reduce (in-place)
I0703 20:01:39.472722 21340 net.cpp:120] Setting up conv2/relu_3x3_reduce
I0703 20:01:39.472757 21340 net.cpp:127] Top shape: 30 64 56 56 (6021120)
I0703 20:01:39.472764 21340 layer_factory.hpp:74] Creating layer conv2/3x3
I0703 20:01:39.472771 21340 net.cpp:90] Creating Layer conv2/3x3
I0703 20:01:39.472775 21340 net.cpp:410] conv2/3x3 <- conv2/3x3_reduce
I0703 20:01:39.472781 21340 net.cpp:368] conv2/3x3 -> conv2/3x3
I0703 20:01:39.472789 21340 net.cpp:120] Setting up conv2/3x3
I0703 20:01:39.473511 21340 net.cpp:127] Top shape: 30 192 56 56 (18063360)
I0703 20:01:39.473526 21340 layer_factory.hpp:74] Creating layer conv2/relu_3x3
I0703 20:01:39.473532 21340 net.cpp:90] Creating Layer conv2/relu_3x3
I0703 20:01:39.473537 21340 net.cpp:410] conv2/relu_3x3 <- conv2/3x3
I0703 20:01:39.473543 21340 net.cpp:357] conv2/relu_3x3 -> conv2/3x3 (in-place)
I0703 20:01:39.473549 21340 net.cpp:120] Setting up conv2/relu_3x3
I0703 20:01:39.473585 21340 net.cpp:127] Top shape: 30 192 56 56 (18063360)
I0703 20:01:39.473592 21340 layer_factory.hpp:74] Creating layer conv2/norm2
I0703 20:01:39.473598 21340 net.cpp:90] Creating Layer conv2/norm2
I0703 20:01:39.473603 21340 net.cpp:410] conv2/norm2 <- conv2/3x3
I0703 20:01:39.473608 21340 net.cpp:368] conv2/norm2 -> conv2/norm2
I0703 20:01:39.473613 21340 net.cpp:120] Setting up conv2/norm2
I0703 20:01:39.473619 21340 net.cpp:127] Top shape: 30 192 56 56 (18063360)
I0703 20:01:39.473624 21340 layer_factory.hpp:74] Creating layer pool2/3x3_s2
I0703 20:01:39.473647 21340 net.cpp:90] Creating Layer pool2/3x3_s2
I0703 20:01:39.473652 21340 net.cpp:410] pool2/3x3_s2 <- conv2/norm2
I0703 20:01:39.473657 21340 net.cpp:368] pool2/3x3_s2 -> pool2/3x3_s2
I0703 20:01:39.473664 21340 net.cpp:120] Setting up pool2/3x3_s2
I0703 20:01:39.473701 21340 net.cpp:127] Top shape: 30 192 28 28 (4515840)
I0703 20:01:39.473707 21340 layer_factory.hpp:74] Creating layer pool2/3x3_s2_pool2/3x3_s2_0_split
I0703 20:01:39.473713 21340 net.cpp:90] Creating Layer pool2/3x3_s2_pool2/3x3_s2_0_split
I0703 20:01:39.473718 21340 net.cpp:410] pool2/3x3_s2_pool2/3x3_s2_0_split <- pool2/3x3_s2
I0703 20:01:39.473723 21340 net.cpp:368] pool2/3x3_s2_pool2/3x3_s2_0_split -> pool2/3x3_s2_pool2/3x3_s2_0_split_0
I0703 20:01:39.473731 21340 net.cpp:368] pool2/3x3_s2_pool2/3x3_s2_0_split -> pool2/3x3_s2_pool2/3x3_s2_0_split_1
I0703 20:01:39.473737 21340 net.cpp:368] pool2/3x3_s2_pool2/3x3_s2_0_split -> pool2/3x3_s2_pool2/3x3_s2_0_split_2
I0703 20:01:39.473742 21340 net.cpp:368] pool2/3x3_s2_pool2/3x3_s2_0_split -> pool2/3x3_s2_pool2/3x3_s2_0_split_3
I0703 20:01:39.473747 21340 net.cpp:120] Setting up pool2/3x3_s2_pool2/3x3_s2_0_split
I0703 20:01:39.473754 21340 net.cpp:127] Top shape: 30 192 28 28 (4515840)
I0703 20:01:39.473759 21340 net.cpp:127] Top shape: 30 192 28 28 (4515840)
I0703 20:01:39.473763 21340 net.cpp:127] Top shape: 30 192 28 28 (4515840)
I0703 20:01:39.473768 21340 net.cpp:127] Top shape: 30 192 28 28 (4515840)
I0703 20:01:39.473773 21340 layer_factory.hpp:74] Creating layer inception_3a/1x1
I0703 20:01:39.473779 21340 net.cpp:90] Creating Layer inception_3a/1x1
I0703 20:01:39.473783 21340 net.cpp:410] inception_3a/1x1 <- pool2/3x3_s2_pool2/3x3_s2_0_split_0
I0703 20:01:39.473789 21340 net.cpp:368] inception_3a/1x1 -> inception_3a/1x1
I0703 20:01:39.473796 21340 net.cpp:120] Setting up inception_3a/1x1
I0703 20:01:39.474030 21340 net.cpp:127] Top shape: 30 64 28 28 (1505280)
I0703 20:01:39.474041 21340 layer_factory.hpp:74] Creating layer inception_3a/relu_1x1
I0703 20:01:39.474047 21340 net.cpp:90] Creating Layer inception_3a/relu_1x1
I0703 20:01:39.474052 21340 net.cpp:410] inception_3a/relu_1x1 <- inception_3a/1x1
I0703 20:01:39.474058 21340 net.cpp:357] inception_3a/relu_1x1 -> inception_3a/1x1 (in-place)
I0703 20:01:39.474064 21340 net.cpp:120] Setting up inception_3a/relu_1x1
I0703 20:01:39.474164 21340 net.cpp:127] Top shape: 30 64 28 28 (1505280)
I0703 20:01:39.474174 21340 layer_factory.hpp:74] Creating layer inception_3a/3x3_reduce
I0703 20:01:39.474181 21340 net.cpp:90] Creating Layer inception_3a/3x3_reduce
I0703 20:01:39.474186 21340 net.cpp:410] inception_3a/3x3_reduce <- pool2/3x3_s2_pool2/3x3_s2_0_split_1
I0703 20:01:39.474192 21340 net.cpp:368] inception_3a/3x3_reduce -> inception_3a/3x3_reduce
I0703 20:01:39.474200 21340 net.cpp:120] Setting up inception_3a/3x3_reduce
I0703 20:01:39.474458 21340 net.cpp:127] Top shape: 30 96 28 28 (2257920)
I0703 20:01:39.474472 21340 layer_factory.hpp:74] Creating layer inception_3a/relu_3x3_reduce
I0703 20:01:39.474481 21340 net.cpp:90] Creating Layer inception_3a/relu_3x3_reduce
I0703 20:01:39.474486 21340 net.cpp:410] inception_3a/relu_3x3_reduce <- inception_3a/3x3_reduce
I0703 20:01:39.474491 21340 net.cpp:357] inception_3a/relu_3x3_reduce -> inception_3a/3x3_reduce (in-place)
I0703 20:01:39.474498 21340 net.cpp:120] Setting up inception_3a/relu_3x3_reduce
I0703 20:01:39.474553 21340 net.cpp:127] Top shape: 30 96 28 28 (2257920)
I0703 20:01:39.474560 21340 layer_factory.hpp:74] Creating layer inception_3a/3x3
I0703 20:01:39.474566 21340 net.cpp:90] Creating Layer inception_3a/3x3
I0703 20:01:39.474571 21340 net.cpp:410] inception_3a/3x3 <- inception_3a/3x3_reduce
I0703 20:01:39.474577 21340 net.cpp:368] inception_3a/3x3 -> inception_3a/3x3
I0703 20:01:39.474584 21340 net.cpp:120] Setting up inception_3a/3x3
I0703 20:01:39.475388 21340 net.cpp:127] Top shape: 30 128 28 28 (3010560)
I0703 20:01:39.475399 21340 layer_factory.hpp:74] Creating layer inception_3a/relu_3x3
I0703 20:01:39.475406 21340 net.cpp:90] Creating Layer inception_3a/relu_3x3
I0703 20:01:39.475417 21340 net.cpp:410] inception_3a/relu_3x3 <- inception_3a/3x3
I0703 20:01:39.475424 21340 net.cpp:357] inception_3a/relu_3x3 -> inception_3a/3x3 (in-place)
I0703 20:01:39.475430 21340 net.cpp:120] Setting up inception_3a/relu_3x3
I0703 20:01:39.475469 21340 net.cpp:127] Top shape: 30 128 28 28 (3010560)
I0703 20:01:39.475476 21340 layer_factory.hpp:74] Creating layer inception_3a/5x5_reduce
I0703 20:01:39.475483 21340 net.cpp:90] Creating Layer inception_3a/5x5_reduce
I0703 20:01:39.475488 21340 net.cpp:410] inception_3a/5x5_reduce <- pool2/3x3_s2_pool2/3x3_s2_0_split_2
I0703 20:01:39.475496 21340 net.cpp:368] inception_3a/5x5_reduce -> inception_3a/5x5_reduce
I0703 20:01:39.475502 21340 net.cpp:120] Setting up inception_3a/5x5_reduce
I0703 20:01:39.475715 21340 net.cpp:127] Top shape: 30 16 28 28 (376320)
I0703 20:01:39.475728 21340 layer_factory.hpp:74] Creating layer inception_3a/relu_5x5_reduce
I0703 20:01:39.475734 21340 net.cpp:90] Creating Layer inception_3a/relu_5x5_reduce
I0703 20:01:39.475739 21340 net.cpp:410] inception_3a/relu_5x5_reduce <- inception_3a/5x5_reduce
I0703 20:01:39.475746 21340 net.cpp:357] inception_3a/relu_5x5_reduce -> inception_3a/5x5_reduce (in-place)
I0703 20:01:39.475752 21340 net.cpp:120] Setting up inception_3a/relu_5x5_reduce
I0703 20:01:39.475857 21340 net.cpp:127] Top shape: 30 16 28 28 (376320)
I0703 20:01:39.475867 21340 layer_factory.hpp:74] Creating layer inception_3a/5x5
I0703 20:01:39.475874 21340 net.cpp:90] Creating Layer inception_3a/5x5
I0703 20:01:39.475879 21340 net.cpp:410] inception_3a/5x5 <- inception_3a/5x5_reduce
I0703 20:01:39.475885 21340 net.cpp:368] inception_3a/5x5 -> inception_3a/5x5
I0703 20:01:39.475893 21340 net.cpp:120] Setting up inception_3a/5x5
I0703 20:01:39.476145 21340 net.cpp:127] Top shape: 30 32 28 28 (752640)
I0703 20:01:39.476156 21340 layer_factory.hpp:74] Creating layer inception_3a/relu_5x5
I0703 20:01:39.476162 21340 net.cpp:90] Creating Layer inception_3a/relu_5x5
I0703 20:01:39.476167 21340 net.cpp:410] inception_3a/relu_5x5 <- inception_3a/5x5
I0703 20:01:39.476174 21340 net.cpp:357] inception_3a/relu_5x5 -> inception_3a/5x5 (in-place)
I0703 20:01:39.476181 21340 net.cpp:120] Setting up inception_3a/relu_5x5
I0703 20:01:39.476218 21340 net.cpp:127] Top shape: 30 32 28 28 (752640)
I0703 20:01:39.476225 21340 layer_factory.hpp:74] Creating layer inception_3a/pool
I0703 20:01:39.476230 21340 layer_factory.cpp:55] CUDNN does not support padding or multiple tops. Using Caffe's own pooling layer.
I0703 20:01:39.476236 21340 net.cpp:90] Creating Layer inception_3a/pool
I0703 20:01:39.476240 21340 net.cpp:410] inception_3a/pool <- pool2/3x3_s2_pool2/3x3_s2_0_split_3
I0703 20:01:39.476246 21340 net.cpp:368] inception_3a/pool -> inception_3a/pool
I0703 20:01:39.476253 21340 net.cpp:120] Setting up inception_3a/pool
I0703 20:01:39.476260 21340 net.cpp:127] Top shape: 30 192 28 28 (4515840)
I0703 20:01:39.476264 21340 layer_factory.hpp:74] Creating layer inception_3a/pool_proj
I0703 20:01:39.476271 21340 net.cpp:90] Creating Layer inception_3a/pool_proj
I0703 20:01:39.476276 21340 net.cpp:410] inception_3a/pool_proj <- inception_3a/pool
I0703 20:01:39.476282 21340 net.cpp:368] inception_3a/pool_proj -> inception_3a/pool_proj
I0703 20:01:39.476289 21340 net.cpp:120] Setting up inception_3a/pool_proj
I0703 20:01:39.476544 21340 net.cpp:127] Top shape: 30 32 28 28 (752640)
I0703 20:01:39.476558 21340 layer_factory.hpp:74] Creating layer inception_3a/relu_pool_proj
I0703 20:01:39.476565 21340 net.cpp:90] Creating Layer inception_3a/relu_pool_proj
I0703 20:01:39.476570 21340 net.cpp:410] inception_3a/relu_pool_proj <- inception_3a/pool_proj
I0703 20:01:39.476575 21340 net.cpp:357] inception_3a/relu_pool_proj -> inception_3a/pool_proj (in-place)
I0703 20:01:39.476582 21340 net.cpp:120] Setting up inception_3a/relu_pool_proj
I0703 20:01:39.476622 21340 net.cpp:127] Top shape: 30 32 28 28 (752640)
I0703 20:01:39.476629 21340 layer_factory.hpp:74] Creating layer inception_3a/output
I0703 20:01:39.476637 21340 net.cpp:90] Creating Layer inception_3a/output
I0703 20:01:39.476647 21340 net.cpp:410] inception_3a/output <- inception_3a/1x1
I0703 20:01:39.476654 21340 net.cpp:410] inception_3a/output <- inception_3a/3x3
I0703 20:01:39.476658 21340 net.cpp:410] inception_3a/output <- inception_3a/5x5
I0703 20:01:39.476663 21340 net.cpp:410] inception_3a/output <- inception_3a/pool_proj
I0703 20:01:39.476668 21340 net.cpp:368] inception_3a/output -> inception_3a/output
I0703 20:01:39.476675 21340 net.cpp:120] Setting up inception_3a/output
I0703 20:01:39.476686 21340 net.cpp:127] Top shape: 30 256 28 28 (6021120)
I0703 20:01:39.476691 21340 layer_factory.hpp:74] Creating layer inception_3a/output_inception_3a/output_0_split
I0703 20:01:39.476696 21340 net.cpp:90] Creating Layer inception_3a/output_inception_3a/output_0_split
I0703 20:01:39.476701 21340 net.cpp:410] inception_3a/output_inception_3a/output_0_split <- inception_3a/output
I0703 20:01:39.476706 21340 net.cpp:368] inception_3a/output_inception_3a/output_0_split -> inception_3a/output_inception_3a/output_0_split_0
I0703 20:01:39.476713 21340 net.cpp:368] inception_3a/output_inception_3a/output_0_split -> inception_3a/output_inception_3a/output_0_split_1
I0703 20:01:39.476719 21340 net.cpp:368] inception_3a/output_inception_3a/output_0_split -> inception_3a/output_inception_3a/output_0_split_2
I0703 20:01:39.476725 21340 net.cpp:368] inception_3a/output_inception_3a/output_0_split -> inception_3a/output_inception_3a/output_0_split_3
I0703 20:01:39.476732 21340 net.cpp:120] Setting up inception_3a/output_inception_3a/output_0_split
I0703 20:01:39.476737 21340 net.cpp:127] Top shape: 30 256 28 28 (6021120)
I0703 20:01:39.476742 21340 net.cpp:127] Top shape: 30 256 28 28 (6021120)
I0703 20:01:39.476747 21340 net.cpp:127] Top shape: 30 256 28 28 (6021120)
I0703 20:01:39.476750 21340 net.cpp:127] Top shape: 30 256 28 28 (6021120)
I0703 20:01:39.476755 21340 layer_factory.hpp:74] Creating layer inception_3b/1x1
I0703 20:01:39.476763 21340 net.cpp:90] Creating Layer inception_3b/1x1
I0703 20:01:39.476766 21340 net.cpp:410] inception_3b/1x1 <- inception_3a/output_inception_3a/output_0_split_0
I0703 20:01:39.476773 21340 net.cpp:368] inception_3b/1x1 -> inception_3b/1x1
I0703 20:01:39.476779 21340 net.cpp:120] Setting up inception_3b/1x1
I0703 20:01:39.477134 21340 net.cpp:127] Top shape: 30 128 28 28 (3010560)
I0703 20:01:39.477146 21340 layer_factory.hpp:74] Creating layer inception_3b/relu_1x1
I0703 20:01:39.477154 21340 net.cpp:90] Creating Layer inception_3b/relu_1x1
I0703 20:01:39.477159 21340 net.cpp:410] inception_3b/relu_1x1 <- inception_3b/1x1
I0703 20:01:39.477164 21340 net.cpp:357] inception_3b/relu_1x1 -> inception_3b/1x1 (in-place)
I0703 20:01:39.477170 21340 net.cpp:120] Setting up inception_3b/relu_1x1
I0703 20:01:39.477211 21340 net.cpp:127] Top shape: 30 128 28 28 (3010560)
I0703 20:01:39.477217 21340 layer_factory.hpp:74] Creating layer inception_3b/3x3_reduce
I0703 20:01:39.477226 21340 net.cpp:90] Creating Layer inception_3b/3x3_reduce
I0703 20:01:39.477231 21340 net.cpp:410] inception_3b/3x3_reduce <- inception_3a/output_inception_3a/output_0_split_1
I0703 20:01:39.477236 21340 net.cpp:368] inception_3b/3x3_reduce -> inception_3b/3x3_reduce
I0703 20:01:39.477243 21340 net.cpp:120] Setting up inception_3b/3x3_reduce
I0703 20:01:39.477593 21340 net.cpp:127] Top shape: 30 128 28 28 (3010560)
I0703 20:01:39.477604 21340 layer_factory.hpp:74] Creating layer inception_3b/relu_3x3_reduce
I0703 20:01:39.477612 21340 net.cpp:90] Creating Layer inception_3b/relu_3x3_reduce
I0703 20:01:39.477617 21340 net.cpp:410] inception_3b/relu_3x3_reduce <- inception_3b/3x3_reduce
I0703 20:01:39.477622 21340 net.cpp:357] inception_3b/relu_3x3_reduce -> inception_3b/3x3_reduce (in-place)
I0703 20:01:39.477629 21340 net.cpp:120] Setting up inception_3b/relu_3x3_reduce
I0703 20:01:39.477732 21340 net.cpp:127] Top shape: 30 128 28 28 (3010560)
I0703 20:01:39.477741 21340 layer_factory.hpp:74] Creating layer inception_3b/3x3
I0703 20:01:39.477751 21340 net.cpp:90] Creating Layer inception_3b/3x3
I0703 20:01:39.477762 21340 net.cpp:410] inception_3b/3x3 <- inception_3b/3x3_reduce
I0703 20:01:39.477771 21340 net.cpp:368] inception_3b/3x3 -> inception_3b/3x3
I0703 20:01:39.477777 21340 net.cpp:120] Setting up inception_3b/3x3
I0703 20:01:39.479048 21340 net.cpp:127] Top shape: 30 192 28 28 (4515840)
I0703 20:01:39.479060 21340 layer_factory.hpp:74] Creating layer inception_3b/relu_3x3
I0703 20:01:39.479068 21340 net.cpp:90] Creating Layer inception_3b/relu_3x3
I0703 20:01:39.479073 21340 net.cpp:410] inception_3b/relu_3x3 <- inception_3b/3x3
I0703 20:01:39.479077 21340 net.cpp:357] inception_3b/relu_3x3 -> inception_3b/3x3 (in-place)
I0703 20:01:39.479084 21340 net.cpp:120] Setting up inception_3b/relu_3x3
I0703 20:01:39.479122 21340 net.cpp:127] Top shape: 30 192 28 28 (4515840)
I0703 20:01:39.479130 21340 layer_factory.hpp:74] Creating layer inception_3b/5x5_reduce
I0703 20:01:39.479136 21340 net.cpp:90] Creating Layer inception_3b/5x5_reduce
I0703 20:01:39.479141 21340 net.cpp:410] inception_3b/5x5_reduce <- inception_3a/output_inception_3a/output_0_split_2
I0703 20:01:39.479147 21340 net.cpp:368] inception_3b/5x5_reduce -> inception_3b/5x5_reduce
I0703 20:01:39.479154 21340 net.cpp:120] Setting up inception_3b/5x5_reduce
I0703 20:01:39.479400 21340 net.cpp:127] Top shape: 30 32 28 28 (752640)
I0703 20:01:39.479413 21340 layer_factory.hpp:74] Creating layer inception_3b/relu_5x5_reduce
I0703 20:01:39.479419 21340 net.cpp:90] Creating Layer inception_3b/relu_5x5_reduce
I0703 20:01:39.479424 21340 net.cpp:410] inception_3b/relu_5x5_reduce <- inception_3b/5x5_reduce
I0703 20:01:39.479429 21340 net.cpp:357] inception_3b/relu_5x5_reduce -> inception_3b/5x5_reduce (in-place)
I0703 20:01:39.479436 21340 net.cpp:120] Setting up inception_3b/relu_5x5_reduce
I0703 20:01:39.479475 21340 net.cpp:127] Top shape: 30 32 28 28 (752640)
I0703 20:01:39.479481 21340 layer_factory.hpp:74] Creating layer inception_3b/5x5
I0703 20:01:39.479488 21340 net.cpp:90] Creating Layer inception_3b/5x5
I0703 20:01:39.479493 21340 net.cpp:410] inception_3b/5x5 <- inception_3b/5x5_reduce
I0703 20:01:39.479501 21340 net.cpp:368] inception_3b/5x5 -> inception_3b/5x5
I0703 20:01:39.479508 21340 net.cpp:120] Setting up inception_3b/5x5
I0703 20:01:39.480075 21340 net.cpp:127] Top shape: 30 96 28 28 (2257920)
I0703 20:01:39.480087 21340 layer_factory.hpp:74] Creating layer inception_3b/relu_5x5
I0703 20:01:39.480094 21340 net.cpp:90] Creating Layer inception_3b/relu_5x5
I0703 20:01:39.480099 21340 net.cpp:410] inception_3b/relu_5x5 <- inception_3b/5x5
I0703 20:01:39.480104 21340 net.cpp:357] inception_3b/relu_5x5 -> inception_3b/5x5 (in-place)
I0703 20:01:39.480110 21340 net.cpp:120] Setting up inception_3b/relu_5x5
I0703 20:01:39.480149 21340 net.cpp:127] Top shape: 30 96 28 28 (2257920)
I0703 20:01:39.480155 21340 layer_factory.hpp:74] Creating layer inception_3b/pool
I0703 20:01:39.480160 21340 layer_factory.cpp:55] CUDNN does not support padding or multiple tops. Using Caffe's own pooling layer.
I0703 20:01:39.480166 21340 net.cpp:90] Creating Layer inception_3b/pool
I0703 20:01:39.480170 21340 net.cpp:410] inception_3b/pool <- inception_3a/output_inception_3a/output_0_split_3
I0703 20:01:39.480176 21340 net.cpp:368] inception_3b/pool -> inception_3b/pool
I0703 20:01:39.480183 21340 net.cpp:120] Setting up inception_3b/pool
I0703 20:01:39.480190 21340 net.cpp:127] Top shape: 30 256 28 28 (6021120)
I0703 20:01:39.480195 21340 layer_factory.hpp:74] Creating layer inception_3b/pool_proj
I0703 20:01:39.480201 21340 net.cpp:90] Creating Layer inception_3b/pool_proj
I0703 20:01:39.480206 21340 net.cpp:410] inception_3b/pool_proj <- inception_3b/pool
I0703 20:01:39.480212 21340 net.cpp:368] inception_3b/pool_proj -> inception_3b/pool_proj
I0703 20:01:39.480218 21340 net.cpp:120] Setting up inception_3b/pool_proj
I0703 20:01:39.480492 21340 net.cpp:127] Top shape: 30 64 28 28 (1505280)
I0703 20:01:39.480504 21340 layer_factory.hpp:74] Creating layer inception_3b/relu_pool_proj
I0703 20:01:39.480510 21340 net.cpp:90] Creating Layer inception_3b/relu_pool_proj
I0703 20:01:39.480522 21340 net.cpp:410] inception_3b/relu_pool_proj <- inception_3b/pool_proj
I0703 20:01:39.480528 21340 net.cpp:357] inception_3b/relu_pool_proj -> inception_3b/pool_proj (in-place)
I0703 20:01:39.480535 21340 net.cpp:120] Setting up inception_3b/relu_pool_proj
I0703 20:01:39.480643 21340 net.cpp:127] Top shape: 30 64 28 28 (1505280)
I0703 20:01:39.480651 21340 layer_factory.hpp:74] Creating layer inception_3b/output
I0703 20:01:39.480657 21340 net.cpp:90] Creating Layer inception_3b/output
I0703 20:01:39.480662 21340 net.cpp:410] inception_3b/output <- inception_3b/1x1
I0703 20:01:39.480667 21340 net.cpp:410] inception_3b/output <- inception_3b/3x3
I0703 20:01:39.480672 21340 net.cpp:410] inception_3b/output <- inception_3b/5x5
I0703 20:01:39.480677 21340 net.cpp:410] inception_3b/output <- inception_3b/pool_proj
I0703 20:01:39.480684 21340 net.cpp:368] inception_3b/output -> inception_3b/output
I0703 20:01:39.480690 21340 net.cpp:120] Setting up inception_3b/output
I0703 20:01:39.480696 21340 net.cpp:127] Top shape: 30 480 28 28 (11289600)
I0703 20:01:39.480700 21340 layer_factory.hpp:74] Creating layer pool3/3x3_s2
I0703 20:01:39.480707 21340 net.cpp:90] Creating Layer pool3/3x3_s2
I0703 20:01:39.480711 21340 net.cpp:410] pool3/3x3_s2 <- inception_3b/output
I0703 20:01:39.480717 21340 net.cpp:368] pool3/3x3_s2 -> pool3/3x3_s2
I0703 20:01:39.480723 21340 net.cpp:120] Setting up pool3/3x3_s2
I0703 20:01:39.480763 21340 net.cpp:127] Top shape: 30 480 14 14 (2822400)
I0703 20:01:39.480769 21340 layer_factory.hpp:74] Creating layer pool3/3x3_s2_pool3/3x3_s2_0_split
I0703 20:01:39.480777 21340 net.cpp:90] Creating Layer pool3/3x3_s2_pool3/3x3_s2_0_split
I0703 20:01:39.480782 21340 net.cpp:410] pool3/3x3_s2_pool3/3x3_s2_0_split <- pool3/3x3_s2
I0703 20:01:39.480787 21340 net.cpp:368] pool3/3x3_s2_pool3/3x3_s2_0_split -> pool3/3x3_s2_pool3/3x3_s2_0_split_0
I0703 20:01:39.480793 21340 net.cpp:368] pool3/3x3_s2_pool3/3x3_s2_0_split -> pool3/3x3_s2_pool3/3x3_s2_0_split_1
I0703 20:01:39.480799 21340 net.cpp:368] pool3/3x3_s2_pool3/3x3_s2_0_split -> pool3/3x3_s2_pool3/3x3_s2_0_split_2
I0703 20:01:39.480805 21340 net.cpp:368] pool3/3x3_s2_pool3/3x3_s2_0_split -> pool3/3x3_s2_pool3/3x3_s2_0_split_3
I0703 20:01:39.480811 21340 net.cpp:120] Setting up pool3/3x3_s2_pool3/3x3_s2_0_split
I0703 20:01:39.480818 21340 net.cpp:127] Top shape: 30 480 14 14 (2822400)
I0703 20:01:39.480823 21340 net.cpp:127] Top shape: 30 480 14 14 (2822400)
I0703 20:01:39.480826 21340 net.cpp:127] Top shape: 30 480 14 14 (2822400)
I0703 20:01:39.480831 21340 net.cpp:127] Top shape: 30 480 14 14 (2822400)
I0703 20:01:39.480835 21340 layer_factory.hpp:74] Creating layer inception_4a/1x1
I0703 20:01:39.480844 21340 net.cpp:90] Creating Layer inception_4a/1x1
I0703 20:01:39.480847 21340 net.cpp:410] inception_4a/1x1 <- pool3/3x3_s2_pool3/3x3_s2_0_split_0
I0703 20:01:39.480854 21340 net.cpp:368] inception_4a/1x1 -> inception_4a/1x1
I0703 20:01:39.480860 21340 net.cpp:120] Setting up inception_4a/1x1
I0703 20:01:39.481503 21340 net.cpp:127] Top shape: 30 192 14 14 (1128960)
I0703 20:01:39.481516 21340 layer_factory.hpp:74] Creating layer inception_4a/relu_1x1
I0703 20:01:39.481523 21340 net.cpp:90] Creating Layer inception_4a/relu_1x1
I0703 20:01:39.481528 21340 net.cpp:410] inception_4a/relu_1x1 <- inception_4a/1x1
I0703 20:01:39.481534 21340 net.cpp:357] inception_4a/relu_1x1 -> inception_4a/1x1 (in-place)
I0703 20:01:39.481539 21340 net.cpp:120] Setting up inception_4a/relu_1x1
I0703 20:01:39.481578 21340 net.cpp:127] Top shape: 30 192 14 14 (1128960)
I0703 20:01:39.481585 21340 layer_factory.hpp:74] Creating layer inception_4a/3x3_reduce
I0703 20:01:39.481592 21340 net.cpp:90] Creating Layer inception_4a/3x3_reduce
I0703 20:01:39.481597 21340 net.cpp:410] inception_4a/3x3_reduce <- pool3/3x3_s2_pool3/3x3_s2_0_split_1
I0703 20:01:39.481605 21340 net.cpp:368] inception_4a/3x3_reduce -> inception_4a/3x3_reduce
I0703 20:01:39.481611 21340 net.cpp:120] Setting up inception_4a/3x3_reduce
I0703 20:01:39.482028 21340 net.cpp:127] Top shape: 30 96 14 14 (564480)
I0703 20:01:39.482048 21340 layer_factory.hpp:74] Creating layer inception_4a/relu_3x3_reduce
I0703 20:01:39.482056 21340 net.cpp:90] Creating Layer inception_4a/relu_3x3_reduce
I0703 20:01:39.482061 21340 net.cpp:410] inception_4a/relu_3x3_reduce <- inception_4a/3x3_reduce
I0703 20:01:39.482067 21340 net.cpp:357] inception_4a/relu_3x3_reduce -> inception_4a/3x3_reduce (in-place)
I0703 20:01:39.482074 21340 net.cpp:120] Setting up inception_4a/relu_3x3_reduce
I0703 20:01:39.482113 21340 net.cpp:127] Top shape: 30 96 14 14 (564480)
I0703 20:01:39.482120 21340 layer_factory.hpp:74] Creating layer inception_4a/3x3
I0703 20:01:39.482127 21340 net.cpp:90] Creating Layer inception_4a/3x3
I0703 20:01:39.482132 21340 net.cpp:410] inception_4a/3x3 <- inception_4a/3x3_reduce
I0703 20:01:39.482138 21340 net.cpp:368] inception_4a/3x3 -> inception_4a/3x3
I0703 20:01:39.482144 21340 net.cpp:120] Setting up inception_4a/3x3
I0703 20:01:39.483207 21340 net.cpp:127] Top shape: 30 208 14 14 (1223040)
I0703 20:01:39.483219 21340 layer_factory.hpp:74] Creating layer inception_4a/relu_3x3
I0703 20:01:39.483227 21340 net.cpp:90] Creating Layer inception_4a/relu_3x3
I0703 20:01:39.483232 21340 net.cpp:410] inception_4a/relu_3x3 <- inception_4a/3x3
I0703 20:01:39.483237 21340 net.cpp:357] inception_4a/relu_3x3 -> inception_4a/3x3 (in-place)
I0703 20:01:39.483243 21340 net.cpp:120] Setting up inception_4a/relu_3x3
I0703 20:01:39.483356 21340 net.cpp:127] Top shape: 30 208 14 14 (1223040)
I0703 20:01:39.483366 21340 layer_factory.hpp:74] Creating layer inception_4a/5x5_reduce
I0703 20:01:39.483373 21340 net.cpp:90] Creating Layer inception_4a/5x5_reduce
I0703 20:01:39.483379 21340 net.cpp:410] inception_4a/5x5_reduce <- pool3/3x3_s2_pool3/3x3_s2_0_split_2
I0703 20:01:39.483386 21340 net.cpp:368] inception_4a/5x5_reduce -> inception_4a/5x5_reduce
I0703 20:01:39.483392 21340 net.cpp:120] Setting up inception_4a/5x5_reduce
I0703 20:01:39.483623 21340 net.cpp:127] Top shape: 30 16 14 14 (94080)
I0703 20:01:39.483634 21340 layer_factory.hpp:74] Creating layer inception_4a/relu_5x5_reduce
I0703 20:01:39.483641 21340 net.cpp:90] Creating Layer inception_4a/relu_5x5_reduce
I0703 20:01:39.483646 21340 net.cpp:410] inception_4a/relu_5x5_reduce <- inception_4a/5x5_reduce
I0703 20:01:39.483651 21340 net.cpp:357] inception_4a/relu_5x5_reduce -> inception_4a/5x5_reduce (in-place)
I0703 20:01:39.483657 21340 net.cpp:120] Setting up inception_4a/relu_5x5_reduce
I0703 20:01:39.483696 21340 net.cpp:127] Top shape: 30 16 14 14 (94080)
I0703 20:01:39.483703 21340 layer_factory.hpp:74] Creating layer inception_4a/5x5
I0703 20:01:39.483711 21340 net.cpp:90] Creating Layer inception_4a/5x5
I0703 20:01:39.483716 21340 net.cpp:410] inception_4a/5x5 <- inception_4a/5x5_reduce
I0703 20:01:39.483721 21340 net.cpp:368] inception_4a/5x5 -> inception_4a/5x5
I0703 20:01:39.483728 21340 net.cpp:120] Setting up inception_4a/5x5
I0703 20:01:39.484016 21340 net.cpp:127] Top shape: 30 48 14 14 (282240)
I0703 20:01:39.484028 21340 layer_factory.hpp:74] Creating layer inception_4a/relu_5x5
I0703 20:01:39.484036 21340 net.cpp:90] Creating Layer inception_4a/relu_5x5
I0703 20:01:39.484041 21340 net.cpp:410] inception_4a/relu_5x5 <- inception_4a/5x5
I0703 20:01:39.484046 21340 net.cpp:357] inception_4a/relu_5x5 -> inception_4a/5x5 (in-place)
I0703 20:01:39.484052 21340 net.cpp:120] Setting up inception_4a/relu_5x5
I0703 20:01:39.484092 21340 net.cpp:127] Top shape: 30 48 14 14 (282240)
I0703 20:01:39.484099 21340 layer_factory.hpp:74] Creating layer inception_4a/pool
I0703 20:01:39.484104 21340 layer_factory.cpp:55] CUDNN does not support padding or multiple tops. Using Caffe's own pooling layer.
I0703 20:01:39.484110 21340 net.cpp:90] Creating Layer inception_4a/pool
I0703 20:01:39.484115 21340 net.cpp:410] inception_4a/pool <- pool3/3x3_s2_pool3/3x3_s2_0_split_3
I0703 20:01:39.484120 21340 net.cpp:368] inception_4a/pool -> inception_4a/pool
I0703 20:01:39.484127 21340 net.cpp:120] Setting up inception_4a/pool
I0703 20:01:39.484133 21340 net.cpp:127] Top shape: 30 480 14 14 (2822400)
I0703 20:01:39.484145 21340 layer_factory.hpp:74] Creating layer inception_4a/pool_proj
I0703 20:01:39.484153 21340 net.cpp:90] Creating Layer inception_4a/pool_proj
I0703 20:01:39.484156 21340 net.cpp:410] inception_4a/pool_proj <- inception_4a/pool
I0703 20:01:39.484163 21340 net.cpp:368] inception_4a/pool_proj -> inception_4a/pool_proj
I0703 20:01:39.484170 21340 net.cpp:120] Setting up inception_4a/pool_proj
I0703 20:01:39.484516 21340 net.cpp:127] Top shape: 30 64 14 14 (376320)
I0703 20:01:39.484529 21340 layer_factory.hpp:74] Creating layer inception_4a/relu_pool_proj
I0703 20:01:39.484535 21340 net.cpp:90] Creating Layer inception_4a/relu_pool_proj
I0703 20:01:39.484540 21340 net.cpp:410] inception_4a/relu_pool_proj <- inception_4a/pool_proj
I0703 20:01:39.484546 21340 net.cpp:357] inception_4a/relu_pool_proj -> inception_4a/pool_proj (in-place)
I0703 20:01:39.484552 21340 net.cpp:120] Setting up inception_4a/relu_pool_proj
I0703 20:01:39.484658 21340 net.cpp:127] Top shape: 30 64 14 14 (376320)
I0703 20:01:39.484668 21340 layer_factory.hpp:74] Creating layer inception_4a/output
I0703 20:01:39.484673 21340 net.cpp:90] Creating Layer inception_4a/output
I0703 20:01:39.484678 21340 net.cpp:410] inception_4a/output <- inception_4a/1x1
I0703 20:01:39.484683 21340 net.cpp:410] inception_4a/output <- inception_4a/3x3
I0703 20:01:39.484688 21340 net.cpp:410] inception_4a/output <- inception_4a/5x5
I0703 20:01:39.484694 21340 net.cpp:410] inception_4a/output <- inception_4a/pool_proj
I0703 20:01:39.484699 21340 net.cpp:368] inception_4a/output -> inception_4a/output
I0703 20:01:39.484704 21340 net.cpp:120] Setting up inception_4a/output
I0703 20:01:39.484711 21340 net.cpp:127] Top shape: 30 512 14 14 (3010560)
I0703 20:01:39.484715 21340 layer_factory.hpp:74] Creating layer inception_4a/output_inception_4a/output_0_split
I0703 20:01:39.484721 21340 net.cpp:90] Creating Layer inception_4a/output_inception_4a/output_0_split
I0703 20:01:39.484726 21340 net.cpp:410] inception_4a/output_inception_4a/output_0_split <- inception_4a/output
I0703 20:01:39.484732 21340 net.cpp:368] inception_4a/output_inception_4a/output_0_split -> inception_4a/output_inception_4a/output_0_split_0
I0703 20:01:39.484740 21340 net.cpp:368] inception_4a/output_inception_4a/output_0_split -> inception_4a/output_inception_4a/output_0_split_1
I0703 20:01:39.484745 21340 net.cpp:368] inception_4a/output_inception_4a/output_0_split -> inception_4a/output_inception_4a/output_0_split_2
I0703 20:01:39.484751 21340 net.cpp:368] inception_4a/output_inception_4a/output_0_split -> inception_4a/output_inception_4a/output_0_split_3
I0703 20:01:39.484758 21340 net.cpp:368] inception_4a/output_inception_4a/output_0_split -> inception_4a/output_inception_4a/output_0_split_4
I0703 20:01:39.484765 21340 net.cpp:120] Setting up inception_4a/output_inception_4a/output_0_split
I0703 20:01:39.484771 21340 net.cpp:127] Top shape: 30 512 14 14 (3010560)
I0703 20:01:39.484776 21340 net.cpp:127] Top shape: 30 512 14 14 (3010560)
I0703 20:01:39.484781 21340 net.cpp:127] Top shape: 30 512 14 14 (3010560)
I0703 20:01:39.484786 21340 net.cpp:127] Top shape: 30 512 14 14 (3010560)
I0703 20:01:39.484789 21340 net.cpp:127] Top shape: 30 512 14 14 (3010560)
I0703 20:01:39.484794 21340 layer_factory.hpp:74] Creating layer loss1/ave_pool
I0703 20:01:39.484799 21340 net.cpp:90] Creating Layer loss1/ave_pool
I0703 20:01:39.484803 21340 net.cpp:410] loss1/ave_pool <- inception_4a/output_inception_4a/output_0_split_0
I0703 20:01:39.484809 21340 net.cpp:368] loss1/ave_pool -> loss1/ave_pool
I0703 20:01:39.484815 21340 net.cpp:120] Setting up loss1/ave_pool
I0703 20:01:39.484855 21340 net.cpp:127] Top shape: 30 512 4 4 (245760)
I0703 20:01:39.484863 21340 layer_factory.hpp:74] Creating layer loss1/conv
I0703 20:01:39.484869 21340 net.cpp:90] Creating Layer loss1/conv
I0703 20:01:39.484874 21340 net.cpp:410] loss1/conv <- loss1/ave_pool
I0703 20:01:39.484880 21340 net.cpp:368] loss1/conv -> loss1/conv
I0703 20:01:39.484887 21340 net.cpp:120] Setting up loss1/conv
I0703 20:01:39.485400 21340 net.cpp:127] Top shape: 30 128 4 4 (61440)
I0703 20:01:39.485419 21340 layer_factory.hpp:74] Creating layer loss1/relu_conv
I0703 20:01:39.485425 21340 net.cpp:90] Creating Layer loss1/relu_conv
I0703 20:01:39.485430 21340 net.cpp:410] loss1/relu_conv <- loss1/conv
I0703 20:01:39.485436 21340 net.cpp:357] loss1/relu_conv -> loss1/conv (in-place)
I0703 20:01:39.485442 21340 net.cpp:120] Setting up loss1/relu_conv
I0703 20:01:39.485484 21340 net.cpp:127] Top shape: 30 128 4 4 (61440)
I0703 20:01:39.485491 21340 layer_factory.hpp:74] Creating layer loss1/fc
I0703 20:01:39.485499 21340 net.cpp:90] Creating Layer loss1/fc
I0703 20:01:39.485504 21340 net.cpp:410] loss1/fc <- loss1/conv
I0703 20:01:39.485512 21340 net.cpp:368] loss1/fc -> loss1/fc
I0703 20:01:39.485519 21340 net.cpp:120] Setting up loss1/fc
I0703 20:01:39.495869 21340 net.cpp:127] Top shape: 30 1024 (30720)
I0703 20:01:39.495906 21340 layer_factory.hpp:74] Creating layer loss1/relu_fc
I0703 20:01:39.495918 21340 net.cpp:90] Creating Layer loss1/relu_fc
I0703 20:01:39.495925 21340 net.cpp:410] loss1/relu_fc <- loss1/fc
I0703 20:01:39.495932 21340 net.cpp:357] loss1/relu_fc -> loss1/fc (in-place)
I0703 20:01:39.495939 21340 net.cpp:120] Setting up loss1/relu_fc
I0703 20:01:39.496023 21340 net.cpp:127] Top shape: 30 1024 (30720)
I0703 20:01:39.496031 21340 layer_factory.hpp:74] Creating layer loss1/drop_fc
I0703 20:01:39.496057 21340 net.cpp:90] Creating Layer loss1/drop_fc
I0703 20:01:39.496062 21340 net.cpp:410] loss1/drop_fc <- loss1/fc
I0703 20:01:39.496068 21340 net.cpp:357] loss1/drop_fc -> loss1/fc (in-place)
I0703 20:01:39.496075 21340 net.cpp:120] Setting up loss1/drop_fc
I0703 20:01:39.496084 21340 net.cpp:127] Top shape: 30 1024 (30720)
I0703 20:01:39.496089 21340 layer_factory.hpp:74] Creating layer stanford_cars_loss1/classifier
I0703 20:01:39.496100 21340 net.cpp:90] Creating Layer stanford_cars_loss1/classifier
I0703 20:01:39.496107 21340 net.cpp:410] stanford_cars_loss1/classifier <- loss1/fc
I0703 20:01:39.496114 21340 net.cpp:368] stanford_cars_loss1/classifier -> stanford_cars_loss1/classifier
I0703 20:01:39.496121 21340 net.cpp:120] Setting up stanford_cars_loss1/classifier
I0703 20:01:39.497115 21340 net.cpp:127] Top shape: 30 196 (5880)
I0703 20:01:39.497134 21340 layer_factory.hpp:74] Creating layer loss1/loss
I0703 20:01:39.497144 21340 net.cpp:90] Creating Layer loss1/loss
I0703 20:01:39.497149 21340 net.cpp:410] loss1/loss <- stanford_cars_loss1/classifier
I0703 20:01:39.497154 21340 net.cpp:410] loss1/loss <- label_data_1_split_0
I0703 20:01:39.497160 21340 net.cpp:368] loss1/loss -> loss1/loss1
I0703 20:01:39.497167 21340 net.cpp:120] Setting up loss1/loss
I0703 20:01:39.497174 21340 layer_factory.hpp:74] Creating layer loss1/loss
I0703 20:01:39.497360 21340 net.cpp:127] Top shape: (1)
I0703 20:01:39.497370 21340 net.cpp:129]     with loss weight 0.3
I0703 20:01:39.497400 21340 layer_factory.hpp:74] Creating layer inception_4b/1x1
I0703 20:01:39.497409 21340 net.cpp:90] Creating Layer inception_4b/1x1
I0703 20:01:39.497416 21340 net.cpp:410] inception_4b/1x1 <- inception_4a/output_inception_4a/output_0_split_1
I0703 20:01:39.497421 21340 net.cpp:368] inception_4b/1x1 -> inception_4b/1x1
I0703 20:01:39.497428 21340 net.cpp:120] Setting up inception_4b/1x1
I0703 20:01:39.498045 21340 net.cpp:127] Top shape: 30 160 14 14 (940800)
I0703 20:01:39.498069 21340 layer_factory.hpp:74] Creating layer inception_4b/relu_1x1
I0703 20:01:39.498075 21340 net.cpp:90] Creating Layer inception_4b/relu_1x1
I0703 20:01:39.498080 21340 net.cpp:410] inception_4b/relu_1x1 <- inception_4b/1x1
I0703 20:01:39.498087 21340 net.cpp:357] inception_4b/relu_1x1 -> inception_4b/1x1 (in-place)
I0703 20:01:39.498095 21340 net.cpp:120] Setting up inception_4b/relu_1x1
I0703 20:01:39.498145 21340 net.cpp:127] Top shape: 30 160 14 14 (940800)
I0703 20:01:39.498152 21340 layer_factory.hpp:74] Creating layer inception_4b/3x3_reduce
I0703 20:01:39.498168 21340 net.cpp:90] Creating Layer inception_4b/3x3_reduce
I0703 20:01:39.498173 21340 net.cpp:410] inception_4b/3x3_reduce <- inception_4a/output_inception_4a/output_0_split_2
I0703 20:01:39.498198 21340 net.cpp:368] inception_4b/3x3_reduce -> inception_4b/3x3_reduce
I0703 20:01:39.498205 21340 net.cpp:120] Setting up inception_4b/3x3_reduce
I0703 20:01:39.498693 21340 net.cpp:127] Top shape: 30 112 14 14 (658560)
I0703 20:01:39.498715 21340 layer_factory.hpp:74] Creating layer inception_4b/relu_3x3_reduce
I0703 20:01:39.498721 21340 net.cpp:90] Creating Layer inception_4b/relu_3x3_reduce
I0703 20:01:39.498728 21340 net.cpp:410] inception_4b/relu_3x3_reduce <- inception_4b/3x3_reduce
I0703 20:01:39.498733 21340 net.cpp:357] inception_4b/relu_3x3_reduce -> inception_4b/3x3_reduce (in-place)
I0703 20:01:39.498739 21340 net.cpp:120] Setting up inception_4b/relu_3x3_reduce
I0703 20:01:39.498788 21340 net.cpp:127] Top shape: 30 112 14 14 (658560)
I0703 20:01:39.498795 21340 layer_factory.hpp:74] Creating layer inception_4b/3x3
I0703 20:01:39.498811 21340 net.cpp:90] Creating Layer inception_4b/3x3
I0703 20:01:39.498816 21340 net.cpp:410] inception_4b/3x3 <- inception_4b/3x3_reduce
I0703 20:01:39.498823 21340 net.cpp:368] inception_4b/3x3 -> inception_4b/3x3
I0703 20:01:39.498831 21340 net.cpp:120] Setting up inception_4b/3x3
I0703 20:01:39.500159 21340 net.cpp:127] Top shape: 30 224 14 14 (1317120)
I0703 20:01:39.500172 21340 layer_factory.hpp:74] Creating layer inception_4b/relu_3x3
I0703 20:01:39.500180 21340 net.cpp:90] Creating Layer inception_4b/relu_3x3
I0703 20:01:39.500185 21340 net.cpp:410] inception_4b/relu_3x3 <- inception_4b/3x3
I0703 20:01:39.500190 21340 net.cpp:357] inception_4b/relu_3x3 -> inception_4b/3x3 (in-place)
I0703 20:01:39.500196 21340 net.cpp:120] Setting up inception_4b/relu_3x3
I0703 20:01:39.500236 21340 net.cpp:127] Top shape: 30 224 14 14 (1317120)
I0703 20:01:39.500243 21340 layer_factory.hpp:74] Creating layer inception_4b/5x5_reduce
I0703 20:01:39.500252 21340 net.cpp:90] Creating Layer inception_4b/5x5_reduce
I0703 20:01:39.500257 21340 net.cpp:410] inception_4b/5x5_reduce <- inception_4a/output_inception_4a/output_0_split_3
I0703 20:01:39.500262 21340 net.cpp:368] inception_4b/5x5_reduce -> inception_4b/5x5_reduce
I0703 20:01:39.500269 21340 net.cpp:120] Setting up inception_4b/5x5_reduce
I0703 20:01:39.500535 21340 net.cpp:127] Top shape: 30 24 14 14 (141120)
I0703 20:01:39.500546 21340 layer_factory.hpp:74] Creating layer inception_4b/relu_5x5_reduce
I0703 20:01:39.500552 21340 net.cpp:90] Creating Layer inception_4b/relu_5x5_reduce
I0703 20:01:39.500558 21340 net.cpp:410] inception_4b/relu_5x5_reduce <- inception_4b/5x5_reduce
I0703 20:01:39.500565 21340 net.cpp:357] inception_4b/relu_5x5_reduce -> inception_4b/5x5_reduce (in-place)
I0703 20:01:39.500571 21340 net.cpp:120] Setting up inception_4b/relu_5x5_reduce
I0703 20:01:39.500679 21340 net.cpp:127] Top shape: 30 24 14 14 (141120)
I0703 20:01:39.500689 21340 layer_factory.hpp:74] Creating layer inception_4b/5x5
I0703 20:01:39.500696 21340 net.cpp:90] Creating Layer inception_4b/5x5
I0703 20:01:39.500701 21340 net.cpp:410] inception_4b/5x5 <- inception_4b/5x5_reduce
I0703 20:01:39.500707 21340 net.cpp:368] inception_4b/5x5 -> inception_4b/5x5
I0703 20:01:39.500715 21340 net.cpp:120] Setting up inception_4b/5x5
I0703 20:01:39.501101 21340 net.cpp:127] Top shape: 30 64 14 14 (376320)
I0703 20:01:39.501112 21340 layer_factory.hpp:74] Creating layer inception_4b/relu_5x5
I0703 20:01:39.501119 21340 net.cpp:90] Creating Layer inception_4b/relu_5x5
I0703 20:01:39.501124 21340 net.cpp:410] inception_4b/relu_5x5 <- inception_4b/5x5
I0703 20:01:39.501130 21340 net.cpp:357] inception_4b/relu_5x5 -> inception_4b/5x5 (in-place)
I0703 20:01:39.501137 21340 net.cpp:120] Setting up inception_4b/relu_5x5
I0703 20:01:39.501175 21340 net.cpp:127] Top shape: 30 64 14 14 (376320)
I0703 20:01:39.501183 21340 layer_factory.hpp:74] Creating layer inception_4b/pool
I0703 20:01:39.501188 21340 layer_factory.cpp:55] CUDNN does not support padding or multiple tops. Using Caffe's own pooling layer.
I0703 20:01:39.501194 21340 net.cpp:90] Creating Layer inception_4b/pool
I0703 20:01:39.501204 21340 net.cpp:410] inception_4b/pool <- inception_4a/output_inception_4a/output_0_split_4
I0703 20:01:39.501212 21340 net.cpp:368] inception_4b/pool -> inception_4b/pool
I0703 20:01:39.501224 21340 net.cpp:120] Setting up inception_4b/pool
I0703 20:01:39.501233 21340 net.cpp:127] Top shape: 30 512 14 14 (3010560)
I0703 20:01:39.501240 21340 layer_factory.hpp:74] Creating layer inception_4b/pool_proj
I0703 20:01:39.501246 21340 net.cpp:90] Creating Layer inception_4b/pool_proj
I0703 20:01:39.501251 21340 net.cpp:410] inception_4b/pool_proj <- inception_4b/pool
I0703 20:01:39.501257 21340 net.cpp:368] inception_4b/pool_proj -> inception_4b/pool_proj
I0703 20:01:39.501265 21340 net.cpp:120] Setting up inception_4b/pool_proj
I0703 20:01:39.501621 21340 net.cpp:127] Top shape: 30 64 14 14 (376320)
I0703 20:01:39.501633 21340 layer_factory.hpp:74] Creating layer inception_4b/relu_pool_proj
I0703 20:01:39.501639 21340 net.cpp:90] Creating Layer inception_4b/relu_pool_proj
I0703 20:01:39.501644 21340 net.cpp:410] inception_4b/relu_pool_proj <- inception_4b/pool_proj
I0703 20:01:39.501651 21340 net.cpp:357] inception_4b/relu_pool_proj -> inception_4b/pool_proj (in-place)
I0703 20:01:39.501657 21340 net.cpp:120] Setting up inception_4b/relu_pool_proj
I0703 20:01:39.501696 21340 net.cpp:127] Top shape: 30 64 14 14 (376320)
I0703 20:01:39.501703 21340 layer_factory.hpp:74] Creating layer inception_4b/output
I0703 20:01:39.501709 21340 net.cpp:90] Creating Layer inception_4b/output
I0703 20:01:39.501714 21340 net.cpp:410] inception_4b/output <- inception_4b/1x1
I0703 20:01:39.501719 21340 net.cpp:410] inception_4b/output <- inception_4b/3x3
I0703 20:01:39.501724 21340 net.cpp:410] inception_4b/output <- inception_4b/5x5
I0703 20:01:39.501729 21340 net.cpp:410] inception_4b/output <- inception_4b/pool_proj
I0703 20:01:39.501734 21340 net.cpp:368] inception_4b/output -> inception_4b/output
I0703 20:01:39.501740 21340 net.cpp:120] Setting up inception_4b/output
I0703 20:01:39.501747 21340 net.cpp:127] Top shape: 30 512 14 14 (3010560)
I0703 20:01:39.501751 21340 layer_factory.hpp:74] Creating layer inception_4b/output_inception_4b/output_0_split
I0703 20:01:39.501757 21340 net.cpp:90] Creating Layer inception_4b/output_inception_4b/output_0_split
I0703 20:01:39.501762 21340 net.cpp:410] inception_4b/output_inception_4b/output_0_split <- inception_4b/output
I0703 20:01:39.501768 21340 net.cpp:368] inception_4b/output_inception_4b/output_0_split -> inception_4b/output_inception_4b/output_0_split_0
I0703 20:01:39.501775 21340 net.cpp:368] inception_4b/output_inception_4b/output_0_split -> inception_4b/output_inception_4b/output_0_split_1
I0703 20:01:39.501781 21340 net.cpp:368] inception_4b/output_inception_4b/output_0_split -> inception_4b/output_inception_4b/output_0_split_2
I0703 20:01:39.501787 21340 net.cpp:368] inception_4b/output_inception_4b/output_0_split -> inception_4b/output_inception_4b/output_0_split_3
I0703 20:01:39.501793 21340 net.cpp:120] Setting up inception_4b/output_inception_4b/output_0_split
I0703 20:01:39.501799 21340 net.cpp:127] Top shape: 30 512 14 14 (3010560)
I0703 20:01:39.501804 21340 net.cpp:127] Top shape: 30 512 14 14 (3010560)
I0703 20:01:39.501809 21340 net.cpp:127] Top shape: 30 512 14 14 (3010560)
I0703 20:01:39.501813 21340 net.cpp:127] Top shape: 30 512 14 14 (3010560)
I0703 20:01:39.501818 21340 layer_factory.hpp:74] Creating layer inception_4c/1x1
I0703 20:01:39.501826 21340 net.cpp:90] Creating Layer inception_4c/1x1
I0703 20:01:39.501829 21340 net.cpp:410] inception_4c/1x1 <- inception_4b/output_inception_4b/output_0_split_0
I0703 20:01:39.501835 21340 net.cpp:368] inception_4c/1x1 -> inception_4c/1x1
I0703 20:01:39.501842 21340 net.cpp:120] Setting up inception_4c/1x1
I0703 20:01:39.502360 21340 net.cpp:127] Top shape: 30 128 14 14 (752640)
I0703 20:01:39.502373 21340 layer_factory.hpp:74] Creating layer inception_4c/relu_1x1
I0703 20:01:39.502382 21340 net.cpp:90] Creating Layer inception_4c/relu_1x1
I0703 20:01:39.502388 21340 net.cpp:410] inception_4c/relu_1x1 <- inception_4c/1x1
I0703 20:01:39.502400 21340 net.cpp:357] inception_4c/relu_1x1 -> inception_4c/1x1 (in-place)
I0703 20:01:39.502406 21340 net.cpp:120] Setting up inception_4c/relu_1x1
I0703 20:01:39.502447 21340 net.cpp:127] Top shape: 30 128 14 14 (752640)
I0703 20:01:39.502454 21340 layer_factory.hpp:74] Creating layer inception_4c/3x3_reduce
I0703 20:01:39.502461 21340 net.cpp:90] Creating Layer inception_4c/3x3_reduce
I0703 20:01:39.502466 21340 net.cpp:410] inception_4c/3x3_reduce <- inception_4b/output_inception_4b/output_0_split_1
I0703 20:01:39.502473 21340 net.cpp:368] inception_4c/3x3_reduce -> inception_4c/3x3_reduce
I0703 20:01:39.502480 21340 net.cpp:120] Setting up inception_4c/3x3_reduce
I0703 20:01:39.502997 21340 net.cpp:127] Top shape: 30 128 14 14 (752640)
I0703 20:01:39.503010 21340 layer_factory.hpp:74] Creating layer inception_4c/relu_3x3_reduce
I0703 20:01:39.503017 21340 net.cpp:90] Creating Layer inception_4c/relu_3x3_reduce
I0703 20:01:39.503022 21340 net.cpp:410] inception_4c/relu_3x3_reduce <- inception_4c/3x3_reduce
I0703 20:01:39.503028 21340 net.cpp:357] inception_4c/relu_3x3_reduce -> inception_4c/3x3_reduce (in-place)
I0703 20:01:39.503034 21340 net.cpp:120] Setting up inception_4c/relu_3x3_reduce
I0703 20:01:39.503141 21340 net.cpp:127] Top shape: 30 128 14 14 (752640)
I0703 20:01:39.503151 21340 layer_factory.hpp:74] Creating layer inception_4c/3x3
I0703 20:01:39.503159 21340 net.cpp:90] Creating Layer inception_4c/3x3
I0703 20:01:39.503165 21340 net.cpp:410] inception_4c/3x3 <- inception_4c/3x3_reduce
I0703 20:01:39.503171 21340 net.cpp:368] inception_4c/3x3 -> inception_4c/3x3
I0703 20:01:39.503178 21340 net.cpp:120] Setting up inception_4c/3x3
I0703 20:01:39.504806 21340 net.cpp:127] Top shape: 30 256 14 14 (1505280)
I0703 20:01:39.504824 21340 layer_factory.hpp:74] Creating layer inception_4c/relu_3x3
I0703 20:01:39.504832 21340 net.cpp:90] Creating Layer inception_4c/relu_3x3
I0703 20:01:39.504837 21340 net.cpp:410] inception_4c/relu_3x3 <- inception_4c/3x3
I0703 20:01:39.504842 21340 net.cpp:357] inception_4c/relu_3x3 -> inception_4c/3x3 (in-place)
I0703 20:01:39.504848 21340 net.cpp:120] Setting up inception_4c/relu_3x3
I0703 20:01:39.504890 21340 net.cpp:127] Top shape: 30 256 14 14 (1505280)
I0703 20:01:39.504896 21340 layer_factory.hpp:74] Creating layer inception_4c/5x5_reduce
I0703 20:01:39.504904 21340 net.cpp:90] Creating Layer inception_4c/5x5_reduce
I0703 20:01:39.504909 21340 net.cpp:410] inception_4c/5x5_reduce <- inception_4b/output_inception_4b/output_0_split_2
I0703 20:01:39.504915 21340 net.cpp:368] inception_4c/5x5_reduce -> inception_4c/5x5_reduce
I0703 20:01:39.504922 21340 net.cpp:120] Setting up inception_4c/5x5_reduce
I0703 20:01:39.505180 21340 net.cpp:127] Top shape: 30 24 14 14 (141120)
I0703 20:01:39.505203 21340 layer_factory.hpp:74] Creating layer inception_4c/relu_5x5_reduce
I0703 20:01:39.505209 21340 net.cpp:90] Creating Layer inception_4c/relu_5x5_reduce
I0703 20:01:39.505214 21340 net.cpp:410] inception_4c/relu_5x5_reduce <- inception_4c/5x5_reduce
I0703 20:01:39.505221 21340 net.cpp:357] inception_4c/relu_5x5_reduce -> inception_4c/5x5_reduce (in-place)
I0703 20:01:39.505236 21340 net.cpp:120] Setting up inception_4c/relu_5x5_reduce
I0703 20:01:39.505276 21340 net.cpp:127] Top shape: 30 24 14 14 (141120)
I0703 20:01:39.505283 21340 layer_factory.hpp:74] Creating layer inception_4c/5x5
I0703 20:01:39.505290 21340 net.cpp:90] Creating Layer inception_4c/5x5
I0703 20:01:39.505295 21340 net.cpp:410] inception_4c/5x5 <- inception_4c/5x5_reduce
I0703 20:01:39.505301 21340 net.cpp:368] inception_4c/5x5 -> inception_4c/5x5
I0703 20:01:39.505307 21340 net.cpp:120] Setting up inception_4c/5x5
I0703 20:01:39.505694 21340 net.cpp:127] Top shape: 30 64 14 14 (376320)
I0703 20:01:39.505707 21340 layer_factory.hpp:74] Creating layer inception_4c/relu_5x5
I0703 20:01:39.505713 21340 net.cpp:90] Creating Layer inception_4c/relu_5x5
I0703 20:01:39.505718 21340 net.cpp:410] inception_4c/relu_5x5 <- inception_4c/5x5
I0703 20:01:39.505724 21340 net.cpp:357] inception_4c/relu_5x5 -> inception_4c/5x5 (in-place)
I0703 20:01:39.505738 21340 net.cpp:120] Setting up inception_4c/relu_5x5
I0703 20:01:39.505847 21340 net.cpp:127] Top shape: 30 64 14 14 (376320)
I0703 20:01:39.505856 21340 layer_factory.hpp:74] Creating layer inception_4c/pool
I0703 20:01:39.505861 21340 layer_factory.cpp:55] CUDNN does not support padding or multiple tops. Using Caffe's own pooling layer.
I0703 20:01:39.505867 21340 net.cpp:90] Creating Layer inception_4c/pool
I0703 20:01:39.505872 21340 net.cpp:410] inception_4c/pool <- inception_4b/output_inception_4b/output_0_split_3
I0703 20:01:39.505879 21340 net.cpp:368] inception_4c/pool -> inception_4c/pool
I0703 20:01:39.505885 21340 net.cpp:120] Setting up inception_4c/pool
I0703 20:01:39.505892 21340 net.cpp:127] Top shape: 30 512 14 14 (3010560)
I0703 20:01:39.505897 21340 layer_factory.hpp:74] Creating layer inception_4c/pool_proj
I0703 20:01:39.505904 21340 net.cpp:90] Creating Layer inception_4c/pool_proj
I0703 20:01:39.505909 21340 net.cpp:410] inception_4c/pool_proj <- inception_4c/pool
I0703 20:01:39.505914 21340 net.cpp:368] inception_4c/pool_proj -> inception_4c/pool_proj
I0703 20:01:39.505921 21340 net.cpp:120] Setting up inception_4c/pool_proj
I0703 20:01:39.506297 21340 net.cpp:127] Top shape: 30 64 14 14 (376320)
I0703 20:01:39.506309 21340 layer_factory.hpp:74] Creating layer inception_4c/relu_pool_proj
I0703 20:01:39.506316 21340 net.cpp:90] Creating Layer inception_4c/relu_pool_proj
I0703 20:01:39.506321 21340 net.cpp:410] inception_4c/relu_pool_proj <- inception_4c/pool_proj
I0703 20:01:39.506326 21340 net.cpp:357] inception_4c/relu_pool_proj -> inception_4c/pool_proj (in-place)
I0703 20:01:39.506332 21340 net.cpp:120] Setting up inception_4c/relu_pool_proj
I0703 20:01:39.506373 21340 net.cpp:127] Top shape: 30 64 14 14 (376320)
I0703 20:01:39.506379 21340 layer_factory.hpp:74] Creating layer inception_4c/output
I0703 20:01:39.506386 21340 net.cpp:90] Creating Layer inception_4c/output
I0703 20:01:39.506391 21340 net.cpp:410] inception_4c/output <- inception_4c/1x1
I0703 20:01:39.506395 21340 net.cpp:410] inception_4c/output <- inception_4c/3x3
I0703 20:01:39.506400 21340 net.cpp:410] inception_4c/output <- inception_4c/5x5
I0703 20:01:39.506405 21340 net.cpp:410] inception_4c/output <- inception_4c/pool_proj
I0703 20:01:39.506410 21340 net.cpp:368] inception_4c/output -> inception_4c/output
I0703 20:01:39.506417 21340 net.cpp:120] Setting up inception_4c/output
I0703 20:01:39.506423 21340 net.cpp:127] Top shape: 30 512 14 14 (3010560)
I0703 20:01:39.506428 21340 layer_factory.hpp:74] Creating layer inception_4c/output_inception_4c/output_0_split
I0703 20:01:39.506433 21340 net.cpp:90] Creating Layer inception_4c/output_inception_4c/output_0_split
I0703 20:01:39.506438 21340 net.cpp:410] inception_4c/output_inception_4c/output_0_split <- inception_4c/output
I0703 20:01:39.506443 21340 net.cpp:368] inception_4c/output_inception_4c/output_0_split -> inception_4c/output_inception_4c/output_0_split_0
I0703 20:01:39.506450 21340 net.cpp:368] inception_4c/output_inception_4c/output_0_split -> inception_4c/output_inception_4c/output_0_split_1
I0703 20:01:39.506456 21340 net.cpp:368] inception_4c/output_inception_4c/output_0_split -> inception_4c/output_inception_4c/output_0_split_2
I0703 20:01:39.506464 21340 net.cpp:368] inception_4c/output_inception_4c/output_0_split -> inception_4c/output_inception_4c/output_0_split_3
I0703 20:01:39.506469 21340 net.cpp:120] Setting up inception_4c/output_inception_4c/output_0_split
I0703 20:01:39.506475 21340 net.cpp:127] Top shape: 30 512 14 14 (3010560)
I0703 20:01:39.506479 21340 net.cpp:127] Top shape: 30 512 14 14 (3010560)
I0703 20:01:39.506484 21340 net.cpp:127] Top shape: 30 512 14 14 (3010560)
I0703 20:01:39.506489 21340 net.cpp:127] Top shape: 30 512 14 14 (3010560)
I0703 20:01:39.506494 21340 layer_factory.hpp:74] Creating layer inception_4d/1x1
I0703 20:01:39.506500 21340 net.cpp:90] Creating Layer inception_4d/1x1
I0703 20:01:39.506505 21340 net.cpp:410] inception_4d/1x1 <- inception_4c/output_inception_4c/output_0_split_0
I0703 20:01:39.506516 21340 net.cpp:368] inception_4d/1x1 -> inception_4d/1x1
I0703 20:01:39.506523 21340 net.cpp:120] Setting up inception_4d/1x1
I0703 20:01:39.507004 21340 net.cpp:127] Top shape: 30 112 14 14 (658560)
I0703 20:01:39.507016 21340 layer_factory.hpp:74] Creating layer inception_4d/relu_1x1
I0703 20:01:39.507022 21340 net.cpp:90] Creating Layer inception_4d/relu_1x1
I0703 20:01:39.507028 21340 net.cpp:410] inception_4d/relu_1x1 <- inception_4d/1x1
I0703 20:01:39.507035 21340 net.cpp:357] inception_4d/relu_1x1 -> inception_4d/1x1 (in-place)
I0703 20:01:39.507040 21340 net.cpp:120] Setting up inception_4d/relu_1x1
I0703 20:01:39.507079 21340 net.cpp:127] Top shape: 30 112 14 14 (658560)
I0703 20:01:39.507086 21340 layer_factory.hpp:74] Creating layer inception_4d/3x3_reduce
I0703 20:01:39.507093 21340 net.cpp:90] Creating Layer inception_4d/3x3_reduce
I0703 20:01:39.507098 21340 net.cpp:410] inception_4d/3x3_reduce <- inception_4c/output_inception_4c/output_0_split_1
I0703 20:01:39.507104 21340 net.cpp:368] inception_4d/3x3_reduce -> inception_4d/3x3_reduce
I0703 20:01:39.507112 21340 net.cpp:120] Setting up inception_4d/3x3_reduce
I0703 20:01:39.507670 21340 net.cpp:127] Top shape: 30 144 14 14 (846720)
I0703 20:01:39.507683 21340 layer_factory.hpp:74] Creating layer inception_4d/relu_3x3_reduce
I0703 20:01:39.507690 21340 net.cpp:90] Creating Layer inception_4d/relu_3x3_reduce
I0703 20:01:39.507695 21340 net.cpp:410] inception_4d/relu_3x3_reduce <- inception_4d/3x3_reduce
I0703 20:01:39.507701 21340 net.cpp:357] inception_4d/relu_3x3_reduce -> inception_4d/3x3_reduce (in-place)
I0703 20:01:39.507707 21340 net.cpp:120] Setting up inception_4d/relu_3x3_reduce
I0703 20:01:39.507748 21340 net.cpp:127] Top shape: 30 144 14 14 (846720)
I0703 20:01:39.507755 21340 layer_factory.hpp:74] Creating layer inception_4d/3x3
I0703 20:01:39.507762 21340 net.cpp:90] Creating Layer inception_4d/3x3
I0703 20:01:39.507767 21340 net.cpp:410] inception_4d/3x3 <- inception_4d/3x3_reduce
I0703 20:01:39.507774 21340 net.cpp:368] inception_4d/3x3 -> inception_4d/3x3
I0703 20:01:39.507781 21340 net.cpp:120] Setting up inception_4d/3x3
I0703 20:01:39.510532 21340 net.cpp:127] Top shape: 30 288 14 14 (1693440)
I0703 20:01:39.510547 21340 layer_factory.hpp:74] Creating layer inception_4d/relu_3x3
I0703 20:01:39.510555 21340 net.cpp:90] Creating Layer inception_4d/relu_3x3
I0703 20:01:39.510560 21340 net.cpp:410] inception_4d/relu_3x3 <- inception_4d/3x3
I0703 20:01:39.510566 21340 net.cpp:357] inception_4d/relu_3x3 -> inception_4d/3x3 (in-place)
I0703 20:01:39.510572 21340 net.cpp:120] Setting up inception_4d/relu_3x3
I0703 20:01:39.510681 21340 net.cpp:127] Top shape: 30 288 14 14 (1693440)
I0703 20:01:39.510692 21340 layer_factory.hpp:74] Creating layer inception_4d/5x5_reduce
I0703 20:01:39.510700 21340 net.cpp:90] Creating Layer inception_4d/5x5_reduce
I0703 20:01:39.510705 21340 net.cpp:410] inception_4d/5x5_reduce <- inception_4c/output_inception_4c/output_0_split_2
I0703 20:01:39.510711 21340 net.cpp:368] inception_4d/5x5_reduce -> inception_4d/5x5_reduce
I0703 20:01:39.510718 21340 net.cpp:120] Setting up inception_4d/5x5_reduce
I0703 20:01:39.510995 21340 net.cpp:127] Top shape: 30 32 14 14 (188160)
I0703 20:01:39.511008 21340 layer_factory.hpp:74] Creating layer inception_4d/relu_5x5_reduce
I0703 20:01:39.511015 21340 net.cpp:90] Creating Layer inception_4d/relu_5x5_reduce
I0703 20:01:39.511020 21340 net.cpp:410] inception_4d/relu_5x5_reduce <- inception_4d/5x5_reduce
I0703 20:01:39.511026 21340 net.cpp:357] inception_4d/relu_5x5_reduce -> inception_4d/5x5_reduce (in-place)
I0703 20:01:39.511032 21340 net.cpp:120] Setting up inception_4d/relu_5x5_reduce
I0703 20:01:39.511075 21340 net.cpp:127] Top shape: 30 32 14 14 (188160)
I0703 20:01:39.511081 21340 layer_factory.hpp:74] Creating layer inception_4d/5x5
I0703 20:01:39.511090 21340 net.cpp:90] Creating Layer inception_4d/5x5
I0703 20:01:39.511096 21340 net.cpp:410] inception_4d/5x5 <- inception_4d/5x5_reduce
I0703 20:01:39.511101 21340 net.cpp:368] inception_4d/5x5 -> inception_4d/5x5
I0703 20:01:39.511121 21340 net.cpp:120] Setting up inception_4d/5x5
I0703 20:01:39.511595 21340 net.cpp:127] Top shape: 30 64 14 14 (376320)
I0703 20:01:39.511607 21340 layer_factory.hpp:74] Creating layer inception_4d/relu_5x5
I0703 20:01:39.511615 21340 net.cpp:90] Creating Layer inception_4d/relu_5x5
I0703 20:01:39.511620 21340 net.cpp:410] inception_4d/relu_5x5 <- inception_4d/5x5
I0703 20:01:39.511626 21340 net.cpp:357] inception_4d/relu_5x5 -> inception_4d/5x5 (in-place)
I0703 20:01:39.511632 21340 net.cpp:120] Setting up inception_4d/relu_5x5
I0703 20:01:39.511673 21340 net.cpp:127] Top shape: 30 64 14 14 (376320)
I0703 20:01:39.511680 21340 layer_factory.hpp:74] Creating layer inception_4d/pool
I0703 20:01:39.511687 21340 layer_factory.cpp:55] CUDNN does not support padding or multiple tops. Using Caffe's own pooling layer.
I0703 20:01:39.511692 21340 net.cpp:90] Creating Layer inception_4d/pool
I0703 20:01:39.511697 21340 net.cpp:410] inception_4d/pool <- inception_4c/output_inception_4c/output_0_split_3
I0703 20:01:39.511703 21340 net.cpp:368] inception_4d/pool -> inception_4d/pool
I0703 20:01:39.511709 21340 net.cpp:120] Setting up inception_4d/pool
I0703 20:01:39.511716 21340 net.cpp:127] Top shape: 30 512 14 14 (3010560)
I0703 20:01:39.511721 21340 layer_factory.hpp:74] Creating layer inception_4d/pool_proj
I0703 20:01:39.511729 21340 net.cpp:90] Creating Layer inception_4d/pool_proj
I0703 20:01:39.511734 21340 net.cpp:410] inception_4d/pool_proj <- inception_4d/pool
I0703 20:01:39.511739 21340 net.cpp:368] inception_4d/pool_proj -> inception_4d/pool_proj
I0703 20:01:39.511745 21340 net.cpp:120] Setting up inception_4d/pool_proj
I0703 20:01:39.512104 21340 net.cpp:127] Top shape: 30 64 14 14 (376320)
I0703 20:01:39.512115 21340 layer_factory.hpp:74] Creating layer inception_4d/relu_pool_proj
I0703 20:01:39.512121 21340 net.cpp:90] Creating Layer inception_4d/relu_pool_proj
I0703 20:01:39.512127 21340 net.cpp:410] inception_4d/relu_pool_proj <- inception_4d/pool_proj
I0703 20:01:39.512133 21340 net.cpp:357] inception_4d/relu_pool_proj -> inception_4d/pool_proj (in-place)
I0703 20:01:39.512140 21340 net.cpp:120] Setting up inception_4d/relu_pool_proj
I0703 20:01:39.512179 21340 net.cpp:127] Top shape: 30 64 14 14 (376320)
I0703 20:01:39.512187 21340 layer_factory.hpp:74] Creating layer inception_4d/output
I0703 20:01:39.512192 21340 net.cpp:90] Creating Layer inception_4d/output
I0703 20:01:39.512197 21340 net.cpp:410] inception_4d/output <- inception_4d/1x1
I0703 20:01:39.512202 21340 net.cpp:410] inception_4d/output <- inception_4d/3x3
I0703 20:01:39.512207 21340 net.cpp:410] inception_4d/output <- inception_4d/5x5
I0703 20:01:39.512213 21340 net.cpp:410] inception_4d/output <- inception_4d/pool_proj
I0703 20:01:39.512218 21340 net.cpp:368] inception_4d/output -> inception_4d/output
I0703 20:01:39.512224 21340 net.cpp:120] Setting up inception_4d/output
I0703 20:01:39.512231 21340 net.cpp:127] Top shape: 30 528 14 14 (3104640)
I0703 20:01:39.512236 21340 layer_factory.hpp:74] Creating layer inception_4d/output_inception_4d/output_0_split
I0703 20:01:39.512243 21340 net.cpp:90] Creating Layer inception_4d/output_inception_4d/output_0_split
I0703 20:01:39.512248 21340 net.cpp:410] inception_4d/output_inception_4d/output_0_split <- inception_4d/output
I0703 20:01:39.512253 21340 net.cpp:368] inception_4d/output_inception_4d/output_0_split -> inception_4d/output_inception_4d/output_0_split_0
I0703 20:01:39.512260 21340 net.cpp:368] inception_4d/output_inception_4d/output_0_split -> inception_4d/output_inception_4d/output_0_split_1
I0703 20:01:39.512267 21340 net.cpp:368] inception_4d/output_inception_4d/output_0_split -> inception_4d/output_inception_4d/output_0_split_2
I0703 20:01:39.512274 21340 net.cpp:368] inception_4d/output_inception_4d/output_0_split -> inception_4d/output_inception_4d/output_0_split_3
I0703 20:01:39.512279 21340 net.cpp:368] inception_4d/output_inception_4d/output_0_split -> inception_4d/output_inception_4d/output_0_split_4
I0703 20:01:39.512285 21340 net.cpp:120] Setting up inception_4d/output_inception_4d/output_0_split
I0703 20:01:39.512298 21340 net.cpp:127] Top shape: 30 528 14 14 (3104640)
I0703 20:01:39.512303 21340 net.cpp:127] Top shape: 30 528 14 14 (3104640)
I0703 20:01:39.512308 21340 net.cpp:127] Top shape: 30 528 14 14 (3104640)
I0703 20:01:39.512312 21340 net.cpp:127] Top shape: 30 528 14 14 (3104640)
I0703 20:01:39.512317 21340 net.cpp:127] Top shape: 30 528 14 14 (3104640)
I0703 20:01:39.512321 21340 layer_factory.hpp:74] Creating layer loss2/ave_pool
I0703 20:01:39.512328 21340 net.cpp:90] Creating Layer loss2/ave_pool
I0703 20:01:39.512333 21340 net.cpp:410] loss2/ave_pool <- inception_4d/output_inception_4d/output_0_split_0
I0703 20:01:39.512339 21340 net.cpp:368] loss2/ave_pool -> loss2/ave_pool
I0703 20:01:39.512346 21340 net.cpp:120] Setting up loss2/ave_pool
I0703 20:01:39.512457 21340 net.cpp:127] Top shape: 30 528 4 4 (253440)
I0703 20:01:39.512466 21340 layer_factory.hpp:74] Creating layer loss2/conv
I0703 20:01:39.512473 21340 net.cpp:90] Creating Layer loss2/conv
I0703 20:01:39.512478 21340 net.cpp:410] loss2/conv <- loss2/ave_pool
I0703 20:01:39.512485 21340 net.cpp:368] loss2/conv -> loss2/conv
I0703 20:01:39.512492 21340 net.cpp:120] Setting up loss2/conv
I0703 20:01:39.513022 21340 net.cpp:127] Top shape: 30 128 4 4 (61440)
I0703 20:01:39.513033 21340 layer_factory.hpp:74] Creating layer loss2/relu_conv
I0703 20:01:39.513039 21340 net.cpp:90] Creating Layer loss2/relu_conv
I0703 20:01:39.513046 21340 net.cpp:410] loss2/relu_conv <- loss2/conv
I0703 20:01:39.513051 21340 net.cpp:357] loss2/relu_conv -> loss2/conv (in-place)
I0703 20:01:39.513056 21340 net.cpp:120] Setting up loss2/relu_conv
I0703 20:01:39.513097 21340 net.cpp:127] Top shape: 30 128 4 4 (61440)
I0703 20:01:39.513103 21340 layer_factory.hpp:74] Creating layer loss2/fc
I0703 20:01:39.513110 21340 net.cpp:90] Creating Layer loss2/fc
I0703 20:01:39.513114 21340 net.cpp:410] loss2/fc <- loss2/conv
I0703 20:01:39.513120 21340 net.cpp:368] loss2/fc -> loss2/fc
I0703 20:01:39.513128 21340 net.cpp:120] Setting up loss2/fc
I0703 20:01:39.523279 21340 net.cpp:127] Top shape: 30 1024 (30720)
I0703 20:01:39.523316 21340 layer_factory.hpp:74] Creating layer loss2/relu_fc
I0703 20:01:39.523330 21340 net.cpp:90] Creating Layer loss2/relu_fc
I0703 20:01:39.523349 21340 net.cpp:410] loss2/relu_fc <- loss2/fc
I0703 20:01:39.523356 21340 net.cpp:357] loss2/relu_fc -> loss2/fc (in-place)
I0703 20:01:39.523363 21340 net.cpp:120] Setting up loss2/relu_fc
I0703 20:01:39.523449 21340 net.cpp:127] Top shape: 30 1024 (30720)
I0703 20:01:39.523457 21340 layer_factory.hpp:74] Creating layer loss2/drop_fc
I0703 20:01:39.523475 21340 net.cpp:90] Creating Layer loss2/drop_fc
I0703 20:01:39.523480 21340 net.cpp:410] loss2/drop_fc <- loss2/fc
I0703 20:01:39.523540 21340 net.cpp:357] loss2/drop_fc -> loss2/fc (in-place)
I0703 20:01:39.523560 21340 net.cpp:120] Setting up loss2/drop_fc
I0703 20:01:39.523566 21340 net.cpp:127] Top shape: 30 1024 (30720)
I0703 20:01:39.523571 21340 layer_factory.hpp:74] Creating layer stanford_cars_loss2/classifier
I0703 20:01:39.523581 21340 net.cpp:90] Creating Layer stanford_cars_loss2/classifier
I0703 20:01:39.523586 21340 net.cpp:410] stanford_cars_loss2/classifier <- loss2/fc
I0703 20:01:39.523591 21340 net.cpp:368] stanford_cars_loss2/classifier -> stanford_cars_loss2/classifier
I0703 20:01:39.523598 21340 net.cpp:120] Setting up stanford_cars_loss2/classifier
I0703 20:01:39.524665 21340 net.cpp:127] Top shape: 30 196 (5880)
I0703 20:01:39.524687 21340 layer_factory.hpp:74] Creating layer stanford_cars_loss2/loss
I0703 20:01:39.524694 21340 net.cpp:90] Creating Layer stanford_cars_loss2/loss
I0703 20:01:39.524699 21340 net.cpp:410] stanford_cars_loss2/loss <- stanford_cars_loss2/classifier
I0703 20:01:39.524715 21340 net.cpp:410] stanford_cars_loss2/loss <- label_data_1_split_1
I0703 20:01:39.524721 21340 net.cpp:368] stanford_cars_loss2/loss -> loss2/loss1
I0703 20:01:39.524729 21340 net.cpp:120] Setting up stanford_cars_loss2/loss
I0703 20:01:39.524744 21340 layer_factory.hpp:74] Creating layer stanford_cars_loss2/loss
I0703 20:01:39.524827 21340 net.cpp:127] Top shape: (1)
I0703 20:01:39.524834 21340 net.cpp:129]     with loss weight 0.3
I0703 20:01:39.524844 21340 layer_factory.hpp:74] Creating layer inception_4e/1x1
I0703 20:01:39.524853 21340 net.cpp:90] Creating Layer inception_4e/1x1
I0703 20:01:39.524859 21340 net.cpp:410] inception_4e/1x1 <- inception_4d/output_inception_4d/output_0_split_1
I0703 20:01:39.524866 21340 net.cpp:368] inception_4e/1x1 -> inception_4e/1x1
I0703 20:01:39.524873 21340 net.cpp:120] Setting up inception_4e/1x1
I0703 20:01:39.525786 21340 net.cpp:127] Top shape: 30 256 14 14 (1505280)
I0703 20:01:39.525799 21340 layer_factory.hpp:74] Creating layer inception_4e/relu_1x1
I0703 20:01:39.525807 21340 net.cpp:90] Creating Layer inception_4e/relu_1x1
I0703 20:01:39.525813 21340 net.cpp:410] inception_4e/relu_1x1 <- inception_4e/1x1
I0703 20:01:39.525818 21340 net.cpp:357] inception_4e/relu_1x1 -> inception_4e/1x1 (in-place)
I0703 20:01:39.525825 21340 net.cpp:120] Setting up inception_4e/relu_1x1
I0703 20:01:39.525935 21340 net.cpp:127] Top shape: 30 256 14 14 (1505280)
I0703 20:01:39.525945 21340 layer_factory.hpp:74] Creating layer inception_4e/3x3_reduce
I0703 20:01:39.525954 21340 net.cpp:90] Creating Layer inception_4e/3x3_reduce
I0703 20:01:39.525959 21340 net.cpp:410] inception_4e/3x3_reduce <- inception_4d/output_inception_4d/output_0_split_2
I0703 20:01:39.525964 21340 net.cpp:368] inception_4e/3x3_reduce -> inception_4e/3x3_reduce
I0703 20:01:39.525971 21340 net.cpp:120] Setting up inception_4e/3x3_reduce
I0703 20:01:39.526583 21340 net.cpp:127] Top shape: 30 160 14 14 (940800)
I0703 20:01:39.526597 21340 layer_factory.hpp:74] Creating layer inception_4e/relu_3x3_reduce
I0703 20:01:39.526603 21340 net.cpp:90] Creating Layer inception_4e/relu_3x3_reduce
I0703 20:01:39.526609 21340 net.cpp:410] inception_4e/relu_3x3_reduce <- inception_4e/3x3_reduce
I0703 20:01:39.526615 21340 net.cpp:357] inception_4e/relu_3x3_reduce -> inception_4e/3x3_reduce (in-place)
I0703 20:01:39.526621 21340 net.cpp:120] Setting up inception_4e/relu_3x3_reduce
I0703 20:01:39.526664 21340 net.cpp:127] Top shape: 30 160 14 14 (940800)
I0703 20:01:39.526670 21340 layer_factory.hpp:74] Creating layer inception_4e/3x3
I0703 20:01:39.526676 21340 net.cpp:90] Creating Layer inception_4e/3x3
I0703 20:01:39.526681 21340 net.cpp:410] inception_4e/3x3 <- inception_4e/3x3_reduce
I0703 20:01:39.526689 21340 net.cpp:368] inception_4e/3x3 -> inception_4e/3x3
I0703 20:01:39.526695 21340 net.cpp:120] Setting up inception_4e/3x3
I0703 20:01:39.529139 21340 net.cpp:127] Top shape: 30 320 14 14 (1881600)
I0703 20:01:39.529152 21340 layer_factory.hpp:74] Creating layer inception_4e/relu_3x3
I0703 20:01:39.529160 21340 net.cpp:90] Creating Layer inception_4e/relu_3x3
I0703 20:01:39.529166 21340 net.cpp:410] inception_4e/relu_3x3 <- inception_4e/3x3
I0703 20:01:39.529171 21340 net.cpp:357] inception_4e/relu_3x3 -> inception_4e/3x3 (in-place)
I0703 20:01:39.529177 21340 net.cpp:120] Setting up inception_4e/relu_3x3
I0703 20:01:39.529218 21340 net.cpp:127] Top shape: 30 320 14 14 (1881600)
I0703 20:01:39.529225 21340 layer_factory.hpp:74] Creating layer inception_4e/5x5_reduce
I0703 20:01:39.529232 21340 net.cpp:90] Creating Layer inception_4e/5x5_reduce
I0703 20:01:39.529237 21340 net.cpp:410] inception_4e/5x5_reduce <- inception_4d/output_inception_4d/output_0_split_3
I0703 20:01:39.529244 21340 net.cpp:368] inception_4e/5x5_reduce -> inception_4e/5x5_reduce
I0703 20:01:39.529252 21340 net.cpp:120] Setting up inception_4e/5x5_reduce
I0703 20:01:39.529536 21340 net.cpp:127] Top shape: 30 32 14 14 (188160)
I0703 20:01:39.529548 21340 layer_factory.hpp:74] Creating layer inception_4e/relu_5x5_reduce
I0703 20:01:39.529556 21340 net.cpp:90] Creating Layer inception_4e/relu_5x5_reduce
I0703 20:01:39.529561 21340 net.cpp:410] inception_4e/relu_5x5_reduce <- inception_4e/5x5_reduce
I0703 20:01:39.529567 21340 net.cpp:357] inception_4e/relu_5x5_reduce -> inception_4e/5x5_reduce (in-place)
I0703 20:01:39.529573 21340 net.cpp:120] Setting up inception_4e/relu_5x5_reduce
I0703 20:01:39.529691 21340 net.cpp:127] Top shape: 30 32 14 14 (188160)
I0703 20:01:39.529701 21340 layer_factory.hpp:74] Creating layer inception_4e/5x5
I0703 20:01:39.529718 21340 net.cpp:90] Creating Layer inception_4e/5x5
I0703 20:01:39.529723 21340 net.cpp:410] inception_4e/5x5 <- inception_4e/5x5_reduce
I0703 20:01:39.529729 21340 net.cpp:368] inception_4e/5x5 -> inception_4e/5x5
I0703 20:01:39.529736 21340 net.cpp:120] Setting up inception_4e/5x5
I0703 20:01:39.530436 21340 net.cpp:127] Top shape: 30 128 14 14 (752640)
I0703 20:01:39.530448 21340 layer_factory.hpp:74] Creating layer inception_4e/relu_5x5
I0703 20:01:39.530454 21340 net.cpp:90] Creating Layer inception_4e/relu_5x5
I0703 20:01:39.530459 21340 net.cpp:410] inception_4e/relu_5x5 <- inception_4e/5x5
I0703 20:01:39.530465 21340 net.cpp:357] inception_4e/relu_5x5 -> inception_4e/5x5 (in-place)
I0703 20:01:39.530472 21340 net.cpp:120] Setting up inception_4e/relu_5x5
I0703 20:01:39.530514 21340 net.cpp:127] Top shape: 30 128 14 14 (752640)
I0703 20:01:39.530521 21340 layer_factory.hpp:74] Creating layer inception_4e/pool
I0703 20:01:39.530527 21340 layer_factory.cpp:55] CUDNN does not support padding or multiple tops. Using Caffe's own pooling layer.
I0703 20:01:39.530534 21340 net.cpp:90] Creating Layer inception_4e/pool
I0703 20:01:39.530539 21340 net.cpp:410] inception_4e/pool <- inception_4d/output_inception_4d/output_0_split_4
I0703 20:01:39.530544 21340 net.cpp:368] inception_4e/pool -> inception_4e/pool
I0703 20:01:39.530550 21340 net.cpp:120] Setting up inception_4e/pool
I0703 20:01:39.530558 21340 net.cpp:127] Top shape: 30 528 14 14 (3104640)
I0703 20:01:39.530562 21340 layer_factory.hpp:74] Creating layer inception_4e/pool_proj
I0703 20:01:39.530570 21340 net.cpp:90] Creating Layer inception_4e/pool_proj
I0703 20:01:39.530575 21340 net.cpp:410] inception_4e/pool_proj <- inception_4e/pool
I0703 20:01:39.530580 21340 net.cpp:368] inception_4e/pool_proj -> inception_4e/pool_proj
I0703 20:01:39.530586 21340 net.cpp:120] Setting up inception_4e/pool_proj
I0703 20:01:39.531118 21340 net.cpp:127] Top shape: 30 128 14 14 (752640)
I0703 20:01:39.531131 21340 layer_factory.hpp:74] Creating layer inception_4e/relu_pool_proj
I0703 20:01:39.531137 21340 net.cpp:90] Creating Layer inception_4e/relu_pool_proj
I0703 20:01:39.531142 21340 net.cpp:410] inception_4e/relu_pool_proj <- inception_4e/pool_proj
I0703 20:01:39.531148 21340 net.cpp:357] inception_4e/relu_pool_proj -> inception_4e/pool_proj (in-place)
I0703 20:01:39.531155 21340 net.cpp:120] Setting up inception_4e/relu_pool_proj
I0703 20:01:39.531195 21340 net.cpp:127] Top shape: 30 128 14 14 (752640)
I0703 20:01:39.531201 21340 layer_factory.hpp:74] Creating layer inception_4e/output
I0703 20:01:39.531208 21340 net.cpp:90] Creating Layer inception_4e/output
I0703 20:01:39.531213 21340 net.cpp:410] inception_4e/output <- inception_4e/1x1
I0703 20:01:39.531219 21340 net.cpp:410] inception_4e/output <- inception_4e/3x3
I0703 20:01:39.531224 21340 net.cpp:410] inception_4e/output <- inception_4e/5x5
I0703 20:01:39.531229 21340 net.cpp:410] inception_4e/output <- inception_4e/pool_proj
I0703 20:01:39.531234 21340 net.cpp:368] inception_4e/output -> inception_4e/output
I0703 20:01:39.531240 21340 net.cpp:120] Setting up inception_4e/output
I0703 20:01:39.531247 21340 net.cpp:127] Top shape: 30 832 14 14 (4892160)
I0703 20:01:39.531252 21340 layer_factory.hpp:74] Creating layer pool4/3x3_s2
I0703 20:01:39.531258 21340 net.cpp:90] Creating Layer pool4/3x3_s2
I0703 20:01:39.531263 21340 net.cpp:410] pool4/3x3_s2 <- inception_4e/output
I0703 20:01:39.531270 21340 net.cpp:368] pool4/3x3_s2 -> pool4/3x3_s2
I0703 20:01:39.531276 21340 net.cpp:120] Setting up pool4/3x3_s2
I0703 20:01:39.531325 21340 net.cpp:127] Top shape: 30 832 7 7 (1223040)
I0703 20:01:39.531332 21340 layer_factory.hpp:74] Creating layer pool4/3x3_s2_pool4/3x3_s2_0_split
I0703 20:01:39.531339 21340 net.cpp:90] Creating Layer pool4/3x3_s2_pool4/3x3_s2_0_split
I0703 20:01:39.531344 21340 net.cpp:410] pool4/3x3_s2_pool4/3x3_s2_0_split <- pool4/3x3_s2
I0703 20:01:39.531358 21340 net.cpp:368] pool4/3x3_s2_pool4/3x3_s2_0_split -> pool4/3x3_s2_pool4/3x3_s2_0_split_0
I0703 20:01:39.531364 21340 net.cpp:368] pool4/3x3_s2_pool4/3x3_s2_0_split -> pool4/3x3_s2_pool4/3x3_s2_0_split_1
I0703 20:01:39.531370 21340 net.cpp:368] pool4/3x3_s2_pool4/3x3_s2_0_split -> pool4/3x3_s2_pool4/3x3_s2_0_split_2
I0703 20:01:39.531376 21340 net.cpp:368] pool4/3x3_s2_pool4/3x3_s2_0_split -> pool4/3x3_s2_pool4/3x3_s2_0_split_3
I0703 20:01:39.531383 21340 net.cpp:120] Setting up pool4/3x3_s2_pool4/3x3_s2_0_split
I0703 20:01:39.531388 21340 net.cpp:127] Top shape: 30 832 7 7 (1223040)
I0703 20:01:39.531394 21340 net.cpp:127] Top shape: 30 832 7 7 (1223040)
I0703 20:01:39.531399 21340 net.cpp:127] Top shape: 30 832 7 7 (1223040)
I0703 20:01:39.531402 21340 net.cpp:127] Top shape: 30 832 7 7 (1223040)
I0703 20:01:39.531406 21340 layer_factory.hpp:74] Creating layer inception_5a/1x1
I0703 20:01:39.531414 21340 net.cpp:90] Creating Layer inception_5a/1x1
I0703 20:01:39.531419 21340 net.cpp:410] inception_5a/1x1 <- pool4/3x3_s2_pool4/3x3_s2_0_split_0
I0703 20:01:39.531425 21340 net.cpp:368] inception_5a/1x1 -> inception_5a/1x1
I0703 20:01:39.531431 21340 net.cpp:120] Setting up inception_5a/1x1
I0703 20:01:39.532671 21340 net.cpp:127] Top shape: 30 256 7 7 (376320)
I0703 20:01:39.532682 21340 layer_factory.hpp:74] Creating layer inception_5a/relu_1x1
I0703 20:01:39.532690 21340 net.cpp:90] Creating Layer inception_5a/relu_1x1
I0703 20:01:39.532694 21340 net.cpp:410] inception_5a/relu_1x1 <- inception_5a/1x1
I0703 20:01:39.532701 21340 net.cpp:357] inception_5a/relu_1x1 -> inception_5a/1x1 (in-place)
I0703 20:01:39.532706 21340 net.cpp:120] Setting up inception_5a/relu_1x1
I0703 20:01:39.532817 21340 net.cpp:127] Top shape: 30 256 7 7 (376320)
I0703 20:01:39.532826 21340 layer_factory.hpp:74] Creating layer inception_5a/3x3_reduce
I0703 20:01:39.532835 21340 net.cpp:90] Creating Layer inception_5a/3x3_reduce
I0703 20:01:39.532840 21340 net.cpp:410] inception_5a/3x3_reduce <- pool4/3x3_s2_pool4/3x3_s2_0_split_1
I0703 20:01:39.532845 21340 net.cpp:368] inception_5a/3x3_reduce -> inception_5a/3x3_reduce
I0703 20:01:39.532852 21340 net.cpp:120] Setting up inception_5a/3x3_reduce
I0703 20:01:39.533697 21340 net.cpp:127] Top shape: 30 160 7 7 (235200)
I0703 20:01:39.533710 21340 layer_factory.hpp:74] Creating layer inception_5a/relu_3x3_reduce
I0703 20:01:39.533716 21340 net.cpp:90] Creating Layer inception_5a/relu_3x3_reduce
I0703 20:01:39.533721 21340 net.cpp:410] inception_5a/relu_3x3_reduce <- inception_5a/3x3_reduce
I0703 20:01:39.533727 21340 net.cpp:357] inception_5a/relu_3x3_reduce -> inception_5a/3x3_reduce (in-place)
I0703 20:01:39.533733 21340 net.cpp:120] Setting up inception_5a/relu_3x3_reduce
I0703 20:01:39.533776 21340 net.cpp:127] Top shape: 30 160 7 7 (235200)
I0703 20:01:39.533782 21340 layer_factory.hpp:74] Creating layer inception_5a/3x3
I0703 20:01:39.533788 21340 net.cpp:90] Creating Layer inception_5a/3x3
I0703 20:01:39.533793 21340 net.cpp:410] inception_5a/3x3 <- inception_5a/3x3_reduce
I0703 20:01:39.533799 21340 net.cpp:368] inception_5a/3x3 -> inception_5a/3x3
I0703 20:01:39.533807 21340 net.cpp:120] Setting up inception_5a/3x3
I0703 20:01:39.536242 21340 net.cpp:127] Top shape: 30 320 7 7 (470400)
I0703 20:01:39.536254 21340 layer_factory.hpp:74] Creating layer inception_5a/relu_3x3
I0703 20:01:39.536260 21340 net.cpp:90] Creating Layer inception_5a/relu_3x3
I0703 20:01:39.536265 21340 net.cpp:410] inception_5a/relu_3x3 <- inception_5a/3x3
I0703 20:01:39.536272 21340 net.cpp:357] inception_5a/relu_3x3 -> inception_5a/3x3 (in-place)
I0703 20:01:39.536278 21340 net.cpp:120] Setting up inception_5a/relu_3x3
I0703 20:01:39.536319 21340 net.cpp:127] Top shape: 30 320 7 7 (470400)
I0703 20:01:39.536324 21340 layer_factory.hpp:74] Creating layer inception_5a/5x5_reduce
I0703 20:01:39.536331 21340 net.cpp:90] Creating Layer inception_5a/5x5_reduce
I0703 20:01:39.536337 21340 net.cpp:410] inception_5a/5x5_reduce <- pool4/3x3_s2_pool4/3x3_s2_0_split_2
I0703 20:01:39.536350 21340 net.cpp:368] inception_5a/5x5_reduce -> inception_5a/5x5_reduce
I0703 20:01:39.536358 21340 net.cpp:120] Setting up inception_5a/5x5_reduce
I0703 20:01:39.536692 21340 net.cpp:127] Top shape: 30 32 7 7 (47040)
I0703 20:01:39.536705 21340 layer_factory.hpp:74] Creating layer inception_5a/relu_5x5_reduce
I0703 20:01:39.536710 21340 net.cpp:90] Creating Layer inception_5a/relu_5x5_reduce
I0703 20:01:39.536715 21340 net.cpp:410] inception_5a/relu_5x5_reduce <- inception_5a/5x5_reduce
I0703 20:01:39.536721 21340 net.cpp:357] inception_5a/relu_5x5_reduce -> inception_5a/5x5_reduce (in-place)
I0703 20:01:39.536726 21340 net.cpp:120] Setting up inception_5a/relu_5x5_reduce
I0703 20:01:39.536767 21340 net.cpp:127] Top shape: 30 32 7 7 (47040)
I0703 20:01:39.536773 21340 layer_factory.hpp:74] Creating layer inception_5a/5x5
I0703 20:01:39.536780 21340 net.cpp:90] Creating Layer inception_5a/5x5
I0703 20:01:39.536785 21340 net.cpp:410] inception_5a/5x5 <- inception_5a/5x5_reduce
I0703 20:01:39.536792 21340 net.cpp:368] inception_5a/5x5 -> inception_5a/5x5
I0703 20:01:39.536798 21340 net.cpp:120] Setting up inception_5a/5x5
I0703 20:01:39.537515 21340 net.cpp:127] Top shape: 30 128 7 7 (188160)
I0703 20:01:39.537528 21340 layer_factory.hpp:74] Creating layer inception_5a/relu_5x5
I0703 20:01:39.537533 21340 net.cpp:90] Creating Layer inception_5a/relu_5x5
I0703 20:01:39.537539 21340 net.cpp:410] inception_5a/relu_5x5 <- inception_5a/5x5
I0703 20:01:39.537544 21340 net.cpp:357] inception_5a/relu_5x5 -> inception_5a/5x5 (in-place)
I0703 20:01:39.537549 21340 net.cpp:120] Setting up inception_5a/relu_5x5
I0703 20:01:39.537657 21340 net.cpp:127] Top shape: 30 128 7 7 (188160)
I0703 20:01:39.537664 21340 layer_factory.hpp:74] Creating layer inception_5a/pool
I0703 20:01:39.537669 21340 layer_factory.cpp:55] CUDNN does not support padding or multiple tops. Using Caffe's own pooling layer.
I0703 20:01:39.537675 21340 net.cpp:90] Creating Layer inception_5a/pool
I0703 20:01:39.537680 21340 net.cpp:410] inception_5a/pool <- pool4/3x3_s2_pool4/3x3_s2_0_split_3
I0703 20:01:39.537688 21340 net.cpp:368] inception_5a/pool -> inception_5a/pool
I0703 20:01:39.537695 21340 net.cpp:120] Setting up inception_5a/pool
I0703 20:01:39.537703 21340 net.cpp:127] Top shape: 30 832 7 7 (1223040)
I0703 20:01:39.537706 21340 layer_factory.hpp:74] Creating layer inception_5a/pool_proj
I0703 20:01:39.537714 21340 net.cpp:90] Creating Layer inception_5a/pool_proj
I0703 20:01:39.537719 21340 net.cpp:410] inception_5a/pool_proj <- inception_5a/pool
I0703 20:01:39.537724 21340 net.cpp:368] inception_5a/pool_proj -> inception_5a/pool_proj
I0703 20:01:39.537730 21340 net.cpp:120] Setting up inception_5a/pool_proj
I0703 20:01:39.538450 21340 net.cpp:127] Top shape: 30 128 7 7 (188160)
I0703 20:01:39.538462 21340 layer_factory.hpp:74] Creating layer inception_5a/relu_pool_proj
I0703 20:01:39.538470 21340 net.cpp:90] Creating Layer inception_5a/relu_pool_proj
I0703 20:01:39.538475 21340 net.cpp:410] inception_5a/relu_pool_proj <- inception_5a/pool_proj
I0703 20:01:39.538480 21340 net.cpp:357] inception_5a/relu_pool_proj -> inception_5a/pool_proj (in-place)
I0703 20:01:39.538486 21340 net.cpp:120] Setting up inception_5a/relu_pool_proj
I0703 20:01:39.538527 21340 net.cpp:127] Top shape: 30 128 7 7 (188160)
I0703 20:01:39.538532 21340 layer_factory.hpp:74] Creating layer inception_5a/output
I0703 20:01:39.538538 21340 net.cpp:90] Creating Layer inception_5a/output
I0703 20:01:39.538543 21340 net.cpp:410] inception_5a/output <- inception_5a/1x1
I0703 20:01:39.538548 21340 net.cpp:410] inception_5a/output <- inception_5a/3x3
I0703 20:01:39.538553 21340 net.cpp:410] inception_5a/output <- inception_5a/5x5
I0703 20:01:39.538558 21340 net.cpp:410] inception_5a/output <- inception_5a/pool_proj
I0703 20:01:39.538563 21340 net.cpp:368] inception_5a/output -> inception_5a/output
I0703 20:01:39.538568 21340 net.cpp:120] Setting up inception_5a/output
I0703 20:01:39.538574 21340 net.cpp:127] Top shape: 30 832 7 7 (1223040)
I0703 20:01:39.538579 21340 layer_factory.hpp:74] Creating layer inception_5a/output_inception_5a/output_0_split
I0703 20:01:39.538593 21340 net.cpp:90] Creating Layer inception_5a/output_inception_5a/output_0_split
I0703 20:01:39.538597 21340 net.cpp:410] inception_5a/output_inception_5a/output_0_split <- inception_5a/output
I0703 20:01:39.538604 21340 net.cpp:368] inception_5a/output_inception_5a/output_0_split -> inception_5a/output_inception_5a/output_0_split_0
I0703 20:01:39.538609 21340 net.cpp:368] inception_5a/output_inception_5a/output_0_split -> inception_5a/output_inception_5a/output_0_split_1
I0703 20:01:39.538616 21340 net.cpp:368] inception_5a/output_inception_5a/output_0_split -> inception_5a/output_inception_5a/output_0_split_2
I0703 20:01:39.538622 21340 net.cpp:368] inception_5a/output_inception_5a/output_0_split -> inception_5a/output_inception_5a/output_0_split_3
I0703 20:01:39.538627 21340 net.cpp:120] Setting up inception_5a/output_inception_5a/output_0_split
I0703 20:01:39.538633 21340 net.cpp:127] Top shape: 30 832 7 7 (1223040)
I0703 20:01:39.538638 21340 net.cpp:127] Top shape: 30 832 7 7 (1223040)
I0703 20:01:39.538643 21340 net.cpp:127] Top shape: 30 832 7 7 (1223040)
I0703 20:01:39.538647 21340 net.cpp:127] Top shape: 30 832 7 7 (1223040)
I0703 20:01:39.538651 21340 layer_factory.hpp:74] Creating layer inception_5b/1x1
I0703 20:01:39.538658 21340 net.cpp:90] Creating Layer inception_5b/1x1
I0703 20:01:39.538663 21340 net.cpp:410] inception_5b/1x1 <- inception_5a/output_inception_5a/output_0_split_0
I0703 20:01:39.538669 21340 net.cpp:368] inception_5b/1x1 -> inception_5b/1x1
I0703 20:01:39.538676 21340 net.cpp:120] Setting up inception_5b/1x1
I0703 20:01:39.540427 21340 net.cpp:127] Top shape: 30 384 7 7 (564480)
I0703 20:01:39.540439 21340 layer_factory.hpp:74] Creating layer inception_5b/relu_1x1
I0703 20:01:39.540446 21340 net.cpp:90] Creating Layer inception_5b/relu_1x1
I0703 20:01:39.540451 21340 net.cpp:410] inception_5b/relu_1x1 <- inception_5b/1x1
I0703 20:01:39.540457 21340 net.cpp:357] inception_5b/relu_1x1 -> inception_5b/1x1 (in-place)
I0703 20:01:39.540463 21340 net.cpp:120] Setting up inception_5b/relu_1x1
I0703 20:01:39.540503 21340 net.cpp:127] Top shape: 30 384 7 7 (564480)
I0703 20:01:39.540509 21340 layer_factory.hpp:74] Creating layer inception_5b/3x3_reduce
I0703 20:01:39.540516 21340 net.cpp:90] Creating Layer inception_5b/3x3_reduce
I0703 20:01:39.540521 21340 net.cpp:410] inception_5b/3x3_reduce <- inception_5a/output_inception_5a/output_0_split_1
I0703 20:01:39.540527 21340 net.cpp:368] inception_5b/3x3_reduce -> inception_5b/3x3_reduce
I0703 20:01:39.540534 21340 net.cpp:120] Setting up inception_5b/3x3_reduce
I0703 20:01:39.541507 21340 net.cpp:127] Top shape: 30 192 7 7 (282240)
I0703 20:01:39.541518 21340 layer_factory.hpp:74] Creating layer inception_5b/relu_3x3_reduce
I0703 20:01:39.541524 21340 net.cpp:90] Creating Layer inception_5b/relu_3x3_reduce
I0703 20:01:39.541529 21340 net.cpp:410] inception_5b/relu_3x3_reduce <- inception_5b/3x3_reduce
I0703 20:01:39.541535 21340 net.cpp:357] inception_5b/relu_3x3_reduce -> inception_5b/3x3_reduce (in-place)
I0703 20:01:39.541543 21340 net.cpp:120] Setting up inception_5b/relu_3x3_reduce
I0703 20:01:39.541582 21340 net.cpp:127] Top shape: 30 192 7 7 (282240)
I0703 20:01:39.541589 21340 layer_factory.hpp:74] Creating layer inception_5b/3x3
I0703 20:01:39.541596 21340 net.cpp:90] Creating Layer inception_5b/3x3
I0703 20:01:39.541601 21340 net.cpp:410] inception_5b/3x3 <- inception_5b/3x3_reduce
I0703 20:01:39.541607 21340 net.cpp:368] inception_5b/3x3 -> inception_5b/3x3
I0703 20:01:39.541625 21340 net.cpp:120] Setting up inception_5b/3x3
I0703 20:01:39.545161 21340 net.cpp:127] Top shape: 30 384 7 7 (564480)
I0703 20:01:39.545176 21340 layer_factory.hpp:74] Creating layer inception_5b/relu_3x3
I0703 20:01:39.545184 21340 net.cpp:90] Creating Layer inception_5b/relu_3x3
I0703 20:01:39.545189 21340 net.cpp:410] inception_5b/relu_3x3 <- inception_5b/3x3
I0703 20:01:39.545195 21340 net.cpp:357] inception_5b/relu_3x3 -> inception_5b/3x3 (in-place)
I0703 20:01:39.545213 21340 net.cpp:120] Setting up inception_5b/relu_3x3
I0703 20:01:39.545325 21340 net.cpp:127] Top shape: 30 384 7 7 (564480)
I0703 20:01:39.545334 21340 layer_factory.hpp:74] Creating layer inception_5b/5x5_reduce
I0703 20:01:39.545341 21340 net.cpp:90] Creating Layer inception_5b/5x5_reduce
I0703 20:01:39.545347 21340 net.cpp:410] inception_5b/5x5_reduce <- inception_5a/output_inception_5a/output_0_split_2
I0703 20:01:39.545353 21340 net.cpp:368] inception_5b/5x5_reduce -> inception_5b/5x5_reduce
I0703 20:01:39.545361 21340 net.cpp:120] Setting up inception_5b/5x5_reduce
I0703 20:01:39.545758 21340 net.cpp:127] Top shape: 30 48 7 7 (70560)
I0703 20:01:39.545768 21340 layer_factory.hpp:74] Creating layer inception_5b/relu_5x5_reduce
I0703 20:01:39.545776 21340 net.cpp:90] Creating Layer inception_5b/relu_5x5_reduce
I0703 20:01:39.545781 21340 net.cpp:410] inception_5b/relu_5x5_reduce <- inception_5b/5x5_reduce
I0703 20:01:39.545786 21340 net.cpp:357] inception_5b/relu_5x5_reduce -> inception_5b/5x5_reduce (in-place)
I0703 20:01:39.545794 21340 net.cpp:120] Setting up inception_5b/relu_5x5_reduce
I0703 20:01:39.545835 21340 net.cpp:127] Top shape: 30 48 7 7 (70560)
I0703 20:01:39.545840 21340 layer_factory.hpp:74] Creating layer inception_5b/5x5
I0703 20:01:39.545847 21340 net.cpp:90] Creating Layer inception_5b/5x5
I0703 20:01:39.545852 21340 net.cpp:410] inception_5b/5x5 <- inception_5b/5x5_reduce
I0703 20:01:39.545860 21340 net.cpp:368] inception_5b/5x5 -> inception_5b/5x5
I0703 20:01:39.545866 21340 net.cpp:120] Setting up inception_5b/5x5
I0703 20:01:39.546810 21340 net.cpp:127] Top shape: 30 128 7 7 (188160)
I0703 20:01:39.546823 21340 layer_factory.hpp:74] Creating layer inception_5b/relu_5x5
I0703 20:01:39.546829 21340 net.cpp:90] Creating Layer inception_5b/relu_5x5
I0703 20:01:39.546834 21340 net.cpp:410] inception_5b/relu_5x5 <- inception_5b/5x5
I0703 20:01:39.546839 21340 net.cpp:357] inception_5b/relu_5x5 -> inception_5b/5x5 (in-place)
I0703 20:01:39.546845 21340 net.cpp:120] Setting up inception_5b/relu_5x5
I0703 20:01:39.546887 21340 net.cpp:127] Top shape: 30 128 7 7 (188160)
I0703 20:01:39.546893 21340 layer_factory.hpp:74] Creating layer inception_5b/pool
I0703 20:01:39.546898 21340 layer_factory.cpp:55] CUDNN does not support padding or multiple tops. Using Caffe's own pooling layer.
I0703 20:01:39.546905 21340 net.cpp:90] Creating Layer inception_5b/pool
I0703 20:01:39.546908 21340 net.cpp:410] inception_5b/pool <- inception_5a/output_inception_5a/output_0_split_3
I0703 20:01:39.546914 21340 net.cpp:368] inception_5b/pool -> inception_5b/pool
I0703 20:01:39.546921 21340 net.cpp:120] Setting up inception_5b/pool
I0703 20:01:39.546928 21340 net.cpp:127] Top shape: 30 832 7 7 (1223040)
I0703 20:01:39.546932 21340 layer_factory.hpp:74] Creating layer inception_5b/pool_proj
I0703 20:01:39.546941 21340 net.cpp:90] Creating Layer inception_5b/pool_proj
I0703 20:01:39.546944 21340 net.cpp:410] inception_5b/pool_proj <- inception_5b/pool
I0703 20:01:39.546950 21340 net.cpp:368] inception_5b/pool_proj -> inception_5b/pool_proj
I0703 20:01:39.546957 21340 net.cpp:120] Setting up inception_5b/pool_proj
I0703 20:01:39.547684 21340 net.cpp:127] Top shape: 30 128 7 7 (188160)
I0703 20:01:39.547696 21340 layer_factory.hpp:74] Creating layer inception_5b/relu_pool_proj
I0703 20:01:39.547703 21340 net.cpp:90] Creating Layer inception_5b/relu_pool_proj
I0703 20:01:39.547708 21340 net.cpp:410] inception_5b/relu_pool_proj <- inception_5b/pool_proj
I0703 20:01:39.547713 21340 net.cpp:357] inception_5b/relu_pool_proj -> inception_5b/pool_proj (in-place)
I0703 20:01:39.547720 21340 net.cpp:120] Setting up inception_5b/relu_pool_proj
I0703 20:01:39.547829 21340 net.cpp:127] Top shape: 30 128 7 7 (188160)
I0703 20:01:39.547837 21340 layer_factory.hpp:74] Creating layer inception_5b/output
I0703 20:01:39.547844 21340 net.cpp:90] Creating Layer inception_5b/output
I0703 20:01:39.547848 21340 net.cpp:410] inception_5b/output <- inception_5b/1x1
I0703 20:01:39.547853 21340 net.cpp:410] inception_5b/output <- inception_5b/3x3
I0703 20:01:39.547866 21340 net.cpp:410] inception_5b/output <- inception_5b/5x5
I0703 20:01:39.547871 21340 net.cpp:410] inception_5b/output <- inception_5b/pool_proj
I0703 20:01:39.547876 21340 net.cpp:368] inception_5b/output -> inception_5b/output
I0703 20:01:39.547883 21340 net.cpp:120] Setting up inception_5b/output
I0703 20:01:39.547889 21340 net.cpp:127] Top shape: 30 1024 7 7 (1505280)
I0703 20:01:39.547894 21340 layer_factory.hpp:74] Creating layer pool5/7x7_s1
I0703 20:01:39.547899 21340 net.cpp:90] Creating Layer pool5/7x7_s1
I0703 20:01:39.547904 21340 net.cpp:410] pool5/7x7_s1 <- inception_5b/output
I0703 20:01:39.547910 21340 net.cpp:368] pool5/7x7_s1 -> pool5/7x7_s1
I0703 20:01:39.547916 21340 net.cpp:120] Setting up pool5/7x7_s1
I0703 20:01:39.547960 21340 net.cpp:127] Top shape: 30 1024 1 1 (30720)
I0703 20:01:39.547966 21340 layer_factory.hpp:74] Creating layer pool5/drop_7x7_s1
I0703 20:01:39.547972 21340 net.cpp:90] Creating Layer pool5/drop_7x7_s1
I0703 20:01:39.547977 21340 net.cpp:410] pool5/drop_7x7_s1 <- pool5/7x7_s1
I0703 20:01:39.547983 21340 net.cpp:357] pool5/drop_7x7_s1 -> pool5/7x7_s1 (in-place)
I0703 20:01:39.547988 21340 net.cpp:120] Setting up pool5/drop_7x7_s1
I0703 20:01:39.547994 21340 net.cpp:127] Top shape: 30 1024 1 1 (30720)
I0703 20:01:39.547999 21340 layer_factory.hpp:74] Creating layer stanford_cars_loss3/classifier
I0703 20:01:39.548007 21340 net.cpp:90] Creating Layer stanford_cars_loss3/classifier
I0703 20:01:39.548010 21340 net.cpp:410] stanford_cars_loss3/classifier <- pool5/7x7_s1
I0703 20:01:39.548017 21340 net.cpp:368] stanford_cars_loss3/classifier -> stanford_cars_loss3/classifier
I0703 20:01:39.548023 21340 net.cpp:120] Setting up stanford_cars_loss3/classifier
I0703 20:01:39.549005 21340 net.cpp:127] Top shape: 30 196 (5880)
I0703 20:01:39.549015 21340 layer_factory.hpp:74] Creating layer loss3/loss3
I0703 20:01:39.549021 21340 net.cpp:90] Creating Layer loss3/loss3
I0703 20:01:39.549026 21340 net.cpp:410] loss3/loss3 <- stanford_cars_loss3/classifier
I0703 20:01:39.549031 21340 net.cpp:410] loss3/loss3 <- label_data_1_split_2
I0703 20:01:39.549037 21340 net.cpp:368] loss3/loss3 -> loss3/loss3
I0703 20:01:39.549044 21340 net.cpp:120] Setting up loss3/loss3
…
I0703 20:01:39.553956 21340 net.cpp:287] The NetState phase (1) differed from the phase (0) specified by a rule in layer data
I0703 20:01:39.554664 21340 net.cpp:42] Initializing net from parameters: 
name: "GoogleNet"
state {
  phase: TEST
}
layer {
  name: "data"
  type: "Data"
  top: "data"
  top: "label"
  include {
    phase: TEST
  }
  transform_param {
    mirror: false
    crop_size: 224
    mean_value: 104
    mean_value: 117
    mean_value: 123
  }
  data_param {
    source: "examples/stanford_cars/stanford_cars_val_lmdb"
    batch_size: 10
    backend: LMDB
  }
}
layer {
  name: "conv1/7x7_s2"
  type: "Convolution"
  bottom: "data"
  top: "conv1/7x7_s2"
  param {
    lr_mult: 1
    decay_mult: 1
  }
  param {
    lr_mult: 2
    decay_mult: 0
  }
  convolution_param {
    num_output: 64
    pad: 3
    kernel_size: 7
    stride: 2
    weight_filler {
      type: "xavier"
      std: 0.1
    }
    bias_filler {
      type: "constant"
      value: 0.2
    }
  }
}
layer {
  name: "conv1/relu_7x7"
  type: "ReLU"
  bottom: "conv1/7x7_s2"
  top: "conv1/7x7_s2"
}
layer {
  name: "pool1/3x3_s2"
  type: "Pooling"
  bottom: "conv1/7x7_s2"
  top: "pool1/3x3_s2"
  pooling_param {
    pool: MAX
    kernel_size: 3
    stride: 2
  }
}
layer {
  name: "pool1/norm1"
  type: "LRN"
  bottom: "pool1/3x3_s2"
  top: "pool1/norm1"
  lrn_param {
    local_size: 5
    alpha: 0.0001
    beta: 0.75
  }
}
layer {
  name: "conv2/3x3_reduce"
  type: "Convolution"
  bottom: "pool1/norm1"
  top: "conv2/3x3_reduce"
  param {
    lr_mult: 1
    decay_mult: 1
  }
  param {
    lr_mult: 2
    decay_mult: 0
  }
  convolution_param {
    num_output: 64
    kernel_size: 1
    weight_filler {
      type: "xavier"
      std: 0.1
    }
    bias_filler {
      type: "constant"
      value: 0.2
    }
  }
}
layer {
  name: "conv2/relu_3x3_reduce"
  type: "ReLU"
  bottom: "conv2/3x3_reduce"
  top: "conv2/3x3_reduce"
}
layer {
  name: "conv2/3x3"
  type: "Convolution"
  bottom: "conv2/3x3_reduce"
  top: "conv2/3x3"
  param {
    lr_mult: 1
    decay_mult: 1
  }
  param {
    lr_mult: 2
    decay_mult: 0
  }
  convolution_param {
    num_output: 192
    pad: 1
    kernel_size: 3
    weight_filler {
      type: "xavier"
      std: 0.03
    }
    bias_filler {
      type: "constant"
      value: 0.2
    }
  }
}
layer {
  name: "conv2/relu_3x3"
  type: "ReLU"
  bottom: "conv2/3x3"
  top: "conv2/3x3"
}
layer {
  name: "conv2/norm2"
  type: "LRN"
  bottom: "conv2/3x3"
  top: "conv2/norm2"
  lrn_param {
    local_size: 5
    alpha: 0.0001
    beta: 0.75
  }
}
layer {
  name: "pool2/3x3_s2"
  type: "Pooling"
  bottom: "conv2/norm2"
  top: "pool2/3x3_s2"
  pooling_param {
    pool: MAX
    kernel_size: 3
    stride: 2
  }
}
layer {
  name: "inception_3a/1x1"
  type: "Convolution"
  bottom: "pool2/3x3_s2"
  top: "inception_3a/1x1"
  param {
    lr_mult: 1
    decay_mult: 1
  }
  param {
    lr_mult: 2
    decay_mult: 0
  }
  convolution_param {
    num_output: 64
    kernel_size: 1
    weight_filler {
      type: "xavier"
      std: 0.03
    }
    bias_filler {
      type: "constant"
      value: 0.2
    }
  }
}
layer {
  name: "inception_3a/relu_1x1"
  type: "ReLU"
  bottom: "inception_3a/1x1"
  top: "inception_3a/1x1"
}
layer {
  name: "inception_3a/3x3_reduce"
  type: "Convolution"
  bottom: "pool2/3x3_s2"
  top: "inception_3a/3x3_reduce"
  param {
    lr_mult: 1
    decay_mult: 1
  }
  param {
    lr_mult: 2
    decay_mult: 0
  }
  convolution_param {
    num_output: 96
    kernel_size: 1
    weight_filler {
      type: "xavier"
      std: 0.09
    }
    bias_filler {
      type: "constant"
      value: 0.2
    }
  }
}
layer {
  name: "inception_3a/relu_3x3_reduce"
  type: "ReLU"
  bottom: "inception_3a/3x3_reduce"
  top: "inception_3a/3x3_reduce"
}
layer {
  name: "inception_3a/3x3"
  type: "Convolution"
  bottom: "inception_3a/3x3_reduce"
  top: "inception_3a/3x3"
  param {
    lr_mult: 1
    decay_mult: 1
  }
  param {
    lr_mult: 2
    decay_mult: 0
  }
  convolution_param {
    num_output: 128
    pad: 1
    kernel_size: 3
    weight_filler {
      type: "xavier"
      std: 0.03
    }
    bias_filler {
      type: "constant"
      value: 0.2
    }
  }
}
layer {
  name: "inception_3a/relu_3x3"
  type: "ReLU"
  bottom: "inception_3a/3x3"
  top: "inception_3a/3x3"
}
layer {
  name: "inception_3a/5x5_reduce"
  type: "Convolution"
  bottom: "pool2/3x3_s2"
  top: "inception_3a/5x5_reduce"
  param {
    lr_mult: 1
    decay_mult: 1
  }
  param {
    lr_mult: 2
    decay_mult: 0
  }
  convolution_param {
    num_output: 16
    kernel_size: 1
    weight_filler {
      type: "xavier"
      std: 0.2
    }
    bias_filler {
      type: "constant"
      value: 0.2
    }
  }
}
layer {
  name: "inception_3a/relu_5x5_reduce"
  type: "ReLU"
  bottom: "inception_3a/5x5_reduce"
  top: "inception_3a/5x5_reduce"
}
layer {
  name: "inception_3a/5x5"
  type: "Convolution"
  bottom: "inception_3a/5x5_reduce"
  top: "inception_3a/5x5"
  param {
    lr_mult: 1
    decay_mult: 1
  }
  param {
    lr_mult: 2
    decay_mult: 0
  }
  convolution_param {
    num_output: 32
    pad: 2
    kernel_size: 5
    weight_filler {
      type: "xavier"
      std: 0.03
    }
    bias_filler {
      type: "constant"
      value: 0.2
    }
  }
}
layer {
  name: "inception_3a/relu_5x5"
  type: "ReLU"
  bottom: "inception_3a/5x5"
  top: "inception_3a/5x5"
}
layer {
  name: "inception_3a/pool"
  type: "Pooling"
  bottom: "pool2/3x3_s2"
  top: "inception_3a/pool"
  pooling_param {
    pool: MAX
    kernel_size: 3
    stride: 1
    pad: 1
  }
}
layer {
  name: "inception_3a/pool_proj"
  type: "Convolution"
  bottom: "inception_3a/pool"
  top: "inception_3a/pool_proj"
  param {
    lr_mult: 1
    decay_mult: 1
  }
  param {
    lr_mult: 2
    decay_mult: 0
  }
  convolution_param {
    num_output: 32
    kernel_size: 1
    weight_filler {
      type: "xavier"
      std: 0.1
    }
    bias_filler {
      type: "constant"
      value: 0.2
    }
  }
}
layer {
  name: "inception_3a/relu_pool_proj"
  type: "ReLU"
  bottom: "inception_3a/pool_proj"
  top: "inception_3a/pool_proj"
}
layer {
  name: "inception_3a/output"
  type: "Concat"
  bottom: "inception_3a/1x1"
  bottom: "inception_3a/3x3"
  bottom: "inception_3a/5x5"
  bottom: "inception_3a/pool_proj"
  top: "inception_3a/output"
}
layer {
  name: "inception_3b/1x1"
  type: "Convolution"
  bottom: "inception_3a/output"
  top: "inception_3b/1x1"
  param {
    lr_mult: 1
    decay_mult: 1
  }
  param {
    lr_mult: 2
    decay_mult: 0
  }
  convolution_param {
    num_output: 128
    kernel_size: 1
    weight_filler {
      type: "xavier"
      std: 0.03
    }
    bias_filler {
      type: "constant"
      value: 0.2
    }
  }
}
layer {
  name: "inception_3b/relu_1x1"
  type: "ReLU"
  bottom: "inception_3b/1x1"
  top: "inception_3b/1x1"
}
layer {
  name: "inception_3b/3x3_reduce"
  type: "Convolution"
  bottom: "inception_3a/output"
  top: "inception_3b/3x3_reduce"
  param {
    lr_mult: 1
    decay_mult: 1
  }
  param {
    lr_mult: 2
    decay_mult: 0
  }
  convolution_param {
    num_output: 128
    kernel_size: 1
    weight_filler {
      type: "xavier"
      std: 0.09
    }
    bias_filler {
      type: "constant"
      value: 0.2
    }
  }
}
layer {
  name: "inception_3b/relu_3x3_reduce"
  type: "ReLU"
  bottom: "inception_3b/3x3_reduce"
  top: "inception_3b/3x3_reduce"
}
layer {
  name: "inception_3b/3x3"
  type: "Convolution"
  bottom: "inception_3b/3x3_reduce"
  top: "inception_3b/3x3"
  param {
    lr_mult: 1
    decay_mult: 1
  }
  param {
    lr_mult: 2
    decay_mult: 0
  }
  convolution_param {
    num_output: 192
    pad: 1
    kernel_size: 3
    weight_filler {
      type: "xavier"
      std: 0.03
    }
    bias_filler {
      type: "constant"
      value: 0.2
    }
  }
}
layer {
  name: "inception_3b/relu_3x3"
  type: "ReLU"
  bottom: "inception_3b/3x3"
  top: "inception_3b/3x3"
}
layer {
  name: "inception_3b/5x5_reduce"
  type: "Convolution"
  bottom: "inception_3a/output"
  top: "inception_3b/5x5_reduce"
  param {
    lr_mult: 1
    decay_mult: 1
  }
  param {
    lr_mult: 2
    decay_mult: 0
  }
  convolution_param {
    num_output: 32
    kernel_size: 1
    weight_filler {
      type: "xavier"
      std: 0.2
    }
    bias_filler {
      type: "constant"
      value: 0.2
    }
  }
}
layer {
  name: "inception_3b/relu_5x5_reduce"
  type: "ReLU"
  bottom: "inception_3b/5x5_reduce"
  top: "inception_3b/5x5_reduce"
}
layer {
  name: "inception_3b/5x5"
  type: "Convolution"
  bottom: "inception_3b/5x5_reduce"
  top: "inception_3b/5x5"
  param {
    lr_mult: 1
    decay_mult: 1
  }
  param {
    lr_mult: 2
    decay_mult: 0
  }
  convolution_param {
    num_output: 96
    pad: 2
    kernel_size: 5
    weight_filler {
      type: "xavier"
      std: 0.03
    }
    bias_filler {
      type: "constant"
      value: 0.2
    }
  }
}
layer {
  name: "inception_3b/relu_5x5"
  type: "ReLU"
  bottom: "inception_3b/5x5"
  top: "inception_3b/5x5"
}
layer {
  name: "inception_3b/pool"
  type: "Pooling"
  bottom: "inception_3a/output"
  top: "inception_3b/pool"
  pooling_param {
    pool: MAX
    kernel_size: 3
    stride: 1
    pad: 1
  }
}
layer {
  name: "inception_3b/pool_proj"
  type: "Convolution"
  bottom: "inception_3b/pool"
  top: "inception_3b/pool_proj"
  param {
    lr_mult: 1
    decay_mult: 1
  }
  param {
    lr_mult: 2
    decay_mult: 0
  }
  convolution_param {
    num_output: 64
    kernel_size: 1
    weight_filler {
      type: "xavier"
      std: 0.1
    }
    bias_filler {
      type: "constant"
      value: 0.2
    }
  }
}
layer {
  name: "inception_3b/relu_pool_proj"
  type: "ReLU"
  bottom: "inception_3b/pool_proj"
  top: "inception_3b/pool_proj"
}
layer {
  name: "inception_3b/output"
  type: "Concat"
  bottom: "inception_3b/1x1"
  bottom: "inception_3b/3x3"
  bottom: "inception_3b/5x5"
  bottom: "inception_3b/pool_proj"
  top: "inception_3b/output"
}
layer {
  name: "pool3/3x3_s2"
  type: "Pooling"
  bottom: "inception_3b/output"
  top: "pool3/3x3_s2"
  pooling_param {
    pool: MAX
    kernel_size: 3
    stride: 2
  }
}
layer {
  name: "inception_4a/1x1"
  type: "Convolution"
  bottom: "pool3/3x3_s2"
  top: "inception_4a/1x1"
  param {
    lr_mult: 1
    decay_mult: 1
  }
  param {
    lr_mult: 2
    decay_mult: 0
  }
  convolution_param {
    num_output: 192
    kernel_size: 1
    weight_filler {
      type: "xavier"
      std: 0.03
    }
    bias_filler {
      type: "constant"
      value: 0.2
    }
  }
}
layer {
  name: "inception_4a/relu_1x1"
  type: "ReLU"
  bottom: "inception_4a/1x1"
  top: "inception_4a/1x1"
}
layer {
  name: "inception_4a/3x3_reduce"
  type: "Convolution"
  bottom: "pool3/3x3_s2"
  top: "inception_4a/3x3_reduce"
  param {
    lr_mult: 1
    decay_mult: 1
  }
  param {
    lr_mult: 2
    decay_mult: 0
  }
  convolution_param {
    num_output: 96
    kernel_size: 1
    weight_filler {
      type: "xavier"
      std: 0.09
    }
    bias_filler {
      type: "constant"
      value: 0.2
    }
  }
}
layer {
  name: "inception_4a/relu_3x3_reduce"
  type: "ReLU"
  bottom: "inception_4a/3x3_reduce"
  top: "inception_4a/3x3_reduce"
}
layer {
  name: "inception_4a/3x3"
  type: "Convolution"
  bottom: "inception_4a/3x3_reduce"
  top: "inception_4a/3x3"
  param {
    lr_mult: 1
    decay_mult: 1
  }
  param {
    lr_mult: 2
    decay_mult: 0
  }
  convolution_param {
    num_output: 208
    pad: 1
    kernel_size: 3
    weight_filler {
      type: "xavier"
      std: 0.03
    }
    bias_filler {
      type: "constant"
      value: 0.2
    }
  }
}
layer {
  name: "inception_4a/relu_3x3"
  type: "ReLU"
  bottom: "inception_4a/3x3"
  top: "inception_4a/3x3"
}
layer {
  name: "inception_4a/5x5_reduce"
  type: "Convolution"
  bottom: "pool3/3x3_s2"
  top: "inception_4a/5x5_reduce"
  param {
    lr_mult: 1
    decay_mult: 1
  }
  param {
    lr_mult: 2
    decay_mult: 0
  }
  convolution_param {
    num_output: 16
    kernel_size: 1
    weight_filler {
      type: "xavier"
      std: 0.2
    }
    bias_filler {
      type: "constant"
      value: 0.2
    }
  }
}
layer {
  name: "inception_4a/relu_5x5_reduce"
  type: "ReLU"
  bottom: "inception_4a/5x5_reduce"
  top: "inception_4a/5x5_reduce"
}
layer {
  name: "inception_4a/5x5"
  type: "Convolution"
  bottom: "inception_4a/5x5_reduce"
  top: "inception_4a/5x5"
  param {
    lr_mult: 1
    decay_mult: 1
  }
  param {
    lr_mult: 2
    decay_mult: 0
  }
  convolution_param {
    num_output: 48
    pad: 2
    kernel_size: 5
    weight_filler {
      type: "xavier"
      std: 0.03
    }
    bias_filler {
      type: "constant"
      value: 0.2
    }
  }
}
layer {
  name: "inception_4a/relu_5x5"
  type: "ReLU"
  bottom: "inception_4a/5x5"
  top: "inception_4a/5x5"
}
layer {
  name: "inception_4a/pool"
  type: "Pooling"
  bottom: "pool3/3x3_s2"
  top: "inception_4a/pool"
  pooling_param {
    pool: MAX
    kernel_size: 3
    stride: 1
    pad: 1
  }
}
layer {
  name: "inception_4a/pool_proj"
  type: "Convolution"
  bottom: "inception_4a/pool"
  top: "inception_4a/pool_proj"
  param {
    lr_mult: 1
    decay_mult: 1
  }
  param {
    lr_mult: 2
    decay_mult: 0
  }
  convolution_param {
    num_output: 64
    kernel_size: 1
    weight_filler {
      type: "xavier"
      std: 0.1
    }
    bias_filler {
      type: "constant"
      value: 0.2
    }
  }
}
layer {
  name: "inception_4a/relu_pool_proj"
  type: "ReLU"
  bottom: "inception_4a/pool_proj"
  top: "inception_4a/pool_proj"
}
layer {
  name: "inception_4a/output"
  type: "Concat"
  bottom: "inception_4a/1x1"
  bottom: "inception_4a/3x3"
  bottom: "inception_4a/5x5"
  bottom: "inception_4a/pool_proj"
  top: "inception_4a/output"
}
layer {
  name: "loss1/ave_pool"
  type: "Pooling"
  bottom: "inception_4a/output"
  top: "loss1/ave_pool"
  pooling_param {
    pool: AVE
    kernel_size: 5
    stride: 3
  }
}
layer {
  name: "loss1/conv"
  type: "Convolution"
  bottom: "loss1/ave_pool"
  top: "loss1/conv"
  param {
    lr_mult: 1
    decay_mult: 1
  }
  param {
    lr_mult: 2
    decay_mult: 0
  }
  convolution_param {
    num_output: 128
    kernel_size: 1
    weight_filler {
      type: "xavier"
      std: 0.08
    }
    bias_filler {
      type: "constant"
      value: 0.2
    }
  }
}
layer {
  name: "loss1/relu_conv"
  type: "ReLU"
  bottom: "loss1/conv"
  top: "loss1/conv"
}
layer {
  name: "loss1/fc"
  type: "InnerProduct"
  bottom: "loss1/conv"
  top: "loss1/fc"
  param {
    lr_mult: 1
    decay_mult: 1
  }
  param {
    lr_mult: 2
    decay_mult: 0
  }
  inner_product_param {
    num_output: 1024
    weight_filler {
      type: "xavier"
      std: 0.02
    }
    bias_filler {
      type: "constant"
      value: 0.2
    }
  }
}
layer {
  name: "loss1/relu_fc"
  type: "ReLU"
  bottom: "loss1/fc"
  top: "loss1/fc"
}
layer {
  name: "loss1/drop_fc"
  type: "Dropout"
  bottom: "loss1/fc"
  top: "loss1/fc"
  dropout_param {
    dropout_ratio: 0.2
  }
}
layer {
  name: "stanford_cars_loss1/classifier"
  type: "InnerProduct"
  bottom: "loss1/fc"
  top: "stanford_cars_loss1/classifier"
  param {
    lr_mult: 1
    decay_mult: 1
  }
  param {
    lr_mult: 2
    decay_mult: 0
  }
  inner_product_param {
    num_output: 196
    weight_filler {
      type: "xavier"
      std: 0.0009765625
    }
    bias_filler {
      type: "constant"
      value: 0
    }
  }
}
layer {
  name: "loss1/loss"
  type: "SoftmaxWithLoss"
  bottom: "stanford_cars_loss1/classifier"
  bottom: "label"
  top: "loss1/loss1"
  loss_weight: 0.3
}
layer {
  name: "loss1/top-1"
  type: "Accuracy"
  bottom: "stanford_cars_loss1/classifier"
  bottom: "label"
  top: "loss1/top-1"
  include {
    phase: TEST
  }
}
layer {
  name: "loss1/top-5"
  type: "Accuracy"
  bottom: "stanford_cars_loss1/classifier"
  bottom: "label"
  top: "loss1/top-5"
  include {
    phase: TEST
  }
  accuracy_param {
    top_k: 5
  }
}
layer {
  name: "inception_4b/1x1"
  type: "Convolution"
  bottom: "inception_4a/output"
  top: "inception_4b/1x1"
  param {
    lr_mult: 1
    decay_mult: 1
  }
  param {
    lr_mult: 2
    decay_mult: 0
  }
  convolution_param {
    num_output: 160
    kernel_size: 1
    weight_filler {
      type: "xavier"
      std: 0.03
    }
    bias_filler {
      type: "constant"
      value: 0.2
    }
  }
}
layer {
  name: "inception_4b/relu_1x1"
  type: "ReLU"
  bottom: "inception_4b/1x1"
  top: "inception_4b/1x1"
}
layer {
  name: "inception_4b/3x3_reduce"
  type: "Convolution"
  bottom: "inception_4a/output"
  top: "inception_4b/3x3_reduce"
  param {
    lr_mult: 1
    decay_mult: 1
  }
  param {
    lr_mult: 2
    decay_mult: 0
  }
  convolution_param {
    num_output: 112
    kernel_size: 1
    weight_filler {
      type: "xavier"
      std: 0.09
    }
    bias_filler {
      type: "constant"
      value: 0.2
    }
  }
}
layer {
  name: "inception_4b/relu_3x3_reduce"
  type: "ReLU"
  bottom: "inception_4b/3x3_reduce"
  top: "inception_4b/3x3_reduce"
}
layer {
  name: "inception_4b/3x3"
  type: "Convolution"
  bottom: "inception_4b/3x3_reduce"
  top: "inception_4b/3x3"
  param {
    lr_mult: 1
    decay_mult: 1
  }
  param {
    lr_mult: 2
    decay_mult: 0
  }
  convolution_param {
    num_output: 224
    pad: 1
    kernel_size: 3
    weight_filler {
      type: "xavier"
      std: 0.03
    }
    bias_filler {
      type: "constant"
      value: 0.2
    }
  }
}
layer {
  name: "inception_4b/relu_3x3"
  type: "ReLU"
  bottom: "inception_4b/3x3"
  top: "inception_4b/3x3"
}
layer {
  name: "inception_4b/5x5_reduce"
  type: "Convolution"
  bottom: "inception_4a/output"
  top: "inception_4b/5x5_reduce"
  param {
    lr_mult: 1
    decay_mult: 1
  }
  param {
    lr_mult: 2
    decay_mult: 0
  }
  convolution_param {
    num_output: 24
    kernel_size: 1
    weight_filler {
      type: "xavier"
      std: 0.2
    }
    bias_filler {
      type: "constant"
      value: 0.2
    }
  }
}
layer {
  name: "inception_4b/relu_5x5_reduce"
  type: "ReLU"
  bottom: "inception_4b/5x5_reduce"
  top: "inception_4b/5x5_reduce"
}
layer {
  name: "inception_4b/5x5"
  type: "Convolution"
  bottom: "inception_4b/5x5_reduce"
  top: "inception_4b/5x5"
  param {
    lr_mult: 1
    decay_mult: 1
  }
  param {
    lr_mult: 2
    decay_mult: 0
  }
  convolution_param {
    num_output: 64
    pad: 2
    kernel_size: 5
    weight_filler {
      type: "xavier"
      std: 0.03
    }
    bias_filler {
      type: "constant"
      value: 0.2
    }
  }
}
layer {
  name: "inception_4b/relu_5x5"
  type: "ReLU"
  bottom: "inception_4b/5x5"
  top: "inception_4b/5x5"
}
layer {
  name: "inception_4b/pool"
  type: "Pooling"
  bottom: "inception_4a/output"
  top: "inception_4b/pool"
  pooling_param {
    pool: MAX
    kernel_size: 3
    stride: 1
    pad: 1
  }
}
layer {
  name: "inception_4b/pool_proj"
  type: "Convolution"
  bottom: "inception_4b/pool"
  top: "inception_4b/pool_proj"
  param {
    lr_mult: 1
    decay_mult: 1
  }
  param {
    lr_mult: 2
    decay_mult: 0
  }
  convolution_param {
    num_output: 64
    kernel_size: 1
    weight_filler {
      type: "xavier"
      std: 0.1
    }
    bias_filler {
      type: "constant"
      value: 0.2
    }
  }
}
layer {
  name: "inception_4b/relu_pool_proj"
  type: "ReLU"
  bottom: "inception_4b/pool_proj"
  top: "inception_4b/pool_proj"
}
layer {
  name: "inception_4b/output"
  type: "Concat"
  bottom: "inception_4b/1x1"
  bottom: "inception_4b/3x3"
  bottom: "inception_4b/5x5"
  bottom: "inception_4b/pool_proj"
  top: "inception_4b/output"
}
layer {
  name: "inception_4c/1x1"
  type: "Convolution"
  bottom: "inception_4b/output"
  top: "inception_4c/1x1"
  param {
    lr_mult: 1
    decay_mult: 1
  }
  param {
    lr_mult: 2
    decay_mult: 0
  }
  convolution_param {
    num_output: 128
    kernel_size: 1
    weight_filler {
      type: "xavier"
      std: 0.03
    }
    bias_filler {
      type: "constant"
      value: 0.2
    }
  }
}
layer {
  name: "inception_4c/relu_1x1"
  type: "ReLU"
  bottom: "inception_4c/1x1"
  top: "inception_4c/1x1"
}
layer {
  name: "inception_4c/3x3_reduce"
  type: "Convolution"
  bottom: "inception_4b/output"
  top: "inception_4c/3x3_reduce"
  param {
    lr_mult: 1
    decay_mult: 1
  }
  param {
    lr_mult: 2
    decay_mult: 0
  }
  convolution_param {
    num_output: 128
    kernel_size: 1
    weight_filler {
      type: "xavier"
      std: 0.09
    }
    bias_filler {
      type: "constant"
      value: 0.2
    }
  }
}
layer {
  name: "inception_4c/relu_3x3_reduce"
  type: "ReLU"
  bottom: "inception_4c/3x3_reduce"
  top: "inception_4c/3x3_reduce"
}
layer {
  name: "inception_4c/3x3"
  type: "Convolution"
  bottom: "inception_4c/3x3_reduce"
  top: "inception_4c/3x3"
  param {
    lr_mult: 1
    decay_mult: 1
  }
  param {
    lr_mult: 2
    decay_mult: 0
  }
  convolution_param {
    num_output: 256
    pad: 1
    kernel_size: 3
    weight_filler {
      type: "xavier"
      std: 0.03
    }
    bias_filler {
      type: "constant"
      value: 0.2
    }
  }
}
layer {
  name: "inception_4c/relu_3x3"
  type: "ReLU"
  bottom: "inception_4c/3x3"
  top: "inception_4c/3x3"
}
layer {
  name: "inception_4c/5x5_reduce"
  type: "Convolution"
  bottom: "inception_4b/output"
  top: "inception_4c/5x5_reduce"
  param {
    lr_mult: 1
    decay_mult: 1
  }
  param {
    lr_mult: 2
    decay_mult: 0
  }
  convolution_param {
    num_output: 24
    kernel_size: 1
    weight_filler {
      type: "xavier"
      std: 0.2
    }
    bias_filler {
      type: "constant"
      value: 0.2
    }
  }
}
layer {
  name: "inception_4c/relu_5x5_reduce"
  type: "ReLU"
  bottom: "inception_4c/5x5_reduce"
  top: "inception_4c/5x5_reduce"
}
layer {
  name: "inception_4c/5x5"
  type: "Convolution"
  bottom: "inception_4c/5x5_reduce"
  top: "inception_4c/5x5"
  param {
    lr_mult: 1
    decay_mult: 1
  }
  param {
    lr_mult: 2
    decay_mult: 0
  }
  convolution_param {
    num_output: 64
    pad: 2
    kernel_size: 5
    weight_filler {
      type: "xavier"
      std: 0.03
    }
    bias_filler {
      type: "constant"
      value: 0.2
    }
  }
}
layer {
  name: "inception_4c/relu_5x5"
  type: "ReLU"
  bottom: "inception_4c/5x5"
  top: "inception_4c/5x5"
}
layer {
  name: "inception_4c/pool"
  type: "Pooling"
  bottom: "inception_4b/output"
  top: "inception_4c/pool"
  pooling_param {
    pool: MAX
    kernel_size: 3
    stride: 1
    pad: 1
  }
}
layer {
  name: "inception_4c/pool_proj"
  type: "Convolution"
  bottom: "inception_4c/pool"
  top: "inception_4c/pool_proj"
  param {
    lr_mult: 1
    decay_mult: 1
  }
  param {
    lr_mult: 2
    decay_mult: 0
  }
  convolution_param {
    num_output: 64
    kernel_size: 1
    weight_filler {
      type: "xavier"
      std: 0.1
    }
    bias_filler {
      type: "constant"
      value: 0.2
    }
  }
}
layer {
  name: "inception_4c/relu_pool_proj"
  type: "ReLU"
  bottom: "inception_4c/pool_proj"
  top: "inception_4c/pool_proj"
}
layer {
  name: "inception_4c/output"
  type: "Concat"
  bottom: "inception_4c/1x1"
  bottom: "inception_4c/3x3"
  bottom: "inception_4c/5x5"
  bottom: "inception_4c/pool_proj"
  top: "inception_4c/output"
}
layer {
  name: "inception_4d/1x1"
  type: "Convolution"
  bottom: "inception_4c/output"
  top: "inception_4d/1x1"
  param {
    lr_mult: 1
    decay_mult: 1
  }
  param {
    lr_mult: 2
    decay_mult: 0
  }
  convolution_param {
    num_output: 112
    kernel_size: 1
    weight_filler {
      type: "xavier"
      std: 0.03
    }
    bias_filler {
      type: "constant"
      value: 0.2
    }
  }
}
layer {
  name: "inception_4d/relu_1x1"
  type: "ReLU"
  bottom: "inception_4d/1x1"
  top: "inception_4d/1x1"
}
layer {
  name: "inception_4d/3x3_reduce"
  type: "Convolution"
  bottom: "inception_4c/output"
  top: "inception_4d/3x3_reduce"
  param {
    lr_mult: 1
    decay_mult: 1
  }
  param {
    lr_mult: 2
    decay_mult: 0
  }
  convolution_param {
    num_output: 144
    kernel_size: 1
    weight_filler {
      type: "xavier"
      std: 0.09
    }
    bias_filler {
      type: "constant"
      value: 0.2
    }
  }
}
layer {
  name: "inception_4d/relu_3x3_reduce"
  type: "ReLU"
  bottom: "inception_4d/3x3_reduce"
  top: "inception_4d/3x3_reduce"
}
layer {
  name: "inception_4d/3x3"
  type: "Convolution"
  bottom: "inception_4d/3x3_reduce"
  top: "inception_4d/3x3"
  param {
    lr_mult: 1
    decay_mult: 1
  }
  param {
    lr_mult: 2
    decay_mult: 0
  }
  convolution_param {
    num_output: 288
    pad: 1
    kernel_size: 3
    weight_filler {
      type: "xavier"
      std: 0.03
    }
    bias_filler {
      type: "constant"
      value: 0.2
    }
  }
}
layer {
  name: "inception_4d/relu_3x3"
  type: "ReLU"
  bottom: "inception_4d/3x3"
  top: "inception_4d/3x3"
}
layer {
  name: "inception_4d/5x5_reduce"
  type: "Convolution"
  bottom: "inception_4c/output"
  top: "inception_4d/5x5_reduce"
  param {
    lr_mult: 1
    decay_mult: 1
  }
  param {
    lr_mult: 2
    decay_mult: 0
  }
  convolution_param {
    num_output: 32
    kernel_size: 1
    weight_filler {
      type: "xavier"
      std: 0.2
    }
    bias_filler {
      type: "constant"
      value: 0.2
    }
  }
}
layer {
  name: "inception_4d/relu_5x5_reduce"
  type: "ReLU"
  bottom: "inception_4d/5x5_reduce"
  top: "inception_4d/5x5_reduce"
}
layer {
  name: "inception_4d/5x5"
  type: "Convolution"
  bottom: "inception_4d/5x5_reduce"
  top: "inception_4d/5x5"
  param {
    lr_mult: 1
    decay_mult: 1
  }
  param {
    lr_mult: 2
    decay_mult: 0
  }
  convolution_param {
    num_output: 64
    pad: 2
    kernel_size: 5
    weight_filler {
      type: "xavier"
      std: 0.03
    }
    bias_filler {
      type: "constant"
      value: 0.2
    }
  }
}
layer {
  name: "inception_4d/relu_5x5"
  type: "ReLU"
  bottom: "inception_4d/5x5"
  top: "inception_4d/5x5"
}
layer {
  name: "inception_4d/pool"
  type: "Pooling"
  bottom: "inception_4c/output"
  top: "inception_4d/pool"
  pooling_param {
    pool: MAX
    kernel_size: 3
    stride: 1
    pad: 1
  }
}
layer {
  name: "inception_4d/pool_proj"
  type: "Convolution"
  bottom: "inception_4d/pool"
  top: "inception_4d/pool_proj"
  param {
    lr_mult: 1
    decay_mult: 1
  }
  param {
    lr_mult: 2
    decay_mult: 0
  }
  convolution_param {
    num_output: 64
    kernel_size: 1
…
I0703 20:01:39.645560 21340 net.cpp:127] Top shape: 10 128 14 14 (250880)
I0703 20:01:39.645572 21340 layer_factory.hpp:74] Creating layer inception_4c/relu_1x1
I0703 20:01:39.645580 21340 net.cpp:90] Creating Layer inception_4c/relu_1x1
I0703 20:01:39.645584 21340 net.cpp:410] inception_4c/relu_1x1 <- inception_4c/1x1
I0703 20:01:39.645589 21340 net.cpp:357] inception_4c/relu_1x1 -> inception_4c/1x1 (in-place)
I0703 20:01:39.645596 21340 net.cpp:120] Setting up inception_4c/relu_1x1
I0703 20:01:39.645643 21340 net.cpp:127] Top shape: 10 128 14 14 (250880)
I0703 20:01:39.645650 21340 layer_factory.hpp:74] Creating layer inception_4c/3x3_reduce
I0703 20:01:39.645658 21340 net.cpp:90] Creating Layer inception_4c/3x3_reduce
I0703 20:01:39.645663 21340 net.cpp:410] inception_4c/3x3_reduce <- inception_4b/output_inception_4b/output_0_split_1
I0703 20:01:39.645669 21340 net.cpp:368] inception_4c/3x3_reduce -> inception_4c/3x3_reduce
I0703 20:01:39.645676 21340 net.cpp:120] Setting up inception_4c/3x3_reduce
I0703 20:01:39.646255 21340 net.cpp:127] Top shape: 10 128 14 14 (250880)
I0703 20:01:39.646266 21340 layer_factory.hpp:74] Creating layer inception_4c/relu_3x3_reduce
I0703 20:01:39.646273 21340 net.cpp:90] Creating Layer inception_4c/relu_3x3_reduce
I0703 20:01:39.646280 21340 net.cpp:410] inception_4c/relu_3x3_reduce <- inception_4c/3x3_reduce
I0703 20:01:39.646284 21340 net.cpp:357] inception_4c/relu_3x3_reduce -> inception_4c/3x3_reduce (in-place)
I0703 20:01:39.646291 21340 net.cpp:120] Setting up inception_4c/relu_3x3_reduce
I0703 20:01:39.646409 21340 net.cpp:127] Top shape: 10 128 14 14 (250880)
I0703 20:01:39.646416 21340 layer_factory.hpp:74] Creating layer inception_4c/3x3
I0703 20:01:39.646425 21340 net.cpp:90] Creating Layer inception_4c/3x3
I0703 20:01:39.646430 21340 net.cpp:410] inception_4c/3x3 <- inception_4c/3x3_reduce
I0703 20:01:39.646436 21340 net.cpp:368] inception_4c/3x3 -> inception_4c/3x3
I0703 20:01:39.646443 21340 net.cpp:120] Setting up inception_4c/3x3
I0703 20:01:39.648116 21340 net.cpp:127] Top shape: 10 256 14 14 (501760)
I0703 20:01:39.648135 21340 layer_factory.hpp:74] Creating layer inception_4c/relu_3x3
I0703 20:01:39.648143 21340 net.cpp:90] Creating Layer inception_4c/relu_3x3
I0703 20:01:39.648149 21340 net.cpp:410] inception_4c/relu_3x3 <- inception_4c/3x3
I0703 20:01:39.648154 21340 net.cpp:357] inception_4c/relu_3x3 -> inception_4c/3x3 (in-place)
I0703 20:01:39.648160 21340 net.cpp:120] Setting up inception_4c/relu_3x3
I0703 20:01:39.648203 21340 net.cpp:127] Top shape: 10 256 14 14 (501760)
I0703 20:01:39.648208 21340 layer_factory.hpp:74] Creating layer inception_4c/5x5_reduce
I0703 20:01:39.648216 21340 net.cpp:90] Creating Layer inception_4c/5x5_reduce
I0703 20:01:39.648221 21340 net.cpp:410] inception_4c/5x5_reduce <- inception_4b/output_inception_4b/output_0_split_2
I0703 20:01:39.648228 21340 net.cpp:368] inception_4c/5x5_reduce -> inception_4c/5x5_reduce
I0703 20:01:39.648236 21340 net.cpp:120] Setting up inception_4c/5x5_reduce
I0703 20:01:39.648500 21340 net.cpp:127] Top shape: 10 24 14 14 (47040)
I0703 20:01:39.648511 21340 layer_factory.hpp:74] Creating layer inception_4c/relu_5x5_reduce
I0703 20:01:39.648517 21340 net.cpp:90] Creating Layer inception_4c/relu_5x5_reduce
I0703 20:01:39.648522 21340 net.cpp:410] inception_4c/relu_5x5_reduce <- inception_4c/5x5_reduce
I0703 20:01:39.648529 21340 net.cpp:357] inception_4c/relu_5x5_reduce -> inception_4c/5x5_reduce (in-place)
I0703 20:01:39.648535 21340 net.cpp:120] Setting up inception_4c/relu_5x5_reduce
I0703 20:01:39.648576 21340 net.cpp:127] Top shape: 10 24 14 14 (47040)
I0703 20:01:39.648581 21340 layer_factory.hpp:74] Creating layer inception_4c/5x5
I0703 20:01:39.648588 21340 net.cpp:90] Creating Layer inception_4c/5x5
I0703 20:01:39.648593 21340 net.cpp:410] inception_4c/5x5 <- inception_4c/5x5_reduce
I0703 20:01:39.648599 21340 net.cpp:368] inception_4c/5x5 -> inception_4c/5x5
I0703 20:01:39.648607 21340 net.cpp:120] Setting up inception_4c/5x5
I0703 20:01:39.648999 21340 net.cpp:127] Top shape: 10 64 14 14 (125440)
I0703 20:01:39.649010 21340 layer_factory.hpp:74] Creating layer inception_4c/relu_5x5
I0703 20:01:39.649016 21340 net.cpp:90] Creating Layer inception_4c/relu_5x5
I0703 20:01:39.649022 21340 net.cpp:410] inception_4c/relu_5x5 <- inception_4c/5x5
I0703 20:01:39.649027 21340 net.cpp:357] inception_4c/relu_5x5 -> inception_4c/5x5 (in-place)
I0703 20:01:39.649034 21340 net.cpp:120] Setting up inception_4c/relu_5x5
I0703 20:01:39.649073 21340 net.cpp:127] Top shape: 10 64 14 14 (125440)
I0703 20:01:39.649086 21340 layer_factory.hpp:74] Creating layer inception_4c/pool
I0703 20:01:39.649091 21340 layer_factory.cpp:55] CUDNN does not support padding or multiple tops. Using Caffe's own pooling layer.
I0703 20:01:39.649097 21340 net.cpp:90] Creating Layer inception_4c/pool
I0703 20:01:39.649102 21340 net.cpp:410] inception_4c/pool <- inception_4b/output_inception_4b/output_0_split_3
I0703 20:01:39.649108 21340 net.cpp:368] inception_4c/pool -> inception_4c/pool
I0703 20:01:39.649114 21340 net.cpp:120] Setting up inception_4c/pool
I0703 20:01:39.649122 21340 net.cpp:127] Top shape: 10 512 14 14 (1003520)
I0703 20:01:39.649127 21340 layer_factory.hpp:74] Creating layer inception_4c/pool_proj
I0703 20:01:39.649132 21340 net.cpp:90] Creating Layer inception_4c/pool_proj
I0703 20:01:39.649137 21340 net.cpp:410] inception_4c/pool_proj <- inception_4c/pool
I0703 20:01:39.649143 21340 net.cpp:368] inception_4c/pool_proj -> inception_4c/pool_proj
I0703 20:01:39.649149 21340 net.cpp:120] Setting up inception_4c/pool_proj
I0703 20:01:39.649548 21340 net.cpp:127] Top shape: 10 64 14 14 (125440)
I0703 20:01:39.649560 21340 layer_factory.hpp:74] Creating layer inception_4c/relu_pool_proj
I0703 20:01:39.649566 21340 net.cpp:90] Creating Layer inception_4c/relu_pool_proj
I0703 20:01:39.649571 21340 net.cpp:410] inception_4c/relu_pool_proj <- inception_4c/pool_proj
I0703 20:01:39.649576 21340 net.cpp:357] inception_4c/relu_pool_proj -> inception_4c/pool_proj (in-place)
I0703 20:01:39.649582 21340 net.cpp:120] Setting up inception_4c/relu_pool_proj
I0703 20:01:39.649694 21340 net.cpp:127] Top shape: 10 64 14 14 (125440)
I0703 20:01:39.649703 21340 layer_factory.hpp:74] Creating layer inception_4c/output
I0703 20:01:39.649708 21340 net.cpp:90] Creating Layer inception_4c/output
I0703 20:01:39.649713 21340 net.cpp:410] inception_4c/output <- inception_4c/1x1
I0703 20:01:39.649718 21340 net.cpp:410] inception_4c/output <- inception_4c/3x3
I0703 20:01:39.649724 21340 net.cpp:410] inception_4c/output <- inception_4c/5x5
I0703 20:01:39.649729 21340 net.cpp:410] inception_4c/output <- inception_4c/pool_proj
I0703 20:01:39.649734 21340 net.cpp:368] inception_4c/output -> inception_4c/output
I0703 20:01:39.649740 21340 net.cpp:120] Setting up inception_4c/output
I0703 20:01:39.649746 21340 net.cpp:127] Top shape: 10 512 14 14 (1003520)
I0703 20:01:39.649751 21340 layer_factory.hpp:74] Creating layer inception_4c/output_inception_4c/output_0_split
I0703 20:01:39.649757 21340 net.cpp:90] Creating Layer inception_4c/output_inception_4c/output_0_split
I0703 20:01:39.649761 21340 net.cpp:410] inception_4c/output_inception_4c/output_0_split <- inception_4c/output
I0703 20:01:39.649767 21340 net.cpp:368] inception_4c/output_inception_4c/output_0_split -> inception_4c/output_inception_4c/output_0_split_0
I0703 20:01:39.649775 21340 net.cpp:368] inception_4c/output_inception_4c/output_0_split -> inception_4c/output_inception_4c/output_0_split_1
I0703 20:01:39.649780 21340 net.cpp:368] inception_4c/output_inception_4c/output_0_split -> inception_4c/output_inception_4c/output_0_split_2
I0703 20:01:39.649786 21340 net.cpp:368] inception_4c/output_inception_4c/output_0_split -> inception_4c/output_inception_4c/output_0_split_3
I0703 20:01:39.649792 21340 net.cpp:120] Setting up inception_4c/output_inception_4c/output_0_split
I0703 20:01:39.649798 21340 net.cpp:127] Top shape: 10 512 14 14 (1003520)
I0703 20:01:39.649803 21340 net.cpp:127] Top shape: 10 512 14 14 (1003520)
I0703 20:01:39.649807 21340 net.cpp:127] Top shape: 10 512 14 14 (1003520)
I0703 20:01:39.649811 21340 net.cpp:127] Top shape: 10 512 14 14 (1003520)
I0703 20:01:39.673074 21340 layer_factory.hpp:74] Creating layer inception_4d/1x1
I0703 20:01:39.673112 21340 net.cpp:90] Creating Layer inception_4d/1x1
I0703 20:01:39.673123 21340 net.cpp:410] inception_4d/1x1 <- inception_4c/output_inception_4c/output_0_split_0
I0703 20:01:39.673138 21340 net.cpp:368] inception_4d/1x1 -> inception_4d/1x1
I0703 20:01:39.673153 21340 net.cpp:120] Setting up inception_4d/1x1
I0703 20:01:39.674003 21340 net.cpp:127] Top shape: 10 112 14 14 (219520)
I0703 20:01:39.674042 21340 layer_factory.hpp:74] Creating layer inception_4d/relu_1x1
I0703 20:01:39.674054 21340 net.cpp:90] Creating Layer inception_4d/relu_1x1
I0703 20:01:39.674063 21340 net.cpp:410] inception_4d/relu_1x1 <- inception_4d/1x1
I0703 20:01:39.674074 21340 net.cpp:357] inception_4d/relu_1x1 -> inception_4d/1x1 (in-place)
I0703 20:01:39.674085 21340 net.cpp:120] Setting up inception_4d/relu_1x1
I0703 20:01:39.674152 21340 net.cpp:127] Top shape: 10 112 14 14 (219520)
I0703 20:01:39.674165 21340 layer_factory.hpp:74] Creating layer inception_4d/3x3_reduce
I0703 20:01:39.674176 21340 net.cpp:90] Creating Layer inception_4d/3x3_reduce
I0703 20:01:39.674185 21340 net.cpp:410] inception_4d/3x3_reduce <- inception_4c/output_inception_4c/output_0_split_1
I0703 20:01:39.674196 21340 net.cpp:368] inception_4d/3x3_reduce -> inception_4d/3x3_reduce
I0703 20:01:39.674208 21340 net.cpp:120] Setting up inception_4d/3x3_reduce
I0703 20:01:39.675055 21340 net.cpp:127] Top shape: 10 144 14 14 (282240)
I0703 20:01:39.675070 21340 layer_factory.hpp:74] Creating layer inception_4d/relu_3x3_reduce
I0703 20:01:39.675077 21340 net.cpp:90] Creating Layer inception_4d/relu_3x3_reduce
I0703 20:01:39.675083 21340 net.cpp:410] inception_4d/relu_3x3_reduce <- inception_4d/3x3_reduce
I0703 20:01:39.675089 21340 net.cpp:357] inception_4d/relu_3x3_reduce -> inception_4d/3x3_reduce (in-place)
I0703 20:01:39.675096 21340 net.cpp:120] Setting up inception_4d/relu_3x3_reduce
I0703 20:01:39.675139 21340 net.cpp:127] Top shape: 10 144 14 14 (282240)
I0703 20:01:39.675145 21340 layer_factory.hpp:74] Creating layer inception_4d/3x3
I0703 20:01:39.675153 21340 net.cpp:90] Creating Layer inception_4d/3x3
I0703 20:01:39.675158 21340 net.cpp:410] inception_4d/3x3 <- inception_4d/3x3_reduce
I0703 20:01:39.675163 21340 net.cpp:368] inception_4d/3x3 -> inception_4d/3x3
I0703 20:01:39.675170 21340 net.cpp:120] Setting up inception_4d/3x3
I0703 20:01:39.680119 21340 net.cpp:127] Top shape: 10 288 14 14 (564480)
I0703 20:01:39.680132 21340 layer_factory.hpp:74] Creating layer inception_4d/relu_3x3
I0703 20:01:39.680140 21340 net.cpp:90] Creating Layer inception_4d/relu_3x3
I0703 20:01:39.680145 21340 net.cpp:410] inception_4d/relu_3x3 <- inception_4d/3x3
I0703 20:01:39.680151 21340 net.cpp:357] inception_4d/relu_3x3 -> inception_4d/3x3 (in-place)
I0703 20:01:39.680157 21340 net.cpp:120] Setting up inception_4d/relu_3x3
I0703 20:01:39.680271 21340 net.cpp:127] Top shape: 10 288 14 14 (564480)
I0703 20:01:39.680280 21340 layer_factory.hpp:74] Creating layer inception_4d/5x5_reduce
I0703 20:01:39.680289 21340 net.cpp:90] Creating Layer inception_4d/5x5_reduce
I0703 20:01:39.680294 21340 net.cpp:410] inception_4d/5x5_reduce <- inception_4c/output_inception_4c/output_0_split_2
I0703 20:01:39.680300 21340 net.cpp:368] inception_4d/5x5_reduce -> inception_4d/5x5_reduce
I0703 20:01:39.680307 21340 net.cpp:120] Setting up inception_4d/5x5_reduce
I0703 20:01:39.680598 21340 net.cpp:127] Top shape: 10 32 14 14 (62720)
I0703 20:01:39.680609 21340 layer_factory.hpp:74] Creating layer inception_4d/relu_5x5_reduce
I0703 20:01:39.680616 21340 net.cpp:90] Creating Layer inception_4d/relu_5x5_reduce
I0703 20:01:39.680621 21340 net.cpp:410] inception_4d/relu_5x5_reduce <- inception_4d/5x5_reduce
I0703 20:01:39.680626 21340 net.cpp:357] inception_4d/relu_5x5_reduce -> inception_4d/5x5_reduce (in-place)
I0703 20:01:39.680632 21340 net.cpp:120] Setting up inception_4d/relu_5x5_reduce
I0703 20:01:39.680675 21340 net.cpp:127] Top shape: 10 32 14 14 (62720)
I0703 20:01:39.680681 21340 layer_factory.hpp:74] Creating layer inception_4d/5x5
I0703 20:01:39.680690 21340 net.cpp:90] Creating Layer inception_4d/5x5
I0703 20:01:39.680693 21340 net.cpp:410] inception_4d/5x5 <- inception_4d/5x5_reduce
I0703 20:01:39.680701 21340 net.cpp:368] inception_4d/5x5 -> inception_4d/5x5
I0703 20:01:39.680706 21340 net.cpp:120] Setting up inception_4d/5x5
I0703 20:01:39.681167 21340 net.cpp:127] Top shape: 10 64 14 14 (125440)
I0703 20:01:39.681179 21340 layer_factory.hpp:74] Creating layer inception_4d/relu_5x5
I0703 20:01:39.681197 21340 net.cpp:90] Creating Layer inception_4d/relu_5x5
I0703 20:01:39.681203 21340 net.cpp:410] inception_4d/relu_5x5 <- inception_4d/5x5
I0703 20:01:39.681208 21340 net.cpp:357] inception_4d/relu_5x5 -> inception_4d/5x5 (in-place)
I0703 20:01:39.681215 21340 net.cpp:120] Setting up inception_4d/relu_5x5
I0703 20:01:39.681257 21340 net.cpp:127] Top shape: 10 64 14 14 (125440)
I0703 20:01:39.681262 21340 layer_factory.hpp:74] Creating layer inception_4d/pool
I0703 20:01:39.681268 21340 layer_factory.cpp:55] CUDNN does not support padding or multiple tops. Using Caffe's own pooling layer.
I0703 20:01:39.681274 21340 net.cpp:90] Creating Layer inception_4d/pool
I0703 20:01:39.681279 21340 net.cpp:410] inception_4d/pool <- inception_4c/output_inception_4c/output_0_split_3
I0703 20:01:39.681285 21340 net.cpp:368] inception_4d/pool -> inception_4d/pool
I0703 20:01:39.681291 21340 net.cpp:120] Setting up inception_4d/pool
I0703 20:01:39.681298 21340 net.cpp:127] Top shape: 10 512 14 14 (1003520)
I0703 20:01:39.681303 21340 layer_factory.hpp:74] Creating layer inception_4d/pool_proj
I0703 20:01:39.681310 21340 net.cpp:90] Creating Layer inception_4d/pool_proj
I0703 20:01:39.681315 21340 net.cpp:410] inception_4d/pool_proj <- inception_4d/pool
I0703 20:01:39.681321 21340 net.cpp:368] inception_4d/pool_proj -> inception_4d/pool_proj
I0703 20:01:39.681327 21340 net.cpp:120] Setting up inception_4d/pool_proj
I0703 20:01:39.681697 21340 net.cpp:127] Top shape: 10 64 14 14 (125440)
I0703 20:01:39.681710 21340 layer_factory.hpp:74] Creating layer inception_4d/relu_pool_proj
I0703 20:01:39.681715 21340 net.cpp:90] Creating Layer inception_4d/relu_pool_proj
I0703 20:01:39.681720 21340 net.cpp:410] inception_4d/relu_pool_proj <- inception_4d/pool_proj
I0703 20:01:39.681726 21340 net.cpp:357] inception_4d/relu_pool_proj -> inception_4d/pool_proj (in-place)
I0703 20:01:39.681732 21340 net.cpp:120] Setting up inception_4d/relu_pool_proj
I0703 20:01:39.681774 21340 net.cpp:127] Top shape: 10 64 14 14 (125440)
I0703 20:01:39.681779 21340 layer_factory.hpp:74] Creating layer inception_4d/output
I0703 20:01:39.681787 21340 net.cpp:90] Creating Layer inception_4d/output
I0703 20:01:39.681790 21340 net.cpp:410] inception_4d/output <- inception_4d/1x1
I0703 20:01:39.681795 21340 net.cpp:410] inception_4d/output <- inception_4d/3x3
I0703 20:01:39.681800 21340 net.cpp:410] inception_4d/output <- inception_4d/5x5
I0703 20:01:39.681804 21340 net.cpp:410] inception_4d/output <- inception_4d/pool_proj
I0703 20:01:39.681810 21340 net.cpp:368] inception_4d/output -> inception_4d/output
I0703 20:01:39.681818 21340 net.cpp:120] Setting up inception_4d/output
I0703 20:01:39.681823 21340 net.cpp:127] Top shape: 10 528 14 14 (1034880)
I0703 20:01:39.681828 21340 layer_factory.hpp:74] Creating layer inception_4d/output_inception_4d/output_0_split
I0703 20:01:39.681834 21340 net.cpp:90] Creating Layer inception_4d/output_inception_4d/output_0_split
I0703 20:01:39.681839 21340 net.cpp:410] inception_4d/output_inception_4d/output_0_split <- inception_4d/output
I0703 20:01:39.681845 21340 net.cpp:368] inception_4d/output_inception_4d/output_0_split -> inception_4d/output_inception_4d/output_0_split_0
I0703 20:01:39.681852 21340 net.cpp:368] inception_4d/output_inception_4d/output_0_split -> inception_4d/output_inception_4d/output_0_split_1
I0703 20:01:39.681859 21340 net.cpp:368] inception_4d/output_inception_4d/output_0_split -> inception_4d/output_inception_4d/output_0_split_2
I0703 20:01:39.681865 21340 net.cpp:368] inception_4d/output_inception_4d/output_0_split -> inception_4d/output_inception_4d/output_0_split_3
I0703 20:01:39.681871 21340 net.cpp:368] inception_4d/output_inception_4d/output_0_split -> inception_4d/output_inception_4d/output_0_split_4
I0703 20:01:39.681876 21340 net.cpp:120] Setting up inception_4d/output_inception_4d/output_0_split
I0703 20:01:39.681884 21340 net.cpp:127] Top shape: 10 528 14 14 (1034880)
I0703 20:01:39.681888 21340 net.cpp:127] Top shape: 10 528 14 14 (1034880)
I0703 20:01:39.681898 21340 net.cpp:127] Top shape: 10 528 14 14 (1034880)
I0703 20:01:39.681903 21340 net.cpp:127] Top shape: 10 528 14 14 (1034880)
I0703 20:01:39.681907 21340 net.cpp:127] Top shape: 10 528 14 14 (1034880)
I0703 20:01:39.681912 21340 layer_factory.hpp:74] Creating layer loss2/ave_pool
I0703 20:01:39.681920 21340 net.cpp:90] Creating Layer loss2/ave_pool
I0703 20:01:39.681923 21340 net.cpp:410] loss2/ave_pool <- inception_4d/output_inception_4d/output_0_split_0
I0703 20:01:39.681929 21340 net.cpp:368] loss2/ave_pool -> loss2/ave_pool
I0703 20:01:39.681936 21340 net.cpp:120] Setting up loss2/ave_pool
I0703 20:01:39.682055 21340 net.cpp:127] Top shape: 10 528 4 4 (84480)
I0703 20:01:39.682065 21340 layer_factory.hpp:74] Creating layer loss2/conv
I0703 20:01:39.682071 21340 net.cpp:90] Creating Layer loss2/conv
I0703 20:01:39.682076 21340 net.cpp:410] loss2/conv <- loss2/ave_pool
I0703 20:01:39.682082 21340 net.cpp:368] loss2/conv -> loss2/conv
I0703 20:01:39.682090 21340 net.cpp:120] Setting up loss2/conv
I0703 20:01:39.682628 21340 net.cpp:127] Top shape: 10 128 4 4 (20480)
I0703 20:01:39.682639 21340 layer_factory.hpp:74] Creating layer loss2/relu_conv
I0703 20:01:39.682647 21340 net.cpp:90] Creating Layer loss2/relu_conv
I0703 20:01:39.682652 21340 net.cpp:410] loss2/relu_conv <- loss2/conv
I0703 20:01:39.682657 21340 net.cpp:357] loss2/relu_conv -> loss2/conv (in-place)
I0703 20:01:39.682663 21340 net.cpp:120] Setting up loss2/relu_conv
I0703 20:01:39.682705 21340 net.cpp:127] Top shape: 10 128 4 4 (20480)
I0703 20:01:39.682711 21340 layer_factory.hpp:74] Creating layer loss2/fc
I0703 20:01:39.682719 21340 net.cpp:90] Creating Layer loss2/fc
I0703 20:01:39.682724 21340 net.cpp:410] loss2/fc <- loss2/conv
I0703 20:01:39.682730 21340 net.cpp:368] loss2/fc -> loss2/fc
I0703 20:01:39.682737 21340 net.cpp:120] Setting up loss2/fc
I0703 20:01:39.692363 21340 net.cpp:127] Top shape: 10 1024 (10240)
I0703 20:01:39.692386 21340 layer_factory.hpp:74] Creating layer loss2/relu_fc
I0703 20:01:39.692395 21340 net.cpp:90] Creating Layer loss2/relu_fc
I0703 20:01:39.692401 21340 net.cpp:410] loss2/relu_fc <- loss2/fc
I0703 20:01:39.692409 21340 net.cpp:357] loss2/relu_fc -> loss2/fc (in-place)
I0703 20:01:39.692416 21340 net.cpp:120] Setting up loss2/relu_fc
I0703 20:01:39.692490 21340 net.cpp:127] Top shape: 10 1024 (10240)
I0703 20:01:39.692497 21340 layer_factory.hpp:74] Creating layer loss2/drop_fc
I0703 20:01:39.692503 21340 net.cpp:90] Creating Layer loss2/drop_fc
I0703 20:01:39.692508 21340 net.cpp:410] loss2/drop_fc <- loss2/fc
I0703 20:01:39.692513 21340 net.cpp:357] loss2/drop_fc -> loss2/fc (in-place)
I0703 20:01:39.692518 21340 net.cpp:120] Setting up loss2/drop_fc
I0703 20:01:39.692524 21340 net.cpp:127] Top shape: 10 1024 (10240)
I0703 20:01:39.692529 21340 layer_factory.hpp:74] Creating layer stanford_cars_loss2/classifier
I0703 20:01:39.692538 21340 net.cpp:90] Creating Layer stanford_cars_loss2/classifier
I0703 20:01:39.692541 21340 net.cpp:410] stanford_cars_loss2/classifier <- loss2/fc
I0703 20:01:39.692548 21340 net.cpp:368] stanford_cars_loss2/classifier -> stanford_cars_loss2/classifier
I0703 20:01:39.692555 21340 net.cpp:120] Setting up stanford_cars_loss2/classifier
I0703 20:01:39.706223 21340 net.cpp:127] Top shape: 10 196 (1960)
I0703 20:01:39.706236 21340 layer_factory.hpp:74] Creating layer stanford_cars_loss2/classifier_stanford_cars_loss2/classifier_0_split
I0703 20:01:39.706244 21340 net.cpp:90] Creating Layer stanford_cars_loss2/classifier_stanford_cars_loss2/classifier_0_split
I0703 20:01:39.706250 21340 net.cpp:410] stanford_cars_loss2/classifier_stanford_cars_loss2/classifier_0_split <- stanford_cars_loss2/classifier
I0703 20:01:39.706257 21340 net.cpp:368] stanford_cars_loss2/classifier_stanford_cars_loss2/classifier_0_split -> stanford_cars_loss2/classifier_stanford_cars_loss2/classifier_0_split_0
I0703 20:01:39.706265 21340 net.cpp:368] stanford_cars_loss2/classifier_stanford_cars_loss2/classifier_0_split -> stanford_cars_loss2/classifier_stanford_cars_loss2/classifier_0_split_1
I0703 20:01:39.706290 21340 net.cpp:368] stanford_cars_loss2/classifier_stanford_cars_loss2/classifier_0_split -> stanford_cars_loss2/classifier_stanford_cars_loss2/classifier_0_split_2
I0703 20:01:39.706296 21340 net.cpp:120] Setting up stanford_cars_loss2/classifier_stanford_cars_loss2/classifier_0_split
I0703 20:01:39.706303 21340 net.cpp:127] Top shape: 10 196 (1960)
I0703 20:01:39.706308 21340 net.cpp:127] Top shape: 10 196 (1960)
I0703 20:01:39.706313 21340 net.cpp:127] Top shape: 10 196 (1960)
I0703 20:01:39.706317 21340 layer_factory.hpp:74] Creating layer stanford_cars_loss2/loss
I0703 20:01:39.706323 21340 net.cpp:90] Creating Layer stanford_cars_loss2/loss
I0703 20:01:39.706328 21340 net.cpp:410] stanford_cars_loss2/loss <- stanford_cars_loss2/classifier_stanford_cars_loss2/classifier_0_split_0
I0703 20:01:39.706334 21340 net.cpp:410] stanford_cars_loss2/loss <- label_data_1_split_3
…
I0703 20:01:39.706496 21340 net.cpp:368] loss2/top-5 -> loss2/top-5
I0703 20:01:39.706501 21340 net.cpp:120] Setting up loss2/top-5
I0703 20:01:39.706506 21340 net.cpp:127] Top shape: (1)
I0703 20:01:39.706509 21340 layer_factory.hpp:74] Creating layer inception_4e/1x1
I0703 20:01:39.706517 21340 net.cpp:90] Creating Layer inception_4e/1x1
I0703 20:01:39.706522 21340 net.cpp:410] inception_4e/1x1 <- inception_4d/output_inception_4d/output_0_split_1
I0703 20:01:39.706528 21340 net.cpp:368] inception_4e/1x1 -> inception_4e/1x1
I0703 20:01:39.706534 21340 net.cpp:120] Setting up inception_4e/1x1
I0703 20:01:39.708119 21340 net.cpp:127] Top shape: 10 256 14 14 (501760)
I0703 20:01:39.708175 21340 layer_factory.hpp:74] Creating layer inception_4e/relu_1x1
I0703 20:01:39.708207 21340 net.cpp:90] Creating Layer inception_4e/relu_1x1
I0703 20:01:39.708231 21340 net.cpp:410] inception_4e/relu_1x1 <- inception_4e/1x1
I0703 20:01:39.708255 21340 net.cpp:357] inception_4e/relu_1x1 -> inception_4e/1x1 (in-place)
I0703 20:01:39.708281 21340 net.cpp:120] Setting up inception_4e/relu_1x1
I0703 20:01:39.708714 21340 net.cpp:127] Top shape: 10 256 14 14 (501760)
I0703 20:01:39.708752 21340 layer_factory.hpp:74] Creating layer inception_4e/3x3_reduce
I0703 20:01:39.708812 21340 net.cpp:90] Creating Layer inception_4e/3x3_reduce
I0703 20:01:39.708837 21340 net.cpp:410] inception_4e/3x3_reduce <- inception_4d/output_inception_4d/output_0_split_2
I0703 20:01:39.708868 21340 net.cpp:368] inception_4e/3x3_reduce -> inception_4e/3x3_reduce
I0703 20:01:39.708899 21340 net.cpp:120] Setting up inception_4e/3x3_reduce
I0703 20:01:39.711560 21340 net.cpp:127] Top shape: 10 160 14 14 (313600)
I0703 20:01:39.711611 21340 layer_factory.hpp:74] Creating layer inception_4e/relu_3x3_reduce
I0703 20:01:39.711637 21340 net.cpp:90] Creating Layer inception_4e/relu_3x3_reduce
I0703 20:01:39.711658 21340 net.cpp:410] inception_4e/relu_3x3_reduce <- inception_4e/3x3_reduce
I0703 20:01:39.711717 21340 net.cpp:357] inception_4e/relu_3x3_reduce -> inception_4e/3x3_reduce (in-place)
I0703 20:01:39.711745 21340 net.cpp:120] Setting up inception_4e/relu_3x3_reduce
I0703 20:01:39.711937 21340 net.cpp:127] Top shape: 10 160 14 14 (313600)
I0703 20:01:39.711963 21340 layer_factory.hpp:74] Creating layer inception_4e/3x3
I0703 20:01:39.711990 21340 net.cpp:90] Creating Layer inception_4e/3x3
I0703 20:01:39.712010 21340 net.cpp:410] inception_4e/3x3 <- inception_4e/3x3_reduce
I0703 20:01:39.712038 21340 net.cpp:368] inception_4e/3x3 -> inception_4e/3x3
I0703 20:01:39.712067 21340 net.cpp:120] Setting up inception_4e/3x3
I0703 20:01:39.717067 21340 net.cpp:127] Top shape: 10 320 14 14 (627200)
I0703 20:01:39.717080 21340 layer_factory.hpp:74] Creating layer inception_4e/relu_3x3
I0703 20:01:39.717087 21340 net.cpp:90] Creating Layer inception_4e/relu_3x3
I0703 20:01:39.717092 21340 net.cpp:410] inception_4e/relu_3x3 <- inception_4e/3x3
I0703 20:01:39.717097 21340 net.cpp:357] inception_4e/relu_3x3 -> inception_4e/3x3 (in-place)
I0703 20:01:39.717103 21340 net.cpp:120] Setting up inception_4e/relu_3x3
I0703 20:01:39.717145 21340 net.cpp:127] Top shape: 10 320 14 14 (627200)
I0703 20:01:39.717151 21340 layer_factory.hpp:74] Creating layer inception_4e/5x5_reduce
I0703 20:01:39.717157 21340 net.cpp:90] Creating Layer inception_4e/5x5_reduce
I0703 20:01:39.717162 21340 net.cpp:410] inception_4e/5x5_reduce <- inception_4d/output_inception_4d/output_0_split_3
I0703 20:01:39.717170 21340 net.cpp:368] inception_4e/5x5_reduce -> inception_4e/5x5_reduce
I0703 20:01:39.717176 21340 net.cpp:120] Setting up inception_4e/5x5_reduce
I0703 20:01:39.717509 21340 net.cpp:127] Top shape: 10 32 14 14 (62720)
I0703 20:01:39.717520 21340 layer_factory.hpp:74] Creating layer inception_4e/relu_5x5_reduce
I0703 20:01:39.717527 21340 net.cpp:90] Creating Layer inception_4e/relu_5x5_reduce
I0703 20:01:39.717532 21340 net.cpp:410] inception_4e/relu_5x5_reduce <- inception_4e/5x5_reduce
I0703 20:01:39.717537 21340 net.cpp:357] inception_4e/relu_5x5_reduce -> inception_4e/5x5_reduce (in-place)
I0703 20:01:39.717543 21340 net.cpp:120] Setting up inception_4e/relu_5x5_reduce
I0703 20:01:39.717582 21340 net.cpp:127] Top shape: 10 32 14 14 (62720)
I0703 20:01:39.717588 21340 layer_factory.hpp:74] Creating layer inception_4e/5x5
I0703 20:01:39.717594 21340 net.cpp:90] Creating Layer inception_4e/5x5
I0703 20:01:39.717599 21340 net.cpp:410] inception_4e/5x5 <- inception_4e/5x5_reduce
I0703 20:01:39.717605 21340 net.cpp:368] inception_4e/5x5 -> inception_4e/5x5
I0703 20:01:39.717612 21340 net.cpp:120] Setting up inception_4e/5x5
I0703 20:01:39.718317 21340 net.cpp:127] Top shape: 10 128 14 14 (250880)
I0703 20:01:39.718329 21340 layer_factory.hpp:74] Creating layer inception_4e/relu_5x5
I0703 20:01:39.718336 21340 net.cpp:90] Creating Layer inception_4e/relu_5x5
I0703 20:01:39.718341 21340 net.cpp:410] inception_4e/relu_5x5 <- inception_4e/5x5
I0703 20:01:39.718348 21340 net.cpp:357] inception_4e/relu_5x5 -> inception_4e/5x5 (in-place)
I0703 20:01:39.718353 21340 net.cpp:120] Setting up inception_4e/relu_5x5
I0703 20:01:39.718466 21340 net.cpp:127] Top shape: 10 128 14 14 (250880)
I0703 20:01:39.718475 21340 layer_factory.hpp:74] Creating layer inception_4e/pool
I0703 20:01:39.718482 21340 layer_factory.cpp:55] CUDNN does not support padding or multiple tops. Using Caffe's own pooling layer.
I0703 20:01:39.718487 21340 net.cpp:90] Creating Layer inception_4e/pool
I0703 20:01:39.718492 21340 net.cpp:410] inception_4e/pool <- inception_4d/output_inception_4d/output_0_split_4
I0703 20:01:39.718498 21340 net.cpp:368] inception_4e/pool -> inception_4e/pool
I0703 20:01:39.718504 21340 net.cpp:120] Setting up inception_4e/pool
I0703 20:01:39.718511 21340 net.cpp:127] Top shape: 10 528 14 14 (1034880)
I0703 20:01:39.718516 21340 layer_factory.hpp:74] Creating layer inception_4e/pool_proj
I0703 20:01:39.718523 21340 net.cpp:90] Creating Layer inception_4e/pool_proj
I0703 20:01:39.718528 21340 net.cpp:410] inception_4e/pool_proj <- inception_4e/pool
I0703 20:01:39.718543 21340 net.cpp:368] inception_4e/pool_proj -> inception_4e/pool_proj
I0703 20:01:39.718549 21340 net.cpp:120] Setting up inception_4e/pool_proj
I0703 20:01:39.719089 21340 net.cpp:127] Top shape: 10 128 14 14 (250880)
I0703 20:01:39.719100 21340 layer_factory.hpp:74] Creating layer inception_4e/relu_pool_proj
I0703 20:01:39.719107 21340 net.cpp:90] Creating Layer inception_4e/relu_pool_proj
I0703 20:01:39.719111 21340 net.cpp:410] inception_4e/relu_pool_proj <- inception_4e/pool_proj
I0703 20:01:39.719118 21340 net.cpp:357] inception_4e/relu_pool_proj -> inception_4e/pool_proj (in-place)
I0703 20:01:39.719125 21340 net.cpp:120] Setting up inception_4e/relu_pool_proj
I0703 20:01:39.719166 21340 net.cpp:127] Top shape: 10 128 14 14 (250880)
I0703 20:01:39.719172 21340 layer_factory.hpp:74] Creating layer inception_4e/output
I0703 20:01:39.719177 21340 net.cpp:90] Creating Layer inception_4e/output
I0703 20:01:39.719182 21340 net.cpp:410] inception_4e/output <- inception_4e/1x1
I0703 20:01:39.719187 21340 net.cpp:410] inception_4e/output <- inception_4e/3x3
I0703 20:01:39.719192 21340 net.cpp:410] inception_4e/output <- inception_4e/5x5
I0703 20:01:39.719197 21340 net.cpp:410] inception_4e/output <- inception_4e/pool_proj
I0703 20:01:39.719202 21340 net.cpp:368] inception_4e/output -> inception_4e/output
I0703 20:01:39.719209 21340 net.cpp:120] Setting up inception_4e/output
I0703 20:01:39.719215 21340 net.cpp:127] Top shape: 10 832 14 14 (1630720)
I0703 20:01:39.719220 21340 layer_factory.hpp:74] Creating layer pool4/3x3_s2
I0703 20:01:39.719226 21340 net.cpp:90] Creating Layer pool4/3x3_s2
I0703 20:01:39.719230 21340 net.cpp:410] pool4/3x3_s2 <- inception_4e/output
I0703 20:01:39.719238 21340 net.cpp:368] pool4/3x3_s2 -> pool4/3x3_s2
I0703 20:01:39.719244 21340 net.cpp:120] Setting up pool4/3x3_s2
I0703 20:01:39.719285 21340 net.cpp:127] Top shape: 10 832 7 7 (407680)
I0703 20:01:39.719291 21340 layer_factory.hpp:74] Creating layer pool4/3x3_s2_pool4/3x3_s2_0_split
I0703 20:01:39.719298 21340 net.cpp:90] Creating Layer pool4/3x3_s2_pool4/3x3_s2_0_split
I0703 20:01:39.719303 21340 net.cpp:410] pool4/3x3_s2_pool4/3x3_s2_0_split <- pool4/3x3_s2
I0703 20:01:39.719312 21340 net.cpp:368] pool4/3x3_s2_pool4/3x3_s2_0_split -> pool4/3x3_s2_pool4/3x3_s2_0_split_0
I0703 20:01:39.719318 21340 net.cpp:368] pool4/3x3_s2_pool4/3x3_s2_0_split -> pool4/3x3_s2_pool4/3x3_s2_0_split_1
I0703 20:01:39.719326 21340 net.cpp:368] pool4/3x3_s2_pool4/3x3_s2_0_split -> pool4/3x3_s2_pool4/3x3_s2_0_split_2
I0703 20:01:39.734393 21340 net.cpp:368] pool4/3x3_s2_pool4/3x3_s2_0_split -> pool4/3x3_s2_pool4/3x3_s2_0_split_3
I0703 20:01:39.734419 21340 net.cpp:120] Setting up pool4/3x3_s2_pool4/3x3_s2_0_split
I0703 20:01:39.734436 21340 net.cpp:127] Top shape: 10 832 7 7 (407680)
I0703 20:01:39.734444 21340 net.cpp:127] Top shape: 10 832 7 7 (407680)
I0703 20:01:39.734453 21340 net.cpp:127] Top shape: 10 832 7 7 (407680)
I0703 20:01:39.734462 21340 net.cpp:127] Top shape: 10 832 7 7 (407680)
I0703 20:01:39.734469 21340 layer_factory.hpp:74] Creating layer inception_5a/1x1
I0703 20:01:39.734483 21340 net.cpp:90] Creating Layer inception_5a/1x1
I0703 20:01:39.734491 21340 net.cpp:410] inception_5a/1x1 <- pool4/3x3_s2_pool4/3x3_s2_0_split_0
I0703 20:01:39.734503 21340 net.cpp:368] inception_5a/1x1 -> inception_5a/1x1
I0703 20:01:39.734514 21340 net.cpp:120] Setting up inception_5a/1x1
I0703 20:01:39.738926 21340 net.cpp:127] Top shape: 10 256 7 7 (125440)
I0703 20:01:39.739069 21340 layer_factory.hpp:74] Creating layer inception_5a/relu_1x1
I0703 20:01:39.739106 21340 net.cpp:90] Creating Layer inception_5a/relu_1x1
I0703 20:01:39.739130 21340 net.cpp:410] inception_5a/relu_1x1 <- inception_5a/1x1
I0703 20:01:39.739156 21340 net.cpp:357] inception_5a/relu_1x1 -> inception_5a/1x1 (in-place)
I0703 20:01:39.739176 21340 net.cpp:120] Setting up inception_5a/relu_1x1
I0703 20:01:39.739439 21340 net.cpp:127] Top shape: 10 256 7 7 (125440)
I0703 20:01:39.739449 21340 layer_factory.hpp:74] Creating layer inception_5a/3x3_reduce
I0703 20:01:39.739473 21340 net.cpp:90] Creating Layer inception_5a/3x3_reduce
I0703 20:01:39.739480 21340 net.cpp:410] inception_5a/3x3_reduce <- pool4/3x3_s2_pool4/3x3_s2_0_split_1
I0703 20:01:39.739486 21340 net.cpp:368] inception_5a/3x3_reduce -> inception_5a/3x3_reduce
I0703 20:01:39.739495 21340 net.cpp:120] Setting up inception_5a/3x3_reduce
I0703 20:01:39.740391 21340 net.cpp:127] Top shape: 10 160 7 7 (78400)
I0703 20:01:39.740403 21340 layer_factory.hpp:74] Creating layer inception_5a/relu_3x3_reduce
I0703 20:01:39.740411 21340 net.cpp:90] Creating Layer inception_5a/relu_3x3_reduce
I0703 20:01:39.740417 21340 net.cpp:410] inception_5a/relu_3x3_reduce <- inception_5a/3x3_reduce
I0703 20:01:39.740422 21340 net.cpp:357] inception_5a/relu_3x3_reduce -> inception_5a/3x3_reduce (in-place)
I0703 20:01:39.740428 21340 net.cpp:120] Setting up inception_5a/relu_3x3_reduce
I0703 20:01:39.740473 21340 net.cpp:127] Top shape: 10 160 7 7 (78400)
I0703 20:01:39.740478 21340 layer_factory.hpp:74] Creating layer inception_5a/3x3
I0703 20:01:39.740484 21340 net.cpp:90] Creating Layer inception_5a/3x3
I0703 20:01:39.740489 21340 net.cpp:410] inception_5a/3x3 <- inception_5a/3x3_reduce
I0703 20:01:39.740495 21340 net.cpp:368] inception_5a/3x3 -> inception_5a/3x3
I0703 20:01:39.740502 21340 net.cpp:120] Setting up inception_5a/3x3
I0703 20:01:39.743459 21340 net.cpp:127] Top shape: 10 320 7 7 (156800)
I0703 20:01:39.743486 21340 layer_factory.hpp:74] Creating layer inception_5a/relu_3x3
I0703 20:01:39.743494 21340 net.cpp:90] Creating Layer inception_5a/relu_3x3
I0703 20:01:39.743510 21340 net.cpp:410] inception_5a/relu_3x3 <- inception_5a/3x3
I0703 20:01:39.743516 21340 net.cpp:357] inception_5a/relu_3x3 -> inception_5a/3x3 (in-place)
I0703 20:01:39.743532 21340 net.cpp:120] Setting up inception_5a/relu_3x3
I0703 20:01:39.743613 21340 net.cpp:127] Top shape: 10 320 7 7 (156800)
I0703 20:01:39.743628 21340 layer_factory.hpp:74] Creating layer inception_5a/5x5_reduce
I0703 20:01:39.743645 21340 net.cpp:90] Creating Layer inception_5a/5x5_reduce
I0703 20:01:39.743651 21340 net.cpp:410] inception_5a/5x5_reduce <- pool4/3x3_s2_pool4/3x3_s2_0_split_2
I0703 20:01:39.743659 21340 net.cpp:368] inception_5a/5x5_reduce -> inception_5a/5x5_reduce
I0703 20:01:39.743675 21340 net.cpp:120] Setting up inception_5a/5x5_reduce
I0703 20:01:39.744119 21340 net.cpp:127] Top shape: 10 32 7 7 (15680)
I0703 20:01:39.744132 21340 layer_factory.hpp:74] Creating layer inception_5a/relu_5x5_reduce
I0703 20:01:39.744138 21340 net.cpp:90] Creating Layer inception_5a/relu_5x5_reduce
I0703 20:01:39.744143 21340 net.cpp:410] inception_5a/relu_5x5_reduce <- inception_5a/5x5_reduce
I0703 20:01:39.744158 21340 net.cpp:357] inception_5a/relu_5x5_reduce -> inception_5a/5x5_reduce (in-place)
I0703 20:01:39.744163 21340 net.cpp:120] Setting up inception_5a/relu_5x5_reduce
I0703 20:01:39.744225 21340 net.cpp:127] Top shape: 10 32 7 7 (15680)
I0703 20:01:39.744232 21340 layer_factory.hpp:74] Creating layer inception_5a/5x5
I0703 20:01:39.744238 21340 net.cpp:90] Creating Layer inception_5a/5x5
I0703 20:01:39.744243 21340 net.cpp:410] inception_5a/5x5 <- inception_5a/5x5_reduce
I0703 20:01:39.744261 21340 net.cpp:368] inception_5a/5x5 -> inception_5a/5x5
I0703 20:01:39.744267 21340 net.cpp:120] Setting up inception_5a/5x5
I0703 20:01:39.745035 21340 net.cpp:127] Top shape: 10 128 7 7 (62720)
I0703 20:01:39.745046 21340 layer_factory.hpp:74] Creating layer inception_5a/relu_5x5
I0703 20:01:39.745054 21340 net.cpp:90] Creating Layer inception_5a/relu_5x5
I0703 20:01:39.745059 21340 net.cpp:410] inception_5a/relu_5x5 <- inception_5a/5x5
I0703 20:01:39.745064 21340 net.cpp:357] inception_5a/relu_5x5 -> inception_5a/5x5 (in-place)
I0703 20:01:39.745070 21340 net.cpp:120] Setting up inception_5a/relu_5x5
I0703 20:01:39.745190 21340 net.cpp:127] Top shape: 10 128 7 7 (62720)
I0703 20:01:39.745199 21340 layer_factory.hpp:74] Creating layer inception_5a/pool
I0703 20:01:39.745205 21340 layer_factory.cpp:55] CUDNN does not support padding or multiple tops. Using Caffe's own pooling layer.
I0703 20:01:39.745219 21340 net.cpp:90] Creating Layer inception_5a/pool
I0703 20:01:39.745225 21340 net.cpp:410] inception_5a/pool <- pool4/3x3_s2_pool4/3x3_s2_0_split_3
I0703 20:01:39.745231 21340 net.cpp:368] inception_5a/pool -> inception_5a/pool
I0703 20:01:39.745239 21340 net.cpp:120] Setting up inception_5a/pool
I0703 20:01:39.745245 21340 net.cpp:127] Top shape: 10 832 7 7 (407680)
I0703 20:01:39.745250 21340 layer_factory.hpp:74] Creating layer inception_5a/pool_proj
I0703 20:01:39.745259 21340 net.cpp:90] Creating Layer inception_5a/pool_proj
I0703 20:01:39.745262 21340 net.cpp:410] inception_5a/pool_proj <- inception_5a/pool
I0703 20:01:39.745270 21340 net.cpp:368] inception_5a/pool_proj -> inception_5a/pool_proj
I0703 20:01:39.745276 21340 net.cpp:120] Setting up inception_5a/pool_proj
I0703 20:01:39.746037 21340 net.cpp:127] Top shape: 10 128 7 7 (62720)
I0703 20:01:39.746048 21340 layer_factory.hpp:74] Creating layer inception_5a/relu_pool_proj
I0703 20:01:39.746055 21340 net.cpp:90] Creating Layer inception_5a/relu_pool_proj
I0703 20:01:39.746062 21340 net.cpp:410] inception_5a/relu_pool_proj <- inception_5a/pool_proj
I0703 20:01:39.746067 21340 net.cpp:357] inception_5a/relu_pool_proj -> inception_5a/pool_proj (in-place)
I0703 20:01:39.746073 21340 net.cpp:120] Setting up inception_5a/relu_pool_proj
I0703 20:01:39.746117 21340 net.cpp:127] Top shape: 10 128 7 7 (62720)
I0703 20:01:39.746124 21340 layer_factory.hpp:74] Creating layer inception_5a/output
I0703 20:01:39.746129 21340 net.cpp:90] Creating Layer inception_5a/output
I0703 20:01:39.746134 21340 net.cpp:410] inception_5a/output <- inception_5a/1x1
I0703 20:01:39.746140 21340 net.cpp:410] inception_5a/output <- inception_5a/3x3
I0703 20:01:39.746145 21340 net.cpp:410] inception_5a/output <- inception_5a/5x5
I0703 20:01:39.746150 21340 net.cpp:410] inception_5a/output <- inception_5a/pool_proj
I0703 20:01:39.746155 21340 net.cpp:368] inception_5a/output -> inception_5a/output
I0703 20:01:39.746161 21340 net.cpp:120] Setting up inception_5a/output
I0703 20:01:39.746168 21340 net.cpp:127] Top shape: 10 832 7 7 (407680)
I0703 20:01:39.746172 21340 layer_factory.hpp:74] Creating layer inception_5a/output_inception_5a/output_0_split
I0703 20:01:39.746179 21340 net.cpp:90] Creating Layer inception_5a/output_inception_5a/output_0_split
I0703 20:01:39.746184 21340 net.cpp:410] inception_5a/output_inception_5a/output_0_split <- inception_5a/output
I0703 20:01:39.746191 21340 net.cpp:368] inception_5a/output_inception_5a/output_0_split -> inception_5a/output_inception_5a/output_0_split_0
I0703 20:01:39.746197 21340 net.cpp:368] inception_5a/output_inception_5a/output_0_split -> inception_5a/output_inception_5a/output_0_split_1
I0703 20:01:39.746204 21340 net.cpp:368] inception_5a/output_inception_5a/output_0_split -> inception_5a/output_inception_5a/output_0_split_2
I0703 20:01:39.746211 21340 net.cpp:368] inception_5a/output_inception_5a/output_0_split -> inception_5a/output_inception_5a/output_0_split_3
I0703 20:01:39.746217 21340 net.cpp:120] Setting up inception_5a/output_inception_5a/output_0_split
I0703 20:01:39.746222 21340 net.cpp:127] Top shape: 10 832 7 7 (407680)
I0703 20:01:39.746227 21340 net.cpp:127] Top shape: 10 832 7 7 (407680)
I0703 20:01:39.746232 21340 net.cpp:127] Top shape: 10 832 7 7 (407680)
I0703 20:01:39.746237 21340 net.cpp:127] Top shape: 10 832 7 7 (407680)
I0703 20:01:39.746242 21340 layer_factory.hpp:74] Creating layer inception_5b/1x1
I0703 20:01:39.746249 21340 net.cpp:90] Creating Layer inception_5b/1x1
I0703 20:01:39.746253 21340 net.cpp:410] inception_5b/1x1 <- inception_5a/output_inception_5a/output_0_split_0
I0703 20:01:39.746260 21340 net.cpp:368] inception_5b/1x1 -> inception_5b/1x1
I0703 20:01:39.746266 21340 net.cpp:120] Setting up inception_5b/1x1
I0703 20:01:39.748119 21340 net.cpp:127] Top shape: 10 384 7 7 (188160)
I0703 20:01:39.748132 21340 layer_factory.hpp:74] Creating layer inception_5b/relu_1x1
I0703 20:01:39.748141 21340 net.cpp:90] Creating Layer inception_5b/relu_1x1
I0703 20:01:39.748153 21340 net.cpp:410] inception_5b/relu_1x1 <- inception_5b/1x1
I0703 20:01:39.748159 21340 net.cpp:357] inception_5b/relu_1x1 -> inception_5b/1x1 (in-place)
I0703 20:01:39.748167 21340 net.cpp:120] Setting up inception_5b/relu_1x1
I0703 20:01:39.748211 21340 net.cpp:127] Top shape: 10 384 7 7 (188160)
I0703 20:01:39.748217 21340 layer_factory.hpp:74] Creating layer inception_5b/3x3_reduce
I0703 20:01:39.748225 21340 net.cpp:90] Creating Layer inception_5b/3x3_reduce
I0703 20:01:39.748230 21340 net.cpp:410] inception_5b/3x3_reduce <- inception_5a/output_inception_5a/output_0_split_1
I0703 20:01:39.748237 21340 net.cpp:368] inception_5b/3x3_reduce -> inception_5b/3x3_reduce
I0703 20:01:39.748245 21340 net.cpp:120] Setting up inception_5b/3x3_reduce
I0703 20:01:39.749274 21340 net.cpp:127] Top shape: 10 192 7 7 (94080)
I0703 20:01:39.749286 21340 layer_factory.hpp:74] Creating layer inception_5b/relu_3x3_reduce
I0703 20:01:39.749294 21340 net.cpp:90] Creating Layer inception_5b/relu_3x3_reduce
I0703 20:01:39.749300 21340 net.cpp:410] inception_5b/relu_3x3_reduce <- inception_5b/3x3_reduce
I0703 20:01:39.749305 21340 net.cpp:357] inception_5b/relu_3x3_reduce -> inception_5b/3x3_reduce (in-place)
I0703 20:01:39.749311 21340 net.cpp:120] Setting up inception_5b/relu_3x3_reduce
I0703 20:01:39.749357 21340 net.cpp:127] Top shape: 10 192 7 7 (94080)
I0703 20:01:39.749363 21340 layer_factory.hpp:74] Creating layer inception_5b/3x3
I0703 20:01:39.749371 21340 net.cpp:90] Creating Layer inception_5b/3x3
I0703 20:01:39.749375 21340 net.cpp:410] inception_5b/3x3 <- inception_5b/3x3_reduce
I0703 20:01:39.749382 21340 net.cpp:368] inception_5b/3x3 -> inception_5b/3x3
I0703 20:01:39.749389 21340 net.cpp:120] Setting up inception_5b/3x3
I0703 20:01:39.752766 21340 net.cpp:127] Top shape: 10 384 7 7 (188160)
I0703 20:01:39.752780 21340 layer_factory.hpp:74] Creating layer inception_5b/relu_3x3
I0703 20:01:39.752789 21340 net.cpp:90] Creating Layer inception_5b/relu_3x3
I0703 20:01:39.752794 21340 net.cpp:410] inception_5b/relu_3x3 <- inception_5b/3x3
I0703 20:01:39.752799 21340 net.cpp:357] inception_5b/relu_3x3 -> inception_5b/3x3 (in-place)
I0703 20:01:39.752805 21340 net.cpp:120] Setting up inception_5b/relu_3x3
I0703 20:01:39.752923 21340 net.cpp:127] Top shape: 10 384 7 7 (188160)
I0703 20:01:39.752933 21340 layer_factory.hpp:74] Creating layer inception_5b/5x5_reduce
I0703 20:01:39.752940 21340 net.cpp:90] Creating Layer inception_5b/5x5_reduce
I0703 20:01:39.752945 21340 net.cpp:410] inception_5b/5x5_reduce <- inception_5a/output_inception_5a/output_0_split_2
I0703 20:01:39.752951 21340 net.cpp:368] inception_5b/5x5_reduce -> inception_5b/5x5_reduce
I0703 20:01:39.752959 21340 net.cpp:120] Setting up inception_5b/5x5_reduce
I0703 20:01:39.753372 21340 net.cpp:127] Top shape: 10 48 7 7 (23520)
I0703 20:01:39.753384 21340 layer_factory.hpp:74] Creating layer inception_5b/relu_5x5_reduce
I0703 20:01:39.753391 21340 net.cpp:90] Creating Layer inception_5b/relu_5x5_reduce
I0703 20:01:39.753396 21340 net.cpp:410] inception_5b/relu_5x5_reduce <- inception_5b/5x5_reduce
I0703 20:01:39.765209 21340 net.cpp:357] inception_5b/relu_5x5_reduce -> inception_5b/5x5_reduce (in-place)
I0703 20:01:39.765226 21340 net.cpp:120] Setting up inception_5b/relu_5x5_reduce
I0703 20:01:39.765301 21340 net.cpp:127] Top shape: 10 48 7 7 (23520)
I0703 20:01:39.765312 21340 layer_factory.hpp:74] Creating layer inception_5b/5x5
I0703 20:01:39.765324 21340 net.cpp:90] Creating Layer inception_5b/5x5
I0703 20:01:39.765332 21340 net.cpp:410] inception_5b/5x5 <- inception_5b/5x5_reduce
I0703 20:01:39.765344 21340 net.cpp:368] inception_5b/5x5 -> inception_5b/5x5
I0703 20:01:39.765355 21340 net.cpp:120] Setting up inception_5b/5x5
I0703 20:01:39.766763 21340 net.cpp:127] Top shape: 10 128 7 7 (62720)
I0703 20:01:39.766794 21340 layer_factory.hpp:74] Creating layer inception_5b/relu_5x5
I0703 20:01:39.766814 21340 net.cpp:90] Creating Layer inception_5b/relu_5x5
I0703 20:01:39.766824 21340 net.cpp:410] inception_5b/relu_5x5 <- inception_5b/5x5
I0703 20:01:39.766855 21340 net.cpp:357] inception_5b/relu_5x5 -> inception_5b/5x5 (in-place)
I0703 20:01:39.766867 21340 net.cpp:120] Setting up inception_5b/relu_5x5
I0703 20:01:39.766921 21340 net.cpp:127] Top shape: 10 128 7 7 (62720)
I0703 20:01:39.766929 21340 layer_factory.hpp:74] Creating layer inception_5b/pool
I0703 20:01:39.766935 21340 layer_factory.cpp:55] CUDNN does not support padding or multiple tops. Using Caffe's own pooling layer.
I0703 20:01:39.766942 21340 net.cpp:90] Creating Layer inception_5b/pool
I0703 20:01:39.766947 21340 net.cpp:410] inception_5b/pool <- inception_5a/output_inception_5a/output_0_split_3
I0703 20:01:39.766953 21340 net.cpp:368] inception_5b/pool -> inception_5b/pool
I0703 20:01:39.766960 21340 net.cpp:120] Setting up inception_5b/pool
I0703 20:01:39.766968 21340 net.cpp:127] Top shape: 10 832 7 7 (407680)
I0703 20:01:39.766973 21340 layer_factory.hpp:74] Creating layer inception_5b/pool_proj
I0703 20:01:39.766980 21340 net.cpp:90] Creating Layer inception_5b/pool_proj
I0703 20:01:39.766984 21340 net.cpp:410] inception_5b/pool_proj <- inception_5b/pool
I0703 20:01:39.766990 21340 net.cpp:368] inception_5b/pool_proj -> inception_5b/pool_proj
I0703 20:01:39.766996 21340 net.cpp:120] Setting up inception_5b/pool_proj
I0703 20:01:39.768833 21340 net.cpp:127] Top shape: 10 128 7 7 (62720)
I0703 20:01:39.768880 21340 layer_factory.hpp:74] Creating layer inception_5b/relu_pool_proj
I0703 20:01:39.768903 21340 net.cpp:90] Creating Layer inception_5b/relu_pool_proj
I0703 20:01:39.768921 21340 net.cpp:410] inception_5b/relu_pool_proj <- inception_5b/pool_proj
I0703 20:01:39.768942 21340 net.cpp:357] inception_5b/relu_pool_proj -> inception_5b/pool_proj (in-place)
I0703 20:01:39.768965 21340 net.cpp:120] Setting up inception_5b/relu_pool_proj
I0703 20:01:39.769104 21340 net.cpp:127] Top shape: 10 128 7 7 (62720)
I0703 20:01:39.769125 21340 layer_factory.hpp:74] Creating layer inception_5b/output
I0703 20:01:39.769145 21340 net.cpp:90] Creating Layer inception_5b/output
I0703 20:01:39.769160 21340 net.cpp:410] inception_5b/output <- inception_5b/1x1
I0703 20:01:39.769178 21340 net.cpp:410] inception_5b/output <- inception_5b/3x3
I0703 20:01:39.769194 21340 net.cpp:410] inception_5b/output <- inception_5b/5x5
I0703 20:01:39.769209 21340 net.cpp:410] inception_5b/output <- inception_5b/pool_proj
I0703 20:01:39.769229 21340 net.cpp:368] inception_5b/output -> inception_5b/output
I0703 20:01:39.769251 21340 net.cpp:120] Setting up inception_5b/output
I0703 20:01:39.769273 21340 net.cpp:127] Top shape: 10 1024 7 7 (501760)
I0703 20:01:39.769287 21340 layer_factory.hpp:74] Creating layer pool5/7x7_s1
I0703 20:01:39.769305 21340 net.cpp:90] Creating Layer pool5/7x7_s1
I0703 20:01:39.769320 21340 net.cpp:410] pool5/7x7_s1 <- inception_5b/output
I0703 20:01:39.769340 21340 net.cpp:368] pool5/7x7_s1 -> pool5/7x7_s1
I0703 20:01:39.769358 21340 net.cpp:120] Setting up pool5/7x7_s1
I0703 20:01:39.769693 21340 net.cpp:127] Top shape: 10 1024 1 1 (10240)
I0703 20:01:39.769722 21340 layer_factory.hpp:74] Creating layer pool5/drop_7x7_s1
I0703 20:01:39.769743 21340 net.cpp:90] Creating Layer pool5/drop_7x7_s1
I0703 20:01:39.769759 21340 net.cpp:410] pool5/drop_7x7_s1 <- pool5/7x7_s1
I0703 20:01:39.769779 21340 net.cpp:357] pool5/drop_7x7_s1 -> pool5/7x7_s1 (in-place)
I0703 20:01:39.769800 21340 net.cpp:120] Setting up pool5/drop_7x7_s1
I0703 20:01:39.769820 21340 net.cpp:127] Top shape: 10 1024 1 1 (10240)
I0703 20:01:39.769835 21340 layer_factory.hpp:74] Creating layer stanford_cars_loss3/classifier
I0703 20:01:39.769857 21340 net.cpp:90] Creating Layer stanford_cars_loss3/classifier
I0703 20:01:39.769872 21340 net.cpp:410] stanford_cars_loss3/classifier <- pool5/7x7_s1
I0703 20:01:39.769893 21340 net.cpp:368] stanford_cars_loss3/classifier -> stanford_cars_loss3/classifier
I0703 20:01:39.769917 21340 net.cpp:120] Setting up stanford_cars_loss3/classifier
I0703 20:01:39.773294 21340 net.cpp:127] Top shape: 10 196 (1960)
I0703 20:01:39.773326 21340 layer_factory.hpp:74] Creating layer stanford_cars_loss3/classifier_stanford_cars_loss3/classifier_0_split
I0703 20:01:39.773375 21340 net.cpp:90] Creating Layer stanford_cars_loss3/classifier_stanford_cars_loss3/classifier_0_split
I0703 20:01:39.773393 21340 net.cpp:410] stanford_cars_loss3/classifier_stanford_cars_loss3/classifier_0_split <- stanford_cars_loss3/classifier
I0703 20:01:39.773412 21340 net.cpp:368] stanford_cars_loss3/classifier_stanford_cars_loss3/classifier_0_split -> stanford_cars_loss3/classifier_stanford_cars_loss3/classifier_0_split_0
I0703 20:01:39.773435 21340 net.cpp:368] stanford_cars_loss3/classifier_stanford_cars_loss3/classifier_0_split -> stanford_cars_loss3/classifier_stanford_cars_loss3/classifier_0_split_1
I0703 20:01:39.773459 21340 net.cpp:368] stanford_cars_loss3/classifier_stanford_cars_loss3/classifier_0_split -> stanford_cars_loss3/classifier_stanford_cars_loss3/classifier_0_split_2
I0703 20:01:39.773479 21340 net.cpp:120] Setting up stanford_cars_loss3/classifier_stanford_cars_loss3/classifier_0_split
I0703 20:01:39.773500 21340 net.cpp:127] Top shape: 10 196 (1960)
I0703 20:01:39.773516 21340 net.cpp:127] Top shape: 10 196 (1960)
I0703 20:01:39.773531 21340 net.cpp:127] Top shape: 10 196 (1960)
I0703 20:01:39.773545 21340 layer_factory.hpp:74] Creating layer loss3/loss3
I0703 20:01:39.773563 21340 net.cpp:90] Creating Layer loss3/loss3
I0703 20:01:39.773578 21340 net.cpp:410] loss3/loss3 <- stanford_cars_loss3/classifier_stanford_cars_loss3/classifier_0_split_0
I0703 20:01:39.773596 21340 net.cpp:410] loss3/loss3 <- label_data_1_split_6
I0703 20:01:39.773614 21340 net.cpp:368] loss3/loss3 -> loss3/loss3
…
