…
I0704 17:48:47.783073 25106 net.cpp:287] The NetState phase (0) differed from the phase (1) specified by a rule in layer loss3/top-5
I0704 17:48:47.783689 25106 net.cpp:42] Initializing net from parameters: 
name: "GoogleNet"
state {
  phase: TRAIN
}
layer {
  name: "data"
  type: "Data"
  top: "data"
  top: "label"
  include {
    phase: TRAIN
  }
  transform_param {
    mirror: true
    crop_size: 224
    mean_value: 104
    mean_value: 117
    mean_value: 123
  }
  data_param {
    source: "examples/stanford_cars/stanford_cars_train_lmdb"
    batch_size: 30
    backend: LMDB
  }
}
layer {
  name: "conv1/7x7_s2"
  type: "Convolution"
  bottom: "data"
  top: "conv1/7x7_s2"
  param {
    lr_mult: 1
    decay_mult: 1
  }
  param {
    lr_mult: 2
    decay_mult: 0
  }
  convolution_param {
    num_output: 64
    pad: 3
    kernel_size: 7
    stride: 2
    weight_filler {
      type: "xavier"
      std: 0.1
    }
    bias_filler {
      type: "constant"
      value: 0.2
    }
  }
}
layer {
  name: "conv1/relu_7x7"
  type: "ReLU"
  bottom: "conv1/7x7_s2"
  top: "conv1/7x7_s2"
}
layer {
  name: "pool1/3x3_s2"
  type: "Pooling"
  bottom: "conv1/7x7_s2"
  top: "pool1/3x3_s2"
  pooling_param {
    pool: MAX
    kernel_size: 3
    stride: 2
  }
}
layer {
  name: "pool1/norm1"
  type: "LRN"
  bottom: "pool1/3x3_s2"
  top: "pool1/norm1"
  lrn_param {
    local_size: 5
    alpha: 0.0001
    beta: 0.75
  }
}
layer {
  name: "conv2/3x3_reduce"
  type: "Convolution"
  bottom: "pool1/norm1"
  top: "conv2/3x3_reduce"
  param {
    lr_mult: 1
    decay_mult: 1
  }
  param {
    lr_mult: 2
    decay_mult: 0
  }
  convolution_param {
    num_output: 64
    kernel_size: 1
    weight_filler {
      type: "xavier"
      std: 0.1
    }
    bias_filler {
      type: "constant"
      value: 0.2
    }
  }
}
layer {
  name: "conv2/relu_3x3_reduce"
  type: "ReLU"
  bottom: "conv2/3x3_reduce"
  top: "conv2/3x3_reduce"
}
layer {
  name: "conv2/3x3"
  type: "Convolution"
  bottom: "conv2/3x3_reduce"
  top: "conv2/3x3"
  param {
    lr_mult: 1
    decay_mult: 1
  }
  param {
    lr_mult: 2
    decay_mult: 0
  }
  convolution_param {
    num_output: 192
    pad: 1
    kernel_size: 3
    weight_filler {
      type: "xavier"
      std: 0.03
    }
    bias_filler {
      type: "constant"
      value: 0.2
    }
  }
}
layer {
  name: "conv2/relu_3x3"
  type: "ReLU"
  bottom: "conv2/3x3"
  top: "conv2/3x3"
}
layer {
  name: "conv2/norm2"
  type: "LRN"
  bottom: "conv2/3x3"
  top: "conv2/norm2"
  lrn_param {
    local_size: 5
    alpha: 0.0001
    beta: 0.75
  }
}
layer {
  name: "pool2/3x3_s2"
  type: "Pooling"
  bottom: "conv2/norm2"
  top: "pool2/3x3_s2"
  pooling_param {
    pool: MAX
    kernel_size: 3
    stride: 2
  }
}
layer {
  name: "inception_3a/1x1"
  type: "Convolution"
  bottom: "pool2/3x3_s2"
  top: "inception_3a/1x1"
  param {
    lr_mult: 1
    decay_mult: 1
  }
  param {
    lr_mult: 2
    decay_mult: 0
  }
  convolution_param {
    num_output: 64
    kernel_size: 1
    weight_filler {
      type: "xavier"
      std: 0.03
    }
    bias_filler {
      type: "constant"
      value: 0.2
    }
  }
}
layer {
  name: "inception_3a/relu_1x1"
  type: "ReLU"
  bottom: "inception_3a/1x1"
  top: "inception_3a/1x1"
}
layer {
  name: "inception_3a/3x3_reduce"
  type: "Convolution"
  bottom: "pool2/3x3_s2"
  top: "inception_3a/3x3_reduce"
  param {
    lr_mult: 1
    decay_mult: 1
  }
  param {
    lr_mult: 2
    decay_mult: 0
  }
  convolution_param {
    num_output: 96
    kernel_size: 1
    weight_filler {
      type: "xavier"
      std: 0.09
    }
    bias_filler {
      type: "constant"
      value: 0.2
    }
  }
}
layer {
  name: "inception_3a/relu_3x3_reduce"
  type: "ReLU"
  bottom: "inception_3a/3x3_reduce"
  top: "inception_3a/3x3_reduce"
}
layer {
  name: "inception_3a/3x3"
  type: "Convolution"
  bottom: "inception_3a/3x3_reduce"
  top: "inception_3a/3x3"
  param {
    lr_mult: 1
    decay_mult: 1
  }
  param {
    lr_mult: 2
    decay_mult: 0
  }
  convolution_param {
    num_output: 128
    pad: 1
    kernel_size: 3
    weight_filler {
      type: "xavier"
      std: 0.03
    }
    bias_filler {
      type: "constant"
      value: 0.2
    }
  }
}
layer {
  name: "inception_3a/relu_3x3"
  type: "ReLU"
  bottom: "inception_3a/3x3"
  top: "inception_3a/3x3"
}
layer {
  name: "inception_3a/5x5_reduce"
  type: "Convolution"
  bottom: "pool2/3x3_s2"
  top: "inception_3a/5x5_reduce"
  param {
    lr_mult: 1
    decay_mult: 1
  }
  param {
    lr_mult: 2
    decay_mult: 0
  }
  convolution_param {
    num_output: 16
    kernel_size: 1
    weight_filler {
      type: "xavier"
      std: 0.2
    }
    bias_filler {
      type: "constant"
      value: 0.2
    }
  }
}
layer {
  name: "inception_3a/relu_5x5_reduce"
  type: "ReLU"
  bottom: "inception_3a/5x5_reduce"
  top: "inception_3a/5x5_reduce"
}
layer {
  name: "inception_3a/5x5"
  type: "Convolution"
  bottom: "inception_3a/5x5_reduce"
  top: "inception_3a/5x5"
  param {
    lr_mult: 1
    decay_mult: 1
  }
  param {
    lr_mult: 2
    decay_mult: 0
  }
  convolution_param {
    num_output: 32
    pad: 2
    kernel_size: 5
    weight_filler {
      type: "xavier"
      std: 0.03
    }
    bias_filler {
      type: "constant"
      value: 0.2
    }
  }
}
layer {
  name: "inception_3a/relu_5x5"
  type: "ReLU"
  bottom: "inception_3a/5x5"
  top: "inception_3a/5x5"
}
layer {
  name: "inception_3a/pool"
  type: "Pooling"
  bottom: "pool2/3x3_s2"
  top: "inception_3a/pool"
  pooling_param {
    pool: MAX
    kernel_size: 3
    stride: 1
    pad: 1
  }
}
layer {
  name: "inception_3a/pool_proj"
  type: "Convolution"
  bottom: "inception_3a/pool"
  top: "inception_3a/pool_proj"
  param {
    lr_mult: 1
    decay_mult: 1
  }
  param {
    lr_mult: 2
    decay_mult: 0
  }
  convolution_param {
    num_output: 32
    kernel_size: 1
    weight_filler {
      type: "xavier"
      std: 0.1
    }
    bias_filler {
      type: "constant"
      value: 0.2
    }
  }
}
layer {
  name: "inception_3a/relu_pool_proj"
  type: "ReLU"
  bottom: "inception_3a/pool_proj"
  top: "inception_3a/pool_proj"
}
layer {
  name: "inception_3a/output"
  type: "Concat"
  bottom: "inception_3a/1x1"
  bottom: "inception_3a/3x3"
  bottom: "inception_3a/5x5"
  bottom: "inception_3a/pool_proj"
  top: "inception_3a/output"
}
layer {
  name: "inception_3b/1x1"
  type: "Convolution"
  bottom: "inception_3a/output"
  top: "inception_3b/1x1"
  param {
    lr_mult: 1
    decay_mult: 1
  }
  param {
    lr_mult: 2
    decay_mult: 0
  }
  convolution_param {
    num_output: 128
    kernel_size: 1
    weight_filler {
      type: "xavier"
      std: 0.03
    }
    bias_filler {
      type: "constant"
      value: 0.2
    }
  }
}
layer {
  name: "inception_3b/relu_1x1"
  type: "ReLU"
  bottom: "inception_3b/1x1"
  top: "inception_3b/1x1"
}
layer {
  name: "inception_3b/3x3_reduce"
  type: "Convolution"
  bottom: "inception_3a/output"
  top: "inception_3b/3x3_reduce"
  param {
    lr_mult: 1
    decay_mult: 1
  }
  param {
    lr_mult: 2
    decay_mult: 0
  }
  convolution_param {
    num_output: 128
    kernel_size: 1
    weight_filler {
      type: "xavier"
      std: 0.09
    }
    bias_filler {
      type: "constant"
      value: 0.2
    }
  }
}
layer {
  name: "inception_3b/relu_3x3_reduce"
  type: "ReLU"
  bottom: "inception_3b/3x3_reduce"
  top: "inception_3b/3x3_reduce"
}
layer {
  name: "inception_3b/3x3"
  type: "Convolution"
  bottom: "inception_3b/3x3_reduce"
  top: "inception_3b/3x3"
  param {
    lr_mult: 1
    decay_mult: 1
  }
  param {
    lr_mult: 2
    decay_mult: 0
  }
  convolution_param {
    num_output: 192
    pad: 1
    kernel_size: 3
    weight_filler {
      type: "xavier"
      std: 0.03
    }
    bias_filler {
      type: "constant"
      value: 0.2
    }
  }
}
layer {
  name: "inception_3b/relu_3x3"
  type: "ReLU"
  bottom: "inception_3b/3x3"
  top: "inception_3b/3x3"
}
layer {
  name: "inception_3b/5x5_reduce"
  type: "Convolution"
  bottom: "inception_3a/output"
  top: "inception_3b/5x5_reduce"
  param {
    lr_mult: 1
    decay_mult: 1
  }
  param {
    lr_mult: 2
    decay_mult: 0
  }
  convolution_param {
    num_output: 32
    kernel_size: 1
    weight_filler {
      type: "xavier"
      std: 0.2
    }
    bias_filler {
      type: "constant"
      value: 0.2
    }
  }
}
layer {
  name: "inception_3b/relu_5x5_reduce"
  type: "ReLU"
  bottom: "inception_3b/5x5_reduce"
  top: "inception_3b/5x5_reduce"
}
layer {
  name: "inception_3b/5x5"
  type: "Convolution"
  bottom: "inception_3b/5x5_reduce"
  top: "inception_3b/5x5"
  param {
    lr_mult: 1
    decay_mult: 1
  }
  param {
    lr_mult: 2
    decay_mult: 0
  }
  convolution_param {
    num_output: 96
    pad: 2
    kernel_size: 5
    weight_filler {
      type: "xavier"
      std: 0.03
    }
    bias_filler {
      type: "constant"
      value: 0.2
    }
  }
}
layer {
  name: "inception_3b/relu_5x5"
  type: "ReLU"
  bottom: "inception_3b/5x5"
  top: "inception_3b/5x5"
}
layer {
  name: "inception_3b/pool"
  type: "Pooling"
  bottom: "inception_3a/output"
  top: "inception_3b/pool"
  pooling_param {
    pool: MAX
    kernel_size: 3
    stride: 1
    pad: 1
  }
}
layer {
  name: "inception_3b/pool_proj"
  type: "Convolution"
  bottom: "inception_3b/pool"
  top: "inception_3b/pool_proj"
  param {
    lr_mult: 1
    decay_mult: 1
  }
  param {
    lr_mult: 2
    decay_mult: 0
  }
  convolution_param {
    num_output: 64
    kernel_size: 1
    weight_filler {
      type: "xavier"
      std: 0.1
    }
    bias_filler {
      type: "constant"
      value: 0.2
    }
  }
}
layer {
  name: "inception_3b/relu_pool_proj"
  type: "ReLU"
  bottom: "inception_3b/pool_proj"
  top: "inception_3b/pool_proj"
}
layer {
  name: "inception_3b/output"
  type: "Concat"
  bottom: "inception_3b/1x1"
  bottom: "inception_3b/3x3"
  bottom: "inception_3b/5x5"
  bottom: "inception_3b/pool_proj"
  top: "inception_3b/output"
}
layer {
  name: "pool3/3x3_s2"
  type: "Pooling"
  bottom: "inception_3b/output"
  top: "pool3/3x3_s2"
  pooling_param {
    pool: MAX
    kernel_size: 3
    stride: 2
  }
}
layer {
  name: "inception_4a/1x1"
  type: "Convolution"
  bottom: "pool3/3x3_s2"
  top: "inception_4a/1x1"
  param {
    lr_mult: 1
    decay_mult: 1
  }
  param {
    lr_mult: 2
    decay_mult: 0
  }
  convolution_param {
    num_output: 192
    kernel_size: 1
    weight_filler {
      type: "xavier"
      std: 0.03
    }
    bias_filler {
      type: "constant"
      value: 0.2
    }
  }
}
layer {
  name: "inception_4a/relu_1x1"
  type: "ReLU"
  bottom: "inception_4a/1x1"
  top: "inception_4a/1x1"
}
layer {
  name: "inception_4a/3x3_reduce"
  type: "Convolution"
  bottom: "pool3/3x3_s2"
  top: "inception_4a/3x3_reduce"
  param {
    lr_mult: 1
    decay_mult: 1
  }
  param {
    lr_mult: 2
    decay_mult: 0
  }
  convolution_param {
    num_output: 96
    kernel_size: 1
    weight_filler {
      type: "xavier"
      std: 0.09
    }
    bias_filler {
      type: "constant"
      value: 0.2
    }
  }
}
layer {
  name: "inception_4a/relu_3x3_reduce"
  type: "ReLU"
  bottom: "inception_4a/3x3_reduce"
  top: "inception_4a/3x3_reduce"
}
layer {
  name: "inception_4a/3x3"
  type: "Convolution"
  bottom: "inception_4a/3x3_reduce"
  top: "inception_4a/3x3"
  param {
    lr_mult: 1
    decay_mult: 1
  }
  param {
    lr_mult: 2
    decay_mult: 0
  }
  convolution_param {
    num_output: 208
    pad: 1
    kernel_size: 3
    weight_filler {
      type: "xavier"
      std: 0.03
    }
    bias_filler {
      type: "constant"
      value: 0.2
    }
  }
}
layer {
  name: "inception_4a/relu_3x3"
  type: "ReLU"
  bottom: "inception_4a/3x3"
  top: "inception_4a/3x3"
}
layer {
  name: "inception_4a/5x5_reduce"
  type: "Convolution"
  bottom: "pool3/3x3_s2"
  top: "inception_4a/5x5_reduce"
  param {
    lr_mult: 1
    decay_mult: 1
  }
  param {
    lr_mult: 2
    decay_mult: 0
  }
  convolution_param {
    num_output: 16
    kernel_size: 1
    weight_filler {
      type: "xavier"
      std: 0.2
    }
    bias_filler {
      type: "constant"
      value: 0.2
    }
  }
}
layer {
  name: "inception_4a/relu_5x5_reduce"
  type: "ReLU"
  bottom: "inception_4a/5x5_reduce"
  top: "inception_4a/5x5_reduce"
}
layer {
  name: "inception_4a/5x5"
  type: "Convolution"
  bottom: "inception_4a/5x5_reduce"
  top: "inception_4a/5x5"
  param {
    lr_mult: 1
    decay_mult: 1
  }
  param {
    lr_mult: 2
    decay_mult: 0
  }
  convolution_param {
    num_output: 48
    pad: 2
    kernel_size: 5
    weight_filler {
      type: "xavier"
      std: 0.03
    }
    bias_filler {
      type: "constant"
      value: 0.2
    }
  }
}
layer {
  name: "inception_4a/relu_5x5"
  type: "ReLU"
  bottom: "inception_4a/5x5"
  top: "inception_4a/5x5"
}
layer {
  name: "inception_4a/pool"
  type: "Pooling"
  bottom: "pool3/3x3_s2"
  top: "inception_4a/pool"
  pooling_param {
    pool: MAX
    kernel_size: 3
    stride: 1
    pad: 1
  }
}
layer {
  name: "inception_4a/pool_proj"
  type: "Convolution"
  bottom: "inception_4a/pool"
  top: "inception_4a/pool_proj"
  param {
    lr_mult: 1
    decay_mult: 1
  }
  param {
    lr_mult: 2
    decay_mult: 0
  }
  convolution_param {
    num_output: 64
    kernel_size: 1
    weight_filler {
      type: "xavier"
      std: 0.1
    }
    bias_filler {
      type: "constant"
      value: 0.2
    }
  }
}
layer {
  name: "inception_4a/relu_pool_proj"
  type: "ReLU"
  bottom: "inception_4a/pool_proj"
  top: "inception_4a/pool_proj"
}
layer {
  name: "inception_4a/output"
  type: "Concat"
  bottom: "inception_4a/1x1"
  bottom: "inception_4a/3x3"
  bottom: "inception_4a/5x5"
  bottom: "inception_4a/pool_proj"
  top: "inception_4a/output"
}
layer {
  name: "loss1/ave_pool"
  type: "Pooling"
  bottom: "inception_4a/output"
  top: "loss1/ave_pool"
  pooling_param {
    pool: AVE
    kernel_size: 5
    stride: 3
  }
}
layer {
  name: "loss1/conv"
  type: "Convolution"
  bottom: "loss1/ave_pool"
  top: "loss1/conv"
  param {
    lr_mult: 1
    decay_mult: 1
  }
  param {
    lr_mult: 2
    decay_mult: 0
  }
  convolution_param {
    num_output: 128
    kernel_size: 1
    weight_filler {
      type: "xavier"
      std: 0.08
    }
    bias_filler {
      type: "constant"
      value: 0.2
    }
  }
}
layer {
  name: "loss1/relu_conv"
  type: "ReLU"
  bottom: "loss1/conv"
  top: "loss1/conv"
}
layer {
  name: "loss1/fc"
  type: "InnerProduct"
  bottom: "loss1/conv"
  top: "loss1/fc"
  param {
    lr_mult: 1
    decay_mult: 1
  }
  param {
    lr_mult: 2
    decay_mult: 0
  }
  inner_product_param {
    num_output: 1024
    weight_filler {
      type: "xavier"
      std: 0.02
    }
    bias_filler {
      type: "constant"
      value: 0.2
    }
  }
}
layer {
  name: "loss1/relu_fc"
  type: "ReLU"
  bottom: "loss1/fc"
  top: "loss1/fc"
}
layer {
  name: "loss1/drop_fc"
  type: "Dropout"
  bottom: "loss1/fc"
  top: "loss1/fc"
  dropout_param {
    dropout_ratio: 0.2
  }
}
layer {
  name: "stanford_cars_loss1/classifier"
  type: "InnerProduct"
  bottom: "loss1/fc"
  top: "stanford_cars_loss1/classifier"
  param {
    lr_mult: 1
    decay_mult: 1
  }
  param {
    lr_mult: 2
    decay_mult: 0
  }
  inner_product_param {
    num_output: 196
    weight_filler {
      type: "xavier"
      std: 0.0009765625
    }
    bias_filler {
      type: "constant"
      value: 0
    }
  }
}
layer {
  name: "loss1/loss"
  type: "SoftmaxWithLoss"
  bottom: "stanford_cars_loss1/classifier"
  bottom: "label"
  top: "loss1/loss1"
  loss_weight: 0.3
}
layer {
  name: "inception_4b/1x1"
  type: "Convolution"
  bottom: "inception_4a/output"
  top: "inception_4b/1x1"
  param {
    lr_mult: 1
    decay_mult: 1
  }
  param {
    lr_mult: 2
    decay_mult: 0
  }
  convolution_param {
    num_output: 160
    kernel_size: 1
    weight_filler {
      type: "xavier"
      std: 0.03
    }
    bias_filler {
      type: "constant"
      value: 0.2
    }
  }
}
layer {
  name: "inception_4b/relu_1x1"
  type: "ReLU"
  bottom: "inception_4b/1x1"
  top: "inception_4b/1x1"
}
layer {
  name: "inception_4b/3x3_reduce"
  type: "Convolution"
  bottom: "inception_4a/output"
  top: "inception_4b/3x3_reduce"
  param {
    lr_mult: 1
    decay_mult: 1
  }
  param {
    lr_mult: 2
    decay_mult: 0
  }
  convolution_param {
    num_output: 112
    kernel_size: 1
    weight_filler {
      type: "xavier"
      std: 0.09
    }
    bias_filler {
      type: "constant"
      value: 0.2
    }
  }
}
layer {
  name: "inception_4b/relu_3x3_reduce"
  type: "ReLU"
  bottom: "inception_4b/3x3_reduce"
  top: "inception_4b/3x3_reduce"
}
layer {
  name: "inception_4b/3x3"
  type: "Convolution"
  bottom: "inception_4b/3x3_reduce"
  top: "inception_4b/3x3"
  param {
    lr_mult: 1
    decay_mult: 1
  }
  param {
    lr_mult: 2
    decay_mult: 0
  }
  convolution_param {
    num_output: 224
    pad: 1
    kernel_size: 3
    weight_filler {
      type: "xavier"
      std: 0.03
    }
    bias_filler {
      type: "constant"
      value: 0.2
    }
  }
}
layer {
  name: "inception_4b/relu_3x3"
  type: "ReLU"
  bottom: "inception_4b/3x3"
  top: "inception_4b/3x3"
}
layer {
  name: "inception_4b/5x5_reduce"
  type: "Convolution"
  bottom: "inception_4a/output"
  top: "inception_4b/5x5_reduce"
  param {
    lr_mult: 1
    decay_mult: 1
  }
  param {
    lr_mult: 2
    decay_mult: 0
  }
  convolution_param {
    num_output: 24
    kernel_size: 1
    weight_filler {
      type: "xavier"
      std: 0.2
    }
    bias_filler {
      type: "constant"
      value: 0.2
    }
  }
}
layer {
  name: "inception_4b/relu_5x5_reduce"
  type: "ReLU"
  bottom: "inception_4b/5x5_reduce"
  top: "inception_4b/5x5_reduce"
}
layer {
  name: "inception_4b/5x5"
  type: "Convolution"
  bottom: "inception_4b/5x5_reduce"
  top: "inception_4b/5x5"
  param {
    lr_mult: 1
    decay_mult: 1
  }
  param {
    lr_mult: 2
    decay_mult: 0
  }
  convolution_param {
    num_output: 64
    pad: 2
    kernel_size: 5
    weight_filler {
      type: "xavier"
      std: 0.03
    }
    bias_filler {
      type: "constant"
      value: 0.2
    }
  }
}
layer {
  name: "inception_4b/relu_5x5"
  type: "ReLU"
  bottom: "inception_4b/5x5"
  top: "inception_4b/5x5"
}
layer {
  name: "inception_4b/pool"
  type: "Pooling"
  bottom: "inception_4a/output"
  top: "inception_4b/pool"
  pooling_param {
    pool: MAX
    kernel_size: 3
    stride: 1
    pad: 1
  }
}
layer {
  name: "inception_4b/pool_proj"
  type: "Convolution"
  bottom: "inception_4b/pool"
  top: "inception_4b/pool_proj"
  param {
    lr_mult: 1
    decay_mult: 1
  }
  param {
    lr_mult: 2
    decay_mult: 0
  }
  convolution_param {
    num_output: 64
    kernel_size: 1
    weight_filler {
      type: "xavier"
      std: 0.1
    }
    bias_filler {
      type: "constant"
      value: 0.2
    }
  }
}
layer {
  name: "inception_4b/relu_pool_proj"
  type: "ReLU"
  bottom: "inception_4b/pool_proj"
  top: "inception_4b/pool_proj"
}
layer {
  name: "inception_4b/output"
  type: "Concat"
  bottom: "inception_4b/1x1"
  bottom: "inception_4b/3x3"
  bottom: "inception_4b/5x5"
  bottom: "inception_4b/pool_proj"
  top: "inception_4b/output"
}
layer {
  name: "inception_4c/1x1"
  type: "Convolution"
  bottom: "inception_4b/output"
  top: "inception_4c/1x1"
  param {
    lr_mult: 1
    decay_mult: 1
  }
  param {
    lr_mult: 2
    decay_mult: 0
  }
  convolution_param {
    num_output: 128
    kernel_size: 1
    weight_filler {
      type: "xavier"
      std: 0.03
    }
    bias_filler {
      type: "constant"
      value: 0.2
    }
  }
}
layer {
  name: "inception_4c/relu_1x1"
  type: "ReLU"
  bottom: "inception_4c/1x1"
  top: "inception_4c/1x1"
}
layer {
  name: "inception_4c/3x3_reduce"
  type: "Convolution"
  bottom: "inception_4b/output"
  top: "inception_4c/3x3_reduce"
  param {
    lr_mult: 1
    decay_mult: 1
  }
  param {
    lr_mult: 2
    decay_mult: 0
  }
  convolution_param {
    num_output: 128
    kernel_size: 1
    weight_filler {
      type: "xavier"
      std: 0.09
    }
    bias_filler {
      type: "constant"
      value: 0.2
    }
  }
}
layer {
  name: "inception_4c/relu_3x3_reduce"
  type: "ReLU"
  bottom: "inception_4c/3x3_reduce"
  top: "inception_4c/3x3_reduce"
}
layer {
  name: "inception_4c/3x3"
  type: "Convolution"
  bottom: "inception_4c/3x3_reduce"
  top: "inception_4c/3x3"
  param {
    lr_mult: 1
    decay_mult: 1
  }
  param {
    lr_mult: 2
    decay_mult: 0
  }
  convolution_param {
    num_output: 256
    pad: 1
    kernel_size: 3
    weight_filler {
      type: "xavier"
      std: 0.03
    }
    bias_filler {
      type: "constant"
      value: 0.2
    }
  }
}
layer {
  name: "inception_4c/relu_3x3"
  type: "ReLU"
  bottom: "inception_4c/3x3"
  top: "inception_4c/3x3"
}
layer {
  name: "inception_4c/5x5_reduce"
  type: "Convolution"
  bottom: "inception_4b/output"
  top: "inception_4c/5x5_reduce"
  param {
    lr_mult: 1
    decay_mult: 1
  }
  param {
    lr_mult: 2
    decay_mult: 0
  }
  convolution_param {
    num_output: 24
    kernel_size: 1
    weight_filler {
      type: "xavier"
      std: 0.2
    }
    bias_filler {
      type: "constant"
      value: 0.2
    }
  }
}
layer {
  name: "inception_4c/relu_5x5_reduce"
  type: "ReLU"
  bottom: "inception_4c/5x5_reduce"
  top: "inception_4c/5x5_reduce"
}
layer {
  name: "inception_4c/5x5"
  type: "Convolution"
  bottom: "inception_4c/5x5_reduce"
  top: "inception_4c/5x5"
  param {
    lr_mult: 1
    decay_mult: 1
  }
  param {
    lr_mult: 2
    decay_mult: 0
  }
  convolution_param {
    num_output: 64
    pad: 2
    kernel_size: 5
    weight_filler {
      type: "xavier"
      std: 0.03
    }
    bias_filler {
      type: "constant"
      value: 0.2
    }
  }
}
layer {
  name: "inception_4c/relu_5x5"
  type: "ReLU"
  bottom: "inception_4c/5x5"
  top: "inception_4c/5x5"
}
layer {
  name: "inception_4c/pool"
  type: "Pooling"
  bottom: "inception_4b/output"
  top: "inception_4c/pool"
  pooling_param {
    pool: MAX
    kernel_size: 3
    stride: 1
    pad: 1
  }
}
layer {
  name: "inception_4c/pool_proj"
  type: "Convolution"
  bottom: "inception_4c/pool"
  top: "inception_4c/pool_proj"
  param {
    lr_mult: 1
    decay_mult: 1
  }
  param {
    lr_mult: 2
    decay_mult: 0
  }
  convolution_param {
    num_output: 64
    kernel_size: 1
    weight_filler {
      type: "xavier"
      std: 0.1
    }
    bias_filler {
      type: "constant"
      value: 0.2
    }
  }
}
layer {
  name: "inception_4c/relu_pool_proj"
  type: "ReLU"
  bottom: "inception_4c/pool_proj"
  top: "inception_4c/pool_proj"
}
layer {
  name: "inception_4c/output"
  type: "Concat"
  bottom: "inception_4c/1x1"
  bottom: "inception_4c/3x3"
  bottom: "inception_4c/5x5"
  bottom: "inception_4c/pool_proj"
  top: "inception_4c/output"
}
layer {
  name: "inception_4d/1x1"
  type: "Convolution"
  bottom: "inception_4c/output"
  top: "inception_4d/1x1"
  param {
    lr_mult: 1
    decay_mult: 1
  }
  param {
    lr_mult: 2
    decay_mult: 0
  }
  convolution_param {
    num_output: 112
    kernel_size: 1
    weight_filler {
      type: "xavier"
      std: 0.03
    }
    bias_filler {
      type: "constant"
      value: 0.2
    }
  }
}
layer {
  name: "inception_4d/relu_1x1"
  type: "ReLU"
  bottom: "inception_4d/1x1"
  top: "inception_4d/1x1"
}
layer {
  name: "inception_4d/3x3_reduce"
  type: "Convolution"
  bottom: "inception_4c/output"
  top: "inception_4d/3x3_reduce"
  param {
    lr_mult: 1
    decay_mult: 1
  }
  param {
    lr_mult: 2
    decay_mult: 0
  }
  convolution_param {
    num_output: 144
    kernel_size: 1
    weight_filler {
      type: "xavier"
      std: 0.09
    }
    bias_filler {
      type: "constant"
      value: 0.2
    }
  }
}
layer {
  name: "inception_4d/relu_3x3_reduce"
  type: "ReLU"
  bottom: "inception_4d/3x3_reduce"
  top: "inception_4d/3x3_reduce"
}
layer {
  name: "inception_4d/3x3"
  type: "Convolution"
  bottom: "inception_4d/3x3_reduce"
  top: "inception_4d/3x3"
  param {
    lr_mult: 1
    decay_mult: 1
  }
  param {
    lr_mult: 2
    decay_mult: 0
  }
  convolution_param {
    num_output: 288
    pad: 1
    kernel_size: 3
    weight_filler {
      type: "xavier"
      std: 0.03
    }
    bias_filler {
      type: "constant"
      value: 0.2
    }
  }
}
layer {
  name: "inception_4d/relu_3x3"
  type: "ReLU"
  bottom: "inception_4d/3x3"
  top: "inception_4d/3x3"
}
layer {
  name: "inception_4d/5x5_reduce"
  type: "Convolution"
  bottom: "inception_4c/output"
  top: "inception_4d/5x5_reduce"
  param {
    lr_mult: 1
    decay_mult: 1
  }
  param {
    lr_mult: 2
    decay_mult: 0
  }
  convolution_param {
    num_output: 32
    kernel_size: 1
    weight_filler {
      type: "xavier"
      std: 0.2
    }
    bias_filler {
      type: "constant"
      value: 0.2
    }
  }
}
layer {
  name: "inception_4d/relu_5x5_reduce"
  type: "ReLU"
  bottom: "inception_4d/5x5_reduce"
  top: "inception_4d/5x5_reduce"
}
layer {
  name: "inception_4d/5x5"
  type: "Convolution"
  bottom: "inception_4d/5x5_reduce"
  top: "inception_4d/5x5"
  param {
    lr_mult: 1
    decay_mult: 1
  }
  param {
    lr_mult: 2
    decay_mult: 0
  }
  convolution_param {
    num_output: 64
    pad: 2
    kernel_size: 5
    weight_filler {
      type: "xavier"
      std: 0.03
    }
    bias_filler {
      type: "constant"
      value: 0.2
    }
  }
}
layer {
  name: "inception_4d/relu_5x5"
  type: "ReLU"
  bottom: "inception_4d/5x5"
  top: "inception_4d/5x5"
}
layer {
  name: "inception_4d/pool"
  type: "Pooling"
  bottom: "inception_4c/output"
  top: "inception_4d/pool"
  pooling_param {
    pool: MAX
    kernel_size: 3
    stride: 1
    pad: 1
  }
}
layer {
  name: "inception_4d/pool_proj"
  type: "Convolution"
  bottom: "inception_4d/pool"
  top: "inception_4d/pool_proj"
  param {
    lr_mult: 1
    decay_mult: 1
  }
  param {
    lr_mult: 2
    decay_mult: 0
  }
  convolution_param {
    num_output: 64
    kernel_size: 1
    weight_filler {
      type: "xavier"
      std: 0.1
    }
    bias_filler {
      type: "constant"
      value: 0.2
    }
  }
}
layer {
  name: "inception_4d/relu_pool_proj"
  type: "ReLU"
  bottom: "inception_4d/pool_proj"
  top: "inception_4d/pool_proj"
}
layer {
  name: "inception_4d/output"
  type: "Concat"
  bottom: "inception_4d/1x1"
  bottom: "inception_4d/3x3"
  bottom: "inception_4d/5x5"
  bottom: "inception_4d/pool_proj"
  top: "inception_4d/output"
}
layer {
  name: "loss2/ave_pool"
  type: "Pooling"
  bottom: "inception_4d/output"
  top: "loss2/ave_pool"
  pooling_param {
    pool: AVE
    kernel_size: 5
    stride: 3
  }
}
layer {
  name: "loss2/conv"
  type: "Convolution"
  bottom: "loss2/ave_pool"
  top: "loss2/conv"
  param {
    lr_mult: 1
    decay_mult: 1
  }
  param {
    lr_mult: 2
    decay_mult: 0
  }
  convolution_param {
    num_output: 128
    kernel_size: 1
    weight_filler {
      type: "xavier"
      std: 0.08
    }
    bias_filler {
      type: "constant"
      value: 0.2
    }
  }
}
layer {
  name: "loss2/relu_conv"
  type: "ReLU"
  bottom: "loss2/conv"
  top: "loss2/conv"
}
layer {
  name: "loss2/fc"
  type: "InnerProduct"
  bottom: "loss2/conv"
  top: "loss2/fc"
  param {
    lr_mult: 1
    decay_mult: 1
  }
  param {
    lr_mult: 2
    decay_mult: 0
  }
  inner_product_param {
    num_output: 1024
    weight_filler {
      type: "xavier"
      std: 0.02
    }
    bias_filler {
      type: "constant"
      value: 0.2
    }
  }
}
layer {
  name: "loss2/relu_fc"
  type: "ReLU"
  bottom: "loss2/fc"
  top: "loss2/fc"
}
layer {
  name: "loss2/drop_fc"
  type: "Dropout"
  bottom: "loss2/fc"
  top: "loss2/fc"
  dropout_param {
    dropout_ratio: 0.2
  }
}
layer {
  name: "stanford_cars_loss2/classifier"
  type: "InnerProduct"
  bottom: "loss2/fc"
  top: "stanford_cars_loss2/classifier"
  param {
    lr_mult: 1
    decay_mult: 1
  }
  param {
    lr_mult: 2
    decay_mult: 0
  }
  inner_product_param {
    num_output: 196
    weight_filler {
      type: "xavier"
      std: 0.0009765625
    }
    bias_filler {
      type: "constant"
      value: 0
    }
  }
}
layer {
  name: "stanford_cars_loss2/loss"
  type: "SoftmaxWithLoss"
  bottom: "stanford_cars_loss2/classifier"
  bottom: "label"
  top: "loss2/loss1"
  loss_weight: 0.3
}
layer {
  name: "inception_4e/1x1"
  type: "Convolution"
  bottom: "inception_4d/output"
  top: "inception_4e/1x1"
  param {
    lr_mult: 1
    decay_mult: 1
  }
  param {
    lr_mult: 2
    decay_mult: 0
  }
  convolution_param {
    num_output: 256
    kernel_size: 1
    weight_filler {
      type: "xavier"
      std: 0.03
    }
    bias_filler {
      type: "constant"
      value: 0.2
    }
  }
}
layer {
  name: "inception_4e/relu_1x1"
  type: "ReLU"
  bottom: "inception_4e/1x1"
  top: "inception_4e/1x1"
}
layer {
  name: "inception_4e/3x3_reduce"
  type: "Convolution"
  bottom: "inception_4d/output"
  top: "inception_4e/3x3_reduce"
  param {
    lr_mult: 1
    decay_mult: 1
  }
  param {
    lr_mult: 2
    decay_mult: 0
  }
  convolution_param {
    num_output: 160
    kernel_size: 1
    weight_filler {
      type: "xavier"
      std: 0.09
    }
    bias_filler {
      type: "constant"
      value: 0.2
    }
  }
}
layer {
  name: "inception_4e/relu_3x3_reduce"
  type: "ReLU"
  bottom: "inception_4e/3x3_reduce"
  top: "inception_4e/3x3_reduce"
}
layer {
  name: "inception_4e/3x3"
  type: "Convolution"
  bottom: "inception_4e/3x3_reduce"
  top: "inception_4e/3x3"
  param {
    lr_mult: 1
    decay_mult: 1
  }
  param {
    lr_mult: 2
    decay_mult: 0
  }
  convolution_param {
    num_output: 320
    pad: 1
    kernel_size: 3
    weight_filler {
      type: "xavier"
      std: 0.03
    }
    bias_filler {
      type: "constant"
      value: 0.2
    }
  }
}
layer {
  name: "inception_4e/relu_3x3"
  type: "ReLU"
  bottom: "inception_4e/3x3"
  top: "inception_4e/3x3"
}
layer {
  name: "inception_4e/5x5_reduce"
  type: "Convolution"
  bottom: "inception_4d/output"
  top: "inception_4e/5x5_reduce"
  param {
    lr_mult: 1
    decay_mult: 1
  }
  param {
    lr_mult: 2
    decay_mult: 0
  }
  convolution_param {
    num_output: 32
    kernel_size: 1
    weight_filler {
      type: "xavier"
      std: 0.2
    }
    
I0704 17:48:47.787040 25106 layer_factory.hpp:74] Creating layer data
I0704 17:48:47.787060 25106 net.cpp:90] Creating Layer data
I0704 17:48:47.787070 25106 net.cpp:368] data -> data
I0704 17:48:47.787091 25106 net.cpp:368] data -> label
I0704 17:48:47.787102 25106 net.cpp:120] Setting up data
I0704 17:48:47.787153 25106 db.cpp:34] Opened lmdb examples/stanford_cars/stanford_cars_train_lmdb
I0704 17:48:47.787304 25106 data_layer.cpp:67] output data size: 30,3,224,224
I0704 17:48:47.789430 25106 net.cpp:127] Top shape: 30 3 224 224 (4515840)
I0704 17:48:47.789472 25106 net.cpp:127] Top shape: 30 (30)
I0704 17:48:47.789480 25106 layer_factory.hpp:74] Creating layer label_data_1_split
I0704 17:48:47.789495 25106 net.cpp:90] Creating Layer label_data_1_split
I0704 17:48:47.789502 25106 net.cpp:410] label_data_1_split <- label
I0704 17:48:47.789515 25106 net.cpp:368] label_data_1_split -> label_data_1_split_0
I0704 17:48:47.789525 25106 net.cpp:368] label_data_1_split -> label_data_1_split_1
I0704 17:48:47.789531 25106 net.cpp:368] label_data_1_split -> label_data_1_split_2
I0704 17:48:47.789538 25106 net.cpp:120] Setting up label_data_1_split
I0704 17:48:47.789547 25106 net.cpp:127] Top shape: 30 (30)
I0704 17:48:47.789572 25106 net.cpp:127] Top shape: 30 (30)
I0704 17:48:47.789577 25106 net.cpp:127] Top shape: 30 (30)
I0704 17:48:47.789582 25106 layer_factory.hpp:74] Creating layer conv1/7x7_s2
I0704 17:48:47.789593 25106 net.cpp:90] Creating Layer conv1/7x7_s2
I0704 17:48:47.789599 25106 net.cpp:410] conv1/7x7_s2 <- data
I0704 17:48:47.789605 25106 net.cpp:368] conv1/7x7_s2 -> conv1/7x7_s2
I0704 17:48:47.789614 25106 net.cpp:120] Setting up conv1/7x7_s2
I0704 17:48:47.822159 25106 net.cpp:127] Top shape: 30 64 112 112 (24084480)
I0704 17:48:47.822199 25106 layer_factory.hpp:74] Creating layer conv1/relu_7x7
I0704 17:48:47.822211 25106 net.cpp:90] Creating Layer conv1/relu_7x7
I0704 17:48:47.822217 25106 net.cpp:410] conv1/relu_7x7 <- conv1/7x7_s2
I0704 17:48:47.822224 25106 net.cpp:357] conv1/relu_7x7 -> conv1/7x7_s2 (in-place)
I0704 17:48:47.822232 25106 net.cpp:120] Setting up conv1/relu_7x7
I0704 17:48:47.822273 25106 net.cpp:127] Top shape: 30 64 112 112 (24084480)
I0704 17:48:47.822280 25106 layer_factory.hpp:74] Creating layer pool1/3x3_s2
I0704 17:48:47.822290 25106 net.cpp:90] Creating Layer pool1/3x3_s2
I0704 17:48:47.822295 25106 net.cpp:410] pool1/3x3_s2 <- conv1/7x7_s2
I0704 17:48:47.822301 25106 net.cpp:368] pool1/3x3_s2 -> pool1/3x3_s2
I0704 17:48:47.822307 25106 net.cpp:120] Setting up pool1/3x3_s2
I0704 17:48:47.822422 25106 net.cpp:127] Top shape: 30 64 56 56 (6021120)
I0704 17:48:47.822432 25106 layer_factory.hpp:74] Creating layer pool1/norm1
I0704 17:48:47.822440 25106 net.cpp:90] Creating Layer pool1/norm1
I0704 17:48:47.822445 25106 net.cpp:410] pool1/norm1 <- pool1/3x3_s2
I0704 17:48:47.822451 25106 net.cpp:368] pool1/norm1 -> pool1/norm1
I0704 17:48:47.822458 25106 net.cpp:120] Setting up pool1/norm1
I0704 17:48:47.822466 25106 net.cpp:127] Top shape: 30 64 56 56 (6021120)
I0704 17:48:47.822471 25106 layer_factory.hpp:74] Creating layer conv2/3x3_reduce
I0704 17:48:47.822479 25106 net.cpp:90] Creating Layer conv2/3x3_reduce
I0704 17:48:47.822484 25106 net.cpp:410] conv2/3x3_reduce <- pool1/norm1
I0704 17:48:47.822489 25106 net.cpp:368] conv2/3x3_reduce -> conv2/3x3_reduce
I0704 17:48:47.822497 25106 net.cpp:120] Setting up conv2/3x3_reduce
I0704 17:48:47.822703 25106 net.cpp:127] Top shape: 30 64 56 56 (6021120)
I0704 17:48:47.822716 25106 layer_factory.hpp:74] Creating layer conv2/relu_3x3_reduce
I0704 17:48:47.822723 25106 net.cpp:90] Creating Layer conv2/relu_3x3_reduce
I0704 17:48:47.822728 25106 net.cpp:410] conv2/relu_3x3_reduce <- conv2/3x3_reduce
I0704 17:48:47.822734 25106 net.cpp:357] conv2/relu_3x3_reduce -> conv2/3x3_reduce (in-place)
I0704 17:48:47.822741 25106 net.cpp:120] Setting up conv2/relu_3x3_reduce
I0704 17:48:47.822775 25106 net.cpp:127] Top shape: 30 64 56 56 (6021120)
I0704 17:48:47.822782 25106 layer_factory.hpp:74] Creating layer conv2/3x3
I0704 17:48:47.822789 25106 net.cpp:90] Creating Layer conv2/3x3
I0704 17:48:47.822794 25106 net.cpp:410] conv2/3x3 <- conv2/3x3_reduce
I0704 17:48:47.822800 25106 net.cpp:368] conv2/3x3 -> conv2/3x3
I0704 17:48:47.822808 25106 net.cpp:120] Setting up conv2/3x3
I0704 17:48:47.823499 25106 net.cpp:127] Top shape: 30 192 56 56 (18063360)
I0704 17:48:47.823513 25106 layer_factory.hpp:74] Creating layer conv2/relu_3x3
I0704 17:48:47.823519 25106 net.cpp:90] Creating Layer conv2/relu_3x3
I0704 17:48:47.823525 25106 net.cpp:410] conv2/relu_3x3 <- conv2/3x3
I0704 17:48:47.823531 25106 net.cpp:357] conv2/relu_3x3 -> conv2/3x3 (in-place)
I0704 17:48:47.823537 25106 net.cpp:120] Setting up conv2/relu_3x3
I0704 17:48:47.823575 25106 net.cpp:127] Top shape: 30 192 56 56 (18063360)
I0704 17:48:47.823581 25106 layer_factory.hpp:74] Creating layer conv2/norm2
I0704 17:48:47.823588 25106 net.cpp:90] Creating Layer conv2/norm2
I0704 17:48:47.823592 25106 net.cpp:410] conv2/norm2 <- conv2/3x3
I0704 17:48:47.823598 25106 net.cpp:368] conv2/norm2 -> conv2/norm2
I0704 17:48:47.823604 25106 net.cpp:120] Setting up conv2/norm2
I0704 17:48:47.823611 25106 net.cpp:127] Top shape: 30 192 56 56 (18063360)
I0704 17:48:47.823614 25106 layer_factory.hpp:74] Creating layer pool2/3x3_s2
I0704 17:48:47.823637 25106 net.cpp:90] Creating Layer pool2/3x3_s2
I0704 17:48:47.823642 25106 net.cpp:410] pool2/3x3_s2 <- conv2/norm2
I0704 17:48:47.823648 25106 net.cpp:368] pool2/3x3_s2 -> pool2/3x3_s2
I0704 17:48:47.823654 25106 net.cpp:120] Setting up pool2/3x3_s2
I0704 17:48:47.823691 25106 net.cpp:127] Top shape: 30 192 28 28 (4515840)
I0704 17:48:47.823698 25106 layer_factory.hpp:74] Creating layer pool2/3x3_s2_pool2/3x3_s2_0_split
I0704 17:48:47.823704 25106 net.cpp:90] Creating Layer pool2/3x3_s2_pool2/3x3_s2_0_split
I0704 17:48:47.823709 25106 net.cpp:410] pool2/3x3_s2_pool2/3x3_s2_0_split <- pool2/3x3_s2
I0704 17:48:47.823714 25106 net.cpp:368] pool2/3x3_s2_pool2/3x3_s2_0_split -> pool2/3x3_s2_pool2/3x3_s2_0_split_0
I0704 17:48:47.823721 25106 net.cpp:368] pool2/3x3_s2_pool2/3x3_s2_0_split -> pool2/3x3_s2_pool2/3x3_s2_0_split_1
I0704 17:48:47.823727 25106 net.cpp:368] pool2/3x3_s2_pool2/3x3_s2_0_split -> pool2/3x3_s2_pool2/3x3_s2_0_split_2
I0704 17:48:47.823734 25106 net.cpp:368] pool2/3x3_s2_pool2/3x3_s2_0_split -> pool2/3x3_s2_pool2/3x3_s2_0_split_3
I0704 17:48:47.823739 25106 net.cpp:120] Setting up pool2/3x3_s2_pool2/3x3_s2_0_split
I0704 17:48:47.823745 25106 net.cpp:127] Top shape: 30 192 28 28 (4515840)
I0704 17:48:47.823750 25106 net.cpp:127] Top shape: 30 192 28 28 (4515840)
I0704 17:48:47.823755 25106 net.cpp:127] Top shape: 30 192 28 28 (4515840)
I0704 17:48:47.823760 25106 net.cpp:127] Top shape: 30 192 28 28 (4515840)
I0704 17:48:47.823763 25106 layer_factory.hpp:74] Creating layer inception_3a/1x1
I0704 17:48:47.823770 25106 net.cpp:90] Creating Layer inception_3a/1x1
I0704 17:48:47.823773 25106 net.cpp:410] inception_3a/1x1 <- pool2/3x3_s2_pool2/3x3_s2_0_split_0
I0704 17:48:47.823779 25106 net.cpp:368] inception_3a/1x1 -> inception_3a/1x1
I0704 17:48:47.823787 25106 net.cpp:120] Setting up inception_3a/1x1
I0704 17:48:47.824023 25106 net.cpp:127] Top shape: 30 64 28 28 (1505280)
I0704 17:48:47.824035 25106 layer_factory.hpp:74] Creating layer inception_3a/relu_1x1
I0704 17:48:47.824043 25106 net.cpp:90] Creating Layer inception_3a/relu_1x1
I0704 17:48:47.824048 25106 net.cpp:410] inception_3a/relu_1x1 <- inception_3a/1x1
I0704 17:48:47.824053 25106 net.cpp:357] inception_3a/relu_1x1 -> inception_3a/1x1 (in-place)
I0704 17:48:47.824059 25106 net.cpp:120] Setting up inception_3a/relu_1x1
I0704 17:48:47.824164 25106 net.cpp:127] Top shape: 30 64 28 28 (1505280)
I0704 17:48:47.824173 25106 layer_factory.hpp:74] Creating layer inception_3a/3x3_reduce
I0704 17:48:47.824180 25106 net.cpp:90] Creating Layer inception_3a/3x3_reduce
I0704 17:48:47.824185 25106 net.cpp:410] inception_3a/3x3_reduce <- pool2/3x3_s2_pool2/3x3_s2_0_split_1
I0704 17:48:47.824193 25106 net.cpp:368] inception_3a/3x3_reduce -> inception_3a/3x3_reduce
I0704 17:48:47.824199 25106 net.cpp:120] Setting up inception_3a/3x3_reduce
I0704 17:48:47.824481 25106 net.cpp:127] Top shape: 30 96 28 28 (2257920)
I0704 17:48:47.824494 25106 layer_factory.hpp:74] Creating layer inception_3a/relu_3x3_reduce
I0704 17:48:47.824503 25106 net.cpp:90] Creating Layer inception_3a/relu_3x3_reduce
I0704 17:48:47.824508 25106 net.cpp:410] inception_3a/relu_3x3_reduce <- inception_3a/3x3_reduce
I0704 17:48:47.824514 25106 net.cpp:357] inception_3a/relu_3x3_reduce -> inception_3a/3x3_reduce (in-place)
I0704 17:48:47.824520 25106 net.cpp:120] Setting up inception_3a/relu_3x3_reduce
I0704 17:48:47.824559 25106 net.cpp:127] Top shape: 30 96 28 28 (2257920)
I0704 17:48:47.824566 25106 layer_factory.hpp:74] Creating layer inception_3a/3x3
I0704 17:48:47.824573 25106 net.cpp:90] Creating Layer inception_3a/3x3
I0704 17:48:47.824578 25106 net.cpp:410] inception_3a/3x3 <- inception_3a/3x3_reduce
I0704 17:48:47.824584 25106 net.cpp:368] inception_3a/3x3 -> inception_3a/3x3
I0704 17:48:47.824591 25106 net.cpp:120] Setting up inception_3a/3x3
I0704 17:48:47.825363 25106 net.cpp:127] Top shape: 30 128 28 28 (3010560)
I0704 17:48:47.825376 25106 layer_factory.hpp:74] Creating layer inception_3a/relu_3x3
I0704 17:48:47.825382 25106 net.cpp:90] Creating Layer inception_3a/relu_3x3
I0704 17:48:47.825394 25106 net.cpp:410] inception_3a/relu_3x3 <- inception_3a/3x3
I0704 17:48:47.825400 25106 net.cpp:357] inception_3a/relu_3x3 -> inception_3a/3x3 (in-place)
I0704 17:48:47.825407 25106 net.cpp:120] Setting up inception_3a/relu_3x3
I0704 17:48:47.825446 25106 net.cpp:127] Top shape: 30 128 28 28 (3010560)
I0704 17:48:47.825453 25106 layer_factory.hpp:74] Creating layer inception_3a/5x5_reduce
I0704 17:48:47.825460 25106 net.cpp:90] Creating Layer inception_3a/5x5_reduce
I0704 17:48:47.825465 25106 net.cpp:410] inception_3a/5x5_reduce <- pool2/3x3_s2_pool2/3x3_s2_0_split_2
I0704 17:48:47.825472 25106 net.cpp:368] inception_3a/5x5_reduce -> inception_3a/5x5_reduce
I0704 17:48:47.825479 25106 net.cpp:120] Setting up inception_3a/5x5_reduce
I0704 17:48:47.825691 25106 net.cpp:127] Top shape: 30 16 28 28 (376320)
I0704 17:48:47.825702 25106 layer_factory.hpp:74] Creating layer inception_3a/relu_5x5_reduce
I0704 17:48:47.825708 25106 net.cpp:90] Creating Layer inception_3a/relu_5x5_reduce
I0704 17:48:47.825713 25106 net.cpp:410] inception_3a/relu_5x5_reduce <- inception_3a/5x5_reduce
I0704 17:48:47.825719 25106 net.cpp:357] inception_3a/relu_5x5_reduce -> inception_3a/5x5_reduce (in-place)
I0704 17:48:47.825726 25106 net.cpp:120] Setting up inception_3a/relu_5x5_reduce
I0704 17:48:47.825832 25106 net.cpp:127] Top shape: 30 16 28 28 (376320)
I0704 17:48:47.825842 25106 layer_factory.hpp:74] Creating layer inception_3a/5x5
I0704 17:48:47.825850 25106 net.cpp:90] Creating Layer inception_3a/5x5
I0704 17:48:47.825855 25106 net.cpp:410] inception_3a/5x5 <- inception_3a/5x5_reduce
I0704 17:48:47.825860 25106 net.cpp:368] inception_3a/5x5 -> inception_3a/5x5
I0704 17:48:47.825867 25106 net.cpp:120] Setting up inception_3a/5x5
I0704 17:48:47.826128 25106 net.cpp:127] Top shape: 30 32 28 28 (752640)
I0704 17:48:47.826140 25106 layer_factory.hpp:74] Creating layer inception_3a/relu_5x5
I0704 17:48:47.826146 25106 net.cpp:90] Creating Layer inception_3a/relu_5x5
I0704 17:48:47.826151 25106 net.cpp:410] inception_3a/relu_5x5 <- inception_3a/5x5
I0704 17:48:47.826158 25106 net.cpp:357] inception_3a/relu_5x5 -> inception_3a/5x5 (in-place)
I0704 17:48:47.826164 25106 net.cpp:120] Setting up inception_3a/relu_5x5
I0704 17:48:47.826203 25106 net.cpp:127] Top shape: 30 32 28 28 (752640)
I0704 17:48:47.826210 25106 layer_factory.hpp:74] Creating layer inception_3a/pool
I0704 17:48:47.826215 25106 layer_factory.cpp:55] CUDNN does not support padding or multiple tops. Using Caffe's own pooling layer.
I0704 17:48:47.826220 25106 net.cpp:90] Creating Layer inception_3a/pool
I0704 17:48:47.826225 25106 net.cpp:410] inception_3a/pool <- pool2/3x3_s2_pool2/3x3_s2_0_split_3
I0704 17:48:47.826231 25106 net.cpp:368] inception_3a/pool -> inception_3a/pool
I0704 17:48:47.826237 25106 net.cpp:120] Setting up inception_3a/pool
I0704 17:48:47.826244 25106 net.cpp:127] Top shape: 30 192 28 28 (4515840)
I0704 17:48:47.826248 25106 layer_factory.hpp:74] Creating layer inception_3a/pool_proj
I0704 17:48:47.826256 25106 net.cpp:90] Creating Layer inception_3a/pool_proj
I0704 17:48:47.826261 25106 net.cpp:410] inception_3a/pool_proj <- inception_3a/pool
I0704 17:48:47.826267 25106 net.cpp:368] inception_3a/pool_proj -> inception_3a/pool_proj
I0704 17:48:47.826273 25106 net.cpp:120] Setting up inception_3a/pool_proj
I0704 17:48:47.826495 25106 net.cpp:127] Top shape: 30 32 28 28 (752640)
I0704 17:48:47.826508 25106 layer_factory.hpp:74] Creating layer inception_3a/relu_pool_proj
I0704 17:48:47.826515 25106 net.cpp:90] Creating Layer inception_3a/relu_pool_proj
I0704 17:48:47.826519 25106 net.cpp:410] inception_3a/relu_pool_proj <- inception_3a/pool_proj
I0704 17:48:47.826526 25106 net.cpp:357] inception_3a/relu_pool_proj -> inception_3a/pool_proj (in-place)
I0704 17:48:47.826534 25106 net.cpp:120] Setting up inception_3a/relu_pool_proj
I0704 17:48:47.826573 25106 net.cpp:127] Top shape: 30 32 28 28 (752640)
I0704 17:48:47.826580 25106 layer_factory.hpp:74] Creating layer inception_3a/output
I0704 17:48:47.826587 25106 net.cpp:90] Creating Layer inception_3a/output
I0704 17:48:47.826598 25106 net.cpp:410] inception_3a/output <- inception_3a/1x1
I0704 17:48:47.826604 25106 net.cpp:410] inception_3a/output <- inception_3a/3x3
I0704 17:48:47.826609 25106 net.cpp:410] inception_3a/output <- inception_3a/5x5
I0704 17:48:47.826614 25106 net.cpp:410] inception_3a/output <- inception_3a/pool_proj
I0704 17:48:47.826620 25106 net.cpp:368] inception_3a/output -> inception_3a/output
I0704 17:48:47.826627 25106 net.cpp:120] Setting up inception_3a/output
I0704 17:48:47.826637 25106 net.cpp:127] Top shape: 30 256 28 28 (6021120)
I0704 17:48:47.826642 25106 layer_factory.hpp:74] Creating layer inception_3a/output_inception_3a/output_0_split
I0704 17:48:47.826648 25106 net.cpp:90] Creating Layer inception_3a/output_inception_3a/output_0_split
I0704 17:48:47.826653 25106 net.cpp:410] inception_3a/output_inception_3a/output_0_split <- inception_3a/output
I0704 17:48:47.826658 25106 net.cpp:368] inception_3a/output_inception_3a/output_0_split -> inception_3a/output_inception_3a/output_0_split_0
I0704 17:48:47.826665 25106 net.cpp:368] inception_3a/output_inception_3a/output_0_split -> inception_3a/output_inception_3a/output_0_split_1
I0704 17:48:47.826671 25106 net.cpp:368] inception_3a/output_inception_3a/output_0_split -> inception_3a/output_inception_3a/output_0_split_2
I0704 17:48:47.826678 25106 net.cpp:368] inception_3a/output_inception_3a/output_0_split -> inception_3a/output_inception_3a/output_0_split_3
I0704 17:48:47.826684 25106 net.cpp:120] Setting up inception_3a/output_inception_3a/output_0_split
I0704 17:48:47.826690 25106 net.cpp:127] Top shape: 30 256 28 28 (6021120)
I0704 17:48:47.826695 25106 net.cpp:127] Top shape: 30 256 28 28 (6021120)
I0704 17:48:47.826700 25106 net.cpp:127] Top shape: 30 256 28 28 (6021120)
I0704 17:48:47.826704 25106 net.cpp:127] Top shape: 30 256 28 28 (6021120)
I0704 17:48:47.826709 25106 layer_factory.hpp:74] Creating layer inception_3b/1x1
I0704 17:48:47.826715 25106 net.cpp:90] Creating Layer inception_3b/1x1
I0704 17:48:47.826719 25106 net.cpp:410] inception_3b/1x1 <- inception_3a/output_inception_3a/output_0_split_0
I0704 17:48:47.826726 25106 net.cpp:368] inception_3b/1x1 -> inception_3b/1x1
I0704 17:48:47.826732 25106 net.cpp:120] Setting up inception_3b/1x1
I0704 17:48:47.827088 25106 net.cpp:127] Top shape: 30 128 28 28 (3010560)
I0704 17:48:47.827100 25106 layer_factory.hpp:74] Creating layer inception_3b/relu_1x1
I0704 17:48:47.827107 25106 net.cpp:90] Creating Layer inception_3b/relu_1x1
I0704 17:48:47.827112 25106 net.cpp:410] inception_3b/relu_1x1 <- inception_3b/1x1
I0704 17:48:47.827118 25106 net.cpp:357] inception_3b/relu_1x1 -> inception_3b/1x1 (in-place)
I0704 17:48:47.827124 25106 net.cpp:120] Setting up inception_3b/relu_1x1
I0704 17:48:47.827163 25106 net.cpp:127] Top shape: 30 128 28 28 (3010560)
I0704 17:48:47.827170 25106 layer_factory.hpp:74] Creating layer inception_3b/3x3_reduce
I0704 17:48:47.827178 25106 net.cpp:90] Creating Layer inception_3b/3x3_reduce
I0704 17:48:47.827183 25106 net.cpp:410] inception_3b/3x3_reduce <- inception_3a/output_inception_3a/output_0_split_1
I0704 17:48:47.827189 25106 net.cpp:368] inception_3b/3x3_reduce -> inception_3b/3x3_reduce
I0704 17:48:47.827196 25106 net.cpp:120] Setting up inception_3b/3x3_reduce
I0704 17:48:47.827559 25106 net.cpp:127] Top shape: 30 128 28 28 (3010560)
I0704 17:48:47.827571 25106 layer_factory.hpp:74] Creating layer inception_3b/relu_3x3_reduce
I0704 17:48:47.827577 25106 net.cpp:90] Creating Layer inception_3b/relu_3x3_reduce
I0704 17:48:47.827582 25106 net.cpp:410] inception_3b/relu_3x3_reduce <- inception_3b/3x3_reduce
I0704 17:48:47.827589 25106 net.cpp:357] inception_3b/relu_3x3_reduce -> inception_3b/3x3_reduce (in-place)
I0704 17:48:47.827596 25106 net.cpp:120] Setting up inception_3b/relu_3x3_reduce
I0704 17:48:47.827702 25106 net.cpp:127] Top shape: 30 128 28 28 (3010560)
I0704 17:48:47.827713 25106 layer_factory.hpp:74] Creating layer inception_3b/3x3
I0704 17:48:47.827721 25106 net.cpp:90] Creating Layer inception_3b/3x3
I0704 17:48:47.827734 25106 net.cpp:410] inception_3b/3x3 <- inception_3b/3x3_reduce
I0704 17:48:47.827741 25106 net.cpp:368] inception_3b/3x3 -> inception_3b/3x3
I0704 17:48:47.827749 25106 net.cpp:120] Setting up inception_3b/3x3
I0704 17:48:47.829012 25106 net.cpp:127] Top shape: 30 192 28 28 (4515840)
I0704 17:48:47.829025 25106 layer_factory.hpp:74] Creating layer inception_3b/relu_3x3
I0704 17:48:47.829032 25106 net.cpp:90] Creating Layer inception_3b/relu_3x3
I0704 17:48:47.829038 25106 net.cpp:410] inception_3b/relu_3x3 <- inception_3b/3x3
I0704 17:48:47.829043 25106 net.cpp:357] inception_3b/relu_3x3 -> inception_3b/3x3 (in-place)
I0704 17:48:47.829049 25106 net.cpp:120] Setting up inception_3b/relu_3x3
I0704 17:48:47.829090 25106 net.cpp:127] Top shape: 30 192 28 28 (4515840)
I0704 17:48:47.829097 25106 layer_factory.hpp:74] Creating layer inception_3b/5x5_reduce
I0704 17:48:47.829105 25106 net.cpp:90] Creating Layer inception_3b/5x5_reduce
I0704 17:48:47.829110 25106 net.cpp:410] inception_3b/5x5_reduce <- inception_3a/output_inception_3a/output_0_split_2
I0704 17:48:47.829116 25106 net.cpp:368] inception_3b/5x5_reduce -> inception_3b/5x5_reduce
I0704 17:48:47.829123 25106 net.cpp:120] Setting up inception_3b/5x5_reduce
I0704 17:48:47.829365 25106 net.cpp:127] Top shape: 30 32 28 28 (752640)
I0704 17:48:47.829376 25106 layer_factory.hpp:74] Creating layer inception_3b/relu_5x5_reduce
I0704 17:48:47.829382 25106 net.cpp:90] Creating Layer inception_3b/relu_5x5_reduce
I0704 17:48:47.829387 25106 net.cpp:410] inception_3b/relu_5x5_reduce <- inception_3b/5x5_reduce
I0704 17:48:47.829393 25106 net.cpp:357] inception_3b/relu_5x5_reduce -> inception_3b/5x5_reduce (in-place)
I0704 17:48:47.829401 25106 net.cpp:120] Setting up inception_3b/relu_5x5_reduce
I0704 17:48:47.829438 25106 net.cpp:127] Top shape: 30 32 28 28 (752640)
I0704 17:48:47.829445 25106 layer_factory.hpp:74] Creating layer inception_3b/5x5
I0704 17:48:47.829452 25106 net.cpp:90] Creating Layer inception_3b/5x5
I0704 17:48:47.829457 25106 net.cpp:410] inception_3b/5x5 <- inception_3b/5x5_reduce
I0704 17:48:47.829463 25106 net.cpp:368] inception_3b/5x5 -> inception_3b/5x5
I0704 17:48:47.829473 25106 net.cpp:120] Setting up inception_3b/5x5
I0704 17:48:47.830042 25106 net.cpp:127] Top shape: 30 96 28 28 (2257920)
I0704 17:48:47.830054 25106 layer_factory.hpp:74] Creating layer inception_3b/relu_5x5
I0704 17:48:47.830061 25106 net.cpp:90] Creating Layer inception_3b/relu_5x5
I0704 17:48:47.830066 25106 net.cpp:410] inception_3b/relu_5x5 <- inception_3b/5x5
I0704 17:48:47.830071 25106 net.cpp:357] inception_3b/relu_5x5 -> inception_3b/5x5 (in-place)
I0704 17:48:47.830078 25106 net.cpp:120] Setting up inception_3b/relu_5x5
I0704 17:48:47.830117 25106 net.cpp:127] Top shape: 30 96 28 28 (2257920)
I0704 17:48:47.830124 25106 layer_factory.hpp:74] Creating layer inception_3b/pool
I0704 17:48:47.830129 25106 layer_factory.cpp:55] CUDNN does not support padding or multiple tops. Using Caffe's own pooling layer.
I0704 17:48:47.830135 25106 net.cpp:90] Creating Layer inception_3b/pool
I0704 17:48:47.830139 25106 net.cpp:410] inception_3b/pool <- inception_3a/output_inception_3a/output_0_split_3
I0704 17:48:47.830147 25106 net.cpp:368] inception_3b/pool -> inception_3b/pool
I0704 17:48:47.830152 25106 net.cpp:120] Setting up inception_3b/pool
I0704 17:48:47.830159 25106 net.cpp:127] Top shape: 30 256 28 28 (6021120)
I0704 17:48:47.830163 25106 layer_factory.hpp:74] Creating layer inception_3b/pool_proj
I0704 17:48:47.830170 25106 net.cpp:90] Creating Layer inception_3b/pool_proj
I0704 17:48:47.830174 25106 net.cpp:410] inception_3b/pool_proj <- inception_3b/pool
I0704 17:48:47.830181 25106 net.cpp:368] inception_3b/pool_proj -> inception_3b/pool_proj
I0704 17:48:47.830188 25106 net.cpp:120] Setting up inception_3b/pool_proj
I0704 17:48:47.830464 25106 net.cpp:127] Top shape: 30 64 28 28 (1505280)
I0704 17:48:47.830482 25106 layer_factory.hpp:74] Creating layer inception_3b/relu_pool_proj
I0704 17:48:47.830489 25106 net.cpp:90] Creating Layer inception_3b/relu_pool_proj
I0704 17:48:47.830502 25106 net.cpp:410] inception_3b/relu_pool_proj <- inception_3b/pool_proj
I0704 17:48:47.830509 25106 net.cpp:357] inception_3b/relu_pool_proj -> inception_3b/pool_proj (in-place)
I0704 17:48:47.830515 25106 net.cpp:120] Setting up inception_3b/relu_pool_proj
I0704 17:48:47.830624 25106 net.cpp:127] Top shape: 30 64 28 28 (1505280)
I0704 17:48:47.830634 25106 layer_factory.hpp:74] Creating layer inception_3b/output
I0704 17:48:47.830641 25106 net.cpp:90] Creating Layer inception_3b/output
I0704 17:48:47.830646 25106 net.cpp:410] inception_3b/output <- inception_3b/1x1
I0704 17:48:47.830651 25106 net.cpp:410] inception_3b/output <- inception_3b/3x3
I0704 17:48:47.830656 25106 net.cpp:410] inception_3b/output <- inception_3b/5x5
I0704 17:48:47.830660 25106 net.cpp:410] inception_3b/output <- inception_3b/pool_proj
I0704 17:48:47.830667 25106 net.cpp:368] inception_3b/output -> inception_3b/output
I0704 17:48:47.830673 25106 net.cpp:120] Setting up inception_3b/output
I0704 17:48:47.830679 25106 net.cpp:127] Top shape: 30 480 28 28 (11289600)
I0704 17:48:47.830684 25106 layer_factory.hpp:74] Creating layer pool3/3x3_s2
I0704 17:48:47.830689 25106 net.cpp:90] Creating Layer pool3/3x3_s2
I0704 17:48:47.830694 25106 net.cpp:410] pool3/3x3_s2 <- inception_3b/output
I0704 17:48:47.830700 25106 net.cpp:368] pool3/3x3_s2 -> pool3/3x3_s2
I0704 17:48:47.830705 25106 net.cpp:120] Setting up pool3/3x3_s2
I0704 17:48:47.830745 25106 net.cpp:127] Top shape: 30 480 14 14 (2822400)
I0704 17:48:47.830752 25106 layer_factory.hpp:74] Creating layer pool3/3x3_s2_pool3/3x3_s2_0_split
I0704 17:48:47.830759 25106 net.cpp:90] Creating Layer pool3/3x3_s2_pool3/3x3_s2_0_split
I0704 17:48:47.830763 25106 net.cpp:410] pool3/3x3_s2_pool3/3x3_s2_0_split <- pool3/3x3_s2
I0704 17:48:47.830770 25106 net.cpp:368] pool3/3x3_s2_pool3/3x3_s2_0_split -> pool3/3x3_s2_pool3/3x3_s2_0_split_0
I0704 17:48:47.830776 25106 net.cpp:368] pool3/3x3_s2_pool3/3x3_s2_0_split -> pool3/3x3_s2_pool3/3x3_s2_0_split_1
I0704 17:48:47.830782 25106 net.cpp:368] pool3/3x3_s2_pool3/3x3_s2_0_split -> pool3/3x3_s2_pool3/3x3_s2_0_split_2
I0704 17:48:47.830788 25106 net.cpp:368] pool3/3x3_s2_pool3/3x3_s2_0_split -> pool3/3x3_s2_pool3/3x3_s2_0_split_3
I0704 17:48:47.830793 25106 net.cpp:120] Setting up pool3/3x3_s2_pool3/3x3_s2_0_split
I0704 17:48:47.830801 25106 net.cpp:127] Top shape: 30 480 14 14 (2822400)
I0704 17:48:47.830806 25106 net.cpp:127] Top shape: 30 480 14 14 (2822400)
I0704 17:48:47.830811 25106 net.cpp:127] Top shape: 30 480 14 14 (2822400)
I0704 17:48:47.830816 25106 net.cpp:127] Top shape: 30 480 14 14 (2822400)
I0704 17:48:47.830819 25106 layer_factory.hpp:74] Creating layer inception_4a/1x1
I0704 17:48:47.830826 25106 net.cpp:90] Creating Layer inception_4a/1x1
I0704 17:48:47.830829 25106 net.cpp:410] inception_4a/1x1 <- pool3/3x3_s2_pool3/3x3_s2_0_split_0
I0704 17:48:47.830837 25106 net.cpp:368] inception_4a/1x1 -> inception_4a/1x1
I0704 17:48:47.830843 25106 net.cpp:120] Setting up inception_4a/1x1
I0704 17:48:47.831491 25106 net.cpp:127] Top shape: 30 192 14 14 (1128960)
I0704 17:48:47.831504 25106 layer_factory.hpp:74] Creating layer inception_4a/relu_1x1
I0704 17:48:47.831511 25106 net.cpp:90] Creating Layer inception_4a/relu_1x1
I0704 17:48:47.831516 25106 net.cpp:410] inception_4a/relu_1x1 <- inception_4a/1x1
I0704 17:48:47.831521 25106 net.cpp:357] inception_4a/relu_1x1 -> inception_4a/1x1 (in-place)
I0704 17:48:47.831527 25106 net.cpp:120] Setting up inception_4a/relu_1x1
I0704 17:48:47.831568 25106 net.cpp:127] Top shape: 30 192 14 14 (1128960)
I0704 17:48:47.831574 25106 layer_factory.hpp:74] Creating layer inception_4a/3x3_reduce
I0704 17:48:47.831581 25106 net.cpp:90] Creating Layer inception_4a/3x3_reduce
I0704 17:48:47.831586 25106 net.cpp:410] inception_4a/3x3_reduce <- pool3/3x3_s2_pool3/3x3_s2_0_split_1
I0704 17:48:47.831593 25106 net.cpp:368] inception_4a/3x3_reduce -> inception_4a/3x3_reduce
I0704 17:48:47.831600 25106 net.cpp:120] Setting up inception_4a/3x3_reduce
I0704 17:48:47.832021 25106 net.cpp:127] Top shape: 30 96 14 14 (564480)
I0704 17:48:47.832043 25106 layer_factory.hpp:74] Creating layer inception_4a/relu_3x3_reduce
I0704 17:48:47.832051 25106 net.cpp:90] Creating Layer inception_4a/relu_3x3_reduce
I0704 17:48:47.832056 25106 net.cpp:410] inception_4a/relu_3x3_reduce <- inception_4a/3x3_reduce
I0704 17:48:47.832062 25106 net.cpp:357] inception_4a/relu_3x3_reduce -> inception_4a/3x3_reduce (in-place)
I0704 17:48:47.832068 25106 net.cpp:120] Setting up inception_4a/relu_3x3_reduce
I0704 17:48:47.832108 25106 net.cpp:127] Top shape: 30 96 14 14 (564480)
I0704 17:48:47.832114 25106 layer_factory.hpp:74] Creating layer inception_4a/3x3
I0704 17:48:47.832121 25106 net.cpp:90] Creating Layer inception_4a/3x3
I0704 17:48:47.832126 25106 net.cpp:410] inception_4a/3x3 <- inception_4a/3x3_reduce
I0704 17:48:47.832134 25106 net.cpp:368] inception_4a/3x3 -> inception_4a/3x3
I0704 17:48:47.832140 25106 net.cpp:120] Setting up inception_4a/3x3
I0704 17:48:47.833204 25106 net.cpp:127] Top shape: 30 208 14 14 (1223040)
I0704 17:48:47.833217 25106 layer_factory.hpp:74] Creating layer inception_4a/relu_3x3
I0704 17:48:47.833223 25106 net.cpp:90] Creating Layer inception_4a/relu_3x3
I0704 17:48:47.833228 25106 net.cpp:410] inception_4a/relu_3x3 <- inception_4a/3x3
I0704 17:48:47.833235 25106 net.cpp:357] inception_4a/relu_3x3 -> inception_4a/3x3 (in-place)
I0704 17:48:47.833241 25106 net.cpp:120] Setting up inception_4a/relu_3x3
I0704 17:48:47.833348 25106 net.cpp:127] Top shape: 30 208 14 14 (1223040)
I0704 17:48:47.833356 25106 layer_factory.hpp:74] Creating layer inception_4a/5x5_reduce
I0704 17:48:47.833364 25106 net.cpp:90] Creating Layer inception_4a/5x5_reduce
I0704 17:48:47.833369 25106 net.cpp:410] inception_4a/5x5_reduce <- pool3/3x3_s2_pool3/3x3_s2_0_split_2
I0704 17:48:47.833376 25106 net.cpp:368] inception_4a/5x5_reduce -> inception_4a/5x5_reduce
I0704 17:48:47.833384 25106 net.cpp:120] Setting up inception_4a/5x5_reduce
I0704 17:48:47.833616 25106 net.cpp:127] Top shape: 30 16 14 14 (94080)
I0704 17:48:47.833628 25106 layer_factory.hpp:74] Creating layer inception_4a/relu_5x5_reduce
I0704 17:48:47.833636 25106 net.cpp:90] Creating Layer inception_4a/relu_5x5_reduce
I0704 17:48:47.833641 25106 net.cpp:410] inception_4a/relu_5x5_reduce <- inception_4a/5x5_reduce
I0704 17:48:47.833647 25106 net.cpp:357] inception_4a/relu_5x5_reduce -> inception_4a/5x5_reduce (in-place)
I0704 17:48:47.833652 25106 net.cpp:120] Setting up inception_4a/relu_5x5_reduce
I0704 17:48:47.833693 25106 net.cpp:127] Top shape: 30 16 14 14 (94080)
I0704 17:48:47.833699 25106 layer_factory.hpp:74] Creating layer inception_4a/5x5
I0704 17:48:47.833708 25106 net.cpp:90] Creating Layer inception_4a/5x5
I0704 17:48:47.833711 25106 net.cpp:410] inception_4a/5x5 <- inception_4a/5x5_reduce
I0704 17:48:47.833717 25106 net.cpp:368] inception_4a/5x5 -> inception_4a/5x5
I0704 17:48:47.833724 25106 net.cpp:120] Setting up inception_4a/5x5
I0704 17:48:47.834013 25106 net.cpp:127] Top shape: 30 48 14 14 (282240)
I0704 17:48:47.834025 25106 layer_factory.hpp:74] Creating layer inception_4a/relu_5x5
I0704 17:48:47.834031 25106 net.cpp:90] Creating Layer inception_4a/relu_5x5
I0704 17:48:47.834036 25106 net.cpp:410] inception_4a/relu_5x5 <- inception_4a/5x5
I0704 17:48:47.834041 25106 net.cpp:357] inception_4a/relu_5x5 -> inception_4a/5x5 (in-place)
I0704 17:48:47.834048 25106 net.cpp:120] Setting up inception_4a/relu_5x5
I0704 17:48:47.834086 25106 net.cpp:127] Top shape: 30 48 14 14 (282240)
I0704 17:48:47.834092 25106 layer_factory.hpp:74] Creating layer inception_4a/pool
I0704 17:48:47.834097 25106 layer_factory.cpp:55] CUDNN does not support padding or multiple tops. Using Caffe's own pooling layer.
I0704 17:48:47.834103 25106 net.cpp:90] Creating Layer inception_4a/pool
I0704 17:48:47.834107 25106 net.cpp:410] inception_4a/pool <- pool3/3x3_s2_pool3/3x3_s2_0_split_3
I0704 17:48:47.834113 25106 net.cpp:368] inception_4a/pool -> inception_4a/pool
I0704 17:48:47.834120 25106 net.cpp:120] Setting up inception_4a/pool
I0704 17:48:47.834126 25106 net.cpp:127] Top shape: 30 480 14 14 (2822400)
I0704 17:48:47.834137 25106 layer_factory.hpp:74] Creating layer inception_4a/pool_proj
I0704 17:48:47.834146 25106 net.cpp:90] Creating Layer inception_4a/pool_proj
I0704 17:48:47.834151 25106 net.cpp:410] inception_4a/pool_proj <- inception_4a/pool
I0704 17:48:47.834157 25106 net.cpp:368] inception_4a/pool_proj -> inception_4a/pool_proj
I0704 17:48:47.834164 25106 net.cpp:120] Setting up inception_4a/pool_proj
I0704 17:48:47.834509 25106 net.cpp:127] Top shape: 30 64 14 14 (376320)
I0704 17:48:47.834522 25106 layer_factory.hpp:74] Creating layer inception_4a/relu_pool_proj
I0704 17:48:47.834528 25106 net.cpp:90] Creating Layer inception_4a/relu_pool_proj
I0704 17:48:47.834533 25106 net.cpp:410] inception_4a/relu_pool_proj <- inception_4a/pool_proj
I0704 17:48:47.834539 25106 net.cpp:357] inception_4a/relu_pool_proj -> inception_4a/pool_proj (in-place)
I0704 17:48:47.834545 25106 net.cpp:120] Setting up inception_4a/relu_pool_proj
I0704 17:48:47.834653 25106 net.cpp:127] Top shape: 30 64 14 14 (376320)
I0704 17:48:47.834663 25106 layer_factory.hpp:74] Creating layer inception_4a/output
I0704 17:48:47.834671 25106 net.cpp:90] Creating Layer inception_4a/output
I0704 17:48:47.834674 25106 net.cpp:410] inception_4a/output <- inception_4a/1x1
I0704 17:48:47.834681 25106 net.cpp:410] inception_4a/output <- inception_4a/3x3
I0704 17:48:47.834686 25106 net.cpp:410] inception_4a/output <- inception_4a/5x5
I0704 17:48:47.834691 25106 net.cpp:410] inception_4a/output <- inception_4a/pool_proj
I0704 17:48:47.834695 25106 net.cpp:368] inception_4a/output -> inception_4a/output
I0704 17:48:47.834702 25106 net.cpp:120] Setting up inception_4a/output
I0704 17:48:47.834708 25106 net.cpp:127] Top shape: 30 512 14 14 (3010560)
I0704 17:48:47.834712 25106 layer_factory.hpp:74] Creating layer inception_4a/output_inception_4a/output_0_split
I0704 17:48:47.834719 25106 net.cpp:90] Creating Layer inception_4a/output_inception_4a/output_0_split
I0704 17:48:47.834724 25106 net.cpp:410] inception_4a/output_inception_4a/output_0_split <- inception_4a/output
I0704 17:48:47.834729 25106 net.cpp:368] inception_4a/output_inception_4a/output_0_split -> inception_4a/output_inception_4a/output_0_split_0
I0704 17:48:47.834736 25106 net.cpp:368] inception_4a/output_inception_4a/output_0_split -> inception_4a/output_inception_4a/output_0_split_1
I0704 17:48:47.834743 25106 net.cpp:368] inception_4a/output_inception_4a/output_0_split -> inception_4a/output_inception_4a/output_0_split_2
I0704 17:48:47.834748 25106 net.cpp:368] inception_4a/output_inception_4a/output_0_split -> inception_4a/output_inception_4a/output_0_split_3
I0704 17:48:47.834754 25106 net.cpp:368] inception_4a/output_inception_4a/output_0_split -> inception_4a/output_inception_4a/output_0_split_4
I0704 17:48:47.834760 25106 net.cpp:120] Setting up inception_4a/output_inception_4a/output_0_split
I0704 17:48:47.834767 25106 net.cpp:127] Top shape: 30 512 14 14 (3010560)
I0704 17:48:47.834772 25106 net.cpp:127] Top shape: 30 512 14 14 (3010560)
I0704 17:48:47.834777 25106 net.cpp:127] Top shape: 30 512 14 14 (3010560)
I0704 17:48:47.834781 25106 net.cpp:127] Top shape: 30 512 14 14 (3010560)
I0704 17:48:47.834786 25106 net.cpp:127] Top shape: 30 512 14 14 (3010560)
I0704 17:48:47.834790 25106 layer_factory.hpp:74] Creating layer loss1/ave_pool
I0704 17:48:47.834796 25106 net.cpp:90] Creating Layer loss1/ave_pool
I0704 17:48:47.834800 25106 net.cpp:410] loss1/ave_pool <- inception_4a/output_inception_4a/output_0_split_0
I0704 17:48:47.834807 25106 net.cpp:368] loss1/ave_pool -> loss1/ave_pool
I0704 17:48:47.834813 25106 net.cpp:120] Setting up loss1/ave_pool
I0704 17:48:47.834852 25106 net.cpp:127] Top shape: 30 512 4 4 (245760)
I0704 17:48:47.834859 25106 layer_factory.hpp:74] Creating layer loss1/conv
I0704 17:48:47.834867 25106 net.cpp:90] Creating Layer loss1/conv
I0704 17:48:47.834872 25106 net.cpp:410] loss1/conv <- loss1/ave_pool
I0704 17:48:47.834877 25106 net.cpp:368] loss1/conv -> loss1/conv
I0704 17:48:47.834883 25106 net.cpp:120] Setting up loss1/conv
I0704 17:48:47.835403 25106 net.cpp:127] Top shape: 30 128 4 4 (61440)
I0704 17:48:47.835422 25106 layer_factory.hpp:74] Creating layer loss1/relu_conv
I0704 17:48:47.835429 25106 net.cpp:90] Creating Layer loss1/relu_conv
I0704 17:48:47.835434 25106 net.cpp:410] loss1/relu_conv <- loss1/conv
I0704 17:48:47.835441 25106 net.cpp:357] loss1/relu_conv -> loss1/conv (in-place)
I0704 17:48:47.835448 25106 net.cpp:120] Setting up loss1/relu_conv
I0704 17:48:47.835486 25106 net.cpp:127] Top shape: 30 128 4 4 (61440)
I0704 17:48:47.835494 25106 layer_factory.hpp:74] Creating layer loss1/fc
I0704 17:48:47.835503 25106 net.cpp:90] Creating Layer loss1/fc
I0704 17:48:47.835508 25106 net.cpp:410] loss1/fc <- loss1/conv
I0704 17:48:47.835515 25106 net.cpp:368] loss1/fc -> loss1/fc
I0704 17:48:47.835522 25106 net.cpp:120] Setting up loss1/fc
I0704 17:48:47.845461 25106 net.cpp:127] Top shape: 30 1024 (30720)
I0704 17:48:47.845489 25106 layer_factory.hpp:74] Creating layer loss1/relu_fc
I0704 17:48:47.845499 25106 net.cpp:90] Creating Layer loss1/relu_fc
I0704 17:48:47.845506 25106 net.cpp:410] loss1/relu_fc <- loss1/fc
I0704 17:48:47.845513 25106 net.cpp:357] loss1/relu_fc -> loss1/fc (in-place)
I0704 17:48:47.845521 25106 net.cpp:120] Setting up loss1/relu_fc
I0704 17:48:47.845597 25106 net.cpp:127] Top shape: 30 1024 (30720)
I0704 17:48:47.845605 25106 layer_factory.hpp:74] Creating layer loss1/drop_fc
I0704 17:48:47.845621 25106 net.cpp:90] Creating Layer loss1/drop_fc
I0704 17:48:47.845628 25106 net.cpp:410] loss1/drop_fc <- loss1/fc
I0704 17:48:47.845634 25106 net.cpp:357] loss1/drop_fc -> loss1/fc (in-place)
I0704 17:48:47.845641 25106 net.cpp:120] Setting up loss1/drop_fc
I0704 17:48:47.845650 25106 net.cpp:127] Top shape: 30 1024 (30720)
I0704 17:48:47.845656 25106 layer_factory.hpp:74] Creating layer stanford_cars_loss1/classifier
I0704 17:48:47.845664 25106 net.cpp:90] Creating Layer stanford_cars_loss1/classifier
I0704 17:48:47.845669 25106 net.cpp:410] stanford_cars_loss1/classifier <- loss1/fc
I0704 17:48:47.845674 25106 net.cpp:368] stanford_cars_loss1/classifier -> stanford_cars_loss1/classifier
I0704 17:48:47.845681 25106 net.cpp:120] Setting up stanford_cars_loss1/classifier
I0704 17:48:47.846668 25106 net.cpp:127] Top shape: 30 196 (5880)
I0704 17:48:47.846678 25106 layer_factory.hpp:74] Creating layer loss1/loss
I0704 17:48:47.846686 25106 net.cpp:90] Creating Layer loss1/loss
I0704 17:48:47.846693 25106 net.cpp:410] loss1/loss <- stanford_cars_loss1/classifier
I0704 17:48:47.846698 25106 net.cpp:410] loss1/loss <- label_data_1_split_0
I0704 17:48:47.846704 25106 net.cpp:368] loss1/loss -> loss1/loss1
I0704 17:48:47.846711 25106 net.cpp:120] Setting up loss1/loss
I0704 17:48:47.846719 25106 layer_factory.hpp:74] Creating layer loss1/loss
I0704 17:48:47.846899 25106 net.cpp:127] Top shape: (1)
I0704 17:48:47.846909 25106 net.cpp:129]     with loss weight 0.3
I0704 17:48:47.846930 25106 layer_factory.hpp:74] Creating layer inception_4b/1x1
I0704 17:48:47.846937 25106 net.cpp:90] Creating Layer inception_4b/1x1
I0704 17:48:47.846943 25106 net.cpp:410] inception_4b/1x1 <- inception_4a/output_inception_4a/output_0_split_1
I0704 17:48:47.846951 25106 net.cpp:368] inception_4b/1x1 -> inception_4b/1x1
I0704 17:48:47.846957 25106 net.cpp:120] Setting up inception_4b/1x1
I0704 17:48:47.847570 25106 net.cpp:127] Top shape: 30 160 14 14 (940800)
I0704 17:48:47.847584 25106 layer_factory.hpp:74] Creating layer inception_4b/relu_1x1
I0704 17:48:47.847590 25106 net.cpp:90] Creating Layer inception_4b/relu_1x1
I0704 17:48:47.847596 25106 net.cpp:410] inception_4b/relu_1x1 <- inception_4b/1x1
I0704 17:48:47.847601 25106 net.cpp:357] inception_4b/relu_1x1 -> inception_4b/1x1 (in-place)
I0704 17:48:47.847607 25106 net.cpp:120] Setting up inception_4b/relu_1x1
I0704 17:48:47.847650 25106 net.cpp:127] Top shape: 30 160 14 14 (940800)
I0704 17:48:47.847656 25106 layer_factory.hpp:74] Creating layer inception_4b/3x3_reduce
I0704 17:48:47.847663 25106 net.cpp:90] Creating Layer inception_4b/3x3_reduce
I0704 17:48:47.847668 25106 net.cpp:410] inception_4b/3x3_reduce <- inception_4a/output_inception_4a/output_0_split_2
I0704 17:48:47.847692 25106 net.cpp:368] inception_4b/3x3_reduce -> inception_4b/3x3_reduce
I0704 17:48:47.847699 25106 net.cpp:120] Setting up inception_4b/3x3_reduce
I0704 17:48:47.848178 25106 net.cpp:127] Top shape: 30 112 14 14 (658560)
I0704 17:48:47.848191 25106 layer_factory.hpp:74] Creating layer inception_4b/relu_3x3_reduce
I0704 17:48:47.848198 25106 net.cpp:90] Creating Layer inception_4b/relu_3x3_reduce
I0704 17:48:47.848203 25106 net.cpp:410] inception_4b/relu_3x3_reduce <- inception_4b/3x3_reduce
I0704 17:48:47.848209 25106 net.cpp:357] inception_4b/relu_3x3_reduce -> inception_4b/3x3_reduce (in-place)
I0704 17:48:47.848217 25106 net.cpp:120] Setting up inception_4b/relu_3x3_reduce
I0704 17:48:47.848255 25106 net.cpp:127] Top shape: 30 112 14 14 (658560)
I0704 17:48:47.848263 25106 layer_factory.hpp:74] Creating layer inception_4b/3x3
I0704 17:48:47.848270 25106 net.cpp:90] Creating Layer inception_4b/3x3
I0704 17:48:47.848274 25106 net.cpp:410] inception_4b/3x3 <- inception_4b/3x3_reduce
I0704 17:48:47.848281 25106 net.cpp:368] inception_4b/3x3 -> inception_4b/3x3
I0704 17:48:47.848289 25106 net.cpp:120] Setting up inception_4b/3x3
I0704 17:48:47.849580 25106 net.cpp:127] Top shape: 30 224 14 14 (1317120)
I0704 17:48:47.849592 25106 layer_factory.hpp:74] Creating layer inception_4b/relu_3x3
I0704 17:48:47.849598 25106 net.cpp:90] Creating Layer inception_4b/relu_3x3
I0704 17:48:47.849603 25106 net.cpp:410] inception_4b/relu_3x3 <- inception_4b/3x3
I0704 17:48:47.849611 25106 net.cpp:357] inception_4b/relu_3x3 -> inception_4b/3x3 (in-place)
I0704 17:48:47.849617 25106 net.cpp:120] Setting up inception_4b/relu_3x3
I0704 17:48:47.849658 25106 net.cpp:127] Top shape: 30 224 14 14 (1317120)
I0704 17:48:47.849664 25106 layer_factory.hpp:74] Creating layer inception_4b/5x5_reduce
I0704 17:48:47.849671 25106 net.cpp:90] Creating Layer inception_4b/5x5_reduce
I0704 17:48:47.849676 25106 net.cpp:410] inception_4b/5x5_reduce <- inception_4a/output_inception_4a/output_0_split_3
I0704 17:48:47.849684 25106 net.cpp:368] inception_4b/5x5_reduce -> inception_4b/5x5_reduce
I0704 17:48:47.849691 25106 net.cpp:120] Setting up inception_4b/5x5_reduce
I0704 17:48:47.849957 25106 net.cpp:127] Top shape: 30 24 14 14 (141120)
I0704 17:48:47.849969 25106 layer_factory.hpp:74] Creating layer inception_4b/relu_5x5_reduce
I0704 17:48:47.849975 25106 net.cpp:90] Creating Layer inception_4b/relu_5x5_reduce
I0704 17:48:47.849980 25106 net.cpp:410] inception_4b/relu_5x5_reduce <- inception_4b/5x5_reduce
I0704 17:48:47.849987 25106 net.cpp:357] inception_4b/relu_5x5_reduce -> inception_4b/5x5_reduce (in-place)
I0704 17:48:47.849992 25106 net.cpp:120] Setting up inception_4b/relu_5x5_reduce
I0704 17:48:47.850101 25106 net.cpp:127] Top shape: 30 24 14 14 (141120)
I0704 17:48:47.850111 25106 layer_factory.hpp:74] Creating layer inception_4b/5x5
I0704 17:48:47.850118 25106 net.cpp:90] Creating Layer inception_4b/5x5
I0704 17:48:47.850123 25106 net.cpp:410] inception_4b/5x5 <- inception_4b/5x5_reduce
I0704 17:48:47.850129 25106 net.cpp:368] inception_4b/5x5 -> inception_4b/5x5
I0704 17:48:47.850136 25106 net.cpp:120] Setting up inception_4b/5x5
I0704 17:48:47.850522 25106 net.cpp:127] Top shape: 30 64 14 14 (376320)
I0704 17:48:47.850533 25106 layer_factory.hpp:74] Creating layer inception_4b/relu_5x5
I0704 17:48:47.850540 25106 net.cpp:90] Creating Layer inception_4b/relu_5x5
I0704 17:48:47.850545 25106 net.cpp:410] inception_4b/relu_5x5 <- inception_4b/5x5
I0704 17:48:47.850551 25106 net.cpp:357] inception_4b/relu_5x5 -> inception_4b/5x5 (in-place)
I0704 17:48:47.850558 25106 net.cpp:120] Setting up inception_4b/relu_5x5
I0704 17:48:47.850596 25106 net.cpp:127] Top shape: 30 64 14 14 (376320)
I0704 17:48:47.850603 25106 layer_factory.hpp:74] Creating layer inception_4b/pool
I0704 17:48:47.850608 25106 layer_factory.cpp:55] CUDNN does not support padding or multiple tops. Using Caffe's own pooling layer.
I0704 17:48:47.850615 25106 net.cpp:90] Creating Layer inception_4b/pool
I0704 17:48:47.850625 25106 net.cpp:410] inception_4b/pool <- inception_4a/output_inception_4a/output_0_split_4
I0704 17:48:47.850632 25106 net.cpp:368] inception_4b/pool -> inception_4b/pool
I0704 17:48:47.850644 25106 net.cpp:120] Setting up inception_4b/pool
I0704 17:48:47.850652 25106 net.cpp:127] Top shape: 30 512 14 14 (3010560)
I0704 17:48:47.850658 25106 layer_factory.hpp:74] Creating layer inception_4b/pool_proj
I0704 17:48:47.850666 25106 net.cpp:90] Creating Layer inception_4b/pool_proj
I0704 17:48:47.850672 25106 net.cpp:410] inception_4b/pool_proj <- inception_4b/pool
I0704 17:48:47.850677 25106 net.cpp:368] inception_4b/pool_proj -> inception_4b/pool_proj
I0704 17:48:47.850684 25106 net.cpp:120] Setting up inception_4b/pool_proj
I0704 17:48:47.851044 25106 net.cpp:127] Top shape: 30 64 14 14 (376320)
I0704 17:48:47.851057 25106 layer_factory.hpp:74] Creating layer inception_4b/relu_pool_proj
I0704 17:48:47.851063 25106 net.cpp:90] Creating Layer inception_4b/relu_pool_proj
I0704 17:48:47.851068 25106 net.cpp:410] inception_4b/relu_pool_proj <- inception_4b/pool_proj
I0704 17:48:47.851074 25106 net.cpp:357] inception_4b/relu_pool_proj -> inception_4b/pool_proj (in-place)
I0704 17:48:47.851081 25106 net.cpp:120] Setting up inception_4b/relu_pool_proj
I0704 17:48:47.851120 25106 net.cpp:127] Top shape: 30 64 14 14 (376320)
I0704 17:48:47.851127 25106 layer_factory.hpp:74] Creating layer inception_4b/output
I0704 17:48:47.851133 25106 net.cpp:90] Creating Layer inception_4b/output
I0704 17:48:47.851138 25106 net.cpp:410] inception_4b/output <- inception_4b/1x1
I0704 17:48:47.851143 25106 net.cpp:410] inception_4b/output <- inception_4b/3x3
I0704 17:48:47.851148 25106 net.cpp:410] inception_4b/output <- inception_4b/5x5
I0704 17:48:47.851153 25106 net.cpp:410] inception_4b/output <- inception_4b/pool_proj
I0704 17:48:47.851161 25106 net.cpp:368] inception_4b/output -> inception_4b/output
I0704 17:48:47.851166 25106 net.cpp:120] Setting up inception_4b/output
I0704 17:48:47.851173 25106 net.cpp:127] Top shape: 30 512 14 14 (3010560)
I0704 17:48:47.851177 25106 layer_factory.hpp:74] Creating layer inception_4b/output_inception_4b/output_0_split
I0704 17:48:47.851184 25106 net.cpp:90] Creating Layer inception_4b/output_inception_4b/output_0_split
I0704 17:48:47.851188 25106 net.cpp:410] inception_4b/output_inception_4b/output_0_split <- inception_4b/output
I0704 17:48:47.851196 25106 net.cpp:368] inception_4b/output_inception_4b/output_0_split -> inception_4b/output_inception_4b/output_0_split_0
I0704 17:48:47.851202 25106 net.cpp:368] inception_4b/output_inception_4b/output_0_split -> inception_4b/output_inception_4b/output_0_split_1
I0704 17:48:47.851208 25106 net.cpp:368] inception_4b/output_inception_4b/output_0_split -> inception_4b/output_inception_4b/output_0_split_2
I0704 17:48:47.851214 25106 net.cpp:368] inception_4b/output_inception_4b/output_0_split -> inception_4b/output_inception_4b/output_0_split_3
I0704 17:48:47.851220 25106 net.cpp:120] Setting up inception_4b/output_inception_4b/output_0_split
I0704 17:48:47.851227 25106 net.cpp:127] Top shape: 30 512 14 14 (3010560)
I0704 17:48:47.851232 25106 net.cpp:127] Top shape: 30 512 14 14 (3010560)
I0704 17:48:47.851235 25106 net.cpp:127] Top shape: 30 512 14 14 (3010560)
I0704 17:48:47.851240 25106 net.cpp:127] Top shape: 30 512 14 14 (3010560)
I0704 17:48:47.851244 25106 layer_factory.hpp:74] Creating layer inception_4c/1x1
I0704 17:48:47.851251 25106 net.cpp:90] Creating Layer inception_4c/1x1
I0704 17:48:47.851256 25106 net.cpp:410] inception_4c/1x1 <- inception_4b/output_inception_4b/output_0_split_0
I0704 17:48:47.851263 25106 net.cpp:368] inception_4c/1x1 -> inception_4c/1x1
I0704 17:48:47.851269 25106 net.cpp:120] Setting up inception_4c/1x1
I0704 17:48:47.851794 25106 net.cpp:127] Top shape: 30 128 14 14 (752640)
I0704 17:48:47.851805 25106 layer_factory.hpp:74] Creating layer inception_4c/relu_1x1
I0704 17:48:47.851814 25106 net.cpp:90] Creating Layer inception_4c/relu_1x1
I0704 17:48:47.851819 25106 net.cpp:410] inception_4c/relu_1x1 <- inception_4c/1x1
I0704 17:48:47.851830 25106 net.cpp:357] inception_4c/relu_1x1 -> inception_4c/1x1 (in-place)
I0704 17:48:47.851837 25106 net.cpp:120] Setting up inception_4c/relu_1x1
I0704 17:48:47.851878 25106 net.cpp:127] Top shape: 30 128 14 14 (752640)
I0704 17:48:47.851884 25106 layer_factory.hpp:74] Creating layer inception_4c/3x3_reduce
I0704 17:48:47.851892 25106 net.cpp:90] Creating Layer inception_4c/3x3_reduce
I0704 17:48:47.851897 25106 net.cpp:410] inception_4c/3x3_reduce <- inception_4b/output_inception_4b/output_0_split_1
I0704 17:48:47.851903 25106 net.cpp:368] inception_4c/3x3_reduce -> inception_4c/3x3_reduce
I0704 17:48:47.851910 25106 net.cpp:120] Setting up inception_4c/3x3_reduce
I0704 17:48:47.852424 25106 net.cpp:127] Top shape: 30 128 14 14 (752640)
I0704 17:48:47.852437 25106 layer_factory.hpp:74] Creating layer inception_4c/relu_3x3_reduce
I0704 17:48:47.852443 25106 net.cpp:90] Creating Layer inception_4c/relu_3x3_reduce
I0704 17:48:47.852448 25106 net.cpp:410] inception_4c/relu_3x3_reduce <- inception_4c/3x3_reduce
I0704 17:48:47.852454 25106 net.cpp:357] inception_4c/relu_3x3_reduce -> inception_4c/3x3_reduce (in-place)
I0704 17:48:47.852460 25106 net.cpp:120] Setting up inception_4c/relu_3x3_reduce
I0704 17:48:47.852568 25106 net.cpp:127] Top shape: 30 128 14 14 (752640)
I0704 17:48:47.852577 25106 layer_factory.hpp:74] Creating layer inception_4c/3x3
I0704 17:48:47.852586 25106 net.cpp:90] Creating Layer inception_4c/3x3
I0704 17:48:47.852591 25106 net.cpp:410] inception_4c/3x3 <- inception_4c/3x3_reduce
I0704 17:48:47.852596 25106 net.cpp:368] inception_4c/3x3 -> inception_4c/3x3
I0704 17:48:47.852603 25106 net.cpp:120] Setting up inception_4c/3x3
I0704 17:48:47.854226 25106 net.cpp:127] Top shape: 30 256 14 14 (1505280)
I0704 17:48:47.854243 25106 layer_factory.hpp:74] Creating layer inception_4c/relu_3x3
I0704 17:48:47.854251 25106 net.cpp:90] Creating Layer inception_4c/relu_3x3
I0704 17:48:47.854256 25106 net.cpp:410] inception_4c/relu_3x3 <- inception_4c/3x3
I0704 17:48:47.854262 25106 net.cpp:357] inception_4c/relu_3x3 -> inception_4c/3x3 (in-place)
I0704 17:48:47.854269 25106 net.cpp:120] Setting up inception_4c/relu_3x3
I0704 17:48:47.854310 25106 net.cpp:127] Top shape: 30 256 14 14 (1505280)
I0704 17:48:47.854316 25106 layer_factory.hpp:74] Creating layer inception_4c/5x5_reduce
I0704 17:48:47.854324 25106 net.cpp:90] Creating Layer inception_4c/5x5_reduce
I0704 17:48:47.854329 25106 net.cpp:410] inception_4c/5x5_reduce <- inception_4b/output_inception_4b/output_0_split_2
I0704 17:48:47.854336 25106 net.cpp:368] inception_4c/5x5_reduce -> inception_4c/5x5_reduce
I0704 17:48:47.854343 25106 net.cpp:120] Setting up inception_4c/5x5_reduce
I0704 17:48:47.854605 25106 net.cpp:127] Top shape: 30 24 14 14 (141120)
I0704 17:48:47.854617 25106 layer_factory.hpp:74] Creating layer inception_4c/relu_5x5_reduce
I0704 17:48:47.854624 25106 net.cpp:90] Creating Layer inception_4c/relu_5x5_reduce
I0704 17:48:47.854629 25106 net.cpp:410] inception_4c/relu_5x5_reduce <- inception_4c/5x5_reduce
I0704 17:48:47.854635 25106 net.cpp:357] inception_4c/relu_5x5_reduce -> inception_4c/5x5_reduce (in-place)
I0704 17:48:47.854641 25106 net.cpp:120] Setting up inception_4c/relu_5x5_reduce
I0704 17:48:47.854681 25106 net.cpp:127] Top shape: 30 24 14 14 (141120)
I0704 17:48:47.854686 25106 layer_factory.hpp:74] Creating layer inception_4c/5x5
I0704 17:48:47.854694 25106 net.cpp:90] Creating Layer inception_4c/5x5
I0704 17:48:47.854699 25106 net.cpp:410] inception_4c/5x5 <- inception_4c/5x5_reduce
I0704 17:48:47.854706 25106 net.cpp:368] inception_4c/5x5 -> inception_4c/5x5
I0704 17:48:47.854712 25106 net.cpp:120] Setting up inception_4c/5x5
I0704 17:48:47.855095 25106 net.cpp:127] Top shape: 30 64 14 14 (376320)
I0704 17:48:47.855108 25106 layer_factory.hpp:74] Creating layer inception_4c/relu_5x5
I0704 17:48:47.855114 25106 net.cpp:90] Creating Layer inception_4c/relu_5x5
I0704 17:48:47.855119 25106 net.cpp:410] inception_4c/relu_5x5 <- inception_4c/5x5
I0704 17:48:47.855125 25106 net.cpp:357] inception_4c/relu_5x5 -> inception_4c/5x5 (in-place)
I0704 17:48:47.855139 25106 net.cpp:120] Setting up inception_4c/relu_5x5
I0704 17:48:47.855247 25106 net.cpp:127] Top shape: 30 64 14 14 (376320)
I0704 17:48:47.855257 25106 layer_factory.hpp:74] Creating layer inception_4c/pool
I0704 17:48:47.855262 25106 layer_factory.cpp:55] CUDNN does not support padding or multiple tops. Using Caffe's own pooling layer.
I0704 17:48:47.855268 25106 net.cpp:90] Creating Layer inception_4c/pool
I0704 17:48:47.855273 25106 net.cpp:410] inception_4c/pool <- inception_4b/output_inception_4b/output_0_split_3
I0704 17:48:47.855278 25106 net.cpp:368] inception_4c/pool -> inception_4c/pool
I0704 17:48:47.855285 25106 net.cpp:120] Setting up inception_4c/pool
I0704 17:48:47.855293 25106 net.cpp:127] Top shape: 30 512 14 14 (3010560)
I0704 17:48:47.855296 25106 layer_factory.hpp:74] Creating layer inception_4c/pool_proj
I0704 17:48:47.855304 25106 net.cpp:90] Creating Layer inception_4c/pool_proj
I0704 17:48:47.855312 25106 net.cpp:410] inception_4c/pool_proj <- inception_4c/pool
I0704 17:48:47.855319 25106 net.cpp:368] inception_4c/pool_proj -> inception_4c/pool_proj
I0704 17:48:47.855326 25106 net.cpp:120] Setting up inception_4c/pool_proj
I0704 17:48:47.855692 25106 net.cpp:127] Top shape: 30 64 14 14 (376320)
I0704 17:48:47.855705 25106 layer_factory.hpp:74] Creating layer inception_4c/relu_pool_proj
I0704 17:48:47.855711 25106 net.cpp:90] Creating Layer inception_4c/relu_pool_proj
I0704 17:48:47.855716 25106 net.cpp:410] inception_4c/relu_pool_proj <- inception_4c/pool_proj
I0704 17:48:47.855722 25106 net.cpp:357] inception_4c/relu_pool_proj -> inception_4c/pool_proj (in-place)
I0704 17:48:47.855728 25106 net.cpp:120] Setting up inception_4c/relu_pool_proj
I0704 17:48:47.855772 25106 net.cpp:127] Top shape: 30 64 14 14 (376320)
I0704 17:48:47.855778 25106 layer_factory.hpp:74] Creating layer inception_4c/output
I0704 17:48:47.855784 25106 net.cpp:90] Creating Layer inception_4c/output
I0704 17:48:47.855789 25106 net.cpp:410] inception_4c/output <- inception_4c/1x1
I0704 17:48:47.855794 25106 net.cpp:410] inception_4c/output <- inception_4c/3x3
I0704 17:48:47.855799 25106 net.cpp:410] inception_4c/output <- inception_4c/5x5
I0704 17:48:47.855804 25106 net.cpp:410] inception_4c/output <- inception_4c/pool_proj
I0704 17:48:47.855811 25106 net.cpp:368] inception_4c/output -> inception_4c/output
I0704 17:48:47.855818 25106 net.cpp:120] Setting up inception_4c/output
I0704 17:48:47.855823 25106 net.cpp:127] Top shape: 30 512 14 14 (3010560)
I0704 17:48:47.855828 25106 layer_factory.hpp:74] Creating layer inception_4c/output_inception_4c/output_0_split
I0704 17:48:47.855834 25106 net.cpp:90] Creating Layer inception_4c/output_inception_4c/output_0_split
I0704 17:48:47.855839 25106 net.cpp:410] inception_4c/output_inception_4c/output_0_split <- inception_4c/output
I0704 17:48:47.855844 25106 net.cpp:368] inception_4c/output_inception_4c/output_0_split -> inception_4c/output_inception_4c/output_0_split_0
I0704 17:48:47.855851 25106 net.cpp:368] inception_4c/output_inception_4c/output_0_split -> inception_4c/output_inception_4c/output_0_split_1
I0704 17:48:47.855857 25106 net.cpp:368] inception_4c/output_inception_4c/output_0_split -> inception_4c/output_inception_4c/output_0_split_2
I0704 17:48:47.855864 25106 net.cpp:368] inception_4c/output_inception_4c/output_0_split -> inception_4c/output_inception_4c/output_0_split_3
I0704 17:48:47.855870 25106 net.cpp:120] Setting up inception_4c/output_inception_4c/output_0_split
I0704 17:48:47.855875 25106 net.cpp:127] Top shape: 30 512 14 14 (3010560)
I0704 17:48:47.855880 25106 net.cpp:127] Top shape: 30 512 14 14 (3010560)
I0704 17:48:47.855885 25106 net.cpp:127] Top shape: 30 512 14 14 (3010560)
I0704 17:48:47.855890 25106 net.cpp:127] Top shape: 30 512 14 14 (3010560)
I0704 17:48:47.855895 25106 layer_factory.hpp:74] Creating layer inception_4d/1x1
I0704 17:48:47.855901 25106 net.cpp:90] Creating Layer inception_4d/1x1
I0704 17:48:47.855906 25106 net.cpp:410] inception_4d/1x1 <- inception_4c/output_inception_4c/output_0_split_0
I0704 17:48:47.855918 25106 net.cpp:368] inception_4d/1x1 -> inception_4d/1x1
I0704 17:48:47.855926 25106 net.cpp:120] Setting up inception_4d/1x1
I0704 17:48:47.856415 25106 net.cpp:127] Top shape: 30 112 14 14 (658560)
I0704 17:48:47.856427 25106 layer_factory.hpp:74] Creating layer inception_4d/relu_1x1
I0704 17:48:47.856434 25106 net.cpp:90] Creating Layer inception_4d/relu_1x1
I0704 17:48:47.856439 25106 net.cpp:410] inception_4d/relu_1x1 <- inception_4d/1x1
I0704 17:48:47.856446 25106 net.cpp:357] inception_4d/relu_1x1 -> inception_4d/1x1 (in-place)
I0704 17:48:47.856452 25106 net.cpp:120] Setting up inception_4d/relu_1x1
I0704 17:48:47.856492 25106 net.cpp:127] Top shape: 30 112 14 14 (658560)
I0704 17:48:47.856499 25106 layer_factory.hpp:74] Creating layer inception_4d/3x3_reduce
I0704 17:48:47.856506 25106 net.cpp:90] Creating Layer inception_4d/3x3_reduce
I0704 17:48:47.856511 25106 net.cpp:410] inception_4d/3x3_reduce <- inception_4c/output_inception_4c/output_0_split_1
I0704 17:48:47.856518 25106 net.cpp:368] inception_4d/3x3_reduce -> inception_4d/3x3_reduce
I0704 17:48:47.856525 25106 net.cpp:120] Setting up inception_4d/3x3_reduce
I0704 17:48:47.857094 25106 net.cpp:127] Top shape: 30 144 14 14 (846720)
I0704 17:48:47.857105 25106 layer_factory.hpp:74] Creating layer inception_4d/relu_3x3_reduce
I0704 17:48:47.857112 25106 net.cpp:90] Creating Layer inception_4d/relu_3x3_reduce
I0704 17:48:47.857117 25106 net.cpp:410] inception_4d/relu_3x3_reduce <- inception_4d/3x3_reduce
I0704 17:48:47.857125 25106 net.cpp:357] inception_4d/relu_3x3_reduce -> inception_4d/3x3_reduce (in-place)
I0704 17:48:47.857131 25106 net.cpp:120] Setting up inception_4d/relu_3x3_reduce
I0704 17:48:47.857172 25106 net.cpp:127] Top shape: 30 144 14 14 (846720)
I0704 17:48:47.857179 25106 layer_factory.hpp:74] Creating layer inception_4d/3x3
I0704 17:48:47.857185 25106 net.cpp:90] Creating Layer inception_4d/3x3
I0704 17:48:47.857192 25106 net.cpp:410] inception_4d/3x3 <- inception_4d/3x3_reduce
I0704 17:48:47.857197 25106 net.cpp:368] inception_4d/3x3 -> inception_4d/3x3
I0704 17:48:47.857205 25106 net.cpp:120] Setting up inception_4d/3x3
I0704 17:48:47.859215 25106 net.cpp:127] Top shape: 30 288 14 14 (1693440)
I0704 17:48:47.859227 25106 layer_factory.hpp:74] Creating layer inception_4d/relu_3x3
I0704 17:48:47.859235 25106 net.cpp:90] Creating Layer inception_4d/relu_3x3
I0704 17:48:47.859241 25106 net.cpp:410] inception_4d/relu_3x3 <- inception_4d/3x3
I0704 17:48:47.859246 25106 net.cpp:357] inception_4d/relu_3x3 -> inception_4d/3x3 (in-place)
I0704 17:48:47.859252 25106 net.cpp:120] Setting up inception_4d/relu_3x3
I0704 17:48:47.859372 25106 net.cpp:127] Top shape: 30 288 14 14 (1693440)
I0704 17:48:47.859381 25106 layer_factory.hpp:74] Creating layer inception_4d/5x5_reduce
I0704 17:48:47.859390 25106 net.cpp:90] Creating Layer inception_4d/5x5_reduce
I0704 17:48:47.859395 25106 net.cpp:410] inception_4d/5x5_reduce <- inception_4c/output_inception_4c/output_0_split_2
I0704 17:48:47.859401 25106 net.cpp:368] inception_4d/5x5_reduce -> inception_4d/5x5_reduce
I0704 17:48:47.859410 25106 net.cpp:120] Setting up inception_4d/5x5_reduce
I0704 17:48:47.859691 25106 net.cpp:127] Top shape: 30 32 14 14 (188160)
I0704 17:48:47.859704 25106 layer_factory.hpp:74] Creating layer inception_4d/relu_5x5_reduce
I0704 17:48:47.859709 25106 net.cpp:90] Creating Layer inception_4d/relu_5x5_reduce
I0704 17:48:47.859715 25106 net.cpp:410] inception_4d/relu_5x5_reduce <- inception_4d/5x5_reduce
I0704 17:48:47.859720 25106 net.cpp:357] inception_4d/relu_5x5_reduce -> inception_4d/5x5_reduce (in-place)
I0704 17:48:47.859727 25106 net.cpp:120] Setting up inception_4d/relu_5x5_reduce
I0704 17:48:47.859767 25106 net.cpp:127] Top shape: 30 32 14 14 (188160)
I0704 17:48:47.859773 25106 layer_factory.hpp:74] Creating layer inception_4d/5x5
I0704 17:48:47.859781 25106 net.cpp:90] Creating Layer inception_4d/5x5
I0704 17:48:47.859786 25106 net.cpp:410] inception_4d/5x5 <- inception_4d/5x5_reduce
I0704 17:48:47.859792 25106 net.cpp:368] inception_4d/5x5 -> inception_4d/5x5
I0704 17:48:47.859808 25106 net.cpp:120] Setting up inception_4d/5x5
I0704 17:48:47.860280 25106 net.cpp:127] Top shape: 30 64 14 14 (376320)
I0704 17:48:47.860292 25106 layer_factory.hpp:74] Creating layer inception_4d/relu_5x5
I0704 17:48:47.860298 25106 net.cpp:90] Creating Layer inception_4d/relu_5x5
I0704 17:48:47.860303 25106 net.cpp:410] inception_4d/relu_5x5 <- inception_4d/5x5
I0704 17:48:47.860309 25106 net.cpp:357] inception_4d/relu_5x5 -> inception_4d/5x5 (in-place)
I0704 17:48:47.860316 25106 net.cpp:120] Setting up inception_4d/relu_5x5
I0704 17:48:47.860357 25106 net.cpp:127] Top shape: 30 64 14 14 (376320)
I0704 17:48:47.860363 25106 layer_factory.hpp:74] Creating layer inception_4d/pool
I0704 17:48:47.860368 25106 layer_factory.cpp:55] CUDNN does not support padding or multiple tops. Using Caffe's own pooling layer.
I0704 17:48:47.860374 25106 net.cpp:90] Creating Layer inception_4d/pool
I0704 17:48:47.860379 25106 net.cpp:410] inception_4d/pool <- inception_4c/output_inception_4c/output_0_split_3
I0704 17:48:47.860385 25106 net.cpp:368] inception_4d/pool -> inception_4d/pool
I0704 17:48:47.860391 25106 net.cpp:120] Setting up inception_4d/pool
I0704 17:48:47.860398 25106 net.cpp:127] Top shape: 30 512 14 14 (3010560)
I0704 17:48:47.860402 25106 layer_factory.hpp:74] Creating layer inception_4d/pool_proj
I0704 17:48:47.860410 25106 net.cpp:90] Creating Layer inception_4d/pool_proj
I0704 17:48:47.860414 25106 net.cpp:410] inception_4d/pool_proj <- inception_4d/pool
I0704 17:48:47.860421 25106 net.cpp:368] inception_4d/pool_proj -> inception_4d/pool_proj
I0704 17:48:47.860427 25106 net.cpp:120] Setting up inception_4d/pool_proj
I0704 17:48:47.860800 25106 net.cpp:127] Top shape: 30 64 14 14 (376320)
I0704 17:48:47.860812 25106 layer_factory.hpp:74] Creating layer inception_4d/relu_pool_proj
I0704 17:48:47.860818 25106 net.cpp:90] Creating Layer inception_4d/relu_pool_proj
I0704 17:48:47.860823 25106 net.cpp:410] inception_4d/relu_pool_proj <- inception_4d/pool_proj
I0704 17:48:47.860831 25106 net.cpp:357] inception_4d/relu_pool_proj -> inception_4d/pool_proj (in-place)
I0704 17:48:47.860836 25106 net.cpp:120] Setting up inception_4d/relu_pool_proj
I0704 17:48:47.860877 25106 net.cpp:127] Top shape: 30 64 14 14 (376320)
I0704 17:48:47.860883 25106 layer_factory.hpp:74] Creating layer inception_4d/output
I0704 17:48:47.860889 25106 net.cpp:90] Creating Layer inception_4d/output
I0704 17:48:47.860893 25106 net.cpp:410] inception_4d/output <- inception_4d/1x1
I0704 17:48:47.860898 25106 net.cpp:410] inception_4d/output <- inception_4d/3x3
I0704 17:48:47.860903 25106 net.cpp:410] inception_4d/output <- inception_4d/5x5
I0704 17:48:47.860908 25106 net.cpp:410] inception_4d/output <- inception_4d/pool_proj
I0704 17:48:47.860914 25106 net.cpp:368] inception_4d/output -> inception_4d/output
I0704 17:48:47.860920 25106 net.cpp:120] Setting up inception_4d/output
I0704 17:48:47.860926 25106 net.cpp:127] Top shape: 30 528 14 14 (3104640)
I0704 17:48:47.860931 25106 layer_factory.hpp:74] Creating layer inception_4d/output_inception_4d/output_0_split
I0704 17:48:47.860937 25106 net.cpp:90] Creating Layer inception_4d/output_inception_4d/output_0_split
I0704 17:48:47.860941 25106 net.cpp:410] inception_4d/output_inception_4d/output_0_split <- inception_4d/output
I0704 17:48:47.860949 25106 net.cpp:368] inception_4d/output_inception_4d/output_0_split -> inception_4d/output_inception_4d/output_0_split_0
I0704 17:48:47.860954 25106 net.cpp:368] inception_4d/output_inception_4d/output_0_split -> inception_4d/output_inception_4d/output_0_split_1
I0704 17:48:47.860961 25106 net.cpp:368] inception_4d/output_inception_4d/output_0_split -> inception_4d/output_inception_4d/output_0_split_2
I0704 17:48:47.860967 25106 net.cpp:368] inception_4d/output_inception_4d/output_0_split -> inception_4d/output_inception_4d/output_0_split_3
I0704 17:48:47.860973 25106 net.cpp:368] inception_4d/output_inception_4d/output_0_split -> inception_4d/output_inception_4d/output_0_split_4
I0704 17:48:47.860980 25106 net.cpp:120] Setting up inception_4d/output_inception_4d/output_0_split
I0704 17:48:47.860991 25106 net.cpp:127] Top shape: 30 528 14 14 (3104640)
I0704 17:48:47.860996 25106 net.cpp:127] Top shape: 30 528 14 14 (3104640)
I0704 17:48:47.861001 25106 net.cpp:127] Top shape: 30 528 14 14 (3104640)
I0704 17:48:47.861006 25106 net.cpp:127] Top shape: 30 528 14 14 (3104640)
I0704 17:48:47.861011 25106 net.cpp:127] Top shape: 30 528 14 14 (3104640)
I0704 17:48:47.861014 25106 layer_factory.hpp:74] Creating layer loss2/ave_pool
I0704 17:48:47.861021 25106 net.cpp:90] Creating Layer loss2/ave_pool
I0704 17:48:47.861026 25106 net.cpp:410] loss2/ave_pool <- inception_4d/output_inception_4d/output_0_split_0
I0704 17:48:47.861032 25106 net.cpp:368] loss2/ave_pool -> loss2/ave_pool
I0704 17:48:47.861037 25106 net.cpp:120] Setting up loss2/ave_pool
I0704 17:48:47.861158 25106 net.cpp:127] Top shape: 30 528 4 4 (253440)
I0704 17:48:47.861167 25106 layer_factory.hpp:74] Creating layer loss2/conv
I0704 17:48:47.861176 25106 net.cpp:90] Creating Layer loss2/conv
I0704 17:48:47.861181 25106 net.cpp:410] loss2/conv <- loss2/ave_pool
I0704 17:48:47.861186 25106 net.cpp:368] loss2/conv -> loss2/conv
I0704 17:48:47.861192 25106 net.cpp:120] Setting up loss2/conv
I0704 17:48:47.861721 25106 net.cpp:127] Top shape: 30 128 4 4 (61440)
I0704 17:48:47.861732 25106 layer_factory.hpp:74] Creating layer loss2/relu_conv
I0704 17:48:47.861739 25106 net.cpp:90] Creating Layer loss2/relu_conv
I0704 17:48:47.861744 25106 net.cpp:410] loss2/relu_conv <- loss2/conv
I0704 17:48:47.861750 25106 net.cpp:357] loss2/relu_conv -> loss2/conv (in-place)
I0704 17:48:47.861755 25106 net.cpp:120] Setting up loss2/relu_conv
I0704 17:48:47.861799 25106 net.cpp:127] Top shape: 30 128 4 4 (61440)
I0704 17:48:47.861804 25106 layer_factory.hpp:74] Creating layer loss2/fc
I0704 17:48:47.861811 25106 net.cpp:90] Creating Layer loss2/fc
I0704 17:48:47.861816 25106 net.cpp:410] loss2/fc <- loss2/conv
I0704 17:48:47.861824 25106 net.cpp:368] loss2/fc -> loss2/fc
I0704 17:48:47.861830 25106 net.cpp:120] Setting up loss2/fc
I0704 17:48:47.871736 25106 net.cpp:127] Top shape: 30 1024 (30720)
I0704 17:48:47.871762 25106 layer_factory.hpp:74] Creating layer loss2/relu_fc
I0704 17:48:47.871772 25106 net.cpp:90] Creating Layer loss2/relu_fc
I0704 17:48:47.871778 25106 net.cpp:410] loss2/relu_fc <- loss2/fc
I0704 17:48:47.871786 25106 net.cpp:357] loss2/relu_fc -> loss2/fc (in-place)
I0704 17:48:47.871793 25106 net.cpp:120] Setting up loss2/relu_fc
I0704 17:48:47.871870 25106 net.cpp:127] Top shape: 30 1024 (30720)
I0704 17:48:47.871878 25106 layer_factory.hpp:74] Creating layer loss2/drop_fc
I0704 17:48:47.871886 25106 net.cpp:90] Creating Layer loss2/drop_fc
I0704 17:48:47.871891 25106 net.cpp:410] loss2/drop_fc <- loss2/fc
I0704 17:48:47.871896 25106 net.cpp:357] loss2/drop_fc -> loss2/fc (in-place)
I0704 17:48:47.871901 25106 net.cpp:120] Setting up loss2/drop_fc
I0704 17:48:47.871907 25106 net.cpp:127] Top shape: 30 1024 (30720)
I0704 17:48:47.871912 25106 layer_factory.hpp:74] Creating layer stanford_cars_loss2/classifier
I0704 17:48:47.871922 25106 net.cpp:90] Creating Layer stanford_cars_loss2/classifier
I0704 17:48:47.871927 25106 net.cpp:410] stanford_cars_loss2/classifier <- loss2/fc
I0704 17:48:47.871933 25106 net.cpp:368] stanford_cars_loss2/classifier -> stanford_cars_loss2/classifier
I0704 17:48:47.871942 25106 net.cpp:120] Setting up stanford_cars_loss2/classifier
I0704 17:48:47.873005 25106 net.cpp:127] Top shape: 30 196 (5880)
I0704 17:48:47.873034 25106 layer_factory.hpp:74] Creating layer stanford_cars_loss2/loss
I0704 17:48:47.873042 25106 net.cpp:90] Creating Layer stanford_cars_loss2/loss
I0704 17:48:47.873047 25106 net.cpp:410] stanford_cars_loss2/loss <- stanford_cars_loss2/classifier
I0704 17:48:47.873054 25106 net.cpp:410] stanford_cars_loss2/loss <- label_data_1_split_1
I0704 17:48:47.873061 25106 net.cpp:368] stanford_cars_loss2/loss -> loss2/loss1
I0704 17:48:47.873070 25106 net.cpp:120] Setting up stanford_cars_loss2/loss
I0704 17:48:47.873075 25106 layer_factory.hpp:74] Creating layer stanford_cars_loss2/loss
I0704 17:48:47.873185 25106 net.cpp:127] Top shape: (1)
I0704 17:48:47.873194 25106 net.cpp:129]     with loss weight 0.3
I0704 17:48:47.873214 25106 layer_factory.hpp:74] Creating layer inception_4e/1x1
I0704 17:48:47.873224 25106 net.cpp:90] Creating Layer inception_4e/1x1
I0704 17:48:47.873229 25106 net.cpp:410] inception_4e/1x1 <- inception_4d/output_inception_4d/output_0_split_1
I0704 17:48:47.873235 25106 net.cpp:368] inception_4e/1x1 -> inception_4e/1x1
I0704 17:48:47.873242 25106 net.cpp:120] Setting up inception_4e/1x1
I0704 17:48:47.874173 25106 net.cpp:127] Top shape: 30 256 14 14 (1505280)
I0704 17:48:47.874186 25106 layer_factory.hpp:74] Creating layer inception_4e/relu_1x1
I0704 17:48:47.874192 25106 net.cpp:90] Creating Layer inception_4e/relu_1x1
I0704 17:48:47.874198 25106 net.cpp:410] inception_4e/relu_1x1 <- inception_4e/1x1
I0704 17:48:47.874204 25106 net.cpp:357] inception_4e/relu_1x1 -> inception_4e/1x1 (in-place)
I0704 17:48:47.874210 25106 net.cpp:120] Setting up inception_4e/relu_1x1
I0704 17:48:47.874321 25106 net.cpp:127] Top shape: 30 256 14 14 (1505280)
I0704 17:48:47.874331 25106 layer_factory.hpp:74] Creating layer inception_4e/3x3_reduce
I0704 17:48:47.874339 25106 net.cpp:90] Creating Layer inception_4e/3x3_reduce
I0704 17:48:47.874344 25106 net.cpp:410] inception_4e/3x3_reduce <- inception_4d/output_inception_4d/output_0_split_2
I0704 17:48:47.874352 25106 net.cpp:368] inception_4e/3x3_reduce -> inception_4e/3x3_reduce
I0704 17:48:47.874359 25106 net.cpp:120] Setting up inception_4e/3x3_reduce
I0704 17:48:47.874979 25106 net.cpp:127] Top shape: 30 160 14 14 (940800)
I0704 17:48:47.874992 25106 layer_factory.hpp:74] Creating layer inception_4e/relu_3x3_reduce
I0704 17:48:47.875000 25106 net.cpp:90] Creating Layer inception_4e/relu_3x3_reduce
I0704 17:48:47.875005 25106 net.cpp:410] inception_4e/relu_3x3_reduce <- inception_4e/3x3_reduce
I0704 17:48:47.875010 25106 net.cpp:357] inception_4e/relu_3x3_reduce -> inception_4e/3x3_reduce (in-place)
I0704 17:48:47.875017 25106 net.cpp:120] Setting up inception_4e/relu_3x3_reduce
I0704 17:48:47.875059 25106 net.cpp:127] Top shape: 30 160 14 14 (940800)
I0704 17:48:47.875066 25106 layer_factory.hpp:74] Creating layer inception_4e/3x3
I0704 17:48:47.875073 25106 net.cpp:90] Creating Layer inception_4e/3x3
I0704 17:48:47.875078 25106 net.cpp:410] inception_4e/3x3 <- inception_4e/3x3_reduce
I0704 17:48:47.875084 25106 net.cpp:368] inception_4e/3x3 -> inception_4e/3x3
I0704 17:48:47.875092 25106 net.cpp:120] Setting up inception_4e/3x3
I0704 17:48:47.877574 25106 net.cpp:127] Top shape: 30 320 14 14 (1881600)
I0704 17:48:47.877588 25106 layer_factory.hpp:74] Creating layer inception_4e/relu_3x3
I0704 17:48:47.877594 25106 net.cpp:90] Creating Layer inception_4e/relu_3x3
I0704 17:48:47.877600 25106 net.cpp:410] inception_4e/relu_3x3 <- inception_4e/3x3
I0704 17:48:47.877605 25106 net.cpp:357] inception_4e/relu_3x3 -> inception_4e/3x3 (in-place)
I0704 17:48:47.877611 25106 net.cpp:120] Setting up inception_4e/relu_3x3
I0704 17:48:47.877652 25106 net.cpp:127] Top shape: 30 320 14 14 (1881600)
I0704 17:48:47.877658 25106 layer_factory.hpp:74] Creating layer inception_4e/5x5_reduce
I0704 17:48:47.877666 25106 net.cpp:90] Creating Layer inception_4e/5x5_reduce
I0704 17:48:47.877671 25106 net.cpp:410] inception_4e/5x5_reduce <- inception_4d/output_inception_4d/output_0_split_3
I0704 17:48:47.877678 25106 net.cpp:368] inception_4e/5x5_reduce -> inception_4e/5x5_reduce
I0704 17:48:47.877684 25106 net.cpp:120] Setting up inception_4e/5x5_reduce
I0704 17:48:47.877971 25106 net.cpp:127] Top shape: 30 32 14 14 (188160)
I0704 17:48:47.877984 25106 layer_factory.hpp:74] Creating layer inception_4e/relu_5x5_reduce
I0704 17:48:47.877990 25106 net.cpp:90] Creating Layer inception_4e/relu_5x5_reduce
I0704 17:48:47.877995 25106 net.cpp:410] inception_4e/relu_5x5_reduce <- inception_4e/5x5_reduce
I0704 17:48:47.878001 25106 net.cpp:357] inception_4e/relu_5x5_reduce -> inception_4e/5x5_reduce (in-place)
I0704 17:48:47.878008 25106 net.cpp:120] Setting up inception_4e/relu_5x5_reduce
I0704 17:48:47.878129 25106 net.cpp:127] Top shape: 30 32 14 14 (188160)
I0704 17:48:47.878137 25106 layer_factory.hpp:74] Creating layer inception_4e/5x5
I0704 17:48:47.878155 25106 net.cpp:90] Creating Layer inception_4e/5x5
I0704 17:48:47.878160 25106 net.cpp:410] inception_4e/5x5 <- inception_4e/5x5_reduce
I0704 17:48:47.878167 25106 net.cpp:368] inception_4e/5x5 -> inception_4e/5x5
I0704 17:48:47.878175 25106 net.cpp:120] Setting up inception_4e/5x5
I0704 17:48:47.878875 25106 net.cpp:127] Top shape: 30 128 14 14 (752640)
I0704 17:48:47.878887 25106 layer_factory.hpp:74] Creating layer inception_4e/relu_5x5
I0704 17:48:47.878895 25106 net.cpp:90] Creating Layer inception_4e/relu_5x5
I0704 17:48:47.878901 25106 net.cpp:410] inception_4e/relu_5x5 <- inception_4e/5x5
I0704 17:48:47.878906 25106 net.cpp:357] inception_4e/relu_5x5 -> inception_4e/5x5 (in-place)
I0704 17:48:47.878911 25106 net.cpp:120] Setting up inception_4e/relu_5x5
I0704 17:48:47.878954 25106 net.cpp:127] Top shape: 30 128 14 14 (752640)
I0704 17:48:47.878962 25106 layer_factory.hpp:74] Creating layer inception_4e/pool
I0704 17:48:47.878967 25106 layer_factory.cpp:55] CUDNN does not support padding or multiple tops. Using Caffe's own pooling layer.
I0704 17:48:47.878972 25106 net.cpp:90] Creating Layer inception_4e/pool
I0704 17:48:47.878978 25106 net.cpp:410] inception_4e/pool <- inception_4d/output_inception_4d/output_0_split_4
I0704 17:48:47.878984 25106 net.cpp:368] inception_4e/pool -> inception_4e/pool
I0704 17:48:47.878990 25106 net.cpp:120] Setting up inception_4e/pool
I0704 17:48:47.878998 25106 net.cpp:127] Top shape: 30 528 14 14 (3104640)
I0704 17:48:47.879003 25106 layer_factory.hpp:74] Creating layer inception_4e/pool_proj
I0704 17:48:47.879009 25106 net.cpp:90] Creating Layer inception_4e/pool_proj
I0704 17:48:47.879014 25106 net.cpp:410] inception_4e/pool_proj <- inception_4e/pool
I0704 17:48:47.879019 25106 net.cpp:368] inception_4e/pool_proj -> inception_4e/pool_proj
I0704 17:48:47.879026 25106 net.cpp:120] Setting up inception_4e/pool_proj
I0704 17:48:47.879570 25106 net.cpp:127] Top shape: 30 128 14 14 (752640)
I0704 17:48:47.879581 25106 layer_factory.hpp:74] Creating layer inception_4e/relu_pool_proj
I0704 17:48:47.879587 25106 net.cpp:90] Creating Layer inception_4e/relu_pool_proj
I0704 17:48:47.879593 25106 net.cpp:410] inception_4e/relu_pool_proj <- inception_4e/pool_proj
I0704 17:48:47.879600 25106 net.cpp:357] inception_4e/relu_pool_proj -> inception_4e/pool_proj (in-place)
I0704 17:48:47.879606 25106 net.cpp:120] Setting up inception_4e/relu_pool_proj
I0704 17:48:47.879648 25106 net.cpp:127] Top shape: 30 128 14 14 (752640)
I0704 17:48:47.879654 25106 layer_factory.hpp:74] Creating layer inception_4e/output
I0704 17:48:47.879660 25106 net.cpp:90] Creating Layer inception_4e/output
I0704 17:48:47.879665 25106 net.cpp:410] inception_4e/output <- inception_4e/1x1
I0704 17:48:47.879672 25106 net.cpp:410] inception_4e/output <- inception_4e/3x3
I0704 17:48:47.879678 25106 net.cpp:410] inception_4e/output <- inception_4e/5x5
I0704 17:48:47.879683 25106 net.cpp:410] inception_4e/output <- inception_4e/pool_proj
I0704 17:48:47.879688 25106 net.cpp:368] inception_4e/output -> inception_4e/output
I0704 17:48:47.879694 25106 net.cpp:120] Setting up inception_4e/output
I0704 17:48:47.879701 25106 net.cpp:127] Top shape: 30 832 14 14 (4892160)
I0704 17:48:47.879705 25106 layer_factory.hpp:74] Creating layer pool4/3x3_s2
I0704 17:48:47.879711 25106 net.cpp:90] Creating Layer pool4/3x3_s2
I0704 17:48:47.879715 25106 net.cpp:410] pool4/3x3_s2 <- inception_4e/output
I0704 17:48:47.879721 25106 net.cpp:368] pool4/3x3_s2 -> pool4/3x3_s2
I0704 17:48:47.879727 25106 net.cpp:120] Setting up pool4/3x3_s2
I0704 17:48:47.879770 25106 net.cpp:127] Top shape: 30 832 7 7 (1223040)
I0704 17:48:47.879776 25106 layer_factory.hpp:74] Creating layer pool4/3x3_s2_pool4/3x3_s2_0_split
I0704 17:48:47.879781 25106 net.cpp:90] Creating Layer pool4/3x3_s2_pool4/3x3_s2_0_split
I0704 17:48:47.879786 25106 net.cpp:410] pool4/3x3_s2_pool4/3x3_s2_0_split <- pool4/3x3_s2
I0704 17:48:47.879798 25106 net.cpp:368] pool4/3x3_s2_pool4/3x3_s2_0_split -> pool4/3x3_s2_pool4/3x3_s2_0_split_0
I0704 17:48:47.879806 25106 net.cpp:368] pool4/3x3_s2_pool4/3x3_s2_0_split -> pool4/3x3_s2_pool4/3x3_s2_0_split_1
I0704 17:48:47.879813 25106 net.cpp:368] pool4/3x3_s2_pool4/3x3_s2_0_split -> pool4/3x3_s2_pool4/3x3_s2_0_split_2
I0704 17:48:47.879819 25106 net.cpp:368] pool4/3x3_s2_pool4/3x3_s2_0_split -> pool4/3x3_s2_pool4/3x3_s2_0_split_3
I0704 17:48:47.879825 25106 net.cpp:120] Setting up pool4/3x3_s2_pool4/3x3_s2_0_split
I0704 17:48:47.879832 25106 net.cpp:127] Top shape: 30 832 7 7 (1223040)
I0704 17:48:47.879837 25106 net.cpp:127] Top shape: 30 832 7 7 (1223040)
I0704 17:48:47.879840 25106 net.cpp:127] Top shape: 30 832 7 7 (1223040)
I0704 17:48:47.879845 25106 net.cpp:127] Top shape: 30 832 7 7 (1223040)
I0704 17:48:47.879849 25106 layer_factory.hpp:74] Creating layer inception_5a/1x1
I0704 17:48:47.879856 25106 net.cpp:90] Creating Layer inception_5a/1x1
I0704 17:48:47.879860 25106 net.cpp:410] inception_5a/1x1 <- pool4/3x3_s2_pool4/3x3_s2_0_split_0
I0704 17:48:47.879866 25106 net.cpp:368] inception_5a/1x1 -> inception_5a/1x1
I0704 17:48:47.879873 25106 net.cpp:120] Setting up inception_5a/1x1
I0704 17:48:47.881109 25106 net.cpp:127] Top shape: 30 256 7 7 (376320)
I0704 17:48:47.881121 25106 layer_factory.hpp:74] Creating layer inception_5a/relu_1x1
I0704 17:48:47.881127 25106 net.cpp:90] Creating Layer inception_5a/relu_1x1
I0704 17:48:47.881132 25106 net.cpp:410] inception_5a/relu_1x1 <- inception_5a/1x1
I0704 17:48:47.881139 25106 net.cpp:357] inception_5a/relu_1x1 -> inception_5a/1x1 (in-place)
I0704 17:48:47.881145 25106 net.cpp:120] Setting up inception_5a/relu_1x1
I0704 17:48:47.881258 25106 net.cpp:127] Top shape: 30 256 7 7 (376320)
I0704 17:48:47.881266 25106 layer_factory.hpp:74] Creating layer inception_5a/3x3_reduce
I0704 17:48:47.881273 25106 net.cpp:90] Creating Layer inception_5a/3x3_reduce
I0704 17:48:47.881278 25106 net.cpp:410] inception_5a/3x3_reduce <- pool4/3x3_s2_pool4/3x3_s2_0_split_1
I0704 17:48:47.881285 25106 net.cpp:368] inception_5a/3x3_reduce -> inception_5a/3x3_reduce
I0704 17:48:47.881292 25106 net.cpp:120] Setting up inception_5a/3x3_reduce
I0704 17:48:47.882145 25106 net.cpp:127] Top shape: 30 160 7 7 (235200)
I0704 17:48:47.882156 25106 layer_factory.hpp:74] Creating layer inception_5a/relu_3x3_reduce
I0704 17:48:47.882164 25106 net.cpp:90] Creating Layer inception_5a/relu_3x3_reduce
I0704 17:48:47.882169 25106 net.cpp:410] inception_5a/relu_3x3_reduce <- inception_5a/3x3_reduce
I0704 17:48:47.882174 25106 net.cpp:357] inception_5a/relu_3x3_reduce -> inception_5a/3x3_reduce (in-place)
I0704 17:48:47.882180 25106 net.cpp:120] Setting up inception_5a/relu_3x3_reduce
I0704 17:48:47.882225 25106 net.cpp:127] Top shape: 30 160 7 7 (235200)
I0704 17:48:47.882230 25106 layer_factory.hpp:74] Creating layer inception_5a/3x3
I0704 17:48:47.882237 25106 net.cpp:90] Creating Layer inception_5a/3x3
I0704 17:48:47.882242 25106 net.cpp:410] inception_5a/3x3 <- inception_5a/3x3_reduce
I0704 17:48:47.882248 25106 net.cpp:368] inception_5a/3x3 -> inception_5a/3x3
I0704 17:48:47.882254 25106 net.cpp:120] Setting up inception_5a/3x3
I0704 17:48:47.884690 25106 net.cpp:127] Top shape: 30 320 7 7 (470400)
I0704 17:48:47.884701 25106 layer_factory.hpp:74] Creating layer inception_5a/relu_3x3
I0704 17:48:47.884707 25106 net.cpp:90] Creating Layer inception_5a/relu_3x3
I0704 17:48:47.884712 25106 net.cpp:410] inception_5a/relu_3x3 <- inception_5a/3x3
I0704 17:48:47.884718 25106 net.cpp:357] inception_5a/relu_3x3 -> inception_5a/3x3 (in-place)
I0704 17:48:47.884724 25106 net.cpp:120] Setting up inception_5a/relu_3x3
I0704 17:48:47.884765 25106 net.cpp:127] Top shape: 30 320 7 7 (470400)
I0704 17:48:47.884770 25106 layer_factory.hpp:74] Creating layer inception_5a/5x5_reduce
I0704 17:48:47.884778 25106 net.cpp:90] Creating Layer inception_5a/5x5_reduce
I0704 17:48:47.884783 25106 net.cpp:410] inception_5a/5x5_reduce <- pool4/3x3_s2_pool4/3x3_s2_0_split_2
I0704 17:48:47.884796 25106 net.cpp:368] inception_5a/5x5_reduce -> inception_5a/5x5_reduce
I0704 17:48:47.884804 25106 net.cpp:120] Setting up inception_5a/5x5_reduce
I0704 17:48:47.885143 25106 net.cpp:127] Top shape: 30 32 7 7 (47040)
I0704 17:48:47.885154 25106 layer_factory.hpp:74] Creating layer inception_5a/relu_5x5_reduce
I0704 17:48:47.885160 25106 net.cpp:90] Creating Layer inception_5a/relu_5x5_reduce
I0704 17:48:47.885165 25106 net.cpp:410] inception_5a/relu_5x5_reduce <- inception_5a/5x5_reduce
I0704 17:48:47.885172 25106 net.cpp:357] inception_5a/relu_5x5_reduce -> inception_5a/5x5_reduce (in-place)
I0704 17:48:47.885179 25106 net.cpp:120] Setting up inception_5a/relu_5x5_reduce
I0704 17:48:47.885218 25106 net.cpp:127] Top shape: 30 32 7 7 (47040)
I0704 17:48:47.885226 25106 layer_factory.hpp:74] Creating layer inception_5a/5x5
I0704 17:48:47.885232 25106 net.cpp:90] Creating Layer inception_5a/5x5
I0704 17:48:47.885236 25106 net.cpp:410] inception_5a/5x5 <- inception_5a/5x5_reduce
I0704 17:48:47.885242 25106 net.cpp:368] inception_5a/5x5 -> inception_5a/5x5
I0704 17:48:47.885249 25106 net.cpp:120] Setting up inception_5a/5x5
I0704 17:48:47.885969 25106 net.cpp:127] Top shape: 30 128 7 7 (188160)
I0704 17:48:47.885980 25106 layer_factory.hpp:74] Creating layer inception_5a/relu_5x5
I0704 17:48:47.885987 25106 net.cpp:90] Creating Layer inception_5a/relu_5x5
I0704 17:48:47.885992 25106 net.cpp:410] inception_5a/relu_5x5 <- inception_5a/5x5
I0704 17:48:47.885998 25106 net.cpp:357] inception_5a/relu_5x5 -> inception_5a/5x5 (in-place)
I0704 17:48:47.886003 25106 net.cpp:120] Setting up inception_5a/relu_5x5
I0704 17:48:47.886112 25106 net.cpp:127] Top shape: 30 128 7 7 (188160)
I0704 17:48:47.886121 25106 layer_factory.hpp:74] Creating layer inception_5a/pool
I0704 17:48:47.886126 25106 layer_factory.cpp:55] CUDNN does not support padding or multiple tops. Using Caffe's own pooling layer.
I0704 17:48:47.886132 25106 net.cpp:90] Creating Layer inception_5a/pool
I0704 17:48:47.886137 25106 net.cpp:410] inception_5a/pool <- pool4/3x3_s2_pool4/3x3_s2_0_split_3
I0704 17:48:47.886143 25106 net.cpp:368] inception_5a/pool -> inception_5a/pool
I0704 17:48:47.886149 25106 net.cpp:120] Setting up inception_5a/pool
I0704 17:48:47.886157 25106 net.cpp:127] Top shape: 30 832 7 7 (1223040)
I0704 17:48:47.886162 25106 layer_factory.hpp:74] Creating layer inception_5a/pool_proj
I0704 17:48:47.886168 25106 net.cpp:90] Creating Layer inception_5a/pool_proj
I0704 17:48:47.886171 25106 net.cpp:410] inception_5a/pool_proj <- inception_5a/pool
I0704 17:48:47.886179 25106 net.cpp:368] inception_5a/pool_proj -> inception_5a/pool_proj
I0704 17:48:47.886188 25106 net.cpp:120] Setting up inception_5a/pool_proj
I0704 17:48:47.886909 25106 net.cpp:127] Top shape: 30 128 7 7 (188160)
I0704 17:48:47.886919 25106 layer_factory.hpp:74] Creating layer inception_5a/relu_pool_proj
I0704 17:48:47.886925 25106 net.cpp:90] Creating Layer inception_5a/relu_pool_proj
I0704 17:48:47.886930 25106 net.cpp:410] inception_5a/relu_pool_proj <- inception_5a/pool_proj
I0704 17:48:47.886935 25106 net.cpp:357] inception_5a/relu_pool_proj -> inception_5a/pool_proj (in-place)
I0704 17:48:47.886942 25106 net.cpp:120] Setting up inception_5a/relu_pool_proj
I0704 17:48:47.886983 25106 net.cpp:127] Top shape: 30 128 7 7 (188160)
I0704 17:48:47.886988 25106 layer_factory.hpp:74] Creating layer inception_5a/output
I0704 17:48:47.886994 25106 net.cpp:90] Creating Layer inception_5a/output
I0704 17:48:47.886999 25106 net.cpp:410] inception_5a/output <- inception_5a/1x1
I0704 17:48:47.887004 25106 net.cpp:410] inception_5a/output <- inception_5a/3x3
I0704 17:48:47.887009 25106 net.cpp:410] inception_5a/output <- inception_5a/5x5
I0704 17:48:47.887014 25106 net.cpp:410] inception_5a/output <- inception_5a/pool_proj
I0704 17:48:47.887019 25106 net.cpp:368] inception_5a/output -> inception_5a/output
I0704 17:48:47.887025 25106 net.cpp:120] Setting up inception_5a/output
I0704 17:48:47.887032 25106 net.cpp:127] Top shape: 30 832 7 7 (1223040)
I0704 17:48:47.887035 25106 layer_factory.hpp:74] Creating layer inception_5a/output_inception_5a/output_0_split
I0704 17:48:47.887048 25106 net.cpp:90] Creating Layer inception_5a/output_inception_5a/output_0_split
I0704 17:48:47.887053 25106 net.cpp:410] inception_5a/output_inception_5a/output_0_split <- inception_5a/output
I0704 17:48:47.887059 25106 net.cpp:368] inception_5a/output_inception_5a/output_0_split -> inception_5a/output_inception_5a/output_0_split_0
I0704 17:48:47.887066 25106 net.cpp:368] inception_5a/output_inception_5a/output_0_split -> inception_5a/output_inception_5a/output_0_split_1
I0704 17:48:47.887073 25106 net.cpp:368] inception_5a/output_inception_5a/output_0_split -> inception_5a/output_inception_5a/output_0_split_2
I0704 17:48:47.887079 25106 net.cpp:368] inception_5a/output_inception_5a/output_0_split -> inception_5a/output_inception_5a/output_0_split_3
I0704 17:48:47.887084 25106 net.cpp:120] Setting up inception_5a/output_inception_5a/output_0_split
I0704 17:48:47.887092 25106 net.cpp:127] Top shape: 30 832 7 7 (1223040)
I0704 17:48:47.887097 25106 net.cpp:127] Top shape: 30 832 7 7 (1223040)
I0704 17:48:47.887101 25106 net.cpp:127] Top shape: 30 832 7 7 (1223040)
I0704 17:48:47.887105 25106 net.cpp:127] Top shape: 30 832 7 7 (1223040)
I0704 17:48:47.887110 25106 layer_factory.hpp:74] Creating layer inception_5b/1x1
I0704 17:48:47.887116 25106 net.cpp:90] Creating Layer inception_5b/1x1
I0704 17:48:47.887120 25106 net.cpp:410] inception_5b/1x1 <- inception_5a/output_inception_5a/output_0_split_0
I0704 17:48:47.887127 25106 net.cpp:368] inception_5b/1x1 -> inception_5b/1x1
I0704 17:48:47.887133 25106 net.cpp:120] Setting up inception_5b/1x1
I0704 17:48:47.888895 25106 net.cpp:127] Top shape: 30 384 7 7 (564480)
I0704 17:48:47.888907 25106 layer_factory.hpp:74] Creating layer inception_5b/relu_1x1
I0704 17:48:47.888913 25106 net.cpp:90] Creating Layer inception_5b/relu_1x1
I0704 17:48:47.888918 25106 net.cpp:410] inception_5b/relu_1x1 <- inception_5b/1x1
I0704 17:48:47.888923 25106 net.cpp:357] inception_5b/relu_1x1 -> inception_5b/1x1 (in-place)
I0704 17:48:47.888929 25106 net.cpp:120] Setting up inception_5b/relu_1x1
I0704 17:48:47.888972 25106 net.cpp:127] Top shape: 30 384 7 7 (564480)
I0704 17:48:47.888978 25106 layer_factory.hpp:74] Creating layer inception_5b/3x3_reduce
I0704 17:48:47.888983 25106 net.cpp:90] Creating Layer inception_5b/3x3_reduce
I0704 17:48:47.888988 25106 net.cpp:410] inception_5b/3x3_reduce <- inception_5a/output_inception_5a/output_0_split_1
I0704 17:48:47.888995 25106 net.cpp:368] inception_5b/3x3_reduce -> inception_5b/3x3_reduce
I0704 17:48:47.889003 25106 net.cpp:120] Setting up inception_5b/3x3_reduce
I0704 17:48:47.889979 25106 net.cpp:127] Top shape: 30 192 7 7 (282240)
I0704 17:48:47.889991 25106 layer_factory.hpp:74] Creating layer inception_5b/relu_3x3_reduce
I0704 17:48:47.889997 25106 net.cpp:90] Creating Layer inception_5b/relu_3x3_reduce
I0704 17:48:47.890002 25106 net.cpp:410] inception_5b/relu_3x3_reduce <- inception_5b/3x3_reduce
I0704 17:48:47.890008 25106 net.cpp:357] inception_5b/relu_3x3_reduce -> inception_5b/3x3_reduce (in-place)
I0704 17:48:47.890014 25106 net.cpp:120] Setting up inception_5b/relu_3x3_reduce
I0704 17:48:47.890055 25106 net.cpp:127] Top shape: 30 192 7 7 (282240)
I0704 17:48:47.890060 25106 layer_factory.hpp:74] Creating layer inception_5b/3x3
I0704 17:48:47.890068 25106 net.cpp:90] Creating Layer inception_5b/3x3
I0704 17:48:47.890072 25106 net.cpp:410] inception_5b/3x3 <- inception_5b/3x3_reduce
I0704 17:48:47.890079 25106 net.cpp:368] inception_5b/3x3 -> inception_5b/3x3
I0704 17:48:47.890095 25106 net.cpp:120] Setting up inception_5b/3x3
I0704 17:48:47.893517 25106 net.cpp:127] Top shape: 30 384 7 7 (564480)
I0704 17:48:47.893529 25106 layer_factory.hpp:74] Creating layer inception_5b/relu_3x3
I0704 17:48:47.893535 25106 net.cpp:90] Creating Layer inception_5b/relu_3x3
I0704 17:48:47.893540 25106 net.cpp:410] inception_5b/relu_3x3 <- inception_5b/3x3
I0704 17:48:47.893546 25106 net.cpp:357] inception_5b/relu_3x3 -> inception_5b/3x3 (in-place)
I0704 17:48:47.893563 25106 net.cpp:120] Setting up inception_5b/relu_3x3
I0704 17:48:47.893674 25106 net.cpp:127] Top shape: 30 384 7 7 (564480)
I0704 17:48:47.893682 25106 layer_factory.hpp:74] Creating layer inception_5b/5x5_reduce
I0704 17:48:47.893690 25106 net.cpp:90] Creating Layer inception_5b/5x5_reduce
I0704 17:48:47.893695 25106 net.cpp:410] inception_5b/5x5_reduce <- inception_5a/output_inception_5a/output_0_split_2
I0704 17:48:47.893702 25106 net.cpp:368] inception_5b/5x5_reduce -> inception_5b/5x5_reduce
I0704 17:48:47.893709 25106 net.cpp:120] Setting up inception_5b/5x5_reduce
I0704 17:48:47.894110 25106 net.cpp:127] Top shape: 30 48 7 7 (70560)
I0704 17:48:47.894121 25106 layer_factory.hpp:74] Creating layer inception_5b/relu_5x5_reduce
I0704 17:48:47.894127 25106 net.cpp:90] Creating Layer inception_5b/relu_5x5_reduce
I0704 17:48:47.894132 25106 net.cpp:410] inception_5b/relu_5x5_reduce <- inception_5b/5x5_reduce
I0704 17:48:47.894139 25106 net.cpp:357] inception_5b/relu_5x5_reduce -> inception_5b/5x5_reduce (in-place)
I0704 17:48:47.894145 25106 net.cpp:120] Setting up inception_5b/relu_5x5_reduce
I0704 17:48:47.894187 25106 net.cpp:127] Top shape: 30 48 7 7 (70560)
I0704 17:48:47.894192 25106 layer_factory.hpp:74] Creating layer inception_5b/5x5
I0704 17:48:47.894201 25106 net.cpp:90] Creating Layer inception_5b/5x5
I0704 17:48:47.894206 25106 net.cpp:410] inception_5b/5x5 <- inception_5b/5x5_reduce
I0704 17:48:47.894211 25106 net.cpp:368] inception_5b/5x5 -> inception_5b/5x5
I0704 17:48:47.894217 25106 net.cpp:120] Setting up inception_5b/5x5
I0704 17:48:47.895164 25106 net.cpp:127] Top shape: 30 128 7 7 (188160)
I0704 17:48:47.895175 25106 layer_factory.hpp:74] Creating layer inception_5b/relu_5x5
I0704 17:48:47.895181 25106 net.cpp:90] Creating Layer inception_5b/relu_5x5
I0704 17:48:47.895186 25106 net.cpp:410] inception_5b/relu_5x5 <- inception_5b/5x5
I0704 17:48:47.895192 25106 net.cpp:357] inception_5b/relu_5x5 -> inception_5b/5x5 (in-place)
I0704 17:48:47.895198 25106 net.cpp:120] Setting up inception_5b/relu_5x5
I0704 17:48:47.895239 25106 net.cpp:127] Top shape: 30 128 7 7 (188160)
I0704 17:48:47.895246 25106 layer_factory.hpp:74] Creating layer inception_5b/pool
I0704 17:48:47.895251 25106 layer_factory.cpp:55] CUDNN does not support padding or multiple tops. Using Caffe's own pooling layer.
I0704 17:48:47.895256 25106 net.cpp:90] Creating Layer inception_5b/pool
I0704 17:48:47.895261 25106 net.cpp:410] inception_5b/pool <- inception_5a/output_inception_5a/output_0_split_3
I0704 17:48:47.895267 25106 net.cpp:368] inception_5b/pool -> inception_5b/pool
I0704 17:48:47.895273 25106 net.cpp:120] Setting up inception_5b/pool
I0704 17:48:47.895280 25106 net.cpp:127] Top shape: 30 832 7 7 (1223040)
I0704 17:48:47.895285 25106 layer_factory.hpp:74] Creating layer inception_5b/pool_proj
I0704 17:48:47.895292 25106 net.cpp:90] Creating Layer inception_5b/pool_proj
I0704 17:48:47.895297 25106 net.cpp:410] inception_5b/pool_proj <- inception_5b/pool
I0704 17:48:47.895303 25106 net.cpp:368] inception_5b/pool_proj -> inception_5b/pool_proj
I0704 17:48:47.895313 25106 net.cpp:120] Setting up inception_5b/pool_proj
I0704 17:48:47.896035 25106 net.cpp:127] Top shape: 30 128 7 7 (188160)
I0704 17:48:47.896046 25106 layer_factory.hpp:74] Creating layer inception_5b/relu_pool_proj
I0704 17:48:47.896052 25106 net.cpp:90] Creating Layer inception_5b/relu_pool_proj
I0704 17:48:47.896057 25106 net.cpp:410] inception_5b/relu_pool_proj <- inception_5b/pool_proj
I0704 17:48:47.896062 25106 net.cpp:357] inception_5b/relu_pool_proj -> inception_5b/pool_proj (in-place)
I0704 17:48:47.896070 25106 net.cpp:120] Setting up inception_5b/relu_pool_proj
I0704 17:48:47.896178 25106 net.cpp:127] Top shape: 30 128 7 7 (188160)
I0704 17:48:47.896188 25106 layer_factory.hpp:74] Creating layer inception_5b/output
I0704 17:48:47.896194 25106 net.cpp:90] Creating Layer inception_5b/output
I0704 17:48:47.896198 25106 net.cpp:410] inception_5b/output <- inception_5b/1x1
I0704 17:48:47.896204 25106 net.cpp:410] inception_5b/output <- inception_5b/3x3
I0704 17:48:47.896216 25106 net.cpp:410] inception_5b/output <- inception_5b/5x5
I0704 17:48:47.896221 25106 net.cpp:410] inception_5b/output <- inception_5b/pool_proj
I0704 17:48:47.896227 25106 net.cpp:368] inception_5b/output -> inception_5b/output
I0704 17:48:47.896234 25106 net.cpp:120] Setting up inception_5b/output
I0704 17:48:47.896240 25106 net.cpp:127] Top shape: 30 1024 7 7 (1505280)
I0704 17:48:47.896245 25106 layer_factory.hpp:74] Creating layer pool5/7x7_s1
I0704 17:48:47.896251 25106 net.cpp:90] Creating Layer pool5/7x7_s1
I0704 17:48:47.896256 25106 net.cpp:410] pool5/7x7_s1 <- inception_5b/output
I0704 17:48:47.896262 25106 net.cpp:368] pool5/7x7_s1 -> pool5/7x7_s1
I0704 17:48:47.896268 25106 net.cpp:120] Setting up pool5/7x7_s1
I0704 17:48:47.896311 25106 net.cpp:127] Top shape: 30 1024 1 1 (30720)
I0704 17:48:47.896317 25106 layer_factory.hpp:74] Creating layer pool5/drop_7x7_s1
I0704 17:48:47.896323 25106 net.cpp:90] Creating Layer pool5/drop_7x7_s1
I0704 17:48:47.896328 25106 net.cpp:410] pool5/drop_7x7_s1 <- pool5/7x7_s1
I0704 17:48:47.896334 25106 net.cpp:357] pool5/drop_7x7_s1 -> pool5/7x7_s1 (in-place)
I0704 17:48:47.896340 25106 net.cpp:120] Setting up pool5/drop_7x7_s1
I0704 17:48:47.896347 25106 net.cpp:127] Top shape: 30 1024 1 1 (30720)
I0704 17:48:47.896350 25106 layer_factory.hpp:74] Creating layer stanford_cars_loss3/classifier
I0704 17:48:47.896358 25106 net.cpp:90] Creating Layer stanford_cars_loss3/classifier
I0704 17:48:47.896363 25106 net.cpp:410] stanford_cars_loss3/classifier <- pool5/7x7_s1
I0704 17:48:47.896368 25106 net.cpp:368] stanford_cars_loss3/classifier -> stanford_cars_loss3/classifier
I0704 17:48:47.896375 25106 net.cpp:120] Setting up stanford_cars_loss3/classifier
I0704 17:48:47.897356 25106 net.cpp:127] Top shape: 30 196 (5880)
I0704 17:48:47.897363 25106 layer_factory.hpp:74] Creating layer loss3/loss3
I0704 17:48:47.897371 25106 net.cpp:90] Creating Layer loss3/loss3
I0704 17:48:47.897375 25106 net.cpp:410] loss3/loss3 <- stanford_cars_loss3/classifier
I0704 17:48:47.897380 25106 net.cpp:410] loss3/loss3 <- label_data_1_split_2
I0704 17:48:47.897387 25106 net.cpp:368] loss3/loss3 -> loss3/loss3
I0704 17:48:47.897393 25106 net.cpp:120] Setting up loss3/loss3
…
I0704 17:48:47.901350 25106 net.cpp:287] The NetState phase (1) differed from the phase (0) specified by a rule in layer data
I0704 17:48:47.902452 25106 net.cpp:42] Initializing net from parameters: 
name: "GoogleNet"
state {
  phase: TEST
}
layer {
  name: "data"
  type: "Data"
  top: "data"
  top: "label"
  include {
    phase: TEST
  }
  transform_param {
    mirror: false
    crop_size: 224
    mean_value: 104
    mean_value: 117
    mean_value: 123
  }
  data_param {
    source: "examples/stanford_cars/stanford_cars_val_lmdb"
    batch_size: 10
    backend: LMDB
  }
}
layer {
  name: "conv1/7x7_s2"
  type: "Convolution"
  bottom: "data"
  top: "conv1/7x7_s2"
  param {
    lr_mult: 1
    decay_mult: 1
  }
  param {
    lr_mult: 2
    decay_mult: 0
  }
  convolution_param {
    num_output: 64
    pad: 3
    kernel_size: 7
    stride: 2
    weight_filler {
      type: "xavier"
      std: 0.1
    }
    bias_filler {
      type: "constant"
      value: 0.2
    }
  }
}
layer {
  name: "conv1/relu_7x7"
  type: "ReLU"
  bottom: "conv1/7x7_s2"
  top: "conv1/7x7_s2"
}
layer {
  name: "pool1/3x3_s2"
  type: "Pooling"
  bottom: "conv1/7x7_s2"
  top: "pool1/3x3_s2"
  pooling_param {
    pool: MAX
    kernel_size: 3
    stride: 2
  }
}
layer {
  name: "pool1/norm1"
  type: "LRN"
  bottom: "pool1/3x3_s2"
  top: "pool1/norm1"
  lrn_param {
    local_size: 5
    alpha: 0.0001
    beta: 0.75
  }
}
layer {
  name: "conv2/3x3_reduce"
  type: "Convolution"
  bottom: "pool1/norm1"
  top: "conv2/3x3_reduce"
  param {
    lr_mult: 1
    decay_mult: 1
  }
  param {
    lr_mult: 2
    decay_mult: 0
  }
  convolution_param {
    num_output: 64
    kernel_size: 1
    weight_filler {
      type: "xavier"
      std: 0.1
    }
    bias_filler {
      type: "constant"
      value: 0.2
    }
  }
}
layer {
  name: "conv2/relu_3x3_reduce"
  type: "ReLU"
  bottom: "conv2/3x3_reduce"
  top: "conv2/3x3_reduce"
}
layer {
  name: "conv2/3x3"
  type: "Convolution"
  bottom: "conv2/3x3_reduce"
  top: "conv2/3x3"
  param {
    lr_mult: 1
    decay_mult: 1
  }
  param {
    lr_mult: 2
    decay_mult: 0
  }
  convolution_param {
    num_output: 192
    pad: 1
    kernel_size: 3
    weight_filler {
      type: "xavier"
      std: 0.03
    }
    bias_filler {
      type: "constant"
      value: 0.2
    }
  }
}
layer {
  name: "conv2/relu_3x3"
  type: "ReLU"
  bottom: "conv2/3x3"
  top: "conv2/3x3"
}
layer {
  name: "conv2/norm2"
  type: "LRN"
  bottom: "conv2/3x3"
  top: "conv2/norm2"
  lrn_param {
    local_size: 5
    alpha: 0.0001
    beta: 0.75
  }
}
layer {
  name: "pool2/3x3_s2"
  type: "Pooling"
  bottom: "conv2/norm2"
  top: "pool2/3x3_s2"
  pooling_param {
    pool: MAX
    kernel_size: 3
    stride: 2
  }
}
layer {
  name: "inception_3a/1x1"
  type: "Convolution"
  bottom: "pool2/3x3_s2"
  top: "inception_3a/1x1"
  param {
    lr_mult: 1
    decay_mult: 1
  }
  param {
    lr_mult: 2
    decay_mult: 0
  }
  convolution_param {
    num_output: 64
    kernel_size: 1
    weight_filler {
      type: "xavier"
      std: 0.03
    }
    bias_filler {
      type: "constant"
      value: 0.2
    }
  }
}
layer {
  name: "inception_3a/relu_1x1"
  type: "ReLU"
  bottom: "inception_3a/1x1"
  top: "inception_3a/1x1"
}
layer {
  name: "inception_3a/3x3_reduce"
  type: "Convolution"
  bottom: "pool2/3x3_s2"
  top: "inception_3a/3x3_reduce"
  param {
    lr_mult: 1
    decay_mult: 1
  }
  param {
    lr_mult: 2
    decay_mult: 0
  }
  convolution_param {
    num_output: 96
    kernel_size: 1
    weight_filler {
      type: "xavier"
      std: 0.09
    }
    bias_filler {
      type: "constant"
      value: 0.2
    }
  }
}
layer {
  name: "inception_3a/relu_3x3_reduce"
  type: "ReLU"
  bottom: "inception_3a/3x3_reduce"
  top: "inception_3a/3x3_reduce"
}
layer {
  name: "inception_3a/3x3"
  type: "Convolution"
  bottom: "inception_3a/3x3_reduce"
  top: "inception_3a/3x3"
  param {
    lr_mult: 1
    decay_mult: 1
  }
  param {
    lr_mult: 2
    decay_mult: 0
  }
  convolution_param {
    num_output: 128
    pad: 1
    kernel_size: 3
    weight_filler {
      type: "xavier"
      std: 0.03
    }
    bias_filler {
      type: "constant"
      value: 0.2
    }
  }
}
layer {
  name: "inception_3a/relu_3x3"
  type: "ReLU"
  bottom: "inception_3a/3x3"
  top: "inception_3a/3x3"
}
layer {
  name: "inception_3a/5x5_reduce"
  type: "Convolution"
  bottom: "pool2/3x3_s2"
  top: "inception_3a/5x5_reduce"
  param {
    lr_mult: 1
    decay_mult: 1
  }
  param {
    lr_mult: 2
    decay_mult: 0
  }
  convolution_param {
    num_output: 16
    kernel_size: 1
    weight_filler {
      type: "xavier"
      std: 0.2
    }
    bias_filler {
      type: "constant"
      value: 0.2
    }
  }
}
layer {
  name: "inception_3a/relu_5x5_reduce"
  type: "ReLU"
  bottom: "inception_3a/5x5_reduce"
  top: "inception_3a/5x5_reduce"
}
layer {
  name: "inception_3a/5x5"
  type: "Convolution"
  bottom: "inception_3a/5x5_reduce"
  top: "inception_3a/5x5"
  param {
    lr_mult: 1
    decay_mult: 1
  }
  param {
    lr_mult: 2
    decay_mult: 0
  }
  convolution_param {
    num_output: 32
    pad: 2
    kernel_size: 5
    weight_filler {
      type: "xavier"
      std: 0.03
    }
    bias_filler {
      type: "constant"
      value: 0.2
    }
  }
}
layer {
  name: "inception_3a/relu_5x5"
  type: "ReLU"
  bottom: "inception_3a/5x5"
  top: "inception_3a/5x5"
}
layer {
  name: "inception_3a/pool"
  type: "Pooling"
  bottom: "pool2/3x3_s2"
  top: "inception_3a/pool"
  pooling_param {
    pool: MAX
    kernel_size: 3
    stride: 1
    pad: 1
  }
}
layer {
  name: "inception_3a/pool_proj"
  type: "Convolution"
  bottom: "inception_3a/pool"
  top: "inception_3a/pool_proj"
  param {
    lr_mult: 1
    decay_mult: 1
  }
  param {
    lr_mult: 2
    decay_mult: 0
  }
  convolution_param {
    num_output: 32
    kernel_size: 1
    weight_filler {
      type: "xavier"
      std: 0.1
    }
    bias_filler {
      type: "constant"
      value: 0.2
    }
  }
}
layer {
  name: "inception_3a/relu_pool_proj"
  type: "ReLU"
  bottom: "inception_3a/pool_proj"
  top: "inception_3a/pool_proj"
}
layer {
  name: "inception_3a/output"
  type: "Concat"
  bottom: "inception_3a/1x1"
  bottom: "inception_3a/3x3"
  bottom: "inception_3a/5x5"
  bottom: "inception_3a/pool_proj"
  top: "inception_3a/output"
}
layer {
  name: "inception_3b/1x1"
  type: "Convolution"
  bottom: "inception_3a/output"
  top: "inception_3b/1x1"
  param {
    lr_mult: 1
    decay_mult: 1
  }
  param {
    lr_mult: 2
    decay_mult: 0
  }
  convolution_param {
    num_output: 128
    kernel_size: 1
    weight_filler {
      type: "xavier"
      std: 0.03
    }
    bias_filler {
      type: "constant"
      value: 0.2
    }
  }
}
layer {
  name: "inception_3b/relu_1x1"
  type: "ReLU"
  bottom: "inception_3b/1x1"
  top: "inception_3b/1x1"
}
layer {
  name: "inception_3b/3x3_reduce"
  type: "Convolution"
  bottom: "inception_3a/output"
  top: "inception_3b/3x3_reduce"
  param {
    lr_mult: 1
    decay_mult: 1
  }
  param {
    lr_mult: 2
    decay_mult: 0
  }
  convolution_param {
    num_output: 128
    kernel_size: 1
    weight_filler {
      type: "xavier"
      std: 0.09
    }
    bias_filler {
      type: "constant"
      value: 0.2
    }
  }
}
layer {
  name: "inception_3b/relu_3x3_reduce"
  type: "ReLU"
  bottom: "inception_3b/3x3_reduce"
  top: "inception_3b/3x3_reduce"
}
layer {
  name: "inception_3b/3x3"
  type: "Convolution"
  bottom: "inception_3b/3x3_reduce"
  top: "inception_3b/3x3"
  param {
    lr_mult: 1
    decay_mult: 1
  }
  param {
    lr_mult: 2
    decay_mult: 0
  }
  convolution_param {
    num_output: 192
    pad: 1
    kernel_size: 3
    weight_filler {
      type: "xavier"
      std: 0.03
    }
    bias_filler {
      type: "constant"
      value: 0.2
    }
  }
}
layer {
  name: "inception_3b/relu_3x3"
  type: "ReLU"
  bottom: "inception_3b/3x3"
  top: "inception_3b/3x3"
}
layer {
  name: "inception_3b/5x5_reduce"
  type: "Convolution"
  bottom: "inception_3a/output"
  top: "inception_3b/5x5_reduce"
  param {
    lr_mult: 1
    decay_mult: 1
  }
  param {
    lr_mult: 2
    decay_mult: 0
  }
  convolution_param {
    num_output: 32
    kernel_size: 1
    weight_filler {
      type: "xavier"
      std: 0.2
    }
    bias_filler {
      type: "constant"
      value: 0.2
    }
  }
}
layer {
  name: "inception_3b/relu_5x5_reduce"
  type: "ReLU"
  bottom: "inception_3b/5x5_reduce"
  top: "inception_3b/5x5_reduce"
}
layer {
  name: "inception_3b/5x5"
  type: "Convolution"
  bottom: "inception_3b/5x5_reduce"
  top: "inception_3b/5x5"
  param {
    lr_mult: 1
    decay_mult: 1
  }
  param {
    lr_mult: 2
    decay_mult: 0
  }
  convolution_param {
    num_output: 96
    pad: 2
    kernel_size: 5
    weight_filler {
      type: "xavier"
      std: 0.03
    }
    bias_filler {
      type: "constant"
      value: 0.2
    }
  }
}
layer {
  name: "inception_3b/relu_5x5"
  type: "ReLU"
  bottom: "inception_3b/5x5"
  top: "inception_3b/5x5"
}
layer {
  name: "inception_3b/pool"
  type: "Pooling"
  bottom: "inception_3a/output"
  top: "inception_3b/pool"
  pooling_param {
    pool: MAX
    kernel_size: 3
    stride: 1
    pad: 1
  }
}
layer {
  name: "inception_3b/pool_proj"
  type: "Convolution"
  bottom: "inception_3b/pool"
  top: "inception_3b/pool_proj"
  param {
    lr_mult: 1
    decay_mult: 1
  }
  param {
    lr_mult: 2
    decay_mult: 0
  }
  convolution_param {
    num_output: 64
    kernel_size: 1
    weight_filler {
      type: "xavier"
      std: 0.1
    }
    bias_filler {
      type: "constant"
      value: 0.2
    }
  }
}
layer {
  name: "inception_3b/relu_pool_proj"
  type: "ReLU"
  bottom: "inception_3b/pool_proj"
  top: "inception_3b/pool_proj"
}
layer {
  name: "inception_3b/output"
  type: "Concat"
  bottom: "inception_3b/1x1"
  bottom: "inception_3b/3x3"
  bottom: "inception_3b/5x5"
  bottom: "inception_3b/pool_proj"
  top: "inception_3b/output"
}
layer {
  name: "pool3/3x3_s2"
  type: "Pooling"
  bottom: "inception_3b/output"
  top: "pool3/3x3_s2"
  pooling_param {
    pool: MAX
    kernel_size: 3
    stride: 2
  }
}
layer {
  name: "inception_4a/1x1"
  type: "Convolution"
  bottom: "pool3/3x3_s2"
  top: "inception_4a/1x1"
  param {
    lr_mult: 1
    decay_mult: 1
  }
  param {
    lr_mult: 2
    decay_mult: 0
  }
  convolution_param {
    num_output: 192
    kernel_size: 1
    weight_filler {
      type: "xavier"
      std: 0.03
    }
    bias_filler {
      type: "constant"
      value: 0.2
    }
  }
}
layer {
  name: "inception_4a/relu_1x1"
  type: "ReLU"
  bottom: "inception_4a/1x1"
  top: "inception_4a/1x1"
}
layer {
  name: "inception_4a/3x3_reduce"
  type: "Convolution"
  bottom: "pool3/3x3_s2"
  top: "inception_4a/3x3_reduce"
  param {
    lr_mult: 1
    decay_mult: 1
  }
  param {
    lr_mult: 2
    decay_mult: 0
  }
  convolution_param {
    num_output: 96
    kernel_size: 1
    weight_filler {
      type: "xavier"
      std: 0.09
    }
    bias_filler {
      type: "constant"
      value: 0.2
    }
  }
}
layer {
  name: "inception_4a/relu_3x3_reduce"
  type: "ReLU"
  bottom: "inception_4a/3x3_reduce"
  top: "inception_4a/3x3_reduce"
}
layer {
  name: "inception_4a/3x3"
  type: "Convolution"
  bottom: "inception_4a/3x3_reduce"
  top: "inception_4a/3x3"
  param {
    lr_mult: 1
    decay_mult: 1
  }
  param {
    lr_mult: 2
    decay_mult: 0
  }
  convolution_param {
    num_output: 208
    pad: 1
    kernel_size: 3
    weight_filler {
      type: "xavier"
      std: 0.03
    }
    bias_filler {
      type: "constant"
      value: 0.2
    }
  }
}
layer {
  name: "inception_4a/relu_3x3"
  type: "ReLU"
  bottom: "inception_4a/3x3"
  top: "inception_4a/3x3"
}
layer {
  name: "inception_4a/5x5_reduce"
  type: "Convolution"
  bottom: "pool3/3x3_s2"
  top: "inception_4a/5x5_reduce"
  param {
    lr_mult: 1
    decay_mult: 1
  }
  param {
    lr_mult: 2
    decay_mult: 0
  }
  convolution_param {
    num_output: 16
    kernel_size: 1
    weight_filler {
      type: "xavier"
      std: 0.2
    }
    bias_filler {
      type: "constant"
      value: 0.2
    }
  }
}
layer {
  name: "inception_4a/relu_5x5_reduce"
  type: "ReLU"
  bottom: "inception_4a/5x5_reduce"
  top: "inception_4a/5x5_reduce"
}
layer {
  name: "inception_4a/5x5"
  type: "Convolution"
  bottom: "inception_4a/5x5_reduce"
  top: "inception_4a/5x5"
  param {
    lr_mult: 1
    decay_mult: 1
  }
  param {
    lr_mult: 2
    decay_mult: 0
  }
  convolution_param {
    num_output: 48
    pad: 2
    kernel_size: 5
    weight_filler {
      type: "xavier"
      std: 0.03
    }
    bias_filler {
      type: "constant"
      value: 0.2
    }
  }
}
layer {
  name: "inception_4a/relu_5x5"
  type: "ReLU"
  bottom: "inception_4a/5x5"
  top: "inception_4a/5x5"
}
layer {
  name: "inception_4a/pool"
  type: "Pooling"
  bottom: "pool3/3x3_s2"
  top: "inception_4a/pool"
  pooling_param {
    pool: MAX
    kernel_size: 3
    stride: 1
    pad: 1
  }
}
layer {
  name: "inception_4a/pool_proj"
  type: "Convolution"
  bottom: "inception_4a/pool"
  top: "inception_4a/pool_proj"
  param {
    lr_mult: 1
    decay_mult: 1
  }
  param {
    lr_mult: 2
    decay_mult: 0
  }
  convolution_param {
    num_output: 64
    kernel_size: 1
    weight_filler {
      type: "xavier"
      std: 0.1
    }
    bias_filler {
      type: "constant"
      value: 0.2
    }
  }
}
layer {
  name: "inception_4a/relu_pool_proj"
  type: "ReLU"
  bottom: "inception_4a/pool_proj"
  top: "inception_4a/pool_proj"
}
layer {
  name: "inception_4a/output"
  type: "Concat"
  bottom: "inception_4a/1x1"
  bottom: "inception_4a/3x3"
  bottom: "inception_4a/5x5"
  bottom: "inception_4a/pool_proj"
  top: "inception_4a/output"
}
layer {
  name: "loss1/ave_pool"
  type: "Pooling"
  bottom: "inception_4a/output"
  top: "loss1/ave_pool"
  pooling_param {
    pool: AVE
    kernel_size: 5
    stride: 3
  }
}
layer {
  name: "loss1/conv"
  type: "Convolution"
  bottom: "loss1/ave_pool"
  top: "loss1/conv"
  param {
    lr_mult: 1
    decay_mult: 1
  }
  param {
    lr_mult: 2
    decay_mult: 0
  }
  convolution_param {
    num_output: 128
    kernel_size: 1
    weight_filler {
      type: "xavier"
      std: 0.08
    }
    bias_filler {
      type: "constant"
      value: 0.2
    }
  }
}
layer {
  name: "loss1/relu_conv"
  type: "ReLU"
  bottom: "loss1/conv"
  top: "loss1/conv"
}
layer {
  name: "loss1/fc"
  type: "InnerProduct"
  bottom: "loss1/conv"
  top: "loss1/fc"
  param {
    lr_mult: 1
    decay_mult: 1
  }
  param {
    lr_mult: 2
    decay_mult: 0
  }
  inner_product_param {
    num_output: 1024
    weight_filler {
      type: "xavier"
      std: 0.02
    }
    bias_filler {
      type: "constant"
      value: 0.2
    }
  }
}
layer {
  name: "loss1/relu_fc"
  type: "ReLU"
  bottom: "loss1/fc"
  top: "loss1/fc"
}
layer {
  name: "loss1/drop_fc"
  type: "Dropout"
  bottom: "loss1/fc"
  top: "loss1/fc"
  dropout_param {
    dropout_ratio: 0.2
  }
}
layer {
  name: "stanford_cars_loss1/classifier"
  type: "InnerProduct"
  bottom: "loss1/fc"
  top: "stanford_cars_loss1/classifier"
  param {
    lr_mult: 1
    decay_mult: 1
  }
  param {
    lr_mult: 2
    decay_mult: 0
  }
  inner_product_param {
    num_output: 196
    weight_filler {
      type: "xavier"
      std: 0.0009765625
    }
    bias_filler {
      type: "constant"
      value: 0
    }
  }
}
layer {
  name: "loss1/loss"
  type: "SoftmaxWithLoss"
  bottom: "stanford_cars_loss1/classifier"
  bottom: "label"
  top: "loss1/loss1"
  loss_weight: 0.3
}
layer {
  name: "loss1/top-1"
  type: "Accuracy"
  bottom: "stanford_cars_loss1/classifier"
  bottom: "label"
  top: "loss1/top-1"
  include {
    phase: TEST
  }
}
layer {
  name: "loss1/top-5"
  type: "Accuracy"
  bottom: "stanford_cars_loss1/classifier"
  bottom: "label"
  top: "loss1/top-5"
  include {
    phase: TEST
  }
  accuracy_param {
    top_k: 5
  }
}
layer {
  name: "inception_4b/1x1"
  type: "Convolution"
  bottom: "inception_4a/output"
  top: "inception_4b/1x1"
  param {
    lr_mult: 1
    decay_mult: 1
  }
  param {
    lr_mult: 2
    decay_mult: 0
  }
  convolution_param {
    num_output: 160
    kernel_size: 1
    weight_filler {
      type: "xavier"
      std: 0.03
    }
    bias_filler {
      type: "constant"
      value: 0.2
    }
  }
}
layer {
  name: "inception_4b/relu_1x1"
  type: "ReLU"
  bottom: "inception_4b/1x1"
  top: "inception_4b/1x1"
}
layer {
  name: "inception_4b/3x3_reduce"
  type: "Convolution"
  bottom: "inception_4a/output"
  top: "inception_4b/3x3_reduce"
  param {
    lr_mult: 1
    decay_mult: 1
  }
  param {
    lr_mult: 2
    decay_mult: 0
  }
  convolution_param {
    num_output: 112
    kernel_size: 1
    weight_filler {
      type: "xavier"
      std: 0.09
    }
    bias_filler {
      type: "constant"
      value: 0.2
    }
  }
}
layer {
  name: "inception_4b/relu_3x3_reduce"
  type: "ReLU"
  bottom: "inception_4b/3x3_reduce"
  top: "inception_4b/3x3_reduce"
}
layer {
  name: "inception_4b/3x3"
  type: "Convolution"
  bottom: "inception_4b/3x3_reduce"
  top: "inception_4b/3x3"
  param {
    lr_mult: 1
    decay_mult: 1
  }
  param {
    lr_mult: 2
    decay_mult: 0
  }
  convolution_param {
    num_output: 224
    pad: 1
    kernel_size: 3
    weight_filler {
      type: "xavier"
      std: 0.03
    }
    bias_filler {
      type: "constant"
      value: 0.2
    }
  }
}
layer {
  name: "inception_4b/relu_3x3"
  type: "ReLU"
  bottom: "inception_4b/3x3"
  top: "inception_4b/3x3"
}
layer {
  name: "inception_4b/5x5_reduce"
  type: "Convolution"
  bottom: "inception_4a/output"
  top: "inception_4b/5x5_reduce"
  param {
    lr_mult: 1
    decay_mult: 1
  }
  param {
    lr_mult: 2
    decay_mult: 0
  }
  convolution_param {
    num_output: 24
    kernel_size: 1
    weight_filler {
      type: "xavier"
      std: 0.2
    }
    bias_filler {
      type: "constant"
      value: 0.2
    }
  }
}
layer {
  name: "inception_4b/relu_5x5_reduce"
  type: "ReLU"
  bottom: "inception_4b/5x5_reduce"
  top: "inception_4b/5x5_reduce"
}
layer {
  name: "inception_4b/5x5"
  type: "Convolution"
  bottom: "inception_4b/5x5_reduce"
  top: "inception_4b/5x5"
  param {
    lr_mult: 1
    decay_mult: 1
  }
  param {
    lr_mult: 2
    decay_mult: 0
  }
  convolution_param {
    num_output: 64
    pad: 2
    kernel_size: 5
    weight_filler {
      type: "xavier"
      std: 0.03
    }
    bias_filler {
      type: "constant"
      value: 0.2
    }
  }
}
layer {
  name: "inception_4b/relu_5x5"
  type: "ReLU"
  bottom: "inception_4b/5x5"
  top: "inception_4b/5x5"
}
layer {
  name: "inception_4b/pool"
  type: "Pooling"
  bottom: "inception_4a/output"
  top: "inception_4b/pool"
  pooling_param {
    pool: MAX
    kernel_size: 3
    stride: 1
    pad: 1
  }
}
layer {
  name: "inception_4b/pool_proj"
  type: "Convolution"
  bottom: "inception_4b/pool"
  top: "inception_4b/pool_proj"
  param {
    lr_mult: 1
    decay_mult: 1
  }
  param {
    lr_mult: 2
    decay_mult: 0
  }
  convolution_param {
    num_output: 64
    kernel_size: 1
    weight_filler {
      type: "xavier"
      std: 0.1
    }
    bias_filler {
      type: "constant"
      value: 0.2
    }
  }
}
layer {
  name: "inception_4b/relu_pool_proj"
  type: "ReLU"
  bottom: "inception_4b/pool_proj"
  top: "inception_4b/pool_proj"
}
layer {
  name: "inception_4b/output"
  type: "Concat"
  bottom: "inception_4b/1x1"
  bottom: "inception_4b/3x3"
  bottom: "inception_4b/5x5"
  bottom: "inception_4b/pool_proj"
  top: "inception_4b/output"
}
layer {
  name: "inception_4c/1x1"
  type: "Convolution"
  bottom: "inception_4b/output"
  top: "inception_4c/1x1"
  param {
    lr_mult: 1
    decay_mult: 1
  }
  param {
    lr_mult: 2
    decay_mult: 0
  }
  convolution_param {
    num_output: 128
    kernel_size: 1
    weight_filler {
      type: "xavier"
      std: 0.03
    }
    bias_filler {
      type: "constant"
      value: 0.2
    }
  }
}
layer {
  name: "inception_4c/relu_1x1"
  type: "ReLU"
  bottom: "inception_4c/1x1"
  top: "inception_4c/1x1"
}
layer {
  name: "inception_4c/3x3_reduce"
  type: "Convolution"
  bottom: "inception_4b/output"
  top: "inception_4c/3x3_reduce"
  param {
    lr_mult: 1
    decay_mult: 1
  }
  param {
    lr_mult: 2
    decay_mult: 0
  }
  convolution_param {
    num_output: 128
    kernel_size: 1
    weight_filler {
      type: "xavier"
      std: 0.09
    }
    bias_filler {
      type: "constant"
      value: 0.2
    }
  }
}
layer {
  name: "inception_4c/relu_3x3_reduce"
  type: "ReLU"
  bottom: "inception_4c/3x3_reduce"
  top: "inception_4c/3x3_reduce"
}
layer {
  name: "inception_4c/3x3"
  type: "Convolution"
  bottom: "inception_4c/3x3_reduce"
  top: "inception_4c/3x3"
  param {
    lr_mult: 1
    decay_mult: 1
  }
  param {
    lr_mult: 2
    decay_mult: 0
  }
  convolution_param {
    num_output: 256
    pad: 1
    kernel_size: 3
    weight_filler {
      type: "xavier"
      std: 0.03
    }
    bias_filler {
      type: "constant"
      value: 0.2
    }
  }
}
layer {
  name: "inception_4c/relu_3x3"
  type: "ReLU"
  bottom: "inception_4c/3x3"
  top: "inception_4c/3x3"
}
layer {
  name: "inception_4c/5x5_reduce"
  type: "Convolution"
  bottom: "inception_4b/output"
  top: "inception_4c/5x5_reduce"
  param {
    lr_mult: 1
    decay_mult: 1
  }
  param {
    lr_mult: 2
    decay_mult: 0
  }
  convolution_param {
    num_output: 24
    kernel_size: 1
    weight_filler {
      type: "xavier"
      std: 0.2
    }
    bias_filler {
      type: "constant"
      value: 0.2
    }
  }
}
layer {
  name: "inception_4c/relu_5x5_reduce"
  type: "ReLU"
  bottom: "inception_4c/5x5_reduce"
  top: "inception_4c/5x5_reduce"
}
layer {
  name: "inception_4c/5x5"
  type: "Convolution"
  bottom: "inception_4c/5x5_reduce"
  top: "inception_4c/5x5"
  param {
    lr_mult: 1
    decay_mult: 1
  }
  param {
    lr_mult: 2
    decay_mult: 0
  }
  convolution_param {
    num_output: 64
    pad: 2
    kernel_size: 5
    weight_filler {
      type: "xavier"
      std: 0.03
    }
    bias_filler {
      type: "constant"
      value: 0.2
    }
  }
}
layer {
  name: "inception_4c/relu_5x5"
  type: "ReLU"
  bottom: "inception_4c/5x5"
  top: "inception_4c/5x5"
}
layer {
  name: "inception_4c/pool"
  type: "Pooling"
  bottom: "inception_4b/output"
  top: "inception_4c/pool"
  pooling_param {
    pool: MAX
    kernel_size: 3
    stride: 1
    pad: 1
  }
}
layer {
  name: "inception_4c/pool_proj"
  type: "Convolution"
  bottom: "inception_4c/pool"
  top: "inception_4c/pool_proj"
  param {
    lr_mult: 1
    decay_mult: 1
  }
  param {
    lr_mult: 2
    decay_mult: 0
  }
  convolution_param {
    num_output: 64
    kernel_size: 1
    weight_filler {
      type: "xavier"
      std: 0.1
    }
    bias_filler {
      type: "constant"
      value: 0.2
    }
  }
}
layer {
  name: "inception_4c/relu_pool_proj"
  type: "ReLU"
  bottom: "inception_4c/pool_proj"
  top: "inception_4c/pool_proj"
}
layer {
  name: "inception_4c/output"
  type: "Concat"
  bottom: "inception_4c/1x1"
  bottom: "inception_4c/3x3"
  bottom: "inception_4c/5x5"
  bottom: "inception_4c/pool_proj"
  top: "inception_4c/output"
}
layer {
  name: "inception_4d/1x1"
  type: "Convolution"
  bottom: "inception_4c/output"
  top: "inception_4d/1x1"
  param {
    lr_mult: 1
    decay_mult: 1
  }
  param {
    lr_mult: 2
    decay_mult: 0
  }
  convolution_param {
    num_output: 112
    kernel_size: 1
    weight_filler {
      type: "xavier"
      std: 0.03
    }
    bias_filler {
      type: "constant"
      value: 0.2
    }
  }
}
layer {
  name: "inception_4d/relu_1x1"
  type: "ReLU"
  bottom: "inception_4d/1x1"
  top: "inception_4d/1x1"
}
layer {
  name: "inception_4d/3x3_reduce"
  type: "Convolution"
  bottom: "inception_4c/output"
  top: "inception_4d/3x3_reduce"
  param {
    lr_mult: 1
    decay_mult: 1
  }
  param {
    lr_mult: 2
    decay_mult: 0
  }
  convolution_param {
    num_output: 144
    kernel_size: 1
    weight_filler {
      type: "xavier"
      std: 0.09
    }
    bias_filler {
      type: "constant"
      value: 0.2
    }
  }
}
layer {
  name: "inception_4d/relu_3x3_reduce"
  type: "ReLU"
  bottom: "inception_4d/3x3_reduce"
  top: "inception_4d/3x3_reduce"
}
layer {
  name: "inception_4d/3x3"
  type: "Convolution"
  bottom: "inception_4d/3x3_reduce"
  top: "inception_4d/3x3"
  param {
    lr_mult: 1
    decay_mult: 1
  }
  param {
    lr_mult: 2
    decay_mult: 0
  }
  convolution_param {
    num_output: 288
    pad: 1
    kernel_size: 3
    weight_filler {
      type: "xavier"
      std: 0.03
    }
    bias_filler {
      type: "constant"
      value: 0.2
    }
  }
}
layer {
  name: "inception_4d/relu_3x3"
  type: "ReLU"
  bottom: "inception_4d/3x3"
  top: "inception_4d/3x3"
}
layer {
  name: "inception_4d/5x5_reduce"
  type: "Convolution"
  bottom: "inception_4c/output"
  top: "inception_4d/5x5_reduce"
  param {
    lr_mult: 1
    decay_mult: 1
  }
  param {
    lr_mult: 2
    decay_mult: 0
  }
  convolution_param {
    num_output: 32
    kernel_size: 1
    weight_filler {
      type: "xavier"
      std: 0.2
    }
    bias_filler {
      type: "constant"
      value: 0.2
    }
  }
}
layer {
  name: "inception_4d/relu_5x5_reduce"
  type: "ReLU"
  bottom: "inception_4d/5x5_reduce"
  top: "inception_4d/5x5_reduce"
}
layer {
  name: "inception_4d/5x5"
  type: "Convolution"
  bottom: "inception_4d/5x5_reduce"
  top: "inception_4d/5x5"
  param {
    lr_mult: 1
    decay_mult: 1
  }
  param {
    lr_mult: 2
    decay_mult: 0
  }
  convolution_param {
    num_output: 64
    pad: 2
    kernel_size: 5
    weight_filler {
      type: "xavier"
      std: 0.03
    }
    bias_filler {
      type: "constant"
      value: 0.2
    }
  }
}
layer {
  name: "inception_4d/relu_5x5"
  type: "ReLU"
  bottom: "inception_4d/5x5"
  top: "inception_4d/5x5"
}
layer {
  name: "inception_4d/pool"
  type: "Pooling"
  bottom: "inception_4c/output"
  top: "inception_4d/pool"
  pooling_param {
    pool: MAX
    kernel_size: 3
    stride: 1
    pad: 1
  }
}
layer {
  name: "inception_4d/pool_proj"
  type: "Convolution"
  bottom: "inception_4d/pool"
  top: "inception_4d/pool_proj"
  param {
    lr_mult: 1
    decay_mult: 1
  }
  param {
    lr_mult: 2
    decay_mult: 0
  }
  convolution_param {
    num_output: 64
    kernel_size: 1
…
I0704 17:48:47.997808 25106 net.cpp:127] Top shape: 10 128 14 14 (250880)
I0704 17:48:47.997820 25106 layer_factory.hpp:74] Creating layer inception_4c/relu_1x1
I0704 17:48:47.997827 25106 net.cpp:90] Creating Layer inception_4c/relu_1x1
I0704 17:48:47.997831 25106 net.cpp:410] inception_4c/relu_1x1 <- inception_4c/1x1
I0704 17:48:47.997838 25106 net.cpp:357] inception_4c/relu_1x1 -> inception_4c/1x1 (in-place)
I0704 17:48:47.997843 25106 net.cpp:120] Setting up inception_4c/relu_1x1
I0704 17:48:47.997892 25106 net.cpp:127] Top shape: 10 128 14 14 (250880)
I0704 17:48:47.997898 25106 layer_factory.hpp:74] Creating layer inception_4c/3x3_reduce
I0704 17:48:47.997905 25106 net.cpp:90] Creating Layer inception_4c/3x3_reduce
I0704 17:48:47.997910 25106 net.cpp:410] inception_4c/3x3_reduce <- inception_4b/output_inception_4b/output_0_split_1
I0704 17:48:47.997917 25106 net.cpp:368] inception_4c/3x3_reduce -> inception_4c/3x3_reduce
I0704 17:48:47.997925 25106 net.cpp:120] Setting up inception_4c/3x3_reduce
I0704 17:48:47.998452 25106 net.cpp:127] Top shape: 10 128 14 14 (250880)
I0704 17:48:47.998464 25106 layer_factory.hpp:74] Creating layer inception_4c/relu_3x3_reduce
I0704 17:48:47.998471 25106 net.cpp:90] Creating Layer inception_4c/relu_3x3_reduce
I0704 17:48:47.998476 25106 net.cpp:410] inception_4c/relu_3x3_reduce <- inception_4c/3x3_reduce
I0704 17:48:47.998481 25106 net.cpp:357] inception_4c/relu_3x3_reduce -> inception_4c/3x3_reduce (in-place)
I0704 17:48:47.998487 25106 net.cpp:120] Setting up inception_4c/relu_3x3_reduce
I0704 17:48:47.998603 25106 net.cpp:127] Top shape: 10 128 14 14 (250880)
I0704 17:48:47.998611 25106 layer_factory.hpp:74] Creating layer inception_4c/3x3
I0704 17:48:47.998618 25106 net.cpp:90] Creating Layer inception_4c/3x3
I0704 17:48:47.998623 25106 net.cpp:410] inception_4c/3x3 <- inception_4c/3x3_reduce
I0704 17:48:47.998631 25106 net.cpp:368] inception_4c/3x3 -> inception_4c/3x3
I0704 17:48:47.998637 25106 net.cpp:120] Setting up inception_4c/3x3
I0704 17:48:48.000293 25106 net.cpp:127] Top shape: 10 256 14 14 (501760)
I0704 17:48:48.000313 25106 layer_factory.hpp:74] Creating layer inception_4c/relu_3x3
I0704 17:48:48.000319 25106 net.cpp:90] Creating Layer inception_4c/relu_3x3
I0704 17:48:48.000324 25106 net.cpp:410] inception_4c/relu_3x3 <- inception_4c/3x3
I0704 17:48:48.000329 25106 net.cpp:357] inception_4c/relu_3x3 -> inception_4c/3x3 (in-place)
I0704 17:48:48.000335 25106 net.cpp:120] Setting up inception_4c/relu_3x3
I0704 17:48:48.000378 25106 net.cpp:127] Top shape: 10 256 14 14 (501760)
I0704 17:48:48.000385 25106 layer_factory.hpp:74] Creating layer inception_4c/5x5_reduce
I0704 17:48:48.000391 25106 net.cpp:90] Creating Layer inception_4c/5x5_reduce
I0704 17:48:48.000396 25106 net.cpp:410] inception_4c/5x5_reduce <- inception_4b/output_inception_4b/output_0_split_2
I0704 17:48:48.000402 25106 net.cpp:368] inception_4c/5x5_reduce -> inception_4c/5x5_reduce
I0704 17:48:48.000409 25106 net.cpp:120] Setting up inception_4c/5x5_reduce
I0704 17:48:48.000676 25106 net.cpp:127] Top shape: 10 24 14 14 (47040)
I0704 17:48:48.000687 25106 layer_factory.hpp:74] Creating layer inception_4c/relu_5x5_reduce
I0704 17:48:48.000694 25106 net.cpp:90] Creating Layer inception_4c/relu_5x5_reduce
I0704 17:48:48.000699 25106 net.cpp:410] inception_4c/relu_5x5_reduce <- inception_4c/5x5_reduce
I0704 17:48:48.000705 25106 net.cpp:357] inception_4c/relu_5x5_reduce -> inception_4c/5x5_reduce (in-place)
I0704 17:48:48.000710 25106 net.cpp:120] Setting up inception_4c/relu_5x5_reduce
I0704 17:48:48.000752 25106 net.cpp:127] Top shape: 10 24 14 14 (47040)
I0704 17:48:48.000758 25106 layer_factory.hpp:74] Creating layer inception_4c/5x5
I0704 17:48:48.000766 25106 net.cpp:90] Creating Layer inception_4c/5x5
I0704 17:48:48.000769 25106 net.cpp:410] inception_4c/5x5 <- inception_4c/5x5_reduce
I0704 17:48:48.000777 25106 net.cpp:368] inception_4c/5x5 -> inception_4c/5x5
I0704 17:48:48.000782 25106 net.cpp:120] Setting up inception_4c/5x5
I0704 17:48:48.001178 25106 net.cpp:127] Top shape: 10 64 14 14 (125440)
I0704 17:48:48.001189 25106 layer_factory.hpp:74] Creating layer inception_4c/relu_5x5
I0704 17:48:48.001196 25106 net.cpp:90] Creating Layer inception_4c/relu_5x5
I0704 17:48:48.001202 25106 net.cpp:410] inception_4c/relu_5x5 <- inception_4c/5x5
I0704 17:48:48.001207 25106 net.cpp:357] inception_4c/relu_5x5 -> inception_4c/5x5 (in-place)
I0704 17:48:48.001214 25106 net.cpp:120] Setting up inception_4c/relu_5x5
I0704 17:48:48.001256 25106 net.cpp:127] Top shape: 10 64 14 14 (125440)
I0704 17:48:48.001268 25106 layer_factory.hpp:74] Creating layer inception_4c/pool
I0704 17:48:48.001274 25106 layer_factory.cpp:55] CUDNN does not support padding or multiple tops. Using Caffe's own pooling layer.
I0704 17:48:48.001279 25106 net.cpp:90] Creating Layer inception_4c/pool
I0704 17:48:48.001284 25106 net.cpp:410] inception_4c/pool <- inception_4b/output_inception_4b/output_0_split_3
I0704 17:48:48.001289 25106 net.cpp:368] inception_4c/pool -> inception_4c/pool
I0704 17:48:48.001296 25106 net.cpp:120] Setting up inception_4c/pool
I0704 17:48:48.001302 25106 net.cpp:127] Top shape: 10 512 14 14 (1003520)
I0704 17:48:48.001307 25106 layer_factory.hpp:74] Creating layer inception_4c/pool_proj
I0704 17:48:48.001314 25106 net.cpp:90] Creating Layer inception_4c/pool_proj
I0704 17:48:48.001319 25106 net.cpp:410] inception_4c/pool_proj <- inception_4c/pool
I0704 17:48:48.001327 25106 net.cpp:368] inception_4c/pool_proj -> inception_4c/pool_proj
I0704 17:48:48.001333 25106 net.cpp:120] Setting up inception_4c/pool_proj
I0704 17:48:48.001699 25106 net.cpp:127] Top shape: 10 64 14 14 (125440)
I0704 17:48:48.001710 25106 layer_factory.hpp:74] Creating layer inception_4c/relu_pool_proj
I0704 17:48:48.001718 25106 net.cpp:90] Creating Layer inception_4c/relu_pool_proj
I0704 17:48:48.001723 25106 net.cpp:410] inception_4c/relu_pool_proj <- inception_4c/pool_proj
I0704 17:48:48.001729 25106 net.cpp:357] inception_4c/relu_pool_proj -> inception_4c/pool_proj (in-place)
I0704 17:48:48.001734 25106 net.cpp:120] Setting up inception_4c/relu_pool_proj
I0704 17:48:48.001847 25106 net.cpp:127] Top shape: 10 64 14 14 (125440)
I0704 17:48:48.001857 25106 layer_factory.hpp:74] Creating layer inception_4c/output
I0704 17:48:48.001863 25106 net.cpp:90] Creating Layer inception_4c/output
I0704 17:48:48.001868 25106 net.cpp:410] inception_4c/output <- inception_4c/1x1
I0704 17:48:48.001873 25106 net.cpp:410] inception_4c/output <- inception_4c/3x3
I0704 17:48:48.001878 25106 net.cpp:410] inception_4c/output <- inception_4c/5x5
I0704 17:48:48.001883 25106 net.cpp:410] inception_4c/output <- inception_4c/pool_proj
I0704 17:48:48.001888 25106 net.cpp:368] inception_4c/output -> inception_4c/output
I0704 17:48:48.001895 25106 net.cpp:120] Setting up inception_4c/output
I0704 17:48:48.001901 25106 net.cpp:127] Top shape: 10 512 14 14 (1003520)
I0704 17:48:48.001905 25106 layer_factory.hpp:74] Creating layer inception_4c/output_inception_4c/output_0_split
I0704 17:48:48.001911 25106 net.cpp:90] Creating Layer inception_4c/output_inception_4c/output_0_split
I0704 17:48:48.001916 25106 net.cpp:410] inception_4c/output_inception_4c/output_0_split <- inception_4c/output
I0704 17:48:48.001922 25106 net.cpp:368] inception_4c/output_inception_4c/output_0_split -> inception_4c/output_inception_4c/output_0_split_0
I0704 17:48:48.024394 25106 net.cpp:368] inception_4c/output_inception_4c/output_0_split -> inception_4c/output_inception_4c/output_0_split_1
I0704 17:48:48.024415 25106 net.cpp:368] inception_4c/output_inception_4c/output_0_split -> inception_4c/output_inception_4c/output_0_split_2
I0704 17:48:48.024422 25106 net.cpp:368] inception_4c/output_inception_4c/output_0_split -> inception_4c/output_inception_4c/output_0_split_3
I0704 17:48:48.024430 25106 net.cpp:120] Setting up inception_4c/output_inception_4c/output_0_split
I0704 17:48:48.024440 25106 net.cpp:127] Top shape: 10 512 14 14 (1003520)
I0704 17:48:48.024446 25106 net.cpp:127] Top shape: 10 512 14 14 (1003520)
I0704 17:48:48.024449 25106 net.cpp:127] Top shape: 10 512 14 14 (1003520)
I0704 17:48:48.024454 25106 net.cpp:127] Top shape: 10 512 14 14 (1003520)
I0704 17:48:48.024459 25106 layer_factory.hpp:74] Creating layer inception_4d/1x1
I0704 17:48:48.024473 25106 net.cpp:90] Creating Layer inception_4d/1x1
I0704 17:48:48.024478 25106 net.cpp:410] inception_4d/1x1 <- inception_4c/output_inception_4c/output_0_split_0
I0704 17:48:48.024487 25106 net.cpp:368] inception_4d/1x1 -> inception_4d/1x1
I0704 17:48:48.024494 25106 net.cpp:120] Setting up inception_4d/1x1
I0704 17:48:48.025156 25106 net.cpp:127] Top shape: 10 112 14 14 (219520)
I0704 17:48:48.025199 25106 layer_factory.hpp:74] Creating layer inception_4d/relu_1x1
I0704 17:48:48.025212 25106 net.cpp:90] Creating Layer inception_4d/relu_1x1
I0704 17:48:48.025219 25106 net.cpp:410] inception_4d/relu_1x1 <- inception_4d/1x1
I0704 17:48:48.025228 25106 net.cpp:357] inception_4d/relu_1x1 -> inception_4d/1x1 (in-place)
I0704 17:48:48.025248 25106 net.cpp:120] Setting up inception_4d/relu_1x1
I0704 17:48:48.025344 25106 net.cpp:127] Top shape: 10 112 14 14 (219520)
I0704 17:48:48.025357 25106 layer_factory.hpp:74] Creating layer inception_4d/3x3_reduce
I0704 17:48:48.025364 25106 net.cpp:90] Creating Layer inception_4d/3x3_reduce
I0704 17:48:48.025378 25106 net.cpp:410] inception_4d/3x3_reduce <- inception_4c/output_inception_4c/output_0_split_1
I0704 17:48:48.025391 25106 net.cpp:368] inception_4d/3x3_reduce -> inception_4d/3x3_reduce
I0704 17:48:48.025413 25106 net.cpp:120] Setting up inception_4d/3x3_reduce
I0704 17:48:48.026144 25106 net.cpp:127] Top shape: 10 144 14 14 (282240)
I0704 17:48:48.026157 25106 layer_factory.hpp:74] Creating layer inception_4d/relu_3x3_reduce
I0704 17:48:48.026165 25106 net.cpp:90] Creating Layer inception_4d/relu_3x3_reduce
I0704 17:48:48.026170 25106 net.cpp:410] inception_4d/relu_3x3_reduce <- inception_4d/3x3_reduce
I0704 17:48:48.026175 25106 net.cpp:357] inception_4d/relu_3x3_reduce -> inception_4d/3x3_reduce (in-place)
I0704 17:48:48.026181 25106 net.cpp:120] Setting up inception_4d/relu_3x3_reduce
I0704 17:48:48.026226 25106 net.cpp:127] Top shape: 10 144 14 14 (282240)
I0704 17:48:48.026232 25106 layer_factory.hpp:74] Creating layer inception_4d/3x3
I0704 17:48:48.026238 25106 net.cpp:90] Creating Layer inception_4d/3x3
I0704 17:48:48.026243 25106 net.cpp:410] inception_4d/3x3 <- inception_4d/3x3_reduce
I0704 17:48:48.026249 25106 net.cpp:368] inception_4d/3x3 -> inception_4d/3x3
I0704 17:48:48.026257 25106 net.cpp:120] Setting up inception_4d/3x3
I0704 17:48:48.028435 25106 net.cpp:127] Top shape: 10 288 14 14 (564480)
I0704 17:48:48.028450 25106 layer_factory.hpp:74] Creating layer inception_4d/relu_3x3
I0704 17:48:48.028458 25106 net.cpp:90] Creating Layer inception_4d/relu_3x3
I0704 17:48:48.028465 25106 net.cpp:410] inception_4d/relu_3x3 <- inception_4d/3x3
I0704 17:48:48.028470 25106 net.cpp:357] inception_4d/relu_3x3 -> inception_4d/3x3 (in-place)
I0704 17:48:48.028477 25106 net.cpp:120] Setting up inception_4d/relu_3x3
I0704 17:48:48.028592 25106 net.cpp:127] Top shape: 10 288 14 14 (564480)
I0704 17:48:48.028601 25106 layer_factory.hpp:74] Creating layer inception_4d/5x5_reduce
I0704 17:48:48.028609 25106 net.cpp:90] Creating Layer inception_4d/5x5_reduce
I0704 17:48:48.028614 25106 net.cpp:410] inception_4d/5x5_reduce <- inception_4c/output_inception_4c/output_0_split_2
I0704 17:48:48.028620 25106 net.cpp:368] inception_4d/5x5_reduce -> inception_4d/5x5_reduce
I0704 17:48:48.028627 25106 net.cpp:120] Setting up inception_4d/5x5_reduce
I0704 17:48:48.028919 25106 net.cpp:127] Top shape: 10 32 14 14 (62720)
I0704 17:48:48.028930 25106 layer_factory.hpp:74] Creating layer inception_4d/relu_5x5_reduce
I0704 17:48:48.028937 25106 net.cpp:90] Creating Layer inception_4d/relu_5x5_reduce
I0704 17:48:48.028942 25106 net.cpp:410] inception_4d/relu_5x5_reduce <- inception_4d/5x5_reduce
I0704 17:48:48.028949 25106 net.cpp:357] inception_4d/relu_5x5_reduce -> inception_4d/5x5_reduce (in-place)
I0704 17:48:48.028955 25106 net.cpp:120] Setting up inception_4d/relu_5x5_reduce
I0704 17:48:48.029000 25106 net.cpp:127] Top shape: 10 32 14 14 (62720)
I0704 17:48:48.029006 25106 layer_factory.hpp:74] Creating layer inception_4d/5x5
I0704 17:48:48.029012 25106 net.cpp:90] Creating Layer inception_4d/5x5
I0704 17:48:48.029017 25106 net.cpp:410] inception_4d/5x5 <- inception_4d/5x5_reduce
I0704 17:48:48.029023 25106 net.cpp:368] inception_4d/5x5 -> inception_4d/5x5
I0704 17:48:48.029031 25106 net.cpp:120] Setting up inception_4d/5x5
I0704 17:48:48.029487 25106 net.cpp:127] Top shape: 10 64 14 14 (125440)
I0704 17:48:48.029499 25106 layer_factory.hpp:74] Creating layer inception_4d/relu_5x5
I0704 17:48:48.029512 25106 net.cpp:90] Creating Layer inception_4d/relu_5x5
I0704 17:48:48.029518 25106 net.cpp:410] inception_4d/relu_5x5 <- inception_4d/5x5
I0704 17:48:48.029525 25106 net.cpp:357] inception_4d/relu_5x5 -> inception_4d/5x5 (in-place)
I0704 17:48:48.029531 25106 net.cpp:120] Setting up inception_4d/relu_5x5
I0704 17:48:48.029574 25106 net.cpp:127] Top shape: 10 64 14 14 (125440)
I0704 17:48:48.029580 25106 layer_factory.hpp:74] Creating layer inception_4d/pool
I0704 17:48:48.029585 25106 layer_factory.cpp:55] CUDNN does not support padding or multiple tops. Using Caffe's own pooling layer.
I0704 17:48:48.029592 25106 net.cpp:90] Creating Layer inception_4d/pool
I0704 17:48:48.029597 25106 net.cpp:410] inception_4d/pool <- inception_4c/output_inception_4c/output_0_split_3
I0704 17:48:48.029603 25106 net.cpp:368] inception_4d/pool -> inception_4d/pool
I0704 17:48:48.029609 25106 net.cpp:120] Setting up inception_4d/pool
I0704 17:48:48.029618 25106 net.cpp:127] Top shape: 10 512 14 14 (1003520)
I0704 17:48:48.029623 25106 layer_factory.hpp:74] Creating layer inception_4d/pool_proj
I0704 17:48:48.029628 25106 net.cpp:90] Creating Layer inception_4d/pool_proj
I0704 17:48:48.029633 25106 net.cpp:410] inception_4d/pool_proj <- inception_4d/pool
I0704 17:48:48.029640 25106 net.cpp:368] inception_4d/pool_proj -> inception_4d/pool_proj
I0704 17:48:48.029646 25106 net.cpp:120] Setting up inception_4d/pool_proj
I0704 17:48:48.030019 25106 net.cpp:127] Top shape: 10 64 14 14 (125440)
I0704 17:48:48.030030 25106 layer_factory.hpp:74] Creating layer inception_4d/relu_pool_proj
I0704 17:48:48.030037 25106 net.cpp:90] Creating Layer inception_4d/relu_pool_proj
I0704 17:48:48.030043 25106 net.cpp:410] inception_4d/relu_pool_proj <- inception_4d/pool_proj
I0704 17:48:48.030048 25106 net.cpp:357] inception_4d/relu_pool_proj -> inception_4d/pool_proj (in-place)
I0704 17:48:48.030055 25106 net.cpp:120] Setting up inception_4d/relu_pool_proj
I0704 17:48:48.030097 25106 net.cpp:127] Top shape: 10 64 14 14 (125440)
I0704 17:48:48.030103 25106 layer_factory.hpp:74] Creating layer inception_4d/output
I0704 17:48:48.030109 25106 net.cpp:90] Creating Layer inception_4d/output
I0704 17:48:48.030114 25106 net.cpp:410] inception_4d/output <- inception_4d/1x1
I0704 17:48:48.030119 25106 net.cpp:410] inception_4d/output <- inception_4d/3x3
I0704 17:48:48.030124 25106 net.cpp:410] inception_4d/output <- inception_4d/5x5
I0704 17:48:48.030129 25106 net.cpp:410] inception_4d/output <- inception_4d/pool_proj
I0704 17:48:48.030134 25106 net.cpp:368] inception_4d/output -> inception_4d/output
I0704 17:48:48.030140 25106 net.cpp:120] Setting up inception_4d/output
I0704 17:48:48.030148 25106 net.cpp:127] Top shape: 10 528 14 14 (1034880)
I0704 17:48:48.030151 25106 layer_factory.hpp:74] Creating layer inception_4d/output_inception_4d/output_0_split
I0704 17:48:48.030158 25106 net.cpp:90] Creating Layer inception_4d/output_inception_4d/output_0_split
I0704 17:48:48.030163 25106 net.cpp:410] inception_4d/output_inception_4d/output_0_split <- inception_4d/output
I0704 17:48:48.030169 25106 net.cpp:368] inception_4d/output_inception_4d/output_0_split -> inception_4d/output_inception_4d/output_0_split_0
I0704 17:48:48.030176 25106 net.cpp:368] inception_4d/output_inception_4d/output_0_split -> inception_4d/output_inception_4d/output_0_split_1
I0704 17:48:48.030182 25106 net.cpp:368] inception_4d/output_inception_4d/output_0_split -> inception_4d/output_inception_4d/output_0_split_2
I0704 17:48:48.030189 25106 net.cpp:368] inception_4d/output_inception_4d/output_0_split -> inception_4d/output_inception_4d/output_0_split_3
I0704 17:48:48.030194 25106 net.cpp:368] inception_4d/output_inception_4d/output_0_split -> inception_4d/output_inception_4d/output_0_split_4
I0704 17:48:48.030200 25106 net.cpp:120] Setting up inception_4d/output_inception_4d/output_0_split
I0704 17:48:48.030207 25106 net.cpp:127] Top shape: 10 528 14 14 (1034880)
I0704 17:48:48.030212 25106 net.cpp:127] Top shape: 10 528 14 14 (1034880)
I0704 17:48:48.030223 25106 net.cpp:127] Top shape: 10 528 14 14 (1034880)
I0704 17:48:48.030227 25106 net.cpp:127] Top shape: 10 528 14 14 (1034880)
I0704 17:48:48.030232 25106 net.cpp:127] Top shape: 10 528 14 14 (1034880)
I0704 17:48:48.030236 25106 layer_factory.hpp:74] Creating layer loss2/ave_pool
I0704 17:48:48.030242 25106 net.cpp:90] Creating Layer loss2/ave_pool
I0704 17:48:48.030246 25106 net.cpp:410] loss2/ave_pool <- inception_4d/output_inception_4d/output_0_split_0
I0704 17:48:48.030253 25106 net.cpp:368] loss2/ave_pool -> loss2/ave_pool
I0704 17:48:48.030259 25106 net.cpp:120] Setting up loss2/ave_pool
I0704 17:48:48.030380 25106 net.cpp:127] Top shape: 10 528 4 4 (84480)
I0704 17:48:48.030388 25106 layer_factory.hpp:74] Creating layer loss2/conv
I0704 17:48:48.030396 25106 net.cpp:90] Creating Layer loss2/conv
I0704 17:48:48.030401 25106 net.cpp:410] loss2/conv <- loss2/ave_pool
I0704 17:48:48.030407 25106 net.cpp:368] loss2/conv -> loss2/conv
I0704 17:48:48.030414 25106 net.cpp:120] Setting up loss2/conv
I0704 17:48:48.030952 25106 net.cpp:127] Top shape: 10 128 4 4 (20480)
I0704 17:48:48.030963 25106 layer_factory.hpp:74] Creating layer loss2/relu_conv
I0704 17:48:48.030969 25106 net.cpp:90] Creating Layer loss2/relu_conv
I0704 17:48:48.030974 25106 net.cpp:410] loss2/relu_conv <- loss2/conv
I0704 17:48:48.030980 25106 net.cpp:357] loss2/relu_conv -> loss2/conv (in-place)
I0704 17:48:48.030987 25106 net.cpp:120] Setting up loss2/relu_conv
I0704 17:48:48.031028 25106 net.cpp:127] Top shape: 10 128 4 4 (20480)
I0704 17:48:48.031033 25106 layer_factory.hpp:74] Creating layer loss2/fc
I0704 17:48:48.031040 25106 net.cpp:90] Creating Layer loss2/fc
I0704 17:48:48.031045 25106 net.cpp:410] loss2/fc <- loss2/conv
I0704 17:48:48.031051 25106 net.cpp:368] loss2/fc -> loss2/fc
I0704 17:48:48.031059 25106 net.cpp:120] Setting up loss2/fc
I0704 17:48:48.040678 25106 net.cpp:127] Top shape: 10 1024 (10240)
I0704 17:48:48.040704 25106 layer_factory.hpp:74] Creating layer loss2/relu_fc
I0704 17:48:48.040712 25106 net.cpp:90] Creating Layer loss2/relu_fc
I0704 17:48:48.040719 25106 net.cpp:410] loss2/relu_fc <- loss2/fc
I0704 17:48:48.055271 25106 net.cpp:357] loss2/relu_fc -> loss2/fc (in-place)
I0704 17:48:48.055296 25106 net.cpp:120] Setting up loss2/relu_fc
I0704 17:48:48.055398 25106 net.cpp:127] Top shape: 10 1024 (10240)
I0704 17:48:48.055407 25106 layer_factory.hpp:74] Creating layer loss2/drop_fc
I0704 17:48:48.055414 25106 net.cpp:90] Creating Layer loss2/drop_fc
I0704 17:48:48.055419 25106 net.cpp:410] loss2/drop_fc <- loss2/fc
I0704 17:48:48.055428 25106 net.cpp:357] loss2/drop_fc -> loss2/fc (in-place)
I0704 17:48:48.055433 25106 net.cpp:120] Setting up loss2/drop_fc
I0704 17:48:48.055440 25106 net.cpp:127] Top shape: 10 1024 (10240)
I0704 17:48:48.055444 25106 layer_factory.hpp:74] Creating layer stanford_cars_loss2/classifier
I0704 17:48:48.055454 25106 net.cpp:90] Creating Layer stanford_cars_loss2/classifier
I0704 17:48:48.055457 25106 net.cpp:410] stanford_cars_loss2/classifier <- loss2/fc
I0704 17:48:48.055474 25106 net.cpp:368] stanford_cars_loss2/classifier -> stanford_cars_loss2/classifier
I0704 17:48:48.055481 25106 net.cpp:120] Setting up stanford_cars_loss2/classifier
I0704 17:48:48.056653 25106 net.cpp:127] Top shape: 10 196 (1960)
I0704 17:48:48.056671 25106 layer_factory.hpp:74] Creating layer stanford_cars_loss2/classifier_stanford_cars_loss2/classifier_0_split
I0704 17:48:48.056700 25106 net.cpp:90] Creating Layer stanford_cars_loss2/classifier_stanford_cars_loss2/classifier_0_split
I0704 17:48:48.056706 25106 net.cpp:410] stanford_cars_loss2/classifier_stanford_cars_loss2/classifier_0_split <- stanford_cars_loss2/classifier
I0704 17:48:48.056713 25106 net.cpp:368] stanford_cars_loss2/classifier_stanford_cars_loss2/classifier_0_split -> stanford_cars_loss2/classifier_stanford_cars_loss2/classifier_0_split_0
I0704 17:48:48.056720 25106 net.cpp:368] stanford_cars_loss2/classifier_stanford_cars_loss2/classifier_0_split -> stanford_cars_loss2/classifier_stanford_cars_loss2/classifier_0_split_1
I0704 17:48:48.056752 25106 net.cpp:368] stanford_cars_loss2/classifier_stanford_cars_loss2/classifier_0_split -> stanford_cars_loss2/classifier_stanford_cars_loss2/classifier_0_split_2
I0704 17:48:48.056759 25106 net.cpp:120] Setting up stanford_cars_loss2/classifier_stanford_cars_loss2/classifier_0_split
I0704 17:48:48.056766 25106 net.cpp:127] Top shape: 10 196 (1960)
I0704 17:48:48.056771 25106 net.cpp:127] Top shape: 10 196 (1960)
I0704 17:48:48.056776 25106 net.cpp:127] Top shape: 10 196 (1960)
I0704 17:48:48.056789 25106 layer_factory.hpp:74] Creating layer stanford_cars_loss2/loss
I0704 17:48:48.056807 25106 net.cpp:90] Creating Layer stanford_cars_loss2/loss
I0704 17:48:48.056812 25106 net.cpp:410] stanford_cars_loss2/loss <- stanford_cars_loss2/classifier_stanford_cars_loss2/classifier_0_split_0
I0704 17:48:48.056818 25106 net.cpp:410] stanford_cars_loss2/loss <- label_data_1_split_3
…
I0704 17:48:48.057009 25106 net.cpp:368] loss2/top-5 -> loss2/top-5
I0704 17:48:48.057015 25106 net.cpp:120] Setting up loss2/top-5
I0704 17:48:48.057019 25106 net.cpp:127] Top shape: (1)
I0704 17:48:48.057024 25106 layer_factory.hpp:74] Creating layer inception_4e/1x1
I0704 17:48:48.057031 25106 net.cpp:90] Creating Layer inception_4e/1x1
I0704 17:48:48.057036 25106 net.cpp:410] inception_4e/1x1 <- inception_4d/output_inception_4d/output_0_split_1
I0704 17:48:48.057044 25106 net.cpp:368] inception_4e/1x1 -> inception_4e/1x1
I0704 17:48:48.057049 25106 net.cpp:120] Setting up inception_4e/1x1
I0704 17:48:48.058082 25106 net.cpp:127] Top shape: 10 256 14 14 (501760)
I0704 17:48:48.058096 25106 layer_factory.hpp:74] Creating layer inception_4e/relu_1x1
I0704 17:48:48.058104 25106 net.cpp:90] Creating Layer inception_4e/relu_1x1
I0704 17:48:48.058109 25106 net.cpp:410] inception_4e/relu_1x1 <- inception_4e/1x1
I0704 17:48:48.058114 25106 net.cpp:357] inception_4e/relu_1x1 -> inception_4e/1x1 (in-place)
I0704 17:48:48.058120 25106 net.cpp:120] Setting up inception_4e/relu_1x1
I0704 17:48:48.058264 25106 net.cpp:127] Top shape: 10 256 14 14 (501760)
I0704 17:48:48.058275 25106 layer_factory.hpp:74] Creating layer inception_4e/3x3_reduce
I0704 17:48:48.058300 25106 net.cpp:90] Creating Layer inception_4e/3x3_reduce
I0704 17:48:48.058306 25106 net.cpp:410] inception_4e/3x3_reduce <- inception_4d/output_inception_4d/output_0_split_2
I0704 17:48:48.058315 25106 net.cpp:368] inception_4e/3x3_reduce -> inception_4e/3x3_reduce
I0704 17:48:48.058321 25106 net.cpp:120] Setting up inception_4e/3x3_reduce
I0704 17:48:48.058986 25106 net.cpp:127] Top shape: 10 160 14 14 (313600)
I0704 17:48:48.059000 25106 layer_factory.hpp:74] Creating layer inception_4e/relu_3x3_reduce
I0704 17:48:48.059006 25106 net.cpp:90] Creating Layer inception_4e/relu_3x3_reduce
I0704 17:48:48.059012 25106 net.cpp:410] inception_4e/relu_3x3_reduce <- inception_4e/3x3_reduce
I0704 17:48:48.059026 25106 net.cpp:357] inception_4e/relu_3x3_reduce -> inception_4e/3x3_reduce (in-place)
I0704 17:48:48.059032 25106 net.cpp:120] Setting up inception_4e/relu_3x3_reduce
I0704 17:48:48.059077 25106 net.cpp:127] Top shape: 10 160 14 14 (313600)
I0704 17:48:48.059082 25106 layer_factory.hpp:74] Creating layer inception_4e/3x3
I0704 17:48:48.059089 25106 net.cpp:90] Creating Layer inception_4e/3x3
I0704 17:48:48.059094 25106 net.cpp:410] inception_4e/3x3 <- inception_4e/3x3_reduce
I0704 17:48:48.059101 25106 net.cpp:368] inception_4e/3x3 -> inception_4e/3x3
I0704 17:48:48.059108 25106 net.cpp:120] Setting up inception_4e/3x3
I0704 17:48:48.061571 25106 net.cpp:127] Top shape: 10 320 14 14 (627200)
I0704 17:48:48.061585 25106 layer_factory.hpp:74] Creating layer inception_4e/relu_3x3
I0704 17:48:48.061591 25106 net.cpp:90] Creating Layer inception_4e/relu_3x3
I0704 17:48:48.061597 25106 net.cpp:410] inception_4e/relu_3x3 <- inception_4e/3x3
I0704 17:48:48.061604 25106 net.cpp:357] inception_4e/relu_3x3 -> inception_4e/3x3 (in-place)
I0704 17:48:48.061610 25106 net.cpp:120] Setting up inception_4e/relu_3x3
I0704 17:48:48.061653 25106 net.cpp:127] Top shape: 10 320 14 14 (627200)
I0704 17:48:48.061660 25106 layer_factory.hpp:74] Creating layer inception_4e/5x5_reduce
I0704 17:48:48.061666 25106 net.cpp:90] Creating Layer inception_4e/5x5_reduce
I0704 17:48:48.061671 25106 net.cpp:410] inception_4e/5x5_reduce <- inception_4d/output_inception_4d/output_0_split_3
I0704 17:48:48.061677 25106 net.cpp:368] inception_4e/5x5_reduce -> inception_4e/5x5_reduce
I0704 17:48:48.061684 25106 net.cpp:120] Setting up inception_4e/5x5_reduce
I0704 17:48:48.062016 25106 net.cpp:127] Top shape: 10 32 14 14 (62720)
I0704 17:48:48.062027 25106 layer_factory.hpp:74] Creating layer inception_4e/relu_5x5_reduce
I0704 17:48:48.062033 25106 net.cpp:90] Creating Layer inception_4e/relu_5x5_reduce
I0704 17:48:48.062038 25106 net.cpp:410] inception_4e/relu_5x5_reduce <- inception_4e/5x5_reduce
I0704 17:48:48.062044 25106 net.cpp:357] inception_4e/relu_5x5_reduce -> inception_4e/5x5_reduce (in-place)
I0704 17:48:48.062050 25106 net.cpp:120] Setting up inception_4e/relu_5x5_reduce
I0704 17:48:48.062089 25106 net.cpp:127] Top shape: 10 32 14 14 (62720)
I0704 17:48:48.062095 25106 layer_factory.hpp:74] Creating layer inception_4e/5x5
I0704 17:48:48.062103 25106 net.cpp:90] Creating Layer inception_4e/5x5
I0704 17:48:48.062106 25106 net.cpp:410] inception_4e/5x5 <- inception_4e/5x5_reduce
I0704 17:48:48.062113 25106 net.cpp:368] inception_4e/5x5 -> inception_4e/5x5
I0704 17:48:48.062119 25106 net.cpp:120] Setting up inception_4e/5x5
I0704 17:48:48.062830 25106 net.cpp:127] Top shape: 10 128 14 14 (250880)
I0704 17:48:48.062842 25106 layer_factory.hpp:74] Creating layer inception_4e/relu_5x5
I0704 17:48:48.062849 25106 net.cpp:90] Creating Layer inception_4e/relu_5x5
I0704 17:48:48.062854 25106 net.cpp:410] inception_4e/relu_5x5 <- inception_4e/5x5
I0704 17:48:48.062860 25106 net.cpp:357] inception_4e/relu_5x5 -> inception_4e/5x5 (in-place)
I0704 17:48:48.062865 25106 net.cpp:120] Setting up inception_4e/relu_5x5
I0704 17:48:48.062980 25106 net.cpp:127] Top shape: 10 128 14 14 (250880)
I0704 17:48:48.062989 25106 layer_factory.hpp:74] Creating layer inception_4e/pool
I0704 17:48:48.062994 25106 layer_factory.cpp:55] CUDNN does not support padding or multiple tops. Using Caffe's own pooling layer.
I0704 17:48:48.063000 25106 net.cpp:90] Creating Layer inception_4e/pool
I0704 17:48:48.063005 25106 net.cpp:410] inception_4e/pool <- inception_4d/output_inception_4d/output_0_split_4
I0704 17:48:48.063011 25106 net.cpp:368] inception_4e/pool -> inception_4e/pool
I0704 17:48:48.063019 25106 net.cpp:120] Setting up inception_4e/pool
I0704 17:48:48.063026 25106 net.cpp:127] Top shape: 10 528 14 14 (1034880)
I0704 17:48:48.063030 25106 layer_factory.hpp:74] Creating layer inception_4e/pool_proj
I0704 17:48:48.063037 25106 net.cpp:90] Creating Layer inception_4e/pool_proj
I0704 17:48:48.063042 25106 net.cpp:410] inception_4e/pool_proj <- inception_4e/pool
I0704 17:48:48.063057 25106 net.cpp:368] inception_4e/pool_proj -> inception_4e/pool_proj
I0704 17:48:48.063065 25106 net.cpp:120] Setting up inception_4e/pool_proj
I0704 17:48:48.063614 25106 net.cpp:127] Top shape: 10 128 14 14 (250880)
I0704 17:48:48.063626 25106 layer_factory.hpp:74] Creating layer inception_4e/relu_pool_proj
I0704 17:48:48.063633 25106 net.cpp:90] Creating Layer inception_4e/relu_pool_proj
I0704 17:48:48.063638 25106 net.cpp:410] inception_4e/relu_pool_proj <- inception_4e/pool_proj
I0704 17:48:48.063644 25106 net.cpp:357] inception_4e/relu_pool_proj -> inception_4e/pool_proj (in-place)
I0704 17:48:48.063650 25106 net.cpp:120] Setting up inception_4e/relu_pool_proj
I0704 17:48:48.063693 25106 net.cpp:127] Top shape: 10 128 14 14 (250880)
I0704 17:48:48.063699 25106 layer_factory.hpp:74] Creating layer inception_4e/output
I0704 17:48:48.063705 25106 net.cpp:90] Creating Layer inception_4e/output
I0704 17:48:48.063709 25106 net.cpp:410] inception_4e/output <- inception_4e/1x1
I0704 17:48:48.063715 25106 net.cpp:410] inception_4e/output <- inception_4e/3x3
I0704 17:48:48.063720 25106 net.cpp:410] inception_4e/output <- inception_4e/5x5
I0704 17:48:48.063725 25106 net.cpp:410] inception_4e/output <- inception_4e/pool_proj
I0704 17:48:48.063730 25106 net.cpp:368] inception_4e/output -> inception_4e/output
I0704 17:48:48.063737 25106 net.cpp:120] Setting up inception_4e/output
I0704 17:48:48.063743 25106 net.cpp:127] Top shape: 10 832 14 14 (1630720)
I0704 17:48:48.086107 25106 layer_factory.hpp:74] Creating layer pool4/3x3_s2
I0704 17:48:48.086133 25106 net.cpp:90] Creating Layer pool4/3x3_s2
I0704 17:48:48.086140 25106 net.cpp:410] pool4/3x3_s2 <- inception_4e/output
I0704 17:48:48.086154 25106 net.cpp:368] pool4/3x3_s2 -> pool4/3x3_s2
I0704 17:48:48.086164 25106 net.cpp:120] Setting up pool4/3x3_s2
I0704 17:48:48.086256 25106 net.cpp:127] Top shape: 10 832 7 7 (407680)
I0704 17:48:48.086262 25106 layer_factory.hpp:74] Creating layer pool4/3x3_s2_pool4/3x3_s2_0_split
I0704 17:48:48.086268 25106 net.cpp:90] Creating Layer pool4/3x3_s2_pool4/3x3_s2_0_split
I0704 17:48:48.086273 25106 net.cpp:410] pool4/3x3_s2_pool4/3x3_s2_0_split <- pool4/3x3_s2
I0704 17:48:48.086279 25106 net.cpp:368] pool4/3x3_s2_pool4/3x3_s2_0_split -> pool4/3x3_s2_pool4/3x3_s2_0_split_0
I0704 17:48:48.086287 25106 net.cpp:368] pool4/3x3_s2_pool4/3x3_s2_0_split -> pool4/3x3_s2_pool4/3x3_s2_0_split_1
I0704 17:48:48.086298 25106 net.cpp:368] pool4/3x3_s2_pool4/3x3_s2_0_split -> pool4/3x3_s2_pool4/3x3_s2_0_split_2
I0704 17:48:48.086328 25106 net.cpp:368] pool4/3x3_s2_pool4/3x3_s2_0_split -> pool4/3x3_s2_pool4/3x3_s2_0_split_3
I0704 17:48:48.086334 25106 net.cpp:120] Setting up pool4/3x3_s2_pool4/3x3_s2_0_split
I0704 17:48:48.086340 25106 net.cpp:127] Top shape: 10 832 7 7 (407680)
I0704 17:48:48.086345 25106 net.cpp:127] Top shape: 10 832 7 7 (407680)
I0704 17:48:48.086350 25106 net.cpp:127] Top shape: 10 832 7 7 (407680)
I0704 17:48:48.086355 25106 net.cpp:127] Top shape: 10 832 7 7 (407680)
I0704 17:48:48.086359 25106 layer_factory.hpp:74] Creating layer inception_5a/1x1
I0704 17:48:48.086367 25106 net.cpp:90] Creating Layer inception_5a/1x1
I0704 17:48:48.086372 25106 net.cpp:410] inception_5a/1x1 <- pool4/3x3_s2_pool4/3x3_s2_0_split_0
I0704 17:48:48.086379 25106 net.cpp:368] inception_5a/1x1 -> inception_5a/1x1
I0704 17:48:48.086385 25106 net.cpp:120] Setting up inception_5a/1x1
I0704 17:48:48.088029 25106 net.cpp:127] Top shape: 10 256 7 7 (125440)
I0704 17:48:48.088043 25106 layer_factory.hpp:74] Creating layer inception_5a/relu_1x1
I0704 17:48:48.088052 25106 net.cpp:90] Creating Layer inception_5a/relu_1x1
I0704 17:48:48.088057 25106 net.cpp:410] inception_5a/relu_1x1 <- inception_5a/1x1
I0704 17:48:48.088063 25106 net.cpp:357] inception_5a/relu_1x1 -> inception_5a/1x1 (in-place)
I0704 17:48:48.088069 25106 net.cpp:120] Setting up inception_5a/relu_1x1
I0704 17:48:48.088187 25106 net.cpp:127] Top shape: 10 256 7 7 (125440)
I0704 17:48:48.088196 25106 layer_factory.hpp:74] Creating layer inception_5a/3x3_reduce
I0704 17:48:48.088218 25106 net.cpp:90] Creating Layer inception_5a/3x3_reduce
I0704 17:48:48.088224 25106 net.cpp:410] inception_5a/3x3_reduce <- pool4/3x3_s2_pool4/3x3_s2_0_split_1
I0704 17:48:48.088232 25106 net.cpp:368] inception_5a/3x3_reduce -> inception_5a/3x3_reduce
I0704 17:48:48.088239 25106 net.cpp:120] Setting up inception_5a/3x3_reduce
I0704 17:48:48.089177 25106 net.cpp:127] Top shape: 10 160 7 7 (78400)
I0704 17:48:48.089191 25106 layer_factory.hpp:74] Creating layer inception_5a/relu_3x3_reduce
I0704 17:48:48.089198 25106 net.cpp:90] Creating Layer inception_5a/relu_3x3_reduce
I0704 17:48:48.089203 25106 net.cpp:410] inception_5a/relu_3x3_reduce <- inception_5a/3x3_reduce
I0704 17:48:48.089210 25106 net.cpp:357] inception_5a/relu_3x3_reduce -> inception_5a/3x3_reduce (in-place)
I0704 17:48:48.089215 25106 net.cpp:120] Setting up inception_5a/relu_3x3_reduce
I0704 17:48:48.089259 25106 net.cpp:127] Top shape: 10 160 7 7 (78400)
I0704 17:48:48.089267 25106 layer_factory.hpp:74] Creating layer inception_5a/3x3
I0704 17:48:48.089278 25106 net.cpp:90] Creating Layer inception_5a/3x3
I0704 17:48:48.089287 25106 net.cpp:410] inception_5a/3x3 <- inception_5a/3x3_reduce
I0704 17:48:48.089296 25106 net.cpp:368] inception_5a/3x3 -> inception_5a/3x3
I0704 17:48:48.089304 25106 net.cpp:120] Setting up inception_5a/3x3
I0704 17:48:48.091820 25106 net.cpp:127] Top shape: 10 320 7 7 (156800)
I0704 17:48:48.091833 25106 layer_factory.hpp:74] Creating layer inception_5a/relu_3x3
I0704 17:48:48.091840 25106 net.cpp:90] Creating Layer inception_5a/relu_3x3
I0704 17:48:48.091846 25106 net.cpp:410] inception_5a/relu_3x3 <- inception_5a/3x3
I0704 17:48:48.091852 25106 net.cpp:357] inception_5a/relu_3x3 -> inception_5a/3x3 (in-place)
I0704 17:48:48.091858 25106 net.cpp:120] Setting up inception_5a/relu_3x3
I0704 17:48:48.091900 25106 net.cpp:127] Top shape: 10 320 7 7 (156800)
I0704 17:48:48.091907 25106 layer_factory.hpp:74] Creating layer inception_5a/5x5_reduce
I0704 17:48:48.091914 25106 net.cpp:90] Creating Layer inception_5a/5x5_reduce
I0704 17:48:48.091919 25106 net.cpp:410] inception_5a/5x5_reduce <- pool4/3x3_s2_pool4/3x3_s2_0_split_2
I0704 17:48:48.091925 25106 net.cpp:368] inception_5a/5x5_reduce -> inception_5a/5x5_reduce
I0704 17:48:48.091933 25106 net.cpp:120] Setting up inception_5a/5x5_reduce
I0704 17:48:48.092277 25106 net.cpp:127] Top shape: 10 32 7 7 (15680)
I0704 17:48:48.092288 25106 layer_factory.hpp:74] Creating layer inception_5a/relu_5x5_reduce
I0704 17:48:48.092294 25106 net.cpp:90] Creating Layer inception_5a/relu_5x5_reduce
I0704 17:48:48.092299 25106 net.cpp:410] inception_5a/relu_5x5_reduce <- inception_5a/5x5_reduce
I0704 17:48:48.092305 25106 net.cpp:357] inception_5a/relu_5x5_reduce -> inception_5a/5x5_reduce (in-place)
I0704 17:48:48.092311 25106 net.cpp:120] Setting up inception_5a/relu_5x5_reduce
I0704 17:48:48.092355 25106 net.cpp:127] Top shape: 10 32 7 7 (15680)
I0704 17:48:48.092360 25106 layer_factory.hpp:74] Creating layer inception_5a/5x5
I0704 17:48:48.092367 25106 net.cpp:90] Creating Layer inception_5a/5x5
I0704 17:48:48.092372 25106 net.cpp:410] inception_5a/5x5 <- inception_5a/5x5_reduce
I0704 17:48:48.092378 25106 net.cpp:368] inception_5a/5x5 -> inception_5a/5x5
I0704 17:48:48.092385 25106 net.cpp:120] Setting up inception_5a/5x5
I0704 17:48:48.093096 25106 net.cpp:127] Top shape: 10 128 7 7 (62720)
I0704 17:48:48.093106 25106 layer_factory.hpp:74] Creating layer inception_5a/relu_5x5
I0704 17:48:48.093113 25106 net.cpp:90] Creating Layer inception_5a/relu_5x5
I0704 17:48:48.093118 25106 net.cpp:410] inception_5a/relu_5x5 <- inception_5a/5x5
I0704 17:48:48.093124 25106 net.cpp:357] inception_5a/relu_5x5 -> inception_5a/5x5 (in-place)
I0704 17:48:48.093130 25106 net.cpp:120] Setting up inception_5a/relu_5x5
I0704 17:48:48.093248 25106 net.cpp:127] Top shape: 10 128 7 7 (62720)
I0704 17:48:48.093257 25106 layer_factory.hpp:74] Creating layer inception_5a/pool
I0704 17:48:48.093263 25106 layer_factory.cpp:55] CUDNN does not support padding or multiple tops. Using Caffe's own pooling layer.
I0704 17:48:48.093279 25106 net.cpp:90] Creating Layer inception_5a/pool
I0704 17:48:48.093286 25106 net.cpp:410] inception_5a/pool <- pool4/3x3_s2_pool4/3x3_s2_0_split_3
I0704 17:48:48.093292 25106 net.cpp:368] inception_5a/pool -> inception_5a/pool
I0704 17:48:48.093298 25106 net.cpp:120] Setting up inception_5a/pool
I0704 17:48:48.093307 25106 net.cpp:127] Top shape: 10 832 7 7 (407680)
I0704 17:48:48.093310 25106 layer_factory.hpp:74] Creating layer inception_5a/pool_proj
I0704 17:48:48.093317 25106 net.cpp:90] Creating Layer inception_5a/pool_proj
I0704 17:48:48.093322 25106 net.cpp:410] inception_5a/pool_proj <- inception_5a/pool
I0704 17:48:48.093328 25106 net.cpp:368] inception_5a/pool_proj -> inception_5a/pool_proj
I0704 17:48:48.093335 25106 net.cpp:120] Setting up inception_5a/pool_proj
I0704 17:48:48.094065 25106 net.cpp:127] Top shape: 10 128 7 7 (62720)
I0704 17:48:48.094076 25106 layer_factory.hpp:74] Creating layer inception_5a/relu_pool_proj
I0704 17:48:48.094084 25106 net.cpp:90] Creating Layer inception_5a/relu_pool_proj
I0704 17:48:48.094089 25106 net.cpp:410] inception_5a/relu_pool_proj <- inception_5a/pool_proj
I0704 17:48:48.094094 25106 net.cpp:357] inception_5a/relu_pool_proj -> inception_5a/pool_proj (in-place)
I0704 17:48:48.094100 25106 net.cpp:120] Setting up inception_5a/relu_pool_proj
I0704 17:48:48.094142 25106 net.cpp:127] Top shape: 10 128 7 7 (62720)
I0704 17:48:48.094147 25106 layer_factory.hpp:74] Creating layer inception_5a/output
I0704 17:48:48.094153 25106 net.cpp:90] Creating Layer inception_5a/output
I0704 17:48:48.094158 25106 net.cpp:410] inception_5a/output <- inception_5a/1x1
I0704 17:48:48.094163 25106 net.cpp:410] inception_5a/output <- inception_5a/3x3
I0704 17:48:48.094168 25106 net.cpp:410] inception_5a/output <- inception_5a/5x5
I0704 17:48:48.094173 25106 net.cpp:410] inception_5a/output <- inception_5a/pool_proj
I0704 17:48:48.094179 25106 net.cpp:368] inception_5a/output -> inception_5a/output
I0704 17:48:48.094185 25106 net.cpp:120] Setting up inception_5a/output
I0704 17:48:48.094192 25106 net.cpp:127] Top shape: 10 832 7 7 (407680)
I0704 17:48:48.094197 25106 layer_factory.hpp:74] Creating layer inception_5a/output_inception_5a/output_0_split
I0704 17:48:48.094202 25106 net.cpp:90] Creating Layer inception_5a/output_inception_5a/output_0_split
I0704 17:48:48.094208 25106 net.cpp:410] inception_5a/output_inception_5a/output_0_split <- inception_5a/output
I0704 17:48:48.094213 25106 net.cpp:368] inception_5a/output_inception_5a/output_0_split -> inception_5a/output_inception_5a/output_0_split_0
I0704 17:48:48.094220 25106 net.cpp:368] inception_5a/output_inception_5a/output_0_split -> inception_5a/output_inception_5a/output_0_split_1
I0704 17:48:48.094226 25106 net.cpp:368] inception_5a/output_inception_5a/output_0_split -> inception_5a/output_inception_5a/output_0_split_2
I0704 17:48:48.094233 25106 net.cpp:368] inception_5a/output_inception_5a/output_0_split -> inception_5a/output_inception_5a/output_0_split_3
I0704 17:48:48.094239 25106 net.cpp:120] Setting up inception_5a/output_inception_5a/output_0_split
I0704 17:48:48.094245 25106 net.cpp:127] Top shape: 10 832 7 7 (407680)
I0704 17:48:48.094250 25106 net.cpp:127] Top shape: 10 832 7 7 (407680)
I0704 17:48:48.094255 25106 net.cpp:127] Top shape: 10 832 7 7 (407680)
I0704 17:48:48.094259 25106 net.cpp:127] Top shape: 10 832 7 7 (407680)
I0704 17:48:48.094264 25106 layer_factory.hpp:74] Creating layer inception_5b/1x1
I0704 17:48:48.094269 25106 net.cpp:90] Creating Layer inception_5b/1x1
I0704 17:48:48.094274 25106 net.cpp:410] inception_5b/1x1 <- inception_5a/output_inception_5a/output_0_split_0
I0704 17:48:48.094280 25106 net.cpp:368] inception_5b/1x1 -> inception_5b/1x1
I0704 17:48:48.094286 25106 net.cpp:120] Setting up inception_5b/1x1
I0704 17:48:48.096060 25106 net.cpp:127] Top shape: 10 384 7 7 (188160)
I0704 17:48:48.096071 25106 layer_factory.hpp:74] Creating layer inception_5b/relu_1x1
I0704 17:48:48.096078 25106 net.cpp:90] Creating Layer inception_5b/relu_1x1
I0704 17:48:48.096091 25106 net.cpp:410] inception_5b/relu_1x1 <- inception_5b/1x1
I0704 17:48:48.096096 25106 net.cpp:357] inception_5b/relu_1x1 -> inception_5b/1x1 (in-place)
I0704 17:48:48.096102 25106 net.cpp:120] Setting up inception_5b/relu_1x1
I0704 17:48:48.096146 25106 net.cpp:127] Top shape: 10 384 7 7 (188160)
I0704 17:48:48.096153 25106 layer_factory.hpp:74] Creating layer inception_5b/3x3_reduce
I0704 17:48:48.096159 25106 net.cpp:90] Creating Layer inception_5b/3x3_reduce
I0704 17:48:48.096164 25106 net.cpp:410] inception_5b/3x3_reduce <- inception_5a/output_inception_5a/output_0_split_1
I0704 17:48:48.096171 25106 net.cpp:368] inception_5b/3x3_reduce -> inception_5b/3x3_reduce
I0704 17:48:48.096179 25106 net.cpp:120] Setting up inception_5b/3x3_reduce
I0704 17:48:48.097164 25106 net.cpp:127] Top shape: 10 192 7 7 (94080)
I0704 17:48:48.097175 25106 layer_factory.hpp:74] Creating layer inception_5b/relu_3x3_reduce
I0704 17:48:48.097182 25106 net.cpp:90] Creating Layer inception_5b/relu_3x3_reduce
I0704 17:48:48.097187 25106 net.cpp:410] inception_5b/relu_3x3_reduce <- inception_5b/3x3_reduce
I0704 17:48:48.097193 25106 net.cpp:357] inception_5b/relu_3x3_reduce -> inception_5b/3x3_reduce (in-place)
I0704 17:48:48.097198 25106 net.cpp:120] Setting up inception_5b/relu_3x3_reduce
I0704 17:48:48.097241 25106 net.cpp:127] Top shape: 10 192 7 7 (94080)
I0704 17:48:48.097247 25106 layer_factory.hpp:74] Creating layer inception_5b/3x3
I0704 17:48:48.097254 25106 net.cpp:90] Creating Layer inception_5b/3x3
I0704 17:48:48.097259 25106 net.cpp:410] inception_5b/3x3 <- inception_5b/3x3_reduce
I0704 17:48:48.097266 25106 net.cpp:368] inception_5b/3x3 -> inception_5b/3x3
I0704 17:48:48.097272 25106 net.cpp:120] Setting up inception_5b/3x3
I0704 17:48:48.120753 25106 net.cpp:127] Top shape: 10 384 7 7 (188160)
I0704 17:48:48.120775 25106 layer_factory.hpp:74] Creating layer inception_5b/relu_3x3
I0704 17:48:48.120784 25106 net.cpp:90] Creating Layer inception_5b/relu_3x3
I0704 17:48:48.120792 25106 net.cpp:410] inception_5b/relu_3x3 <- inception_5b/3x3
I0704 17:48:48.120800 25106 net.cpp:357] inception_5b/relu_3x3 -> inception_5b/3x3 (in-place)
I0704 17:48:48.120807 25106 net.cpp:120] Setting up inception_5b/relu_3x3
I0704 17:48:48.120931 25106 net.cpp:127] Top shape: 10 384 7 7 (188160)
I0704 17:48:48.120940 25106 layer_factory.hpp:74] Creating layer inception_5b/5x5_reduce
I0704 17:48:48.120949 25106 net.cpp:90] Creating Layer inception_5b/5x5_reduce
I0704 17:48:48.120954 25106 net.cpp:410] inception_5b/5x5_reduce <- inception_5a/output_inception_5a/output_0_split_2
I0704 17:48:48.120962 25106 net.cpp:368] inception_5b/5x5_reduce -> inception_5b/5x5_reduce
I0704 17:48:48.120970 25106 net.cpp:120] Setting up inception_5b/5x5_reduce
I0704 17:48:48.121386 25106 net.cpp:127] Top shape: 10 48 7 7 (23520)
I0704 17:48:48.121397 25106 layer_factory.hpp:74] Creating layer inception_5b/relu_5x5_reduce
I0704 17:48:48.121403 25106 net.cpp:90] Creating Layer inception_5b/relu_5x5_reduce
I0704 17:48:48.121408 25106 net.cpp:410] inception_5b/relu_5x5_reduce <- inception_5b/5x5_reduce
I0704 17:48:48.121415 25106 net.cpp:357] inception_5b/relu_5x5_reduce -> inception_5b/5x5_reduce (in-place)
I0704 17:48:48.121422 25106 net.cpp:120] Setting up inception_5b/relu_5x5_reduce
I0704 17:48:48.121466 25106 net.cpp:127] Top shape: 10 48 7 7 (23520)
I0704 17:48:48.121472 25106 layer_factory.hpp:74] Creating layer inception_5b/5x5
I0704 17:48:48.121479 25106 net.cpp:90] Creating Layer inception_5b/5x5
I0704 17:48:48.121484 25106 net.cpp:410] inception_5b/5x5 <- inception_5b/5x5_reduce
I0704 17:48:48.121490 25106 net.cpp:368] inception_5b/5x5 -> inception_5b/5x5
I0704 17:48:48.121497 25106 net.cpp:120] Setting up inception_5b/5x5
I0704 17:48:48.122455 25106 net.cpp:127] Top shape: 10 128 7 7 (62720)
I0704 17:48:48.122467 25106 layer_factory.hpp:74] Creating layer inception_5b/relu_5x5
I0704 17:48:48.122474 25106 net.cpp:90] Creating Layer inception_5b/relu_5x5
I0704 17:48:48.122479 25106 net.cpp:410] inception_5b/relu_5x5 <- inception_5b/5x5
I0704 17:48:48.122500 25106 net.cpp:357] inception_5b/relu_5x5 -> inception_5b/5x5 (in-place)
I0704 17:48:48.122508 25106 net.cpp:120] Setting up inception_5b/relu_5x5
I0704 17:48:48.122550 25106 net.cpp:127] Top shape: 10 128 7 7 (62720)
I0704 17:48:48.122555 25106 layer_factory.hpp:74] Creating layer inception_5b/pool
I0704 17:48:48.122560 25106 layer_factory.cpp:55] CUDNN does not support padding or multiple tops. Using Caffe's own pooling layer.
I0704 17:48:48.122566 25106 net.cpp:90] Creating Layer inception_5b/pool
I0704 17:48:48.122571 25106 net.cpp:410] inception_5b/pool <- inception_5a/output_inception_5a/output_0_split_3
I0704 17:48:48.122577 25106 net.cpp:368] inception_5b/pool -> inception_5b/pool
I0704 17:48:48.122583 25106 net.cpp:120] Setting up inception_5b/pool
I0704 17:48:48.122591 25106 net.cpp:127] Top shape: 10 832 7 7 (407680)
I0704 17:48:48.122596 25106 layer_factory.hpp:74] Creating layer inception_5b/pool_proj
I0704 17:48:48.122603 25106 net.cpp:90] Creating Layer inception_5b/pool_proj
I0704 17:48:48.122607 25106 net.cpp:410] inception_5b/pool_proj <- inception_5b/pool
I0704 17:48:48.122614 25106 net.cpp:368] inception_5b/pool_proj -> inception_5b/pool_proj
I0704 17:48:48.122620 25106 net.cpp:120] Setting up inception_5b/pool_proj
I0704 17:48:48.123368 25106 net.cpp:127] Top shape: 10 128 7 7 (62720)
I0704 17:48:48.123378 25106 layer_factory.hpp:74] Creating layer inception_5b/relu_pool_proj
I0704 17:48:48.123384 25106 net.cpp:90] Creating Layer inception_5b/relu_pool_proj
I0704 17:48:48.123389 25106 net.cpp:410] inception_5b/relu_pool_proj <- inception_5b/pool_proj
I0704 17:48:48.123396 25106 net.cpp:357] inception_5b/relu_pool_proj -> inception_5b/pool_proj (in-place)
I0704 17:48:48.123402 25106 net.cpp:120] Setting up inception_5b/relu_pool_proj
I0704 17:48:48.123445 25106 net.cpp:127] Top shape: 10 128 7 7 (62720)
I0704 17:48:48.123450 25106 layer_factory.hpp:74] Creating layer inception_5b/output
I0704 17:48:48.123456 25106 net.cpp:90] Creating Layer inception_5b/output
I0704 17:48:48.123461 25106 net.cpp:410] inception_5b/output <- inception_5b/1x1
I0704 17:48:48.123466 25106 net.cpp:410] inception_5b/output <- inception_5b/3x3
I0704 17:48:48.123471 25106 net.cpp:410] inception_5b/output <- inception_5b/5x5
I0704 17:48:48.123476 25106 net.cpp:410] inception_5b/output <- inception_5b/pool_proj
I0704 17:48:48.123482 25106 net.cpp:368] inception_5b/output -> inception_5b/output
I0704 17:48:48.123488 25106 net.cpp:120] Setting up inception_5b/output
I0704 17:48:48.123495 25106 net.cpp:127] Top shape: 10 1024 7 7 (501760)
I0704 17:48:48.123499 25106 layer_factory.hpp:74] Creating layer pool5/7x7_s1
I0704 17:48:48.123505 25106 net.cpp:90] Creating Layer pool5/7x7_s1
I0704 17:48:48.123509 25106 net.cpp:410] pool5/7x7_s1 <- inception_5b/output
I0704 17:48:48.123517 25106 net.cpp:368] pool5/7x7_s1 -> pool5/7x7_s1
I0704 17:48:48.123523 25106 net.cpp:120] Setting up pool5/7x7_s1
I0704 17:48:48.123641 25106 net.cpp:127] Top shape: 10 1024 1 1 (10240)
I0704 17:48:48.123651 25106 layer_factory.hpp:74] Creating layer pool5/drop_7x7_s1
I0704 17:48:48.123656 25106 net.cpp:90] Creating Layer pool5/drop_7x7_s1
I0704 17:48:48.123661 25106 net.cpp:410] pool5/drop_7x7_s1 <- pool5/7x7_s1
I0704 17:48:48.123667 25106 net.cpp:357] pool5/drop_7x7_s1 -> pool5/7x7_s1 (in-place)
I0704 17:48:48.123672 25106 net.cpp:120] Setting up pool5/drop_7x7_s1
I0704 17:48:48.123679 25106 net.cpp:127] Top shape: 10 1024 1 1 (10240)
I0704 17:48:48.123683 25106 layer_factory.hpp:74] Creating layer stanford_cars_loss3/classifier
I0704 17:48:48.123690 25106 net.cpp:90] Creating Layer stanford_cars_loss3/classifier
I0704 17:48:48.123694 25106 net.cpp:410] stanford_cars_loss3/classifier <- pool5/7x7_s1
I0704 17:48:48.123702 25106 net.cpp:368] stanford_cars_loss3/classifier -> stanford_cars_loss3/classifier
I0704 17:48:48.123708 25106 net.cpp:120] Setting up stanford_cars_loss3/classifier
I0704 17:48:48.124693 25106 net.cpp:127] Top shape: 10 196 (1960)
I0704 17:48:48.124701 25106 layer_factory.hpp:74] Creating layer stanford_cars_loss3/classifier_stanford_cars_loss3/classifier_0_split
I0704 17:48:48.124716 25106 net.cpp:90] Creating Layer stanford_cars_loss3/classifier_stanford_cars_loss3/classifier_0_split
I0704 17:48:48.124722 25106 net.cpp:410] stanford_cars_loss3/classifier_stanford_cars_loss3/classifier_0_split <- stanford_cars_loss3/classifier
I0704 17:48:48.124727 25106 net.cpp:368] stanford_cars_loss3/classifier_stanford_cars_loss3/classifier_0_split -> stanford_cars_loss3/classifier_stanford_cars_loss3/classifier_0_split_0
I0704 17:48:48.124734 25106 net.cpp:368] stanford_cars_loss3/classifier_stanford_cars_loss3/classifier_0_split -> stanford_cars_loss3/classifier_stanford_cars_loss3/classifier_0_split_1
I0704 17:48:48.124742 25106 net.cpp:368] stanford_cars_loss3/classifier_stanford_cars_loss3/classifier_0_split -> stanford_cars_loss3/classifier_stanford_cars_loss3/classifier_0_split_2
I0704 17:48:48.124748 25106 net.cpp:120] Setting up stanford_cars_loss3/classifier_stanford_cars_loss3/classifier_0_split
I0704 17:48:48.124754 25106 net.cpp:127] Top shape: 10 196 (1960)
I0704 17:48:48.124759 25106 net.cpp:127] Top shape: 10 196 (1960)
I0704 17:48:48.124763 25106 net.cpp:127] Top shape: 10 196 (1960)
I0704 17:48:48.124768 25106 layer_factory.hpp:74] Creating layer loss3/loss3
I0704 17:48:48.124773 25106 net.cpp:90] Creating Layer loss3/loss3
I0704 17:48:48.124778 25106 net.cpp:410] loss3/loss3 <- stanford_cars_loss3/classifier_stanford_cars_loss3/classifier_0_split_0
I0704 17:48:48.124783 25106 net.cpp:410] loss3/loss3 <- label_data_1_split_6
I0704 17:48:48.124790 25106 net.cpp:368] loss3/loss3 -> loss3/loss3
…
