…
I0704 18:21:28.663553 32707 net.cpp:287] The NetState phase (0) differed from the phase (1) specified by a rule in layer loss3/top-5
I0704 18:21:28.664206 32707 net.cpp:42] Initializing net from parameters: 
name: "GoogleNet"
state {
  phase: TRAIN
}
layer {
  name: "data"
  type: "Data"
  top: "data"
  top: "label"
  include {
    phase: TRAIN
  }
  transform_param {
    mirror: true
    crop_size: 224
    mean_value: 104
    mean_value: 117
    mean_value: 123
  }
  data_param {
    source: "examples/stanford_cars/stanford_cars_train_lmdb"
    batch_size: 30
    backend: LMDB
  }
}
layer {
  name: "conv1/7x7_s2"
  type: "Convolution"
  bottom: "data"
  top: "conv1/7x7_s2"
  param {
    lr_mult: 1
    decay_mult: 1
  }
  param {
    lr_mult: 2
    decay_mult: 0
  }
  convolution_param {
    num_output: 64
    pad: 3
    kernel_size: 7
    stride: 2
    weight_filler {
      type: "xavier"
      std: 0.1
    }
    bias_filler {
      type: "constant"
      value: 0.2
    }
  }
}
layer {
  name: "conv1/relu_7x7"
  type: "ReLU"
  bottom: "conv1/7x7_s2"
  top: "conv1/7x7_s2"
}
layer {
  name: "pool1/3x3_s2"
  type: "Pooling"
  bottom: "conv1/7x7_s2"
  top: "pool1/3x3_s2"
  pooling_param {
    pool: MAX
    kernel_size: 3
    stride: 2
  }
}
layer {
  name: "pool1/norm1"
  type: "LRN"
  bottom: "pool1/3x3_s2"
  top: "pool1/norm1"
  lrn_param {
    local_size: 5
    alpha: 0.0001
    beta: 0.75
  }
}
layer {
  name: "conv2/3x3_reduce"
  type: "Convolution"
  bottom: "pool1/norm1"
  top: "conv2/3x3_reduce"
  param {
    lr_mult: 1
    decay_mult: 1
  }
  param {
    lr_mult: 2
    decay_mult: 0
  }
  convolution_param {
    num_output: 64
    kernel_size: 1
    weight_filler {
      type: "xavier"
      std: 0.1
    }
    bias_filler {
      type: "constant"
      value: 0.2
    }
  }
}
layer {
  name: "conv2/relu_3x3_reduce"
  type: "ReLU"
  bottom: "conv2/3x3_reduce"
  top: "conv2/3x3_reduce"
}
layer {
  name: "conv2/3x3"
  type: "Convolution"
  bottom: "conv2/3x3_reduce"
  top: "conv2/3x3"
  param {
    lr_mult: 1
    decay_mult: 1
  }
  param {
    lr_mult: 2
    decay_mult: 0
  }
  convolution_param {
    num_output: 192
    pad: 1
    kernel_size: 3
    weight_filler {
      type: "xavier"
      std: 0.03
    }
    bias_filler {
      type: "constant"
      value: 0.2
    }
  }
}
layer {
  name: "conv2/relu_3x3"
  type: "ReLU"
  bottom: "conv2/3x3"
  top: "conv2/3x3"
}
layer {
  name: "conv2/norm2"
  type: "LRN"
  bottom: "conv2/3x3"
  top: "conv2/norm2"
  lrn_param {
    local_size: 5
    alpha: 0.0001
    beta: 0.75
  }
}
layer {
  name: "pool2/3x3_s2"
  type: "Pooling"
  bottom: "conv2/norm2"
  top: "pool2/3x3_s2"
  pooling_param {
    pool: MAX
    kernel_size: 3
    stride: 2
  }
}
layer {
  name: "inception_3a/1x1"
  type: "Convolution"
  bottom: "pool2/3x3_s2"
  top: "inception_3a/1x1"
  param {
    lr_mult: 1
    decay_mult: 1
  }
  param {
    lr_mult: 2
    decay_mult: 0
  }
  convolution_param {
    num_output: 64
    kernel_size: 1
    weight_filler {
      type: "xavier"
      std: 0.03
    }
    bias_filler {
      type: "constant"
      value: 0.2
    }
  }
}
layer {
  name: "inception_3a/relu_1x1"
  type: "ReLU"
  bottom: "inception_3a/1x1"
  top: "inception_3a/1x1"
}
layer {
  name: "inception_3a/3x3_reduce"
  type: "Convolution"
  bottom: "pool2/3x3_s2"
  top: "inception_3a/3x3_reduce"
  param {
    lr_mult: 1
    decay_mult: 1
  }
  param {
    lr_mult: 2
    decay_mult: 0
  }
  convolution_param {
    num_output: 96
    kernel_size: 1
    weight_filler {
      type: "xavier"
      std: 0.09
    }
    bias_filler {
      type: "constant"
      value: 0.2
    }
  }
}
layer {
  name: "inception_3a/relu_3x3_reduce"
  type: "ReLU"
  bottom: "inception_3a/3x3_reduce"
  top: "inception_3a/3x3_reduce"
}
layer {
  name: "inception_3a/3x3"
  type: "Convolution"
  bottom: "inception_3a/3x3_reduce"
  top: "inception_3a/3x3"
  param {
    lr_mult: 1
    decay_mult: 1
  }
  param {
    lr_mult: 2
    decay_mult: 0
  }
  convolution_param {
    num_output: 128
    pad: 1
    kernel_size: 3
    weight_filler {
      type: "xavier"
      std: 0.03
    }
    bias_filler {
      type: "constant"
      value: 0.2
    }
  }
}
layer {
  name: "inception_3a/relu_3x3"
  type: "ReLU"
  bottom: "inception_3a/3x3"
  top: "inception_3a/3x3"
}
layer {
  name: "inception_3a/5x5_reduce"
  type: "Convolution"
  bottom: "pool2/3x3_s2"
  top: "inception_3a/5x5_reduce"
  param {
    lr_mult: 1
    decay_mult: 1
  }
  param {
    lr_mult: 2
    decay_mult: 0
  }
  convolution_param {
    num_output: 16
    kernel_size: 1
    weight_filler {
      type: "xavier"
      std: 0.2
    }
    bias_filler {
      type: "constant"
      value: 0.2
    }
  }
}
layer {
  name: "inception_3a/relu_5x5_reduce"
  type: "ReLU"
  bottom: "inception_3a/5x5_reduce"
  top: "inception_3a/5x5_reduce"
}
layer {
  name: "inception_3a/5x5"
  type: "Convolution"
  bottom: "inception_3a/5x5_reduce"
  top: "inception_3a/5x5"
  param {
    lr_mult: 1
    decay_mult: 1
  }
  param {
    lr_mult: 2
    decay_mult: 0
  }
  convolution_param {
    num_output: 32
    pad: 2
    kernel_size: 5
    weight_filler {
      type: "xavier"
      std: 0.03
    }
    bias_filler {
      type: "constant"
      value: 0.2
    }
  }
}
layer {
  name: "inception_3a/relu_5x5"
  type: "ReLU"
  bottom: "inception_3a/5x5"
  top: "inception_3a/5x5"
}
layer {
  name: "inception_3a/pool"
  type: "Pooling"
  bottom: "pool2/3x3_s2"
  top: "inception_3a/pool"
  pooling_param {
    pool: MAX
    kernel_size: 3
    stride: 1
    pad: 1
  }
}
layer {
  name: "inception_3a/pool_proj"
  type: "Convolution"
  bottom: "inception_3a/pool"
  top: "inception_3a/pool_proj"
  param {
    lr_mult: 1
    decay_mult: 1
  }
  param {
    lr_mult: 2
    decay_mult: 0
  }
  convolution_param {
    num_output: 32
    kernel_size: 1
    weight_filler {
      type: "xavier"
      std: 0.1
    }
    bias_filler {
      type: "constant"
      value: 0.2
    }
  }
}
layer {
  name: "inception_3a/relu_pool_proj"
  type: "ReLU"
  bottom: "inception_3a/pool_proj"
  top: "inception_3a/pool_proj"
}
layer {
  name: "inception_3a/output"
  type: "Concat"
  bottom: "inception_3a/1x1"
  bottom: "inception_3a/3x3"
  bottom: "inception_3a/5x5"
  bottom: "inception_3a/pool_proj"
  top: "inception_3a/output"
}
layer {
  name: "inception_3b/1x1"
  type: "Convolution"
  bottom: "inception_3a/output"
  top: "inception_3b/1x1"
  param {
    lr_mult: 1
    decay_mult: 1
  }
  param {
    lr_mult: 2
    decay_mult: 0
  }
  convolution_param {
    num_output: 128
    kernel_size: 1
    weight_filler {
      type: "xavier"
      std: 0.03
    }
    bias_filler {
      type: "constant"
      value: 0.2
    }
  }
}
layer {
  name: "inception_3b/relu_1x1"
  type: "ReLU"
  bottom: "inception_3b/1x1"
  top: "inception_3b/1x1"
}
layer {
  name: "inception_3b/3x3_reduce"
  type: "Convolution"
  bottom: "inception_3a/output"
  top: "inception_3b/3x3_reduce"
  param {
    lr_mult: 1
    decay_mult: 1
  }
  param {
    lr_mult: 2
    decay_mult: 0
  }
  convolution_param {
    num_output: 128
    kernel_size: 1
    weight_filler {
      type: "xavier"
      std: 0.09
    }
    bias_filler {
      type: "constant"
      value: 0.2
    }
  }
}
layer {
  name: "inception_3b/relu_3x3_reduce"
  type: "ReLU"
  bottom: "inception_3b/3x3_reduce"
  top: "inception_3b/3x3_reduce"
}
layer {
  name: "inception_3b/3x3"
  type: "Convolution"
  bottom: "inception_3b/3x3_reduce"
  top: "inception_3b/3x3"
  param {
    lr_mult: 1
    decay_mult: 1
  }
  param {
    lr_mult: 2
    decay_mult: 0
  }
  convolution_param {
    num_output: 192
    pad: 1
    kernel_size: 3
    weight_filler {
      type: "xavier"
      std: 0.03
    }
    bias_filler {
      type: "constant"
      value: 0.2
    }
  }
}
layer {
  name: "inception_3b/relu_3x3"
  type: "ReLU"
  bottom: "inception_3b/3x3"
  top: "inception_3b/3x3"
}
layer {
  name: "inception_3b/5x5_reduce"
  type: "Convolution"
  bottom: "inception_3a/output"
  top: "inception_3b/5x5_reduce"
  param {
    lr_mult: 1
    decay_mult: 1
  }
  param {
    lr_mult: 2
    decay_mult: 0
  }
  convolution_param {
    num_output: 32
    kernel_size: 1
    weight_filler {
      type: "xavier"
      std: 0.2
    }
    bias_filler {
      type: "constant"
      value: 0.2
    }
  }
}
layer {
  name: "inception_3b/relu_5x5_reduce"
  type: "ReLU"
  bottom: "inception_3b/5x5_reduce"
  top: "inception_3b/5x5_reduce"
}
layer {
  name: "inception_3b/5x5"
  type: "Convolution"
  bottom: "inception_3b/5x5_reduce"
  top: "inception_3b/5x5"
  param {
    lr_mult: 1
    decay_mult: 1
  }
  param {
    lr_mult: 2
    decay_mult: 0
  }
  convolution_param {
    num_output: 96
    pad: 2
    kernel_size: 5
    weight_filler {
      type: "xavier"
      std: 0.03
    }
    bias_filler {
      type: "constant"
      value: 0.2
    }
  }
}
layer {
  name: "inception_3b/relu_5x5"
  type: "ReLU"
  bottom: "inception_3b/5x5"
  top: "inception_3b/5x5"
}
layer {
  name: "inception_3b/pool"
  type: "Pooling"
  bottom: "inception_3a/output"
  top: "inception_3b/pool"
  pooling_param {
    pool: MAX
    kernel_size: 3
    stride: 1
    pad: 1
  }
}
layer {
  name: "inception_3b/pool_proj"
  type: "Convolution"
  bottom: "inception_3b/pool"
  top: "inception_3b/pool_proj"
  param {
    lr_mult: 1
    decay_mult: 1
  }
  param {
    lr_mult: 2
    decay_mult: 0
  }
  convolution_param {
    num_output: 64
    kernel_size: 1
    weight_filler {
      type: "xavier"
      std: 0.1
    }
    bias_filler {
      type: "constant"
      value: 0.2
    }
  }
}
layer {
  name: "inception_3b/relu_pool_proj"
  type: "ReLU"
  bottom: "inception_3b/pool_proj"
  top: "inception_3b/pool_proj"
}
layer {
  name: "inception_3b/output"
  type: "Concat"
  bottom: "inception_3b/1x1"
  bottom: "inception_3b/3x3"
  bottom: "inception_3b/5x5"
  bottom: "inception_3b/pool_proj"
  top: "inception_3b/output"
}
layer {
  name: "pool3/3x3_s2"
  type: "Pooling"
  bottom: "inception_3b/output"
  top: "pool3/3x3_s2"
  pooling_param {
    pool: MAX
    kernel_size: 3
    stride: 2
  }
}
layer {
  name: "inception_4a/1x1"
  type: "Convolution"
  bottom: "pool3/3x3_s2"
  top: "inception_4a/1x1"
  param {
    lr_mult: 1
    decay_mult: 1
  }
  param {
    lr_mult: 2
    decay_mult: 0
  }
  convolution_param {
    num_output: 192
    kernel_size: 1
    weight_filler {
      type: "xavier"
      std: 0.03
    }
    bias_filler {
      type: "constant"
      value: 0.2
    }
  }
}
layer {
  name: "inception_4a/relu_1x1"
  type: "ReLU"
  bottom: "inception_4a/1x1"
  top: "inception_4a/1x1"
}
layer {
  name: "inception_4a/3x3_reduce"
  type: "Convolution"
  bottom: "pool3/3x3_s2"
  top: "inception_4a/3x3_reduce"
  param {
    lr_mult: 1
    decay_mult: 1
  }
  param {
    lr_mult: 2
    decay_mult: 0
  }
  convolution_param {
    num_output: 96
    kernel_size: 1
    weight_filler {
      type: "xavier"
      std: 0.09
    }
    bias_filler {
      type: "constant"
      value: 0.2
    }
  }
}
layer {
  name: "inception_4a/relu_3x3_reduce"
  type: "ReLU"
  bottom: "inception_4a/3x3_reduce"
  top: "inception_4a/3x3_reduce"
}
layer {
  name: "inception_4a/3x3"
  type: "Convolution"
  bottom: "inception_4a/3x3_reduce"
  top: "inception_4a/3x3"
  param {
    lr_mult: 1
    decay_mult: 1
  }
  param {
    lr_mult: 2
    decay_mult: 0
  }
  convolution_param {
    num_output: 208
    pad: 1
    kernel_size: 3
    weight_filler {
      type: "xavier"
      std: 0.03
    }
    bias_filler {
      type: "constant"
      value: 0.2
    }
  }
}
layer {
  name: "inception_4a/relu_3x3"
  type: "ReLU"
  bottom: "inception_4a/3x3"
  top: "inception_4a/3x3"
}
layer {
  name: "inception_4a/5x5_reduce"
  type: "Convolution"
  bottom: "pool3/3x3_s2"
  top: "inception_4a/5x5_reduce"
  param {
    lr_mult: 1
    decay_mult: 1
  }
  param {
    lr_mult: 2
    decay_mult: 0
  }
  convolution_param {
    num_output: 16
    kernel_size: 1
    weight_filler {
      type: "xavier"
      std: 0.2
    }
    bias_filler {
      type: "constant"
      value: 0.2
    }
  }
}
layer {
  name: "inception_4a/relu_5x5_reduce"
  type: "ReLU"
  bottom: "inception_4a/5x5_reduce"
  top: "inception_4a/5x5_reduce"
}
layer {
  name: "inception_4a/5x5"
  type: "Convolution"
  bottom: "inception_4a/5x5_reduce"
  top: "inception_4a/5x5"
  param {
    lr_mult: 1
    decay_mult: 1
  }
  param {
    lr_mult: 2
    decay_mult: 0
  }
  convolution_param {
    num_output: 48
    pad: 2
    kernel_size: 5
    weight_filler {
      type: "xavier"
      std: 0.03
    }
    bias_filler {
      type: "constant"
      value: 0.2
    }
  }
}
layer {
  name: "inception_4a/relu_5x5"
  type: "ReLU"
  bottom: "inception_4a/5x5"
  top: "inception_4a/5x5"
}
layer {
  name: "inception_4a/pool"
  type: "Pooling"
  bottom: "pool3/3x3_s2"
  top: "inception_4a/pool"
  pooling_param {
    pool: MAX
    kernel_size: 3
    stride: 1
    pad: 1
  }
}
layer {
  name: "inception_4a/pool_proj"
  type: "Convolution"
  bottom: "inception_4a/pool"
  top: "inception_4a/pool_proj"
  param {
    lr_mult: 1
    decay_mult: 1
  }
  param {
    lr_mult: 2
    decay_mult: 0
  }
  convolution_param {
    num_output: 64
    kernel_size: 1
    weight_filler {
      type: "xavier"
      std: 0.1
    }
    bias_filler {
      type: "constant"
      value: 0.2
    }
  }
}
layer {
  name: "inception_4a/relu_pool_proj"
  type: "ReLU"
  bottom: "inception_4a/pool_proj"
  top: "inception_4a/pool_proj"
}
layer {
  name: "inception_4a/output"
  type: "Concat"
  bottom: "inception_4a/1x1"
  bottom: "inception_4a/3x3"
  bottom: "inception_4a/5x5"
  bottom: "inception_4a/pool_proj"
  top: "inception_4a/output"
}
layer {
  name: "loss1/ave_pool"
  type: "Pooling"
  bottom: "inception_4a/output"
  top: "loss1/ave_pool"
  pooling_param {
    pool: AVE
    kernel_size: 5
    stride: 3
  }
}
layer {
  name: "loss1/conv"
  type: "Convolution"
  bottom: "loss1/ave_pool"
  top: "loss1/conv"
  param {
    lr_mult: 1
    decay_mult: 1
  }
  param {
    lr_mult: 2
    decay_mult: 0
  }
  convolution_param {
    num_output: 128
    kernel_size: 1
    weight_filler {
      type: "xavier"
      std: 0.08
    }
    bias_filler {
      type: "constant"
      value: 0.2
    }
  }
}
layer {
  name: "loss1/relu_conv"
  type: "ReLU"
  bottom: "loss1/conv"
  top: "loss1/conv"
}
layer {
  name: "loss1/fc"
  type: "InnerProduct"
  bottom: "loss1/conv"
  top: "loss1/fc"
  param {
    lr_mult: 1
    decay_mult: 1
  }
  param {
    lr_mult: 2
    decay_mult: 0
  }
  inner_product_param {
    num_output: 1024
    weight_filler {
      type: "xavier"
      std: 0.02
    }
    bias_filler {
      type: "constant"
      value: 0.2
    }
  }
}
layer {
  name: "loss1/relu_fc"
  type: "ReLU"
  bottom: "loss1/fc"
  top: "loss1/fc"
}
layer {
  name: "loss1/drop_fc"
  type: "Dropout"
  bottom: "loss1/fc"
  top: "loss1/fc"
  dropout_param {
    dropout_ratio: 0.2
  }
}
layer {
  name: "stanford_cars_loss1/classifier"
  type: "InnerProduct"
  bottom: "loss1/fc"
  top: "stanford_cars_loss1/classifier"
  param {
    lr_mult: 1
    decay_mult: 1
  }
  param {
    lr_mult: 2
    decay_mult: 0
  }
  inner_product_param {
    num_output: 196
    weight_filler {
      type: "xavier"
      std: 0.0009765625
    }
    bias_filler {
      type: "constant"
      value: 0
    }
  }
}
layer {
  name: "loss1/loss"
  type: "SoftmaxWithLoss"
  bottom: "stanford_cars_loss1/classifier"
  bottom: "label"
  top: "loss1/loss1"
  loss_weight: 0.3
}
layer {
  name: "inception_4b/1x1"
  type: "Convolution"
  bottom: "inception_4a/output"
  top: "inception_4b/1x1"
  param {
    lr_mult: 1
    decay_mult: 1
  }
  param {
    lr_mult: 2
    decay_mult: 0
  }
  convolution_param {
    num_output: 160
    kernel_size: 1
    weight_filler {
      type: "xavier"
      std: 0.03
    }
    bias_filler {
      type: "constant"
      value: 0.2
    }
  }
}
layer {
  name: "inception_4b/relu_1x1"
  type: "ReLU"
  bottom: "inception_4b/1x1"
  top: "inception_4b/1x1"
}
layer {
  name: "inception_4b/3x3_reduce"
  type: "Convolution"
  bottom: "inception_4a/output"
  top: "inception_4b/3x3_reduce"
  param {
    lr_mult: 1
    decay_mult: 1
  }
  param {
    lr_mult: 2
    decay_mult: 0
  }
  convolution_param {
    num_output: 112
    kernel_size: 1
    weight_filler {
      type: "xavier"
      std: 0.09
    }
    bias_filler {
      type: "constant"
      value: 0.2
    }
  }
}
layer {
  name: "inception_4b/relu_3x3_reduce"
  type: "ReLU"
  bottom: "inception_4b/3x3_reduce"
  top: "inception_4b/3x3_reduce"
}
layer {
  name: "inception_4b/3x3"
  type: "Convolution"
  bottom: "inception_4b/3x3_reduce"
  top: "inception_4b/3x3"
  param {
    lr_mult: 1
    decay_mult: 1
  }
  param {
    lr_mult: 2
    decay_mult: 0
  }
  convolution_param {
    num_output: 224
    pad: 1
    kernel_size: 3
    weight_filler {
      type: "xavier"
      std: 0.03
    }
    bias_filler {
      type: "constant"
      value: 0.2
    }
  }
}
layer {
  name: "inception_4b/relu_3x3"
  type: "ReLU"
  bottom: "inception_4b/3x3"
  top: "inception_4b/3x3"
}
layer {
  name: "inception_4b/5x5_reduce"
  type: "Convolution"
  bottom: "inception_4a/output"
  top: "inception_4b/5x5_reduce"
  param {
    lr_mult: 1
    decay_mult: 1
  }
  param {
    lr_mult: 2
    decay_mult: 0
  }
  convolution_param {
    num_output: 24
    kernel_size: 1
    weight_filler {
      type: "xavier"
      std: 0.2
    }
    bias_filler {
      type: "constant"
      value: 0.2
    }
  }
}
layer {
  name: "inception_4b/relu_5x5_reduce"
  type: "ReLU"
  bottom: "inception_4b/5x5_reduce"
  top: "inception_4b/5x5_reduce"
}
layer {
  name: "inception_4b/5x5"
  type: "Convolution"
  bottom: "inception_4b/5x5_reduce"
  top: "inception_4b/5x5"
  param {
    lr_mult: 1
    decay_mult: 1
  }
  param {
    lr_mult: 2
    decay_mult: 0
  }
  convolution_param {
    num_output: 64
    pad: 2
    kernel_size: 5
    weight_filler {
      type: "xavier"
      std: 0.03
    }
    bias_filler {
      type: "constant"
      value: 0.2
    }
  }
}
layer {
  name: "inception_4b/relu_5x5"
  type: "ReLU"
  bottom: "inception_4b/5x5"
  top: "inception_4b/5x5"
}
layer {
  name: "inception_4b/pool"
  type: "Pooling"
  bottom: "inception_4a/output"
  top: "inception_4b/pool"
  pooling_param {
    pool: MAX
    kernel_size: 3
    stride: 1
    pad: 1
  }
}
layer {
  name: "inception_4b/pool_proj"
  type: "Convolution"
  bottom: "inception_4b/pool"
  top: "inception_4b/pool_proj"
  param {
    lr_mult: 1
    decay_mult: 1
  }
  param {
    lr_mult: 2
    decay_mult: 0
  }
  convolution_param {
    num_output: 64
    kernel_size: 1
    weight_filler {
      type: "xavier"
      std: 0.1
    }
    bias_filler {
      type: "constant"
      value: 0.2
    }
  }
}
layer {
  name: "inception_4b/relu_pool_proj"
  type: "ReLU"
  bottom: "inception_4b/pool_proj"
  top: "inception_4b/pool_proj"
}
layer {
  name: "inception_4b/output"
  type: "Concat"
  bottom: "inception_4b/1x1"
  bottom: "inception_4b/3x3"
  bottom: "inception_4b/5x5"
  bottom: "inception_4b/pool_proj"
  top: "inception_4b/output"
}
layer {
  name: "inception_4c/1x1"
  type: "Convolution"
  bottom: "inception_4b/output"
  top: "inception_4c/1x1"
  param {
    lr_mult: 1
    decay_mult: 1
  }
  param {
    lr_mult: 2
    decay_mult: 0
  }
  convolution_param {
    num_output: 128
    kernel_size: 1
    weight_filler {
      type: "xavier"
      std: 0.03
    }
    bias_filler {
      type: "constant"
      value: 0.2
    }
  }
}
layer {
  name: "inception_4c/relu_1x1"
  type: "ReLU"
  bottom: "inception_4c/1x1"
  top: "inception_4c/1x1"
}
layer {
  name: "inception_4c/3x3_reduce"
  type: "Convolution"
  bottom: "inception_4b/output"
  top: "inception_4c/3x3_reduce"
  param {
    lr_mult: 1
    decay_mult: 1
  }
  param {
    lr_mult: 2
    decay_mult: 0
  }
  convolution_param {
    num_output: 128
    kernel_size: 1
    weight_filler {
      type: "xavier"
      std: 0.09
    }
    bias_filler {
      type: "constant"
      value: 0.2
    }
  }
}
layer {
  name: "inception_4c/relu_3x3_reduce"
  type: "ReLU"
  bottom: "inception_4c/3x3_reduce"
  top: "inception_4c/3x3_reduce"
}
layer {
  name: "inception_4c/3x3"
  type: "Convolution"
  bottom: "inception_4c/3x3_reduce"
  top: "inception_4c/3x3"
  param {
    lr_mult: 1
    decay_mult: 1
  }
  param {
    lr_mult: 2
    decay_mult: 0
  }
  convolution_param {
    num_output: 256
    pad: 1
    kernel_size: 3
    weight_filler {
      type: "xavier"
      std: 0.03
    }
    bias_filler {
      type: "constant"
      value: 0.2
    }
  }
}
layer {
  name: "inception_4c/relu_3x3"
  type: "ReLU"
  bottom: "inception_4c/3x3"
  top: "inception_4c/3x3"
}
layer {
  name: "inception_4c/5x5_reduce"
  type: "Convolution"
  bottom: "inception_4b/output"
  top: "inception_4c/5x5_reduce"
  param {
    lr_mult: 1
    decay_mult: 1
  }
  param {
    lr_mult: 2
    decay_mult: 0
  }
  convolution_param {
    num_output: 24
    kernel_size: 1
    weight_filler {
      type: "xavier"
      std: 0.2
    }
    bias_filler {
      type: "constant"
      value: 0.2
    }
  }
}
layer {
  name: "inception_4c/relu_5x5_reduce"
  type: "ReLU"
  bottom: "inception_4c/5x5_reduce"
  top: "inception_4c/5x5_reduce"
}
layer {
  name: "inception_4c/5x5"
  type: "Convolution"
  bottom: "inception_4c/5x5_reduce"
  top: "inception_4c/5x5"
  param {
    lr_mult: 1
    decay_mult: 1
  }
  param {
    lr_mult: 2
    decay_mult: 0
  }
  convolution_param {
    num_output: 64
    pad: 2
    kernel_size: 5
    weight_filler {
      type: "xavier"
      std: 0.03
    }
    bias_filler {
      type: "constant"
      value: 0.2
    }
  }
}
layer {
  name: "inception_4c/relu_5x5"
  type: "ReLU"
  bottom: "inception_4c/5x5"
  top: "inception_4c/5x5"
}
layer {
  name: "inception_4c/pool"
  type: "Pooling"
  bottom: "inception_4b/output"
  top: "inception_4c/pool"
  pooling_param {
    pool: MAX
    kernel_size: 3
    stride: 1
    pad: 1
  }
}
layer {
  name: "inception_4c/pool_proj"
  type: "Convolution"
  bottom: "inception_4c/pool"
  top: "inception_4c/pool_proj"
  param {
    lr_mult: 1
    decay_mult: 1
  }
  param {
    lr_mult: 2
    decay_mult: 0
  }
  convolution_param {
    num_output: 64
    kernel_size: 1
    weight_filler {
      type: "xavier"
      std: 0.1
    }
    bias_filler {
      type: "constant"
      value: 0.2
    }
  }
}
layer {
  name: "inception_4c/relu_pool_proj"
  type: "ReLU"
  bottom: "inception_4c/pool_proj"
  top: "inception_4c/pool_proj"
}
layer {
  name: "inception_4c/output"
  type: "Concat"
  bottom: "inception_4c/1x1"
  bottom: "inception_4c/3x3"
  bottom: "inception_4c/5x5"
  bottom: "inception_4c/pool_proj"
  top: "inception_4c/output"
}
layer {
  name: "inception_4d/1x1"
  type: "Convolution"
  bottom: "inception_4c/output"
  top: "inception_4d/1x1"
  param {
    lr_mult: 1
    decay_mult: 1
  }
  param {
    lr_mult: 2
    decay_mult: 0
  }
  convolution_param {
    num_output: 112
    kernel_size: 1
    weight_filler {
      type: "xavier"
      std: 0.03
    }
    bias_filler {
      type: "constant"
      value: 0.2
    }
  }
}
layer {
  name: "inception_4d/relu_1x1"
  type: "ReLU"
  bottom: "inception_4d/1x1"
  top: "inception_4d/1x1"
}
layer {
  name: "inception_4d/3x3_reduce"
  type: "Convolution"
  bottom: "inception_4c/output"
  top: "inception_4d/3x3_reduce"
  param {
    lr_mult: 1
    decay_mult: 1
  }
  param {
    lr_mult: 2
    decay_mult: 0
  }
  convolution_param {
    num_output: 144
    kernel_size: 1
    weight_filler {
      type: "xavier"
      std: 0.09
    }
    bias_filler {
      type: "constant"
      value: 0.2
    }
  }
}
layer {
  name: "inception_4d/relu_3x3_reduce"
  type: "ReLU"
  bottom: "inception_4d/3x3_reduce"
  top: "inception_4d/3x3_reduce"
}
layer {
  name: "inception_4d/3x3"
  type: "Convolution"
  bottom: "inception_4d/3x3_reduce"
  top: "inception_4d/3x3"
  param {
    lr_mult: 1
    decay_mult: 1
  }
  param {
    lr_mult: 2
    decay_mult: 0
  }
  convolution_param {
    num_output: 288
    pad: 1
    kernel_size: 3
    weight_filler {
      type: "xavier"
      std: 0.03
    }
    bias_filler {
      type: "constant"
      value: 0.2
    }
  }
}
layer {
  name: "inception_4d/relu_3x3"
  type: "ReLU"
  bottom: "inception_4d/3x3"
  top: "inception_4d/3x3"
}
layer {
  name: "inception_4d/5x5_reduce"
  type: "Convolution"
  bottom: "inception_4c/output"
  top: "inception_4d/5x5_reduce"
  param {
    lr_mult: 1
    decay_mult: 1
  }
  param {
    lr_mult: 2
    decay_mult: 0
  }
  convolution_param {
    num_output: 32
    kernel_size: 1
    weight_filler {
      type: "xavier"
      std: 0.2
    }
    bias_filler {
      type: "constant"
      value: 0.2
    }
  }
}
layer {
  name: "inception_4d/relu_5x5_reduce"
  type: "ReLU"
  bottom: "inception_4d/5x5_reduce"
  top: "inception_4d/5x5_reduce"
}
layer {
  name: "inception_4d/5x5"
  type: "Convolution"
  bottom: "inception_4d/5x5_reduce"
  top: "inception_4d/5x5"
  param {
    lr_mult: 1
    decay_mult: 1
  }
  param {
    lr_mult: 2
    decay_mult: 0
  }
  convolution_param {
    num_output: 64
    pad: 2
    kernel_size: 5
    weight_filler {
      type: "xavier"
      std: 0.03
    }
    bias_filler {
      type: "constant"
      value: 0.2
    }
  }
}
layer {
  name: "inception_4d/relu_5x5"
  type: "ReLU"
  bottom: "inception_4d/5x5"
  top: "inception_4d/5x5"
}
layer {
  name: "inception_4d/pool"
  type: "Pooling"
  bottom: "inception_4c/output"
  top: "inception_4d/pool"
  pooling_param {
    pool: MAX
    kernel_size: 3
    stride: 1
    pad: 1
  }
}
layer {
  name: "inception_4d/pool_proj"
  type: "Convolution"
  bottom: "inception_4d/pool"
  top: "inception_4d/pool_proj"
  param {
    lr_mult: 1
    decay_mult: 1
  }
  param {
    lr_mult: 2
    decay_mult: 0
  }
  convolution_param {
    num_output: 64
    kernel_size: 1
    weight_filler {
      type: "xavier"
      std: 0.1
    }
    bias_filler {
      type: "constant"
      value: 0.2
    }
  }
}
layer {
  name: "inception_4d/relu_pool_proj"
  type: "ReLU"
  bottom: "inception_4d/pool_proj"
  top: "inception_4d/pool_proj"
}
layer {
  name: "inception_4d/output"
  type: "Concat"
  bottom: "inception_4d/1x1"
  bottom: "inception_4d/3x3"
  bottom: "inception_4d/5x5"
  bottom: "inception_4d/pool_proj"
  top: "inception_4d/output"
}
layer {
  name: "loss2/ave_pool"
  type: "Pooling"
  bottom: "inception_4d/output"
  top: "loss2/ave_pool"
  pooling_param {
    pool: AVE
    kernel_size: 5
    stride: 3
  }
}
layer {
  name: "loss2/conv"
  type: "Convolution"
  bottom: "loss2/ave_pool"
  top: "loss2/conv"
  param {
    lr_mult: 1
    decay_mult: 1
  }
  param {
    lr_mult: 2
    decay_mult: 0
  }
  convolution_param {
    num_output: 128
    kernel_size: 1
    weight_filler {
      type: "xavier"
      std: 0.08
    }
    bias_filler {
      type: "constant"
      value: 0.2
    }
  }
}
layer {
  name: "loss2/relu_conv"
  type: "ReLU"
  bottom: "loss2/conv"
  top: "loss2/conv"
}
layer {
  name: "loss2/fc"
  type: "InnerProduct"
  bottom: "loss2/conv"
  top: "loss2/fc"
  param {
    lr_mult: 1
    decay_mult: 1
  }
  param {
    lr_mult: 2
    decay_mult: 0
  }
  inner_product_param {
    num_output: 1024
    weight_filler {
      type: "xavier"
      std: 0.02
    }
    bias_filler {
      type: "constant"
      value: 0.2
    }
  }
}
layer {
  name: "loss2/relu_fc"
  type: "ReLU"
  bottom: "loss2/fc"
  top: "loss2/fc"
}
layer {
  name: "loss2/drop_fc"
  type: "Dropout"
  bottom: "loss2/fc"
  top: "loss2/fc"
  dropout_param {
    dropout_ratio: 0.2
  }
}
layer {
  name: "stanford_cars_loss2/classifier"
  type: "InnerProduct"
  bottom: "loss2/fc"
  top: "stanford_cars_loss2/classifier"
  param {
    lr_mult: 1
    decay_mult: 1
  }
  param {
    lr_mult: 2
    decay_mult: 0
  }
  inner_product_param {
    num_output: 196
    weight_filler {
      type: "xavier"
      std: 0.0009765625
    }
    bias_filler {
      type: "constant"
      value: 0
    }
  }
}
layer {
  name: "stanford_cars_loss2/loss"
  type: "SoftmaxWithLoss"
  bottom: "stanford_cars_loss2/classifier"
  bottom: "label"
  top: "loss2/loss1"
  loss_weight: 0.3
}
layer {
  name: "inception_4e/1x1"
  type: "Convolution"
  bottom: "inception_4d/output"
  top: "inception_4e/1x1"
  param {
    lr_mult: 1
    decay_mult: 1
  }
  param {
    lr_mult: 2
    decay_mult: 0
  }
  convolution_param {
    num_output: 256
    kernel_size: 1
    weight_filler {
      type: "xavier"
      std: 0.03
    }
    bias_filler {
      type: "constant"
      value: 0.2
    }
  }
}
layer {
  name: "inception_4e/relu_1x1"
  type: "ReLU"
  bottom: "inception_4e/1x1"
  top: "inception_4e/1x1"
}
layer {
  name: "inception_4e/3x3_reduce"
  type: "Convolution"
  bottom: "inception_4d/output"
  top: "inception_4e/3x3_reduce"
  param {
    lr_mult: 1
    decay_mult: 1
  }
  param {
    lr_mult: 2
    decay_mult: 0
  }
  convolution_param {
    num_output: 160
    kernel_size: 1
    weight_filler {
      type: "xavier"
      std: 0.09
    }
    bias_filler {
      type: "constant"
      value: 0.2
    }
  }
}
layer {
  name: "inception_4e/relu_3x3_reduce"
  type: "ReLU"
  bottom: "inception_4e/3x3_reduce"
  top: "inception_4e/3x3_reduce"
}
layer {
  name: "inception_4e/3x3"
  type: "Convolution"
  bottom: "inception_4e/3x3_reduce"
  top: "inception_4e/3x3"
  param {
    lr_mult: 1
    decay_mult: 1
  }
  param {
    lr_mult: 2
    decay_mult: 0
  }
  convolution_param {
    num_output: 320
    pad: 1
    kernel_size: 3
    weight_filler {
      type: "xavier"
      std: 0.03
    }
    bias_filler {
      type: "constant"
      value: 0.2
    }
  }
}
layer {
  name: "inception_4e/relu_3x3"
  type: "ReLU"
  bottom: "inception_4e/3x3"
  top: "inception_4e/3x3"
}
layer {
  name: "inception_4e/5x5_reduce"
  type: "Convolution"
  bottom: "inception_4d/output"
  top: "inception_4e/5x5_reduce"
  param {
    lr_mult: 1
    decay_mult: 1
  }
  param {
    lr_mult: 2
    decay_mult: 0
  }
  convolution_param {
    num_output: 32
    kernel_size: 1
    weight_filler {
      type: "xavier"
      std: 0.2
    }
    
I0704 18:21:28.667759 32707 layer_factory.hpp:74] Creating layer data
I0704 18:21:28.667790 32707 net.cpp:90] Creating Layer data
I0704 18:21:28.667799 32707 net.cpp:368] data -> data
I0704 18:21:28.667821 32707 net.cpp:368] data -> label
I0704 18:21:28.667842 32707 net.cpp:120] Setting up data
I0704 18:21:28.667913 32707 db.cpp:34] Opened lmdb examples/stanford_cars/stanford_cars_train_lmdb
I0704 18:21:28.668086 32707 data_layer.cpp:67] output data size: 30,3,224,224
I0704 18:21:28.670197 32707 net.cpp:127] Top shape: 30 3 224 224 (4515840)
I0704 18:21:28.670238 32707 net.cpp:127] Top shape: 30 (30)
I0704 18:21:28.670248 32707 layer_factory.hpp:74] Creating layer label_data_1_split
I0704 18:21:28.670264 32707 net.cpp:90] Creating Layer label_data_1_split
I0704 18:21:28.670271 32707 net.cpp:410] label_data_1_split <- label
I0704 18:21:28.670284 32707 net.cpp:368] label_data_1_split -> label_data_1_split_0
I0704 18:21:28.670295 32707 net.cpp:368] label_data_1_split -> label_data_1_split_1
I0704 18:21:28.670301 32707 net.cpp:368] label_data_1_split -> label_data_1_split_2
I0704 18:21:28.670308 32707 net.cpp:120] Setting up label_data_1_split
I0704 18:21:28.670336 32707 net.cpp:127] Top shape: 30 (30)
I0704 18:21:28.670346 32707 net.cpp:127] Top shape: 30 (30)
I0704 18:21:28.670351 32707 net.cpp:127] Top shape: 30 (30)
I0704 18:21:28.670356 32707 layer_factory.hpp:74] Creating layer conv1/7x7_s2
I0704 18:21:28.670368 32707 net.cpp:90] Creating Layer conv1/7x7_s2
I0704 18:21:28.670374 32707 net.cpp:410] conv1/7x7_s2 <- data
I0704 18:21:28.670382 32707 net.cpp:368] conv1/7x7_s2 -> conv1/7x7_s2
I0704 18:21:28.670390 32707 net.cpp:120] Setting up conv1/7x7_s2
I0704 18:21:28.700932 32707 net.cpp:127] Top shape: 30 64 112 112 (24084480)
I0704 18:21:28.700976 32707 layer_factory.hpp:74] Creating layer conv1/relu_7x7
I0704 18:21:28.700989 32707 net.cpp:90] Creating Layer conv1/relu_7x7
I0704 18:21:28.700995 32707 net.cpp:410] conv1/relu_7x7 <- conv1/7x7_s2
I0704 18:21:28.701004 32707 net.cpp:357] conv1/relu_7x7 -> conv1/7x7_s2 (in-place)
I0704 18:21:28.701011 32707 net.cpp:120] Setting up conv1/relu_7x7
I0704 18:21:28.701061 32707 net.cpp:127] Top shape: 30 64 112 112 (24084480)
I0704 18:21:28.701078 32707 layer_factory.hpp:74] Creating layer pool1/3x3_s2
I0704 18:21:28.701089 32707 net.cpp:90] Creating Layer pool1/3x3_s2
I0704 18:21:28.701094 32707 net.cpp:410] pool1/3x3_s2 <- conv1/7x7_s2
I0704 18:21:28.701100 32707 net.cpp:368] pool1/3x3_s2 -> pool1/3x3_s2
I0704 18:21:28.701107 32707 net.cpp:120] Setting up pool1/3x3_s2
I0704 18:21:28.701232 32707 net.cpp:127] Top shape: 30 64 56 56 (6021120)
I0704 18:21:28.701253 32707 layer_factory.hpp:74] Creating layer pool1/norm1
I0704 18:21:28.701262 32707 net.cpp:90] Creating Layer pool1/norm1
I0704 18:21:28.701267 32707 net.cpp:410] pool1/norm1 <- pool1/3x3_s2
I0704 18:21:28.701273 32707 net.cpp:368] pool1/norm1 -> pool1/norm1
I0704 18:21:28.701282 32707 net.cpp:120] Setting up pool1/norm1
I0704 18:21:28.701290 32707 net.cpp:127] Top shape: 30 64 56 56 (6021120)
I0704 18:21:28.701295 32707 layer_factory.hpp:74] Creating layer conv2/3x3_reduce
I0704 18:21:28.701304 32707 net.cpp:90] Creating Layer conv2/3x3_reduce
I0704 18:21:28.701309 32707 net.cpp:410] conv2/3x3_reduce <- pool1/norm1
I0704 18:21:28.701315 32707 net.cpp:368] conv2/3x3_reduce -> conv2/3x3_reduce
I0704 18:21:28.701324 32707 net.cpp:120] Setting up conv2/3x3_reduce
I0704 18:21:28.701537 32707 net.cpp:127] Top shape: 30 64 56 56 (6021120)
I0704 18:21:28.701560 32707 layer_factory.hpp:74] Creating layer conv2/relu_3x3_reduce
I0704 18:21:28.701570 32707 net.cpp:90] Creating Layer conv2/relu_3x3_reduce
I0704 18:21:28.701575 32707 net.cpp:410] conv2/relu_3x3_reduce <- conv2/3x3_reduce
I0704 18:21:28.701581 32707 net.cpp:357] conv2/relu_3x3_reduce -> conv2/3x3_reduce (in-place)
I0704 18:21:28.701586 32707 net.cpp:120] Setting up conv2/relu_3x3_reduce
I0704 18:21:28.701632 32707 net.cpp:127] Top shape: 30 64 56 56 (6021120)
I0704 18:21:28.701639 32707 layer_factory.hpp:74] Creating layer conv2/3x3
I0704 18:21:28.701658 32707 net.cpp:90] Creating Layer conv2/3x3
I0704 18:21:28.701663 32707 net.cpp:410] conv2/3x3 <- conv2/3x3_reduce
I0704 18:21:28.701669 32707 net.cpp:368] conv2/3x3 -> conv2/3x3
I0704 18:21:28.701676 32707 net.cpp:120] Setting up conv2/3x3
I0704 18:21:28.702337 32707 net.cpp:127] Top shape: 30 192 56 56 (18063360)
I0704 18:21:28.702361 32707 layer_factory.hpp:74] Creating layer conv2/relu_3x3
I0704 18:21:28.702369 32707 net.cpp:90] Creating Layer conv2/relu_3x3
I0704 18:21:28.702374 32707 net.cpp:410] conv2/relu_3x3 <- conv2/3x3
I0704 18:21:28.702380 32707 net.cpp:357] conv2/relu_3x3 -> conv2/3x3 (in-place)
I0704 18:21:28.702388 32707 net.cpp:120] Setting up conv2/relu_3x3
I0704 18:21:28.702437 32707 net.cpp:127] Top shape: 30 192 56 56 (18063360)
I0704 18:21:28.702445 32707 layer_factory.hpp:74] Creating layer conv2/norm2
I0704 18:21:28.702461 32707 net.cpp:90] Creating Layer conv2/norm2
I0704 18:21:28.702466 32707 net.cpp:410] conv2/norm2 <- conv2/3x3
I0704 18:21:28.702472 32707 net.cpp:368] conv2/norm2 -> conv2/norm2
I0704 18:21:28.702478 32707 net.cpp:120] Setting up conv2/norm2
I0704 18:21:28.702486 32707 net.cpp:127] Top shape: 30 192 56 56 (18063360)
I0704 18:21:28.702508 32707 layer_factory.hpp:74] Creating layer pool2/3x3_s2
I0704 18:21:28.702515 32707 net.cpp:90] Creating Layer pool2/3x3_s2
I0704 18:21:28.702520 32707 net.cpp:410] pool2/3x3_s2 <- conv2/norm2
I0704 18:21:28.702527 32707 net.cpp:368] pool2/3x3_s2 -> pool2/3x3_s2
I0704 18:21:28.702533 32707 net.cpp:120] Setting up pool2/3x3_s2
I0704 18:21:28.702580 32707 net.cpp:127] Top shape: 30 192 28 28 (4515840)
I0704 18:21:28.702587 32707 layer_factory.hpp:74] Creating layer pool2/3x3_s2_pool2/3x3_s2_0_split
I0704 18:21:28.702605 32707 net.cpp:90] Creating Layer pool2/3x3_s2_pool2/3x3_s2_0_split
I0704 18:21:28.702610 32707 net.cpp:410] pool2/3x3_s2_pool2/3x3_s2_0_split <- pool2/3x3_s2
I0704 18:21:28.702616 32707 net.cpp:368] pool2/3x3_s2_pool2/3x3_s2_0_split -> pool2/3x3_s2_pool2/3x3_s2_0_split_0
I0704 18:21:28.702623 32707 net.cpp:368] pool2/3x3_s2_pool2/3x3_s2_0_split -> pool2/3x3_s2_pool2/3x3_s2_0_split_1
I0704 18:21:28.702630 32707 net.cpp:368] pool2/3x3_s2_pool2/3x3_s2_0_split -> pool2/3x3_s2_pool2/3x3_s2_0_split_2
I0704 18:21:28.702636 32707 net.cpp:368] pool2/3x3_s2_pool2/3x3_s2_0_split -> pool2/3x3_s2_pool2/3x3_s2_0_split_3
I0704 18:21:28.702642 32707 net.cpp:120] Setting up pool2/3x3_s2_pool2/3x3_s2_0_split
I0704 18:21:28.702649 32707 net.cpp:127] Top shape: 30 192 28 28 (4515840)
I0704 18:21:28.702654 32707 net.cpp:127] Top shape: 30 192 28 28 (4515840)
I0704 18:21:28.702659 32707 net.cpp:127] Top shape: 30 192 28 28 (4515840)
I0704 18:21:28.702664 32707 net.cpp:127] Top shape: 30 192 28 28 (4515840)
I0704 18:21:28.702669 32707 layer_factory.hpp:74] Creating layer inception_3a/1x1
I0704 18:21:28.702677 32707 net.cpp:90] Creating Layer inception_3a/1x1
I0704 18:21:28.702682 32707 net.cpp:410] inception_3a/1x1 <- pool2/3x3_s2_pool2/3x3_s2_0_split_0
I0704 18:21:28.702687 32707 net.cpp:368] inception_3a/1x1 -> inception_3a/1x1
I0704 18:21:28.702697 32707 net.cpp:120] Setting up inception_3a/1x1
I0704 18:21:28.702967 32707 net.cpp:127] Top shape: 30 64 28 28 (1505280)
I0704 18:21:28.702991 32707 layer_factory.hpp:74] Creating layer inception_3a/relu_1x1
I0704 18:21:28.702998 32707 net.cpp:90] Creating Layer inception_3a/relu_1x1
I0704 18:21:28.703003 32707 net.cpp:410] inception_3a/relu_1x1 <- inception_3a/1x1
I0704 18:21:28.703011 32707 net.cpp:357] inception_3a/relu_1x1 -> inception_3a/1x1 (in-place)
I0704 18:21:28.703017 32707 net.cpp:120] Setting up inception_3a/relu_1x1
I0704 18:21:28.703133 32707 net.cpp:127] Top shape: 30 64 28 28 (1505280)
I0704 18:21:28.703153 32707 layer_factory.hpp:74] Creating layer inception_3a/3x3_reduce
I0704 18:21:28.703162 32707 net.cpp:90] Creating Layer inception_3a/3x3_reduce
I0704 18:21:28.703167 32707 net.cpp:410] inception_3a/3x3_reduce <- pool2/3x3_s2_pool2/3x3_s2_0_split_1
I0704 18:21:28.703174 32707 net.cpp:368] inception_3a/3x3_reduce -> inception_3a/3x3_reduce
I0704 18:21:28.703182 32707 net.cpp:120] Setting up inception_3a/3x3_reduce
I0704 18:21:28.703497 32707 net.cpp:127] Top shape: 30 96 28 28 (2257920)
I0704 18:21:28.703521 32707 layer_factory.hpp:74] Creating layer inception_3a/relu_3x3_reduce
I0704 18:21:28.703531 32707 net.cpp:90] Creating Layer inception_3a/relu_3x3_reduce
I0704 18:21:28.703536 32707 net.cpp:410] inception_3a/relu_3x3_reduce <- inception_3a/3x3_reduce
I0704 18:21:28.703543 32707 net.cpp:357] inception_3a/relu_3x3_reduce -> inception_3a/3x3_reduce (in-place)
I0704 18:21:28.703549 32707 net.cpp:120] Setting up inception_3a/relu_3x3_reduce
I0704 18:21:28.703599 32707 net.cpp:127] Top shape: 30 96 28 28 (2257920)
I0704 18:21:28.703606 32707 layer_factory.hpp:74] Creating layer inception_3a/3x3
I0704 18:21:28.703624 32707 net.cpp:90] Creating Layer inception_3a/3x3
I0704 18:21:28.703629 32707 net.cpp:410] inception_3a/3x3 <- inception_3a/3x3_reduce
I0704 18:21:28.703637 32707 net.cpp:368] inception_3a/3x3 -> inception_3a/3x3
I0704 18:21:28.703644 32707 net.cpp:120] Setting up inception_3a/3x3
I0704 18:21:28.704382 32707 net.cpp:127] Top shape: 30 128 28 28 (3010560)
I0704 18:21:28.704406 32707 layer_factory.hpp:74] Creating layer inception_3a/relu_3x3
I0704 18:21:28.704421 32707 net.cpp:90] Creating Layer inception_3a/relu_3x3
I0704 18:21:28.704427 32707 net.cpp:410] inception_3a/relu_3x3 <- inception_3a/3x3
I0704 18:21:28.704433 32707 net.cpp:357] inception_3a/relu_3x3 -> inception_3a/3x3 (in-place)
I0704 18:21:28.704440 32707 net.cpp:120] Setting up inception_3a/relu_3x3
I0704 18:21:28.704489 32707 net.cpp:127] Top shape: 30 128 28 28 (3010560)
I0704 18:21:28.704496 32707 layer_factory.hpp:74] Creating layer inception_3a/5x5_reduce
I0704 18:21:28.704514 32707 net.cpp:90] Creating Layer inception_3a/5x5_reduce
I0704 18:21:28.704519 32707 net.cpp:410] inception_3a/5x5_reduce <- pool2/3x3_s2_pool2/3x3_s2_0_split_2
I0704 18:21:28.704526 32707 net.cpp:368] inception_3a/5x5_reduce -> inception_3a/5x5_reduce
I0704 18:21:28.704534 32707 net.cpp:120] Setting up inception_3a/5x5_reduce
I0704 18:21:28.704754 32707 net.cpp:127] Top shape: 30 16 28 28 (376320)
I0704 18:21:28.704777 32707 layer_factory.hpp:74] Creating layer inception_3a/relu_5x5_reduce
I0704 18:21:28.704783 32707 net.cpp:90] Creating Layer inception_3a/relu_5x5_reduce
I0704 18:21:28.704788 32707 net.cpp:410] inception_3a/relu_5x5_reduce <- inception_3a/5x5_reduce
I0704 18:21:28.704795 32707 net.cpp:357] inception_3a/relu_5x5_reduce -> inception_3a/5x5_reduce (in-place)
I0704 18:21:28.704802 32707 net.cpp:120] Setting up inception_3a/relu_5x5_reduce
I0704 18:21:28.704918 32707 net.cpp:127] Top shape: 30 16 28 28 (376320)
I0704 18:21:28.704937 32707 layer_factory.hpp:74] Creating layer inception_3a/5x5
I0704 18:21:28.704946 32707 net.cpp:90] Creating Layer inception_3a/5x5
I0704 18:21:28.704952 32707 net.cpp:410] inception_3a/5x5 <- inception_3a/5x5_reduce
I0704 18:21:28.704959 32707 net.cpp:368] inception_3a/5x5 -> inception_3a/5x5
I0704 18:21:28.704967 32707 net.cpp:120] Setting up inception_3a/5x5
I0704 18:21:28.705230 32707 net.cpp:127] Top shape: 30 32 28 28 (752640)
I0704 18:21:28.705252 32707 layer_factory.hpp:74] Creating layer inception_3a/relu_5x5
I0704 18:21:28.705261 32707 net.cpp:90] Creating Layer inception_3a/relu_5x5
I0704 18:21:28.705267 32707 net.cpp:410] inception_3a/relu_5x5 <- inception_3a/5x5
I0704 18:21:28.705273 32707 net.cpp:357] inception_3a/relu_5x5 -> inception_3a/5x5 (in-place)
I0704 18:21:28.705279 32707 net.cpp:120] Setting up inception_3a/relu_5x5
I0704 18:21:28.705328 32707 net.cpp:127] Top shape: 30 32 28 28 (752640)
I0704 18:21:28.705337 32707 layer_factory.hpp:74] Creating layer inception_3a/pool
I0704 18:21:28.705351 32707 layer_factory.cpp:55] CUDNN does not support padding or multiple tops. Using Caffe's own pooling layer.
I0704 18:21:28.705358 32707 net.cpp:90] Creating Layer inception_3a/pool
I0704 18:21:28.705364 32707 net.cpp:410] inception_3a/pool <- pool2/3x3_s2_pool2/3x3_s2_0_split_3
I0704 18:21:28.705370 32707 net.cpp:368] inception_3a/pool -> inception_3a/pool
I0704 18:21:28.705376 32707 net.cpp:120] Setting up inception_3a/pool
I0704 18:21:28.705384 32707 net.cpp:127] Top shape: 30 192 28 28 (4515840)
I0704 18:21:28.705389 32707 layer_factory.hpp:74] Creating layer inception_3a/pool_proj
I0704 18:21:28.705397 32707 net.cpp:90] Creating Layer inception_3a/pool_proj
I0704 18:21:28.705402 32707 net.cpp:410] inception_3a/pool_proj <- inception_3a/pool
I0704 18:21:28.705410 32707 net.cpp:368] inception_3a/pool_proj -> inception_3a/pool_proj
I0704 18:21:28.705416 32707 net.cpp:120] Setting up inception_3a/pool_proj
I0704 18:21:28.705646 32707 net.cpp:127] Top shape: 30 32 28 28 (752640)
I0704 18:21:28.705669 32707 layer_factory.hpp:74] Creating layer inception_3a/relu_pool_proj
I0704 18:21:28.705677 32707 net.cpp:90] Creating Layer inception_3a/relu_pool_proj
I0704 18:21:28.705682 32707 net.cpp:410] inception_3a/relu_pool_proj <- inception_3a/pool_proj
I0704 18:21:28.705688 32707 net.cpp:357] inception_3a/relu_pool_proj -> inception_3a/pool_proj (in-place)
I0704 18:21:28.705695 32707 net.cpp:120] Setting up inception_3a/relu_pool_proj
I0704 18:21:28.705745 32707 net.cpp:127] Top shape: 30 32 28 28 (752640)
I0704 18:21:28.705762 32707 layer_factory.hpp:74] Creating layer inception_3a/output
I0704 18:21:28.705777 32707 net.cpp:90] Creating Layer inception_3a/output
I0704 18:21:28.705785 32707 net.cpp:410] inception_3a/output <- inception_3a/1x1
I0704 18:21:28.705790 32707 net.cpp:410] inception_3a/output <- inception_3a/3x3
I0704 18:21:28.705796 32707 net.cpp:410] inception_3a/output <- inception_3a/5x5
I0704 18:21:28.705801 32707 net.cpp:410] inception_3a/output <- inception_3a/pool_proj
I0704 18:21:28.705807 32707 net.cpp:368] inception_3a/output -> inception_3a/output
I0704 18:21:28.705814 32707 net.cpp:120] Setting up inception_3a/output
I0704 18:21:28.705824 32707 net.cpp:127] Top shape: 30 256 28 28 (6021120)
I0704 18:21:28.705832 32707 layer_factory.hpp:74] Creating layer inception_3a/output_inception_3a/output_0_split
I0704 18:21:28.705837 32707 net.cpp:90] Creating Layer inception_3a/output_inception_3a/output_0_split
I0704 18:21:28.705842 32707 net.cpp:410] inception_3a/output_inception_3a/output_0_split <- inception_3a/output
I0704 18:21:28.705848 32707 net.cpp:368] inception_3a/output_inception_3a/output_0_split -> inception_3a/output_inception_3a/output_0_split_0
I0704 18:21:28.705855 32707 net.cpp:368] inception_3a/output_inception_3a/output_0_split -> inception_3a/output_inception_3a/output_0_split_1
I0704 18:21:28.705862 32707 net.cpp:368] inception_3a/output_inception_3a/output_0_split -> inception_3a/output_inception_3a/output_0_split_2
I0704 18:21:28.705871 32707 net.cpp:368] inception_3a/output_inception_3a/output_0_split -> inception_3a/output_inception_3a/output_0_split_3
I0704 18:21:28.705878 32707 net.cpp:120] Setting up inception_3a/output_inception_3a/output_0_split
I0704 18:21:28.705884 32707 net.cpp:127] Top shape: 30 256 28 28 (6021120)
I0704 18:21:28.705889 32707 net.cpp:127] Top shape: 30 256 28 28 (6021120)
I0704 18:21:28.705895 32707 net.cpp:127] Top shape: 30 256 28 28 (6021120)
I0704 18:21:28.705900 32707 net.cpp:127] Top shape: 30 256 28 28 (6021120)
I0704 18:21:28.705904 32707 layer_factory.hpp:74] Creating layer inception_3b/1x1
I0704 18:21:28.705912 32707 net.cpp:90] Creating Layer inception_3b/1x1
I0704 18:21:28.705917 32707 net.cpp:410] inception_3b/1x1 <- inception_3a/output_inception_3a/output_0_split_0
I0704 18:21:28.705924 32707 net.cpp:368] inception_3b/1x1 -> inception_3b/1x1
I0704 18:21:28.705930 32707 net.cpp:120] Setting up inception_3b/1x1
I0704 18:21:28.706297 32707 net.cpp:127] Top shape: 30 128 28 28 (3010560)
I0704 18:21:28.706320 32707 layer_factory.hpp:74] Creating layer inception_3b/relu_1x1
I0704 18:21:28.706327 32707 net.cpp:90] Creating Layer inception_3b/relu_1x1
I0704 18:21:28.706332 32707 net.cpp:410] inception_3b/relu_1x1 <- inception_3b/1x1
I0704 18:21:28.706339 32707 net.cpp:357] inception_3b/relu_1x1 -> inception_3b/1x1 (in-place)
I0704 18:21:28.706346 32707 net.cpp:120] Setting up inception_3b/relu_1x1
I0704 18:21:28.706396 32707 net.cpp:127] Top shape: 30 128 28 28 (3010560)
I0704 18:21:28.706403 32707 layer_factory.hpp:74] Creating layer inception_3b/3x3_reduce
I0704 18:21:28.706421 32707 net.cpp:90] Creating Layer inception_3b/3x3_reduce
I0704 18:21:28.706426 32707 net.cpp:410] inception_3b/3x3_reduce <- inception_3a/output_inception_3a/output_0_split_1
I0704 18:21:28.706434 32707 net.cpp:368] inception_3b/3x3_reduce -> inception_3b/3x3_reduce
I0704 18:21:28.706441 32707 net.cpp:120] Setting up inception_3b/3x3_reduce
I0704 18:21:28.706804 32707 net.cpp:127] Top shape: 30 128 28 28 (3010560)
I0704 18:21:28.706827 32707 layer_factory.hpp:74] Creating layer inception_3b/relu_3x3_reduce
I0704 18:21:28.706835 32707 net.cpp:90] Creating Layer inception_3b/relu_3x3_reduce
I0704 18:21:28.706840 32707 net.cpp:410] inception_3b/relu_3x3_reduce <- inception_3b/3x3_reduce
I0704 18:21:28.706847 32707 net.cpp:357] inception_3b/relu_3x3_reduce -> inception_3b/3x3_reduce (in-place)
I0704 18:21:28.706853 32707 net.cpp:120] Setting up inception_3b/relu_3x3_reduce
I0704 18:21:28.706969 32707 net.cpp:127] Top shape: 30 128 28 28 (3010560)
I0704 18:21:28.706989 32707 layer_factory.hpp:74] Creating layer inception_3b/3x3
I0704 18:21:28.707005 32707 net.cpp:90] Creating Layer inception_3b/3x3
I0704 18:21:28.707011 32707 net.cpp:410] inception_3b/3x3 <- inception_3b/3x3_reduce
I0704 18:21:28.707020 32707 net.cpp:368] inception_3b/3x3 -> inception_3b/3x3
I0704 18:21:28.707027 32707 net.cpp:120] Setting up inception_3b/3x3
I0704 18:21:28.708344 32707 net.cpp:127] Top shape: 30 192 28 28 (4515840)
I0704 18:21:28.708367 32707 layer_factory.hpp:74] Creating layer inception_3b/relu_3x3
I0704 18:21:28.708374 32707 net.cpp:90] Creating Layer inception_3b/relu_3x3
I0704 18:21:28.708380 32707 net.cpp:410] inception_3b/relu_3x3 <- inception_3b/3x3
I0704 18:21:28.708386 32707 net.cpp:357] inception_3b/relu_3x3 -> inception_3b/3x3 (in-place)
I0704 18:21:28.708394 32707 net.cpp:120] Setting up inception_3b/relu_3x3
I0704 18:21:28.708443 32707 net.cpp:127] Top shape: 30 192 28 28 (4515840)
I0704 18:21:28.708451 32707 layer_factory.hpp:74] Creating layer inception_3b/5x5_reduce
I0704 18:21:28.708468 32707 net.cpp:90] Creating Layer inception_3b/5x5_reduce
I0704 18:21:28.708474 32707 net.cpp:410] inception_3b/5x5_reduce <- inception_3a/output_inception_3a/output_0_split_2
I0704 18:21:28.708482 32707 net.cpp:368] inception_3b/5x5_reduce -> inception_3b/5x5_reduce
I0704 18:21:28.708489 32707 net.cpp:120] Setting up inception_3b/5x5_reduce
I0704 18:21:28.708776 32707 net.cpp:127] Top shape: 30 32 28 28 (752640)
I0704 18:21:28.708799 32707 layer_factory.hpp:74] Creating layer inception_3b/relu_5x5_reduce
I0704 18:21:28.708816 32707 net.cpp:90] Creating Layer inception_3b/relu_5x5_reduce
I0704 18:21:28.708822 32707 net.cpp:410] inception_3b/relu_5x5_reduce <- inception_3b/5x5_reduce
I0704 18:21:28.708837 32707 net.cpp:357] inception_3b/relu_5x5_reduce -> inception_3b/5x5_reduce (in-place)
I0704 18:21:28.708843 32707 net.cpp:120] Setting up inception_3b/relu_5x5_reduce
I0704 18:21:28.708894 32707 net.cpp:127] Top shape: 30 32 28 28 (752640)
I0704 18:21:28.708900 32707 layer_factory.hpp:74] Creating layer inception_3b/5x5
I0704 18:21:28.708919 32707 net.cpp:90] Creating Layer inception_3b/5x5
I0704 18:21:28.708923 32707 net.cpp:410] inception_3b/5x5 <- inception_3b/5x5_reduce
I0704 18:21:28.708931 32707 net.cpp:368] inception_3b/5x5 -> inception_3b/5x5
I0704 18:21:28.708940 32707 net.cpp:120] Setting up inception_3b/5x5
I0704 18:21:28.709518 32707 net.cpp:127] Top shape: 30 96 28 28 (2257920)
I0704 18:21:28.709542 32707 layer_factory.hpp:74] Creating layer inception_3b/relu_5x5
I0704 18:21:28.709548 32707 net.cpp:90] Creating Layer inception_3b/relu_5x5
I0704 18:21:28.709554 32707 net.cpp:410] inception_3b/relu_5x5 <- inception_3b/5x5
I0704 18:21:28.709560 32707 net.cpp:357] inception_3b/relu_5x5 -> inception_3b/5x5 (in-place)
I0704 18:21:28.709568 32707 net.cpp:120] Setting up inception_3b/relu_5x5
I0704 18:21:28.709616 32707 net.cpp:127] Top shape: 30 96 28 28 (2257920)
I0704 18:21:28.709624 32707 layer_factory.hpp:74] Creating layer inception_3b/pool
I0704 18:21:28.709640 32707 layer_factory.cpp:55] CUDNN does not support padding or multiple tops. Using Caffe's own pooling layer.
I0704 18:21:28.709645 32707 net.cpp:90] Creating Layer inception_3b/pool
I0704 18:21:28.709650 32707 net.cpp:410] inception_3b/pool <- inception_3a/output_inception_3a/output_0_split_3
I0704 18:21:28.709657 32707 net.cpp:368] inception_3b/pool -> inception_3b/pool
I0704 18:21:28.709664 32707 net.cpp:120] Setting up inception_3b/pool
I0704 18:21:28.709671 32707 net.cpp:127] Top shape: 30 256 28 28 (6021120)
I0704 18:21:28.709677 32707 layer_factory.hpp:74] Creating layer inception_3b/pool_proj
I0704 18:21:28.709686 32707 net.cpp:90] Creating Layer inception_3b/pool_proj
I0704 18:21:28.709691 32707 net.cpp:410] inception_3b/pool_proj <- inception_3b/pool
I0704 18:21:28.709697 32707 net.cpp:368] inception_3b/pool_proj -> inception_3b/pool_proj
I0704 18:21:28.709703 32707 net.cpp:120] Setting up inception_3b/pool_proj
I0704 18:21:28.709990 32707 net.cpp:127] Top shape: 30 64 28 28 (1505280)
I0704 18:21:28.710011 32707 layer_factory.hpp:74] Creating layer inception_3b/relu_pool_proj
I0704 18:21:28.710026 32707 net.cpp:90] Creating Layer inception_3b/relu_pool_proj
I0704 18:21:28.710032 32707 net.cpp:410] inception_3b/relu_pool_proj <- inception_3b/pool_proj
I0704 18:21:28.710039 32707 net.cpp:357] inception_3b/relu_pool_proj -> inception_3b/pool_proj (in-place)
I0704 18:21:28.710047 32707 net.cpp:120] Setting up inception_3b/relu_pool_proj
I0704 18:21:28.710165 32707 net.cpp:127] Top shape: 30 64 28 28 (1505280)
I0704 18:21:28.710186 32707 layer_factory.hpp:74] Creating layer inception_3b/output
I0704 18:21:28.710192 32707 net.cpp:90] Creating Layer inception_3b/output
I0704 18:21:28.710198 32707 net.cpp:410] inception_3b/output <- inception_3b/1x1
I0704 18:21:28.710204 32707 net.cpp:410] inception_3b/output <- inception_3b/3x3
I0704 18:21:28.710209 32707 net.cpp:410] inception_3b/output <- inception_3b/5x5
I0704 18:21:28.710214 32707 net.cpp:410] inception_3b/output <- inception_3b/pool_proj
I0704 18:21:28.710222 32707 net.cpp:368] inception_3b/output -> inception_3b/output
I0704 18:21:28.710228 32707 net.cpp:120] Setting up inception_3b/output
I0704 18:21:28.710235 32707 net.cpp:127] Top shape: 30 480 28 28 (11289600)
I0704 18:21:28.710242 32707 layer_factory.hpp:74] Creating layer pool3/3x3_s2
I0704 18:21:28.710247 32707 net.cpp:90] Creating Layer pool3/3x3_s2
I0704 18:21:28.710253 32707 net.cpp:410] pool3/3x3_s2 <- inception_3b/output
I0704 18:21:28.710259 32707 net.cpp:368] pool3/3x3_s2 -> pool3/3x3_s2
I0704 18:21:28.710265 32707 net.cpp:120] Setting up pool3/3x3_s2
I0704 18:21:28.710315 32707 net.cpp:127] Top shape: 30 480 14 14 (2822400)
I0704 18:21:28.710322 32707 layer_factory.hpp:74] Creating layer pool3/3x3_s2_pool3/3x3_s2_0_split
I0704 18:21:28.710340 32707 net.cpp:90] Creating Layer pool3/3x3_s2_pool3/3x3_s2_0_split
I0704 18:21:28.710345 32707 net.cpp:410] pool3/3x3_s2_pool3/3x3_s2_0_split <- pool3/3x3_s2
I0704 18:21:28.710350 32707 net.cpp:368] pool3/3x3_s2_pool3/3x3_s2_0_split -> pool3/3x3_s2_pool3/3x3_s2_0_split_0
I0704 18:21:28.710356 32707 net.cpp:368] pool3/3x3_s2_pool3/3x3_s2_0_split -> pool3/3x3_s2_pool3/3x3_s2_0_split_1
I0704 18:21:28.710363 32707 net.cpp:368] pool3/3x3_s2_pool3/3x3_s2_0_split -> pool3/3x3_s2_pool3/3x3_s2_0_split_2
I0704 18:21:28.710369 32707 net.cpp:368] pool3/3x3_s2_pool3/3x3_s2_0_split -> pool3/3x3_s2_pool3/3x3_s2_0_split_3
I0704 18:21:28.710376 32707 net.cpp:120] Setting up pool3/3x3_s2_pool3/3x3_s2_0_split
I0704 18:21:28.710383 32707 net.cpp:127] Top shape: 30 480 14 14 (2822400)
I0704 18:21:28.710388 32707 net.cpp:127] Top shape: 30 480 14 14 (2822400)
I0704 18:21:28.710394 32707 net.cpp:127] Top shape: 30 480 14 14 (2822400)
I0704 18:21:28.710399 32707 net.cpp:127] Top shape: 30 480 14 14 (2822400)
I0704 18:21:28.710403 32707 layer_factory.hpp:74] Creating layer inception_4a/1x1
I0704 18:21:28.710410 32707 net.cpp:90] Creating Layer inception_4a/1x1
I0704 18:21:28.710415 32707 net.cpp:410] inception_4a/1x1 <- pool3/3x3_s2_pool3/3x3_s2_0_split_0
I0704 18:21:28.710423 32707 net.cpp:368] inception_4a/1x1 -> inception_4a/1x1
I0704 18:21:28.710430 32707 net.cpp:120] Setting up inception_4a/1x1
I0704 18:21:28.711086 32707 net.cpp:127] Top shape: 30 192 14 14 (1128960)
I0704 18:21:28.711108 32707 layer_factory.hpp:74] Creating layer inception_4a/relu_1x1
I0704 18:21:28.711115 32707 net.cpp:90] Creating Layer inception_4a/relu_1x1
I0704 18:21:28.711120 32707 net.cpp:410] inception_4a/relu_1x1 <- inception_4a/1x1
I0704 18:21:28.711127 32707 net.cpp:357] inception_4a/relu_1x1 -> inception_4a/1x1 (in-place)
I0704 18:21:28.711134 32707 net.cpp:120] Setting up inception_4a/relu_1x1
I0704 18:21:28.711184 32707 net.cpp:127] Top shape: 30 192 14 14 (1128960)
I0704 18:21:28.711192 32707 layer_factory.hpp:74] Creating layer inception_4a/3x3_reduce
I0704 18:21:28.711210 32707 net.cpp:90] Creating Layer inception_4a/3x3_reduce
I0704 18:21:28.711215 32707 net.cpp:410] inception_4a/3x3_reduce <- pool3/3x3_s2_pool3/3x3_s2_0_split_1
I0704 18:21:28.711222 32707 net.cpp:368] inception_4a/3x3_reduce -> inception_4a/3x3_reduce
I0704 18:21:28.711230 32707 net.cpp:120] Setting up inception_4a/3x3_reduce
I0704 18:21:28.711691 32707 net.cpp:127] Top shape: 30 96 14 14 (564480)
I0704 18:21:28.711717 32707 layer_factory.hpp:74] Creating layer inception_4a/relu_3x3_reduce
I0704 18:21:28.711725 32707 net.cpp:90] Creating Layer inception_4a/relu_3x3_reduce
I0704 18:21:28.711730 32707 net.cpp:410] inception_4a/relu_3x3_reduce <- inception_4a/3x3_reduce
I0704 18:21:28.711737 32707 net.cpp:357] inception_4a/relu_3x3_reduce -> inception_4a/3x3_reduce (in-place)
I0704 18:21:28.711743 32707 net.cpp:120] Setting up inception_4a/relu_3x3_reduce
I0704 18:21:28.711792 32707 net.cpp:127] Top shape: 30 96 14 14 (564480)
I0704 18:21:28.711799 32707 layer_factory.hpp:74] Creating layer inception_4a/3x3
I0704 18:21:28.711817 32707 net.cpp:90] Creating Layer inception_4a/3x3
I0704 18:21:28.711822 32707 net.cpp:410] inception_4a/3x3 <- inception_4a/3x3_reduce
I0704 18:21:28.711828 32707 net.cpp:368] inception_4a/3x3 -> inception_4a/3x3
I0704 18:21:28.711835 32707 net.cpp:120] Setting up inception_4a/3x3
I0704 18:21:28.712910 32707 net.cpp:127] Top shape: 30 208 14 14 (1223040)
I0704 18:21:28.712934 32707 layer_factory.hpp:74] Creating layer inception_4a/relu_3x3
I0704 18:21:28.712940 32707 net.cpp:90] Creating Layer inception_4a/relu_3x3
I0704 18:21:28.712946 32707 net.cpp:410] inception_4a/relu_3x3 <- inception_4a/3x3
I0704 18:21:28.712952 32707 net.cpp:357] inception_4a/relu_3x3 -> inception_4a/3x3 (in-place)
I0704 18:21:28.712960 32707 net.cpp:120] Setting up inception_4a/relu_3x3
I0704 18:21:28.713075 32707 net.cpp:127] Top shape: 30 208 14 14 (1223040)
I0704 18:21:28.713094 32707 layer_factory.hpp:74] Creating layer inception_4a/5x5_reduce
I0704 18:21:28.713104 32707 net.cpp:90] Creating Layer inception_4a/5x5_reduce
I0704 18:21:28.713109 32707 net.cpp:410] inception_4a/5x5_reduce <- pool3/3x3_s2_pool3/3x3_s2_0_split_2
I0704 18:21:28.713115 32707 net.cpp:368] inception_4a/5x5_reduce -> inception_4a/5x5_reduce
I0704 18:21:28.713124 32707 net.cpp:120] Setting up inception_4a/5x5_reduce
I0704 18:21:28.713366 32707 net.cpp:127] Top shape: 30 16 14 14 (94080)
I0704 18:21:28.713387 32707 layer_factory.hpp:74] Creating layer inception_4a/relu_5x5_reduce
I0704 18:21:28.713394 32707 net.cpp:90] Creating Layer inception_4a/relu_5x5_reduce
I0704 18:21:28.713399 32707 net.cpp:410] inception_4a/relu_5x5_reduce <- inception_4a/5x5_reduce
I0704 18:21:28.713405 32707 net.cpp:357] inception_4a/relu_5x5_reduce -> inception_4a/5x5_reduce (in-place)
I0704 18:21:28.713413 32707 net.cpp:120] Setting up inception_4a/relu_5x5_reduce
I0704 18:21:28.713464 32707 net.cpp:127] Top shape: 30 16 14 14 (94080)
I0704 18:21:28.713470 32707 layer_factory.hpp:74] Creating layer inception_4a/5x5
I0704 18:21:28.713487 32707 net.cpp:90] Creating Layer inception_4a/5x5
I0704 18:21:28.713493 32707 net.cpp:410] inception_4a/5x5 <- inception_4a/5x5_reduce
I0704 18:21:28.713500 32707 net.cpp:368] inception_4a/5x5 -> inception_4a/5x5
I0704 18:21:28.713507 32707 net.cpp:120] Setting up inception_4a/5x5
I0704 18:21:28.713805 32707 net.cpp:127] Top shape: 30 48 14 14 (282240)
I0704 18:21:28.713827 32707 layer_factory.hpp:74] Creating layer inception_4a/relu_5x5
I0704 18:21:28.713835 32707 net.cpp:90] Creating Layer inception_4a/relu_5x5
I0704 18:21:28.713840 32707 net.cpp:410] inception_4a/relu_5x5 <- inception_4a/5x5
I0704 18:21:28.713847 32707 net.cpp:357] inception_4a/relu_5x5 -> inception_4a/5x5 (in-place)
I0704 18:21:28.713855 32707 net.cpp:120] Setting up inception_4a/relu_5x5
I0704 18:21:28.713904 32707 net.cpp:127] Top shape: 30 48 14 14 (282240)
I0704 18:21:28.713912 32707 layer_factory.hpp:74] Creating layer inception_4a/pool
I0704 18:21:28.713928 32707 layer_factory.cpp:55] CUDNN does not support padding or multiple tops. Using Caffe's own pooling layer.
I0704 18:21:28.713934 32707 net.cpp:90] Creating Layer inception_4a/pool
I0704 18:21:28.713940 32707 net.cpp:410] inception_4a/pool <- pool3/3x3_s2_pool3/3x3_s2_0_split_3
I0704 18:21:28.713946 32707 net.cpp:368] inception_4a/pool -> inception_4a/pool
I0704 18:21:28.713953 32707 net.cpp:120] Setting up inception_4a/pool
I0704 18:21:28.713968 32707 net.cpp:127] Top shape: 30 480 14 14 (2822400)
I0704 18:21:28.713974 32707 layer_factory.hpp:74] Creating layer inception_4a/pool_proj
I0704 18:21:28.713981 32707 net.cpp:90] Creating Layer inception_4a/pool_proj
I0704 18:21:28.713986 32707 net.cpp:410] inception_4a/pool_proj <- inception_4a/pool
I0704 18:21:28.713994 32707 net.cpp:368] inception_4a/pool_proj -> inception_4a/pool_proj
I0704 18:21:28.714001 32707 net.cpp:120] Setting up inception_4a/pool_proj
I0704 18:21:28.714356 32707 net.cpp:127] Top shape: 30 64 14 14 (376320)
I0704 18:21:28.714378 32707 layer_factory.hpp:74] Creating layer inception_4a/relu_pool_proj
I0704 18:21:28.714385 32707 net.cpp:90] Creating Layer inception_4a/relu_pool_proj
I0704 18:21:28.714391 32707 net.cpp:410] inception_4a/relu_pool_proj <- inception_4a/pool_proj
I0704 18:21:28.714397 32707 net.cpp:357] inception_4a/relu_pool_proj -> inception_4a/pool_proj (in-place)
I0704 18:21:28.714403 32707 net.cpp:120] Setting up inception_4a/relu_pool_proj
I0704 18:21:28.714522 32707 net.cpp:127] Top shape: 30 64 14 14 (376320)
I0704 18:21:28.714541 32707 layer_factory.hpp:74] Creating layer inception_4a/output
I0704 18:21:28.714548 32707 net.cpp:90] Creating Layer inception_4a/output
I0704 18:21:28.714555 32707 net.cpp:410] inception_4a/output <- inception_4a/1x1
I0704 18:21:28.714560 32707 net.cpp:410] inception_4a/output <- inception_4a/3x3
I0704 18:21:28.714565 32707 net.cpp:410] inception_4a/output <- inception_4a/5x5
I0704 18:21:28.714571 32707 net.cpp:410] inception_4a/output <- inception_4a/pool_proj
I0704 18:21:28.714577 32707 net.cpp:368] inception_4a/output -> inception_4a/output
I0704 18:21:28.714583 32707 net.cpp:120] Setting up inception_4a/output
I0704 18:21:28.714591 32707 net.cpp:127] Top shape: 30 512 14 14 (3010560)
I0704 18:21:28.714596 32707 layer_factory.hpp:74] Creating layer inception_4a/output_inception_4a/output_0_split
I0704 18:21:28.714603 32707 net.cpp:90] Creating Layer inception_4a/output_inception_4a/output_0_split
I0704 18:21:28.714608 32707 net.cpp:410] inception_4a/output_inception_4a/output_0_split <- inception_4a/output
I0704 18:21:28.714615 32707 net.cpp:368] inception_4a/output_inception_4a/output_0_split -> inception_4a/output_inception_4a/output_0_split_0
I0704 18:21:28.714622 32707 net.cpp:368] inception_4a/output_inception_4a/output_0_split -> inception_4a/output_inception_4a/output_0_split_1
I0704 18:21:28.714630 32707 net.cpp:368] inception_4a/output_inception_4a/output_0_split -> inception_4a/output_inception_4a/output_0_split_2
I0704 18:21:28.714637 32707 net.cpp:368] inception_4a/output_inception_4a/output_0_split -> inception_4a/output_inception_4a/output_0_split_3
I0704 18:21:28.714643 32707 net.cpp:368] inception_4a/output_inception_4a/output_0_split -> inception_4a/output_inception_4a/output_0_split_4
I0704 18:21:28.714650 32707 net.cpp:120] Setting up inception_4a/output_inception_4a/output_0_split
I0704 18:21:28.714656 32707 net.cpp:127] Top shape: 30 512 14 14 (3010560)
I0704 18:21:28.714663 32707 net.cpp:127] Top shape: 30 512 14 14 (3010560)
I0704 18:21:28.714668 32707 net.cpp:127] Top shape: 30 512 14 14 (3010560)
I0704 18:21:28.714673 32707 net.cpp:127] Top shape: 30 512 14 14 (3010560)
I0704 18:21:28.714679 32707 net.cpp:127] Top shape: 30 512 14 14 (3010560)
I0704 18:21:28.714682 32707 layer_factory.hpp:74] Creating layer loss1/ave_pool
I0704 18:21:28.714689 32707 net.cpp:90] Creating Layer loss1/ave_pool
I0704 18:21:28.714694 32707 net.cpp:410] loss1/ave_pool <- inception_4a/output_inception_4a/output_0_split_0
I0704 18:21:28.714700 32707 net.cpp:368] loss1/ave_pool -> loss1/ave_pool
I0704 18:21:28.714706 32707 net.cpp:120] Setting up loss1/ave_pool
I0704 18:21:28.714757 32707 net.cpp:127] Top shape: 30 512 4 4 (245760)
I0704 18:21:28.714766 32707 layer_factory.hpp:74] Creating layer loss1/conv
I0704 18:21:28.714782 32707 net.cpp:90] Creating Layer loss1/conv
I0704 18:21:28.714787 32707 net.cpp:410] loss1/conv <- loss1/ave_pool
I0704 18:21:28.714795 32707 net.cpp:368] loss1/conv -> loss1/conv
I0704 18:21:28.714809 32707 net.cpp:120] Setting up loss1/conv
I0704 18:21:28.715366 32707 net.cpp:127] Top shape: 30 128 4 4 (61440)
I0704 18:21:28.715389 32707 layer_factory.hpp:74] Creating layer loss1/relu_conv
I0704 18:21:28.715396 32707 net.cpp:90] Creating Layer loss1/relu_conv
I0704 18:21:28.715401 32707 net.cpp:410] loss1/relu_conv <- loss1/conv
I0704 18:21:28.715410 32707 net.cpp:357] loss1/relu_conv -> loss1/conv (in-place)
I0704 18:21:28.715416 32707 net.cpp:120] Setting up loss1/relu_conv
I0704 18:21:28.715466 32707 net.cpp:127] Top shape: 30 128 4 4 (61440)
I0704 18:21:28.715474 32707 layer_factory.hpp:74] Creating layer loss1/fc
I0704 18:21:28.715493 32707 net.cpp:90] Creating Layer loss1/fc
I0704 18:21:28.715499 32707 net.cpp:410] loss1/fc <- loss1/conv
I0704 18:21:28.715505 32707 net.cpp:368] loss1/fc -> loss1/fc
I0704 18:21:28.715514 32707 net.cpp:120] Setting up loss1/fc
I0704 18:21:28.725582 32707 net.cpp:127] Top shape: 30 1024 (30720)
I0704 18:21:28.725622 32707 layer_factory.hpp:74] Creating layer loss1/relu_fc
I0704 18:21:28.725633 32707 net.cpp:90] Creating Layer loss1/relu_fc
I0704 18:21:28.725641 32707 net.cpp:410] loss1/relu_fc <- loss1/fc
I0704 18:21:28.725648 32707 net.cpp:357] loss1/relu_fc -> loss1/fc (in-place)
I0704 18:21:28.725656 32707 net.cpp:120] Setting up loss1/relu_fc
I0704 18:21:28.725742 32707 net.cpp:127] Top shape: 30 1024 (30720)
I0704 18:21:28.725749 32707 layer_factory.hpp:74] Creating layer loss1/drop_fc
I0704 18:21:28.725776 32707 net.cpp:90] Creating Layer loss1/drop_fc
I0704 18:21:28.725781 32707 net.cpp:410] loss1/drop_fc <- loss1/fc
I0704 18:21:28.725790 32707 net.cpp:357] loss1/drop_fc -> loss1/fc (in-place)
I0704 18:21:28.725797 32707 net.cpp:120] Setting up loss1/drop_fc
I0704 18:21:28.725806 32707 net.cpp:127] Top shape: 30 1024 (30720)
I0704 18:21:28.725816 32707 layer_factory.hpp:74] Creating layer stanford_cars_loss1/classifier
I0704 18:21:28.725824 32707 net.cpp:90] Creating Layer stanford_cars_loss1/classifier
I0704 18:21:28.725829 32707 net.cpp:410] stanford_cars_loss1/classifier <- loss1/fc
I0704 18:21:28.725836 32707 net.cpp:368] stanford_cars_loss1/classifier -> stanford_cars_loss1/classifier
I0704 18:21:28.725843 32707 net.cpp:120] Setting up stanford_cars_loss1/classifier
I0704 18:21:28.726861 32707 net.cpp:127] Top shape: 30 196 (5880)
I0704 18:21:28.726881 32707 layer_factory.hpp:74] Creating layer loss1/loss
I0704 18:21:28.726891 32707 net.cpp:90] Creating Layer loss1/loss
I0704 18:21:28.726897 32707 net.cpp:410] loss1/loss <- stanford_cars_loss1/classifier
I0704 18:21:28.726902 32707 net.cpp:410] loss1/loss <- label_data_1_split_0
I0704 18:21:28.726908 32707 net.cpp:368] loss1/loss -> loss1/loss1
I0704 18:21:28.726917 32707 net.cpp:120] Setting up loss1/loss
I0704 18:21:28.726924 32707 layer_factory.hpp:74] Creating layer loss1/loss
I0704 18:21:28.727113 32707 net.cpp:127] Top shape: (1)
I0704 18:21:28.727133 32707 net.cpp:129]     with loss weight 0.3
I0704 18:21:28.727152 32707 layer_factory.hpp:74] Creating layer inception_4b/1x1
I0704 18:21:28.727161 32707 net.cpp:90] Creating Layer inception_4b/1x1
I0704 18:21:28.727169 32707 net.cpp:410] inception_4b/1x1 <- inception_4a/output_inception_4a/output_0_split_1
I0704 18:21:28.727176 32707 net.cpp:368] inception_4b/1x1 -> inception_4b/1x1
I0704 18:21:28.727185 32707 net.cpp:120] Setting up inception_4b/1x1
I0704 18:21:28.727825 32707 net.cpp:127] Top shape: 30 160 14 14 (940800)
I0704 18:21:28.727849 32707 layer_factory.hpp:74] Creating layer inception_4b/relu_1x1
I0704 18:21:28.727857 32707 net.cpp:90] Creating Layer inception_4b/relu_1x1
I0704 18:21:28.727862 32707 net.cpp:410] inception_4b/relu_1x1 <- inception_4b/1x1
I0704 18:21:28.727869 32707 net.cpp:357] inception_4b/relu_1x1 -> inception_4b/1x1 (in-place)
I0704 18:21:28.727876 32707 net.cpp:120] Setting up inception_4b/relu_1x1
I0704 18:21:28.727929 32707 net.cpp:127] Top shape: 30 160 14 14 (940800)
I0704 18:21:28.727936 32707 layer_factory.hpp:74] Creating layer inception_4b/3x3_reduce
I0704 18:21:28.727954 32707 net.cpp:90] Creating Layer inception_4b/3x3_reduce
I0704 18:21:28.727974 32707 net.cpp:410] inception_4b/3x3_reduce <- inception_4a/output_inception_4a/output_0_split_2
I0704 18:21:28.727983 32707 net.cpp:368] inception_4b/3x3_reduce -> inception_4b/3x3_reduce
I0704 18:21:28.727991 32707 net.cpp:120] Setting up inception_4b/3x3_reduce
I0704 18:21:28.728484 32707 net.cpp:127] Top shape: 30 112 14 14 (658560)
I0704 18:21:28.728508 32707 layer_factory.hpp:74] Creating layer inception_4b/relu_3x3_reduce
I0704 18:21:28.728515 32707 net.cpp:90] Creating Layer inception_4b/relu_3x3_reduce
I0704 18:21:28.728521 32707 net.cpp:410] inception_4b/relu_3x3_reduce <- inception_4b/3x3_reduce
I0704 18:21:28.728528 32707 net.cpp:357] inception_4b/relu_3x3_reduce -> inception_4b/3x3_reduce (in-place)
I0704 18:21:28.728535 32707 net.cpp:120] Setting up inception_4b/relu_3x3_reduce
I0704 18:21:28.728585 32707 net.cpp:127] Top shape: 30 112 14 14 (658560)
I0704 18:21:28.728592 32707 layer_factory.hpp:74] Creating layer inception_4b/3x3
I0704 18:21:28.728611 32707 net.cpp:90] Creating Layer inception_4b/3x3
I0704 18:21:28.728617 32707 net.cpp:410] inception_4b/3x3 <- inception_4b/3x3_reduce
I0704 18:21:28.728623 32707 net.cpp:368] inception_4b/3x3 -> inception_4b/3x3
I0704 18:21:28.728631 32707 net.cpp:120] Setting up inception_4b/3x3
I0704 18:21:28.729928 32707 net.cpp:127] Top shape: 30 224 14 14 (1317120)
I0704 18:21:28.729950 32707 layer_factory.hpp:74] Creating layer inception_4b/relu_3x3
I0704 18:21:28.729959 32707 net.cpp:90] Creating Layer inception_4b/relu_3x3
I0704 18:21:28.729964 32707 net.cpp:410] inception_4b/relu_3x3 <- inception_4b/3x3
I0704 18:21:28.729970 32707 net.cpp:357] inception_4b/relu_3x3 -> inception_4b/3x3 (in-place)
I0704 18:21:28.729976 32707 net.cpp:120] Setting up inception_4b/relu_3x3
I0704 18:21:28.730027 32707 net.cpp:127] Top shape: 30 224 14 14 (1317120)
I0704 18:21:28.730034 32707 layer_factory.hpp:74] Creating layer inception_4b/5x5_reduce
I0704 18:21:28.730053 32707 net.cpp:90] Creating Layer inception_4b/5x5_reduce
I0704 18:21:28.730058 32707 net.cpp:410] inception_4b/5x5_reduce <- inception_4a/output_inception_4a/output_0_split_3
I0704 18:21:28.730067 32707 net.cpp:368] inception_4b/5x5_reduce -> inception_4b/5x5_reduce
I0704 18:21:28.730074 32707 net.cpp:120] Setting up inception_4b/5x5_reduce
I0704 18:21:28.730351 32707 net.cpp:127] Top shape: 30 24 14 14 (141120)
I0704 18:21:28.730375 32707 layer_factory.hpp:74] Creating layer inception_4b/relu_5x5_reduce
I0704 18:21:28.730382 32707 net.cpp:90] Creating Layer inception_4b/relu_5x5_reduce
I0704 18:21:28.730388 32707 net.cpp:410] inception_4b/relu_5x5_reduce <- inception_4b/5x5_reduce
I0704 18:21:28.730394 32707 net.cpp:357] inception_4b/relu_5x5_reduce -> inception_4b/5x5_reduce (in-place)
I0704 18:21:28.730401 32707 net.cpp:120] Setting up inception_4b/relu_5x5_reduce
I0704 18:21:28.730518 32707 net.cpp:127] Top shape: 30 24 14 14 (141120)
I0704 18:21:28.730538 32707 layer_factory.hpp:74] Creating layer inception_4b/5x5
I0704 18:21:28.730547 32707 net.cpp:90] Creating Layer inception_4b/5x5
I0704 18:21:28.730553 32707 net.cpp:410] inception_4b/5x5 <- inception_4b/5x5_reduce
I0704 18:21:28.730561 32707 net.cpp:368] inception_4b/5x5 -> inception_4b/5x5
I0704 18:21:28.730568 32707 net.cpp:120] Setting up inception_4b/5x5
I0704 18:21:28.730962 32707 net.cpp:127] Top shape: 30 64 14 14 (376320)
I0704 18:21:28.730984 32707 layer_factory.hpp:74] Creating layer inception_4b/relu_5x5
I0704 18:21:28.730991 32707 net.cpp:90] Creating Layer inception_4b/relu_5x5
I0704 18:21:28.730996 32707 net.cpp:410] inception_4b/relu_5x5 <- inception_4b/5x5
I0704 18:21:28.731003 32707 net.cpp:357] inception_4b/relu_5x5 -> inception_4b/5x5 (in-place)
I0704 18:21:28.731010 32707 net.cpp:120] Setting up inception_4b/relu_5x5
I0704 18:21:28.731061 32707 net.cpp:127] Top shape: 30 64 14 14 (376320)
I0704 18:21:28.731068 32707 layer_factory.hpp:74] Creating layer inception_4b/pool
I0704 18:21:28.731086 32707 layer_factory.cpp:55] CUDNN does not support padding or multiple tops. Using Caffe's own pooling layer.
I0704 18:21:28.731098 32707 net.cpp:90] Creating Layer inception_4b/pool
I0704 18:21:28.731104 32707 net.cpp:410] inception_4b/pool <- inception_4a/output_inception_4a/output_0_split_4
I0704 18:21:28.731111 32707 net.cpp:368] inception_4b/pool -> inception_4b/pool
I0704 18:21:28.731122 32707 net.cpp:120] Setting up inception_4b/pool
I0704 18:21:28.731130 32707 net.cpp:127] Top shape: 30 512 14 14 (3010560)
I0704 18:21:28.731137 32707 layer_factory.hpp:74] Creating layer inception_4b/pool_proj
I0704 18:21:28.731144 32707 net.cpp:90] Creating Layer inception_4b/pool_proj
I0704 18:21:28.731149 32707 net.cpp:410] inception_4b/pool_proj <- inception_4b/pool
I0704 18:21:28.731155 32707 net.cpp:368] inception_4b/pool_proj -> inception_4b/pool_proj
I0704 18:21:28.731163 32707 net.cpp:120] Setting up inception_4b/pool_proj
I0704 18:21:28.731554 32707 net.cpp:127] Top shape: 30 64 14 14 (376320)
I0704 18:21:28.731577 32707 layer_factory.hpp:74] Creating layer inception_4b/relu_pool_proj
I0704 18:21:28.731585 32707 net.cpp:90] Creating Layer inception_4b/relu_pool_proj
I0704 18:21:28.731590 32707 net.cpp:410] inception_4b/relu_pool_proj <- inception_4b/pool_proj
I0704 18:21:28.731597 32707 net.cpp:357] inception_4b/relu_pool_proj -> inception_4b/pool_proj (in-place)
I0704 18:21:28.731605 32707 net.cpp:120] Setting up inception_4b/relu_pool_proj
I0704 18:21:28.731655 32707 net.cpp:127] Top shape: 30 64 14 14 (376320)
I0704 18:21:28.731662 32707 layer_factory.hpp:74] Creating layer inception_4b/output
I0704 18:21:28.731679 32707 net.cpp:90] Creating Layer inception_4b/output
I0704 18:21:28.731684 32707 net.cpp:410] inception_4b/output <- inception_4b/1x1
I0704 18:21:28.731689 32707 net.cpp:410] inception_4b/output <- inception_4b/3x3
I0704 18:21:28.731695 32707 net.cpp:410] inception_4b/output <- inception_4b/5x5
I0704 18:21:28.731700 32707 net.cpp:410] inception_4b/output <- inception_4b/pool_proj
I0704 18:21:28.731706 32707 net.cpp:368] inception_4b/output -> inception_4b/output
I0704 18:21:28.731712 32707 net.cpp:120] Setting up inception_4b/output
I0704 18:21:28.731720 32707 net.cpp:127] Top shape: 30 512 14 14 (3010560)
I0704 18:21:28.731725 32707 layer_factory.hpp:74] Creating layer inception_4b/output_inception_4b/output_0_split
I0704 18:21:28.731732 32707 net.cpp:90] Creating Layer inception_4b/output_inception_4b/output_0_split
I0704 18:21:28.731736 32707 net.cpp:410] inception_4b/output_inception_4b/output_0_split <- inception_4b/output
I0704 18:21:28.731744 32707 net.cpp:368] inception_4b/output_inception_4b/output_0_split -> inception_4b/output_inception_4b/output_0_split_0
I0704 18:21:28.731750 32707 net.cpp:368] inception_4b/output_inception_4b/output_0_split -> inception_4b/output_inception_4b/output_0_split_1
I0704 18:21:28.731757 32707 net.cpp:368] inception_4b/output_inception_4b/output_0_split -> inception_4b/output_inception_4b/output_0_split_2
I0704 18:21:28.731765 32707 net.cpp:368] inception_4b/output_inception_4b/output_0_split -> inception_4b/output_inception_4b/output_0_split_3
I0704 18:21:28.731770 32707 net.cpp:120] Setting up inception_4b/output_inception_4b/output_0_split
I0704 18:21:28.731778 32707 net.cpp:127] Top shape: 30 512 14 14 (3010560)
I0704 18:21:28.731783 32707 net.cpp:127] Top shape: 30 512 14 14 (3010560)
I0704 18:21:28.731789 32707 net.cpp:127] Top shape: 30 512 14 14 (3010560)
I0704 18:21:28.731794 32707 net.cpp:127] Top shape: 30 512 14 14 (3010560)
I0704 18:21:28.731799 32707 layer_factory.hpp:74] Creating layer inception_4c/1x1
I0704 18:21:28.731806 32707 net.cpp:90] Creating Layer inception_4c/1x1
I0704 18:21:28.731812 32707 net.cpp:410] inception_4c/1x1 <- inception_4b/output_inception_4b/output_0_split_0
I0704 18:21:28.731818 32707 net.cpp:368] inception_4c/1x1 -> inception_4c/1x1
I0704 18:21:28.731825 32707 net.cpp:120] Setting up inception_4c/1x1
I0704 18:21:28.732360 32707 net.cpp:127] Top shape: 30 128 14 14 (752640)
I0704 18:21:28.732383 32707 layer_factory.hpp:74] Creating layer inception_4c/relu_1x1
I0704 18:21:28.732389 32707 net.cpp:90] Creating Layer inception_4c/relu_1x1
I0704 18:21:28.732403 32707 net.cpp:410] inception_4c/relu_1x1 <- inception_4c/1x1
I0704 18:21:28.732409 32707 net.cpp:357] inception_4c/relu_1x1 -> inception_4c/1x1 (in-place)
I0704 18:21:28.732416 32707 net.cpp:120] Setting up inception_4c/relu_1x1
I0704 18:21:28.732468 32707 net.cpp:127] Top shape: 30 128 14 14 (752640)
I0704 18:21:28.732475 32707 layer_factory.hpp:74] Creating layer inception_4c/3x3_reduce
I0704 18:21:28.732492 32707 net.cpp:90] Creating Layer inception_4c/3x3_reduce
I0704 18:21:28.732497 32707 net.cpp:410] inception_4c/3x3_reduce <- inception_4b/output_inception_4b/output_0_split_1
I0704 18:21:28.732506 32707 net.cpp:368] inception_4c/3x3_reduce -> inception_4c/3x3_reduce
I0704 18:21:28.732512 32707 net.cpp:120] Setting up inception_4c/3x3_reduce
I0704 18:21:28.733041 32707 net.cpp:127] Top shape: 30 128 14 14 (752640)
I0704 18:21:28.733063 32707 layer_factory.hpp:74] Creating layer inception_4c/relu_3x3_reduce
I0704 18:21:28.733070 32707 net.cpp:90] Creating Layer inception_4c/relu_3x3_reduce
I0704 18:21:28.733075 32707 net.cpp:410] inception_4c/relu_3x3_reduce <- inception_4c/3x3_reduce
I0704 18:21:28.733083 32707 net.cpp:357] inception_4c/relu_3x3_reduce -> inception_4c/3x3_reduce (in-place)
I0704 18:21:28.733088 32707 net.cpp:120] Setting up inception_4c/relu_3x3_reduce
I0704 18:21:28.733206 32707 net.cpp:127] Top shape: 30 128 14 14 (752640)
I0704 18:21:28.733225 32707 layer_factory.hpp:74] Creating layer inception_4c/3x3
I0704 18:21:28.733234 32707 net.cpp:90] Creating Layer inception_4c/3x3
I0704 18:21:28.733240 32707 net.cpp:410] inception_4c/3x3 <- inception_4c/3x3_reduce
I0704 18:21:28.733247 32707 net.cpp:368] inception_4c/3x3 -> inception_4c/3x3
I0704 18:21:28.733254 32707 net.cpp:120] Setting up inception_4c/3x3
I0704 18:21:28.734905 32707 net.cpp:127] Top shape: 30 256 14 14 (1505280)
I0704 18:21:28.734933 32707 layer_factory.hpp:74] Creating layer inception_4c/relu_3x3
I0704 18:21:28.734941 32707 net.cpp:90] Creating Layer inception_4c/relu_3x3
I0704 18:21:28.734947 32707 net.cpp:410] inception_4c/relu_3x3 <- inception_4c/3x3
I0704 18:21:28.734953 32707 net.cpp:357] inception_4c/relu_3x3 -> inception_4c/3x3 (in-place)
I0704 18:21:28.734961 32707 net.cpp:120] Setting up inception_4c/relu_3x3
I0704 18:21:28.735013 32707 net.cpp:127] Top shape: 30 256 14 14 (1505280)
I0704 18:21:28.735019 32707 layer_factory.hpp:74] Creating layer inception_4c/5x5_reduce
I0704 18:21:28.735038 32707 net.cpp:90] Creating Layer inception_4c/5x5_reduce
I0704 18:21:28.735044 32707 net.cpp:410] inception_4c/5x5_reduce <- inception_4b/output_inception_4b/output_0_split_2
I0704 18:21:28.735050 32707 net.cpp:368] inception_4c/5x5_reduce -> inception_4c/5x5_reduce
I0704 18:21:28.735057 32707 net.cpp:120] Setting up inception_4c/5x5_reduce
I0704 18:21:28.735335 32707 net.cpp:127] Top shape: 30 24 14 14 (141120)
I0704 18:21:28.735357 32707 layer_factory.hpp:74] Creating layer inception_4c/relu_5x5_reduce
I0704 18:21:28.735364 32707 net.cpp:90] Creating Layer inception_4c/relu_5x5_reduce
I0704 18:21:28.735370 32707 net.cpp:410] inception_4c/relu_5x5_reduce <- inception_4c/5x5_reduce
I0704 18:21:28.735376 32707 net.cpp:357] inception_4c/relu_5x5_reduce -> inception_4c/5x5_reduce (in-place)
I0704 18:21:28.735383 32707 net.cpp:120] Setting up inception_4c/relu_5x5_reduce
I0704 18:21:28.735432 32707 net.cpp:127] Top shape: 30 24 14 14 (141120)
I0704 18:21:28.735440 32707 layer_factory.hpp:74] Creating layer inception_4c/5x5
I0704 18:21:28.735457 32707 net.cpp:90] Creating Layer inception_4c/5x5
I0704 18:21:28.735462 32707 net.cpp:410] inception_4c/5x5 <- inception_4c/5x5_reduce
I0704 18:21:28.735469 32707 net.cpp:368] inception_4c/5x5 -> inception_4c/5x5
I0704 18:21:28.735477 32707 net.cpp:120] Setting up inception_4c/5x5
I0704 18:21:28.735874 32707 net.cpp:127] Top shape: 30 64 14 14 (376320)
I0704 18:21:28.735896 32707 layer_factory.hpp:74] Creating layer inception_4c/relu_5x5
I0704 18:21:28.735903 32707 net.cpp:90] Creating Layer inception_4c/relu_5x5
I0704 18:21:28.735908 32707 net.cpp:410] inception_4c/relu_5x5 <- inception_4c/5x5
I0704 18:21:28.735924 32707 net.cpp:357] inception_4c/relu_5x5 -> inception_4c/5x5 (in-place)
I0704 18:21:28.735931 32707 net.cpp:120] Setting up inception_4c/relu_5x5
I0704 18:21:28.736050 32707 net.cpp:127] Top shape: 30 64 14 14 (376320)
I0704 18:21:28.736070 32707 layer_factory.hpp:74] Creating layer inception_4c/pool
I0704 18:21:28.736076 32707 layer_factory.cpp:55] CUDNN does not support padding or multiple tops. Using Caffe's own pooling layer.
I0704 18:21:28.736084 32707 net.cpp:90] Creating Layer inception_4c/pool
I0704 18:21:28.736089 32707 net.cpp:410] inception_4c/pool <- inception_4b/output_inception_4b/output_0_split_3
I0704 18:21:28.736096 32707 net.cpp:368] inception_4c/pool -> inception_4c/pool
I0704 18:21:28.736102 32707 net.cpp:120] Setting up inception_4c/pool
I0704 18:21:28.736111 32707 net.cpp:127] Top shape: 30 512 14 14 (3010560)
I0704 18:21:28.736116 32707 layer_factory.hpp:74] Creating layer inception_4c/pool_proj
I0704 18:21:28.736124 32707 net.cpp:90] Creating Layer inception_4c/pool_proj
I0704 18:21:28.736129 32707 net.cpp:410] inception_4c/pool_proj <- inception_4c/pool
I0704 18:21:28.736135 32707 net.cpp:368] inception_4c/pool_proj -> inception_4c/pool_proj
I0704 18:21:28.736142 32707 net.cpp:120] Setting up inception_4c/pool_proj
I0704 18:21:28.736508 32707 net.cpp:127] Top shape: 30 64 14 14 (376320)
I0704 18:21:28.736531 32707 layer_factory.hpp:74] Creating layer inception_4c/relu_pool_proj
I0704 18:21:28.736537 32707 net.cpp:90] Creating Layer inception_4c/relu_pool_proj
I0704 18:21:28.736543 32707 net.cpp:410] inception_4c/relu_pool_proj <- inception_4c/pool_proj
I0704 18:21:28.736549 32707 net.cpp:357] inception_4c/relu_pool_proj -> inception_4c/pool_proj (in-place)
I0704 18:21:28.736557 32707 net.cpp:120] Setting up inception_4c/relu_pool_proj
I0704 18:21:28.736608 32707 net.cpp:127] Top shape: 30 64 14 14 (376320)
I0704 18:21:28.736614 32707 layer_factory.hpp:74] Creating layer inception_4c/output
I0704 18:21:28.736632 32707 net.cpp:90] Creating Layer inception_4c/output
I0704 18:21:28.736637 32707 net.cpp:410] inception_4c/output <- inception_4c/1x1
I0704 18:21:28.736644 32707 net.cpp:410] inception_4c/output <- inception_4c/3x3
I0704 18:21:28.736649 32707 net.cpp:410] inception_4c/output <- inception_4c/5x5
I0704 18:21:28.736654 32707 net.cpp:410] inception_4c/output <- inception_4c/pool_proj
I0704 18:21:28.736660 32707 net.cpp:368] inception_4c/output -> inception_4c/output
I0704 18:21:28.736667 32707 net.cpp:120] Setting up inception_4c/output
I0704 18:21:28.736673 32707 net.cpp:127] Top shape: 30 512 14 14 (3010560)
I0704 18:21:28.736680 32707 layer_factory.hpp:74] Creating layer inception_4c/output_inception_4c/output_0_split
I0704 18:21:28.736685 32707 net.cpp:90] Creating Layer inception_4c/output_inception_4c/output_0_split
I0704 18:21:28.736690 32707 net.cpp:410] inception_4c/output_inception_4c/output_0_split <- inception_4c/output
I0704 18:21:28.736697 32707 net.cpp:368] inception_4c/output_inception_4c/output_0_split -> inception_4c/output_inception_4c/output_0_split_0
I0704 18:21:28.736706 32707 net.cpp:368] inception_4c/output_inception_4c/output_0_split -> inception_4c/output_inception_4c/output_0_split_1
I0704 18:21:28.736712 32707 net.cpp:368] inception_4c/output_inception_4c/output_0_split -> inception_4c/output_inception_4c/output_0_split_2
I0704 18:21:28.736719 32707 net.cpp:368] inception_4c/output_inception_4c/output_0_split -> inception_4c/output_inception_4c/output_0_split_3
I0704 18:21:28.736726 32707 net.cpp:120] Setting up inception_4c/output_inception_4c/output_0_split
I0704 18:21:28.736732 32707 net.cpp:127] Top shape: 30 512 14 14 (3010560)
I0704 18:21:28.736737 32707 net.cpp:127] Top shape: 30 512 14 14 (3010560)
I0704 18:21:28.736742 32707 net.cpp:127] Top shape: 30 512 14 14 (3010560)
I0704 18:21:28.736747 32707 net.cpp:127] Top shape: 30 512 14 14 (3010560)
I0704 18:21:28.736752 32707 layer_factory.hpp:74] Creating layer inception_4d/1x1
I0704 18:21:28.736760 32707 net.cpp:90] Creating Layer inception_4d/1x1
I0704 18:21:28.736771 32707 net.cpp:410] inception_4d/1x1 <- inception_4c/output_inception_4c/output_0_split_0
I0704 18:21:28.736778 32707 net.cpp:368] inception_4d/1x1 -> inception_4d/1x1
I0704 18:21:28.736786 32707 net.cpp:120] Setting up inception_4d/1x1
I0704 18:21:28.737280 32707 net.cpp:127] Top shape: 30 112 14 14 (658560)
I0704 18:21:28.737303 32707 layer_factory.hpp:74] Creating layer inception_4d/relu_1x1
I0704 18:21:28.737311 32707 net.cpp:90] Creating Layer inception_4d/relu_1x1
I0704 18:21:28.737318 32707 net.cpp:410] inception_4d/relu_1x1 <- inception_4d/1x1
I0704 18:21:28.737323 32707 net.cpp:357] inception_4d/relu_1x1 -> inception_4d/1x1 (in-place)
I0704 18:21:28.737330 32707 net.cpp:120] Setting up inception_4d/relu_1x1
I0704 18:21:28.737380 32707 net.cpp:127] Top shape: 30 112 14 14 (658560)
I0704 18:21:28.737388 32707 layer_factory.hpp:74] Creating layer inception_4d/3x3_reduce
I0704 18:21:28.737406 32707 net.cpp:90] Creating Layer inception_4d/3x3_reduce
I0704 18:21:28.737411 32707 net.cpp:410] inception_4d/3x3_reduce <- inception_4c/output_inception_4c/output_0_split_1
I0704 18:21:28.737418 32707 net.cpp:368] inception_4d/3x3_reduce -> inception_4d/3x3_reduce
I0704 18:21:28.737426 32707 net.cpp:120] Setting up inception_4d/3x3_reduce
I0704 18:21:28.737995 32707 net.cpp:127] Top shape: 30 144 14 14 (846720)
I0704 18:21:28.738018 32707 layer_factory.hpp:74] Creating layer inception_4d/relu_3x3_reduce
I0704 18:21:28.738024 32707 net.cpp:90] Creating Layer inception_4d/relu_3x3_reduce
I0704 18:21:28.738030 32707 net.cpp:410] inception_4d/relu_3x3_reduce <- inception_4d/3x3_reduce
I0704 18:21:28.738036 32707 net.cpp:357] inception_4d/relu_3x3_reduce -> inception_4d/3x3_reduce (in-place)
I0704 18:21:28.738044 32707 net.cpp:120] Setting up inception_4d/relu_3x3_reduce
I0704 18:21:28.738095 32707 net.cpp:127] Top shape: 30 144 14 14 (846720)
I0704 18:21:28.738112 32707 layer_factory.hpp:74] Creating layer inception_4d/3x3
I0704 18:21:28.738121 32707 net.cpp:90] Creating Layer inception_4d/3x3
I0704 18:21:28.738126 32707 net.cpp:410] inception_4d/3x3 <- inception_4d/3x3_reduce
I0704 18:21:28.738132 32707 net.cpp:368] inception_4d/3x3 -> inception_4d/3x3
I0704 18:21:28.738140 32707 net.cpp:120] Setting up inception_4d/3x3
I0704 18:21:28.740161 32707 net.cpp:127] Top shape: 30 288 14 14 (1693440)
I0704 18:21:28.740183 32707 layer_factory.hpp:74] Creating layer inception_4d/relu_3x3
I0704 18:21:28.740191 32707 net.cpp:90] Creating Layer inception_4d/relu_3x3
I0704 18:21:28.740197 32707 net.cpp:410] inception_4d/relu_3x3 <- inception_4d/3x3
I0704 18:21:28.740203 32707 net.cpp:357] inception_4d/relu_3x3 -> inception_4d/3x3 (in-place)
I0704 18:21:28.740211 32707 net.cpp:120] Setting up inception_4d/relu_3x3
I0704 18:21:28.740330 32707 net.cpp:127] Top shape: 30 288 14 14 (1693440)
I0704 18:21:28.740350 32707 layer_factory.hpp:74] Creating layer inception_4d/5x5_reduce
I0704 18:21:28.740358 32707 net.cpp:90] Creating Layer inception_4d/5x5_reduce
I0704 18:21:28.740365 32707 net.cpp:410] inception_4d/5x5_reduce <- inception_4c/output_inception_4c/output_0_split_2
I0704 18:21:28.740371 32707 net.cpp:368] inception_4d/5x5_reduce -> inception_4d/5x5_reduce
I0704 18:21:28.740380 32707 net.cpp:120] Setting up inception_4d/5x5_reduce
I0704 18:21:28.740669 32707 net.cpp:127] Top shape: 30 32 14 14 (188160)
I0704 18:21:28.740689 32707 layer_factory.hpp:74] Creating layer inception_4d/relu_5x5_reduce
I0704 18:21:28.740696 32707 net.cpp:90] Creating Layer inception_4d/relu_5x5_reduce
I0704 18:21:28.740702 32707 net.cpp:410] inception_4d/relu_5x5_reduce <- inception_4d/5x5_reduce
I0704 18:21:28.740710 32707 net.cpp:357] inception_4d/relu_5x5_reduce -> inception_4d/5x5_reduce (in-place)
I0704 18:21:28.740716 32707 net.cpp:120] Setting up inception_4d/relu_5x5_reduce
I0704 18:21:28.740767 32707 net.cpp:127] Top shape: 30 32 14 14 (188160)
I0704 18:21:28.740774 32707 layer_factory.hpp:74] Creating layer inception_4d/5x5
I0704 18:21:28.740792 32707 net.cpp:90] Creating Layer inception_4d/5x5
I0704 18:21:28.740797 32707 net.cpp:410] inception_4d/5x5 <- inception_4d/5x5_reduce
I0704 18:21:28.740813 32707 net.cpp:368] inception_4d/5x5 -> inception_4d/5x5
I0704 18:21:28.740821 32707 net.cpp:120] Setting up inception_4d/5x5
I0704 18:21:28.741298 32707 net.cpp:127] Top shape: 30 64 14 14 (376320)
I0704 18:21:28.741320 32707 layer_factory.hpp:74] Creating layer inception_4d/relu_5x5
I0704 18:21:28.741328 32707 net.cpp:90] Creating Layer inception_4d/relu_5x5
I0704 18:21:28.741333 32707 net.cpp:410] inception_4d/relu_5x5 <- inception_4d/5x5
I0704 18:21:28.741341 32707 net.cpp:357] inception_4d/relu_5x5 -> inception_4d/5x5 (in-place)
I0704 18:21:28.741348 32707 net.cpp:120] Setting up inception_4d/relu_5x5
I0704 18:21:28.741400 32707 net.cpp:127] Top shape: 30 64 14 14 (376320)
I0704 18:21:28.741406 32707 layer_factory.hpp:74] Creating layer inception_4d/pool
I0704 18:21:28.741421 32707 layer_factory.cpp:55] CUDNN does not support padding or multiple tops. Using Caffe's own pooling layer.
I0704 18:21:28.741428 32707 net.cpp:90] Creating Layer inception_4d/pool
I0704 18:21:28.741435 32707 net.cpp:410] inception_4d/pool <- inception_4c/output_inception_4c/output_0_split_3
I0704 18:21:28.741441 32707 net.cpp:368] inception_4d/pool -> inception_4d/pool
I0704 18:21:28.741447 32707 net.cpp:120] Setting up inception_4d/pool
I0704 18:21:28.741456 32707 net.cpp:127] Top shape: 30 512 14 14 (3010560)
I0704 18:21:28.741461 32707 layer_factory.hpp:74] Creating layer inception_4d/pool_proj
I0704 18:21:28.741468 32707 net.cpp:90] Creating Layer inception_4d/pool_proj
I0704 18:21:28.741473 32707 net.cpp:410] inception_4d/pool_proj <- inception_4d/pool
I0704 18:21:28.741482 32707 net.cpp:368] inception_4d/pool_proj -> inception_4d/pool_proj
I0704 18:21:28.741488 32707 net.cpp:120] Setting up inception_4d/pool_proj
I0704 18:21:28.741868 32707 net.cpp:127] Top shape: 30 64 14 14 (376320)
I0704 18:21:28.741890 32707 layer_factory.hpp:74] Creating layer inception_4d/relu_pool_proj
I0704 18:21:28.741899 32707 net.cpp:90] Creating Layer inception_4d/relu_pool_proj
I0704 18:21:28.741904 32707 net.cpp:410] inception_4d/relu_pool_proj <- inception_4d/pool_proj
I0704 18:21:28.741920 32707 net.cpp:357] inception_4d/relu_pool_proj -> inception_4d/pool_proj (in-place)
I0704 18:21:28.741927 32707 net.cpp:120] Setting up inception_4d/relu_pool_proj
I0704 18:21:28.742002 32707 net.cpp:127] Top shape: 30 64 14 14 (376320)
I0704 18:21:28.742009 32707 layer_factory.hpp:74] Creating layer inception_4d/output
I0704 18:21:28.742027 32707 net.cpp:90] Creating Layer inception_4d/output
I0704 18:21:28.742033 32707 net.cpp:410] inception_4d/output <- inception_4d/1x1
I0704 18:21:28.742038 32707 net.cpp:410] inception_4d/output <- inception_4d/3x3
I0704 18:21:28.742043 32707 net.cpp:410] inception_4d/output <- inception_4d/5x5
I0704 18:21:28.742049 32707 net.cpp:410] inception_4d/output <- inception_4d/pool_proj
I0704 18:21:28.742055 32707 net.cpp:368] inception_4d/output -> inception_4d/output
I0704 18:21:28.742061 32707 net.cpp:120] Setting up inception_4d/output
I0704 18:21:28.742069 32707 net.cpp:127] Top shape: 30 528 14 14 (3104640)
I0704 18:21:28.742074 32707 layer_factory.hpp:74] Creating layer inception_4d/output_inception_4d/output_0_split
I0704 18:21:28.742080 32707 net.cpp:90] Creating Layer inception_4d/output_inception_4d/output_0_split
I0704 18:21:28.742085 32707 net.cpp:410] inception_4d/output_inception_4d/output_0_split <- inception_4d/output
I0704 18:21:28.742092 32707 net.cpp:368] inception_4d/output_inception_4d/output_0_split -> inception_4d/output_inception_4d/output_0_split_0
I0704 18:21:28.742100 32707 net.cpp:368] inception_4d/output_inception_4d/output_0_split -> inception_4d/output_inception_4d/output_0_split_1
I0704 18:21:28.742106 32707 net.cpp:368] inception_4d/output_inception_4d/output_0_split -> inception_4d/output_inception_4d/output_0_split_2
I0704 18:21:28.742113 32707 net.cpp:368] inception_4d/output_inception_4d/output_0_split -> inception_4d/output_inception_4d/output_0_split_3
I0704 18:21:28.742120 32707 net.cpp:368] inception_4d/output_inception_4d/output_0_split -> inception_4d/output_inception_4d/output_0_split_4
I0704 18:21:28.742133 32707 net.cpp:120] Setting up inception_4d/output_inception_4d/output_0_split
I0704 18:21:28.742142 32707 net.cpp:127] Top shape: 30 528 14 14 (3104640)
I0704 18:21:28.742148 32707 net.cpp:127] Top shape: 30 528 14 14 (3104640)
I0704 18:21:28.742154 32707 net.cpp:127] Top shape: 30 528 14 14 (3104640)
I0704 18:21:28.742159 32707 net.cpp:127] Top shape: 30 528 14 14 (3104640)
I0704 18:21:28.742164 32707 net.cpp:127] Top shape: 30 528 14 14 (3104640)
I0704 18:21:28.742169 32707 layer_factory.hpp:74] Creating layer loss2/ave_pool
I0704 18:21:28.742175 32707 net.cpp:90] Creating Layer loss2/ave_pool
I0704 18:21:28.742180 32707 net.cpp:410] loss2/ave_pool <- inception_4d/output_inception_4d/output_0_split_0
I0704 18:21:28.742187 32707 net.cpp:368] loss2/ave_pool -> loss2/ave_pool
I0704 18:21:28.742193 32707 net.cpp:120] Setting up loss2/ave_pool
I0704 18:21:28.742317 32707 net.cpp:127] Top shape: 30 528 4 4 (253440)
I0704 18:21:28.742326 32707 layer_factory.hpp:74] Creating layer loss2/conv
I0704 18:21:28.742336 32707 net.cpp:90] Creating Layer loss2/conv
I0704 18:21:28.742341 32707 net.cpp:410] loss2/conv <- loss2/ave_pool
I0704 18:21:28.742347 32707 net.cpp:368] loss2/conv -> loss2/conv
I0704 18:21:28.742354 32707 net.cpp:120] Setting up loss2/conv
I0704 18:21:28.742883 32707 net.cpp:127] Top shape: 30 128 4 4 (61440)
I0704 18:21:28.742895 32707 layer_factory.hpp:74] Creating layer loss2/relu_conv
I0704 18:21:28.742902 32707 net.cpp:90] Creating Layer loss2/relu_conv
I0704 18:21:28.742908 32707 net.cpp:410] loss2/relu_conv <- loss2/conv
I0704 18:21:28.742913 32707 net.cpp:357] loss2/relu_conv -> loss2/conv (in-place)
I0704 18:21:28.742919 32707 net.cpp:120] Setting up loss2/relu_conv
I0704 18:21:28.742959 32707 net.cpp:127] Top shape: 30 128 4 4 (61440)
I0704 18:21:28.742966 32707 layer_factory.hpp:74] Creating layer loss2/fc
I0704 18:21:28.742974 32707 net.cpp:90] Creating Layer loss2/fc
I0704 18:21:28.742979 32707 net.cpp:410] loss2/fc <- loss2/conv
I0704 18:21:28.742985 32707 net.cpp:368] loss2/fc -> loss2/fc
I0704 18:21:28.742992 32707 net.cpp:120] Setting up loss2/fc
I0704 18:21:28.752964 32707 net.cpp:127] Top shape: 30 1024 (30720)
I0704 18:21:28.752992 32707 layer_factory.hpp:74] Creating layer loss2/relu_fc
I0704 18:21:28.753003 32707 net.cpp:90] Creating Layer loss2/relu_fc
I0704 18:21:28.753012 32707 net.cpp:410] loss2/relu_fc <- loss2/fc
I0704 18:21:28.753024 32707 net.cpp:357] loss2/relu_fc -> loss2/fc (in-place)
I0704 18:21:28.753083 32707 net.cpp:120] Setting up loss2/relu_fc
I0704 18:21:28.753180 32707 net.cpp:127] Top shape: 30 1024 (30720)
I0704 18:21:28.753192 32707 layer_factory.hpp:74] Creating layer loss2/drop_fc
I0704 18:21:28.753201 32707 net.cpp:90] Creating Layer loss2/drop_fc
I0704 18:21:28.753206 32707 net.cpp:410] loss2/drop_fc <- loss2/fc
I0704 18:21:28.753214 32707 net.cpp:357] loss2/drop_fc -> loss2/fc (in-place)
I0704 18:21:28.753221 32707 net.cpp:120] Setting up loss2/drop_fc
I0704 18:21:28.753228 32707 net.cpp:127] Top shape: 30 1024 (30720)
I0704 18:21:28.753233 32707 layer_factory.hpp:74] Creating layer stanford_cars_loss2/classifier
I0704 18:21:28.753242 32707 net.cpp:90] Creating Layer stanford_cars_loss2/classifier
I0704 18:21:28.753245 32707 net.cpp:410] stanford_cars_loss2/classifier <- loss2/fc
I0704 18:21:28.753253 32707 net.cpp:368] stanford_cars_loss2/classifier -> stanford_cars_loss2/classifier
I0704 18:21:28.753262 32707 net.cpp:120] Setting up stanford_cars_loss2/classifier
I0704 18:21:28.754297 32707 net.cpp:127] Top shape: 30 196 (5880)
I0704 18:21:28.754309 32707 layer_factory.hpp:74] Creating layer stanford_cars_loss2/loss
I0704 18:21:28.754317 32707 net.cpp:90] Creating Layer stanford_cars_loss2/loss
I0704 18:21:28.754323 32707 net.cpp:410] stanford_cars_loss2/loss <- stanford_cars_loss2/classifier
I0704 18:21:28.754330 32707 net.cpp:410] stanford_cars_loss2/loss <- label_data_1_split_1
I0704 18:21:28.754336 32707 net.cpp:368] stanford_cars_loss2/loss -> loss2/loss1
I0704 18:21:28.754343 32707 net.cpp:120] Setting up stanford_cars_loss2/loss
I0704 18:21:28.754369 32707 layer_factory.hpp:74] Creating layer stanford_cars_loss2/loss
I0704 18:21:28.754429 32707 net.cpp:127] Top shape: (1)
I0704 18:21:28.754437 32707 net.cpp:129]     with loss weight 0.3
I0704 18:21:28.754448 32707 layer_factory.hpp:74] Creating layer inception_4e/1x1
I0704 18:21:28.754457 32707 net.cpp:90] Creating Layer inception_4e/1x1
I0704 18:21:28.754463 32707 net.cpp:410] inception_4e/1x1 <- inception_4d/output_inception_4d/output_0_split_1
I0704 18:21:28.754472 32707 net.cpp:368] inception_4e/1x1 -> inception_4e/1x1
I0704 18:21:28.754478 32707 net.cpp:120] Setting up inception_4e/1x1
I0704 18:21:28.755406 32707 net.cpp:127] Top shape: 30 256 14 14 (1505280)
I0704 18:21:28.755420 32707 layer_factory.hpp:74] Creating layer inception_4e/relu_1x1
I0704 18:21:28.755427 32707 net.cpp:90] Creating Layer inception_4e/relu_1x1
I0704 18:21:28.755434 32707 net.cpp:410] inception_4e/relu_1x1 <- inception_4e/1x1
I0704 18:21:28.755440 32707 net.cpp:357] inception_4e/relu_1x1 -> inception_4e/1x1 (in-place)
I0704 18:21:28.755447 32707 net.cpp:120] Setting up inception_4e/relu_1x1
I0704 18:21:28.755561 32707 net.cpp:127] Top shape: 30 256 14 14 (1505280)
I0704 18:21:28.755571 32707 layer_factory.hpp:74] Creating layer inception_4e/3x3_reduce
I0704 18:21:28.755579 32707 net.cpp:90] Creating Layer inception_4e/3x3_reduce
I0704 18:21:28.755585 32707 net.cpp:410] inception_4e/3x3_reduce <- inception_4d/output_inception_4d/output_0_split_2
I0704 18:21:28.755592 32707 net.cpp:368] inception_4e/3x3_reduce -> inception_4e/3x3_reduce
I0704 18:21:28.755600 32707 net.cpp:120] Setting up inception_4e/3x3_reduce
I0704 18:21:28.756216 32707 net.cpp:127] Top shape: 30 160 14 14 (940800)
I0704 18:21:28.756227 32707 layer_factory.hpp:74] Creating layer inception_4e/relu_3x3_reduce
I0704 18:21:28.756237 32707 net.cpp:90] Creating Layer inception_4e/relu_3x3_reduce
I0704 18:21:28.756242 32707 net.cpp:410] inception_4e/relu_3x3_reduce <- inception_4e/3x3_reduce
I0704 18:21:28.756248 32707 net.cpp:357] inception_4e/relu_3x3_reduce -> inception_4e/3x3_reduce (in-place)
I0704 18:21:28.756254 32707 net.cpp:120] Setting up inception_4e/relu_3x3_reduce
I0704 18:21:28.756297 32707 net.cpp:127] Top shape: 30 160 14 14 (940800)
I0704 18:21:28.756304 32707 layer_factory.hpp:74] Creating layer inception_4e/3x3
I0704 18:21:28.756312 32707 net.cpp:90] Creating Layer inception_4e/3x3
I0704 18:21:28.756319 32707 net.cpp:410] inception_4e/3x3 <- inception_4e/3x3_reduce
I0704 18:21:28.756325 32707 net.cpp:368] inception_4e/3x3 -> inception_4e/3x3
I0704 18:21:28.756332 32707 net.cpp:120] Setting up inception_4e/3x3
I0704 18:21:28.758769 32707 net.cpp:127] Top shape: 30 320 14 14 (1881600)
I0704 18:21:28.758782 32707 layer_factory.hpp:74] Creating layer inception_4e/relu_3x3
I0704 18:21:28.758790 32707 net.cpp:90] Creating Layer inception_4e/relu_3x3
I0704 18:21:28.758796 32707 net.cpp:410] inception_4e/relu_3x3 <- inception_4e/3x3
I0704 18:21:28.758802 32707 net.cpp:357] inception_4e/relu_3x3 -> inception_4e/3x3 (in-place)
I0704 18:21:28.758808 32707 net.cpp:120] Setting up inception_4e/relu_3x3
I0704 18:21:28.758852 32707 net.cpp:127] Top shape: 30 320 14 14 (1881600)
I0704 18:21:28.758858 32707 layer_factory.hpp:74] Creating layer inception_4e/5x5_reduce
I0704 18:21:28.758867 32707 net.cpp:90] Creating Layer inception_4e/5x5_reduce
I0704 18:21:28.758872 32707 net.cpp:410] inception_4e/5x5_reduce <- inception_4d/output_inception_4d/output_0_split_3
I0704 18:21:28.758879 32707 net.cpp:368] inception_4e/5x5_reduce -> inception_4e/5x5_reduce
I0704 18:21:28.758888 32707 net.cpp:120] Setting up inception_4e/5x5_reduce
I0704 18:21:28.759176 32707 net.cpp:127] Top shape: 30 32 14 14 (188160)
I0704 18:21:28.759188 32707 layer_factory.hpp:74] Creating layer inception_4e/relu_5x5_reduce
I0704 18:21:28.759196 32707 net.cpp:90] Creating Layer inception_4e/relu_5x5_reduce
I0704 18:21:28.759202 32707 net.cpp:410] inception_4e/relu_5x5_reduce <- inception_4e/5x5_reduce
I0704 18:21:28.759207 32707 net.cpp:357] inception_4e/relu_5x5_reduce -> inception_4e/5x5_reduce (in-place)
I0704 18:21:28.759222 32707 net.cpp:120] Setting up inception_4e/relu_5x5_reduce
I0704 18:21:28.759344 32707 net.cpp:127] Top shape: 30 32 14 14 (188160)
I0704 18:21:28.759354 32707 layer_factory.hpp:74] Creating layer inception_4e/5x5
I0704 18:21:28.759371 32707 net.cpp:90] Creating Layer inception_4e/5x5
I0704 18:21:28.759377 32707 net.cpp:410] inception_4e/5x5 <- inception_4e/5x5_reduce
I0704 18:21:28.759384 32707 net.cpp:368] inception_4e/5x5 -> inception_4e/5x5
I0704 18:21:28.759392 32707 net.cpp:120] Setting up inception_4e/5x5
I0704 18:21:28.760094 32707 net.cpp:127] Top shape: 30 128 14 14 (752640)
I0704 18:21:28.760107 32707 layer_factory.hpp:74] Creating layer inception_4e/relu_5x5
I0704 18:21:28.760114 32707 net.cpp:90] Creating Layer inception_4e/relu_5x5
I0704 18:21:28.760119 32707 net.cpp:410] inception_4e/relu_5x5 <- inception_4e/5x5
I0704 18:21:28.760125 32707 net.cpp:357] inception_4e/relu_5x5 -> inception_4e/5x5 (in-place)
I0704 18:21:28.760133 32707 net.cpp:120] Setting up inception_4e/relu_5x5
I0704 18:21:28.760175 32707 net.cpp:127] Top shape: 30 128 14 14 (752640)
I0704 18:21:28.760182 32707 layer_factory.hpp:74] Creating layer inception_4e/pool
I0704 18:21:28.760188 32707 layer_factory.cpp:55] CUDNN does not support padding or multiple tops. Using Caffe's own pooling layer.
I0704 18:21:28.760195 32707 net.cpp:90] Creating Layer inception_4e/pool
I0704 18:21:28.760200 32707 net.cpp:410] inception_4e/pool <- inception_4d/output_inception_4d/output_0_split_4
I0704 18:21:28.760207 32707 net.cpp:368] inception_4e/pool -> inception_4e/pool
I0704 18:21:28.760213 32707 net.cpp:120] Setting up inception_4e/pool
I0704 18:21:28.760221 32707 net.cpp:127] Top shape: 30 528 14 14 (3104640)
I0704 18:21:28.760226 32707 layer_factory.hpp:74] Creating layer inception_4e/pool_proj
I0704 18:21:28.760234 32707 net.cpp:90] Creating Layer inception_4e/pool_proj
I0704 18:21:28.760239 32707 net.cpp:410] inception_4e/pool_proj <- inception_4e/pool
I0704 18:21:28.760246 32707 net.cpp:368] inception_4e/pool_proj -> inception_4e/pool_proj
I0704 18:21:28.760252 32707 net.cpp:120] Setting up inception_4e/pool_proj
I0704 18:21:28.760783 32707 net.cpp:127] Top shape: 30 128 14 14 (752640)
I0704 18:21:28.760795 32707 layer_factory.hpp:74] Creating layer inception_4e/relu_pool_proj
I0704 18:21:28.760803 32707 net.cpp:90] Creating Layer inception_4e/relu_pool_proj
I0704 18:21:28.760810 32707 net.cpp:410] inception_4e/relu_pool_proj <- inception_4e/pool_proj
I0704 18:21:28.760817 32707 net.cpp:357] inception_4e/relu_pool_proj -> inception_4e/pool_proj (in-place)
I0704 18:21:28.760823 32707 net.cpp:120] Setting up inception_4e/relu_pool_proj
I0704 18:21:28.760865 32707 net.cpp:127] Top shape: 30 128 14 14 (752640)
I0704 18:21:28.760872 32707 layer_factory.hpp:74] Creating layer inception_4e/output
I0704 18:21:28.760880 32707 net.cpp:90] Creating Layer inception_4e/output
I0704 18:21:28.760885 32707 net.cpp:410] inception_4e/output <- inception_4e/1x1
I0704 18:21:28.760891 32707 net.cpp:410] inception_4e/output <- inception_4e/3x3
I0704 18:21:28.760896 32707 net.cpp:410] inception_4e/output <- inception_4e/5x5
I0704 18:21:28.760901 32707 net.cpp:410] inception_4e/output <- inception_4e/pool_proj
I0704 18:21:28.760906 32707 net.cpp:368] inception_4e/output -> inception_4e/output
I0704 18:21:28.760913 32707 net.cpp:120] Setting up inception_4e/output
I0704 18:21:28.760921 32707 net.cpp:127] Top shape: 30 832 14 14 (4892160)
I0704 18:21:28.760926 32707 layer_factory.hpp:74] Creating layer pool4/3x3_s2
I0704 18:21:28.760932 32707 net.cpp:90] Creating Layer pool4/3x3_s2
I0704 18:21:28.760937 32707 net.cpp:410] pool4/3x3_s2 <- inception_4e/output
I0704 18:21:28.760943 32707 net.cpp:368] pool4/3x3_s2 -> pool4/3x3_s2
I0704 18:21:28.760949 32707 net.cpp:120] Setting up pool4/3x3_s2
I0704 18:21:28.760993 32707 net.cpp:127] Top shape: 30 832 7 7 (1223040)
I0704 18:21:28.761001 32707 layer_factory.hpp:74] Creating layer pool4/3x3_s2_pool4/3x3_s2_0_split
I0704 18:21:28.761008 32707 net.cpp:90] Creating Layer pool4/3x3_s2_pool4/3x3_s2_0_split
I0704 18:21:28.761019 32707 net.cpp:410] pool4/3x3_s2_pool4/3x3_s2_0_split <- pool4/3x3_s2
I0704 18:21:28.761026 32707 net.cpp:368] pool4/3x3_s2_pool4/3x3_s2_0_split -> pool4/3x3_s2_pool4/3x3_s2_0_split_0
I0704 18:21:28.761034 32707 net.cpp:368] pool4/3x3_s2_pool4/3x3_s2_0_split -> pool4/3x3_s2_pool4/3x3_s2_0_split_1
I0704 18:21:28.761040 32707 net.cpp:368] pool4/3x3_s2_pool4/3x3_s2_0_split -> pool4/3x3_s2_pool4/3x3_s2_0_split_2
I0704 18:21:28.761047 32707 net.cpp:368] pool4/3x3_s2_pool4/3x3_s2_0_split -> pool4/3x3_s2_pool4/3x3_s2_0_split_3
I0704 18:21:28.761054 32707 net.cpp:120] Setting up pool4/3x3_s2_pool4/3x3_s2_0_split
I0704 18:21:28.761060 32707 net.cpp:127] Top shape: 30 832 7 7 (1223040)
I0704 18:21:28.761065 32707 net.cpp:127] Top shape: 30 832 7 7 (1223040)
I0704 18:21:28.761070 32707 net.cpp:127] Top shape: 30 832 7 7 (1223040)
I0704 18:21:28.761076 32707 net.cpp:127] Top shape: 30 832 7 7 (1223040)
I0704 18:21:28.761080 32707 layer_factory.hpp:74] Creating layer inception_5a/1x1
I0704 18:21:28.761090 32707 net.cpp:90] Creating Layer inception_5a/1x1
I0704 18:21:28.761095 32707 net.cpp:410] inception_5a/1x1 <- pool4/3x3_s2_pool4/3x3_s2_0_split_0
I0704 18:21:28.761101 32707 net.cpp:368] inception_5a/1x1 -> inception_5a/1x1
I0704 18:21:28.761108 32707 net.cpp:120] Setting up inception_5a/1x1
I0704 18:21:28.762388 32707 net.cpp:127] Top shape: 30 256 7 7 (376320)
I0704 18:21:28.762400 32707 layer_factory.hpp:74] Creating layer inception_5a/relu_1x1
I0704 18:21:28.762408 32707 net.cpp:90] Creating Layer inception_5a/relu_1x1
I0704 18:21:28.762414 32707 net.cpp:410] inception_5a/relu_1x1 <- inception_5a/1x1
I0704 18:21:28.762420 32707 net.cpp:357] inception_5a/relu_1x1 -> inception_5a/1x1 (in-place)
I0704 18:21:28.762426 32707 net.cpp:120] Setting up inception_5a/relu_1x1
I0704 18:21:28.762537 32707 net.cpp:127] Top shape: 30 256 7 7 (376320)
I0704 18:21:28.762545 32707 layer_factory.hpp:74] Creating layer inception_5a/3x3_reduce
I0704 18:21:28.762553 32707 net.cpp:90] Creating Layer inception_5a/3x3_reduce
I0704 18:21:28.762558 32707 net.cpp:410] inception_5a/3x3_reduce <- pool4/3x3_s2_pool4/3x3_s2_0_split_1
I0704 18:21:28.762565 32707 net.cpp:368] inception_5a/3x3_reduce -> inception_5a/3x3_reduce
I0704 18:21:28.762573 32707 net.cpp:120] Setting up inception_5a/3x3_reduce
I0704 18:21:28.763424 32707 net.cpp:127] Top shape: 30 160 7 7 (235200)
I0704 18:21:28.763435 32707 layer_factory.hpp:74] Creating layer inception_5a/relu_3x3_reduce
I0704 18:21:28.763442 32707 net.cpp:90] Creating Layer inception_5a/relu_3x3_reduce
I0704 18:21:28.763448 32707 net.cpp:410] inception_5a/relu_3x3_reduce <- inception_5a/3x3_reduce
I0704 18:21:28.763454 32707 net.cpp:357] inception_5a/relu_3x3_reduce -> inception_5a/3x3_reduce (in-place)
I0704 18:21:28.763461 32707 net.cpp:120] Setting up inception_5a/relu_3x3_reduce
I0704 18:21:28.763504 32707 net.cpp:127] Top shape: 30 160 7 7 (235200)
I0704 18:21:28.763509 32707 layer_factory.hpp:74] Creating layer inception_5a/3x3
I0704 18:21:28.763519 32707 net.cpp:90] Creating Layer inception_5a/3x3
I0704 18:21:28.763523 32707 net.cpp:410] inception_5a/3x3 <- inception_5a/3x3_reduce
I0704 18:21:28.763530 32707 net.cpp:368] inception_5a/3x3 -> inception_5a/3x3
I0704 18:21:28.763537 32707 net.cpp:120] Setting up inception_5a/3x3
I0704 18:21:28.765965 32707 net.cpp:127] Top shape: 30 320 7 7 (470400)
I0704 18:21:28.765977 32707 layer_factory.hpp:74] Creating layer inception_5a/relu_3x3
I0704 18:21:28.765985 32707 net.cpp:90] Creating Layer inception_5a/relu_3x3
I0704 18:21:28.765991 32707 net.cpp:410] inception_5a/relu_3x3 <- inception_5a/3x3
I0704 18:21:28.765997 32707 net.cpp:357] inception_5a/relu_3x3 -> inception_5a/3x3 (in-place)
I0704 18:21:28.766005 32707 net.cpp:120] Setting up inception_5a/relu_3x3
I0704 18:21:28.766046 32707 net.cpp:127] Top shape: 30 320 7 7 (470400)
I0704 18:21:28.766052 32707 layer_factory.hpp:74] Creating layer inception_5a/5x5_reduce
I0704 18:21:28.766059 32707 net.cpp:90] Creating Layer inception_5a/5x5_reduce
I0704 18:21:28.766072 32707 net.cpp:410] inception_5a/5x5_reduce <- pool4/3x3_s2_pool4/3x3_s2_0_split_2
I0704 18:21:28.766080 32707 net.cpp:368] inception_5a/5x5_reduce -> inception_5a/5x5_reduce
I0704 18:21:28.766088 32707 net.cpp:120] Setting up inception_5a/5x5_reduce
I0704 18:21:28.766432 32707 net.cpp:127] Top shape: 30 32 7 7 (47040)
I0704 18:21:28.766443 32707 layer_factory.hpp:74] Creating layer inception_5a/relu_5x5_reduce
I0704 18:21:28.766449 32707 net.cpp:90] Creating Layer inception_5a/relu_5x5_reduce
I0704 18:21:28.766454 32707 net.cpp:410] inception_5a/relu_5x5_reduce <- inception_5a/5x5_reduce
I0704 18:21:28.766461 32707 net.cpp:357] inception_5a/relu_5x5_reduce -> inception_5a/5x5_reduce (in-place)
I0704 18:21:28.766468 32707 net.cpp:120] Setting up inception_5a/relu_5x5_reduce
I0704 18:21:28.766508 32707 net.cpp:127] Top shape: 30 32 7 7 (47040)
I0704 18:21:28.766515 32707 layer_factory.hpp:74] Creating layer inception_5a/5x5
I0704 18:21:28.766522 32707 net.cpp:90] Creating Layer inception_5a/5x5
I0704 18:21:28.766527 32707 net.cpp:410] inception_5a/5x5 <- inception_5a/5x5_reduce
I0704 18:21:28.766535 32707 net.cpp:368] inception_5a/5x5 -> inception_5a/5x5
I0704 18:21:28.766541 32707 net.cpp:120] Setting up inception_5a/5x5
I0704 18:21:28.767267 32707 net.cpp:127] Top shape: 30 128 7 7 (188160)
I0704 18:21:28.767279 32707 layer_factory.hpp:74] Creating layer inception_5a/relu_5x5
I0704 18:21:28.767285 32707 net.cpp:90] Creating Layer inception_5a/relu_5x5
I0704 18:21:28.767292 32707 net.cpp:410] inception_5a/relu_5x5 <- inception_5a/5x5
I0704 18:21:28.767297 32707 net.cpp:357] inception_5a/relu_5x5 -> inception_5a/5x5 (in-place)
I0704 18:21:28.767303 32707 net.cpp:120] Setting up inception_5a/relu_5x5
I0704 18:21:28.767446 32707 net.cpp:127] Top shape: 30 128 7 7 (188160)
I0704 18:21:28.767454 32707 layer_factory.hpp:74] Creating layer inception_5a/pool
I0704 18:21:28.767459 32707 layer_factory.cpp:55] CUDNN does not support padding or multiple tops. Using Caffe's own pooling layer.
I0704 18:21:28.767465 32707 net.cpp:90] Creating Layer inception_5a/pool
I0704 18:21:28.767472 32707 net.cpp:410] inception_5a/pool <- pool4/3x3_s2_pool4/3x3_s2_0_split_3
I0704 18:21:28.767478 32707 net.cpp:368] inception_5a/pool -> inception_5a/pool
I0704 18:21:28.767485 32707 net.cpp:120] Setting up inception_5a/pool
I0704 18:21:28.767493 32707 net.cpp:127] Top shape: 30 832 7 7 (1223040)
I0704 18:21:28.767498 32707 layer_factory.hpp:74] Creating layer inception_5a/pool_proj
I0704 18:21:28.767505 32707 net.cpp:90] Creating Layer inception_5a/pool_proj
I0704 18:21:28.767510 32707 net.cpp:410] inception_5a/pool_proj <- inception_5a/pool
I0704 18:21:28.767516 32707 net.cpp:368] inception_5a/pool_proj -> inception_5a/pool_proj
I0704 18:21:28.767524 32707 net.cpp:120] Setting up inception_5a/pool_proj
I0704 18:21:28.768254 32707 net.cpp:127] Top shape: 30 128 7 7 (188160)
I0704 18:21:28.768265 32707 layer_factory.hpp:74] Creating layer inception_5a/relu_pool_proj
I0704 18:21:28.768272 32707 net.cpp:90] Creating Layer inception_5a/relu_pool_proj
I0704 18:21:28.768277 32707 net.cpp:410] inception_5a/relu_pool_proj <- inception_5a/pool_proj
I0704 18:21:28.768285 32707 net.cpp:357] inception_5a/relu_pool_proj -> inception_5a/pool_proj (in-place)
I0704 18:21:28.768291 32707 net.cpp:120] Setting up inception_5a/relu_pool_proj
I0704 18:21:28.768332 32707 net.cpp:127] Top shape: 30 128 7 7 (188160)
I0704 18:21:28.768339 32707 layer_factory.hpp:74] Creating layer inception_5a/output
I0704 18:21:28.768345 32707 net.cpp:90] Creating Layer inception_5a/output
I0704 18:21:28.768350 32707 net.cpp:410] inception_5a/output <- inception_5a/1x1
I0704 18:21:28.768355 32707 net.cpp:410] inception_5a/output <- inception_5a/3x3
I0704 18:21:28.768360 32707 net.cpp:410] inception_5a/output <- inception_5a/5x5
I0704 18:21:28.768365 32707 net.cpp:410] inception_5a/output <- inception_5a/pool_proj
I0704 18:21:28.768371 32707 net.cpp:368] inception_5a/output -> inception_5a/output
I0704 18:21:28.768378 32707 net.cpp:120] Setting up inception_5a/output
I0704 18:21:28.768391 32707 net.cpp:127] Top shape: 30 832 7 7 (1223040)
I0704 18:21:28.768398 32707 layer_factory.hpp:74] Creating layer inception_5a/output_inception_5a/output_0_split
I0704 18:21:28.768404 32707 net.cpp:90] Creating Layer inception_5a/output_inception_5a/output_0_split
I0704 18:21:28.768409 32707 net.cpp:410] inception_5a/output_inception_5a/output_0_split <- inception_5a/output
I0704 18:21:28.768414 32707 net.cpp:368] inception_5a/output_inception_5a/output_0_split -> inception_5a/output_inception_5a/output_0_split_0
I0704 18:21:28.768420 32707 net.cpp:368] inception_5a/output_inception_5a/output_0_split -> inception_5a/output_inception_5a/output_0_split_1
I0704 18:21:28.768427 32707 net.cpp:368] inception_5a/output_inception_5a/output_0_split -> inception_5a/output_inception_5a/output_0_split_2
I0704 18:21:28.768435 32707 net.cpp:368] inception_5a/output_inception_5a/output_0_split -> inception_5a/output_inception_5a/output_0_split_3
I0704 18:21:28.768441 32707 net.cpp:120] Setting up inception_5a/output_inception_5a/output_0_split
I0704 18:21:28.768447 32707 net.cpp:127] Top shape: 30 832 7 7 (1223040)
I0704 18:21:28.768453 32707 net.cpp:127] Top shape: 30 832 7 7 (1223040)
I0704 18:21:28.768458 32707 net.cpp:127] Top shape: 30 832 7 7 (1223040)
I0704 18:21:28.768462 32707 net.cpp:127] Top shape: 30 832 7 7 (1223040)
I0704 18:21:28.768467 32707 layer_factory.hpp:74] Creating layer inception_5b/1x1
I0704 18:21:28.768474 32707 net.cpp:90] Creating Layer inception_5b/1x1
I0704 18:21:28.768479 32707 net.cpp:410] inception_5b/1x1 <- inception_5a/output_inception_5a/output_0_split_0
I0704 18:21:28.768486 32707 net.cpp:368] inception_5b/1x1 -> inception_5b/1x1
I0704 18:21:28.768492 32707 net.cpp:120] Setting up inception_5b/1x1
I0704 18:21:28.770249 32707 net.cpp:127] Top shape: 30 384 7 7 (564480)
I0704 18:21:28.770261 32707 layer_factory.hpp:74] Creating layer inception_5b/relu_1x1
I0704 18:21:28.770268 32707 net.cpp:90] Creating Layer inception_5b/relu_1x1
I0704 18:21:28.770273 32707 net.cpp:410] inception_5b/relu_1x1 <- inception_5b/1x1
I0704 18:21:28.770279 32707 net.cpp:357] inception_5b/relu_1x1 -> inception_5b/1x1 (in-place)
I0704 18:21:28.770285 32707 net.cpp:120] Setting up inception_5b/relu_1x1
I0704 18:21:28.770325 32707 net.cpp:127] Top shape: 30 384 7 7 (564480)
I0704 18:21:28.770331 32707 layer_factory.hpp:74] Creating layer inception_5b/3x3_reduce
I0704 18:21:28.770339 32707 net.cpp:90] Creating Layer inception_5b/3x3_reduce
I0704 18:21:28.770344 32707 net.cpp:410] inception_5b/3x3_reduce <- inception_5a/output_inception_5a/output_0_split_1
I0704 18:21:28.770350 32707 net.cpp:368] inception_5b/3x3_reduce -> inception_5b/3x3_reduce
I0704 18:21:28.770357 32707 net.cpp:120] Setting up inception_5b/3x3_reduce
I0704 18:21:28.771347 32707 net.cpp:127] Top shape: 30 192 7 7 (282240)
I0704 18:21:28.771358 32707 layer_factory.hpp:74] Creating layer inception_5b/relu_3x3_reduce
I0704 18:21:28.771365 32707 net.cpp:90] Creating Layer inception_5b/relu_3x3_reduce
I0704 18:21:28.771371 32707 net.cpp:410] inception_5b/relu_3x3_reduce <- inception_5b/3x3_reduce
I0704 18:21:28.771376 32707 net.cpp:357] inception_5b/relu_3x3_reduce -> inception_5b/3x3_reduce (in-place)
I0704 18:21:28.771384 32707 net.cpp:120] Setting up inception_5b/relu_3x3_reduce
I0704 18:21:28.771425 32707 net.cpp:127] Top shape: 30 192 7 7 (282240)
I0704 18:21:28.771431 32707 layer_factory.hpp:74] Creating layer inception_5b/3x3
I0704 18:21:28.771438 32707 net.cpp:90] Creating Layer inception_5b/3x3
I0704 18:21:28.771443 32707 net.cpp:410] inception_5b/3x3 <- inception_5b/3x3_reduce
I0704 18:21:28.771450 32707 net.cpp:368] inception_5b/3x3 -> inception_5b/3x3
I0704 18:21:28.771467 32707 net.cpp:120] Setting up inception_5b/3x3
I0704 18:21:28.774880 32707 net.cpp:127] Top shape: 30 384 7 7 (564480)
I0704 18:21:28.774893 32707 layer_factory.hpp:74] Creating layer inception_5b/relu_3x3
I0704 18:21:28.774900 32707 net.cpp:90] Creating Layer inception_5b/relu_3x3
I0704 18:21:28.774906 32707 net.cpp:410] inception_5b/relu_3x3 <- inception_5b/3x3
I0704 18:21:28.774922 32707 net.cpp:357] inception_5b/relu_3x3 -> inception_5b/3x3 (in-place)
I0704 18:21:28.774930 32707 net.cpp:120] Setting up inception_5b/relu_3x3
I0704 18:21:28.775040 32707 net.cpp:127] Top shape: 30 384 7 7 (564480)
I0704 18:21:28.775049 32707 layer_factory.hpp:74] Creating layer inception_5b/5x5_reduce
I0704 18:21:28.775058 32707 net.cpp:90] Creating Layer inception_5b/5x5_reduce
I0704 18:21:28.775063 32707 net.cpp:410] inception_5b/5x5_reduce <- inception_5a/output_inception_5a/output_0_split_2
I0704 18:21:28.775070 32707 net.cpp:368] inception_5b/5x5_reduce -> inception_5b/5x5_reduce
I0704 18:21:28.775079 32707 net.cpp:120] Setting up inception_5b/5x5_reduce
I0704 18:21:28.775480 32707 net.cpp:127] Top shape: 30 48 7 7 (70560)
I0704 18:21:28.775492 32707 layer_factory.hpp:74] Creating layer inception_5b/relu_5x5_reduce
I0704 18:21:28.775499 32707 net.cpp:90] Creating Layer inception_5b/relu_5x5_reduce
I0704 18:21:28.775504 32707 net.cpp:410] inception_5b/relu_5x5_reduce <- inception_5b/5x5_reduce
I0704 18:21:28.775511 32707 net.cpp:357] inception_5b/relu_5x5_reduce -> inception_5b/5x5_reduce (in-place)
I0704 18:21:28.775518 32707 net.cpp:120] Setting up inception_5b/relu_5x5_reduce
I0704 18:21:28.775560 32707 net.cpp:127] Top shape: 30 48 7 7 (70560)
I0704 18:21:28.775566 32707 layer_factory.hpp:74] Creating layer inception_5b/5x5
I0704 18:21:28.775574 32707 net.cpp:90] Creating Layer inception_5b/5x5
I0704 18:21:28.775579 32707 net.cpp:410] inception_5b/5x5 <- inception_5b/5x5_reduce
I0704 18:21:28.775586 32707 net.cpp:368] inception_5b/5x5 -> inception_5b/5x5
I0704 18:21:28.775593 32707 net.cpp:120] Setting up inception_5b/5x5
I0704 18:21:28.776537 32707 net.cpp:127] Top shape: 30 128 7 7 (188160)
I0704 18:21:28.776548 32707 layer_factory.hpp:74] Creating layer inception_5b/relu_5x5
I0704 18:21:28.776556 32707 net.cpp:90] Creating Layer inception_5b/relu_5x5
I0704 18:21:28.776561 32707 net.cpp:410] inception_5b/relu_5x5 <- inception_5b/5x5
I0704 18:21:28.776567 32707 net.cpp:357] inception_5b/relu_5x5 -> inception_5b/5x5 (in-place)
I0704 18:21:28.776574 32707 net.cpp:120] Setting up inception_5b/relu_5x5
I0704 18:21:28.776615 32707 net.cpp:127] Top shape: 30 128 7 7 (188160)
I0704 18:21:28.776621 32707 layer_factory.hpp:74] Creating layer inception_5b/pool
I0704 18:21:28.776628 32707 layer_factory.cpp:55] CUDNN does not support padding or multiple tops. Using Caffe's own pooling layer.
I0704 18:21:28.776634 32707 net.cpp:90] Creating Layer inception_5b/pool
I0704 18:21:28.776639 32707 net.cpp:410] inception_5b/pool <- inception_5a/output_inception_5a/output_0_split_3
I0704 18:21:28.776645 32707 net.cpp:368] inception_5b/pool -> inception_5b/pool
I0704 18:21:28.776653 32707 net.cpp:120] Setting up inception_5b/pool
I0704 18:21:28.776659 32707 net.cpp:127] Top shape: 30 832 7 7 (1223040)
I0704 18:21:28.776664 32707 layer_factory.hpp:74] Creating layer inception_5b/pool_proj
I0704 18:21:28.776671 32707 net.cpp:90] Creating Layer inception_5b/pool_proj
I0704 18:21:28.776676 32707 net.cpp:410] inception_5b/pool_proj <- inception_5b/pool
I0704 18:21:28.776682 32707 net.cpp:368] inception_5b/pool_proj -> inception_5b/pool_proj
I0704 18:21:28.776690 32707 net.cpp:120] Setting up inception_5b/pool_proj
I0704 18:21:28.777413 32707 net.cpp:127] Top shape: 30 128 7 7 (188160)
I0704 18:21:28.777425 32707 layer_factory.hpp:74] Creating layer inception_5b/relu_pool_proj
I0704 18:21:28.777431 32707 net.cpp:90] Creating Layer inception_5b/relu_pool_proj
I0704 18:21:28.777436 32707 net.cpp:410] inception_5b/relu_pool_proj <- inception_5b/pool_proj
I0704 18:21:28.777443 32707 net.cpp:357] inception_5b/relu_pool_proj -> inception_5b/pool_proj (in-place)
I0704 18:21:28.777449 32707 net.cpp:120] Setting up inception_5b/relu_pool_proj
I0704 18:21:28.777559 32707 net.cpp:127] Top shape: 30 128 7 7 (188160)
I0704 18:21:28.777568 32707 layer_factory.hpp:74] Creating layer inception_5b/output
I0704 18:21:28.777575 32707 net.cpp:90] Creating Layer inception_5b/output
I0704 18:21:28.777580 32707 net.cpp:410] inception_5b/output <- inception_5b/1x1
I0704 18:21:28.777593 32707 net.cpp:410] inception_5b/output <- inception_5b/3x3
I0704 18:21:28.777598 32707 net.cpp:410] inception_5b/output <- inception_5b/5x5
I0704 18:21:28.777603 32707 net.cpp:410] inception_5b/output <- inception_5b/pool_proj
I0704 18:21:28.777609 32707 net.cpp:368] inception_5b/output -> inception_5b/output
I0704 18:21:28.777616 32707 net.cpp:120] Setting up inception_5b/output
I0704 18:21:28.777623 32707 net.cpp:127] Top shape: 30 1024 7 7 (1505280)
I0704 18:21:28.777628 32707 layer_factory.hpp:74] Creating layer pool5/7x7_s1
I0704 18:21:28.777636 32707 net.cpp:90] Creating Layer pool5/7x7_s1
I0704 18:21:28.777640 32707 net.cpp:410] pool5/7x7_s1 <- inception_5b/output
I0704 18:21:28.777647 32707 net.cpp:368] pool5/7x7_s1 -> pool5/7x7_s1
I0704 18:21:28.777652 32707 net.cpp:120] Setting up pool5/7x7_s1
I0704 18:21:28.777696 32707 net.cpp:127] Top shape: 30 1024 1 1 (30720)
I0704 18:21:28.777704 32707 layer_factory.hpp:74] Creating layer pool5/drop_7x7_s1
I0704 18:21:28.777709 32707 net.cpp:90] Creating Layer pool5/drop_7x7_s1
I0704 18:21:28.777714 32707 net.cpp:410] pool5/drop_7x7_s1 <- pool5/7x7_s1
I0704 18:21:28.777720 32707 net.cpp:357] pool5/drop_7x7_s1 -> pool5/7x7_s1 (in-place)
I0704 18:21:28.777727 32707 net.cpp:120] Setting up pool5/drop_7x7_s1
I0704 18:21:28.777734 32707 net.cpp:127] Top shape: 30 1024 1 1 (30720)
I0704 18:21:28.777739 32707 layer_factory.hpp:74] Creating layer stanford_cars_loss3/classifier
I0704 18:21:28.777746 32707 net.cpp:90] Creating Layer stanford_cars_loss3/classifier
I0704 18:21:28.777751 32707 net.cpp:410] stanford_cars_loss3/classifier <- pool5/7x7_s1
I0704 18:21:28.777757 32707 net.cpp:368] stanford_cars_loss3/classifier -> stanford_cars_loss3/classifier
I0704 18:21:28.777765 32707 net.cpp:120] Setting up stanford_cars_loss3/classifier
I0704 18:21:28.778746 32707 net.cpp:127] Top shape: 30 196 (5880)
I0704 18:21:28.778755 32707 layer_factory.hpp:74] Creating layer loss3/loss3
I0704 18:21:28.778761 32707 net.cpp:90] Creating Layer loss3/loss3
I0704 18:21:28.778766 32707 net.cpp:410] loss3/loss3 <- stanford_cars_loss3/classifier
I0704 18:21:28.778772 32707 net.cpp:410] loss3/loss3 <- label_data_1_split_2
I0704 18:21:28.778779 32707 net.cpp:368] loss3/loss3 -> loss3/loss3
I0704 18:21:28.778785 32707 net.cpp:120] Setting up loss3/loss3
…
I0704 18:21:28.785655 32707 net.cpp:287] The NetState phase (1) differed from the phase (0) specified by a rule in layer data
I0704 18:21:28.786365 32707 net.cpp:42] Initializing net from parameters: 
name: "GoogleNet"
state {
  phase: TEST
  stage: "test on train"
}
layer {
  name: "data"
  type: "Data"
  top: "data"
  top: "label"
  include {
    phase: TEST
  }
  transform_param {
    mirror: false
    crop_size: 224
    mean_value: 104
    mean_value: 117
    mean_value: 123
  }
  data_param {
    source: "examples/stanford_cars/stanford_cars_val_lmdb"
    batch_size: 10
    backend: LMDB
  }
}
layer {
  name: "conv1/7x7_s2"
  type: "Convolution"
  bottom: "data"
  top: "conv1/7x7_s2"
  param {
    lr_mult: 1
    decay_mult: 1
  }
  param {
    lr_mult: 2
    decay_mult: 0
  }
  convolution_param {
    num_output: 64
    pad: 3
    kernel_size: 7
    stride: 2
    weight_filler {
      type: "xavier"
      std: 0.1
    }
    bias_filler {
      type: "constant"
      value: 0.2
    }
  }
}
layer {
  name: "conv1/relu_7x7"
  type: "ReLU"
  bottom: "conv1/7x7_s2"
  top: "conv1/7x7_s2"
}
layer {
  name: "pool1/3x3_s2"
  type: "Pooling"
  bottom: "conv1/7x7_s2"
  top: "pool1/3x3_s2"
  pooling_param {
    pool: MAX
    kernel_size: 3
    stride: 2
  }
}
layer {
  name: "pool1/norm1"
  type: "LRN"
  bottom: "pool1/3x3_s2"
  top: "pool1/norm1"
  lrn_param {
    local_size: 5
    alpha: 0.0001
    beta: 0.75
  }
}
layer {
  name: "conv2/3x3_reduce"
  type: "Convolution"
  bottom: "pool1/norm1"
  top: "conv2/3x3_reduce"
  param {
    lr_mult: 1
    decay_mult: 1
  }
  param {
    lr_mult: 2
    decay_mult: 0
  }
  convolution_param {
    num_output: 64
    kernel_size: 1
    weight_filler {
      type: "xavier"
      std: 0.1
    }
    bias_filler {
      type: "constant"
      value: 0.2
    }
  }
}
layer {
  name: "conv2/relu_3x3_reduce"
  type: "ReLU"
  bottom: "conv2/3x3_reduce"
  top: "conv2/3x3_reduce"
}
layer {
  name: "conv2/3x3"
  type: "Convolution"
  bottom: "conv2/3x3_reduce"
  top: "conv2/3x3"
  param {
    lr_mult: 1
    decay_mult: 1
  }
  param {
    lr_mult: 2
    decay_mult: 0
  }
  convolution_param {
    num_output: 192
    pad: 1
    kernel_size: 3
    weight_filler {
      type: "xavier"
      std: 0.03
    }
    bias_filler {
      type: "constant"
      value: 0.2
    }
  }
}
layer {
  name: "conv2/relu_3x3"
  type: "ReLU"
  bottom: "conv2/3x3"
  top: "conv2/3x3"
}
layer {
  name: "conv2/norm2"
  type: "LRN"
  bottom: "conv2/3x3"
  top: "conv2/norm2"
  lrn_param {
    local_size: 5
    alpha: 0.0001
    beta: 0.75
  }
}
layer {
  name: "pool2/3x3_s2"
  type: "Pooling"
  bottom: "conv2/norm2"
  top: "pool2/3x3_s2"
  pooling_param {
    pool: MAX
    kernel_size: 3
    stride: 2
  }
}
layer {
  name: "inception_3a/1x1"
  type: "Convolution"
  bottom: "pool2/3x3_s2"
  top: "inception_3a/1x1"
  param {
    lr_mult: 1
    decay_mult: 1
  }
  param {
    lr_mult: 2
    decay_mult: 0
  }
  convolution_param {
    num_output: 64
    kernel_size: 1
    weight_filler {
      type: "xavier"
      std: 0.03
    }
    bias_filler {
      type: "constant"
      value: 0.2
    }
  }
}
layer {
  name: "inception_3a/relu_1x1"
  type: "ReLU"
  bottom: "inception_3a/1x1"
  top: "inception_3a/1x1"
}
layer {
  name: "inception_3a/3x3_reduce"
  type: "Convolution"
  bottom: "pool2/3x3_s2"
  top: "inception_3a/3x3_reduce"
  param {
    lr_mult: 1
    decay_mult: 1
  }
  param {
    lr_mult: 2
    decay_mult: 0
  }
  convolution_param {
    num_output: 96
    kernel_size: 1
    weight_filler {
      type: "xavier"
      std: 0.09
    }
    bias_filler {
      type: "constant"
      value: 0.2
    }
  }
}
layer {
  name: "inception_3a/relu_3x3_reduce"
  type: "ReLU"
  bottom: "inception_3a/3x3_reduce"
  top: "inception_3a/3x3_reduce"
}
layer {
  name: "inception_3a/3x3"
  type: "Convolution"
  bottom: "inception_3a/3x3_reduce"
  top: "inception_3a/3x3"
  param {
    lr_mult: 1
    decay_mult: 1
  }
  param {
    lr_mult: 2
    decay_mult: 0
  }
  convolution_param {
    num_output: 128
    pad: 1
    kernel_size: 3
    weight_filler {
      type: "xavier"
      std: 0.03
    }
    bias_filler {
      type: "constant"
      value: 0.2
    }
  }
}
layer {
  name: "inception_3a/relu_3x3"
  type: "ReLU"
  bottom: "inception_3a/3x3"
  top: "inception_3a/3x3"
}
layer {
  name: "inception_3a/5x5_reduce"
  type: "Convolution"
  bottom: "pool2/3x3_s2"
  top: "inception_3a/5x5_reduce"
  param {
    lr_mult: 1
    decay_mult: 1
  }
  param {
    lr_mult: 2
    decay_mult: 0
  }
  convolution_param {
    num_output: 16
    kernel_size: 1
    weight_filler {
      type: "xavier"
      std: 0.2
    }
    bias_filler {
      type: "constant"
      value: 0.2
    }
  }
}
layer {
  name: "inception_3a/relu_5x5_reduce"
  type: "ReLU"
  bottom: "inception_3a/5x5_reduce"
  top: "inception_3a/5x5_reduce"
}
layer {
  name: "inception_3a/5x5"
  type: "Convolution"
  bottom: "inception_3a/5x5_reduce"
  top: "inception_3a/5x5"
  param {
    lr_mult: 1
    decay_mult: 1
  }
  param {
    lr_mult: 2
    decay_mult: 0
  }
  convolution_param {
    num_output: 32
    pad: 2
    kernel_size: 5
    weight_filler {
      type: "xavier"
      std: 0.03
    }
    bias_filler {
      type: "constant"
      value: 0.2
    }
  }
}
layer {
  name: "inception_3a/relu_5x5"
  type: "ReLU"
  bottom: "inception_3a/5x5"
  top: "inception_3a/5x5"
}
layer {
  name: "inception_3a/pool"
  type: "Pooling"
  bottom: "pool2/3x3_s2"
  top: "inception_3a/pool"
  pooling_param {
    pool: MAX
    kernel_size: 3
    stride: 1
    pad: 1
  }
}
layer {
  name: "inception_3a/pool_proj"
  type: "Convolution"
  bottom: "inception_3a/pool"
  top: "inception_3a/pool_proj"
  param {
    lr_mult: 1
    decay_mult: 1
  }
  param {
    lr_mult: 2
    decay_mult: 0
  }
  convolution_param {
    num_output: 32
    kernel_size: 1
    weight_filler {
      type: "xavier"
      std: 0.1
    }
    bias_filler {
      type: "constant"
      value: 0.2
    }
  }
}
layer {
  name: "inception_3a/relu_pool_proj"
  type: "ReLU"
  bottom: "inception_3a/pool_proj"
  top: "inception_3a/pool_proj"
}
layer {
  name: "inception_3a/output"
  type: "Concat"
  bottom: "inception_3a/1x1"
  bottom: "inception_3a/3x3"
  bottom: "inception_3a/5x5"
  bottom: "inception_3a/pool_proj"
  top: "inception_3a/output"
}
layer {
  name: "inception_3b/1x1"
  type: "Convolution"
  bottom: "inception_3a/output"
  top: "inception_3b/1x1"
  param {
    lr_mult: 1
    decay_mult: 1
  }
  param {
    lr_mult: 2
    decay_mult: 0
  }
  convolution_param {
    num_output: 128
    kernel_size: 1
    weight_filler {
      type: "xavier"
      std: 0.03
    }
    bias_filler {
      type: "constant"
      value: 0.2
    }
  }
}
layer {
  name: "inception_3b/relu_1x1"
  type: "ReLU"
  bottom: "inception_3b/1x1"
  top: "inception_3b/1x1"
}
layer {
  name: "inception_3b/3x3_reduce"
  type: "Convolution"
  bottom: "inception_3a/output"
  top: "inception_3b/3x3_reduce"
  param {
    lr_mult: 1
    decay_mult: 1
  }
  param {
    lr_mult: 2
    decay_mult: 0
  }
  convolution_param {
    num_output: 128
    kernel_size: 1
    weight_filler {
      type: "xavier"
      std: 0.09
    }
    bias_filler {
      type: "constant"
      value: 0.2
    }
  }
}
layer {
  name: "inception_3b/relu_3x3_reduce"
  type: "ReLU"
  bottom: "inception_3b/3x3_reduce"
  top: "inception_3b/3x3_reduce"
}
layer {
  name: "inception_3b/3x3"
  type: "Convolution"
  bottom: "inception_3b/3x3_reduce"
  top: "inception_3b/3x3"
  param {
    lr_mult: 1
    decay_mult: 1
  }
  param {
    lr_mult: 2
    decay_mult: 0
  }
  convolution_param {
    num_output: 192
    pad: 1
    kernel_size: 3
    weight_filler {
      type: "xavier"
      std: 0.03
    }
    bias_filler {
      type: "constant"
      value: 0.2
    }
  }
}
layer {
  name: "inception_3b/relu_3x3"
  type: "ReLU"
  bottom: "inception_3b/3x3"
  top: "inception_3b/3x3"
}
layer {
  name: "inception_3b/5x5_reduce"
  type: "Convolution"
  bottom: "inception_3a/output"
  top: "inception_3b/5x5_reduce"
  param {
    lr_mult: 1
    decay_mult: 1
  }
  param {
    lr_mult: 2
    decay_mult: 0
  }
  convolution_param {
    num_output: 32
    kernel_size: 1
    weight_filler {
      type: "xavier"
      std: 0.2
    }
    bias_filler {
      type: "constant"
      value: 0.2
    }
  }
}
layer {
  name: "inception_3b/relu_5x5_reduce"
  type: "ReLU"
  bottom: "inception_3b/5x5_reduce"
  top: "inception_3b/5x5_reduce"
}
layer {
  name: "inception_3b/5x5"
  type: "Convolution"
  bottom: "inception_3b/5x5_reduce"
  top: "inception_3b/5x5"
  param {
    lr_mult: 1
    decay_mult: 1
  }
  param {
    lr_mult: 2
    decay_mult: 0
  }
  convolution_param {
    num_output: 96
    pad: 2
    kernel_size: 5
    weight_filler {
      type: "xavier"
      std: 0.03
    }
    bias_filler {
      type: "constant"
      value: 0.2
    }
  }
}
layer {
  name: "inception_3b/relu_5x5"
  type: "ReLU"
  bottom: "inception_3b/5x5"
  top: "inception_3b/5x5"
}
layer {
  name: "inception_3b/pool"
  type: "Pooling"
  bottom: "inception_3a/output"
  top: "inception_3b/pool"
  pooling_param {
    pool: MAX
    kernel_size: 3
    stride: 1
    pad: 1
  }
}
layer {
  name: "inception_3b/pool_proj"
  type: "Convolution"
  bottom: "inception_3b/pool"
  top: "inception_3b/pool_proj"
  param {
    lr_mult: 1
    decay_mult: 1
  }
  param {
    lr_mult: 2
    decay_mult: 0
  }
  convolution_param {
    num_output: 64
    kernel_size: 1
    weight_filler {
      type: "xavier"
      std: 0.1
    }
    bias_filler {
      type: "constant"
      value: 0.2
    }
  }
}
layer {
  name: "inception_3b/relu_pool_proj"
  type: "ReLU"
  bottom: "inception_3b/pool_proj"
  top: "inception_3b/pool_proj"
}
layer {
  name: "inception_3b/output"
  type: "Concat"
  bottom: "inception_3b/1x1"
  bottom: "inception_3b/3x3"
  bottom: "inception_3b/5x5"
  bottom: "inception_3b/pool_proj"
  top: "inception_3b/output"
}
layer {
  name: "pool3/3x3_s2"
  type: "Pooling"
  bottom: "inception_3b/output"
  top: "pool3/3x3_s2"
  pooling_param {
    pool: MAX
    kernel_size: 3
    stride: 2
  }
}
layer {
  name: "inception_4a/1x1"
  type: "Convolution"
  bottom: "pool3/3x3_s2"
  top: "inception_4a/1x1"
  param {
    lr_mult: 1
    decay_mult: 1
  }
  param {
    lr_mult: 2
    decay_mult: 0
  }
  convolution_param {
    num_output: 192
    kernel_size: 1
    weight_filler {
      type: "xavier"
      std: 0.03
    }
    bias_filler {
      type: "constant"
      value: 0.2
    }
  }
}
layer {
  name: "inception_4a/relu_1x1"
  type: "ReLU"
  bottom: "inception_4a/1x1"
  top: "inception_4a/1x1"
}
layer {
  name: "inception_4a/3x3_reduce"
  type: "Convolution"
  bottom: "pool3/3x3_s2"
  top: "inception_4a/3x3_reduce"
  param {
    lr_mult: 1
    decay_mult: 1
  }
  param {
    lr_mult: 2
    decay_mult: 0
  }
  convolution_param {
    num_output: 96
    kernel_size: 1
    weight_filler {
      type: "xavier"
      std: 0.09
    }
    bias_filler {
      type: "constant"
      value: 0.2
    }
  }
}
layer {
  name: "inception_4a/relu_3x3_reduce"
  type: "ReLU"
  bottom: "inception_4a/3x3_reduce"
  top: "inception_4a/3x3_reduce"
}
layer {
  name: "inception_4a/3x3"
  type: "Convolution"
  bottom: "inception_4a/3x3_reduce"
  top: "inception_4a/3x3"
  param {
    lr_mult: 1
    decay_mult: 1
  }
  param {
    lr_mult: 2
    decay_mult: 0
  }
  convolution_param {
    num_output: 208
    pad: 1
    kernel_size: 3
    weight_filler {
      type: "xavier"
      std: 0.03
    }
    bias_filler {
      type: "constant"
      value: 0.2
    }
  }
}
layer {
  name: "inception_4a/relu_3x3"
  type: "ReLU"
  bottom: "inception_4a/3x3"
  top: "inception_4a/3x3"
}
layer {
  name: "inception_4a/5x5_reduce"
  type: "Convolution"
  bottom: "pool3/3x3_s2"
  top: "inception_4a/5x5_reduce"
  param {
    lr_mult: 1
    decay_mult: 1
  }
  param {
    lr_mult: 2
    decay_mult: 0
  }
  convolution_param {
    num_output: 16
    kernel_size: 1
    weight_filler {
      type: "xavier"
      std: 0.2
    }
    bias_filler {
      type: "constant"
      value: 0.2
    }
  }
}
layer {
  name: "inception_4a/relu_5x5_reduce"
  type: "ReLU"
  bottom: "inception_4a/5x5_reduce"
  top: "inception_4a/5x5_reduce"
}
layer {
  name: "inception_4a/5x5"
  type: "Convolution"
  bottom: "inception_4a/5x5_reduce"
  top: "inception_4a/5x5"
  param {
    lr_mult: 1
    decay_mult: 1
  }
  param {
    lr_mult: 2
    decay_mult: 0
  }
  convolution_param {
    num_output: 48
    pad: 2
    kernel_size: 5
    weight_filler {
      type: "xavier"
      std: 0.03
    }
    bias_filler {
      type: "constant"
      value: 0.2
    }
  }
}
layer {
  name: "inception_4a/relu_5x5"
  type: "ReLU"
  bottom: "inception_4a/5x5"
  top: "inception_4a/5x5"
}
layer {
  name: "inception_4a/pool"
  type: "Pooling"
  bottom: "pool3/3x3_s2"
  top: "inception_4a/pool"
  pooling_param {
    pool: MAX
    kernel_size: 3
    stride: 1
    pad: 1
  }
}
layer {
  name: "inception_4a/pool_proj"
  type: "Convolution"
  bottom: "inception_4a/pool"
  top: "inception_4a/pool_proj"
  param {
    lr_mult: 1
    decay_mult: 1
  }
  param {
    lr_mult: 2
    decay_mult: 0
  }
  convolution_param {
    num_output: 64
    kernel_size: 1
    weight_filler {
      type: "xavier"
      std: 0.1
    }
    bias_filler {
      type: "constant"
      value: 0.2
    }
  }
}
layer {
  name: "inception_4a/relu_pool_proj"
  type: "ReLU"
  bottom: "inception_4a/pool_proj"
  top: "inception_4a/pool_proj"
}
layer {
  name: "inception_4a/output"
  type: "Concat"
  bottom: "inception_4a/1x1"
  bottom: "inception_4a/3x3"
  bottom: "inception_4a/5x5"
  bottom: "inception_4a/pool_proj"
  top: "inception_4a/output"
}
layer {
  name: "loss1/ave_pool"
  type: "Pooling"
  bottom: "inception_4a/output"
  top: "loss1/ave_pool"
  pooling_param {
    pool: AVE
    kernel_size: 5
    stride: 3
  }
}
layer {
  name: "loss1/conv"
  type: "Convolution"
  bottom: "loss1/ave_pool"
  top: "loss1/conv"
  param {
    lr_mult: 1
    decay_mult: 1
  }
  param {
    lr_mult: 2
    decay_mult: 0
  }
  convolution_param {
    num_output: 128
    kernel_size: 1
    weight_filler {
      type: "xavier"
      std: 0.08
    }
    bias_filler {
      type: "constant"
      value: 0.2
    }
  }
}
layer {
  name: "loss1/relu_conv"
  type: "ReLU"
  bottom: "loss1/conv"
  top: "loss1/conv"
}
layer {
  name: "loss1/fc"
  type: "InnerProduct"
  bottom: "loss1/conv"
  top: "loss1/fc"
  param {
    lr_mult: 1
    decay_mult: 1
  }
  param {
    lr_mult: 2
    decay_mult: 0
  }
  inner_product_param {
    num_output: 1024
    weight_filler {
      type: "xavier"
      std: 0.02
    }
    bias_filler {
      type: "constant"
      value: 0.2
    }
  }
}
layer {
  name: "loss1/relu_fc"
  type: "ReLU"
  bottom: "loss1/fc"
  top: "loss1/fc"
}
layer {
  name: "loss1/drop_fc"
  type: "Dropout"
  bottom: "loss1/fc"
  top: "loss1/fc"
  dropout_param {
    dropout_ratio: 0.2
  }
}
layer {
  name: "stanford_cars_loss1/classifier"
  type: "InnerProduct"
  bottom: "loss1/fc"
  top: "stanford_cars_loss1/classifier"
  param {
    lr_mult: 1
    decay_mult: 1
  }
  param {
    lr_mult: 2
    decay_mult: 0
  }
  inner_product_param {
    num_output: 196
    weight_filler {
      type: "xavier"
      std: 0.0009765625
    }
    bias_filler {
      type: "constant"
      value: 0
    }
  }
}
layer {
  name: "loss1/loss"
  type: "SoftmaxWithLoss"
  bottom: "stanford_cars_loss1/classifier"
  bottom: "label"
  top: "loss1/loss1"
  loss_weight: 0.3
}
layer {
  name: "loss1/top-1"
  type: "Accuracy"
  bottom: "stanford_cars_loss1/classifier"
  bottom: "label"
  top: "loss1/top-1"
  include {
    phase: TEST
  }
}
layer {
  name: "loss1/top-5"
  type: "Accuracy"
  bottom: "stanford_cars_loss1/classifier"
  bottom: "label"
  top: "loss1/top-5"
  include {
    phase: TEST
  }
  accuracy_param {
    top_k: 5
  }
}
layer {
  name: "inception_4b/1x1"
  type: "Convolution"
  bottom: "inception_4a/output"
  top: "inception_4b/1x1"
  param {
    lr_mult: 1
    decay_mult: 1
  }
  param {
    lr_mult: 2
    decay_mult: 0
  }
  convolution_param {
    num_output: 160
    kernel_size: 1
    weight_filler {
      type: "xavier"
      std: 0.03
    }
    bias_filler {
      type: "constant"
      value: 0.2
    }
  }
}
layer {
  name: "inception_4b/relu_1x1"
  type: "ReLU"
  bottom: "inception_4b/1x1"
  top: "inception_4b/1x1"
}
layer {
  name: "inception_4b/3x3_reduce"
  type: "Convolution"
  bottom: "inception_4a/output"
  top: "inception_4b/3x3_reduce"
  param {
    lr_mult: 1
    decay_mult: 1
  }
  param {
    lr_mult: 2
    decay_mult: 0
  }
  convolution_param {
    num_output: 112
    kernel_size: 1
    weight_filler {
      type: "xavier"
      std: 0.09
    }
    bias_filler {
      type: "constant"
      value: 0.2
    }
  }
}
layer {
  name: "inception_4b/relu_3x3_reduce"
  type: "ReLU"
  bottom: "inception_4b/3x3_reduce"
  top: "inception_4b/3x3_reduce"
}
layer {
  name: "inception_4b/3x3"
  type: "Convolution"
  bottom: "inception_4b/3x3_reduce"
  top: "inception_4b/3x3"
  param {
    lr_mult: 1
    decay_mult: 1
  }
  param {
    lr_mult: 2
    decay_mult: 0
  }
  convolution_param {
    num_output: 224
    pad: 1
    kernel_size: 3
    weight_filler {
      type: "xavier"
      std: 0.03
    }
    bias_filler {
      type: "constant"
      value: 0.2
    }
  }
}
layer {
  name: "inception_4b/relu_3x3"
  type: "ReLU"
  bottom: "inception_4b/3x3"
  top: "inception_4b/3x3"
}
layer {
  name: "inception_4b/5x5_reduce"
  type: "Convolution"
  bottom: "inception_4a/output"
  top: "inception_4b/5x5_reduce"
  param {
    lr_mult: 1
    decay_mult: 1
  }
  param {
    lr_mult: 2
    decay_mult: 0
  }
  convolution_param {
    num_output: 24
    kernel_size: 1
    weight_filler {
      type: "xavier"
      std: 0.2
    }
    bias_filler {
      type: "constant"
      value: 0.2
    }
  }
}
layer {
  name: "inception_4b/relu_5x5_reduce"
  type: "ReLU"
  bottom: "inception_4b/5x5_reduce"
  top: "inception_4b/5x5_reduce"
}
layer {
  name: "inception_4b/5x5"
  type: "Convolution"
  bottom: "inception_4b/5x5_reduce"
  top: "inception_4b/5x5"
  param {
    lr_mult: 1
    decay_mult: 1
  }
  param {
    lr_mult: 2
    decay_mult: 0
  }
  convolution_param {
    num_output: 64
    pad: 2
    kernel_size: 5
    weight_filler {
      type: "xavier"
      std: 0.03
    }
    bias_filler {
      type: "constant"
      value: 0.2
    }
  }
}
layer {
  name: "inception_4b/relu_5x5"
  type: "ReLU"
  bottom: "inception_4b/5x5"
  top: "inception_4b/5x5"
}
layer {
  name: "inception_4b/pool"
  type: "Pooling"
  bottom: "inception_4a/output"
  top: "inception_4b/pool"
  pooling_param {
    pool: MAX
    kernel_size: 3
    stride: 1
    pad: 1
  }
}
layer {
  name: "inception_4b/pool_proj"
  type: "Convolution"
  bottom: "inception_4b/pool"
  top: "inception_4b/pool_proj"
  param {
    lr_mult: 1
    decay_mult: 1
  }
  param {
    lr_mult: 2
    decay_mult: 0
  }
  convolution_param {
    num_output: 64
    kernel_size: 1
    weight_filler {
      type: "xavier"
      std: 0.1
    }
    bias_filler {
      type: "constant"
      value: 0.2
    }
  }
}
layer {
  name: "inception_4b/relu_pool_proj"
  type: "ReLU"
  bottom: "inception_4b/pool_proj"
  top: "inception_4b/pool_proj"
}
layer {
  name: "inception_4b/output"
  type: "Concat"
  bottom: "inception_4b/1x1"
  bottom: "inception_4b/3x3"
  bottom: "inception_4b/5x5"
  bottom: "inception_4b/pool_proj"
  top: "inception_4b/output"
}
layer {
  name: "inception_4c/1x1"
  type: "Convolution"
  bottom: "inception_4b/output"
  top: "inception_4c/1x1"
  param {
    lr_mult: 1
    decay_mult: 1
  }
  param {
    lr_mult: 2
    decay_mult: 0
  }
  convolution_param {
    num_output: 128
    kernel_size: 1
    weight_filler {
      type: "xavier"
      std: 0.03
    }
    bias_filler {
      type: "constant"
      value: 0.2
    }
  }
}
layer {
  name: "inception_4c/relu_1x1"
  type: "ReLU"
  bottom: "inception_4c/1x1"
  top: "inception_4c/1x1"
}
layer {
  name: "inception_4c/3x3_reduce"
  type: "Convolution"
  bottom: "inception_4b/output"
  top: "inception_4c/3x3_reduce"
  param {
    lr_mult: 1
    decay_mult: 1
  }
  param {
    lr_mult: 2
    decay_mult: 0
  }
  convolution_param {
    num_output: 128
    kernel_size: 1
    weight_filler {
      type: "xavier"
      std: 0.09
    }
    bias_filler {
      type: "constant"
      value: 0.2
    }
  }
}
layer {
  name: "inception_4c/relu_3x3_reduce"
  type: "ReLU"
  bottom: "inception_4c/3x3_reduce"
  top: "inception_4c/3x3_reduce"
}
layer {
  name: "inception_4c/3x3"
  type: "Convolution"
  bottom: "inception_4c/3x3_reduce"
  top: "inception_4c/3x3"
  param {
    lr_mult: 1
    decay_mult: 1
  }
  param {
    lr_mult: 2
    decay_mult: 0
  }
  convolution_param {
    num_output: 256
    pad: 1
    kernel_size: 3
    weight_filler {
      type: "xavier"
      std: 0.03
    }
    bias_filler {
      type: "constant"
      value: 0.2
    }
  }
}
layer {
  name: "inception_4c/relu_3x3"
  type: "ReLU"
  bottom: "inception_4c/3x3"
  top: "inception_4c/3x3"
}
layer {
  name: "inception_4c/5x5_reduce"
  type: "Convolution"
  bottom: "inception_4b/output"
  top: "inception_4c/5x5_reduce"
  param {
    lr_mult: 1
    decay_mult: 1
  }
  param {
    lr_mult: 2
    decay_mult: 0
  }
  convolution_param {
    num_output: 24
    kernel_size: 1
    weight_filler {
      type: "xavier"
      std: 0.2
    }
    bias_filler {
      type: "constant"
      value: 0.2
    }
  }
}
layer {
  name: "inception_4c/relu_5x5_reduce"
  type: "ReLU"
  bottom: "inception_4c/5x5_reduce"
  top: "inception_4c/5x5_reduce"
}
layer {
  name: "inception_4c/5x5"
  type: "Convolution"
  bottom: "inception_4c/5x5_reduce"
  top: "inception_4c/5x5"
  param {
    lr_mult: 1
    decay_mult: 1
  }
  param {
    lr_mult: 2
    decay_mult: 0
  }
  convolution_param {
    num_output: 64
    pad: 2
    kernel_size: 5
    weight_filler {
      type: "xavier"
      std: 0.03
    }
    bias_filler {
      type: "constant"
      value: 0.2
    }
  }
}
layer {
  name: "inception_4c/relu_5x5"
  type: "ReLU"
  bottom: "inception_4c/5x5"
  top: "inception_4c/5x5"
}
layer {
  name: "inception_4c/pool"
  type: "Pooling"
  bottom: "inception_4b/output"
  top: "inception_4c/pool"
  pooling_param {
    pool: MAX
    kernel_size: 3
    stride: 1
    pad: 1
  }
}
layer {
  name: "inception_4c/pool_proj"
  type: "Convolution"
  bottom: "inception_4c/pool"
  top: "inception_4c/pool_proj"
  param {
    lr_mult: 1
    decay_mult: 1
  }
  param {
    lr_mult: 2
    decay_mult: 0
  }
  convolution_param {
    num_output: 64
    kernel_size: 1
    weight_filler {
      type: "xavier"
      std: 0.1
    }
    bias_filler {
      type: "constant"
      value: 0.2
    }
  }
}
layer {
  name: "inception_4c/relu_pool_proj"
  type: "ReLU"
  bottom: "inception_4c/pool_proj"
  top: "inception_4c/pool_proj"
}
layer {
  name: "inception_4c/output"
  type: "Concat"
  bottom: "inception_4c/1x1"
  bottom: "inception_4c/3x3"
  bottom: "inception_4c/5x5"
  bottom: "inception_4c/pool_proj"
  top: "inception_4c/output"
}
layer {
  name: "inception_4d/1x1"
  type: "Convolution"
  bottom: "inception_4c/output"
  top: "inception_4d/1x1"
  param {
    lr_mult: 1
    decay_mult: 1
  }
  param {
    lr_mult: 2
    decay_mult: 0
  }
  convolution_param {
    num_output: 112
    kernel_size: 1
    weight_filler {
      type: "xavier"
      std: 0.03
    }
    bias_filler {
      type: "constant"
      value: 0.2
    }
  }
}
layer {
  name: "inception_4d/relu_1x1"
  type: "ReLU"
  bottom: "inception_4d/1x1"
  top: "inception_4d/1x1"
}
layer {
  name: "inception_4d/3x3_reduce"
  type: "Convolution"
  bottom: "inception_4c/output"
  top: "inception_4d/3x3_reduce"
  param {
    lr_mult: 1
    decay_mult: 1
  }
  param {
    lr_mult: 2
    decay_mult: 0
  }
  convolution_param {
    num_output: 144
    kernel_size: 1
    weight_filler {
      type: "xavier"
      std: 0.09
    }
    bias_filler {
      type: "constant"
      value: 0.2
    }
  }
}
layer {
  name: "inception_4d/relu_3x3_reduce"
  type: "ReLU"
  bottom: "inception_4d/3x3_reduce"
  top: "inception_4d/3x3_reduce"
}
layer {
  name: "inception_4d/3x3"
  type: "Convolution"
  bottom: "inception_4d/3x3_reduce"
  top: "inception_4d/3x3"
  param {
    lr_mult: 1
    decay_mult: 1
  }
  param {
    lr_mult: 2
    decay_mult: 0
  }
  convolution_param {
    num_output: 288
    pad: 1
    kernel_size: 3
    weight_filler {
      type: "xavier"
      std: 0.03
    }
    bias_filler {
      type: "constant"
      value: 0.2
    }
  }
}
layer {
  name: "inception_4d/relu_3x3"
  type: "ReLU"
  bottom: "inception_4d/3x3"
  top: "inception_4d/3x3"
}
layer {
  name: "inception_4d/5x5_reduce"
  type: "Convolution"
  bottom: "inception_4c/output"
  top: "inception_4d/5x5_reduce"
  param {
    lr_mult: 1
    decay_mult: 1
  }
  param {
    lr_mult: 2
    decay_mult: 0
  }
  convolution_param {
    num_output: 32
    kernel_size: 1
    weight_filler {
      type: "xavier"
      std: 0.2
    }
    bias_filler {
      type: "constant"
      value: 0.2
    }
  }
}
layer {
  name: "inception_4d/relu_5x5_reduce"
  type: "ReLU"
  bottom: "inception_4d/5x5_reduce"
  top: "inception_4d/5x5_reduce"
}
layer {
  name: "inception_4d/5x5"
  type: "Convolution"
  bottom: "inception_4d/5x5_reduce"
  top: "inception_4d/5x5"
  param {
    lr_mult: 1
    decay_mult: 1
  }
  param {
    lr_mult: 2
    decay_mult: 0
  }
  convolution_param {
    num_output: 64
    pad: 2
    kernel_size: 5
    weight_filler {
      type: "xavier"
      std: 0.03
    }
    bias_filler {
      type: "constant"
      value: 0.2
    }
  }
}
layer {
  name: "inception_4d/relu_5x5"
  type: "ReLU"
  bottom: "inception_4d/5x5"
  top: "inception_4d/5x5"
}
layer {
  name: "inception_4d/pool"
  type: "Pooling"
  bottom: "inception_4c/output"
  top: "inception_4d/pool"
  pooling_param {
    pool: MAX
    kernel_size: 3
    stride: 1
    pad: 1
  }
}
layer {
  name: "inception_4d/pool_proj"
  type: "Convolution"
  bottom: "inception_4d/pool"
  top: "inception_4d/pool_proj"
  param {
    lr_mult: 1
    decay_mult: 1
  }
  param {
    lr_mult: 2
    decay_mult: 0
  }
  convolution_param {
…
I0704 18:21:28.879173 32707 net.cpp:127] Top shape: 10 128 14 14 (250880)
I0704 18:21:28.879184 32707 layer_factory.hpp:74] Creating layer inception_4c/relu_1x1
I0704 18:21:28.879191 32707 net.cpp:90] Creating Layer inception_4c/relu_1x1
I0704 18:21:28.879197 32707 net.cpp:410] inception_4c/relu_1x1 <- inception_4c/1x1
I0704 18:21:28.879202 32707 net.cpp:357] inception_4c/relu_1x1 -> inception_4c/1x1 (in-place)
I0704 18:21:28.879215 32707 net.cpp:120] Setting up inception_4c/relu_1x1
I0704 18:21:28.879257 32707 net.cpp:127] Top shape: 10 128 14 14 (250880)
I0704 18:21:28.879263 32707 layer_factory.hpp:74] Creating layer inception_4c/3x3_reduce
I0704 18:21:28.879271 32707 net.cpp:90] Creating Layer inception_4c/3x3_reduce
I0704 18:21:28.879277 32707 net.cpp:410] inception_4c/3x3_reduce <- inception_4b/output_inception_4b/output_0_split_1
I0704 18:21:28.879283 32707 net.cpp:368] inception_4c/3x3_reduce -> inception_4c/3x3_reduce
I0704 18:21:28.879290 32707 net.cpp:120] Setting up inception_4c/3x3_reduce
I0704 18:21:28.879832 32707 net.cpp:127] Top shape: 10 128 14 14 (250880)
I0704 18:21:28.879843 32707 layer_factory.hpp:74] Creating layer inception_4c/relu_3x3_reduce
I0704 18:21:28.879849 32707 net.cpp:90] Creating Layer inception_4c/relu_3x3_reduce
I0704 18:21:28.879855 32707 net.cpp:410] inception_4c/relu_3x3_reduce <- inception_4c/3x3_reduce
I0704 18:21:28.879863 32707 net.cpp:357] inception_4c/relu_3x3_reduce -> inception_4c/3x3_reduce (in-place)
I0704 18:21:28.879869 32707 net.cpp:120] Setting up inception_4c/relu_3x3_reduce
I0704 18:21:28.879984 32707 net.cpp:127] Top shape: 10 128 14 14 (250880)
I0704 18:21:28.879993 32707 layer_factory.hpp:74] Creating layer inception_4c/3x3
I0704 18:21:28.880002 32707 net.cpp:90] Creating Layer inception_4c/3x3
I0704 18:21:28.880007 32707 net.cpp:410] inception_4c/3x3 <- inception_4c/3x3_reduce
I0704 18:21:28.880013 32707 net.cpp:368] inception_4c/3x3 -> inception_4c/3x3
I0704 18:21:28.880020 32707 net.cpp:120] Setting up inception_4c/3x3
I0704 18:21:28.881651 32707 net.cpp:127] Top shape: 10 256 14 14 (501760)
I0704 18:21:28.881667 32707 layer_factory.hpp:74] Creating layer inception_4c/relu_3x3
I0704 18:21:28.881676 32707 net.cpp:90] Creating Layer inception_4c/relu_3x3
I0704 18:21:28.881681 32707 net.cpp:410] inception_4c/relu_3x3 <- inception_4c/3x3
I0704 18:21:28.881687 32707 net.cpp:357] inception_4c/relu_3x3 -> inception_4c/3x3 (in-place)
I0704 18:21:28.881695 32707 net.cpp:120] Setting up inception_4c/relu_3x3
I0704 18:21:28.881736 32707 net.cpp:127] Top shape: 10 256 14 14 (501760)
I0704 18:21:28.881742 32707 layer_factory.hpp:74] Creating layer inception_4c/5x5_reduce
I0704 18:21:28.881750 32707 net.cpp:90] Creating Layer inception_4c/5x5_reduce
I0704 18:21:28.881755 32707 net.cpp:410] inception_4c/5x5_reduce <- inception_4b/output_inception_4b/output_0_split_2
I0704 18:21:28.881762 32707 net.cpp:368] inception_4c/5x5_reduce -> inception_4c/5x5_reduce
I0704 18:21:28.881769 32707 net.cpp:120] Setting up inception_4c/5x5_reduce
I0704 18:21:28.882035 32707 net.cpp:127] Top shape: 10 24 14 14 (47040)
I0704 18:21:28.882045 32707 layer_factory.hpp:74] Creating layer inception_4c/relu_5x5_reduce
I0704 18:21:28.882053 32707 net.cpp:90] Creating Layer inception_4c/relu_5x5_reduce
I0704 18:21:28.882060 32707 net.cpp:410] inception_4c/relu_5x5_reduce <- inception_4c/5x5_reduce
I0704 18:21:28.882066 32707 net.cpp:357] inception_4c/relu_5x5_reduce -> inception_4c/5x5_reduce (in-place)
I0704 18:21:28.882071 32707 net.cpp:120] Setting up inception_4c/relu_5x5_reduce
I0704 18:21:28.882112 32707 net.cpp:127] Top shape: 10 24 14 14 (47040)
I0704 18:21:28.882118 32707 layer_factory.hpp:74] Creating layer inception_4c/5x5
I0704 18:21:28.882128 32707 net.cpp:90] Creating Layer inception_4c/5x5
I0704 18:21:28.882133 32707 net.cpp:410] inception_4c/5x5 <- inception_4c/5x5_reduce
I0704 18:21:28.882140 32707 net.cpp:368] inception_4c/5x5 -> inception_4c/5x5
I0704 18:21:28.882146 32707 net.cpp:120] Setting up inception_4c/5x5
I0704 18:21:28.882535 32707 net.cpp:127] Top shape: 10 64 14 14 (125440)
I0704 18:21:28.882546 32707 layer_factory.hpp:74] Creating layer inception_4c/relu_5x5
I0704 18:21:28.882555 32707 net.cpp:90] Creating Layer inception_4c/relu_5x5
I0704 18:21:28.882560 32707 net.cpp:410] inception_4c/relu_5x5 <- inception_4c/5x5
I0704 18:21:28.882565 32707 net.cpp:357] inception_4c/relu_5x5 -> inception_4c/5x5 (in-place)
I0704 18:21:28.882571 32707 net.cpp:120] Setting up inception_4c/relu_5x5
I0704 18:21:28.882622 32707 net.cpp:127] Top shape: 10 64 14 14 (125440)
I0704 18:21:28.882628 32707 layer_factory.hpp:74] Creating layer inception_4c/pool
I0704 18:21:28.882634 32707 layer_factory.cpp:55] CUDNN does not support padding or multiple tops. Using Caffe's own pooling layer.
I0704 18:21:28.882640 32707 net.cpp:90] Creating Layer inception_4c/pool
I0704 18:21:28.882644 32707 net.cpp:410] inception_4c/pool <- inception_4b/output_inception_4b/output_0_split_3
I0704 18:21:28.882652 32707 net.cpp:368] inception_4c/pool -> inception_4c/pool
I0704 18:21:28.882658 32707 net.cpp:120] Setting up inception_4c/pool
I0704 18:21:28.903985 32707 net.cpp:127] Top shape: 10 512 14 14 (1003520)
I0704 18:21:28.904005 32707 layer_factory.hpp:74] Creating layer inception_4c/pool_proj
I0704 18:21:28.904016 32707 net.cpp:90] Creating Layer inception_4c/pool_proj
I0704 18:21:28.904026 32707 net.cpp:410] inception_4c/pool_proj <- inception_4c/pool
I0704 18:21:28.904039 32707 net.cpp:368] inception_4c/pool_proj -> inception_4c/pool_proj
I0704 18:21:28.904050 32707 net.cpp:120] Setting up inception_4c/pool_proj
I0704 18:21:28.904566 32707 net.cpp:127] Top shape: 10 64 14 14 (125440)
I0704 18:21:28.904589 32707 layer_factory.hpp:74] Creating layer inception_4c/relu_pool_proj
I0704 18:21:28.904597 32707 net.cpp:90] Creating Layer inception_4c/relu_pool_proj
I0704 18:21:28.904611 32707 net.cpp:410] inception_4c/relu_pool_proj <- inception_4c/pool_proj
I0704 18:21:28.904618 32707 net.cpp:357] inception_4c/relu_pool_proj -> inception_4c/pool_proj (in-place)
I0704 18:21:28.904624 32707 net.cpp:120] Setting up inception_4c/relu_pool_proj
I0704 18:21:28.904780 32707 net.cpp:127] Top shape: 10 64 14 14 (125440)
I0704 18:21:28.904789 32707 layer_factory.hpp:74] Creating layer inception_4c/output
I0704 18:21:28.904798 32707 net.cpp:90] Creating Layer inception_4c/output
I0704 18:21:28.904813 32707 net.cpp:410] inception_4c/output <- inception_4c/1x1
I0704 18:21:28.904819 32707 net.cpp:410] inception_4c/output <- inception_4c/3x3
I0704 18:21:28.904824 32707 net.cpp:410] inception_4c/output <- inception_4c/5x5
I0704 18:21:28.904829 32707 net.cpp:410] inception_4c/output <- inception_4c/pool_proj
I0704 18:21:28.904837 32707 net.cpp:368] inception_4c/output -> inception_4c/output
I0704 18:21:28.904846 32707 net.cpp:120] Setting up inception_4c/output
I0704 18:21:28.904866 32707 net.cpp:127] Top shape: 10 512 14 14 (1003520)
I0704 18:21:28.904875 32707 layer_factory.hpp:74] Creating layer inception_4c/output_inception_4c/output_0_split
I0704 18:21:28.904885 32707 net.cpp:90] Creating Layer inception_4c/output_inception_4c/output_0_split
I0704 18:21:28.904891 32707 net.cpp:410] inception_4c/output_inception_4c/output_0_split <- inception_4c/output
I0704 18:21:28.904912 32707 net.cpp:368] inception_4c/output_inception_4c/output_0_split -> inception_4c/output_inception_4c/output_0_split_0
I0704 18:21:28.904933 32707 net.cpp:368] inception_4c/output_inception_4c/output_0_split -> inception_4c/output_inception_4c/output_0_split_1
I0704 18:21:28.904950 32707 net.cpp:368] inception_4c/output_inception_4c/output_0_split -> inception_4c/output_inception_4c/output_0_split_2
I0704 18:21:28.904973 32707 net.cpp:368] inception_4c/output_inception_4c/output_0_split -> inception_4c/output_inception_4c/output_0_split_3
I0704 18:21:28.904991 32707 net.cpp:120] Setting up inception_4c/output_inception_4c/output_0_split
I0704 18:21:28.905004 32707 net.cpp:127] Top shape: 10 512 14 14 (1003520)
I0704 18:21:28.905014 32707 net.cpp:127] Top shape: 10 512 14 14 (1003520)
I0704 18:21:28.905024 32707 net.cpp:127] Top shape: 10 512 14 14 (1003520)
I0704 18:21:28.905028 32707 net.cpp:127] Top shape: 10 512 14 14 (1003520)
I0704 18:21:28.905033 32707 layer_factory.hpp:74] Creating layer inception_4d/1x1
I0704 18:21:28.905042 32707 net.cpp:90] Creating Layer inception_4d/1x1
I0704 18:21:28.905048 32707 net.cpp:410] inception_4d/1x1 <- inception_4c/output_inception_4c/output_0_split_0
I0704 18:21:28.905056 32707 net.cpp:368] inception_4d/1x1 -> inception_4d/1x1
I0704 18:21:28.905089 32707 net.cpp:120] Setting up inception_4d/1x1
I0704 18:21:28.906399 32707 net.cpp:127] Top shape: 10 112 14 14 (219520)
I0704 18:21:28.906414 32707 layer_factory.hpp:74] Creating layer inception_4d/relu_1x1
I0704 18:21:28.906421 32707 net.cpp:90] Creating Layer inception_4d/relu_1x1
I0704 18:21:28.906427 32707 net.cpp:410] inception_4d/relu_1x1 <- inception_4d/1x1
I0704 18:21:28.906433 32707 net.cpp:357] inception_4d/relu_1x1 -> inception_4d/1x1 (in-place)
I0704 18:21:28.906440 32707 net.cpp:120] Setting up inception_4d/relu_1x1
I0704 18:21:28.906486 32707 net.cpp:127] Top shape: 10 112 14 14 (219520)
I0704 18:21:28.906491 32707 layer_factory.hpp:74] Creating layer inception_4d/3x3_reduce
I0704 18:21:28.906500 32707 net.cpp:90] Creating Layer inception_4d/3x3_reduce
I0704 18:21:28.906505 32707 net.cpp:410] inception_4d/3x3_reduce <- inception_4c/output_inception_4c/output_0_split_1
I0704 18:21:28.906522 32707 net.cpp:368] inception_4d/3x3_reduce -> inception_4d/3x3_reduce
I0704 18:21:28.906530 32707 net.cpp:120] Setting up inception_4d/3x3_reduce
I0704 18:21:28.907258 32707 net.cpp:127] Top shape: 10 144 14 14 (282240)
I0704 18:21:28.907271 32707 layer_factory.hpp:74] Creating layer inception_4d/relu_3x3_reduce
I0704 18:21:28.907279 32707 net.cpp:90] Creating Layer inception_4d/relu_3x3_reduce
I0704 18:21:28.907285 32707 net.cpp:410] inception_4d/relu_3x3_reduce <- inception_4d/3x3_reduce
I0704 18:21:28.907291 32707 net.cpp:357] inception_4d/relu_3x3_reduce -> inception_4d/3x3_reduce (in-place)
I0704 18:21:28.907297 32707 net.cpp:120] Setting up inception_4d/relu_3x3_reduce
I0704 18:21:28.907506 32707 net.cpp:127] Top shape: 10 144 14 14 (282240)
I0704 18:21:28.907534 32707 layer_factory.hpp:74] Creating layer inception_4d/3x3
I0704 18:21:28.907559 32707 net.cpp:90] Creating Layer inception_4d/3x3
I0704 18:21:28.907577 32707 net.cpp:410] inception_4d/3x3 <- inception_4d/3x3_reduce
I0704 18:21:28.907598 32707 net.cpp:368] inception_4d/3x3 -> inception_4d/3x3
I0704 18:21:28.907624 32707 net.cpp:120] Setting up inception_4d/3x3
I0704 18:21:28.914391 32707 net.cpp:127] Top shape: 10 288 14 14 (564480)
I0704 18:21:28.914434 32707 layer_factory.hpp:74] Creating layer inception_4d/relu_3x3
I0704 18:21:28.914456 32707 net.cpp:90] Creating Layer inception_4d/relu_3x3
I0704 18:21:28.914474 32707 net.cpp:410] inception_4d/relu_3x3 <- inception_4d/3x3
I0704 18:21:28.914494 32707 net.cpp:357] inception_4d/relu_3x3 -> inception_4d/3x3 (in-place)
I0704 18:21:28.914515 32707 net.cpp:120] Setting up inception_4d/relu_3x3
I0704 18:21:28.914837 32707 net.cpp:127] Top shape: 10 288 14 14 (564480)
I0704 18:21:28.914866 32707 layer_factory.hpp:74] Creating layer inception_4d/5x5_reduce
I0704 18:21:28.914894 32707 net.cpp:90] Creating Layer inception_4d/5x5_reduce
I0704 18:21:28.914912 32707 net.cpp:410] inception_4d/5x5_reduce <- inception_4c/output_inception_4c/output_0_split_2
I0704 18:21:28.914937 32707 net.cpp:368] inception_4d/5x5_reduce -> inception_4d/5x5_reduce
I0704 18:21:28.914962 32707 net.cpp:120] Setting up inception_4d/5x5_reduce
I0704 18:21:28.915540 32707 net.cpp:127] Top shape: 10 32 14 14 (62720)
I0704 18:21:28.915552 32707 layer_factory.hpp:74] Creating layer inception_4d/relu_5x5_reduce
I0704 18:21:28.915560 32707 net.cpp:90] Creating Layer inception_4d/relu_5x5_reduce
I0704 18:21:28.915565 32707 net.cpp:410] inception_4d/relu_5x5_reduce <- inception_4d/5x5_reduce
I0704 18:21:28.915573 32707 net.cpp:357] inception_4d/relu_5x5_reduce -> inception_4d/5x5_reduce (in-place)
I0704 18:21:28.915580 32707 net.cpp:120] Setting up inception_4d/relu_5x5_reduce
I0704 18:21:28.915624 32707 net.cpp:127] Top shape: 10 32 14 14 (62720)
I0704 18:21:28.915632 32707 layer_factory.hpp:74] Creating layer inception_4d/5x5
I0704 18:21:28.915638 32707 net.cpp:90] Creating Layer inception_4d/5x5
I0704 18:21:28.915643 32707 net.cpp:410] inception_4d/5x5 <- inception_4d/5x5_reduce
I0704 18:21:28.915650 32707 net.cpp:368] inception_4d/5x5 -> inception_4d/5x5
I0704 18:21:28.915657 32707 net.cpp:120] Setting up inception_4d/5x5
I0704 18:21:28.916126 32707 net.cpp:127] Top shape: 10 64 14 14 (125440)
I0704 18:21:28.916137 32707 layer_factory.hpp:74] Creating layer inception_4d/relu_5x5
I0704 18:21:28.916144 32707 net.cpp:90] Creating Layer inception_4d/relu_5x5
I0704 18:21:28.916151 32707 net.cpp:410] inception_4d/relu_5x5 <- inception_4d/5x5
I0704 18:21:28.916157 32707 net.cpp:357] inception_4d/relu_5x5 -> inception_4d/5x5 (in-place)
I0704 18:21:28.916163 32707 net.cpp:120] Setting up inception_4d/relu_5x5
I0704 18:21:28.916206 32707 net.cpp:127] Top shape: 10 64 14 14 (125440)
I0704 18:21:28.916213 32707 layer_factory.hpp:74] Creating layer inception_4d/pool
I0704 18:21:28.916218 32707 layer_factory.cpp:55] CUDNN does not support padding or multiple tops. Using Caffe's own pooling layer.
I0704 18:21:28.916224 32707 net.cpp:90] Creating Layer inception_4d/pool
I0704 18:21:28.916229 32707 net.cpp:410] inception_4d/pool <- inception_4c/output_inception_4c/output_0_split_3
I0704 18:21:28.916235 32707 net.cpp:368] inception_4d/pool -> inception_4d/pool
I0704 18:21:28.916241 32707 net.cpp:120] Setting up inception_4d/pool
I0704 18:21:28.916249 32707 net.cpp:127] Top shape: 10 512 14 14 (1003520)
I0704 18:21:28.916254 32707 layer_factory.hpp:74] Creating layer inception_4d/pool_proj
I0704 18:21:28.916261 32707 net.cpp:90] Creating Layer inception_4d/pool_proj
I0704 18:21:28.916267 32707 net.cpp:410] inception_4d/pool_proj <- inception_4d/pool
I0704 18:21:28.916273 32707 net.cpp:368] inception_4d/pool_proj -> inception_4d/pool_proj
I0704 18:21:28.916280 32707 net.cpp:120] Setting up inception_4d/pool_proj
I0704 18:21:28.916658 32707 net.cpp:127] Top shape: 10 64 14 14 (125440)
I0704 18:21:28.916669 32707 layer_factory.hpp:74] Creating layer inception_4d/relu_pool_proj
I0704 18:21:28.916677 32707 net.cpp:90] Creating Layer inception_4d/relu_pool_proj
I0704 18:21:28.916682 32707 net.cpp:410] inception_4d/relu_pool_proj <- inception_4d/pool_proj
I0704 18:21:28.916688 32707 net.cpp:357] inception_4d/relu_pool_proj -> inception_4d/pool_proj (in-place)
I0704 18:21:28.916695 32707 net.cpp:120] Setting up inception_4d/relu_pool_proj
I0704 18:21:28.916738 32707 net.cpp:127] Top shape: 10 64 14 14 (125440)
I0704 18:21:28.916744 32707 layer_factory.hpp:74] Creating layer inception_4d/output
I0704 18:21:28.916751 32707 net.cpp:90] Creating Layer inception_4d/output
I0704 18:21:28.916756 32707 net.cpp:410] inception_4d/output <- inception_4d/1x1
I0704 18:21:28.916761 32707 net.cpp:410] inception_4d/output <- inception_4d/3x3
I0704 18:21:28.916767 32707 net.cpp:410] inception_4d/output <- inception_4d/5x5
I0704 18:21:28.916772 32707 net.cpp:410] inception_4d/output <- inception_4d/pool_proj
I0704 18:21:28.916777 32707 net.cpp:368] inception_4d/output -> inception_4d/output
I0704 18:21:28.916784 32707 net.cpp:120] Setting up inception_4d/output
I0704 18:21:28.916790 32707 net.cpp:127] Top shape: 10 528 14 14 (1034880)
I0704 18:21:28.916795 32707 layer_factory.hpp:74] Creating layer inception_4d/output_inception_4d/output_0_split
I0704 18:21:28.916802 32707 net.cpp:90] Creating Layer inception_4d/output_inception_4d/output_0_split
I0704 18:21:28.916807 32707 net.cpp:410] inception_4d/output_inception_4d/output_0_split <- inception_4d/output
I0704 18:21:28.916813 32707 net.cpp:368] inception_4d/output_inception_4d/output_0_split -> inception_4d/output_inception_4d/output_0_split_0
I0704 18:21:28.916821 32707 net.cpp:368] inception_4d/output_inception_4d/output_0_split -> inception_4d/output_inception_4d/output_0_split_1
I0704 18:21:28.916827 32707 net.cpp:368] inception_4d/output_inception_4d/output_0_split -> inception_4d/output_inception_4d/output_0_split_2
I0704 18:21:28.916833 32707 net.cpp:368] inception_4d/output_inception_4d/output_0_split -> inception_4d/output_inception_4d/output_0_split_3
I0704 18:21:28.916841 32707 net.cpp:368] inception_4d/output_inception_4d/output_0_split -> inception_4d/output_inception_4d/output_0_split_4
I0704 18:21:28.934837 32707 net.cpp:120] Setting up inception_4d/output_inception_4d/output_0_split
I0704 18:21:28.934862 32707 net.cpp:127] Top shape: 10 528 14 14 (1034880)
I0704 18:21:28.934888 32707 net.cpp:127] Top shape: 10 528 14 14 (1034880)
I0704 18:21:28.934895 32707 net.cpp:127] Top shape: 10 528 14 14 (1034880)
I0704 18:21:28.934900 32707 net.cpp:127] Top shape: 10 528 14 14 (1034880)
I0704 18:21:28.934905 32707 net.cpp:127] Top shape: 10 528 14 14 (1034880)
I0704 18:21:28.934911 32707 layer_factory.hpp:74] Creating layer loss2/ave_pool
I0704 18:21:28.934924 32707 net.cpp:90] Creating Layer loss2/ave_pool
I0704 18:21:28.934931 32707 net.cpp:410] loss2/ave_pool <- inception_4d/output_inception_4d/output_0_split_0
I0704 18:21:28.934941 32707 net.cpp:368] loss2/ave_pool -> loss2/ave_pool
I0704 18:21:28.934948 32707 net.cpp:120] Setting up loss2/ave_pool
I0704 18:21:28.935220 32707 net.cpp:127] Top shape: 10 528 4 4 (84480)
I0704 18:21:28.935230 32707 layer_factory.hpp:74] Creating layer loss2/conv
I0704 18:21:28.935238 32707 net.cpp:90] Creating Layer loss2/conv
I0704 18:21:28.935245 32707 net.cpp:410] loss2/conv <- loss2/ave_pool
I0704 18:21:28.935250 32707 net.cpp:368] loss2/conv -> loss2/conv
I0704 18:21:28.935258 32707 net.cpp:120] Setting up loss2/conv
I0704 18:21:28.937036 32707 net.cpp:127] Top shape: 10 128 4 4 (20480)
I0704 18:21:28.937083 32707 layer_factory.hpp:74] Creating layer loss2/relu_conv
I0704 18:21:28.937106 32707 net.cpp:90] Creating Layer loss2/relu_conv
I0704 18:21:28.937124 32707 net.cpp:410] loss2/relu_conv <- loss2/conv
I0704 18:21:28.937147 32707 net.cpp:357] loss2/relu_conv -> loss2/conv (in-place)
I0704 18:21:28.937171 32707 net.cpp:120] Setting up loss2/relu_conv
I0704 18:21:28.937322 32707 net.cpp:127] Top shape: 10 128 4 4 (20480)
I0704 18:21:28.937343 32707 layer_factory.hpp:74] Creating layer loss2/fc
I0704 18:21:28.937369 32707 net.cpp:90] Creating Layer loss2/fc
I0704 18:21:28.937394 32707 net.cpp:410] loss2/fc <- loss2/conv
I0704 18:21:28.937415 32707 net.cpp:368] loss2/fc -> loss2/fc
I0704 18:21:28.937439 32707 net.cpp:120] Setting up loss2/fc
I0704 18:21:28.948518 32707 net.cpp:127] Top shape: 10 1024 (10240)
I0704 18:21:28.948545 32707 layer_factory.hpp:74] Creating layer loss2/relu_fc
I0704 18:21:28.948556 32707 net.cpp:90] Creating Layer loss2/relu_fc
I0704 18:21:28.948564 32707 net.cpp:410] loss2/relu_fc <- loss2/fc
I0704 18:21:28.948571 32707 net.cpp:357] loss2/relu_fc -> loss2/fc (in-place)
I0704 18:21:28.948578 32707 net.cpp:120] Setting up loss2/relu_fc
I0704 18:21:28.948660 32707 net.cpp:127] Top shape: 10 1024 (10240)
I0704 18:21:28.948667 32707 layer_factory.hpp:74] Creating layer loss2/drop_fc
I0704 18:21:28.948673 32707 net.cpp:90] Creating Layer loss2/drop_fc
I0704 18:21:28.948678 32707 net.cpp:410] loss2/drop_fc <- loss2/fc
I0704 18:21:28.948685 32707 net.cpp:357] loss2/drop_fc -> loss2/fc (in-place)
I0704 18:21:28.948691 32707 net.cpp:120] Setting up loss2/drop_fc
I0704 18:21:28.948698 32707 net.cpp:127] Top shape: 10 1024 (10240)
I0704 18:21:28.948703 32707 layer_factory.hpp:74] Creating layer stanford_cars_loss2/classifier
I0704 18:21:28.948710 32707 net.cpp:90] Creating Layer stanford_cars_loss2/classifier
I0704 18:21:28.948715 32707 net.cpp:410] stanford_cars_loss2/classifier <- loss2/fc
I0704 18:21:28.948722 32707 net.cpp:368] stanford_cars_loss2/classifier -> stanford_cars_loss2/classifier
I0704 18:21:28.948731 32707 net.cpp:120] Setting up stanford_cars_loss2/classifier
I0704 18:21:28.949722 32707 net.cpp:127] Top shape: 10 196 (1960)
I0704 18:21:28.949730 32707 layer_factory.hpp:74] Creating layer stanford_cars_loss2/classifier_stanford_cars_loss2/classifier_0_split
I0704 18:21:28.949738 32707 net.cpp:90] Creating Layer stanford_cars_loss2/classifier_stanford_cars_loss2/classifier_0_split
I0704 18:21:28.949743 32707 net.cpp:410] stanford_cars_loss2/classifier_stanford_cars_loss2/classifier_0_split <- stanford_cars_loss2/classifier
I0704 18:21:28.949749 32707 net.cpp:368] stanford_cars_loss2/classifier_stanford_cars_loss2/classifier_0_split -> stanford_cars_loss2/classifier_stanford_cars_loss2/classifier_0_split_0
I0704 18:21:28.949756 32707 net.cpp:368] stanford_cars_loss2/classifier_stanford_cars_loss2/classifier_0_split -> stanford_cars_loss2/classifier_stanford_cars_loss2/classifier_0_split_1
I0704 18:21:28.949781 32707 net.cpp:368] stanford_cars_loss2/classifier_stanford_cars_loss2/classifier_0_split -> stanford_cars_loss2/classifier_stanford_cars_loss2/classifier_0_split_2
I0704 18:21:28.949790 32707 net.cpp:120] Setting up stanford_cars_loss2/classifier_stanford_cars_loss2/classifier_0_split
I0704 18:21:28.949796 32707 net.cpp:127] Top shape: 10 196 (1960)
I0704 18:21:28.949801 32707 net.cpp:127] Top shape: 10 196 (1960)
I0704 18:21:28.949806 32707 net.cpp:127] Top shape: 10 196 (1960)
I0704 18:21:28.949810 32707 layer_factory.hpp:74] Creating layer stanford_cars_loss2/loss
I0704 18:21:28.949817 32707 net.cpp:90] Creating Layer stanford_cars_loss2/loss
I0704 18:21:28.949821 32707 net.cpp:410] stanford_cars_loss2/loss <- stanford_cars_loss2/classifier_stanford_cars_loss2/classifier_0_split_0
I0704 18:21:28.949828 32707 net.cpp:410] stanford_cars_loss2/loss <- label_data_1_split_3
…
I0704 18:21:28.949985 32707 net.cpp:368] loss2/top-5 -> loss2/top-5
I0704 18:21:28.949991 32707 net.cpp:120] Setting up loss2/top-5
I0704 18:21:28.949996 32707 net.cpp:127] Top shape: (1)
I0704 18:21:28.950001 32707 layer_factory.hpp:74] Creating layer inception_4e/1x1
I0704 18:21:28.950009 32707 net.cpp:90] Creating Layer inception_4e/1x1
I0704 18:21:28.950016 32707 net.cpp:410] inception_4e/1x1 <- inception_4d/output_inception_4d/output_0_split_1
I0704 18:21:28.950021 32707 net.cpp:368] inception_4e/1x1 -> inception_4e/1x1
I0704 18:21:28.950028 32707 net.cpp:120] Setting up inception_4e/1x1
I0704 18:21:28.950985 32707 net.cpp:127] Top shape: 10 256 14 14 (501760)
I0704 18:21:28.950999 32707 layer_factory.hpp:74] Creating layer inception_4e/relu_1x1
I0704 18:21:28.951005 32707 net.cpp:90] Creating Layer inception_4e/relu_1x1
I0704 18:21:28.951011 32707 net.cpp:410] inception_4e/relu_1x1 <- inception_4e/1x1
I0704 18:21:28.951019 32707 net.cpp:357] inception_4e/relu_1x1 -> inception_4e/1x1 (in-place)
I0704 18:21:28.951025 32707 net.cpp:120] Setting up inception_4e/relu_1x1
I0704 18:21:28.951144 32707 net.cpp:127] Top shape: 10 256 14 14 (501760)
I0704 18:21:28.951154 32707 layer_factory.hpp:74] Creating layer inception_4e/3x3_reduce
I0704 18:21:28.951174 32707 net.cpp:90] Creating Layer inception_4e/3x3_reduce
I0704 18:21:28.951180 32707 net.cpp:410] inception_4e/3x3_reduce <- inception_4d/output_inception_4d/output_0_split_2
I0704 18:21:28.951187 32707 net.cpp:368] inception_4e/3x3_reduce -> inception_4e/3x3_reduce
I0704 18:21:28.951195 32707 net.cpp:120] Setting up inception_4e/3x3_reduce
I0704 18:21:28.951824 32707 net.cpp:127] Top shape: 10 160 14 14 (313600)
I0704 18:21:28.951836 32707 layer_factory.hpp:74] Creating layer inception_4e/relu_3x3_reduce
I0704 18:21:28.951843 32707 net.cpp:90] Creating Layer inception_4e/relu_3x3_reduce
I0704 18:21:28.951855 32707 net.cpp:410] inception_4e/relu_3x3_reduce <- inception_4e/3x3_reduce
I0704 18:21:28.951864 32707 net.cpp:357] inception_4e/relu_3x3_reduce -> inception_4e/3x3_reduce (in-place)
I0704 18:21:28.951869 32707 net.cpp:120] Setting up inception_4e/relu_3x3_reduce
I0704 18:21:28.951915 32707 net.cpp:127] Top shape: 10 160 14 14 (313600)
I0704 18:21:28.951922 32707 layer_factory.hpp:74] Creating layer inception_4e/3x3
I0704 18:21:28.951930 32707 net.cpp:90] Creating Layer inception_4e/3x3
I0704 18:21:28.951935 32707 net.cpp:410] inception_4e/3x3 <- inception_4e/3x3_reduce
I0704 18:21:28.951941 32707 net.cpp:368] inception_4e/3x3 -> inception_4e/3x3
I0704 18:21:28.951948 32707 net.cpp:120] Setting up inception_4e/3x3
I0704 18:21:28.954391 32707 net.cpp:127] Top shape: 10 320 14 14 (627200)
I0704 18:21:28.954403 32707 layer_factory.hpp:74] Creating layer inception_4e/relu_3x3
I0704 18:21:28.954411 32707 net.cpp:90] Creating Layer inception_4e/relu_3x3
I0704 18:21:28.954416 32707 net.cpp:410] inception_4e/relu_3x3 <- inception_4e/3x3
I0704 18:21:28.954422 32707 net.cpp:357] inception_4e/relu_3x3 -> inception_4e/3x3 (in-place)
I0704 18:21:28.954429 32707 net.cpp:120] Setting up inception_4e/relu_3x3
I0704 18:21:28.954471 32707 net.cpp:127] Top shape: 10 320 14 14 (627200)
I0704 18:21:28.954478 32707 layer_factory.hpp:74] Creating layer inception_4e/5x5_reduce
I0704 18:21:28.954485 32707 net.cpp:90] Creating Layer inception_4e/5x5_reduce
I0704 18:21:28.954491 32707 net.cpp:410] inception_4e/5x5_reduce <- inception_4d/output_inception_4d/output_0_split_3
I0704 18:21:28.954498 32707 net.cpp:368] inception_4e/5x5_reduce -> inception_4e/5x5_reduce
I0704 18:21:28.954505 32707 net.cpp:120] Setting up inception_4e/5x5_reduce
I0704 18:21:28.954835 32707 net.cpp:127] Top shape: 10 32 14 14 (62720)
I0704 18:21:28.954848 32707 layer_factory.hpp:74] Creating layer inception_4e/relu_5x5_reduce
I0704 18:21:28.954854 32707 net.cpp:90] Creating Layer inception_4e/relu_5x5_reduce
I0704 18:21:28.954859 32707 net.cpp:410] inception_4e/relu_5x5_reduce <- inception_4e/5x5_reduce
I0704 18:21:28.954865 32707 net.cpp:357] inception_4e/relu_5x5_reduce -> inception_4e/5x5_reduce (in-place)
I0704 18:21:28.954872 32707 net.cpp:120] Setting up inception_4e/relu_5x5_reduce
I0704 18:21:28.954912 32707 net.cpp:127] Top shape: 10 32 14 14 (62720)
I0704 18:21:28.954918 32707 layer_factory.hpp:74] Creating layer inception_4e/5x5
I0704 18:21:28.954926 32707 net.cpp:90] Creating Layer inception_4e/5x5
I0704 18:21:28.954931 32707 net.cpp:410] inception_4e/5x5 <- inception_4e/5x5_reduce
I0704 18:21:28.954936 32707 net.cpp:368] inception_4e/5x5 -> inception_4e/5x5
I0704 18:21:28.954943 32707 net.cpp:120] Setting up inception_4e/5x5
I0704 18:21:28.955654 32707 net.cpp:127] Top shape: 10 128 14 14 (250880)
I0704 18:21:28.955667 32707 layer_factory.hpp:74] Creating layer inception_4e/relu_5x5
I0704 18:21:28.955673 32707 net.cpp:90] Creating Layer inception_4e/relu_5x5
I0704 18:21:28.955679 32707 net.cpp:410] inception_4e/relu_5x5 <- inception_4e/5x5
I0704 18:21:28.955684 32707 net.cpp:357] inception_4e/relu_5x5 -> inception_4e/5x5 (in-place)
I0704 18:21:28.955692 32707 net.cpp:120] Setting up inception_4e/relu_5x5
I0704 18:21:28.965885 32707 net.cpp:127] Top shape: 10 128 14 14 (250880)
I0704 18:21:28.965905 32707 layer_factory.hpp:74] Creating layer inception_4e/pool
I0704 18:21:28.965914 32707 layer_factory.cpp:55] CUDNN does not support padding or multiple tops. Using Caffe's own pooling layer.
I0704 18:21:28.965922 32707 net.cpp:90] Creating Layer inception_4e/pool
I0704 18:21:28.965930 32707 net.cpp:410] inception_4e/pool <- inception_4d/output_inception_4d/output_0_split_4
I0704 18:21:28.965939 32707 net.cpp:368] inception_4e/pool -> inception_4e/pool
I0704 18:21:28.965947 32707 net.cpp:120] Setting up inception_4e/pool
I0704 18:21:28.965956 32707 net.cpp:127] Top shape: 10 528 14 14 (1034880)
I0704 18:21:28.965961 32707 layer_factory.hpp:74] Creating layer inception_4e/pool_proj
I0704 18:21:28.965986 32707 net.cpp:90] Creating Layer inception_4e/pool_proj
I0704 18:21:28.965992 32707 net.cpp:410] inception_4e/pool_proj <- inception_4e/pool
I0704 18:21:28.965998 32707 net.cpp:368] inception_4e/pool_proj -> inception_4e/pool_proj
I0704 18:21:28.966006 32707 net.cpp:120] Setting up inception_4e/pool_proj
I0704 18:21:28.966706 32707 net.cpp:127] Top shape: 10 128 14 14 (250880)
I0704 18:21:28.966719 32707 layer_factory.hpp:74] Creating layer inception_4e/relu_pool_proj
I0704 18:21:28.966727 32707 net.cpp:90] Creating Layer inception_4e/relu_pool_proj
I0704 18:21:28.966732 32707 net.cpp:410] inception_4e/relu_pool_proj <- inception_4e/pool_proj
I0704 18:21:28.966740 32707 net.cpp:357] inception_4e/relu_pool_proj -> inception_4e/pool_proj (in-place)
I0704 18:21:28.966747 32707 net.cpp:120] Setting up inception_4e/relu_pool_proj
I0704 18:21:28.966791 32707 net.cpp:127] Top shape: 10 128 14 14 (250880)
I0704 18:21:28.966797 32707 layer_factory.hpp:74] Creating layer inception_4e/output
I0704 18:21:28.966804 32707 net.cpp:90] Creating Layer inception_4e/output
I0704 18:21:28.966809 32707 net.cpp:410] inception_4e/output <- inception_4e/1x1
I0704 18:21:28.966815 32707 net.cpp:410] inception_4e/output <- inception_4e/3x3
I0704 18:21:28.966821 32707 net.cpp:410] inception_4e/output <- inception_4e/5x5
I0704 18:21:28.966826 32707 net.cpp:410] inception_4e/output <- inception_4e/pool_proj
I0704 18:21:28.966832 32707 net.cpp:368] inception_4e/output -> inception_4e/output
I0704 18:21:28.966838 32707 net.cpp:120] Setting up inception_4e/output
I0704 18:21:28.966846 32707 net.cpp:127] Top shape: 10 832 14 14 (1630720)
I0704 18:21:28.966851 32707 layer_factory.hpp:74] Creating layer pool4/3x3_s2
I0704 18:21:28.966857 32707 net.cpp:90] Creating Layer pool4/3x3_s2
I0704 18:21:28.966862 32707 net.cpp:410] pool4/3x3_s2 <- inception_4e/output
I0704 18:21:28.966869 32707 net.cpp:368] pool4/3x3_s2 -> pool4/3x3_s2
I0704 18:21:28.966876 32707 net.cpp:120] Setting up pool4/3x3_s2
I0704 18:21:28.966920 32707 net.cpp:127] Top shape: 10 832 7 7 (407680)
I0704 18:21:28.966928 32707 layer_factory.hpp:74] Creating layer pool4/3x3_s2_pool4/3x3_s2_0_split
I0704 18:21:28.966935 32707 net.cpp:90] Creating Layer pool4/3x3_s2_pool4/3x3_s2_0_split
I0704 18:21:28.966940 32707 net.cpp:410] pool4/3x3_s2_pool4/3x3_s2_0_split <- pool4/3x3_s2
I0704 18:21:28.966955 32707 net.cpp:368] pool4/3x3_s2_pool4/3x3_s2_0_split -> pool4/3x3_s2_pool4/3x3_s2_0_split_0
I0704 18:21:28.966964 32707 net.cpp:368] pool4/3x3_s2_pool4/3x3_s2_0_split -> pool4/3x3_s2_pool4/3x3_s2_0_split_1
I0704 18:21:28.966969 32707 net.cpp:368] pool4/3x3_s2_pool4/3x3_s2_0_split -> pool4/3x3_s2_pool4/3x3_s2_0_split_2
I0704 18:21:28.966989 32707 net.cpp:368] pool4/3x3_s2_pool4/3x3_s2_0_split -> pool4/3x3_s2_pool4/3x3_s2_0_split_3
I0704 18:21:28.966995 32707 net.cpp:120] Setting up pool4/3x3_s2_pool4/3x3_s2_0_split
I0704 18:21:28.967011 32707 net.cpp:127] Top shape: 10 832 7 7 (407680)
I0704 18:21:28.967016 32707 net.cpp:127] Top shape: 10 832 7 7 (407680)
I0704 18:21:28.967021 32707 net.cpp:127] Top shape: 10 832 7 7 (407680)
I0704 18:21:28.967155 32707 net.cpp:127] Top shape: 10 832 7 7 (407680)
I0704 18:21:28.967170 32707 layer_factory.hpp:74] Creating layer inception_5a/1x1
I0704 18:21:28.967180 32707 net.cpp:90] Creating Layer inception_5a/1x1
I0704 18:21:28.967185 32707 net.cpp:410] inception_5a/1x1 <- pool4/3x3_s2_pool4/3x3_s2_0_split_0
I0704 18:21:28.967191 32707 net.cpp:368] inception_5a/1x1 -> inception_5a/1x1
I0704 18:21:28.967198 32707 net.cpp:120] Setting up inception_5a/1x1
I0704 18:21:28.970742 32707 net.cpp:127] Top shape: 10 256 7 7 (125440)
I0704 18:21:28.970780 32707 layer_factory.hpp:74] Creating layer inception_5a/relu_1x1
I0704 18:21:28.970800 32707 net.cpp:90] Creating Layer inception_5a/relu_1x1
I0704 18:21:28.970815 32707 net.cpp:410] inception_5a/relu_1x1 <- inception_5a/1x1
I0704 18:21:28.970835 32707 net.cpp:357] inception_5a/relu_1x1 -> inception_5a/1x1 (in-place)
I0704 18:21:28.970855 32707 net.cpp:120] Setting up inception_5a/relu_1x1
I0704 18:21:28.971158 32707 net.cpp:127] Top shape: 10 256 7 7 (125440)
I0704 18:21:28.971201 32707 layer_factory.hpp:74] Creating layer inception_5a/3x3_reduce
I0704 18:21:28.971226 32707 net.cpp:90] Creating Layer inception_5a/3x3_reduce
I0704 18:21:28.971242 32707 net.cpp:410] inception_5a/3x3_reduce <- pool4/3x3_s2_pool4/3x3_s2_0_split_1
I0704 18:21:28.971264 32707 net.cpp:368] inception_5a/3x3_reduce -> inception_5a/3x3_reduce
I0704 18:21:28.971287 32707 net.cpp:120] Setting up inception_5a/3x3_reduce
I0704 18:21:28.973758 32707 net.cpp:127] Top shape: 10 160 7 7 (78400)
I0704 18:21:28.973793 32707 layer_factory.hpp:74] Creating layer inception_5a/relu_3x3_reduce
I0704 18:21:28.973815 32707 net.cpp:90] Creating Layer inception_5a/relu_3x3_reduce
I0704 18:21:28.973831 32707 net.cpp:410] inception_5a/relu_3x3_reduce <- inception_5a/3x3_reduce
I0704 18:21:28.973848 32707 net.cpp:357] inception_5a/relu_3x3_reduce -> inception_5a/3x3_reduce (in-place)
I0704 18:21:28.973866 32707 net.cpp:120] Setting up inception_5a/relu_3x3_reduce
I0704 18:21:28.973994 32707 net.cpp:127] Top shape: 10 160 7 7 (78400)
I0704 18:21:28.974012 32707 layer_factory.hpp:74] Creating layer inception_5a/3x3
I0704 18:21:28.974033 32707 net.cpp:90] Creating Layer inception_5a/3x3
I0704 18:21:28.974047 32707 net.cpp:410] inception_5a/3x3 <- inception_5a/3x3_reduce
I0704 18:21:28.974066 32707 net.cpp:368] inception_5a/3x3 -> inception_5a/3x3
I0704 18:21:28.974086 32707 net.cpp:120] Setting up inception_5a/3x3
I0704 18:21:28.977386 32707 net.cpp:127] Top shape: 10 320 7 7 (156800)
I0704 18:21:28.977399 32707 layer_factory.hpp:74] Creating layer inception_5a/relu_3x3
I0704 18:21:28.977406 32707 net.cpp:90] Creating Layer inception_5a/relu_3x3
I0704 18:21:28.977412 32707 net.cpp:410] inception_5a/relu_3x3 <- inception_5a/3x3
I0704 18:21:28.977419 32707 net.cpp:357] inception_5a/relu_3x3 -> inception_5a/3x3 (in-place)
I0704 18:21:28.977427 32707 net.cpp:120] Setting up inception_5a/relu_3x3
I0704 18:21:28.977469 32707 net.cpp:127] Top shape: 10 320 7 7 (156800)
I0704 18:21:28.977475 32707 layer_factory.hpp:74] Creating layer inception_5a/5x5_reduce
I0704 18:21:28.977484 32707 net.cpp:90] Creating Layer inception_5a/5x5_reduce
I0704 18:21:28.977489 32707 net.cpp:410] inception_5a/5x5_reduce <- pool4/3x3_s2_pool4/3x3_s2_0_split_2
I0704 18:21:28.977496 32707 net.cpp:368] inception_5a/5x5_reduce -> inception_5a/5x5_reduce
I0704 18:21:28.977504 32707 net.cpp:120] Setting up inception_5a/5x5_reduce
I0704 18:21:28.977848 32707 net.cpp:127] Top shape: 10 32 7 7 (15680)
I0704 18:21:28.977859 32707 layer_factory.hpp:74] Creating layer inception_5a/relu_5x5_reduce
I0704 18:21:28.977865 32707 net.cpp:90] Creating Layer inception_5a/relu_5x5_reduce
I0704 18:21:28.977871 32707 net.cpp:410] inception_5a/relu_5x5_reduce <- inception_5a/5x5_reduce
I0704 18:21:28.977877 32707 net.cpp:357] inception_5a/relu_5x5_reduce -> inception_5a/5x5_reduce (in-place)
I0704 18:21:28.977884 32707 net.cpp:120] Setting up inception_5a/relu_5x5_reduce
I0704 18:21:28.977926 32707 net.cpp:127] Top shape: 10 32 7 7 (15680)
I0704 18:21:28.977932 32707 layer_factory.hpp:74] Creating layer inception_5a/5x5
I0704 18:21:28.977939 32707 net.cpp:90] Creating Layer inception_5a/5x5
I0704 18:21:28.977944 32707 net.cpp:410] inception_5a/5x5 <- inception_5a/5x5_reduce
I0704 18:21:28.977952 32707 net.cpp:368] inception_5a/5x5 -> inception_5a/5x5
I0704 18:21:28.977958 32707 net.cpp:120] Setting up inception_5a/5x5
I0704 18:21:28.978668 32707 net.cpp:127] Top shape: 10 128 7 7 (62720)
I0704 18:21:28.978680 32707 layer_factory.hpp:74] Creating layer inception_5a/relu_5x5
I0704 18:21:28.978688 32707 net.cpp:90] Creating Layer inception_5a/relu_5x5
I0704 18:21:28.978693 32707 net.cpp:410] inception_5a/relu_5x5 <- inception_5a/5x5
I0704 18:21:28.978698 32707 net.cpp:357] inception_5a/relu_5x5 -> inception_5a/5x5 (in-place)
I0704 18:21:28.978704 32707 net.cpp:120] Setting up inception_5a/relu_5x5
I0704 18:21:28.978822 32707 net.cpp:127] Top shape: 10 128 7 7 (62720)
I0704 18:21:28.978832 32707 layer_factory.hpp:74] Creating layer inception_5a/pool
I0704 18:21:28.978847 32707 layer_factory.cpp:55] CUDNN does not support padding or multiple tops. Using Caffe's own pooling layer.
I0704 18:21:28.978853 32707 net.cpp:90] Creating Layer inception_5a/pool
I0704 18:21:28.978858 32707 net.cpp:410] inception_5a/pool <- pool4/3x3_s2_pool4/3x3_s2_0_split_3
I0704 18:21:28.978867 32707 net.cpp:368] inception_5a/pool -> inception_5a/pool
I0704 18:21:28.978873 32707 net.cpp:120] Setting up inception_5a/pool
I0704 18:21:28.978880 32707 net.cpp:127] Top shape: 10 832 7 7 (407680)
I0704 18:21:28.978885 32707 layer_factory.hpp:74] Creating layer inception_5a/pool_proj
I0704 18:21:28.978893 32707 net.cpp:90] Creating Layer inception_5a/pool_proj
I0704 18:21:28.978899 32707 net.cpp:410] inception_5a/pool_proj <- inception_5a/pool
I0704 18:21:28.978904 32707 net.cpp:368] inception_5a/pool_proj -> inception_5a/pool_proj
I0704 18:21:28.978911 32707 net.cpp:120] Setting up inception_5a/pool_proj
I0704 18:21:28.979645 32707 net.cpp:127] Top shape: 10 128 7 7 (62720)
I0704 18:21:28.979657 32707 layer_factory.hpp:74] Creating layer inception_5a/relu_pool_proj
I0704 18:21:28.979665 32707 net.cpp:90] Creating Layer inception_5a/relu_pool_proj
I0704 18:21:28.979671 32707 net.cpp:410] inception_5a/relu_pool_proj <- inception_5a/pool_proj
I0704 18:21:28.979676 32707 net.cpp:357] inception_5a/relu_pool_proj -> inception_5a/pool_proj (in-place)
I0704 18:21:28.979682 32707 net.cpp:120] Setting up inception_5a/relu_pool_proj
I0704 18:21:28.979725 32707 net.cpp:127] Top shape: 10 128 7 7 (62720)
I0704 18:21:28.979732 32707 layer_factory.hpp:74] Creating layer inception_5a/output
I0704 18:21:28.979739 32707 net.cpp:90] Creating Layer inception_5a/output
I0704 18:21:28.979744 32707 net.cpp:410] inception_5a/output <- inception_5a/1x1
I0704 18:21:28.979749 32707 net.cpp:410] inception_5a/output <- inception_5a/3x3
I0704 18:21:28.979754 32707 net.cpp:410] inception_5a/output <- inception_5a/5x5
I0704 18:21:28.979759 32707 net.cpp:410] inception_5a/output <- inception_5a/pool_proj
I0704 18:21:28.979765 32707 net.cpp:368] inception_5a/output -> inception_5a/output
I0704 18:21:28.979771 32707 net.cpp:120] Setting up inception_5a/output
I0704 18:21:28.979779 32707 net.cpp:127] Top shape: 10 832 7 7 (407680)
I0704 18:21:28.979784 32707 layer_factory.hpp:74] Creating layer inception_5a/output_inception_5a/output_0_split
I0704 18:21:28.979791 32707 net.cpp:90] Creating Layer inception_5a/output_inception_5a/output_0_split
I0704 18:21:28.979795 32707 net.cpp:410] inception_5a/output_inception_5a/output_0_split <- inception_5a/output
I0704 18:21:28.979801 32707 net.cpp:368] inception_5a/output_inception_5a/output_0_split -> inception_5a/output_inception_5a/output_0_split_0
I0704 18:21:28.979809 32707 net.cpp:368] inception_5a/output_inception_5a/output_0_split -> inception_5a/output_inception_5a/output_0_split_1
I0704 18:21:28.979815 32707 net.cpp:368] inception_5a/output_inception_5a/output_0_split -> inception_5a/output_inception_5a/output_0_split_2
I0704 18:21:28.979821 32707 net.cpp:368] inception_5a/output_inception_5a/output_0_split -> inception_5a/output_inception_5a/output_0_split_3
I0704 18:21:28.996371 32707 net.cpp:120] Setting up inception_5a/output_inception_5a/output_0_split
I0704 18:21:28.996397 32707 net.cpp:127] Top shape: 10 832 7 7 (407680)
I0704 18:21:28.996402 32707 net.cpp:127] Top shape: 10 832 7 7 (407680)
I0704 18:21:28.996408 32707 net.cpp:127] Top shape: 10 832 7 7 (407680)
I0704 18:21:28.996413 32707 net.cpp:127] Top shape: 10 832 7 7 (407680)
I0704 18:21:28.996418 32707 layer_factory.hpp:74] Creating layer inception_5b/1x1
I0704 18:21:28.996435 32707 net.cpp:90] Creating Layer inception_5b/1x1
I0704 18:21:28.996443 32707 net.cpp:410] inception_5b/1x1 <- inception_5a/output_inception_5a/output_0_split_0
I0704 18:21:28.996451 32707 net.cpp:368] inception_5b/1x1 -> inception_5b/1x1
I0704 18:21:28.996459 32707 net.cpp:120] Setting up inception_5b/1x1
I0704 18:21:28.998565 32707 net.cpp:127] Top shape: 10 384 7 7 (188160)
I0704 18:21:28.998579 32707 layer_factory.hpp:74] Creating layer inception_5b/relu_1x1
I0704 18:21:28.998602 32707 net.cpp:90] Creating Layer inception_5b/relu_1x1
I0704 18:21:28.998610 32707 net.cpp:410] inception_5b/relu_1x1 <- inception_5b/1x1
I0704 18:21:28.998617 32707 net.cpp:357] inception_5b/relu_1x1 -> inception_5b/1x1 (in-place)
I0704 18:21:28.998625 32707 net.cpp:120] Setting up inception_5b/relu_1x1
I0704 18:21:28.998669 32707 net.cpp:127] Top shape: 10 384 7 7 (188160)
I0704 18:21:28.998675 32707 layer_factory.hpp:74] Creating layer inception_5b/3x3_reduce
I0704 18:21:28.998683 32707 net.cpp:90] Creating Layer inception_5b/3x3_reduce
I0704 18:21:28.998688 32707 net.cpp:410] inception_5b/3x3_reduce <- inception_5a/output_inception_5a/output_0_split_1
I0704 18:21:28.998697 32707 net.cpp:368] inception_5b/3x3_reduce -> inception_5b/3x3_reduce
I0704 18:21:28.998703 32707 net.cpp:120] Setting up inception_5b/3x3_reduce
I0704 18:21:29.000993 32707 net.cpp:127] Top shape: 10 192 7 7 (94080)
I0704 18:21:29.001039 32707 layer_factory.hpp:74] Creating layer inception_5b/relu_3x3_reduce
I0704 18:21:29.001061 32707 net.cpp:90] Creating Layer inception_5b/relu_3x3_reduce
I0704 18:21:29.001080 32707 net.cpp:410] inception_5b/relu_3x3_reduce <- inception_5b/3x3_reduce
I0704 18:21:29.001104 32707 net.cpp:357] inception_5b/relu_3x3_reduce -> inception_5b/3x3_reduce (in-place)
I0704 18:21:29.001127 32707 net.cpp:120] Setting up inception_5b/relu_3x3_reduce
I0704 18:21:29.001272 32707 net.cpp:127] Top shape: 10 192 7 7 (94080)
I0704 18:21:29.001293 32707 layer_factory.hpp:74] Creating layer inception_5b/3x3
I0704 18:21:29.001318 32707 net.cpp:90] Creating Layer inception_5b/3x3
I0704 18:21:29.001337 32707 net.cpp:410] inception_5b/3x3 <- inception_5b/3x3_reduce
I0704 18:21:29.001359 32707 net.cpp:368] inception_5b/3x3 -> inception_5b/3x3
I0704 18:21:29.001384 32707 net.cpp:120] Setting up inception_5b/3x3
I0704 18:21:29.011857 32707 net.cpp:127] Top shape: 10 384 7 7 (188160)
I0704 18:21:29.011874 32707 layer_factory.hpp:74] Creating layer inception_5b/relu_3x3
I0704 18:21:29.011883 32707 net.cpp:90] Creating Layer inception_5b/relu_3x3
I0704 18:21:29.011888 32707 net.cpp:410] inception_5b/relu_3x3 <- inception_5b/3x3
I0704 18:21:29.011895 32707 net.cpp:357] inception_5b/relu_3x3 -> inception_5b/3x3 (in-place)
I0704 18:21:29.011903 32707 net.cpp:120] Setting up inception_5b/relu_3x3
I0704 18:21:29.012022 32707 net.cpp:127] Top shape: 10 384 7 7 (188160)
I0704 18:21:29.012032 32707 layer_factory.hpp:74] Creating layer inception_5b/5x5_reduce
I0704 18:21:29.012040 32707 net.cpp:90] Creating Layer inception_5b/5x5_reduce
I0704 18:21:29.012047 32707 net.cpp:410] inception_5b/5x5_reduce <- inception_5a/output_inception_5a/output_0_split_2
I0704 18:21:29.012053 32707 net.cpp:368] inception_5b/5x5_reduce -> inception_5b/5x5_reduce
I0704 18:21:29.012060 32707 net.cpp:120] Setting up inception_5b/5x5_reduce
I0704 18:21:29.012472 32707 net.cpp:127] Top shape: 10 48 7 7 (23520)
I0704 18:21:29.012485 32707 layer_factory.hpp:74] Creating layer inception_5b/relu_5x5_reduce
I0704 18:21:29.012491 32707 net.cpp:90] Creating Layer inception_5b/relu_5x5_reduce
I0704 18:21:29.012496 32707 net.cpp:410] inception_5b/relu_5x5_reduce <- inception_5b/5x5_reduce
I0704 18:21:29.012503 32707 net.cpp:357] inception_5b/relu_5x5_reduce -> inception_5b/5x5_reduce (in-place)
I0704 18:21:29.012511 32707 net.cpp:120] Setting up inception_5b/relu_5x5_reduce
I0704 18:21:29.012553 32707 net.cpp:127] Top shape: 10 48 7 7 (23520)
I0704 18:21:29.012559 32707 layer_factory.hpp:74] Creating layer inception_5b/5x5
I0704 18:21:29.012567 32707 net.cpp:90] Creating Layer inception_5b/5x5
I0704 18:21:29.012573 32707 net.cpp:410] inception_5b/5x5 <- inception_5b/5x5_reduce
I0704 18:21:29.012579 32707 net.cpp:368] inception_5b/5x5 -> inception_5b/5x5
I0704 18:21:29.012586 32707 net.cpp:120] Setting up inception_5b/5x5
I0704 18:21:29.013546 32707 net.cpp:127] Top shape: 10 128 7 7 (62720)
I0704 18:21:29.013558 32707 layer_factory.hpp:74] Creating layer inception_5b/relu_5x5
I0704 18:21:29.013564 32707 net.cpp:90] Creating Layer inception_5b/relu_5x5
I0704 18:21:29.013581 32707 net.cpp:410] inception_5b/relu_5x5 <- inception_5b/5x5
I0704 18:21:29.013588 32707 net.cpp:357] inception_5b/relu_5x5 -> inception_5b/5x5 (in-place)
I0704 18:21:29.013595 32707 net.cpp:120] Setting up inception_5b/relu_5x5
I0704 18:21:29.013639 32707 net.cpp:127] Top shape: 10 128 7 7 (62720)
I0704 18:21:29.013645 32707 layer_factory.hpp:74] Creating layer inception_5b/pool
I0704 18:21:29.013651 32707 layer_factory.cpp:55] CUDNN does not support padding or multiple tops. Using Caffe's own pooling layer.
I0704 18:21:29.013659 32707 net.cpp:90] Creating Layer inception_5b/pool
I0704 18:21:29.013664 32707 net.cpp:410] inception_5b/pool <- inception_5a/output_inception_5a/output_0_split_3
I0704 18:21:29.013669 32707 net.cpp:368] inception_5b/pool -> inception_5b/pool
I0704 18:21:29.013676 32707 net.cpp:120] Setting up inception_5b/pool
I0704 18:21:29.013684 32707 net.cpp:127] Top shape: 10 832 7 7 (407680)
I0704 18:21:29.013689 32707 layer_factory.hpp:74] Creating layer inception_5b/pool_proj
I0704 18:21:29.013696 32707 net.cpp:90] Creating Layer inception_5b/pool_proj
I0704 18:21:29.013702 32707 net.cpp:410] inception_5b/pool_proj <- inception_5b/pool
I0704 18:21:29.013708 32707 net.cpp:368] inception_5b/pool_proj -> inception_5b/pool_proj
I0704 18:21:29.013715 32707 net.cpp:120] Setting up inception_5b/pool_proj
I0704 18:21:29.014446 32707 net.cpp:127] Top shape: 10 128 7 7 (62720)
I0704 18:21:29.014458 32707 layer_factory.hpp:74] Creating layer inception_5b/relu_pool_proj
I0704 18:21:29.014466 32707 net.cpp:90] Creating Layer inception_5b/relu_pool_proj
I0704 18:21:29.014471 32707 net.cpp:410] inception_5b/relu_pool_proj <- inception_5b/pool_proj
I0704 18:21:29.014477 32707 net.cpp:357] inception_5b/relu_pool_proj -> inception_5b/pool_proj (in-place)
I0704 18:21:29.014484 32707 net.cpp:120] Setting up inception_5b/relu_pool_proj
I0704 18:21:29.014526 32707 net.cpp:127] Top shape: 10 128 7 7 (62720)
I0704 18:21:29.014533 32707 layer_factory.hpp:74] Creating layer inception_5b/output
I0704 18:21:29.014539 32707 net.cpp:90] Creating Layer inception_5b/output
I0704 18:21:29.014544 32707 net.cpp:410] inception_5b/output <- inception_5b/1x1
I0704 18:21:29.014549 32707 net.cpp:410] inception_5b/output <- inception_5b/3x3
I0704 18:21:29.014554 32707 net.cpp:410] inception_5b/output <- inception_5b/5x5
I0704 18:21:29.014559 32707 net.cpp:410] inception_5b/output <- inception_5b/pool_proj
I0704 18:21:29.014566 32707 net.cpp:368] inception_5b/output -> inception_5b/output
I0704 18:21:29.014572 32707 net.cpp:120] Setting up inception_5b/output
I0704 18:21:29.014580 32707 net.cpp:127] Top shape: 10 1024 7 7 (501760)
I0704 18:21:29.014585 32707 layer_factory.hpp:74] Creating layer pool5/7x7_s1
I0704 18:21:29.014591 32707 net.cpp:90] Creating Layer pool5/7x7_s1
I0704 18:21:29.014596 32707 net.cpp:410] pool5/7x7_s1 <- inception_5b/output
I0704 18:21:29.014602 32707 net.cpp:368] pool5/7x7_s1 -> pool5/7x7_s1
I0704 18:21:29.014608 32707 net.cpp:120] Setting up pool5/7x7_s1
I0704 18:21:29.014729 32707 net.cpp:127] Top shape: 10 1024 1 1 (10240)
I0704 18:21:29.014737 32707 layer_factory.hpp:74] Creating layer pool5/drop_7x7_s1
I0704 18:21:29.014744 32707 net.cpp:90] Creating Layer pool5/drop_7x7_s1
I0704 18:21:29.014750 32707 net.cpp:410] pool5/drop_7x7_s1 <- pool5/7x7_s1
I0704 18:21:29.014756 32707 net.cpp:357] pool5/drop_7x7_s1 -> pool5/7x7_s1 (in-place)
I0704 18:21:29.014762 32707 net.cpp:120] Setting up pool5/drop_7x7_s1
I0704 18:21:29.014768 32707 net.cpp:127] Top shape: 10 1024 1 1 (10240)
I0704 18:21:29.014773 32707 layer_factory.hpp:74] Creating layer stanford_cars_loss3/classifier
I0704 18:21:29.014781 32707 net.cpp:90] Creating Layer stanford_cars_loss3/classifier
I0704 18:21:29.014786 32707 net.cpp:410] stanford_cars_loss3/classifier <- pool5/7x7_s1
I0704 18:21:29.014793 32707 net.cpp:368] stanford_cars_loss3/classifier -> stanford_cars_loss3/classifier
I0704 18:21:29.014801 32707 net.cpp:120] Setting up stanford_cars_loss3/classifier
I0704 18:21:29.015789 32707 net.cpp:127] Top shape: 10 196 (1960)
I0704 18:21:29.015805 32707 layer_factory.hpp:74] Creating layer stanford_cars_loss3/classifier_stanford_cars_loss3/classifier_0_split
I0704 18:21:29.015813 32707 net.cpp:90] Creating Layer stanford_cars_loss3/classifier_stanford_cars_loss3/classifier_0_split
I0704 18:21:29.015818 32707 net.cpp:410] stanford_cars_loss3/classifier_stanford_cars_loss3/classifier_0_split <- stanford_cars_loss3/classifier
I0704 18:21:29.015825 32707 net.cpp:368] stanford_cars_loss3/classifier_stanford_cars_loss3/classifier_0_split -> stanford_cars_loss3/classifier_stanford_cars_loss3/classifier_0_split_0
I0704 18:21:29.015833 32707 net.cpp:368] stanford_cars_loss3/classifier_stanford_cars_loss3/classifier_0_split -> stanford_cars_loss3/classifier_stanford_cars_loss3/classifier_0_split_1
I0704 18:21:29.015841 32707 net.cpp:368] stanford_cars_loss3/classifier_stanford_cars_loss3/classifier_0_split -> stanford_cars_loss3/classifier_stanford_cars_loss3/classifier_0_split_2
I0704 18:21:29.015846 32707 net.cpp:120] Setting up stanford_cars_loss3/classifier_stanford_cars_loss3/classifier_0_split
I0704 18:21:29.015853 32707 net.cpp:127] Top shape: 10 196 (1960)
I0704 18:21:29.015858 32707 net.cpp:127] Top shape: 10 196 (1960)
I0704 18:21:29.015863 32707 net.cpp:127] Top shape: 10 196 (1960)
I0704 18:21:29.015867 32707 layer_factory.hpp:74] Creating layer loss3/loss3
I0704 18:21:29.015873 32707 net.cpp:90] Creating Layer loss3/loss3
I0704 18:21:29.015878 32707 net.cpp:410] loss3/loss3 <- stanford_cars_loss3/classifier_stanford_cars_loss3/classifier_0_split_0
I0704 18:21:29.015883 32707 net.cpp:410] loss3/loss3 <- label_data_1_split_6
I0704 18:21:29.015890 32707 net.cpp:368] loss3/loss3 -> loss3/loss3
…
