…
I0703 14:40:16.935209 30328 net.cpp:287] The NetState phase (0) differed from the phase (1) specified by a rule in layer loss3/top-5
I0703 14:40:16.935865 30328 net.cpp:42] Initializing net from parameters: 
name: "GoogleNet"
state {
  phase: TRAIN
}
layer {
  name: "data"
  type: "Data"
  top: "data"
  top: "label"
  include {
    phase: TRAIN
  }
  transform_param {
    mirror: true
    crop_size: 224
    mean_value: 104
    mean_value: 117
    mean_value: 123
  }
  data_param {
    source: "examples/stanford_cars/stanford_cars_train_lmdb"
    batch_size: 30
    backend: LMDB
  }
}
layer {
  name: "conv1/7x7_s2"
  type: "Convolution"
  bottom: "data"
  top: "conv1/7x7_s2"
  param {
    lr_mult: 1
    decay_mult: 1
  }
  param {
    lr_mult: 2
    decay_mult: 0
  }
  convolution_param {
    num_output: 64
    pad: 3
    kernel_size: 7
    stride: 2
    weight_filler {
      type: "xavier"
      std: 0.1
    }
    bias_filler {
      type: "constant"
      value: 0.2
    }
  }
}
layer {
  name: "conv1/relu_7x7"
  type: "ReLU"
  bottom: "conv1/7x7_s2"
  top: "conv1/7x7_s2"
}
layer {
  name: "pool1/3x3_s2"
  type: "Pooling"
  bottom: "conv1/7x7_s2"
  top: "pool1/3x3_s2"
  pooling_param {
    pool: MAX
    kernel_size: 3
    stride: 2
  }
}
layer {
  name: "pool1/norm1"
  type: "LRN"
  bottom: "pool1/3x3_s2"
  top: "pool1/norm1"
  lrn_param {
    local_size: 5
    alpha: 0.0001
    beta: 0.75
  }
}
layer {
  name: "conv2/3x3_reduce"
  type: "Convolution"
  bottom: "pool1/norm1"
  top: "conv2/3x3_reduce"
  param {
    lr_mult: 1
    decay_mult: 1
  }
  param {
    lr_mult: 2
    decay_mult: 0
  }
  convolution_param {
    num_output: 64
    kernel_size: 1
    weight_filler {
      type: "xavier"
      std: 0.1
    }
    bias_filler {
      type: "constant"
      value: 0.2
    }
  }
}
layer {
  name: "conv2/relu_3x3_reduce"
  type: "ReLU"
  bottom: "conv2/3x3_reduce"
  top: "conv2/3x3_reduce"
}
layer {
  name: "conv2/3x3"
  type: "Convolution"
  bottom: "conv2/3x3_reduce"
  top: "conv2/3x3"
  param {
    lr_mult: 1
    decay_mult: 1
  }
  param {
    lr_mult: 2
    decay_mult: 0
  }
  convolution_param {
    num_output: 192
    pad: 1
    kernel_size: 3
    weight_filler {
      type: "xavier"
      std: 0.03
    }
    bias_filler {
      type: "constant"
      value: 0.2
    }
  }
}
layer {
  name: "conv2/relu_3x3"
  type: "ReLU"
  bottom: "conv2/3x3"
  top: "conv2/3x3"
}
layer {
  name: "conv2/norm2"
  type: "LRN"
  bottom: "conv2/3x3"
  top: "conv2/norm2"
  lrn_param {
    local_size: 5
    alpha: 0.0001
    beta: 0.75
  }
}
layer {
  name: "pool2/3x3_s2"
  type: "Pooling"
  bottom: "conv2/norm2"
  top: "pool2/3x3_s2"
  pooling_param {
    pool: MAX
    kernel_size: 3
    stride: 2
  }
}
layer {
  name: "inception_3a/1x1"
  type: "Convolution"
  bottom: "pool2/3x3_s2"
  top: "inception_3a/1x1"
  param {
    lr_mult: 1
    decay_mult: 1
  }
  param {
    lr_mult: 2
    decay_mult: 0
  }
  convolution_param {
    num_output: 64
    kernel_size: 1
    weight_filler {
      type: "xavier"
      std: 0.03
    }
    bias_filler {
      type: "constant"
      value: 0.2
    }
  }
}
layer {
  name: "inception_3a/relu_1x1"
  type: "ReLU"
  bottom: "inception_3a/1x1"
  top: "inception_3a/1x1"
}
layer {
  name: "inception_3a/3x3_reduce"
  type: "Convolution"
  bottom: "pool2/3x3_s2"
  top: "inception_3a/3x3_reduce"
  param {
    lr_mult: 1
    decay_mult: 1
  }
  param {
    lr_mult: 2
    decay_mult: 0
  }
  convolution_param {
    num_output: 96
    kernel_size: 1
    weight_filler {
      type: "xavier"
      std: 0.09
    }
    bias_filler {
      type: "constant"
      value: 0.2
    }
  }
}
layer {
  name: "inception_3a/relu_3x3_reduce"
  type: "ReLU"
  bottom: "inception_3a/3x3_reduce"
  top: "inception_3a/3x3_reduce"
}
layer {
  name: "inception_3a/3x3"
  type: "Convolution"
  bottom: "inception_3a/3x3_reduce"
  top: "inception_3a/3x3"
  param {
    lr_mult: 1
    decay_mult: 1
  }
  param {
    lr_mult: 2
    decay_mult: 0
  }
  convolution_param {
    num_output: 128
    pad: 1
    kernel_size: 3
    weight_filler {
      type: "xavier"
      std: 0.03
    }
    bias_filler {
      type: "constant"
      value: 0.2
    }
  }
}
layer {
  name: "inception_3a/relu_3x3"
  type: "ReLU"
  bottom: "inception_3a/3x3"
  top: "inception_3a/3x3"
}
layer {
  name: "inception_3a/5x5_reduce"
  type: "Convolution"
  bottom: "pool2/3x3_s2"
  top: "inception_3a/5x5_reduce"
  param {
    lr_mult: 1
    decay_mult: 1
  }
  param {
    lr_mult: 2
    decay_mult: 0
  }
  convolution_param {
    num_output: 16
    kernel_size: 1
    weight_filler {
      type: "xavier"
      std: 0.2
    }
    bias_filler {
      type: "constant"
      value: 0.2
    }
  }
}
layer {
  name: "inception_3a/relu_5x5_reduce"
  type: "ReLU"
  bottom: "inception_3a/5x5_reduce"
  top: "inception_3a/5x5_reduce"
}
layer {
  name: "inception_3a/5x5"
  type: "Convolution"
  bottom: "inception_3a/5x5_reduce"
  top: "inception_3a/5x5"
  param {
    lr_mult: 1
    decay_mult: 1
  }
  param {
    lr_mult: 2
    decay_mult: 0
  }
  convolution_param {
    num_output: 32
    pad: 2
    kernel_size: 5
    weight_filler {
      type: "xavier"
      std: 0.03
    }
    bias_filler {
      type: "constant"
      value: 0.2
    }
  }
}
layer {
  name: "inception_3a/relu_5x5"
  type: "ReLU"
  bottom: "inception_3a/5x5"
  top: "inception_3a/5x5"
}
layer {
  name: "inception_3a/pool"
  type: "Pooling"
  bottom: "pool2/3x3_s2"
  top: "inception_3a/pool"
  pooling_param {
    pool: MAX
    kernel_size: 3
    stride: 1
    pad: 1
  }
}
layer {
  name: "inception_3a/pool_proj"
  type: "Convolution"
  bottom: "inception_3a/pool"
  top: "inception_3a/pool_proj"
  param {
    lr_mult: 1
    decay_mult: 1
  }
  param {
    lr_mult: 2
    decay_mult: 0
  }
  convolution_param {
    num_output: 32
    kernel_size: 1
    weight_filler {
      type: "xavier"
      std: 0.1
    }
    bias_filler {
      type: "constant"
      value: 0.2
    }
  }
}
layer {
  name: "inception_3a/relu_pool_proj"
  type: "ReLU"
  bottom: "inception_3a/pool_proj"
  top: "inception_3a/pool_proj"
}
layer {
  name: "inception_3a/output"
  type: "Concat"
  bottom: "inception_3a/1x1"
  bottom: "inception_3a/3x3"
  bottom: "inception_3a/5x5"
  bottom: "inception_3a/pool_proj"
  top: "inception_3a/output"
}
layer {
  name: "inception_3b/1x1"
  type: "Convolution"
  bottom: "inception_3a/output"
  top: "inception_3b/1x1"
  param {
    lr_mult: 1
    decay_mult: 1
  }
  param {
    lr_mult: 2
    decay_mult: 0
  }
  convolution_param {
    num_output: 128
    kernel_size: 1
    weight_filler {
      type: "xavier"
      std: 0.03
    }
    bias_filler {
      type: "constant"
      value: 0.2
    }
  }
}
layer {
  name: "inception_3b/relu_1x1"
  type: "ReLU"
  bottom: "inception_3b/1x1"
  top: "inception_3b/1x1"
}
layer {
  name: "inception_3b/3x3_reduce"
  type: "Convolution"
  bottom: "inception_3a/output"
  top: "inception_3b/3x3_reduce"
  param {
    lr_mult: 1
    decay_mult: 1
  }
  param {
    lr_mult: 2
    decay_mult: 0
  }
  convolution_param {
    num_output: 128
    kernel_size: 1
    weight_filler {
      type: "xavier"
      std: 0.09
    }
    bias_filler {
      type: "constant"
      value: 0.2
    }
  }
}
layer {
  name: "inception_3b/relu_3x3_reduce"
  type: "ReLU"
  bottom: "inception_3b/3x3_reduce"
  top: "inception_3b/3x3_reduce"
}
layer {
  name: "inception_3b/3x3"
  type: "Convolution"
  bottom: "inception_3b/3x3_reduce"
  top: "inception_3b/3x3"
  param {
    lr_mult: 1
    decay_mult: 1
  }
  param {
    lr_mult: 2
    decay_mult: 0
  }
  convolution_param {
    num_output: 192
    pad: 1
    kernel_size: 3
    weight_filler {
      type: "xavier"
      std: 0.03
    }
    bias_filler {
      type: "constant"
      value: 0.2
    }
  }
}
layer {
  name: "inception_3b/relu_3x3"
  type: "ReLU"
  bottom: "inception_3b/3x3"
  top: "inception_3b/3x3"
}
layer {
  name: "inception_3b/5x5_reduce"
  type: "Convolution"
  bottom: "inception_3a/output"
  top: "inception_3b/5x5_reduce"
  param {
    lr_mult: 1
    decay_mult: 1
  }
  param {
    lr_mult: 2
    decay_mult: 0
  }
  convolution_param {
    num_output: 32
    kernel_size: 1
    weight_filler {
      type: "xavier"
      std: 0.2
    }
    bias_filler {
      type: "constant"
      value: 0.2
    }
  }
}
layer {
  name: "inception_3b/relu_5x5_reduce"
  type: "ReLU"
  bottom: "inception_3b/5x5_reduce"
  top: "inception_3b/5x5_reduce"
}
layer {
  name: "inception_3b/5x5"
  type: "Convolution"
  bottom: "inception_3b/5x5_reduce"
  top: "inception_3b/5x5"
  param {
    lr_mult: 1
    decay_mult: 1
  }
  param {
    lr_mult: 2
    decay_mult: 0
  }
  convolution_param {
    num_output: 96
    pad: 2
    kernel_size: 5
    weight_filler {
      type: "xavier"
      std: 0.03
    }
    bias_filler {
      type: "constant"
      value: 0.2
    }
  }
}
layer {
  name: "inception_3b/relu_5x5"
  type: "ReLU"
  bottom: "inception_3b/5x5"
  top: "inception_3b/5x5"
}
layer {
  name: "inception_3b/pool"
  type: "Pooling"
  bottom: "inception_3a/output"
  top: "inception_3b/pool"
  pooling_param {
    pool: MAX
    kernel_size: 3
    stride: 1
    pad: 1
  }
}
layer {
  name: "inception_3b/pool_proj"
  type: "Convolution"
  bottom: "inception_3b/pool"
  top: "inception_3b/pool_proj"
  param {
    lr_mult: 1
    decay_mult: 1
  }
  param {
    lr_mult: 2
    decay_mult: 0
  }
  convolution_param {
    num_output: 64
    kernel_size: 1
    weight_filler {
      type: "xavier"
      std: 0.1
    }
    bias_filler {
      type: "constant"
      value: 0.2
    }
  }
}
layer {
  name: "inception_3b/relu_pool_proj"
  type: "ReLU"
  bottom: "inception_3b/pool_proj"
  top: "inception_3b/pool_proj"
}
layer {
  name: "inception_3b/output"
  type: "Concat"
  bottom: "inception_3b/1x1"
  bottom: "inception_3b/3x3"
  bottom: "inception_3b/5x5"
  bottom: "inception_3b/pool_proj"
  top: "inception_3b/output"
}
layer {
  name: "pool3/3x3_s2"
  type: "Pooling"
  bottom: "inception_3b/output"
  top: "pool3/3x3_s2"
  pooling_param {
    pool: MAX
    kernel_size: 3
    stride: 2
  }
}
layer {
  name: "inception_4a/1x1"
  type: "Convolution"
  bottom: "pool3/3x3_s2"
  top: "inception_4a/1x1"
  param {
    lr_mult: 1
    decay_mult: 1
  }
  param {
    lr_mult: 2
    decay_mult: 0
  }
  convolution_param {
    num_output: 192
    kernel_size: 1
    weight_filler {
      type: "xavier"
      std: 0.03
    }
    bias_filler {
      type: "constant"
      value: 0.2
    }
  }
}
layer {
  name: "inception_4a/relu_1x1"
  type: "ReLU"
  bottom: "inception_4a/1x1"
  top: "inception_4a/1x1"
}
layer {
  name: "inception_4a/3x3_reduce"
  type: "Convolution"
  bottom: "pool3/3x3_s2"
  top: "inception_4a/3x3_reduce"
  param {
    lr_mult: 1
    decay_mult: 1
  }
  param {
    lr_mult: 2
    decay_mult: 0
  }
  convolution_param {
    num_output: 96
    kernel_size: 1
    weight_filler {
      type: "xavier"
      std: 0.09
    }
    bias_filler {
      type: "constant"
      value: 0.2
    }
  }
}
layer {
  name: "inception_4a/relu_3x3_reduce"
  type: "ReLU"
  bottom: "inception_4a/3x3_reduce"
  top: "inception_4a/3x3_reduce"
}
layer {
  name: "inception_4a/3x3"
  type: "Convolution"
  bottom: "inception_4a/3x3_reduce"
  top: "inception_4a/3x3"
  param {
    lr_mult: 1
    decay_mult: 1
  }
  param {
    lr_mult: 2
    decay_mult: 0
  }
  convolution_param {
    num_output: 208
    pad: 1
    kernel_size: 3
    weight_filler {
      type: "xavier"
      std: 0.03
    }
    bias_filler {
      type: "constant"
      value: 0.2
    }
  }
}
layer {
  name: "inception_4a/relu_3x3"
  type: "ReLU"
  bottom: "inception_4a/3x3"
  top: "inception_4a/3x3"
}
layer {
  name: "inception_4a/5x5_reduce"
  type: "Convolution"
  bottom: "pool3/3x3_s2"
  top: "inception_4a/5x5_reduce"
  param {
    lr_mult: 1
    decay_mult: 1
  }
  param {
    lr_mult: 2
    decay_mult: 0
  }
  convolution_param {
    num_output: 16
    kernel_size: 1
    weight_filler {
      type: "xavier"
      std: 0.2
    }
    bias_filler {
      type: "constant"
      value: 0.2
    }
  }
}
layer {
  name: "inception_4a/relu_5x5_reduce"
  type: "ReLU"
  bottom: "inception_4a/5x5_reduce"
  top: "inception_4a/5x5_reduce"
}
layer {
  name: "inception_4a/5x5"
  type: "Convolution"
  bottom: "inception_4a/5x5_reduce"
  top: "inception_4a/5x5"
  param {
    lr_mult: 1
    decay_mult: 1
  }
  param {
    lr_mult: 2
    decay_mult: 0
  }
  convolution_param {
    num_output: 48
    pad: 2
    kernel_size: 5
    weight_filler {
      type: "xavier"
      std: 0.03
    }
    bias_filler {
      type: "constant"
      value: 0.2
    }
  }
}
layer {
  name: "inception_4a/relu_5x5"
  type: "ReLU"
  bottom: "inception_4a/5x5"
  top: "inception_4a/5x5"
}
layer {
  name: "inception_4a/pool"
  type: "Pooling"
  bottom: "pool3/3x3_s2"
  top: "inception_4a/pool"
  pooling_param {
    pool: MAX
    kernel_size: 3
    stride: 1
    pad: 1
  }
}
layer {
  name: "inception_4a/pool_proj"
  type: "Convolution"
  bottom: "inception_4a/pool"
  top: "inception_4a/pool_proj"
  param {
    lr_mult: 1
    decay_mult: 1
  }
  param {
    lr_mult: 2
    decay_mult: 0
  }
  convolution_param {
    num_output: 64
    kernel_size: 1
    weight_filler {
      type: "xavier"
      std: 0.1
    }
    bias_filler {
      type: "constant"
      value: 0.2
    }
  }
}
layer {
  name: "inception_4a/relu_pool_proj"
  type: "ReLU"
  bottom: "inception_4a/pool_proj"
  top: "inception_4a/pool_proj"
}
layer {
  name: "inception_4a/output"
  type: "Concat"
  bottom: "inception_4a/1x1"
  bottom: "inception_4a/3x3"
  bottom: "inception_4a/5x5"
  bottom: "inception_4a/pool_proj"
  top: "inception_4a/output"
}
layer {
  name: "loss1/ave_pool"
  type: "Pooling"
  bottom: "inception_4a/output"
  top: "loss1/ave_pool"
  pooling_param {
    pool: AVE
    kernel_size: 5
    stride: 3
  }
}
layer {
  name: "loss1/conv"
  type: "Convolution"
  bottom: "loss1/ave_pool"
  top: "loss1/conv"
  param {
    lr_mult: 1
    decay_mult: 1
  }
  param {
    lr_mult: 2
    decay_mult: 0
  }
  convolution_param {
    num_output: 128
    kernel_size: 1
    weight_filler {
      type: "xavier"
      std: 0.08
    }
    bias_filler {
      type: "constant"
      value: 0.2
    }
  }
}
layer {
  name: "loss1/relu_conv"
  type: "ReLU"
  bottom: "loss1/conv"
  top: "loss1/conv"
}
layer {
  name: "loss1/fc"
  type: "InnerProduct"
  bottom: "loss1/conv"
  top: "loss1/fc"
  param {
    lr_mult: 1
    decay_mult: 1
  }
  param {
    lr_mult: 2
    decay_mult: 0
  }
  inner_product_param {
    num_output: 1024
    weight_filler {
      type: "xavier"
      std: 0.02
    }
    bias_filler {
      type: "constant"
      value: 0.2
    }
  }
}
layer {
  name: "loss1/relu_fc"
  type: "ReLU"
  bottom: "loss1/fc"
  top: "loss1/fc"
}
layer {
  name: "loss1/drop_fc"
  type: "Dropout"
  bottom: "loss1/fc"
  top: "loss1/fc"
  dropout_param {
    dropout_ratio: 0.2
  }
}
layer {
  name: "stanford_cars_loss1/classifier"
  type: "InnerProduct"
  bottom: "loss1/fc"
  top: "stanford_cars_loss1/classifier"
  param {
    lr_mult: 1
    decay_mult: 1
  }
  param {
    lr_mult: 2
    decay_mult: 0
  }
  inner_product_param {
    num_output: 196
    weight_filler {
      type: "xavier"
      std: 0.0009765625
    }
    bias_filler {
      type: "constant"
      value: 0
    }
  }
}
layer {
  name: "loss1/loss"
  type: "SoftmaxWithLoss"
  bottom: "stanford_cars_loss1/classifier"
  bottom: "label"
  top: "loss1/loss1"
  loss_weight: 0.3
}
layer {
  name: "inception_4b/1x1"
  type: "Convolution"
  bottom: "inception_4a/output"
  top: "inception_4b/1x1"
  param {
    lr_mult: 1
    decay_mult: 1
  }
  param {
    lr_mult: 2
    decay_mult: 0
  }
  convolution_param {
    num_output: 160
    kernel_size: 1
    weight_filler {
      type: "xavier"
      std: 0.03
    }
    bias_filler {
      type: "constant"
      value: 0.2
    }
  }
}
layer {
  name: "inception_4b/relu_1x1"
  type: "ReLU"
  bottom: "inception_4b/1x1"
  top: "inception_4b/1x1"
}
layer {
  name: "inception_4b/3x3_reduce"
  type: "Convolution"
  bottom: "inception_4a/output"
  top: "inception_4b/3x3_reduce"
  param {
    lr_mult: 1
    decay_mult: 1
  }
  param {
    lr_mult: 2
    decay_mult: 0
  }
  convolution_param {
    num_output: 112
    kernel_size: 1
    weight_filler {
      type: "xavier"
      std: 0.09
    }
    bias_filler {
      type: "constant"
      value: 0.2
    }
  }
}
layer {
  name: "inception_4b/relu_3x3_reduce"
  type: "ReLU"
  bottom: "inception_4b/3x3_reduce"
  top: "inception_4b/3x3_reduce"
}
layer {
  name: "inception_4b/3x3"
  type: "Convolution"
  bottom: "inception_4b/3x3_reduce"
  top: "inception_4b/3x3"
  param {
    lr_mult: 1
    decay_mult: 1
  }
  param {
    lr_mult: 2
    decay_mult: 0
  }
  convolution_param {
    num_output: 224
    pad: 1
    kernel_size: 3
    weight_filler {
      type: "xavier"
      std: 0.03
    }
    bias_filler {
      type: "constant"
      value: 0.2
    }
  }
}
layer {
  name: "inception_4b/relu_3x3"
  type: "ReLU"
  bottom: "inception_4b/3x3"
  top: "inception_4b/3x3"
}
layer {
  name: "inception_4b/5x5_reduce"
  type: "Convolution"
  bottom: "inception_4a/output"
  top: "inception_4b/5x5_reduce"
  param {
    lr_mult: 1
    decay_mult: 1
  }
  param {
    lr_mult: 2
    decay_mult: 0
  }
  convolution_param {
    num_output: 24
    kernel_size: 1
    weight_filler {
      type: "xavier"
      std: 0.2
    }
    bias_filler {
      type: "constant"
      value: 0.2
    }
  }
}
layer {
  name: "inception_4b/relu_5x5_reduce"
  type: "ReLU"
  bottom: "inception_4b/5x5_reduce"
  top: "inception_4b/5x5_reduce"
}
layer {
  name: "inception_4b/5x5"
  type: "Convolution"
  bottom: "inception_4b/5x5_reduce"
  top: "inception_4b/5x5"
  param {
    lr_mult: 1
    decay_mult: 1
  }
  param {
    lr_mult: 2
    decay_mult: 0
  }
  convolution_param {
    num_output: 64
    pad: 2
    kernel_size: 5
    weight_filler {
      type: "xavier"
      std: 0.03
    }
    bias_filler {
      type: "constant"
      value: 0.2
    }
  }
}
layer {
  name: "inception_4b/relu_5x5"
  type: "ReLU"
  bottom: "inception_4b/5x5"
  top: "inception_4b/5x5"
}
layer {
  name: "inception_4b/pool"
  type: "Pooling"
  bottom: "inception_4a/output"
  top: "inception_4b/pool"
  pooling_param {
    pool: MAX
    kernel_size: 3
    stride: 1
    pad: 1
  }
}
layer {
  name: "inception_4b/pool_proj"
  type: "Convolution"
  bottom: "inception_4b/pool"
  top: "inception_4b/pool_proj"
  param {
    lr_mult: 1
    decay_mult: 1
  }
  param {
    lr_mult: 2
    decay_mult: 0
  }
  convolution_param {
    num_output: 64
    kernel_size: 1
    weight_filler {
      type: "xavier"
      std: 0.1
    }
    bias_filler {
      type: "constant"
      value: 0.2
    }
  }
}
layer {
  name: "inception_4b/relu_pool_proj"
  type: "ReLU"
  bottom: "inception_4b/pool_proj"
  top: "inception_4b/pool_proj"
}
layer {
  name: "inception_4b/output"
  type: "Concat"
  bottom: "inception_4b/1x1"
  bottom: "inception_4b/3x3"
  bottom: "inception_4b/5x5"
  bottom: "inception_4b/pool_proj"
  top: "inception_4b/output"
}
layer {
  name: "inception_4c/1x1"
  type: "Convolution"
  bottom: "inception_4b/output"
  top: "inception_4c/1x1"
  param {
    lr_mult: 1
    decay_mult: 1
  }
  param {
    lr_mult: 2
    decay_mult: 0
  }
  convolution_param {
    num_output: 128
    kernel_size: 1
    weight_filler {
      type: "xavier"
      std: 0.03
    }
    bias_filler {
      type: "constant"
      value: 0.2
    }
  }
}
layer {
  name: "inception_4c/relu_1x1"
  type: "ReLU"
  bottom: "inception_4c/1x1"
  top: "inception_4c/1x1"
}
layer {
  name: "inception_4c/3x3_reduce"
  type: "Convolution"
  bottom: "inception_4b/output"
  top: "inception_4c/3x3_reduce"
  param {
    lr_mult: 1
    decay_mult: 1
  }
  param {
    lr_mult: 2
    decay_mult: 0
  }
  convolution_param {
    num_output: 128
    kernel_size: 1
    weight_filler {
      type: "xavier"
      std: 0.09
    }
    bias_filler {
      type: "constant"
      value: 0.2
    }
  }
}
layer {
  name: "inception_4c/relu_3x3_reduce"
  type: "ReLU"
  bottom: "inception_4c/3x3_reduce"
  top: "inception_4c/3x3_reduce"
}
layer {
  name: "inception_4c/3x3"
  type: "Convolution"
  bottom: "inception_4c/3x3_reduce"
  top: "inception_4c/3x3"
  param {
    lr_mult: 1
    decay_mult: 1
  }
  param {
    lr_mult: 2
    decay_mult: 0
  }
  convolution_param {
    num_output: 256
    pad: 1
    kernel_size: 3
    weight_filler {
      type: "xavier"
      std: 0.03
    }
    bias_filler {
      type: "constant"
      value: 0.2
    }
  }
}
layer {
  name: "inception_4c/relu_3x3"
  type: "ReLU"
  bottom: "inception_4c/3x3"
  top: "inception_4c/3x3"
}
layer {
  name: "inception_4c/5x5_reduce"
  type: "Convolution"
  bottom: "inception_4b/output"
  top: "inception_4c/5x5_reduce"
  param {
    lr_mult: 1
    decay_mult: 1
  }
  param {
    lr_mult: 2
    decay_mult: 0
  }
  convolution_param {
    num_output: 24
    kernel_size: 1
    weight_filler {
      type: "xavier"
      std: 0.2
    }
    bias_filler {
      type: "constant"
      value: 0.2
    }
  }
}
layer {
  name: "inception_4c/relu_5x5_reduce"
  type: "ReLU"
  bottom: "inception_4c/5x5_reduce"
  top: "inception_4c/5x5_reduce"
}
layer {
  name: "inception_4c/5x5"
  type: "Convolution"
  bottom: "inception_4c/5x5_reduce"
  top: "inception_4c/5x5"
  param {
    lr_mult: 1
    decay_mult: 1
  }
  param {
    lr_mult: 2
    decay_mult: 0
  }
  convolution_param {
    num_output: 64
    pad: 2
    kernel_size: 5
    weight_filler {
      type: "xavier"
      std: 0.03
    }
    bias_filler {
      type: "constant"
      value: 0.2
    }
  }
}
layer {
  name: "inception_4c/relu_5x5"
  type: "ReLU"
  bottom: "inception_4c/5x5"
  top: "inception_4c/5x5"
}
layer {
  name: "inception_4c/pool"
  type: "Pooling"
  bottom: "inception_4b/output"
  top: "inception_4c/pool"
  pooling_param {
    pool: MAX
    kernel_size: 3
    stride: 1
    pad: 1
  }
}
layer {
  name: "inception_4c/pool_proj"
  type: "Convolution"
  bottom: "inception_4c/pool"
  top: "inception_4c/pool_proj"
  param {
    lr_mult: 1
    decay_mult: 1
  }
  param {
    lr_mult: 2
    decay_mult: 0
  }
  convolution_param {
    num_output: 64
    kernel_size: 1
    weight_filler {
      type: "xavier"
      std: 0.1
    }
    bias_filler {
      type: "constant"
      value: 0.2
    }
  }
}
layer {
  name: "inception_4c/relu_pool_proj"
  type: "ReLU"
  bottom: "inception_4c/pool_proj"
  top: "inception_4c/pool_proj"
}
layer {
  name: "inception_4c/output"
  type: "Concat"
  bottom: "inception_4c/1x1"
  bottom: "inception_4c/3x3"
  bottom: "inception_4c/5x5"
  bottom: "inception_4c/pool_proj"
  top: "inception_4c/output"
}
layer {
  name: "inception_4d/1x1"
  type: "Convolution"
  bottom: "inception_4c/output"
  top: "inception_4d/1x1"
  param {
    lr_mult: 1
    decay_mult: 1
  }
  param {
    lr_mult: 2
    decay_mult: 0
  }
  convolution_param {
    num_output: 112
    kernel_size: 1
    weight_filler {
      type: "xavier"
      std: 0.03
    }
    bias_filler {
      type: "constant"
      value: 0.2
    }
  }
}
layer {
  name: "inception_4d/relu_1x1"
  type: "ReLU"
  bottom: "inception_4d/1x1"
  top: "inception_4d/1x1"
}
layer {
  name: "inception_4d/3x3_reduce"
  type: "Convolution"
  bottom: "inception_4c/output"
  top: "inception_4d/3x3_reduce"
  param {
    lr_mult: 1
    decay_mult: 1
  }
  param {
    lr_mult: 2
    decay_mult: 0
  }
  convolution_param {
    num_output: 144
    kernel_size: 1
    weight_filler {
      type: "xavier"
      std: 0.09
    }
    bias_filler {
      type: "constant"
      value: 0.2
    }
  }
}
layer {
  name: "inception_4d/relu_3x3_reduce"
  type: "ReLU"
  bottom: "inception_4d/3x3_reduce"
  top: "inception_4d/3x3_reduce"
}
layer {
  name: "inception_4d/3x3"
  type: "Convolution"
  bottom: "inception_4d/3x3_reduce"
  top: "inception_4d/3x3"
  param {
    lr_mult: 1
    decay_mult: 1
  }
  param {
    lr_mult: 2
    decay_mult: 0
  }
  convolution_param {
    num_output: 288
    pad: 1
    kernel_size: 3
    weight_filler {
      type: "xavier"
      std: 0.03
    }
    bias_filler {
      type: "constant"
      value: 0.2
    }
  }
}
layer {
  name: "inception_4d/relu_3x3"
  type: "ReLU"
  bottom: "inception_4d/3x3"
  top: "inception_4d/3x3"
}
layer {
  name: "inception_4d/5x5_reduce"
  type: "Convolution"
  bottom: "inception_4c/output"
  top: "inception_4d/5x5_reduce"
  param {
    lr_mult: 1
    decay_mult: 1
  }
  param {
    lr_mult: 2
    decay_mult: 0
  }
  convolution_param {
    num_output: 32
    kernel_size: 1
    weight_filler {
      type: "xavier"
      std: 0.2
    }
    bias_filler {
      type: "constant"
      value: 0.2
    }
  }
}
layer {
  name: "inception_4d/relu_5x5_reduce"
  type: "ReLU"
  bottom: "inception_4d/5x5_reduce"
  top: "inception_4d/5x5_reduce"
}
layer {
  name: "inception_4d/5x5"
  type: "Convolution"
  bottom: "inception_4d/5x5_reduce"
  top: "inception_4d/5x5"
  param {
    lr_mult: 1
    decay_mult: 1
  }
  param {
    lr_mult: 2
    decay_mult: 0
  }
  convolution_param {
    num_output: 64
    pad: 2
    kernel_size: 5
    weight_filler {
      type: "xavier"
      std: 0.03
    }
    bias_filler {
      type: "constant"
      value: 0.2
    }
  }
}
layer {
  name: "inception_4d/relu_5x5"
  type: "ReLU"
  bottom: "inception_4d/5x5"
  top: "inception_4d/5x5"
}
layer {
  name: "inception_4d/pool"
  type: "Pooling"
  bottom: "inception_4c/output"
  top: "inception_4d/pool"
  pooling_param {
    pool: MAX
    kernel_size: 3
    stride: 1
    pad: 1
  }
}
layer {
  name: "inception_4d/pool_proj"
  type: "Convolution"
  bottom: "inception_4d/pool"
  top: "inception_4d/pool_proj"
  param {
    lr_mult: 1
    decay_mult: 1
  }
  param {
    lr_mult: 2
    decay_mult: 0
  }
  convolution_param {
    num_output: 64
    kernel_size: 1
    weight_filler {
      type: "xavier"
      std: 0.1
    }
    bias_filler {
      type: "constant"
      value: 0.2
    }
  }
}
layer {
  name: "inception_4d/relu_pool_proj"
  type: "ReLU"
  bottom: "inception_4d/pool_proj"
  top: "inception_4d/pool_proj"
}
layer {
  name: "inception_4d/output"
  type: "Concat"
  bottom: "inception_4d/1x1"
  bottom: "inception_4d/3x3"
  bottom: "inception_4d/5x5"
  bottom: "inception_4d/pool_proj"
  top: "inception_4d/output"
}
layer {
  name: "loss2/ave_pool"
  type: "Pooling"
  bottom: "inception_4d/output"
  top: "loss2/ave_pool"
  pooling_param {
    pool: AVE
    kernel_size: 5
    stride: 3
  }
}
layer {
  name: "loss2/conv"
  type: "Convolution"
  bottom: "loss2/ave_pool"
  top: "loss2/conv"
  param {
    lr_mult: 1
    decay_mult: 1
  }
  param {
    lr_mult: 2
    decay_mult: 0
  }
  convolution_param {
    num_output: 128
    kernel_size: 1
    weight_filler {
      type: "xavier"
      std: 0.08
    }
    bias_filler {
      type: "constant"
      value: 0.2
    }
  }
}
layer {
  name: "loss2/relu_conv"
  type: "ReLU"
  bottom: "loss2/conv"
  top: "loss2/conv"
}
layer {
  name: "loss2/fc"
  type: "InnerProduct"
  bottom: "loss2/conv"
  top: "loss2/fc"
  param {
    lr_mult: 1
    decay_mult: 1
  }
  param {
    lr_mult: 2
    decay_mult: 0
  }
  inner_product_param {
    num_output: 1024
    weight_filler {
      type: "xavier"
      std: 0.02
    }
    bias_filler {
      type: "constant"
      value: 0.2
    }
  }
}
layer {
  name: "loss2/relu_fc"
  type: "ReLU"
  bottom: "loss2/fc"
  top: "loss2/fc"
}
layer {
  name: "loss2/drop_fc"
  type: "Dropout"
  bottom: "loss2/fc"
  top: "loss2/fc"
  dropout_param {
    dropout_ratio: 0.2
  }
}
layer {
  name: "stanford_cars_loss2/classifier"
  type: "InnerProduct"
  bottom: "loss2/fc"
  top: "stanford_cars_loss2/classifier"
  param {
    lr_mult: 1
    decay_mult: 1
  }
  param {
    lr_mult: 2
    decay_mult: 0
  }
  inner_product_param {
    num_output: 196
    weight_filler {
      type: "xavier"
      std: 0.0009765625
    }
    bias_filler {
      type: "constant"
      value: 0
    }
  }
}
layer {
  name: "stanford_cars_loss2/loss"
  type: "SoftmaxWithLoss"
  bottom: "stanford_cars_loss2/classifier"
  bottom: "label"
  top: "loss2/loss1"
  loss_weight: 0.3
}
layer {
  name: "inception_4e/1x1"
  type: "Convolution"
  bottom: "inception_4d/output"
  top: "inception_4e/1x1"
  param {
    lr_mult: 1
    decay_mult: 1
  }
  param {
    lr_mult: 2
    decay_mult: 0
  }
  convolution_param {
    num_output: 256
    kernel_size: 1
    weight_filler {
      type: "xavier"
      std: 0.03
    }
    bias_filler {
      type: "constant"
      value: 0.2
    }
  }
}
layer {
  name: "inception_4e/relu_1x1"
  type: "ReLU"
  bottom: "inception_4e/1x1"
  top: "inception_4e/1x1"
}
layer {
  name: "inception_4e/3x3_reduce"
  type: "Convolution"
  bottom: "inception_4d/output"
  top: "inception_4e/3x3_reduce"
  param {
    lr_mult: 1
    decay_mult: 1
  }
  param {
    lr_mult: 2
    decay_mult: 0
  }
  convolution_param {
    num_output: 160
    kernel_size: 1
    weight_filler {
      type: "xavier"
      std: 0.09
    }
    bias_filler {
      type: "constant"
      value: 0.2
    }
  }
}
layer {
  name: "inception_4e/relu_3x3_reduce"
  type: "ReLU"
  bottom: "inception_4e/3x3_reduce"
  top: "inception_4e/3x3_reduce"
}
layer {
  name: "inception_4e/3x3"
  type: "Convolution"
  bottom: "inception_4e/3x3_reduce"
  top: "inception_4e/3x3"
  param {
    lr_mult: 1
    decay_mult: 1
  }
  param {
    lr_mult: 2
    decay_mult: 0
  }
  convolution_param {
    num_output: 320
    pad: 1
    kernel_size: 3
    weight_filler {
      type: "xavier"
      std: 0.03
    }
    bias_filler {
      type: "constant"
      value: 0.2
    }
  }
}
layer {
  name: "inception_4e/relu_3x3"
  type: "ReLU"
  bottom: "inception_4e/3x3"
  top: "inception_4e/3x3"
}
layer {
  name: "inception_4e/5x5_reduce"
  type: "Convolution"
  bottom: "inception_4d/output"
  top: "inception_4e/5x5_reduce"
  param {
    lr_mult: 1
    decay_mult: 1
  }
  param {
    lr_mult: 2
    decay_mult: 0
  }
  convolution_param {
    num_output: 32
    kernel_size: 1
    weight_filler {
      type: "xavier"
      std: 0.2
    }
    
I0703 14:40:16.939364 30328 layer_factory.hpp:74] Creating layer data
I0703 14:40:16.939393 30328 net.cpp:90] Creating Layer data
I0703 14:40:16.939402 30328 net.cpp:368] data -> data
I0703 14:40:16.939424 30328 net.cpp:368] data -> label
I0703 14:40:16.939443 30328 net.cpp:120] Setting up data
I0703 14:40:16.939510 30328 db.cpp:34] Opened lmdb examples/stanford_cars/stanford_cars_train_lmdb
I0703 14:40:16.939681 30328 data_layer.cpp:67] output data size: 30,3,224,224
I0703 14:40:16.941717 30328 net.cpp:127] Top shape: 30 3 224 224 (4515840)
I0703 14:40:16.941757 30328 net.cpp:127] Top shape: 30 (30)
I0703 14:40:16.941766 30328 layer_factory.hpp:74] Creating layer label_data_1_split
I0703 14:40:16.941792 30328 net.cpp:90] Creating Layer label_data_1_split
I0703 14:40:16.941799 30328 net.cpp:410] label_data_1_split <- label
I0703 14:40:16.941812 30328 net.cpp:368] label_data_1_split -> label_data_1_split_0
I0703 14:40:16.941822 30328 net.cpp:368] label_data_1_split -> label_data_1_split_1
I0703 14:40:16.941828 30328 net.cpp:368] label_data_1_split -> label_data_1_split_2
I0703 14:40:16.941835 30328 net.cpp:120] Setting up label_data_1_split
I0703 14:40:16.941844 30328 net.cpp:127] Top shape: 30 (30)
I0703 14:40:16.941879 30328 net.cpp:127] Top shape: 30 (30)
I0703 14:40:16.941884 30328 net.cpp:127] Top shape: 30 (30)
I0703 14:40:16.941900 30328 layer_factory.hpp:74] Creating layer conv1/7x7_s2
I0703 14:40:16.941910 30328 net.cpp:90] Creating Layer conv1/7x7_s2
I0703 14:40:16.941915 30328 net.cpp:410] conv1/7x7_s2 <- data
I0703 14:40:16.941922 30328 net.cpp:368] conv1/7x7_s2 -> conv1/7x7_s2
I0703 14:40:16.941932 30328 net.cpp:120] Setting up conv1/7x7_s2
I0703 14:40:16.972300 30328 net.cpp:127] Top shape: 30 64 112 112 (24084480)
I0703 14:40:16.972333 30328 layer_factory.hpp:74] Creating layer conv1/relu_7x7
I0703 14:40:16.972347 30328 net.cpp:90] Creating Layer conv1/relu_7x7
I0703 14:40:16.972352 30328 net.cpp:410] conv1/relu_7x7 <- conv1/7x7_s2
I0703 14:40:16.972359 30328 net.cpp:357] conv1/relu_7x7 -> conv1/7x7_s2 (in-place)
I0703 14:40:16.972368 30328 net.cpp:120] Setting up conv1/relu_7x7
I0703 14:40:16.972409 30328 net.cpp:127] Top shape: 30 64 112 112 (24084480)
I0703 14:40:16.972417 30328 layer_factory.hpp:74] Creating layer pool1/3x3_s2
I0703 14:40:16.972427 30328 net.cpp:90] Creating Layer pool1/3x3_s2
I0703 14:40:16.972434 30328 net.cpp:410] pool1/3x3_s2 <- conv1/7x7_s2
I0703 14:40:16.972439 30328 net.cpp:368] pool1/3x3_s2 -> pool1/3x3_s2
I0703 14:40:16.972445 30328 net.cpp:120] Setting up pool1/3x3_s2
I0703 14:40:16.972564 30328 net.cpp:127] Top shape: 30 64 56 56 (6021120)
I0703 14:40:16.972574 30328 layer_factory.hpp:74] Creating layer pool1/norm1
I0703 14:40:16.972582 30328 net.cpp:90] Creating Layer pool1/norm1
I0703 14:40:16.972587 30328 net.cpp:410] pool1/norm1 <- pool1/3x3_s2
I0703 14:40:16.972594 30328 net.cpp:368] pool1/norm1 -> pool1/norm1
I0703 14:40:16.972601 30328 net.cpp:120] Setting up pool1/norm1
I0703 14:40:16.972609 30328 net.cpp:127] Top shape: 30 64 56 56 (6021120)
I0703 14:40:16.972615 30328 layer_factory.hpp:74] Creating layer conv2/3x3_reduce
I0703 14:40:16.972622 30328 net.cpp:90] Creating Layer conv2/3x3_reduce
I0703 14:40:16.972627 30328 net.cpp:410] conv2/3x3_reduce <- pool1/norm1
I0703 14:40:16.972633 30328 net.cpp:368] conv2/3x3_reduce -> conv2/3x3_reduce
I0703 14:40:16.972641 30328 net.cpp:120] Setting up conv2/3x3_reduce
I0703 14:40:16.972846 30328 net.cpp:127] Top shape: 30 64 56 56 (6021120)
I0703 14:40:16.972870 30328 layer_factory.hpp:74] Creating layer conv2/relu_3x3_reduce
I0703 14:40:16.972878 30328 net.cpp:90] Creating Layer conv2/relu_3x3_reduce
I0703 14:40:16.972883 30328 net.cpp:410] conv2/relu_3x3_reduce <- conv2/3x3_reduce
I0703 14:40:16.972889 30328 net.cpp:357] conv2/relu_3x3_reduce -> conv2/3x3_reduce (in-place)
I0703 14:40:16.972895 30328 net.cpp:120] Setting up conv2/relu_3x3_reduce
I0703 14:40:16.972941 30328 net.cpp:127] Top shape: 30 64 56 56 (6021120)
I0703 14:40:16.972949 30328 layer_factory.hpp:74] Creating layer conv2/3x3
I0703 14:40:16.972966 30328 net.cpp:90] Creating Layer conv2/3x3
I0703 14:40:16.972971 30328 net.cpp:410] conv2/3x3 <- conv2/3x3_reduce
I0703 14:40:16.972977 30328 net.cpp:368] conv2/3x3 -> conv2/3x3
I0703 14:40:16.972985 30328 net.cpp:120] Setting up conv2/3x3
I0703 14:40:16.973652 30328 net.cpp:127] Top shape: 30 192 56 56 (18063360)
I0703 14:40:16.973666 30328 layer_factory.hpp:74] Creating layer conv2/relu_3x3
I0703 14:40:16.973673 30328 net.cpp:90] Creating Layer conv2/relu_3x3
I0703 14:40:16.973678 30328 net.cpp:410] conv2/relu_3x3 <- conv2/3x3
I0703 14:40:16.973685 30328 net.cpp:357] conv2/relu_3x3 -> conv2/3x3 (in-place)
I0703 14:40:16.973690 30328 net.cpp:120] Setting up conv2/relu_3x3
I0703 14:40:16.973728 30328 net.cpp:127] Top shape: 30 192 56 56 (18063360)
I0703 14:40:16.973736 30328 layer_factory.hpp:74] Creating layer conv2/norm2
I0703 14:40:16.973742 30328 net.cpp:90] Creating Layer conv2/norm2
I0703 14:40:16.973747 30328 net.cpp:410] conv2/norm2 <- conv2/3x3
I0703 14:40:16.973752 30328 net.cpp:368] conv2/norm2 -> conv2/norm2
I0703 14:40:16.973758 30328 net.cpp:120] Setting up conv2/norm2
I0703 14:40:16.973764 30328 net.cpp:127] Top shape: 30 192 56 56 (18063360)
I0703 14:40:16.973769 30328 layer_factory.hpp:74] Creating layer pool2/3x3_s2
I0703 14:40:16.973791 30328 net.cpp:90] Creating Layer pool2/3x3_s2
I0703 14:40:16.973798 30328 net.cpp:410] pool2/3x3_s2 <- conv2/norm2
I0703 14:40:16.973803 30328 net.cpp:368] pool2/3x3_s2 -> pool2/3x3_s2
I0703 14:40:16.973809 30328 net.cpp:120] Setting up pool2/3x3_s2
I0703 14:40:16.973847 30328 net.cpp:127] Top shape: 30 192 28 28 (4515840)
I0703 14:40:16.973855 30328 layer_factory.hpp:74] Creating layer pool2/3x3_s2_pool2/3x3_s2_0_split
I0703 14:40:16.973861 30328 net.cpp:90] Creating Layer pool2/3x3_s2_pool2/3x3_s2_0_split
I0703 14:40:16.973866 30328 net.cpp:410] pool2/3x3_s2_pool2/3x3_s2_0_split <- pool2/3x3_s2
I0703 14:40:16.973872 30328 net.cpp:368] pool2/3x3_s2_pool2/3x3_s2_0_split -> pool2/3x3_s2_pool2/3x3_s2_0_split_0
I0703 14:40:16.973878 30328 net.cpp:368] pool2/3x3_s2_pool2/3x3_s2_0_split -> pool2/3x3_s2_pool2/3x3_s2_0_split_1
I0703 14:40:16.973886 30328 net.cpp:368] pool2/3x3_s2_pool2/3x3_s2_0_split -> pool2/3x3_s2_pool2/3x3_s2_0_split_2
I0703 14:40:16.973891 30328 net.cpp:368] pool2/3x3_s2_pool2/3x3_s2_0_split -> pool2/3x3_s2_pool2/3x3_s2_0_split_3
I0703 14:40:16.973897 30328 net.cpp:120] Setting up pool2/3x3_s2_pool2/3x3_s2_0_split
I0703 14:40:16.973903 30328 net.cpp:127] Top shape: 30 192 28 28 (4515840)
I0703 14:40:16.973908 30328 net.cpp:127] Top shape: 30 192 28 28 (4515840)
I0703 14:40:16.973913 30328 net.cpp:127] Top shape: 30 192 28 28 (4515840)
I0703 14:40:16.973918 30328 net.cpp:127] Top shape: 30 192 28 28 (4515840)
I0703 14:40:16.973922 30328 layer_factory.hpp:74] Creating layer inception_3a/1x1
I0703 14:40:16.973929 30328 net.cpp:90] Creating Layer inception_3a/1x1
I0703 14:40:16.973934 30328 net.cpp:410] inception_3a/1x1 <- pool2/3x3_s2_pool2/3x3_s2_0_split_0
I0703 14:40:16.973940 30328 net.cpp:368] inception_3a/1x1 -> inception_3a/1x1
I0703 14:40:16.973948 30328 net.cpp:120] Setting up inception_3a/1x1
I0703 14:40:16.974185 30328 net.cpp:127] Top shape: 30 64 28 28 (1505280)
I0703 14:40:16.974197 30328 layer_factory.hpp:74] Creating layer inception_3a/relu_1x1
I0703 14:40:16.974205 30328 net.cpp:90] Creating Layer inception_3a/relu_1x1
I0703 14:40:16.974210 30328 net.cpp:410] inception_3a/relu_1x1 <- inception_3a/1x1
I0703 14:40:16.974215 30328 net.cpp:357] inception_3a/relu_1x1 -> inception_3a/1x1 (in-place)
I0703 14:40:16.974221 30328 net.cpp:120] Setting up inception_3a/relu_1x1
I0703 14:40:16.974323 30328 net.cpp:127] Top shape: 30 64 28 28 (1505280)
I0703 14:40:16.974334 30328 layer_factory.hpp:74] Creating layer inception_3a/3x3_reduce
I0703 14:40:16.974340 30328 net.cpp:90] Creating Layer inception_3a/3x3_reduce
I0703 14:40:16.974346 30328 net.cpp:410] inception_3a/3x3_reduce <- pool2/3x3_s2_pool2/3x3_s2_0_split_1
I0703 14:40:16.974354 30328 net.cpp:368] inception_3a/3x3_reduce -> inception_3a/3x3_reduce
I0703 14:40:16.974360 30328 net.cpp:120] Setting up inception_3a/3x3_reduce
I0703 14:40:16.974622 30328 net.cpp:127] Top shape: 30 96 28 28 (2257920)
I0703 14:40:16.974635 30328 layer_factory.hpp:74] Creating layer inception_3a/relu_3x3_reduce
I0703 14:40:16.974642 30328 net.cpp:90] Creating Layer inception_3a/relu_3x3_reduce
I0703 14:40:16.974647 30328 net.cpp:410] inception_3a/relu_3x3_reduce <- inception_3a/3x3_reduce
I0703 14:40:16.974653 30328 net.cpp:357] inception_3a/relu_3x3_reduce -> inception_3a/3x3_reduce (in-place)
I0703 14:40:16.974659 30328 net.cpp:120] Setting up inception_3a/relu_3x3_reduce
I0703 14:40:16.974695 30328 net.cpp:127] Top shape: 30 96 28 28 (2257920)
I0703 14:40:16.974702 30328 layer_factory.hpp:74] Creating layer inception_3a/3x3
I0703 14:40:16.974709 30328 net.cpp:90] Creating Layer inception_3a/3x3
I0703 14:40:16.974714 30328 net.cpp:410] inception_3a/3x3 <- inception_3a/3x3_reduce
I0703 14:40:16.974720 30328 net.cpp:368] inception_3a/3x3 -> inception_3a/3x3
I0703 14:40:16.974727 30328 net.cpp:120] Setting up inception_3a/3x3
I0703 14:40:16.975395 30328 net.cpp:127] Top shape: 30 128 28 28 (3010560)
I0703 14:40:16.975409 30328 layer_factory.hpp:74] Creating layer inception_3a/relu_3x3
I0703 14:40:16.975414 30328 net.cpp:90] Creating Layer inception_3a/relu_3x3
I0703 14:40:16.975430 30328 net.cpp:410] inception_3a/relu_3x3 <- inception_3a/3x3
I0703 14:40:16.975436 30328 net.cpp:357] inception_3a/relu_3x3 -> inception_3a/3x3 (in-place)
I0703 14:40:16.975442 30328 net.cpp:120] Setting up inception_3a/relu_3x3
I0703 14:40:16.975479 30328 net.cpp:127] Top shape: 30 128 28 28 (3010560)
I0703 14:40:16.975486 30328 layer_factory.hpp:74] Creating layer inception_3a/5x5_reduce
I0703 14:40:16.975493 30328 net.cpp:90] Creating Layer inception_3a/5x5_reduce
I0703 14:40:16.975498 30328 net.cpp:410] inception_3a/5x5_reduce <- pool2/3x3_s2_pool2/3x3_s2_0_split_2
I0703 14:40:16.975505 30328 net.cpp:368] inception_3a/5x5_reduce -> inception_3a/5x5_reduce
I0703 14:40:16.975512 30328 net.cpp:120] Setting up inception_3a/5x5_reduce
I0703 14:40:16.975713 30328 net.cpp:127] Top shape: 30 16 28 28 (376320)
I0703 14:40:16.975725 30328 layer_factory.hpp:74] Creating layer inception_3a/relu_5x5_reduce
I0703 14:40:16.975733 30328 net.cpp:90] Creating Layer inception_3a/relu_5x5_reduce
I0703 14:40:16.975738 30328 net.cpp:410] inception_3a/relu_5x5_reduce <- inception_3a/5x5_reduce
I0703 14:40:16.975744 30328 net.cpp:357] inception_3a/relu_5x5_reduce -> inception_3a/5x5_reduce (in-place)
I0703 14:40:16.975749 30328 net.cpp:120] Setting up inception_3a/relu_5x5_reduce
I0703 14:40:16.975853 30328 net.cpp:127] Top shape: 30 16 28 28 (376320)
I0703 14:40:16.975863 30328 layer_factory.hpp:74] Creating layer inception_3a/5x5
I0703 14:40:16.975872 30328 net.cpp:90] Creating Layer inception_3a/5x5
I0703 14:40:16.975875 30328 net.cpp:410] inception_3a/5x5 <- inception_3a/5x5_reduce
I0703 14:40:16.975883 30328 net.cpp:368] inception_3a/5x5 -> inception_3a/5x5
I0703 14:40:16.975889 30328 net.cpp:120] Setting up inception_3a/5x5
I0703 14:40:16.976127 30328 net.cpp:127] Top shape: 30 32 28 28 (752640)
I0703 14:40:16.976140 30328 layer_factory.hpp:74] Creating layer inception_3a/relu_5x5
I0703 14:40:16.976146 30328 net.cpp:90] Creating Layer inception_3a/relu_5x5
I0703 14:40:16.976151 30328 net.cpp:410] inception_3a/relu_5x5 <- inception_3a/5x5
I0703 14:40:16.976157 30328 net.cpp:357] inception_3a/relu_5x5 -> inception_3a/5x5 (in-place)
I0703 14:40:16.976163 30328 net.cpp:120] Setting up inception_3a/relu_5x5
I0703 14:40:16.976200 30328 net.cpp:127] Top shape: 30 32 28 28 (752640)
I0703 14:40:16.976207 30328 layer_factory.hpp:74] Creating layer inception_3a/pool
I0703 14:40:16.976213 30328 layer_factory.cpp:55] CUDNN does not support padding or multiple tops. Using Caffe's own pooling layer.
I0703 14:40:16.976219 30328 net.cpp:90] Creating Layer inception_3a/pool
I0703 14:40:16.976223 30328 net.cpp:410] inception_3a/pool <- pool2/3x3_s2_pool2/3x3_s2_0_split_3
I0703 14:40:16.976229 30328 net.cpp:368] inception_3a/pool -> inception_3a/pool
I0703 14:40:16.976235 30328 net.cpp:120] Setting up inception_3a/pool
I0703 14:40:16.976243 30328 net.cpp:127] Top shape: 30 192 28 28 (4515840)
I0703 14:40:16.976248 30328 layer_factory.hpp:74] Creating layer inception_3a/pool_proj
I0703 14:40:16.976253 30328 net.cpp:90] Creating Layer inception_3a/pool_proj
I0703 14:40:16.976258 30328 net.cpp:410] inception_3a/pool_proj <- inception_3a/pool
I0703 14:40:16.976264 30328 net.cpp:368] inception_3a/pool_proj -> inception_3a/pool_proj
I0703 14:40:16.976271 30328 net.cpp:120] Setting up inception_3a/pool_proj
I0703 14:40:16.976481 30328 net.cpp:127] Top shape: 30 32 28 28 (752640)
I0703 14:40:16.976495 30328 layer_factory.hpp:74] Creating layer inception_3a/relu_pool_proj
I0703 14:40:16.976502 30328 net.cpp:90] Creating Layer inception_3a/relu_pool_proj
I0703 14:40:16.976506 30328 net.cpp:410] inception_3a/relu_pool_proj <- inception_3a/pool_proj
I0703 14:40:16.976512 30328 net.cpp:357] inception_3a/relu_pool_proj -> inception_3a/pool_proj (in-place)
I0703 14:40:16.976518 30328 net.cpp:120] Setting up inception_3a/relu_pool_proj
I0703 14:40:16.976555 30328 net.cpp:127] Top shape: 30 32 28 28 (752640)
I0703 14:40:16.976562 30328 layer_factory.hpp:74] Creating layer inception_3a/output
I0703 14:40:16.976570 30328 net.cpp:90] Creating Layer inception_3a/output
I0703 14:40:16.976583 30328 net.cpp:410] inception_3a/output <- inception_3a/1x1
I0703 14:40:16.976588 30328 net.cpp:410] inception_3a/output <- inception_3a/3x3
I0703 14:40:16.976593 30328 net.cpp:410] inception_3a/output <- inception_3a/5x5
I0703 14:40:16.976598 30328 net.cpp:410] inception_3a/output <- inception_3a/pool_proj
I0703 14:40:16.976604 30328 net.cpp:368] inception_3a/output -> inception_3a/output
I0703 14:40:16.976610 30328 net.cpp:120] Setting up inception_3a/output
I0703 14:40:16.976620 30328 net.cpp:127] Top shape: 30 256 28 28 (6021120)
I0703 14:40:16.976625 30328 layer_factory.hpp:74] Creating layer inception_3a/output_inception_3a/output_0_split
I0703 14:40:16.976632 30328 net.cpp:90] Creating Layer inception_3a/output_inception_3a/output_0_split
I0703 14:40:16.976636 30328 net.cpp:410] inception_3a/output_inception_3a/output_0_split <- inception_3a/output
I0703 14:40:16.976642 30328 net.cpp:368] inception_3a/output_inception_3a/output_0_split -> inception_3a/output_inception_3a/output_0_split_0
I0703 14:40:16.976649 30328 net.cpp:368] inception_3a/output_inception_3a/output_0_split -> inception_3a/output_inception_3a/output_0_split_1
I0703 14:40:16.976655 30328 net.cpp:368] inception_3a/output_inception_3a/output_0_split -> inception_3a/output_inception_3a/output_0_split_2
I0703 14:40:16.976661 30328 net.cpp:368] inception_3a/output_inception_3a/output_0_split -> inception_3a/output_inception_3a/output_0_split_3
I0703 14:40:16.976667 30328 net.cpp:120] Setting up inception_3a/output_inception_3a/output_0_split
I0703 14:40:16.976673 30328 net.cpp:127] Top shape: 30 256 28 28 (6021120)
I0703 14:40:16.976678 30328 net.cpp:127] Top shape: 30 256 28 28 (6021120)
I0703 14:40:16.976683 30328 net.cpp:127] Top shape: 30 256 28 28 (6021120)
I0703 14:40:16.976688 30328 net.cpp:127] Top shape: 30 256 28 28 (6021120)
I0703 14:40:16.976692 30328 layer_factory.hpp:74] Creating layer inception_3b/1x1
I0703 14:40:16.976699 30328 net.cpp:90] Creating Layer inception_3b/1x1
I0703 14:40:16.976703 30328 net.cpp:410] inception_3b/1x1 <- inception_3a/output_inception_3a/output_0_split_0
I0703 14:40:16.976709 30328 net.cpp:368] inception_3b/1x1 -> inception_3b/1x1
I0703 14:40:16.976716 30328 net.cpp:120] Setting up inception_3b/1x1
I0703 14:40:16.977043 30328 net.cpp:127] Top shape: 30 128 28 28 (3010560)
I0703 14:40:16.977056 30328 layer_factory.hpp:74] Creating layer inception_3b/relu_1x1
I0703 14:40:16.977062 30328 net.cpp:90] Creating Layer inception_3b/relu_1x1
I0703 14:40:16.977067 30328 net.cpp:410] inception_3b/relu_1x1 <- inception_3b/1x1
I0703 14:40:16.977072 30328 net.cpp:357] inception_3b/relu_1x1 -> inception_3b/1x1 (in-place)
I0703 14:40:16.977079 30328 net.cpp:120] Setting up inception_3b/relu_1x1
I0703 14:40:16.977115 30328 net.cpp:127] Top shape: 30 128 28 28 (3010560)
I0703 14:40:16.977121 30328 layer_factory.hpp:74] Creating layer inception_3b/3x3_reduce
I0703 14:40:16.977129 30328 net.cpp:90] Creating Layer inception_3b/3x3_reduce
I0703 14:40:16.977133 30328 net.cpp:410] inception_3b/3x3_reduce <- inception_3a/output_inception_3a/output_0_split_1
I0703 14:40:16.977139 30328 net.cpp:368] inception_3b/3x3_reduce -> inception_3b/3x3_reduce
I0703 14:40:16.977146 30328 net.cpp:120] Setting up inception_3b/3x3_reduce
I0703 14:40:16.977470 30328 net.cpp:127] Top shape: 30 128 28 28 (3010560)
I0703 14:40:16.977483 30328 layer_factory.hpp:74] Creating layer inception_3b/relu_3x3_reduce
I0703 14:40:16.977489 30328 net.cpp:90] Creating Layer inception_3b/relu_3x3_reduce
I0703 14:40:16.977494 30328 net.cpp:410] inception_3b/relu_3x3_reduce <- inception_3b/3x3_reduce
I0703 14:40:16.977500 30328 net.cpp:357] inception_3b/relu_3x3_reduce -> inception_3b/3x3_reduce (in-place)
I0703 14:40:16.977506 30328 net.cpp:120] Setting up inception_3b/relu_3x3_reduce
I0703 14:40:16.977607 30328 net.cpp:127] Top shape: 30 128 28 28 (3010560)
I0703 14:40:16.977617 30328 layer_factory.hpp:74] Creating layer inception_3b/3x3
I0703 14:40:16.977627 30328 net.cpp:90] Creating Layer inception_3b/3x3
I0703 14:40:16.977638 30328 net.cpp:410] inception_3b/3x3 <- inception_3b/3x3_reduce
I0703 14:40:16.977645 30328 net.cpp:368] inception_3b/3x3 -> inception_3b/3x3
I0703 14:40:16.977653 30328 net.cpp:120] Setting up inception_3b/3x3
I0703 14:40:16.978848 30328 net.cpp:127] Top shape: 30 192 28 28 (4515840)
I0703 14:40:16.978862 30328 layer_factory.hpp:74] Creating layer inception_3b/relu_3x3
I0703 14:40:16.978868 30328 net.cpp:90] Creating Layer inception_3b/relu_3x3
I0703 14:40:16.978873 30328 net.cpp:410] inception_3b/relu_3x3 <- inception_3b/3x3
I0703 14:40:16.978880 30328 net.cpp:357] inception_3b/relu_3x3 -> inception_3b/3x3 (in-place)
I0703 14:40:16.978886 30328 net.cpp:120] Setting up inception_3b/relu_3x3
I0703 14:40:16.978929 30328 net.cpp:127] Top shape: 30 192 28 28 (4515840)
I0703 14:40:16.978936 30328 layer_factory.hpp:74] Creating layer inception_3b/5x5_reduce
I0703 14:40:16.978943 30328 net.cpp:90] Creating Layer inception_3b/5x5_reduce
I0703 14:40:16.978948 30328 net.cpp:410] inception_3b/5x5_reduce <- inception_3a/output_inception_3a/output_0_split_2
I0703 14:40:16.978955 30328 net.cpp:368] inception_3b/5x5_reduce -> inception_3b/5x5_reduce
I0703 14:40:16.978962 30328 net.cpp:120] Setting up inception_3b/5x5_reduce
I0703 14:40:16.979213 30328 net.cpp:127] Top shape: 30 32 28 28 (752640)
I0703 14:40:16.979225 30328 layer_factory.hpp:74] Creating layer inception_3b/relu_5x5_reduce
I0703 14:40:16.979233 30328 net.cpp:90] Creating Layer inception_3b/relu_5x5_reduce
I0703 14:40:16.979238 30328 net.cpp:410] inception_3b/relu_5x5_reduce <- inception_3b/5x5_reduce
I0703 14:40:16.979243 30328 net.cpp:357] inception_3b/relu_5x5_reduce -> inception_3b/5x5_reduce (in-place)
I0703 14:40:16.979249 30328 net.cpp:120] Setting up inception_3b/relu_5x5_reduce
I0703 14:40:16.979290 30328 net.cpp:127] Top shape: 30 32 28 28 (752640)
I0703 14:40:16.979296 30328 layer_factory.hpp:74] Creating layer inception_3b/5x5
I0703 14:40:16.979305 30328 net.cpp:90] Creating Layer inception_3b/5x5
I0703 14:40:16.979315 30328 net.cpp:410] inception_3b/5x5 <- inception_3b/5x5_reduce
I0703 14:40:16.979321 30328 net.cpp:368] inception_3b/5x5 -> inception_3b/5x5
I0703 14:40:16.979331 30328 net.cpp:120] Setting up inception_3b/5x5
I0703 14:40:16.979912 30328 net.cpp:127] Top shape: 30 96 28 28 (2257920)
I0703 14:40:16.979924 30328 layer_factory.hpp:74] Creating layer inception_3b/relu_5x5
I0703 14:40:16.979930 30328 net.cpp:90] Creating Layer inception_3b/relu_5x5
I0703 14:40:16.979935 30328 net.cpp:410] inception_3b/relu_5x5 <- inception_3b/5x5
I0703 14:40:16.979943 30328 net.cpp:357] inception_3b/relu_5x5 -> inception_3b/5x5 (in-place)
I0703 14:40:16.979948 30328 net.cpp:120] Setting up inception_3b/relu_5x5
I0703 14:40:16.979989 30328 net.cpp:127] Top shape: 30 96 28 28 (2257920)
I0703 14:40:16.979995 30328 layer_factory.hpp:74] Creating layer inception_3b/pool
I0703 14:40:16.980000 30328 layer_factory.cpp:55] CUDNN does not support padding or multiple tops. Using Caffe's own pooling layer.
I0703 14:40:16.980007 30328 net.cpp:90] Creating Layer inception_3b/pool
I0703 14:40:16.980012 30328 net.cpp:410] inception_3b/pool <- inception_3a/output_inception_3a/output_0_split_3
I0703 14:40:16.980017 30328 net.cpp:368] inception_3b/pool -> inception_3b/pool
I0703 14:40:16.980025 30328 net.cpp:120] Setting up inception_3b/pool
I0703 14:40:16.980031 30328 net.cpp:127] Top shape: 30 256 28 28 (6021120)
I0703 14:40:16.980036 30328 layer_factory.hpp:74] Creating layer inception_3b/pool_proj
I0703 14:40:16.980043 30328 net.cpp:90] Creating Layer inception_3b/pool_proj
I0703 14:40:16.980048 30328 net.cpp:410] inception_3b/pool_proj <- inception_3b/pool
I0703 14:40:16.980054 30328 net.cpp:368] inception_3b/pool_proj -> inception_3b/pool_proj
I0703 14:40:16.980061 30328 net.cpp:120] Setting up inception_3b/pool_proj
I0703 14:40:16.980340 30328 net.cpp:127] Top shape: 30 64 28 28 (1505280)
I0703 14:40:16.980352 30328 layer_factory.hpp:74] Creating layer inception_3b/relu_pool_proj
I0703 14:40:16.980360 30328 net.cpp:90] Creating Layer inception_3b/relu_pool_proj
I0703 14:40:16.980372 30328 net.cpp:410] inception_3b/relu_pool_proj <- inception_3b/pool_proj
I0703 14:40:16.980378 30328 net.cpp:357] inception_3b/relu_pool_proj -> inception_3b/pool_proj (in-place)
I0703 14:40:16.980386 30328 net.cpp:120] Setting up inception_3b/relu_pool_proj
I0703 14:40:16.980496 30328 net.cpp:127] Top shape: 30 64 28 28 (1505280)
I0703 14:40:16.980506 30328 layer_factory.hpp:74] Creating layer inception_3b/output
I0703 14:40:16.980515 30328 net.cpp:90] Creating Layer inception_3b/output
I0703 14:40:16.980520 30328 net.cpp:410] inception_3b/output <- inception_3b/1x1
I0703 14:40:16.980525 30328 net.cpp:410] inception_3b/output <- inception_3b/3x3
I0703 14:40:16.980530 30328 net.cpp:410] inception_3b/output <- inception_3b/5x5
I0703 14:40:16.980535 30328 net.cpp:410] inception_3b/output <- inception_3b/pool_proj
I0703 14:40:16.980540 30328 net.cpp:368] inception_3b/output -> inception_3b/output
I0703 14:40:16.980546 30328 net.cpp:120] Setting up inception_3b/output
I0703 14:40:16.980553 30328 net.cpp:127] Top shape: 30 480 28 28 (11289600)
I0703 14:40:16.980558 30328 layer_factory.hpp:74] Creating layer pool3/3x3_s2
I0703 14:40:16.980566 30328 net.cpp:90] Creating Layer pool3/3x3_s2
I0703 14:40:16.980571 30328 net.cpp:410] pool3/3x3_s2 <- inception_3b/output
I0703 14:40:16.980576 30328 net.cpp:368] pool3/3x3_s2 -> pool3/3x3_s2
I0703 14:40:16.980581 30328 net.cpp:120] Setting up pool3/3x3_s2
I0703 14:40:16.980622 30328 net.cpp:127] Top shape: 30 480 14 14 (2822400)
I0703 14:40:16.980628 30328 layer_factory.hpp:74] Creating layer pool3/3x3_s2_pool3/3x3_s2_0_split
I0703 14:40:16.980635 30328 net.cpp:90] Creating Layer pool3/3x3_s2_pool3/3x3_s2_0_split
I0703 14:40:16.980640 30328 net.cpp:410] pool3/3x3_s2_pool3/3x3_s2_0_split <- pool3/3x3_s2
I0703 14:40:16.980645 30328 net.cpp:368] pool3/3x3_s2_pool3/3x3_s2_0_split -> pool3/3x3_s2_pool3/3x3_s2_0_split_0
I0703 14:40:16.980651 30328 net.cpp:368] pool3/3x3_s2_pool3/3x3_s2_0_split -> pool3/3x3_s2_pool3/3x3_s2_0_split_1
I0703 14:40:16.980659 30328 net.cpp:368] pool3/3x3_s2_pool3/3x3_s2_0_split -> pool3/3x3_s2_pool3/3x3_s2_0_split_2
I0703 14:40:16.980665 30328 net.cpp:368] pool3/3x3_s2_pool3/3x3_s2_0_split -> pool3/3x3_s2_pool3/3x3_s2_0_split_3
I0703 14:40:16.980671 30328 net.cpp:120] Setting up pool3/3x3_s2_pool3/3x3_s2_0_split
I0703 14:40:16.980679 30328 net.cpp:127] Top shape: 30 480 14 14 (2822400)
I0703 14:40:16.980684 30328 net.cpp:127] Top shape: 30 480 14 14 (2822400)
I0703 14:40:16.980687 30328 net.cpp:127] Top shape: 30 480 14 14 (2822400)
I0703 14:40:16.980692 30328 net.cpp:127] Top shape: 30 480 14 14 (2822400)
I0703 14:40:16.980697 30328 layer_factory.hpp:74] Creating layer inception_4a/1x1
I0703 14:40:16.980705 30328 net.cpp:90] Creating Layer inception_4a/1x1
I0703 14:40:16.980710 30328 net.cpp:410] inception_4a/1x1 <- pool3/3x3_s2_pool3/3x3_s2_0_split_0
I0703 14:40:16.980715 30328 net.cpp:368] inception_4a/1x1 -> inception_4a/1x1
I0703 14:40:16.980721 30328 net.cpp:120] Setting up inception_4a/1x1
I0703 14:40:16.981372 30328 net.cpp:127] Top shape: 30 192 14 14 (1128960)
I0703 14:40:16.981384 30328 layer_factory.hpp:74] Creating layer inception_4a/relu_1x1
I0703 14:40:16.981392 30328 net.cpp:90] Creating Layer inception_4a/relu_1x1
I0703 14:40:16.981398 30328 net.cpp:410] inception_4a/relu_1x1 <- inception_4a/1x1
I0703 14:40:16.981403 30328 net.cpp:357] inception_4a/relu_1x1 -> inception_4a/1x1 (in-place)
I0703 14:40:16.981410 30328 net.cpp:120] Setting up inception_4a/relu_1x1
I0703 14:40:16.981449 30328 net.cpp:127] Top shape: 30 192 14 14 (1128960)
I0703 14:40:16.981456 30328 layer_factory.hpp:74] Creating layer inception_4a/3x3_reduce
I0703 14:40:16.981464 30328 net.cpp:90] Creating Layer inception_4a/3x3_reduce
I0703 14:40:16.981469 30328 net.cpp:410] inception_4a/3x3_reduce <- pool3/3x3_s2_pool3/3x3_s2_0_split_1
I0703 14:40:16.981477 30328 net.cpp:368] inception_4a/3x3_reduce -> inception_4a/3x3_reduce
I0703 14:40:16.981483 30328 net.cpp:120] Setting up inception_4a/3x3_reduce
I0703 14:40:16.981914 30328 net.cpp:127] Top shape: 30 96 14 14 (564480)
I0703 14:40:16.981935 30328 layer_factory.hpp:74] Creating layer inception_4a/relu_3x3_reduce
I0703 14:40:16.981943 30328 net.cpp:90] Creating Layer inception_4a/relu_3x3_reduce
I0703 14:40:16.981948 30328 net.cpp:410] inception_4a/relu_3x3_reduce <- inception_4a/3x3_reduce
I0703 14:40:16.981955 30328 net.cpp:357] inception_4a/relu_3x3_reduce -> inception_4a/3x3_reduce (in-place)
I0703 14:40:16.981961 30328 net.cpp:120] Setting up inception_4a/relu_3x3_reduce
I0703 14:40:16.982000 30328 net.cpp:127] Top shape: 30 96 14 14 (564480)
I0703 14:40:16.982007 30328 layer_factory.hpp:74] Creating layer inception_4a/3x3
I0703 14:40:16.982014 30328 net.cpp:90] Creating Layer inception_4a/3x3
I0703 14:40:16.982019 30328 net.cpp:410] inception_4a/3x3 <- inception_4a/3x3_reduce
I0703 14:40:16.982027 30328 net.cpp:368] inception_4a/3x3 -> inception_4a/3x3
I0703 14:40:16.982033 30328 net.cpp:120] Setting up inception_4a/3x3
I0703 14:40:16.983110 30328 net.cpp:127] Top shape: 30 208 14 14 (1223040)
I0703 14:40:16.983124 30328 layer_factory.hpp:74] Creating layer inception_4a/relu_3x3
I0703 14:40:16.983130 30328 net.cpp:90] Creating Layer inception_4a/relu_3x3
I0703 14:40:16.983136 30328 net.cpp:410] inception_4a/relu_3x3 <- inception_4a/3x3
I0703 14:40:16.983141 30328 net.cpp:357] inception_4a/relu_3x3 -> inception_4a/3x3 (in-place)
I0703 14:40:16.983149 30328 net.cpp:120] Setting up inception_4a/relu_3x3
I0703 14:40:16.983261 30328 net.cpp:127] Top shape: 30 208 14 14 (1223040)
I0703 14:40:16.983271 30328 layer_factory.hpp:74] Creating layer inception_4a/5x5_reduce
I0703 14:40:16.983279 30328 net.cpp:90] Creating Layer inception_4a/5x5_reduce
I0703 14:40:16.983284 30328 net.cpp:410] inception_4a/5x5_reduce <- pool3/3x3_s2_pool3/3x3_s2_0_split_2
I0703 14:40:16.983290 30328 net.cpp:368] inception_4a/5x5_reduce -> inception_4a/5x5_reduce
I0703 14:40:16.983297 30328 net.cpp:120] Setting up inception_4a/5x5_reduce
I0703 14:40:16.983561 30328 net.cpp:127] Top shape: 30 16 14 14 (94080)
I0703 14:40:16.983572 30328 layer_factory.hpp:74] Creating layer inception_4a/relu_5x5_reduce
I0703 14:40:16.983579 30328 net.cpp:90] Creating Layer inception_4a/relu_5x5_reduce
I0703 14:40:16.983584 30328 net.cpp:410] inception_4a/relu_5x5_reduce <- inception_4a/5x5_reduce
I0703 14:40:16.983592 30328 net.cpp:357] inception_4a/relu_5x5_reduce -> inception_4a/5x5_reduce (in-place)
I0703 14:40:16.983598 30328 net.cpp:120] Setting up inception_4a/relu_5x5_reduce
I0703 14:40:16.983639 30328 net.cpp:127] Top shape: 30 16 14 14 (94080)
I0703 14:40:16.983646 30328 layer_factory.hpp:74] Creating layer inception_4a/5x5
I0703 14:40:16.983654 30328 net.cpp:90] Creating Layer inception_4a/5x5
I0703 14:40:16.983657 30328 net.cpp:410] inception_4a/5x5 <- inception_4a/5x5_reduce
I0703 14:40:16.983664 30328 net.cpp:368] inception_4a/5x5 -> inception_4a/5x5
I0703 14:40:16.983671 30328 net.cpp:120] Setting up inception_4a/5x5
I0703 14:40:16.983966 30328 net.cpp:127] Top shape: 30 48 14 14 (282240)
I0703 14:40:16.983979 30328 layer_factory.hpp:74] Creating layer inception_4a/relu_5x5
I0703 14:40:16.983985 30328 net.cpp:90] Creating Layer inception_4a/relu_5x5
I0703 14:40:16.983990 30328 net.cpp:410] inception_4a/relu_5x5 <- inception_4a/5x5
I0703 14:40:16.983997 30328 net.cpp:357] inception_4a/relu_5x5 -> inception_4a/5x5 (in-place)
I0703 14:40:16.984004 30328 net.cpp:120] Setting up inception_4a/relu_5x5
I0703 14:40:16.984041 30328 net.cpp:127] Top shape: 30 48 14 14 (282240)
I0703 14:40:16.984048 30328 layer_factory.hpp:74] Creating layer inception_4a/pool
I0703 14:40:16.984055 30328 layer_factory.cpp:55] CUDNN does not support padding or multiple tops. Using Caffe's own pooling layer.
I0703 14:40:16.984061 30328 net.cpp:90] Creating Layer inception_4a/pool
I0703 14:40:16.984066 30328 net.cpp:410] inception_4a/pool <- pool3/3x3_s2_pool3/3x3_s2_0_split_3
I0703 14:40:16.984071 30328 net.cpp:368] inception_4a/pool -> inception_4a/pool
I0703 14:40:16.984077 30328 net.cpp:120] Setting up inception_4a/pool
I0703 14:40:16.984084 30328 net.cpp:127] Top shape: 30 480 14 14 (2822400)
I0703 14:40:16.984096 30328 layer_factory.hpp:74] Creating layer inception_4a/pool_proj
I0703 14:40:16.984103 30328 net.cpp:90] Creating Layer inception_4a/pool_proj
I0703 14:40:16.984109 30328 net.cpp:410] inception_4a/pool_proj <- inception_4a/pool
I0703 14:40:16.984115 30328 net.cpp:368] inception_4a/pool_proj -> inception_4a/pool_proj
I0703 14:40:16.984122 30328 net.cpp:120] Setting up inception_4a/pool_proj
I0703 14:40:16.984477 30328 net.cpp:127] Top shape: 30 64 14 14 (376320)
I0703 14:40:16.984490 30328 layer_factory.hpp:74] Creating layer inception_4a/relu_pool_proj
I0703 14:40:16.984496 30328 net.cpp:90] Creating Layer inception_4a/relu_pool_proj
I0703 14:40:16.984503 30328 net.cpp:410] inception_4a/relu_pool_proj <- inception_4a/pool_proj
I0703 14:40:16.984508 30328 net.cpp:357] inception_4a/relu_pool_proj -> inception_4a/pool_proj (in-place)
I0703 14:40:16.984514 30328 net.cpp:120] Setting up inception_4a/relu_pool_proj
I0703 14:40:16.984633 30328 net.cpp:127] Top shape: 30 64 14 14 (376320)
I0703 14:40:16.984643 30328 layer_factory.hpp:74] Creating layer inception_4a/output
I0703 14:40:16.984650 30328 net.cpp:90] Creating Layer inception_4a/output
I0703 14:40:16.984655 30328 net.cpp:410] inception_4a/output <- inception_4a/1x1
I0703 14:40:16.984660 30328 net.cpp:410] inception_4a/output <- inception_4a/3x3
I0703 14:40:16.984665 30328 net.cpp:410] inception_4a/output <- inception_4a/5x5
I0703 14:40:16.984670 30328 net.cpp:410] inception_4a/output <- inception_4a/pool_proj
I0703 14:40:16.984676 30328 net.cpp:368] inception_4a/output -> inception_4a/output
I0703 14:40:16.984683 30328 net.cpp:120] Setting up inception_4a/output
I0703 14:40:16.984689 30328 net.cpp:127] Top shape: 30 512 14 14 (3010560)
I0703 14:40:16.984694 30328 layer_factory.hpp:74] Creating layer inception_4a/output_inception_4a/output_0_split
I0703 14:40:16.984700 30328 net.cpp:90] Creating Layer inception_4a/output_inception_4a/output_0_split
I0703 14:40:16.984705 30328 net.cpp:410] inception_4a/output_inception_4a/output_0_split <- inception_4a/output
I0703 14:40:16.984711 30328 net.cpp:368] inception_4a/output_inception_4a/output_0_split -> inception_4a/output_inception_4a/output_0_split_0
I0703 14:40:16.984719 30328 net.cpp:368] inception_4a/output_inception_4a/output_0_split -> inception_4a/output_inception_4a/output_0_split_1
I0703 14:40:16.984724 30328 net.cpp:368] inception_4a/output_inception_4a/output_0_split -> inception_4a/output_inception_4a/output_0_split_2
I0703 14:40:16.984731 30328 net.cpp:368] inception_4a/output_inception_4a/output_0_split -> inception_4a/output_inception_4a/output_0_split_3
I0703 14:40:16.984737 30328 net.cpp:368] inception_4a/output_inception_4a/output_0_split -> inception_4a/output_inception_4a/output_0_split_4
I0703 14:40:16.984743 30328 net.cpp:120] Setting up inception_4a/output_inception_4a/output_0_split
I0703 14:40:16.984750 30328 net.cpp:127] Top shape: 30 512 14 14 (3010560)
I0703 14:40:16.984755 30328 net.cpp:127] Top shape: 30 512 14 14 (3010560)
I0703 14:40:16.984760 30328 net.cpp:127] Top shape: 30 512 14 14 (3010560)
I0703 14:40:16.984766 30328 net.cpp:127] Top shape: 30 512 14 14 (3010560)
I0703 14:40:16.984769 30328 net.cpp:127] Top shape: 30 512 14 14 (3010560)
I0703 14:40:16.984774 30328 layer_factory.hpp:74] Creating layer loss1/ave_pool
I0703 14:40:16.984781 30328 net.cpp:90] Creating Layer loss1/ave_pool
I0703 14:40:16.984786 30328 net.cpp:410] loss1/ave_pool <- inception_4a/output_inception_4a/output_0_split_0
I0703 14:40:16.984791 30328 net.cpp:368] loss1/ave_pool -> loss1/ave_pool
I0703 14:40:16.984797 30328 net.cpp:120] Setting up loss1/ave_pool
I0703 14:40:16.984836 30328 net.cpp:127] Top shape: 30 512 4 4 (245760)
I0703 14:40:16.984844 30328 layer_factory.hpp:74] Creating layer loss1/conv
I0703 14:40:16.984851 30328 net.cpp:90] Creating Layer loss1/conv
I0703 14:40:16.984856 30328 net.cpp:410] loss1/conv <- loss1/ave_pool
I0703 14:40:16.984863 30328 net.cpp:368] loss1/conv -> loss1/conv
I0703 14:40:16.984869 30328 net.cpp:120] Setting up loss1/conv
I0703 14:40:16.985385 30328 net.cpp:127] Top shape: 30 128 4 4 (61440)
I0703 14:40:16.985404 30328 layer_factory.hpp:74] Creating layer loss1/relu_conv
I0703 14:40:16.985412 30328 net.cpp:90] Creating Layer loss1/relu_conv
I0703 14:40:16.985419 30328 net.cpp:410] loss1/relu_conv <- loss1/conv
I0703 14:40:16.985424 30328 net.cpp:357] loss1/relu_conv -> loss1/conv (in-place)
I0703 14:40:16.985430 30328 net.cpp:120] Setting up loss1/relu_conv
I0703 14:40:16.985471 30328 net.cpp:127] Top shape: 30 128 4 4 (61440)
I0703 14:40:16.985477 30328 layer_factory.hpp:74] Creating layer loss1/fc
I0703 14:40:16.985488 30328 net.cpp:90] Creating Layer loss1/fc
I0703 14:40:16.985493 30328 net.cpp:410] loss1/fc <- loss1/conv
I0703 14:40:16.985499 30328 net.cpp:368] loss1/fc -> loss1/fc
I0703 14:40:16.985508 30328 net.cpp:120] Setting up loss1/fc
I0703 14:40:16.995483 30328 net.cpp:127] Top shape: 30 1024 (30720)
I0703 14:40:16.995519 30328 layer_factory.hpp:74] Creating layer loss1/relu_fc
I0703 14:40:16.995529 30328 net.cpp:90] Creating Layer loss1/relu_fc
I0703 14:40:16.995537 30328 net.cpp:410] loss1/relu_fc <- loss1/fc
I0703 14:40:16.995545 30328 net.cpp:357] loss1/relu_fc -> loss1/fc (in-place)
I0703 14:40:16.995553 30328 net.cpp:120] Setting up loss1/relu_fc
I0703 14:40:16.995637 30328 net.cpp:127] Top shape: 30 1024 (30720)
I0703 14:40:16.995645 30328 layer_factory.hpp:74] Creating layer loss1/drop_fc
I0703 14:40:16.995671 30328 net.cpp:90] Creating Layer loss1/drop_fc
I0703 14:40:16.995677 30328 net.cpp:410] loss1/drop_fc <- loss1/fc
I0703 14:40:16.995683 30328 net.cpp:357] loss1/drop_fc -> loss1/fc (in-place)
I0703 14:40:16.995692 30328 net.cpp:120] Setting up loss1/drop_fc
I0703 14:40:16.995700 30328 net.cpp:127] Top shape: 30 1024 (30720)
I0703 14:40:16.995705 30328 layer_factory.hpp:74] Creating layer stanford_cars_loss1/classifier
I0703 14:40:16.995713 30328 net.cpp:90] Creating Layer stanford_cars_loss1/classifier
I0703 14:40:16.995718 30328 net.cpp:410] stanford_cars_loss1/classifier <- loss1/fc
I0703 14:40:16.995724 30328 net.cpp:368] stanford_cars_loss1/classifier -> stanford_cars_loss1/classifier
I0703 14:40:16.995733 30328 net.cpp:120] Setting up stanford_cars_loss1/classifier
I0703 14:40:16.996731 30328 net.cpp:127] Top shape: 30 196 (5880)
I0703 14:40:16.996752 30328 layer_factory.hpp:74] Creating layer loss1/loss
I0703 14:40:16.996759 30328 net.cpp:90] Creating Layer loss1/loss
I0703 14:40:16.996765 30328 net.cpp:410] loss1/loss <- stanford_cars_loss1/classifier
I0703 14:40:16.996770 30328 net.cpp:410] loss1/loss <- label_data_1_split_0
I0703 14:40:16.996778 30328 net.cpp:368] loss1/loss -> loss1/loss1
I0703 14:40:16.996785 30328 net.cpp:120] Setting up loss1/loss
I0703 14:40:16.996793 30328 layer_factory.hpp:74] Creating layer loss1/loss
I0703 14:40:16.996981 30328 net.cpp:127] Top shape: (1)
I0703 14:40:16.996991 30328 net.cpp:129]     with loss weight 0.3
I0703 14:40:16.997020 30328 layer_factory.hpp:74] Creating layer inception_4b/1x1
I0703 14:40:16.997030 30328 net.cpp:90] Creating Layer inception_4b/1x1
I0703 14:40:16.997035 30328 net.cpp:410] inception_4b/1x1 <- inception_4a/output_inception_4a/output_0_split_1
I0703 14:40:16.997043 30328 net.cpp:368] inception_4b/1x1 -> inception_4b/1x1
I0703 14:40:16.997051 30328 net.cpp:120] Setting up inception_4b/1x1
I0703 14:40:16.997664 30328 net.cpp:127] Top shape: 30 160 14 14 (940800)
I0703 14:40:16.997687 30328 layer_factory.hpp:74] Creating layer inception_4b/relu_1x1
I0703 14:40:16.997696 30328 net.cpp:90] Creating Layer inception_4b/relu_1x1
I0703 14:40:16.997701 30328 net.cpp:410] inception_4b/relu_1x1 <- inception_4b/1x1
I0703 14:40:16.997707 30328 net.cpp:357] inception_4b/relu_1x1 -> inception_4b/1x1 (in-place)
I0703 14:40:16.997714 30328 net.cpp:120] Setting up inception_4b/relu_1x1
I0703 14:40:16.997763 30328 net.cpp:127] Top shape: 30 160 14 14 (940800)
I0703 14:40:16.997771 30328 layer_factory.hpp:74] Creating layer inception_4b/3x3_reduce
I0703 14:40:16.997788 30328 net.cpp:90] Creating Layer inception_4b/3x3_reduce
I0703 14:40:16.997793 30328 net.cpp:410] inception_4b/3x3_reduce <- inception_4a/output_inception_4a/output_0_split_2
I0703 14:40:16.997817 30328 net.cpp:368] inception_4b/3x3_reduce -> inception_4b/3x3_reduce
I0703 14:40:16.997824 30328 net.cpp:120] Setting up inception_4b/3x3_reduce
I0703 14:40:16.998317 30328 net.cpp:127] Top shape: 30 112 14 14 (658560)
I0703 14:40:16.998339 30328 layer_factory.hpp:74] Creating layer inception_4b/relu_3x3_reduce
I0703 14:40:16.998347 30328 net.cpp:90] Creating Layer inception_4b/relu_3x3_reduce
I0703 14:40:16.998353 30328 net.cpp:410] inception_4b/relu_3x3_reduce <- inception_4b/3x3_reduce
I0703 14:40:16.998359 30328 net.cpp:357] inception_4b/relu_3x3_reduce -> inception_4b/3x3_reduce (in-place)
I0703 14:40:16.998366 30328 net.cpp:120] Setting up inception_4b/relu_3x3_reduce
I0703 14:40:16.998415 30328 net.cpp:127] Top shape: 30 112 14 14 (658560)
I0703 14:40:16.998422 30328 layer_factory.hpp:74] Creating layer inception_4b/3x3
I0703 14:40:16.998440 30328 net.cpp:90] Creating Layer inception_4b/3x3
I0703 14:40:16.998445 30328 net.cpp:410] inception_4b/3x3 <- inception_4b/3x3_reduce
I0703 14:40:16.998452 30328 net.cpp:368] inception_4b/3x3 -> inception_4b/3x3
I0703 14:40:16.998461 30328 net.cpp:120] Setting up inception_4b/3x3
I0703 14:40:16.999789 30328 net.cpp:127] Top shape: 30 224 14 14 (1317120)
I0703 14:40:16.999812 30328 layer_factory.hpp:74] Creating layer inception_4b/relu_3x3
I0703 14:40:16.999819 30328 net.cpp:90] Creating Layer inception_4b/relu_3x3
I0703 14:40:16.999825 30328 net.cpp:410] inception_4b/relu_3x3 <- inception_4b/3x3
I0703 14:40:16.999830 30328 net.cpp:357] inception_4b/relu_3x3 -> inception_4b/3x3 (in-place)
I0703 14:40:16.999837 30328 net.cpp:120] Setting up inception_4b/relu_3x3
I0703 14:40:16.999887 30328 net.cpp:127] Top shape: 30 224 14 14 (1317120)
I0703 14:40:16.999896 30328 layer_factory.hpp:74] Creating layer inception_4b/5x5_reduce
I0703 14:40:16.999912 30328 net.cpp:90] Creating Layer inception_4b/5x5_reduce
I0703 14:40:16.999918 30328 net.cpp:410] inception_4b/5x5_reduce <- inception_4a/output_inception_4a/output_0_split_3
I0703 14:40:16.999924 30328 net.cpp:368] inception_4b/5x5_reduce -> inception_4b/5x5_reduce
I0703 14:40:16.999932 30328 net.cpp:120] Setting up inception_4b/5x5_reduce
I0703 14:40:17.000231 30328 net.cpp:127] Top shape: 30 24 14 14 (141120)
I0703 14:40:17.000253 30328 layer_factory.hpp:74] Creating layer inception_4b/relu_5x5_reduce
I0703 14:40:17.000260 30328 net.cpp:90] Creating Layer inception_4b/relu_5x5_reduce
I0703 14:40:17.000265 30328 net.cpp:410] inception_4b/relu_5x5_reduce <- inception_4b/5x5_reduce
I0703 14:40:17.000272 30328 net.cpp:357] inception_4b/relu_5x5_reduce -> inception_4b/5x5_reduce (in-place)
I0703 14:40:17.000278 30328 net.cpp:120] Setting up inception_4b/relu_5x5_reduce
I0703 14:40:17.000399 30328 net.cpp:127] Top shape: 30 24 14 14 (141120)
I0703 14:40:17.000418 30328 layer_factory.hpp:74] Creating layer inception_4b/5x5
I0703 14:40:17.000427 30328 net.cpp:90] Creating Layer inception_4b/5x5
I0703 14:40:17.000432 30328 net.cpp:410] inception_4b/5x5 <- inception_4b/5x5_reduce
I0703 14:40:17.000439 30328 net.cpp:368] inception_4b/5x5 -> inception_4b/5x5
I0703 14:40:17.000447 30328 net.cpp:120] Setting up inception_4b/5x5
I0703 14:40:17.000840 30328 net.cpp:127] Top shape: 30 64 14 14 (376320)
I0703 14:40:17.000862 30328 layer_factory.hpp:74] Creating layer inception_4b/relu_5x5
I0703 14:40:17.000870 30328 net.cpp:90] Creating Layer inception_4b/relu_5x5
I0703 14:40:17.000875 30328 net.cpp:410] inception_4b/relu_5x5 <- inception_4b/5x5
I0703 14:40:17.000881 30328 net.cpp:357] inception_4b/relu_5x5 -> inception_4b/5x5 (in-place)
I0703 14:40:17.000888 30328 net.cpp:120] Setting up inception_4b/relu_5x5
I0703 14:40:17.000939 30328 net.cpp:127] Top shape: 30 64 14 14 (376320)
I0703 14:40:17.000946 30328 layer_factory.hpp:74] Creating layer inception_4b/pool
I0703 14:40:17.000962 30328 layer_factory.cpp:55] CUDNN does not support padding or multiple tops. Using Caffe's own pooling layer.
I0703 14:40:17.000969 30328 net.cpp:90] Creating Layer inception_4b/pool
I0703 14:40:17.000982 30328 net.cpp:410] inception_4b/pool <- inception_4a/output_inception_4a/output_0_split_4
I0703 14:40:17.000988 30328 net.cpp:368] inception_4b/pool -> inception_4b/pool
I0703 14:40:17.001000 30328 net.cpp:120] Setting up inception_4b/pool
I0703 14:40:17.001010 30328 net.cpp:127] Top shape: 30 512 14 14 (3010560)
I0703 14:40:17.001015 30328 layer_factory.hpp:74] Creating layer inception_4b/pool_proj
I0703 14:40:17.001024 30328 net.cpp:90] Creating Layer inception_4b/pool_proj
I0703 14:40:17.001029 30328 net.cpp:410] inception_4b/pool_proj <- inception_4b/pool
I0703 14:40:17.001035 30328 net.cpp:368] inception_4b/pool_proj -> inception_4b/pool_proj
I0703 14:40:17.001042 30328 net.cpp:120] Setting up inception_4b/pool_proj
I0703 14:40:17.001412 30328 net.cpp:127] Top shape: 30 64 14 14 (376320)
I0703 14:40:17.001435 30328 layer_factory.hpp:74] Creating layer inception_4b/relu_pool_proj
I0703 14:40:17.001442 30328 net.cpp:90] Creating Layer inception_4b/relu_pool_proj
I0703 14:40:17.001448 30328 net.cpp:410] inception_4b/relu_pool_proj <- inception_4b/pool_proj
I0703 14:40:17.001454 30328 net.cpp:357] inception_4b/relu_pool_proj -> inception_4b/pool_proj (in-place)
I0703 14:40:17.001461 30328 net.cpp:120] Setting up inception_4b/relu_pool_proj
I0703 14:40:17.001513 30328 net.cpp:127] Top shape: 30 64 14 14 (376320)
I0703 14:40:17.001519 30328 layer_factory.hpp:74] Creating layer inception_4b/output
I0703 14:40:17.001536 30328 net.cpp:90] Creating Layer inception_4b/output
I0703 14:40:17.001541 30328 net.cpp:410] inception_4b/output <- inception_4b/1x1
I0703 14:40:17.001546 30328 net.cpp:410] inception_4b/output <- inception_4b/3x3
I0703 14:40:17.001551 30328 net.cpp:410] inception_4b/output <- inception_4b/5x5
I0703 14:40:17.001556 30328 net.cpp:410] inception_4b/output <- inception_4b/pool_proj
I0703 14:40:17.001561 30328 net.cpp:368] inception_4b/output -> inception_4b/output
I0703 14:40:17.001567 30328 net.cpp:120] Setting up inception_4b/output
I0703 14:40:17.001575 30328 net.cpp:127] Top shape: 30 512 14 14 (3010560)
I0703 14:40:17.001580 30328 layer_factory.hpp:74] Creating layer inception_4b/output_inception_4b/output_0_split
I0703 14:40:17.001587 30328 net.cpp:90] Creating Layer inception_4b/output_inception_4b/output_0_split
I0703 14:40:17.001592 30328 net.cpp:410] inception_4b/output_inception_4b/output_0_split <- inception_4b/output
I0703 14:40:17.001598 30328 net.cpp:368] inception_4b/output_inception_4b/output_0_split -> inception_4b/output_inception_4b/output_0_split_0
I0703 14:40:17.001605 30328 net.cpp:368] inception_4b/output_inception_4b/output_0_split -> inception_4b/output_inception_4b/output_0_split_1
I0703 14:40:17.001612 30328 net.cpp:368] inception_4b/output_inception_4b/output_0_split -> inception_4b/output_inception_4b/output_0_split_2
I0703 14:40:17.001619 30328 net.cpp:368] inception_4b/output_inception_4b/output_0_split -> inception_4b/output_inception_4b/output_0_split_3
I0703 14:40:17.001626 30328 net.cpp:120] Setting up inception_4b/output_inception_4b/output_0_split
I0703 14:40:17.001631 30328 net.cpp:127] Top shape: 30 512 14 14 (3010560)
I0703 14:40:17.001637 30328 net.cpp:127] Top shape: 30 512 14 14 (3010560)
I0703 14:40:17.001642 30328 net.cpp:127] Top shape: 30 512 14 14 (3010560)
I0703 14:40:17.001647 30328 net.cpp:127] Top shape: 30 512 14 14 (3010560)
I0703 14:40:17.001652 30328 layer_factory.hpp:74] Creating layer inception_4c/1x1
I0703 14:40:17.001658 30328 net.cpp:90] Creating Layer inception_4c/1x1
I0703 14:40:17.001663 30328 net.cpp:410] inception_4c/1x1 <- inception_4b/output_inception_4b/output_0_split_0
I0703 14:40:17.001670 30328 net.cpp:368] inception_4c/1x1 -> inception_4c/1x1
I0703 14:40:17.001677 30328 net.cpp:120] Setting up inception_4c/1x1
I0703 14:40:17.002203 30328 net.cpp:127] Top shape: 30 128 14 14 (752640)
I0703 14:40:17.002226 30328 layer_factory.hpp:74] Creating layer inception_4c/relu_1x1
I0703 14:40:17.002233 30328 net.cpp:90] Creating Layer inception_4c/relu_1x1
I0703 14:40:17.002238 30328 net.cpp:410] inception_4c/relu_1x1 <- inception_4c/1x1
I0703 14:40:17.002250 30328 net.cpp:357] inception_4c/relu_1x1 -> inception_4c/1x1 (in-place)
I0703 14:40:17.002257 30328 net.cpp:120] Setting up inception_4c/relu_1x1
I0703 14:40:17.002310 30328 net.cpp:127] Top shape: 30 128 14 14 (752640)
I0703 14:40:17.002316 30328 layer_factory.hpp:74] Creating layer inception_4c/3x3_reduce
I0703 14:40:17.002334 30328 net.cpp:90] Creating Layer inception_4c/3x3_reduce
I0703 14:40:17.002339 30328 net.cpp:410] inception_4c/3x3_reduce <- inception_4b/output_inception_4b/output_0_split_1
I0703 14:40:17.002346 30328 net.cpp:368] inception_4c/3x3_reduce -> inception_4c/3x3_reduce
I0703 14:40:17.002354 30328 net.cpp:120] Setting up inception_4c/3x3_reduce
I0703 14:40:17.002883 30328 net.cpp:127] Top shape: 30 128 14 14 (752640)
I0703 14:40:17.002905 30328 layer_factory.hpp:74] Creating layer inception_4c/relu_3x3_reduce
I0703 14:40:17.002912 30328 net.cpp:90] Creating Layer inception_4c/relu_3x3_reduce
I0703 14:40:17.002918 30328 net.cpp:410] inception_4c/relu_3x3_reduce <- inception_4c/3x3_reduce
I0703 14:40:17.002924 30328 net.cpp:357] inception_4c/relu_3x3_reduce -> inception_4c/3x3_reduce (in-place)
I0703 14:40:17.002931 30328 net.cpp:120] Setting up inception_4c/relu_3x3_reduce
I0703 14:40:17.003049 30328 net.cpp:127] Top shape: 30 128 14 14 (752640)
I0703 14:40:17.003068 30328 layer_factory.hpp:74] Creating layer inception_4c/3x3
I0703 14:40:17.003077 30328 net.cpp:90] Creating Layer inception_4c/3x3
I0703 14:40:17.003083 30328 net.cpp:410] inception_4c/3x3 <- inception_4c/3x3_reduce
I0703 14:40:17.003090 30328 net.cpp:368] inception_4c/3x3 -> inception_4c/3x3
I0703 14:40:17.003098 30328 net.cpp:120] Setting up inception_4c/3x3
I0703 14:40:17.004761 30328 net.cpp:127] Top shape: 30 256 14 14 (1505280)
I0703 14:40:17.004791 30328 layer_factory.hpp:74] Creating layer inception_4c/relu_3x3
I0703 14:40:17.004801 30328 net.cpp:90] Creating Layer inception_4c/relu_3x3
I0703 14:40:17.004807 30328 net.cpp:410] inception_4c/relu_3x3 <- inception_4c/3x3
I0703 14:40:17.004814 30328 net.cpp:357] inception_4c/relu_3x3 -> inception_4c/3x3 (in-place)
I0703 14:40:17.004820 30328 net.cpp:120] Setting up inception_4c/relu_3x3
I0703 14:40:17.004873 30328 net.cpp:127] Top shape: 30 256 14 14 (1505280)
I0703 14:40:17.004879 30328 layer_factory.hpp:74] Creating layer inception_4c/5x5_reduce
I0703 14:40:17.004896 30328 net.cpp:90] Creating Layer inception_4c/5x5_reduce
I0703 14:40:17.004901 30328 net.cpp:410] inception_4c/5x5_reduce <- inception_4b/output_inception_4b/output_0_split_2
I0703 14:40:17.004909 30328 net.cpp:368] inception_4c/5x5_reduce -> inception_4c/5x5_reduce
I0703 14:40:17.004915 30328 net.cpp:120] Setting up inception_4c/5x5_reduce
I0703 14:40:17.005187 30328 net.cpp:127] Top shape: 30 24 14 14 (141120)
I0703 14:40:17.005210 30328 layer_factory.hpp:74] Creating layer inception_4c/relu_5x5_reduce
I0703 14:40:17.005218 30328 net.cpp:90] Creating Layer inception_4c/relu_5x5_reduce
I0703 14:40:17.005223 30328 net.cpp:410] inception_4c/relu_5x5_reduce <- inception_4c/5x5_reduce
I0703 14:40:17.005228 30328 net.cpp:357] inception_4c/relu_5x5_reduce -> inception_4c/5x5_reduce (in-place)
I0703 14:40:17.005235 30328 net.cpp:120] Setting up inception_4c/relu_5x5_reduce
I0703 14:40:17.005285 30328 net.cpp:127] Top shape: 30 24 14 14 (141120)
I0703 14:40:17.005292 30328 layer_factory.hpp:74] Creating layer inception_4c/5x5
I0703 14:40:17.005309 30328 net.cpp:90] Creating Layer inception_4c/5x5
I0703 14:40:17.005314 30328 net.cpp:410] inception_4c/5x5 <- inception_4c/5x5_reduce
I0703 14:40:17.005321 30328 net.cpp:368] inception_4c/5x5 -> inception_4c/5x5
I0703 14:40:17.005328 30328 net.cpp:120] Setting up inception_4c/5x5
I0703 14:40:17.005725 30328 net.cpp:127] Top shape: 30 64 14 14 (376320)
I0703 14:40:17.005748 30328 layer_factory.hpp:74] Creating layer inception_4c/relu_5x5
I0703 14:40:17.005755 30328 net.cpp:90] Creating Layer inception_4c/relu_5x5
I0703 14:40:17.005760 30328 net.cpp:410] inception_4c/relu_5x5 <- inception_4c/5x5
I0703 14:40:17.005766 30328 net.cpp:357] inception_4c/relu_5x5 -> inception_4c/5x5 (in-place)
I0703 14:40:17.005781 30328 net.cpp:120] Setting up inception_4c/relu_5x5
I0703 14:40:17.005903 30328 net.cpp:127] Top shape: 30 64 14 14 (376320)
I0703 14:40:17.005923 30328 layer_factory.hpp:74] Creating layer inception_4c/pool
I0703 14:40:17.005928 30328 layer_factory.cpp:55] CUDNN does not support padding or multiple tops. Using Caffe's own pooling layer.
I0703 14:40:17.005934 30328 net.cpp:90] Creating Layer inception_4c/pool
I0703 14:40:17.005940 30328 net.cpp:410] inception_4c/pool <- inception_4b/output_inception_4b/output_0_split_3
I0703 14:40:17.005947 30328 net.cpp:368] inception_4c/pool -> inception_4c/pool
I0703 14:40:17.005954 30328 net.cpp:120] Setting up inception_4c/pool
I0703 14:40:17.005961 30328 net.cpp:127] Top shape: 30 512 14 14 (3010560)
I0703 14:40:17.005966 30328 layer_factory.hpp:74] Creating layer inception_4c/pool_proj
I0703 14:40:17.005973 30328 net.cpp:90] Creating Layer inception_4c/pool_proj
I0703 14:40:17.005978 30328 net.cpp:410] inception_4c/pool_proj <- inception_4c/pool
I0703 14:40:17.005986 30328 net.cpp:368] inception_4c/pool_proj -> inception_4c/pool_proj
I0703 14:40:17.005993 30328 net.cpp:120] Setting up inception_4c/pool_proj
I0703 14:40:17.006360 30328 net.cpp:127] Top shape: 30 64 14 14 (376320)
I0703 14:40:17.006381 30328 layer_factory.hpp:74] Creating layer inception_4c/relu_pool_proj
I0703 14:40:17.006388 30328 net.cpp:90] Creating Layer inception_4c/relu_pool_proj
I0703 14:40:17.006394 30328 net.cpp:410] inception_4c/relu_pool_proj <- inception_4c/pool_proj
I0703 14:40:17.006400 30328 net.cpp:357] inception_4c/relu_pool_proj -> inception_4c/pool_proj (in-place)
I0703 14:40:17.006407 30328 net.cpp:120] Setting up inception_4c/relu_pool_proj
I0703 14:40:17.006458 30328 net.cpp:127] Top shape: 30 64 14 14 (376320)
I0703 14:40:17.006465 30328 layer_factory.hpp:74] Creating layer inception_4c/output
I0703 14:40:17.006481 30328 net.cpp:90] Creating Layer inception_4c/output
I0703 14:40:17.006486 30328 net.cpp:410] inception_4c/output <- inception_4c/1x1
I0703 14:40:17.006491 30328 net.cpp:410] inception_4c/output <- inception_4c/3x3
I0703 14:40:17.006496 30328 net.cpp:410] inception_4c/output <- inception_4c/5x5
I0703 14:40:17.006501 30328 net.cpp:410] inception_4c/output <- inception_4c/pool_proj
I0703 14:40:17.006507 30328 net.cpp:368] inception_4c/output -> inception_4c/output
I0703 14:40:17.006513 30328 net.cpp:120] Setting up inception_4c/output
I0703 14:40:17.006520 30328 net.cpp:127] Top shape: 30 512 14 14 (3010560)
I0703 14:40:17.006525 30328 layer_factory.hpp:74] Creating layer inception_4c/output_inception_4c/output_0_split
I0703 14:40:17.006531 30328 net.cpp:90] Creating Layer inception_4c/output_inception_4c/output_0_split
I0703 14:40:17.006536 30328 net.cpp:410] inception_4c/output_inception_4c/output_0_split <- inception_4c/output
I0703 14:40:17.006546 30328 net.cpp:368] inception_4c/output_inception_4c/output_0_split -> inception_4c/output_inception_4c/output_0_split_0
I0703 14:40:17.006554 30328 net.cpp:368] inception_4c/output_inception_4c/output_0_split -> inception_4c/output_inception_4c/output_0_split_1
I0703 14:40:17.006561 30328 net.cpp:368] inception_4c/output_inception_4c/output_0_split -> inception_4c/output_inception_4c/output_0_split_2
I0703 14:40:17.006568 30328 net.cpp:368] inception_4c/output_inception_4c/output_0_split -> inception_4c/output_inception_4c/output_0_split_3
I0703 14:40:17.006577 30328 net.cpp:120] Setting up inception_4c/output_inception_4c/output_0_split
I0703 14:40:17.006583 30328 net.cpp:127] Top shape: 30 512 14 14 (3010560)
I0703 14:40:17.006588 30328 net.cpp:127] Top shape: 30 512 14 14 (3010560)
I0703 14:40:17.006593 30328 net.cpp:127] Top shape: 30 512 14 14 (3010560)
I0703 14:40:17.006598 30328 net.cpp:127] Top shape: 30 512 14 14 (3010560)
I0703 14:40:17.006603 30328 layer_factory.hpp:74] Creating layer inception_4d/1x1
I0703 14:40:17.006609 30328 net.cpp:90] Creating Layer inception_4d/1x1
I0703 14:40:17.006614 30328 net.cpp:410] inception_4d/1x1 <- inception_4c/output_inception_4c/output_0_split_0
I0703 14:40:17.006628 30328 net.cpp:368] inception_4d/1x1 -> inception_4d/1x1
I0703 14:40:17.006636 30328 net.cpp:120] Setting up inception_4d/1x1
I0703 14:40:17.007146 30328 net.cpp:127] Top shape: 30 112 14 14 (658560)
I0703 14:40:17.007159 30328 layer_factory.hpp:74] Creating layer inception_4d/relu_1x1
I0703 14:40:17.007165 30328 net.cpp:90] Creating Layer inception_4d/relu_1x1
I0703 14:40:17.007171 30328 net.cpp:410] inception_4d/relu_1x1 <- inception_4d/1x1
I0703 14:40:17.007176 30328 net.cpp:357] inception_4d/relu_1x1 -> inception_4d/1x1 (in-place)
I0703 14:40:17.007184 30328 net.cpp:120] Setting up inception_4d/relu_1x1
I0703 14:40:17.007225 30328 net.cpp:127] Top shape: 30 112 14 14 (658560)
I0703 14:40:17.007231 30328 layer_factory.hpp:74] Creating layer inception_4d/3x3_reduce
I0703 14:40:17.007238 30328 net.cpp:90] Creating Layer inception_4d/3x3_reduce
I0703 14:40:17.007243 30328 net.cpp:410] inception_4d/3x3_reduce <- inception_4c/output_inception_4c/output_0_split_1
I0703 14:40:17.007251 30328 net.cpp:368] inception_4d/3x3_reduce -> inception_4d/3x3_reduce
I0703 14:40:17.007257 30328 net.cpp:120] Setting up inception_4d/3x3_reduce
I0703 14:40:17.007823 30328 net.cpp:127] Top shape: 30 144 14 14 (846720)
I0703 14:40:17.007836 30328 layer_factory.hpp:74] Creating layer inception_4d/relu_3x3_reduce
I0703 14:40:17.007843 30328 net.cpp:90] Creating Layer inception_4d/relu_3x3_reduce
I0703 14:40:17.007848 30328 net.cpp:410] inception_4d/relu_3x3_reduce <- inception_4d/3x3_reduce
I0703 14:40:17.007854 30328 net.cpp:357] inception_4d/relu_3x3_reduce -> inception_4d/3x3_reduce (in-place)
I0703 14:40:17.007860 30328 net.cpp:120] Setting up inception_4d/relu_3x3_reduce
I0703 14:40:17.007901 30328 net.cpp:127] Top shape: 30 144 14 14 (846720)
I0703 14:40:17.007908 30328 layer_factory.hpp:74] Creating layer inception_4d/3x3
I0703 14:40:17.007916 30328 net.cpp:90] Creating Layer inception_4d/3x3
I0703 14:40:17.007921 30328 net.cpp:410] inception_4d/3x3 <- inception_4d/3x3_reduce
I0703 14:40:17.007927 30328 net.cpp:368] inception_4d/3x3 -> inception_4d/3x3
I0703 14:40:17.007935 30328 net.cpp:120] Setting up inception_4d/3x3
I0703 14:40:17.009945 30328 net.cpp:127] Top shape: 30 288 14 14 (1693440)
I0703 14:40:17.009958 30328 layer_factory.hpp:74] Creating layer inception_4d/relu_3x3
I0703 14:40:17.009966 30328 net.cpp:90] Creating Layer inception_4d/relu_3x3
I0703 14:40:17.009971 30328 net.cpp:410] inception_4d/relu_3x3 <- inception_4d/3x3
I0703 14:40:17.009977 30328 net.cpp:357] inception_4d/relu_3x3 -> inception_4d/3x3 (in-place)
I0703 14:40:17.009984 30328 net.cpp:120] Setting up inception_4d/relu_3x3
I0703 14:40:17.010094 30328 net.cpp:127] Top shape: 30 288 14 14 (1693440)
I0703 14:40:17.010104 30328 layer_factory.hpp:74] Creating layer inception_4d/5x5_reduce
I0703 14:40:17.010113 30328 net.cpp:90] Creating Layer inception_4d/5x5_reduce
I0703 14:40:17.010118 30328 net.cpp:410] inception_4d/5x5_reduce <- inception_4c/output_inception_4c/output_0_split_2
I0703 14:40:17.010124 30328 net.cpp:368] inception_4d/5x5_reduce -> inception_4d/5x5_reduce
I0703 14:40:17.010131 30328 net.cpp:120] Setting up inception_4d/5x5_reduce
I0703 14:40:17.010411 30328 net.cpp:127] Top shape: 30 32 14 14 (188160)
I0703 14:40:17.010423 30328 layer_factory.hpp:74] Creating layer inception_4d/relu_5x5_reduce
I0703 14:40:17.010432 30328 net.cpp:90] Creating Layer inception_4d/relu_5x5_reduce
I0703 14:40:17.010437 30328 net.cpp:410] inception_4d/relu_5x5_reduce <- inception_4d/5x5_reduce
I0703 14:40:17.010442 30328 net.cpp:357] inception_4d/relu_5x5_reduce -> inception_4d/5x5_reduce (in-place)
I0703 14:40:17.010448 30328 net.cpp:120] Setting up inception_4d/relu_5x5_reduce
I0703 14:40:17.010489 30328 net.cpp:127] Top shape: 30 32 14 14 (188160)
I0703 14:40:17.010496 30328 layer_factory.hpp:74] Creating layer inception_4d/5x5
I0703 14:40:17.010504 30328 net.cpp:90] Creating Layer inception_4d/5x5
I0703 14:40:17.010509 30328 net.cpp:410] inception_4d/5x5 <- inception_4d/5x5_reduce
I0703 14:40:17.010515 30328 net.cpp:368] inception_4d/5x5 -> inception_4d/5x5
I0703 14:40:17.010529 30328 net.cpp:120] Setting up inception_4d/5x5
I0703 14:40:17.010998 30328 net.cpp:127] Top shape: 30 64 14 14 (376320)
I0703 14:40:17.011010 30328 layer_factory.hpp:74] Creating layer inception_4d/relu_5x5
I0703 14:40:17.011018 30328 net.cpp:90] Creating Layer inception_4d/relu_5x5
I0703 14:40:17.011023 30328 net.cpp:410] inception_4d/relu_5x5 <- inception_4d/5x5
I0703 14:40:17.011029 30328 net.cpp:357] inception_4d/relu_5x5 -> inception_4d/5x5 (in-place)
I0703 14:40:17.011035 30328 net.cpp:120] Setting up inception_4d/relu_5x5
I0703 14:40:17.011078 30328 net.cpp:127] Top shape: 30 64 14 14 (376320)
I0703 14:40:17.011085 30328 layer_factory.hpp:74] Creating layer inception_4d/pool
I0703 14:40:17.011090 30328 layer_factory.cpp:55] CUDNN does not support padding or multiple tops. Using Caffe's own pooling layer.
I0703 14:40:17.011096 30328 net.cpp:90] Creating Layer inception_4d/pool
I0703 14:40:17.011101 30328 net.cpp:410] inception_4d/pool <- inception_4c/output_inception_4c/output_0_split_3
I0703 14:40:17.011107 30328 net.cpp:368] inception_4d/pool -> inception_4d/pool
I0703 14:40:17.011114 30328 net.cpp:120] Setting up inception_4d/pool
I0703 14:40:17.011121 30328 net.cpp:127] Top shape: 30 512 14 14 (3010560)
I0703 14:40:17.011126 30328 layer_factory.hpp:74] Creating layer inception_4d/pool_proj
I0703 14:40:17.011132 30328 net.cpp:90] Creating Layer inception_4d/pool_proj
I0703 14:40:17.011137 30328 net.cpp:410] inception_4d/pool_proj <- inception_4d/pool
I0703 14:40:17.011144 30328 net.cpp:368] inception_4d/pool_proj -> inception_4d/pool_proj
I0703 14:40:17.011150 30328 net.cpp:120] Setting up inception_4d/pool_proj
I0703 14:40:17.011518 30328 net.cpp:127] Top shape: 30 64 14 14 (376320)
I0703 14:40:17.011529 30328 layer_factory.hpp:74] Creating layer inception_4d/relu_pool_proj
I0703 14:40:17.011536 30328 net.cpp:90] Creating Layer inception_4d/relu_pool_proj
I0703 14:40:17.011541 30328 net.cpp:410] inception_4d/relu_pool_proj <- inception_4d/pool_proj
I0703 14:40:17.011546 30328 net.cpp:357] inception_4d/relu_pool_proj -> inception_4d/pool_proj (in-place)
I0703 14:40:17.011554 30328 net.cpp:120] Setting up inception_4d/relu_pool_proj
I0703 14:40:17.011593 30328 net.cpp:127] Top shape: 30 64 14 14 (376320)
I0703 14:40:17.011600 30328 layer_factory.hpp:74] Creating layer inception_4d/output
I0703 14:40:17.011605 30328 net.cpp:90] Creating Layer inception_4d/output
I0703 14:40:17.011610 30328 net.cpp:410] inception_4d/output <- inception_4d/1x1
I0703 14:40:17.011615 30328 net.cpp:410] inception_4d/output <- inception_4d/3x3
I0703 14:40:17.011620 30328 net.cpp:410] inception_4d/output <- inception_4d/5x5
I0703 14:40:17.011626 30328 net.cpp:410] inception_4d/output <- inception_4d/pool_proj
I0703 14:40:17.011631 30328 net.cpp:368] inception_4d/output -> inception_4d/output
I0703 14:40:17.011636 30328 net.cpp:120] Setting up inception_4d/output
I0703 14:40:17.011643 30328 net.cpp:127] Top shape: 30 528 14 14 (3104640)
I0703 14:40:17.011647 30328 layer_factory.hpp:74] Creating layer inception_4d/output_inception_4d/output_0_split
I0703 14:40:17.011654 30328 net.cpp:90] Creating Layer inception_4d/output_inception_4d/output_0_split
I0703 14:40:17.011659 30328 net.cpp:410] inception_4d/output_inception_4d/output_0_split <- inception_4d/output
I0703 14:40:17.011665 30328 net.cpp:368] inception_4d/output_inception_4d/output_0_split -> inception_4d/output_inception_4d/output_0_split_0
I0703 14:40:17.011672 30328 net.cpp:368] inception_4d/output_inception_4d/output_0_split -> inception_4d/output_inception_4d/output_0_split_1
I0703 14:40:17.011678 30328 net.cpp:368] inception_4d/output_inception_4d/output_0_split -> inception_4d/output_inception_4d/output_0_split_2
I0703 14:40:17.011685 30328 net.cpp:368] inception_4d/output_inception_4d/output_0_split -> inception_4d/output_inception_4d/output_0_split_3
I0703 14:40:17.011692 30328 net.cpp:368] inception_4d/output_inception_4d/output_0_split -> inception_4d/output_inception_4d/output_0_split_4
I0703 14:40:17.011698 30328 net.cpp:120] Setting up inception_4d/output_inception_4d/output_0_split
I0703 14:40:17.011710 30328 net.cpp:127] Top shape: 30 528 14 14 (3104640)
I0703 14:40:17.011716 30328 net.cpp:127] Top shape: 30 528 14 14 (3104640)
I0703 14:40:17.011721 30328 net.cpp:127] Top shape: 30 528 14 14 (3104640)
I0703 14:40:17.011725 30328 net.cpp:127] Top shape: 30 528 14 14 (3104640)
I0703 14:40:17.011730 30328 net.cpp:127] Top shape: 30 528 14 14 (3104640)
I0703 14:40:17.011735 30328 layer_factory.hpp:74] Creating layer loss2/ave_pool
I0703 14:40:17.011741 30328 net.cpp:90] Creating Layer loss2/ave_pool
I0703 14:40:17.011745 30328 net.cpp:410] loss2/ave_pool <- inception_4d/output_inception_4d/output_0_split_0
I0703 14:40:17.011754 30328 net.cpp:368] loss2/ave_pool -> loss2/ave_pool
I0703 14:40:17.011759 30328 net.cpp:120] Setting up loss2/ave_pool
I0703 14:40:17.011874 30328 net.cpp:127] Top shape: 30 528 4 4 (253440)
I0703 14:40:17.011883 30328 layer_factory.hpp:74] Creating layer loss2/conv
I0703 14:40:17.011890 30328 net.cpp:90] Creating Layer loss2/conv
I0703 14:40:17.011896 30328 net.cpp:410] loss2/conv <- loss2/ave_pool
I0703 14:40:17.011903 30328 net.cpp:368] loss2/conv -> loss2/conv
I0703 14:40:17.011909 30328 net.cpp:120] Setting up loss2/conv
I0703 14:40:17.012440 30328 net.cpp:127] Top shape: 30 128 4 4 (61440)
I0703 14:40:17.012451 30328 layer_factory.hpp:74] Creating layer loss2/relu_conv
I0703 14:40:17.012459 30328 net.cpp:90] Creating Layer loss2/relu_conv
I0703 14:40:17.012464 30328 net.cpp:410] loss2/relu_conv <- loss2/conv
I0703 14:40:17.012470 30328 net.cpp:357] loss2/relu_conv -> loss2/conv (in-place)
I0703 14:40:17.012476 30328 net.cpp:120] Setting up loss2/relu_conv
I0703 14:40:17.012517 30328 net.cpp:127] Top shape: 30 128 4 4 (61440)
I0703 14:40:17.012523 30328 layer_factory.hpp:74] Creating layer loss2/fc
I0703 14:40:17.012531 30328 net.cpp:90] Creating Layer loss2/fc
I0703 14:40:17.012537 30328 net.cpp:410] loss2/fc <- loss2/conv
I0703 14:40:17.012542 30328 net.cpp:368] loss2/fc -> loss2/fc
I0703 14:40:17.012548 30328 net.cpp:120] Setting up loss2/fc
I0703 14:40:17.022172 30328 net.cpp:127] Top shape: 30 1024 (30720)
I0703 14:40:17.022194 30328 layer_factory.hpp:74] Creating layer loss2/relu_fc
I0703 14:40:17.022204 30328 net.cpp:90] Creating Layer loss2/relu_fc
I0703 14:40:17.022212 30328 net.cpp:410] loss2/relu_fc <- loss2/fc
I0703 14:40:17.022218 30328 net.cpp:357] loss2/relu_fc -> loss2/fc (in-place)
I0703 14:40:17.022234 30328 net.cpp:120] Setting up loss2/relu_fc
I0703 14:40:17.022305 30328 net.cpp:127] Top shape: 30 1024 (30720)
I0703 14:40:17.022311 30328 layer_factory.hpp:74] Creating layer loss2/drop_fc
I0703 14:40:17.022320 30328 net.cpp:90] Creating Layer loss2/drop_fc
I0703 14:40:17.022325 30328 net.cpp:410] loss2/drop_fc <- loss2/fc
I0703 14:40:17.022330 30328 net.cpp:357] loss2/drop_fc -> loss2/fc (in-place)
I0703 14:40:17.022336 30328 net.cpp:120] Setting up loss2/drop_fc
I0703 14:40:17.022342 30328 net.cpp:127] Top shape: 30 1024 (30720)
I0703 14:40:17.022347 30328 layer_factory.hpp:74] Creating layer stanford_cars_loss2/classifier
I0703 14:40:17.022356 30328 net.cpp:90] Creating Layer stanford_cars_loss2/classifier
I0703 14:40:17.022359 30328 net.cpp:410] stanford_cars_loss2/classifier <- loss2/fc
I0703 14:40:17.022367 30328 net.cpp:368] stanford_cars_loss2/classifier -> stanford_cars_loss2/classifier
I0703 14:40:17.022374 30328 net.cpp:120] Setting up stanford_cars_loss2/classifier
I0703 14:40:17.023531 30328 net.cpp:127] Top shape: 30 196 (5880)
I0703 14:40:17.023550 30328 layer_factory.hpp:74] Creating layer stanford_cars_loss2/loss
I0703 14:40:17.023561 30328 net.cpp:90] Creating Layer stanford_cars_loss2/loss
I0703 14:40:17.023569 30328 net.cpp:410] stanford_cars_loss2/loss <- stanford_cars_loss2/classifier
I0703 14:40:17.023578 30328 net.cpp:410] stanford_cars_loss2/loss <- label_data_1_split_1
I0703 14:40:17.023588 30328 net.cpp:368] stanford_cars_loss2/loss -> loss2/loss1
I0703 14:40:17.023598 30328 net.cpp:120] Setting up stanford_cars_loss2/loss
I0703 14:40:17.023607 30328 layer_factory.hpp:74] Creating layer stanford_cars_loss2/loss
I0703 14:40:17.023710 30328 net.cpp:127] Top shape: (1)
I0703 14:40:17.023721 30328 net.cpp:129]     with loss weight 0.3
I0703 14:40:17.023738 30328 layer_factory.hpp:74] Creating layer inception_4e/1x1
I0703 14:40:17.023751 30328 net.cpp:90] Creating Layer inception_4e/1x1
I0703 14:40:17.023759 30328 net.cpp:410] inception_4e/1x1 <- inception_4d/output_inception_4d/output_0_split_1
I0703 14:40:17.023769 30328 net.cpp:368] inception_4e/1x1 -> inception_4e/1x1
I0703 14:40:17.023780 30328 net.cpp:120] Setting up inception_4e/1x1
I0703 14:40:17.024840 30328 net.cpp:127] Top shape: 30 256 14 14 (1505280)
I0703 14:40:17.024854 30328 layer_factory.hpp:74] Creating layer inception_4e/relu_1x1
I0703 14:40:17.024863 30328 net.cpp:90] Creating Layer inception_4e/relu_1x1
I0703 14:40:17.024868 30328 net.cpp:410] inception_4e/relu_1x1 <- inception_4e/1x1
I0703 14:40:17.024874 30328 net.cpp:357] inception_4e/relu_1x1 -> inception_4e/1x1 (in-place)
I0703 14:40:17.024880 30328 net.cpp:120] Setting up inception_4e/relu_1x1
I0703 14:40:17.024992 30328 net.cpp:127] Top shape: 30 256 14 14 (1505280)
I0703 14:40:17.025002 30328 layer_factory.hpp:74] Creating layer inception_4e/3x3_reduce
I0703 14:40:17.025010 30328 net.cpp:90] Creating Layer inception_4e/3x3_reduce
I0703 14:40:17.025015 30328 net.cpp:410] inception_4e/3x3_reduce <- inception_4d/output_inception_4d/output_0_split_2
I0703 14:40:17.025023 30328 net.cpp:368] inception_4e/3x3_reduce -> inception_4e/3x3_reduce
I0703 14:40:17.025030 30328 net.cpp:120] Setting up inception_4e/3x3_reduce
I0703 14:40:17.025673 30328 net.cpp:127] Top shape: 30 160 14 14 (940800)
I0703 14:40:17.025697 30328 layer_factory.hpp:74] Creating layer inception_4e/relu_3x3_reduce
I0703 14:40:17.025706 30328 net.cpp:90] Creating Layer inception_4e/relu_3x3_reduce
I0703 14:40:17.025710 30328 net.cpp:410] inception_4e/relu_3x3_reduce <- inception_4e/3x3_reduce
I0703 14:40:17.025717 30328 net.cpp:357] inception_4e/relu_3x3_reduce -> inception_4e/3x3_reduce (in-place)
I0703 14:40:17.025724 30328 net.cpp:120] Setting up inception_4e/relu_3x3_reduce
I0703 14:40:17.025776 30328 net.cpp:127] Top shape: 30 160 14 14 (940800)
I0703 14:40:17.025784 30328 layer_factory.hpp:74] Creating layer inception_4e/3x3
I0703 14:40:17.025801 30328 net.cpp:90] Creating Layer inception_4e/3x3
I0703 14:40:17.025807 30328 net.cpp:410] inception_4e/3x3 <- inception_4e/3x3_reduce
I0703 14:40:17.025813 30328 net.cpp:368] inception_4e/3x3 -> inception_4e/3x3
I0703 14:40:17.025821 30328 net.cpp:120] Setting up inception_4e/3x3
I0703 14:40:17.028338 30328 net.cpp:127] Top shape: 30 320 14 14 (1881600)
I0703 14:40:17.028363 30328 layer_factory.hpp:74] Creating layer inception_4e/relu_3x3
I0703 14:40:17.028370 30328 net.cpp:90] Creating Layer inception_4e/relu_3x3
I0703 14:40:17.028376 30328 net.cpp:410] inception_4e/relu_3x3 <- inception_4e/3x3
I0703 14:40:17.028383 30328 net.cpp:357] inception_4e/relu_3x3 -> inception_4e/3x3 (in-place)
I0703 14:40:17.028389 30328 net.cpp:120] Setting up inception_4e/relu_3x3
I0703 14:40:17.028440 30328 net.cpp:127] Top shape: 30 320 14 14 (1881600)
I0703 14:40:17.028457 30328 layer_factory.hpp:74] Creating layer inception_4e/5x5_reduce
I0703 14:40:17.028466 30328 net.cpp:90] Creating Layer inception_4e/5x5_reduce
I0703 14:40:17.028471 30328 net.cpp:410] inception_4e/5x5_reduce <- inception_4d/output_inception_4d/output_0_split_3
I0703 14:40:17.028477 30328 net.cpp:368] inception_4e/5x5_reduce -> inception_4e/5x5_reduce
I0703 14:40:17.028484 30328 net.cpp:120] Setting up inception_4e/5x5_reduce
I0703 14:40:17.028784 30328 net.cpp:127] Top shape: 30 32 14 14 (188160)
I0703 14:40:17.028805 30328 layer_factory.hpp:74] Creating layer inception_4e/relu_5x5_reduce
I0703 14:40:17.028812 30328 net.cpp:90] Creating Layer inception_4e/relu_5x5_reduce
I0703 14:40:17.028818 30328 net.cpp:410] inception_4e/relu_5x5_reduce <- inception_4e/5x5_reduce
I0703 14:40:17.028825 30328 net.cpp:357] inception_4e/relu_5x5_reduce -> inception_4e/5x5_reduce (in-place)
I0703 14:40:17.028831 30328 net.cpp:120] Setting up inception_4e/relu_5x5_reduce
I0703 14:40:17.028965 30328 net.cpp:127] Top shape: 30 32 14 14 (188160)
I0703 14:40:17.028985 30328 layer_factory.hpp:74] Creating layer inception_4e/5x5
I0703 14:40:17.029003 30328 net.cpp:90] Creating Layer inception_4e/5x5
I0703 14:40:17.029009 30328 net.cpp:410] inception_4e/5x5 <- inception_4e/5x5_reduce
I0703 14:40:17.029016 30328 net.cpp:368] inception_4e/5x5 -> inception_4e/5x5
I0703 14:40:17.029024 30328 net.cpp:120] Setting up inception_4e/5x5
I0703 14:40:17.029736 30328 net.cpp:127] Top shape: 30 128 14 14 (752640)
I0703 14:40:17.029758 30328 layer_factory.hpp:74] Creating layer inception_4e/relu_5x5
I0703 14:40:17.029765 30328 net.cpp:90] Creating Layer inception_4e/relu_5x5
I0703 14:40:17.029770 30328 net.cpp:410] inception_4e/relu_5x5 <- inception_4e/5x5
I0703 14:40:17.029778 30328 net.cpp:357] inception_4e/relu_5x5 -> inception_4e/5x5 (in-place)
I0703 14:40:17.029783 30328 net.cpp:120] Setting up inception_4e/relu_5x5
I0703 14:40:17.029835 30328 net.cpp:127] Top shape: 30 128 14 14 (752640)
I0703 14:40:17.029842 30328 layer_factory.hpp:74] Creating layer inception_4e/pool
I0703 14:40:17.029858 30328 layer_factory.cpp:55] CUDNN does not support padding or multiple tops. Using Caffe's own pooling layer.
I0703 14:40:17.029865 30328 net.cpp:90] Creating Layer inception_4e/pool
I0703 14:40:17.029870 30328 net.cpp:410] inception_4e/pool <- inception_4d/output_inception_4d/output_0_split_4
I0703 14:40:17.029875 30328 net.cpp:368] inception_4e/pool -> inception_4e/pool
I0703 14:40:17.029882 30328 net.cpp:120] Setting up inception_4e/pool
I0703 14:40:17.029889 30328 net.cpp:127] Top shape: 30 528 14 14 (3104640)
I0703 14:40:17.029894 30328 layer_factory.hpp:74] Creating layer inception_4e/pool_proj
I0703 14:40:17.029902 30328 net.cpp:90] Creating Layer inception_4e/pool_proj
I0703 14:40:17.029907 30328 net.cpp:410] inception_4e/pool_proj <- inception_4e/pool
I0703 14:40:17.029914 30328 net.cpp:368] inception_4e/pool_proj -> inception_4e/pool_proj
I0703 14:40:17.029922 30328 net.cpp:120] Setting up inception_4e/pool_proj
I0703 14:40:17.030467 30328 net.cpp:127] Top shape: 30 128 14 14 (752640)
I0703 14:40:17.030478 30328 layer_factory.hpp:74] Creating layer inception_4e/relu_pool_proj
I0703 14:40:17.030485 30328 net.cpp:90] Creating Layer inception_4e/relu_pool_proj
I0703 14:40:17.030491 30328 net.cpp:410] inception_4e/relu_pool_proj <- inception_4e/pool_proj
I0703 14:40:17.030496 30328 net.cpp:357] inception_4e/relu_pool_proj -> inception_4e/pool_proj (in-place)
I0703 14:40:17.030503 30328 net.cpp:120] Setting up inception_4e/relu_pool_proj
I0703 14:40:17.030544 30328 net.cpp:127] Top shape: 30 128 14 14 (752640)
I0703 14:40:17.030550 30328 layer_factory.hpp:74] Creating layer inception_4e/output
I0703 14:40:17.030557 30328 net.cpp:90] Creating Layer inception_4e/output
I0703 14:40:17.030562 30328 net.cpp:410] inception_4e/output <- inception_4e/1x1
I0703 14:40:17.030567 30328 net.cpp:410] inception_4e/output <- inception_4e/3x3
I0703 14:40:17.030572 30328 net.cpp:410] inception_4e/output <- inception_4e/5x5
I0703 14:40:17.030577 30328 net.cpp:410] inception_4e/output <- inception_4e/pool_proj
I0703 14:40:17.030582 30328 net.cpp:368] inception_4e/output -> inception_4e/output
I0703 14:40:17.030589 30328 net.cpp:120] Setting up inception_4e/output
I0703 14:40:17.030596 30328 net.cpp:127] Top shape: 30 832 14 14 (4892160)
I0703 14:40:17.030601 30328 layer_factory.hpp:74] Creating layer pool4/3x3_s2
I0703 14:40:17.030607 30328 net.cpp:90] Creating Layer pool4/3x3_s2
I0703 14:40:17.030612 30328 net.cpp:410] pool4/3x3_s2 <- inception_4e/output
I0703 14:40:17.030618 30328 net.cpp:368] pool4/3x3_s2 -> pool4/3x3_s2
I0703 14:40:17.030624 30328 net.cpp:120] Setting up pool4/3x3_s2
I0703 14:40:17.030668 30328 net.cpp:127] Top shape: 30 832 7 7 (1223040)
I0703 14:40:17.030673 30328 layer_factory.hpp:74] Creating layer pool4/3x3_s2_pool4/3x3_s2_0_split
I0703 14:40:17.030679 30328 net.cpp:90] Creating Layer pool4/3x3_s2_pool4/3x3_s2_0_split
I0703 14:40:17.030684 30328 net.cpp:410] pool4/3x3_s2_pool4/3x3_s2_0_split <- pool4/3x3_s2
I0703 14:40:17.030696 30328 net.cpp:368] pool4/3x3_s2_pool4/3x3_s2_0_split -> pool4/3x3_s2_pool4/3x3_s2_0_split_0
I0703 14:40:17.030704 30328 net.cpp:368] pool4/3x3_s2_pool4/3x3_s2_0_split -> pool4/3x3_s2_pool4/3x3_s2_0_split_1
I0703 14:40:17.030710 30328 net.cpp:368] pool4/3x3_s2_pool4/3x3_s2_0_split -> pool4/3x3_s2_pool4/3x3_s2_0_split_2
I0703 14:40:17.030716 30328 net.cpp:368] pool4/3x3_s2_pool4/3x3_s2_0_split -> pool4/3x3_s2_pool4/3x3_s2_0_split_3
I0703 14:40:17.030722 30328 net.cpp:120] Setting up pool4/3x3_s2_pool4/3x3_s2_0_split
I0703 14:40:17.030730 30328 net.cpp:127] Top shape: 30 832 7 7 (1223040)
I0703 14:40:17.030735 30328 net.cpp:127] Top shape: 30 832 7 7 (1223040)
I0703 14:40:17.030738 30328 net.cpp:127] Top shape: 30 832 7 7 (1223040)
I0703 14:40:17.030743 30328 net.cpp:127] Top shape: 30 832 7 7 (1223040)
I0703 14:40:17.030748 30328 layer_factory.hpp:74] Creating layer inception_5a/1x1
I0703 14:40:17.030755 30328 net.cpp:90] Creating Layer inception_5a/1x1
I0703 14:40:17.030761 30328 net.cpp:410] inception_5a/1x1 <- pool4/3x3_s2_pool4/3x3_s2_0_split_0
I0703 14:40:17.030767 30328 net.cpp:368] inception_5a/1x1 -> inception_5a/1x1
I0703 14:40:17.030773 30328 net.cpp:120] Setting up inception_5a/1x1
I0703 14:40:17.032043 30328 net.cpp:127] Top shape: 30 256 7 7 (376320)
I0703 14:40:17.032057 30328 layer_factory.hpp:74] Creating layer inception_5a/relu_1x1
I0703 14:40:17.032063 30328 net.cpp:90] Creating Layer inception_5a/relu_1x1
I0703 14:40:17.032069 30328 net.cpp:410] inception_5a/relu_1x1 <- inception_5a/1x1
I0703 14:40:17.032074 30328 net.cpp:357] inception_5a/relu_1x1 -> inception_5a/1x1 (in-place)
I0703 14:40:17.032081 30328 net.cpp:120] Setting up inception_5a/relu_1x1
I0703 14:40:17.032192 30328 net.cpp:127] Top shape: 30 256 7 7 (376320)
I0703 14:40:17.032202 30328 layer_factory.hpp:74] Creating layer inception_5a/3x3_reduce
I0703 14:40:17.032209 30328 net.cpp:90] Creating Layer inception_5a/3x3_reduce
I0703 14:40:17.032215 30328 net.cpp:410] inception_5a/3x3_reduce <- pool4/3x3_s2_pool4/3x3_s2_0_split_1
I0703 14:40:17.032222 30328 net.cpp:368] inception_5a/3x3_reduce -> inception_5a/3x3_reduce
I0703 14:40:17.032229 30328 net.cpp:120] Setting up inception_5a/3x3_reduce
I0703 14:40:17.033082 30328 net.cpp:127] Top shape: 30 160 7 7 (235200)
I0703 14:40:17.033092 30328 layer_factory.hpp:74] Creating layer inception_5a/relu_3x3_reduce
I0703 14:40:17.033100 30328 net.cpp:90] Creating Layer inception_5a/relu_3x3_reduce
I0703 14:40:17.033105 30328 net.cpp:410] inception_5a/relu_3x3_reduce <- inception_5a/3x3_reduce
I0703 14:40:17.033112 30328 net.cpp:357] inception_5a/relu_3x3_reduce -> inception_5a/3x3_reduce (in-place)
I0703 14:40:17.033118 30328 net.cpp:120] Setting up inception_5a/relu_3x3_reduce
I0703 14:40:17.033159 30328 net.cpp:127] Top shape: 30 160 7 7 (235200)
I0703 14:40:17.033164 30328 layer_factory.hpp:74] Creating layer inception_5a/3x3
I0703 14:40:17.033172 30328 net.cpp:90] Creating Layer inception_5a/3x3
I0703 14:40:17.033177 30328 net.cpp:410] inception_5a/3x3 <- inception_5a/3x3_reduce
I0703 14:40:17.033185 30328 net.cpp:368] inception_5a/3x3 -> inception_5a/3x3
I0703 14:40:17.033190 30328 net.cpp:120] Setting up inception_5a/3x3
I0703 14:40:17.035640 30328 net.cpp:127] Top shape: 30 320 7 7 (470400)
I0703 14:40:17.035650 30328 layer_factory.hpp:74] Creating layer inception_5a/relu_3x3
I0703 14:40:17.035660 30328 net.cpp:90] Creating Layer inception_5a/relu_3x3
I0703 14:40:17.035665 30328 net.cpp:410] inception_5a/relu_3x3 <- inception_5a/3x3
I0703 14:40:17.035670 30328 net.cpp:357] inception_5a/relu_3x3 -> inception_5a/3x3 (in-place)
I0703 14:40:17.035676 30328 net.cpp:120] Setting up inception_5a/relu_3x3
I0703 14:40:17.035717 30328 net.cpp:127] Top shape: 30 320 7 7 (470400)
I0703 14:40:17.035724 30328 layer_factory.hpp:74] Creating layer inception_5a/5x5_reduce
I0703 14:40:17.035732 30328 net.cpp:90] Creating Layer inception_5a/5x5_reduce
I0703 14:40:17.035737 30328 net.cpp:410] inception_5a/5x5_reduce <- pool4/3x3_s2_pool4/3x3_s2_0_split_2
I0703 14:40:17.035753 30328 net.cpp:368] inception_5a/5x5_reduce -> inception_5a/5x5_reduce
I0703 14:40:17.035759 30328 net.cpp:120] Setting up inception_5a/5x5_reduce
I0703 14:40:17.036099 30328 net.cpp:127] Top shape: 30 32 7 7 (47040)
I0703 14:40:17.036111 30328 layer_factory.hpp:74] Creating layer inception_5a/relu_5x5_reduce
I0703 14:40:17.036118 30328 net.cpp:90] Creating Layer inception_5a/relu_5x5_reduce
I0703 14:40:17.036124 30328 net.cpp:410] inception_5a/relu_5x5_reduce <- inception_5a/5x5_reduce
I0703 14:40:17.036129 30328 net.cpp:357] inception_5a/relu_5x5_reduce -> inception_5a/5x5_reduce (in-place)
I0703 14:40:17.036135 30328 net.cpp:120] Setting up inception_5a/relu_5x5_reduce
I0703 14:40:17.036176 30328 net.cpp:127] Top shape: 30 32 7 7 (47040)
I0703 14:40:17.036182 30328 layer_factory.hpp:74] Creating layer inception_5a/5x5
I0703 14:40:17.036190 30328 net.cpp:90] Creating Layer inception_5a/5x5
I0703 14:40:17.036195 30328 net.cpp:410] inception_5a/5x5 <- inception_5a/5x5_reduce
I0703 14:40:17.036201 30328 net.cpp:368] inception_5a/5x5 -> inception_5a/5x5
I0703 14:40:17.036208 30328 net.cpp:120] Setting up inception_5a/5x5
I0703 14:40:17.036929 30328 net.cpp:127] Top shape: 30 128 7 7 (188160)
I0703 14:40:17.036942 30328 layer_factory.hpp:74] Creating layer inception_5a/relu_5x5
I0703 14:40:17.036947 30328 net.cpp:90] Creating Layer inception_5a/relu_5x5
I0703 14:40:17.036952 30328 net.cpp:410] inception_5a/relu_5x5 <- inception_5a/5x5
I0703 14:40:17.036958 30328 net.cpp:357] inception_5a/relu_5x5 -> inception_5a/5x5 (in-place)
I0703 14:40:17.036964 30328 net.cpp:120] Setting up inception_5a/relu_5x5
I0703 14:40:17.037071 30328 net.cpp:127] Top shape: 30 128 7 7 (188160)
I0703 14:40:17.037081 30328 layer_factory.hpp:74] Creating layer inception_5a/pool
I0703 14:40:17.037086 30328 layer_factory.cpp:55] CUDNN does not support padding or multiple tops. Using Caffe's own pooling layer.
I0703 14:40:17.037093 30328 net.cpp:90] Creating Layer inception_5a/pool
I0703 14:40:17.037098 30328 net.cpp:410] inception_5a/pool <- pool4/3x3_s2_pool4/3x3_s2_0_split_3
I0703 14:40:17.037104 30328 net.cpp:368] inception_5a/pool -> inception_5a/pool
I0703 14:40:17.037111 30328 net.cpp:120] Setting up inception_5a/pool
I0703 14:40:17.037119 30328 net.cpp:127] Top shape: 30 832 7 7 (1223040)
I0703 14:40:17.037123 30328 layer_factory.hpp:74] Creating layer inception_5a/pool_proj
I0703 14:40:17.037130 30328 net.cpp:90] Creating Layer inception_5a/pool_proj
I0703 14:40:17.037135 30328 net.cpp:410] inception_5a/pool_proj <- inception_5a/pool
I0703 14:40:17.037143 30328 net.cpp:368] inception_5a/pool_proj -> inception_5a/pool_proj
I0703 14:40:17.037150 30328 net.cpp:120] Setting up inception_5a/pool_proj
I0703 14:40:17.037869 30328 net.cpp:127] Top shape: 30 128 7 7 (188160)
I0703 14:40:17.037881 30328 layer_factory.hpp:74] Creating layer inception_5a/relu_pool_proj
I0703 14:40:17.037889 30328 net.cpp:90] Creating Layer inception_5a/relu_pool_proj
I0703 14:40:17.037894 30328 net.cpp:410] inception_5a/relu_pool_proj <- inception_5a/pool_proj
I0703 14:40:17.037899 30328 net.cpp:357] inception_5a/relu_pool_proj -> inception_5a/pool_proj (in-place)
I0703 14:40:17.037905 30328 net.cpp:120] Setting up inception_5a/relu_pool_proj
I0703 14:40:17.037946 30328 net.cpp:127] Top shape: 30 128 7 7 (188160)
I0703 14:40:17.037953 30328 layer_factory.hpp:74] Creating layer inception_5a/output
I0703 14:40:17.037961 30328 net.cpp:90] Creating Layer inception_5a/output
I0703 14:40:17.037964 30328 net.cpp:410] inception_5a/output <- inception_5a/1x1
I0703 14:40:17.037969 30328 net.cpp:410] inception_5a/output <- inception_5a/3x3
I0703 14:40:17.037976 30328 net.cpp:410] inception_5a/output <- inception_5a/5x5
I0703 14:40:17.037981 30328 net.cpp:410] inception_5a/output <- inception_5a/pool_proj
I0703 14:40:17.037986 30328 net.cpp:368] inception_5a/output -> inception_5a/output
I0703 14:40:17.037992 30328 net.cpp:120] Setting up inception_5a/output
I0703 14:40:17.037997 30328 net.cpp:127] Top shape: 30 832 7 7 (1223040)
I0703 14:40:17.038002 30328 layer_factory.hpp:74] Creating layer inception_5a/output_inception_5a/output_0_split
I0703 14:40:17.038015 30328 net.cpp:90] Creating Layer inception_5a/output_inception_5a/output_0_split
I0703 14:40:17.038020 30328 net.cpp:410] inception_5a/output_inception_5a/output_0_split <- inception_5a/output
I0703 14:40:17.038027 30328 net.cpp:368] inception_5a/output_inception_5a/output_0_split -> inception_5a/output_inception_5a/output_0_split_0
I0703 14:40:17.038033 30328 net.cpp:368] inception_5a/output_inception_5a/output_0_split -> inception_5a/output_inception_5a/output_0_split_1
I0703 14:40:17.038040 30328 net.cpp:368] inception_5a/output_inception_5a/output_0_split -> inception_5a/output_inception_5a/output_0_split_2
I0703 14:40:17.038048 30328 net.cpp:368] inception_5a/output_inception_5a/output_0_split -> inception_5a/output_inception_5a/output_0_split_3
I0703 14:40:17.038053 30328 net.cpp:120] Setting up inception_5a/output_inception_5a/output_0_split
I0703 14:40:17.038059 30328 net.cpp:127] Top shape: 30 832 7 7 (1223040)
I0703 14:40:17.038064 30328 net.cpp:127] Top shape: 30 832 7 7 (1223040)
I0703 14:40:17.038069 30328 net.cpp:127] Top shape: 30 832 7 7 (1223040)
I0703 14:40:17.038074 30328 net.cpp:127] Top shape: 30 832 7 7 (1223040)
I0703 14:40:17.038079 30328 layer_factory.hpp:74] Creating layer inception_5b/1x1
I0703 14:40:17.038085 30328 net.cpp:90] Creating Layer inception_5b/1x1
I0703 14:40:17.038090 30328 net.cpp:410] inception_5b/1x1 <- inception_5a/output_inception_5a/output_0_split_0
I0703 14:40:17.038096 30328 net.cpp:368] inception_5b/1x1 -> inception_5b/1x1
I0703 14:40:17.038102 30328 net.cpp:120] Setting up inception_5b/1x1
I0703 14:40:17.039865 30328 net.cpp:127] Top shape: 30 384 7 7 (564480)
I0703 14:40:17.039876 30328 layer_factory.hpp:74] Creating layer inception_5b/relu_1x1
I0703 14:40:17.039883 30328 net.cpp:90] Creating Layer inception_5b/relu_1x1
I0703 14:40:17.039888 30328 net.cpp:410] inception_5b/relu_1x1 <- inception_5b/1x1
I0703 14:40:17.039894 30328 net.cpp:357] inception_5b/relu_1x1 -> inception_5b/1x1 (in-place)
I0703 14:40:17.039901 30328 net.cpp:120] Setting up inception_5b/relu_1x1
I0703 14:40:17.039942 30328 net.cpp:127] Top shape: 30 384 7 7 (564480)
I0703 14:40:17.039948 30328 layer_factory.hpp:74] Creating layer inception_5b/3x3_reduce
I0703 14:40:17.039955 30328 net.cpp:90] Creating Layer inception_5b/3x3_reduce
I0703 14:40:17.039960 30328 net.cpp:410] inception_5b/3x3_reduce <- inception_5a/output_inception_5a/output_0_split_1
I0703 14:40:17.039968 30328 net.cpp:368] inception_5b/3x3_reduce -> inception_5b/3x3_reduce
I0703 14:40:17.039974 30328 net.cpp:120] Setting up inception_5b/3x3_reduce
I0703 14:40:17.040951 30328 net.cpp:127] Top shape: 30 192 7 7 (282240)
I0703 14:40:17.040963 30328 layer_factory.hpp:74] Creating layer inception_5b/relu_3x3_reduce
I0703 14:40:17.040971 30328 net.cpp:90] Creating Layer inception_5b/relu_3x3_reduce
I0703 14:40:17.040976 30328 net.cpp:410] inception_5b/relu_3x3_reduce <- inception_5b/3x3_reduce
I0703 14:40:17.040982 30328 net.cpp:357] inception_5b/relu_3x3_reduce -> inception_5b/3x3_reduce (in-place)
I0703 14:40:17.040987 30328 net.cpp:120] Setting up inception_5b/relu_3x3_reduce
I0703 14:40:17.041029 30328 net.cpp:127] Top shape: 30 192 7 7 (282240)
I0703 14:40:17.041036 30328 layer_factory.hpp:74] Creating layer inception_5b/3x3
I0703 14:40:17.041043 30328 net.cpp:90] Creating Layer inception_5b/3x3
I0703 14:40:17.041049 30328 net.cpp:410] inception_5b/3x3 <- inception_5b/3x3_reduce
I0703 14:40:17.041054 30328 net.cpp:368] inception_5b/3x3 -> inception_5b/3x3
I0703 14:40:17.041072 30328 net.cpp:120] Setting up inception_5b/3x3
I0703 14:40:17.044304 30328 net.cpp:127] Top shape: 30 384 7 7 (564480)
I0703 14:40:17.044317 30328 layer_factory.hpp:74] Creating layer inception_5b/relu_3x3
I0703 14:40:17.044324 30328 net.cpp:90] Creating Layer inception_5b/relu_3x3
I0703 14:40:17.044329 30328 net.cpp:410] inception_5b/relu_3x3 <- inception_5b/3x3
I0703 14:40:17.044337 30328 net.cpp:357] inception_5b/relu_3x3 -> inception_5b/3x3 (in-place)
I0703 14:40:17.044353 30328 net.cpp:120] Setting up inception_5b/relu_3x3
I0703 14:40:17.044466 30328 net.cpp:127] Top shape: 30 384 7 7 (564480)
I0703 14:40:17.044474 30328 layer_factory.hpp:74] Creating layer inception_5b/5x5_reduce
I0703 14:40:17.044482 30328 net.cpp:90] Creating Layer inception_5b/5x5_reduce
I0703 14:40:17.044487 30328 net.cpp:410] inception_5b/5x5_reduce <- inception_5a/output_inception_5a/output_0_split_2
I0703 14:40:17.044495 30328 net.cpp:368] inception_5b/5x5_reduce -> inception_5b/5x5_reduce
I0703 14:40:17.044502 30328 net.cpp:120] Setting up inception_5b/5x5_reduce
I0703 14:40:17.044900 30328 net.cpp:127] Top shape: 30 48 7 7 (70560)
I0703 14:40:17.044913 30328 layer_factory.hpp:74] Creating layer inception_5b/relu_5x5_reduce
I0703 14:40:17.044919 30328 net.cpp:90] Creating Layer inception_5b/relu_5x5_reduce
I0703 14:40:17.044925 30328 net.cpp:410] inception_5b/relu_5x5_reduce <- inception_5b/5x5_reduce
I0703 14:40:17.044930 30328 net.cpp:357] inception_5b/relu_5x5_reduce -> inception_5b/5x5_reduce (in-place)
I0703 14:40:17.044937 30328 net.cpp:120] Setting up inception_5b/relu_5x5_reduce
I0703 14:40:17.044978 30328 net.cpp:127] Top shape: 30 48 7 7 (70560)
I0703 14:40:17.044986 30328 layer_factory.hpp:74] Creating layer inception_5b/5x5
I0703 14:40:17.044993 30328 net.cpp:90] Creating Layer inception_5b/5x5
I0703 14:40:17.044998 30328 net.cpp:410] inception_5b/5x5 <- inception_5b/5x5_reduce
I0703 14:40:17.045004 30328 net.cpp:368] inception_5b/5x5 -> inception_5b/5x5
I0703 14:40:17.045011 30328 net.cpp:120] Setting up inception_5b/5x5
I0703 14:40:17.045956 30328 net.cpp:127] Top shape: 30 128 7 7 (188160)
I0703 14:40:17.045969 30328 layer_factory.hpp:74] Creating layer inception_5b/relu_5x5
I0703 14:40:17.045975 30328 net.cpp:90] Creating Layer inception_5b/relu_5x5
I0703 14:40:17.045980 30328 net.cpp:410] inception_5b/relu_5x5 <- inception_5b/5x5
I0703 14:40:17.045986 30328 net.cpp:357] inception_5b/relu_5x5 -> inception_5b/5x5 (in-place)
I0703 14:40:17.045992 30328 net.cpp:120] Setting up inception_5b/relu_5x5
I0703 14:40:17.046036 30328 net.cpp:127] Top shape: 30 128 7 7 (188160)
I0703 14:40:17.046041 30328 layer_factory.hpp:74] Creating layer inception_5b/pool
I0703 14:40:17.046046 30328 layer_factory.cpp:55] CUDNN does not support padding or multiple tops. Using Caffe's own pooling layer.
I0703 14:40:17.046053 30328 net.cpp:90] Creating Layer inception_5b/pool
I0703 14:40:17.046057 30328 net.cpp:410] inception_5b/pool <- inception_5a/output_inception_5a/output_0_split_3
I0703 14:40:17.046063 30328 net.cpp:368] inception_5b/pool -> inception_5b/pool
I0703 14:40:17.046071 30328 net.cpp:120] Setting up inception_5b/pool
I0703 14:40:17.046078 30328 net.cpp:127] Top shape: 30 832 7 7 (1223040)
I0703 14:40:17.046083 30328 layer_factory.hpp:74] Creating layer inception_5b/pool_proj
I0703 14:40:17.046090 30328 net.cpp:90] Creating Layer inception_5b/pool_proj
I0703 14:40:17.046094 30328 net.cpp:410] inception_5b/pool_proj <- inception_5b/pool
I0703 14:40:17.046103 30328 net.cpp:368] inception_5b/pool_proj -> inception_5b/pool_proj
I0703 14:40:17.046108 30328 net.cpp:120] Setting up inception_5b/pool_proj
I0703 14:40:17.046830 30328 net.cpp:127] Top shape: 30 128 7 7 (188160)
I0703 14:40:17.046841 30328 layer_factory.hpp:74] Creating layer inception_5b/relu_pool_proj
I0703 14:40:17.046849 30328 net.cpp:90] Creating Layer inception_5b/relu_pool_proj
I0703 14:40:17.046854 30328 net.cpp:410] inception_5b/relu_pool_proj <- inception_5b/pool_proj
I0703 14:40:17.046859 30328 net.cpp:357] inception_5b/relu_pool_proj -> inception_5b/pool_proj (in-place)
I0703 14:40:17.046866 30328 net.cpp:120] Setting up inception_5b/relu_pool_proj
I0703 14:40:17.046975 30328 net.cpp:127] Top shape: 30 128 7 7 (188160)
I0703 14:40:17.046984 30328 layer_factory.hpp:74] Creating layer inception_5b/output
I0703 14:40:17.046991 30328 net.cpp:90] Creating Layer inception_5b/output
I0703 14:40:17.046996 30328 net.cpp:410] inception_5b/output <- inception_5b/1x1
I0703 14:40:17.047001 30328 net.cpp:410] inception_5b/output <- inception_5b/3x3
I0703 14:40:17.047014 30328 net.cpp:410] inception_5b/output <- inception_5b/5x5
I0703 14:40:17.047020 30328 net.cpp:410] inception_5b/output <- inception_5b/pool_proj
I0703 14:40:17.047026 30328 net.cpp:368] inception_5b/output -> inception_5b/output
I0703 14:40:17.047032 30328 net.cpp:120] Setting up inception_5b/output
I0703 14:40:17.047039 30328 net.cpp:127] Top shape: 30 1024 7 7 (1505280)
I0703 14:40:17.047044 30328 layer_factory.hpp:74] Creating layer pool5/7x7_s1
I0703 14:40:17.047050 30328 net.cpp:90] Creating Layer pool5/7x7_s1
I0703 14:40:17.047055 30328 net.cpp:410] pool5/7x7_s1 <- inception_5b/output
I0703 14:40:17.047061 30328 net.cpp:368] pool5/7x7_s1 -> pool5/7x7_s1
I0703 14:40:17.047067 30328 net.cpp:120] Setting up pool5/7x7_s1
I0703 14:40:17.047111 30328 net.cpp:127] Top shape: 30 1024 1 1 (30720)
I0703 14:40:17.047116 30328 layer_factory.hpp:74] Creating layer pool5/drop_7x7_s1
I0703 14:40:17.047124 30328 net.cpp:90] Creating Layer pool5/drop_7x7_s1
I0703 14:40:17.047129 30328 net.cpp:410] pool5/drop_7x7_s1 <- pool5/7x7_s1
I0703 14:40:17.047134 30328 net.cpp:357] pool5/drop_7x7_s1 -> pool5/7x7_s1 (in-place)
I0703 14:40:17.047140 30328 net.cpp:120] Setting up pool5/drop_7x7_s1
I0703 14:40:17.047147 30328 net.cpp:127] Top shape: 30 1024 1 1 (30720)
I0703 14:40:17.047152 30328 layer_factory.hpp:74] Creating layer stanford_cars_loss3/classifier
I0703 14:40:17.047160 30328 net.cpp:90] Creating Layer stanford_cars_loss3/classifier
I0703 14:40:17.047164 30328 net.cpp:410] stanford_cars_loss3/classifier <- pool5/7x7_s1
I0703 14:40:17.047170 30328 net.cpp:368] stanford_cars_loss3/classifier -> stanford_cars_loss3/classifier
I0703 14:40:17.047178 30328 net.cpp:120] Setting up stanford_cars_loss3/classifier
I0703 14:40:17.048168 30328 net.cpp:127] Top shape: 30 196 (5880)
I0703 14:40:17.048178 30328 layer_factory.hpp:74] Creating layer loss3/loss3
I0703 14:40:17.048185 30328 net.cpp:90] Creating Layer loss3/loss3
I0703 14:40:17.048190 30328 net.cpp:410] loss3/loss3 <- stanford_cars_loss3/classifier
I0703 14:40:17.048197 30328 net.cpp:410] loss3/loss3 <- label_data_1_split_2
I0703 14:40:17.048202 30328 net.cpp:368] loss3/loss3 -> loss3/loss3
I0703 14:40:17.048208 30328 net.cpp:120] Setting up loss3/loss3
…
I0703 14:40:17.052088 30328 net.cpp:287] The NetState phase (1) differed from the phase (0) specified by a rule in layer data
I0703 14:40:17.052803 30328 net.cpp:42] Initializing net from parameters: 
name: "GoogleNet"
state {
  phase: TEST
}
layer {
  name: "data"
  type: "Data"
  top: "data"
  top: "label"
  include {
    phase: TEST
  }
  transform_param {
    mirror: false
    crop_size: 224
    mean_value: 104
    mean_value: 117
    mean_value: 123
  }
  data_param {
    source: "examples/stanford_cars/stanford_cars_val_lmdb"
    batch_size: 10
    backend: LMDB
  }
}
layer {
  name: "conv1/7x7_s2"
  type: "Convolution"
  bottom: "data"
  top: "conv1/7x7_s2"
  param {
    lr_mult: 1
    decay_mult: 1
  }
  param {
    lr_mult: 2
    decay_mult: 0
  }
  convolution_param {
    num_output: 64
    pad: 3
    kernel_size: 7
    stride: 2
    weight_filler {
      type: "xavier"
      std: 0.1
    }
    bias_filler {
      type: "constant"
      value: 0.2
    }
  }
}
layer {
  name: "conv1/relu_7x7"
  type: "ReLU"
  bottom: "conv1/7x7_s2"
  top: "conv1/7x7_s2"
}
layer {
  name: "pool1/3x3_s2"
  type: "Pooling"
  bottom: "conv1/7x7_s2"
  top: "pool1/3x3_s2"
  pooling_param {
    pool: MAX
    kernel_size: 3
    stride: 2
  }
}
layer {
  name: "pool1/norm1"
  type: "LRN"
  bottom: "pool1/3x3_s2"
  top: "pool1/norm1"
  lrn_param {
    local_size: 5
    alpha: 0.0001
    beta: 0.75
  }
}
layer {
  name: "conv2/3x3_reduce"
  type: "Convolution"
  bottom: "pool1/norm1"
  top: "conv2/3x3_reduce"
  param {
    lr_mult: 1
    decay_mult: 1
  }
  param {
    lr_mult: 2
    decay_mult: 0
  }
  convolution_param {
    num_output: 64
    kernel_size: 1
    weight_filler {
      type: "xavier"
      std: 0.1
    }
    bias_filler {
      type: "constant"
      value: 0.2
    }
  }
}
layer {
  name: "conv2/relu_3x3_reduce"
  type: "ReLU"
  bottom: "conv2/3x3_reduce"
  top: "conv2/3x3_reduce"
}
layer {
  name: "conv2/3x3"
  type: "Convolution"
  bottom: "conv2/3x3_reduce"
  top: "conv2/3x3"
  param {
    lr_mult: 1
    decay_mult: 1
  }
  param {
    lr_mult: 2
    decay_mult: 0
  }
  convolution_param {
    num_output: 192
    pad: 1
    kernel_size: 3
    weight_filler {
      type: "xavier"
      std: 0.03
    }
    bias_filler {
      type: "constant"
      value: 0.2
    }
  }
}
layer {
  name: "conv2/relu_3x3"
  type: "ReLU"
  bottom: "conv2/3x3"
  top: "conv2/3x3"
}
layer {
  name: "conv2/norm2"
  type: "LRN"
  bottom: "conv2/3x3"
  top: "conv2/norm2"
  lrn_param {
    local_size: 5
    alpha: 0.0001
    beta: 0.75
  }
}
layer {
  name: "pool2/3x3_s2"
  type: "Pooling"
  bottom: "conv2/norm2"
  top: "pool2/3x3_s2"
  pooling_param {
    pool: MAX
    kernel_size: 3
    stride: 2
  }
}
layer {
  name: "inception_3a/1x1"
  type: "Convolution"
  bottom: "pool2/3x3_s2"
  top: "inception_3a/1x1"
  param {
    lr_mult: 1
    decay_mult: 1
  }
  param {
    lr_mult: 2
    decay_mult: 0
  }
  convolution_param {
    num_output: 64
    kernel_size: 1
    weight_filler {
      type: "xavier"
      std: 0.03
    }
    bias_filler {
      type: "constant"
      value: 0.2
    }
  }
}
layer {
  name: "inception_3a/relu_1x1"
  type: "ReLU"
  bottom: "inception_3a/1x1"
  top: "inception_3a/1x1"
}
layer {
  name: "inception_3a/3x3_reduce"
  type: "Convolution"
  bottom: "pool2/3x3_s2"
  top: "inception_3a/3x3_reduce"
  param {
    lr_mult: 1
    decay_mult: 1
  }
  param {
    lr_mult: 2
    decay_mult: 0
  }
  convolution_param {
    num_output: 96
    kernel_size: 1
    weight_filler {
      type: "xavier"
      std: 0.09
    }
    bias_filler {
      type: "constant"
      value: 0.2
    }
  }
}
layer {
  name: "inception_3a/relu_3x3_reduce"
  type: "ReLU"
  bottom: "inception_3a/3x3_reduce"
  top: "inception_3a/3x3_reduce"
}
layer {
  name: "inception_3a/3x3"
  type: "Convolution"
  bottom: "inception_3a/3x3_reduce"
  top: "inception_3a/3x3"
  param {
    lr_mult: 1
    decay_mult: 1
  }
  param {
    lr_mult: 2
    decay_mult: 0
  }
  convolution_param {
    num_output: 128
    pad: 1
    kernel_size: 3
    weight_filler {
      type: "xavier"
      std: 0.03
    }
    bias_filler {
      type: "constant"
      value: 0.2
    }
  }
}
layer {
  name: "inception_3a/relu_3x3"
  type: "ReLU"
  bottom: "inception_3a/3x3"
  top: "inception_3a/3x3"
}
layer {
  name: "inception_3a/5x5_reduce"
  type: "Convolution"
  bottom: "pool2/3x3_s2"
  top: "inception_3a/5x5_reduce"
  param {
    lr_mult: 1
    decay_mult: 1
  }
  param {
    lr_mult: 2
    decay_mult: 0
  }
  convolution_param {
    num_output: 16
    kernel_size: 1
    weight_filler {
      type: "xavier"
      std: 0.2
    }
    bias_filler {
      type: "constant"
      value: 0.2
    }
  }
}
layer {
  name: "inception_3a/relu_5x5_reduce"
  type: "ReLU"
  bottom: "inception_3a/5x5_reduce"
  top: "inception_3a/5x5_reduce"
}
layer {
  name: "inception_3a/5x5"
  type: "Convolution"
  bottom: "inception_3a/5x5_reduce"
  top: "inception_3a/5x5"
  param {
    lr_mult: 1
    decay_mult: 1
  }
  param {
    lr_mult: 2
    decay_mult: 0
  }
  convolution_param {
    num_output: 32
    pad: 2
    kernel_size: 5
    weight_filler {
      type: "xavier"
      std: 0.03
    }
    bias_filler {
      type: "constant"
      value: 0.2
    }
  }
}
layer {
  name: "inception_3a/relu_5x5"
  type: "ReLU"
  bottom: "inception_3a/5x5"
  top: "inception_3a/5x5"
}
layer {
  name: "inception_3a/pool"
  type: "Pooling"
  bottom: "pool2/3x3_s2"
  top: "inception_3a/pool"
  pooling_param {
    pool: MAX
    kernel_size: 3
    stride: 1
    pad: 1
  }
}
layer {
  name: "inception_3a/pool_proj"
  type: "Convolution"
  bottom: "inception_3a/pool"
  top: "inception_3a/pool_proj"
  param {
    lr_mult: 1
    decay_mult: 1
  }
  param {
    lr_mult: 2
    decay_mult: 0
  }
  convolution_param {
    num_output: 32
    kernel_size: 1
    weight_filler {
      type: "xavier"
      std: 0.1
    }
    bias_filler {
      type: "constant"
      value: 0.2
    }
  }
}
layer {
  name: "inception_3a/relu_pool_proj"
  type: "ReLU"
  bottom: "inception_3a/pool_proj"
  top: "inception_3a/pool_proj"
}
layer {
  name: "inception_3a/output"
  type: "Concat"
  bottom: "inception_3a/1x1"
  bottom: "inception_3a/3x3"
  bottom: "inception_3a/5x5"
  bottom: "inception_3a/pool_proj"
  top: "inception_3a/output"
}
layer {
  name: "inception_3b/1x1"
  type: "Convolution"
  bottom: "inception_3a/output"
  top: "inception_3b/1x1"
  param {
    lr_mult: 1
    decay_mult: 1
  }
  param {
    lr_mult: 2
    decay_mult: 0
  }
  convolution_param {
    num_output: 128
    kernel_size: 1
    weight_filler {
      type: "xavier"
      std: 0.03
    }
    bias_filler {
      type: "constant"
      value: 0.2
    }
  }
}
layer {
  name: "inception_3b/relu_1x1"
  type: "ReLU"
  bottom: "inception_3b/1x1"
  top: "inception_3b/1x1"
}
layer {
  name: "inception_3b/3x3_reduce"
  type: "Convolution"
  bottom: "inception_3a/output"
  top: "inception_3b/3x3_reduce"
  param {
    lr_mult: 1
    decay_mult: 1
  }
  param {
    lr_mult: 2
    decay_mult: 0
  }
  convolution_param {
    num_output: 128
    kernel_size: 1
    weight_filler {
      type: "xavier"
      std: 0.09
    }
    bias_filler {
      type: "constant"
      value: 0.2
    }
  }
}
layer {
  name: "inception_3b/relu_3x3_reduce"
  type: "ReLU"
  bottom: "inception_3b/3x3_reduce"
  top: "inception_3b/3x3_reduce"
}
layer {
  name: "inception_3b/3x3"
  type: "Convolution"
  bottom: "inception_3b/3x3_reduce"
  top: "inception_3b/3x3"
  param {
    lr_mult: 1
    decay_mult: 1
  }
  param {
    lr_mult: 2
    decay_mult: 0
  }
  convolution_param {
    num_output: 192
    pad: 1
    kernel_size: 3
    weight_filler {
      type: "xavier"
      std: 0.03
    }
    bias_filler {
      type: "constant"
      value: 0.2
    }
  }
}
layer {
  name: "inception_3b/relu_3x3"
  type: "ReLU"
  bottom: "inception_3b/3x3"
  top: "inception_3b/3x3"
}
layer {
  name: "inception_3b/5x5_reduce"
  type: "Convolution"
  bottom: "inception_3a/output"
  top: "inception_3b/5x5_reduce"
  param {
    lr_mult: 1
    decay_mult: 1
  }
  param {
    lr_mult: 2
    decay_mult: 0
  }
  convolution_param {
    num_output: 32
    kernel_size: 1
    weight_filler {
      type: "xavier"
      std: 0.2
    }
    bias_filler {
      type: "constant"
      value: 0.2
    }
  }
}
layer {
  name: "inception_3b/relu_5x5_reduce"
  type: "ReLU"
  bottom: "inception_3b/5x5_reduce"
  top: "inception_3b/5x5_reduce"
}
layer {
  name: "inception_3b/5x5"
  type: "Convolution"
  bottom: "inception_3b/5x5_reduce"
  top: "inception_3b/5x5"
  param {
    lr_mult: 1
    decay_mult: 1
  }
  param {
    lr_mult: 2
    decay_mult: 0
  }
  convolution_param {
    num_output: 96
    pad: 2
    kernel_size: 5
    weight_filler {
      type: "xavier"
      std: 0.03
    }
    bias_filler {
      type: "constant"
      value: 0.2
    }
  }
}
layer {
  name: "inception_3b/relu_5x5"
  type: "ReLU"
  bottom: "inception_3b/5x5"
  top: "inception_3b/5x5"
}
layer {
  name: "inception_3b/pool"
  type: "Pooling"
  bottom: "inception_3a/output"
  top: "inception_3b/pool"
  pooling_param {
    pool: MAX
    kernel_size: 3
    stride: 1
    pad: 1
  }
}
layer {
  name: "inception_3b/pool_proj"
  type: "Convolution"
  bottom: "inception_3b/pool"
  top: "inception_3b/pool_proj"
  param {
    lr_mult: 1
    decay_mult: 1
  }
  param {
    lr_mult: 2
    decay_mult: 0
  }
  convolution_param {
    num_output: 64
    kernel_size: 1
    weight_filler {
      type: "xavier"
      std: 0.1
    }
    bias_filler {
      type: "constant"
      value: 0.2
    }
  }
}
layer {
  name: "inception_3b/relu_pool_proj"
  type: "ReLU"
  bottom: "inception_3b/pool_proj"
  top: "inception_3b/pool_proj"
}
layer {
  name: "inception_3b/output"
  type: "Concat"
  bottom: "inception_3b/1x1"
  bottom: "inception_3b/3x3"
  bottom: "inception_3b/5x5"
  bottom: "inception_3b/pool_proj"
  top: "inception_3b/output"
}
layer {
  name: "pool3/3x3_s2"
  type: "Pooling"
  bottom: "inception_3b/output"
  top: "pool3/3x3_s2"
  pooling_param {
    pool: MAX
    kernel_size: 3
    stride: 2
  }
}
layer {
  name: "inception_4a/1x1"
  type: "Convolution"
  bottom: "pool3/3x3_s2"
  top: "inception_4a/1x1"
  param {
    lr_mult: 1
    decay_mult: 1
  }
  param {
    lr_mult: 2
    decay_mult: 0
  }
  convolution_param {
    num_output: 192
    kernel_size: 1
    weight_filler {
      type: "xavier"
      std: 0.03
    }
    bias_filler {
      type: "constant"
      value: 0.2
    }
  }
}
layer {
  name: "inception_4a/relu_1x1"
  type: "ReLU"
  bottom: "inception_4a/1x1"
  top: "inception_4a/1x1"
}
layer {
  name: "inception_4a/3x3_reduce"
  type: "Convolution"
  bottom: "pool3/3x3_s2"
  top: "inception_4a/3x3_reduce"
  param {
    lr_mult: 1
    decay_mult: 1
  }
  param {
    lr_mult: 2
    decay_mult: 0
  }
  convolution_param {
    num_output: 96
    kernel_size: 1
    weight_filler {
      type: "xavier"
      std: 0.09
    }
    bias_filler {
      type: "constant"
      value: 0.2
    }
  }
}
layer {
  name: "inception_4a/relu_3x3_reduce"
  type: "ReLU"
  bottom: "inception_4a/3x3_reduce"
  top: "inception_4a/3x3_reduce"
}
layer {
  name: "inception_4a/3x3"
  type: "Convolution"
  bottom: "inception_4a/3x3_reduce"
  top: "inception_4a/3x3"
  param {
    lr_mult: 1
    decay_mult: 1
  }
  param {
    lr_mult: 2
    decay_mult: 0
  }
  convolution_param {
    num_output: 208
    pad: 1
    kernel_size: 3
    weight_filler {
      type: "xavier"
      std: 0.03
    }
    bias_filler {
      type: "constant"
      value: 0.2
    }
  }
}
layer {
  name: "inception_4a/relu_3x3"
  type: "ReLU"
  bottom: "inception_4a/3x3"
  top: "inception_4a/3x3"
}
layer {
  name: "inception_4a/5x5_reduce"
  type: "Convolution"
  bottom: "pool3/3x3_s2"
  top: "inception_4a/5x5_reduce"
  param {
    lr_mult: 1
    decay_mult: 1
  }
  param {
    lr_mult: 2
    decay_mult: 0
  }
  convolution_param {
    num_output: 16
    kernel_size: 1
    weight_filler {
      type: "xavier"
      std: 0.2
    }
    bias_filler {
      type: "constant"
      value: 0.2
    }
  }
}
layer {
  name: "inception_4a/relu_5x5_reduce"
  type: "ReLU"
  bottom: "inception_4a/5x5_reduce"
  top: "inception_4a/5x5_reduce"
}
layer {
  name: "inception_4a/5x5"
  type: "Convolution"
  bottom: "inception_4a/5x5_reduce"
  top: "inception_4a/5x5"
  param {
    lr_mult: 1
    decay_mult: 1
  }
  param {
    lr_mult: 2
    decay_mult: 0
  }
  convolution_param {
    num_output: 48
    pad: 2
    kernel_size: 5
    weight_filler {
      type: "xavier"
      std: 0.03
    }
    bias_filler {
      type: "constant"
      value: 0.2
    }
  }
}
layer {
  name: "inception_4a/relu_5x5"
  type: "ReLU"
  bottom: "inception_4a/5x5"
  top: "inception_4a/5x5"
}
layer {
  name: "inception_4a/pool"
  type: "Pooling"
  bottom: "pool3/3x3_s2"
  top: "inception_4a/pool"
  pooling_param {
    pool: MAX
    kernel_size: 3
    stride: 1
    pad: 1
  }
}
layer {
  name: "inception_4a/pool_proj"
  type: "Convolution"
  bottom: "inception_4a/pool"
  top: "inception_4a/pool_proj"
  param {
    lr_mult: 1
    decay_mult: 1
  }
  param {
    lr_mult: 2
    decay_mult: 0
  }
  convolution_param {
    num_output: 64
    kernel_size: 1
    weight_filler {
      type: "xavier"
      std: 0.1
    }
    bias_filler {
      type: "constant"
      value: 0.2
    }
  }
}
layer {
  name: "inception_4a/relu_pool_proj"
  type: "ReLU"
  bottom: "inception_4a/pool_proj"
  top: "inception_4a/pool_proj"
}
layer {
  name: "inception_4a/output"
  type: "Concat"
  bottom: "inception_4a/1x1"
  bottom: "inception_4a/3x3"
  bottom: "inception_4a/5x5"
  bottom: "inception_4a/pool_proj"
  top: "inception_4a/output"
}
layer {
  name: "loss1/ave_pool"
  type: "Pooling"
  bottom: "inception_4a/output"
  top: "loss1/ave_pool"
  pooling_param {
    pool: AVE
    kernel_size: 5
    stride: 3
  }
}
layer {
  name: "loss1/conv"
  type: "Convolution"
  bottom: "loss1/ave_pool"
  top: "loss1/conv"
  param {
    lr_mult: 1
    decay_mult: 1
  }
  param {
    lr_mult: 2
    decay_mult: 0
  }
  convolution_param {
    num_output: 128
    kernel_size: 1
    weight_filler {
      type: "xavier"
      std: 0.08
    }
    bias_filler {
      type: "constant"
      value: 0.2
    }
  }
}
layer {
  name: "loss1/relu_conv"
  type: "ReLU"
  bottom: "loss1/conv"
  top: "loss1/conv"
}
layer {
  name: "loss1/fc"
  type: "InnerProduct"
  bottom: "loss1/conv"
  top: "loss1/fc"
  param {
    lr_mult: 1
    decay_mult: 1
  }
  param {
    lr_mult: 2
    decay_mult: 0
  }
  inner_product_param {
    num_output: 1024
    weight_filler {
      type: "xavier"
      std: 0.02
    }
    bias_filler {
      type: "constant"
      value: 0.2
    }
  }
}
layer {
  name: "loss1/relu_fc"
  type: "ReLU"
  bottom: "loss1/fc"
  top: "loss1/fc"
}
layer {
  name: "loss1/drop_fc"
  type: "Dropout"
  bottom: "loss1/fc"
  top: "loss1/fc"
  dropout_param {
    dropout_ratio: 0.2
  }
}
layer {
  name: "stanford_cars_loss1/classifier"
  type: "InnerProduct"
  bottom: "loss1/fc"
  top: "stanford_cars_loss1/classifier"
  param {
    lr_mult: 1
    decay_mult: 1
  }
  param {
    lr_mult: 2
    decay_mult: 0
  }
  inner_product_param {
    num_output: 196
    weight_filler {
      type: "xavier"
      std: 0.0009765625
    }
    bias_filler {
      type: "constant"
      value: 0
    }
  }
}
layer {
  name: "loss1/loss"
  type: "SoftmaxWithLoss"
  bottom: "stanford_cars_loss1/classifier"
  bottom: "label"
  top: "loss1/loss1"
  loss_weight: 0.3
}
layer {
  name: "loss1/top-1"
  type: "Accuracy"
  bottom: "stanford_cars_loss1/classifier"
  bottom: "label"
  top: "loss1/top-1"
  include {
    phase: TEST
  }
}
layer {
  name: "loss1/top-5"
  type: "Accuracy"
  bottom: "stanford_cars_loss1/classifier"
  bottom: "label"
  top: "loss1/top-5"
  include {
    phase: TEST
  }
  accuracy_param {
    top_k: 5
  }
}
layer {
  name: "inception_4b/1x1"
  type: "Convolution"
  bottom: "inception_4a/output"
  top: "inception_4b/1x1"
  param {
    lr_mult: 1
    decay_mult: 1
  }
  param {
    lr_mult: 2
    decay_mult: 0
  }
  convolution_param {
    num_output: 160
    kernel_size: 1
    weight_filler {
      type: "xavier"
      std: 0.03
    }
    bias_filler {
      type: "constant"
      value: 0.2
    }
  }
}
layer {
  name: "inception_4b/relu_1x1"
  type: "ReLU"
  bottom: "inception_4b/1x1"
  top: "inception_4b/1x1"
}
layer {
  name: "inception_4b/3x3_reduce"
  type: "Convolution"
  bottom: "inception_4a/output"
  top: "inception_4b/3x3_reduce"
  param {
    lr_mult: 1
    decay_mult: 1
  }
  param {
    lr_mult: 2
    decay_mult: 0
  }
  convolution_param {
    num_output: 112
    kernel_size: 1
    weight_filler {
      type: "xavier"
      std: 0.09
    }
    bias_filler {
      type: "constant"
      value: 0.2
    }
  }
}
layer {
  name: "inception_4b/relu_3x3_reduce"
  type: "ReLU"
  bottom: "inception_4b/3x3_reduce"
  top: "inception_4b/3x3_reduce"
}
layer {
  name: "inception_4b/3x3"
  type: "Convolution"
  bottom: "inception_4b/3x3_reduce"
  top: "inception_4b/3x3"
  param {
    lr_mult: 1
    decay_mult: 1
  }
  param {
    lr_mult: 2
    decay_mult: 0
  }
  convolution_param {
    num_output: 224
    pad: 1
    kernel_size: 3
    weight_filler {
      type: "xavier"
      std: 0.03
    }
    bias_filler {
      type: "constant"
      value: 0.2
    }
  }
}
layer {
  name: "inception_4b/relu_3x3"
  type: "ReLU"
  bottom: "inception_4b/3x3"
  top: "inception_4b/3x3"
}
layer {
  name: "inception_4b/5x5_reduce"
  type: "Convolution"
  bottom: "inception_4a/output"
  top: "inception_4b/5x5_reduce"
  param {
    lr_mult: 1
    decay_mult: 1
  }
  param {
    lr_mult: 2
    decay_mult: 0
  }
  convolution_param {
    num_output: 24
    kernel_size: 1
    weight_filler {
      type: "xavier"
      std: 0.2
    }
    bias_filler {
      type: "constant"
      value: 0.2
    }
  }
}
layer {
  name: "inception_4b/relu_5x5_reduce"
  type: "ReLU"
  bottom: "inception_4b/5x5_reduce"
  top: "inception_4b/5x5_reduce"
}
layer {
  name: "inception_4b/5x5"
  type: "Convolution"
  bottom: "inception_4b/5x5_reduce"
  top: "inception_4b/5x5"
  param {
    lr_mult: 1
    decay_mult: 1
  }
  param {
    lr_mult: 2
    decay_mult: 0
  }
  convolution_param {
    num_output: 64
    pad: 2
    kernel_size: 5
    weight_filler {
      type: "xavier"
      std: 0.03
    }
    bias_filler {
      type: "constant"
      value: 0.2
    }
  }
}
layer {
  name: "inception_4b/relu_5x5"
  type: "ReLU"
  bottom: "inception_4b/5x5"
  top: "inception_4b/5x5"
}
layer {
  name: "inception_4b/pool"
  type: "Pooling"
  bottom: "inception_4a/output"
  top: "inception_4b/pool"
  pooling_param {
    pool: MAX
    kernel_size: 3
    stride: 1
    pad: 1
  }
}
layer {
  name: "inception_4b/pool_proj"
  type: "Convolution"
  bottom: "inception_4b/pool"
  top: "inception_4b/pool_proj"
  param {
    lr_mult: 1
    decay_mult: 1
  }
  param {
    lr_mult: 2
    decay_mult: 0
  }
  convolution_param {
    num_output: 64
    kernel_size: 1
    weight_filler {
      type: "xavier"
      std: 0.1
    }
    bias_filler {
      type: "constant"
      value: 0.2
    }
  }
}
layer {
  name: "inception_4b/relu_pool_proj"
  type: "ReLU"
  bottom: "inception_4b/pool_proj"
  top: "inception_4b/pool_proj"
}
layer {
  name: "inception_4b/output"
  type: "Concat"
  bottom: "inception_4b/1x1"
  bottom: "inception_4b/3x3"
  bottom: "inception_4b/5x5"
  bottom: "inception_4b/pool_proj"
  top: "inception_4b/output"
}
layer {
  name: "inception_4c/1x1"
  type: "Convolution"
  bottom: "inception_4b/output"
  top: "inception_4c/1x1"
  param {
    lr_mult: 1
    decay_mult: 1
  }
  param {
    lr_mult: 2
    decay_mult: 0
  }
  convolution_param {
    num_output: 128
    kernel_size: 1
    weight_filler {
      type: "xavier"
      std: 0.03
    }
    bias_filler {
      type: "constant"
      value: 0.2
    }
  }
}
layer {
  name: "inception_4c/relu_1x1"
  type: "ReLU"
  bottom: "inception_4c/1x1"
  top: "inception_4c/1x1"
}
layer {
  name: "inception_4c/3x3_reduce"
  type: "Convolution"
  bottom: "inception_4b/output"
  top: "inception_4c/3x3_reduce"
  param {
    lr_mult: 1
    decay_mult: 1
  }
  param {
    lr_mult: 2
    decay_mult: 0
  }
  convolution_param {
    num_output: 128
    kernel_size: 1
    weight_filler {
      type: "xavier"
      std: 0.09
    }
    bias_filler {
      type: "constant"
      value: 0.2
    }
  }
}
layer {
  name: "inception_4c/relu_3x3_reduce"
  type: "ReLU"
  bottom: "inception_4c/3x3_reduce"
  top: "inception_4c/3x3_reduce"
}
layer {
  name: "inception_4c/3x3"
  type: "Convolution"
  bottom: "inception_4c/3x3_reduce"
  top: "inception_4c/3x3"
  param {
    lr_mult: 1
    decay_mult: 1
  }
  param {
    lr_mult: 2
    decay_mult: 0
  }
  convolution_param {
    num_output: 256
    pad: 1
    kernel_size: 3
    weight_filler {
      type: "xavier"
      std: 0.03
    }
    bias_filler {
      type: "constant"
      value: 0.2
    }
  }
}
layer {
  name: "inception_4c/relu_3x3"
  type: "ReLU"
  bottom: "inception_4c/3x3"
  top: "inception_4c/3x3"
}
layer {
  name: "inception_4c/5x5_reduce"
  type: "Convolution"
  bottom: "inception_4b/output"
  top: "inception_4c/5x5_reduce"
  param {
    lr_mult: 1
    decay_mult: 1
  }
  param {
    lr_mult: 2
    decay_mult: 0
  }
  convolution_param {
    num_output: 24
    kernel_size: 1
    weight_filler {
      type: "xavier"
      std: 0.2
    }
    bias_filler {
      type: "constant"
      value: 0.2
    }
  }
}
layer {
  name: "inception_4c/relu_5x5_reduce"
  type: "ReLU"
  bottom: "inception_4c/5x5_reduce"
  top: "inception_4c/5x5_reduce"
}
layer {
  name: "inception_4c/5x5"
  type: "Convolution"
  bottom: "inception_4c/5x5_reduce"
  top: "inception_4c/5x5"
  param {
    lr_mult: 1
    decay_mult: 1
  }
  param {
    lr_mult: 2
    decay_mult: 0
  }
  convolution_param {
    num_output: 64
    pad: 2
    kernel_size: 5
    weight_filler {
      type: "xavier"
      std: 0.03
    }
    bias_filler {
      type: "constant"
      value: 0.2
    }
  }
}
layer {
  name: "inception_4c/relu_5x5"
  type: "ReLU"
  bottom: "inception_4c/5x5"
  top: "inception_4c/5x5"
}
layer {
  name: "inception_4c/pool"
  type: "Pooling"
  bottom: "inception_4b/output"
  top: "inception_4c/pool"
  pooling_param {
    pool: MAX
    kernel_size: 3
    stride: 1
    pad: 1
  }
}
layer {
  name: "inception_4c/pool_proj"
  type: "Convolution"
  bottom: "inception_4c/pool"
  top: "inception_4c/pool_proj"
  param {
    lr_mult: 1
    decay_mult: 1
  }
  param {
    lr_mult: 2
    decay_mult: 0
  }
  convolution_param {
    num_output: 64
    kernel_size: 1
    weight_filler {
      type: "xavier"
      std: 0.1
    }
    bias_filler {
      type: "constant"
      value: 0.2
    }
  }
}
layer {
  name: "inception_4c/relu_pool_proj"
  type: "ReLU"
  bottom: "inception_4c/pool_proj"
  top: "inception_4c/pool_proj"
}
layer {
  name: "inception_4c/output"
  type: "Concat"
  bottom: "inception_4c/1x1"
  bottom: "inception_4c/3x3"
  bottom: "inception_4c/5x5"
  bottom: "inception_4c/pool_proj"
  top: "inception_4c/output"
}
layer {
  name: "inception_4d/1x1"
  type: "Convolution"
  bottom: "inception_4c/output"
  top: "inception_4d/1x1"
  param {
    lr_mult: 1
    decay_mult: 1
  }
  param {
    lr_mult: 2
    decay_mult: 0
  }
  convolution_param {
    num_output: 112
    kernel_size: 1
    weight_filler {
      type: "xavier"
      std: 0.03
    }
    bias_filler {
      type: "constant"
      value: 0.2
    }
  }
}
layer {
  name: "inception_4d/relu_1x1"
  type: "ReLU"
  bottom: "inception_4d/1x1"
  top: "inception_4d/1x1"
}
layer {
  name: "inception_4d/3x3_reduce"
  type: "Convolution"
  bottom: "inception_4c/output"
  top: "inception_4d/3x3_reduce"
  param {
    lr_mult: 1
    decay_mult: 1
  }
  param {
    lr_mult: 2
    decay_mult: 0
  }
  convolution_param {
    num_output: 144
    kernel_size: 1
    weight_filler {
      type: "xavier"
      std: 0.09
    }
    bias_filler {
      type: "constant"
      value: 0.2
    }
  }
}
layer {
  name: "inception_4d/relu_3x3_reduce"
  type: "ReLU"
  bottom: "inception_4d/3x3_reduce"
  top: "inception_4d/3x3_reduce"
}
layer {
  name: "inception_4d/3x3"
  type: "Convolution"
  bottom: "inception_4d/3x3_reduce"
  top: "inception_4d/3x3"
  param {
    lr_mult: 1
    decay_mult: 1
  }
  param {
    lr_mult: 2
    decay_mult: 0
  }
  convolution_param {
    num_output: 288
    pad: 1
    kernel_size: 3
    weight_filler {
      type: "xavier"
      std: 0.03
    }
    bias_filler {
      type: "constant"
      value: 0.2
    }
  }
}
layer {
  name: "inception_4d/relu_3x3"
  type: "ReLU"
  bottom: "inception_4d/3x3"
  top: "inception_4d/3x3"
}
layer {
  name: "inception_4d/5x5_reduce"
  type: "Convolution"
  bottom: "inception_4c/output"
  top: "inception_4d/5x5_reduce"
  param {
    lr_mult: 1
    decay_mult: 1
  }
  param {
    lr_mult: 2
    decay_mult: 0
  }
  convolution_param {
    num_output: 32
    kernel_size: 1
    weight_filler {
      type: "xavier"
      std: 0.2
    }
    bias_filler {
      type: "constant"
      value: 0.2
    }
  }
}
layer {
  name: "inception_4d/relu_5x5_reduce"
  type: "ReLU"
  bottom: "inception_4d/5x5_reduce"
  top: "inception_4d/5x5_reduce"
}
layer {
  name: "inception_4d/5x5"
  type: "Convolution"
  bottom: "inception_4d/5x5_reduce"
  top: "inception_4d/5x5"
  param {
    lr_mult: 1
    decay_mult: 1
  }
  param {
    lr_mult: 2
    decay_mult: 0
  }
  convolution_param {
    num_output: 64
    pad: 2
    kernel_size: 5
    weight_filler {
      type: "xavier"
      std: 0.03
    }
    bias_filler {
      type: "constant"
      value: 0.2
    }
  }
}
layer {
  name: "inception_4d/relu_5x5"
  type: "ReLU"
  bottom: "inception_4d/5x5"
  top: "inception_4d/5x5"
}
layer {
  name: "inception_4d/pool"
  type: "Pooling"
  bottom: "inception_4c/output"
  top: "inception_4d/pool"
  pooling_param {
    pool: MAX
    kernel_size: 3
    stride: 1
    pad: 1
  }
}
layer {
  name: "inception_4d/pool_proj"
  type: "Convolution"
  bottom: "inception_4d/pool"
  top: "inception_4d/pool_proj"
  param {
    lr_mult: 1
    decay_mult: 1
  }
  param {
    lr_mult: 2
    decay_mult: 0
  }
  convolution_param {
    num_output: 64
    kernel_size: 1
…
I0703 14:40:17.149273 30328 net.cpp:127] Top shape: 10 128 14 14 (250880)
I0703 14:40:17.149286 30328 layer_factory.hpp:74] Creating layer inception_4c/relu_1x1
I0703 14:40:17.149291 30328 net.cpp:90] Creating Layer inception_4c/relu_1x1
I0703 14:40:17.149296 30328 net.cpp:410] inception_4c/relu_1x1 <- inception_4c/1x1
I0703 14:40:17.149303 30328 net.cpp:357] inception_4c/relu_1x1 -> inception_4c/1x1 (in-place)
I0703 14:40:17.149309 30328 net.cpp:120] Setting up inception_4c/relu_1x1
I0703 14:40:17.149359 30328 net.cpp:127] Top shape: 10 128 14 14 (250880)
I0703 14:40:17.149365 30328 layer_factory.hpp:74] Creating layer inception_4c/3x3_reduce
I0703 14:40:17.149374 30328 net.cpp:90] Creating Layer inception_4c/3x3_reduce
I0703 14:40:17.149379 30328 net.cpp:410] inception_4c/3x3_reduce <- inception_4b/output_inception_4b/output_0_split_1
I0703 14:40:17.149384 30328 net.cpp:368] inception_4c/3x3_reduce -> inception_4c/3x3_reduce
I0703 14:40:17.149391 30328 net.cpp:120] Setting up inception_4c/3x3_reduce
I0703 14:40:17.149922 30328 net.cpp:127] Top shape: 10 128 14 14 (250880)
I0703 14:40:17.149934 30328 layer_factory.hpp:74] Creating layer inception_4c/relu_3x3_reduce
I0703 14:40:17.149941 30328 net.cpp:90] Creating Layer inception_4c/relu_3x3_reduce
I0703 14:40:17.149946 30328 net.cpp:410] inception_4c/relu_3x3_reduce <- inception_4c/3x3_reduce
I0703 14:40:17.149952 30328 net.cpp:357] inception_4c/relu_3x3_reduce -> inception_4c/3x3_reduce (in-place)
I0703 14:40:17.149958 30328 net.cpp:120] Setting up inception_4c/relu_3x3_reduce
I0703 14:40:17.150074 30328 net.cpp:127] Top shape: 10 128 14 14 (250880)
I0703 14:40:17.150082 30328 layer_factory.hpp:74] Creating layer inception_4c/3x3
I0703 14:40:17.150090 30328 net.cpp:90] Creating Layer inception_4c/3x3
I0703 14:40:17.150095 30328 net.cpp:410] inception_4c/3x3 <- inception_4c/3x3_reduce
I0703 14:40:17.150101 30328 net.cpp:368] inception_4c/3x3 -> inception_4c/3x3
I0703 14:40:17.150109 30328 net.cpp:120] Setting up inception_4c/3x3
I0703 14:40:17.151782 30328 net.cpp:127] Top shape: 10 256 14 14 (501760)
I0703 14:40:17.151803 30328 layer_factory.hpp:74] Creating layer inception_4c/relu_3x3
I0703 14:40:17.151810 30328 net.cpp:90] Creating Layer inception_4c/relu_3x3
I0703 14:40:17.151815 30328 net.cpp:410] inception_4c/relu_3x3 <- inception_4c/3x3
I0703 14:40:17.151821 30328 net.cpp:357] inception_4c/relu_3x3 -> inception_4c/3x3 (in-place)
I0703 14:40:17.151828 30328 net.cpp:120] Setting up inception_4c/relu_3x3
I0703 14:40:17.151882 30328 net.cpp:127] Top shape: 10 256 14 14 (501760)
I0703 14:40:17.151893 30328 layer_factory.hpp:74] Creating layer inception_4c/5x5_reduce
I0703 14:40:17.151901 30328 net.cpp:90] Creating Layer inception_4c/5x5_reduce
I0703 14:40:17.151906 30328 net.cpp:410] inception_4c/5x5_reduce <- inception_4b/output_inception_4b/output_0_split_2
I0703 14:40:17.151913 30328 net.cpp:368] inception_4c/5x5_reduce -> inception_4c/5x5_reduce
I0703 14:40:17.151921 30328 net.cpp:120] Setting up inception_4c/5x5_reduce
I0703 14:40:17.152191 30328 net.cpp:127] Top shape: 10 24 14 14 (47040)
I0703 14:40:17.152204 30328 layer_factory.hpp:74] Creating layer inception_4c/relu_5x5_reduce
I0703 14:40:17.152211 30328 net.cpp:90] Creating Layer inception_4c/relu_5x5_reduce
I0703 14:40:17.152216 30328 net.cpp:410] inception_4c/relu_5x5_reduce <- inception_4c/5x5_reduce
I0703 14:40:17.152222 30328 net.cpp:357] inception_4c/relu_5x5_reduce -> inception_4c/5x5_reduce (in-place)
I0703 14:40:17.152228 30328 net.cpp:120] Setting up inception_4c/relu_5x5_reduce
I0703 14:40:17.152269 30328 net.cpp:127] Top shape: 10 24 14 14 (47040)
I0703 14:40:17.152276 30328 layer_factory.hpp:74] Creating layer inception_4c/5x5
I0703 14:40:17.152282 30328 net.cpp:90] Creating Layer inception_4c/5x5
I0703 14:40:17.152287 30328 net.cpp:410] inception_4c/5x5 <- inception_4c/5x5_reduce
I0703 14:40:17.152294 30328 net.cpp:368] inception_4c/5x5 -> inception_4c/5x5
I0703 14:40:17.152300 30328 net.cpp:120] Setting up inception_4c/5x5
I0703 14:40:17.152698 30328 net.cpp:127] Top shape: 10 64 14 14 (125440)
I0703 14:40:17.152709 30328 layer_factory.hpp:74] Creating layer inception_4c/relu_5x5
I0703 14:40:17.152715 30328 net.cpp:90] Creating Layer inception_4c/relu_5x5
I0703 14:40:17.152720 30328 net.cpp:410] inception_4c/relu_5x5 <- inception_4c/5x5
I0703 14:40:17.152726 30328 net.cpp:357] inception_4c/relu_5x5 -> inception_4c/5x5 (in-place)
I0703 14:40:17.152732 30328 net.cpp:120] Setting up inception_4c/relu_5x5
I0703 14:40:17.152775 30328 net.cpp:127] Top shape: 10 64 14 14 (125440)
I0703 14:40:17.152789 30328 layer_factory.hpp:74] Creating layer inception_4c/pool
I0703 14:40:17.152794 30328 layer_factory.cpp:55] CUDNN does not support padding or multiple tops. Using Caffe's own pooling layer.
I0703 14:40:17.152801 30328 net.cpp:90] Creating Layer inception_4c/pool
I0703 14:40:17.152806 30328 net.cpp:410] inception_4c/pool <- inception_4b/output_inception_4b/output_0_split_3
I0703 14:40:17.152812 30328 net.cpp:368] inception_4c/pool -> inception_4c/pool
I0703 14:40:17.152818 30328 net.cpp:120] Setting up inception_4c/pool
I0703 14:40:17.152825 30328 net.cpp:127] Top shape: 10 512 14 14 (1003520)
I0703 14:40:17.152829 30328 layer_factory.hpp:74] Creating layer inception_4c/pool_proj
I0703 14:40:17.152837 30328 net.cpp:90] Creating Layer inception_4c/pool_proj
I0703 14:40:17.152842 30328 net.cpp:410] inception_4c/pool_proj <- inception_4c/pool
I0703 14:40:17.152848 30328 net.cpp:368] inception_4c/pool_proj -> inception_4c/pool_proj
I0703 14:40:17.152854 30328 net.cpp:120] Setting up inception_4c/pool_proj
I0703 14:40:17.153223 30328 net.cpp:127] Top shape: 10 64 14 14 (125440)
I0703 14:40:17.153234 30328 layer_factory.hpp:74] Creating layer inception_4c/relu_pool_proj
I0703 14:40:17.153240 30328 net.cpp:90] Creating Layer inception_4c/relu_pool_proj
I0703 14:40:17.153246 30328 net.cpp:410] inception_4c/relu_pool_proj <- inception_4c/pool_proj
I0703 14:40:17.153252 30328 net.cpp:357] inception_4c/relu_pool_proj -> inception_4c/pool_proj (in-place)
I0703 14:40:17.153259 30328 net.cpp:120] Setting up inception_4c/relu_pool_proj
I0703 14:40:17.153373 30328 net.cpp:127] Top shape: 10 64 14 14 (125440)
I0703 14:40:17.153381 30328 layer_factory.hpp:74] Creating layer inception_4c/output
I0703 14:40:17.153389 30328 net.cpp:90] Creating Layer inception_4c/output
I0703 14:40:17.153394 30328 net.cpp:410] inception_4c/output <- inception_4c/1x1
I0703 14:40:17.174854 30328 net.cpp:410] inception_4c/output <- inception_4c/3x3
I0703 14:40:17.174865 30328 net.cpp:410] inception_4c/output <- inception_4c/5x5
I0703 14:40:17.174870 30328 net.cpp:410] inception_4c/output <- inception_4c/pool_proj
I0703 14:40:17.174876 30328 net.cpp:368] inception_4c/output -> inception_4c/output
I0703 14:40:17.174883 30328 net.cpp:120] Setting up inception_4c/output
I0703 14:40:17.174895 30328 net.cpp:127] Top shape: 10 512 14 14 (1003520)
I0703 14:40:17.174899 30328 layer_factory.hpp:74] Creating layer inception_4c/output_inception_4c/output_0_split
I0703 14:40:17.174906 30328 net.cpp:90] Creating Layer inception_4c/output_inception_4c/output_0_split
I0703 14:40:17.174911 30328 net.cpp:410] inception_4c/output_inception_4c/output_0_split <- inception_4c/output
I0703 14:40:17.174916 30328 net.cpp:368] inception_4c/output_inception_4c/output_0_split -> inception_4c/output_inception_4c/output_0_split_0
I0703 14:40:17.174923 30328 net.cpp:368] inception_4c/output_inception_4c/output_0_split -> inception_4c/output_inception_4c/output_0_split_1
I0703 14:40:17.174931 30328 net.cpp:368] inception_4c/output_inception_4c/output_0_split -> inception_4c/output_inception_4c/output_0_split_2
I0703 14:40:17.174937 30328 net.cpp:368] inception_4c/output_inception_4c/output_0_split -> inception_4c/output_inception_4c/output_0_split_3
I0703 14:40:17.174942 30328 net.cpp:120] Setting up inception_4c/output_inception_4c/output_0_split
I0703 14:40:17.174949 30328 net.cpp:127] Top shape: 10 512 14 14 (1003520)
I0703 14:40:17.174954 30328 net.cpp:127] Top shape: 10 512 14 14 (1003520)
I0703 14:40:17.174958 30328 net.cpp:127] Top shape: 10 512 14 14 (1003520)
I0703 14:40:17.174963 30328 net.cpp:127] Top shape: 10 512 14 14 (1003520)
I0703 14:40:17.174968 30328 layer_factory.hpp:74] Creating layer inception_4d/1x1
I0703 14:40:17.174976 30328 net.cpp:90] Creating Layer inception_4d/1x1
I0703 14:40:17.174981 30328 net.cpp:410] inception_4d/1x1 <- inception_4c/output_inception_4c/output_0_split_0
I0703 14:40:17.174988 30328 net.cpp:368] inception_4d/1x1 -> inception_4d/1x1
I0703 14:40:17.174995 30328 net.cpp:120] Setting up inception_4d/1x1
I0703 14:40:17.175544 30328 net.cpp:127] Top shape: 10 112 14 14 (219520)
I0703 14:40:17.175565 30328 layer_factory.hpp:74] Creating layer inception_4d/relu_1x1
I0703 14:40:17.175573 30328 net.cpp:90] Creating Layer inception_4d/relu_1x1
I0703 14:40:17.175580 30328 net.cpp:410] inception_4d/relu_1x1 <- inception_4d/1x1
I0703 14:40:17.175585 30328 net.cpp:357] inception_4d/relu_1x1 -> inception_4d/1x1 (in-place)
I0703 14:40:17.175595 30328 net.cpp:120] Setting up inception_4d/relu_1x1
I0703 14:40:17.175657 30328 net.cpp:127] Top shape: 10 112 14 14 (219520)
I0703 14:40:17.175665 30328 layer_factory.hpp:74] Creating layer inception_4d/3x3_reduce
I0703 14:40:17.175674 30328 net.cpp:90] Creating Layer inception_4d/3x3_reduce
I0703 14:40:17.175679 30328 net.cpp:410] inception_4d/3x3_reduce <- inception_4c/output_inception_4c/output_0_split_1
I0703 14:40:17.175686 30328 net.cpp:368] inception_4d/3x3_reduce -> inception_4d/3x3_reduce
I0703 14:40:17.175693 30328 net.cpp:120] Setting up inception_4d/3x3_reduce
I0703 14:40:17.176462 30328 net.cpp:127] Top shape: 10 144 14 14 (282240)
I0703 14:40:17.176481 30328 layer_factory.hpp:74] Creating layer inception_4d/relu_3x3_reduce
I0703 14:40:17.176491 30328 net.cpp:90] Creating Layer inception_4d/relu_3x3_reduce
I0703 14:40:17.176499 30328 net.cpp:410] inception_4d/relu_3x3_reduce <- inception_4d/3x3_reduce
I0703 14:40:17.176509 30328 net.cpp:357] inception_4d/relu_3x3_reduce -> inception_4d/3x3_reduce (in-place)
I0703 14:40:17.176520 30328 net.cpp:120] Setting up inception_4d/relu_3x3_reduce
I0703 14:40:17.177278 30328 net.cpp:127] Top shape: 10 144 14 14 (282240)
I0703 14:40:17.177289 30328 layer_factory.hpp:74] Creating layer inception_4d/3x3
I0703 14:40:17.177297 30328 net.cpp:90] Creating Layer inception_4d/3x3
I0703 14:40:17.177304 30328 net.cpp:410] inception_4d/3x3 <- inception_4d/3x3_reduce
I0703 14:40:17.177310 30328 net.cpp:368] inception_4d/3x3 -> inception_4d/3x3
I0703 14:40:17.177319 30328 net.cpp:120] Setting up inception_4d/3x3
I0703 14:40:17.179441 30328 net.cpp:127] Top shape: 10 288 14 14 (564480)
I0703 14:40:17.179455 30328 layer_factory.hpp:74] Creating layer inception_4d/relu_3x3
I0703 14:40:17.179463 30328 net.cpp:90] Creating Layer inception_4d/relu_3x3
I0703 14:40:17.179468 30328 net.cpp:410] inception_4d/relu_3x3 <- inception_4d/3x3
I0703 14:40:17.179474 30328 net.cpp:357] inception_4d/relu_3x3 -> inception_4d/3x3 (in-place)
I0703 14:40:17.179481 30328 net.cpp:120] Setting up inception_4d/relu_3x3
I0703 14:40:17.179607 30328 net.cpp:127] Top shape: 10 288 14 14 (564480)
I0703 14:40:17.179616 30328 layer_factory.hpp:74] Creating layer inception_4d/5x5_reduce
I0703 14:40:17.179625 30328 net.cpp:90] Creating Layer inception_4d/5x5_reduce
I0703 14:40:17.179630 30328 net.cpp:410] inception_4d/5x5_reduce <- inception_4c/output_inception_4c/output_0_split_2
I0703 14:40:17.179637 30328 net.cpp:368] inception_4d/5x5_reduce -> inception_4d/5x5_reduce
I0703 14:40:17.179646 30328 net.cpp:120] Setting up inception_4d/5x5_reduce
I0703 14:40:17.179945 30328 net.cpp:127] Top shape: 10 32 14 14 (62720)
I0703 14:40:17.179956 30328 layer_factory.hpp:74] Creating layer inception_4d/relu_5x5_reduce
I0703 14:40:17.179965 30328 net.cpp:90] Creating Layer inception_4d/relu_5x5_reduce
I0703 14:40:17.179970 30328 net.cpp:410] inception_4d/relu_5x5_reduce <- inception_4d/5x5_reduce
I0703 14:40:17.179975 30328 net.cpp:357] inception_4d/relu_5x5_reduce -> inception_4d/5x5_reduce (in-place)
I0703 14:40:17.179981 30328 net.cpp:120] Setting up inception_4d/relu_5x5_reduce
I0703 14:40:17.180027 30328 net.cpp:127] Top shape: 10 32 14 14 (62720)
I0703 14:40:17.180032 30328 layer_factory.hpp:74] Creating layer inception_4d/5x5
I0703 14:40:17.180039 30328 net.cpp:90] Creating Layer inception_4d/5x5
I0703 14:40:17.180044 30328 net.cpp:410] inception_4d/5x5 <- inception_4d/5x5_reduce
I0703 14:40:17.180050 30328 net.cpp:368] inception_4d/5x5 -> inception_4d/5x5
I0703 14:40:17.180058 30328 net.cpp:120] Setting up inception_4d/5x5
I0703 14:40:17.180521 30328 net.cpp:127] Top shape: 10 64 14 14 (125440)
I0703 14:40:17.180531 30328 layer_factory.hpp:74] Creating layer inception_4d/relu_5x5
I0703 14:40:17.180552 30328 net.cpp:90] Creating Layer inception_4d/relu_5x5
I0703 14:40:17.180557 30328 net.cpp:410] inception_4d/relu_5x5 <- inception_4d/5x5
I0703 14:40:17.180563 30328 net.cpp:357] inception_4d/relu_5x5 -> inception_4d/5x5 (in-place)
I0703 14:40:17.180569 30328 net.cpp:120] Setting up inception_4d/relu_5x5
I0703 14:40:17.180614 30328 net.cpp:127] Top shape: 10 64 14 14 (125440)
I0703 14:40:17.180620 30328 layer_factory.hpp:74] Creating layer inception_4d/pool
I0703 14:40:17.180626 30328 layer_factory.cpp:55] CUDNN does not support padding or multiple tops. Using Caffe's own pooling layer.
I0703 14:40:17.180631 30328 net.cpp:90] Creating Layer inception_4d/pool
I0703 14:40:17.180636 30328 net.cpp:410] inception_4d/pool <- inception_4c/output_inception_4c/output_0_split_3
I0703 14:40:17.180644 30328 net.cpp:368] inception_4d/pool -> inception_4d/pool
I0703 14:40:17.180649 30328 net.cpp:120] Setting up inception_4d/pool
I0703 14:40:17.180657 30328 net.cpp:127] Top shape: 10 512 14 14 (1003520)
I0703 14:40:17.180661 30328 layer_factory.hpp:74] Creating layer inception_4d/pool_proj
I0703 14:40:17.180668 30328 net.cpp:90] Creating Layer inception_4d/pool_proj
I0703 14:40:17.180675 30328 net.cpp:410] inception_4d/pool_proj <- inception_4d/pool
I0703 14:40:17.180680 30328 net.cpp:368] inception_4d/pool_proj -> inception_4d/pool_proj
I0703 14:40:17.180686 30328 net.cpp:120] Setting up inception_4d/pool_proj
I0703 14:40:17.181069 30328 net.cpp:127] Top shape: 10 64 14 14 (125440)
I0703 14:40:17.181080 30328 layer_factory.hpp:74] Creating layer inception_4d/relu_pool_proj
I0703 14:40:17.181088 30328 net.cpp:90] Creating Layer inception_4d/relu_pool_proj
I0703 14:40:17.181093 30328 net.cpp:410] inception_4d/relu_pool_proj <- inception_4d/pool_proj
I0703 14:40:17.181099 30328 net.cpp:357] inception_4d/relu_pool_proj -> inception_4d/pool_proj (in-place)
I0703 14:40:17.181107 30328 net.cpp:120] Setting up inception_4d/relu_pool_proj
I0703 14:40:17.181149 30328 net.cpp:127] Top shape: 10 64 14 14 (125440)
I0703 14:40:17.181154 30328 layer_factory.hpp:74] Creating layer inception_4d/output
I0703 14:40:17.181161 30328 net.cpp:90] Creating Layer inception_4d/output
I0703 14:40:17.181165 30328 net.cpp:410] inception_4d/output <- inception_4d/1x1
I0703 14:40:17.181171 30328 net.cpp:410] inception_4d/output <- inception_4d/3x3
I0703 14:40:17.181176 30328 net.cpp:410] inception_4d/output <- inception_4d/5x5
I0703 14:40:17.181181 30328 net.cpp:410] inception_4d/output <- inception_4d/pool_proj
I0703 14:40:17.181187 30328 net.cpp:368] inception_4d/output -> inception_4d/output
I0703 14:40:17.181193 30328 net.cpp:120] Setting up inception_4d/output
I0703 14:40:17.181200 30328 net.cpp:127] Top shape: 10 528 14 14 (1034880)
I0703 14:40:17.181205 30328 layer_factory.hpp:74] Creating layer inception_4d/output_inception_4d/output_0_split
I0703 14:40:17.181211 30328 net.cpp:90] Creating Layer inception_4d/output_inception_4d/output_0_split
I0703 14:40:17.181216 30328 net.cpp:410] inception_4d/output_inception_4d/output_0_split <- inception_4d/output
I0703 14:40:17.181221 30328 net.cpp:368] inception_4d/output_inception_4d/output_0_split -> inception_4d/output_inception_4d/output_0_split_0
I0703 14:40:17.181227 30328 net.cpp:368] inception_4d/output_inception_4d/output_0_split -> inception_4d/output_inception_4d/output_0_split_1
I0703 14:40:17.181234 30328 net.cpp:368] inception_4d/output_inception_4d/output_0_split -> inception_4d/output_inception_4d/output_0_split_2
I0703 14:40:17.181241 30328 net.cpp:368] inception_4d/output_inception_4d/output_0_split -> inception_4d/output_inception_4d/output_0_split_3
I0703 14:40:17.181248 30328 net.cpp:368] inception_4d/output_inception_4d/output_0_split -> inception_4d/output_inception_4d/output_0_split_4
I0703 14:40:17.181254 30328 net.cpp:120] Setting up inception_4d/output_inception_4d/output_0_split
I0703 14:40:17.181262 30328 net.cpp:127] Top shape: 10 528 14 14 (1034880)
I0703 14:40:17.181267 30328 net.cpp:127] Top shape: 10 528 14 14 (1034880)
I0703 14:40:17.181277 30328 net.cpp:127] Top shape: 10 528 14 14 (1034880)
I0703 14:40:17.181283 30328 net.cpp:127] Top shape: 10 528 14 14 (1034880)
I0703 14:40:17.181288 30328 net.cpp:127] Top shape: 10 528 14 14 (1034880)
I0703 14:40:17.181293 30328 layer_factory.hpp:74] Creating layer loss2/ave_pool
I0703 14:40:17.181298 30328 net.cpp:90] Creating Layer loss2/ave_pool
I0703 14:40:17.181303 30328 net.cpp:410] loss2/ave_pool <- inception_4d/output_inception_4d/output_0_split_0
I0703 14:40:17.181310 30328 net.cpp:368] loss2/ave_pool -> loss2/ave_pool
I0703 14:40:17.181316 30328 net.cpp:120] Setting up loss2/ave_pool
I0703 14:40:17.181443 30328 net.cpp:127] Top shape: 10 528 4 4 (84480)
I0703 14:40:17.181452 30328 layer_factory.hpp:74] Creating layer loss2/conv
I0703 14:40:17.181459 30328 net.cpp:90] Creating Layer loss2/conv
I0703 14:40:17.181464 30328 net.cpp:410] loss2/conv <- loss2/ave_pool
I0703 14:40:17.181471 30328 net.cpp:368] loss2/conv -> loss2/conv
I0703 14:40:17.181478 30328 net.cpp:120] Setting up loss2/conv
I0703 14:40:17.182024 30328 net.cpp:127] Top shape: 10 128 4 4 (20480)
I0703 14:40:17.182036 30328 layer_factory.hpp:74] Creating layer loss2/relu_conv
I0703 14:40:17.182044 30328 net.cpp:90] Creating Layer loss2/relu_conv
I0703 14:40:17.205420 30328 net.cpp:410] loss2/relu_conv <- loss2/conv
I0703 14:40:17.205445 30328 net.cpp:357] loss2/relu_conv -> loss2/conv (in-place)
I0703 14:40:17.205454 30328 net.cpp:120] Setting up loss2/relu_conv
I0703 14:40:17.205545 30328 net.cpp:127] Top shape: 10 128 4 4 (20480)
I0703 14:40:17.205554 30328 layer_factory.hpp:74] Creating layer loss2/fc
I0703 14:40:17.205566 30328 net.cpp:90] Creating Layer loss2/fc
I0703 14:40:17.205571 30328 net.cpp:410] loss2/fc <- loss2/conv
I0703 14:40:17.205577 30328 net.cpp:368] loss2/fc -> loss2/fc
I0703 14:40:17.205585 30328 net.cpp:120] Setting up loss2/fc
I0703 14:40:17.215571 30328 net.cpp:127] Top shape: 10 1024 (10240)
I0703 14:40:17.215597 30328 layer_factory.hpp:74] Creating layer loss2/relu_fc
I0703 14:40:17.215607 30328 net.cpp:90] Creating Layer loss2/relu_fc
I0703 14:40:17.215615 30328 net.cpp:410] loss2/relu_fc <- loss2/fc
I0703 14:40:17.215622 30328 net.cpp:357] loss2/relu_fc -> loss2/fc (in-place)
I0703 14:40:17.215631 30328 net.cpp:120] Setting up loss2/relu_fc
I0703 14:40:17.215711 30328 net.cpp:127] Top shape: 10 1024 (10240)
I0703 14:40:17.215718 30328 layer_factory.hpp:74] Creating layer loss2/drop_fc
I0703 14:40:17.215725 30328 net.cpp:90] Creating Layer loss2/drop_fc
I0703 14:40:17.215730 30328 net.cpp:410] loss2/drop_fc <- loss2/fc
I0703 14:40:17.215736 30328 net.cpp:357] loss2/drop_fc -> loss2/fc (in-place)
I0703 14:40:17.215742 30328 net.cpp:120] Setting up loss2/drop_fc
I0703 14:40:17.215749 30328 net.cpp:127] Top shape: 10 1024 (10240)
I0703 14:40:17.215754 30328 layer_factory.hpp:74] Creating layer stanford_cars_loss2/classifier
I0703 14:40:17.215760 30328 net.cpp:90] Creating Layer stanford_cars_loss2/classifier
I0703 14:40:17.215766 30328 net.cpp:410] stanford_cars_loss2/classifier <- loss2/fc
I0703 14:40:17.215772 30328 net.cpp:368] stanford_cars_loss2/classifier -> stanford_cars_loss2/classifier
I0703 14:40:17.215780 30328 net.cpp:120] Setting up stanford_cars_loss2/classifier
I0703 14:40:17.216773 30328 net.cpp:127] Top shape: 10 196 (1960)
I0703 14:40:17.216781 30328 layer_factory.hpp:74] Creating layer stanford_cars_loss2/classifier_stanford_cars_loss2/classifier_0_split
I0703 14:40:17.216789 30328 net.cpp:90] Creating Layer stanford_cars_loss2/classifier_stanford_cars_loss2/classifier_0_split
I0703 14:40:17.216794 30328 net.cpp:410] stanford_cars_loss2/classifier_stanford_cars_loss2/classifier_0_split <- stanford_cars_loss2/classifier
I0703 14:40:17.216800 30328 net.cpp:368] stanford_cars_loss2/classifier_stanford_cars_loss2/classifier_0_split -> stanford_cars_loss2/classifier_stanford_cars_loss2/classifier_0_split_0
I0703 14:40:17.216807 30328 net.cpp:368] stanford_cars_loss2/classifier_stanford_cars_loss2/classifier_0_split -> stanford_cars_loss2/classifier_stanford_cars_loss2/classifier_0_split_1
I0703 14:40:17.216830 30328 net.cpp:368] stanford_cars_loss2/classifier_stanford_cars_loss2/classifier_0_split -> stanford_cars_loss2/classifier_stanford_cars_loss2/classifier_0_split_2
I0703 14:40:17.216837 30328 net.cpp:120] Setting up stanford_cars_loss2/classifier_stanford_cars_loss2/classifier_0_split
I0703 14:40:17.216843 30328 net.cpp:127] Top shape: 10 196 (1960)
I0703 14:40:17.216848 30328 net.cpp:127] Top shape: 10 196 (1960)
I0703 14:40:17.216853 30328 net.cpp:127] Top shape: 10 196 (1960)
I0703 14:40:17.216857 30328 layer_factory.hpp:74] Creating layer stanford_cars_loss2/loss
I0703 14:40:17.216864 30328 net.cpp:90] Creating Layer stanford_cars_loss2/loss
I0703 14:40:17.216868 30328 net.cpp:410] stanford_cars_loss2/loss <- stanford_cars_loss2/classifier_stanford_cars_loss2/classifier_0_split_0
I0703 14:40:17.216874 30328 net.cpp:410] stanford_cars_loss2/loss <- label_data_1_split_3
…
I0703 14:40:17.217028 30328 net.cpp:368] loss2/top-5 -> loss2/top-5
I0703 14:40:17.217036 30328 net.cpp:120] Setting up loss2/top-5
I0703 14:40:17.217041 30328 net.cpp:127] Top shape: (1)
I0703 14:40:17.217044 30328 layer_factory.hpp:74] Creating layer inception_4e/1x1
I0703 14:40:17.217052 30328 net.cpp:90] Creating Layer inception_4e/1x1
I0703 14:40:17.217057 30328 net.cpp:410] inception_4e/1x1 <- inception_4d/output_inception_4d/output_0_split_1
I0703 14:40:17.217063 30328 net.cpp:368] inception_4e/1x1 -> inception_4e/1x1
I0703 14:40:17.217070 30328 net.cpp:120] Setting up inception_4e/1x1
I0703 14:40:17.218019 30328 net.cpp:127] Top shape: 10 256 14 14 (501760)
I0703 14:40:17.218031 30328 layer_factory.hpp:74] Creating layer inception_4e/relu_1x1
I0703 14:40:17.218039 30328 net.cpp:90] Creating Layer inception_4e/relu_1x1
I0703 14:40:17.218045 30328 net.cpp:410] inception_4e/relu_1x1 <- inception_4e/1x1
I0703 14:40:17.218050 30328 net.cpp:357] inception_4e/relu_1x1 -> inception_4e/1x1 (in-place)
I0703 14:40:17.218057 30328 net.cpp:120] Setting up inception_4e/relu_1x1
I0703 14:40:17.218194 30328 net.cpp:127] Top shape: 10 256 14 14 (501760)
I0703 14:40:17.218207 30328 layer_factory.hpp:74] Creating layer inception_4e/3x3_reduce
I0703 14:40:17.218231 30328 net.cpp:90] Creating Layer inception_4e/3x3_reduce
I0703 14:40:17.218237 30328 net.cpp:410] inception_4e/3x3_reduce <- inception_4d/output_inception_4d/output_0_split_2
I0703 14:40:17.218245 30328 net.cpp:368] inception_4e/3x3_reduce -> inception_4e/3x3_reduce
I0703 14:40:17.218252 30328 net.cpp:120] Setting up inception_4e/3x3_reduce
I0703 14:40:17.218883 30328 net.cpp:127] Top shape: 10 160 14 14 (313600)
I0703 14:40:17.218895 30328 layer_factory.hpp:74] Creating layer inception_4e/relu_3x3_reduce
I0703 14:40:17.218904 30328 net.cpp:90] Creating Layer inception_4e/relu_3x3_reduce
I0703 14:40:17.218909 30328 net.cpp:410] inception_4e/relu_3x3_reduce <- inception_4e/3x3_reduce
I0703 14:40:17.218920 30328 net.cpp:357] inception_4e/relu_3x3_reduce -> inception_4e/3x3_reduce (in-place)
I0703 14:40:17.218927 30328 net.cpp:120] Setting up inception_4e/relu_3x3_reduce
I0703 14:40:17.218972 30328 net.cpp:127] Top shape: 10 160 14 14 (313600)
I0703 14:40:17.218978 30328 layer_factory.hpp:74] Creating layer inception_4e/3x3
I0703 14:40:17.218986 30328 net.cpp:90] Creating Layer inception_4e/3x3
I0703 14:40:17.218991 30328 net.cpp:410] inception_4e/3x3 <- inception_4e/3x3_reduce
I0703 14:40:17.218997 30328 net.cpp:368] inception_4e/3x3 -> inception_4e/3x3
I0703 14:40:17.219003 30328 net.cpp:120] Setting up inception_4e/3x3
I0703 14:40:17.221462 30328 net.cpp:127] Top shape: 10 320 14 14 (627200)
I0703 14:40:17.221473 30328 layer_factory.hpp:74] Creating layer inception_4e/relu_3x3
I0703 14:40:17.221482 30328 net.cpp:90] Creating Layer inception_4e/relu_3x3
I0703 14:40:17.221487 30328 net.cpp:410] inception_4e/relu_3x3 <- inception_4e/3x3
I0703 14:40:17.221493 30328 net.cpp:357] inception_4e/relu_3x3 -> inception_4e/3x3 (in-place)
I0703 14:40:17.221498 30328 net.cpp:120] Setting up inception_4e/relu_3x3
I0703 14:40:17.221542 30328 net.cpp:127] Top shape: 10 320 14 14 (627200)
I0703 14:40:17.221549 30328 layer_factory.hpp:74] Creating layer inception_4e/5x5_reduce
I0703 14:40:17.221556 30328 net.cpp:90] Creating Layer inception_4e/5x5_reduce
I0703 14:40:17.221561 30328 net.cpp:410] inception_4e/5x5_reduce <- inception_4d/output_inception_4d/output_0_split_3
I0703 14:40:17.221568 30328 net.cpp:368] inception_4e/5x5_reduce -> inception_4e/5x5_reduce
I0703 14:40:17.221575 30328 net.cpp:120] Setting up inception_4e/5x5_reduce
I0703 14:40:17.221904 30328 net.cpp:127] Top shape: 10 32 14 14 (62720)
I0703 14:40:17.221916 30328 layer_factory.hpp:74] Creating layer inception_4e/relu_5x5_reduce
I0703 14:40:17.221923 30328 net.cpp:90] Creating Layer inception_4e/relu_5x5_reduce
I0703 14:40:17.221928 30328 net.cpp:410] inception_4e/relu_5x5_reduce <- inception_4e/5x5_reduce
I0703 14:40:17.221935 30328 net.cpp:357] inception_4e/relu_5x5_reduce -> inception_4e/5x5_reduce (in-place)
I0703 14:40:17.221940 30328 net.cpp:120] Setting up inception_4e/relu_5x5_reduce
I0703 14:40:17.221979 30328 net.cpp:127] Top shape: 10 32 14 14 (62720)
I0703 14:40:17.221985 30328 layer_factory.hpp:74] Creating layer inception_4e/5x5
I0703 14:40:17.221992 30328 net.cpp:90] Creating Layer inception_4e/5x5
I0703 14:40:17.221997 30328 net.cpp:410] inception_4e/5x5 <- inception_4e/5x5_reduce
I0703 14:40:17.222003 30328 net.cpp:368] inception_4e/5x5 -> inception_4e/5x5
I0703 14:40:17.222010 30328 net.cpp:120] Setting up inception_4e/5x5
I0703 14:40:17.222720 30328 net.cpp:127] Top shape: 10 128 14 14 (250880)
I0703 14:40:17.222733 30328 layer_factory.hpp:74] Creating layer inception_4e/relu_5x5
I0703 14:40:17.222738 30328 net.cpp:90] Creating Layer inception_4e/relu_5x5
I0703 14:40:17.222743 30328 net.cpp:410] inception_4e/relu_5x5 <- inception_4e/5x5
I0703 14:40:17.222750 30328 net.cpp:357] inception_4e/relu_5x5 -> inception_4e/5x5 (in-place)
I0703 14:40:17.222756 30328 net.cpp:120] Setting up inception_4e/relu_5x5
I0703 14:40:17.222872 30328 net.cpp:127] Top shape: 10 128 14 14 (250880)
I0703 14:40:17.222880 30328 layer_factory.hpp:74] Creating layer inception_4e/pool
I0703 14:40:17.222887 30328 layer_factory.cpp:55] CUDNN does not support padding or multiple tops. Using Caffe's own pooling layer.
I0703 14:40:17.222892 30328 net.cpp:90] Creating Layer inception_4e/pool
I0703 14:40:17.222898 30328 net.cpp:410] inception_4e/pool <- inception_4d/output_inception_4d/output_0_split_4
I0703 14:40:17.222903 30328 net.cpp:368] inception_4e/pool -> inception_4e/pool
I0703 14:40:17.222909 30328 net.cpp:120] Setting up inception_4e/pool
I0703 14:40:17.222918 30328 net.cpp:127] Top shape: 10 528 14 14 (1034880)
I0703 14:40:17.222923 30328 layer_factory.hpp:74] Creating layer inception_4e/pool_proj
I0703 14:40:17.222929 30328 net.cpp:90] Creating Layer inception_4e/pool_proj
I0703 14:40:17.222934 30328 net.cpp:410] inception_4e/pool_proj <- inception_4e/pool
I0703 14:40:17.222949 30328 net.cpp:368] inception_4e/pool_proj -> inception_4e/pool_proj
I0703 14:40:17.222956 30328 net.cpp:120] Setting up inception_4e/pool_proj
I0703 14:40:17.223502 30328 net.cpp:127] Top shape: 10 128 14 14 (250880)
I0703 14:40:17.223515 30328 layer_factory.hpp:74] Creating layer inception_4e/relu_pool_proj
I0703 14:40:17.223523 30328 net.cpp:90] Creating Layer inception_4e/relu_pool_proj
I0703 14:40:17.223528 30328 net.cpp:410] inception_4e/relu_pool_proj <- inception_4e/pool_proj
I0703 14:40:17.223534 30328 net.cpp:357] inception_4e/relu_pool_proj -> inception_4e/pool_proj (in-place)
I0703 14:40:17.236030 30328 net.cpp:120] Setting up inception_4e/relu_pool_proj
I0703 14:40:17.236137 30328 net.cpp:127] Top shape: 10 128 14 14 (250880)
I0703 14:40:17.236146 30328 layer_factory.hpp:74] Creating layer inception_4e/output
I0703 14:40:17.236156 30328 net.cpp:90] Creating Layer inception_4e/output
I0703 14:40:17.236162 30328 net.cpp:410] inception_4e/output <- inception_4e/1x1
I0703 14:40:17.236170 30328 net.cpp:410] inception_4e/output <- inception_4e/3x3
I0703 14:40:17.236176 30328 net.cpp:410] inception_4e/output <- inception_4e/5x5
I0703 14:40:17.236181 30328 net.cpp:410] inception_4e/output <- inception_4e/pool_proj
I0703 14:40:17.236186 30328 net.cpp:368] inception_4e/output -> inception_4e/output
I0703 14:40:17.236193 30328 net.cpp:120] Setting up inception_4e/output
I0703 14:40:17.236202 30328 net.cpp:127] Top shape: 10 832 14 14 (1630720)
I0703 14:40:17.236207 30328 layer_factory.hpp:74] Creating layer pool4/3x3_s2
I0703 14:40:17.236215 30328 net.cpp:90] Creating Layer pool4/3x3_s2
I0703 14:40:17.236220 30328 net.cpp:410] pool4/3x3_s2 <- inception_4e/output
I0703 14:40:17.236227 30328 net.cpp:368] pool4/3x3_s2 -> pool4/3x3_s2
I0703 14:40:17.236241 30328 net.cpp:120] Setting up pool4/3x3_s2
I0703 14:40:17.236289 30328 net.cpp:127] Top shape: 10 832 7 7 (407680)
I0703 14:40:17.236296 30328 layer_factory.hpp:74] Creating layer pool4/3x3_s2_pool4/3x3_s2_0_split
I0703 14:40:17.236302 30328 net.cpp:90] Creating Layer pool4/3x3_s2_pool4/3x3_s2_0_split
I0703 14:40:17.236307 30328 net.cpp:410] pool4/3x3_s2_pool4/3x3_s2_0_split <- pool4/3x3_s2
I0703 14:40:17.236313 30328 net.cpp:368] pool4/3x3_s2_pool4/3x3_s2_0_split -> pool4/3x3_s2_pool4/3x3_s2_0_split_0
I0703 14:40:17.236320 30328 net.cpp:368] pool4/3x3_s2_pool4/3x3_s2_0_split -> pool4/3x3_s2_pool4/3x3_s2_0_split_1
I0703 14:40:17.236326 30328 net.cpp:368] pool4/3x3_s2_pool4/3x3_s2_0_split -> pool4/3x3_s2_pool4/3x3_s2_0_split_2
I0703 14:40:17.236345 30328 net.cpp:368] pool4/3x3_s2_pool4/3x3_s2_0_split -> pool4/3x3_s2_pool4/3x3_s2_0_split_3
I0703 14:40:17.236351 30328 net.cpp:120] Setting up pool4/3x3_s2_pool4/3x3_s2_0_split
I0703 14:40:17.236357 30328 net.cpp:127] Top shape: 10 832 7 7 (407680)
I0703 14:40:17.236362 30328 net.cpp:127] Top shape: 10 832 7 7 (407680)
I0703 14:40:17.236367 30328 net.cpp:127] Top shape: 10 832 7 7 (407680)
I0703 14:40:17.236372 30328 net.cpp:127] Top shape: 10 832 7 7 (407680)
I0703 14:40:17.236377 30328 layer_factory.hpp:74] Creating layer inception_5a/1x1
I0703 14:40:17.236385 30328 net.cpp:90] Creating Layer inception_5a/1x1
I0703 14:40:17.236390 30328 net.cpp:410] inception_5a/1x1 <- pool4/3x3_s2_pool4/3x3_s2_0_split_0
I0703 14:40:17.236397 30328 net.cpp:368] inception_5a/1x1 -> inception_5a/1x1
I0703 14:40:17.236404 30328 net.cpp:120] Setting up inception_5a/1x1
I0703 14:40:17.237987 30328 net.cpp:127] Top shape: 10 256 7 7 (125440)
I0703 14:40:17.238004 30328 layer_factory.hpp:74] Creating layer inception_5a/relu_1x1
I0703 14:40:17.238018 30328 net.cpp:90] Creating Layer inception_5a/relu_1x1
I0703 14:40:17.238025 30328 net.cpp:410] inception_5a/relu_1x1 <- inception_5a/1x1
I0703 14:40:17.238034 30328 net.cpp:357] inception_5a/relu_1x1 -> inception_5a/1x1 (in-place)
I0703 14:40:17.238044 30328 net.cpp:120] Setting up inception_5a/relu_1x1
I0703 14:40:17.238203 30328 net.cpp:127] Top shape: 10 256 7 7 (125440)
I0703 14:40:17.238215 30328 layer_factory.hpp:74] Creating layer inception_5a/3x3_reduce
I0703 14:40:17.238265 30328 net.cpp:90] Creating Layer inception_5a/3x3_reduce
I0703 14:40:17.238275 30328 net.cpp:410] inception_5a/3x3_reduce <- pool4/3x3_s2_pool4/3x3_s2_0_split_1
I0703 14:40:17.238282 30328 net.cpp:368] inception_5a/3x3_reduce -> inception_5a/3x3_reduce
I0703 14:40:17.238291 30328 net.cpp:120] Setting up inception_5a/3x3_reduce
I0703 14:40:17.239188 30328 net.cpp:127] Top shape: 10 160 7 7 (78400)
I0703 14:40:17.239202 30328 layer_factory.hpp:74] Creating layer inception_5a/relu_3x3_reduce
I0703 14:40:17.239208 30328 net.cpp:90] Creating Layer inception_5a/relu_3x3_reduce
I0703 14:40:17.239213 30328 net.cpp:410] inception_5a/relu_3x3_reduce <- inception_5a/3x3_reduce
I0703 14:40:17.239220 30328 net.cpp:357] inception_5a/relu_3x3_reduce -> inception_5a/3x3_reduce (in-place)
I0703 14:40:17.239226 30328 net.cpp:120] Setting up inception_5a/relu_3x3_reduce
I0703 14:40:17.239270 30328 net.cpp:127] Top shape: 10 160 7 7 (78400)
I0703 14:40:17.239276 30328 layer_factory.hpp:74] Creating layer inception_5a/3x3
I0703 14:40:17.239284 30328 net.cpp:90] Creating Layer inception_5a/3x3
I0703 14:40:17.239289 30328 net.cpp:410] inception_5a/3x3 <- inception_5a/3x3_reduce
I0703 14:40:17.239296 30328 net.cpp:368] inception_5a/3x3 -> inception_5a/3x3
I0703 14:40:17.239303 30328 net.cpp:120] Setting up inception_5a/3x3
I0703 14:40:17.241839 30328 net.cpp:127] Top shape: 10 320 7 7 (156800)
I0703 14:40:17.241858 30328 layer_factory.hpp:74] Creating layer inception_5a/relu_3x3
I0703 14:40:17.241868 30328 net.cpp:90] Creating Layer inception_5a/relu_3x3
I0703 14:40:17.241873 30328 net.cpp:410] inception_5a/relu_3x3 <- inception_5a/3x3
I0703 14:40:17.241879 30328 net.cpp:357] inception_5a/relu_3x3 -> inception_5a/3x3 (in-place)
I0703 14:40:17.241888 30328 net.cpp:120] Setting up inception_5a/relu_3x3
I0703 14:40:17.241931 30328 net.cpp:127] Top shape: 10 320 7 7 (156800)
I0703 14:40:17.241937 30328 layer_factory.hpp:74] Creating layer inception_5a/5x5_reduce
I0703 14:40:17.241945 30328 net.cpp:90] Creating Layer inception_5a/5x5_reduce
I0703 14:40:17.241951 30328 net.cpp:410] inception_5a/5x5_reduce <- pool4/3x3_s2_pool4/3x3_s2_0_split_2
I0703 14:40:17.241958 30328 net.cpp:368] inception_5a/5x5_reduce -> inception_5a/5x5_reduce
I0703 14:40:17.241966 30328 net.cpp:120] Setting up inception_5a/5x5_reduce
I0703 14:40:17.242311 30328 net.cpp:127] Top shape: 10 32 7 7 (15680)
I0703 14:40:17.242322 30328 layer_factory.hpp:74] Creating layer inception_5a/relu_5x5_reduce
I0703 14:40:17.242329 30328 net.cpp:90] Creating Layer inception_5a/relu_5x5_reduce
I0703 14:40:17.242334 30328 net.cpp:410] inception_5a/relu_5x5_reduce <- inception_5a/5x5_reduce
I0703 14:40:17.242341 30328 net.cpp:357] inception_5a/relu_5x5_reduce -> inception_5a/5x5_reduce (in-place)
I0703 14:40:17.242347 30328 net.cpp:120] Setting up inception_5a/relu_5x5_reduce
I0703 14:40:17.242389 30328 net.cpp:127] Top shape: 10 32 7 7 (15680)
I0703 14:40:17.242396 30328 layer_factory.hpp:74] Creating layer inception_5a/5x5
I0703 14:40:17.242403 30328 net.cpp:90] Creating Layer inception_5a/5x5
I0703 14:40:17.242408 30328 net.cpp:410] inception_5a/5x5 <- inception_5a/5x5_reduce
I0703 14:40:17.242415 30328 net.cpp:368] inception_5a/5x5 -> inception_5a/5x5
I0703 14:40:17.242422 30328 net.cpp:120] Setting up inception_5a/5x5
I0703 14:40:17.243134 30328 net.cpp:127] Top shape: 10 128 7 7 (62720)
I0703 14:40:17.243146 30328 layer_factory.hpp:74] Creating layer inception_5a/relu_5x5
I0703 14:40:17.243152 30328 net.cpp:90] Creating Layer inception_5a/relu_5x5
I0703 14:40:17.243158 30328 net.cpp:410] inception_5a/relu_5x5 <- inception_5a/5x5
I0703 14:40:17.243165 30328 net.cpp:357] inception_5a/relu_5x5 -> inception_5a/5x5 (in-place)
I0703 14:40:17.243172 30328 net.cpp:120] Setting up inception_5a/relu_5x5
I0703 14:40:17.243289 30328 net.cpp:127] Top shape: 10 128 7 7 (62720)
I0703 14:40:17.243299 30328 layer_factory.hpp:74] Creating layer inception_5a/pool
I0703 14:40:17.243304 30328 layer_factory.cpp:55] CUDNN does not support padding or multiple tops. Using Caffe's own pooling layer.
I0703 14:40:17.243332 30328 net.cpp:90] Creating Layer inception_5a/pool
I0703 14:40:17.243340 30328 net.cpp:410] inception_5a/pool <- pool4/3x3_s2_pool4/3x3_s2_0_split_3
I0703 14:40:17.243347 30328 net.cpp:368] inception_5a/pool -> inception_5a/pool
I0703 14:40:17.243355 30328 net.cpp:120] Setting up inception_5a/pool
I0703 14:40:17.243362 30328 net.cpp:127] Top shape: 10 832 7 7 (407680)
I0703 14:40:17.243367 30328 layer_factory.hpp:74] Creating layer inception_5a/pool_proj
I0703 14:40:17.243374 30328 net.cpp:90] Creating Layer inception_5a/pool_proj
I0703 14:40:17.243379 30328 net.cpp:410] inception_5a/pool_proj <- inception_5a/pool
I0703 14:40:17.243386 30328 net.cpp:368] inception_5a/pool_proj -> inception_5a/pool_proj
I0703 14:40:17.243392 30328 net.cpp:120] Setting up inception_5a/pool_proj
I0703 14:40:17.244123 30328 net.cpp:127] Top shape: 10 128 7 7 (62720)
I0703 14:40:17.244135 30328 layer_factory.hpp:74] Creating layer inception_5a/relu_pool_proj
I0703 14:40:17.244143 30328 net.cpp:90] Creating Layer inception_5a/relu_pool_proj
I0703 14:40:17.244148 30328 net.cpp:410] inception_5a/relu_pool_proj <- inception_5a/pool_proj
I0703 14:40:17.244154 30328 net.cpp:357] inception_5a/relu_pool_proj -> inception_5a/pool_proj (in-place)
I0703 14:40:17.244160 30328 net.cpp:120] Setting up inception_5a/relu_pool_proj
I0703 14:40:17.244204 30328 net.cpp:127] Top shape: 10 128 7 7 (62720)
I0703 14:40:17.244210 30328 layer_factory.hpp:74] Creating layer inception_5a/output
I0703 14:40:17.244216 30328 net.cpp:90] Creating Layer inception_5a/output
I0703 14:40:17.244221 30328 net.cpp:410] inception_5a/output <- inception_5a/1x1
I0703 14:40:17.244226 30328 net.cpp:410] inception_5a/output <- inception_5a/3x3
I0703 14:40:17.244231 30328 net.cpp:410] inception_5a/output <- inception_5a/5x5
I0703 14:40:17.244236 30328 net.cpp:410] inception_5a/output <- inception_5a/pool_proj
I0703 14:40:17.244242 30328 net.cpp:368] inception_5a/output -> inception_5a/output
I0703 14:40:17.244249 30328 net.cpp:120] Setting up inception_5a/output
I0703 14:40:17.244256 30328 net.cpp:127] Top shape: 10 832 7 7 (407680)
I0703 14:40:17.244261 30328 layer_factory.hpp:74] Creating layer inception_5a/output_inception_5a/output_0_split
I0703 14:40:17.244267 30328 net.cpp:90] Creating Layer inception_5a/output_inception_5a/output_0_split
I0703 14:40:17.244271 30328 net.cpp:410] inception_5a/output_inception_5a/output_0_split <- inception_5a/output
I0703 14:40:17.244277 30328 net.cpp:368] inception_5a/output_inception_5a/output_0_split -> inception_5a/output_inception_5a/output_0_split_0
I0703 14:40:17.244284 30328 net.cpp:368] inception_5a/output_inception_5a/output_0_split -> inception_5a/output_inception_5a/output_0_split_1
I0703 14:40:17.244292 30328 net.cpp:368] inception_5a/output_inception_5a/output_0_split -> inception_5a/output_inception_5a/output_0_split_2
I0703 14:40:17.244297 30328 net.cpp:368] inception_5a/output_inception_5a/output_0_split -> inception_5a/output_inception_5a/output_0_split_3
I0703 14:40:17.244303 30328 net.cpp:120] Setting up inception_5a/output_inception_5a/output_0_split
I0703 14:40:17.244310 30328 net.cpp:127] Top shape: 10 832 7 7 (407680)
I0703 14:40:17.244315 30328 net.cpp:127] Top shape: 10 832 7 7 (407680)
I0703 14:40:17.244319 30328 net.cpp:127] Top shape: 10 832 7 7 (407680)
I0703 14:40:17.244324 30328 net.cpp:127] Top shape: 10 832 7 7 (407680)
I0703 14:40:17.244328 30328 layer_factory.hpp:74] Creating layer inception_5b/1x1
I0703 14:40:17.244336 30328 net.cpp:90] Creating Layer inception_5b/1x1
I0703 14:40:17.244341 30328 net.cpp:410] inception_5b/1x1 <- inception_5a/output_inception_5a/output_0_split_0
I0703 14:40:17.244346 30328 net.cpp:368] inception_5b/1x1 -> inception_5b/1x1
I0703 14:40:17.244354 30328 net.cpp:120] Setting up inception_5b/1x1
I0703 14:40:17.246124 30328 net.cpp:127] Top shape: 10 384 7 7 (188160)
I0703 14:40:17.246136 30328 layer_factory.hpp:74] Creating layer inception_5b/relu_1x1
I0703 14:40:17.246145 30328 net.cpp:90] Creating Layer inception_5b/relu_1x1
I0703 14:40:17.246156 30328 net.cpp:410] inception_5b/relu_1x1 <- inception_5b/1x1
I0703 14:40:17.246163 30328 net.cpp:357] inception_5b/relu_1x1 -> inception_5b/1x1 (in-place)
I0703 14:40:17.246170 30328 net.cpp:120] Setting up inception_5b/relu_1x1
I0703 14:40:17.246212 30328 net.cpp:127] Top shape: 10 384 7 7 (188160)
I0703 14:40:17.246218 30328 layer_factory.hpp:74] Creating layer inception_5b/3x3_reduce
I0703 14:40:17.246227 30328 net.cpp:90] Creating Layer inception_5b/3x3_reduce
I0703 14:40:17.268762 30328 net.cpp:410] inception_5b/3x3_reduce <- inception_5a/output_inception_5a/output_0_split_1
I0703 14:40:17.268789 30328 net.cpp:368] inception_5b/3x3_reduce -> inception_5b/3x3_reduce
I0703 14:40:17.268800 30328 net.cpp:120] Setting up inception_5b/3x3_reduce
I0703 14:40:17.269958 30328 net.cpp:127] Top shape: 10 192 7 7 (94080)
I0703 14:40:17.269973 30328 layer_factory.hpp:74] Creating layer inception_5b/relu_3x3_reduce
I0703 14:40:17.269983 30328 net.cpp:90] Creating Layer inception_5b/relu_3x3_reduce
I0703 14:40:17.269989 30328 net.cpp:410] inception_5b/relu_3x3_reduce <- inception_5b/3x3_reduce
I0703 14:40:17.269994 30328 net.cpp:357] inception_5b/relu_3x3_reduce -> inception_5b/3x3_reduce (in-place)
I0703 14:40:17.270001 30328 net.cpp:120] Setting up inception_5b/relu_3x3_reduce
I0703 14:40:17.270045 30328 net.cpp:127] Top shape: 10 192 7 7 (94080)
I0703 14:40:17.270051 30328 layer_factory.hpp:74] Creating layer inception_5b/3x3
I0703 14:40:17.270059 30328 net.cpp:90] Creating Layer inception_5b/3x3
I0703 14:40:17.270064 30328 net.cpp:410] inception_5b/3x3 <- inception_5b/3x3_reduce
I0703 14:40:17.270071 30328 net.cpp:368] inception_5b/3x3 -> inception_5b/3x3
I0703 14:40:17.270078 30328 net.cpp:120] Setting up inception_5b/3x3
I0703 14:40:17.273597 30328 net.cpp:127] Top shape: 10 384 7 7 (188160)
I0703 14:40:17.273612 30328 layer_factory.hpp:74] Creating layer inception_5b/relu_3x3
I0703 14:40:17.273620 30328 net.cpp:90] Creating Layer inception_5b/relu_3x3
I0703 14:40:17.273627 30328 net.cpp:410] inception_5b/relu_3x3 <- inception_5b/3x3
I0703 14:40:17.273633 30328 net.cpp:357] inception_5b/relu_3x3 -> inception_5b/3x3 (in-place)
I0703 14:40:17.273639 30328 net.cpp:120] Setting up inception_5b/relu_3x3
I0703 14:40:17.273759 30328 net.cpp:127] Top shape: 10 384 7 7 (188160)
I0703 14:40:17.273769 30328 layer_factory.hpp:74] Creating layer inception_5b/5x5_reduce
I0703 14:40:17.273777 30328 net.cpp:90] Creating Layer inception_5b/5x5_reduce
I0703 14:40:17.273782 30328 net.cpp:410] inception_5b/5x5_reduce <- inception_5a/output_inception_5a/output_0_split_2
I0703 14:40:17.273789 30328 net.cpp:368] inception_5b/5x5_reduce -> inception_5b/5x5_reduce
I0703 14:40:17.273797 30328 net.cpp:120] Setting up inception_5b/5x5_reduce
I0703 14:40:17.274204 30328 net.cpp:127] Top shape: 10 48 7 7 (23520)
I0703 14:40:17.274216 30328 layer_factory.hpp:74] Creating layer inception_5b/relu_5x5_reduce
I0703 14:40:17.274224 30328 net.cpp:90] Creating Layer inception_5b/relu_5x5_reduce
I0703 14:40:17.274230 30328 net.cpp:410] inception_5b/relu_5x5_reduce <- inception_5b/5x5_reduce
I0703 14:40:17.274235 30328 net.cpp:357] inception_5b/relu_5x5_reduce -> inception_5b/5x5_reduce (in-place)
I0703 14:40:17.274241 30328 net.cpp:120] Setting up inception_5b/relu_5x5_reduce
I0703 14:40:17.274284 30328 net.cpp:127] Top shape: 10 48 7 7 (23520)
I0703 14:40:17.274291 30328 layer_factory.hpp:74] Creating layer inception_5b/5x5
I0703 14:40:17.274299 30328 net.cpp:90] Creating Layer inception_5b/5x5
I0703 14:40:17.274305 30328 net.cpp:410] inception_5b/5x5 <- inception_5b/5x5_reduce
I0703 14:40:17.274312 30328 net.cpp:368] inception_5b/5x5 -> inception_5b/5x5
I0703 14:40:17.274318 30328 net.cpp:120] Setting up inception_5b/5x5
I0703 14:40:17.275279 30328 net.cpp:127] Top shape: 10 128 7 7 (62720)
I0703 14:40:17.275291 30328 layer_factory.hpp:74] Creating layer inception_5b/relu_5x5
I0703 14:40:17.275300 30328 net.cpp:90] Creating Layer inception_5b/relu_5x5
I0703 14:40:17.275305 30328 net.cpp:410] inception_5b/relu_5x5 <- inception_5b/5x5
I0703 14:40:17.275336 30328 net.cpp:357] inception_5b/relu_5x5 -> inception_5b/5x5 (in-place)
I0703 14:40:17.275343 30328 net.cpp:120] Setting up inception_5b/relu_5x5
I0703 14:40:17.275388 30328 net.cpp:127] Top shape: 10 128 7 7 (62720)
I0703 14:40:17.275393 30328 layer_factory.hpp:74] Creating layer inception_5b/pool
I0703 14:40:17.275399 30328 layer_factory.cpp:55] CUDNN does not support padding or multiple tops. Using Caffe's own pooling layer.
I0703 14:40:17.275406 30328 net.cpp:90] Creating Layer inception_5b/pool
I0703 14:40:17.275411 30328 net.cpp:410] inception_5b/pool <- inception_5a/output_inception_5a/output_0_split_3
I0703 14:40:17.275418 30328 net.cpp:368] inception_5b/pool -> inception_5b/pool
I0703 14:40:17.275424 30328 net.cpp:120] Setting up inception_5b/pool
I0703 14:40:17.275432 30328 net.cpp:127] Top shape: 10 832 7 7 (407680)
I0703 14:40:17.275436 30328 layer_factory.hpp:74] Creating layer inception_5b/pool_proj
I0703 14:40:17.275444 30328 net.cpp:90] Creating Layer inception_5b/pool_proj
I0703 14:40:17.275449 30328 net.cpp:410] inception_5b/pool_proj <- inception_5b/pool
I0703 14:40:17.275455 30328 net.cpp:368] inception_5b/pool_proj -> inception_5b/pool_proj
I0703 14:40:17.275461 30328 net.cpp:120] Setting up inception_5b/pool_proj
I0703 14:40:17.276193 30328 net.cpp:127] Top shape: 10 128 7 7 (62720)
I0703 14:40:17.276204 30328 layer_factory.hpp:74] Creating layer inception_5b/relu_pool_proj
I0703 14:40:17.276211 30328 net.cpp:90] Creating Layer inception_5b/relu_pool_proj
I0703 14:40:17.276217 30328 net.cpp:410] inception_5b/relu_pool_proj <- inception_5b/pool_proj
I0703 14:40:17.276223 30328 net.cpp:357] inception_5b/relu_pool_proj -> inception_5b/pool_proj (in-place)
I0703 14:40:17.276229 30328 net.cpp:120] Setting up inception_5b/relu_pool_proj
I0703 14:40:17.276270 30328 net.cpp:127] Top shape: 10 128 7 7 (62720)
I0703 14:40:17.276278 30328 layer_factory.hpp:74] Creating layer inception_5b/output
I0703 14:40:17.276283 30328 net.cpp:90] Creating Layer inception_5b/output
I0703 14:40:17.276288 30328 net.cpp:410] inception_5b/output <- inception_5b/1x1
I0703 14:40:17.276294 30328 net.cpp:410] inception_5b/output <- inception_5b/3x3
I0703 14:40:17.276299 30328 net.cpp:410] inception_5b/output <- inception_5b/5x5
I0703 14:40:17.276304 30328 net.cpp:410] inception_5b/output <- inception_5b/pool_proj
I0703 14:40:17.276309 30328 net.cpp:368] inception_5b/output -> inception_5b/output
I0703 14:40:17.276315 30328 net.cpp:120] Setting up inception_5b/output
I0703 14:40:17.276322 30328 net.cpp:127] Top shape: 10 1024 7 7 (501760)
I0703 14:40:17.276327 30328 layer_factory.hpp:74] Creating layer pool5/7x7_s1
I0703 14:40:17.276334 30328 net.cpp:90] Creating Layer pool5/7x7_s1
I0703 14:40:17.276339 30328 net.cpp:410] pool5/7x7_s1 <- inception_5b/output
I0703 14:40:17.276345 30328 net.cpp:368] pool5/7x7_s1 -> pool5/7x7_s1
I0703 14:40:17.276351 30328 net.cpp:120] Setting up pool5/7x7_s1
I0703 14:40:17.276469 30328 net.cpp:127] Top shape: 10 1024 1 1 (10240)
I0703 14:40:17.276479 30328 layer_factory.hpp:74] Creating layer pool5/drop_7x7_s1
I0703 14:40:17.276486 30328 net.cpp:90] Creating Layer pool5/drop_7x7_s1
I0703 14:40:17.276491 30328 net.cpp:410] pool5/drop_7x7_s1 <- pool5/7x7_s1
I0703 14:40:17.276496 30328 net.cpp:357] pool5/drop_7x7_s1 -> pool5/7x7_s1 (in-place)
I0703 14:40:17.276502 30328 net.cpp:120] Setting up pool5/drop_7x7_s1
I0703 14:40:17.276510 30328 net.cpp:127] Top shape: 10 1024 1 1 (10240)
I0703 14:40:17.276514 30328 layer_factory.hpp:74] Creating layer stanford_cars_loss3/classifier
I0703 14:40:17.276522 30328 net.cpp:90] Creating Layer stanford_cars_loss3/classifier
I0703 14:40:17.276526 30328 net.cpp:410] stanford_cars_loss3/classifier <- pool5/7x7_s1
I0703 14:40:17.276532 30328 net.cpp:368] stanford_cars_loss3/classifier -> stanford_cars_loss3/classifier
I0703 14:40:17.276540 30328 net.cpp:120] Setting up stanford_cars_loss3/classifier
I0703 14:40:17.277523 30328 net.cpp:127] Top shape: 10 196 (1960)
I0703 14:40:17.277531 30328 layer_factory.hpp:74] Creating layer stanford_cars_loss3/classifier_stanford_cars_loss3/classifier_0_split
I0703 14:40:17.277545 30328 net.cpp:90] Creating Layer stanford_cars_loss3/classifier_stanford_cars_loss3/classifier_0_split
I0703 14:40:17.277551 30328 net.cpp:410] stanford_cars_loss3/classifier_stanford_cars_loss3/classifier_0_split <- stanford_cars_loss3/classifier
I0703 14:40:17.277557 30328 net.cpp:368] stanford_cars_loss3/classifier_stanford_cars_loss3/classifier_0_split -> stanford_cars_loss3/classifier_stanford_cars_loss3/classifier_0_split_0
I0703 14:40:17.277565 30328 net.cpp:368] stanford_cars_loss3/classifier_stanford_cars_loss3/classifier_0_split -> stanford_cars_loss3/classifier_stanford_cars_loss3/classifier_0_split_1
I0703 14:40:17.277571 30328 net.cpp:368] stanford_cars_loss3/classifier_stanford_cars_loss3/classifier_0_split -> stanford_cars_loss3/classifier_stanford_cars_loss3/classifier_0_split_2
I0703 14:40:17.277577 30328 net.cpp:120] Setting up stanford_cars_loss3/classifier_stanford_cars_loss3/classifier_0_split
I0703 14:40:17.277585 30328 net.cpp:127] Top shape: 10 196 (1960)
I0703 14:40:17.277590 30328 net.cpp:127] Top shape: 10 196 (1960)
I0703 14:40:17.277595 30328 net.cpp:127] Top shape: 10 196 (1960)
I0703 14:40:17.277598 30328 layer_factory.hpp:74] Creating layer loss3/loss3
I0703 14:40:17.277604 30328 net.cpp:90] Creating Layer loss3/loss3
I0703 14:40:17.277609 30328 net.cpp:410] loss3/loss3 <- stanford_cars_loss3/classifier_stanford_cars_loss3/classifier_0_split_0
I0703 14:40:17.277614 30328 net.cpp:410] loss3/loss3 <- label_data_1_split_6
I0703 14:40:17.277622 30328 net.cpp:368] loss3/loss3 -> loss3/loss3
…
