…
I0704 17:50:40.564858 25497 net.cpp:287] The NetState phase (0) differed from the phase (1) specified by a rule in layer loss3/top-5
I0704 17:50:40.565510 25497 net.cpp:42] Initializing net from parameters: 
name: "GoogleNet"
state {
  phase: TRAIN
}
layer {
  name: "data"
  type: "Data"
  top: "data"
  top: "label"
  include {
    phase: TRAIN
  }
  transform_param {
    mirror: true
    crop_size: 224
    mean_value: 104
    mean_value: 117
    mean_value: 123
  }
  data_param {
    source: "examples/stanford_cars/stanford_cars_train_lmdb"
    batch_size: 30
    backend: LMDB
  }
}
layer {
  name: "conv1/7x7_s2"
  type: "Convolution"
  bottom: "data"
  top: "conv1/7x7_s2"
  param {
    lr_mult: 1
    decay_mult: 1
  }
  param {
    lr_mult: 2
    decay_mult: 0
  }
  convolution_param {
    num_output: 64
    pad: 3
    kernel_size: 7
    stride: 2
    weight_filler {
      type: "xavier"
      std: 0.1
    }
    bias_filler {
      type: "constant"
      value: 0.2
    }
  }
}
layer {
  name: "conv1/relu_7x7"
  type: "ReLU"
  bottom: "conv1/7x7_s2"
  top: "conv1/7x7_s2"
}
layer {
  name: "pool1/3x3_s2"
  type: "Pooling"
  bottom: "conv1/7x7_s2"
  top: "pool1/3x3_s2"
  pooling_param {
    pool: MAX
    kernel_size: 3
    stride: 2
  }
}
layer {
  name: "pool1/norm1"
  type: "LRN"
  bottom: "pool1/3x3_s2"
  top: "pool1/norm1"
  lrn_param {
    local_size: 5
    alpha: 0.0001
    beta: 0.75
  }
}
layer {
  name: "conv2/3x3_reduce"
  type: "Convolution"
  bottom: "pool1/norm1"
  top: "conv2/3x3_reduce"
  param {
    lr_mult: 1
    decay_mult: 1
  }
  param {
    lr_mult: 2
    decay_mult: 0
  }
  convolution_param {
    num_output: 64
    kernel_size: 1
    weight_filler {
      type: "xavier"
      std: 0.1
    }
    bias_filler {
      type: "constant"
      value: 0.2
    }
  }
}
layer {
  name: "conv2/relu_3x3_reduce"
  type: "ReLU"
  bottom: "conv2/3x3_reduce"
  top: "conv2/3x3_reduce"
}
layer {
  name: "conv2/3x3"
  type: "Convolution"
  bottom: "conv2/3x3_reduce"
  top: "conv2/3x3"
  param {
    lr_mult: 1
    decay_mult: 1
  }
  param {
    lr_mult: 2
    decay_mult: 0
  }
  convolution_param {
    num_output: 192
    pad: 1
    kernel_size: 3
    weight_filler {
      type: "xavier"
      std: 0.03
    }
    bias_filler {
      type: "constant"
      value: 0.2
    }
  }
}
layer {
  name: "conv2/relu_3x3"
  type: "ReLU"
  bottom: "conv2/3x3"
  top: "conv2/3x3"
}
layer {
  name: "conv2/norm2"
  type: "LRN"
  bottom: "conv2/3x3"
  top: "conv2/norm2"
  lrn_param {
    local_size: 5
    alpha: 0.0001
    beta: 0.75
  }
}
layer {
  name: "pool2/3x3_s2"
  type: "Pooling"
  bottom: "conv2/norm2"
  top: "pool2/3x3_s2"
  pooling_param {
    pool: MAX
    kernel_size: 3
    stride: 2
  }
}
layer {
  name: "inception_3a/1x1"
  type: "Convolution"
  bottom: "pool2/3x3_s2"
  top: "inception_3a/1x1"
  param {
    lr_mult: 1
    decay_mult: 1
  }
  param {
    lr_mult: 2
    decay_mult: 0
  }
  convolution_param {
    num_output: 64
    kernel_size: 1
    weight_filler {
      type: "xavier"
      std: 0.03
    }
    bias_filler {
      type: "constant"
      value: 0.2
    }
  }
}
layer {
  name: "inception_3a/relu_1x1"
  type: "ReLU"
  bottom: "inception_3a/1x1"
  top: "inception_3a/1x1"
}
layer {
  name: "inception_3a/3x3_reduce"
  type: "Convolution"
  bottom: "pool2/3x3_s2"
  top: "inception_3a/3x3_reduce"
  param {
    lr_mult: 1
    decay_mult: 1
  }
  param {
    lr_mult: 2
    decay_mult: 0
  }
  convolution_param {
    num_output: 96
    kernel_size: 1
    weight_filler {
      type: "xavier"
      std: 0.09
    }
    bias_filler {
      type: "constant"
      value: 0.2
    }
  }
}
layer {
  name: "inception_3a/relu_3x3_reduce"
  type: "ReLU"
  bottom: "inception_3a/3x3_reduce"
  top: "inception_3a/3x3_reduce"
}
layer {
  name: "inception_3a/3x3"
  type: "Convolution"
  bottom: "inception_3a/3x3_reduce"
  top: "inception_3a/3x3"
  param {
    lr_mult: 1
    decay_mult: 1
  }
  param {
    lr_mult: 2
    decay_mult: 0
  }
  convolution_param {
    num_output: 128
    pad: 1
    kernel_size: 3
    weight_filler {
      type: "xavier"
      std: 0.03
    }
    bias_filler {
      type: "constant"
      value: 0.2
    }
  }
}
layer {
  name: "inception_3a/relu_3x3"
  type: "ReLU"
  bottom: "inception_3a/3x3"
  top: "inception_3a/3x3"
}
layer {
  name: "inception_3a/5x5_reduce"
  type: "Convolution"
  bottom: "pool2/3x3_s2"
  top: "inception_3a/5x5_reduce"
  param {
    lr_mult: 1
    decay_mult: 1
  }
  param {
    lr_mult: 2
    decay_mult: 0
  }
  convolution_param {
    num_output: 16
    kernel_size: 1
    weight_filler {
      type: "xavier"
      std: 0.2
    }
    bias_filler {
      type: "constant"
      value: 0.2
    }
  }
}
layer {
  name: "inception_3a/relu_5x5_reduce"
  type: "ReLU"
  bottom: "inception_3a/5x5_reduce"
  top: "inception_3a/5x5_reduce"
}
layer {
  name: "inception_3a/5x5"
  type: "Convolution"
  bottom: "inception_3a/5x5_reduce"
  top: "inception_3a/5x5"
  param {
    lr_mult: 1
    decay_mult: 1
  }
  param {
    lr_mult: 2
    decay_mult: 0
  }
  convolution_param {
    num_output: 32
    pad: 2
    kernel_size: 5
    weight_filler {
      type: "xavier"
      std: 0.03
    }
    bias_filler {
      type: "constant"
      value: 0.2
    }
  }
}
layer {
  name: "inception_3a/relu_5x5"
  type: "ReLU"
  bottom: "inception_3a/5x5"
  top: "inception_3a/5x5"
}
layer {
  name: "inception_3a/pool"
  type: "Pooling"
  bottom: "pool2/3x3_s2"
  top: "inception_3a/pool"
  pooling_param {
    pool: MAX
    kernel_size: 3
    stride: 1
    pad: 1
  }
}
layer {
  name: "inception_3a/pool_proj"
  type: "Convolution"
  bottom: "inception_3a/pool"
  top: "inception_3a/pool_proj"
  param {
    lr_mult: 1
    decay_mult: 1
  }
  param {
    lr_mult: 2
    decay_mult: 0
  }
  convolution_param {
    num_output: 32
    kernel_size: 1
    weight_filler {
      type: "xavier"
      std: 0.1
    }
    bias_filler {
      type: "constant"
      value: 0.2
    }
  }
}
layer {
  name: "inception_3a/relu_pool_proj"
  type: "ReLU"
  bottom: "inception_3a/pool_proj"
  top: "inception_3a/pool_proj"
}
layer {
  name: "inception_3a/output"
  type: "Concat"
  bottom: "inception_3a/1x1"
  bottom: "inception_3a/3x3"
  bottom: "inception_3a/5x5"
  bottom: "inception_3a/pool_proj"
  top: "inception_3a/output"
}
layer {
  name: "inception_3b/1x1"
  type: "Convolution"
  bottom: "inception_3a/output"
  top: "inception_3b/1x1"
  param {
    lr_mult: 1
    decay_mult: 1
  }
  param {
    lr_mult: 2
    decay_mult: 0
  }
  convolution_param {
    num_output: 128
    kernel_size: 1
    weight_filler {
      type: "xavier"
      std: 0.03
    }
    bias_filler {
      type: "constant"
      value: 0.2
    }
  }
}
layer {
  name: "inception_3b/relu_1x1"
  type: "ReLU"
  bottom: "inception_3b/1x1"
  top: "inception_3b/1x1"
}
layer {
  name: "inception_3b/3x3_reduce"
  type: "Convolution"
  bottom: "inception_3a/output"
  top: "inception_3b/3x3_reduce"
  param {
    lr_mult: 1
    decay_mult: 1
  }
  param {
    lr_mult: 2
    decay_mult: 0
  }
  convolution_param {
    num_output: 128
    kernel_size: 1
    weight_filler {
      type: "xavier"
      std: 0.09
    }
    bias_filler {
      type: "constant"
      value: 0.2
    }
  }
}
layer {
  name: "inception_3b/relu_3x3_reduce"
  type: "ReLU"
  bottom: "inception_3b/3x3_reduce"
  top: "inception_3b/3x3_reduce"
}
layer {
  name: "inception_3b/3x3"
  type: "Convolution"
  bottom: "inception_3b/3x3_reduce"
  top: "inception_3b/3x3"
  param {
    lr_mult: 1
    decay_mult: 1
  }
  param {
    lr_mult: 2
    decay_mult: 0
  }
  convolution_param {
    num_output: 192
    pad: 1
    kernel_size: 3
    weight_filler {
      type: "xavier"
      std: 0.03
    }
    bias_filler {
      type: "constant"
      value: 0.2
    }
  }
}
layer {
  name: "inception_3b/relu_3x3"
  type: "ReLU"
  bottom: "inception_3b/3x3"
  top: "inception_3b/3x3"
}
layer {
  name: "inception_3b/5x5_reduce"
  type: "Convolution"
  bottom: "inception_3a/output"
  top: "inception_3b/5x5_reduce"
  param {
    lr_mult: 1
    decay_mult: 1
  }
  param {
    lr_mult: 2
    decay_mult: 0
  }
  convolution_param {
    num_output: 32
    kernel_size: 1
    weight_filler {
      type: "xavier"
      std: 0.2
    }
    bias_filler {
      type: "constant"
      value: 0.2
    }
  }
}
layer {
  name: "inception_3b/relu_5x5_reduce"
  type: "ReLU"
  bottom: "inception_3b/5x5_reduce"
  top: "inception_3b/5x5_reduce"
}
layer {
  name: "inception_3b/5x5"
  type: "Convolution"
  bottom: "inception_3b/5x5_reduce"
  top: "inception_3b/5x5"
  param {
    lr_mult: 1
    decay_mult: 1
  }
  param {
    lr_mult: 2
    decay_mult: 0
  }
  convolution_param {
    num_output: 96
    pad: 2
    kernel_size: 5
    weight_filler {
      type: "xavier"
      std: 0.03
    }
    bias_filler {
      type: "constant"
      value: 0.2
    }
  }
}
layer {
  name: "inception_3b/relu_5x5"
  type: "ReLU"
  bottom: "inception_3b/5x5"
  top: "inception_3b/5x5"
}
layer {
  name: "inception_3b/pool"
  type: "Pooling"
  bottom: "inception_3a/output"
  top: "inception_3b/pool"
  pooling_param {
    pool: MAX
    kernel_size: 3
    stride: 1
    pad: 1
  }
}
layer {
  name: "inception_3b/pool_proj"
  type: "Convolution"
  bottom: "inception_3b/pool"
  top: "inception_3b/pool_proj"
  param {
    lr_mult: 1
    decay_mult: 1
  }
  param {
    lr_mult: 2
    decay_mult: 0
  }
  convolution_param {
    num_output: 64
    kernel_size: 1
    weight_filler {
      type: "xavier"
      std: 0.1
    }
    bias_filler {
      type: "constant"
      value: 0.2
    }
  }
}
layer {
  name: "inception_3b/relu_pool_proj"
  type: "ReLU"
  bottom: "inception_3b/pool_proj"
  top: "inception_3b/pool_proj"
}
layer {
  name: "inception_3b/output"
  type: "Concat"
  bottom: "inception_3b/1x1"
  bottom: "inception_3b/3x3"
  bottom: "inception_3b/5x5"
  bottom: "inception_3b/pool_proj"
  top: "inception_3b/output"
}
layer {
  name: "pool3/3x3_s2"
  type: "Pooling"
  bottom: "inception_3b/output"
  top: "pool3/3x3_s2"
  pooling_param {
    pool: MAX
    kernel_size: 3
    stride: 2
  }
}
layer {
  name: "inception_4a/1x1"
  type: "Convolution"
  bottom: "pool3/3x3_s2"
  top: "inception_4a/1x1"
  param {
    lr_mult: 1
    decay_mult: 1
  }
  param {
    lr_mult: 2
    decay_mult: 0
  }
  convolution_param {
    num_output: 192
    kernel_size: 1
    weight_filler {
      type: "xavier"
      std: 0.03
    }
    bias_filler {
      type: "constant"
      value: 0.2
    }
  }
}
layer {
  name: "inception_4a/relu_1x1"
  type: "ReLU"
  bottom: "inception_4a/1x1"
  top: "inception_4a/1x1"
}
layer {
  name: "inception_4a/3x3_reduce"
  type: "Convolution"
  bottom: "pool3/3x3_s2"
  top: "inception_4a/3x3_reduce"
  param {
    lr_mult: 1
    decay_mult: 1
  }
  param {
    lr_mult: 2
    decay_mult: 0
  }
  convolution_param {
    num_output: 96
    kernel_size: 1
    weight_filler {
      type: "xavier"
      std: 0.09
    }
    bias_filler {
      type: "constant"
      value: 0.2
    }
  }
}
layer {
  name: "inception_4a/relu_3x3_reduce"
  type: "ReLU"
  bottom: "inception_4a/3x3_reduce"
  top: "inception_4a/3x3_reduce"
}
layer {
  name: "inception_4a/3x3"
  type: "Convolution"
  bottom: "inception_4a/3x3_reduce"
  top: "inception_4a/3x3"
  param {
    lr_mult: 1
    decay_mult: 1
  }
  param {
    lr_mult: 2
    decay_mult: 0
  }
  convolution_param {
    num_output: 208
    pad: 1
    kernel_size: 3
    weight_filler {
      type: "xavier"
      std: 0.03
    }
    bias_filler {
      type: "constant"
      value: 0.2
    }
  }
}
layer {
  name: "inception_4a/relu_3x3"
  type: "ReLU"
  bottom: "inception_4a/3x3"
  top: "inception_4a/3x3"
}
layer {
  name: "inception_4a/5x5_reduce"
  type: "Convolution"
  bottom: "pool3/3x3_s2"
  top: "inception_4a/5x5_reduce"
  param {
    lr_mult: 1
    decay_mult: 1
  }
  param {
    lr_mult: 2
    decay_mult: 0
  }
  convolution_param {
    num_output: 16
    kernel_size: 1
    weight_filler {
      type: "xavier"
      std: 0.2
    }
    bias_filler {
      type: "constant"
      value: 0.2
    }
  }
}
layer {
  name: "inception_4a/relu_5x5_reduce"
  type: "ReLU"
  bottom: "inception_4a/5x5_reduce"
  top: "inception_4a/5x5_reduce"
}
layer {
  name: "inception_4a/5x5"
  type: "Convolution"
  bottom: "inception_4a/5x5_reduce"
  top: "inception_4a/5x5"
  param {
    lr_mult: 1
    decay_mult: 1
  }
  param {
    lr_mult: 2
    decay_mult: 0
  }
  convolution_param {
    num_output: 48
    pad: 2
    kernel_size: 5
    weight_filler {
      type: "xavier"
      std: 0.03
    }
    bias_filler {
      type: "constant"
      value: 0.2
    }
  }
}
layer {
  name: "inception_4a/relu_5x5"
  type: "ReLU"
  bottom: "inception_4a/5x5"
  top: "inception_4a/5x5"
}
layer {
  name: "inception_4a/pool"
  type: "Pooling"
  bottom: "pool3/3x3_s2"
  top: "inception_4a/pool"
  pooling_param {
    pool: MAX
    kernel_size: 3
    stride: 1
    pad: 1
  }
}
layer {
  name: "inception_4a/pool_proj"
  type: "Convolution"
  bottom: "inception_4a/pool"
  top: "inception_4a/pool_proj"
  param {
    lr_mult: 1
    decay_mult: 1
  }
  param {
    lr_mult: 2
    decay_mult: 0
  }
  convolution_param {
    num_output: 64
    kernel_size: 1
    weight_filler {
      type: "xavier"
      std: 0.1
    }
    bias_filler {
      type: "constant"
      value: 0.2
    }
  }
}
layer {
  name: "inception_4a/relu_pool_proj"
  type: "ReLU"
  bottom: "inception_4a/pool_proj"
  top: "inception_4a/pool_proj"
}
layer {
  name: "inception_4a/output"
  type: "Concat"
  bottom: "inception_4a/1x1"
  bottom: "inception_4a/3x3"
  bottom: "inception_4a/5x5"
  bottom: "inception_4a/pool_proj"
  top: "inception_4a/output"
}
layer {
  name: "loss1/ave_pool"
  type: "Pooling"
  bottom: "inception_4a/output"
  top: "loss1/ave_pool"
  pooling_param {
    pool: AVE
    kernel_size: 5
    stride: 3
  }
}
layer {
  name: "loss1/conv"
  type: "Convolution"
  bottom: "loss1/ave_pool"
  top: "loss1/conv"
  param {
    lr_mult: 1
    decay_mult: 1
  }
  param {
    lr_mult: 2
    decay_mult: 0
  }
  convolution_param {
    num_output: 128
    kernel_size: 1
    weight_filler {
      type: "xavier"
      std: 0.08
    }
    bias_filler {
      type: "constant"
      value: 0.2
    }
  }
}
layer {
  name: "loss1/relu_conv"
  type: "ReLU"
  bottom: "loss1/conv"
  top: "loss1/conv"
}
layer {
  name: "loss1/fc"
  type: "InnerProduct"
  bottom: "loss1/conv"
  top: "loss1/fc"
  param {
    lr_mult: 1
    decay_mult: 1
  }
  param {
    lr_mult: 2
    decay_mult: 0
  }
  inner_product_param {
    num_output: 1024
    weight_filler {
      type: "xavier"
      std: 0.02
    }
    bias_filler {
      type: "constant"
      value: 0.2
    }
  }
}
layer {
  name: "loss1/relu_fc"
  type: "ReLU"
  bottom: "loss1/fc"
  top: "loss1/fc"
}
layer {
  name: "loss1/drop_fc"
  type: "Dropout"
  bottom: "loss1/fc"
  top: "loss1/fc"
  dropout_param {
    dropout_ratio: 0.2
  }
}
layer {
  name: "stanford_cars_loss1/classifier"
  type: "InnerProduct"
  bottom: "loss1/fc"
  top: "stanford_cars_loss1/classifier"
  param {
    lr_mult: 1
    decay_mult: 1
  }
  param {
    lr_mult: 2
    decay_mult: 0
  }
  inner_product_param {
    num_output: 196
    weight_filler {
      type: "xavier"
      std: 0.0009765625
    }
    bias_filler {
      type: "constant"
      value: 0
    }
  }
}
layer {
  name: "loss1/loss"
  type: "SoftmaxWithLoss"
  bottom: "stanford_cars_loss1/classifier"
  bottom: "label"
  top: "loss1/loss1"
  loss_weight: 0.3
}
layer {
  name: "inception_4b/1x1"
  type: "Convolution"
  bottom: "inception_4a/output"
  top: "inception_4b/1x1"
  param {
    lr_mult: 1
    decay_mult: 1
  }
  param {
    lr_mult: 2
    decay_mult: 0
  }
  convolution_param {
    num_output: 160
    kernel_size: 1
    weight_filler {
      type: "xavier"
      std: 0.03
    }
    bias_filler {
      type: "constant"
      value: 0.2
    }
  }
}
layer {
  name: "inception_4b/relu_1x1"
  type: "ReLU"
  bottom: "inception_4b/1x1"
  top: "inception_4b/1x1"
}
layer {
  name: "inception_4b/3x3_reduce"
  type: "Convolution"
  bottom: "inception_4a/output"
  top: "inception_4b/3x3_reduce"
  param {
    lr_mult: 1
    decay_mult: 1
  }
  param {
    lr_mult: 2
    decay_mult: 0
  }
  convolution_param {
    num_output: 112
    kernel_size: 1
    weight_filler {
      type: "xavier"
      std: 0.09
    }
    bias_filler {
      type: "constant"
      value: 0.2
    }
  }
}
layer {
  name: "inception_4b/relu_3x3_reduce"
  type: "ReLU"
  bottom: "inception_4b/3x3_reduce"
  top: "inception_4b/3x3_reduce"
}
layer {
  name: "inception_4b/3x3"
  type: "Convolution"
  bottom: "inception_4b/3x3_reduce"
  top: "inception_4b/3x3"
  param {
    lr_mult: 1
    decay_mult: 1
  }
  param {
    lr_mult: 2
    decay_mult: 0
  }
  convolution_param {
    num_output: 224
    pad: 1
    kernel_size: 3
    weight_filler {
      type: "xavier"
      std: 0.03
    }
    bias_filler {
      type: "constant"
      value: 0.2
    }
  }
}
layer {
  name: "inception_4b/relu_3x3"
  type: "ReLU"
  bottom: "inception_4b/3x3"
  top: "inception_4b/3x3"
}
layer {
  name: "inception_4b/5x5_reduce"
  type: "Convolution"
  bottom: "inception_4a/output"
  top: "inception_4b/5x5_reduce"
  param {
    lr_mult: 1
    decay_mult: 1
  }
  param {
    lr_mult: 2
    decay_mult: 0
  }
  convolution_param {
    num_output: 24
    kernel_size: 1
    weight_filler {
      type: "xavier"
      std: 0.2
    }
    bias_filler {
      type: "constant"
      value: 0.2
    }
  }
}
layer {
  name: "inception_4b/relu_5x5_reduce"
  type: "ReLU"
  bottom: "inception_4b/5x5_reduce"
  top: "inception_4b/5x5_reduce"
}
layer {
  name: "inception_4b/5x5"
  type: "Convolution"
  bottom: "inception_4b/5x5_reduce"
  top: "inception_4b/5x5"
  param {
    lr_mult: 1
    decay_mult: 1
  }
  param {
    lr_mult: 2
    decay_mult: 0
  }
  convolution_param {
    num_output: 64
    pad: 2
    kernel_size: 5
    weight_filler {
      type: "xavier"
      std: 0.03
    }
    bias_filler {
      type: "constant"
      value: 0.2
    }
  }
}
layer {
  name: "inception_4b/relu_5x5"
  type: "ReLU"
  bottom: "inception_4b/5x5"
  top: "inception_4b/5x5"
}
layer {
  name: "inception_4b/pool"
  type: "Pooling"
  bottom: "inception_4a/output"
  top: "inception_4b/pool"
  pooling_param {
    pool: MAX
    kernel_size: 3
    stride: 1
    pad: 1
  }
}
layer {
  name: "inception_4b/pool_proj"
  type: "Convolution"
  bottom: "inception_4b/pool"
  top: "inception_4b/pool_proj"
  param {
    lr_mult: 1
    decay_mult: 1
  }
  param {
    lr_mult: 2
    decay_mult: 0
  }
  convolution_param {
    num_output: 64
    kernel_size: 1
    weight_filler {
      type: "xavier"
      std: 0.1
    }
    bias_filler {
      type: "constant"
      value: 0.2
    }
  }
}
layer {
  name: "inception_4b/relu_pool_proj"
  type: "ReLU"
  bottom: "inception_4b/pool_proj"
  top: "inception_4b/pool_proj"
}
layer {
  name: "inception_4b/output"
  type: "Concat"
  bottom: "inception_4b/1x1"
  bottom: "inception_4b/3x3"
  bottom: "inception_4b/5x5"
  bottom: "inception_4b/pool_proj"
  top: "inception_4b/output"
}
layer {
  name: "inception_4c/1x1"
  type: "Convolution"
  bottom: "inception_4b/output"
  top: "inception_4c/1x1"
  param {
    lr_mult: 1
    decay_mult: 1
  }
  param {
    lr_mult: 2
    decay_mult: 0
  }
  convolution_param {
    num_output: 128
    kernel_size: 1
    weight_filler {
      type: "xavier"
      std: 0.03
    }
    bias_filler {
      type: "constant"
      value: 0.2
    }
  }
}
layer {
  name: "inception_4c/relu_1x1"
  type: "ReLU"
  bottom: "inception_4c/1x1"
  top: "inception_4c/1x1"
}
layer {
  name: "inception_4c/3x3_reduce"
  type: "Convolution"
  bottom: "inception_4b/output"
  top: "inception_4c/3x3_reduce"
  param {
    lr_mult: 1
    decay_mult: 1
  }
  param {
    lr_mult: 2
    decay_mult: 0
  }
  convolution_param {
    num_output: 128
    kernel_size: 1
    weight_filler {
      type: "xavier"
      std: 0.09
    }
    bias_filler {
      type: "constant"
      value: 0.2
    }
  }
}
layer {
  name: "inception_4c/relu_3x3_reduce"
  type: "ReLU"
  bottom: "inception_4c/3x3_reduce"
  top: "inception_4c/3x3_reduce"
}
layer {
  name: "inception_4c/3x3"
  type: "Convolution"
  bottom: "inception_4c/3x3_reduce"
  top: "inception_4c/3x3"
  param {
    lr_mult: 1
    decay_mult: 1
  }
  param {
    lr_mult: 2
    decay_mult: 0
  }
  convolution_param {
    num_output: 256
    pad: 1
    kernel_size: 3
    weight_filler {
      type: "xavier"
      std: 0.03
    }
    bias_filler {
      type: "constant"
      value: 0.2
    }
  }
}
layer {
  name: "inception_4c/relu_3x3"
  type: "ReLU"
  bottom: "inception_4c/3x3"
  top: "inception_4c/3x3"
}
layer {
  name: "inception_4c/5x5_reduce"
  type: "Convolution"
  bottom: "inception_4b/output"
  top: "inception_4c/5x5_reduce"
  param {
    lr_mult: 1
    decay_mult: 1
  }
  param {
    lr_mult: 2
    decay_mult: 0
  }
  convolution_param {
    num_output: 24
    kernel_size: 1
    weight_filler {
      type: "xavier"
      std: 0.2
    }
    bias_filler {
      type: "constant"
      value: 0.2
    }
  }
}
layer {
  name: "inception_4c/relu_5x5_reduce"
  type: "ReLU"
  bottom: "inception_4c/5x5_reduce"
  top: "inception_4c/5x5_reduce"
}
layer {
  name: "inception_4c/5x5"
  type: "Convolution"
  bottom: "inception_4c/5x5_reduce"
  top: "inception_4c/5x5"
  param {
    lr_mult: 1
    decay_mult: 1
  }
  param {
    lr_mult: 2
    decay_mult: 0
  }
  convolution_param {
    num_output: 64
    pad: 2
    kernel_size: 5
    weight_filler {
      type: "xavier"
      std: 0.03
    }
    bias_filler {
      type: "constant"
      value: 0.2
    }
  }
}
layer {
  name: "inception_4c/relu_5x5"
  type: "ReLU"
  bottom: "inception_4c/5x5"
  top: "inception_4c/5x5"
}
layer {
  name: "inception_4c/pool"
  type: "Pooling"
  bottom: "inception_4b/output"
  top: "inception_4c/pool"
  pooling_param {
    pool: MAX
    kernel_size: 3
    stride: 1
    pad: 1
  }
}
layer {
  name: "inception_4c/pool_proj"
  type: "Convolution"
  bottom: "inception_4c/pool"
  top: "inception_4c/pool_proj"
  param {
    lr_mult: 1
    decay_mult: 1
  }
  param {
    lr_mult: 2
    decay_mult: 0
  }
  convolution_param {
    num_output: 64
    kernel_size: 1
    weight_filler {
      type: "xavier"
      std: 0.1
    }
    bias_filler {
      type: "constant"
      value: 0.2
    }
  }
}
layer {
  name: "inception_4c/relu_pool_proj"
  type: "ReLU"
  bottom: "inception_4c/pool_proj"
  top: "inception_4c/pool_proj"
}
layer {
  name: "inception_4c/output"
  type: "Concat"
  bottom: "inception_4c/1x1"
  bottom: "inception_4c/3x3"
  bottom: "inception_4c/5x5"
  bottom: "inception_4c/pool_proj"
  top: "inception_4c/output"
}
layer {
  name: "inception_4d/1x1"
  type: "Convolution"
  bottom: "inception_4c/output"
  top: "inception_4d/1x1"
  param {
    lr_mult: 1
    decay_mult: 1
  }
  param {
    lr_mult: 2
    decay_mult: 0
  }
  convolution_param {
    num_output: 112
    kernel_size: 1
    weight_filler {
      type: "xavier"
      std: 0.03
    }
    bias_filler {
      type: "constant"
      value: 0.2
    }
  }
}
layer {
  name: "inception_4d/relu_1x1"
  type: "ReLU"
  bottom: "inception_4d/1x1"
  top: "inception_4d/1x1"
}
layer {
  name: "inception_4d/3x3_reduce"
  type: "Convolution"
  bottom: "inception_4c/output"
  top: "inception_4d/3x3_reduce"
  param {
    lr_mult: 1
    decay_mult: 1
  }
  param {
    lr_mult: 2
    decay_mult: 0
  }
  convolution_param {
    num_output: 144
    kernel_size: 1
    weight_filler {
      type: "xavier"
      std: 0.09
    }
    bias_filler {
      type: "constant"
      value: 0.2
    }
  }
}
layer {
  name: "inception_4d/relu_3x3_reduce"
  type: "ReLU"
  bottom: "inception_4d/3x3_reduce"
  top: "inception_4d/3x3_reduce"
}
layer {
  name: "inception_4d/3x3"
  type: "Convolution"
  bottom: "inception_4d/3x3_reduce"
  top: "inception_4d/3x3"
  param {
    lr_mult: 1
    decay_mult: 1
  }
  param {
    lr_mult: 2
    decay_mult: 0
  }
  convolution_param {
    num_output: 288
    pad: 1
    kernel_size: 3
    weight_filler {
      type: "xavier"
      std: 0.03
    }
    bias_filler {
      type: "constant"
      value: 0.2
    }
  }
}
layer {
  name: "inception_4d/relu_3x3"
  type: "ReLU"
  bottom: "inception_4d/3x3"
  top: "inception_4d/3x3"
}
layer {
  name: "inception_4d/5x5_reduce"
  type: "Convolution"
  bottom: "inception_4c/output"
  top: "inception_4d/5x5_reduce"
  param {
    lr_mult: 1
    decay_mult: 1
  }
  param {
    lr_mult: 2
    decay_mult: 0
  }
  convolution_param {
    num_output: 32
    kernel_size: 1
    weight_filler {
      type: "xavier"
      std: 0.2
    }
    bias_filler {
      type: "constant"
      value: 0.2
    }
  }
}
layer {
  name: "inception_4d/relu_5x5_reduce"
  type: "ReLU"
  bottom: "inception_4d/5x5_reduce"
  top: "inception_4d/5x5_reduce"
}
layer {
  name: "inception_4d/5x5"
  type: "Convolution"
  bottom: "inception_4d/5x5_reduce"
  top: "inception_4d/5x5"
  param {
    lr_mult: 1
    decay_mult: 1
  }
  param {
    lr_mult: 2
    decay_mult: 0
  }
  convolution_param {
    num_output: 64
    pad: 2
    kernel_size: 5
    weight_filler {
      type: "xavier"
      std: 0.03
    }
    bias_filler {
      type: "constant"
      value: 0.2
    }
  }
}
layer {
  name: "inception_4d/relu_5x5"
  type: "ReLU"
  bottom: "inception_4d/5x5"
  top: "inception_4d/5x5"
}
layer {
  name: "inception_4d/pool"
  type: "Pooling"
  bottom: "inception_4c/output"
  top: "inception_4d/pool"
  pooling_param {
    pool: MAX
    kernel_size: 3
    stride: 1
    pad: 1
  }
}
layer {
  name: "inception_4d/pool_proj"
  type: "Convolution"
  bottom: "inception_4d/pool"
  top: "inception_4d/pool_proj"
  param {
    lr_mult: 1
    decay_mult: 1
  }
  param {
    lr_mult: 2
    decay_mult: 0
  }
  convolution_param {
    num_output: 64
    kernel_size: 1
    weight_filler {
      type: "xavier"
      std: 0.1
    }
    bias_filler {
      type: "constant"
      value: 0.2
    }
  }
}
layer {
  name: "inception_4d/relu_pool_proj"
  type: "ReLU"
  bottom: "inception_4d/pool_proj"
  top: "inception_4d/pool_proj"
}
layer {
  name: "inception_4d/output"
  type: "Concat"
  bottom: "inception_4d/1x1"
  bottom: "inception_4d/3x3"
  bottom: "inception_4d/5x5"
  bottom: "inception_4d/pool_proj"
  top: "inception_4d/output"
}
layer {
  name: "loss2/ave_pool"
  type: "Pooling"
  bottom: "inception_4d/output"
  top: "loss2/ave_pool"
  pooling_param {
    pool: AVE
    kernel_size: 5
    stride: 3
  }
}
layer {
  name: "loss2/conv"
  type: "Convolution"
  bottom: "loss2/ave_pool"
  top: "loss2/conv"
  param {
    lr_mult: 1
    decay_mult: 1
  }
  param {
    lr_mult: 2
    decay_mult: 0
  }
  convolution_param {
    num_output: 128
    kernel_size: 1
    weight_filler {
      type: "xavier"
      std: 0.08
    }
    bias_filler {
      type: "constant"
      value: 0.2
    }
  }
}
layer {
  name: "loss2/relu_conv"
  type: "ReLU"
  bottom: "loss2/conv"
  top: "loss2/conv"
}
layer {
  name: "loss2/fc"
  type: "InnerProduct"
  bottom: "loss2/conv"
  top: "loss2/fc"
  param {
    lr_mult: 1
    decay_mult: 1
  }
  param {
    lr_mult: 2
    decay_mult: 0
  }
  inner_product_param {
    num_output: 1024
    weight_filler {
      type: "xavier"
      std: 0.02
    }
    bias_filler {
      type: "constant"
      value: 0.2
    }
  }
}
layer {
  name: "loss2/relu_fc"
  type: "ReLU"
  bottom: "loss2/fc"
  top: "loss2/fc"
}
layer {
  name: "loss2/drop_fc"
  type: "Dropout"
  bottom: "loss2/fc"
  top: "loss2/fc"
  dropout_param {
    dropout_ratio: 0.2
  }
}
layer {
  name: "stanford_cars_loss2/classifier"
  type: "InnerProduct"
  bottom: "loss2/fc"
  top: "stanford_cars_loss2/classifier"
  param {
    lr_mult: 1
    decay_mult: 1
  }
  param {
    lr_mult: 2
    decay_mult: 0
  }
  inner_product_param {
    num_output: 196
    weight_filler {
      type: "xavier"
      std: 0.0009765625
    }
    bias_filler {
      type: "constant"
      value: 0
    }
  }
}
layer {
  name: "stanford_cars_loss2/loss"
  type: "SoftmaxWithLoss"
  bottom: "stanford_cars_loss2/classifier"
  bottom: "label"
  top: "loss2/loss1"
  loss_weight: 0.3
}
layer {
  name: "inception_4e/1x1"
  type: "Convolution"
  bottom: "inception_4d/output"
  top: "inception_4e/1x1"
  param {
    lr_mult: 1
    decay_mult: 1
  }
  param {
    lr_mult: 2
    decay_mult: 0
  }
  convolution_param {
    num_output: 256
    kernel_size: 1
    weight_filler {
      type: "xavier"
      std: 0.03
    }
    bias_filler {
      type: "constant"
      value: 0.2
    }
  }
}
layer {
  name: "inception_4e/relu_1x1"
  type: "ReLU"
  bottom: "inception_4e/1x1"
  top: "inception_4e/1x1"
}
layer {
  name: "inception_4e/3x3_reduce"
  type: "Convolution"
  bottom: "inception_4d/output"
  top: "inception_4e/3x3_reduce"
  param {
    lr_mult: 1
    decay_mult: 1
  }
  param {
    lr_mult: 2
    decay_mult: 0
  }
  convolution_param {
    num_output: 160
    kernel_size: 1
    weight_filler {
      type: "xavier"
      std: 0.09
    }
    bias_filler {
      type: "constant"
      value: 0.2
    }
  }
}
layer {
  name: "inception_4e/relu_3x3_reduce"
  type: "ReLU"
  bottom: "inception_4e/3x3_reduce"
  top: "inception_4e/3x3_reduce"
}
layer {
  name: "inception_4e/3x3"
  type: "Convolution"
  bottom: "inception_4e/3x3_reduce"
  top: "inception_4e/3x3"
  param {
    lr_mult: 1
    decay_mult: 1
  }
  param {
    lr_mult: 2
    decay_mult: 0
  }
  convolution_param {
    num_output: 320
    pad: 1
    kernel_size: 3
    weight_filler {
      type: "xavier"
      std: 0.03
    }
    bias_filler {
      type: "constant"
      value: 0.2
    }
  }
}
layer {
  name: "inception_4e/relu_3x3"
  type: "ReLU"
  bottom: "inception_4e/3x3"
  top: "inception_4e/3x3"
}
layer {
  name: "inception_4e/5x5_reduce"
  type: "Convolution"
  bottom: "inception_4d/output"
  top: "inception_4e/5x5_reduce"
  param {
    lr_mult: 1
    decay_mult: 1
  }
  param {
    lr_mult: 2
    decay_mult: 0
  }
  convolution_param {
    num_output: 32
    kernel_size: 1
    weight_filler {
      type: "xavier"
      std: 0.2
    }
    
I0704 17:50:40.568990 25497 layer_factory.hpp:74] Creating layer data
I0704 17:50:40.569021 25497 net.cpp:90] Creating Layer data
I0704 17:50:40.569031 25497 net.cpp:368] data -> data
I0704 17:50:40.569051 25497 net.cpp:368] data -> label
I0704 17:50:40.569072 25497 net.cpp:120] Setting up data
I0704 17:50:40.569142 25497 db.cpp:34] Opened lmdb examples/stanford_cars/stanford_cars_train_lmdb
I0704 17:50:40.569308 25497 data_layer.cpp:67] output data size: 30,3,224,224
I0704 17:50:40.571322 25497 net.cpp:127] Top shape: 30 3 224 224 (4515840)
I0704 17:50:40.571362 25497 net.cpp:127] Top shape: 30 (30)
I0704 17:50:40.571372 25497 layer_factory.hpp:74] Creating layer label_data_1_split
I0704 17:50:40.571394 25497 net.cpp:90] Creating Layer label_data_1_split
I0704 17:50:40.571403 25497 net.cpp:410] label_data_1_split <- label
I0704 17:50:40.571415 25497 net.cpp:368] label_data_1_split -> label_data_1_split_0
I0704 17:50:40.571425 25497 net.cpp:368] label_data_1_split -> label_data_1_split_1
I0704 17:50:40.571432 25497 net.cpp:368] label_data_1_split -> label_data_1_split_2
I0704 17:50:40.571439 25497 net.cpp:120] Setting up label_data_1_split
I0704 17:50:40.571449 25497 net.cpp:127] Top shape: 30 (30)
I0704 17:50:40.571483 25497 net.cpp:127] Top shape: 30 (30)
I0704 17:50:40.571498 25497 net.cpp:127] Top shape: 30 (30)
I0704 17:50:40.571503 25497 layer_factory.hpp:74] Creating layer conv1/7x7_s2
I0704 17:50:40.571516 25497 net.cpp:90] Creating Layer conv1/7x7_s2
I0704 17:50:40.571521 25497 net.cpp:410] conv1/7x7_s2 <- data
I0704 17:50:40.571527 25497 net.cpp:368] conv1/7x7_s2 -> conv1/7x7_s2
I0704 17:50:40.571537 25497 net.cpp:120] Setting up conv1/7x7_s2
I0704 17:50:40.601686 25497 net.cpp:127] Top shape: 30 64 112 112 (24084480)
I0704 17:50:40.601732 25497 layer_factory.hpp:74] Creating layer conv1/relu_7x7
I0704 17:50:40.601743 25497 net.cpp:90] Creating Layer conv1/relu_7x7
I0704 17:50:40.601750 25497 net.cpp:410] conv1/relu_7x7 <- conv1/7x7_s2
I0704 17:50:40.601758 25497 net.cpp:357] conv1/relu_7x7 -> conv1/7x7_s2 (in-place)
I0704 17:50:40.601766 25497 net.cpp:120] Setting up conv1/relu_7x7
I0704 17:50:40.601817 25497 net.cpp:127] Top shape: 30 64 112 112 (24084480)
I0704 17:50:40.601824 25497 layer_factory.hpp:74] Creating layer pool1/3x3_s2
I0704 17:50:40.601845 25497 net.cpp:90] Creating Layer pool1/3x3_s2
I0704 17:50:40.601850 25497 net.cpp:410] pool1/3x3_s2 <- conv1/7x7_s2
I0704 17:50:40.601856 25497 net.cpp:368] pool1/3x3_s2 -> pool1/3x3_s2
I0704 17:50:40.601865 25497 net.cpp:120] Setting up pool1/3x3_s2
I0704 17:50:40.601989 25497 net.cpp:127] Top shape: 30 64 56 56 (6021120)
I0704 17:50:40.602010 25497 layer_factory.hpp:74] Creating layer pool1/norm1
I0704 17:50:40.602018 25497 net.cpp:90] Creating Layer pool1/norm1
I0704 17:50:40.602023 25497 net.cpp:410] pool1/norm1 <- pool1/3x3_s2
I0704 17:50:40.602030 25497 net.cpp:368] pool1/norm1 -> pool1/norm1
I0704 17:50:40.602037 25497 net.cpp:120] Setting up pool1/norm1
I0704 17:50:40.602046 25497 net.cpp:127] Top shape: 30 64 56 56 (6021120)
I0704 17:50:40.602051 25497 layer_factory.hpp:74] Creating layer conv2/3x3_reduce
I0704 17:50:40.602059 25497 net.cpp:90] Creating Layer conv2/3x3_reduce
I0704 17:50:40.602064 25497 net.cpp:410] conv2/3x3_reduce <- pool1/norm1
I0704 17:50:40.602072 25497 net.cpp:368] conv2/3x3_reduce -> conv2/3x3_reduce
I0704 17:50:40.602080 25497 net.cpp:120] Setting up conv2/3x3_reduce
I0704 17:50:40.602298 25497 net.cpp:127] Top shape: 30 64 56 56 (6021120)
I0704 17:50:40.602321 25497 layer_factory.hpp:74] Creating layer conv2/relu_3x3_reduce
I0704 17:50:40.602329 25497 net.cpp:90] Creating Layer conv2/relu_3x3_reduce
I0704 17:50:40.602334 25497 net.cpp:410] conv2/relu_3x3_reduce <- conv2/3x3_reduce
I0704 17:50:40.602341 25497 net.cpp:357] conv2/relu_3x3_reduce -> conv2/3x3_reduce (in-place)
I0704 17:50:40.602347 25497 net.cpp:120] Setting up conv2/relu_3x3_reduce
I0704 17:50:40.602393 25497 net.cpp:127] Top shape: 30 64 56 56 (6021120)
I0704 17:50:40.602399 25497 layer_factory.hpp:74] Creating layer conv2/3x3
I0704 17:50:40.602417 25497 net.cpp:90] Creating Layer conv2/3x3
I0704 17:50:40.602422 25497 net.cpp:410] conv2/3x3 <- conv2/3x3_reduce
I0704 17:50:40.602428 25497 net.cpp:368] conv2/3x3 -> conv2/3x3
I0704 17:50:40.602435 25497 net.cpp:120] Setting up conv2/3x3
I0704 17:50:40.603098 25497 net.cpp:127] Top shape: 30 192 56 56 (18063360)
I0704 17:50:40.603122 25497 layer_factory.hpp:74] Creating layer conv2/relu_3x3
I0704 17:50:40.603129 25497 net.cpp:90] Creating Layer conv2/relu_3x3
I0704 17:50:40.603134 25497 net.cpp:410] conv2/relu_3x3 <- conv2/3x3
I0704 17:50:40.603140 25497 net.cpp:357] conv2/relu_3x3 -> conv2/3x3 (in-place)
I0704 17:50:40.603147 25497 net.cpp:120] Setting up conv2/relu_3x3
I0704 17:50:40.603194 25497 net.cpp:127] Top shape: 30 192 56 56 (18063360)
I0704 17:50:40.603200 25497 layer_factory.hpp:74] Creating layer conv2/norm2
I0704 17:50:40.603217 25497 net.cpp:90] Creating Layer conv2/norm2
I0704 17:50:40.603222 25497 net.cpp:410] conv2/norm2 <- conv2/3x3
I0704 17:50:40.603229 25497 net.cpp:368] conv2/norm2 -> conv2/norm2
I0704 17:50:40.603235 25497 net.cpp:120] Setting up conv2/norm2
I0704 17:50:40.603241 25497 net.cpp:127] Top shape: 30 192 56 56 (18063360)
I0704 17:50:40.603246 25497 layer_factory.hpp:74] Creating layer pool2/3x3_s2
I0704 17:50:40.603270 25497 net.cpp:90] Creating Layer pool2/3x3_s2
I0704 17:50:40.603274 25497 net.cpp:410] pool2/3x3_s2 <- conv2/norm2
I0704 17:50:40.603281 25497 net.cpp:368] pool2/3x3_s2 -> pool2/3x3_s2
I0704 17:50:40.603287 25497 net.cpp:120] Setting up pool2/3x3_s2
I0704 17:50:40.603345 25497 net.cpp:127] Top shape: 30 192 28 28 (4515840)
I0704 17:50:40.603353 25497 layer_factory.hpp:74] Creating layer pool2/3x3_s2_pool2/3x3_s2_0_split
I0704 17:50:40.603370 25497 net.cpp:90] Creating Layer pool2/3x3_s2_pool2/3x3_s2_0_split
I0704 17:50:40.603375 25497 net.cpp:410] pool2/3x3_s2_pool2/3x3_s2_0_split <- pool2/3x3_s2
I0704 17:50:40.603381 25497 net.cpp:368] pool2/3x3_s2_pool2/3x3_s2_0_split -> pool2/3x3_s2_pool2/3x3_s2_0_split_0
I0704 17:50:40.603389 25497 net.cpp:368] pool2/3x3_s2_pool2/3x3_s2_0_split -> pool2/3x3_s2_pool2/3x3_s2_0_split_1
I0704 17:50:40.603395 25497 net.cpp:368] pool2/3x3_s2_pool2/3x3_s2_0_split -> pool2/3x3_s2_pool2/3x3_s2_0_split_2
I0704 17:50:40.603401 25497 net.cpp:368] pool2/3x3_s2_pool2/3x3_s2_0_split -> pool2/3x3_s2_pool2/3x3_s2_0_split_3
I0704 17:50:40.603407 25497 net.cpp:120] Setting up pool2/3x3_s2_pool2/3x3_s2_0_split
I0704 17:50:40.603415 25497 net.cpp:127] Top shape: 30 192 28 28 (4515840)
I0704 17:50:40.603420 25497 net.cpp:127] Top shape: 30 192 28 28 (4515840)
I0704 17:50:40.603425 25497 net.cpp:127] Top shape: 30 192 28 28 (4515840)
I0704 17:50:40.603430 25497 net.cpp:127] Top shape: 30 192 28 28 (4515840)
I0704 17:50:40.603435 25497 layer_factory.hpp:74] Creating layer inception_3a/1x1
I0704 17:50:40.603441 25497 net.cpp:90] Creating Layer inception_3a/1x1
I0704 17:50:40.603446 25497 net.cpp:410] inception_3a/1x1 <- pool2/3x3_s2_pool2/3x3_s2_0_split_0
I0704 17:50:40.603452 25497 net.cpp:368] inception_3a/1x1 -> inception_3a/1x1
I0704 17:50:40.603461 25497 net.cpp:120] Setting up inception_3a/1x1
I0704 17:50:40.603709 25497 net.cpp:127] Top shape: 30 64 28 28 (1505280)
I0704 17:50:40.603732 25497 layer_factory.hpp:74] Creating layer inception_3a/relu_1x1
I0704 17:50:40.603739 25497 net.cpp:90] Creating Layer inception_3a/relu_1x1
I0704 17:50:40.603744 25497 net.cpp:410] inception_3a/relu_1x1 <- inception_3a/1x1
I0704 17:50:40.603750 25497 net.cpp:357] inception_3a/relu_1x1 -> inception_3a/1x1 (in-place)
I0704 17:50:40.603756 25497 net.cpp:120] Setting up inception_3a/relu_1x1
I0704 17:50:40.603868 25497 net.cpp:127] Top shape: 30 64 28 28 (1505280)
I0704 17:50:40.603878 25497 layer_factory.hpp:74] Creating layer inception_3a/3x3_reduce
I0704 17:50:40.603895 25497 net.cpp:90] Creating Layer inception_3a/3x3_reduce
I0704 17:50:40.603900 25497 net.cpp:410] inception_3a/3x3_reduce <- pool2/3x3_s2_pool2/3x3_s2_0_split_1
I0704 17:50:40.603907 25497 net.cpp:368] inception_3a/3x3_reduce -> inception_3a/3x3_reduce
I0704 17:50:40.603914 25497 net.cpp:120] Setting up inception_3a/3x3_reduce
I0704 17:50:40.604185 25497 net.cpp:127] Top shape: 30 96 28 28 (2257920)
I0704 17:50:40.604208 25497 layer_factory.hpp:74] Creating layer inception_3a/relu_3x3_reduce
I0704 17:50:40.604218 25497 net.cpp:90] Creating Layer inception_3a/relu_3x3_reduce
I0704 17:50:40.604223 25497 net.cpp:410] inception_3a/relu_3x3_reduce <- inception_3a/3x3_reduce
I0704 17:50:40.604228 25497 net.cpp:357] inception_3a/relu_3x3_reduce -> inception_3a/3x3_reduce (in-place)
I0704 17:50:40.604235 25497 net.cpp:120] Setting up inception_3a/relu_3x3_reduce
I0704 17:50:40.604281 25497 net.cpp:127] Top shape: 30 96 28 28 (2257920)
I0704 17:50:40.604288 25497 layer_factory.hpp:74] Creating layer inception_3a/3x3
I0704 17:50:40.604305 25497 net.cpp:90] Creating Layer inception_3a/3x3
I0704 17:50:40.604310 25497 net.cpp:410] inception_3a/3x3 <- inception_3a/3x3_reduce
I0704 17:50:40.604316 25497 net.cpp:368] inception_3a/3x3 -> inception_3a/3x3
I0704 17:50:40.604323 25497 net.cpp:120] Setting up inception_3a/3x3
I0704 17:50:40.605053 25497 net.cpp:127] Top shape: 30 128 28 28 (3010560)
I0704 17:50:40.605077 25497 layer_factory.hpp:74] Creating layer inception_3a/relu_3x3
I0704 17:50:40.605084 25497 net.cpp:90] Creating Layer inception_3a/relu_3x3
I0704 17:50:40.605096 25497 net.cpp:410] inception_3a/relu_3x3 <- inception_3a/3x3
I0704 17:50:40.605104 25497 net.cpp:357] inception_3a/relu_3x3 -> inception_3a/3x3 (in-place)
I0704 17:50:40.605111 25497 net.cpp:120] Setting up inception_3a/relu_3x3
I0704 17:50:40.605162 25497 net.cpp:127] Top shape: 30 128 28 28 (3010560)
I0704 17:50:40.605170 25497 layer_factory.hpp:74] Creating layer inception_3a/5x5_reduce
I0704 17:50:40.605187 25497 net.cpp:90] Creating Layer inception_3a/5x5_reduce
I0704 17:50:40.605192 25497 net.cpp:410] inception_3a/5x5_reduce <- pool2/3x3_s2_pool2/3x3_s2_0_split_2
I0704 17:50:40.605201 25497 net.cpp:368] inception_3a/5x5_reduce -> inception_3a/5x5_reduce
I0704 17:50:40.605207 25497 net.cpp:120] Setting up inception_3a/5x5_reduce
I0704 17:50:40.605428 25497 net.cpp:127] Top shape: 30 16 28 28 (376320)
I0704 17:50:40.605450 25497 layer_factory.hpp:74] Creating layer inception_3a/relu_5x5_reduce
I0704 17:50:40.605458 25497 net.cpp:90] Creating Layer inception_3a/relu_5x5_reduce
I0704 17:50:40.605464 25497 net.cpp:410] inception_3a/relu_5x5_reduce <- inception_3a/5x5_reduce
I0704 17:50:40.605470 25497 net.cpp:357] inception_3a/relu_5x5_reduce -> inception_3a/5x5_reduce (in-place)
I0704 17:50:40.605478 25497 net.cpp:120] Setting up inception_3a/relu_5x5_reduce
I0704 17:50:40.605592 25497 net.cpp:127] Top shape: 30 16 28 28 (376320)
I0704 17:50:40.605612 25497 layer_factory.hpp:74] Creating layer inception_3a/5x5
I0704 17:50:40.605620 25497 net.cpp:90] Creating Layer inception_3a/5x5
I0704 17:50:40.605625 25497 net.cpp:410] inception_3a/5x5 <- inception_3a/5x5_reduce
I0704 17:50:40.605633 25497 net.cpp:368] inception_3a/5x5 -> inception_3a/5x5
I0704 17:50:40.605640 25497 net.cpp:120] Setting up inception_3a/5x5
I0704 17:50:40.605903 25497 net.cpp:127] Top shape: 30 32 28 28 (752640)
I0704 17:50:40.605926 25497 layer_factory.hpp:74] Creating layer inception_3a/relu_5x5
I0704 17:50:40.605933 25497 net.cpp:90] Creating Layer inception_3a/relu_5x5
I0704 17:50:40.605938 25497 net.cpp:410] inception_3a/relu_5x5 <- inception_3a/5x5
I0704 17:50:40.605944 25497 net.cpp:357] inception_3a/relu_5x5 -> inception_3a/5x5 (in-place)
I0704 17:50:40.605950 25497 net.cpp:120] Setting up inception_3a/relu_5x5
I0704 17:50:40.606000 25497 net.cpp:127] Top shape: 30 32 28 28 (752640)
I0704 17:50:40.606008 25497 layer_factory.hpp:74] Creating layer inception_3a/pool
I0704 17:50:40.606022 25497 layer_factory.cpp:55] CUDNN does not support padding or multiple tops. Using Caffe's own pooling layer.
I0704 17:50:40.606029 25497 net.cpp:90] Creating Layer inception_3a/pool
I0704 17:50:40.606034 25497 net.cpp:410] inception_3a/pool <- pool2/3x3_s2_pool2/3x3_s2_0_split_3
I0704 17:50:40.606040 25497 net.cpp:368] inception_3a/pool -> inception_3a/pool
I0704 17:50:40.606046 25497 net.cpp:120] Setting up inception_3a/pool
I0704 17:50:40.606055 25497 net.cpp:127] Top shape: 30 192 28 28 (4515840)
I0704 17:50:40.606060 25497 layer_factory.hpp:74] Creating layer inception_3a/pool_proj
I0704 17:50:40.606066 25497 net.cpp:90] Creating Layer inception_3a/pool_proj
I0704 17:50:40.606072 25497 net.cpp:410] inception_3a/pool_proj <- inception_3a/pool
I0704 17:50:40.606079 25497 net.cpp:368] inception_3a/pool_proj -> inception_3a/pool_proj
I0704 17:50:40.606086 25497 net.cpp:120] Setting up inception_3a/pool_proj
I0704 17:50:40.606317 25497 net.cpp:127] Top shape: 30 32 28 28 (752640)
I0704 17:50:40.606339 25497 layer_factory.hpp:74] Creating layer inception_3a/relu_pool_proj
I0704 17:50:40.606348 25497 net.cpp:90] Creating Layer inception_3a/relu_pool_proj
I0704 17:50:40.606353 25497 net.cpp:410] inception_3a/relu_pool_proj <- inception_3a/pool_proj
I0704 17:50:40.606359 25497 net.cpp:357] inception_3a/relu_pool_proj -> inception_3a/pool_proj (in-place)
I0704 17:50:40.606364 25497 net.cpp:120] Setting up inception_3a/relu_pool_proj
I0704 17:50:40.606415 25497 net.cpp:127] Top shape: 30 32 28 28 (752640)
I0704 17:50:40.606422 25497 layer_factory.hpp:74] Creating layer inception_3a/output
I0704 17:50:40.606441 25497 net.cpp:90] Creating Layer inception_3a/output
I0704 17:50:40.606452 25497 net.cpp:410] inception_3a/output <- inception_3a/1x1
I0704 17:50:40.606458 25497 net.cpp:410] inception_3a/output <- inception_3a/3x3
I0704 17:50:40.606463 25497 net.cpp:410] inception_3a/output <- inception_3a/5x5
I0704 17:50:40.606469 25497 net.cpp:410] inception_3a/output <- inception_3a/pool_proj
I0704 17:50:40.606474 25497 net.cpp:368] inception_3a/output -> inception_3a/output
I0704 17:50:40.606482 25497 net.cpp:120] Setting up inception_3a/output
I0704 17:50:40.606492 25497 net.cpp:127] Top shape: 30 256 28 28 (6021120)
I0704 17:50:40.606497 25497 layer_factory.hpp:74] Creating layer inception_3a/output_inception_3a/output_0_split
I0704 17:50:40.606503 25497 net.cpp:90] Creating Layer inception_3a/output_inception_3a/output_0_split
I0704 17:50:40.606508 25497 net.cpp:410] inception_3a/output_inception_3a/output_0_split <- inception_3a/output
I0704 17:50:40.606515 25497 net.cpp:368] inception_3a/output_inception_3a/output_0_split -> inception_3a/output_inception_3a/output_0_split_0
I0704 17:50:40.606523 25497 net.cpp:368] inception_3a/output_inception_3a/output_0_split -> inception_3a/output_inception_3a/output_0_split_1
I0704 17:50:40.606529 25497 net.cpp:368] inception_3a/output_inception_3a/output_0_split -> inception_3a/output_inception_3a/output_0_split_2
I0704 17:50:40.606535 25497 net.cpp:368] inception_3a/output_inception_3a/output_0_split -> inception_3a/output_inception_3a/output_0_split_3
I0704 17:50:40.606541 25497 net.cpp:120] Setting up inception_3a/output_inception_3a/output_0_split
I0704 17:50:40.606549 25497 net.cpp:127] Top shape: 30 256 28 28 (6021120)
I0704 17:50:40.606554 25497 net.cpp:127] Top shape: 30 256 28 28 (6021120)
I0704 17:50:40.606559 25497 net.cpp:127] Top shape: 30 256 28 28 (6021120)
I0704 17:50:40.606564 25497 net.cpp:127] Top shape: 30 256 28 28 (6021120)
I0704 17:50:40.606569 25497 layer_factory.hpp:74] Creating layer inception_3b/1x1
I0704 17:50:40.606576 25497 net.cpp:90] Creating Layer inception_3b/1x1
I0704 17:50:40.606581 25497 net.cpp:410] inception_3b/1x1 <- inception_3a/output_inception_3a/output_0_split_0
I0704 17:50:40.606588 25497 net.cpp:368] inception_3b/1x1 -> inception_3b/1x1
I0704 17:50:40.606595 25497 net.cpp:120] Setting up inception_3b/1x1
I0704 17:50:40.606963 25497 net.cpp:127] Top shape: 30 128 28 28 (3010560)
I0704 17:50:40.606986 25497 layer_factory.hpp:74] Creating layer inception_3b/relu_1x1
I0704 17:50:40.606993 25497 net.cpp:90] Creating Layer inception_3b/relu_1x1
I0704 17:50:40.606999 25497 net.cpp:410] inception_3b/relu_1x1 <- inception_3b/1x1
I0704 17:50:40.607005 25497 net.cpp:357] inception_3b/relu_1x1 -> inception_3b/1x1 (in-place)
I0704 17:50:40.607012 25497 net.cpp:120] Setting up inception_3b/relu_1x1
I0704 17:50:40.607064 25497 net.cpp:127] Top shape: 30 128 28 28 (3010560)
I0704 17:50:40.607070 25497 layer_factory.hpp:74] Creating layer inception_3b/3x3_reduce
I0704 17:50:40.607089 25497 net.cpp:90] Creating Layer inception_3b/3x3_reduce
I0704 17:50:40.607094 25497 net.cpp:410] inception_3b/3x3_reduce <- inception_3a/output_inception_3a/output_0_split_1
I0704 17:50:40.607101 25497 net.cpp:368] inception_3b/3x3_reduce -> inception_3b/3x3_reduce
I0704 17:50:40.607108 25497 net.cpp:120] Setting up inception_3b/3x3_reduce
I0704 17:50:40.607482 25497 net.cpp:127] Top shape: 30 128 28 28 (3010560)
I0704 17:50:40.607504 25497 layer_factory.hpp:74] Creating layer inception_3b/relu_3x3_reduce
I0704 17:50:40.607511 25497 net.cpp:90] Creating Layer inception_3b/relu_3x3_reduce
I0704 17:50:40.607517 25497 net.cpp:410] inception_3b/relu_3x3_reduce <- inception_3b/3x3_reduce
I0704 17:50:40.607523 25497 net.cpp:357] inception_3b/relu_3x3_reduce -> inception_3b/3x3_reduce (in-place)
I0704 17:50:40.607530 25497 net.cpp:120] Setting up inception_3b/relu_3x3_reduce
I0704 17:50:40.607645 25497 net.cpp:127] Top shape: 30 128 28 28 (3010560)
I0704 17:50:40.607664 25497 layer_factory.hpp:74] Creating layer inception_3b/3x3
I0704 17:50:40.607676 25497 net.cpp:90] Creating Layer inception_3b/3x3
I0704 17:50:40.607688 25497 net.cpp:410] inception_3b/3x3 <- inception_3b/3x3_reduce
I0704 17:50:40.607697 25497 net.cpp:368] inception_3b/3x3 -> inception_3b/3x3
I0704 17:50:40.607704 25497 net.cpp:120] Setting up inception_3b/3x3
I0704 17:50:40.608979 25497 net.cpp:127] Top shape: 30 192 28 28 (4515840)
I0704 17:50:40.609001 25497 layer_factory.hpp:74] Creating layer inception_3b/relu_3x3
I0704 17:50:40.609009 25497 net.cpp:90] Creating Layer inception_3b/relu_3x3
I0704 17:50:40.609014 25497 net.cpp:410] inception_3b/relu_3x3 <- inception_3b/3x3
I0704 17:50:40.609022 25497 net.cpp:357] inception_3b/relu_3x3 -> inception_3b/3x3 (in-place)
I0704 17:50:40.609030 25497 net.cpp:120] Setting up inception_3b/relu_3x3
I0704 17:50:40.609079 25497 net.cpp:127] Top shape: 30 192 28 28 (4515840)
I0704 17:50:40.609086 25497 layer_factory.hpp:74] Creating layer inception_3b/5x5_reduce
I0704 17:50:40.609103 25497 net.cpp:90] Creating Layer inception_3b/5x5_reduce
I0704 17:50:40.609108 25497 net.cpp:410] inception_3b/5x5_reduce <- inception_3a/output_inception_3a/output_0_split_2
I0704 17:50:40.609117 25497 net.cpp:368] inception_3b/5x5_reduce -> inception_3b/5x5_reduce
I0704 17:50:40.609123 25497 net.cpp:120] Setting up inception_3b/5x5_reduce
I0704 17:50:40.609372 25497 net.cpp:127] Top shape: 30 32 28 28 (752640)
I0704 17:50:40.609395 25497 layer_factory.hpp:74] Creating layer inception_3b/relu_5x5_reduce
I0704 17:50:40.609401 25497 net.cpp:90] Creating Layer inception_3b/relu_5x5_reduce
I0704 17:50:40.609406 25497 net.cpp:410] inception_3b/relu_5x5_reduce <- inception_3b/5x5_reduce
I0704 17:50:40.609413 25497 net.cpp:357] inception_3b/relu_5x5_reduce -> inception_3b/5x5_reduce (in-place)
I0704 17:50:40.609421 25497 net.cpp:120] Setting up inception_3b/relu_5x5_reduce
I0704 17:50:40.609469 25497 net.cpp:127] Top shape: 30 32 28 28 (752640)
I0704 17:50:40.609488 25497 layer_factory.hpp:74] Creating layer inception_3b/5x5
I0704 17:50:40.609495 25497 net.cpp:90] Creating Layer inception_3b/5x5
I0704 17:50:40.609500 25497 net.cpp:410] inception_3b/5x5 <- inception_3b/5x5_reduce
I0704 17:50:40.609508 25497 net.cpp:368] inception_3b/5x5 -> inception_3b/5x5
I0704 17:50:40.609515 25497 net.cpp:120] Setting up inception_3b/5x5
I0704 17:50:40.610095 25497 net.cpp:127] Top shape: 30 96 28 28 (2257920)
I0704 17:50:40.610116 25497 layer_factory.hpp:74] Creating layer inception_3b/relu_5x5
I0704 17:50:40.610124 25497 net.cpp:90] Creating Layer inception_3b/relu_5x5
I0704 17:50:40.610131 25497 net.cpp:410] inception_3b/relu_5x5 <- inception_3b/5x5
I0704 17:50:40.610136 25497 net.cpp:357] inception_3b/relu_5x5 -> inception_3b/5x5 (in-place)
I0704 17:50:40.610143 25497 net.cpp:120] Setting up inception_3b/relu_5x5
I0704 17:50:40.610193 25497 net.cpp:127] Top shape: 30 96 28 28 (2257920)
I0704 17:50:40.610200 25497 layer_factory.hpp:74] Creating layer inception_3b/pool
I0704 17:50:40.610216 25497 layer_factory.cpp:55] CUDNN does not support padding or multiple tops. Using Caffe's own pooling layer.
I0704 17:50:40.610224 25497 net.cpp:90] Creating Layer inception_3b/pool
I0704 17:50:40.610229 25497 net.cpp:410] inception_3b/pool <- inception_3a/output_inception_3a/output_0_split_3
I0704 17:50:40.610234 25497 net.cpp:368] inception_3b/pool -> inception_3b/pool
I0704 17:50:40.610241 25497 net.cpp:120] Setting up inception_3b/pool
I0704 17:50:40.610249 25497 net.cpp:127] Top shape: 30 256 28 28 (6021120)
I0704 17:50:40.610255 25497 layer_factory.hpp:74] Creating layer inception_3b/pool_proj
I0704 17:50:40.610261 25497 net.cpp:90] Creating Layer inception_3b/pool_proj
I0704 17:50:40.610266 25497 net.cpp:410] inception_3b/pool_proj <- inception_3b/pool
I0704 17:50:40.610273 25497 net.cpp:368] inception_3b/pool_proj -> inception_3b/pool_proj
I0704 17:50:40.610280 25497 net.cpp:120] Setting up inception_3b/pool_proj
I0704 17:50:40.610566 25497 net.cpp:127] Top shape: 30 64 28 28 (1505280)
I0704 17:50:40.610589 25497 layer_factory.hpp:74] Creating layer inception_3b/relu_pool_proj
I0704 17:50:40.610597 25497 net.cpp:90] Creating Layer inception_3b/relu_pool_proj
I0704 17:50:40.610610 25497 net.cpp:410] inception_3b/relu_pool_proj <- inception_3b/pool_proj
I0704 17:50:40.610616 25497 net.cpp:357] inception_3b/relu_pool_proj -> inception_3b/pool_proj (in-place)
I0704 17:50:40.610623 25497 net.cpp:120] Setting up inception_3b/relu_pool_proj
I0704 17:50:40.610741 25497 net.cpp:127] Top shape: 30 64 28 28 (1505280)
I0704 17:50:40.610760 25497 layer_factory.hpp:74] Creating layer inception_3b/output
I0704 17:50:40.610769 25497 net.cpp:90] Creating Layer inception_3b/output
I0704 17:50:40.610774 25497 net.cpp:410] inception_3b/output <- inception_3b/1x1
I0704 17:50:40.610780 25497 net.cpp:410] inception_3b/output <- inception_3b/3x3
I0704 17:50:40.610785 25497 net.cpp:410] inception_3b/output <- inception_3b/5x5
I0704 17:50:40.610791 25497 net.cpp:410] inception_3b/output <- inception_3b/pool_proj
I0704 17:50:40.610797 25497 net.cpp:368] inception_3b/output -> inception_3b/output
I0704 17:50:40.610805 25497 net.cpp:120] Setting up inception_3b/output
I0704 17:50:40.610811 25497 net.cpp:127] Top shape: 30 480 28 28 (11289600)
I0704 17:50:40.610816 25497 layer_factory.hpp:74] Creating layer pool3/3x3_s2
I0704 17:50:40.610824 25497 net.cpp:90] Creating Layer pool3/3x3_s2
I0704 17:50:40.610829 25497 net.cpp:410] pool3/3x3_s2 <- inception_3b/output
I0704 17:50:40.610836 25497 net.cpp:368] pool3/3x3_s2 -> pool3/3x3_s2
I0704 17:50:40.610841 25497 net.cpp:120] Setting up pool3/3x3_s2
I0704 17:50:40.610891 25497 net.cpp:127] Top shape: 30 480 14 14 (2822400)
I0704 17:50:40.610898 25497 layer_factory.hpp:74] Creating layer pool3/3x3_s2_pool3/3x3_s2_0_split
I0704 17:50:40.610914 25497 net.cpp:90] Creating Layer pool3/3x3_s2_pool3/3x3_s2_0_split
I0704 17:50:40.610919 25497 net.cpp:410] pool3/3x3_s2_pool3/3x3_s2_0_split <- pool3/3x3_s2
I0704 17:50:40.610925 25497 net.cpp:368] pool3/3x3_s2_pool3/3x3_s2_0_split -> pool3/3x3_s2_pool3/3x3_s2_0_split_0
I0704 17:50:40.610934 25497 net.cpp:368] pool3/3x3_s2_pool3/3x3_s2_0_split -> pool3/3x3_s2_pool3/3x3_s2_0_split_1
I0704 17:50:40.610940 25497 net.cpp:368] pool3/3x3_s2_pool3/3x3_s2_0_split -> pool3/3x3_s2_pool3/3x3_s2_0_split_2
I0704 17:50:40.610947 25497 net.cpp:368] pool3/3x3_s2_pool3/3x3_s2_0_split -> pool3/3x3_s2_pool3/3x3_s2_0_split_3
I0704 17:50:40.610954 25497 net.cpp:120] Setting up pool3/3x3_s2_pool3/3x3_s2_0_split
I0704 17:50:40.610960 25497 net.cpp:127] Top shape: 30 480 14 14 (2822400)
I0704 17:50:40.610965 25497 net.cpp:127] Top shape: 30 480 14 14 (2822400)
I0704 17:50:40.610970 25497 net.cpp:127] Top shape: 30 480 14 14 (2822400)
I0704 17:50:40.610975 25497 net.cpp:127] Top shape: 30 480 14 14 (2822400)
I0704 17:50:40.610980 25497 layer_factory.hpp:74] Creating layer inception_4a/1x1
I0704 17:50:40.610987 25497 net.cpp:90] Creating Layer inception_4a/1x1
I0704 17:50:40.610992 25497 net.cpp:410] inception_4a/1x1 <- pool3/3x3_s2_pool3/3x3_s2_0_split_0
I0704 17:50:40.610999 25497 net.cpp:368] inception_4a/1x1 -> inception_4a/1x1
I0704 17:50:40.611006 25497 net.cpp:120] Setting up inception_4a/1x1
I0704 17:50:40.611675 25497 net.cpp:127] Top shape: 30 192 14 14 (1128960)
I0704 17:50:40.611688 25497 layer_factory.hpp:74] Creating layer inception_4a/relu_1x1
I0704 17:50:40.611697 25497 net.cpp:90] Creating Layer inception_4a/relu_1x1
I0704 17:50:40.611702 25497 net.cpp:410] inception_4a/relu_1x1 <- inception_4a/1x1
I0704 17:50:40.611709 25497 net.cpp:357] inception_4a/relu_1x1 -> inception_4a/1x1 (in-place)
I0704 17:50:40.611716 25497 net.cpp:120] Setting up inception_4a/relu_1x1
I0704 17:50:40.611757 25497 net.cpp:127] Top shape: 30 192 14 14 (1128960)
I0704 17:50:40.611765 25497 layer_factory.hpp:74] Creating layer inception_4a/3x3_reduce
I0704 17:50:40.611773 25497 net.cpp:90] Creating Layer inception_4a/3x3_reduce
I0704 17:50:40.611778 25497 net.cpp:410] inception_4a/3x3_reduce <- pool3/3x3_s2_pool3/3x3_s2_0_split_1
I0704 17:50:40.611785 25497 net.cpp:368] inception_4a/3x3_reduce -> inception_4a/3x3_reduce
I0704 17:50:40.611793 25497 net.cpp:120] Setting up inception_4a/3x3_reduce
I0704 17:50:40.612221 25497 net.cpp:127] Top shape: 30 96 14 14 (564480)
I0704 17:50:40.612242 25497 layer_factory.hpp:74] Creating layer inception_4a/relu_3x3_reduce
I0704 17:50:40.612251 25497 net.cpp:90] Creating Layer inception_4a/relu_3x3_reduce
I0704 17:50:40.612257 25497 net.cpp:410] inception_4a/relu_3x3_reduce <- inception_4a/3x3_reduce
I0704 17:50:40.612262 25497 net.cpp:357] inception_4a/relu_3x3_reduce -> inception_4a/3x3_reduce (in-place)
I0704 17:50:40.612269 25497 net.cpp:120] Setting up inception_4a/relu_3x3_reduce
I0704 17:50:40.612321 25497 net.cpp:127] Top shape: 30 96 14 14 (564480)
I0704 17:50:40.612329 25497 layer_factory.hpp:74] Creating layer inception_4a/3x3
I0704 17:50:40.612345 25497 net.cpp:90] Creating Layer inception_4a/3x3
I0704 17:50:40.612350 25497 net.cpp:410] inception_4a/3x3 <- inception_4a/3x3_reduce
I0704 17:50:40.612359 25497 net.cpp:368] inception_4a/3x3 -> inception_4a/3x3
I0704 17:50:40.612366 25497 net.cpp:120] Setting up inception_4a/3x3
I0704 17:50:40.613493 25497 net.cpp:127] Top shape: 30 208 14 14 (1223040)
I0704 17:50:40.613517 25497 layer_factory.hpp:74] Creating layer inception_4a/relu_3x3
I0704 17:50:40.613524 25497 net.cpp:90] Creating Layer inception_4a/relu_3x3
I0704 17:50:40.613530 25497 net.cpp:410] inception_4a/relu_3x3 <- inception_4a/3x3
I0704 17:50:40.613536 25497 net.cpp:357] inception_4a/relu_3x3 -> inception_4a/3x3 (in-place)
I0704 17:50:40.613543 25497 net.cpp:120] Setting up inception_4a/relu_3x3
I0704 17:50:40.613659 25497 net.cpp:127] Top shape: 30 208 14 14 (1223040)
I0704 17:50:40.613679 25497 layer_factory.hpp:74] Creating layer inception_4a/5x5_reduce
I0704 17:50:40.613687 25497 net.cpp:90] Creating Layer inception_4a/5x5_reduce
I0704 17:50:40.613692 25497 net.cpp:410] inception_4a/5x5_reduce <- pool3/3x3_s2_pool3/3x3_s2_0_split_2
I0704 17:50:40.613700 25497 net.cpp:368] inception_4a/5x5_reduce -> inception_4a/5x5_reduce
I0704 17:50:40.613708 25497 net.cpp:120] Setting up inception_4a/5x5_reduce
I0704 17:50:40.613953 25497 net.cpp:127] Top shape: 30 16 14 14 (94080)
I0704 17:50:40.613976 25497 layer_factory.hpp:74] Creating layer inception_4a/relu_5x5_reduce
I0704 17:50:40.613982 25497 net.cpp:90] Creating Layer inception_4a/relu_5x5_reduce
I0704 17:50:40.613987 25497 net.cpp:410] inception_4a/relu_5x5_reduce <- inception_4a/5x5_reduce
I0704 17:50:40.613994 25497 net.cpp:357] inception_4a/relu_5x5_reduce -> inception_4a/5x5_reduce (in-place)
I0704 17:50:40.614001 25497 net.cpp:120] Setting up inception_4a/relu_5x5_reduce
I0704 17:50:40.614053 25497 net.cpp:127] Top shape: 30 16 14 14 (94080)
I0704 17:50:40.614060 25497 layer_factory.hpp:74] Creating layer inception_4a/5x5
I0704 17:50:40.614078 25497 net.cpp:90] Creating Layer inception_4a/5x5
I0704 17:50:40.614083 25497 net.cpp:410] inception_4a/5x5 <- inception_4a/5x5_reduce
I0704 17:50:40.614089 25497 net.cpp:368] inception_4a/5x5 -> inception_4a/5x5
I0704 17:50:40.614097 25497 net.cpp:120] Setting up inception_4a/5x5
I0704 17:50:40.614395 25497 net.cpp:127] Top shape: 30 48 14 14 (282240)
I0704 17:50:40.614418 25497 layer_factory.hpp:74] Creating layer inception_4a/relu_5x5
I0704 17:50:40.614426 25497 net.cpp:90] Creating Layer inception_4a/relu_5x5
I0704 17:50:40.614431 25497 net.cpp:410] inception_4a/relu_5x5 <- inception_4a/5x5
I0704 17:50:40.614437 25497 net.cpp:357] inception_4a/relu_5x5 -> inception_4a/5x5 (in-place)
I0704 17:50:40.614444 25497 net.cpp:120] Setting up inception_4a/relu_5x5
I0704 17:50:40.614493 25497 net.cpp:127] Top shape: 30 48 14 14 (282240)
I0704 17:50:40.614500 25497 layer_factory.hpp:74] Creating layer inception_4a/pool
I0704 17:50:40.614516 25497 layer_factory.cpp:55] CUDNN does not support padding or multiple tops. Using Caffe's own pooling layer.
I0704 17:50:40.614522 25497 net.cpp:90] Creating Layer inception_4a/pool
I0704 17:50:40.614527 25497 net.cpp:410] inception_4a/pool <- pool3/3x3_s2_pool3/3x3_s2_0_split_3
I0704 17:50:40.614533 25497 net.cpp:368] inception_4a/pool -> inception_4a/pool
I0704 17:50:40.614541 25497 net.cpp:120] Setting up inception_4a/pool
I0704 17:50:40.614547 25497 net.cpp:127] Top shape: 30 480 14 14 (2822400)
I0704 17:50:40.614560 25497 layer_factory.hpp:74] Creating layer inception_4a/pool_proj
I0704 17:50:40.614569 25497 net.cpp:90] Creating Layer inception_4a/pool_proj
I0704 17:50:40.614574 25497 net.cpp:410] inception_4a/pool_proj <- inception_4a/pool
I0704 17:50:40.614581 25497 net.cpp:368] inception_4a/pool_proj -> inception_4a/pool_proj
I0704 17:50:40.614588 25497 net.cpp:120] Setting up inception_4a/pool_proj
I0704 17:50:40.614950 25497 net.cpp:127] Top shape: 30 64 14 14 (376320)
I0704 17:50:40.614972 25497 layer_factory.hpp:74] Creating layer inception_4a/relu_pool_proj
I0704 17:50:40.614979 25497 net.cpp:90] Creating Layer inception_4a/relu_pool_proj
I0704 17:50:40.614984 25497 net.cpp:410] inception_4a/relu_pool_proj <- inception_4a/pool_proj
I0704 17:50:40.614992 25497 net.cpp:357] inception_4a/relu_pool_proj -> inception_4a/pool_proj (in-place)
I0704 17:50:40.615000 25497 net.cpp:120] Setting up inception_4a/relu_pool_proj
I0704 17:50:40.615116 25497 net.cpp:127] Top shape: 30 64 14 14 (376320)
I0704 17:50:40.615125 25497 layer_factory.hpp:74] Creating layer inception_4a/output
I0704 17:50:40.615142 25497 net.cpp:90] Creating Layer inception_4a/output
I0704 17:50:40.615147 25497 net.cpp:410] inception_4a/output <- inception_4a/1x1
I0704 17:50:40.615154 25497 net.cpp:410] inception_4a/output <- inception_4a/3x3
I0704 17:50:40.615159 25497 net.cpp:410] inception_4a/output <- inception_4a/5x5
I0704 17:50:40.615164 25497 net.cpp:410] inception_4a/output <- inception_4a/pool_proj
I0704 17:50:40.615170 25497 net.cpp:368] inception_4a/output -> inception_4a/output
I0704 17:50:40.615177 25497 net.cpp:120] Setting up inception_4a/output
I0704 17:50:40.615185 25497 net.cpp:127] Top shape: 30 512 14 14 (3010560)
I0704 17:50:40.615190 25497 layer_factory.hpp:74] Creating layer inception_4a/output_inception_4a/output_0_split
I0704 17:50:40.615196 25497 net.cpp:90] Creating Layer inception_4a/output_inception_4a/output_0_split
I0704 17:50:40.615201 25497 net.cpp:410] inception_4a/output_inception_4a/output_0_split <- inception_4a/output
I0704 17:50:40.615207 25497 net.cpp:368] inception_4a/output_inception_4a/output_0_split -> inception_4a/output_inception_4a/output_0_split_0
I0704 17:50:40.615214 25497 net.cpp:368] inception_4a/output_inception_4a/output_0_split -> inception_4a/output_inception_4a/output_0_split_1
I0704 17:50:40.615221 25497 net.cpp:368] inception_4a/output_inception_4a/output_0_split -> inception_4a/output_inception_4a/output_0_split_2
I0704 17:50:40.615228 25497 net.cpp:368] inception_4a/output_inception_4a/output_0_split -> inception_4a/output_inception_4a/output_0_split_3
I0704 17:50:40.615234 25497 net.cpp:368] inception_4a/output_inception_4a/output_0_split -> inception_4a/output_inception_4a/output_0_split_4
I0704 17:50:40.615241 25497 net.cpp:120] Setting up inception_4a/output_inception_4a/output_0_split
I0704 17:50:40.615247 25497 net.cpp:127] Top shape: 30 512 14 14 (3010560)
I0704 17:50:40.615253 25497 net.cpp:127] Top shape: 30 512 14 14 (3010560)
I0704 17:50:40.615258 25497 net.cpp:127] Top shape: 30 512 14 14 (3010560)
I0704 17:50:40.615263 25497 net.cpp:127] Top shape: 30 512 14 14 (3010560)
I0704 17:50:40.615268 25497 net.cpp:127] Top shape: 30 512 14 14 (3010560)
I0704 17:50:40.615273 25497 layer_factory.hpp:74] Creating layer loss1/ave_pool
I0704 17:50:40.615280 25497 net.cpp:90] Creating Layer loss1/ave_pool
I0704 17:50:40.615286 25497 net.cpp:410] loss1/ave_pool <- inception_4a/output_inception_4a/output_0_split_0
I0704 17:50:40.615291 25497 net.cpp:368] loss1/ave_pool -> loss1/ave_pool
I0704 17:50:40.615298 25497 net.cpp:120] Setting up loss1/ave_pool
I0704 17:50:40.615355 25497 net.cpp:127] Top shape: 30 512 4 4 (245760)
I0704 17:50:40.615373 25497 layer_factory.hpp:74] Creating layer loss1/conv
I0704 17:50:40.615382 25497 net.cpp:90] Creating Layer loss1/conv
I0704 17:50:40.615388 25497 net.cpp:410] loss1/conv <- loss1/ave_pool
I0704 17:50:40.615394 25497 net.cpp:368] loss1/conv -> loss1/conv
I0704 17:50:40.615402 25497 net.cpp:120] Setting up loss1/conv
I0704 17:50:40.615936 25497 net.cpp:127] Top shape: 30 128 4 4 (61440)
I0704 17:50:40.615957 25497 layer_factory.hpp:74] Creating layer loss1/relu_conv
I0704 17:50:40.615965 25497 net.cpp:90] Creating Layer loss1/relu_conv
I0704 17:50:40.615972 25497 net.cpp:410] loss1/relu_conv <- loss1/conv
I0704 17:50:40.615978 25497 net.cpp:357] loss1/relu_conv -> loss1/conv (in-place)
I0704 17:50:40.615983 25497 net.cpp:120] Setting up loss1/relu_conv
I0704 17:50:40.616034 25497 net.cpp:127] Top shape: 30 128 4 4 (61440)
I0704 17:50:40.616040 25497 layer_factory.hpp:74] Creating layer loss1/fc
I0704 17:50:40.616060 25497 net.cpp:90] Creating Layer loss1/fc
I0704 17:50:40.616066 25497 net.cpp:410] loss1/fc <- loss1/conv
I0704 17:50:40.616073 25497 net.cpp:368] loss1/fc -> loss1/fc
I0704 17:50:40.616082 25497 net.cpp:120] Setting up loss1/fc
I0704 17:50:40.626015 25497 net.cpp:127] Top shape: 30 1024 (30720)
I0704 17:50:40.626052 25497 layer_factory.hpp:74] Creating layer loss1/relu_fc
I0704 17:50:40.626063 25497 net.cpp:90] Creating Layer loss1/relu_fc
I0704 17:50:40.626070 25497 net.cpp:410] loss1/relu_fc <- loss1/fc
I0704 17:50:40.626080 25497 net.cpp:357] loss1/relu_fc -> loss1/fc (in-place)
I0704 17:50:40.626088 25497 net.cpp:120] Setting up loss1/relu_fc
I0704 17:50:40.626174 25497 net.cpp:127] Top shape: 30 1024 (30720)
I0704 17:50:40.626183 25497 layer_factory.hpp:74] Creating layer loss1/drop_fc
I0704 17:50:40.626210 25497 net.cpp:90] Creating Layer loss1/drop_fc
I0704 17:50:40.626215 25497 net.cpp:410] loss1/drop_fc <- loss1/fc
I0704 17:50:40.626222 25497 net.cpp:357] loss1/drop_fc -> loss1/fc (in-place)
I0704 17:50:40.626230 25497 net.cpp:120] Setting up loss1/drop_fc
I0704 17:50:40.626240 25497 net.cpp:127] Top shape: 30 1024 (30720)
I0704 17:50:40.626245 25497 layer_factory.hpp:74] Creating layer stanford_cars_loss1/classifier
I0704 17:50:40.626253 25497 net.cpp:90] Creating Layer stanford_cars_loss1/classifier
I0704 17:50:40.626258 25497 net.cpp:410] stanford_cars_loss1/classifier <- loss1/fc
I0704 17:50:40.626266 25497 net.cpp:368] stanford_cars_loss1/classifier -> stanford_cars_loss1/classifier
I0704 17:50:40.626273 25497 net.cpp:120] Setting up stanford_cars_loss1/classifier
I0704 17:50:40.627267 25497 net.cpp:127] Top shape: 30 196 (5880)
I0704 17:50:40.627286 25497 layer_factory.hpp:74] Creating layer loss1/loss
I0704 17:50:40.627295 25497 net.cpp:90] Creating Layer loss1/loss
I0704 17:50:40.627300 25497 net.cpp:410] loss1/loss <- stanford_cars_loss1/classifier
I0704 17:50:40.627324 25497 net.cpp:410] loss1/loss <- label_data_1_split_0
I0704 17:50:40.627336 25497 net.cpp:368] loss1/loss -> loss1/loss1
I0704 17:50:40.627343 25497 net.cpp:120] Setting up loss1/loss
I0704 17:50:40.627362 25497 layer_factory.hpp:74] Creating layer loss1/loss
I0704 17:50:40.627552 25497 net.cpp:127] Top shape: (1)
I0704 17:50:40.627562 25497 net.cpp:129]     with loss weight 0.3
I0704 17:50:40.627591 25497 layer_factory.hpp:74] Creating layer inception_4b/1x1
I0704 17:50:40.627600 25497 net.cpp:90] Creating Layer inception_4b/1x1
I0704 17:50:40.627606 25497 net.cpp:410] inception_4b/1x1 <- inception_4a/output_inception_4a/output_0_split_1
I0704 17:50:40.627615 25497 net.cpp:368] inception_4b/1x1 -> inception_4b/1x1
I0704 17:50:40.627622 25497 net.cpp:120] Setting up inception_4b/1x1
I0704 17:50:40.628237 25497 net.cpp:127] Top shape: 30 160 14 14 (940800)
I0704 17:50:40.628262 25497 layer_factory.hpp:74] Creating layer inception_4b/relu_1x1
I0704 17:50:40.628269 25497 net.cpp:90] Creating Layer inception_4b/relu_1x1
I0704 17:50:40.628274 25497 net.cpp:410] inception_4b/relu_1x1 <- inception_4b/1x1
I0704 17:50:40.628281 25497 net.cpp:357] inception_4b/relu_1x1 -> inception_4b/1x1 (in-place)
I0704 17:50:40.628288 25497 net.cpp:120] Setting up inception_4b/relu_1x1
I0704 17:50:40.628340 25497 net.cpp:127] Top shape: 30 160 14 14 (940800)
I0704 17:50:40.628346 25497 layer_factory.hpp:74] Creating layer inception_4b/3x3_reduce
I0704 17:50:40.628365 25497 net.cpp:90] Creating Layer inception_4b/3x3_reduce
I0704 17:50:40.628371 25497 net.cpp:410] inception_4b/3x3_reduce <- inception_4a/output_inception_4a/output_0_split_2
I0704 17:50:40.628393 25497 net.cpp:368] inception_4b/3x3_reduce -> inception_4b/3x3_reduce
I0704 17:50:40.628401 25497 net.cpp:120] Setting up inception_4b/3x3_reduce
I0704 17:50:40.628890 25497 net.cpp:127] Top shape: 30 112 14 14 (658560)
I0704 17:50:40.628912 25497 layer_factory.hpp:74] Creating layer inception_4b/relu_3x3_reduce
I0704 17:50:40.628921 25497 net.cpp:90] Creating Layer inception_4b/relu_3x3_reduce
I0704 17:50:40.628926 25497 net.cpp:410] inception_4b/relu_3x3_reduce <- inception_4b/3x3_reduce
I0704 17:50:40.628932 25497 net.cpp:357] inception_4b/relu_3x3_reduce -> inception_4b/3x3_reduce (in-place)
I0704 17:50:40.628939 25497 net.cpp:120] Setting up inception_4b/relu_3x3_reduce
I0704 17:50:40.628989 25497 net.cpp:127] Top shape: 30 112 14 14 (658560)
I0704 17:50:40.628996 25497 layer_factory.hpp:74] Creating layer inception_4b/3x3
I0704 17:50:40.629014 25497 net.cpp:90] Creating Layer inception_4b/3x3
I0704 17:50:40.629020 25497 net.cpp:410] inception_4b/3x3 <- inception_4b/3x3_reduce
I0704 17:50:40.629029 25497 net.cpp:368] inception_4b/3x3 -> inception_4b/3x3
I0704 17:50:40.629035 25497 net.cpp:120] Setting up inception_4b/3x3
I0704 17:50:40.630336 25497 net.cpp:127] Top shape: 30 224 14 14 (1317120)
I0704 17:50:40.630357 25497 layer_factory.hpp:74] Creating layer inception_4b/relu_3x3
I0704 17:50:40.630364 25497 net.cpp:90] Creating Layer inception_4b/relu_3x3
I0704 17:50:40.630370 25497 net.cpp:410] inception_4b/relu_3x3 <- inception_4b/3x3
I0704 17:50:40.630377 25497 net.cpp:357] inception_4b/relu_3x3 -> inception_4b/3x3 (in-place)
I0704 17:50:40.630383 25497 net.cpp:120] Setting up inception_4b/relu_3x3
I0704 17:50:40.630435 25497 net.cpp:127] Top shape: 30 224 14 14 (1317120)
I0704 17:50:40.630442 25497 layer_factory.hpp:74] Creating layer inception_4b/5x5_reduce
I0704 17:50:40.630460 25497 net.cpp:90] Creating Layer inception_4b/5x5_reduce
I0704 17:50:40.630465 25497 net.cpp:410] inception_4b/5x5_reduce <- inception_4a/output_inception_4a/output_0_split_3
I0704 17:50:40.630472 25497 net.cpp:368] inception_4b/5x5_reduce -> inception_4b/5x5_reduce
I0704 17:50:40.630480 25497 net.cpp:120] Setting up inception_4b/5x5_reduce
I0704 17:50:40.630758 25497 net.cpp:127] Top shape: 30 24 14 14 (141120)
I0704 17:50:40.630779 25497 layer_factory.hpp:74] Creating layer inception_4b/relu_5x5_reduce
I0704 17:50:40.630785 25497 net.cpp:90] Creating Layer inception_4b/relu_5x5_reduce
I0704 17:50:40.630791 25497 net.cpp:410] inception_4b/relu_5x5_reduce <- inception_4b/5x5_reduce
I0704 17:50:40.630797 25497 net.cpp:357] inception_4b/relu_5x5_reduce -> inception_4b/5x5_reduce (in-place)
I0704 17:50:40.630805 25497 net.cpp:120] Setting up inception_4b/relu_5x5_reduce
I0704 17:50:40.630924 25497 net.cpp:127] Top shape: 30 24 14 14 (141120)
I0704 17:50:40.630944 25497 layer_factory.hpp:74] Creating layer inception_4b/5x5
I0704 17:50:40.630952 25497 net.cpp:90] Creating Layer inception_4b/5x5
I0704 17:50:40.630959 25497 net.cpp:410] inception_4b/5x5 <- inception_4b/5x5_reduce
I0704 17:50:40.630965 25497 net.cpp:368] inception_4b/5x5 -> inception_4b/5x5
I0704 17:50:40.630973 25497 net.cpp:120] Setting up inception_4b/5x5
I0704 17:50:40.631377 25497 net.cpp:127] Top shape: 30 64 14 14 (376320)
I0704 17:50:40.631399 25497 layer_factory.hpp:74] Creating layer inception_4b/relu_5x5
I0704 17:50:40.631408 25497 net.cpp:90] Creating Layer inception_4b/relu_5x5
I0704 17:50:40.631413 25497 net.cpp:410] inception_4b/relu_5x5 <- inception_4b/5x5
I0704 17:50:40.631419 25497 net.cpp:357] inception_4b/relu_5x5 -> inception_4b/5x5 (in-place)
I0704 17:50:40.631427 25497 net.cpp:120] Setting up inception_4b/relu_5x5
I0704 17:50:40.631476 25497 net.cpp:127] Top shape: 30 64 14 14 (376320)
I0704 17:50:40.631484 25497 layer_factory.hpp:74] Creating layer inception_4b/pool
I0704 17:50:40.631500 25497 layer_factory.cpp:55] CUDNN does not support padding or multiple tops. Using Caffe's own pooling layer.
I0704 17:50:40.631506 25497 net.cpp:90] Creating Layer inception_4b/pool
I0704 17:50:40.631518 25497 net.cpp:410] inception_4b/pool <- inception_4a/output_inception_4a/output_0_split_4
I0704 17:50:40.631526 25497 net.cpp:368] inception_4b/pool -> inception_4b/pool
I0704 17:50:40.631538 25497 net.cpp:120] Setting up inception_4b/pool
I0704 17:50:40.631548 25497 net.cpp:127] Top shape: 30 512 14 14 (3010560)
I0704 17:50:40.631553 25497 layer_factory.hpp:74] Creating layer inception_4b/pool_proj
I0704 17:50:40.631561 25497 net.cpp:90] Creating Layer inception_4b/pool_proj
I0704 17:50:40.631567 25497 net.cpp:410] inception_4b/pool_proj <- inception_4b/pool
I0704 17:50:40.631573 25497 net.cpp:368] inception_4b/pool_proj -> inception_4b/pool_proj
I0704 17:50:40.631580 25497 net.cpp:120] Setting up inception_4b/pool_proj
I0704 17:50:40.631950 25497 net.cpp:127] Top shape: 30 64 14 14 (376320)
I0704 17:50:40.631973 25497 layer_factory.hpp:74] Creating layer inception_4b/relu_pool_proj
I0704 17:50:40.631980 25497 net.cpp:90] Creating Layer inception_4b/relu_pool_proj
I0704 17:50:40.631986 25497 net.cpp:410] inception_4b/relu_pool_proj <- inception_4b/pool_proj
I0704 17:50:40.631992 25497 net.cpp:357] inception_4b/relu_pool_proj -> inception_4b/pool_proj (in-place)
I0704 17:50:40.631999 25497 net.cpp:120] Setting up inception_4b/relu_pool_proj
I0704 17:50:40.632052 25497 net.cpp:127] Top shape: 30 64 14 14 (376320)
I0704 17:50:40.632060 25497 layer_factory.hpp:74] Creating layer inception_4b/output
I0704 17:50:40.632076 25497 net.cpp:90] Creating Layer inception_4b/output
I0704 17:50:40.632081 25497 net.cpp:410] inception_4b/output <- inception_4b/1x1
I0704 17:50:40.632087 25497 net.cpp:410] inception_4b/output <- inception_4b/3x3
I0704 17:50:40.632092 25497 net.cpp:410] inception_4b/output <- inception_4b/5x5
I0704 17:50:40.632098 25497 net.cpp:410] inception_4b/output <- inception_4b/pool_proj
I0704 17:50:40.632104 25497 net.cpp:368] inception_4b/output -> inception_4b/output
I0704 17:50:40.632112 25497 net.cpp:120] Setting up inception_4b/output
I0704 17:50:40.632118 25497 net.cpp:127] Top shape: 30 512 14 14 (3010560)
I0704 17:50:40.632123 25497 layer_factory.hpp:74] Creating layer inception_4b/output_inception_4b/output_0_split
I0704 17:50:40.632132 25497 net.cpp:90] Creating Layer inception_4b/output_inception_4b/output_0_split
I0704 17:50:40.632138 25497 net.cpp:410] inception_4b/output_inception_4b/output_0_split <- inception_4b/output
I0704 17:50:40.632143 25497 net.cpp:368] inception_4b/output_inception_4b/output_0_split -> inception_4b/output_inception_4b/output_0_split_0
I0704 17:50:40.632149 25497 net.cpp:368] inception_4b/output_inception_4b/output_0_split -> inception_4b/output_inception_4b/output_0_split_1
I0704 17:50:40.632158 25497 net.cpp:368] inception_4b/output_inception_4b/output_0_split -> inception_4b/output_inception_4b/output_0_split_2
I0704 17:50:40.632165 25497 net.cpp:368] inception_4b/output_inception_4b/output_0_split -> inception_4b/output_inception_4b/output_0_split_3
I0704 17:50:40.632171 25497 net.cpp:120] Setting up inception_4b/output_inception_4b/output_0_split
I0704 17:50:40.632179 25497 net.cpp:127] Top shape: 30 512 14 14 (3010560)
I0704 17:50:40.632184 25497 net.cpp:127] Top shape: 30 512 14 14 (3010560)
I0704 17:50:40.632189 25497 net.cpp:127] Top shape: 30 512 14 14 (3010560)
I0704 17:50:40.632194 25497 net.cpp:127] Top shape: 30 512 14 14 (3010560)
I0704 17:50:40.632199 25497 layer_factory.hpp:74] Creating layer inception_4c/1x1
I0704 17:50:40.632205 25497 net.cpp:90] Creating Layer inception_4c/1x1
I0704 17:50:40.632210 25497 net.cpp:410] inception_4c/1x1 <- inception_4b/output_inception_4b/output_0_split_0
I0704 17:50:40.632217 25497 net.cpp:368] inception_4c/1x1 -> inception_4c/1x1
I0704 17:50:40.632225 25497 net.cpp:120] Setting up inception_4c/1x1
I0704 17:50:40.632762 25497 net.cpp:127] Top shape: 30 128 14 14 (752640)
I0704 17:50:40.632784 25497 layer_factory.hpp:74] Creating layer inception_4c/relu_1x1
I0704 17:50:40.632791 25497 net.cpp:90] Creating Layer inception_4c/relu_1x1
I0704 17:50:40.632797 25497 net.cpp:410] inception_4c/relu_1x1 <- inception_4c/1x1
I0704 17:50:40.632810 25497 net.cpp:357] inception_4c/relu_1x1 -> inception_4c/1x1 (in-place)
I0704 17:50:40.632817 25497 net.cpp:120] Setting up inception_4c/relu_1x1
I0704 17:50:40.632869 25497 net.cpp:127] Top shape: 30 128 14 14 (752640)
I0704 17:50:40.632875 25497 layer_factory.hpp:74] Creating layer inception_4c/3x3_reduce
I0704 17:50:40.632894 25497 net.cpp:90] Creating Layer inception_4c/3x3_reduce
I0704 17:50:40.632899 25497 net.cpp:410] inception_4c/3x3_reduce <- inception_4b/output_inception_4b/output_0_split_1
I0704 17:50:40.632905 25497 net.cpp:368] inception_4c/3x3_reduce -> inception_4c/3x3_reduce
I0704 17:50:40.632912 25497 net.cpp:120] Setting up inception_4c/3x3_reduce
I0704 17:50:40.633445 25497 net.cpp:127] Top shape: 30 128 14 14 (752640)
I0704 17:50:40.633467 25497 layer_factory.hpp:74] Creating layer inception_4c/relu_3x3_reduce
I0704 17:50:40.633474 25497 net.cpp:90] Creating Layer inception_4c/relu_3x3_reduce
I0704 17:50:40.633481 25497 net.cpp:410] inception_4c/relu_3x3_reduce <- inception_4c/3x3_reduce
I0704 17:50:40.633488 25497 net.cpp:357] inception_4c/relu_3x3_reduce -> inception_4c/3x3_reduce (in-place)
I0704 17:50:40.633496 25497 net.cpp:120] Setting up inception_4c/relu_3x3_reduce
I0704 17:50:40.633613 25497 net.cpp:127] Top shape: 30 128 14 14 (752640)
I0704 17:50:40.633633 25497 layer_factory.hpp:74] Creating layer inception_4c/3x3
I0704 17:50:40.633642 25497 net.cpp:90] Creating Layer inception_4c/3x3
I0704 17:50:40.633648 25497 net.cpp:410] inception_4c/3x3 <- inception_4c/3x3_reduce
I0704 17:50:40.633654 25497 net.cpp:368] inception_4c/3x3 -> inception_4c/3x3
I0704 17:50:40.633662 25497 net.cpp:120] Setting up inception_4c/3x3
I0704 17:50:40.635293 25497 net.cpp:127] Top shape: 30 256 14 14 (1505280)
I0704 17:50:40.635325 25497 layer_factory.hpp:74] Creating layer inception_4c/relu_3x3
I0704 17:50:40.635335 25497 net.cpp:90] Creating Layer inception_4c/relu_3x3
I0704 17:50:40.635340 25497 net.cpp:410] inception_4c/relu_3x3 <- inception_4c/3x3
I0704 17:50:40.635347 25497 net.cpp:357] inception_4c/relu_3x3 -> inception_4c/3x3 (in-place)
I0704 17:50:40.635354 25497 net.cpp:120] Setting up inception_4c/relu_3x3
I0704 17:50:40.635407 25497 net.cpp:127] Top shape: 30 256 14 14 (1505280)
I0704 17:50:40.635414 25497 layer_factory.hpp:74] Creating layer inception_4c/5x5_reduce
I0704 17:50:40.635432 25497 net.cpp:90] Creating Layer inception_4c/5x5_reduce
I0704 17:50:40.635437 25497 net.cpp:410] inception_4c/5x5_reduce <- inception_4b/output_inception_4b/output_0_split_2
I0704 17:50:40.635444 25497 net.cpp:368] inception_4c/5x5_reduce -> inception_4c/5x5_reduce
I0704 17:50:40.635452 25497 net.cpp:120] Setting up inception_4c/5x5_reduce
I0704 17:50:40.635720 25497 net.cpp:127] Top shape: 30 24 14 14 (141120)
I0704 17:50:40.635743 25497 layer_factory.hpp:74] Creating layer inception_4c/relu_5x5_reduce
I0704 17:50:40.635751 25497 net.cpp:90] Creating Layer inception_4c/relu_5x5_reduce
I0704 17:50:40.635756 25497 net.cpp:410] inception_4c/relu_5x5_reduce <- inception_4c/5x5_reduce
I0704 17:50:40.635761 25497 net.cpp:357] inception_4c/relu_5x5_reduce -> inception_4c/5x5_reduce (in-place)
I0704 17:50:40.635768 25497 net.cpp:120] Setting up inception_4c/relu_5x5_reduce
I0704 17:50:40.635818 25497 net.cpp:127] Top shape: 30 24 14 14 (141120)
I0704 17:50:40.635825 25497 layer_factory.hpp:74] Creating layer inception_4c/5x5
I0704 17:50:40.635843 25497 net.cpp:90] Creating Layer inception_4c/5x5
I0704 17:50:40.635848 25497 net.cpp:410] inception_4c/5x5 <- inception_4c/5x5_reduce
I0704 17:50:40.635854 25497 net.cpp:368] inception_4c/5x5 -> inception_4c/5x5
I0704 17:50:40.635861 25497 net.cpp:120] Setting up inception_4c/5x5
I0704 17:50:40.636258 25497 net.cpp:127] Top shape: 30 64 14 14 (376320)
I0704 17:50:40.636281 25497 layer_factory.hpp:74] Creating layer inception_4c/relu_5x5
I0704 17:50:40.636288 25497 net.cpp:90] Creating Layer inception_4c/relu_5x5
I0704 17:50:40.636294 25497 net.cpp:410] inception_4c/relu_5x5 <- inception_4c/5x5
I0704 17:50:40.636301 25497 net.cpp:357] inception_4c/relu_5x5 -> inception_4c/5x5 (in-place)
I0704 17:50:40.636313 25497 net.cpp:120] Setting up inception_4c/relu_5x5
I0704 17:50:40.636433 25497 net.cpp:127] Top shape: 30 64 14 14 (376320)
I0704 17:50:40.636454 25497 layer_factory.hpp:74] Creating layer inception_4c/pool
I0704 17:50:40.636461 25497 layer_factory.cpp:55] CUDNN does not support padding or multiple tops. Using Caffe's own pooling layer.
I0704 17:50:40.636466 25497 net.cpp:90] Creating Layer inception_4c/pool
I0704 17:50:40.636471 25497 net.cpp:410] inception_4c/pool <- inception_4b/output_inception_4b/output_0_split_3
I0704 17:50:40.636479 25497 net.cpp:368] inception_4c/pool -> inception_4c/pool
I0704 17:50:40.636487 25497 net.cpp:120] Setting up inception_4c/pool
I0704 17:50:40.636493 25497 net.cpp:127] Top shape: 30 512 14 14 (3010560)
I0704 17:50:40.636498 25497 layer_factory.hpp:74] Creating layer inception_4c/pool_proj
I0704 17:50:40.636505 25497 net.cpp:90] Creating Layer inception_4c/pool_proj
I0704 17:50:40.636510 25497 net.cpp:410] inception_4c/pool_proj <- inception_4c/pool
I0704 17:50:40.636518 25497 net.cpp:368] inception_4c/pool_proj -> inception_4c/pool_proj
I0704 17:50:40.636524 25497 net.cpp:120] Setting up inception_4c/pool_proj
I0704 17:50:40.636891 25497 net.cpp:127] Top shape: 30 64 14 14 (376320)
I0704 17:50:40.636914 25497 layer_factory.hpp:74] Creating layer inception_4c/relu_pool_proj
I0704 17:50:40.636921 25497 net.cpp:90] Creating Layer inception_4c/relu_pool_proj
I0704 17:50:40.636927 25497 net.cpp:410] inception_4c/relu_pool_proj <- inception_4c/pool_proj
I0704 17:50:40.636934 25497 net.cpp:357] inception_4c/relu_pool_proj -> inception_4c/pool_proj (in-place)
I0704 17:50:40.636942 25497 net.cpp:120] Setting up inception_4c/relu_pool_proj
I0704 17:50:40.636993 25497 net.cpp:127] Top shape: 30 64 14 14 (376320)
I0704 17:50:40.637001 25497 layer_factory.hpp:74] Creating layer inception_4c/output
I0704 17:50:40.637017 25497 net.cpp:90] Creating Layer inception_4c/output
I0704 17:50:40.637022 25497 net.cpp:410] inception_4c/output <- inception_4c/1x1
I0704 17:50:40.637028 25497 net.cpp:410] inception_4c/output <- inception_4c/3x3
I0704 17:50:40.637033 25497 net.cpp:410] inception_4c/output <- inception_4c/5x5
I0704 17:50:40.637038 25497 net.cpp:410] inception_4c/output <- inception_4c/pool_proj
I0704 17:50:40.637044 25497 net.cpp:368] inception_4c/output -> inception_4c/output
I0704 17:50:40.637051 25497 net.cpp:120] Setting up inception_4c/output
I0704 17:50:40.637058 25497 net.cpp:127] Top shape: 30 512 14 14 (3010560)
I0704 17:50:40.637063 25497 layer_factory.hpp:74] Creating layer inception_4c/output_inception_4c/output_0_split
I0704 17:50:40.637069 25497 net.cpp:90] Creating Layer inception_4c/output_inception_4c/output_0_split
I0704 17:50:40.637075 25497 net.cpp:410] inception_4c/output_inception_4c/output_0_split <- inception_4c/output
I0704 17:50:40.637080 25497 net.cpp:368] inception_4c/output_inception_4c/output_0_split -> inception_4c/output_inception_4c/output_0_split_0
I0704 17:50:40.637089 25497 net.cpp:368] inception_4c/output_inception_4c/output_0_split -> inception_4c/output_inception_4c/output_0_split_1
I0704 17:50:40.637095 25497 net.cpp:368] inception_4c/output_inception_4c/output_0_split -> inception_4c/output_inception_4c/output_0_split_2
I0704 17:50:40.637102 25497 net.cpp:368] inception_4c/output_inception_4c/output_0_split -> inception_4c/output_inception_4c/output_0_split_3
I0704 17:50:40.637109 25497 net.cpp:120] Setting up inception_4c/output_inception_4c/output_0_split
I0704 17:50:40.637115 25497 net.cpp:127] Top shape: 30 512 14 14 (3010560)
I0704 17:50:40.637121 25497 net.cpp:127] Top shape: 30 512 14 14 (3010560)
I0704 17:50:40.637126 25497 net.cpp:127] Top shape: 30 512 14 14 (3010560)
I0704 17:50:40.637131 25497 net.cpp:127] Top shape: 30 512 14 14 (3010560)
I0704 17:50:40.637136 25497 layer_factory.hpp:74] Creating layer inception_4d/1x1
I0704 17:50:40.637142 25497 net.cpp:90] Creating Layer inception_4d/1x1
I0704 17:50:40.637147 25497 net.cpp:410] inception_4d/1x1 <- inception_4c/output_inception_4c/output_0_split_0
I0704 17:50:40.637161 25497 net.cpp:368] inception_4d/1x1 -> inception_4d/1x1
I0704 17:50:40.637168 25497 net.cpp:120] Setting up inception_4d/1x1
I0704 17:50:40.637660 25497 net.cpp:127] Top shape: 30 112 14 14 (658560)
I0704 17:50:40.637683 25497 layer_factory.hpp:74] Creating layer inception_4d/relu_1x1
I0704 17:50:40.637691 25497 net.cpp:90] Creating Layer inception_4d/relu_1x1
I0704 17:50:40.637696 25497 net.cpp:410] inception_4d/relu_1x1 <- inception_4d/1x1
I0704 17:50:40.637701 25497 net.cpp:357] inception_4d/relu_1x1 -> inception_4d/1x1 (in-place)
I0704 17:50:40.637708 25497 net.cpp:120] Setting up inception_4d/relu_1x1
I0704 17:50:40.637758 25497 net.cpp:127] Top shape: 30 112 14 14 (658560)
I0704 17:50:40.637764 25497 layer_factory.hpp:74] Creating layer inception_4d/3x3_reduce
I0704 17:50:40.637781 25497 net.cpp:90] Creating Layer inception_4d/3x3_reduce
I0704 17:50:40.637786 25497 net.cpp:410] inception_4d/3x3_reduce <- inception_4c/output_inception_4c/output_0_split_1
I0704 17:50:40.637794 25497 net.cpp:368] inception_4d/3x3_reduce -> inception_4d/3x3_reduce
I0704 17:50:40.637801 25497 net.cpp:120] Setting up inception_4d/3x3_reduce
I0704 17:50:40.638370 25497 net.cpp:127] Top shape: 30 144 14 14 (846720)
I0704 17:50:40.638392 25497 layer_factory.hpp:74] Creating layer inception_4d/relu_3x3_reduce
I0704 17:50:40.638399 25497 net.cpp:90] Creating Layer inception_4d/relu_3x3_reduce
I0704 17:50:40.638406 25497 net.cpp:410] inception_4d/relu_3x3_reduce <- inception_4d/3x3_reduce
I0704 17:50:40.638411 25497 net.cpp:357] inception_4d/relu_3x3_reduce -> inception_4d/3x3_reduce (in-place)
I0704 17:50:40.638417 25497 net.cpp:120] Setting up inception_4d/relu_3x3_reduce
I0704 17:50:40.638468 25497 net.cpp:127] Top shape: 30 144 14 14 (846720)
I0704 17:50:40.638475 25497 layer_factory.hpp:74] Creating layer inception_4d/3x3
I0704 17:50:40.638494 25497 net.cpp:90] Creating Layer inception_4d/3x3
I0704 17:50:40.638499 25497 net.cpp:410] inception_4d/3x3 <- inception_4d/3x3_reduce
I0704 17:50:40.638505 25497 net.cpp:368] inception_4d/3x3 -> inception_4d/3x3
I0704 17:50:40.638514 25497 net.cpp:120] Setting up inception_4d/3x3
I0704 17:50:40.640538 25497 net.cpp:127] Top shape: 30 288 14 14 (1693440)
I0704 17:50:40.640561 25497 layer_factory.hpp:74] Creating layer inception_4d/relu_3x3
I0704 17:50:40.640569 25497 net.cpp:90] Creating Layer inception_4d/relu_3x3
I0704 17:50:40.640575 25497 net.cpp:410] inception_4d/relu_3x3 <- inception_4d/3x3
I0704 17:50:40.640581 25497 net.cpp:357] inception_4d/relu_3x3 -> inception_4d/3x3 (in-place)
I0704 17:50:40.640589 25497 net.cpp:120] Setting up inception_4d/relu_3x3
I0704 17:50:40.640709 25497 net.cpp:127] Top shape: 30 288 14 14 (1693440)
I0704 17:50:40.640719 25497 layer_factory.hpp:74] Creating layer inception_4d/5x5_reduce
I0704 17:50:40.640738 25497 net.cpp:90] Creating Layer inception_4d/5x5_reduce
I0704 17:50:40.640743 25497 net.cpp:410] inception_4d/5x5_reduce <- inception_4c/output_inception_4c/output_0_split_2
I0704 17:50:40.640750 25497 net.cpp:368] inception_4d/5x5_reduce -> inception_4d/5x5_reduce
I0704 17:50:40.640758 25497 net.cpp:120] Setting up inception_4d/5x5_reduce
I0704 17:50:40.641052 25497 net.cpp:127] Top shape: 30 32 14 14 (188160)
I0704 17:50:40.641073 25497 layer_factory.hpp:74] Creating layer inception_4d/relu_5x5_reduce
I0704 17:50:40.641082 25497 net.cpp:90] Creating Layer inception_4d/relu_5x5_reduce
I0704 17:50:40.641086 25497 net.cpp:410] inception_4d/relu_5x5_reduce <- inception_4d/5x5_reduce
I0704 17:50:40.641093 25497 net.cpp:357] inception_4d/relu_5x5_reduce -> inception_4d/5x5_reduce (in-place)
I0704 17:50:40.641099 25497 net.cpp:120] Setting up inception_4d/relu_5x5_reduce
I0704 17:50:40.641150 25497 net.cpp:127] Top shape: 30 32 14 14 (188160)
I0704 17:50:40.641158 25497 layer_factory.hpp:74] Creating layer inception_4d/5x5
I0704 17:50:40.641175 25497 net.cpp:90] Creating Layer inception_4d/5x5
I0704 17:50:40.641180 25497 net.cpp:410] inception_4d/5x5 <- inception_4d/5x5_reduce
I0704 17:50:40.641187 25497 net.cpp:368] inception_4d/5x5 -> inception_4d/5x5
I0704 17:50:40.641203 25497 net.cpp:120] Setting up inception_4d/5x5
I0704 17:50:40.641680 25497 net.cpp:127] Top shape: 30 64 14 14 (376320)
I0704 17:50:40.641702 25497 layer_factory.hpp:74] Creating layer inception_4d/relu_5x5
I0704 17:50:40.641710 25497 net.cpp:90] Creating Layer inception_4d/relu_5x5
I0704 17:50:40.641716 25497 net.cpp:410] inception_4d/relu_5x5 <- inception_4d/5x5
I0704 17:50:40.641723 25497 net.cpp:357] inception_4d/relu_5x5 -> inception_4d/5x5 (in-place)
I0704 17:50:40.641731 25497 net.cpp:120] Setting up inception_4d/relu_5x5
I0704 17:50:40.641782 25497 net.cpp:127] Top shape: 30 64 14 14 (376320)
I0704 17:50:40.641799 25497 layer_factory.hpp:74] Creating layer inception_4d/pool
I0704 17:50:40.641805 25497 layer_factory.cpp:55] CUDNN does not support padding or multiple tops. Using Caffe's own pooling layer.
I0704 17:50:40.641811 25497 net.cpp:90] Creating Layer inception_4d/pool
I0704 17:50:40.641818 25497 net.cpp:410] inception_4d/pool <- inception_4c/output_inception_4c/output_0_split_3
I0704 17:50:40.641824 25497 net.cpp:368] inception_4d/pool -> inception_4d/pool
I0704 17:50:40.641831 25497 net.cpp:120] Setting up inception_4d/pool
I0704 17:50:40.641839 25497 net.cpp:127] Top shape: 30 512 14 14 (3010560)
I0704 17:50:40.641844 25497 layer_factory.hpp:74] Creating layer inception_4d/pool_proj
I0704 17:50:40.641850 25497 net.cpp:90] Creating Layer inception_4d/pool_proj
I0704 17:50:40.641855 25497 net.cpp:410] inception_4d/pool_proj <- inception_4d/pool
I0704 17:50:40.641863 25497 net.cpp:368] inception_4d/pool_proj -> inception_4d/pool_proj
I0704 17:50:40.641870 25497 net.cpp:120] Setting up inception_4d/pool_proj
I0704 17:50:40.642241 25497 net.cpp:127] Top shape: 30 64 14 14 (376320)
I0704 17:50:40.642263 25497 layer_factory.hpp:74] Creating layer inception_4d/relu_pool_proj
I0704 17:50:40.642271 25497 net.cpp:90] Creating Layer inception_4d/relu_pool_proj
I0704 17:50:40.642277 25497 net.cpp:410] inception_4d/relu_pool_proj <- inception_4d/pool_proj
I0704 17:50:40.642282 25497 net.cpp:357] inception_4d/relu_pool_proj -> inception_4d/pool_proj (in-place)
I0704 17:50:40.642289 25497 net.cpp:120] Setting up inception_4d/relu_pool_proj
I0704 17:50:40.642341 25497 net.cpp:127] Top shape: 30 64 14 14 (376320)
I0704 17:50:40.642349 25497 layer_factory.hpp:74] Creating layer inception_4d/output
I0704 17:50:40.642364 25497 net.cpp:90] Creating Layer inception_4d/output
I0704 17:50:40.642369 25497 net.cpp:410] inception_4d/output <- inception_4d/1x1
I0704 17:50:40.642375 25497 net.cpp:410] inception_4d/output <- inception_4d/3x3
I0704 17:50:40.642380 25497 net.cpp:410] inception_4d/output <- inception_4d/5x5
I0704 17:50:40.642386 25497 net.cpp:410] inception_4d/output <- inception_4d/pool_proj
I0704 17:50:40.642392 25497 net.cpp:368] inception_4d/output -> inception_4d/output
I0704 17:50:40.642400 25497 net.cpp:120] Setting up inception_4d/output
I0704 17:50:40.642406 25497 net.cpp:127] Top shape: 30 528 14 14 (3104640)
I0704 17:50:40.642411 25497 layer_factory.hpp:74] Creating layer inception_4d/output_inception_4d/output_0_split
I0704 17:50:40.642418 25497 net.cpp:90] Creating Layer inception_4d/output_inception_4d/output_0_split
I0704 17:50:40.642423 25497 net.cpp:410] inception_4d/output_inception_4d/output_0_split <- inception_4d/output
I0704 17:50:40.642429 25497 net.cpp:368] inception_4d/output_inception_4d/output_0_split -> inception_4d/output_inception_4d/output_0_split_0
I0704 17:50:40.642436 25497 net.cpp:368] inception_4d/output_inception_4d/output_0_split -> inception_4d/output_inception_4d/output_0_split_1
I0704 17:50:40.642444 25497 net.cpp:368] inception_4d/output_inception_4d/output_0_split -> inception_4d/output_inception_4d/output_0_split_2
I0704 17:50:40.642452 25497 net.cpp:368] inception_4d/output_inception_4d/output_0_split -> inception_4d/output_inception_4d/output_0_split_3
I0704 17:50:40.642458 25497 net.cpp:368] inception_4d/output_inception_4d/output_0_split -> inception_4d/output_inception_4d/output_0_split_4
I0704 17:50:40.642464 25497 net.cpp:120] Setting up inception_4d/output_inception_4d/output_0_split
I0704 17:50:40.642488 25497 net.cpp:127] Top shape: 30 528 14 14 (3104640)
I0704 17:50:40.642493 25497 net.cpp:127] Top shape: 30 528 14 14 (3104640)
I0704 17:50:40.642498 25497 net.cpp:127] Top shape: 30 528 14 14 (3104640)
I0704 17:50:40.642503 25497 net.cpp:127] Top shape: 30 528 14 14 (3104640)
I0704 17:50:40.642508 25497 net.cpp:127] Top shape: 30 528 14 14 (3104640)
I0704 17:50:40.642513 25497 layer_factory.hpp:74] Creating layer loss2/ave_pool
I0704 17:50:40.642518 25497 net.cpp:90] Creating Layer loss2/ave_pool
I0704 17:50:40.642524 25497 net.cpp:410] loss2/ave_pool <- inception_4d/output_inception_4d/output_0_split_0
I0704 17:50:40.642530 25497 net.cpp:368] loss2/ave_pool -> loss2/ave_pool
I0704 17:50:40.642537 25497 net.cpp:120] Setting up loss2/ave_pool
I0704 17:50:40.642653 25497 net.cpp:127] Top shape: 30 528 4 4 (253440)
I0704 17:50:40.642663 25497 layer_factory.hpp:74] Creating layer loss2/conv
I0704 17:50:40.642670 25497 net.cpp:90] Creating Layer loss2/conv
I0704 17:50:40.642676 25497 net.cpp:410] loss2/conv <- loss2/ave_pool
I0704 17:50:40.642683 25497 net.cpp:368] loss2/conv -> loss2/conv
I0704 17:50:40.642690 25497 net.cpp:120] Setting up loss2/conv
I0704 17:50:40.643221 25497 net.cpp:127] Top shape: 30 128 4 4 (61440)
I0704 17:50:40.643232 25497 layer_factory.hpp:74] Creating layer loss2/relu_conv
I0704 17:50:40.643239 25497 net.cpp:90] Creating Layer loss2/relu_conv
I0704 17:50:40.643244 25497 net.cpp:410] loss2/relu_conv <- loss2/conv
I0704 17:50:40.643251 25497 net.cpp:357] loss2/relu_conv -> loss2/conv (in-place)
I0704 17:50:40.643257 25497 net.cpp:120] Setting up loss2/relu_conv
I0704 17:50:40.643299 25497 net.cpp:127] Top shape: 30 128 4 4 (61440)
I0704 17:50:40.643306 25497 layer_factory.hpp:74] Creating layer loss2/fc
I0704 17:50:40.643317 25497 net.cpp:90] Creating Layer loss2/fc
I0704 17:50:40.643322 25497 net.cpp:410] loss2/fc <- loss2/conv
I0704 17:50:40.643328 25497 net.cpp:368] loss2/fc -> loss2/fc
I0704 17:50:40.643337 25497 net.cpp:120] Setting up loss2/fc
I0704 17:50:40.653152 25497 net.cpp:127] Top shape: 30 1024 (30720)
I0704 17:50:40.653178 25497 layer_factory.hpp:74] Creating layer loss2/relu_fc
I0704 17:50:40.653188 25497 net.cpp:90] Creating Layer loss2/relu_fc
I0704 17:50:40.653195 25497 net.cpp:410] loss2/relu_fc <- loss2/fc
I0704 17:50:40.653203 25497 net.cpp:357] loss2/relu_fc -> loss2/fc (in-place)
I0704 17:50:40.653210 25497 net.cpp:120] Setting up loss2/relu_fc
I0704 17:50:40.653288 25497 net.cpp:127] Top shape: 30 1024 (30720)
I0704 17:50:40.653295 25497 layer_factory.hpp:74] Creating layer loss2/drop_fc
I0704 17:50:40.653305 25497 net.cpp:90] Creating Layer loss2/drop_fc
I0704 17:50:40.653309 25497 net.cpp:410] loss2/drop_fc <- loss2/fc
I0704 17:50:40.653316 25497 net.cpp:357] loss2/drop_fc -> loss2/fc (in-place)
I0704 17:50:40.653321 25497 net.cpp:120] Setting up loss2/drop_fc
I0704 17:50:40.653327 25497 net.cpp:127] Top shape: 30 1024 (30720)
I0704 17:50:40.653332 25497 layer_factory.hpp:74] Creating layer stanford_cars_loss2/classifier
I0704 17:50:40.653340 25497 net.cpp:90] Creating Layer stanford_cars_loss2/classifier
I0704 17:50:40.653345 25497 net.cpp:410] stanford_cars_loss2/classifier <- loss2/fc
I0704 17:50:40.653353 25497 net.cpp:368] stanford_cars_loss2/classifier -> stanford_cars_loss2/classifier
I0704 17:50:40.653362 25497 net.cpp:120] Setting up stanford_cars_loss2/classifier
I0704 17:50:40.654394 25497 net.cpp:127] Top shape: 30 196 (5880)
I0704 17:50:40.654417 25497 layer_factory.hpp:74] Creating layer stanford_cars_loss2/loss
I0704 17:50:40.654424 25497 net.cpp:90] Creating Layer stanford_cars_loss2/loss
I0704 17:50:40.654430 25497 net.cpp:410] stanford_cars_loss2/loss <- stanford_cars_loss2/classifier
I0704 17:50:40.654436 25497 net.cpp:410] stanford_cars_loss2/loss <- label_data_1_split_1
I0704 17:50:40.654443 25497 net.cpp:368] stanford_cars_loss2/loss -> loss2/loss1
I0704 17:50:40.654450 25497 net.cpp:120] Setting up stanford_cars_loss2/loss
I0704 17:50:40.654456 25497 layer_factory.hpp:74] Creating layer stanford_cars_loss2/loss
I0704 17:50:40.654541 25497 net.cpp:127] Top shape: (1)
I0704 17:50:40.654549 25497 net.cpp:129]     with loss weight 0.3
I0704 17:50:40.654569 25497 layer_factory.hpp:74] Creating layer inception_4e/1x1
I0704 17:50:40.654578 25497 net.cpp:90] Creating Layer inception_4e/1x1
I0704 17:50:40.654584 25497 net.cpp:410] inception_4e/1x1 <- inception_4d/output_inception_4d/output_0_split_1
I0704 17:50:40.654592 25497 net.cpp:368] inception_4e/1x1 -> inception_4e/1x1
I0704 17:50:40.654599 25497 net.cpp:120] Setting up inception_4e/1x1
I0704 17:50:40.655560 25497 net.cpp:127] Top shape: 30 256 14 14 (1505280)
I0704 17:50:40.655573 25497 layer_factory.hpp:74] Creating layer inception_4e/relu_1x1
I0704 17:50:40.655581 25497 net.cpp:90] Creating Layer inception_4e/relu_1x1
I0704 17:50:40.655587 25497 net.cpp:410] inception_4e/relu_1x1 <- inception_4e/1x1
I0704 17:50:40.655593 25497 net.cpp:357] inception_4e/relu_1x1 -> inception_4e/1x1 (in-place)
I0704 17:50:40.655599 25497 net.cpp:120] Setting up inception_4e/relu_1x1
I0704 17:50:40.655710 25497 net.cpp:127] Top shape: 30 256 14 14 (1505280)
I0704 17:50:40.655720 25497 layer_factory.hpp:74] Creating layer inception_4e/3x3_reduce
I0704 17:50:40.655727 25497 net.cpp:90] Creating Layer inception_4e/3x3_reduce
I0704 17:50:40.655732 25497 net.cpp:410] inception_4e/3x3_reduce <- inception_4d/output_inception_4d/output_0_split_2
I0704 17:50:40.655740 25497 net.cpp:368] inception_4e/3x3_reduce -> inception_4e/3x3_reduce
I0704 17:50:40.655748 25497 net.cpp:120] Setting up inception_4e/3x3_reduce
I0704 17:50:40.656363 25497 net.cpp:127] Top shape: 30 160 14 14 (940800)
I0704 17:50:40.656375 25497 layer_factory.hpp:74] Creating layer inception_4e/relu_3x3_reduce
I0704 17:50:40.656383 25497 net.cpp:90] Creating Layer inception_4e/relu_3x3_reduce
I0704 17:50:40.656388 25497 net.cpp:410] inception_4e/relu_3x3_reduce <- inception_4e/3x3_reduce
I0704 17:50:40.656395 25497 net.cpp:357] inception_4e/relu_3x3_reduce -> inception_4e/3x3_reduce (in-place)
I0704 17:50:40.656401 25497 net.cpp:120] Setting up inception_4e/relu_3x3_reduce
I0704 17:50:40.656443 25497 net.cpp:127] Top shape: 30 160 14 14 (940800)
I0704 17:50:40.656450 25497 layer_factory.hpp:74] Creating layer inception_4e/3x3
I0704 17:50:40.656458 25497 net.cpp:90] Creating Layer inception_4e/3x3
I0704 17:50:40.656463 25497 net.cpp:410] inception_4e/3x3 <- inception_4e/3x3_reduce
I0704 17:50:40.656471 25497 net.cpp:368] inception_4e/3x3 -> inception_4e/3x3
I0704 17:50:40.656479 25497 net.cpp:120] Setting up inception_4e/3x3
I0704 17:50:40.658958 25497 net.cpp:127] Top shape: 30 320 14 14 (1881600)
I0704 17:50:40.658972 25497 layer_factory.hpp:74] Creating layer inception_4e/relu_3x3
I0704 17:50:40.658977 25497 net.cpp:90] Creating Layer inception_4e/relu_3x3
I0704 17:50:40.658983 25497 net.cpp:410] inception_4e/relu_3x3 <- inception_4e/3x3
I0704 17:50:40.658990 25497 net.cpp:357] inception_4e/relu_3x3 -> inception_4e/3x3 (in-place)
I0704 17:50:40.658998 25497 net.cpp:120] Setting up inception_4e/relu_3x3
I0704 17:50:40.659037 25497 net.cpp:127] Top shape: 30 320 14 14 (1881600)
I0704 17:50:40.659044 25497 layer_factory.hpp:74] Creating layer inception_4e/5x5_reduce
I0704 17:50:40.659052 25497 net.cpp:90] Creating Layer inception_4e/5x5_reduce
I0704 17:50:40.659057 25497 net.cpp:410] inception_4e/5x5_reduce <- inception_4d/output_inception_4d/output_0_split_3
I0704 17:50:40.659065 25497 net.cpp:368] inception_4e/5x5_reduce -> inception_4e/5x5_reduce
I0704 17:50:40.659071 25497 net.cpp:120] Setting up inception_4e/5x5_reduce
I0704 17:50:40.659368 25497 net.cpp:127] Top shape: 30 32 14 14 (188160)
I0704 17:50:40.659379 25497 layer_factory.hpp:74] Creating layer inception_4e/relu_5x5_reduce
I0704 17:50:40.659386 25497 net.cpp:90] Creating Layer inception_4e/relu_5x5_reduce
I0704 17:50:40.659392 25497 net.cpp:410] inception_4e/relu_5x5_reduce <- inception_4e/5x5_reduce
I0704 17:50:40.659399 25497 net.cpp:357] inception_4e/relu_5x5_reduce -> inception_4e/5x5_reduce (in-place)
I0704 17:50:40.659412 25497 net.cpp:120] Setting up inception_4e/relu_5x5_reduce
I0704 17:50:40.659525 25497 net.cpp:127] Top shape: 30 32 14 14 (188160)
I0704 17:50:40.659535 25497 layer_factory.hpp:74] Creating layer inception_4e/5x5
I0704 17:50:40.659553 25497 net.cpp:90] Creating Layer inception_4e/5x5
I0704 17:50:40.659559 25497 net.cpp:410] inception_4e/5x5 <- inception_4e/5x5_reduce
I0704 17:50:40.659566 25497 net.cpp:368] inception_4e/5x5 -> inception_4e/5x5
I0704 17:50:40.659574 25497 net.cpp:120] Setting up inception_4e/5x5
I0704 17:50:40.660270 25497 net.cpp:127] Top shape: 30 128 14 14 (752640)
I0704 17:50:40.660282 25497 layer_factory.hpp:74] Creating layer inception_4e/relu_5x5
I0704 17:50:40.660290 25497 net.cpp:90] Creating Layer inception_4e/relu_5x5
I0704 17:50:40.660295 25497 net.cpp:410] inception_4e/relu_5x5 <- inception_4e/5x5
I0704 17:50:40.660302 25497 net.cpp:357] inception_4e/relu_5x5 -> inception_4e/5x5 (in-place)
I0704 17:50:40.660308 25497 net.cpp:120] Setting up inception_4e/relu_5x5
I0704 17:50:40.660354 25497 net.cpp:127] Top shape: 30 128 14 14 (752640)
I0704 17:50:40.660362 25497 layer_factory.hpp:74] Creating layer inception_4e/pool
I0704 17:50:40.660367 25497 layer_factory.cpp:55] CUDNN does not support padding or multiple tops. Using Caffe's own pooling layer.
I0704 17:50:40.660373 25497 net.cpp:90] Creating Layer inception_4e/pool
I0704 17:50:40.660378 25497 net.cpp:410] inception_4e/pool <- inception_4d/output_inception_4d/output_0_split_4
I0704 17:50:40.660384 25497 net.cpp:368] inception_4e/pool -> inception_4e/pool
I0704 17:50:40.660392 25497 net.cpp:120] Setting up inception_4e/pool
I0704 17:50:40.660399 25497 net.cpp:127] Top shape: 30 528 14 14 (3104640)
I0704 17:50:40.660403 25497 layer_factory.hpp:74] Creating layer inception_4e/pool_proj
I0704 17:50:40.660411 25497 net.cpp:90] Creating Layer inception_4e/pool_proj
I0704 17:50:40.660418 25497 net.cpp:410] inception_4e/pool_proj <- inception_4e/pool
I0704 17:50:40.660424 25497 net.cpp:368] inception_4e/pool_proj -> inception_4e/pool_proj
I0704 17:50:40.660430 25497 net.cpp:120] Setting up inception_4e/pool_proj
I0704 17:50:40.660962 25497 net.cpp:127] Top shape: 30 128 14 14 (752640)
I0704 17:50:40.660974 25497 layer_factory.hpp:74] Creating layer inception_4e/relu_pool_proj
I0704 17:50:40.660982 25497 net.cpp:90] Creating Layer inception_4e/relu_pool_proj
I0704 17:50:40.660989 25497 net.cpp:410] inception_4e/relu_pool_proj <- inception_4e/pool_proj
I0704 17:50:40.660995 25497 net.cpp:357] inception_4e/relu_pool_proj -> inception_4e/pool_proj (in-place)
I0704 17:50:40.661001 25497 net.cpp:120] Setting up inception_4e/relu_pool_proj
I0704 17:50:40.661043 25497 net.cpp:127] Top shape: 30 128 14 14 (752640)
I0704 17:50:40.661051 25497 layer_factory.hpp:74] Creating layer inception_4e/output
I0704 17:50:40.661057 25497 net.cpp:90] Creating Layer inception_4e/output
I0704 17:50:40.661062 25497 net.cpp:410] inception_4e/output <- inception_4e/1x1
I0704 17:50:40.661068 25497 net.cpp:410] inception_4e/output <- inception_4e/3x3
I0704 17:50:40.661073 25497 net.cpp:410] inception_4e/output <- inception_4e/5x5
I0704 17:50:40.661078 25497 net.cpp:410] inception_4e/output <- inception_4e/pool_proj
I0704 17:50:40.661084 25497 net.cpp:368] inception_4e/output -> inception_4e/output
I0704 17:50:40.661092 25497 net.cpp:120] Setting up inception_4e/output
I0704 17:50:40.661099 25497 net.cpp:127] Top shape: 30 832 14 14 (4892160)
I0704 17:50:40.661104 25497 layer_factory.hpp:74] Creating layer pool4/3x3_s2
I0704 17:50:40.661110 25497 net.cpp:90] Creating Layer pool4/3x3_s2
I0704 17:50:40.661115 25497 net.cpp:410] pool4/3x3_s2 <- inception_4e/output
I0704 17:50:40.661121 25497 net.cpp:368] pool4/3x3_s2 -> pool4/3x3_s2
I0704 17:50:40.661128 25497 net.cpp:120] Setting up pool4/3x3_s2
I0704 17:50:40.661170 25497 net.cpp:127] Top shape: 30 832 7 7 (1223040)
I0704 17:50:40.661176 25497 layer_factory.hpp:74] Creating layer pool4/3x3_s2_pool4/3x3_s2_0_split
I0704 17:50:40.661182 25497 net.cpp:90] Creating Layer pool4/3x3_s2_pool4/3x3_s2_0_split
I0704 17:50:40.661187 25497 net.cpp:410] pool4/3x3_s2_pool4/3x3_s2_0_split <- pool4/3x3_s2
I0704 17:50:40.661200 25497 net.cpp:368] pool4/3x3_s2_pool4/3x3_s2_0_split -> pool4/3x3_s2_pool4/3x3_s2_0_split_0
I0704 17:50:40.661207 25497 net.cpp:368] pool4/3x3_s2_pool4/3x3_s2_0_split -> pool4/3x3_s2_pool4/3x3_s2_0_split_1
I0704 17:50:40.661214 25497 net.cpp:368] pool4/3x3_s2_pool4/3x3_s2_0_split -> pool4/3x3_s2_pool4/3x3_s2_0_split_2
I0704 17:50:40.661221 25497 net.cpp:368] pool4/3x3_s2_pool4/3x3_s2_0_split -> pool4/3x3_s2_pool4/3x3_s2_0_split_3
I0704 17:50:40.661226 25497 net.cpp:120] Setting up pool4/3x3_s2_pool4/3x3_s2_0_split
I0704 17:50:40.661233 25497 net.cpp:127] Top shape: 30 832 7 7 (1223040)
I0704 17:50:40.661238 25497 net.cpp:127] Top shape: 30 832 7 7 (1223040)
I0704 17:50:40.661243 25497 net.cpp:127] Top shape: 30 832 7 7 (1223040)
I0704 17:50:40.661248 25497 net.cpp:127] Top shape: 30 832 7 7 (1223040)
I0704 17:50:40.661253 25497 layer_factory.hpp:74] Creating layer inception_5a/1x1
I0704 17:50:40.661262 25497 net.cpp:90] Creating Layer inception_5a/1x1
I0704 17:50:40.661267 25497 net.cpp:410] inception_5a/1x1 <- pool4/3x3_s2_pool4/3x3_s2_0_split_0
I0704 17:50:40.661273 25497 net.cpp:368] inception_5a/1x1 -> inception_5a/1x1
I0704 17:50:40.661280 25497 net.cpp:120] Setting up inception_5a/1x1
I0704 17:50:40.662523 25497 net.cpp:127] Top shape: 30 256 7 7 (376320)
I0704 17:50:40.662534 25497 layer_factory.hpp:74] Creating layer inception_5a/relu_1x1
I0704 17:50:40.662541 25497 net.cpp:90] Creating Layer inception_5a/relu_1x1
I0704 17:50:40.662547 25497 net.cpp:410] inception_5a/relu_1x1 <- inception_5a/1x1
I0704 17:50:40.662554 25497 net.cpp:357] inception_5a/relu_1x1 -> inception_5a/1x1 (in-place)
I0704 17:50:40.662559 25497 net.cpp:120] Setting up inception_5a/relu_1x1
I0704 17:50:40.662678 25497 net.cpp:127] Top shape: 30 256 7 7 (376320)
I0704 17:50:40.662686 25497 layer_factory.hpp:74] Creating layer inception_5a/3x3_reduce
I0704 17:50:40.662693 25497 net.cpp:90] Creating Layer inception_5a/3x3_reduce
I0704 17:50:40.662699 25497 net.cpp:410] inception_5a/3x3_reduce <- pool4/3x3_s2_pool4/3x3_s2_0_split_1
I0704 17:50:40.662706 25497 net.cpp:368] inception_5a/3x3_reduce -> inception_5a/3x3_reduce
I0704 17:50:40.662714 25497 net.cpp:120] Setting up inception_5a/3x3_reduce
I0704 17:50:40.663575 25497 net.cpp:127] Top shape: 30 160 7 7 (235200)
I0704 17:50:40.663588 25497 layer_factory.hpp:74] Creating layer inception_5a/relu_3x3_reduce
I0704 17:50:40.663594 25497 net.cpp:90] Creating Layer inception_5a/relu_3x3_reduce
I0704 17:50:40.663600 25497 net.cpp:410] inception_5a/relu_3x3_reduce <- inception_5a/3x3_reduce
I0704 17:50:40.663606 25497 net.cpp:357] inception_5a/relu_3x3_reduce -> inception_5a/3x3_reduce (in-place)
I0704 17:50:40.663612 25497 net.cpp:120] Setting up inception_5a/relu_3x3_reduce
I0704 17:50:40.663656 25497 net.cpp:127] Top shape: 30 160 7 7 (235200)
I0704 17:50:40.663662 25497 layer_factory.hpp:74] Creating layer inception_5a/3x3
I0704 17:50:40.663671 25497 net.cpp:90] Creating Layer inception_5a/3x3
I0704 17:50:40.663676 25497 net.cpp:410] inception_5a/3x3 <- inception_5a/3x3_reduce
I0704 17:50:40.663682 25497 net.cpp:368] inception_5a/3x3 -> inception_5a/3x3
I0704 17:50:40.663689 25497 net.cpp:120] Setting up inception_5a/3x3
I0704 17:50:40.666132 25497 net.cpp:127] Top shape: 30 320 7 7 (470400)
I0704 17:50:40.666143 25497 layer_factory.hpp:74] Creating layer inception_5a/relu_3x3
I0704 17:50:40.666151 25497 net.cpp:90] Creating Layer inception_5a/relu_3x3
I0704 17:50:40.666156 25497 net.cpp:410] inception_5a/relu_3x3 <- inception_5a/3x3
I0704 17:50:40.666162 25497 net.cpp:357] inception_5a/relu_3x3 -> inception_5a/3x3 (in-place)
I0704 17:50:40.666168 25497 net.cpp:120] Setting up inception_5a/relu_3x3
I0704 17:50:40.666209 25497 net.cpp:127] Top shape: 30 320 7 7 (470400)
I0704 17:50:40.666216 25497 layer_factory.hpp:74] Creating layer inception_5a/5x5_reduce
I0704 17:50:40.666224 25497 net.cpp:90] Creating Layer inception_5a/5x5_reduce
I0704 17:50:40.666229 25497 net.cpp:410] inception_5a/5x5_reduce <- pool4/3x3_s2_pool4/3x3_s2_0_split_2
I0704 17:50:40.666242 25497 net.cpp:368] inception_5a/5x5_reduce -> inception_5a/5x5_reduce
I0704 17:50:40.666250 25497 net.cpp:120] Setting up inception_5a/5x5_reduce
I0704 17:50:40.666590 25497 net.cpp:127] Top shape: 30 32 7 7 (47040)
I0704 17:50:40.666601 25497 layer_factory.hpp:74] Creating layer inception_5a/relu_5x5_reduce
I0704 17:50:40.666610 25497 net.cpp:90] Creating Layer inception_5a/relu_5x5_reduce
I0704 17:50:40.666615 25497 net.cpp:410] inception_5a/relu_5x5_reduce <- inception_5a/5x5_reduce
I0704 17:50:40.666620 25497 net.cpp:357] inception_5a/relu_5x5_reduce -> inception_5a/5x5_reduce (in-place)
I0704 17:50:40.666627 25497 net.cpp:120] Setting up inception_5a/relu_5x5_reduce
I0704 17:50:40.666668 25497 net.cpp:127] Top shape: 30 32 7 7 (47040)
I0704 17:50:40.666674 25497 layer_factory.hpp:74] Creating layer inception_5a/5x5
I0704 17:50:40.666682 25497 net.cpp:90] Creating Layer inception_5a/5x5
I0704 17:50:40.666688 25497 net.cpp:410] inception_5a/5x5 <- inception_5a/5x5_reduce
I0704 17:50:40.666695 25497 net.cpp:368] inception_5a/5x5 -> inception_5a/5x5
I0704 17:50:40.666702 25497 net.cpp:120] Setting up inception_5a/5x5
I0704 17:50:40.667434 25497 net.cpp:127] Top shape: 30 128 7 7 (188160)
I0704 17:50:40.667446 25497 layer_factory.hpp:74] Creating layer inception_5a/relu_5x5
I0704 17:50:40.667454 25497 net.cpp:90] Creating Layer inception_5a/relu_5x5
I0704 17:50:40.667459 25497 net.cpp:410] inception_5a/relu_5x5 <- inception_5a/5x5
I0704 17:50:40.667464 25497 net.cpp:357] inception_5a/relu_5x5 -> inception_5a/5x5 (in-place)
I0704 17:50:40.667470 25497 net.cpp:120] Setting up inception_5a/relu_5x5
I0704 17:50:40.667587 25497 net.cpp:127] Top shape: 30 128 7 7 (188160)
I0704 17:50:40.667595 25497 layer_factory.hpp:74] Creating layer inception_5a/pool
I0704 17:50:40.667600 25497 layer_factory.cpp:55] CUDNN does not support padding or multiple tops. Using Caffe's own pooling layer.
I0704 17:50:40.667608 25497 net.cpp:90] Creating Layer inception_5a/pool
I0704 17:50:40.667613 25497 net.cpp:410] inception_5a/pool <- pool4/3x3_s2_pool4/3x3_s2_0_split_3
I0704 17:50:40.667620 25497 net.cpp:368] inception_5a/pool -> inception_5a/pool
I0704 17:50:40.667626 25497 net.cpp:120] Setting up inception_5a/pool
I0704 17:50:40.667634 25497 net.cpp:127] Top shape: 30 832 7 7 (1223040)
I0704 17:50:40.667639 25497 layer_factory.hpp:74] Creating layer inception_5a/pool_proj
I0704 17:50:40.667646 25497 net.cpp:90] Creating Layer inception_5a/pool_proj
I0704 17:50:40.667651 25497 net.cpp:410] inception_5a/pool_proj <- inception_5a/pool
I0704 17:50:40.667659 25497 net.cpp:368] inception_5a/pool_proj -> inception_5a/pool_proj
I0704 17:50:40.667667 25497 net.cpp:120] Setting up inception_5a/pool_proj
I0704 17:50:40.668388 25497 net.cpp:127] Top shape: 30 128 7 7 (188160)
I0704 17:50:40.668400 25497 layer_factory.hpp:74] Creating layer inception_5a/relu_pool_proj
I0704 17:50:40.668406 25497 net.cpp:90] Creating Layer inception_5a/relu_pool_proj
I0704 17:50:40.668412 25497 net.cpp:410] inception_5a/relu_pool_proj <- inception_5a/pool_proj
I0704 17:50:40.668417 25497 net.cpp:357] inception_5a/relu_pool_proj -> inception_5a/pool_proj (in-place)
I0704 17:50:40.668424 25497 net.cpp:120] Setting up inception_5a/relu_pool_proj
I0704 17:50:40.668465 25497 net.cpp:127] Top shape: 30 128 7 7 (188160)
I0704 17:50:40.668470 25497 layer_factory.hpp:74] Creating layer inception_5a/output
I0704 17:50:40.668478 25497 net.cpp:90] Creating Layer inception_5a/output
I0704 17:50:40.668483 25497 net.cpp:410] inception_5a/output <- inception_5a/1x1
I0704 17:50:40.668488 25497 net.cpp:410] inception_5a/output <- inception_5a/3x3
I0704 17:50:40.668493 25497 net.cpp:410] inception_5a/output <- inception_5a/5x5
I0704 17:50:40.668498 25497 net.cpp:410] inception_5a/output <- inception_5a/pool_proj
I0704 17:50:40.668504 25497 net.cpp:368] inception_5a/output -> inception_5a/output
I0704 17:50:40.668510 25497 net.cpp:120] Setting up inception_5a/output
I0704 17:50:40.668516 25497 net.cpp:127] Top shape: 30 832 7 7 (1223040)
I0704 17:50:40.668529 25497 layer_factory.hpp:74] Creating layer inception_5a/output_inception_5a/output_0_split
I0704 17:50:40.668535 25497 net.cpp:90] Creating Layer inception_5a/output_inception_5a/output_0_split
I0704 17:50:40.668540 25497 net.cpp:410] inception_5a/output_inception_5a/output_0_split <- inception_5a/output
I0704 17:50:40.668547 25497 net.cpp:368] inception_5a/output_inception_5a/output_0_split -> inception_5a/output_inception_5a/output_0_split_0
I0704 17:50:40.668555 25497 net.cpp:368] inception_5a/output_inception_5a/output_0_split -> inception_5a/output_inception_5a/output_0_split_1
I0704 17:50:40.668561 25497 net.cpp:368] inception_5a/output_inception_5a/output_0_split -> inception_5a/output_inception_5a/output_0_split_2
I0704 17:50:40.668568 25497 net.cpp:368] inception_5a/output_inception_5a/output_0_split -> inception_5a/output_inception_5a/output_0_split_3
I0704 17:50:40.668575 25497 net.cpp:120] Setting up inception_5a/output_inception_5a/output_0_split
I0704 17:50:40.668581 25497 net.cpp:127] Top shape: 30 832 7 7 (1223040)
I0704 17:50:40.668586 25497 net.cpp:127] Top shape: 30 832 7 7 (1223040)
I0704 17:50:40.668591 25497 net.cpp:127] Top shape: 30 832 7 7 (1223040)
I0704 17:50:40.668596 25497 net.cpp:127] Top shape: 30 832 7 7 (1223040)
I0704 17:50:40.668601 25497 layer_factory.hpp:74] Creating layer inception_5b/1x1
I0704 17:50:40.668607 25497 net.cpp:90] Creating Layer inception_5b/1x1
I0704 17:50:40.668612 25497 net.cpp:410] inception_5b/1x1 <- inception_5a/output_inception_5a/output_0_split_0
I0704 17:50:40.668618 25497 net.cpp:368] inception_5b/1x1 -> inception_5b/1x1
I0704 17:50:40.668625 25497 net.cpp:120] Setting up inception_5b/1x1
I0704 17:50:40.670377 25497 net.cpp:127] Top shape: 30 384 7 7 (564480)
I0704 17:50:40.670389 25497 layer_factory.hpp:74] Creating layer inception_5b/relu_1x1
I0704 17:50:40.670397 25497 net.cpp:90] Creating Layer inception_5b/relu_1x1
I0704 17:50:40.670402 25497 net.cpp:410] inception_5b/relu_1x1 <- inception_5b/1x1
I0704 17:50:40.670408 25497 net.cpp:357] inception_5b/relu_1x1 -> inception_5b/1x1 (in-place)
I0704 17:50:40.670413 25497 net.cpp:120] Setting up inception_5b/relu_1x1
I0704 17:50:40.670454 25497 net.cpp:127] Top shape: 30 384 7 7 (564480)
I0704 17:50:40.670460 25497 layer_factory.hpp:74] Creating layer inception_5b/3x3_reduce
I0704 17:50:40.670467 25497 net.cpp:90] Creating Layer inception_5b/3x3_reduce
I0704 17:50:40.670472 25497 net.cpp:410] inception_5b/3x3_reduce <- inception_5a/output_inception_5a/output_0_split_1
I0704 17:50:40.670480 25497 net.cpp:368] inception_5b/3x3_reduce -> inception_5b/3x3_reduce
I0704 17:50:40.670487 25497 net.cpp:120] Setting up inception_5b/3x3_reduce
I0704 17:50:40.671468 25497 net.cpp:127] Top shape: 30 192 7 7 (282240)
I0704 17:50:40.671479 25497 layer_factory.hpp:74] Creating layer inception_5b/relu_3x3_reduce
I0704 17:50:40.671486 25497 net.cpp:90] Creating Layer inception_5b/relu_3x3_reduce
I0704 17:50:40.671491 25497 net.cpp:410] inception_5b/relu_3x3_reduce <- inception_5b/3x3_reduce
I0704 17:50:40.671497 25497 net.cpp:357] inception_5b/relu_3x3_reduce -> inception_5b/3x3_reduce (in-place)
I0704 17:50:40.671504 25497 net.cpp:120] Setting up inception_5b/relu_3x3_reduce
I0704 17:50:40.671545 25497 net.cpp:127] Top shape: 30 192 7 7 (282240)
I0704 17:50:40.671551 25497 layer_factory.hpp:74] Creating layer inception_5b/3x3
I0704 17:50:40.671560 25497 net.cpp:90] Creating Layer inception_5b/3x3
I0704 17:50:40.671564 25497 net.cpp:410] inception_5b/3x3 <- inception_5b/3x3_reduce
I0704 17:50:40.671571 25497 net.cpp:368] inception_5b/3x3 -> inception_5b/3x3
I0704 17:50:40.671588 25497 net.cpp:120] Setting up inception_5b/3x3
I0704 17:50:40.675003 25497 net.cpp:127] Top shape: 30 384 7 7 (564480)
I0704 17:50:40.675014 25497 layer_factory.hpp:74] Creating layer inception_5b/relu_3x3
I0704 17:50:40.675021 25497 net.cpp:90] Creating Layer inception_5b/relu_3x3
I0704 17:50:40.675026 25497 net.cpp:410] inception_5b/relu_3x3 <- inception_5b/3x3
I0704 17:50:40.675034 25497 net.cpp:357] inception_5b/relu_3x3 -> inception_5b/3x3 (in-place)
I0704 17:50:40.675050 25497 net.cpp:120] Setting up inception_5b/relu_3x3
I0704 17:50:40.675159 25497 net.cpp:127] Top shape: 30 384 7 7 (564480)
I0704 17:50:40.675168 25497 layer_factory.hpp:74] Creating layer inception_5b/5x5_reduce
I0704 17:50:40.675176 25497 net.cpp:90] Creating Layer inception_5b/5x5_reduce
I0704 17:50:40.675181 25497 net.cpp:410] inception_5b/5x5_reduce <- inception_5a/output_inception_5a/output_0_split_2
I0704 17:50:40.675189 25497 net.cpp:368] inception_5b/5x5_reduce -> inception_5b/5x5_reduce
I0704 17:50:40.675196 25497 net.cpp:120] Setting up inception_5b/5x5_reduce
I0704 17:50:40.675603 25497 net.cpp:127] Top shape: 30 48 7 7 (70560)
I0704 17:50:40.675616 25497 layer_factory.hpp:74] Creating layer inception_5b/relu_5x5_reduce
I0704 17:50:40.675622 25497 net.cpp:90] Creating Layer inception_5b/relu_5x5_reduce
I0704 17:50:40.675628 25497 net.cpp:410] inception_5b/relu_5x5_reduce <- inception_5b/5x5_reduce
I0704 17:50:40.675634 25497 net.cpp:357] inception_5b/relu_5x5_reduce -> inception_5b/5x5_reduce (in-place)
I0704 17:50:40.675640 25497 net.cpp:120] Setting up inception_5b/relu_5x5_reduce
I0704 17:50:40.675683 25497 net.cpp:127] Top shape: 30 48 7 7 (70560)
I0704 17:50:40.675689 25497 layer_factory.hpp:74] Creating layer inception_5b/5x5
I0704 17:50:40.675698 25497 net.cpp:90] Creating Layer inception_5b/5x5
I0704 17:50:40.675703 25497 net.cpp:410] inception_5b/5x5 <- inception_5b/5x5_reduce
I0704 17:50:40.675709 25497 net.cpp:368] inception_5b/5x5 -> inception_5b/5x5
I0704 17:50:40.675715 25497 net.cpp:120] Setting up inception_5b/5x5
I0704 17:50:40.676666 25497 net.cpp:127] Top shape: 30 128 7 7 (188160)
I0704 17:50:40.676677 25497 layer_factory.hpp:74] Creating layer inception_5b/relu_5x5
I0704 17:50:40.676684 25497 net.cpp:90] Creating Layer inception_5b/relu_5x5
I0704 17:50:40.676689 25497 net.cpp:410] inception_5b/relu_5x5 <- inception_5b/5x5
I0704 17:50:40.676695 25497 net.cpp:357] inception_5b/relu_5x5 -> inception_5b/5x5 (in-place)
I0704 17:50:40.676702 25497 net.cpp:120] Setting up inception_5b/relu_5x5
I0704 17:50:40.676743 25497 net.cpp:127] Top shape: 30 128 7 7 (188160)
I0704 17:50:40.676749 25497 layer_factory.hpp:74] Creating layer inception_5b/pool
I0704 17:50:40.676755 25497 layer_factory.cpp:55] CUDNN does not support padding or multiple tops. Using Caffe's own pooling layer.
I0704 17:50:40.676761 25497 net.cpp:90] Creating Layer inception_5b/pool
I0704 17:50:40.676766 25497 net.cpp:410] inception_5b/pool <- inception_5a/output_inception_5a/output_0_split_3
I0704 17:50:40.676774 25497 net.cpp:368] inception_5b/pool -> inception_5b/pool
I0704 17:50:40.676780 25497 net.cpp:120] Setting up inception_5b/pool
I0704 17:50:40.676787 25497 net.cpp:127] Top shape: 30 832 7 7 (1223040)
I0704 17:50:40.676792 25497 layer_factory.hpp:74] Creating layer inception_5b/pool_proj
I0704 17:50:40.676800 25497 net.cpp:90] Creating Layer inception_5b/pool_proj
I0704 17:50:40.676805 25497 net.cpp:410] inception_5b/pool_proj <- inception_5b/pool
I0704 17:50:40.676811 25497 net.cpp:368] inception_5b/pool_proj -> inception_5b/pool_proj
I0704 17:50:40.676817 25497 net.cpp:120] Setting up inception_5b/pool_proj
I0704 17:50:40.677541 25497 net.cpp:127] Top shape: 30 128 7 7 (188160)
I0704 17:50:40.677552 25497 layer_factory.hpp:74] Creating layer inception_5b/relu_pool_proj
I0704 17:50:40.677559 25497 net.cpp:90] Creating Layer inception_5b/relu_pool_proj
I0704 17:50:40.677566 25497 net.cpp:410] inception_5b/relu_pool_proj <- inception_5b/pool_proj
I0704 17:50:40.677572 25497 net.cpp:357] inception_5b/relu_pool_proj -> inception_5b/pool_proj (in-place)
I0704 17:50:40.677577 25497 net.cpp:120] Setting up inception_5b/relu_pool_proj
I0704 17:50:40.677687 25497 net.cpp:127] Top shape: 30 128 7 7 (188160)
I0704 17:50:40.677696 25497 layer_factory.hpp:74] Creating layer inception_5b/output
I0704 17:50:40.677703 25497 net.cpp:90] Creating Layer inception_5b/output
I0704 17:50:40.677708 25497 net.cpp:410] inception_5b/output <- inception_5b/1x1
I0704 17:50:40.677714 25497 net.cpp:410] inception_5b/output <- inception_5b/3x3
I0704 17:50:40.677726 25497 net.cpp:410] inception_5b/output <- inception_5b/5x5
I0704 17:50:40.677732 25497 net.cpp:410] inception_5b/output <- inception_5b/pool_proj
I0704 17:50:40.677738 25497 net.cpp:368] inception_5b/output -> inception_5b/output
I0704 17:50:40.677745 25497 net.cpp:120] Setting up inception_5b/output
I0704 17:50:40.677753 25497 net.cpp:127] Top shape: 30 1024 7 7 (1505280)
I0704 17:50:40.677757 25497 layer_factory.hpp:74] Creating layer pool5/7x7_s1
I0704 17:50:40.677764 25497 net.cpp:90] Creating Layer pool5/7x7_s1
I0704 17:50:40.677769 25497 net.cpp:410] pool5/7x7_s1 <- inception_5b/output
I0704 17:50:40.677775 25497 net.cpp:368] pool5/7x7_s1 -> pool5/7x7_s1
I0704 17:50:40.677783 25497 net.cpp:120] Setting up pool5/7x7_s1
I0704 17:50:40.677826 25497 net.cpp:127] Top shape: 30 1024 1 1 (30720)
I0704 17:50:40.677832 25497 layer_factory.hpp:74] Creating layer pool5/drop_7x7_s1
I0704 17:50:40.677839 25497 net.cpp:90] Creating Layer pool5/drop_7x7_s1
I0704 17:50:40.677845 25497 net.cpp:410] pool5/drop_7x7_s1 <- pool5/7x7_s1
I0704 17:50:40.677850 25497 net.cpp:357] pool5/drop_7x7_s1 -> pool5/7x7_s1 (in-place)
I0704 17:50:40.677856 25497 net.cpp:120] Setting up pool5/drop_7x7_s1
I0704 17:50:40.677862 25497 net.cpp:127] Top shape: 30 1024 1 1 (30720)
I0704 17:50:40.677867 25497 layer_factory.hpp:74] Creating layer stanford_cars_loss3/classifier
I0704 17:50:40.677876 25497 net.cpp:90] Creating Layer stanford_cars_loss3/classifier
I0704 17:50:40.677881 25497 net.cpp:410] stanford_cars_loss3/classifier <- pool5/7x7_s1
I0704 17:50:40.677887 25497 net.cpp:368] stanford_cars_loss3/classifier -> stanford_cars_loss3/classifier
I0704 17:50:40.677893 25497 net.cpp:120] Setting up stanford_cars_loss3/classifier
I0704 17:50:40.678874 25497 net.cpp:127] Top shape: 30 196 (5880)
I0704 17:50:40.678884 25497 layer_factory.hpp:74] Creating layer loss3/loss3
I0704 17:50:40.678890 25497 net.cpp:90] Creating Layer loss3/loss3
I0704 17:50:40.678896 25497 net.cpp:410] loss3/loss3 <- stanford_cars_loss3/classifier
I0704 17:50:40.678901 25497 net.cpp:410] loss3/loss3 <- label_data_1_split_2
I0704 17:50:40.678907 25497 net.cpp:368] loss3/loss3 -> loss3/loss3
I0704 17:50:40.678915 25497 net.cpp:120] Setting up loss3/loss3
…
I0704 17:50:40.682888 25497 net.cpp:287] The NetState phase (1) differed from the phase (0) specified by a rule in layer data
I0704 17:50:40.683753 25497 net.cpp:42] Initializing net from parameters: 
name: "GoogleNet"
state {
  phase: TEST
}
layer {
  name: "data"
  type: "Data"
  top: "data"
  top: "label"
  include {
    phase: TEST
  }
  transform_param {
    mirror: false
    crop_size: 224
    mean_value: 104
    mean_value: 117
    mean_value: 123
  }
  data_param {
    source: "examples/stanford_cars/stanford_cars_val_lmdb"
    batch_size: 10
    backend: LMDB
  }
}
layer {
  name: "conv1/7x7_s2"
  type: "Convolution"
  bottom: "data"
  top: "conv1/7x7_s2"
  param {
    lr_mult: 1
    decay_mult: 1
  }
  param {
    lr_mult: 2
    decay_mult: 0
  }
  convolution_param {
    num_output: 64
    pad: 3
    kernel_size: 7
    stride: 2
    weight_filler {
      type: "xavier"
      std: 0.1
    }
    bias_filler {
      type: "constant"
      value: 0.2
    }
  }
}
layer {
  name: "conv1/relu_7x7"
  type: "ReLU"
  bottom: "conv1/7x7_s2"
  top: "conv1/7x7_s2"
}
layer {
  name: "pool1/3x3_s2"
  type: "Pooling"
  bottom: "conv1/7x7_s2"
  top: "pool1/3x3_s2"
  pooling_param {
    pool: MAX
    kernel_size: 3
    stride: 2
  }
}
layer {
  name: "pool1/norm1"
  type: "LRN"
  bottom: "pool1/3x3_s2"
  top: "pool1/norm1"
  lrn_param {
    local_size: 5
    alpha: 0.0001
    beta: 0.75
  }
}
layer {
  name: "conv2/3x3_reduce"
  type: "Convolution"
  bottom: "pool1/norm1"
  top: "conv2/3x3_reduce"
  param {
    lr_mult: 1
    decay_mult: 1
  }
  param {
    lr_mult: 2
    decay_mult: 0
  }
  convolution_param {
    num_output: 64
    kernel_size: 1
    weight_filler {
      type: "xavier"
      std: 0.1
    }
    bias_filler {
      type: "constant"
      value: 0.2
    }
  }
}
layer {
  name: "conv2/relu_3x3_reduce"
  type: "ReLU"
  bottom: "conv2/3x3_reduce"
  top: "conv2/3x3_reduce"
}
layer {
  name: "conv2/3x3"
  type: "Convolution"
  bottom: "conv2/3x3_reduce"
  top: "conv2/3x3"
  param {
    lr_mult: 1
    decay_mult: 1
  }
  param {
    lr_mult: 2
    decay_mult: 0
  }
  convolution_param {
    num_output: 192
    pad: 1
    kernel_size: 3
    weight_filler {
      type: "xavier"
      std: 0.03
    }
    bias_filler {
      type: "constant"
      value: 0.2
    }
  }
}
layer {
  name: "conv2/relu_3x3"
  type: "ReLU"
  bottom: "conv2/3x3"
  top: "conv2/3x3"
}
layer {
  name: "conv2/norm2"
  type: "LRN"
  bottom: "conv2/3x3"
  top: "conv2/norm2"
  lrn_param {
    local_size: 5
    alpha: 0.0001
    beta: 0.75
  }
}
layer {
  name: "pool2/3x3_s2"
  type: "Pooling"
  bottom: "conv2/norm2"
  top: "pool2/3x3_s2"
  pooling_param {
    pool: MAX
    kernel_size: 3
    stride: 2
  }
}
layer {
  name: "inception_3a/1x1"
  type: "Convolution"
  bottom: "pool2/3x3_s2"
  top: "inception_3a/1x1"
  param {
    lr_mult: 1
    decay_mult: 1
  }
  param {
    lr_mult: 2
    decay_mult: 0
  }
  convolution_param {
    num_output: 64
    kernel_size: 1
    weight_filler {
      type: "xavier"
      std: 0.03
    }
    bias_filler {
      type: "constant"
      value: 0.2
    }
  }
}
layer {
  name: "inception_3a/relu_1x1"
  type: "ReLU"
  bottom: "inception_3a/1x1"
  top: "inception_3a/1x1"
}
layer {
  name: "inception_3a/3x3_reduce"
  type: "Convolution"
  bottom: "pool2/3x3_s2"
  top: "inception_3a/3x3_reduce"
  param {
    lr_mult: 1
    decay_mult: 1
  }
  param {
    lr_mult: 2
    decay_mult: 0
  }
  convolution_param {
    num_output: 96
    kernel_size: 1
    weight_filler {
      type: "xavier"
      std: 0.09
    }
    bias_filler {
      type: "constant"
      value: 0.2
    }
  }
}
layer {
  name: "inception_3a/relu_3x3_reduce"
  type: "ReLU"
  bottom: "inception_3a/3x3_reduce"
  top: "inception_3a/3x3_reduce"
}
layer {
  name: "inception_3a/3x3"
  type: "Convolution"
  bottom: "inception_3a/3x3_reduce"
  top: "inception_3a/3x3"
  param {
    lr_mult: 1
    decay_mult: 1
  }
  param {
    lr_mult: 2
    decay_mult: 0
  }
  convolution_param {
    num_output: 128
    pad: 1
    kernel_size: 3
    weight_filler {
      type: "xavier"
      std: 0.03
    }
    bias_filler {
      type: "constant"
      value: 0.2
    }
  }
}
layer {
  name: "inception_3a/relu_3x3"
  type: "ReLU"
  bottom: "inception_3a/3x3"
  top: "inception_3a/3x3"
}
layer {
  name: "inception_3a/5x5_reduce"
  type: "Convolution"
  bottom: "pool2/3x3_s2"
  top: "inception_3a/5x5_reduce"
  param {
    lr_mult: 1
    decay_mult: 1
  }
  param {
    lr_mult: 2
    decay_mult: 0
  }
  convolution_param {
    num_output: 16
    kernel_size: 1
    weight_filler {
      type: "xavier"
      std: 0.2
    }
    bias_filler {
      type: "constant"
      value: 0.2
    }
  }
}
layer {
  name: "inception_3a/relu_5x5_reduce"
  type: "ReLU"
  bottom: "inception_3a/5x5_reduce"
  top: "inception_3a/5x5_reduce"
}
layer {
  name: "inception_3a/5x5"
  type: "Convolution"
  bottom: "inception_3a/5x5_reduce"
  top: "inception_3a/5x5"
  param {
    lr_mult: 1
    decay_mult: 1
  }
  param {
    lr_mult: 2
    decay_mult: 0
  }
  convolution_param {
    num_output: 32
    pad: 2
    kernel_size: 5
    weight_filler {
      type: "xavier"
      std: 0.03
    }
    bias_filler {
      type: "constant"
      value: 0.2
    }
  }
}
layer {
  name: "inception_3a/relu_5x5"
  type: "ReLU"
  bottom: "inception_3a/5x5"
  top: "inception_3a/5x5"
}
layer {
  name: "inception_3a/pool"
  type: "Pooling"
  bottom: "pool2/3x3_s2"
  top: "inception_3a/pool"
  pooling_param {
    pool: MAX
    kernel_size: 3
    stride: 1
    pad: 1
  }
}
layer {
  name: "inception_3a/pool_proj"
  type: "Convolution"
  bottom: "inception_3a/pool"
  top: "inception_3a/pool_proj"
  param {
    lr_mult: 1
    decay_mult: 1
  }
  param {
    lr_mult: 2
    decay_mult: 0
  }
  convolution_param {
    num_output: 32
    kernel_size: 1
    weight_filler {
      type: "xavier"
      std: 0.1
    }
    bias_filler {
      type: "constant"
      value: 0.2
    }
  }
}
layer {
  name: "inception_3a/relu_pool_proj"
  type: "ReLU"
  bottom: "inception_3a/pool_proj"
  top: "inception_3a/pool_proj"
}
layer {
  name: "inception_3a/output"
  type: "Concat"
  bottom: "inception_3a/1x1"
  bottom: "inception_3a/3x3"
  bottom: "inception_3a/5x5"
  bottom: "inception_3a/pool_proj"
  top: "inception_3a/output"
}
layer {
  name: "inception_3b/1x1"
  type: "Convolution"
  bottom: "inception_3a/output"
  top: "inception_3b/1x1"
  param {
    lr_mult: 1
    decay_mult: 1
  }
  param {
    lr_mult: 2
    decay_mult: 0
  }
  convolution_param {
    num_output: 128
    kernel_size: 1
    weight_filler {
      type: "xavier"
      std: 0.03
    }
    bias_filler {
      type: "constant"
      value: 0.2
    }
  }
}
layer {
  name: "inception_3b/relu_1x1"
  type: "ReLU"
  bottom: "inception_3b/1x1"
  top: "inception_3b/1x1"
}
layer {
  name: "inception_3b/3x3_reduce"
  type: "Convolution"
  bottom: "inception_3a/output"
  top: "inception_3b/3x3_reduce"
  param {
    lr_mult: 1
    decay_mult: 1
  }
  param {
    lr_mult: 2
    decay_mult: 0
  }
  convolution_param {
    num_output: 128
    kernel_size: 1
    weight_filler {
      type: "xavier"
      std: 0.09
    }
    bias_filler {
      type: "constant"
      value: 0.2
    }
  }
}
layer {
  name: "inception_3b/relu_3x3_reduce"
  type: "ReLU"
  bottom: "inception_3b/3x3_reduce"
  top: "inception_3b/3x3_reduce"
}
layer {
  name: "inception_3b/3x3"
  type: "Convolution"
  bottom: "inception_3b/3x3_reduce"
  top: "inception_3b/3x3"
  param {
    lr_mult: 1
    decay_mult: 1
  }
  param {
    lr_mult: 2
    decay_mult: 0
  }
  convolution_param {
    num_output: 192
    pad: 1
    kernel_size: 3
    weight_filler {
      type: "xavier"
      std: 0.03
    }
    bias_filler {
      type: "constant"
      value: 0.2
    }
  }
}
layer {
  name: "inception_3b/relu_3x3"
  type: "ReLU"
  bottom: "inception_3b/3x3"
  top: "inception_3b/3x3"
}
layer {
  name: "inception_3b/5x5_reduce"
  type: "Convolution"
  bottom: "inception_3a/output"
  top: "inception_3b/5x5_reduce"
  param {
    lr_mult: 1
    decay_mult: 1
  }
  param {
    lr_mult: 2
    decay_mult: 0
  }
  convolution_param {
    num_output: 32
    kernel_size: 1
    weight_filler {
      type: "xavier"
      std: 0.2
    }
    bias_filler {
      type: "constant"
      value: 0.2
    }
  }
}
layer {
  name: "inception_3b/relu_5x5_reduce"
  type: "ReLU"
  bottom: "inception_3b/5x5_reduce"
  top: "inception_3b/5x5_reduce"
}
layer {
  name: "inception_3b/5x5"
  type: "Convolution"
  bottom: "inception_3b/5x5_reduce"
  top: "inception_3b/5x5"
  param {
    lr_mult: 1
    decay_mult: 1
  }
  param {
    lr_mult: 2
    decay_mult: 0
  }
  convolution_param {
    num_output: 96
    pad: 2
    kernel_size: 5
    weight_filler {
      type: "xavier"
      std: 0.03
    }
    bias_filler {
      type: "constant"
      value: 0.2
    }
  }
}
layer {
  name: "inception_3b/relu_5x5"
  type: "ReLU"
  bottom: "inception_3b/5x5"
  top: "inception_3b/5x5"
}
layer {
  name: "inception_3b/pool"
  type: "Pooling"
  bottom: "inception_3a/output"
  top: "inception_3b/pool"
  pooling_param {
    pool: MAX
    kernel_size: 3
    stride: 1
    pad: 1
  }
}
layer {
  name: "inception_3b/pool_proj"
  type: "Convolution"
  bottom: "inception_3b/pool"
  top: "inception_3b/pool_proj"
  param {
    lr_mult: 1
    decay_mult: 1
  }
  param {
    lr_mult: 2
    decay_mult: 0
  }
  convolution_param {
    num_output: 64
    kernel_size: 1
    weight_filler {
      type: "xavier"
      std: 0.1
    }
    bias_filler {
      type: "constant"
      value: 0.2
    }
  }
}
layer {
  name: "inception_3b/relu_pool_proj"
  type: "ReLU"
  bottom: "inception_3b/pool_proj"
  top: "inception_3b/pool_proj"
}
layer {
  name: "inception_3b/output"
  type: "Concat"
  bottom: "inception_3b/1x1"
  bottom: "inception_3b/3x3"
  bottom: "inception_3b/5x5"
  bottom: "inception_3b/pool_proj"
  top: "inception_3b/output"
}
layer {
  name: "pool3/3x3_s2"
  type: "Pooling"
  bottom: "inception_3b/output"
  top: "pool3/3x3_s2"
  pooling_param {
    pool: MAX
    kernel_size: 3
    stride: 2
  }
}
layer {
  name: "inception_4a/1x1"
  type: "Convolution"
  bottom: "pool3/3x3_s2"
  top: "inception_4a/1x1"
  param {
    lr_mult: 1
    decay_mult: 1
  }
  param {
    lr_mult: 2
    decay_mult: 0
  }
  convolution_param {
    num_output: 192
    kernel_size: 1
    weight_filler {
      type: "xavier"
      std: 0.03
    }
    bias_filler {
      type: "constant"
      value: 0.2
    }
  }
}
layer {
  name: "inception_4a/relu_1x1"
  type: "ReLU"
  bottom: "inception_4a/1x1"
  top: "inception_4a/1x1"
}
layer {
  name: "inception_4a/3x3_reduce"
  type: "Convolution"
  bottom: "pool3/3x3_s2"
  top: "inception_4a/3x3_reduce"
  param {
    lr_mult: 1
    decay_mult: 1
  }
  param {
    lr_mult: 2
    decay_mult: 0
  }
  convolution_param {
    num_output: 96
    kernel_size: 1
    weight_filler {
      type: "xavier"
      std: 0.09
    }
    bias_filler {
      type: "constant"
      value: 0.2
    }
  }
}
layer {
  name: "inception_4a/relu_3x3_reduce"
  type: "ReLU"
  bottom: "inception_4a/3x3_reduce"
  top: "inception_4a/3x3_reduce"
}
layer {
  name: "inception_4a/3x3"
  type: "Convolution"
  bottom: "inception_4a/3x3_reduce"
  top: "inception_4a/3x3"
  param {
    lr_mult: 1
    decay_mult: 1
  }
  param {
    lr_mult: 2
    decay_mult: 0
  }
  convolution_param {
    num_output: 208
    pad: 1
    kernel_size: 3
    weight_filler {
      type: "xavier"
      std: 0.03
    }
    bias_filler {
      type: "constant"
      value: 0.2
    }
  }
}
layer {
  name: "inception_4a/relu_3x3"
  type: "ReLU"
  bottom: "inception_4a/3x3"
  top: "inception_4a/3x3"
}
layer {
  name: "inception_4a/5x5_reduce"
  type: "Convolution"
  bottom: "pool3/3x3_s2"
  top: "inception_4a/5x5_reduce"
  param {
    lr_mult: 1
    decay_mult: 1
  }
  param {
    lr_mult: 2
    decay_mult: 0
  }
  convolution_param {
    num_output: 16
    kernel_size: 1
    weight_filler {
      type: "xavier"
      std: 0.2
    }
    bias_filler {
      type: "constant"
      value: 0.2
    }
  }
}
layer {
  name: "inception_4a/relu_5x5_reduce"
  type: "ReLU"
  bottom: "inception_4a/5x5_reduce"
  top: "inception_4a/5x5_reduce"
}
layer {
  name: "inception_4a/5x5"
  type: "Convolution"
  bottom: "inception_4a/5x5_reduce"
  top: "inception_4a/5x5"
  param {
    lr_mult: 1
    decay_mult: 1
  }
  param {
    lr_mult: 2
    decay_mult: 0
  }
  convolution_param {
    num_output: 48
    pad: 2
    kernel_size: 5
    weight_filler {
      type: "xavier"
      std: 0.03
    }
    bias_filler {
      type: "constant"
      value: 0.2
    }
  }
}
layer {
  name: "inception_4a/relu_5x5"
  type: "ReLU"
  bottom: "inception_4a/5x5"
  top: "inception_4a/5x5"
}
layer {
  name: "inception_4a/pool"
  type: "Pooling"
  bottom: "pool3/3x3_s2"
  top: "inception_4a/pool"
  pooling_param {
    pool: MAX
    kernel_size: 3
    stride: 1
    pad: 1
  }
}
layer {
  name: "inception_4a/pool_proj"
  type: "Convolution"
  bottom: "inception_4a/pool"
  top: "inception_4a/pool_proj"
  param {
    lr_mult: 1
    decay_mult: 1
  }
  param {
    lr_mult: 2
    decay_mult: 0
  }
  convolution_param {
    num_output: 64
    kernel_size: 1
    weight_filler {
      type: "xavier"
      std: 0.1
    }
    bias_filler {
      type: "constant"
      value: 0.2
    }
  }
}
layer {
  name: "inception_4a/relu_pool_proj"
  type: "ReLU"
  bottom: "inception_4a/pool_proj"
  top: "inception_4a/pool_proj"
}
layer {
  name: "inception_4a/output"
  type: "Concat"
  bottom: "inception_4a/1x1"
  bottom: "inception_4a/3x3"
  bottom: "inception_4a/5x5"
  bottom: "inception_4a/pool_proj"
  top: "inception_4a/output"
}
layer {
  name: "loss1/ave_pool"
  type: "Pooling"
  bottom: "inception_4a/output"
  top: "loss1/ave_pool"
  pooling_param {
    pool: AVE
    kernel_size: 5
    stride: 3
  }
}
layer {
  name: "loss1/conv"
  type: "Convolution"
  bottom: "loss1/ave_pool"
  top: "loss1/conv"
  param {
    lr_mult: 1
    decay_mult: 1
  }
  param {
    lr_mult: 2
    decay_mult: 0
  }
  convolution_param {
    num_output: 128
    kernel_size: 1
    weight_filler {
      type: "xavier"
      std: 0.08
    }
    bias_filler {
      type: "constant"
      value: 0.2
    }
  }
}
layer {
  name: "loss1/relu_conv"
  type: "ReLU"
  bottom: "loss1/conv"
  top: "loss1/conv"
}
layer {
  name: "loss1/fc"
  type: "InnerProduct"
  bottom: "loss1/conv"
  top: "loss1/fc"
  param {
    lr_mult: 1
    decay_mult: 1
  }
  param {
    lr_mult: 2
    decay_mult: 0
  }
  inner_product_param {
    num_output: 1024
    weight_filler {
      type: "xavier"
      std: 0.02
    }
    bias_filler {
      type: "constant"
      value: 0.2
    }
  }
}
layer {
  name: "loss1/relu_fc"
  type: "ReLU"
  bottom: "loss1/fc"
  top: "loss1/fc"
}
layer {
  name: "loss1/drop_fc"
  type: "Dropout"
  bottom: "loss1/fc"
  top: "loss1/fc"
  dropout_param {
    dropout_ratio: 0.2
  }
}
layer {
  name: "stanford_cars_loss1/classifier"
  type: "InnerProduct"
  bottom: "loss1/fc"
  top: "stanford_cars_loss1/classifier"
  param {
    lr_mult: 1
    decay_mult: 1
  }
  param {
    lr_mult: 2
    decay_mult: 0
  }
  inner_product_param {
    num_output: 196
    weight_filler {
      type: "xavier"
      std: 0.0009765625
    }
    bias_filler {
      type: "constant"
      value: 0
    }
  }
}
layer {
  name: "loss1/loss"
  type: "SoftmaxWithLoss"
  bottom: "stanford_cars_loss1/classifier"
  bottom: "label"
  top: "loss1/loss1"
  loss_weight: 0.3
}
layer {
  name: "loss1/top-1"
  type: "Accuracy"
  bottom: "stanford_cars_loss1/classifier"
  bottom: "label"
  top: "loss1/top-1"
  include {
    phase: TEST
  }
}
layer {
  name: "loss1/top-5"
  type: "Accuracy"
  bottom: "stanford_cars_loss1/classifier"
  bottom: "label"
  top: "loss1/top-5"
  include {
    phase: TEST
  }
  accuracy_param {
    top_k: 5
  }
}
layer {
  name: "inception_4b/1x1"
  type: "Convolution"
  bottom: "inception_4a/output"
  top: "inception_4b/1x1"
  param {
    lr_mult: 1
    decay_mult: 1
  }
  param {
    lr_mult: 2
    decay_mult: 0
  }
  convolution_param {
    num_output: 160
    kernel_size: 1
    weight_filler {
      type: "xavier"
      std: 0.03
    }
    bias_filler {
      type: "constant"
      value: 0.2
    }
  }
}
layer {
  name: "inception_4b/relu_1x1"
  type: "ReLU"
  bottom: "inception_4b/1x1"
  top: "inception_4b/1x1"
}
layer {
  name: "inception_4b/3x3_reduce"
  type: "Convolution"
  bottom: "inception_4a/output"
  top: "inception_4b/3x3_reduce"
  param {
    lr_mult: 1
    decay_mult: 1
  }
  param {
    lr_mult: 2
    decay_mult: 0
  }
  convolution_param {
    num_output: 112
    kernel_size: 1
    weight_filler {
      type: "xavier"
      std: 0.09
    }
    bias_filler {
      type: "constant"
      value: 0.2
    }
  }
}
layer {
  name: "inception_4b/relu_3x3_reduce"
  type: "ReLU"
  bottom: "inception_4b/3x3_reduce"
  top: "inception_4b/3x3_reduce"
}
layer {
  name: "inception_4b/3x3"
  type: "Convolution"
  bottom: "inception_4b/3x3_reduce"
  top: "inception_4b/3x3"
  param {
    lr_mult: 1
    decay_mult: 1
  }
  param {
    lr_mult: 2
    decay_mult: 0
  }
  convolution_param {
    num_output: 224
    pad: 1
    kernel_size: 3
    weight_filler {
      type: "xavier"
      std: 0.03
    }
    bias_filler {
      type: "constant"
      value: 0.2
    }
  }
}
layer {
  name: "inception_4b/relu_3x3"
  type: "ReLU"
  bottom: "inception_4b/3x3"
  top: "inception_4b/3x3"
}
layer {
  name: "inception_4b/5x5_reduce"
  type: "Convolution"
  bottom: "inception_4a/output"
  top: "inception_4b/5x5_reduce"
  param {
    lr_mult: 1
    decay_mult: 1
  }
  param {
    lr_mult: 2
    decay_mult: 0
  }
  convolution_param {
    num_output: 24
    kernel_size: 1
    weight_filler {
      type: "xavier"
      std: 0.2
    }
    bias_filler {
      type: "constant"
      value: 0.2
    }
  }
}
layer {
  name: "inception_4b/relu_5x5_reduce"
  type: "ReLU"
  bottom: "inception_4b/5x5_reduce"
  top: "inception_4b/5x5_reduce"
}
layer {
  name: "inception_4b/5x5"
  type: "Convolution"
  bottom: "inception_4b/5x5_reduce"
  top: "inception_4b/5x5"
  param {
    lr_mult: 1
    decay_mult: 1
  }
  param {
    lr_mult: 2
    decay_mult: 0
  }
  convolution_param {
    num_output: 64
    pad: 2
    kernel_size: 5
    weight_filler {
      type: "xavier"
      std: 0.03
    }
    bias_filler {
      type: "constant"
      value: 0.2
    }
  }
}
layer {
  name: "inception_4b/relu_5x5"
  type: "ReLU"
  bottom: "inception_4b/5x5"
  top: "inception_4b/5x5"
}
layer {
  name: "inception_4b/pool"
  type: "Pooling"
  bottom: "inception_4a/output"
  top: "inception_4b/pool"
  pooling_param {
    pool: MAX
    kernel_size: 3
    stride: 1
    pad: 1
  }
}
layer {
  name: "inception_4b/pool_proj"
  type: "Convolution"
  bottom: "inception_4b/pool"
  top: "inception_4b/pool_proj"
  param {
    lr_mult: 1
    decay_mult: 1
  }
  param {
    lr_mult: 2
    decay_mult: 0
  }
  convolution_param {
    num_output: 64
    kernel_size: 1
    weight_filler {
      type: "xavier"
      std: 0.1
    }
    bias_filler {
      type: "constant"
      value: 0.2
    }
  }
}
layer {
  name: "inception_4b/relu_pool_proj"
  type: "ReLU"
  bottom: "inception_4b/pool_proj"
  top: "inception_4b/pool_proj"
}
layer {
  name: "inception_4b/output"
  type: "Concat"
  bottom: "inception_4b/1x1"
  bottom: "inception_4b/3x3"
  bottom: "inception_4b/5x5"
  bottom: "inception_4b/pool_proj"
  top: "inception_4b/output"
}
layer {
  name: "inception_4c/1x1"
  type: "Convolution"
  bottom: "inception_4b/output"
  top: "inception_4c/1x1"
  param {
    lr_mult: 1
    decay_mult: 1
  }
  param {
    lr_mult: 2
    decay_mult: 0
  }
  convolution_param {
    num_output: 128
    kernel_size: 1
    weight_filler {
      type: "xavier"
      std: 0.03
    }
    bias_filler {
      type: "constant"
      value: 0.2
    }
  }
}
layer {
  name: "inception_4c/relu_1x1"
  type: "ReLU"
  bottom: "inception_4c/1x1"
  top: "inception_4c/1x1"
}
layer {
  name: "inception_4c/3x3_reduce"
  type: "Convolution"
  bottom: "inception_4b/output"
  top: "inception_4c/3x3_reduce"
  param {
    lr_mult: 1
    decay_mult: 1
  }
  param {
    lr_mult: 2
    decay_mult: 0
  }
  convolution_param {
    num_output: 128
    kernel_size: 1
    weight_filler {
      type: "xavier"
      std: 0.09
    }
    bias_filler {
      type: "constant"
      value: 0.2
    }
  }
}
layer {
  name: "inception_4c/relu_3x3_reduce"
  type: "ReLU"
  bottom: "inception_4c/3x3_reduce"
  top: "inception_4c/3x3_reduce"
}
layer {
  name: "inception_4c/3x3"
  type: "Convolution"
  bottom: "inception_4c/3x3_reduce"
  top: "inception_4c/3x3"
  param {
    lr_mult: 1
    decay_mult: 1
  }
  param {
    lr_mult: 2
    decay_mult: 0
  }
  convolution_param {
    num_output: 256
    pad: 1
    kernel_size: 3
    weight_filler {
      type: "xavier"
      std: 0.03
    }
    bias_filler {
      type: "constant"
      value: 0.2
    }
  }
}
layer {
  name: "inception_4c/relu_3x3"
  type: "ReLU"
  bottom: "inception_4c/3x3"
  top: "inception_4c/3x3"
}
layer {
  name: "inception_4c/5x5_reduce"
  type: "Convolution"
  bottom: "inception_4b/output"
  top: "inception_4c/5x5_reduce"
  param {
    lr_mult: 1
    decay_mult: 1
  }
  param {
    lr_mult: 2
    decay_mult: 0
  }
  convolution_param {
    num_output: 24
    kernel_size: 1
    weight_filler {
      type: "xavier"
      std: 0.2
    }
    bias_filler {
      type: "constant"
      value: 0.2
    }
  }
}
layer {
  name: "inception_4c/relu_5x5_reduce"
  type: "ReLU"
  bottom: "inception_4c/5x5_reduce"
  top: "inception_4c/5x5_reduce"
}
layer {
  name: "inception_4c/5x5"
  type: "Convolution"
  bottom: "inception_4c/5x5_reduce"
  top: "inception_4c/5x5"
  param {
    lr_mult: 1
    decay_mult: 1
  }
  param {
    lr_mult: 2
    decay_mult: 0
  }
  convolution_param {
    num_output: 64
    pad: 2
    kernel_size: 5
    weight_filler {
      type: "xavier"
      std: 0.03
    }
    bias_filler {
      type: "constant"
      value: 0.2
    }
  }
}
layer {
  name: "inception_4c/relu_5x5"
  type: "ReLU"
  bottom: "inception_4c/5x5"
  top: "inception_4c/5x5"
}
layer {
  name: "inception_4c/pool"
  type: "Pooling"
  bottom: "inception_4b/output"
  top: "inception_4c/pool"
  pooling_param {
    pool: MAX
    kernel_size: 3
    stride: 1
    pad: 1
  }
}
layer {
  name: "inception_4c/pool_proj"
  type: "Convolution"
  bottom: "inception_4c/pool"
  top: "inception_4c/pool_proj"
  param {
    lr_mult: 1
    decay_mult: 1
  }
  param {
    lr_mult: 2
    decay_mult: 0
  }
  convolution_param {
    num_output: 64
    kernel_size: 1
    weight_filler {
      type: "xavier"
      std: 0.1
    }
    bias_filler {
      type: "constant"
      value: 0.2
    }
  }
}
layer {
  name: "inception_4c/relu_pool_proj"
  type: "ReLU"
  bottom: "inception_4c/pool_proj"
  top: "inception_4c/pool_proj"
}
layer {
  name: "inception_4c/output"
  type: "Concat"
  bottom: "inception_4c/1x1"
  bottom: "inception_4c/3x3"
  bottom: "inception_4c/5x5"
  bottom: "inception_4c/pool_proj"
  top: "inception_4c/output"
}
layer {
  name: "inception_4d/1x1"
  type: "Convolution"
  bottom: "inception_4c/output"
  top: "inception_4d/1x1"
  param {
    lr_mult: 1
    decay_mult: 1
  }
  param {
    lr_mult: 2
    decay_mult: 0
  }
  convolution_param {
    num_output: 112
    kernel_size: 1
    weight_filler {
      type: "xavier"
      std: 0.03
    }
    bias_filler {
      type: "constant"
      value: 0.2
    }
  }
}
layer {
  name: "inception_4d/relu_1x1"
  type: "ReLU"
  bottom: "inception_4d/1x1"
  top: "inception_4d/1x1"
}
layer {
  name: "inception_4d/3x3_reduce"
  type: "Convolution"
  bottom: "inception_4c/output"
  top: "inception_4d/3x3_reduce"
  param {
    lr_mult: 1
    decay_mult: 1
  }
  param {
    lr_mult: 2
    decay_mult: 0
  }
  convolution_param {
    num_output: 144
    kernel_size: 1
    weight_filler {
      type: "xavier"
      std: 0.09
    }
    bias_filler {
      type: "constant"
      value: 0.2
    }
  }
}
layer {
  name: "inception_4d/relu_3x3_reduce"
  type: "ReLU"
  bottom: "inception_4d/3x3_reduce"
  top: "inception_4d/3x3_reduce"
}
layer {
  name: "inception_4d/3x3"
  type: "Convolution"
  bottom: "inception_4d/3x3_reduce"
  top: "inception_4d/3x3"
  param {
    lr_mult: 1
    decay_mult: 1
  }
  param {
    lr_mult: 2
    decay_mult: 0
  }
  convolution_param {
    num_output: 288
    pad: 1
    kernel_size: 3
    weight_filler {
      type: "xavier"
      std: 0.03
    }
    bias_filler {
      type: "constant"
      value: 0.2
    }
  }
}
layer {
  name: "inception_4d/relu_3x3"
  type: "ReLU"
  bottom: "inception_4d/3x3"
  top: "inception_4d/3x3"
}
layer {
  name: "inception_4d/5x5_reduce"
  type: "Convolution"
  bottom: "inception_4c/output"
  top: "inception_4d/5x5_reduce"
  param {
    lr_mult: 1
    decay_mult: 1
  }
  param {
    lr_mult: 2
    decay_mult: 0
  }
  convolution_param {
    num_output: 32
    kernel_size: 1
    weight_filler {
      type: "xavier"
      std: 0.2
    }
    bias_filler {
      type: "constant"
      value: 0.2
    }
  }
}
layer {
  name: "inception_4d/relu_5x5_reduce"
  type: "ReLU"
  bottom: "inception_4d/5x5_reduce"
  top: "inception_4d/5x5_reduce"
}
layer {
  name: "inception_4d/5x5"
  type: "Convolution"
  bottom: "inception_4d/5x5_reduce"
  top: "inception_4d/5x5"
  param {
    lr_mult: 1
    decay_mult: 1
  }
  param {
    lr_mult: 2
    decay_mult: 0
  }
  convolution_param {
    num_output: 64
    pad: 2
    kernel_size: 5
    weight_filler {
      type: "xavier"
      std: 0.03
    }
    bias_filler {
      type: "constant"
      value: 0.2
    }
  }
}
layer {
  name: "inception_4d/relu_5x5"
  type: "ReLU"
  bottom: "inception_4d/5x5"
  top: "inception_4d/5x5"
}
layer {
  name: "inception_4d/pool"
  type: "Pooling"
  bottom: "inception_4c/output"
  top: "inception_4d/pool"
  pooling_param {
    pool: MAX
    kernel_size: 3
    stride: 1
    pad: 1
  }
}
layer {
  name: "inception_4d/pool_proj"
  type: "Convolution"
  bottom: "inception_4d/pool"
  top: "inception_4d/pool_proj"
  param {
    lr_mult: 1
    decay_mult: 1
  }
  param {
    lr_mult: 2
    decay_mult: 0
  }
  convolution_param {
    num_output: 64
    kernel_size: 1
…
I0704 17:50:40.781764 25497 net.cpp:127] Top shape: 10 128 14 14 (250880)
I0704 17:50:40.781790 25497 layer_factory.hpp:74] Creating layer inception_4c/relu_1x1
I0704 17:50:40.781806 25497 net.cpp:90] Creating Layer inception_4c/relu_1x1
I0704 17:50:40.781819 25497 net.cpp:410] inception_4c/relu_1x1 <- inception_4c/1x1
I0704 17:50:40.781832 25497 net.cpp:357] inception_4c/relu_1x1 -> inception_4c/1x1 (in-place)
I0704 17:50:40.781847 25497 net.cpp:120] Setting up inception_4c/relu_1x1
I0704 17:50:40.781958 25497 net.cpp:127] Top shape: 10 128 14 14 (250880)
I0704 17:50:40.781973 25497 layer_factory.hpp:74] Creating layer inception_4c/3x3_reduce
I0704 17:50:40.781991 25497 net.cpp:90] Creating Layer inception_4c/3x3_reduce
I0704 17:50:40.782003 25497 net.cpp:410] inception_4c/3x3_reduce <- inception_4b/output_inception_4b/output_0_split_1
I0704 17:50:40.782021 25497 net.cpp:368] inception_4c/3x3_reduce -> inception_4c/3x3_reduce
I0704 17:50:40.782037 25497 net.cpp:120] Setting up inception_4c/3x3_reduce
I0704 17:50:40.783216 25497 net.cpp:127] Top shape: 10 128 14 14 (250880)
I0704 17:50:40.783242 25497 layer_factory.hpp:74] Creating layer inception_4c/relu_3x3_reduce
I0704 17:50:40.783259 25497 net.cpp:90] Creating Layer inception_4c/relu_3x3_reduce
I0704 17:50:40.783272 25497 net.cpp:410] inception_4c/relu_3x3_reduce <- inception_4c/3x3_reduce
I0704 17:50:40.783285 25497 net.cpp:357] inception_4c/relu_3x3_reduce -> inception_4c/3x3_reduce (in-place)
I0704 17:50:40.783299 25497 net.cpp:120] Setting up inception_4c/relu_3x3_reduce
I0704 17:50:40.783448 25497 net.cpp:127] Top shape: 10 128 14 14 (250880)
I0704 17:50:40.783457 25497 layer_factory.hpp:74] Creating layer inception_4c/3x3
I0704 17:50:40.783464 25497 net.cpp:90] Creating Layer inception_4c/3x3
I0704 17:50:40.783470 25497 net.cpp:410] inception_4c/3x3 <- inception_4c/3x3_reduce
I0704 17:50:40.783478 25497 net.cpp:368] inception_4c/3x3 -> inception_4c/3x3
I0704 17:50:40.783484 25497 net.cpp:120] Setting up inception_4c/3x3
I0704 17:50:40.785127 25497 net.cpp:127] Top shape: 10 256 14 14 (501760)
I0704 17:50:40.785146 25497 layer_factory.hpp:74] Creating layer inception_4c/relu_3x3
I0704 17:50:40.785154 25497 net.cpp:90] Creating Layer inception_4c/relu_3x3
I0704 17:50:40.785159 25497 net.cpp:410] inception_4c/relu_3x3 <- inception_4c/3x3
I0704 17:50:40.785166 25497 net.cpp:357] inception_4c/relu_3x3 -> inception_4c/3x3 (in-place)
I0704 17:50:40.785172 25497 net.cpp:120] Setting up inception_4c/relu_3x3
I0704 17:50:40.785215 25497 net.cpp:127] Top shape: 10 256 14 14 (501760)
I0704 17:50:40.785222 25497 layer_factory.hpp:74] Creating layer inception_4c/5x5_reduce
I0704 17:50:40.785229 25497 net.cpp:90] Creating Layer inception_4c/5x5_reduce
I0704 17:50:40.785234 25497 net.cpp:410] inception_4c/5x5_reduce <- inception_4b/output_inception_4b/output_0_split_2
I0704 17:50:40.785241 25497 net.cpp:368] inception_4c/5x5_reduce -> inception_4c/5x5_reduce
I0704 17:50:40.785248 25497 net.cpp:120] Setting up inception_4c/5x5_reduce
I0704 17:50:40.785517 25497 net.cpp:127] Top shape: 10 24 14 14 (47040)
I0704 17:50:40.785528 25497 layer_factory.hpp:74] Creating layer inception_4c/relu_5x5_reduce
I0704 17:50:40.785536 25497 net.cpp:90] Creating Layer inception_4c/relu_5x5_reduce
I0704 17:50:40.785540 25497 net.cpp:410] inception_4c/relu_5x5_reduce <- inception_4c/5x5_reduce
I0704 17:50:40.785547 25497 net.cpp:357] inception_4c/relu_5x5_reduce -> inception_4c/5x5_reduce (in-place)
I0704 17:50:40.785554 25497 net.cpp:120] Setting up inception_4c/relu_5x5_reduce
I0704 17:50:40.785596 25497 net.cpp:127] Top shape: 10 24 14 14 (47040)
I0704 17:50:40.785603 25497 layer_factory.hpp:74] Creating layer inception_4c/5x5
I0704 17:50:40.785610 25497 net.cpp:90] Creating Layer inception_4c/5x5
I0704 17:50:40.785615 25497 net.cpp:410] inception_4c/5x5 <- inception_4c/5x5_reduce
I0704 17:50:40.785621 25497 net.cpp:368] inception_4c/5x5 -> inception_4c/5x5
I0704 17:50:40.785629 25497 net.cpp:120] Setting up inception_4c/5x5
I0704 17:50:40.786026 25497 net.cpp:127] Top shape: 10 64 14 14 (125440)
I0704 17:50:40.786036 25497 layer_factory.hpp:74] Creating layer inception_4c/relu_5x5
I0704 17:50:40.786042 25497 net.cpp:90] Creating Layer inception_4c/relu_5x5
I0704 17:50:40.786047 25497 net.cpp:410] inception_4c/relu_5x5 <- inception_4c/5x5
I0704 17:50:40.786054 25497 net.cpp:357] inception_4c/relu_5x5 -> inception_4c/5x5 (in-place)
I0704 17:50:40.786062 25497 net.cpp:120] Setting up inception_4c/relu_5x5
I0704 17:50:40.786104 25497 net.cpp:127] Top shape: 10 64 14 14 (125440)
I0704 17:50:40.786118 25497 layer_factory.hpp:74] Creating layer inception_4c/pool
I0704 17:50:40.786123 25497 layer_factory.cpp:55] CUDNN does not support padding or multiple tops. Using Caffe's own pooling layer.
I0704 17:50:40.786129 25497 net.cpp:90] Creating Layer inception_4c/pool
I0704 17:50:40.786134 25497 net.cpp:410] inception_4c/pool <- inception_4b/output_inception_4b/output_0_split_3
I0704 17:50:40.786140 25497 net.cpp:368] inception_4c/pool -> inception_4c/pool
I0704 17:50:40.786147 25497 net.cpp:120] Setting up inception_4c/pool
I0704 17:50:40.786154 25497 net.cpp:127] Top shape: 10 512 14 14 (1003520)
I0704 17:50:40.786159 25497 layer_factory.hpp:74] Creating layer inception_4c/pool_proj
I0704 17:50:40.786166 25497 net.cpp:90] Creating Layer inception_4c/pool_proj
I0704 17:50:40.786171 25497 net.cpp:410] inception_4c/pool_proj <- inception_4c/pool
I0704 17:50:40.786178 25497 net.cpp:368] inception_4c/pool_proj -> inception_4c/pool_proj
I0704 17:50:40.786185 25497 net.cpp:120] Setting up inception_4c/pool_proj
I0704 17:50:40.786558 25497 net.cpp:127] Top shape: 10 64 14 14 (125440)
I0704 17:50:40.786569 25497 layer_factory.hpp:74] Creating layer inception_4c/relu_pool_proj
I0704 17:50:40.786577 25497 net.cpp:90] Creating Layer inception_4c/relu_pool_proj
I0704 17:50:40.786582 25497 net.cpp:410] inception_4c/relu_pool_proj <- inception_4c/pool_proj
I0704 17:50:40.786588 25497 net.cpp:357] inception_4c/relu_pool_proj -> inception_4c/pool_proj (in-place)
I0704 17:50:40.786594 25497 net.cpp:120] Setting up inception_4c/relu_pool_proj
I0704 17:50:40.786710 25497 net.cpp:127] Top shape: 10 64 14 14 (125440)
I0704 17:50:40.786717 25497 layer_factory.hpp:74] Creating layer inception_4c/output
I0704 17:50:40.786725 25497 net.cpp:90] Creating Layer inception_4c/output
I0704 17:50:40.786730 25497 net.cpp:410] inception_4c/output <- inception_4c/1x1
I0704 17:50:40.786736 25497 net.cpp:410] inception_4c/output <- inception_4c/3x3
I0704 17:50:40.786741 25497 net.cpp:410] inception_4c/output <- inception_4c/5x5
I0704 17:50:40.786746 25497 net.cpp:410] inception_4c/output <- inception_4c/pool_proj
I0704 17:50:40.786751 25497 net.cpp:368] inception_4c/output -> inception_4c/output
I0704 17:50:40.786758 25497 net.cpp:120] Setting up inception_4c/output
I0704 17:50:40.786766 25497 net.cpp:127] Top shape: 10 512 14 14 (1003520)
I0704 17:50:40.786770 25497 layer_factory.hpp:74] Creating layer inception_4c/output_inception_4c/output_0_split
I0704 17:50:40.786777 25497 net.cpp:90] Creating Layer inception_4c/output_inception_4c/output_0_split
I0704 17:50:40.786782 25497 net.cpp:410] inception_4c/output_inception_4c/output_0_split <- inception_4c/output
I0704 17:50:40.786787 25497 net.cpp:368] inception_4c/output_inception_4c/output_0_split -> inception_4c/output_inception_4c/output_0_split_0
I0704 17:50:40.786794 25497 net.cpp:368] inception_4c/output_inception_4c/output_0_split -> inception_4c/output_inception_4c/output_0_split_1
I0704 17:50:40.786802 25497 net.cpp:368] inception_4c/output_inception_4c/output_0_split -> inception_4c/output_inception_4c/output_0_split_2
I0704 17:50:40.806056 25497 net.cpp:368] inception_4c/output_inception_4c/output_0_split -> inception_4c/output_inception_4c/output_0_split_3
I0704 17:50:40.806074 25497 net.cpp:120] Setting up inception_4c/output_inception_4c/output_0_split
I0704 17:50:40.806087 25497 net.cpp:127] Top shape: 10 512 14 14 (1003520)
I0704 17:50:40.806092 25497 net.cpp:127] Top shape: 10 512 14 14 (1003520)
I0704 17:50:40.806097 25497 net.cpp:127] Top shape: 10 512 14 14 (1003520)
I0704 17:50:40.806102 25497 net.cpp:127] Top shape: 10 512 14 14 (1003520)
I0704 17:50:40.806107 25497 layer_factory.hpp:74] Creating layer inception_4d/1x1
I0704 17:50:40.806123 25497 net.cpp:90] Creating Layer inception_4d/1x1
I0704 17:50:40.806128 25497 net.cpp:410] inception_4d/1x1 <- inception_4c/output_inception_4c/output_0_split_0
I0704 17:50:40.806135 25497 net.cpp:368] inception_4d/1x1 -> inception_4d/1x1
I0704 17:50:40.806143 25497 net.cpp:120] Setting up inception_4d/1x1
I0704 17:50:40.806783 25497 net.cpp:127] Top shape: 10 112 14 14 (219520)
I0704 17:50:40.806797 25497 layer_factory.hpp:74] Creating layer inception_4d/relu_1x1
I0704 17:50:40.806803 25497 net.cpp:90] Creating Layer inception_4d/relu_1x1
I0704 17:50:40.806809 25497 net.cpp:410] inception_4d/relu_1x1 <- inception_4d/1x1
I0704 17:50:40.806815 25497 net.cpp:357] inception_4d/relu_1x1 -> inception_4d/1x1 (in-place)
I0704 17:50:40.806823 25497 net.cpp:120] Setting up inception_4d/relu_1x1
I0704 17:50:40.806866 25497 net.cpp:127] Top shape: 10 112 14 14 (219520)
I0704 17:50:40.806872 25497 layer_factory.hpp:74] Creating layer inception_4d/3x3_reduce
I0704 17:50:40.806880 25497 net.cpp:90] Creating Layer inception_4d/3x3_reduce
I0704 17:50:40.806885 25497 net.cpp:410] inception_4d/3x3_reduce <- inception_4c/output_inception_4c/output_0_split_1
I0704 17:50:40.806892 25497 net.cpp:368] inception_4d/3x3_reduce -> inception_4d/3x3_reduce
I0704 17:50:40.806900 25497 net.cpp:120] Setting up inception_4d/3x3_reduce
I0704 17:50:40.808751 25497 net.cpp:127] Top shape: 10 144 14 14 (282240)
I0704 17:50:40.808818 25497 layer_factory.hpp:74] Creating layer inception_4d/relu_3x3_reduce
I0704 17:50:40.808858 25497 net.cpp:90] Creating Layer inception_4d/relu_3x3_reduce
I0704 17:50:40.808888 25497 net.cpp:410] inception_4d/relu_3x3_reduce <- inception_4d/3x3_reduce
I0704 17:50:40.808922 25497 net.cpp:357] inception_4d/relu_3x3_reduce -> inception_4d/3x3_reduce (in-place)
I0704 17:50:40.808955 25497 net.cpp:120] Setting up inception_4d/relu_3x3_reduce
I0704 17:50:40.809280 25497 net.cpp:127] Top shape: 10 144 14 14 (282240)
I0704 17:50:40.809321 25497 layer_factory.hpp:74] Creating layer inception_4d/3x3
I0704 17:50:40.809362 25497 net.cpp:90] Creating Layer inception_4d/3x3
I0704 17:50:40.809389 25497 net.cpp:410] inception_4d/3x3 <- inception_4d/3x3_reduce
I0704 17:50:40.809428 25497 net.cpp:368] inception_4d/3x3 -> inception_4d/3x3
I0704 17:50:40.809468 25497 net.cpp:120] Setting up inception_4d/3x3
I0704 17:50:40.819596 25497 net.cpp:127] Top shape: 10 288 14 14 (564480)
I0704 17:50:40.819607 25497 layer_factory.hpp:74] Creating layer inception_4d/relu_3x3
I0704 17:50:40.819614 25497 net.cpp:90] Creating Layer inception_4d/relu_3x3
I0704 17:50:40.819619 25497 net.cpp:410] inception_4d/relu_3x3 <- inception_4d/3x3
I0704 17:50:40.819627 25497 net.cpp:357] inception_4d/relu_3x3 -> inception_4d/3x3 (in-place)
I0704 17:50:40.819633 25497 net.cpp:120] Setting up inception_4d/relu_3x3
I0704 17:50:40.819748 25497 net.cpp:127] Top shape: 10 288 14 14 (564480)
I0704 17:50:40.819758 25497 layer_factory.hpp:74] Creating layer inception_4d/5x5_reduce
I0704 17:50:40.819767 25497 net.cpp:90] Creating Layer inception_4d/5x5_reduce
I0704 17:50:40.819772 25497 net.cpp:410] inception_4d/5x5_reduce <- inception_4c/output_inception_4c/output_0_split_2
I0704 17:50:40.819779 25497 net.cpp:368] inception_4d/5x5_reduce -> inception_4d/5x5_reduce
I0704 17:50:40.819787 25497 net.cpp:120] Setting up inception_4d/5x5_reduce
I0704 17:50:40.820077 25497 net.cpp:127] Top shape: 10 32 14 14 (62720)
I0704 17:50:40.820089 25497 layer_factory.hpp:74] Creating layer inception_4d/relu_5x5_reduce
I0704 17:50:40.820096 25497 net.cpp:90] Creating Layer inception_4d/relu_5x5_reduce
I0704 17:50:40.820102 25497 net.cpp:410] inception_4d/relu_5x5_reduce <- inception_4d/5x5_reduce
I0704 17:50:40.820108 25497 net.cpp:357] inception_4d/relu_5x5_reduce -> inception_4d/5x5_reduce (in-place)
I0704 17:50:40.820114 25497 net.cpp:120] Setting up inception_4d/relu_5x5_reduce
I0704 17:50:40.820158 25497 net.cpp:127] Top shape: 10 32 14 14 (62720)
I0704 17:50:40.820164 25497 layer_factory.hpp:74] Creating layer inception_4d/5x5
I0704 17:50:40.820173 25497 net.cpp:90] Creating Layer inception_4d/5x5
I0704 17:50:40.820178 25497 net.cpp:410] inception_4d/5x5 <- inception_4d/5x5_reduce
I0704 17:50:40.820183 25497 net.cpp:368] inception_4d/5x5 -> inception_4d/5x5
I0704 17:50:40.820190 25497 net.cpp:120] Setting up inception_4d/5x5
I0704 17:50:40.820650 25497 net.cpp:127] Top shape: 10 64 14 14 (125440)
I0704 17:50:40.820668 25497 layer_factory.hpp:74] Creating layer inception_4d/relu_5x5
I0704 17:50:40.820677 25497 net.cpp:90] Creating Layer inception_4d/relu_5x5
I0704 17:50:40.820683 25497 net.cpp:410] inception_4d/relu_5x5 <- inception_4d/5x5
I0704 17:50:40.820688 25497 net.cpp:357] inception_4d/relu_5x5 -> inception_4d/5x5 (in-place)
I0704 17:50:40.820694 25497 net.cpp:120] Setting up inception_4d/relu_5x5
I0704 17:50:40.820739 25497 net.cpp:127] Top shape: 10 64 14 14 (125440)
I0704 17:50:40.820744 25497 layer_factory.hpp:74] Creating layer inception_4d/pool
I0704 17:50:40.820750 25497 layer_factory.cpp:55] CUDNN does not support padding or multiple tops. Using Caffe's own pooling layer.
I0704 17:50:40.820756 25497 net.cpp:90] Creating Layer inception_4d/pool
I0704 17:50:40.820761 25497 net.cpp:410] inception_4d/pool <- inception_4c/output_inception_4c/output_0_split_3
I0704 17:50:40.820768 25497 net.cpp:368] inception_4d/pool -> inception_4d/pool
I0704 17:50:40.820775 25497 net.cpp:120] Setting up inception_4d/pool
I0704 17:50:40.820783 25497 net.cpp:127] Top shape: 10 512 14 14 (1003520)
I0704 17:50:40.820787 25497 layer_factory.hpp:74] Creating layer inception_4d/pool_proj
I0704 17:50:40.820796 25497 net.cpp:90] Creating Layer inception_4d/pool_proj
I0704 17:50:40.820801 25497 net.cpp:410] inception_4d/pool_proj <- inception_4d/pool
I0704 17:50:40.820806 25497 net.cpp:368] inception_4d/pool_proj -> inception_4d/pool_proj
I0704 17:50:40.820812 25497 net.cpp:120] Setting up inception_4d/pool_proj
I0704 17:50:40.821184 25497 net.cpp:127] Top shape: 10 64 14 14 (125440)
I0704 17:50:40.821197 25497 layer_factory.hpp:74] Creating layer inception_4d/relu_pool_proj
I0704 17:50:40.821203 25497 net.cpp:90] Creating Layer inception_4d/relu_pool_proj
I0704 17:50:40.821208 25497 net.cpp:410] inception_4d/relu_pool_proj <- inception_4d/pool_proj
I0704 17:50:40.821215 25497 net.cpp:357] inception_4d/relu_pool_proj -> inception_4d/pool_proj (in-place)
I0704 17:50:40.821221 25497 net.cpp:120] Setting up inception_4d/relu_pool_proj
I0704 17:50:40.821264 25497 net.cpp:127] Top shape: 10 64 14 14 (125440)
I0704 17:50:40.821270 25497 layer_factory.hpp:74] Creating layer inception_4d/output
I0704 17:50:40.821276 25497 net.cpp:90] Creating Layer inception_4d/output
I0704 17:50:40.821281 25497 net.cpp:410] inception_4d/output <- inception_4d/1x1
I0704 17:50:40.821286 25497 net.cpp:410] inception_4d/output <- inception_4d/3x3
I0704 17:50:40.821292 25497 net.cpp:410] inception_4d/output <- inception_4d/5x5
I0704 17:50:40.821297 25497 net.cpp:410] inception_4d/output <- inception_4d/pool_proj
I0704 17:50:40.821303 25497 net.cpp:368] inception_4d/output -> inception_4d/output
I0704 17:50:40.821310 25497 net.cpp:120] Setting up inception_4d/output
I0704 17:50:40.821316 25497 net.cpp:127] Top shape: 10 528 14 14 (1034880)
I0704 17:50:40.821321 25497 layer_factory.hpp:74] Creating layer inception_4d/output_inception_4d/output_0_split
I0704 17:50:40.821328 25497 net.cpp:90] Creating Layer inception_4d/output_inception_4d/output_0_split
I0704 17:50:40.821333 25497 net.cpp:410] inception_4d/output_inception_4d/output_0_split <- inception_4d/output
I0704 17:50:40.821339 25497 net.cpp:368] inception_4d/output_inception_4d/output_0_split -> inception_4d/output_inception_4d/output_0_split_0
I0704 17:50:40.821346 25497 net.cpp:368] inception_4d/output_inception_4d/output_0_split -> inception_4d/output_inception_4d/output_0_split_1
I0704 17:50:40.821353 25497 net.cpp:368] inception_4d/output_inception_4d/output_0_split -> inception_4d/output_inception_4d/output_0_split_2
I0704 17:50:40.821360 25497 net.cpp:368] inception_4d/output_inception_4d/output_0_split -> inception_4d/output_inception_4d/output_0_split_3
I0704 17:50:40.821367 25497 net.cpp:368] inception_4d/output_inception_4d/output_0_split -> inception_4d/output_inception_4d/output_0_split_4
I0704 17:50:40.821372 25497 net.cpp:120] Setting up inception_4d/output_inception_4d/output_0_split
I0704 17:50:40.821379 25497 net.cpp:127] Top shape: 10 528 14 14 (1034880)
I0704 17:50:40.821384 25497 net.cpp:127] Top shape: 10 528 14 14 (1034880)
I0704 17:50:40.821395 25497 net.cpp:127] Top shape: 10 528 14 14 (1034880)
I0704 17:50:40.821400 25497 net.cpp:127] Top shape: 10 528 14 14 (1034880)
I0704 17:50:40.821405 25497 net.cpp:127] Top shape: 10 528 14 14 (1034880)
I0704 17:50:40.821410 25497 layer_factory.hpp:74] Creating layer loss2/ave_pool
I0704 17:50:40.821418 25497 net.cpp:90] Creating Layer loss2/ave_pool
I0704 17:50:40.821423 25497 net.cpp:410] loss2/ave_pool <- inception_4d/output_inception_4d/output_0_split_0
I0704 17:50:40.821429 25497 net.cpp:368] loss2/ave_pool -> loss2/ave_pool
I0704 17:50:40.821435 25497 net.cpp:120] Setting up loss2/ave_pool
I0704 17:50:40.821557 25497 net.cpp:127] Top shape: 10 528 4 4 (84480)
I0704 17:50:40.821565 25497 layer_factory.hpp:74] Creating layer loss2/conv
I0704 17:50:40.821573 25497 net.cpp:90] Creating Layer loss2/conv
I0704 17:50:40.821578 25497 net.cpp:410] loss2/conv <- loss2/ave_pool
I0704 17:50:40.821585 25497 net.cpp:368] loss2/conv -> loss2/conv
I0704 17:50:40.821593 25497 net.cpp:120] Setting up loss2/conv
I0704 17:50:40.822141 25497 net.cpp:127] Top shape: 10 128 4 4 (20480)
I0704 17:50:40.822154 25497 layer_factory.hpp:74] Creating layer loss2/relu_conv
I0704 17:50:40.822160 25497 net.cpp:90] Creating Layer loss2/relu_conv
I0704 17:50:40.822165 25497 net.cpp:410] loss2/relu_conv <- loss2/conv
I0704 17:50:40.822170 25497 net.cpp:357] loss2/relu_conv -> loss2/conv (in-place)
I0704 17:50:40.822176 25497 net.cpp:120] Setting up loss2/relu_conv
I0704 17:50:40.822219 25497 net.cpp:127] Top shape: 10 128 4 4 (20480)
I0704 17:50:40.822226 25497 layer_factory.hpp:74] Creating layer loss2/fc
I0704 17:50:40.822232 25497 net.cpp:90] Creating Layer loss2/fc
I0704 17:50:40.822237 25497 net.cpp:410] loss2/fc <- loss2/conv
I0704 17:50:40.822245 25497 net.cpp:368] loss2/fc -> loss2/fc
I0704 17:50:40.822252 25497 net.cpp:120] Setting up loss2/fc
I0704 17:50:40.831890 25497 net.cpp:127] Top shape: 10 1024 (10240)
I0704 17:50:40.831915 25497 layer_factory.hpp:74] Creating layer loss2/relu_fc
I0704 17:50:40.831924 25497 net.cpp:90] Creating Layer loss2/relu_fc
I0704 17:50:40.831933 25497 net.cpp:410] loss2/relu_fc <- loss2/fc
I0704 17:50:40.831940 25497 net.cpp:357] loss2/relu_fc -> loss2/fc (in-place)
I0704 17:50:40.831948 25497 net.cpp:120] Setting up loss2/relu_fc
I0704 17:50:40.832022 25497 net.cpp:127] Top shape: 10 1024 (10240)
I0704 17:50:40.835221 25497 layer_factory.hpp:74] Creating layer loss2/drop_fc
I0704 17:50:40.835250 25497 net.cpp:90] Creating Layer loss2/drop_fc
I0704 17:50:40.835259 25497 net.cpp:410] loss2/drop_fc <- loss2/fc
I0704 17:50:40.835268 25497 net.cpp:357] loss2/drop_fc -> loss2/fc (in-place)
I0704 17:50:40.835278 25497 net.cpp:120] Setting up loss2/drop_fc
I0704 17:50:40.835289 25497 net.cpp:127] Top shape: 10 1024 (10240)
I0704 17:50:40.835294 25497 layer_factory.hpp:74] Creating layer stanford_cars_loss2/classifier
I0704 17:50:40.835304 25497 net.cpp:90] Creating Layer stanford_cars_loss2/classifier
I0704 17:50:40.835314 25497 net.cpp:410] stanford_cars_loss2/classifier <- loss2/fc
I0704 17:50:40.835321 25497 net.cpp:368] stanford_cars_loss2/classifier -> stanford_cars_loss2/classifier
I0704 17:50:40.835330 25497 net.cpp:120] Setting up stanford_cars_loss2/classifier
I0704 17:50:40.836479 25497 net.cpp:127] Top shape: 10 196 (1960)
I0704 17:50:40.836493 25497 layer_factory.hpp:74] Creating layer stanford_cars_loss2/classifier_stanford_cars_loss2/classifier_0_split
I0704 17:50:40.836499 25497 net.cpp:90] Creating Layer stanford_cars_loss2/classifier_stanford_cars_loss2/classifier_0_split
I0704 17:50:40.836505 25497 net.cpp:410] stanford_cars_loss2/classifier_stanford_cars_loss2/classifier_0_split <- stanford_cars_loss2/classifier
I0704 17:50:40.836513 25497 net.cpp:368] stanford_cars_loss2/classifier_stanford_cars_loss2/classifier_0_split -> stanford_cars_loss2/classifier_stanford_cars_loss2/classifier_0_split_0
I0704 17:50:40.836519 25497 net.cpp:368] stanford_cars_loss2/classifier_stanford_cars_loss2/classifier_0_split -> stanford_cars_loss2/classifier_stanford_cars_loss2/classifier_0_split_1
I0704 17:50:40.836542 25497 net.cpp:368] stanford_cars_loss2/classifier_stanford_cars_loss2/classifier_0_split -> stanford_cars_loss2/classifier_stanford_cars_loss2/classifier_0_split_2
I0704 17:50:40.836549 25497 net.cpp:120] Setting up stanford_cars_loss2/classifier_stanford_cars_loss2/classifier_0_split
I0704 17:50:40.836556 25497 net.cpp:127] Top shape: 10 196 (1960)
I0704 17:50:40.836561 25497 net.cpp:127] Top shape: 10 196 (1960)
I0704 17:50:40.836566 25497 net.cpp:127] Top shape: 10 196 (1960)
I0704 17:50:40.836571 25497 layer_factory.hpp:74] Creating layer stanford_cars_loss2/loss
I0704 17:50:40.836577 25497 net.cpp:90] Creating Layer stanford_cars_loss2/loss
I0704 17:50:40.836582 25497 net.cpp:410] stanford_cars_loss2/loss <- stanford_cars_loss2/classifier_stanford_cars_loss2/classifier_0_split_0
I0704 17:50:40.836588 25497 net.cpp:410] stanford_cars_loss2/loss <- label_data_1_split_3
…
I0704 17:50:40.866428 25497 net.cpp:368] loss2/top-5 -> loss2/top-5
I0704 17:50:40.866478 25497 net.cpp:120] Setting up loss2/top-5
I0704 17:50:40.866520 25497 net.cpp:127] Top shape: (1)
I0704 17:50:40.866544 25497 layer_factory.hpp:74] Creating layer inception_4e/1x1
I0704 17:50:40.866575 25497 net.cpp:90] Creating Layer inception_4e/1x1
I0704 17:50:40.866598 25497 net.cpp:410] inception_4e/1x1 <- inception_4d/output_inception_4d/output_0_split_1
I0704 17:50:40.866626 25497 net.cpp:368] inception_4e/1x1 -> inception_4e/1x1
I0704 17:50:40.866657 25497 net.cpp:120] Setting up inception_4e/1x1
I0704 17:50:40.871616 25497 net.cpp:127] Top shape: 10 256 14 14 (501760)
I0704 17:50:40.871686 25497 layer_factory.hpp:74] Creating layer inception_4e/relu_1x1
I0704 17:50:40.871729 25497 net.cpp:90] Creating Layer inception_4e/relu_1x1
I0704 17:50:40.871759 25497 net.cpp:410] inception_4e/relu_1x1 <- inception_4e/1x1
I0704 17:50:40.871791 25497 net.cpp:357] inception_4e/relu_1x1 -> inception_4e/1x1 (in-place)
I0704 17:50:40.871827 25497 net.cpp:120] Setting up inception_4e/relu_1x1
I0704 17:50:40.872453 25497 net.cpp:127] Top shape: 10 256 14 14 (501760)
I0704 17:50:40.872506 25497 layer_factory.hpp:74] Creating layer inception_4e/3x3_reduce
I0704 17:50:40.872591 25497 net.cpp:90] Creating Layer inception_4e/3x3_reduce
I0704 17:50:40.872623 25497 net.cpp:410] inception_4e/3x3_reduce <- inception_4d/output_inception_4d/output_0_split_2
I0704 17:50:40.872661 25497 net.cpp:368] inception_4e/3x3_reduce -> inception_4e/3x3_reduce
I0704 17:50:40.872701 25497 net.cpp:120] Setting up inception_4e/3x3_reduce
I0704 17:50:40.876126 25497 net.cpp:127] Top shape: 10 160 14 14 (313600)
I0704 17:50:40.876199 25497 layer_factory.hpp:74] Creating layer inception_4e/relu_3x3_reduce
I0704 17:50:40.876235 25497 net.cpp:90] Creating Layer inception_4e/relu_3x3_reduce
I0704 17:50:40.876265 25497 net.cpp:410] inception_4e/relu_3x3_reduce <- inception_4e/3x3_reduce
I0704 17:50:40.876350 25497 net.cpp:357] inception_4e/relu_3x3_reduce -> inception_4e/3x3_reduce (in-place)
I0704 17:50:40.876394 25497 net.cpp:120] Setting up inception_4e/relu_3x3_reduce
I0704 17:50:40.876637 25497 net.cpp:127] Top shape: 10 160 14 14 (313600)
I0704 17:50:40.876670 25497 layer_factory.hpp:74] Creating layer inception_4e/3x3
I0704 17:50:40.876709 25497 net.cpp:90] Creating Layer inception_4e/3x3
I0704 17:50:40.876737 25497 net.cpp:410] inception_4e/3x3 <- inception_4e/3x3_reduce
I0704 17:50:40.876775 25497 net.cpp:368] inception_4e/3x3 -> inception_4e/3x3
I0704 17:50:40.876813 25497 net.cpp:120] Setting up inception_4e/3x3
I0704 17:50:40.881335 25497 net.cpp:127] Top shape: 10 320 14 14 (627200)
I0704 17:50:40.881348 25497 layer_factory.hpp:74] Creating layer inception_4e/relu_3x3
I0704 17:50:40.881356 25497 net.cpp:90] Creating Layer inception_4e/relu_3x3
I0704 17:50:40.881362 25497 net.cpp:410] inception_4e/relu_3x3 <- inception_4e/3x3
I0704 17:50:40.881368 25497 net.cpp:357] inception_4e/relu_3x3 -> inception_4e/3x3 (in-place)
I0704 17:50:40.881376 25497 net.cpp:120] Setting up inception_4e/relu_3x3
I0704 17:50:40.881417 25497 net.cpp:127] Top shape: 10 320 14 14 (627200)
I0704 17:50:40.881423 25497 layer_factory.hpp:74] Creating layer inception_4e/5x5_reduce
I0704 17:50:40.881431 25497 net.cpp:90] Creating Layer inception_4e/5x5_reduce
I0704 17:50:40.881438 25497 net.cpp:410] inception_4e/5x5_reduce <- inception_4d/output_inception_4d/output_0_split_3
I0704 17:50:40.881444 25497 net.cpp:368] inception_4e/5x5_reduce -> inception_4e/5x5_reduce
I0704 17:50:40.881451 25497 net.cpp:120] Setting up inception_4e/5x5_reduce
I0704 17:50:40.881789 25497 net.cpp:127] Top shape: 10 32 14 14 (62720)
I0704 17:50:40.881801 25497 layer_factory.hpp:74] Creating layer inception_4e/relu_5x5_reduce
I0704 17:50:40.881808 25497 net.cpp:90] Creating Layer inception_4e/relu_5x5_reduce
I0704 17:50:40.881814 25497 net.cpp:410] inception_4e/relu_5x5_reduce <- inception_4e/5x5_reduce
I0704 17:50:40.881819 25497 net.cpp:357] inception_4e/relu_5x5_reduce -> inception_4e/5x5_reduce (in-place)
I0704 17:50:40.881825 25497 net.cpp:120] Setting up inception_4e/relu_5x5_reduce
I0704 17:50:40.881865 25497 net.cpp:127] Top shape: 10 32 14 14 (62720)
I0704 17:50:40.881871 25497 layer_factory.hpp:74] Creating layer inception_4e/5x5
I0704 17:50:40.881878 25497 net.cpp:90] Creating Layer inception_4e/5x5
I0704 17:50:40.881883 25497 net.cpp:410] inception_4e/5x5 <- inception_4e/5x5_reduce
I0704 17:50:40.881889 25497 net.cpp:368] inception_4e/5x5 -> inception_4e/5x5
I0704 17:50:40.881896 25497 net.cpp:120] Setting up inception_4e/5x5
I0704 17:50:40.882603 25497 net.cpp:127] Top shape: 10 128 14 14 (250880)
I0704 17:50:40.882616 25497 layer_factory.hpp:74] Creating layer inception_4e/relu_5x5
I0704 17:50:40.882623 25497 net.cpp:90] Creating Layer inception_4e/relu_5x5
I0704 17:50:40.882628 25497 net.cpp:410] inception_4e/relu_5x5 <- inception_4e/5x5
I0704 17:50:40.882634 25497 net.cpp:357] inception_4e/relu_5x5 -> inception_4e/5x5 (in-place)
I0704 17:50:40.882640 25497 net.cpp:120] Setting up inception_4e/relu_5x5
I0704 17:50:40.882756 25497 net.cpp:127] Top shape: 10 128 14 14 (250880)
I0704 17:50:40.882764 25497 layer_factory.hpp:74] Creating layer inception_4e/pool
I0704 17:50:40.882771 25497 layer_factory.cpp:55] CUDNN does not support padding or multiple tops. Using Caffe's own pooling layer.
I0704 17:50:40.882776 25497 net.cpp:90] Creating Layer inception_4e/pool
I0704 17:50:40.882781 25497 net.cpp:410] inception_4e/pool <- inception_4d/output_inception_4d/output_0_split_4
I0704 17:50:40.882788 25497 net.cpp:368] inception_4e/pool -> inception_4e/pool
I0704 17:50:40.882796 25497 net.cpp:120] Setting up inception_4e/pool
I0704 17:50:40.882803 25497 net.cpp:127] Top shape: 10 528 14 14 (1034880)
I0704 17:50:40.882808 25497 layer_factory.hpp:74] Creating layer inception_4e/pool_proj
I0704 17:50:40.882815 25497 net.cpp:90] Creating Layer inception_4e/pool_proj
I0704 17:50:40.882829 25497 net.cpp:410] inception_4e/pool_proj <- inception_4e/pool
I0704 17:50:40.882836 25497 net.cpp:368] inception_4e/pool_proj -> inception_4e/pool_proj
I0704 17:50:40.882843 25497 net.cpp:120] Setting up inception_4e/pool_proj
I0704 17:50:40.883390 25497 net.cpp:127] Top shape: 10 128 14 14 (250880)
I0704 17:50:40.883402 25497 layer_factory.hpp:74] Creating layer inception_4e/relu_pool_proj
I0704 17:50:40.883409 25497 net.cpp:90] Creating Layer inception_4e/relu_pool_proj
I0704 17:50:40.883414 25497 net.cpp:410] inception_4e/relu_pool_proj <- inception_4e/pool_proj
I0704 17:50:40.883421 25497 net.cpp:357] inception_4e/relu_pool_proj -> inception_4e/pool_proj (in-place)
I0704 17:50:40.883427 25497 net.cpp:120] Setting up inception_4e/relu_pool_proj
I0704 17:50:40.883471 25497 net.cpp:127] Top shape: 10 128 14 14 (250880)
I0704 17:50:40.883477 25497 layer_factory.hpp:74] Creating layer inception_4e/output
I0704 17:50:40.883483 25497 net.cpp:90] Creating Layer inception_4e/output
I0704 17:50:40.883488 25497 net.cpp:410] inception_4e/output <- inception_4e/1x1
I0704 17:50:40.883494 25497 net.cpp:410] inception_4e/output <- inception_4e/3x3
I0704 17:50:40.883499 25497 net.cpp:410] inception_4e/output <- inception_4e/5x5
I0704 17:50:40.883504 25497 net.cpp:410] inception_4e/output <- inception_4e/pool_proj
I0704 17:50:40.883512 25497 net.cpp:368] inception_4e/output -> inception_4e/output
I0704 17:50:40.883518 25497 net.cpp:120] Setting up inception_4e/output
I0704 17:50:40.883525 25497 net.cpp:127] Top shape: 10 832 14 14 (1630720)
I0704 17:50:40.883529 25497 layer_factory.hpp:74] Creating layer pool4/3x3_s2
I0704 17:50:40.883537 25497 net.cpp:90] Creating Layer pool4/3x3_s2
I0704 17:50:40.883540 25497 net.cpp:410] pool4/3x3_s2 <- inception_4e/output
I0704 17:50:40.883546 25497 net.cpp:368] pool4/3x3_s2 -> pool4/3x3_s2
I0704 17:50:40.883553 25497 net.cpp:120] Setting up pool4/3x3_s2
I0704 17:50:40.883599 25497 net.cpp:127] Top shape: 10 832 7 7 (407680)
I0704 17:50:40.883605 25497 layer_factory.hpp:74] Creating layer pool4/3x3_s2_pool4/3x3_s2_0_split
I0704 17:50:40.883611 25497 net.cpp:90] Creating Layer pool4/3x3_s2_pool4/3x3_s2_0_split
I0704 17:50:40.883616 25497 net.cpp:410] pool4/3x3_s2_pool4/3x3_s2_0_split <- pool4/3x3_s2
I0704 17:50:40.883622 25497 net.cpp:368] pool4/3x3_s2_pool4/3x3_s2_0_split -> pool4/3x3_s2_pool4/3x3_s2_0_split_0
I0704 17:50:40.883628 25497 net.cpp:368] pool4/3x3_s2_pool4/3x3_s2_0_split -> pool4/3x3_s2_pool4/3x3_s2_0_split_1
I0704 17:50:40.883635 25497 net.cpp:368] pool4/3x3_s2_pool4/3x3_s2_0_split -> pool4/3x3_s2_pool4/3x3_s2_0_split_2
I0704 17:50:40.883654 25497 net.cpp:368] pool4/3x3_s2_pool4/3x3_s2_0_split -> pool4/3x3_s2_pool4/3x3_s2_0_split_3
I0704 17:50:40.883661 25497 net.cpp:120] Setting up pool4/3x3_s2_pool4/3x3_s2_0_split
I0704 17:50:40.883668 25497 net.cpp:127] Top shape: 10 832 7 7 (407680)
I0704 17:50:40.883673 25497 net.cpp:127] Top shape: 10 832 7 7 (407680)
I0704 17:50:40.883679 25497 net.cpp:127] Top shape: 10 832 7 7 (407680)
I0704 17:50:40.883684 25497 net.cpp:127] Top shape: 10 832 7 7 (407680)
I0704 17:50:40.883689 25497 layer_factory.hpp:74] Creating layer inception_5a/1x1
I0704 17:50:40.883697 25497 net.cpp:90] Creating Layer inception_5a/1x1
I0704 17:50:40.883702 25497 net.cpp:410] inception_5a/1x1 <- pool4/3x3_s2_pool4/3x3_s2_0_split_0
I0704 17:50:40.883708 25497 net.cpp:368] inception_5a/1x1 -> inception_5a/1x1
I0704 17:50:40.883713 25497 net.cpp:120] Setting up inception_5a/1x1
I0704 17:50:40.884960 25497 net.cpp:127] Top shape: 10 256 7 7 (125440)
I0704 17:50:40.884973 25497 layer_factory.hpp:74] Creating layer inception_5a/relu_1x1
I0704 17:50:40.884979 25497 net.cpp:90] Creating Layer inception_5a/relu_1x1
I0704 17:50:40.884985 25497 net.cpp:410] inception_5a/relu_1x1 <- inception_5a/1x1
I0704 17:50:40.884990 25497 net.cpp:357] inception_5a/relu_1x1 -> inception_5a/1x1 (in-place)
I0704 17:50:40.884997 25497 net.cpp:120] Setting up inception_5a/relu_1x1
I0704 17:50:40.885113 25497 net.cpp:127] Top shape: 10 256 7 7 (125440)
I0704 17:50:40.885123 25497 layer_factory.hpp:74] Creating layer inception_5a/3x3_reduce
I0704 17:50:40.885136 25497 net.cpp:90] Creating Layer inception_5a/3x3_reduce
I0704 17:50:40.885141 25497 net.cpp:410] inception_5a/3x3_reduce <- pool4/3x3_s2_pool4/3x3_s2_0_split_1
I0704 17:50:40.885149 25497 net.cpp:368] inception_5a/3x3_reduce -> inception_5a/3x3_reduce
I0704 17:50:40.885157 25497 net.cpp:120] Setting up inception_5a/3x3_reduce
I0704 17:50:40.886014 25497 net.cpp:127] Top shape: 10 160 7 7 (78400)
I0704 17:50:40.886026 25497 layer_factory.hpp:74] Creating layer inception_5a/relu_3x3_reduce
I0704 17:50:40.886034 25497 net.cpp:90] Creating Layer inception_5a/relu_3x3_reduce
I0704 17:50:40.886039 25497 net.cpp:410] inception_5a/relu_3x3_reduce <- inception_5a/3x3_reduce
I0704 17:50:40.886045 25497 net.cpp:357] inception_5a/relu_3x3_reduce -> inception_5a/3x3_reduce (in-place)
I0704 17:50:40.886051 25497 net.cpp:120] Setting up inception_5a/relu_3x3_reduce
I0704 17:50:40.886096 25497 net.cpp:127] Top shape: 10 160 7 7 (78400)
I0704 17:50:40.886101 25497 layer_factory.hpp:74] Creating layer inception_5a/3x3
I0704 17:50:40.886108 25497 net.cpp:90] Creating Layer inception_5a/3x3
I0704 17:50:40.886114 25497 net.cpp:410] inception_5a/3x3 <- inception_5a/3x3_reduce
I0704 17:50:40.886121 25497 net.cpp:368] inception_5a/3x3 -> inception_5a/3x3
I0704 17:50:40.886127 25497 net.cpp:120] Setting up inception_5a/3x3
I0704 17:50:40.888579 25497 net.cpp:127] Top shape: 10 320 7 7 (156800)
I0704 17:50:40.888592 25497 layer_factory.hpp:74] Creating layer inception_5a/relu_3x3
I0704 17:50:40.888599 25497 net.cpp:90] Creating Layer inception_5a/relu_3x3
I0704 17:50:40.888604 25497 net.cpp:410] inception_5a/relu_3x3 <- inception_5a/3x3
I0704 17:50:40.888612 25497 net.cpp:357] inception_5a/relu_3x3 -> inception_5a/3x3 (in-place)
I0704 17:50:40.888618 25497 net.cpp:120] Setting up inception_5a/relu_3x3
I0704 17:50:40.888660 25497 net.cpp:127] Top shape: 10 320 7 7 (156800)
I0704 17:50:40.888667 25497 layer_factory.hpp:74] Creating layer inception_5a/5x5_reduce
I0704 17:50:40.888675 25497 net.cpp:90] Creating Layer inception_5a/5x5_reduce
I0704 17:50:40.888680 25497 net.cpp:410] inception_5a/5x5_reduce <- pool4/3x3_s2_pool4/3x3_s2_0_split_2
I0704 17:50:40.888686 25497 net.cpp:368] inception_5a/5x5_reduce -> inception_5a/5x5_reduce
I0704 17:50:40.888694 25497 net.cpp:120] Setting up inception_5a/5x5_reduce
I0704 17:50:40.889036 25497 net.cpp:127] Top shape: 10 32 7 7 (15680)
I0704 17:50:40.889049 25497 layer_factory.hpp:74] Creating layer inception_5a/relu_5x5_reduce
I0704 17:50:40.889055 25497 net.cpp:90] Creating Layer inception_5a/relu_5x5_reduce
I0704 17:50:40.889061 25497 net.cpp:410] inception_5a/relu_5x5_reduce <- inception_5a/5x5_reduce
I0704 17:50:40.889067 25497 net.cpp:357] inception_5a/relu_5x5_reduce -> inception_5a/5x5_reduce (in-place)
I0704 17:50:40.889073 25497 net.cpp:120] Setting up inception_5a/relu_5x5_reduce
I0704 17:50:40.889116 25497 net.cpp:127] Top shape: 10 32 7 7 (15680)
I0704 17:50:40.889122 25497 layer_factory.hpp:74] Creating layer inception_5a/5x5
I0704 17:50:40.889129 25497 net.cpp:90] Creating Layer inception_5a/5x5
I0704 17:50:40.889134 25497 net.cpp:410] inception_5a/5x5 <- inception_5a/5x5_reduce
I0704 17:50:40.889142 25497 net.cpp:368] inception_5a/5x5 -> inception_5a/5x5
I0704 17:50:40.889147 25497 net.cpp:120] Setting up inception_5a/5x5
I0704 17:50:40.889859 25497 net.cpp:127] Top shape: 10 128 7 7 (62720)
I0704 17:50:40.889870 25497 layer_factory.hpp:74] Creating layer inception_5a/relu_5x5
I0704 17:50:40.889878 25497 net.cpp:90] Creating Layer inception_5a/relu_5x5
I0704 17:50:40.889883 25497 net.cpp:410] inception_5a/relu_5x5 <- inception_5a/5x5
I0704 17:50:40.889889 25497 net.cpp:357] inception_5a/relu_5x5 -> inception_5a/5x5 (in-place)
I0704 17:50:40.889895 25497 net.cpp:120] Setting up inception_5a/relu_5x5
I0704 17:50:40.890013 25497 net.cpp:127] Top shape: 10 128 7 7 (62720)
I0704 17:50:40.890022 25497 layer_factory.hpp:74] Creating layer inception_5a/pool
I0704 17:50:40.890027 25497 layer_factory.cpp:55] CUDNN does not support padding or multiple tops. Using Caffe's own pooling layer.
I0704 17:50:40.890041 25497 net.cpp:90] Creating Layer inception_5a/pool
I0704 17:50:40.890046 25497 net.cpp:410] inception_5a/pool <- pool4/3x3_s2_pool4/3x3_s2_0_split_3
I0704 17:50:40.890053 25497 net.cpp:368] inception_5a/pool -> inception_5a/pool
I0704 17:50:40.890060 25497 net.cpp:120] Setting up inception_5a/pool
I0704 17:50:40.890069 25497 net.cpp:127] Top shape: 10 832 7 7 (407680)
I0704 17:50:40.890074 25497 layer_factory.hpp:74] Creating layer inception_5a/pool_proj
I0704 17:50:40.890080 25497 net.cpp:90] Creating Layer inception_5a/pool_proj
I0704 17:50:40.890085 25497 net.cpp:410] inception_5a/pool_proj <- inception_5a/pool
I0704 17:50:40.890092 25497 net.cpp:368] inception_5a/pool_proj -> inception_5a/pool_proj
I0704 17:50:40.890100 25497 net.cpp:120] Setting up inception_5a/pool_proj
I0704 17:50:40.890830 25497 net.cpp:127] Top shape: 10 128 7 7 (62720)
I0704 17:50:40.890842 25497 layer_factory.hpp:74] Creating layer inception_5a/relu_pool_proj
I0704 17:50:40.890849 25497 net.cpp:90] Creating Layer inception_5a/relu_pool_proj
I0704 17:50:40.890854 25497 net.cpp:410] inception_5a/relu_pool_proj <- inception_5a/pool_proj
I0704 17:50:40.890861 25497 net.cpp:357] inception_5a/relu_pool_proj -> inception_5a/pool_proj (in-place)
I0704 17:50:40.890867 25497 net.cpp:120] Setting up inception_5a/relu_pool_proj
I0704 17:50:40.890909 25497 net.cpp:127] Top shape: 10 128 7 7 (62720)
I0704 17:50:40.890915 25497 layer_factory.hpp:74] Creating layer inception_5a/output
I0704 17:50:40.890923 25497 net.cpp:90] Creating Layer inception_5a/output
I0704 17:50:40.890928 25497 net.cpp:410] inception_5a/output <- inception_5a/1x1
I0704 17:50:40.890933 25497 net.cpp:410] inception_5a/output <- inception_5a/3x3
I0704 17:50:40.890938 25497 net.cpp:410] inception_5a/output <- inception_5a/5x5
I0704 17:50:40.890944 25497 net.cpp:410] inception_5a/output <- inception_5a/pool_proj
I0704 17:50:40.890949 25497 net.cpp:368] inception_5a/output -> inception_5a/output
I0704 17:50:40.890955 25497 net.cpp:120] Setting up inception_5a/output
I0704 17:50:40.890962 25497 net.cpp:127] Top shape: 10 832 7 7 (407680)
I0704 17:50:40.890966 25497 layer_factory.hpp:74] Creating layer inception_5a/output_inception_5a/output_0_split
I0704 17:50:40.890974 25497 net.cpp:90] Creating Layer inception_5a/output_inception_5a/output_0_split
I0704 17:50:40.890977 25497 net.cpp:410] inception_5a/output_inception_5a/output_0_split <- inception_5a/output
I0704 17:50:40.890985 25497 net.cpp:368] inception_5a/output_inception_5a/output_0_split -> inception_5a/output_inception_5a/output_0_split_0
I0704 17:50:40.890991 25497 net.cpp:368] inception_5a/output_inception_5a/output_0_split -> inception_5a/output_inception_5a/output_0_split_1
I0704 17:50:40.890998 25497 net.cpp:368] inception_5a/output_inception_5a/output_0_split -> inception_5a/output_inception_5a/output_0_split_2
I0704 17:50:40.891005 25497 net.cpp:368] inception_5a/output_inception_5a/output_0_split -> inception_5a/output_inception_5a/output_0_split_3
I0704 17:50:40.891010 25497 net.cpp:120] Setting up inception_5a/output_inception_5a/output_0_split
I0704 17:50:40.891017 25497 net.cpp:127] Top shape: 10 832 7 7 (407680)
I0704 17:50:40.891022 25497 net.cpp:127] Top shape: 10 832 7 7 (407680)
I0704 17:50:40.891027 25497 net.cpp:127] Top shape: 10 832 7 7 (407680)
I0704 17:50:40.891032 25497 net.cpp:127] Top shape: 10 832 7 7 (407680)
I0704 17:50:40.891036 25497 layer_factory.hpp:74] Creating layer inception_5b/1x1
I0704 17:50:40.891044 25497 net.cpp:90] Creating Layer inception_5b/1x1
I0704 17:50:40.891049 25497 net.cpp:410] inception_5b/1x1 <- inception_5a/output_inception_5a/output_0_split_0
I0704 17:50:40.891054 25497 net.cpp:368] inception_5b/1x1 -> inception_5b/1x1
I0704 17:50:40.891062 25497 net.cpp:120] Setting up inception_5b/1x1
I0704 17:50:40.892832 25497 net.cpp:127] Top shape: 10 384 7 7 (188160)
I0704 17:50:40.892844 25497 layer_factory.hpp:74] Creating layer inception_5b/relu_1x1
I0704 17:50:40.892851 25497 net.cpp:90] Creating Layer inception_5b/relu_1x1
I0704 17:50:40.892863 25497 net.cpp:410] inception_5b/relu_1x1 <- inception_5b/1x1
I0704 17:50:40.892869 25497 net.cpp:357] inception_5b/relu_1x1 -> inception_5b/1x1 (in-place)
I0704 17:50:40.892876 25497 net.cpp:120] Setting up inception_5b/relu_1x1
I0704 17:50:40.892921 25497 net.cpp:127] Top shape: 10 384 7 7 (188160)
I0704 17:50:40.892927 25497 layer_factory.hpp:74] Creating layer inception_5b/3x3_reduce
I0704 17:50:40.892935 25497 net.cpp:90] Creating Layer inception_5b/3x3_reduce
I0704 17:50:40.892940 25497 net.cpp:410] inception_5b/3x3_reduce <- inception_5a/output_inception_5a/output_0_split_1
I0704 17:50:40.892946 25497 net.cpp:368] inception_5b/3x3_reduce -> inception_5b/3x3_reduce
I0704 17:50:40.892953 25497 net.cpp:120] Setting up inception_5b/3x3_reduce
I0704 17:50:40.893942 25497 net.cpp:127] Top shape: 10 192 7 7 (94080)
I0704 17:50:40.893954 25497 layer_factory.hpp:74] Creating layer inception_5b/relu_3x3_reduce
I0704 17:50:40.893960 25497 net.cpp:90] Creating Layer inception_5b/relu_3x3_reduce
I0704 17:50:40.893965 25497 net.cpp:410] inception_5b/relu_3x3_reduce <- inception_5b/3x3_reduce
I0704 17:50:40.893971 25497 net.cpp:357] inception_5b/relu_3x3_reduce -> inception_5b/3x3_reduce (in-place)
I0704 17:50:40.893978 25497 net.cpp:120] Setting up inception_5b/relu_3x3_reduce
I0704 17:50:40.894021 25497 net.cpp:127] Top shape: 10 192 7 7 (94080)
I0704 17:50:40.894026 25497 layer_factory.hpp:74] Creating layer inception_5b/3x3
I0704 17:50:40.894034 25497 net.cpp:90] Creating Layer inception_5b/3x3
I0704 17:50:40.894039 25497 net.cpp:410] inception_5b/3x3 <- inception_5b/3x3_reduce
I0704 17:50:40.894045 25497 net.cpp:368] inception_5b/3x3 -> inception_5b/3x3
I0704 17:50:40.894052 25497 net.cpp:120] Setting up inception_5b/3x3
I0704 17:50:40.897712 25497 net.cpp:127] Top shape: 10 384 7 7 (188160)
I0704 17:50:40.897732 25497 layer_factory.hpp:74] Creating layer inception_5b/relu_3x3
I0704 17:50:40.897742 25497 net.cpp:90] Creating Layer inception_5b/relu_3x3
I0704 17:50:40.897748 25497 net.cpp:410] inception_5b/relu_3x3 <- inception_5b/3x3
I0704 17:50:40.897755 25497 net.cpp:357] inception_5b/relu_3x3 -> inception_5b/3x3 (in-place)
I0704 17:50:40.897763 25497 net.cpp:120] Setting up inception_5b/relu_3x3
I0704 17:50:40.897897 25497 net.cpp:127] Top shape: 10 384 7 7 (188160)
I0704 17:50:40.897905 25497 layer_factory.hpp:74] Creating layer inception_5b/5x5_reduce
I0704 17:50:40.897914 25497 net.cpp:90] Creating Layer inception_5b/5x5_reduce
I0704 17:50:40.897920 25497 net.cpp:410] inception_5b/5x5_reduce <- inception_5a/output_inception_5a/output_0_split_2
I0704 17:50:40.897927 25497 net.cpp:368] inception_5b/5x5_reduce -> inception_5b/5x5_reduce
I0704 17:50:40.897934 25497 net.cpp:120] Setting up inception_5b/5x5_reduce
I0704 17:50:40.898406 25497 net.cpp:127] Top shape: 10 48 7 7 (23520)
I0704 17:50:40.898417 25497 layer_factory.hpp:74] Creating layer inception_5b/relu_5x5_reduce
I0704 17:50:40.898424 25497 net.cpp:90] Creating Layer inception_5b/relu_5x5_reduce
I0704 17:50:40.898429 25497 net.cpp:410] inception_5b/relu_5x5_reduce <- inception_5b/5x5_reduce
I0704 17:50:40.898435 25497 net.cpp:357] inception_5b/relu_5x5_reduce -> inception_5b/5x5_reduce (in-place)
I0704 17:50:40.898442 25497 net.cpp:120] Setting up inception_5b/relu_5x5_reduce
I0704 17:50:40.898485 25497 net.cpp:127] Top shape: 10 48 7 7 (23520)
I0704 17:50:40.898491 25497 layer_factory.hpp:74] Creating layer inception_5b/5x5
I0704 17:50:40.898499 25497 net.cpp:90] Creating Layer inception_5b/5x5
I0704 17:50:40.898505 25497 net.cpp:410] inception_5b/5x5 <- inception_5b/5x5_reduce
I0704 17:50:40.898511 25497 net.cpp:368] inception_5b/5x5 -> inception_5b/5x5
I0704 17:50:40.898519 25497 net.cpp:120] Setting up inception_5b/5x5
I0704 17:50:40.899624 25497 net.cpp:127] Top shape: 10 128 7 7 (62720)
I0704 17:50:40.899647 25497 layer_factory.hpp:74] Creating layer inception_5b/relu_5x5
I0704 17:50:40.899654 25497 net.cpp:90] Creating Layer inception_5b/relu_5x5
I0704 17:50:40.899669 25497 net.cpp:410] inception_5b/relu_5x5 <- inception_5b/5x5
I0704 17:50:40.899709 25497 net.cpp:357] inception_5b/relu_5x5 -> inception_5b/5x5 (in-place)
I0704 17:50:40.899726 25497 net.cpp:120] Setting up inception_5b/relu_5x5
I0704 17:50:40.899780 25497 net.cpp:127] Top shape: 10 128 7 7 (62720)
I0704 17:50:40.899786 25497 layer_factory.hpp:74] Creating layer inception_5b/pool
I0704 17:50:40.899792 25497 layer_factory.cpp:55] CUDNN does not support padding or multiple tops. Using Caffe's own pooling layer.
I0704 17:50:40.899798 25497 net.cpp:90] Creating Layer inception_5b/pool
I0704 17:50:40.899803 25497 net.cpp:410] inception_5b/pool <- inception_5a/output_inception_5a/output_0_split_3
I0704 17:50:40.899811 25497 net.cpp:368] inception_5b/pool -> inception_5b/pool
I0704 17:50:40.899816 25497 net.cpp:120] Setting up inception_5b/pool
I0704 17:50:40.899826 25497 net.cpp:127] Top shape: 10 832 7 7 (407680)
I0704 17:50:40.899829 25497 layer_factory.hpp:74] Creating layer inception_5b/pool_proj
I0704 17:50:40.899837 25497 net.cpp:90] Creating Layer inception_5b/pool_proj
I0704 17:50:40.899842 25497 net.cpp:410] inception_5b/pool_proj <- inception_5b/pool
I0704 17:50:40.899848 25497 net.cpp:368] inception_5b/pool_proj -> inception_5b/pool_proj
I0704 17:50:40.899855 25497 net.cpp:120] Setting up inception_5b/pool_proj
I0704 17:50:40.900652 25497 net.cpp:127] Top shape: 10 128 7 7 (62720)
I0704 17:50:40.900665 25497 layer_factory.hpp:74] Creating layer inception_5b/relu_pool_proj
I0704 17:50:40.900671 25497 net.cpp:90] Creating Layer inception_5b/relu_pool_proj
I0704 17:50:40.900676 25497 net.cpp:410] inception_5b/relu_pool_proj <- inception_5b/pool_proj
I0704 17:50:40.900682 25497 net.cpp:357] inception_5b/relu_pool_proj -> inception_5b/pool_proj (in-place)
I0704 17:50:40.900688 25497 net.cpp:120] Setting up inception_5b/relu_pool_proj
I0704 17:50:40.900732 25497 net.cpp:127] Top shape: 10 128 7 7 (62720)
I0704 17:50:40.900738 25497 layer_factory.hpp:74] Creating layer inception_5b/output
I0704 17:50:40.900744 25497 net.cpp:90] Creating Layer inception_5b/output
I0704 17:50:40.900749 25497 net.cpp:410] inception_5b/output <- inception_5b/1x1
I0704 17:50:40.900754 25497 net.cpp:410] inception_5b/output <- inception_5b/3x3
I0704 17:50:40.900760 25497 net.cpp:410] inception_5b/output <- inception_5b/5x5
I0704 17:50:40.900765 25497 net.cpp:410] inception_5b/output <- inception_5b/pool_proj
I0704 17:50:40.900771 25497 net.cpp:368] inception_5b/output -> inception_5b/output
I0704 17:50:40.900777 25497 net.cpp:120] Setting up inception_5b/output
I0704 17:50:40.900784 25497 net.cpp:127] Top shape: 10 1024 7 7 (501760)
I0704 17:50:40.900789 25497 layer_factory.hpp:74] Creating layer pool5/7x7_s1
I0704 17:50:40.900796 25497 net.cpp:90] Creating Layer pool5/7x7_s1
I0704 17:50:40.900801 25497 net.cpp:410] pool5/7x7_s1 <- inception_5b/output
I0704 17:50:40.900807 25497 net.cpp:368] pool5/7x7_s1 -> pool5/7x7_s1
I0704 17:50:40.900813 25497 net.cpp:120] Setting up pool5/7x7_s1
I0704 17:50:40.900933 25497 net.cpp:127] Top shape: 10 1024 1 1 (10240)
I0704 17:50:40.900943 25497 layer_factory.hpp:74] Creating layer pool5/drop_7x7_s1
I0704 17:50:40.900949 25497 net.cpp:90] Creating Layer pool5/drop_7x7_s1
I0704 17:50:40.900955 25497 net.cpp:410] pool5/drop_7x7_s1 <- pool5/7x7_s1
I0704 17:50:40.900961 25497 net.cpp:357] pool5/drop_7x7_s1 -> pool5/7x7_s1 (in-place)
I0704 17:50:40.900967 25497 net.cpp:120] Setting up pool5/drop_7x7_s1
I0704 17:50:40.900974 25497 net.cpp:127] Top shape: 10 1024 1 1 (10240)
I0704 17:50:40.900979 25497 layer_factory.hpp:74] Creating layer stanford_cars_loss3/classifier
I0704 17:50:40.900986 25497 net.cpp:90] Creating Layer stanford_cars_loss3/classifier
I0704 17:50:40.900991 25497 net.cpp:410] stanford_cars_loss3/classifier <- pool5/7x7_s1
I0704 17:50:40.900997 25497 net.cpp:368] stanford_cars_loss3/classifier -> stanford_cars_loss3/classifier
I0704 17:50:40.901005 25497 net.cpp:120] Setting up stanford_cars_loss3/classifier
I0704 17:50:40.901984 25497 net.cpp:127] Top shape: 10 196 (1960)
I0704 17:50:40.901993 25497 layer_factory.hpp:74] Creating layer stanford_cars_loss3/classifier_stanford_cars_loss3/classifier_0_split
I0704 17:50:40.902007 25497 net.cpp:90] Creating Layer stanford_cars_loss3/classifier_stanford_cars_loss3/classifier_0_split
I0704 17:50:40.902012 25497 net.cpp:410] stanford_cars_loss3/classifier_stanford_cars_loss3/classifier_0_split <- stanford_cars_loss3/classifier
I0704 17:50:40.902019 25497 net.cpp:368] stanford_cars_loss3/classifier_stanford_cars_loss3/classifier_0_split -> stanford_cars_loss3/classifier_stanford_cars_loss3/classifier_0_split_0
I0704 17:50:40.902025 25497 net.cpp:368] stanford_cars_loss3/classifier_stanford_cars_loss3/classifier_0_split -> stanford_cars_loss3/classifier_stanford_cars_loss3/classifier_0_split_1
I0704 17:50:40.902032 25497 net.cpp:368] stanford_cars_loss3/classifier_stanford_cars_loss3/classifier_0_split -> stanford_cars_loss3/classifier_stanford_cars_loss3/classifier_0_split_2
I0704 17:50:40.902039 25497 net.cpp:120] Setting up stanford_cars_loss3/classifier_stanford_cars_loss3/classifier_0_split
I0704 17:50:40.902045 25497 net.cpp:127] Top shape: 10 196 (1960)
I0704 17:50:40.902050 25497 net.cpp:127] Top shape: 10 196 (1960)
I0704 17:50:40.902055 25497 net.cpp:127] Top shape: 10 196 (1960)
I0704 17:50:40.902060 25497 layer_factory.hpp:74] Creating layer loss3/loss3
I0704 17:50:40.902067 25497 net.cpp:90] Creating Layer loss3/loss3
I0704 17:50:40.902072 25497 net.cpp:410] loss3/loss3 <- stanford_cars_loss3/classifier_stanford_cars_loss3/classifier_0_split_0
I0704 17:50:40.902077 25497 net.cpp:410] loss3/loss3 <- label_data_1_split_6
I0704 17:50:40.902084 25497 net.cpp:368] loss3/loss3 -> loss3/loss3
…
