…
I0703 17:47:31.385475 17041 net.cpp:287] The NetState phase (0) differed from the phase (1) specified by a rule in layer loss3/top-5
I0703 17:47:31.386106 17041 net.cpp:42] Initializing net from parameters: 
name: "GoogleNet"
state {
  phase: TRAIN
}
layer {
  name: "data"
  type: "Data"
  top: "data"
  top: "label"
  include {
    phase: TRAIN
  }
  transform_param {
    mirror: true
    crop_size: 224
    mean_value: 104
    mean_value: 117
    mean_value: 123
  }
  data_param {
    source: "examples/stanford_cars/stanford_cars_train_lmdb"
    batch_size: 30
    backend: LMDB
  }
}
layer {
  name: "conv1/7x7_s2"
  type: "Convolution"
  bottom: "data"
  top: "conv1/7x7_s2"
  param {
    lr_mult: 1
    decay_mult: 1
  }
  param {
    lr_mult: 2
    decay_mult: 0
  }
  convolution_param {
    num_output: 64
    pad: 3
    kernel_size: 7
    stride: 2
    weight_filler {
      type: "xavier"
      std: 0.1
    }
    bias_filler {
      type: "constant"
      value: 0.2
    }
  }
}
layer {
  name: "conv1/relu_7x7"
  type: "ReLU"
  bottom: "conv1/7x7_s2"
  top: "conv1/7x7_s2"
}
layer {
  name: "pool1/3x3_s2"
  type: "Pooling"
  bottom: "conv1/7x7_s2"
  top: "pool1/3x3_s2"
  pooling_param {
    pool: MAX
    kernel_size: 3
    stride: 2
  }
}
layer {
  name: "pool1/norm1"
  type: "LRN"
  bottom: "pool1/3x3_s2"
  top: "pool1/norm1"
  lrn_param {
    local_size: 5
    alpha: 0.0001
    beta: 0.75
  }
}
layer {
  name: "conv2/3x3_reduce"
  type: "Convolution"
  bottom: "pool1/norm1"
  top: "conv2/3x3_reduce"
  param {
    lr_mult: 1
    decay_mult: 1
  }
  param {
    lr_mult: 2
    decay_mult: 0
  }
  convolution_param {
    num_output: 64
    kernel_size: 1
    weight_filler {
      type: "xavier"
      std: 0.1
    }
    bias_filler {
      type: "constant"
      value: 0.2
    }
  }
}
layer {
  name: "conv2/relu_3x3_reduce"
  type: "ReLU"
  bottom: "conv2/3x3_reduce"
  top: "conv2/3x3_reduce"
}
layer {
  name: "conv2/3x3"
  type: "Convolution"
  bottom: "conv2/3x3_reduce"
  top: "conv2/3x3"
  param {
    lr_mult: 1
    decay_mult: 1
  }
  param {
    lr_mult: 2
    decay_mult: 0
  }
  convolution_param {
    num_output: 192
    pad: 1
    kernel_size: 3
    weight_filler {
      type: "xavier"
      std: 0.03
    }
    bias_filler {
      type: "constant"
      value: 0.2
    }
  }
}
layer {
  name: "conv2/relu_3x3"
  type: "ReLU"
  bottom: "conv2/3x3"
  top: "conv2/3x3"
}
layer {
  name: "conv2/norm2"
  type: "LRN"
  bottom: "conv2/3x3"
  top: "conv2/norm2"
  lrn_param {
    local_size: 5
    alpha: 0.0001
    beta: 0.75
  }
}
layer {
  name: "pool2/3x3_s2"
  type: "Pooling"
  bottom: "conv2/norm2"
  top: "pool2/3x3_s2"
  pooling_param {
    pool: MAX
    kernel_size: 3
    stride: 2
  }
}
layer {
  name: "inception_3a/1x1"
  type: "Convolution"
  bottom: "pool2/3x3_s2"
  top: "inception_3a/1x1"
  param {
    lr_mult: 1
    decay_mult: 1
  }
  param {
    lr_mult: 2
    decay_mult: 0
  }
  convolution_param {
    num_output: 64
    kernel_size: 1
    weight_filler {
      type: "xavier"
      std: 0.03
    }
    bias_filler {
      type: "constant"
      value: 0.2
    }
  }
}
layer {
  name: "inception_3a/relu_1x1"
  type: "ReLU"
  bottom: "inception_3a/1x1"
  top: "inception_3a/1x1"
}
layer {
  name: "inception_3a/3x3_reduce"
  type: "Convolution"
  bottom: "pool2/3x3_s2"
  top: "inception_3a/3x3_reduce"
  param {
    lr_mult: 1
    decay_mult: 1
  }
  param {
    lr_mult: 2
    decay_mult: 0
  }
  convolution_param {
    num_output: 96
    kernel_size: 1
    weight_filler {
      type: "xavier"
      std: 0.09
    }
    bias_filler {
      type: "constant"
      value: 0.2
    }
  }
}
layer {
  name: "inception_3a/relu_3x3_reduce"
  type: "ReLU"
  bottom: "inception_3a/3x3_reduce"
  top: "inception_3a/3x3_reduce"
}
layer {
  name: "inception_3a/3x3"
  type: "Convolution"
  bottom: "inception_3a/3x3_reduce"
  top: "inception_3a/3x3"
  param {
    lr_mult: 1
    decay_mult: 1
  }
  param {
    lr_mult: 2
    decay_mult: 0
  }
  convolution_param {
    num_output: 128
    pad: 1
    kernel_size: 3
    weight_filler {
      type: "xavier"
      std: 0.03
    }
    bias_filler {
      type: "constant"
      value: 0.2
    }
  }
}
layer {
  name: "inception_3a/relu_3x3"
  type: "ReLU"
  bottom: "inception_3a/3x3"
  top: "inception_3a/3x3"
}
layer {
  name: "inception_3a/5x5_reduce"
  type: "Convolution"
  bottom: "pool2/3x3_s2"
  top: "inception_3a/5x5_reduce"
  param {
    lr_mult: 1
    decay_mult: 1
  }
  param {
    lr_mult: 2
    decay_mult: 0
  }
  convolution_param {
    num_output: 16
    kernel_size: 1
    weight_filler {
      type: "xavier"
      std: 0.2
    }
    bias_filler {
      type: "constant"
      value: 0.2
    }
  }
}
layer {
  name: "inception_3a/relu_5x5_reduce"
  type: "ReLU"
  bottom: "inception_3a/5x5_reduce"
  top: "inception_3a/5x5_reduce"
}
layer {
  name: "inception_3a/5x5"
  type: "Convolution"
  bottom: "inception_3a/5x5_reduce"
  top: "inception_3a/5x5"
  param {
    lr_mult: 1
    decay_mult: 1
  }
  param {
    lr_mult: 2
    decay_mult: 0
  }
  convolution_param {
    num_output: 32
    pad: 2
    kernel_size: 5
    weight_filler {
      type: "xavier"
      std: 0.03
    }
    bias_filler {
      type: "constant"
      value: 0.2
    }
  }
}
layer {
  name: "inception_3a/relu_5x5"
  type: "ReLU"
  bottom: "inception_3a/5x5"
  top: "inception_3a/5x5"
}
layer {
  name: "inception_3a/pool"
  type: "Pooling"
  bottom: "pool2/3x3_s2"
  top: "inception_3a/pool"
  pooling_param {
    pool: MAX
    kernel_size: 3
    stride: 1
    pad: 1
  }
}
layer {
  name: "inception_3a/pool_proj"
  type: "Convolution"
  bottom: "inception_3a/pool"
  top: "inception_3a/pool_proj"
  param {
    lr_mult: 1
    decay_mult: 1
  }
  param {
    lr_mult: 2
    decay_mult: 0
  }
  convolution_param {
    num_output: 32
    kernel_size: 1
    weight_filler {
      type: "xavier"
      std: 0.1
    }
    bias_filler {
      type: "constant"
      value: 0.2
    }
  }
}
layer {
  name: "inception_3a/relu_pool_proj"
  type: "ReLU"
  bottom: "inception_3a/pool_proj"
  top: "inception_3a/pool_proj"
}
layer {
  name: "inception_3a/output"
  type: "Concat"
  bottom: "inception_3a/1x1"
  bottom: "inception_3a/3x3"
  bottom: "inception_3a/5x5"
  bottom: "inception_3a/pool_proj"
  top: "inception_3a/output"
}
layer {
  name: "inception_3b/1x1"
  type: "Convolution"
  bottom: "inception_3a/output"
  top: "inception_3b/1x1"
  param {
    lr_mult: 1
    decay_mult: 1
  }
  param {
    lr_mult: 2
    decay_mult: 0
  }
  convolution_param {
    num_output: 128
    kernel_size: 1
    weight_filler {
      type: "xavier"
      std: 0.03
    }
    bias_filler {
      type: "constant"
      value: 0.2
    }
  }
}
layer {
  name: "inception_3b/relu_1x1"
  type: "ReLU"
  bottom: "inception_3b/1x1"
  top: "inception_3b/1x1"
}
layer {
  name: "inception_3b/3x3_reduce"
  type: "Convolution"
  bottom: "inception_3a/output"
  top: "inception_3b/3x3_reduce"
  param {
    lr_mult: 1
    decay_mult: 1
  }
  param {
    lr_mult: 2
    decay_mult: 0
  }
  convolution_param {
    num_output: 128
    kernel_size: 1
    weight_filler {
      type: "xavier"
      std: 0.09
    }
    bias_filler {
      type: "constant"
      value: 0.2
    }
  }
}
layer {
  name: "inception_3b/relu_3x3_reduce"
  type: "ReLU"
  bottom: "inception_3b/3x3_reduce"
  top: "inception_3b/3x3_reduce"
}
layer {
  name: "inception_3b/3x3"
  type: "Convolution"
  bottom: "inception_3b/3x3_reduce"
  top: "inception_3b/3x3"
  param {
    lr_mult: 1
    decay_mult: 1
  }
  param {
    lr_mult: 2
    decay_mult: 0
  }
  convolution_param {
    num_output: 192
    pad: 1
    kernel_size: 3
    weight_filler {
      type: "xavier"
      std: 0.03
    }
    bias_filler {
      type: "constant"
      value: 0.2
    }
  }
}
layer {
  name: "inception_3b/relu_3x3"
  type: "ReLU"
  bottom: "inception_3b/3x3"
  top: "inception_3b/3x3"
}
layer {
  name: "inception_3b/5x5_reduce"
  type: "Convolution"
  bottom: "inception_3a/output"
  top: "inception_3b/5x5_reduce"
  param {
    lr_mult: 1
    decay_mult: 1
  }
  param {
    lr_mult: 2
    decay_mult: 0
  }
  convolution_param {
    num_output: 32
    kernel_size: 1
    weight_filler {
      type: "xavier"
      std: 0.2
    }
    bias_filler {
      type: "constant"
      value: 0.2
    }
  }
}
layer {
  name: "inception_3b/relu_5x5_reduce"
  type: "ReLU"
  bottom: "inception_3b/5x5_reduce"
  top: "inception_3b/5x5_reduce"
}
layer {
  name: "inception_3b/5x5"
  type: "Convolution"
  bottom: "inception_3b/5x5_reduce"
  top: "inception_3b/5x5"
  param {
    lr_mult: 1
    decay_mult: 1
  }
  param {
    lr_mult: 2
    decay_mult: 0
  }
  convolution_param {
    num_output: 96
    pad: 2
    kernel_size: 5
    weight_filler {
      type: "xavier"
      std: 0.03
    }
    bias_filler {
      type: "constant"
      value: 0.2
    }
  }
}
layer {
  name: "inception_3b/relu_5x5"
  type: "ReLU"
  bottom: "inception_3b/5x5"
  top: "inception_3b/5x5"
}
layer {
  name: "inception_3b/pool"
  type: "Pooling"
  bottom: "inception_3a/output"
  top: "inception_3b/pool"
  pooling_param {
    pool: MAX
    kernel_size: 3
    stride: 1
    pad: 1
  }
}
layer {
  name: "inception_3b/pool_proj"
  type: "Convolution"
  bottom: "inception_3b/pool"
  top: "inception_3b/pool_proj"
  param {
    lr_mult: 1
    decay_mult: 1
  }
  param {
    lr_mult: 2
    decay_mult: 0
  }
  convolution_param {
    num_output: 64
    kernel_size: 1
    weight_filler {
      type: "xavier"
      std: 0.1
    }
    bias_filler {
      type: "constant"
      value: 0.2
    }
  }
}
layer {
  name: "inception_3b/relu_pool_proj"
  type: "ReLU"
  bottom: "inception_3b/pool_proj"
  top: "inception_3b/pool_proj"
}
layer {
  name: "inception_3b/output"
  type: "Concat"
  bottom: "inception_3b/1x1"
  bottom: "inception_3b/3x3"
  bottom: "inception_3b/5x5"
  bottom: "inception_3b/pool_proj"
  top: "inception_3b/output"
}
layer {
  name: "pool3/3x3_s2"
  type: "Pooling"
  bottom: "inception_3b/output"
  top: "pool3/3x3_s2"
  pooling_param {
    pool: MAX
    kernel_size: 3
    stride: 2
  }
}
layer {
  name: "inception_4a/1x1"
  type: "Convolution"
  bottom: "pool3/3x3_s2"
  top: "inception_4a/1x1"
  param {
    lr_mult: 1
    decay_mult: 1
  }
  param {
    lr_mult: 2
    decay_mult: 0
  }
  convolution_param {
    num_output: 192
    kernel_size: 1
    weight_filler {
      type: "xavier"
      std: 0.03
    }
    bias_filler {
      type: "constant"
      value: 0.2
    }
  }
}
layer {
  name: "inception_4a/relu_1x1"
  type: "ReLU"
  bottom: "inception_4a/1x1"
  top: "inception_4a/1x1"
}
layer {
  name: "inception_4a/3x3_reduce"
  type: "Convolution"
  bottom: "pool3/3x3_s2"
  top: "inception_4a/3x3_reduce"
  param {
    lr_mult: 1
    decay_mult: 1
  }
  param {
    lr_mult: 2
    decay_mult: 0
  }
  convolution_param {
    num_output: 96
    kernel_size: 1
    weight_filler {
      type: "xavier"
      std: 0.09
    }
    bias_filler {
      type: "constant"
      value: 0.2
    }
  }
}
layer {
  name: "inception_4a/relu_3x3_reduce"
  type: "ReLU"
  bottom: "inception_4a/3x3_reduce"
  top: "inception_4a/3x3_reduce"
}
layer {
  name: "inception_4a/3x3"
  type: "Convolution"
  bottom: "inception_4a/3x3_reduce"
  top: "inception_4a/3x3"
  param {
    lr_mult: 1
    decay_mult: 1
  }
  param {
    lr_mult: 2
    decay_mult: 0
  }
  convolution_param {
    num_output: 208
    pad: 1
    kernel_size: 3
    weight_filler {
      type: "xavier"
      std: 0.03
    }
    bias_filler {
      type: "constant"
      value: 0.2
    }
  }
}
layer {
  name: "inception_4a/relu_3x3"
  type: "ReLU"
  bottom: "inception_4a/3x3"
  top: "inception_4a/3x3"
}
layer {
  name: "inception_4a/5x5_reduce"
  type: "Convolution"
  bottom: "pool3/3x3_s2"
  top: "inception_4a/5x5_reduce"
  param {
    lr_mult: 1
    decay_mult: 1
  }
  param {
    lr_mult: 2
    decay_mult: 0
  }
  convolution_param {
    num_output: 16
    kernel_size: 1
    weight_filler {
      type: "xavier"
      std: 0.2
    }
    bias_filler {
      type: "constant"
      value: 0.2
    }
  }
}
layer {
  name: "inception_4a/relu_5x5_reduce"
  type: "ReLU"
  bottom: "inception_4a/5x5_reduce"
  top: "inception_4a/5x5_reduce"
}
layer {
  name: "inception_4a/5x5"
  type: "Convolution"
  bottom: "inception_4a/5x5_reduce"
  top: "inception_4a/5x5"
  param {
    lr_mult: 1
    decay_mult: 1
  }
  param {
    lr_mult: 2
    decay_mult: 0
  }
  convolution_param {
    num_output: 48
    pad: 2
    kernel_size: 5
    weight_filler {
      type: "xavier"
      std: 0.03
    }
    bias_filler {
      type: "constant"
      value: 0.2
    }
  }
}
layer {
  name: "inception_4a/relu_5x5"
  type: "ReLU"
  bottom: "inception_4a/5x5"
  top: "inception_4a/5x5"
}
layer {
  name: "inception_4a/pool"
  type: "Pooling"
  bottom: "pool3/3x3_s2"
  top: "inception_4a/pool"
  pooling_param {
    pool: MAX
    kernel_size: 3
    stride: 1
    pad: 1
  }
}
layer {
  name: "inception_4a/pool_proj"
  type: "Convolution"
  bottom: "inception_4a/pool"
  top: "inception_4a/pool_proj"
  param {
    lr_mult: 1
    decay_mult: 1
  }
  param {
    lr_mult: 2
    decay_mult: 0
  }
  convolution_param {
    num_output: 64
    kernel_size: 1
    weight_filler {
      type: "xavier"
      std: 0.1
    }
    bias_filler {
      type: "constant"
      value: 0.2
    }
  }
}
layer {
  name: "inception_4a/relu_pool_proj"
  type: "ReLU"
  bottom: "inception_4a/pool_proj"
  top: "inception_4a/pool_proj"
}
layer {
  name: "inception_4a/output"
  type: "Concat"
  bottom: "inception_4a/1x1"
  bottom: "inception_4a/3x3"
  bottom: "inception_4a/5x5"
  bottom: "inception_4a/pool_proj"
  top: "inception_4a/output"
}
layer {
  name: "loss1/ave_pool"
  type: "Pooling"
  bottom: "inception_4a/output"
  top: "loss1/ave_pool"
  pooling_param {
    pool: AVE
    kernel_size: 5
    stride: 3
  }
}
layer {
  name: "loss1/conv"
  type: "Convolution"
  bottom: "loss1/ave_pool"
  top: "loss1/conv"
  param {
    lr_mult: 1
    decay_mult: 1
  }
  param {
    lr_mult: 2
    decay_mult: 0
  }
  convolution_param {
    num_output: 128
    kernel_size: 1
    weight_filler {
      type: "xavier"
      std: 0.08
    }
    bias_filler {
      type: "constant"
      value: 0.2
    }
  }
}
layer {
  name: "loss1/relu_conv"
  type: "ReLU"
  bottom: "loss1/conv"
  top: "loss1/conv"
}
layer {
  name: "loss1/fc"
  type: "InnerProduct"
  bottom: "loss1/conv"
  top: "loss1/fc"
  param {
    lr_mult: 1
    decay_mult: 1
  }
  param {
    lr_mult: 2
    decay_mult: 0
  }
  inner_product_param {
    num_output: 1024
    weight_filler {
      type: "xavier"
      std: 0.02
    }
    bias_filler {
      type: "constant"
      value: 0.2
    }
  }
}
layer {
  name: "loss1/relu_fc"
  type: "ReLU"
  bottom: "loss1/fc"
  top: "loss1/fc"
}
layer {
  name: "loss1/drop_fc"
  type: "Dropout"
  bottom: "loss1/fc"
  top: "loss1/fc"
  dropout_param {
    dropout_ratio: 0.7
  }
}
layer {
  name: "stanford_cars_loss1/classifier"
  type: "InnerProduct"
  bottom: "loss1/fc"
  top: "stanford_cars_loss1/classifier"
  param {
    lr_mult: 1
    decay_mult: 1
  }
  param {
    lr_mult: 2
    decay_mult: 0
  }
  inner_product_param {
    num_output: 196
    weight_filler {
      type: "xavier"
      std: 0.0009765625
    }
    bias_filler {
      type: "constant"
      value: 0
    }
  }
}
layer {
  name: "loss1/loss"
  type: "SoftmaxWithLoss"
  bottom: "stanford_cars_loss1/classifier"
  bottom: "label"
  top: "loss1/loss1"
  loss_weight: 0.3
}
layer {
  name: "inception_4b/1x1"
  type: "Convolution"
  bottom: "inception_4a/output"
  top: "inception_4b/1x1"
  param {
    lr_mult: 1
    decay_mult: 1
  }
  param {
    lr_mult: 2
    decay_mult: 0
  }
  convolution_param {
    num_output: 160
    kernel_size: 1
    weight_filler {
      type: "xavier"
      std: 0.03
    }
    bias_filler {
      type: "constant"
      value: 0.2
    }
  }
}
layer {
  name: "inception_4b/relu_1x1"
  type: "ReLU"
  bottom: "inception_4b/1x1"
  top: "inception_4b/1x1"
}
layer {
  name: "inception_4b/3x3_reduce"
  type: "Convolution"
  bottom: "inception_4a/output"
  top: "inception_4b/3x3_reduce"
  param {
    lr_mult: 1
    decay_mult: 1
  }
  param {
    lr_mult: 2
    decay_mult: 0
  }
  convolution_param {
    num_output: 112
    kernel_size: 1
    weight_filler {
      type: "xavier"
      std: 0.09
    }
    bias_filler {
      type: "constant"
      value: 0.2
    }
  }
}
layer {
  name: "inception_4b/relu_3x3_reduce"
  type: "ReLU"
  bottom: "inception_4b/3x3_reduce"
  top: "inception_4b/3x3_reduce"
}
layer {
  name: "inception_4b/3x3"
  type: "Convolution"
  bottom: "inception_4b/3x3_reduce"
  top: "inception_4b/3x3"
  param {
    lr_mult: 1
    decay_mult: 1
  }
  param {
    lr_mult: 2
    decay_mult: 0
  }
  convolution_param {
    num_output: 224
    pad: 1
    kernel_size: 3
    weight_filler {
      type: "xavier"
      std: 0.03
    }
    bias_filler {
      type: "constant"
      value: 0.2
    }
  }
}
layer {
  name: "inception_4b/relu_3x3"
  type: "ReLU"
  bottom: "inception_4b/3x3"
  top: "inception_4b/3x3"
}
layer {
  name: "inception_4b/5x5_reduce"
  type: "Convolution"
  bottom: "inception_4a/output"
  top: "inception_4b/5x5_reduce"
  param {
    lr_mult: 1
    decay_mult: 1
  }
  param {
    lr_mult: 2
    decay_mult: 0
  }
  convolution_param {
    num_output: 24
    kernel_size: 1
    weight_filler {
      type: "xavier"
      std: 0.2
    }
    bias_filler {
      type: "constant"
      value: 0.2
    }
  }
}
layer {
  name: "inception_4b/relu_5x5_reduce"
  type: "ReLU"
  bottom: "inception_4b/5x5_reduce"
  top: "inception_4b/5x5_reduce"
}
layer {
  name: "inception_4b/5x5"
  type: "Convolution"
  bottom: "inception_4b/5x5_reduce"
  top: "inception_4b/5x5"
  param {
    lr_mult: 1
    decay_mult: 1
  }
  param {
    lr_mult: 2
    decay_mult: 0
  }
  convolution_param {
    num_output: 64
    pad: 2
    kernel_size: 5
    weight_filler {
      type: "xavier"
      std: 0.03
    }
    bias_filler {
      type: "constant"
      value: 0.2
    }
  }
}
layer {
  name: "inception_4b/relu_5x5"
  type: "ReLU"
  bottom: "inception_4b/5x5"
  top: "inception_4b/5x5"
}
layer {
  name: "inception_4b/pool"
  type: "Pooling"
  bottom: "inception_4a/output"
  top: "inception_4b/pool"
  pooling_param {
    pool: MAX
    kernel_size: 3
    stride: 1
    pad: 1
  }
}
layer {
  name: "inception_4b/pool_proj"
  type: "Convolution"
  bottom: "inception_4b/pool"
  top: "inception_4b/pool_proj"
  param {
    lr_mult: 1
    decay_mult: 1
  }
  param {
    lr_mult: 2
    decay_mult: 0
  }
  convolution_param {
    num_output: 64
    kernel_size: 1
    weight_filler {
      type: "xavier"
      std: 0.1
    }
    bias_filler {
      type: "constant"
      value: 0.2
    }
  }
}
layer {
  name: "inception_4b/relu_pool_proj"
  type: "ReLU"
  bottom: "inception_4b/pool_proj"
  top: "inception_4b/pool_proj"
}
layer {
  name: "inception_4b/output"
  type: "Concat"
  bottom: "inception_4b/1x1"
  bottom: "inception_4b/3x3"
  bottom: "inception_4b/5x5"
  bottom: "inception_4b/pool_proj"
  top: "inception_4b/output"
}
layer {
  name: "inception_4c/1x1"
  type: "Convolution"
  bottom: "inception_4b/output"
  top: "inception_4c/1x1"
  param {
    lr_mult: 1
    decay_mult: 1
  }
  param {
    lr_mult: 2
    decay_mult: 0
  }
  convolution_param {
    num_output: 128
    kernel_size: 1
    weight_filler {
      type: "xavier"
      std: 0.03
    }
    bias_filler {
      type: "constant"
      value: 0.2
    }
  }
}
layer {
  name: "inception_4c/relu_1x1"
  type: "ReLU"
  bottom: "inception_4c/1x1"
  top: "inception_4c/1x1"
}
layer {
  name: "inception_4c/3x3_reduce"
  type: "Convolution"
  bottom: "inception_4b/output"
  top: "inception_4c/3x3_reduce"
  param {
    lr_mult: 1
    decay_mult: 1
  }
  param {
    lr_mult: 2
    decay_mult: 0
  }
  convolution_param {
    num_output: 128
    kernel_size: 1
    weight_filler {
      type: "xavier"
      std: 0.09
    }
    bias_filler {
      type: "constant"
      value: 0.2
    }
  }
}
layer {
  name: "inception_4c/relu_3x3_reduce"
  type: "ReLU"
  bottom: "inception_4c/3x3_reduce"
  top: "inception_4c/3x3_reduce"
}
layer {
  name: "inception_4c/3x3"
  type: "Convolution"
  bottom: "inception_4c/3x3_reduce"
  top: "inception_4c/3x3"
  param {
    lr_mult: 1
    decay_mult: 1
  }
  param {
    lr_mult: 2
    decay_mult: 0
  }
  convolution_param {
    num_output: 256
    pad: 1
    kernel_size: 3
    weight_filler {
      type: "xavier"
      std: 0.03
    }
    bias_filler {
      type: "constant"
      value: 0.2
    }
  }
}
layer {
  name: "inception_4c/relu_3x3"
  type: "ReLU"
  bottom: "inception_4c/3x3"
  top: "inception_4c/3x3"
}
layer {
  name: "inception_4c/5x5_reduce"
  type: "Convolution"
  bottom: "inception_4b/output"
  top: "inception_4c/5x5_reduce"
  param {
    lr_mult: 1
    decay_mult: 1
  }
  param {
    lr_mult: 2
    decay_mult: 0
  }
  convolution_param {
    num_output: 24
    kernel_size: 1
    weight_filler {
      type: "xavier"
      std: 0.2
    }
    bias_filler {
      type: "constant"
      value: 0.2
    }
  }
}
layer {
  name: "inception_4c/relu_5x5_reduce"
  type: "ReLU"
  bottom: "inception_4c/5x5_reduce"
  top: "inception_4c/5x5_reduce"
}
layer {
  name: "inception_4c/5x5"
  type: "Convolution"
  bottom: "inception_4c/5x5_reduce"
  top: "inception_4c/5x5"
  param {
    lr_mult: 1
    decay_mult: 1
  }
  param {
    lr_mult: 2
    decay_mult: 0
  }
  convolution_param {
    num_output: 64
    pad: 2
    kernel_size: 5
    weight_filler {
      type: "xavier"
      std: 0.03
    }
    bias_filler {
      type: "constant"
      value: 0.2
    }
  }
}
layer {
  name: "inception_4c/relu_5x5"
  type: "ReLU"
  bottom: "inception_4c/5x5"
  top: "inception_4c/5x5"
}
layer {
  name: "inception_4c/pool"
  type: "Pooling"
  bottom: "inception_4b/output"
  top: "inception_4c/pool"
  pooling_param {
    pool: MAX
    kernel_size: 3
    stride: 1
    pad: 1
  }
}
layer {
  name: "inception_4c/pool_proj"
  type: "Convolution"
  bottom: "inception_4c/pool"
  top: "inception_4c/pool_proj"
  param {
    lr_mult: 1
    decay_mult: 1
  }
  param {
    lr_mult: 2
    decay_mult: 0
  }
  convolution_param {
    num_output: 64
    kernel_size: 1
    weight_filler {
      type: "xavier"
      std: 0.1
    }
    bias_filler {
      type: "constant"
      value: 0.2
    }
  }
}
layer {
  name: "inception_4c/relu_pool_proj"
  type: "ReLU"
  bottom: "inception_4c/pool_proj"
  top: "inception_4c/pool_proj"
}
layer {
  name: "inception_4c/output"
  type: "Concat"
  bottom: "inception_4c/1x1"
  bottom: "inception_4c/3x3"
  bottom: "inception_4c/5x5"
  bottom: "inception_4c/pool_proj"
  top: "inception_4c/output"
}
layer {
  name: "inception_4d/1x1"
  type: "Convolution"
  bottom: "inception_4c/output"
  top: "inception_4d/1x1"
  param {
    lr_mult: 1
    decay_mult: 1
  }
  param {
    lr_mult: 2
    decay_mult: 0
  }
  convolution_param {
    num_output: 112
    kernel_size: 1
    weight_filler {
      type: "xavier"
      std: 0.03
    }
    bias_filler {
      type: "constant"
      value: 0.2
    }
  }
}
layer {
  name: "inception_4d/relu_1x1"
  type: "ReLU"
  bottom: "inception_4d/1x1"
  top: "inception_4d/1x1"
}
layer {
  name: "inception_4d/3x3_reduce"
  type: "Convolution"
  bottom: "inception_4c/output"
  top: "inception_4d/3x3_reduce"
  param {
    lr_mult: 1
    decay_mult: 1
  }
  param {
    lr_mult: 2
    decay_mult: 0
  }
  convolution_param {
    num_output: 144
    kernel_size: 1
    weight_filler {
      type: "xavier"
      std: 0.09
    }
    bias_filler {
      type: "constant"
      value: 0.2
    }
  }
}
layer {
  name: "inception_4d/relu_3x3_reduce"
  type: "ReLU"
  bottom: "inception_4d/3x3_reduce"
  top: "inception_4d/3x3_reduce"
}
layer {
  name: "inception_4d/3x3"
  type: "Convolution"
  bottom: "inception_4d/3x3_reduce"
  top: "inception_4d/3x3"
  param {
    lr_mult: 1
    decay_mult: 1
  }
  param {
    lr_mult: 2
    decay_mult: 0
  }
  convolution_param {
    num_output: 288
    pad: 1
    kernel_size: 3
    weight_filler {
      type: "xavier"
      std: 0.03
    }
    bias_filler {
      type: "constant"
      value: 0.2
    }
  }
}
layer {
  name: "inception_4d/relu_3x3"
  type: "ReLU"
  bottom: "inception_4d/3x3"
  top: "inception_4d/3x3"
}
layer {
  name: "inception_4d/5x5_reduce"
  type: "Convolution"
  bottom: "inception_4c/output"
  top: "inception_4d/5x5_reduce"
  param {
    lr_mult: 1
    decay_mult: 1
  }
  param {
    lr_mult: 2
    decay_mult: 0
  }
  convolution_param {
    num_output: 32
    kernel_size: 1
    weight_filler {
      type: "xavier"
      std: 0.2
    }
    bias_filler {
      type: "constant"
      value: 0.2
    }
  }
}
layer {
  name: "inception_4d/relu_5x5_reduce"
  type: "ReLU"
  bottom: "inception_4d/5x5_reduce"
  top: "inception_4d/5x5_reduce"
}
layer {
  name: "inception_4d/5x5"
  type: "Convolution"
  bottom: "inception_4d/5x5_reduce"
  top: "inception_4d/5x5"
  param {
    lr_mult: 1
    decay_mult: 1
  }
  param {
    lr_mult: 2
    decay_mult: 0
  }
  convolution_param {
    num_output: 64
    pad: 2
    kernel_size: 5
    weight_filler {
      type: "xavier"
      std: 0.03
    }
    bias_filler {
      type: "constant"
      value: 0.2
    }
  }
}
layer {
  name: "inception_4d/relu_5x5"
  type: "ReLU"
  bottom: "inception_4d/5x5"
  top: "inception_4d/5x5"
}
layer {
  name: "inception_4d/pool"
  type: "Pooling"
  bottom: "inception_4c/output"
  top: "inception_4d/pool"
  pooling_param {
    pool: MAX
    kernel_size: 3
    stride: 1
    pad: 1
  }
}
layer {
  name: "inception_4d/pool_proj"
  type: "Convolution"
  bottom: "inception_4d/pool"
  top: "inception_4d/pool_proj"
  param {
    lr_mult: 1
    decay_mult: 1
  }
  param {
    lr_mult: 2
    decay_mult: 0
  }
  convolution_param {
    num_output: 64
    kernel_size: 1
    weight_filler {
      type: "xavier"
      std: 0.1
    }
    bias_filler {
      type: "constant"
      value: 0.2
    }
  }
}
layer {
  name: "inception_4d/relu_pool_proj"
  type: "ReLU"
  bottom: "inception_4d/pool_proj"
  top: "inception_4d/pool_proj"
}
layer {
  name: "inception_4d/output"
  type: "Concat"
  bottom: "inception_4d/1x1"
  bottom: "inception_4d/3x3"
  bottom: "inception_4d/5x5"
  bottom: "inception_4d/pool_proj"
  top: "inception_4d/output"
}
layer {
  name: "loss2/ave_pool"
  type: "Pooling"
  bottom: "inception_4d/output"
  top: "loss2/ave_pool"
  pooling_param {
    pool: AVE
    kernel_size: 5
    stride: 3
  }
}
layer {
  name: "loss2/conv"
  type: "Convolution"
  bottom: "loss2/ave_pool"
  top: "loss2/conv"
  param {
    lr_mult: 1
    decay_mult: 1
  }
  param {
    lr_mult: 2
    decay_mult: 0
  }
  convolution_param {
    num_output: 128
    kernel_size: 1
    weight_filler {
      type: "xavier"
      std: 0.08
    }
    bias_filler {
      type: "constant"
      value: 0.2
    }
  }
}
layer {
  name: "loss2/relu_conv"
  type: "ReLU"
  bottom: "loss2/conv"
  top: "loss2/conv"
}
layer {
  name: "loss2/fc"
  type: "InnerProduct"
  bottom: "loss2/conv"
  top: "loss2/fc"
  param {
    lr_mult: 1
    decay_mult: 1
  }
  param {
    lr_mult: 2
    decay_mult: 0
  }
  inner_product_param {
    num_output: 1024
    weight_filler {
      type: "xavier"
      std: 0.02
    }
    bias_filler {
      type: "constant"
      value: 0.2
    }
  }
}
layer {
  name: "loss2/relu_fc"
  type: "ReLU"
  bottom: "loss2/fc"
  top: "loss2/fc"
}
layer {
  name: "loss2/drop_fc"
  type: "Dropout"
  bottom: "loss2/fc"
  top: "loss2/fc"
  dropout_param {
    dropout_ratio: 0.7
  }
}
layer {
  name: "stanford_cars_loss2/classifier"
  type: "InnerProduct"
  bottom: "loss2/fc"
  top: "stanford_cars_loss2/classifier"
  param {
    lr_mult: 1
    decay_mult: 1
  }
  param {
    lr_mult: 2
    decay_mult: 0
  }
  inner_product_param {
    num_output: 196
    weight_filler {
      type: "xavier"
      std: 0.0009765625
    }
    bias_filler {
      type: "constant"
      value: 0
    }
  }
}
layer {
  name: "stanford_cars_loss2/loss"
  type: "SoftmaxWithLoss"
  bottom: "stanford_cars_loss2/classifier"
  bottom: "label"
  top: "loss2/loss1"
  loss_weight: 0.3
}
layer {
  name: "inception_4e/1x1"
  type: "Convolution"
  bottom: "inception_4d/output"
  top: "inception_4e/1x1"
  param {
    lr_mult: 1
    decay_mult: 1
  }
  param {
    lr_mult: 2
    decay_mult: 0
  }
  convolution_param {
    num_output: 256
    kernel_size: 1
    weight_filler {
      type: "xavier"
      std: 0.03
    }
    bias_filler {
      type: "constant"
      value: 0.2
    }
  }
}
layer {
  name: "inception_4e/relu_1x1"
  type: "ReLU"
  bottom: "inception_4e/1x1"
  top: "inception_4e/1x1"
}
layer {
  name: "inception_4e/3x3_reduce"
  type: "Convolution"
  bottom: "inception_4d/output"
  top: "inception_4e/3x3_reduce"
  param {
    lr_mult: 1
    decay_mult: 1
  }
  param {
    lr_mult: 2
    decay_mult: 0
  }
  convolution_param {
    num_output: 160
    kernel_size: 1
    weight_filler {
      type: "xavier"
      std: 0.09
    }
    bias_filler {
      type: "constant"
      value: 0.2
    }
  }
}
layer {
  name: "inception_4e/relu_3x3_reduce"
  type: "ReLU"
  bottom: "inception_4e/3x3_reduce"
  top: "inception_4e/3x3_reduce"
}
layer {
  name: "inception_4e/3x3"
  type: "Convolution"
  bottom: "inception_4e/3x3_reduce"
  top: "inception_4e/3x3"
  param {
    lr_mult: 1
    decay_mult: 1
  }
  param {
    lr_mult: 2
    decay_mult: 0
  }
  convolution_param {
    num_output: 320
    pad: 1
    kernel_size: 3
    weight_filler {
      type: "xavier"
      std: 0.03
    }
    bias_filler {
      type: "constant"
      value: 0.2
    }
  }
}
layer {
  name: "inception_4e/relu_3x3"
  type: "ReLU"
  bottom: "inception_4e/3x3"
  top: "inception_4e/3x3"
}
layer {
  name: "inception_4e/5x5_reduce"
  type: "Convolution"
  bottom: "inception_4d/output"
  top: "inception_4e/5x5_reduce"
  param {
    lr_mult: 1
    decay_mult: 1
  }
  param {
    lr_mult: 2
    decay_mult: 0
  }
  convolution_param {
    num_output: 32
    kernel_size: 1
    weight_filler {
      type: "xavier"
      std: 0.2
    }
    
I0703 17:47:31.389575 17041 layer_factory.hpp:74] Creating layer data
I0703 17:47:31.389596 17041 net.cpp:90] Creating Layer data
I0703 17:47:31.389605 17041 net.cpp:368] data -> data
I0703 17:47:31.389626 17041 net.cpp:368] data -> label
I0703 17:47:31.389637 17041 net.cpp:120] Setting up data
I0703 17:47:31.389689 17041 db.cpp:34] Opened lmdb examples/stanford_cars/stanford_cars_train_lmdb
I0703 17:47:31.389840 17041 data_layer.cpp:67] output data size: 30,3,224,224
I0703 17:47:31.392124 17041 net.cpp:127] Top shape: 30 3 224 224 (4515840)
I0703 17:47:31.392163 17041 net.cpp:127] Top shape: 30 (30)
I0703 17:47:31.392173 17041 layer_factory.hpp:74] Creating layer label_data_1_split
I0703 17:47:31.392192 17041 net.cpp:90] Creating Layer label_data_1_split
I0703 17:47:31.392200 17041 net.cpp:410] label_data_1_split <- label
I0703 17:47:31.392213 17041 net.cpp:368] label_data_1_split -> label_data_1_split_0
I0703 17:47:31.392252 17041 net.cpp:368] label_data_1_split -> label_data_1_split_1
I0703 17:47:31.392271 17041 net.cpp:368] label_data_1_split -> label_data_1_split_2
I0703 17:47:31.392277 17041 net.cpp:120] Setting up label_data_1_split
I0703 17:47:31.392287 17041 net.cpp:127] Top shape: 30 (30)
I0703 17:47:31.392293 17041 net.cpp:127] Top shape: 30 (30)
I0703 17:47:31.392298 17041 net.cpp:127] Top shape: 30 (30)
I0703 17:47:31.392302 17041 layer_factory.hpp:74] Creating layer conv1/7x7_s2
I0703 17:47:31.392314 17041 net.cpp:90] Creating Layer conv1/7x7_s2
I0703 17:47:31.392319 17041 net.cpp:410] conv1/7x7_s2 <- data
I0703 17:47:31.392326 17041 net.cpp:368] conv1/7x7_s2 -> conv1/7x7_s2
I0703 17:47:31.392335 17041 net.cpp:120] Setting up conv1/7x7_s2
I0703 17:47:31.422595 17041 net.cpp:127] Top shape: 30 64 112 112 (24084480)
I0703 17:47:31.422642 17041 layer_factory.hpp:74] Creating layer conv1/relu_7x7
I0703 17:47:31.422655 17041 net.cpp:90] Creating Layer conv1/relu_7x7
I0703 17:47:31.422662 17041 net.cpp:410] conv1/relu_7x7 <- conv1/7x7_s2
I0703 17:47:31.422668 17041 net.cpp:357] conv1/relu_7x7 -> conv1/7x7_s2 (in-place)
I0703 17:47:31.422677 17041 net.cpp:120] Setting up conv1/relu_7x7
I0703 17:47:31.422727 17041 net.cpp:127] Top shape: 30 64 112 112 (24084480)
I0703 17:47:31.422734 17041 layer_factory.hpp:74] Creating layer pool1/3x3_s2
I0703 17:47:31.422755 17041 net.cpp:90] Creating Layer pool1/3x3_s2
I0703 17:47:31.422760 17041 net.cpp:410] pool1/3x3_s2 <- conv1/7x7_s2
I0703 17:47:31.422765 17041 net.cpp:368] pool1/3x3_s2 -> pool1/3x3_s2
I0703 17:47:31.422772 17041 net.cpp:120] Setting up pool1/3x3_s2
I0703 17:47:31.422898 17041 net.cpp:127] Top shape: 30 64 56 56 (6021120)
I0703 17:47:31.422919 17041 layer_factory.hpp:74] Creating layer pool1/norm1
I0703 17:47:31.422926 17041 net.cpp:90] Creating Layer pool1/norm1
I0703 17:47:31.422932 17041 net.cpp:410] pool1/norm1 <- pool1/3x3_s2
I0703 17:47:31.422938 17041 net.cpp:368] pool1/norm1 -> pool1/norm1
I0703 17:47:31.422945 17041 net.cpp:120] Setting up pool1/norm1
I0703 17:47:31.422953 17041 net.cpp:127] Top shape: 30 64 56 56 (6021120)
I0703 17:47:31.422960 17041 layer_factory.hpp:74] Creating layer conv2/3x3_reduce
I0703 17:47:31.422967 17041 net.cpp:90] Creating Layer conv2/3x3_reduce
I0703 17:47:31.422972 17041 net.cpp:410] conv2/3x3_reduce <- pool1/norm1
I0703 17:47:31.422978 17041 net.cpp:368] conv2/3x3_reduce -> conv2/3x3_reduce
I0703 17:47:31.422987 17041 net.cpp:120] Setting up conv2/3x3_reduce
I0703 17:47:31.423199 17041 net.cpp:127] Top shape: 30 64 56 56 (6021120)
I0703 17:47:31.423223 17041 layer_factory.hpp:74] Creating layer conv2/relu_3x3_reduce
I0703 17:47:31.423230 17041 net.cpp:90] Creating Layer conv2/relu_3x3_reduce
I0703 17:47:31.423235 17041 net.cpp:410] conv2/relu_3x3_reduce <- conv2/3x3_reduce
I0703 17:47:31.423241 17041 net.cpp:357] conv2/relu_3x3_reduce -> conv2/3x3_reduce (in-place)
I0703 17:47:31.423249 17041 net.cpp:120] Setting up conv2/relu_3x3_reduce
I0703 17:47:31.423292 17041 net.cpp:127] Top shape: 30 64 56 56 (6021120)
I0703 17:47:31.423298 17041 layer_factory.hpp:74] Creating layer conv2/3x3
I0703 17:47:31.423329 17041 net.cpp:90] Creating Layer conv2/3x3
I0703 17:47:31.423336 17041 net.cpp:410] conv2/3x3 <- conv2/3x3_reduce
I0703 17:47:31.423341 17041 net.cpp:368] conv2/3x3 -> conv2/3x3
I0703 17:47:31.423348 17041 net.cpp:120] Setting up conv2/3x3
I0703 17:47:31.424010 17041 net.cpp:127] Top shape: 30 192 56 56 (18063360)
I0703 17:47:31.424034 17041 layer_factory.hpp:74] Creating layer conv2/relu_3x3
I0703 17:47:31.424041 17041 net.cpp:90] Creating Layer conv2/relu_3x3
I0703 17:47:31.424046 17041 net.cpp:410] conv2/relu_3x3 <- conv2/3x3
I0703 17:47:31.424053 17041 net.cpp:357] conv2/relu_3x3 -> conv2/3x3 (in-place)
I0703 17:47:31.424059 17041 net.cpp:120] Setting up conv2/relu_3x3
I0703 17:47:31.424108 17041 net.cpp:127] Top shape: 30 192 56 56 (18063360)
I0703 17:47:31.424113 17041 layer_factory.hpp:74] Creating layer conv2/norm2
I0703 17:47:31.424130 17041 net.cpp:90] Creating Layer conv2/norm2
I0703 17:47:31.424135 17041 net.cpp:410] conv2/norm2 <- conv2/3x3
I0703 17:47:31.424163 17041 net.cpp:368] conv2/norm2 -> conv2/norm2
I0703 17:47:31.424172 17041 net.cpp:120] Setting up conv2/norm2
I0703 17:47:31.424180 17041 net.cpp:127] Top shape: 30 192 56 56 (18063360)
I0703 17:47:31.424185 17041 layer_factory.hpp:74] Creating layer pool2/3x3_s2
I0703 17:47:31.424191 17041 net.cpp:90] Creating Layer pool2/3x3_s2
I0703 17:47:31.424196 17041 net.cpp:410] pool2/3x3_s2 <- conv2/norm2
I0703 17:47:31.424202 17041 net.cpp:368] pool2/3x3_s2 -> pool2/3x3_s2
I0703 17:47:31.424208 17041 net.cpp:120] Setting up pool2/3x3_s2
I0703 17:47:31.424255 17041 net.cpp:127] Top shape: 30 192 28 28 (4515840)
I0703 17:47:31.424262 17041 layer_factory.hpp:74] Creating layer pool2/3x3_s2_pool2/3x3_s2_0_split
I0703 17:47:31.424279 17041 net.cpp:90] Creating Layer pool2/3x3_s2_pool2/3x3_s2_0_split
I0703 17:47:31.424283 17041 net.cpp:410] pool2/3x3_s2_pool2/3x3_s2_0_split <- pool2/3x3_s2
I0703 17:47:31.424289 17041 net.cpp:368] pool2/3x3_s2_pool2/3x3_s2_0_split -> pool2/3x3_s2_pool2/3x3_s2_0_split_0
I0703 17:47:31.424296 17041 net.cpp:368] pool2/3x3_s2_pool2/3x3_s2_0_split -> pool2/3x3_s2_pool2/3x3_s2_0_split_1
I0703 17:47:31.424304 17041 net.cpp:368] pool2/3x3_s2_pool2/3x3_s2_0_split -> pool2/3x3_s2_pool2/3x3_s2_0_split_2
I0703 17:47:31.424309 17041 net.cpp:368] pool2/3x3_s2_pool2/3x3_s2_0_split -> pool2/3x3_s2_pool2/3x3_s2_0_split_3
I0703 17:47:31.424315 17041 net.cpp:120] Setting up pool2/3x3_s2_pool2/3x3_s2_0_split
I0703 17:47:31.424322 17041 net.cpp:127] Top shape: 30 192 28 28 (4515840)
I0703 17:47:31.424327 17041 net.cpp:127] Top shape: 30 192 28 28 (4515840)
I0703 17:47:31.424332 17041 net.cpp:127] Top shape: 30 192 28 28 (4515840)
I0703 17:47:31.424337 17041 net.cpp:127] Top shape: 30 192 28 28 (4515840)
I0703 17:47:31.424341 17041 layer_factory.hpp:74] Creating layer inception_3a/1x1
I0703 17:47:31.424348 17041 net.cpp:90] Creating Layer inception_3a/1x1
I0703 17:47:31.424353 17041 net.cpp:410] inception_3a/1x1 <- pool2/3x3_s2_pool2/3x3_s2_0_split_0
I0703 17:47:31.424360 17041 net.cpp:368] inception_3a/1x1 -> inception_3a/1x1
I0703 17:47:31.424366 17041 net.cpp:120] Setting up inception_3a/1x1
I0703 17:47:31.424612 17041 net.cpp:127] Top shape: 30 64 28 28 (1505280)
I0703 17:47:31.424635 17041 layer_factory.hpp:74] Creating layer inception_3a/relu_1x1
I0703 17:47:31.424641 17041 net.cpp:90] Creating Layer inception_3a/relu_1x1
I0703 17:47:31.424648 17041 net.cpp:410] inception_3a/relu_1x1 <- inception_3a/1x1
I0703 17:47:31.424654 17041 net.cpp:357] inception_3a/relu_1x1 -> inception_3a/1x1 (in-place)
I0703 17:47:31.424659 17041 net.cpp:120] Setting up inception_3a/relu_1x1
I0703 17:47:31.424774 17041 net.cpp:127] Top shape: 30 64 28 28 (1505280)
I0703 17:47:31.424794 17041 layer_factory.hpp:74] Creating layer inception_3a/3x3_reduce
I0703 17:47:31.424803 17041 net.cpp:90] Creating Layer inception_3a/3x3_reduce
I0703 17:47:31.424808 17041 net.cpp:410] inception_3a/3x3_reduce <- pool2/3x3_s2_pool2/3x3_s2_0_split_1
I0703 17:47:31.424816 17041 net.cpp:368] inception_3a/3x3_reduce -> inception_3a/3x3_reduce
I0703 17:47:31.424823 17041 net.cpp:120] Setting up inception_3a/3x3_reduce
I0703 17:47:31.425132 17041 net.cpp:127] Top shape: 30 96 28 28 (2257920)
I0703 17:47:31.425155 17041 layer_factory.hpp:74] Creating layer inception_3a/relu_3x3_reduce
I0703 17:47:31.425163 17041 net.cpp:90] Creating Layer inception_3a/relu_3x3_reduce
I0703 17:47:31.425168 17041 net.cpp:410] inception_3a/relu_3x3_reduce <- inception_3a/3x3_reduce
I0703 17:47:31.425176 17041 net.cpp:357] inception_3a/relu_3x3_reduce -> inception_3a/3x3_reduce (in-place)
I0703 17:47:31.425182 17041 net.cpp:120] Setting up inception_3a/relu_3x3_reduce
I0703 17:47:31.425233 17041 net.cpp:127] Top shape: 30 96 28 28 (2257920)
I0703 17:47:31.425240 17041 layer_factory.hpp:74] Creating layer inception_3a/3x3
I0703 17:47:31.425259 17041 net.cpp:90] Creating Layer inception_3a/3x3
I0703 17:47:31.425264 17041 net.cpp:410] inception_3a/3x3 <- inception_3a/3x3_reduce
I0703 17:47:31.425271 17041 net.cpp:368] inception_3a/3x3 -> inception_3a/3x3
I0703 17:47:31.425287 17041 net.cpp:120] Setting up inception_3a/3x3
I0703 17:47:31.426376 17041 net.cpp:127] Top shape: 30 128 28 28 (3010560)
I0703 17:47:31.426401 17041 layer_factory.hpp:74] Creating layer inception_3a/relu_3x3
I0703 17:47:31.426409 17041 net.cpp:90] Creating Layer inception_3a/relu_3x3
I0703 17:47:31.426425 17041 net.cpp:410] inception_3a/relu_3x3 <- inception_3a/3x3
I0703 17:47:31.426432 17041 net.cpp:357] inception_3a/relu_3x3 -> inception_3a/3x3 (in-place)
I0703 17:47:31.426447 17041 net.cpp:120] Setting up inception_3a/relu_3x3
I0703 17:47:31.426528 17041 net.cpp:127] Top shape: 30 128 28 28 (3010560)
I0703 17:47:31.426544 17041 layer_factory.hpp:74] Creating layer inception_3a/5x5_reduce
I0703 17:47:31.426553 17041 net.cpp:90] Creating Layer inception_3a/5x5_reduce
I0703 17:47:31.426566 17041 net.cpp:410] inception_3a/5x5_reduce <- pool2/3x3_s2_pool2/3x3_s2_0_split_2
I0703 17:47:31.426584 17041 net.cpp:368] inception_3a/5x5_reduce -> inception_3a/5x5_reduce
I0703 17:47:31.426600 17041 net.cpp:120] Setting up inception_3a/5x5_reduce
I0703 17:47:31.426877 17041 net.cpp:127] Top shape: 30 16 28 28 (376320)
I0703 17:47:31.426899 17041 layer_factory.hpp:74] Creating layer inception_3a/relu_5x5_reduce
I0703 17:47:31.426908 17041 net.cpp:90] Creating Layer inception_3a/relu_5x5_reduce
I0703 17:47:31.426913 17041 net.cpp:410] inception_3a/relu_5x5_reduce <- inception_3a/5x5_reduce
I0703 17:47:31.426919 17041 net.cpp:357] inception_3a/relu_5x5_reduce -> inception_3a/5x5_reduce (in-place)
I0703 17:47:31.426925 17041 net.cpp:120] Setting up inception_3a/relu_5x5_reduce
I0703 17:47:31.427044 17041 net.cpp:127] Top shape: 30 16 28 28 (376320)
I0703 17:47:31.427054 17041 layer_factory.hpp:74] Creating layer inception_3a/5x5
I0703 17:47:31.427073 17041 net.cpp:90] Creating Layer inception_3a/5x5
I0703 17:47:31.427078 17041 net.cpp:410] inception_3a/5x5 <- inception_3a/5x5_reduce
I0703 17:47:31.427085 17041 net.cpp:368] inception_3a/5x5 -> inception_3a/5x5
I0703 17:47:31.427093 17041 net.cpp:120] Setting up inception_3a/5x5
I0703 17:47:31.427389 17041 net.cpp:127] Top shape: 30 32 28 28 (752640)
I0703 17:47:31.427412 17041 layer_factory.hpp:74] Creating layer inception_3a/relu_5x5
I0703 17:47:31.427420 17041 net.cpp:90] Creating Layer inception_3a/relu_5x5
I0703 17:47:31.427427 17041 net.cpp:410] inception_3a/relu_5x5 <- inception_3a/5x5
I0703 17:47:31.427433 17041 net.cpp:357] inception_3a/relu_5x5 -> inception_3a/5x5 (in-place)
I0703 17:47:31.427440 17041 net.cpp:120] Setting up inception_3a/relu_5x5
I0703 17:47:31.427491 17041 net.cpp:127] Top shape: 30 32 28 28 (752640)
I0703 17:47:31.427498 17041 layer_factory.hpp:74] Creating layer inception_3a/pool
I0703 17:47:31.427515 17041 layer_factory.cpp:55] CUDNN does not support padding or multiple tops. Using Caffe's own pooling layer.
I0703 17:47:31.427521 17041 net.cpp:90] Creating Layer inception_3a/pool
I0703 17:47:31.427526 17041 net.cpp:410] inception_3a/pool <- pool2/3x3_s2_pool2/3x3_s2_0_split_3
I0703 17:47:31.427533 17041 net.cpp:368] inception_3a/pool -> inception_3a/pool
I0703 17:47:31.427541 17041 net.cpp:120] Setting up inception_3a/pool
I0703 17:47:31.427547 17041 net.cpp:127] Top shape: 30 192 28 28 (4515840)
I0703 17:47:31.427553 17041 layer_factory.hpp:74] Creating layer inception_3a/pool_proj
I0703 17:47:31.427561 17041 net.cpp:90] Creating Layer inception_3a/pool_proj
I0703 17:47:31.427566 17041 net.cpp:410] inception_3a/pool_proj <- inception_3a/pool
I0703 17:47:31.427572 17041 net.cpp:368] inception_3a/pool_proj -> inception_3a/pool_proj
I0703 17:47:31.427579 17041 net.cpp:120] Setting up inception_3a/pool_proj
I0703 17:47:31.427814 17041 net.cpp:127] Top shape: 30 32 28 28 (752640)
I0703 17:47:31.427840 17041 layer_factory.hpp:74] Creating layer inception_3a/relu_pool_proj
I0703 17:47:31.427847 17041 net.cpp:90] Creating Layer inception_3a/relu_pool_proj
I0703 17:47:31.427852 17041 net.cpp:410] inception_3a/relu_pool_proj <- inception_3a/pool_proj
I0703 17:47:31.427860 17041 net.cpp:357] inception_3a/relu_pool_proj -> inception_3a/pool_proj (in-place)
I0703 17:47:31.427875 17041 net.cpp:120] Setting up inception_3a/relu_pool_proj
I0703 17:47:31.427928 17041 net.cpp:127] Top shape: 30 32 28 28 (752640)
I0703 17:47:31.427935 17041 layer_factory.hpp:74] Creating layer inception_3a/output
I0703 17:47:31.427954 17041 net.cpp:90] Creating Layer inception_3a/output
I0703 17:47:31.427960 17041 net.cpp:410] inception_3a/output <- inception_3a/1x1
I0703 17:47:31.427965 17041 net.cpp:410] inception_3a/output <- inception_3a/3x3
I0703 17:47:31.427971 17041 net.cpp:410] inception_3a/output <- inception_3a/5x5
I0703 17:47:31.427978 17041 net.cpp:410] inception_3a/output <- inception_3a/pool_proj
I0703 17:47:31.427983 17041 net.cpp:368] inception_3a/output -> inception_3a/output
I0703 17:47:31.427989 17041 net.cpp:120] Setting up inception_3a/output
I0703 17:47:31.427999 17041 net.cpp:127] Top shape: 30 256 28 28 (6021120)
I0703 17:47:31.428004 17041 layer_factory.hpp:74] Creating layer inception_3a/output_inception_3a/output_0_split
I0703 17:47:31.428011 17041 net.cpp:90] Creating Layer inception_3a/output_inception_3a/output_0_split
I0703 17:47:31.428017 17041 net.cpp:410] inception_3a/output_inception_3a/output_0_split <- inception_3a/output
I0703 17:47:31.428024 17041 net.cpp:368] inception_3a/output_inception_3a/output_0_split -> inception_3a/output_inception_3a/output_0_split_0
I0703 17:47:31.428030 17041 net.cpp:368] inception_3a/output_inception_3a/output_0_split -> inception_3a/output_inception_3a/output_0_split_1
I0703 17:47:31.428037 17041 net.cpp:368] inception_3a/output_inception_3a/output_0_split -> inception_3a/output_inception_3a/output_0_split_2
I0703 17:47:31.428045 17041 net.cpp:368] inception_3a/output_inception_3a/output_0_split -> inception_3a/output_inception_3a/output_0_split_3
I0703 17:47:31.428050 17041 net.cpp:120] Setting up inception_3a/output_inception_3a/output_0_split
I0703 17:47:31.428056 17041 net.cpp:127] Top shape: 30 256 28 28 (6021120)
I0703 17:47:31.428062 17041 net.cpp:127] Top shape: 30 256 28 28 (6021120)
I0703 17:47:31.428067 17041 net.cpp:127] Top shape: 30 256 28 28 (6021120)
I0703 17:47:31.428072 17041 net.cpp:127] Top shape: 30 256 28 28 (6021120)
I0703 17:47:31.428077 17041 layer_factory.hpp:74] Creating layer inception_3b/1x1
I0703 17:47:31.428084 17041 net.cpp:90] Creating Layer inception_3b/1x1
I0703 17:47:31.428089 17041 net.cpp:410] inception_3b/1x1 <- inception_3a/output_inception_3a/output_0_split_0
I0703 17:47:31.428097 17041 net.cpp:368] inception_3b/1x1 -> inception_3b/1x1
I0703 17:47:31.428103 17041 net.cpp:120] Setting up inception_3b/1x1
I0703 17:47:31.428478 17041 net.cpp:127] Top shape: 30 128 28 28 (3010560)
I0703 17:47:31.428500 17041 layer_factory.hpp:74] Creating layer inception_3b/relu_1x1
I0703 17:47:31.428508 17041 net.cpp:90] Creating Layer inception_3b/relu_1x1
I0703 17:47:31.428514 17041 net.cpp:410] inception_3b/relu_1x1 <- inception_3b/1x1
I0703 17:47:31.428520 17041 net.cpp:357] inception_3b/relu_1x1 -> inception_3b/1x1 (in-place)
I0703 17:47:31.428527 17041 net.cpp:120] Setting up inception_3b/relu_1x1
I0703 17:47:31.428577 17041 net.cpp:127] Top shape: 30 128 28 28 (3010560)
I0703 17:47:31.428585 17041 layer_factory.hpp:74] Creating layer inception_3b/3x3_reduce
I0703 17:47:31.428601 17041 net.cpp:90] Creating Layer inception_3b/3x3_reduce
I0703 17:47:31.428606 17041 net.cpp:410] inception_3b/3x3_reduce <- inception_3a/output_inception_3a/output_0_split_1
I0703 17:47:31.428613 17041 net.cpp:368] inception_3b/3x3_reduce -> inception_3b/3x3_reduce
I0703 17:47:31.428622 17041 net.cpp:120] Setting up inception_3b/3x3_reduce
I0703 17:47:31.428992 17041 net.cpp:127] Top shape: 30 128 28 28 (3010560)
I0703 17:47:31.429013 17041 layer_factory.hpp:74] Creating layer inception_3b/relu_3x3_reduce
I0703 17:47:31.429020 17041 net.cpp:90] Creating Layer inception_3b/relu_3x3_reduce
I0703 17:47:31.429026 17041 net.cpp:410] inception_3b/relu_3x3_reduce <- inception_3b/3x3_reduce
I0703 17:47:31.429033 17041 net.cpp:357] inception_3b/relu_3x3_reduce -> inception_3b/3x3_reduce (in-place)
I0703 17:47:31.429047 17041 net.cpp:120] Setting up inception_3b/relu_3x3_reduce
I0703 17:47:31.429167 17041 net.cpp:127] Top shape: 30 128 28 28 (3010560)
I0703 17:47:31.429177 17041 layer_factory.hpp:74] Creating layer inception_3b/3x3
I0703 17:47:31.429196 17041 net.cpp:90] Creating Layer inception_3b/3x3
I0703 17:47:31.429203 17041 net.cpp:410] inception_3b/3x3 <- inception_3b/3x3_reduce
I0703 17:47:31.429209 17041 net.cpp:368] inception_3b/3x3 -> inception_3b/3x3
I0703 17:47:31.429218 17041 net.cpp:120] Setting up inception_3b/3x3
I0703 17:47:31.430549 17041 net.cpp:127] Top shape: 30 192 28 28 (4515840)
I0703 17:47:31.430572 17041 layer_factory.hpp:74] Creating layer inception_3b/relu_3x3
I0703 17:47:31.430579 17041 net.cpp:90] Creating Layer inception_3b/relu_3x3
I0703 17:47:31.430585 17041 net.cpp:410] inception_3b/relu_3x3 <- inception_3b/3x3
I0703 17:47:31.430591 17041 net.cpp:357] inception_3b/relu_3x3 -> inception_3b/3x3 (in-place)
I0703 17:47:31.430598 17041 net.cpp:120] Setting up inception_3b/relu_3x3
I0703 17:47:31.430650 17041 net.cpp:127] Top shape: 30 192 28 28 (4515840)
I0703 17:47:31.430667 17041 layer_factory.hpp:74] Creating layer inception_3b/5x5_reduce
I0703 17:47:31.430676 17041 net.cpp:90] Creating Layer inception_3b/5x5_reduce
I0703 17:47:31.430681 17041 net.cpp:410] inception_3b/5x5_reduce <- inception_3a/output_inception_3a/output_0_split_2
I0703 17:47:31.430688 17041 net.cpp:368] inception_3b/5x5_reduce -> inception_3b/5x5_reduce
I0703 17:47:31.430696 17041 net.cpp:120] Setting up inception_3b/5x5_reduce
I0703 17:47:31.430939 17041 net.cpp:127] Top shape: 30 32 28 28 (752640)
I0703 17:47:31.430961 17041 layer_factory.hpp:74] Creating layer inception_3b/relu_5x5_reduce
I0703 17:47:31.430968 17041 net.cpp:90] Creating Layer inception_3b/relu_5x5_reduce
I0703 17:47:31.430974 17041 net.cpp:410] inception_3b/relu_5x5_reduce <- inception_3b/5x5_reduce
I0703 17:47:31.430980 17041 net.cpp:357] inception_3b/relu_5x5_reduce -> inception_3b/5x5_reduce (in-place)
I0703 17:47:31.430986 17041 net.cpp:120] Setting up inception_3b/relu_5x5_reduce
I0703 17:47:31.431026 17041 net.cpp:127] Top shape: 30 32 28 28 (752640)
I0703 17:47:31.431035 17041 layer_factory.hpp:74] Creating layer inception_3b/5x5
I0703 17:47:31.431041 17041 net.cpp:90] Creating Layer inception_3b/5x5
I0703 17:47:31.431046 17041 net.cpp:410] inception_3b/5x5 <- inception_3b/5x5_reduce
I0703 17:47:31.431054 17041 net.cpp:368] inception_3b/5x5 -> inception_3b/5x5
I0703 17:47:31.431063 17041 net.cpp:120] Setting up inception_3b/5x5
I0703 17:47:31.431654 17041 net.cpp:127] Top shape: 30 96 28 28 (2257920)
I0703 17:47:31.431677 17041 layer_factory.hpp:74] Creating layer inception_3b/relu_5x5
I0703 17:47:31.431684 17041 net.cpp:90] Creating Layer inception_3b/relu_5x5
I0703 17:47:31.431689 17041 net.cpp:410] inception_3b/relu_5x5 <- inception_3b/5x5
I0703 17:47:31.431695 17041 net.cpp:357] inception_3b/relu_5x5 -> inception_3b/5x5 (in-place)
I0703 17:47:31.431701 17041 net.cpp:120] Setting up inception_3b/relu_5x5
I0703 17:47:31.431751 17041 net.cpp:127] Top shape: 30 96 28 28 (2257920)
I0703 17:47:31.431758 17041 layer_factory.hpp:74] Creating layer inception_3b/pool
I0703 17:47:31.431773 17041 layer_factory.cpp:55] CUDNN does not support padding or multiple tops. Using Caffe's own pooling layer.
I0703 17:47:31.431779 17041 net.cpp:90] Creating Layer inception_3b/pool
I0703 17:47:31.431784 17041 net.cpp:410] inception_3b/pool <- inception_3a/output_inception_3a/output_0_split_3
I0703 17:47:31.431790 17041 net.cpp:368] inception_3b/pool -> inception_3b/pool
I0703 17:47:31.431797 17041 net.cpp:120] Setting up inception_3b/pool
I0703 17:47:31.431803 17041 net.cpp:127] Top shape: 30 256 28 28 (6021120)
I0703 17:47:31.431808 17041 layer_factory.hpp:74] Creating layer inception_3b/pool_proj
I0703 17:47:31.431818 17041 net.cpp:90] Creating Layer inception_3b/pool_proj
I0703 17:47:31.431823 17041 net.cpp:410] inception_3b/pool_proj <- inception_3b/pool
I0703 17:47:31.431830 17041 net.cpp:368] inception_3b/pool_proj -> inception_3b/pool_proj
I0703 17:47:31.431846 17041 net.cpp:120] Setting up inception_3b/pool_proj
I0703 17:47:31.432135 17041 net.cpp:127] Top shape: 30 64 28 28 (1505280)
I0703 17:47:31.432157 17041 layer_factory.hpp:74] Creating layer inception_3b/relu_pool_proj
I0703 17:47:31.432164 17041 net.cpp:90] Creating Layer inception_3b/relu_pool_proj
I0703 17:47:31.432169 17041 net.cpp:410] inception_3b/relu_pool_proj <- inception_3b/pool_proj
I0703 17:47:31.432175 17041 net.cpp:357] inception_3b/relu_pool_proj -> inception_3b/pool_proj (in-place)
I0703 17:47:31.432183 17041 net.cpp:120] Setting up inception_3b/relu_pool_proj
I0703 17:47:31.432299 17041 net.cpp:127] Top shape: 30 64 28 28 (1505280)
I0703 17:47:31.432318 17041 layer_factory.hpp:74] Creating layer inception_3b/output
I0703 17:47:31.432327 17041 net.cpp:90] Creating Layer inception_3b/output
I0703 17:47:31.432332 17041 net.cpp:410] inception_3b/output <- inception_3b/1x1
I0703 17:47:31.432337 17041 net.cpp:410] inception_3b/output <- inception_3b/3x3
I0703 17:47:31.432343 17041 net.cpp:410] inception_3b/output <- inception_3b/5x5
I0703 17:47:31.432348 17041 net.cpp:410] inception_3b/output <- inception_3b/pool_proj
I0703 17:47:31.432353 17041 net.cpp:368] inception_3b/output -> inception_3b/output
I0703 17:47:31.432360 17041 net.cpp:120] Setting up inception_3b/output
I0703 17:47:31.432368 17041 net.cpp:127] Top shape: 30 480 28 28 (11289600)
I0703 17:47:31.432373 17041 layer_factory.hpp:74] Creating layer pool3/3x3_s2
I0703 17:47:31.432380 17041 net.cpp:90] Creating Layer pool3/3x3_s2
I0703 17:47:31.432385 17041 net.cpp:410] pool3/3x3_s2 <- inception_3b/output
I0703 17:47:31.432391 17041 net.cpp:368] pool3/3x3_s2 -> pool3/3x3_s2
I0703 17:47:31.432397 17041 net.cpp:120] Setting up pool3/3x3_s2
I0703 17:47:31.432448 17041 net.cpp:127] Top shape: 30 480 14 14 (2822400)
I0703 17:47:31.432466 17041 layer_factory.hpp:74] Creating layer pool3/3x3_s2_pool3/3x3_s2_0_split
I0703 17:47:31.432472 17041 net.cpp:90] Creating Layer pool3/3x3_s2_pool3/3x3_s2_0_split
I0703 17:47:31.432477 17041 net.cpp:410] pool3/3x3_s2_pool3/3x3_s2_0_split <- pool3/3x3_s2
I0703 17:47:31.432483 17041 net.cpp:368] pool3/3x3_s2_pool3/3x3_s2_0_split -> pool3/3x3_s2_pool3/3x3_s2_0_split_0
I0703 17:47:31.432490 17041 net.cpp:368] pool3/3x3_s2_pool3/3x3_s2_0_split -> pool3/3x3_s2_pool3/3x3_s2_0_split_1
I0703 17:47:31.432497 17041 net.cpp:368] pool3/3x3_s2_pool3/3x3_s2_0_split -> pool3/3x3_s2_pool3/3x3_s2_0_split_2
I0703 17:47:31.432503 17041 net.cpp:368] pool3/3x3_s2_pool3/3x3_s2_0_split -> pool3/3x3_s2_pool3/3x3_s2_0_split_3
I0703 17:47:31.432509 17041 net.cpp:120] Setting up pool3/3x3_s2_pool3/3x3_s2_0_split
I0703 17:47:31.432517 17041 net.cpp:127] Top shape: 30 480 14 14 (2822400)
I0703 17:47:31.432521 17041 net.cpp:127] Top shape: 30 480 14 14 (2822400)
I0703 17:47:31.432526 17041 net.cpp:127] Top shape: 30 480 14 14 (2822400)
I0703 17:47:31.432530 17041 net.cpp:127] Top shape: 30 480 14 14 (2822400)
I0703 17:47:31.432535 17041 layer_factory.hpp:74] Creating layer inception_4a/1x1
I0703 17:47:31.432543 17041 net.cpp:90] Creating Layer inception_4a/1x1
I0703 17:47:31.432548 17041 net.cpp:410] inception_4a/1x1 <- pool3/3x3_s2_pool3/3x3_s2_0_split_0
I0703 17:47:31.432554 17041 net.cpp:368] inception_4a/1x1 -> inception_4a/1x1
I0703 17:47:31.432561 17041 net.cpp:120] Setting up inception_4a/1x1
I0703 17:47:31.433213 17041 net.cpp:127] Top shape: 30 192 14 14 (1128960)
I0703 17:47:31.433236 17041 layer_factory.hpp:74] Creating layer inception_4a/relu_1x1
I0703 17:47:31.433243 17041 net.cpp:90] Creating Layer inception_4a/relu_1x1
I0703 17:47:31.433249 17041 net.cpp:410] inception_4a/relu_1x1 <- inception_4a/1x1
I0703 17:47:31.433255 17041 net.cpp:357] inception_4a/relu_1x1 -> inception_4a/1x1 (in-place)
I0703 17:47:31.433262 17041 net.cpp:120] Setting up inception_4a/relu_1x1
I0703 17:47:31.433313 17041 net.cpp:127] Top shape: 30 192 14 14 (1128960)
I0703 17:47:31.433320 17041 layer_factory.hpp:74] Creating layer inception_4a/3x3_reduce
I0703 17:47:31.433337 17041 net.cpp:90] Creating Layer inception_4a/3x3_reduce
I0703 17:47:31.433342 17041 net.cpp:410] inception_4a/3x3_reduce <- pool3/3x3_s2_pool3/3x3_s2_0_split_1
I0703 17:47:31.433357 17041 net.cpp:368] inception_4a/3x3_reduce -> inception_4a/3x3_reduce
I0703 17:47:31.433365 17041 net.cpp:120] Setting up inception_4a/3x3_reduce
I0703 17:47:31.433794 17041 net.cpp:127] Top shape: 30 96 14 14 (564480)
I0703 17:47:31.433817 17041 layer_factory.hpp:74] Creating layer inception_4a/relu_3x3_reduce
I0703 17:47:31.433825 17041 net.cpp:90] Creating Layer inception_4a/relu_3x3_reduce
I0703 17:47:31.433831 17041 net.cpp:410] inception_4a/relu_3x3_reduce <- inception_4a/3x3_reduce
I0703 17:47:31.433837 17041 net.cpp:357] inception_4a/relu_3x3_reduce -> inception_4a/3x3_reduce (in-place)
I0703 17:47:31.433843 17041 net.cpp:120] Setting up inception_4a/relu_3x3_reduce
I0703 17:47:31.433893 17041 net.cpp:127] Top shape: 30 96 14 14 (564480)
I0703 17:47:31.433899 17041 layer_factory.hpp:74] Creating layer inception_4a/3x3
I0703 17:47:31.433917 17041 net.cpp:90] Creating Layer inception_4a/3x3
I0703 17:47:31.433923 17041 net.cpp:410] inception_4a/3x3 <- inception_4a/3x3_reduce
I0703 17:47:31.433929 17041 net.cpp:368] inception_4a/3x3 -> inception_4a/3x3
I0703 17:47:31.433936 17041 net.cpp:120] Setting up inception_4a/3x3
I0703 17:47:31.435031 17041 net.cpp:127] Top shape: 30 208 14 14 (1223040)
I0703 17:47:31.435044 17041 layer_factory.hpp:74] Creating layer inception_4a/relu_3x3
I0703 17:47:31.435050 17041 net.cpp:90] Creating Layer inception_4a/relu_3x3
I0703 17:47:31.435055 17041 net.cpp:410] inception_4a/relu_3x3 <- inception_4a/3x3
I0703 17:47:31.435061 17041 net.cpp:357] inception_4a/relu_3x3 -> inception_4a/3x3 (in-place)
I0703 17:47:31.435067 17041 net.cpp:120] Setting up inception_4a/relu_3x3
I0703 17:47:31.435173 17041 net.cpp:127] Top shape: 30 208 14 14 (1223040)
I0703 17:47:31.435183 17041 layer_factory.hpp:74] Creating layer inception_4a/5x5_reduce
I0703 17:47:31.435190 17041 net.cpp:90] Creating Layer inception_4a/5x5_reduce
I0703 17:47:31.435196 17041 net.cpp:410] inception_4a/5x5_reduce <- pool3/3x3_s2_pool3/3x3_s2_0_split_2
I0703 17:47:31.435204 17041 net.cpp:368] inception_4a/5x5_reduce -> inception_4a/5x5_reduce
I0703 17:47:31.435211 17041 net.cpp:120] Setting up inception_4a/5x5_reduce
I0703 17:47:31.435451 17041 net.cpp:127] Top shape: 30 16 14 14 (94080)
I0703 17:47:31.435463 17041 layer_factory.hpp:74] Creating layer inception_4a/relu_5x5_reduce
I0703 17:47:31.435470 17041 net.cpp:90] Creating Layer inception_4a/relu_5x5_reduce
I0703 17:47:31.435477 17041 net.cpp:410] inception_4a/relu_5x5_reduce <- inception_4a/5x5_reduce
I0703 17:47:31.435482 17041 net.cpp:357] inception_4a/relu_5x5_reduce -> inception_4a/5x5_reduce (in-place)
I0703 17:47:31.435488 17041 net.cpp:120] Setting up inception_4a/relu_5x5_reduce
I0703 17:47:31.435529 17041 net.cpp:127] Top shape: 30 16 14 14 (94080)
I0703 17:47:31.435538 17041 layer_factory.hpp:74] Creating layer inception_4a/5x5
I0703 17:47:31.435544 17041 net.cpp:90] Creating Layer inception_4a/5x5
I0703 17:47:31.435550 17041 net.cpp:410] inception_4a/5x5 <- inception_4a/5x5_reduce
I0703 17:47:31.435555 17041 net.cpp:368] inception_4a/5x5 -> inception_4a/5x5
I0703 17:47:31.435562 17041 net.cpp:120] Setting up inception_4a/5x5
I0703 17:47:31.435848 17041 net.cpp:127] Top shape: 30 48 14 14 (282240)
I0703 17:47:31.435860 17041 layer_factory.hpp:74] Creating layer inception_4a/relu_5x5
I0703 17:47:31.435868 17041 net.cpp:90] Creating Layer inception_4a/relu_5x5
I0703 17:47:31.435873 17041 net.cpp:410] inception_4a/relu_5x5 <- inception_4a/5x5
I0703 17:47:31.435879 17041 net.cpp:357] inception_4a/relu_5x5 -> inception_4a/5x5 (in-place)
I0703 17:47:31.435885 17041 net.cpp:120] Setting up inception_4a/relu_5x5
I0703 17:47:31.435925 17041 net.cpp:127] Top shape: 30 48 14 14 (282240)
I0703 17:47:31.435931 17041 layer_factory.hpp:74] Creating layer inception_4a/pool
I0703 17:47:31.435936 17041 layer_factory.cpp:55] CUDNN does not support padding or multiple tops. Using Caffe's own pooling layer.
I0703 17:47:31.435942 17041 net.cpp:90] Creating Layer inception_4a/pool
I0703 17:47:31.435955 17041 net.cpp:410] inception_4a/pool <- pool3/3x3_s2_pool3/3x3_s2_0_split_3
I0703 17:47:31.435961 17041 net.cpp:368] inception_4a/pool -> inception_4a/pool
I0703 17:47:31.435968 17041 net.cpp:120] Setting up inception_4a/pool
I0703 17:47:31.435976 17041 net.cpp:127] Top shape: 30 480 14 14 (2822400)
I0703 17:47:31.435981 17041 layer_factory.hpp:74] Creating layer inception_4a/pool_proj
I0703 17:47:31.435988 17041 net.cpp:90] Creating Layer inception_4a/pool_proj
I0703 17:47:31.435993 17041 net.cpp:410] inception_4a/pool_proj <- inception_4a/pool
I0703 17:47:31.435999 17041 net.cpp:368] inception_4a/pool_proj -> inception_4a/pool_proj
I0703 17:47:31.436007 17041 net.cpp:120] Setting up inception_4a/pool_proj
I0703 17:47:31.436350 17041 net.cpp:127] Top shape: 30 64 14 14 (376320)
I0703 17:47:31.436362 17041 layer_factory.hpp:74] Creating layer inception_4a/relu_pool_proj
I0703 17:47:31.436370 17041 net.cpp:90] Creating Layer inception_4a/relu_pool_proj
I0703 17:47:31.436375 17041 net.cpp:410] inception_4a/relu_pool_proj <- inception_4a/pool_proj
I0703 17:47:31.436381 17041 net.cpp:357] inception_4a/relu_pool_proj -> inception_4a/pool_proj (in-place)
I0703 17:47:31.436388 17041 net.cpp:120] Setting up inception_4a/relu_pool_proj
I0703 17:47:31.436494 17041 net.cpp:127] Top shape: 30 64 14 14 (376320)
I0703 17:47:31.436504 17041 layer_factory.hpp:74] Creating layer inception_4a/output
I0703 17:47:31.436512 17041 net.cpp:90] Creating Layer inception_4a/output
I0703 17:47:31.436517 17041 net.cpp:410] inception_4a/output <- inception_4a/1x1
I0703 17:47:31.436522 17041 net.cpp:410] inception_4a/output <- inception_4a/3x3
I0703 17:47:31.436528 17041 net.cpp:410] inception_4a/output <- inception_4a/5x5
I0703 17:47:31.436533 17041 net.cpp:410] inception_4a/output <- inception_4a/pool_proj
I0703 17:47:31.436538 17041 net.cpp:368] inception_4a/output -> inception_4a/output
I0703 17:47:31.436545 17041 net.cpp:120] Setting up inception_4a/output
I0703 17:47:31.436552 17041 net.cpp:127] Top shape: 30 512 14 14 (3010560)
I0703 17:47:31.436556 17041 layer_factory.hpp:74] Creating layer inception_4a/output_inception_4a/output_0_split
I0703 17:47:31.436563 17041 net.cpp:90] Creating Layer inception_4a/output_inception_4a/output_0_split
I0703 17:47:31.436568 17041 net.cpp:410] inception_4a/output_inception_4a/output_0_split <- inception_4a/output
I0703 17:47:31.436573 17041 net.cpp:368] inception_4a/output_inception_4a/output_0_split -> inception_4a/output_inception_4a/output_0_split_0
I0703 17:47:31.436580 17041 net.cpp:368] inception_4a/output_inception_4a/output_0_split -> inception_4a/output_inception_4a/output_0_split_1
I0703 17:47:31.436588 17041 net.cpp:368] inception_4a/output_inception_4a/output_0_split -> inception_4a/output_inception_4a/output_0_split_2
I0703 17:47:31.436594 17041 net.cpp:368] inception_4a/output_inception_4a/output_0_split -> inception_4a/output_inception_4a/output_0_split_3
I0703 17:47:31.436600 17041 net.cpp:368] inception_4a/output_inception_4a/output_0_split -> inception_4a/output_inception_4a/output_0_split_4
I0703 17:47:31.436606 17041 net.cpp:120] Setting up inception_4a/output_inception_4a/output_0_split
I0703 17:47:31.436614 17041 net.cpp:127] Top shape: 30 512 14 14 (3010560)
I0703 17:47:31.436619 17041 net.cpp:127] Top shape: 30 512 14 14 (3010560)
I0703 17:47:31.436624 17041 net.cpp:127] Top shape: 30 512 14 14 (3010560)
I0703 17:47:31.436628 17041 net.cpp:127] Top shape: 30 512 14 14 (3010560)
I0703 17:47:31.436633 17041 net.cpp:127] Top shape: 30 512 14 14 (3010560)
I0703 17:47:31.436637 17041 layer_factory.hpp:74] Creating layer loss1/ave_pool
I0703 17:47:31.436643 17041 net.cpp:90] Creating Layer loss1/ave_pool
I0703 17:47:31.436647 17041 net.cpp:410] loss1/ave_pool <- inception_4a/output_inception_4a/output_0_split_0
I0703 17:47:31.436653 17041 net.cpp:368] loss1/ave_pool -> loss1/ave_pool
I0703 17:47:31.436660 17041 net.cpp:120] Setting up loss1/ave_pool
I0703 17:47:31.436700 17041 net.cpp:127] Top shape: 30 512 4 4 (245760)
I0703 17:47:31.436707 17041 layer_factory.hpp:74] Creating layer loss1/conv
I0703 17:47:31.436722 17041 net.cpp:90] Creating Layer loss1/conv
I0703 17:47:31.436727 17041 net.cpp:410] loss1/conv <- loss1/ave_pool
I0703 17:47:31.436733 17041 net.cpp:368] loss1/conv -> loss1/conv
I0703 17:47:31.436740 17041 net.cpp:120] Setting up loss1/conv
I0703 17:47:31.437255 17041 net.cpp:127] Top shape: 30 128 4 4 (61440)
I0703 17:47:31.437268 17041 layer_factory.hpp:74] Creating layer loss1/relu_conv
I0703 17:47:31.437275 17041 net.cpp:90] Creating Layer loss1/relu_conv
I0703 17:47:31.437280 17041 net.cpp:410] loss1/relu_conv <- loss1/conv
I0703 17:47:31.437286 17041 net.cpp:357] loss1/relu_conv -> loss1/conv (in-place)
I0703 17:47:31.437293 17041 net.cpp:120] Setting up loss1/relu_conv
I0703 17:47:31.437332 17041 net.cpp:127] Top shape: 30 128 4 4 (61440)
I0703 17:47:31.437338 17041 layer_factory.hpp:74] Creating layer loss1/fc
I0703 17:47:31.437347 17041 net.cpp:90] Creating Layer loss1/fc
I0703 17:47:31.437353 17041 net.cpp:410] loss1/fc <- loss1/conv
I0703 17:47:31.437361 17041 net.cpp:368] loss1/fc -> loss1/fc
I0703 17:47:31.437368 17041 net.cpp:120] Setting up loss1/fc
I0703 17:47:31.447783 17041 net.cpp:127] Top shape: 30 1024 (30720)
I0703 17:47:31.447809 17041 layer_factory.hpp:74] Creating layer loss1/relu_fc
I0703 17:47:31.447821 17041 net.cpp:90] Creating Layer loss1/relu_fc
I0703 17:47:31.447829 17041 net.cpp:410] loss1/relu_fc <- loss1/fc
I0703 17:47:31.447835 17041 net.cpp:357] loss1/relu_fc -> loss1/fc (in-place)
I0703 17:47:31.447842 17041 net.cpp:120] Setting up loss1/relu_fc
I0703 17:47:31.447918 17041 net.cpp:127] Top shape: 30 1024 (30720)
I0703 17:47:31.447926 17041 layer_factory.hpp:74] Creating layer loss1/drop_fc
I0703 17:47:31.447943 17041 net.cpp:90] Creating Layer loss1/drop_fc
I0703 17:47:31.447949 17041 net.cpp:410] loss1/drop_fc <- loss1/fc
I0703 17:47:31.447955 17041 net.cpp:357] loss1/drop_fc -> loss1/fc (in-place)
I0703 17:47:31.447962 17041 net.cpp:120] Setting up loss1/drop_fc
I0703 17:47:31.447971 17041 net.cpp:127] Top shape: 30 1024 (30720)
I0703 17:47:31.447979 17041 layer_factory.hpp:74] Creating layer stanford_cars_loss1/classifier
I0703 17:47:31.447989 17041 net.cpp:90] Creating Layer stanford_cars_loss1/classifier
I0703 17:47:31.447994 17041 net.cpp:410] stanford_cars_loss1/classifier <- loss1/fc
I0703 17:47:31.448000 17041 net.cpp:368] stanford_cars_loss1/classifier -> stanford_cars_loss1/classifier
I0703 17:47:31.448009 17041 net.cpp:120] Setting up stanford_cars_loss1/classifier
I0703 17:47:31.449038 17041 net.cpp:127] Top shape: 30 196 (5880)
I0703 17:47:31.449048 17041 layer_factory.hpp:74] Creating layer loss1/loss
I0703 17:47:31.449055 17041 net.cpp:90] Creating Layer loss1/loss
I0703 17:47:31.449060 17041 net.cpp:410] loss1/loss <- stanford_cars_loss1/classifier
I0703 17:47:31.449066 17041 net.cpp:410] loss1/loss <- label_data_1_split_0
I0703 17:47:31.449074 17041 net.cpp:368] loss1/loss -> loss1/loss1
I0703 17:47:31.449080 17041 net.cpp:120] Setting up loss1/loss
I0703 17:47:31.449089 17041 layer_factory.hpp:74] Creating layer loss1/loss
I0703 17:47:31.449272 17041 net.cpp:127] Top shape: (1)
I0703 17:47:31.449282 17041 net.cpp:129]     with loss weight 0.3
I0703 17:47:31.449301 17041 layer_factory.hpp:74] Creating layer inception_4b/1x1
I0703 17:47:31.449308 17041 net.cpp:90] Creating Layer inception_4b/1x1
I0703 17:47:31.449313 17041 net.cpp:410] inception_4b/1x1 <- inception_4a/output_inception_4a/output_0_split_1
I0703 17:47:31.449321 17041 net.cpp:368] inception_4b/1x1 -> inception_4b/1x1
I0703 17:47:31.449328 17041 net.cpp:120] Setting up inception_4b/1x1
I0703 17:47:31.449934 17041 net.cpp:127] Top shape: 30 160 14 14 (940800)
I0703 17:47:31.449946 17041 layer_factory.hpp:74] Creating layer inception_4b/relu_1x1
I0703 17:47:31.449954 17041 net.cpp:90] Creating Layer inception_4b/relu_1x1
I0703 17:47:31.449959 17041 net.cpp:410] inception_4b/relu_1x1 <- inception_4b/1x1
I0703 17:47:31.449965 17041 net.cpp:357] inception_4b/relu_1x1 -> inception_4b/1x1 (in-place)
I0703 17:47:31.449970 17041 net.cpp:120] Setting up inception_4b/relu_1x1
I0703 17:47:31.450036 17041 net.cpp:127] Top shape: 30 160 14 14 (940800)
I0703 17:47:31.450044 17041 layer_factory.hpp:74] Creating layer inception_4b/3x3_reduce
I0703 17:47:31.450052 17041 net.cpp:90] Creating Layer inception_4b/3x3_reduce
I0703 17:47:31.450057 17041 net.cpp:410] inception_4b/3x3_reduce <- inception_4a/output_inception_4a/output_0_split_2
I0703 17:47:31.450064 17041 net.cpp:368] inception_4b/3x3_reduce -> inception_4b/3x3_reduce
I0703 17:47:31.450072 17041 net.cpp:120] Setting up inception_4b/3x3_reduce
I0703 17:47:31.450548 17041 net.cpp:127] Top shape: 30 112 14 14 (658560)
I0703 17:47:31.450562 17041 layer_factory.hpp:74] Creating layer inception_4b/relu_3x3_reduce
I0703 17:47:31.450568 17041 net.cpp:90] Creating Layer inception_4b/relu_3x3_reduce
I0703 17:47:31.450573 17041 net.cpp:410] inception_4b/relu_3x3_reduce <- inception_4b/3x3_reduce
I0703 17:47:31.450580 17041 net.cpp:357] inception_4b/relu_3x3_reduce -> inception_4b/3x3_reduce (in-place)
I0703 17:47:31.450587 17041 net.cpp:120] Setting up inception_4b/relu_3x3_reduce
I0703 17:47:31.450626 17041 net.cpp:127] Top shape: 30 112 14 14 (658560)
I0703 17:47:31.450634 17041 layer_factory.hpp:74] Creating layer inception_4b/3x3
I0703 17:47:31.450640 17041 net.cpp:90] Creating Layer inception_4b/3x3
I0703 17:47:31.450645 17041 net.cpp:410] inception_4b/3x3 <- inception_4b/3x3_reduce
I0703 17:47:31.450652 17041 net.cpp:368] inception_4b/3x3 -> inception_4b/3x3
I0703 17:47:31.450659 17041 net.cpp:120] Setting up inception_4b/3x3
I0703 17:47:31.451956 17041 net.cpp:127] Top shape: 30 224 14 14 (1317120)
I0703 17:47:31.451968 17041 layer_factory.hpp:74] Creating layer inception_4b/relu_3x3
I0703 17:47:31.451977 17041 net.cpp:90] Creating Layer inception_4b/relu_3x3
I0703 17:47:31.451982 17041 net.cpp:410] inception_4b/relu_3x3 <- inception_4b/3x3
I0703 17:47:31.451988 17041 net.cpp:357] inception_4b/relu_3x3 -> inception_4b/3x3 (in-place)
I0703 17:47:31.451995 17041 net.cpp:120] Setting up inception_4b/relu_3x3
I0703 17:47:31.452036 17041 net.cpp:127] Top shape: 30 224 14 14 (1317120)
I0703 17:47:31.452042 17041 layer_factory.hpp:74] Creating layer inception_4b/5x5_reduce
I0703 17:47:31.452050 17041 net.cpp:90] Creating Layer inception_4b/5x5_reduce
I0703 17:47:31.452056 17041 net.cpp:410] inception_4b/5x5_reduce <- inception_4a/output_inception_4a/output_0_split_3
I0703 17:47:31.452064 17041 net.cpp:368] inception_4b/5x5_reduce -> inception_4b/5x5_reduce
I0703 17:47:31.452070 17041 net.cpp:120] Setting up inception_4b/5x5_reduce
I0703 17:47:31.452335 17041 net.cpp:127] Top shape: 30 24 14 14 (141120)
I0703 17:47:31.452347 17041 layer_factory.hpp:74] Creating layer inception_4b/relu_5x5_reduce
I0703 17:47:31.452355 17041 net.cpp:90] Creating Layer inception_4b/relu_5x5_reduce
I0703 17:47:31.452361 17041 net.cpp:410] inception_4b/relu_5x5_reduce <- inception_4b/5x5_reduce
I0703 17:47:31.452368 17041 net.cpp:357] inception_4b/relu_5x5_reduce -> inception_4b/5x5_reduce (in-place)
I0703 17:47:31.452373 17041 net.cpp:120] Setting up inception_4b/relu_5x5_reduce
I0703 17:47:31.452483 17041 net.cpp:127] Top shape: 30 24 14 14 (141120)
I0703 17:47:31.452494 17041 layer_factory.hpp:74] Creating layer inception_4b/5x5
I0703 17:47:31.452502 17041 net.cpp:90] Creating Layer inception_4b/5x5
I0703 17:47:31.452507 17041 net.cpp:410] inception_4b/5x5 <- inception_4b/5x5_reduce
I0703 17:47:31.452513 17041 net.cpp:368] inception_4b/5x5 -> inception_4b/5x5
I0703 17:47:31.452520 17041 net.cpp:120] Setting up inception_4b/5x5
I0703 17:47:31.452908 17041 net.cpp:127] Top shape: 30 64 14 14 (376320)
I0703 17:47:31.452919 17041 layer_factory.hpp:74] Creating layer inception_4b/relu_5x5
I0703 17:47:31.452926 17041 net.cpp:90] Creating Layer inception_4b/relu_5x5
I0703 17:47:31.452931 17041 net.cpp:410] inception_4b/relu_5x5 <- inception_4b/5x5
I0703 17:47:31.452936 17041 net.cpp:357] inception_4b/relu_5x5 -> inception_4b/5x5 (in-place)
I0703 17:47:31.452942 17041 net.cpp:120] Setting up inception_4b/relu_5x5
I0703 17:47:31.452982 17041 net.cpp:127] Top shape: 30 64 14 14 (376320)
I0703 17:47:31.452996 17041 layer_factory.hpp:74] Creating layer inception_4b/pool
I0703 17:47:31.453003 17041 layer_factory.cpp:55] CUDNN does not support padding or multiple tops. Using Caffe's own pooling layer.
I0703 17:47:31.453009 17041 net.cpp:90] Creating Layer inception_4b/pool
I0703 17:47:31.453014 17041 net.cpp:410] inception_4b/pool <- inception_4a/output_inception_4a/output_0_split_4
I0703 17:47:31.453022 17041 net.cpp:368] inception_4b/pool -> inception_4b/pool
I0703 17:47:31.453033 17041 net.cpp:120] Setting up inception_4b/pool
I0703 17:47:31.453042 17041 net.cpp:127] Top shape: 30 512 14 14 (3010560)
I0703 17:47:31.453047 17041 layer_factory.hpp:74] Creating layer inception_4b/pool_proj
I0703 17:47:31.453054 17041 net.cpp:90] Creating Layer inception_4b/pool_proj
I0703 17:47:31.453058 17041 net.cpp:410] inception_4b/pool_proj <- inception_4b/pool
I0703 17:47:31.453065 17041 net.cpp:368] inception_4b/pool_proj -> inception_4b/pool_proj
I0703 17:47:31.453073 17041 net.cpp:120] Setting up inception_4b/pool_proj
I0703 17:47:31.453429 17041 net.cpp:127] Top shape: 30 64 14 14 (376320)
I0703 17:47:31.453443 17041 layer_factory.hpp:74] Creating layer inception_4b/relu_pool_proj
I0703 17:47:31.453449 17041 net.cpp:90] Creating Layer inception_4b/relu_pool_proj
I0703 17:47:31.453454 17041 net.cpp:410] inception_4b/relu_pool_proj <- inception_4b/pool_proj
I0703 17:47:31.453460 17041 net.cpp:357] inception_4b/relu_pool_proj -> inception_4b/pool_proj (in-place)
I0703 17:47:31.453466 17041 net.cpp:120] Setting up inception_4b/relu_pool_proj
I0703 17:47:31.453506 17041 net.cpp:127] Top shape: 30 64 14 14 (376320)
I0703 17:47:31.453513 17041 layer_factory.hpp:74] Creating layer inception_4b/output
I0703 17:47:31.453521 17041 net.cpp:90] Creating Layer inception_4b/output
I0703 17:47:31.453526 17041 net.cpp:410] inception_4b/output <- inception_4b/1x1
I0703 17:47:31.453531 17041 net.cpp:410] inception_4b/output <- inception_4b/3x3
I0703 17:47:31.453536 17041 net.cpp:410] inception_4b/output <- inception_4b/5x5
I0703 17:47:31.453541 17041 net.cpp:410] inception_4b/output <- inception_4b/pool_proj
I0703 17:47:31.453547 17041 net.cpp:368] inception_4b/output -> inception_4b/output
I0703 17:47:31.453553 17041 net.cpp:120] Setting up inception_4b/output
I0703 17:47:31.453560 17041 net.cpp:127] Top shape: 30 512 14 14 (3010560)
I0703 17:47:31.453565 17041 layer_factory.hpp:74] Creating layer inception_4b/output_inception_4b/output_0_split
I0703 17:47:31.453572 17041 net.cpp:90] Creating Layer inception_4b/output_inception_4b/output_0_split
I0703 17:47:31.453577 17041 net.cpp:410] inception_4b/output_inception_4b/output_0_split <- inception_4b/output
I0703 17:47:31.453583 17041 net.cpp:368] inception_4b/output_inception_4b/output_0_split -> inception_4b/output_inception_4b/output_0_split_0
I0703 17:47:31.453589 17041 net.cpp:368] inception_4b/output_inception_4b/output_0_split -> inception_4b/output_inception_4b/output_0_split_1
I0703 17:47:31.453596 17041 net.cpp:368] inception_4b/output_inception_4b/output_0_split -> inception_4b/output_inception_4b/output_0_split_2
I0703 17:47:31.453603 17041 net.cpp:368] inception_4b/output_inception_4b/output_0_split -> inception_4b/output_inception_4b/output_0_split_3
I0703 17:47:31.453609 17041 net.cpp:120] Setting up inception_4b/output_inception_4b/output_0_split
I0703 17:47:31.453616 17041 net.cpp:127] Top shape: 30 512 14 14 (3010560)
I0703 17:47:31.453621 17041 net.cpp:127] Top shape: 30 512 14 14 (3010560)
I0703 17:47:31.453626 17041 net.cpp:127] Top shape: 30 512 14 14 (3010560)
I0703 17:47:31.453631 17041 net.cpp:127] Top shape: 30 512 14 14 (3010560)
I0703 17:47:31.453635 17041 layer_factory.hpp:74] Creating layer inception_4c/1x1
I0703 17:47:31.453642 17041 net.cpp:90] Creating Layer inception_4c/1x1
I0703 17:47:31.453647 17041 net.cpp:410] inception_4c/1x1 <- inception_4b/output_inception_4b/output_0_split_0
I0703 17:47:31.453654 17041 net.cpp:368] inception_4c/1x1 -> inception_4c/1x1
I0703 17:47:31.453660 17041 net.cpp:120] Setting up inception_4c/1x1
I0703 17:47:31.454187 17041 net.cpp:127] Top shape: 30 128 14 14 (752640)
I0703 17:47:31.454200 17041 layer_factory.hpp:74] Creating layer inception_4c/relu_1x1
I0703 17:47:31.454206 17041 net.cpp:90] Creating Layer inception_4c/relu_1x1
I0703 17:47:31.454213 17041 net.cpp:410] inception_4c/relu_1x1 <- inception_4c/1x1
I0703 17:47:31.454218 17041 net.cpp:357] inception_4c/relu_1x1 -> inception_4c/1x1 (in-place)
I0703 17:47:31.454226 17041 net.cpp:120] Setting up inception_4c/relu_1x1
I0703 17:47:31.454264 17041 net.cpp:127] Top shape: 30 128 14 14 (752640)
I0703 17:47:31.454272 17041 layer_factory.hpp:74] Creating layer inception_4c/3x3_reduce
I0703 17:47:31.454278 17041 net.cpp:90] Creating Layer inception_4c/3x3_reduce
I0703 17:47:31.454283 17041 net.cpp:410] inception_4c/3x3_reduce <- inception_4b/output_inception_4b/output_0_split_1
I0703 17:47:31.454289 17041 net.cpp:368] inception_4c/3x3_reduce -> inception_4c/3x3_reduce
I0703 17:47:31.454296 17041 net.cpp:120] Setting up inception_4c/3x3_reduce
I0703 17:47:31.454809 17041 net.cpp:127] Top shape: 30 128 14 14 (752640)
I0703 17:47:31.454823 17041 layer_factory.hpp:74] Creating layer inception_4c/relu_3x3_reduce
I0703 17:47:31.454830 17041 net.cpp:90] Creating Layer inception_4c/relu_3x3_reduce
I0703 17:47:31.454835 17041 net.cpp:410] inception_4c/relu_3x3_reduce <- inception_4c/3x3_reduce
I0703 17:47:31.454841 17041 net.cpp:357] inception_4c/relu_3x3_reduce -> inception_4c/3x3_reduce (in-place)
I0703 17:47:31.454848 17041 net.cpp:120] Setting up inception_4c/relu_3x3_reduce
I0703 17:47:31.454984 17041 net.cpp:127] Top shape: 30 128 14 14 (752640)
I0703 17:47:31.454994 17041 layer_factory.hpp:74] Creating layer inception_4c/3x3
I0703 17:47:31.455001 17041 net.cpp:90] Creating Layer inception_4c/3x3
I0703 17:47:31.455006 17041 net.cpp:410] inception_4c/3x3 <- inception_4c/3x3_reduce
I0703 17:47:31.455014 17041 net.cpp:368] inception_4c/3x3 -> inception_4c/3x3
I0703 17:47:31.455021 17041 net.cpp:120] Setting up inception_4c/3x3
I0703 17:47:31.456650 17041 net.cpp:127] Top shape: 30 256 14 14 (1505280)
I0703 17:47:31.456670 17041 layer_factory.hpp:74] Creating layer inception_4c/relu_3x3
I0703 17:47:31.456677 17041 net.cpp:90] Creating Layer inception_4c/relu_3x3
I0703 17:47:31.456682 17041 net.cpp:410] inception_4c/relu_3x3 <- inception_4c/3x3
I0703 17:47:31.456688 17041 net.cpp:357] inception_4c/relu_3x3 -> inception_4c/3x3 (in-place)
I0703 17:47:31.456696 17041 net.cpp:120] Setting up inception_4c/relu_3x3
I0703 17:47:31.456737 17041 net.cpp:127] Top shape: 30 256 14 14 (1505280)
I0703 17:47:31.456744 17041 layer_factory.hpp:74] Creating layer inception_4c/5x5_reduce
I0703 17:47:31.456753 17041 net.cpp:90] Creating Layer inception_4c/5x5_reduce
I0703 17:47:31.456758 17041 net.cpp:410] inception_4c/5x5_reduce <- inception_4b/output_inception_4b/output_0_split_2
I0703 17:47:31.456763 17041 net.cpp:368] inception_4c/5x5_reduce -> inception_4c/5x5_reduce
I0703 17:47:31.456770 17041 net.cpp:120] Setting up inception_4c/5x5_reduce
I0703 17:47:31.457026 17041 net.cpp:127] Top shape: 30 24 14 14 (141120)
I0703 17:47:31.457038 17041 layer_factory.hpp:74] Creating layer inception_4c/relu_5x5_reduce
I0703 17:47:31.457046 17041 net.cpp:90] Creating Layer inception_4c/relu_5x5_reduce
I0703 17:47:31.457051 17041 net.cpp:410] inception_4c/relu_5x5_reduce <- inception_4c/5x5_reduce
I0703 17:47:31.457057 17041 net.cpp:357] inception_4c/relu_5x5_reduce -> inception_4c/5x5_reduce (in-place)
I0703 17:47:31.457064 17041 net.cpp:120] Setting up inception_4c/relu_5x5_reduce
I0703 17:47:31.457103 17041 net.cpp:127] Top shape: 30 24 14 14 (141120)
I0703 17:47:31.457111 17041 layer_factory.hpp:74] Creating layer inception_4c/5x5
I0703 17:47:31.457119 17041 net.cpp:90] Creating Layer inception_4c/5x5
I0703 17:47:31.457124 17041 net.cpp:410] inception_4c/5x5 <- inception_4c/5x5_reduce
I0703 17:47:31.457130 17041 net.cpp:368] inception_4c/5x5 -> inception_4c/5x5
I0703 17:47:31.457137 17041 net.cpp:120] Setting up inception_4c/5x5
I0703 17:47:31.457521 17041 net.cpp:127] Top shape: 30 64 14 14 (376320)
I0703 17:47:31.457540 17041 layer_factory.hpp:74] Creating layer inception_4c/relu_5x5
I0703 17:47:31.457547 17041 net.cpp:90] Creating Layer inception_4c/relu_5x5
I0703 17:47:31.457552 17041 net.cpp:410] inception_4c/relu_5x5 <- inception_4c/5x5
I0703 17:47:31.457558 17041 net.cpp:357] inception_4c/relu_5x5 -> inception_4c/5x5 (in-place)
I0703 17:47:31.457566 17041 net.cpp:120] Setting up inception_4c/relu_5x5
I0703 17:47:31.457675 17041 net.cpp:127] Top shape: 30 64 14 14 (376320)
I0703 17:47:31.457685 17041 layer_factory.hpp:74] Creating layer inception_4c/pool
I0703 17:47:31.457690 17041 layer_factory.cpp:55] CUDNN does not support padding or multiple tops. Using Caffe's own pooling layer.
I0703 17:47:31.457697 17041 net.cpp:90] Creating Layer inception_4c/pool
I0703 17:47:31.457702 17041 net.cpp:410] inception_4c/pool <- inception_4b/output_inception_4b/output_0_split_3
I0703 17:47:31.457710 17041 net.cpp:368] inception_4c/pool -> inception_4c/pool
I0703 17:47:31.457715 17041 net.cpp:120] Setting up inception_4c/pool
I0703 17:47:31.457723 17041 net.cpp:127] Top shape: 30 512 14 14 (3010560)
I0703 17:47:31.457727 17041 layer_factory.hpp:74] Creating layer inception_4c/pool_proj
I0703 17:47:31.457734 17041 net.cpp:90] Creating Layer inception_4c/pool_proj
I0703 17:47:31.457741 17041 net.cpp:410] inception_4c/pool_proj <- inception_4c/pool
I0703 17:47:31.457746 17041 net.cpp:368] inception_4c/pool_proj -> inception_4c/pool_proj
I0703 17:47:31.457753 17041 net.cpp:120] Setting up inception_4c/pool_proj
I0703 17:47:31.458113 17041 net.cpp:127] Top shape: 30 64 14 14 (376320)
I0703 17:47:31.458127 17041 layer_factory.hpp:74] Creating layer inception_4c/relu_pool_proj
I0703 17:47:31.458133 17041 net.cpp:90] Creating Layer inception_4c/relu_pool_proj
I0703 17:47:31.458139 17041 net.cpp:410] inception_4c/relu_pool_proj <- inception_4c/pool_proj
I0703 17:47:31.458145 17041 net.cpp:357] inception_4c/relu_pool_proj -> inception_4c/pool_proj (in-place)
I0703 17:47:31.458151 17041 net.cpp:120] Setting up inception_4c/relu_pool_proj
I0703 17:47:31.458192 17041 net.cpp:127] Top shape: 30 64 14 14 (376320)
I0703 17:47:31.458201 17041 layer_factory.hpp:74] Creating layer inception_4c/output
I0703 17:47:31.458209 17041 net.cpp:90] Creating Layer inception_4c/output
I0703 17:47:31.458212 17041 net.cpp:410] inception_4c/output <- inception_4c/1x1
I0703 17:47:31.458219 17041 net.cpp:410] inception_4c/output <- inception_4c/3x3
I0703 17:47:31.458223 17041 net.cpp:410] inception_4c/output <- inception_4c/5x5
I0703 17:47:31.458228 17041 net.cpp:410] inception_4c/output <- inception_4c/pool_proj
I0703 17:47:31.458235 17041 net.cpp:368] inception_4c/output -> inception_4c/output
I0703 17:47:31.458242 17041 net.cpp:120] Setting up inception_4c/output
I0703 17:47:31.458248 17041 net.cpp:127] Top shape: 30 512 14 14 (3010560)
I0703 17:47:31.458253 17041 layer_factory.hpp:74] Creating layer inception_4c/output_inception_4c/output_0_split
I0703 17:47:31.458261 17041 net.cpp:90] Creating Layer inception_4c/output_inception_4c/output_0_split
I0703 17:47:31.458266 17041 net.cpp:410] inception_4c/output_inception_4c/output_0_split <- inception_4c/output
I0703 17:47:31.458271 17041 net.cpp:368] inception_4c/output_inception_4c/output_0_split -> inception_4c/output_inception_4c/output_0_split_0
I0703 17:47:31.458278 17041 net.cpp:368] inception_4c/output_inception_4c/output_0_split -> inception_4c/output_inception_4c/output_0_split_1
I0703 17:47:31.458284 17041 net.cpp:368] inception_4c/output_inception_4c/output_0_split -> inception_4c/output_inception_4c/output_0_split_2
I0703 17:47:31.458292 17041 net.cpp:368] inception_4c/output_inception_4c/output_0_split -> inception_4c/output_inception_4c/output_0_split_3
I0703 17:47:31.458297 17041 net.cpp:120] Setting up inception_4c/output_inception_4c/output_0_split
I0703 17:47:31.458303 17041 net.cpp:127] Top shape: 30 512 14 14 (3010560)
I0703 17:47:31.458309 17041 net.cpp:127] Top shape: 30 512 14 14 (3010560)
I0703 17:47:31.458314 17041 net.cpp:127] Top shape: 30 512 14 14 (3010560)
I0703 17:47:31.458318 17041 net.cpp:127] Top shape: 30 512 14 14 (3010560)
I0703 17:47:31.458329 17041 layer_factory.hpp:74] Creating layer inception_4d/1x1
I0703 17:47:31.458338 17041 net.cpp:90] Creating Layer inception_4d/1x1
I0703 17:47:31.458343 17041 net.cpp:410] inception_4d/1x1 <- inception_4c/output_inception_4c/output_0_split_0
I0703 17:47:31.458349 17041 net.cpp:368] inception_4d/1x1 -> inception_4d/1x1
I0703 17:47:31.458356 17041 net.cpp:120] Setting up inception_4d/1x1
I0703 17:47:31.458922 17041 net.cpp:127] Top shape: 30 112 14 14 (658560)
I0703 17:47:31.458936 17041 layer_factory.hpp:74] Creating layer inception_4d/relu_1x1
I0703 17:47:31.458951 17041 net.cpp:90] Creating Layer inception_4d/relu_1x1
I0703 17:47:31.458957 17041 net.cpp:410] inception_4d/relu_1x1 <- inception_4d/1x1
I0703 17:47:31.458964 17041 net.cpp:357] inception_4d/relu_1x1 -> inception_4d/1x1 (in-place)
I0703 17:47:31.458971 17041 net.cpp:120] Setting up inception_4d/relu_1x1
I0703 17:47:31.459012 17041 net.cpp:127] Top shape: 30 112 14 14 (658560)
I0703 17:47:31.459019 17041 layer_factory.hpp:74] Creating layer inception_4d/3x3_reduce
I0703 17:47:31.459028 17041 net.cpp:90] Creating Layer inception_4d/3x3_reduce
I0703 17:47:31.459033 17041 net.cpp:410] inception_4d/3x3_reduce <- inception_4c/output_inception_4c/output_0_split_1
I0703 17:47:31.459038 17041 net.cpp:368] inception_4d/3x3_reduce -> inception_4d/3x3_reduce
I0703 17:47:31.459045 17041 net.cpp:120] Setting up inception_4d/3x3_reduce
I0703 17:47:31.459611 17041 net.cpp:127] Top shape: 30 144 14 14 (846720)
I0703 17:47:31.459625 17041 layer_factory.hpp:74] Creating layer inception_4d/relu_3x3_reduce
I0703 17:47:31.459632 17041 net.cpp:90] Creating Layer inception_4d/relu_3x3_reduce
I0703 17:47:31.459638 17041 net.cpp:410] inception_4d/relu_3x3_reduce <- inception_4d/3x3_reduce
I0703 17:47:31.459645 17041 net.cpp:357] inception_4d/relu_3x3_reduce -> inception_4d/3x3_reduce (in-place)
I0703 17:47:31.459651 17041 net.cpp:120] Setting up inception_4d/relu_3x3_reduce
I0703 17:47:31.459692 17041 net.cpp:127] Top shape: 30 144 14 14 (846720)
I0703 17:47:31.459698 17041 layer_factory.hpp:74] Creating layer inception_4d/3x3
I0703 17:47:31.459707 17041 net.cpp:90] Creating Layer inception_4d/3x3
I0703 17:47:31.459712 17041 net.cpp:410] inception_4d/3x3 <- inception_4d/3x3_reduce
I0703 17:47:31.459719 17041 net.cpp:368] inception_4d/3x3 -> inception_4d/3x3
I0703 17:47:31.459727 17041 net.cpp:120] Setting up inception_4d/3x3
I0703 17:47:31.461730 17041 net.cpp:127] Top shape: 30 288 14 14 (1693440)
I0703 17:47:31.461745 17041 layer_factory.hpp:74] Creating layer inception_4d/relu_3x3
I0703 17:47:31.461750 17041 net.cpp:90] Creating Layer inception_4d/relu_3x3
I0703 17:47:31.461756 17041 net.cpp:410] inception_4d/relu_3x3 <- inception_4d/3x3
I0703 17:47:31.461762 17041 net.cpp:357] inception_4d/relu_3x3 -> inception_4d/3x3 (in-place)
I0703 17:47:31.461768 17041 net.cpp:120] Setting up inception_4d/relu_3x3
I0703 17:47:31.461879 17041 net.cpp:127] Top shape: 30 288 14 14 (1693440)
I0703 17:47:31.461889 17041 layer_factory.hpp:74] Creating layer inception_4d/5x5_reduce
I0703 17:47:31.461897 17041 net.cpp:90] Creating Layer inception_4d/5x5_reduce
I0703 17:47:31.461904 17041 net.cpp:410] inception_4d/5x5_reduce <- inception_4c/output_inception_4c/output_0_split_2
I0703 17:47:31.461910 17041 net.cpp:368] inception_4d/5x5_reduce -> inception_4d/5x5_reduce
I0703 17:47:31.461917 17041 net.cpp:120] Setting up inception_4d/5x5_reduce
I0703 17:47:31.462194 17041 net.cpp:127] Top shape: 30 32 14 14 (188160)
I0703 17:47:31.462206 17041 layer_factory.hpp:74] Creating layer inception_4d/relu_5x5_reduce
I0703 17:47:31.462214 17041 net.cpp:90] Creating Layer inception_4d/relu_5x5_reduce
I0703 17:47:31.462220 17041 net.cpp:410] inception_4d/relu_5x5_reduce <- inception_4d/5x5_reduce
I0703 17:47:31.462226 17041 net.cpp:357] inception_4d/relu_5x5_reduce -> inception_4d/5x5_reduce (in-place)
I0703 17:47:31.462232 17041 net.cpp:120] Setting up inception_4d/relu_5x5_reduce
I0703 17:47:31.462275 17041 net.cpp:127] Top shape: 30 32 14 14 (188160)
I0703 17:47:31.462290 17041 layer_factory.hpp:74] Creating layer inception_4d/5x5
I0703 17:47:31.462298 17041 net.cpp:90] Creating Layer inception_4d/5x5
I0703 17:47:31.462304 17041 net.cpp:410] inception_4d/5x5 <- inception_4d/5x5_reduce
I0703 17:47:31.462311 17041 net.cpp:368] inception_4d/5x5 -> inception_4d/5x5
I0703 17:47:31.462318 17041 net.cpp:120] Setting up inception_4d/5x5
I0703 17:47:31.462785 17041 net.cpp:127] Top shape: 30 64 14 14 (376320)
I0703 17:47:31.462798 17041 layer_factory.hpp:74] Creating layer inception_4d/relu_5x5
I0703 17:47:31.462806 17041 net.cpp:90] Creating Layer inception_4d/relu_5x5
I0703 17:47:31.462812 17041 net.cpp:410] inception_4d/relu_5x5 <- inception_4d/5x5
I0703 17:47:31.462818 17041 net.cpp:357] inception_4d/relu_5x5 -> inception_4d/5x5 (in-place)
I0703 17:47:31.462824 17041 net.cpp:120] Setting up inception_4d/relu_5x5
I0703 17:47:31.462867 17041 net.cpp:127] Top shape: 30 64 14 14 (376320)
I0703 17:47:31.462873 17041 layer_factory.hpp:74] Creating layer inception_4d/pool
I0703 17:47:31.462878 17041 layer_factory.cpp:55] CUDNN does not support padding or multiple tops. Using Caffe's own pooling layer.
I0703 17:47:31.462884 17041 net.cpp:90] Creating Layer inception_4d/pool
I0703 17:47:31.462889 17041 net.cpp:410] inception_4d/pool <- inception_4c/output_inception_4c/output_0_split_3
I0703 17:47:31.462895 17041 net.cpp:368] inception_4d/pool -> inception_4d/pool
I0703 17:47:31.462903 17041 net.cpp:120] Setting up inception_4d/pool
I0703 17:47:31.462909 17041 net.cpp:127] Top shape: 30 512 14 14 (3010560)
I0703 17:47:31.462914 17041 layer_factory.hpp:74] Creating layer inception_4d/pool_proj
I0703 17:47:31.462921 17041 net.cpp:90] Creating Layer inception_4d/pool_proj
I0703 17:47:31.462926 17041 net.cpp:410] inception_4d/pool_proj <- inception_4d/pool
I0703 17:47:31.462934 17041 net.cpp:368] inception_4d/pool_proj -> inception_4d/pool_proj
I0703 17:47:31.462939 17041 net.cpp:120] Setting up inception_4d/pool_proj
I0703 17:47:31.463299 17041 net.cpp:127] Top shape: 30 64 14 14 (376320)
I0703 17:47:31.463315 17041 layer_factory.hpp:74] Creating layer inception_4d/relu_pool_proj
I0703 17:47:31.463340 17041 net.cpp:90] Creating Layer inception_4d/relu_pool_proj
I0703 17:47:31.463346 17041 net.cpp:410] inception_4d/relu_pool_proj <- inception_4d/pool_proj
I0703 17:47:31.463352 17041 net.cpp:357] inception_4d/relu_pool_proj -> inception_4d/pool_proj (in-place)
I0703 17:47:31.463367 17041 net.cpp:120] Setting up inception_4d/relu_pool_proj
I0703 17:47:31.463407 17041 net.cpp:127] Top shape: 30 64 14 14 (376320)
I0703 17:47:31.463415 17041 layer_factory.hpp:74] Creating layer inception_4d/output
I0703 17:47:31.463421 17041 net.cpp:90] Creating Layer inception_4d/output
I0703 17:47:31.463426 17041 net.cpp:410] inception_4d/output <- inception_4d/1x1
I0703 17:47:31.463433 17041 net.cpp:410] inception_4d/output <- inception_4d/3x3
I0703 17:47:31.463438 17041 net.cpp:410] inception_4d/output <- inception_4d/5x5
I0703 17:47:31.463443 17041 net.cpp:410] inception_4d/output <- inception_4d/pool_proj
I0703 17:47:31.463449 17041 net.cpp:368] inception_4d/output -> inception_4d/output
I0703 17:47:31.463454 17041 net.cpp:120] Setting up inception_4d/output
I0703 17:47:31.463461 17041 net.cpp:127] Top shape: 30 528 14 14 (3104640)
I0703 17:47:31.463465 17041 layer_factory.hpp:74] Creating layer inception_4d/output_inception_4d/output_0_split
I0703 17:47:31.463474 17041 net.cpp:90] Creating Layer inception_4d/output_inception_4d/output_0_split
I0703 17:47:31.463477 17041 net.cpp:410] inception_4d/output_inception_4d/output_0_split <- inception_4d/output
I0703 17:47:31.463484 17041 net.cpp:368] inception_4d/output_inception_4d/output_0_split -> inception_4d/output_inception_4d/output_0_split_0
I0703 17:47:31.463490 17041 net.cpp:368] inception_4d/output_inception_4d/output_0_split -> inception_4d/output_inception_4d/output_0_split_1
I0703 17:47:31.463496 17041 net.cpp:368] inception_4d/output_inception_4d/output_0_split -> inception_4d/output_inception_4d/output_0_split_2
I0703 17:47:31.463511 17041 net.cpp:368] inception_4d/output_inception_4d/output_0_split -> inception_4d/output_inception_4d/output_0_split_3
I0703 17:47:31.463520 17041 net.cpp:368] inception_4d/output_inception_4d/output_0_split -> inception_4d/output_inception_4d/output_0_split_4
I0703 17:47:31.463526 17041 net.cpp:120] Setting up inception_4d/output_inception_4d/output_0_split
I0703 17:47:31.463532 17041 net.cpp:127] Top shape: 30 528 14 14 (3104640)
I0703 17:47:31.463537 17041 net.cpp:127] Top shape: 30 528 14 14 (3104640)
I0703 17:47:31.463542 17041 net.cpp:127] Top shape: 30 528 14 14 (3104640)
I0703 17:47:31.463547 17041 net.cpp:127] Top shape: 30 528 14 14 (3104640)
I0703 17:47:31.463552 17041 net.cpp:127] Top shape: 30 528 14 14 (3104640)
I0703 17:47:31.463557 17041 layer_factory.hpp:74] Creating layer loss2/ave_pool
I0703 17:47:31.463564 17041 net.cpp:90] Creating Layer loss2/ave_pool
I0703 17:47:31.463569 17041 net.cpp:410] loss2/ave_pool <- inception_4d/output_inception_4d/output_0_split_0
I0703 17:47:31.463575 17041 net.cpp:368] loss2/ave_pool -> loss2/ave_pool
I0703 17:47:31.463582 17041 net.cpp:120] Setting up loss2/ave_pool
I0703 17:47:31.463696 17041 net.cpp:127] Top shape: 30 528 4 4 (253440)
I0703 17:47:31.463706 17041 layer_factory.hpp:74] Creating layer loss2/conv
I0703 17:47:31.463712 17041 net.cpp:90] Creating Layer loss2/conv
I0703 17:47:31.463717 17041 net.cpp:410] loss2/conv <- loss2/ave_pool
I0703 17:47:31.463724 17041 net.cpp:368] loss2/conv -> loss2/conv
I0703 17:47:31.463732 17041 net.cpp:120] Setting up loss2/conv
I0703 17:47:31.464260 17041 net.cpp:127] Top shape: 30 128 4 4 (61440)
I0703 17:47:31.464272 17041 layer_factory.hpp:74] Creating layer loss2/relu_conv
I0703 17:47:31.464279 17041 net.cpp:90] Creating Layer loss2/relu_conv
I0703 17:47:31.464284 17041 net.cpp:410] loss2/relu_conv <- loss2/conv
I0703 17:47:31.464290 17041 net.cpp:357] loss2/relu_conv -> loss2/conv (in-place)
I0703 17:47:31.464296 17041 net.cpp:120] Setting up loss2/relu_conv
I0703 17:47:31.464336 17041 net.cpp:127] Top shape: 30 128 4 4 (61440)
I0703 17:47:31.464342 17041 layer_factory.hpp:74] Creating layer loss2/fc
I0703 17:47:31.464350 17041 net.cpp:90] Creating Layer loss2/fc
I0703 17:47:31.464355 17041 net.cpp:410] loss2/fc <- loss2/conv
I0703 17:47:31.464361 17041 net.cpp:368] loss2/fc -> loss2/fc
I0703 17:47:31.464367 17041 net.cpp:120] Setting up loss2/fc
I0703 17:47:31.474656 17041 net.cpp:127] Top shape: 30 1024 (30720)
I0703 17:47:31.474694 17041 layer_factory.hpp:74] Creating layer loss2/relu_fc
I0703 17:47:31.474705 17041 net.cpp:90] Creating Layer loss2/relu_fc
I0703 17:47:31.474712 17041 net.cpp:410] loss2/relu_fc <- loss2/fc
I0703 17:47:31.474720 17041 net.cpp:357] loss2/relu_fc -> loss2/fc (in-place)
I0703 17:47:31.474728 17041 net.cpp:120] Setting up loss2/relu_fc
I0703 17:47:31.474815 17041 net.cpp:127] Top shape: 30 1024 (30720)
I0703 17:47:31.474822 17041 layer_factory.hpp:74] Creating layer loss2/drop_fc
I0703 17:47:31.474840 17041 net.cpp:90] Creating Layer loss2/drop_fc
I0703 17:47:31.474846 17041 net.cpp:410] loss2/drop_fc <- loss2/fc
I0703 17:47:31.474851 17041 net.cpp:357] loss2/drop_fc -> loss2/fc (in-place)
I0703 17:47:31.474858 17041 net.cpp:120] Setting up loss2/drop_fc
I0703 17:47:31.474864 17041 net.cpp:127] Top shape: 30 1024 (30720)
I0703 17:47:31.474869 17041 layer_factory.hpp:74] Creating layer stanford_cars_loss2/classifier
I0703 17:47:31.474879 17041 net.cpp:90] Creating Layer stanford_cars_loss2/classifier
I0703 17:47:31.474884 17041 net.cpp:410] stanford_cars_loss2/classifier <- loss2/fc
I0703 17:47:31.474890 17041 net.cpp:368] stanford_cars_loss2/classifier -> stanford_cars_loss2/classifier
I0703 17:47:31.474899 17041 net.cpp:120] Setting up stanford_cars_loss2/classifier
I0703 17:47:31.475949 17041 net.cpp:127] Top shape: 30 196 (5880)
I0703 17:47:31.475960 17041 layer_factory.hpp:74] Creating layer stanford_cars_loss2/loss
I0703 17:47:31.475968 17041 net.cpp:90] Creating Layer stanford_cars_loss2/loss
I0703 17:47:31.475975 17041 net.cpp:410] stanford_cars_loss2/loss <- stanford_cars_loss2/classifier
I0703 17:47:31.475998 17041 net.cpp:410] stanford_cars_loss2/loss <- label_data_1_split_1
I0703 17:47:31.476006 17041 net.cpp:368] stanford_cars_loss2/loss -> loss2/loss1
I0703 17:47:31.476013 17041 net.cpp:120] Setting up stanford_cars_loss2/loss
I0703 17:47:31.476019 17041 layer_factory.hpp:74] Creating layer stanford_cars_loss2/loss
I0703 17:47:31.476078 17041 net.cpp:127] Top shape: (1)
I0703 17:47:31.476085 17041 net.cpp:129]     with loss weight 0.3
I0703 17:47:31.476096 17041 layer_factory.hpp:74] Creating layer inception_4e/1x1
I0703 17:47:31.476105 17041 net.cpp:90] Creating Layer inception_4e/1x1
I0703 17:47:31.476111 17041 net.cpp:410] inception_4e/1x1 <- inception_4d/output_inception_4d/output_0_split_1
I0703 17:47:31.476117 17041 net.cpp:368] inception_4e/1x1 -> inception_4e/1x1
I0703 17:47:31.476125 17041 net.cpp:120] Setting up inception_4e/1x1
I0703 17:47:31.477172 17041 net.cpp:127] Top shape: 30 256 14 14 (1505280)
I0703 17:47:31.477196 17041 layer_factory.hpp:74] Creating layer inception_4e/relu_1x1
I0703 17:47:31.477205 17041 net.cpp:90] Creating Layer inception_4e/relu_1x1
I0703 17:47:31.477219 17041 net.cpp:410] inception_4e/relu_1x1 <- inception_4e/1x1
I0703 17:47:31.477226 17041 net.cpp:357] inception_4e/relu_1x1 -> inception_4e/1x1 (in-place)
I0703 17:47:31.477233 17041 net.cpp:120] Setting up inception_4e/relu_1x1
I0703 17:47:31.477365 17041 net.cpp:127] Top shape: 30 256 14 14 (1505280)
I0703 17:47:31.477375 17041 layer_factory.hpp:74] Creating layer inception_4e/3x3_reduce
I0703 17:47:31.477393 17041 net.cpp:90] Creating Layer inception_4e/3x3_reduce
I0703 17:47:31.477399 17041 net.cpp:410] inception_4e/3x3_reduce <- inception_4d/output_inception_4d/output_0_split_2
I0703 17:47:31.477406 17041 net.cpp:368] inception_4e/3x3_reduce -> inception_4e/3x3_reduce
I0703 17:47:31.477414 17041 net.cpp:120] Setting up inception_4e/3x3_reduce
I0703 17:47:31.478046 17041 net.cpp:127] Top shape: 30 160 14 14 (940800)
I0703 17:47:31.478070 17041 layer_factory.hpp:74] Creating layer inception_4e/relu_3x3_reduce
I0703 17:47:31.478076 17041 net.cpp:90] Creating Layer inception_4e/relu_3x3_reduce
I0703 17:47:31.478082 17041 net.cpp:410] inception_4e/relu_3x3_reduce <- inception_4e/3x3_reduce
I0703 17:47:31.478090 17041 net.cpp:357] inception_4e/relu_3x3_reduce -> inception_4e/3x3_reduce (in-place)
I0703 17:47:31.478097 17041 net.cpp:120] Setting up inception_4e/relu_3x3_reduce
I0703 17:47:31.478150 17041 net.cpp:127] Top shape: 30 160 14 14 (940800)
I0703 17:47:31.478157 17041 layer_factory.hpp:74] Creating layer inception_4e/3x3
I0703 17:47:31.478175 17041 net.cpp:90] Creating Layer inception_4e/3x3
I0703 17:47:31.478180 17041 net.cpp:410] inception_4e/3x3 <- inception_4e/3x3_reduce
I0703 17:47:31.478188 17041 net.cpp:368] inception_4e/3x3 -> inception_4e/3x3
I0703 17:47:31.478194 17041 net.cpp:120] Setting up inception_4e/3x3
I0703 17:47:31.480662 17041 net.cpp:127] Top shape: 30 320 14 14 (1881600)
I0703 17:47:31.480685 17041 layer_factory.hpp:74] Creating layer inception_4e/relu_3x3
I0703 17:47:31.480692 17041 net.cpp:90] Creating Layer inception_4e/relu_3x3
I0703 17:47:31.480698 17041 net.cpp:410] inception_4e/relu_3x3 <- inception_4e/3x3
I0703 17:47:31.480705 17041 net.cpp:357] inception_4e/relu_3x3 -> inception_4e/3x3 (in-place)
I0703 17:47:31.480712 17041 net.cpp:120] Setting up inception_4e/relu_3x3
I0703 17:47:31.480762 17041 net.cpp:127] Top shape: 30 320 14 14 (1881600)
I0703 17:47:31.480769 17041 layer_factory.hpp:74] Creating layer inception_4e/5x5_reduce
I0703 17:47:31.480787 17041 net.cpp:90] Creating Layer inception_4e/5x5_reduce
I0703 17:47:31.480793 17041 net.cpp:410] inception_4e/5x5_reduce <- inception_4d/output_inception_4d/output_0_split_3
I0703 17:47:31.480799 17041 net.cpp:368] inception_4e/5x5_reduce -> inception_4e/5x5_reduce
I0703 17:47:31.480808 17041 net.cpp:120] Setting up inception_4e/5x5_reduce
I0703 17:47:31.481102 17041 net.cpp:127] Top shape: 30 32 14 14 (188160)
I0703 17:47:31.481124 17041 layer_factory.hpp:74] Creating layer inception_4e/relu_5x5_reduce
I0703 17:47:31.481140 17041 net.cpp:90] Creating Layer inception_4e/relu_5x5_reduce
I0703 17:47:31.481147 17041 net.cpp:410] inception_4e/relu_5x5_reduce <- inception_4e/5x5_reduce
I0703 17:47:31.481155 17041 net.cpp:357] inception_4e/relu_5x5_reduce -> inception_4e/5x5_reduce (in-place)
I0703 17:47:31.481161 17041 net.cpp:120] Setting up inception_4e/relu_5x5_reduce
I0703 17:47:31.481282 17041 net.cpp:127] Top shape: 30 32 14 14 (188160)
I0703 17:47:31.481302 17041 layer_factory.hpp:74] Creating layer inception_4e/5x5
I0703 17:47:31.481322 17041 net.cpp:90] Creating Layer inception_4e/5x5
I0703 17:47:31.481328 17041 net.cpp:410] inception_4e/5x5 <- inception_4e/5x5_reduce
I0703 17:47:31.481334 17041 net.cpp:368] inception_4e/5x5 -> inception_4e/5x5
I0703 17:47:31.481343 17041 net.cpp:120] Setting up inception_4e/5x5
I0703 17:47:31.482045 17041 net.cpp:127] Top shape: 30 128 14 14 (752640)
I0703 17:47:31.482069 17041 layer_factory.hpp:74] Creating layer inception_4e/relu_5x5
I0703 17:47:31.482077 17041 net.cpp:90] Creating Layer inception_4e/relu_5x5
I0703 17:47:31.482082 17041 net.cpp:410] inception_4e/relu_5x5 <- inception_4e/5x5
I0703 17:47:31.482089 17041 net.cpp:357] inception_4e/relu_5x5 -> inception_4e/5x5 (in-place)
I0703 17:47:31.482095 17041 net.cpp:120] Setting up inception_4e/relu_5x5
I0703 17:47:31.482147 17041 net.cpp:127] Top shape: 30 128 14 14 (752640)
I0703 17:47:31.482164 17041 layer_factory.hpp:74] Creating layer inception_4e/pool
I0703 17:47:31.482172 17041 layer_factory.cpp:55] CUDNN does not support padding or multiple tops. Using Caffe's own pooling layer.
I0703 17:47:31.482177 17041 net.cpp:90] Creating Layer inception_4e/pool
I0703 17:47:31.482182 17041 net.cpp:410] inception_4e/pool <- inception_4d/output_inception_4d/output_0_split_4
I0703 17:47:31.482188 17041 net.cpp:368] inception_4e/pool -> inception_4e/pool
I0703 17:47:31.482195 17041 net.cpp:120] Setting up inception_4e/pool
I0703 17:47:31.482203 17041 net.cpp:127] Top shape: 30 528 14 14 (3104640)
I0703 17:47:31.482208 17041 layer_factory.hpp:74] Creating layer inception_4e/pool_proj
I0703 17:47:31.482215 17041 net.cpp:90] Creating Layer inception_4e/pool_proj
I0703 17:47:31.482220 17041 net.cpp:410] inception_4e/pool_proj <- inception_4e/pool
I0703 17:47:31.482228 17041 net.cpp:368] inception_4e/pool_proj -> inception_4e/pool_proj
I0703 17:47:31.482234 17041 net.cpp:120] Setting up inception_4e/pool_proj
I0703 17:47:31.482775 17041 net.cpp:127] Top shape: 30 128 14 14 (752640)
I0703 17:47:31.482799 17041 layer_factory.hpp:74] Creating layer inception_4e/relu_pool_proj
I0703 17:47:31.482805 17041 net.cpp:90] Creating Layer inception_4e/relu_pool_proj
I0703 17:47:31.482810 17041 net.cpp:410] inception_4e/relu_pool_proj <- inception_4e/pool_proj
I0703 17:47:31.482816 17041 net.cpp:357] inception_4e/relu_pool_proj -> inception_4e/pool_proj (in-place)
I0703 17:47:31.482822 17041 net.cpp:120] Setting up inception_4e/relu_pool_proj
I0703 17:47:31.482872 17041 net.cpp:127] Top shape: 30 128 14 14 (752640)
I0703 17:47:31.482879 17041 layer_factory.hpp:74] Creating layer inception_4e/output
I0703 17:47:31.482897 17041 net.cpp:90] Creating Layer inception_4e/output
I0703 17:47:31.482902 17041 net.cpp:410] inception_4e/output <- inception_4e/1x1
I0703 17:47:31.482906 17041 net.cpp:410] inception_4e/output <- inception_4e/3x3
I0703 17:47:31.482913 17041 net.cpp:410] inception_4e/output <- inception_4e/5x5
I0703 17:47:31.482918 17041 net.cpp:410] inception_4e/output <- inception_4e/pool_proj
I0703 17:47:31.482923 17041 net.cpp:368] inception_4e/output -> inception_4e/output
I0703 17:47:31.482929 17041 net.cpp:120] Setting up inception_4e/output
I0703 17:47:31.482945 17041 net.cpp:127] Top shape: 30 832 14 14 (4892160)
I0703 17:47:31.482949 17041 layer_factory.hpp:74] Creating layer pool4/3x3_s2
I0703 17:47:31.482957 17041 net.cpp:90] Creating Layer pool4/3x3_s2
I0703 17:47:31.482961 17041 net.cpp:410] pool4/3x3_s2 <- inception_4e/output
I0703 17:47:31.482967 17041 net.cpp:368] pool4/3x3_s2 -> pool4/3x3_s2
I0703 17:47:31.482974 17041 net.cpp:120] Setting up pool4/3x3_s2
I0703 17:47:31.483024 17041 net.cpp:127] Top shape: 30 832 7 7 (1223040)
I0703 17:47:31.483031 17041 layer_factory.hpp:74] Creating layer pool4/3x3_s2_pool4/3x3_s2_0_split
I0703 17:47:31.483039 17041 net.cpp:90] Creating Layer pool4/3x3_s2_pool4/3x3_s2_0_split
I0703 17:47:31.483044 17041 net.cpp:410] pool4/3x3_s2_pool4/3x3_s2_0_split <- pool4/3x3_s2
I0703 17:47:31.483050 17041 net.cpp:368] pool4/3x3_s2_pool4/3x3_s2_0_split -> pool4/3x3_s2_pool4/3x3_s2_0_split_0
I0703 17:47:31.483057 17041 net.cpp:368] pool4/3x3_s2_pool4/3x3_s2_0_split -> pool4/3x3_s2_pool4/3x3_s2_0_split_1
I0703 17:47:31.483064 17041 net.cpp:368] pool4/3x3_s2_pool4/3x3_s2_0_split -> pool4/3x3_s2_pool4/3x3_s2_0_split_2
I0703 17:47:31.483072 17041 net.cpp:368] pool4/3x3_s2_pool4/3x3_s2_0_split -> pool4/3x3_s2_pool4/3x3_s2_0_split_3
I0703 17:47:31.483078 17041 net.cpp:120] Setting up pool4/3x3_s2_pool4/3x3_s2_0_split
I0703 17:47:31.483084 17041 net.cpp:127] Top shape: 30 832 7 7 (1223040)
I0703 17:47:31.483089 17041 net.cpp:127] Top shape: 30 832 7 7 (1223040)
I0703 17:47:31.483093 17041 net.cpp:127] Top shape: 30 832 7 7 (1223040)
I0703 17:47:31.483098 17041 net.cpp:127] Top shape: 30 832 7 7 (1223040)
I0703 17:47:31.483103 17041 layer_factory.hpp:74] Creating layer inception_5a/1x1
I0703 17:47:31.483109 17041 net.cpp:90] Creating Layer inception_5a/1x1
I0703 17:47:31.483114 17041 net.cpp:410] inception_5a/1x1 <- pool4/3x3_s2_pool4/3x3_s2_0_split_0
I0703 17:47:31.483120 17041 net.cpp:368] inception_5a/1x1 -> inception_5a/1x1
I0703 17:47:31.483127 17041 net.cpp:120] Setting up inception_5a/1x1
I0703 17:47:31.484372 17041 net.cpp:127] Top shape: 30 256 7 7 (376320)
I0703 17:47:31.484385 17041 layer_factory.hpp:74] Creating layer inception_5a/relu_1x1
I0703 17:47:31.484391 17041 net.cpp:90] Creating Layer inception_5a/relu_1x1
I0703 17:47:31.484396 17041 net.cpp:410] inception_5a/relu_1x1 <- inception_5a/1x1
I0703 17:47:31.484401 17041 net.cpp:357] inception_5a/relu_1x1 -> inception_5a/1x1 (in-place)
I0703 17:47:31.484408 17041 net.cpp:120] Setting up inception_5a/relu_1x1
I0703 17:47:31.484519 17041 net.cpp:127] Top shape: 30 256 7 7 (376320)
I0703 17:47:31.484526 17041 layer_factory.hpp:74] Creating layer inception_5a/3x3_reduce
I0703 17:47:31.484534 17041 net.cpp:90] Creating Layer inception_5a/3x3_reduce
I0703 17:47:31.484540 17041 net.cpp:410] inception_5a/3x3_reduce <- pool4/3x3_s2_pool4/3x3_s2_0_split_1
I0703 17:47:31.484547 17041 net.cpp:368] inception_5a/3x3_reduce -> inception_5a/3x3_reduce
I0703 17:47:31.484555 17041 net.cpp:120] Setting up inception_5a/3x3_reduce
I0703 17:47:31.485399 17041 net.cpp:127] Top shape: 30 160 7 7 (235200)
I0703 17:47:31.485411 17041 layer_factory.hpp:74] Creating layer inception_5a/relu_3x3_reduce
I0703 17:47:31.485419 17041 net.cpp:90] Creating Layer inception_5a/relu_3x3_reduce
I0703 17:47:31.485424 17041 net.cpp:410] inception_5a/relu_3x3_reduce <- inception_5a/3x3_reduce
I0703 17:47:31.485430 17041 net.cpp:357] inception_5a/relu_3x3_reduce -> inception_5a/3x3_reduce (in-place)
I0703 17:47:31.485436 17041 net.cpp:120] Setting up inception_5a/relu_3x3_reduce
I0703 17:47:31.485478 17041 net.cpp:127] Top shape: 30 160 7 7 (235200)
I0703 17:47:31.485484 17041 layer_factory.hpp:74] Creating layer inception_5a/3x3
I0703 17:47:31.485491 17041 net.cpp:90] Creating Layer inception_5a/3x3
I0703 17:47:31.485496 17041 net.cpp:410] inception_5a/3x3 <- inception_5a/3x3_reduce
I0703 17:47:31.485503 17041 net.cpp:368] inception_5a/3x3 -> inception_5a/3x3
I0703 17:47:31.485510 17041 net.cpp:120] Setting up inception_5a/3x3
I0703 17:47:31.487939 17041 net.cpp:127] Top shape: 30 320 7 7 (470400)
I0703 17:47:31.487951 17041 layer_factory.hpp:74] Creating layer inception_5a/relu_3x3
I0703 17:47:31.487958 17041 net.cpp:90] Creating Layer inception_5a/relu_3x3
I0703 17:47:31.487964 17041 net.cpp:410] inception_5a/relu_3x3 <- inception_5a/3x3
I0703 17:47:31.487969 17041 net.cpp:357] inception_5a/relu_3x3 -> inception_5a/3x3 (in-place)
I0703 17:47:31.487975 17041 net.cpp:120] Setting up inception_5a/relu_3x3
I0703 17:47:31.488018 17041 net.cpp:127] Top shape: 30 320 7 7 (470400)
I0703 17:47:31.488030 17041 layer_factory.hpp:74] Creating layer inception_5a/5x5_reduce
I0703 17:47:31.488039 17041 net.cpp:90] Creating Layer inception_5a/5x5_reduce
I0703 17:47:31.488044 17041 net.cpp:410] inception_5a/5x5_reduce <- pool4/3x3_s2_pool4/3x3_s2_0_split_2
I0703 17:47:31.488050 17041 net.cpp:368] inception_5a/5x5_reduce -> inception_5a/5x5_reduce
I0703 17:47:31.488057 17041 net.cpp:120] Setting up inception_5a/5x5_reduce
I0703 17:47:31.488394 17041 net.cpp:127] Top shape: 30 32 7 7 (47040)
I0703 17:47:31.488405 17041 layer_factory.hpp:74] Creating layer inception_5a/relu_5x5_reduce
I0703 17:47:31.488412 17041 net.cpp:90] Creating Layer inception_5a/relu_5x5_reduce
I0703 17:47:31.488417 17041 net.cpp:410] inception_5a/relu_5x5_reduce <- inception_5a/5x5_reduce
I0703 17:47:31.488423 17041 net.cpp:357] inception_5a/relu_5x5_reduce -> inception_5a/5x5_reduce (in-place)
I0703 17:47:31.488430 17041 net.cpp:120] Setting up inception_5a/relu_5x5_reduce
I0703 17:47:31.488469 17041 net.cpp:127] Top shape: 30 32 7 7 (47040)
I0703 17:47:31.488476 17041 layer_factory.hpp:74] Creating layer inception_5a/5x5
I0703 17:47:31.488481 17041 net.cpp:90] Creating Layer inception_5a/5x5
I0703 17:47:31.488487 17041 net.cpp:410] inception_5a/5x5 <- inception_5a/5x5_reduce
I0703 17:47:31.488493 17041 net.cpp:368] inception_5a/5x5 -> inception_5a/5x5
I0703 17:47:31.488500 17041 net.cpp:120] Setting up inception_5a/5x5
I0703 17:47:31.489238 17041 net.cpp:127] Top shape: 30 128 7 7 (188160)
I0703 17:47:31.489249 17041 layer_factory.hpp:74] Creating layer inception_5a/relu_5x5
I0703 17:47:31.489256 17041 net.cpp:90] Creating Layer inception_5a/relu_5x5
I0703 17:47:31.489261 17041 net.cpp:410] inception_5a/relu_5x5 <- inception_5a/5x5
I0703 17:47:31.489267 17041 net.cpp:357] inception_5a/relu_5x5 -> inception_5a/5x5 (in-place)
I0703 17:47:31.489274 17041 net.cpp:120] Setting up inception_5a/relu_5x5
I0703 17:47:31.489382 17041 net.cpp:127] Top shape: 30 128 7 7 (188160)
I0703 17:47:31.489390 17041 layer_factory.hpp:74] Creating layer inception_5a/pool
I0703 17:47:31.489397 17041 layer_factory.cpp:55] CUDNN does not support padding or multiple tops. Using Caffe's own pooling layer.
I0703 17:47:31.489401 17041 net.cpp:90] Creating Layer inception_5a/pool
I0703 17:47:31.489406 17041 net.cpp:410] inception_5a/pool <- pool4/3x3_s2_pool4/3x3_s2_0_split_3
I0703 17:47:31.489413 17041 net.cpp:368] inception_5a/pool -> inception_5a/pool
I0703 17:47:31.489419 17041 net.cpp:120] Setting up inception_5a/pool
I0703 17:47:31.489426 17041 net.cpp:127] Top shape: 30 832 7 7 (1223040)
I0703 17:47:31.489430 17041 layer_factory.hpp:74] Creating layer inception_5a/pool_proj
I0703 17:47:31.489439 17041 net.cpp:90] Creating Layer inception_5a/pool_proj
I0703 17:47:31.489445 17041 net.cpp:410] inception_5a/pool_proj <- inception_5a/pool
I0703 17:47:31.489451 17041 net.cpp:368] inception_5a/pool_proj -> inception_5a/pool_proj
I0703 17:47:31.489459 17041 net.cpp:120] Setting up inception_5a/pool_proj
I0703 17:47:31.490180 17041 net.cpp:127] Top shape: 30 128 7 7 (188160)
I0703 17:47:31.490191 17041 layer_factory.hpp:74] Creating layer inception_5a/relu_pool_proj
I0703 17:47:31.490198 17041 net.cpp:90] Creating Layer inception_5a/relu_pool_proj
I0703 17:47:31.490205 17041 net.cpp:410] inception_5a/relu_pool_proj <- inception_5a/pool_proj
I0703 17:47:31.490209 17041 net.cpp:357] inception_5a/relu_pool_proj -> inception_5a/pool_proj (in-place)
I0703 17:47:31.490216 17041 net.cpp:120] Setting up inception_5a/relu_pool_proj
I0703 17:47:31.490257 17041 net.cpp:127] Top shape: 30 128 7 7 (188160)
I0703 17:47:31.490263 17041 layer_factory.hpp:74] Creating layer inception_5a/output
I0703 17:47:31.490270 17041 net.cpp:90] Creating Layer inception_5a/output
I0703 17:47:31.490275 17041 net.cpp:410] inception_5a/output <- inception_5a/1x1
I0703 17:47:31.490280 17041 net.cpp:410] inception_5a/output <- inception_5a/3x3
I0703 17:47:31.490285 17041 net.cpp:410] inception_5a/output <- inception_5a/5x5
I0703 17:47:31.490290 17041 net.cpp:410] inception_5a/output <- inception_5a/pool_proj
I0703 17:47:31.490303 17041 net.cpp:368] inception_5a/output -> inception_5a/output
I0703 17:47:31.490310 17041 net.cpp:120] Setting up inception_5a/output
I0703 17:47:31.490317 17041 net.cpp:127] Top shape: 30 832 7 7 (1223040)
I0703 17:47:31.490321 17041 layer_factory.hpp:74] Creating layer inception_5a/output_inception_5a/output_0_split
I0703 17:47:31.490329 17041 net.cpp:90] Creating Layer inception_5a/output_inception_5a/output_0_split
I0703 17:47:31.490332 17041 net.cpp:410] inception_5a/output_inception_5a/output_0_split <- inception_5a/output
I0703 17:47:31.490339 17041 net.cpp:368] inception_5a/output_inception_5a/output_0_split -> inception_5a/output_inception_5a/output_0_split_0
I0703 17:47:31.490346 17041 net.cpp:368] inception_5a/output_inception_5a/output_0_split -> inception_5a/output_inception_5a/output_0_split_1
I0703 17:47:31.490352 17041 net.cpp:368] inception_5a/output_inception_5a/output_0_split -> inception_5a/output_inception_5a/output_0_split_2
I0703 17:47:31.490360 17041 net.cpp:368] inception_5a/output_inception_5a/output_0_split -> inception_5a/output_inception_5a/output_0_split_3
I0703 17:47:31.490365 17041 net.cpp:120] Setting up inception_5a/output_inception_5a/output_0_split
I0703 17:47:31.490371 17041 net.cpp:127] Top shape: 30 832 7 7 (1223040)
I0703 17:47:31.490376 17041 net.cpp:127] Top shape: 30 832 7 7 (1223040)
I0703 17:47:31.490381 17041 net.cpp:127] Top shape: 30 832 7 7 (1223040)
I0703 17:47:31.490386 17041 net.cpp:127] Top shape: 30 832 7 7 (1223040)
I0703 17:47:31.490391 17041 layer_factory.hpp:74] Creating layer inception_5b/1x1
I0703 17:47:31.490397 17041 net.cpp:90] Creating Layer inception_5b/1x1
I0703 17:47:31.490402 17041 net.cpp:410] inception_5b/1x1 <- inception_5a/output_inception_5a/output_0_split_0
I0703 17:47:31.490408 17041 net.cpp:368] inception_5b/1x1 -> inception_5b/1x1
I0703 17:47:31.490416 17041 net.cpp:120] Setting up inception_5b/1x1
I0703 17:47:31.492213 17041 net.cpp:127] Top shape: 30 384 7 7 (564480)
I0703 17:47:31.492224 17041 layer_factory.hpp:74] Creating layer inception_5b/relu_1x1
I0703 17:47:31.492233 17041 net.cpp:90] Creating Layer inception_5b/relu_1x1
I0703 17:47:31.492238 17041 net.cpp:410] inception_5b/relu_1x1 <- inception_5b/1x1
I0703 17:47:31.492244 17041 net.cpp:357] inception_5b/relu_1x1 -> inception_5b/1x1 (in-place)
I0703 17:47:31.492249 17041 net.cpp:120] Setting up inception_5b/relu_1x1
I0703 17:47:31.492290 17041 net.cpp:127] Top shape: 30 384 7 7 (564480)
I0703 17:47:31.492295 17041 layer_factory.hpp:74] Creating layer inception_5b/3x3_reduce
I0703 17:47:31.492303 17041 net.cpp:90] Creating Layer inception_5b/3x3_reduce
I0703 17:47:31.492308 17041 net.cpp:410] inception_5b/3x3_reduce <- inception_5a/output_inception_5a/output_0_split_1
I0703 17:47:31.492316 17041 net.cpp:368] inception_5b/3x3_reduce -> inception_5b/3x3_reduce
I0703 17:47:31.492322 17041 net.cpp:120] Setting up inception_5b/3x3_reduce
I0703 17:47:31.493381 17041 net.cpp:127] Top shape: 30 192 7 7 (282240)
I0703 17:47:31.493392 17041 layer_factory.hpp:74] Creating layer inception_5b/relu_3x3_reduce
I0703 17:47:31.493401 17041 net.cpp:90] Creating Layer inception_5b/relu_3x3_reduce
I0703 17:47:31.493405 17041 net.cpp:410] inception_5b/relu_3x3_reduce <- inception_5b/3x3_reduce
I0703 17:47:31.493412 17041 net.cpp:357] inception_5b/relu_3x3_reduce -> inception_5b/3x3_reduce (in-place)
I0703 17:47:31.493417 17041 net.cpp:120] Setting up inception_5b/relu_3x3_reduce
I0703 17:47:31.493458 17041 net.cpp:127] Top shape: 30 192 7 7 (282240)
I0703 17:47:31.493464 17041 layer_factory.hpp:74] Creating layer inception_5b/3x3
I0703 17:47:31.493473 17041 net.cpp:90] Creating Layer inception_5b/3x3
I0703 17:47:31.493476 17041 net.cpp:410] inception_5b/3x3 <- inception_5b/3x3_reduce
I0703 17:47:31.493482 17041 net.cpp:368] inception_5b/3x3 -> inception_5b/3x3
I0703 17:47:31.493501 17041 net.cpp:120] Setting up inception_5b/3x3
I0703 17:47:31.496744 17041 net.cpp:127] Top shape: 30 384 7 7 (564480)
I0703 17:47:31.496755 17041 layer_factory.hpp:74] Creating layer inception_5b/relu_3x3
I0703 17:47:31.496774 17041 net.cpp:90] Creating Layer inception_5b/relu_3x3
I0703 17:47:31.496779 17041 net.cpp:410] inception_5b/relu_3x3 <- inception_5b/3x3
I0703 17:47:31.496786 17041 net.cpp:357] inception_5b/relu_3x3 -> inception_5b/3x3 (in-place)
I0703 17:47:31.496793 17041 net.cpp:120] Setting up inception_5b/relu_3x3
I0703 17:47:31.496906 17041 net.cpp:127] Top shape: 30 384 7 7 (564480)
I0703 17:47:31.496915 17041 layer_factory.hpp:74] Creating layer inception_5b/5x5_reduce
I0703 17:47:31.496923 17041 net.cpp:90] Creating Layer inception_5b/5x5_reduce
I0703 17:47:31.496928 17041 net.cpp:410] inception_5b/5x5_reduce <- inception_5a/output_inception_5a/output_0_split_2
I0703 17:47:31.496935 17041 net.cpp:368] inception_5b/5x5_reduce -> inception_5b/5x5_reduce
I0703 17:47:31.496942 17041 net.cpp:120] Setting up inception_5b/5x5_reduce
I0703 17:47:31.497334 17041 net.cpp:127] Top shape: 30 48 7 7 (70560)
I0703 17:47:31.497345 17041 layer_factory.hpp:74] Creating layer inception_5b/relu_5x5_reduce
I0703 17:47:31.497354 17041 net.cpp:90] Creating Layer inception_5b/relu_5x5_reduce
I0703 17:47:31.497359 17041 net.cpp:410] inception_5b/relu_5x5_reduce <- inception_5b/5x5_reduce
I0703 17:47:31.497364 17041 net.cpp:357] inception_5b/relu_5x5_reduce -> inception_5b/5x5_reduce (in-place)
I0703 17:47:31.497370 17041 net.cpp:120] Setting up inception_5b/relu_5x5_reduce
I0703 17:47:31.497412 17041 net.cpp:127] Top shape: 30 48 7 7 (70560)
I0703 17:47:31.497418 17041 layer_factory.hpp:74] Creating layer inception_5b/5x5
I0703 17:47:31.497426 17041 net.cpp:90] Creating Layer inception_5b/5x5
I0703 17:47:31.497431 17041 net.cpp:410] inception_5b/5x5 <- inception_5b/5x5_reduce
I0703 17:47:31.497437 17041 net.cpp:368] inception_5b/5x5 -> inception_5b/5x5
I0703 17:47:31.497444 17041 net.cpp:120] Setting up inception_5b/5x5
I0703 17:47:31.498388 17041 net.cpp:127] Top shape: 30 128 7 7 (188160)
I0703 17:47:31.498399 17041 layer_factory.hpp:74] Creating layer inception_5b/relu_5x5
I0703 17:47:31.498406 17041 net.cpp:90] Creating Layer inception_5b/relu_5x5
I0703 17:47:31.498411 17041 net.cpp:410] inception_5b/relu_5x5 <- inception_5b/5x5
I0703 17:47:31.498417 17041 net.cpp:357] inception_5b/relu_5x5 -> inception_5b/5x5 (in-place)
I0703 17:47:31.498424 17041 net.cpp:120] Setting up inception_5b/relu_5x5
I0703 17:47:31.498466 17041 net.cpp:127] Top shape: 30 128 7 7 (188160)
I0703 17:47:31.498471 17041 layer_factory.hpp:74] Creating layer inception_5b/pool
I0703 17:47:31.498476 17041 layer_factory.cpp:55] CUDNN does not support padding or multiple tops. Using Caffe's own pooling layer.
I0703 17:47:31.498482 17041 net.cpp:90] Creating Layer inception_5b/pool
I0703 17:47:31.498486 17041 net.cpp:410] inception_5b/pool <- inception_5a/output_inception_5a/output_0_split_3
I0703 17:47:31.498492 17041 net.cpp:368] inception_5b/pool -> inception_5b/pool
I0703 17:47:31.498498 17041 net.cpp:120] Setting up inception_5b/pool
I0703 17:47:31.498507 17041 net.cpp:127] Top shape: 30 832 7 7 (1223040)
I0703 17:47:31.498510 17041 layer_factory.hpp:74] Creating layer inception_5b/pool_proj
I0703 17:47:31.498518 17041 net.cpp:90] Creating Layer inception_5b/pool_proj
I0703 17:47:31.498523 17041 net.cpp:410] inception_5b/pool_proj <- inception_5b/pool
I0703 17:47:31.498530 17041 net.cpp:368] inception_5b/pool_proj -> inception_5b/pool_proj
I0703 17:47:31.498536 17041 net.cpp:120] Setting up inception_5b/pool_proj
I0703 17:47:31.499255 17041 net.cpp:127] Top shape: 30 128 7 7 (188160)
I0703 17:47:31.499266 17041 layer_factory.hpp:74] Creating layer inception_5b/relu_pool_proj
I0703 17:47:31.499274 17041 net.cpp:90] Creating Layer inception_5b/relu_pool_proj
I0703 17:47:31.499279 17041 net.cpp:410] inception_5b/relu_pool_proj <- inception_5b/pool_proj
I0703 17:47:31.499284 17041 net.cpp:357] inception_5b/relu_pool_proj -> inception_5b/pool_proj (in-place)
I0703 17:47:31.499291 17041 net.cpp:120] Setting up inception_5b/relu_pool_proj
I0703 17:47:31.499404 17041 net.cpp:127] Top shape: 30 128 7 7 (188160)
I0703 17:47:31.499420 17041 layer_factory.hpp:74] Creating layer inception_5b/output
I0703 17:47:31.499428 17041 net.cpp:90] Creating Layer inception_5b/output
I0703 17:47:31.499433 17041 net.cpp:410] inception_5b/output <- inception_5b/1x1
I0703 17:47:31.499439 17041 net.cpp:410] inception_5b/output <- inception_5b/3x3
I0703 17:47:31.499444 17041 net.cpp:410] inception_5b/output <- inception_5b/5x5
I0703 17:47:31.499449 17041 net.cpp:410] inception_5b/output <- inception_5b/pool_proj
I0703 17:47:31.499454 17041 net.cpp:368] inception_5b/output -> inception_5b/output
I0703 17:47:31.499461 17041 net.cpp:120] Setting up inception_5b/output
I0703 17:47:31.499469 17041 net.cpp:127] Top shape: 30 1024 7 7 (1505280)
I0703 17:47:31.499474 17041 layer_factory.hpp:74] Creating layer pool5/7x7_s1
I0703 17:47:31.499480 17041 net.cpp:90] Creating Layer pool5/7x7_s1
I0703 17:47:31.499483 17041 net.cpp:410] pool5/7x7_s1 <- inception_5b/output
I0703 17:47:31.499490 17041 net.cpp:368] pool5/7x7_s1 -> pool5/7x7_s1
I0703 17:47:31.499496 17041 net.cpp:120] Setting up pool5/7x7_s1
I0703 17:47:31.499541 17041 net.cpp:127] Top shape: 30 1024 1 1 (30720)
I0703 17:47:31.499547 17041 layer_factory.hpp:74] Creating layer pool5/drop_7x7_s1
I0703 17:47:31.499552 17041 net.cpp:90] Creating Layer pool5/drop_7x7_s1
I0703 17:47:31.499557 17041 net.cpp:410] pool5/drop_7x7_s1 <- pool5/7x7_s1
I0703 17:47:31.499562 17041 net.cpp:357] pool5/drop_7x7_s1 -> pool5/7x7_s1 (in-place)
I0703 17:47:31.499568 17041 net.cpp:120] Setting up pool5/drop_7x7_s1
I0703 17:47:31.499574 17041 net.cpp:127] Top shape: 30 1024 1 1 (30720)
I0703 17:47:31.499579 17041 layer_factory.hpp:74] Creating layer stanford_cars_loss3/classifier
I0703 17:47:31.499588 17041 net.cpp:90] Creating Layer stanford_cars_loss3/classifier
I0703 17:47:31.499593 17041 net.cpp:410] stanford_cars_loss3/classifier <- pool5/7x7_s1
I0703 17:47:31.499599 17041 net.cpp:368] stanford_cars_loss3/classifier -> stanford_cars_loss3/classifier
I0703 17:47:31.499606 17041 net.cpp:120] Setting up stanford_cars_loss3/classifier
I0703 17:47:31.500591 17041 net.cpp:127] Top shape: 30 196 (5880)
I0703 17:47:31.500599 17041 layer_factory.hpp:74] Creating layer loss3/loss3
I0703 17:47:31.500607 17041 net.cpp:90] Creating Layer loss3/loss3
I0703 17:47:31.500612 17041 net.cpp:410] loss3/loss3 <- stanford_cars_loss3/classifier
I0703 17:47:31.500617 17041 net.cpp:410] loss3/loss3 <- label_data_1_split_2
I0703 17:47:31.500622 17041 net.cpp:368] loss3/loss3 -> loss3/loss3
I0703 17:47:31.500629 17041 net.cpp:120] Setting up loss3/loss3
…
I0703 17:47:31.505661 17041 net.cpp:287] The NetState phase (1) differed from the phase (0) specified by a rule in layer data
I0703 17:47:31.506345 17041 net.cpp:42] Initializing net from parameters: 
name: "GoogleNet"
state {
  phase: TEST
}
layer {
  name: "data"
  type: "Data"
  top: "data"
  top: "label"
  include {
    phase: TEST
  }
  transform_param {
    mirror: false
    crop_size: 224
    mean_value: 104
    mean_value: 117
    mean_value: 123
  }
  data_param {
    source: "examples/stanford_cars/stanford_cars_val_lmdb"
    batch_size: 10
    backend: LMDB
  }
}
layer {
  name: "conv1/7x7_s2"
  type: "Convolution"
  bottom: "data"
  top: "conv1/7x7_s2"
  param {
    lr_mult: 1
    decay_mult: 1
  }
  param {
    lr_mult: 2
    decay_mult: 0
  }
  convolution_param {
    num_output: 64
    pad: 3
    kernel_size: 7
    stride: 2
    weight_filler {
      type: "xavier"
      std: 0.1
    }
    bias_filler {
      type: "constant"
      value: 0.2
    }
  }
}
layer {
  name: "conv1/relu_7x7"
  type: "ReLU"
  bottom: "conv1/7x7_s2"
  top: "conv1/7x7_s2"
}
layer {
  name: "pool1/3x3_s2"
  type: "Pooling"
  bottom: "conv1/7x7_s2"
  top: "pool1/3x3_s2"
  pooling_param {
    pool: MAX
    kernel_size: 3
    stride: 2
  }
}
layer {
  name: "pool1/norm1"
  type: "LRN"
  bottom: "pool1/3x3_s2"
  top: "pool1/norm1"
  lrn_param {
    local_size: 5
    alpha: 0.0001
    beta: 0.75
  }
}
layer {
  name: "conv2/3x3_reduce"
  type: "Convolution"
  bottom: "pool1/norm1"
  top: "conv2/3x3_reduce"
  param {
    lr_mult: 1
    decay_mult: 1
  }
  param {
    lr_mult: 2
    decay_mult: 0
  }
  convolution_param {
    num_output: 64
    kernel_size: 1
    weight_filler {
      type: "xavier"
      std: 0.1
    }
    bias_filler {
      type: "constant"
      value: 0.2
    }
  }
}
layer {
  name: "conv2/relu_3x3_reduce"
  type: "ReLU"
  bottom: "conv2/3x3_reduce"
  top: "conv2/3x3_reduce"
}
layer {
  name: "conv2/3x3"
  type: "Convolution"
  bottom: "conv2/3x3_reduce"
  top: "conv2/3x3"
  param {
    lr_mult: 1
    decay_mult: 1
  }
  param {
    lr_mult: 2
    decay_mult: 0
  }
  convolution_param {
    num_output: 192
    pad: 1
    kernel_size: 3
    weight_filler {
      type: "xavier"
      std: 0.03
    }
    bias_filler {
      type: "constant"
      value: 0.2
    }
  }
}
layer {
  name: "conv2/relu_3x3"
  type: "ReLU"
  bottom: "conv2/3x3"
  top: "conv2/3x3"
}
layer {
  name: "conv2/norm2"
  type: "LRN"
  bottom: "conv2/3x3"
  top: "conv2/norm2"
  lrn_param {
    local_size: 5
    alpha: 0.0001
    beta: 0.75
  }
}
layer {
  name: "pool2/3x3_s2"
  type: "Pooling"
  bottom: "conv2/norm2"
  top: "pool2/3x3_s2"
  pooling_param {
    pool: MAX
    kernel_size: 3
    stride: 2
  }
}
layer {
  name: "inception_3a/1x1"
  type: "Convolution"
  bottom: "pool2/3x3_s2"
  top: "inception_3a/1x1"
  param {
    lr_mult: 1
    decay_mult: 1
  }
  param {
    lr_mult: 2
    decay_mult: 0
  }
  convolution_param {
    num_output: 64
    kernel_size: 1
    weight_filler {
      type: "xavier"
      std: 0.03
    }
    bias_filler {
      type: "constant"
      value: 0.2
    }
  }
}
layer {
  name: "inception_3a/relu_1x1"
  type: "ReLU"
  bottom: "inception_3a/1x1"
  top: "inception_3a/1x1"
}
layer {
  name: "inception_3a/3x3_reduce"
  type: "Convolution"
  bottom: "pool2/3x3_s2"
  top: "inception_3a/3x3_reduce"
  param {
    lr_mult: 1
    decay_mult: 1
  }
  param {
    lr_mult: 2
    decay_mult: 0
  }
  convolution_param {
    num_output: 96
    kernel_size: 1
    weight_filler {
      type: "xavier"
      std: 0.09
    }
    bias_filler {
      type: "constant"
      value: 0.2
    }
  }
}
layer {
  name: "inception_3a/relu_3x3_reduce"
  type: "ReLU"
  bottom: "inception_3a/3x3_reduce"
  top: "inception_3a/3x3_reduce"
}
layer {
  name: "inception_3a/3x3"
  type: "Convolution"
  bottom: "inception_3a/3x3_reduce"
  top: "inception_3a/3x3"
  param {
    lr_mult: 1
    decay_mult: 1
  }
  param {
    lr_mult: 2
    decay_mult: 0
  }
  convolution_param {
    num_output: 128
    pad: 1
    kernel_size: 3
    weight_filler {
      type: "xavier"
      std: 0.03
    }
    bias_filler {
      type: "constant"
      value: 0.2
    }
  }
}
layer {
  name: "inception_3a/relu_3x3"
  type: "ReLU"
  bottom: "inception_3a/3x3"
  top: "inception_3a/3x3"
}
layer {
  name: "inception_3a/5x5_reduce"
  type: "Convolution"
  bottom: "pool2/3x3_s2"
  top: "inception_3a/5x5_reduce"
  param {
    lr_mult: 1
    decay_mult: 1
  }
  param {
    lr_mult: 2
    decay_mult: 0
  }
  convolution_param {
    num_output: 16
    kernel_size: 1
    weight_filler {
      type: "xavier"
      std: 0.2
    }
    bias_filler {
      type: "constant"
      value: 0.2
    }
  }
}
layer {
  name: "inception_3a/relu_5x5_reduce"
  type: "ReLU"
  bottom: "inception_3a/5x5_reduce"
  top: "inception_3a/5x5_reduce"
}
layer {
  name: "inception_3a/5x5"
  type: "Convolution"
  bottom: "inception_3a/5x5_reduce"
  top: "inception_3a/5x5"
  param {
    lr_mult: 1
    decay_mult: 1
  }
  param {
    lr_mult: 2
    decay_mult: 0
  }
  convolution_param {
    num_output: 32
    pad: 2
    kernel_size: 5
    weight_filler {
      type: "xavier"
      std: 0.03
    }
    bias_filler {
      type: "constant"
      value: 0.2
    }
  }
}
layer {
  name: "inception_3a/relu_5x5"
  type: "ReLU"
  bottom: "inception_3a/5x5"
  top: "inception_3a/5x5"
}
layer {
  name: "inception_3a/pool"
  type: "Pooling"
  bottom: "pool2/3x3_s2"
  top: "inception_3a/pool"
  pooling_param {
    pool: MAX
    kernel_size: 3
    stride: 1
    pad: 1
  }
}
layer {
  name: "inception_3a/pool_proj"
  type: "Convolution"
  bottom: "inception_3a/pool"
  top: "inception_3a/pool_proj"
  param {
    lr_mult: 1
    decay_mult: 1
  }
  param {
    lr_mult: 2
    decay_mult: 0
  }
  convolution_param {
    num_output: 32
    kernel_size: 1
    weight_filler {
      type: "xavier"
      std: 0.1
    }
    bias_filler {
      type: "constant"
      value: 0.2
    }
  }
}
layer {
  name: "inception_3a/relu_pool_proj"
  type: "ReLU"
  bottom: "inception_3a/pool_proj"
  top: "inception_3a/pool_proj"
}
layer {
  name: "inception_3a/output"
  type: "Concat"
  bottom: "inception_3a/1x1"
  bottom: "inception_3a/3x3"
  bottom: "inception_3a/5x5"
  bottom: "inception_3a/pool_proj"
  top: "inception_3a/output"
}
layer {
  name: "inception_3b/1x1"
  type: "Convolution"
  bottom: "inception_3a/output"
  top: "inception_3b/1x1"
  param {
    lr_mult: 1
    decay_mult: 1
  }
  param {
    lr_mult: 2
    decay_mult: 0
  }
  convolution_param {
    num_output: 128
    kernel_size: 1
    weight_filler {
      type: "xavier"
      std: 0.03
    }
    bias_filler {
      type: "constant"
      value: 0.2
    }
  }
}
layer {
  name: "inception_3b/relu_1x1"
  type: "ReLU"
  bottom: "inception_3b/1x1"
  top: "inception_3b/1x1"
}
layer {
  name: "inception_3b/3x3_reduce"
  type: "Convolution"
  bottom: "inception_3a/output"
  top: "inception_3b/3x3_reduce"
  param {
    lr_mult: 1
    decay_mult: 1
  }
  param {
    lr_mult: 2
    decay_mult: 0
  }
  convolution_param {
    num_output: 128
    kernel_size: 1
    weight_filler {
      type: "xavier"
      std: 0.09
    }
    bias_filler {
      type: "constant"
      value: 0.2
    }
  }
}
layer {
  name: "inception_3b/relu_3x3_reduce"
  type: "ReLU"
  bottom: "inception_3b/3x3_reduce"
  top: "inception_3b/3x3_reduce"
}
layer {
  name: "inception_3b/3x3"
  type: "Convolution"
  bottom: "inception_3b/3x3_reduce"
  top: "inception_3b/3x3"
  param {
    lr_mult: 1
    decay_mult: 1
  }
  param {
    lr_mult: 2
    decay_mult: 0
  }
  convolution_param {
    num_output: 192
    pad: 1
    kernel_size: 3
    weight_filler {
      type: "xavier"
      std: 0.03
    }
    bias_filler {
      type: "constant"
      value: 0.2
    }
  }
}
layer {
  name: "inception_3b/relu_3x3"
  type: "ReLU"
  bottom: "inception_3b/3x3"
  top: "inception_3b/3x3"
}
layer {
  name: "inception_3b/5x5_reduce"
  type: "Convolution"
  bottom: "inception_3a/output"
  top: "inception_3b/5x5_reduce"
  param {
    lr_mult: 1
    decay_mult: 1
  }
  param {
    lr_mult: 2
    decay_mult: 0
  }
  convolution_param {
    num_output: 32
    kernel_size: 1
    weight_filler {
      type: "xavier"
      std: 0.2
    }
    bias_filler {
      type: "constant"
      value: 0.2
    }
  }
}
layer {
  name: "inception_3b/relu_5x5_reduce"
  type: "ReLU"
  bottom: "inception_3b/5x5_reduce"
  top: "inception_3b/5x5_reduce"
}
layer {
  name: "inception_3b/5x5"
  type: "Convolution"
  bottom: "inception_3b/5x5_reduce"
  top: "inception_3b/5x5"
  param {
    lr_mult: 1
    decay_mult: 1
  }
  param {
    lr_mult: 2
    decay_mult: 0
  }
  convolution_param {
    num_output: 96
    pad: 2
    kernel_size: 5
    weight_filler {
      type: "xavier"
      std: 0.03
    }
    bias_filler {
      type: "constant"
      value: 0.2
    }
  }
}
layer {
  name: "inception_3b/relu_5x5"
  type: "ReLU"
  bottom: "inception_3b/5x5"
  top: "inception_3b/5x5"
}
layer {
  name: "inception_3b/pool"
  type: "Pooling"
  bottom: "inception_3a/output"
  top: "inception_3b/pool"
  pooling_param {
    pool: MAX
    kernel_size: 3
    stride: 1
    pad: 1
  }
}
layer {
  name: "inception_3b/pool_proj"
  type: "Convolution"
  bottom: "inception_3b/pool"
  top: "inception_3b/pool_proj"
  param {
    lr_mult: 1
    decay_mult: 1
  }
  param {
    lr_mult: 2
    decay_mult: 0
  }
  convolution_param {
    num_output: 64
    kernel_size: 1
    weight_filler {
      type: "xavier"
      std: 0.1
    }
    bias_filler {
      type: "constant"
      value: 0.2
    }
  }
}
layer {
  name: "inception_3b/relu_pool_proj"
  type: "ReLU"
  bottom: "inception_3b/pool_proj"
  top: "inception_3b/pool_proj"
}
layer {
  name: "inception_3b/output"
  type: "Concat"
  bottom: "inception_3b/1x1"
  bottom: "inception_3b/3x3"
  bottom: "inception_3b/5x5"
  bottom: "inception_3b/pool_proj"
  top: "inception_3b/output"
}
layer {
  name: "pool3/3x3_s2"
  type: "Pooling"
  bottom: "inception_3b/output"
  top: "pool3/3x3_s2"
  pooling_param {
    pool: MAX
    kernel_size: 3
    stride: 2
  }
}
layer {
  name: "inception_4a/1x1"
  type: "Convolution"
  bottom: "pool3/3x3_s2"
  top: "inception_4a/1x1"
  param {
    lr_mult: 1
    decay_mult: 1
  }
  param {
    lr_mult: 2
    decay_mult: 0
  }
  convolution_param {
    num_output: 192
    kernel_size: 1
    weight_filler {
      type: "xavier"
      std: 0.03
    }
    bias_filler {
      type: "constant"
      value: 0.2
    }
  }
}
layer {
  name: "inception_4a/relu_1x1"
  type: "ReLU"
  bottom: "inception_4a/1x1"
  top: "inception_4a/1x1"
}
layer {
  name: "inception_4a/3x3_reduce"
  type: "Convolution"
  bottom: "pool3/3x3_s2"
  top: "inception_4a/3x3_reduce"
  param {
    lr_mult: 1
    decay_mult: 1
  }
  param {
    lr_mult: 2
    decay_mult: 0
  }
  convolution_param {
    num_output: 96
    kernel_size: 1
    weight_filler {
      type: "xavier"
      std: 0.09
    }
    bias_filler {
      type: "constant"
      value: 0.2
    }
  }
}
layer {
  name: "inception_4a/relu_3x3_reduce"
  type: "ReLU"
  bottom: "inception_4a/3x3_reduce"
  top: "inception_4a/3x3_reduce"
}
layer {
  name: "inception_4a/3x3"
  type: "Convolution"
  bottom: "inception_4a/3x3_reduce"
  top: "inception_4a/3x3"
  param {
    lr_mult: 1
    decay_mult: 1
  }
  param {
    lr_mult: 2
    decay_mult: 0
  }
  convolution_param {
    num_output: 208
    pad: 1
    kernel_size: 3
    weight_filler {
      type: "xavier"
      std: 0.03
    }
    bias_filler {
      type: "constant"
      value: 0.2
    }
  }
}
layer {
  name: "inception_4a/relu_3x3"
  type: "ReLU"
  bottom: "inception_4a/3x3"
  top: "inception_4a/3x3"
}
layer {
  name: "inception_4a/5x5_reduce"
  type: "Convolution"
  bottom: "pool3/3x3_s2"
  top: "inception_4a/5x5_reduce"
  param {
    lr_mult: 1
    decay_mult: 1
  }
  param {
    lr_mult: 2
    decay_mult: 0
  }
  convolution_param {
    num_output: 16
    kernel_size: 1
    weight_filler {
      type: "xavier"
      std: 0.2
    }
    bias_filler {
      type: "constant"
      value: 0.2
    }
  }
}
layer {
  name: "inception_4a/relu_5x5_reduce"
  type: "ReLU"
  bottom: "inception_4a/5x5_reduce"
  top: "inception_4a/5x5_reduce"
}
layer {
  name: "inception_4a/5x5"
  type: "Convolution"
  bottom: "inception_4a/5x5_reduce"
  top: "inception_4a/5x5"
  param {
    lr_mult: 1
    decay_mult: 1
  }
  param {
    lr_mult: 2
    decay_mult: 0
  }
  convolution_param {
    num_output: 48
    pad: 2
    kernel_size: 5
    weight_filler {
      type: "xavier"
      std: 0.03
    }
    bias_filler {
      type: "constant"
      value: 0.2
    }
  }
}
layer {
  name: "inception_4a/relu_5x5"
  type: "ReLU"
  bottom: "inception_4a/5x5"
  top: "inception_4a/5x5"
}
layer {
  name: "inception_4a/pool"
  type: "Pooling"
  bottom: "pool3/3x3_s2"
  top: "inception_4a/pool"
  pooling_param {
    pool: MAX
    kernel_size: 3
    stride: 1
    pad: 1
  }
}
layer {
  name: "inception_4a/pool_proj"
  type: "Convolution"
  bottom: "inception_4a/pool"
  top: "inception_4a/pool_proj"
  param {
    lr_mult: 1
    decay_mult: 1
  }
  param {
    lr_mult: 2
    decay_mult: 0
  }
  convolution_param {
    num_output: 64
    kernel_size: 1
    weight_filler {
      type: "xavier"
      std: 0.1
    }
    bias_filler {
      type: "constant"
      value: 0.2
    }
  }
}
layer {
  name: "inception_4a/relu_pool_proj"
  type: "ReLU"
  bottom: "inception_4a/pool_proj"
  top: "inception_4a/pool_proj"
}
layer {
  name: "inception_4a/output"
  type: "Concat"
  bottom: "inception_4a/1x1"
  bottom: "inception_4a/3x3"
  bottom: "inception_4a/5x5"
  bottom: "inception_4a/pool_proj"
  top: "inception_4a/output"
}
layer {
  name: "loss1/ave_pool"
  type: "Pooling"
  bottom: "inception_4a/output"
  top: "loss1/ave_pool"
  pooling_param {
    pool: AVE
    kernel_size: 5
    stride: 3
  }
}
layer {
  name: "loss1/conv"
  type: "Convolution"
  bottom: "loss1/ave_pool"
  top: "loss1/conv"
  param {
    lr_mult: 1
    decay_mult: 1
  }
  param {
    lr_mult: 2
    decay_mult: 0
  }
  convolution_param {
    num_output: 128
    kernel_size: 1
    weight_filler {
      type: "xavier"
      std: 0.08
    }
    bias_filler {
      type: "constant"
      value: 0.2
    }
  }
}
layer {
  name: "loss1/relu_conv"
  type: "ReLU"
  bottom: "loss1/conv"
  top: "loss1/conv"
}
layer {
  name: "loss1/fc"
  type: "InnerProduct"
  bottom: "loss1/conv"
  top: "loss1/fc"
  param {
    lr_mult: 1
    decay_mult: 1
  }
  param {
    lr_mult: 2
    decay_mult: 0
  }
  inner_product_param {
    num_output: 1024
    weight_filler {
      type: "xavier"
      std: 0.02
    }
    bias_filler {
      type: "constant"
      value: 0.2
    }
  }
}
layer {
  name: "loss1/relu_fc"
  type: "ReLU"
  bottom: "loss1/fc"
  top: "loss1/fc"
}
layer {
  name: "loss1/drop_fc"
  type: "Dropout"
  bottom: "loss1/fc"
  top: "loss1/fc"
  dropout_param {
    dropout_ratio: 0.7
  }
}
layer {
  name: "stanford_cars_loss1/classifier"
  type: "InnerProduct"
  bottom: "loss1/fc"
  top: "stanford_cars_loss1/classifier"
  param {
    lr_mult: 1
    decay_mult: 1
  }
  param {
    lr_mult: 2
    decay_mult: 0
  }
  inner_product_param {
    num_output: 196
    weight_filler {
      type: "xavier"
      std: 0.0009765625
    }
    bias_filler {
      type: "constant"
      value: 0
    }
  }
}
layer {
  name: "loss1/loss"
  type: "SoftmaxWithLoss"
  bottom: "stanford_cars_loss1/classifier"
  bottom: "label"
  top: "loss1/loss1"
  loss_weight: 0.3
}
layer {
  name: "loss1/top-1"
  type: "Accuracy"
  bottom: "stanford_cars_loss1/classifier"
  bottom: "label"
  top: "loss1/top-1"
  include {
    phase: TEST
  }
}
layer {
  name: "loss1/top-5"
  type: "Accuracy"
  bottom: "stanford_cars_loss1/classifier"
  bottom: "label"
  top: "loss1/top-5"
  include {
    phase: TEST
  }
  accuracy_param {
    top_k: 5
  }
}
layer {
  name: "inception_4b/1x1"
  type: "Convolution"
  bottom: "inception_4a/output"
  top: "inception_4b/1x1"
  param {
    lr_mult: 1
    decay_mult: 1
  }
  param {
    lr_mult: 2
    decay_mult: 0
  }
  convolution_param {
    num_output: 160
    kernel_size: 1
    weight_filler {
      type: "xavier"
      std: 0.03
    }
    bias_filler {
      type: "constant"
      value: 0.2
    }
  }
}
layer {
  name: "inception_4b/relu_1x1"
  type: "ReLU"
  bottom: "inception_4b/1x1"
  top: "inception_4b/1x1"
}
layer {
  name: "inception_4b/3x3_reduce"
  type: "Convolution"
  bottom: "inception_4a/output"
  top: "inception_4b/3x3_reduce"
  param {
    lr_mult: 1
    decay_mult: 1
  }
  param {
    lr_mult: 2
    decay_mult: 0
  }
  convolution_param {
    num_output: 112
    kernel_size: 1
    weight_filler {
      type: "xavier"
      std: 0.09
    }
    bias_filler {
      type: "constant"
      value: 0.2
    }
  }
}
layer {
  name: "inception_4b/relu_3x3_reduce"
  type: "ReLU"
  bottom: "inception_4b/3x3_reduce"
  top: "inception_4b/3x3_reduce"
}
layer {
  name: "inception_4b/3x3"
  type: "Convolution"
  bottom: "inception_4b/3x3_reduce"
  top: "inception_4b/3x3"
  param {
    lr_mult: 1
    decay_mult: 1
  }
  param {
    lr_mult: 2
    decay_mult: 0
  }
  convolution_param {
    num_output: 224
    pad: 1
    kernel_size: 3
    weight_filler {
      type: "xavier"
      std: 0.03
    }
    bias_filler {
      type: "constant"
      value: 0.2
    }
  }
}
layer {
  name: "inception_4b/relu_3x3"
  type: "ReLU"
  bottom: "inception_4b/3x3"
  top: "inception_4b/3x3"
}
layer {
  name: "inception_4b/5x5_reduce"
  type: "Convolution"
  bottom: "inception_4a/output"
  top: "inception_4b/5x5_reduce"
  param {
    lr_mult: 1
    decay_mult: 1
  }
  param {
    lr_mult: 2
    decay_mult: 0
  }
  convolution_param {
    num_output: 24
    kernel_size: 1
    weight_filler {
      type: "xavier"
      std: 0.2
    }
    bias_filler {
      type: "constant"
      value: 0.2
    }
  }
}
layer {
  name: "inception_4b/relu_5x5_reduce"
  type: "ReLU"
  bottom: "inception_4b/5x5_reduce"
  top: "inception_4b/5x5_reduce"
}
layer {
  name: "inception_4b/5x5"
  type: "Convolution"
  bottom: "inception_4b/5x5_reduce"
  top: "inception_4b/5x5"
  param {
    lr_mult: 1
    decay_mult: 1
  }
  param {
    lr_mult: 2
    decay_mult: 0
  }
  convolution_param {
    num_output: 64
    pad: 2
    kernel_size: 5
    weight_filler {
      type: "xavier"
      std: 0.03
    }
    bias_filler {
      type: "constant"
      value: 0.2
    }
  }
}
layer {
  name: "inception_4b/relu_5x5"
  type: "ReLU"
  bottom: "inception_4b/5x5"
  top: "inception_4b/5x5"
}
layer {
  name: "inception_4b/pool"
  type: "Pooling"
  bottom: "inception_4a/output"
  top: "inception_4b/pool"
  pooling_param {
    pool: MAX
    kernel_size: 3
    stride: 1
    pad: 1
  }
}
layer {
  name: "inception_4b/pool_proj"
  type: "Convolution"
  bottom: "inception_4b/pool"
  top: "inception_4b/pool_proj"
  param {
    lr_mult: 1
    decay_mult: 1
  }
  param {
    lr_mult: 2
    decay_mult: 0
  }
  convolution_param {
    num_output: 64
    kernel_size: 1
    weight_filler {
      type: "xavier"
      std: 0.1
    }
    bias_filler {
      type: "constant"
      value: 0.2
    }
  }
}
layer {
  name: "inception_4b/relu_pool_proj"
  type: "ReLU"
  bottom: "inception_4b/pool_proj"
  top: "inception_4b/pool_proj"
}
layer {
  name: "inception_4b/output"
  type: "Concat"
  bottom: "inception_4b/1x1"
  bottom: "inception_4b/3x3"
  bottom: "inception_4b/5x5"
  bottom: "inception_4b/pool_proj"
  top: "inception_4b/output"
}
layer {
  name: "inception_4c/1x1"
  type: "Convolution"
  bottom: "inception_4b/output"
  top: "inception_4c/1x1"
  param {
    lr_mult: 1
    decay_mult: 1
  }
  param {
    lr_mult: 2
    decay_mult: 0
  }
  convolution_param {
    num_output: 128
    kernel_size: 1
    weight_filler {
      type: "xavier"
      std: 0.03
    }
    bias_filler {
      type: "constant"
      value: 0.2
    }
  }
}
layer {
  name: "inception_4c/relu_1x1"
  type: "ReLU"
  bottom: "inception_4c/1x1"
  top: "inception_4c/1x1"
}
layer {
  name: "inception_4c/3x3_reduce"
  type: "Convolution"
  bottom: "inception_4b/output"
  top: "inception_4c/3x3_reduce"
  param {
    lr_mult: 1
    decay_mult: 1
  }
  param {
    lr_mult: 2
    decay_mult: 0
  }
  convolution_param {
    num_output: 128
    kernel_size: 1
    weight_filler {
      type: "xavier"
      std: 0.09
    }
    bias_filler {
      type: "constant"
      value: 0.2
    }
  }
}
layer {
  name: "inception_4c/relu_3x3_reduce"
  type: "ReLU"
  bottom: "inception_4c/3x3_reduce"
  top: "inception_4c/3x3_reduce"
}
layer {
  name: "inception_4c/3x3"
  type: "Convolution"
  bottom: "inception_4c/3x3_reduce"
  top: "inception_4c/3x3"
  param {
    lr_mult: 1
    decay_mult: 1
  }
  param {
    lr_mult: 2
    decay_mult: 0
  }
  convolution_param {
    num_output: 256
    pad: 1
    kernel_size: 3
    weight_filler {
      type: "xavier"
      std: 0.03
    }
    bias_filler {
      type: "constant"
      value: 0.2
    }
  }
}
layer {
  name: "inception_4c/relu_3x3"
  type: "ReLU"
  bottom: "inception_4c/3x3"
  top: "inception_4c/3x3"
}
layer {
  name: "inception_4c/5x5_reduce"
  type: "Convolution"
  bottom: "inception_4b/output"
  top: "inception_4c/5x5_reduce"
  param {
    lr_mult: 1
    decay_mult: 1
  }
  param {
    lr_mult: 2
    decay_mult: 0
  }
  convolution_param {
    num_output: 24
    kernel_size: 1
    weight_filler {
      type: "xavier"
      std: 0.2
    }
    bias_filler {
      type: "constant"
      value: 0.2
    }
  }
}
layer {
  name: "inception_4c/relu_5x5_reduce"
  type: "ReLU"
  bottom: "inception_4c/5x5_reduce"
  top: "inception_4c/5x5_reduce"
}
layer {
  name: "inception_4c/5x5"
  type: "Convolution"
  bottom: "inception_4c/5x5_reduce"
  top: "inception_4c/5x5"
  param {
    lr_mult: 1
    decay_mult: 1
  }
  param {
    lr_mult: 2
    decay_mult: 0
  }
  convolution_param {
    num_output: 64
    pad: 2
    kernel_size: 5
    weight_filler {
      type: "xavier"
      std: 0.03
    }
    bias_filler {
      type: "constant"
      value: 0.2
    }
  }
}
layer {
  name: "inception_4c/relu_5x5"
  type: "ReLU"
  bottom: "inception_4c/5x5"
  top: "inception_4c/5x5"
}
layer {
  name: "inception_4c/pool"
  type: "Pooling"
  bottom: "inception_4b/output"
  top: "inception_4c/pool"
  pooling_param {
    pool: MAX
    kernel_size: 3
    stride: 1
    pad: 1
  }
}
layer {
  name: "inception_4c/pool_proj"
  type: "Convolution"
  bottom: "inception_4c/pool"
  top: "inception_4c/pool_proj"
  param {
    lr_mult: 1
    decay_mult: 1
  }
  param {
    lr_mult: 2
    decay_mult: 0
  }
  convolution_param {
    num_output: 64
    kernel_size: 1
    weight_filler {
      type: "xavier"
      std: 0.1
    }
    bias_filler {
      type: "constant"
      value: 0.2
    }
  }
}
layer {
  name: "inception_4c/relu_pool_proj"
  type: "ReLU"
  bottom: "inception_4c/pool_proj"
  top: "inception_4c/pool_proj"
}
layer {
  name: "inception_4c/output"
  type: "Concat"
  bottom: "inception_4c/1x1"
  bottom: "inception_4c/3x3"
  bottom: "inception_4c/5x5"
  bottom: "inception_4c/pool_proj"
  top: "inception_4c/output"
}
layer {
  name: "inception_4d/1x1"
  type: "Convolution"
  bottom: "inception_4c/output"
  top: "inception_4d/1x1"
  param {
    lr_mult: 1
    decay_mult: 1
  }
  param {
    lr_mult: 2
    decay_mult: 0
  }
  convolution_param {
    num_output: 112
    kernel_size: 1
    weight_filler {
      type: "xavier"
      std: 0.03
    }
    bias_filler {
      type: "constant"
      value: 0.2
    }
  }
}
layer {
  name: "inception_4d/relu_1x1"
  type: "ReLU"
  bottom: "inception_4d/1x1"
  top: "inception_4d/1x1"
}
layer {
  name: "inception_4d/3x3_reduce"
  type: "Convolution"
  bottom: "inception_4c/output"
  top: "inception_4d/3x3_reduce"
  param {
    lr_mult: 1
    decay_mult: 1
  }
  param {
    lr_mult: 2
    decay_mult: 0
  }
  convolution_param {
    num_output: 144
    kernel_size: 1
    weight_filler {
      type: "xavier"
      std: 0.09
    }
    bias_filler {
      type: "constant"
      value: 0.2
    }
  }
}
layer {
  name: "inception_4d/relu_3x3_reduce"
  type: "ReLU"
  bottom: "inception_4d/3x3_reduce"
  top: "inception_4d/3x3_reduce"
}
layer {
  name: "inception_4d/3x3"
  type: "Convolution"
  bottom: "inception_4d/3x3_reduce"
  top: "inception_4d/3x3"
  param {
    lr_mult: 1
    decay_mult: 1
  }
  param {
    lr_mult: 2
    decay_mult: 0
  }
  convolution_param {
    num_output: 288
    pad: 1
    kernel_size: 3
    weight_filler {
      type: "xavier"
      std: 0.03
    }
    bias_filler {
      type: "constant"
      value: 0.2
    }
  }
}
layer {
  name: "inception_4d/relu_3x3"
  type: "ReLU"
  bottom: "inception_4d/3x3"
  top: "inception_4d/3x3"
}
layer {
  name: "inception_4d/5x5_reduce"
  type: "Convolution"
  bottom: "inception_4c/output"
  top: "inception_4d/5x5_reduce"
  param {
    lr_mult: 1
    decay_mult: 1
  }
  param {
    lr_mult: 2
    decay_mult: 0
  }
  convolution_param {
    num_output: 32
    kernel_size: 1
    weight_filler {
      type: "xavier"
      std: 0.2
    }
    bias_filler {
      type: "constant"
      value: 0.2
    }
  }
}
layer {
  name: "inception_4d/relu_5x5_reduce"
  type: "ReLU"
  bottom: "inception_4d/5x5_reduce"
  top: "inception_4d/5x5_reduce"
}
layer {
  name: "inception_4d/5x5"
  type: "Convolution"
  bottom: "inception_4d/5x5_reduce"
  top: "inception_4d/5x5"
  param {
    lr_mult: 1
    decay_mult: 1
  }
  param {
    lr_mult: 2
    decay_mult: 0
  }
  convolution_param {
    num_output: 64
    pad: 2
    kernel_size: 5
    weight_filler {
      type: "xavier"
      std: 0.03
    }
    bias_filler {
      type: "constant"
      value: 0.2
    }
  }
}
layer {
  name: "inception_4d/relu_5x5"
  type: "ReLU"
  bottom: "inception_4d/5x5"
  top: "inception_4d/5x5"
}
layer {
  name: "inception_4d/pool"
  type: "Pooling"
  bottom: "inception_4c/output"
  top: "inception_4d/pool"
  pooling_param {
    pool: MAX
    kernel_size: 3
    stride: 1
    pad: 1
  }
}
layer {
  name: "inception_4d/pool_proj"
  type: "Convolution"
  bottom: "inception_4d/pool"
  top: "inception_4d/pool_proj"
  param {
    lr_mult: 1
    decay_mult: 1
  }
  param {
    lr_mult: 2
    decay_mult: 0
  }
  convolution_param {
    num_output: 64
    kernel_size: 1
…
I0703 17:47:31.603205 17041 net.cpp:127] Top shape: 10 128 14 14 (250880)
I0703 17:47:31.603229 17041 layer_factory.hpp:74] Creating layer inception_4c/relu_1x1
I0703 17:47:31.603242 17041 net.cpp:90] Creating Layer inception_4c/relu_1x1
I0703 17:47:31.603266 17041 net.cpp:410] inception_4c/relu_1x1 <- inception_4c/1x1
I0703 17:47:31.603278 17041 net.cpp:357] inception_4c/relu_1x1 -> inception_4c/1x1 (in-place)
I0703 17:47:31.603291 17041 net.cpp:120] Setting up inception_4c/relu_1x1
I0703 17:47:31.603368 17041 net.cpp:127] Top shape: 10 128 14 14 (250880)
I0703 17:47:31.603375 17041 layer_factory.hpp:74] Creating layer inception_4c/3x3_reduce
I0703 17:47:31.603382 17041 net.cpp:90] Creating Layer inception_4c/3x3_reduce
I0703 17:47:31.603389 17041 net.cpp:410] inception_4c/3x3_reduce <- inception_4b/output_inception_4b/output_0_split_1
I0703 17:47:31.603395 17041 net.cpp:368] inception_4c/3x3_reduce -> inception_4c/3x3_reduce
I0703 17:47:31.603402 17041 net.cpp:120] Setting up inception_4c/3x3_reduce
I0703 17:47:31.603938 17041 net.cpp:127] Top shape: 10 128 14 14 (250880)
I0703 17:47:31.603950 17041 layer_factory.hpp:74] Creating layer inception_4c/relu_3x3_reduce
I0703 17:47:31.603957 17041 net.cpp:90] Creating Layer inception_4c/relu_3x3_reduce
I0703 17:47:31.603963 17041 net.cpp:410] inception_4c/relu_3x3_reduce <- inception_4c/3x3_reduce
I0703 17:47:31.603970 17041 net.cpp:357] inception_4c/relu_3x3_reduce -> inception_4c/3x3_reduce (in-place)
I0703 17:47:31.603976 17041 net.cpp:120] Setting up inception_4c/relu_3x3_reduce
I0703 17:47:31.604096 17041 net.cpp:127] Top shape: 10 128 14 14 (250880)
I0703 17:47:31.604105 17041 layer_factory.hpp:74] Creating layer inception_4c/3x3
I0703 17:47:31.604113 17041 net.cpp:90] Creating Layer inception_4c/3x3
I0703 17:47:31.604118 17041 net.cpp:410] inception_4c/3x3 <- inception_4c/3x3_reduce
I0703 17:47:31.604125 17041 net.cpp:368] inception_4c/3x3 -> inception_4c/3x3
I0703 17:47:31.604132 17041 net.cpp:120] Setting up inception_4c/3x3
I0703 17:47:31.605770 17041 net.cpp:127] Top shape: 10 256 14 14 (501760)
I0703 17:47:31.605790 17041 layer_factory.hpp:74] Creating layer inception_4c/relu_3x3
I0703 17:47:31.605798 17041 net.cpp:90] Creating Layer inception_4c/relu_3x3
I0703 17:47:31.605803 17041 net.cpp:410] inception_4c/relu_3x3 <- inception_4c/3x3
I0703 17:47:31.605808 17041 net.cpp:357] inception_4c/relu_3x3 -> inception_4c/3x3 (in-place)
I0703 17:47:31.605815 17041 net.cpp:120] Setting up inception_4c/relu_3x3
I0703 17:47:31.605857 17041 net.cpp:127] Top shape: 10 256 14 14 (501760)
I0703 17:47:31.605864 17041 layer_factory.hpp:74] Creating layer inception_4c/5x5_reduce
I0703 17:47:31.605871 17041 net.cpp:90] Creating Layer inception_4c/5x5_reduce
I0703 17:47:31.605876 17041 net.cpp:410] inception_4c/5x5_reduce <- inception_4b/output_inception_4b/output_0_split_2
I0703 17:47:31.605883 17041 net.cpp:368] inception_4c/5x5_reduce -> inception_4c/5x5_reduce
I0703 17:47:31.605890 17041 net.cpp:120] Setting up inception_4c/5x5_reduce
I0703 17:47:31.606168 17041 net.cpp:127] Top shape: 10 24 14 14 (47040)
I0703 17:47:31.606179 17041 layer_factory.hpp:74] Creating layer inception_4c/relu_5x5_reduce
I0703 17:47:31.606186 17041 net.cpp:90] Creating Layer inception_4c/relu_5x5_reduce
I0703 17:47:31.606191 17041 net.cpp:410] inception_4c/relu_5x5_reduce <- inception_4c/5x5_reduce
I0703 17:47:31.606199 17041 net.cpp:357] inception_4c/relu_5x5_reduce -> inception_4c/5x5_reduce (in-place)
I0703 17:47:31.606205 17041 net.cpp:120] Setting up inception_4c/relu_5x5_reduce
I0703 17:47:31.606246 17041 net.cpp:127] Top shape: 10 24 14 14 (47040)
I0703 17:47:31.606251 17041 layer_factory.hpp:74] Creating layer inception_4c/5x5
I0703 17:47:31.606259 17041 net.cpp:90] Creating Layer inception_4c/5x5
I0703 17:47:31.606264 17041 net.cpp:410] inception_4c/5x5 <- inception_4c/5x5_reduce
I0703 17:47:31.606271 17041 net.cpp:368] inception_4c/5x5 -> inception_4c/5x5
I0703 17:47:31.606277 17041 net.cpp:120] Setting up inception_4c/5x5
I0703 17:47:31.606675 17041 net.cpp:127] Top shape: 10 64 14 14 (125440)
I0703 17:47:31.606686 17041 layer_factory.hpp:74] Creating layer inception_4c/relu_5x5
I0703 17:47:31.606693 17041 net.cpp:90] Creating Layer inception_4c/relu_5x5
I0703 17:47:31.606704 17041 net.cpp:410] inception_4c/relu_5x5 <- inception_4c/5x5
I0703 17:47:31.606711 17041 net.cpp:357] inception_4c/relu_5x5 -> inception_4c/5x5 (in-place)
I0703 17:47:31.606719 17041 net.cpp:120] Setting up inception_4c/relu_5x5
I0703 17:47:31.606760 17041 net.cpp:127] Top shape: 10 64 14 14 (125440)
I0703 17:47:31.606766 17041 layer_factory.hpp:74] Creating layer inception_4c/pool
I0703 17:47:31.606772 17041 layer_factory.cpp:55] CUDNN does not support padding or multiple tops. Using Caffe's own pooling layer.
I0703 17:47:31.606778 17041 net.cpp:90] Creating Layer inception_4c/pool
I0703 17:47:31.606783 17041 net.cpp:410] inception_4c/pool <- inception_4b/output_inception_4b/output_0_split_3
I0703 17:47:31.606788 17041 net.cpp:368] inception_4c/pool -> inception_4c/pool
I0703 17:47:31.606796 17041 net.cpp:120] Setting up inception_4c/pool
I0703 17:47:31.606803 17041 net.cpp:127] Top shape: 10 512 14 14 (1003520)
I0703 17:47:31.606807 17041 layer_factory.hpp:74] Creating layer inception_4c/pool_proj
I0703 17:47:31.606814 17041 net.cpp:90] Creating Layer inception_4c/pool_proj
I0703 17:47:31.606819 17041 net.cpp:410] inception_4c/pool_proj <- inception_4c/pool
I0703 17:47:31.606827 17041 net.cpp:368] inception_4c/pool_proj -> inception_4c/pool_proj
I0703 17:47:31.606832 17041 net.cpp:120] Setting up inception_4c/pool_proj
I0703 17:47:31.607206 17041 net.cpp:127] Top shape: 10 64 14 14 (125440)
I0703 17:47:31.607218 17041 layer_factory.hpp:74] Creating layer inception_4c/relu_pool_proj
I0703 17:47:31.607225 17041 net.cpp:90] Creating Layer inception_4c/relu_pool_proj
I0703 17:47:31.607230 17041 net.cpp:410] inception_4c/relu_pool_proj <- inception_4c/pool_proj
I0703 17:47:31.607236 17041 net.cpp:357] inception_4c/relu_pool_proj -> inception_4c/pool_proj (in-place)
I0703 17:47:31.607242 17041 net.cpp:120] Setting up inception_4c/relu_pool_proj
I0703 17:47:31.607367 17041 net.cpp:127] Top shape: 10 64 14 14 (125440)
I0703 17:47:31.607377 17041 layer_factory.hpp:74] Creating layer inception_4c/output
I0703 17:47:31.607383 17041 net.cpp:90] Creating Layer inception_4c/output
I0703 17:47:31.607388 17041 net.cpp:410] inception_4c/output <- inception_4c/1x1
I0703 17:47:31.607393 17041 net.cpp:410] inception_4c/output <- inception_4c/3x3
I0703 17:47:31.607398 17041 net.cpp:410] inception_4c/output <- inception_4c/5x5
I0703 17:47:31.607403 17041 net.cpp:410] inception_4c/output <- inception_4c/pool_proj
I0703 17:47:31.607420 17041 net.cpp:368] inception_4c/output -> inception_4c/output
I0703 17:47:31.607427 17041 net.cpp:120] Setting up inception_4c/output
I0703 17:47:31.607444 17041 net.cpp:127] Top shape: 10 512 14 14 (1003520)
I0703 17:47:31.607448 17041 layer_factory.hpp:74] Creating layer inception_4c/output_inception_4c/output_0_split
I0703 17:47:31.607455 17041 net.cpp:90] Creating Layer inception_4c/output_inception_4c/output_0_split
I0703 17:47:31.607460 17041 net.cpp:410] inception_4c/output_inception_4c/output_0_split <- inception_4c/output
I0703 17:47:31.607465 17041 net.cpp:368] inception_4c/output_inception_4c/output_0_split -> inception_4c/output_inception_4c/output_0_split_0
I0703 17:47:31.607472 17041 net.cpp:368] inception_4c/output_inception_4c/output_0_split -> inception_4c/output_inception_4c/output_0_split_1
I0703 17:47:31.625669 17041 net.cpp:368] inception_4c/output_inception_4c/output_0_split -> inception_4c/output_inception_4c/output_0_split_2
I0703 17:47:31.625697 17041 net.cpp:368] inception_4c/output_inception_4c/output_0_split -> inception_4c/output_inception_4c/output_0_split_3
I0703 17:47:31.625708 17041 net.cpp:120] Setting up inception_4c/output_inception_4c/output_0_split
I0703 17:47:31.625725 17041 net.cpp:127] Top shape: 10 512 14 14 (1003520)
I0703 17:47:31.625735 17041 net.cpp:127] Top shape: 10 512 14 14 (1003520)
I0703 17:47:31.625743 17041 net.cpp:127] Top shape: 10 512 14 14 (1003520)
I0703 17:47:31.625751 17041 net.cpp:127] Top shape: 10 512 14 14 (1003520)
I0703 17:47:31.625761 17041 layer_factory.hpp:74] Creating layer inception_4d/1x1
I0703 17:47:31.625779 17041 net.cpp:90] Creating Layer inception_4d/1x1
I0703 17:47:31.625812 17041 net.cpp:410] inception_4d/1x1 <- inception_4c/output_inception_4c/output_0_split_0
I0703 17:47:31.625826 17041 net.cpp:368] inception_4d/1x1 -> inception_4d/1x1
I0703 17:47:31.625838 17041 net.cpp:120] Setting up inception_4d/1x1
I0703 17:47:31.627167 17041 net.cpp:127] Top shape: 10 112 14 14 (219520)
I0703 17:47:31.627189 17041 layer_factory.hpp:74] Creating layer inception_4d/relu_1x1
I0703 17:47:31.627202 17041 net.cpp:90] Creating Layer inception_4d/relu_1x1
I0703 17:47:31.627210 17041 net.cpp:410] inception_4d/relu_1x1 <- inception_4d/1x1
I0703 17:47:31.627221 17041 net.cpp:357] inception_4d/relu_1x1 -> inception_4d/1x1 (in-place)
I0703 17:47:31.627233 17041 net.cpp:120] Setting up inception_4d/relu_1x1
I0703 17:47:31.627301 17041 net.cpp:127] Top shape: 10 112 14 14 (219520)
I0703 17:47:31.627337 17041 layer_factory.hpp:74] Creating layer inception_4d/3x3_reduce
I0703 17:47:31.627365 17041 net.cpp:90] Creating Layer inception_4d/3x3_reduce
I0703 17:47:31.627384 17041 net.cpp:410] inception_4d/3x3_reduce <- inception_4c/output_inception_4c/output_0_split_1
I0703 17:47:31.627408 17041 net.cpp:368] inception_4d/3x3_reduce -> inception_4d/3x3_reduce
I0703 17:47:31.627431 17041 net.cpp:120] Setting up inception_4d/3x3_reduce
I0703 17:47:31.628895 17041 net.cpp:127] Top shape: 10 144 14 14 (282240)
I0703 17:47:31.628924 17041 layer_factory.hpp:74] Creating layer inception_4d/relu_3x3_reduce
I0703 17:47:31.628940 17041 net.cpp:90] Creating Layer inception_4d/relu_3x3_reduce
I0703 17:47:31.628952 17041 net.cpp:410] inception_4d/relu_3x3_reduce <- inception_4d/3x3_reduce
I0703 17:47:31.628963 17041 net.cpp:357] inception_4d/relu_3x3_reduce -> inception_4d/3x3_reduce (in-place)
I0703 17:47:31.628976 17041 net.cpp:120] Setting up inception_4d/relu_3x3_reduce
I0703 17:47:31.629063 17041 net.cpp:127] Top shape: 10 144 14 14 (282240)
I0703 17:47:31.629076 17041 layer_factory.hpp:74] Creating layer inception_4d/3x3
I0703 17:47:31.629088 17041 net.cpp:90] Creating Layer inception_4d/3x3
I0703 17:47:31.629098 17041 net.cpp:410] inception_4d/3x3 <- inception_4d/3x3_reduce
I0703 17:47:31.629112 17041 net.cpp:368] inception_4d/3x3 -> inception_4d/3x3
I0703 17:47:31.629127 17041 net.cpp:120] Setting up inception_4d/3x3
I0703 17:47:31.633191 17041 net.cpp:127] Top shape: 10 288 14 14 (564480)
I0703 17:47:31.633219 17041 layer_factory.hpp:74] Creating layer inception_4d/relu_3x3
I0703 17:47:31.633234 17041 net.cpp:90] Creating Layer inception_4d/relu_3x3
I0703 17:47:31.633245 17041 net.cpp:410] inception_4d/relu_3x3 <- inception_4d/3x3
I0703 17:47:31.633257 17041 net.cpp:357] inception_4d/relu_3x3 -> inception_4d/3x3 (in-place)
I0703 17:47:31.633270 17041 net.cpp:120] Setting up inception_4d/relu_3x3
I0703 17:47:31.633473 17041 net.cpp:127] Top shape: 10 288 14 14 (564480)
I0703 17:47:31.633491 17041 layer_factory.hpp:74] Creating layer inception_4d/5x5_reduce
I0703 17:47:31.633504 17041 net.cpp:90] Creating Layer inception_4d/5x5_reduce
I0703 17:47:31.633515 17041 net.cpp:410] inception_4d/5x5_reduce <- inception_4c/output_inception_4c/output_0_split_2
I0703 17:47:31.633532 17041 net.cpp:368] inception_4d/5x5_reduce -> inception_4d/5x5_reduce
I0703 17:47:31.633548 17041 net.cpp:120] Setting up inception_4d/5x5_reduce
I0703 17:47:31.634093 17041 net.cpp:127] Top shape: 10 32 14 14 (62720)
I0703 17:47:31.634115 17041 layer_factory.hpp:74] Creating layer inception_4d/relu_5x5_reduce
I0703 17:47:31.634129 17041 net.cpp:90] Creating Layer inception_4d/relu_5x5_reduce
I0703 17:47:31.634138 17041 net.cpp:410] inception_4d/relu_5x5_reduce <- inception_4d/5x5_reduce
I0703 17:47:31.634150 17041 net.cpp:357] inception_4d/relu_5x5_reduce -> inception_4d/5x5_reduce (in-place)
I0703 17:47:31.634162 17041 net.cpp:120] Setting up inception_4d/relu_5x5_reduce
I0703 17:47:31.634248 17041 net.cpp:127] Top shape: 10 32 14 14 (62720)
I0703 17:47:31.634259 17041 layer_factory.hpp:74] Creating layer inception_4d/5x5
I0703 17:47:31.634274 17041 net.cpp:90] Creating Layer inception_4d/5x5
I0703 17:47:31.634304 17041 net.cpp:410] inception_4d/5x5 <- inception_4d/5x5_reduce
I0703 17:47:31.634317 17041 net.cpp:368] inception_4d/5x5 -> inception_4d/5x5
I0703 17:47:31.634332 17041 net.cpp:120] Setting up inception_4d/5x5
I0703 17:47:31.635217 17041 net.cpp:127] Top shape: 10 64 14 14 (125440)
I0703 17:47:31.635241 17041 layer_factory.hpp:74] Creating layer inception_4d/relu_5x5
I0703 17:47:31.635253 17041 net.cpp:90] Creating Layer inception_4d/relu_5x5
I0703 17:47:31.635263 17041 net.cpp:410] inception_4d/relu_5x5 <- inception_4d/5x5
I0703 17:47:31.635274 17041 net.cpp:357] inception_4d/relu_5x5 -> inception_4d/5x5 (in-place)
I0703 17:47:31.635288 17041 net.cpp:120] Setting up inception_4d/relu_5x5
I0703 17:47:31.635388 17041 net.cpp:127] Top shape: 10 64 14 14 (125440)
I0703 17:47:31.635401 17041 layer_factory.hpp:74] Creating layer inception_4d/pool
I0703 17:47:31.635412 17041 layer_factory.cpp:55] CUDNN does not support padding or multiple tops. Using Caffe's own pooling layer.
I0703 17:47:31.635424 17041 net.cpp:90] Creating Layer inception_4d/pool
I0703 17:47:31.635433 17041 net.cpp:410] inception_4d/pool <- inception_4c/output_inception_4c/output_0_split_3
I0703 17:47:31.635445 17041 net.cpp:368] inception_4d/pool -> inception_4d/pool
I0703 17:47:31.635458 17041 net.cpp:120] Setting up inception_4d/pool
I0703 17:47:31.635473 17041 net.cpp:127] Top shape: 10 512 14 14 (1003520)
I0703 17:47:31.635481 17041 layer_factory.hpp:74] Creating layer inception_4d/pool_proj
I0703 17:47:31.635496 17041 net.cpp:90] Creating Layer inception_4d/pool_proj
I0703 17:47:31.635506 17041 net.cpp:410] inception_4d/pool_proj <- inception_4d/pool
I0703 17:47:31.635519 17041 net.cpp:368] inception_4d/pool_proj -> inception_4d/pool_proj
I0703 17:47:31.635532 17041 net.cpp:120] Setting up inception_4d/pool_proj
I0703 17:47:31.636248 17041 net.cpp:127] Top shape: 10 64 14 14 (125440)
I0703 17:47:31.636271 17041 layer_factory.hpp:74] Creating layer inception_4d/relu_pool_proj
I0703 17:47:31.636283 17041 net.cpp:90] Creating Layer inception_4d/relu_pool_proj
I0703 17:47:31.636294 17041 net.cpp:410] inception_4d/relu_pool_proj <- inception_4d/pool_proj
I0703 17:47:31.636307 17041 net.cpp:357] inception_4d/relu_pool_proj -> inception_4d/pool_proj (in-place)
I0703 17:47:31.636320 17041 net.cpp:120] Setting up inception_4d/relu_pool_proj
I0703 17:47:31.636406 17041 net.cpp:127] Top shape: 10 64 14 14 (125440)
I0703 17:47:31.636418 17041 layer_factory.hpp:74] Creating layer inception_4d/output
I0703 17:47:31.636430 17041 net.cpp:90] Creating Layer inception_4d/output
I0703 17:47:31.636440 17041 net.cpp:410] inception_4d/output <- inception_4d/1x1
I0703 17:47:31.636451 17041 net.cpp:410] inception_4d/output <- inception_4d/3x3
I0703 17:47:31.636461 17041 net.cpp:410] inception_4d/output <- inception_4d/5x5
I0703 17:47:31.636471 17041 net.cpp:410] inception_4d/output <- inception_4d/pool_proj
I0703 17:47:31.636482 17041 net.cpp:368] inception_4d/output -> inception_4d/output
I0703 17:47:31.636495 17041 net.cpp:120] Setting up inception_4d/output
I0703 17:47:31.636508 17041 net.cpp:127] Top shape: 10 528 14 14 (1034880)
I0703 17:47:31.636518 17041 layer_factory.hpp:74] Creating layer inception_4d/output_inception_4d/output_0_split
I0703 17:47:31.636529 17041 net.cpp:90] Creating Layer inception_4d/output_inception_4d/output_0_split
I0703 17:47:31.636538 17041 net.cpp:410] inception_4d/output_inception_4d/output_0_split <- inception_4d/output
I0703 17:47:31.636551 17041 net.cpp:368] inception_4d/output_inception_4d/output_0_split -> inception_4d/output_inception_4d/output_0_split_0
I0703 17:47:31.636565 17041 net.cpp:368] inception_4d/output_inception_4d/output_0_split -> inception_4d/output_inception_4d/output_0_split_1
I0703 17:47:31.636579 17041 net.cpp:368] inception_4d/output_inception_4d/output_0_split -> inception_4d/output_inception_4d/output_0_split_2
I0703 17:47:31.636591 17041 net.cpp:368] inception_4d/output_inception_4d/output_0_split -> inception_4d/output_inception_4d/output_0_split_3
I0703 17:47:31.636603 17041 net.cpp:368] inception_4d/output_inception_4d/output_0_split -> inception_4d/output_inception_4d/output_0_split_4
I0703 17:47:31.636629 17041 net.cpp:120] Setting up inception_4d/output_inception_4d/output_0_split
I0703 17:47:31.636644 17041 net.cpp:127] Top shape: 10 528 14 14 (1034880)
I0703 17:47:31.636654 17041 net.cpp:127] Top shape: 10 528 14 14 (1034880)
I0703 17:47:31.636664 17041 net.cpp:127] Top shape: 10 528 14 14 (1034880)
I0703 17:47:31.636673 17041 net.cpp:127] Top shape: 10 528 14 14 (1034880)
I0703 17:47:31.636683 17041 net.cpp:127] Top shape: 10 528 14 14 (1034880)
I0703 17:47:31.636692 17041 layer_factory.hpp:74] Creating layer loss2/ave_pool
I0703 17:47:31.636705 17041 net.cpp:90] Creating Layer loss2/ave_pool
I0703 17:47:31.636714 17041 net.cpp:410] loss2/ave_pool <- inception_4d/output_inception_4d/output_0_split_0
I0703 17:47:31.636728 17041 net.cpp:368] loss2/ave_pool -> loss2/ave_pool
I0703 17:47:31.636739 17041 net.cpp:120] Setting up loss2/ave_pool
I0703 17:47:31.636952 17041 net.cpp:127] Top shape: 10 528 4 4 (84480)
I0703 17:47:31.636971 17041 layer_factory.hpp:74] Creating layer loss2/conv
I0703 17:47:31.636986 17041 net.cpp:90] Creating Layer loss2/conv
I0703 17:47:31.636996 17041 net.cpp:410] loss2/conv <- loss2/ave_pool
I0703 17:47:31.637008 17041 net.cpp:368] loss2/conv -> loss2/conv
I0703 17:47:31.637022 17041 net.cpp:120] Setting up loss2/conv
I0703 17:47:31.638072 17041 net.cpp:127] Top shape: 10 128 4 4 (20480)
I0703 17:47:31.638094 17041 layer_factory.hpp:74] Creating layer loss2/relu_conv
I0703 17:47:31.638108 17041 net.cpp:90] Creating Layer loss2/relu_conv
I0703 17:47:31.638119 17041 net.cpp:410] loss2/relu_conv <- loss2/conv
I0703 17:47:31.638131 17041 net.cpp:357] loss2/relu_conv -> loss2/conv (in-place)
I0703 17:47:31.638144 17041 net.cpp:120] Setting up loss2/relu_conv
I0703 17:47:31.638227 17041 net.cpp:127] Top shape: 10 128 4 4 (20480)
I0703 17:47:31.638239 17041 layer_factory.hpp:74] Creating layer loss2/fc
I0703 17:47:31.638253 17041 net.cpp:90] Creating Layer loss2/fc
I0703 17:47:31.638263 17041 net.cpp:410] loss2/fc <- loss2/conv
I0703 17:47:31.638277 17041 net.cpp:368] loss2/fc -> loss2/fc
I0703 17:47:31.638290 17041 net.cpp:120] Setting up loss2/fc
I0703 17:47:31.648444 17041 net.cpp:127] Top shape: 10 1024 (10240)
I0703 17:47:31.648471 17041 layer_factory.hpp:74] Creating layer loss2/relu_fc
I0703 17:47:31.648480 17041 net.cpp:90] Creating Layer loss2/relu_fc
I0703 17:47:31.648488 17041 net.cpp:410] loss2/relu_fc <- loss2/fc
I0703 17:47:31.648495 17041 net.cpp:357] loss2/relu_fc -> loss2/fc (in-place)
I0703 17:47:31.648504 17041 net.cpp:120] Setting up loss2/relu_fc
I0703 17:47:31.648578 17041 net.cpp:127] Top shape: 10 1024 (10240)
I0703 17:47:31.655915 17041 layer_factory.hpp:74] Creating layer loss2/drop_fc
I0703 17:47:31.655932 17041 net.cpp:90] Creating Layer loss2/drop_fc
I0703 17:47:31.655941 17041 net.cpp:410] loss2/drop_fc <- loss2/fc
I0703 17:47:31.655949 17041 net.cpp:357] loss2/drop_fc -> loss2/fc (in-place)
I0703 17:47:31.655969 17041 net.cpp:120] Setting up loss2/drop_fc
I0703 17:47:31.655980 17041 net.cpp:127] Top shape: 10 1024 (10240)
I0703 17:47:31.655997 17041 layer_factory.hpp:74] Creating layer stanford_cars_loss2/classifier
I0703 17:47:31.656013 17041 net.cpp:90] Creating Layer stanford_cars_loss2/classifier
I0703 17:47:31.656020 17041 net.cpp:410] stanford_cars_loss2/classifier <- loss2/fc
I0703 17:47:31.656030 17041 net.cpp:368] stanford_cars_loss2/classifier -> stanford_cars_loss2/classifier
I0703 17:47:31.656041 17041 net.cpp:120] Setting up stanford_cars_loss2/classifier
I0703 17:47:31.657382 17041 net.cpp:127] Top shape: 10 196 (1960)
I0703 17:47:31.657398 17041 layer_factory.hpp:74] Creating layer stanford_cars_loss2/classifier_stanford_cars_loss2/classifier_0_split
I0703 17:47:31.657410 17041 net.cpp:90] Creating Layer stanford_cars_loss2/classifier_stanford_cars_loss2/classifier_0_split
I0703 17:47:31.657418 17041 net.cpp:410] stanford_cars_loss2/classifier_stanford_cars_loss2/classifier_0_split <- stanford_cars_loss2/classifier
I0703 17:47:31.657430 17041 net.cpp:368] stanford_cars_loss2/classifier_stanford_cars_loss2/classifier_0_split -> stanford_cars_loss2/classifier_stanford_cars_loss2/classifier_0_split_0
I0703 17:47:31.657479 17041 net.cpp:368] stanford_cars_loss2/classifier_stanford_cars_loss2/classifier_0_split -> stanford_cars_loss2/classifier_stanford_cars_loss2/classifier_0_split_1
I0703 17:47:31.657500 17041 net.cpp:368] stanford_cars_loss2/classifier_stanford_cars_loss2/classifier_0_split -> stanford_cars_loss2/classifier_stanford_cars_loss2/classifier_0_split_2
I0703 17:47:31.657510 17041 net.cpp:120] Setting up stanford_cars_loss2/classifier_stanford_cars_loss2/classifier_0_split
I0703 17:47:31.657531 17041 net.cpp:127] Top shape: 10 196 (1960)
I0703 17:47:31.657549 17041 net.cpp:127] Top shape: 10 196 (1960)
I0703 17:47:31.657557 17041 net.cpp:127] Top shape: 10 196 (1960)
I0703 17:47:31.657564 17041 layer_factory.hpp:74] Creating layer stanford_cars_loss2/loss
I0703 17:47:31.657577 17041 net.cpp:90] Creating Layer stanford_cars_loss2/loss
I0703 17:47:31.657595 17041 net.cpp:410] stanford_cars_loss2/loss <- stanford_cars_loss2/classifier_stanford_cars_loss2/classifier_0_split_0
I0703 17:47:31.657615 17041 net.cpp:410] stanford_cars_loss2/loss <- label_data_1_split_3
…
I0703 17:47:31.659088 17041 net.cpp:368] loss2/top-5 -> loss2/top-5
I0703 17:47:31.659096 17041 net.cpp:120] Setting up loss2/top-5
I0703 17:47:31.659102 17041 net.cpp:127] Top shape: (1)
I0703 17:47:31.659106 17041 layer_factory.hpp:74] Creating layer inception_4e/1x1
I0703 17:47:31.659116 17041 net.cpp:90] Creating Layer inception_4e/1x1
I0703 17:47:31.659122 17041 net.cpp:410] inception_4e/1x1 <- inception_4d/output_inception_4d/output_0_split_1
I0703 17:47:31.659128 17041 net.cpp:368] inception_4e/1x1 -> inception_4e/1x1
I0703 17:47:31.659135 17041 net.cpp:120] Setting up inception_4e/1x1
I0703 17:47:31.660691 17041 net.cpp:127] Top shape: 10 256 14 14 (501760)
I0703 17:47:31.660714 17041 layer_factory.hpp:74] Creating layer inception_4e/relu_1x1
I0703 17:47:31.660728 17041 net.cpp:90] Creating Layer inception_4e/relu_1x1
I0703 17:47:31.660738 17041 net.cpp:410] inception_4e/relu_1x1 <- inception_4e/1x1
I0703 17:47:31.660748 17041 net.cpp:357] inception_4e/relu_1x1 -> inception_4e/1x1 (in-place)
I0703 17:47:31.660760 17041 net.cpp:120] Setting up inception_4e/relu_1x1
I0703 17:47:31.660954 17041 net.cpp:127] Top shape: 10 256 14 14 (501760)
I0703 17:47:31.660970 17041 layer_factory.hpp:74] Creating layer inception_4e/3x3_reduce
I0703 17:47:31.661000 17041 net.cpp:90] Creating Layer inception_4e/3x3_reduce
I0703 17:47:31.661010 17041 net.cpp:410] inception_4e/3x3_reduce <- inception_4d/output_inception_4d/output_0_split_2
I0703 17:47:31.661023 17041 net.cpp:368] inception_4e/3x3_reduce -> inception_4e/3x3_reduce
I0703 17:47:31.661037 17041 net.cpp:120] Setting up inception_4e/3x3_reduce
I0703 17:47:31.662180 17041 net.cpp:127] Top shape: 10 160 14 14 (313600)
I0703 17:47:31.662202 17041 layer_factory.hpp:74] Creating layer inception_4e/relu_3x3_reduce
I0703 17:47:31.662214 17041 net.cpp:90] Creating Layer inception_4e/relu_3x3_reduce
I0703 17:47:31.662223 17041 net.cpp:410] inception_4e/relu_3x3_reduce <- inception_4e/3x3_reduce
I0703 17:47:31.662233 17041 net.cpp:357] inception_4e/relu_3x3_reduce -> inception_4e/3x3_reduce (in-place)
I0703 17:47:31.662245 17041 net.cpp:120] Setting up inception_4e/relu_3x3_reduce
I0703 17:47:31.662323 17041 net.cpp:127] Top shape: 10 160 14 14 (313600)
I0703 17:47:31.662334 17041 layer_factory.hpp:74] Creating layer inception_4e/3x3
I0703 17:47:31.662348 17041 net.cpp:90] Creating Layer inception_4e/3x3
I0703 17:47:31.662356 17041 net.cpp:410] inception_4e/3x3 <- inception_4e/3x3_reduce
I0703 17:47:31.662369 17041 net.cpp:368] inception_4e/3x3 -> inception_4e/3x3
I0703 17:47:31.662380 17041 net.cpp:120] Setting up inception_4e/3x3
I0703 17:47:31.665263 17041 net.cpp:127] Top shape: 10 320 14 14 (627200)
I0703 17:47:31.665274 17041 layer_factory.hpp:74] Creating layer inception_4e/relu_3x3
I0703 17:47:31.665282 17041 net.cpp:90] Creating Layer inception_4e/relu_3x3
I0703 17:47:31.665287 17041 net.cpp:410] inception_4e/relu_3x3 <- inception_4e/3x3
I0703 17:47:31.665292 17041 net.cpp:357] inception_4e/relu_3x3 -> inception_4e/3x3 (in-place)
I0703 17:47:31.665298 17041 net.cpp:120] Setting up inception_4e/relu_3x3
I0703 17:47:31.665341 17041 net.cpp:127] Top shape: 10 320 14 14 (627200)
I0703 17:47:31.665348 17041 layer_factory.hpp:74] Creating layer inception_4e/5x5_reduce
I0703 17:47:31.665354 17041 net.cpp:90] Creating Layer inception_4e/5x5_reduce
I0703 17:47:31.665359 17041 net.cpp:410] inception_4e/5x5_reduce <- inception_4d/output_inception_4d/output_0_split_3
I0703 17:47:31.665366 17041 net.cpp:368] inception_4e/5x5_reduce -> inception_4e/5x5_reduce
I0703 17:47:31.665374 17041 net.cpp:120] Setting up inception_4e/5x5_reduce
I0703 17:47:31.665702 17041 net.cpp:127] Top shape: 10 32 14 14 (62720)
I0703 17:47:31.665714 17041 layer_factory.hpp:74] Creating layer inception_4e/relu_5x5_reduce
I0703 17:47:31.665720 17041 net.cpp:90] Creating Layer inception_4e/relu_5x5_reduce
I0703 17:47:31.665725 17041 net.cpp:410] inception_4e/relu_5x5_reduce <- inception_4e/5x5_reduce
I0703 17:47:31.665731 17041 net.cpp:357] inception_4e/relu_5x5_reduce -> inception_4e/5x5_reduce (in-place)
I0703 17:47:31.665737 17041 net.cpp:120] Setting up inception_4e/relu_5x5_reduce
I0703 17:47:31.665776 17041 net.cpp:127] Top shape: 10 32 14 14 (62720)
I0703 17:47:31.665782 17041 layer_factory.hpp:74] Creating layer inception_4e/5x5
I0703 17:47:31.665789 17041 net.cpp:90] Creating Layer inception_4e/5x5
I0703 17:47:31.665794 17041 net.cpp:410] inception_4e/5x5 <- inception_4e/5x5_reduce
I0703 17:47:31.665801 17041 net.cpp:368] inception_4e/5x5 -> inception_4e/5x5
I0703 17:47:31.665807 17041 net.cpp:120] Setting up inception_4e/5x5
I0703 17:47:31.666515 17041 net.cpp:127] Top shape: 10 128 14 14 (250880)
I0703 17:47:31.666527 17041 layer_factory.hpp:74] Creating layer inception_4e/relu_5x5
I0703 17:47:31.666533 17041 net.cpp:90] Creating Layer inception_4e/relu_5x5
I0703 17:47:31.666538 17041 net.cpp:410] inception_4e/relu_5x5 <- inception_4e/5x5
I0703 17:47:31.666545 17041 net.cpp:357] inception_4e/relu_5x5 -> inception_4e/5x5 (in-place)
I0703 17:47:31.666551 17041 net.cpp:120] Setting up inception_4e/relu_5x5
I0703 17:47:31.666666 17041 net.cpp:127] Top shape: 10 128 14 14 (250880)
I0703 17:47:31.666674 17041 layer_factory.hpp:74] Creating layer inception_4e/pool
I0703 17:47:31.666681 17041 layer_factory.cpp:55] CUDNN does not support padding or multiple tops. Using Caffe's own pooling layer.
I0703 17:47:31.666687 17041 net.cpp:90] Creating Layer inception_4e/pool
I0703 17:47:31.666690 17041 net.cpp:410] inception_4e/pool <- inception_4d/output_inception_4d/output_0_split_4
I0703 17:47:31.666697 17041 net.cpp:368] inception_4e/pool -> inception_4e/pool
I0703 17:47:31.666704 17041 net.cpp:120] Setting up inception_4e/pool
I0703 17:47:31.666720 17041 net.cpp:127] Top shape: 10 528 14 14 (1034880)
I0703 17:47:31.666725 17041 layer_factory.hpp:74] Creating layer inception_4e/pool_proj
I0703 17:47:31.666733 17041 net.cpp:90] Creating Layer inception_4e/pool_proj
I0703 17:47:31.666736 17041 net.cpp:410] inception_4e/pool_proj <- inception_4e/pool
I0703 17:47:31.666744 17041 net.cpp:368] inception_4e/pool_proj -> inception_4e/pool_proj
I0703 17:47:31.666751 17041 net.cpp:120] Setting up inception_4e/pool_proj
I0703 17:47:31.667291 17041 net.cpp:127] Top shape: 10 128 14 14 (250880)
I0703 17:47:31.667302 17041 layer_factory.hpp:74] Creating layer inception_4e/relu_pool_proj
I0703 17:47:31.667315 17041 net.cpp:90] Creating Layer inception_4e/relu_pool_proj
I0703 17:47:31.667338 17041 net.cpp:410] inception_4e/relu_pool_proj <- inception_4e/pool_proj
I0703 17:47:31.667346 17041 net.cpp:357] inception_4e/relu_pool_proj -> inception_4e/pool_proj (in-place)
I0703 17:47:31.667361 17041 net.cpp:120] Setting up inception_4e/relu_pool_proj
I0703 17:47:31.667404 17041 net.cpp:127] Top shape: 10 128 14 14 (250880)
I0703 17:47:31.667410 17041 layer_factory.hpp:74] Creating layer inception_4e/output
I0703 17:47:31.667417 17041 net.cpp:90] Creating Layer inception_4e/output
I0703 17:47:31.667421 17041 net.cpp:410] inception_4e/output <- inception_4e/1x1
I0703 17:47:31.667426 17041 net.cpp:410] inception_4e/output <- inception_4e/3x3
I0703 17:47:31.667433 17041 net.cpp:410] inception_4e/output <- inception_4e/5x5
I0703 17:47:31.667438 17041 net.cpp:410] inception_4e/output <- inception_4e/pool_proj
I0703 17:47:31.667443 17041 net.cpp:368] inception_4e/output -> inception_4e/output
I0703 17:47:31.667450 17041 net.cpp:120] Setting up inception_4e/output
I0703 17:47:31.667457 17041 net.cpp:127] Top shape: 10 832 14 14 (1630720)
I0703 17:47:31.667461 17041 layer_factory.hpp:74] Creating layer pool4/3x3_s2
I0703 17:47:31.667467 17041 net.cpp:90] Creating Layer pool4/3x3_s2
I0703 17:47:31.667472 17041 net.cpp:410] pool4/3x3_s2 <- inception_4e/output
I0703 17:47:31.686259 17041 net.cpp:368] pool4/3x3_s2 -> pool4/3x3_s2
I0703 17:47:31.686290 17041 net.cpp:120] Setting up pool4/3x3_s2
I0703 17:47:31.686408 17041 net.cpp:127] Top shape: 10 832 7 7 (407680)
I0703 17:47:31.686419 17041 layer_factory.hpp:74] Creating layer pool4/3x3_s2_pool4/3x3_s2_0_split
I0703 17:47:31.686431 17041 net.cpp:90] Creating Layer pool4/3x3_s2_pool4/3x3_s2_0_split
I0703 17:47:31.686439 17041 net.cpp:410] pool4/3x3_s2_pool4/3x3_s2_0_split <- pool4/3x3_s2
I0703 17:47:31.686450 17041 net.cpp:368] pool4/3x3_s2_pool4/3x3_s2_0_split -> pool4/3x3_s2_pool4/3x3_s2_0_split_0
I0703 17:47:31.686460 17041 net.cpp:368] pool4/3x3_s2_pool4/3x3_s2_0_split -> pool4/3x3_s2_pool4/3x3_s2_0_split_1
I0703 17:47:31.686472 17041 net.cpp:368] pool4/3x3_s2_pool4/3x3_s2_0_split -> pool4/3x3_s2_pool4/3x3_s2_0_split_2
I0703 17:47:31.686498 17041 net.cpp:368] pool4/3x3_s2_pool4/3x3_s2_0_split -> pool4/3x3_s2_pool4/3x3_s2_0_split_3
I0703 17:47:31.686508 17041 net.cpp:120] Setting up pool4/3x3_s2_pool4/3x3_s2_0_split
I0703 17:47:31.686521 17041 net.cpp:127] Top shape: 10 832 7 7 (407680)
I0703 17:47:31.686528 17041 net.cpp:127] Top shape: 10 832 7 7 (407680)
I0703 17:47:31.686537 17041 net.cpp:127] Top shape: 10 832 7 7 (407680)
I0703 17:47:31.686545 17041 net.cpp:127] Top shape: 10 832 7 7 (407680)
I0703 17:47:31.686553 17041 layer_factory.hpp:74] Creating layer inception_5a/1x1
I0703 17:47:31.686565 17041 net.cpp:90] Creating Layer inception_5a/1x1
I0703 17:47:31.686573 17041 net.cpp:410] inception_5a/1x1 <- pool4/3x3_s2_pool4/3x3_s2_0_split_0
I0703 17:47:31.686585 17041 net.cpp:368] inception_5a/1x1 -> inception_5a/1x1
I0703 17:47:31.686596 17041 net.cpp:120] Setting up inception_5a/1x1
I0703 17:47:31.689177 17041 net.cpp:127] Top shape: 10 256 7 7 (125440)
I0703 17:47:31.689204 17041 layer_factory.hpp:74] Creating layer inception_5a/relu_1x1
I0703 17:47:31.689218 17041 net.cpp:90] Creating Layer inception_5a/relu_1x1
I0703 17:47:31.689229 17041 net.cpp:410] inception_5a/relu_1x1 <- inception_5a/1x1
I0703 17:47:31.689265 17041 net.cpp:357] inception_5a/relu_1x1 -> inception_5a/1x1 (in-place)
I0703 17:47:31.689280 17041 net.cpp:120] Setting up inception_5a/relu_1x1
I0703 17:47:31.689513 17041 net.cpp:127] Top shape: 10 256 7 7 (125440)
I0703 17:47:31.689540 17041 layer_factory.hpp:74] Creating layer inception_5a/3x3_reduce
I0703 17:47:31.689568 17041 net.cpp:90] Creating Layer inception_5a/3x3_reduce
I0703 17:47:31.689585 17041 net.cpp:410] inception_5a/3x3_reduce <- pool4/3x3_s2_pool4/3x3_s2_0_split_1
I0703 17:47:31.689604 17041 net.cpp:368] inception_5a/3x3_reduce -> inception_5a/3x3_reduce
I0703 17:47:31.689622 17041 net.cpp:120] Setting up inception_5a/3x3_reduce
I0703 17:47:31.691334 17041 net.cpp:127] Top shape: 10 160 7 7 (78400)
I0703 17:47:31.691359 17041 layer_factory.hpp:74] Creating layer inception_5a/relu_3x3_reduce
I0703 17:47:31.691373 17041 net.cpp:90] Creating Layer inception_5a/relu_3x3_reduce
I0703 17:47:31.691385 17041 net.cpp:410] inception_5a/relu_3x3_reduce <- inception_5a/3x3_reduce
I0703 17:47:31.691396 17041 net.cpp:357] inception_5a/relu_3x3_reduce -> inception_5a/3x3_reduce (in-place)
I0703 17:47:31.691409 17041 net.cpp:120] Setting up inception_5a/relu_3x3_reduce
I0703 17:47:31.691498 17041 net.cpp:127] Top shape: 10 160 7 7 (78400)
I0703 17:47:31.691510 17041 layer_factory.hpp:74] Creating layer inception_5a/3x3
I0703 17:47:31.691524 17041 net.cpp:90] Creating Layer inception_5a/3x3
I0703 17:47:31.691532 17041 net.cpp:410] inception_5a/3x3 <- inception_5a/3x3_reduce
I0703 17:47:31.691546 17041 net.cpp:368] inception_5a/3x3 -> inception_5a/3x3
I0703 17:47:31.691560 17041 net.cpp:120] Setting up inception_5a/3x3
I0703 17:47:31.696423 17041 net.cpp:127] Top shape: 10 320 7 7 (156800)
I0703 17:47:31.696449 17041 layer_factory.hpp:74] Creating layer inception_5a/relu_3x3
I0703 17:47:31.696462 17041 net.cpp:90] Creating Layer inception_5a/relu_3x3
I0703 17:47:31.696472 17041 net.cpp:410] inception_5a/relu_3x3 <- inception_5a/3x3
I0703 17:47:31.696485 17041 net.cpp:357] inception_5a/relu_3x3 -> inception_5a/3x3 (in-place)
I0703 17:47:31.696499 17041 net.cpp:120] Setting up inception_5a/relu_3x3
I0703 17:47:31.696583 17041 net.cpp:127] Top shape: 10 320 7 7 (156800)
I0703 17:47:31.696593 17041 layer_factory.hpp:74] Creating layer inception_5a/5x5_reduce
I0703 17:47:31.696607 17041 net.cpp:90] Creating Layer inception_5a/5x5_reduce
I0703 17:47:31.696619 17041 net.cpp:410] inception_5a/5x5_reduce <- pool4/3x3_s2_pool4/3x3_s2_0_split_2
I0703 17:47:31.696631 17041 net.cpp:368] inception_5a/5x5_reduce -> inception_5a/5x5_reduce
I0703 17:47:31.696645 17041 net.cpp:120] Setting up inception_5a/5x5_reduce
I0703 17:47:31.697299 17041 net.cpp:127] Top shape: 10 32 7 7 (15680)
I0703 17:47:31.697321 17041 layer_factory.hpp:74] Creating layer inception_5a/relu_5x5_reduce
I0703 17:47:31.697335 17041 net.cpp:90] Creating Layer inception_5a/relu_5x5_reduce
I0703 17:47:31.697345 17041 net.cpp:410] inception_5a/relu_5x5_reduce <- inception_5a/5x5_reduce
I0703 17:47:31.697355 17041 net.cpp:357] inception_5a/relu_5x5_reduce -> inception_5a/5x5_reduce (in-place)
I0703 17:47:31.697367 17041 net.cpp:120] Setting up inception_5a/relu_5x5_reduce
I0703 17:47:31.697451 17041 net.cpp:127] Top shape: 10 32 7 7 (15680)
I0703 17:47:31.697463 17041 layer_factory.hpp:74] Creating layer inception_5a/5x5
I0703 17:47:31.697475 17041 net.cpp:90] Creating Layer inception_5a/5x5
I0703 17:47:31.697485 17041 net.cpp:410] inception_5a/5x5 <- inception_5a/5x5_reduce
I0703 17:47:31.697499 17041 net.cpp:368] inception_5a/5x5 -> inception_5a/5x5
I0703 17:47:31.697512 17041 net.cpp:120] Setting up inception_5a/5x5
I0703 17:47:31.698891 17041 net.cpp:127] Top shape: 10 128 7 7 (62720)
I0703 17:47:31.698915 17041 layer_factory.hpp:74] Creating layer inception_5a/relu_5x5
I0703 17:47:31.698927 17041 net.cpp:90] Creating Layer inception_5a/relu_5x5
I0703 17:47:31.698938 17041 net.cpp:410] inception_5a/relu_5x5 <- inception_5a/5x5
I0703 17:47:31.698950 17041 net.cpp:357] inception_5a/relu_5x5 -> inception_5a/5x5 (in-place)
I0703 17:47:31.698979 17041 net.cpp:120] Setting up inception_5a/relu_5x5
I0703 17:47:31.699193 17041 net.cpp:127] Top shape: 10 128 7 7 (62720)
I0703 17:47:31.699211 17041 layer_factory.hpp:74] Creating layer inception_5a/pool
I0703 17:47:31.699221 17041 layer_factory.cpp:55] CUDNN does not support padding or multiple tops. Using Caffe's own pooling layer.
I0703 17:47:31.699234 17041 net.cpp:90] Creating Layer inception_5a/pool
I0703 17:47:31.699244 17041 net.cpp:410] inception_5a/pool <- pool4/3x3_s2_pool4/3x3_s2_0_split_3
I0703 17:47:31.699255 17041 net.cpp:368] inception_5a/pool -> inception_5a/pool
I0703 17:47:31.699268 17041 net.cpp:120] Setting up inception_5a/pool
I0703 17:47:31.699283 17041 net.cpp:127] Top shape: 10 832 7 7 (407680)
I0703 17:47:31.699292 17041 layer_factory.hpp:74] Creating layer inception_5a/pool_proj
I0703 17:47:31.699331 17041 net.cpp:90] Creating Layer inception_5a/pool_proj
I0703 17:47:31.699337 17041 net.cpp:410] inception_5a/pool_proj <- inception_5a/pool
I0703 17:47:31.699343 17041 net.cpp:368] inception_5a/pool_proj -> inception_5a/pool_proj
I0703 17:47:31.699350 17041 net.cpp:120] Setting up inception_5a/pool_proj
I0703 17:47:31.700080 17041 net.cpp:127] Top shape: 10 128 7 7 (62720)
I0703 17:47:31.700093 17041 layer_factory.hpp:74] Creating layer inception_5a/relu_pool_proj
I0703 17:47:31.700099 17041 net.cpp:90] Creating Layer inception_5a/relu_pool_proj
I0703 17:47:31.700104 17041 net.cpp:410] inception_5a/relu_pool_proj <- inception_5a/pool_proj
I0703 17:47:31.700110 17041 net.cpp:357] inception_5a/relu_pool_proj -> inception_5a/pool_proj (in-place)
I0703 17:47:31.700117 17041 net.cpp:120] Setting up inception_5a/relu_pool_proj
I0703 17:47:31.700160 17041 net.cpp:127] Top shape: 10 128 7 7 (62720)
I0703 17:47:31.700165 17041 layer_factory.hpp:74] Creating layer inception_5a/output
I0703 17:47:31.700172 17041 net.cpp:90] Creating Layer inception_5a/output
I0703 17:47:31.700177 17041 net.cpp:410] inception_5a/output <- inception_5a/1x1
I0703 17:47:31.700183 17041 net.cpp:410] inception_5a/output <- inception_5a/3x3
I0703 17:47:31.700188 17041 net.cpp:410] inception_5a/output <- inception_5a/5x5
I0703 17:47:31.700193 17041 net.cpp:410] inception_5a/output <- inception_5a/pool_proj
I0703 17:47:31.700199 17041 net.cpp:368] inception_5a/output -> inception_5a/output
I0703 17:47:31.700206 17041 net.cpp:120] Setting up inception_5a/output
I0703 17:47:31.700212 17041 net.cpp:127] Top shape: 10 832 7 7 (407680)
I0703 17:47:31.700217 17041 layer_factory.hpp:74] Creating layer inception_5a/output_inception_5a/output_0_split
I0703 17:47:31.700223 17041 net.cpp:90] Creating Layer inception_5a/output_inception_5a/output_0_split
I0703 17:47:31.700228 17041 net.cpp:410] inception_5a/output_inception_5a/output_0_split <- inception_5a/output
I0703 17:47:31.700234 17041 net.cpp:368] inception_5a/output_inception_5a/output_0_split -> inception_5a/output_inception_5a/output_0_split_0
I0703 17:47:31.700242 17041 net.cpp:368] inception_5a/output_inception_5a/output_0_split -> inception_5a/output_inception_5a/output_0_split_1
I0703 17:47:31.700248 17041 net.cpp:368] inception_5a/output_inception_5a/output_0_split -> inception_5a/output_inception_5a/output_0_split_2
I0703 17:47:31.700254 17041 net.cpp:368] inception_5a/output_inception_5a/output_0_split -> inception_5a/output_inception_5a/output_0_split_3
I0703 17:47:31.700260 17041 net.cpp:120] Setting up inception_5a/output_inception_5a/output_0_split
I0703 17:47:31.700266 17041 net.cpp:127] Top shape: 10 832 7 7 (407680)
I0703 17:47:31.700271 17041 net.cpp:127] Top shape: 10 832 7 7 (407680)
I0703 17:47:31.700276 17041 net.cpp:127] Top shape: 10 832 7 7 (407680)
I0703 17:47:31.700280 17041 net.cpp:127] Top shape: 10 832 7 7 (407680)
I0703 17:47:31.700284 17041 layer_factory.hpp:74] Creating layer inception_5b/1x1
I0703 17:47:31.700292 17041 net.cpp:90] Creating Layer inception_5b/1x1
I0703 17:47:31.700297 17041 net.cpp:410] inception_5b/1x1 <- inception_5a/output_inception_5a/output_0_split_0
I0703 17:47:31.700304 17041 net.cpp:368] inception_5b/1x1 -> inception_5b/1x1
I0703 17:47:31.700317 17041 net.cpp:120] Setting up inception_5b/1x1
I0703 17:47:31.702085 17041 net.cpp:127] Top shape: 10 384 7 7 (188160)
I0703 17:47:31.702095 17041 layer_factory.hpp:74] Creating layer inception_5b/relu_1x1
I0703 17:47:31.702105 17041 net.cpp:90] Creating Layer inception_5b/relu_1x1
I0703 17:47:31.702110 17041 net.cpp:410] inception_5b/relu_1x1 <- inception_5b/1x1
I0703 17:47:31.702116 17041 net.cpp:357] inception_5b/relu_1x1 -> inception_5b/1x1 (in-place)
I0703 17:47:31.702121 17041 net.cpp:120] Setting up inception_5b/relu_1x1
I0703 17:47:31.702165 17041 net.cpp:127] Top shape: 10 384 7 7 (188160)
I0703 17:47:31.702172 17041 layer_factory.hpp:74] Creating layer inception_5b/3x3_reduce
I0703 17:47:31.702178 17041 net.cpp:90] Creating Layer inception_5b/3x3_reduce
I0703 17:47:31.702183 17041 net.cpp:410] inception_5b/3x3_reduce <- inception_5a/output_inception_5a/output_0_split_1
I0703 17:47:31.702190 17041 net.cpp:368] inception_5b/3x3_reduce -> inception_5b/3x3_reduce
I0703 17:47:31.702198 17041 net.cpp:120] Setting up inception_5b/3x3_reduce
I0703 17:47:31.703187 17041 net.cpp:127] Top shape: 10 192 7 7 (94080)
I0703 17:47:31.703198 17041 layer_factory.hpp:74] Creating layer inception_5b/relu_3x3_reduce
I0703 17:47:31.703207 17041 net.cpp:90] Creating Layer inception_5b/relu_3x3_reduce
I0703 17:47:31.703212 17041 net.cpp:410] inception_5b/relu_3x3_reduce <- inception_5b/3x3_reduce
I0703 17:47:31.703217 17041 net.cpp:357] inception_5b/relu_3x3_reduce -> inception_5b/3x3_reduce (in-place)
I0703 17:47:31.703224 17041 net.cpp:120] Setting up inception_5b/relu_3x3_reduce
I0703 17:47:31.703269 17041 net.cpp:127] Top shape: 10 192 7 7 (94080)
I0703 17:47:31.703274 17041 layer_factory.hpp:74] Creating layer inception_5b/3x3
I0703 17:47:31.703281 17041 net.cpp:90] Creating Layer inception_5b/3x3
I0703 17:47:31.703286 17041 net.cpp:410] inception_5b/3x3 <- inception_5b/3x3_reduce
I0703 17:47:31.703292 17041 net.cpp:368] inception_5b/3x3 -> inception_5b/3x3
I0703 17:47:31.703299 17041 net.cpp:120] Setting up inception_5b/3x3
I0703 17:47:31.706748 17041 net.cpp:127] Top shape: 10 384 7 7 (188160)
I0703 17:47:31.706763 17041 layer_factory.hpp:74] Creating layer inception_5b/relu_3x3
I0703 17:47:31.706770 17041 net.cpp:90] Creating Layer inception_5b/relu_3x3
I0703 17:47:31.716785 17041 net.cpp:410] inception_5b/relu_3x3 <- inception_5b/3x3
I0703 17:47:31.716819 17041 net.cpp:357] inception_5b/relu_3x3 -> inception_5b/3x3 (in-place)
I0703 17:47:31.716832 17041 net.cpp:120] Setting up inception_5b/relu_3x3
I0703 17:47:31.717142 17041 net.cpp:127] Top shape: 10 384 7 7 (188160)
I0703 17:47:31.717157 17041 layer_factory.hpp:74] Creating layer inception_5b/5x5_reduce
I0703 17:47:31.717172 17041 net.cpp:90] Creating Layer inception_5b/5x5_reduce
I0703 17:47:31.717181 17041 net.cpp:410] inception_5b/5x5_reduce <- inception_5a/output_inception_5a/output_0_split_2
I0703 17:47:31.717192 17041 net.cpp:368] inception_5b/5x5_reduce -> inception_5b/5x5_reduce
I0703 17:47:31.717206 17041 net.cpp:120] Setting up inception_5b/5x5_reduce
I0703 17:47:31.717792 17041 net.cpp:127] Top shape: 10 48 7 7 (23520)
I0703 17:47:31.717811 17041 layer_factory.hpp:74] Creating layer inception_5b/relu_5x5_reduce
I0703 17:47:31.717824 17041 net.cpp:90] Creating Layer inception_5b/relu_5x5_reduce
I0703 17:47:31.717833 17041 net.cpp:410] inception_5b/relu_5x5_reduce <- inception_5b/5x5_reduce
I0703 17:47:31.717842 17041 net.cpp:357] inception_5b/relu_5x5_reduce -> inception_5b/5x5_reduce (in-place)
I0703 17:47:31.717854 17041 net.cpp:120] Setting up inception_5b/relu_5x5_reduce
I0703 17:47:31.717923 17041 net.cpp:127] Top shape: 10 48 7 7 (23520)
I0703 17:47:31.717936 17041 layer_factory.hpp:74] Creating layer inception_5b/5x5
I0703 17:47:31.717949 17041 net.cpp:90] Creating Layer inception_5b/5x5
I0703 17:47:31.717958 17041 net.cpp:410] inception_5b/5x5 <- inception_5b/5x5_reduce
I0703 17:47:31.717969 17041 net.cpp:368] inception_5b/5x5 -> inception_5b/5x5
I0703 17:47:31.717980 17041 net.cpp:120] Setting up inception_5b/5x5
I0703 17:47:31.719213 17041 net.cpp:127] Top shape: 10 128 7 7 (62720)
I0703 17:47:31.719226 17041 layer_factory.hpp:74] Creating layer inception_5b/relu_5x5
I0703 17:47:31.719234 17041 net.cpp:90] Creating Layer inception_5b/relu_5x5
I0703 17:47:31.719239 17041 net.cpp:410] inception_5b/relu_5x5 <- inception_5b/5x5
I0703 17:47:31.719246 17041 net.cpp:357] inception_5b/relu_5x5 -> inception_5b/5x5 (in-place)
I0703 17:47:31.719254 17041 net.cpp:120] Setting up inception_5b/relu_5x5
I0703 17:47:31.719296 17041 net.cpp:127] Top shape: 10 128 7 7 (62720)
I0703 17:47:31.719302 17041 layer_factory.hpp:74] Creating layer inception_5b/pool
I0703 17:47:31.719331 17041 layer_factory.cpp:55] CUDNN does not support padding or multiple tops. Using Caffe's own pooling layer.
I0703 17:47:31.719343 17041 net.cpp:90] Creating Layer inception_5b/pool
I0703 17:47:31.719352 17041 net.cpp:410] inception_5b/pool <- inception_5a/output_inception_5a/output_0_split_3
I0703 17:47:31.719367 17041 net.cpp:368] inception_5b/pool -> inception_5b/pool
I0703 17:47:31.719382 17041 net.cpp:120] Setting up inception_5b/pool
I0703 17:47:31.719396 17041 net.cpp:127] Top shape: 10 832 7 7 (407680)
I0703 17:47:31.719405 17041 layer_factory.hpp:74] Creating layer inception_5b/pool_proj
I0703 17:47:31.719425 17041 net.cpp:90] Creating Layer inception_5b/pool_proj
I0703 17:47:31.719441 17041 net.cpp:410] inception_5b/pool_proj <- inception_5b/pool
I0703 17:47:31.719455 17041 net.cpp:368] inception_5b/pool_proj -> inception_5b/pool_proj
I0703 17:47:31.719468 17041 net.cpp:120] Setting up inception_5b/pool_proj
I0703 17:47:31.720947 17041 net.cpp:127] Top shape: 10 128 7 7 (62720)
I0703 17:47:31.720973 17041 layer_factory.hpp:74] Creating layer inception_5b/relu_pool_proj
I0703 17:47:31.720988 17041 net.cpp:90] Creating Layer inception_5b/relu_pool_proj
I0703 17:47:31.720999 17041 net.cpp:410] inception_5b/relu_pool_proj <- inception_5b/pool_proj
I0703 17:47:31.721010 17041 net.cpp:357] inception_5b/relu_pool_proj -> inception_5b/pool_proj (in-place)
I0703 17:47:31.721024 17041 net.cpp:120] Setting up inception_5b/relu_pool_proj
I0703 17:47:31.721109 17041 net.cpp:127] Top shape: 10 128 7 7 (62720)
I0703 17:47:31.721122 17041 layer_factory.hpp:74] Creating layer inception_5b/output
I0703 17:47:31.721134 17041 net.cpp:90] Creating Layer inception_5b/output
I0703 17:47:31.721143 17041 net.cpp:410] inception_5b/output <- inception_5b/1x1
I0703 17:47:31.721154 17041 net.cpp:410] inception_5b/output <- inception_5b/3x3
I0703 17:47:31.721165 17041 net.cpp:410] inception_5b/output <- inception_5b/5x5
I0703 17:47:31.721175 17041 net.cpp:410] inception_5b/output <- inception_5b/pool_proj
I0703 17:47:31.721185 17041 net.cpp:368] inception_5b/output -> inception_5b/output
I0703 17:47:31.721200 17041 net.cpp:120] Setting up inception_5b/output
I0703 17:47:31.721213 17041 net.cpp:127] Top shape: 10 1024 7 7 (501760)
I0703 17:47:31.721223 17041 layer_factory.hpp:74] Creating layer pool5/7x7_s1
I0703 17:47:31.721235 17041 net.cpp:90] Creating Layer pool5/7x7_s1
I0703 17:47:31.721243 17041 net.cpp:410] pool5/7x7_s1 <- inception_5b/output
I0703 17:47:31.721256 17041 net.cpp:368] pool5/7x7_s1 -> pool5/7x7_s1
I0703 17:47:31.721267 17041 net.cpp:120] Setting up pool5/7x7_s1
I0703 17:47:31.721477 17041 net.cpp:127] Top shape: 10 1024 1 1 (10240)
I0703 17:47:31.721494 17041 layer_factory.hpp:74] Creating layer pool5/drop_7x7_s1
I0703 17:47:31.721506 17041 net.cpp:90] Creating Layer pool5/drop_7x7_s1
I0703 17:47:31.721516 17041 net.cpp:410] pool5/drop_7x7_s1 <- pool5/7x7_s1
I0703 17:47:31.721529 17041 net.cpp:357] pool5/drop_7x7_s1 -> pool5/7x7_s1 (in-place)
I0703 17:47:31.721541 17041 net.cpp:120] Setting up pool5/drop_7x7_s1
I0703 17:47:31.721554 17041 net.cpp:127] Top shape: 10 1024 1 1 (10240)
I0703 17:47:31.721563 17041 layer_factory.hpp:74] Creating layer stanford_cars_loss3/classifier
I0703 17:47:31.721577 17041 net.cpp:90] Creating Layer stanford_cars_loss3/classifier
I0703 17:47:31.721586 17041 net.cpp:410] stanford_cars_loss3/classifier <- pool5/7x7_s1
I0703 17:47:31.721601 17041 net.cpp:368] stanford_cars_loss3/classifier -> stanford_cars_loss3/classifier
I0703 17:47:31.721631 17041 net.cpp:120] Setting up stanford_cars_loss3/classifier
I0703 17:47:31.723475 17041 net.cpp:127] Top shape: 10 196 (1960)
I0703 17:47:31.723485 17041 layer_factory.hpp:74] Creating layer stanford_cars_loss3/classifier_stanford_cars_loss3/classifier_0_split
I0703 17:47:31.723494 17041 net.cpp:90] Creating Layer stanford_cars_loss3/classifier_stanford_cars_loss3/classifier_0_split
I0703 17:47:31.723498 17041 net.cpp:410] stanford_cars_loss3/classifier_stanford_cars_loss3/classifier_0_split <- stanford_cars_loss3/classifier
I0703 17:47:31.723505 17041 net.cpp:368] stanford_cars_loss3/classifier_stanford_cars_loss3/classifier_0_split -> stanford_cars_loss3/classifier_stanford_cars_loss3/classifier_0_split_0
I0703 17:47:31.723511 17041 net.cpp:368] stanford_cars_loss3/classifier_stanford_cars_loss3/classifier_0_split -> stanford_cars_loss3/classifier_stanford_cars_loss3/classifier_0_split_1
I0703 17:47:31.723518 17041 net.cpp:368] stanford_cars_loss3/classifier_stanford_cars_loss3/classifier_0_split -> stanford_cars_loss3/classifier_stanford_cars_loss3/classifier_0_split_2
I0703 17:47:31.723526 17041 net.cpp:120] Setting up stanford_cars_loss3/classifier_stanford_cars_loss3/classifier_0_split
I0703 17:47:31.723532 17041 net.cpp:127] Top shape: 10 196 (1960)
I0703 17:47:31.723537 17041 net.cpp:127] Top shape: 10 196 (1960)
I0703 17:47:31.723542 17041 net.cpp:127] Top shape: 10 196 (1960)
I0703 17:47:31.723546 17041 layer_factory.hpp:74] Creating layer loss3/loss3
I0703 17:47:31.723552 17041 net.cpp:90] Creating Layer loss3/loss3
I0703 17:47:31.723557 17041 net.cpp:410] loss3/loss3 <- stanford_cars_loss3/classifier_stanford_cars_loss3/classifier_0_split_0
I0703 17:47:31.723562 17041 net.cpp:410] loss3/loss3 <- label_data_1_split_6
I0703 17:47:31.723568 17041 net.cpp:368] loss3/loss3 -> loss3/loss3
…
