…
I0704 13:25:07.313324 25725 net.cpp:287] The NetState phase (0) differed from the phase (1) specified by a rule in layer loss3/top-5
I0704 13:25:07.313982 25725 net.cpp:42] Initializing net from parameters: 
name: "GoogleNet"
state {
  phase: TRAIN
}
layer {
  name: "data"
  type: "Data"
  top: "data"
  top: "label"
  include {
    phase: TRAIN
  }
  transform_param {
    mirror: true
    crop_size: 224
    mean_value: 104
    mean_value: 117
    mean_value: 123
  }
  data_param {
    source: "examples/stanford_cars/stanford_cars_train_lmdb"
    batch_size: 30
    backend: LMDB
  }
}
layer {
  name: "conv1/7x7_s2"
  type: "Convolution"
  bottom: "data"
  top: "conv1/7x7_s2"
  param {
    lr_mult: 1
    decay_mult: 1
  }
  param {
    lr_mult: 2
    decay_mult: 0
  }
  convolution_param {
    num_output: 64
    pad: 3
    kernel_size: 7
    stride: 2
    weight_filler {
      type: "xavier"
      std: 0.1
    }
    bias_filler {
      type: "constant"
      value: 0.2
    }
  }
}
layer {
  name: "conv1/relu_7x7"
  type: "ReLU"
  bottom: "conv1/7x7_s2"
  top: "conv1/7x7_s2"
}
layer {
  name: "pool1/3x3_s2"
  type: "Pooling"
  bottom: "conv1/7x7_s2"
  top: "pool1/3x3_s2"
  pooling_param {
    pool: MAX
    kernel_size: 3
    stride: 2
  }
}
layer {
  name: "pool1/norm1"
  type: "LRN"
  bottom: "pool1/3x3_s2"
  top: "pool1/norm1"
  lrn_param {
    local_size: 5
    alpha: 0.0001
    beta: 0.75
  }
}
layer {
  name: "conv2/3x3_reduce"
  type: "Convolution"
  bottom: "pool1/norm1"
  top: "conv2/3x3_reduce"
  param {
    lr_mult: 1
    decay_mult: 1
  }
  param {
    lr_mult: 2
    decay_mult: 0
  }
  convolution_param {
    num_output: 64
    kernel_size: 1
    weight_filler {
      type: "xavier"
      std: 0.1
    }
    bias_filler {
      type: "constant"
      value: 0.2
    }
  }
}
layer {
  name: "conv2/relu_3x3_reduce"
  type: "ReLU"
  bottom: "conv2/3x3_reduce"
  top: "conv2/3x3_reduce"
}
layer {
  name: "conv2/3x3"
  type: "Convolution"
  bottom: "conv2/3x3_reduce"
  top: "conv2/3x3"
  param {
    lr_mult: 1
    decay_mult: 1
  }
  param {
    lr_mult: 2
    decay_mult: 0
  }
  convolution_param {
    num_output: 192
    pad: 1
    kernel_size: 3
    weight_filler {
      type: "xavier"
      std: 0.03
    }
    bias_filler {
      type: "constant"
      value: 0.2
    }
  }
}
layer {
  name: "conv2/relu_3x3"
  type: "ReLU"
  bottom: "conv2/3x3"
  top: "conv2/3x3"
}
layer {
  name: "conv2/norm2"
  type: "LRN"
  bottom: "conv2/3x3"
  top: "conv2/norm2"
  lrn_param {
    local_size: 5
    alpha: 0.0001
    beta: 0.75
  }
}
layer {
  name: "pool2/3x3_s2"
  type: "Pooling"
  bottom: "conv2/norm2"
  top: "pool2/3x3_s2"
  pooling_param {
    pool: MAX
    kernel_size: 3
    stride: 2
  }
}
layer {
  name: "inception_3a/1x1"
  type: "Convolution"
  bottom: "pool2/3x3_s2"
  top: "inception_3a/1x1"
  param {
    lr_mult: 1
    decay_mult: 1
  }
  param {
    lr_mult: 2
    decay_mult: 0
  }
  convolution_param {
    num_output: 64
    kernel_size: 1
    weight_filler {
      type: "xavier"
      std: 0.03
    }
    bias_filler {
      type: "constant"
      value: 0.2
    }
  }
}
layer {
  name: "inception_3a/relu_1x1"
  type: "ReLU"
  bottom: "inception_3a/1x1"
  top: "inception_3a/1x1"
}
layer {
  name: "inception_3a/3x3_reduce"
  type: "Convolution"
  bottom: "pool2/3x3_s2"
  top: "inception_3a/3x3_reduce"
  param {
    lr_mult: 1
    decay_mult: 1
  }
  param {
    lr_mult: 2
    decay_mult: 0
  }
  convolution_param {
    num_output: 96
    kernel_size: 1
    weight_filler {
      type: "xavier"
      std: 0.09
    }
    bias_filler {
      type: "constant"
      value: 0.2
    }
  }
}
layer {
  name: "inception_3a/relu_3x3_reduce"
  type: "ReLU"
  bottom: "inception_3a/3x3_reduce"
  top: "inception_3a/3x3_reduce"
}
layer {
  name: "inception_3a/3x3"
  type: "Convolution"
  bottom: "inception_3a/3x3_reduce"
  top: "inception_3a/3x3"
  param {
    lr_mult: 1
    decay_mult: 1
  }
  param {
    lr_mult: 2
    decay_mult: 0
  }
  convolution_param {
    num_output: 128
    pad: 1
    kernel_size: 3
    weight_filler {
      type: "xavier"
      std: 0.03
    }
    bias_filler {
      type: "constant"
      value: 0.2
    }
  }
}
layer {
  name: "inception_3a/relu_3x3"
  type: "ReLU"
  bottom: "inception_3a/3x3"
  top: "inception_3a/3x3"
}
layer {
  name: "inception_3a/5x5_reduce"
  type: "Convolution"
  bottom: "pool2/3x3_s2"
  top: "inception_3a/5x5_reduce"
  param {
    lr_mult: 1
    decay_mult: 1
  }
  param {
    lr_mult: 2
    decay_mult: 0
  }
  convolution_param {
    num_output: 16
    kernel_size: 1
    weight_filler {
      type: "xavier"
      std: 0.2
    }
    bias_filler {
      type: "constant"
      value: 0.2
    }
  }
}
layer {
  name: "inception_3a/relu_5x5_reduce"
  type: "ReLU"
  bottom: "inception_3a/5x5_reduce"
  top: "inception_3a/5x5_reduce"
}
layer {
  name: "inception_3a/5x5"
  type: "Convolution"
  bottom: "inception_3a/5x5_reduce"
  top: "inception_3a/5x5"
  param {
    lr_mult: 1
    decay_mult: 1
  }
  param {
    lr_mult: 2
    decay_mult: 0
  }
  convolution_param {
    num_output: 32
    pad: 2
    kernel_size: 5
    weight_filler {
      type: "xavier"
      std: 0.03
    }
    bias_filler {
      type: "constant"
      value: 0.2
    }
  }
}
layer {
  name: "inception_3a/relu_5x5"
  type: "ReLU"
  bottom: "inception_3a/5x5"
  top: "inception_3a/5x5"
}
layer {
  name: "inception_3a/pool"
  type: "Pooling"
  bottom: "pool2/3x3_s2"
  top: "inception_3a/pool"
  pooling_param {
    pool: MAX
    kernel_size: 3
    stride: 1
    pad: 1
  }
}
layer {
  name: "inception_3a/pool_proj"
  type: "Convolution"
  bottom: "inception_3a/pool"
  top: "inception_3a/pool_proj"
  param {
    lr_mult: 1
    decay_mult: 1
  }
  param {
    lr_mult: 2
    decay_mult: 0
  }
  convolution_param {
    num_output: 32
    kernel_size: 1
    weight_filler {
      type: "xavier"
      std: 0.1
    }
    bias_filler {
      type: "constant"
      value: 0.2
    }
  }
}
layer {
  name: "inception_3a/relu_pool_proj"
  type: "ReLU"
  bottom: "inception_3a/pool_proj"
  top: "inception_3a/pool_proj"
}
layer {
  name: "inception_3a/output"
  type: "Concat"
  bottom: "inception_3a/1x1"
  bottom: "inception_3a/3x3"
  bottom: "inception_3a/5x5"
  bottom: "inception_3a/pool_proj"
  top: "inception_3a/output"
}
layer {
  name: "inception_3b/1x1"
  type: "Convolution"
  bottom: "inception_3a/output"
  top: "inception_3b/1x1"
  param {
    lr_mult: 1
    decay_mult: 1
  }
  param {
    lr_mult: 2
    decay_mult: 0
  }
  convolution_param {
    num_output: 128
    kernel_size: 1
    weight_filler {
      type: "xavier"
      std: 0.03
    }
    bias_filler {
      type: "constant"
      value: 0.2
    }
  }
}
layer {
  name: "inception_3b/relu_1x1"
  type: "ReLU"
  bottom: "inception_3b/1x1"
  top: "inception_3b/1x1"
}
layer {
  name: "inception_3b/3x3_reduce"
  type: "Convolution"
  bottom: "inception_3a/output"
  top: "inception_3b/3x3_reduce"
  param {
    lr_mult: 1
    decay_mult: 1
  }
  param {
    lr_mult: 2
    decay_mult: 0
  }
  convolution_param {
    num_output: 128
    kernel_size: 1
    weight_filler {
      type: "xavier"
      std: 0.09
    }
    bias_filler {
      type: "constant"
      value: 0.2
    }
  }
}
layer {
  name: "inception_3b/relu_3x3_reduce"
  type: "ReLU"
  bottom: "inception_3b/3x3_reduce"
  top: "inception_3b/3x3_reduce"
}
layer {
  name: "inception_3b/3x3"
  type: "Convolution"
  bottom: "inception_3b/3x3_reduce"
  top: "inception_3b/3x3"
  param {
    lr_mult: 1
    decay_mult: 1
  }
  param {
    lr_mult: 2
    decay_mult: 0
  }
  convolution_param {
    num_output: 192
    pad: 1
    kernel_size: 3
    weight_filler {
      type: "xavier"
      std: 0.03
    }
    bias_filler {
      type: "constant"
      value: 0.2
    }
  }
}
layer {
  name: "inception_3b/relu_3x3"
  type: "ReLU"
  bottom: "inception_3b/3x3"
  top: "inception_3b/3x3"
}
layer {
  name: "inception_3b/5x5_reduce"
  type: "Convolution"
  bottom: "inception_3a/output"
  top: "inception_3b/5x5_reduce"
  param {
    lr_mult: 1
    decay_mult: 1
  }
  param {
    lr_mult: 2
    decay_mult: 0
  }
  convolution_param {
    num_output: 32
    kernel_size: 1
    weight_filler {
      type: "xavier"
      std: 0.2
    }
    bias_filler {
      type: "constant"
      value: 0.2
    }
  }
}
layer {
  name: "inception_3b/relu_5x5_reduce"
  type: "ReLU"
  bottom: "inception_3b/5x5_reduce"
  top: "inception_3b/5x5_reduce"
}
layer {
  name: "inception_3b/5x5"
  type: "Convolution"
  bottom: "inception_3b/5x5_reduce"
  top: "inception_3b/5x5"
  param {
    lr_mult: 1
    decay_mult: 1
  }
  param {
    lr_mult: 2
    decay_mult: 0
  }
  convolution_param {
    num_output: 96
    pad: 2
    kernel_size: 5
    weight_filler {
      type: "xavier"
      std: 0.03
    }
    bias_filler {
      type: "constant"
      value: 0.2
    }
  }
}
layer {
  name: "inception_3b/relu_5x5"
  type: "ReLU"
  bottom: "inception_3b/5x5"
  top: "inception_3b/5x5"
}
layer {
  name: "inception_3b/pool"
  type: "Pooling"
  bottom: "inception_3a/output"
  top: "inception_3b/pool"
  pooling_param {
    pool: MAX
    kernel_size: 3
    stride: 1
    pad: 1
  }
}
layer {
  name: "inception_3b/pool_proj"
  type: "Convolution"
  bottom: "inception_3b/pool"
  top: "inception_3b/pool_proj"
  param {
    lr_mult: 1
    decay_mult: 1
  }
  param {
    lr_mult: 2
    decay_mult: 0
  }
  convolution_param {
    num_output: 64
    kernel_size: 1
    weight_filler {
      type: "xavier"
      std: 0.1
    }
    bias_filler {
      type: "constant"
      value: 0.2
    }
  }
}
layer {
  name: "inception_3b/relu_pool_proj"
  type: "ReLU"
  bottom: "inception_3b/pool_proj"
  top: "inception_3b/pool_proj"
}
layer {
  name: "inception_3b/output"
  type: "Concat"
  bottom: "inception_3b/1x1"
  bottom: "inception_3b/3x3"
  bottom: "inception_3b/5x5"
  bottom: "inception_3b/pool_proj"
  top: "inception_3b/output"
}
layer {
  name: "pool3/3x3_s2"
  type: "Pooling"
  bottom: "inception_3b/output"
  top: "pool3/3x3_s2"
  pooling_param {
    pool: MAX
    kernel_size: 3
    stride: 2
  }
}
layer {
  name: "inception_4a/1x1"
  type: "Convolution"
  bottom: "pool3/3x3_s2"
  top: "inception_4a/1x1"
  param {
    lr_mult: 1
    decay_mult: 1
  }
  param {
    lr_mult: 2
    decay_mult: 0
  }
  convolution_param {
    num_output: 192
    kernel_size: 1
    weight_filler {
      type: "xavier"
      std: 0.03
    }
    bias_filler {
      type: "constant"
      value: 0.2
    }
  }
}
layer {
  name: "inception_4a/relu_1x1"
  type: "ReLU"
  bottom: "inception_4a/1x1"
  top: "inception_4a/1x1"
}
layer {
  name: "inception_4a/3x3_reduce"
  type: "Convolution"
  bottom: "pool3/3x3_s2"
  top: "inception_4a/3x3_reduce"
  param {
    lr_mult: 1
    decay_mult: 1
  }
  param {
    lr_mult: 2
    decay_mult: 0
  }
  convolution_param {
    num_output: 96
    kernel_size: 1
    weight_filler {
      type: "xavier"
      std: 0.09
    }
    bias_filler {
      type: "constant"
      value: 0.2
    }
  }
}
layer {
  name: "inception_4a/relu_3x3_reduce"
  type: "ReLU"
  bottom: "inception_4a/3x3_reduce"
  top: "inception_4a/3x3_reduce"
}
layer {
  name: "inception_4a/3x3"
  type: "Convolution"
  bottom: "inception_4a/3x3_reduce"
  top: "inception_4a/3x3"
  param {
    lr_mult: 1
    decay_mult: 1
  }
  param {
    lr_mult: 2
    decay_mult: 0
  }
  convolution_param {
    num_output: 208
    pad: 1
    kernel_size: 3
    weight_filler {
      type: "xavier"
      std: 0.03
    }
    bias_filler {
      type: "constant"
      value: 0.2
    }
  }
}
layer {
  name: "inception_4a/relu_3x3"
  type: "ReLU"
  bottom: "inception_4a/3x3"
  top: "inception_4a/3x3"
}
layer {
  name: "inception_4a/5x5_reduce"
  type: "Convolution"
  bottom: "pool3/3x3_s2"
  top: "inception_4a/5x5_reduce"
  param {
    lr_mult: 1
    decay_mult: 1
  }
  param {
    lr_mult: 2
    decay_mult: 0
  }
  convolution_param {
    num_output: 16
    kernel_size: 1
    weight_filler {
      type: "xavier"
      std: 0.2
    }
    bias_filler {
      type: "constant"
      value: 0.2
    }
  }
}
layer {
  name: "inception_4a/relu_5x5_reduce"
  type: "ReLU"
  bottom: "inception_4a/5x5_reduce"
  top: "inception_4a/5x5_reduce"
}
layer {
  name: "inception_4a/5x5"
  type: "Convolution"
  bottom: "inception_4a/5x5_reduce"
  top: "inception_4a/5x5"
  param {
    lr_mult: 1
    decay_mult: 1
  }
  param {
    lr_mult: 2
    decay_mult: 0
  }
  convolution_param {
    num_output: 48
    pad: 2
    kernel_size: 5
    weight_filler {
      type: "xavier"
      std: 0.03
    }
    bias_filler {
      type: "constant"
      value: 0.2
    }
  }
}
layer {
  name: "inception_4a/relu_5x5"
  type: "ReLU"
  bottom: "inception_4a/5x5"
  top: "inception_4a/5x5"
}
layer {
  name: "inception_4a/pool"
  type: "Pooling"
  bottom: "pool3/3x3_s2"
  top: "inception_4a/pool"
  pooling_param {
    pool: MAX
    kernel_size: 3
    stride: 1
    pad: 1
  }
}
layer {
  name: "inception_4a/pool_proj"
  type: "Convolution"
  bottom: "inception_4a/pool"
  top: "inception_4a/pool_proj"
  param {
    lr_mult: 1
    decay_mult: 1
  }
  param {
    lr_mult: 2
    decay_mult: 0
  }
  convolution_param {
    num_output: 64
    kernel_size: 1
    weight_filler {
      type: "xavier"
      std: 0.1
    }
    bias_filler {
      type: "constant"
      value: 0.2
    }
  }
}
layer {
  name: "inception_4a/relu_pool_proj"
  type: "ReLU"
  bottom: "inception_4a/pool_proj"
  top: "inception_4a/pool_proj"
}
layer {
  name: "inception_4a/output"
  type: "Concat"
  bottom: "inception_4a/1x1"
  bottom: "inception_4a/3x3"
  bottom: "inception_4a/5x5"
  bottom: "inception_4a/pool_proj"
  top: "inception_4a/output"
}
layer {
  name: "loss1/ave_pool"
  type: "Pooling"
  bottom: "inception_4a/output"
  top: "loss1/ave_pool"
  pooling_param {
    pool: AVE
    kernel_size: 5
    stride: 3
  }
}
layer {
  name: "loss1/conv"
  type: "Convolution"
  bottom: "loss1/ave_pool"
  top: "loss1/conv"
  param {
    lr_mult: 1
    decay_mult: 1
  }
  param {
    lr_mult: 2
    decay_mult: 0
  }
  convolution_param {
    num_output: 128
    kernel_size: 1
    weight_filler {
      type: "xavier"
      std: 0.08
    }
    bias_filler {
      type: "constant"
      value: 0.2
    }
  }
}
layer {
  name: "loss1/relu_conv"
  type: "ReLU"
  bottom: "loss1/conv"
  top: "loss1/conv"
}
layer {
  name: "loss1/fc"
  type: "InnerProduct"
  bottom: "loss1/conv"
  top: "loss1/fc"
  param {
    lr_mult: 1
    decay_mult: 1
  }
  param {
    lr_mult: 2
    decay_mult: 0
  }
  inner_product_param {
    num_output: 1024
    weight_filler {
      type: "xavier"
      std: 0.02
    }
    bias_filler {
      type: "constant"
      value: 0.2
    }
  }
}
layer {
  name: "loss1/relu_fc"
  type: "ReLU"
  bottom: "loss1/fc"
  top: "loss1/fc"
}
layer {
  name: "loss1/drop_fc"
  type: "Dropout"
  bottom: "loss1/fc"
  top: "loss1/fc"
  dropout_param {
    dropout_ratio: 0.2
  }
}
layer {
  name: "stanford_cars_loss1/classifier"
  type: "InnerProduct"
  bottom: "loss1/fc"
  top: "stanford_cars_loss1/classifier"
  param {
    lr_mult: 1
    decay_mult: 1
  }
  param {
    lr_mult: 2
    decay_mult: 0
  }
  inner_product_param {
    num_output: 196
    weight_filler {
      type: "xavier"
      std: 0.0009765625
    }
    bias_filler {
      type: "constant"
      value: 0
    }
  }
}
layer {
  name: "loss1/loss"
  type: "SoftmaxWithLoss"
  bottom: "stanford_cars_loss1/classifier"
  bottom: "label"
  top: "loss1/loss1"
  loss_weight: 0.3
}
layer {
  name: "inception_4b/1x1"
  type: "Convolution"
  bottom: "inception_4a/output"
  top: "inception_4b/1x1"
  param {
    lr_mult: 1
    decay_mult: 1
  }
  param {
    lr_mult: 2
    decay_mult: 0
  }
  convolution_param {
    num_output: 160
    kernel_size: 1
    weight_filler {
      type: "xavier"
      std: 0.03
    }
    bias_filler {
      type: "constant"
      value: 0.2
    }
  }
}
layer {
  name: "inception_4b/relu_1x1"
  type: "ReLU"
  bottom: "inception_4b/1x1"
  top: "inception_4b/1x1"
}
layer {
  name: "inception_4b/3x3_reduce"
  type: "Convolution"
  bottom: "inception_4a/output"
  top: "inception_4b/3x3_reduce"
  param {
    lr_mult: 1
    decay_mult: 1
  }
  param {
    lr_mult: 2
    decay_mult: 0
  }
  convolution_param {
    num_output: 112
    kernel_size: 1
    weight_filler {
      type: "xavier"
      std: 0.09
    }
    bias_filler {
      type: "constant"
      value: 0.2
    }
  }
}
layer {
  name: "inception_4b/relu_3x3_reduce"
  type: "ReLU"
  bottom: "inception_4b/3x3_reduce"
  top: "inception_4b/3x3_reduce"
}
layer {
  name: "inception_4b/3x3"
  type: "Convolution"
  bottom: "inception_4b/3x3_reduce"
  top: "inception_4b/3x3"
  param {
    lr_mult: 1
    decay_mult: 1
  }
  param {
    lr_mult: 2
    decay_mult: 0
  }
  convolution_param {
    num_output: 224
    pad: 1
    kernel_size: 3
    weight_filler {
      type: "xavier"
      std: 0.03
    }
    bias_filler {
      type: "constant"
      value: 0.2
    }
  }
}
layer {
  name: "inception_4b/relu_3x3"
  type: "ReLU"
  bottom: "inception_4b/3x3"
  top: "inception_4b/3x3"
}
layer {
  name: "inception_4b/5x5_reduce"
  type: "Convolution"
  bottom: "inception_4a/output"
  top: "inception_4b/5x5_reduce"
  param {
    lr_mult: 1
    decay_mult: 1
  }
  param {
    lr_mult: 2
    decay_mult: 0
  }
  convolution_param {
    num_output: 24
    kernel_size: 1
    weight_filler {
      type: "xavier"
      std: 0.2
    }
    bias_filler {
      type: "constant"
      value: 0.2
    }
  }
}
layer {
  name: "inception_4b/relu_5x5_reduce"
  type: "ReLU"
  bottom: "inception_4b/5x5_reduce"
  top: "inception_4b/5x5_reduce"
}
layer {
  name: "inception_4b/5x5"
  type: "Convolution"
  bottom: "inception_4b/5x5_reduce"
  top: "inception_4b/5x5"
  param {
    lr_mult: 1
    decay_mult: 1
  }
  param {
    lr_mult: 2
    decay_mult: 0
  }
  convolution_param {
    num_output: 64
    pad: 2
    kernel_size: 5
    weight_filler {
      type: "xavier"
      std: 0.03
    }
    bias_filler {
      type: "constant"
      value: 0.2
    }
  }
}
layer {
  name: "inception_4b/relu_5x5"
  type: "ReLU"
  bottom: "inception_4b/5x5"
  top: "inception_4b/5x5"
}
layer {
  name: "inception_4b/pool"
  type: "Pooling"
  bottom: "inception_4a/output"
  top: "inception_4b/pool"
  pooling_param {
    pool: MAX
    kernel_size: 3
    stride: 1
    pad: 1
  }
}
layer {
  name: "inception_4b/pool_proj"
  type: "Convolution"
  bottom: "inception_4b/pool"
  top: "inception_4b/pool_proj"
  param {
    lr_mult: 1
    decay_mult: 1
  }
  param {
    lr_mult: 2
    decay_mult: 0
  }
  convolution_param {
    num_output: 64
    kernel_size: 1
    weight_filler {
      type: "xavier"
      std: 0.1
    }
    bias_filler {
      type: "constant"
      value: 0.2
    }
  }
}
layer {
  name: "inception_4b/relu_pool_proj"
  type: "ReLU"
  bottom: "inception_4b/pool_proj"
  top: "inception_4b/pool_proj"
}
layer {
  name: "inception_4b/output"
  type: "Concat"
  bottom: "inception_4b/1x1"
  bottom: "inception_4b/3x3"
  bottom: "inception_4b/5x5"
  bottom: "inception_4b/pool_proj"
  top: "inception_4b/output"
}
layer {
  name: "inception_4c/1x1"
  type: "Convolution"
  bottom: "inception_4b/output"
  top: "inception_4c/1x1"
  param {
    lr_mult: 1
    decay_mult: 1
  }
  param {
    lr_mult: 2
    decay_mult: 0
  }
  convolution_param {
    num_output: 128
    kernel_size: 1
    weight_filler {
      type: "xavier"
      std: 0.03
    }
    bias_filler {
      type: "constant"
      value: 0.2
    }
  }
}
layer {
  name: "inception_4c/relu_1x1"
  type: "ReLU"
  bottom: "inception_4c/1x1"
  top: "inception_4c/1x1"
}
layer {
  name: "inception_4c/3x3_reduce"
  type: "Convolution"
  bottom: "inception_4b/output"
  top: "inception_4c/3x3_reduce"
  param {
    lr_mult: 1
    decay_mult: 1
  }
  param {
    lr_mult: 2
    decay_mult: 0
  }
  convolution_param {
    num_output: 128
    kernel_size: 1
    weight_filler {
      type: "xavier"
      std: 0.09
    }
    bias_filler {
      type: "constant"
      value: 0.2
    }
  }
}
layer {
  name: "inception_4c/relu_3x3_reduce"
  type: "ReLU"
  bottom: "inception_4c/3x3_reduce"
  top: "inception_4c/3x3_reduce"
}
layer {
  name: "inception_4c/3x3"
  type: "Convolution"
  bottom: "inception_4c/3x3_reduce"
  top: "inception_4c/3x3"
  param {
    lr_mult: 1
    decay_mult: 1
  }
  param {
    lr_mult: 2
    decay_mult: 0
  }
  convolution_param {
    num_output: 256
    pad: 1
    kernel_size: 3
    weight_filler {
      type: "xavier"
      std: 0.03
    }
    bias_filler {
      type: "constant"
      value: 0.2
    }
  }
}
layer {
  name: "inception_4c/relu_3x3"
  type: "ReLU"
  bottom: "inception_4c/3x3"
  top: "inception_4c/3x3"
}
layer {
  name: "inception_4c/5x5_reduce"
  type: "Convolution"
  bottom: "inception_4b/output"
  top: "inception_4c/5x5_reduce"
  param {
    lr_mult: 1
    decay_mult: 1
  }
  param {
    lr_mult: 2
    decay_mult: 0
  }
  convolution_param {
    num_output: 24
    kernel_size: 1
    weight_filler {
      type: "xavier"
      std: 0.2
    }
    bias_filler {
      type: "constant"
      value: 0.2
    }
  }
}
layer {
  name: "inception_4c/relu_5x5_reduce"
  type: "ReLU"
  bottom: "inception_4c/5x5_reduce"
  top: "inception_4c/5x5_reduce"
}
layer {
  name: "inception_4c/5x5"
  type: "Convolution"
  bottom: "inception_4c/5x5_reduce"
  top: "inception_4c/5x5"
  param {
    lr_mult: 1
    decay_mult: 1
  }
  param {
    lr_mult: 2
    decay_mult: 0
  }
  convolution_param {
    num_output: 64
    pad: 2
    kernel_size: 5
    weight_filler {
      type: "xavier"
      std: 0.03
    }
    bias_filler {
      type: "constant"
      value: 0.2
    }
  }
}
layer {
  name: "inception_4c/relu_5x5"
  type: "ReLU"
  bottom: "inception_4c/5x5"
  top: "inception_4c/5x5"
}
layer {
  name: "inception_4c/pool"
  type: "Pooling"
  bottom: "inception_4b/output"
  top: "inception_4c/pool"
  pooling_param {
    pool: MAX
    kernel_size: 3
    stride: 1
    pad: 1
  }
}
layer {
  name: "inception_4c/pool_proj"
  type: "Convolution"
  bottom: "inception_4c/pool"
  top: "inception_4c/pool_proj"
  param {
    lr_mult: 1
    decay_mult: 1
  }
  param {
    lr_mult: 2
    decay_mult: 0
  }
  convolution_param {
    num_output: 64
    kernel_size: 1
    weight_filler {
      type: "xavier"
      std: 0.1
    }
    bias_filler {
      type: "constant"
      value: 0.2
    }
  }
}
layer {
  name: "inception_4c/relu_pool_proj"
  type: "ReLU"
  bottom: "inception_4c/pool_proj"
  top: "inception_4c/pool_proj"
}
layer {
  name: "inception_4c/output"
  type: "Concat"
  bottom: "inception_4c/1x1"
  bottom: "inception_4c/3x3"
  bottom: "inception_4c/5x5"
  bottom: "inception_4c/pool_proj"
  top: "inception_4c/output"
}
layer {
  name: "inception_4d/1x1"
  type: "Convolution"
  bottom: "inception_4c/output"
  top: "inception_4d/1x1"
  param {
    lr_mult: 1
    decay_mult: 1
  }
  param {
    lr_mult: 2
    decay_mult: 0
  }
  convolution_param {
    num_output: 112
    kernel_size: 1
    weight_filler {
      type: "xavier"
      std: 0.03
    }
    bias_filler {
      type: "constant"
      value: 0.2
    }
  }
}
layer {
  name: "inception_4d/relu_1x1"
  type: "ReLU"
  bottom: "inception_4d/1x1"
  top: "inception_4d/1x1"
}
layer {
  name: "inception_4d/3x3_reduce"
  type: "Convolution"
  bottom: "inception_4c/output"
  top: "inception_4d/3x3_reduce"
  param {
    lr_mult: 1
    decay_mult: 1
  }
  param {
    lr_mult: 2
    decay_mult: 0
  }
  convolution_param {
    num_output: 144
    kernel_size: 1
    weight_filler {
      type: "xavier"
      std: 0.09
    }
    bias_filler {
      type: "constant"
      value: 0.2
    }
  }
}
layer {
  name: "inception_4d/relu_3x3_reduce"
  type: "ReLU"
  bottom: "inception_4d/3x3_reduce"
  top: "inception_4d/3x3_reduce"
}
layer {
  name: "inception_4d/3x3"
  type: "Convolution"
  bottom: "inception_4d/3x3_reduce"
  top: "inception_4d/3x3"
  param {
    lr_mult: 1
    decay_mult: 1
  }
  param {
    lr_mult: 2
    decay_mult: 0
  }
  convolution_param {
    num_output: 288
    pad: 1
    kernel_size: 3
    weight_filler {
      type: "xavier"
      std: 0.03
    }
    bias_filler {
      type: "constant"
      value: 0.2
    }
  }
}
layer {
  name: "inception_4d/relu_3x3"
  type: "ReLU"
  bottom: "inception_4d/3x3"
  top: "inception_4d/3x3"
}
layer {
  name: "inception_4d/5x5_reduce"
  type: "Convolution"
  bottom: "inception_4c/output"
  top: "inception_4d/5x5_reduce"
  param {
    lr_mult: 1
    decay_mult: 1
  }
  param {
    lr_mult: 2
    decay_mult: 0
  }
  convolution_param {
    num_output: 32
    kernel_size: 1
    weight_filler {
      type: "xavier"
      std: 0.2
    }
    bias_filler {
      type: "constant"
      value: 0.2
    }
  }
}
layer {
  name: "inception_4d/relu_5x5_reduce"
  type: "ReLU"
  bottom: "inception_4d/5x5_reduce"
  top: "inception_4d/5x5_reduce"
}
layer {
  name: "inception_4d/5x5"
  type: "Convolution"
  bottom: "inception_4d/5x5_reduce"
  top: "inception_4d/5x5"
  param {
    lr_mult: 1
    decay_mult: 1
  }
  param {
    lr_mult: 2
    decay_mult: 0
  }
  convolution_param {
    num_output: 64
    pad: 2
    kernel_size: 5
    weight_filler {
      type: "xavier"
      std: 0.03
    }
    bias_filler {
      type: "constant"
      value: 0.2
    }
  }
}
layer {
  name: "inception_4d/relu_5x5"
  type: "ReLU"
  bottom: "inception_4d/5x5"
  top: "inception_4d/5x5"
}
layer {
  name: "inception_4d/pool"
  type: "Pooling"
  bottom: "inception_4c/output"
  top: "inception_4d/pool"
  pooling_param {
    pool: MAX
    kernel_size: 3
    stride: 1
    pad: 1
  }
}
layer {
  name: "inception_4d/pool_proj"
  type: "Convolution"
  bottom: "inception_4d/pool"
  top: "inception_4d/pool_proj"
  param {
    lr_mult: 1
    decay_mult: 1
  }
  param {
    lr_mult: 2
    decay_mult: 0
  }
  convolution_param {
    num_output: 64
    kernel_size: 1
    weight_filler {
      type: "xavier"
      std: 0.1
    }
    bias_filler {
      type: "constant"
      value: 0.2
    }
  }
}
layer {
  name: "inception_4d/relu_pool_proj"
  type: "ReLU"
  bottom: "inception_4d/pool_proj"
  top: "inception_4d/pool_proj"
}
layer {
  name: "inception_4d/output"
  type: "Concat"
  bottom: "inception_4d/1x1"
  bottom: "inception_4d/3x3"
  bottom: "inception_4d/5x5"
  bottom: "inception_4d/pool_proj"
  top: "inception_4d/output"
}
layer {
  name: "loss2/ave_pool"
  type: "Pooling"
  bottom: "inception_4d/output"
  top: "loss2/ave_pool"
  pooling_param {
    pool: AVE
    kernel_size: 5
    stride: 3
  }
}
layer {
  name: "loss2/conv"
  type: "Convolution"
  bottom: "loss2/ave_pool"
  top: "loss2/conv"
  param {
    lr_mult: 1
    decay_mult: 1
  }
  param {
    lr_mult: 2
    decay_mult: 0
  }
  convolution_param {
    num_output: 128
    kernel_size: 1
    weight_filler {
      type: "xavier"
      std: 0.08
    }
    bias_filler {
      type: "constant"
      value: 0.2
    }
  }
}
layer {
  name: "loss2/relu_conv"
  type: "ReLU"
  bottom: "loss2/conv"
  top: "loss2/conv"
}
layer {
  name: "loss2/fc"
  type: "InnerProduct"
  bottom: "loss2/conv"
  top: "loss2/fc"
  param {
    lr_mult: 1
    decay_mult: 1
  }
  param {
    lr_mult: 2
    decay_mult: 0
  }
  inner_product_param {
    num_output: 1024
    weight_filler {
      type: "xavier"
      std: 0.02
    }
    bias_filler {
      type: "constant"
      value: 0.2
    }
  }
}
layer {
  name: "loss2/relu_fc"
  type: "ReLU"
  bottom: "loss2/fc"
  top: "loss2/fc"
}
layer {
  name: "loss2/drop_fc"
  type: "Dropout"
  bottom: "loss2/fc"
  top: "loss2/fc"
  dropout_param {
    dropout_ratio: 0.2
  }
}
layer {
  name: "stanford_cars_loss2/classifier"
  type: "InnerProduct"
  bottom: "loss2/fc"
  top: "stanford_cars_loss2/classifier"
  param {
    lr_mult: 1
    decay_mult: 1
  }
  param {
    lr_mult: 2
    decay_mult: 0
  }
  inner_product_param {
    num_output: 196
    weight_filler {
      type: "xavier"
      std: 0.0009765625
    }
    bias_filler {
      type: "constant"
      value: 0
    }
  }
}
layer {
  name: "stanford_cars_loss2/loss"
  type: "SoftmaxWithLoss"
  bottom: "stanford_cars_loss2/classifier"
  bottom: "label"
  top: "loss2/loss1"
  loss_weight: 0.3
}
layer {
  name: "inception_4e/1x1"
  type: "Convolution"
  bottom: "inception_4d/output"
  top: "inception_4e/1x1"
  param {
    lr_mult: 1
    decay_mult: 1
  }
  param {
    lr_mult: 2
    decay_mult: 0
  }
  convolution_param {
    num_output: 256
    kernel_size: 1
    weight_filler {
      type: "xavier"
      std: 0.03
    }
    bias_filler {
      type: "constant"
      value: 0.2
    }
  }
}
layer {
  name: "inception_4e/relu_1x1"
  type: "ReLU"
  bottom: "inception_4e/1x1"
  top: "inception_4e/1x1"
}
layer {
  name: "inception_4e/3x3_reduce"
  type: "Convolution"
  bottom: "inception_4d/output"
  top: "inception_4e/3x3_reduce"
  param {
    lr_mult: 1
    decay_mult: 1
  }
  param {
    lr_mult: 2
    decay_mult: 0
  }
  convolution_param {
    num_output: 160
    kernel_size: 1
    weight_filler {
      type: "xavier"
      std: 0.09
    }
    bias_filler {
      type: "constant"
      value: 0.2
    }
  }
}
layer {
  name: "inception_4e/relu_3x3_reduce"
  type: "ReLU"
  bottom: "inception_4e/3x3_reduce"
  top: "inception_4e/3x3_reduce"
}
layer {
  name: "inception_4e/3x3"
  type: "Convolution"
  bottom: "inception_4e/3x3_reduce"
  top: "inception_4e/3x3"
  param {
    lr_mult: 1
    decay_mult: 1
  }
  param {
    lr_mult: 2
    decay_mult: 0
  }
  convolution_param {
    num_output: 320
    pad: 1
    kernel_size: 3
    weight_filler {
      type: "xavier"
      std: 0.03
    }
    bias_filler {
      type: "constant"
      value: 0.2
    }
  }
}
layer {
  name: "inception_4e/relu_3x3"
  type: "ReLU"
  bottom: "inception_4e/3x3"
  top: "inception_4e/3x3"
}
layer {
  name: "inception_4e/5x5_reduce"
  type: "Convolution"
  bottom: "inception_4d/output"
  top: "inception_4e/5x5_reduce"
  param {
    lr_mult: 1
    decay_mult: 1
  }
  param {
    lr_mult: 2
    decay_mult: 0
  }
  convolution_param {
    num_output: 32
    kernel_size: 1
    weight_filler {
      type: "xavier"
      std: 0.2
    }
    
I0704 13:25:07.317456 25725 layer_factory.hpp:74] Creating layer data
I0704 13:25:07.317487 25725 net.cpp:90] Creating Layer data
I0704 13:25:07.317494 25725 net.cpp:368] data -> data
I0704 13:25:07.317515 25725 net.cpp:368] data -> label
I0704 13:25:07.317536 25725 net.cpp:120] Setting up data
I0704 13:25:07.317605 25725 db.cpp:34] Opened lmdb examples/stanford_cars/stanford_cars_train_lmdb
I0704 13:25:07.317775 25725 data_layer.cpp:67] output data size: 30,3,224,224
I0704 13:25:07.319950 25725 net.cpp:127] Top shape: 30 3 224 224 (4515840)
I0704 13:25:07.319980 25725 net.cpp:127] Top shape: 30 (30)
I0704 13:25:07.319988 25725 layer_factory.hpp:74] Creating layer label_data_1_split
I0704 13:25:07.320003 25725 net.cpp:90] Creating Layer label_data_1_split
I0704 13:25:07.320010 25725 net.cpp:410] label_data_1_split <- label
I0704 13:25:07.320022 25725 net.cpp:368] label_data_1_split -> label_data_1_split_0
I0704 13:25:07.320032 25725 net.cpp:368] label_data_1_split -> label_data_1_split_1
I0704 13:25:07.320039 25725 net.cpp:368] label_data_1_split -> label_data_1_split_2
I0704 13:25:07.320045 25725 net.cpp:120] Setting up label_data_1_split
I0704 13:25:07.320055 25725 net.cpp:127] Top shape: 30 (30)
I0704 13:25:07.320077 25725 net.cpp:127] Top shape: 30 (30)
I0704 13:25:07.320083 25725 net.cpp:127] Top shape: 30 (30)
I0704 13:25:07.320088 25725 layer_factory.hpp:74] Creating layer conv1/7x7_s2
I0704 13:25:07.320099 25725 net.cpp:90] Creating Layer conv1/7x7_s2
I0704 13:25:07.320104 25725 net.cpp:410] conv1/7x7_s2 <- data
I0704 13:25:07.320111 25725 net.cpp:368] conv1/7x7_s2 -> conv1/7x7_s2
I0704 13:25:07.320121 25725 net.cpp:120] Setting up conv1/7x7_s2
I0704 13:25:07.350342 25725 net.cpp:127] Top shape: 30 64 112 112 (24084480)
I0704 13:25:07.350379 25725 layer_factory.hpp:74] Creating layer conv1/relu_7x7
I0704 13:25:07.350392 25725 net.cpp:90] Creating Layer conv1/relu_7x7
I0704 13:25:07.350399 25725 net.cpp:410] conv1/relu_7x7 <- conv1/7x7_s2
I0704 13:25:07.350406 25725 net.cpp:357] conv1/relu_7x7 -> conv1/7x7_s2 (in-place)
I0704 13:25:07.350414 25725 net.cpp:120] Setting up conv1/relu_7x7
I0704 13:25:07.350453 25725 net.cpp:127] Top shape: 30 64 112 112 (24084480)
I0704 13:25:07.350461 25725 layer_factory.hpp:74] Creating layer pool1/3x3_s2
I0704 13:25:07.350471 25725 net.cpp:90] Creating Layer pool1/3x3_s2
I0704 13:25:07.350477 25725 net.cpp:410] pool1/3x3_s2 <- conv1/7x7_s2
I0704 13:25:07.350483 25725 net.cpp:368] pool1/3x3_s2 -> pool1/3x3_s2
I0704 13:25:07.350491 25725 net.cpp:120] Setting up pool1/3x3_s2
I0704 13:25:07.350605 25725 net.cpp:127] Top shape: 30 64 56 56 (6021120)
I0704 13:25:07.350615 25725 layer_factory.hpp:74] Creating layer pool1/norm1
I0704 13:25:07.350623 25725 net.cpp:90] Creating Layer pool1/norm1
I0704 13:25:07.350628 25725 net.cpp:410] pool1/norm1 <- pool1/3x3_s2
I0704 13:25:07.350635 25725 net.cpp:368] pool1/norm1 -> pool1/norm1
I0704 13:25:07.350642 25725 net.cpp:120] Setting up pool1/norm1
I0704 13:25:07.350652 25725 net.cpp:127] Top shape: 30 64 56 56 (6021120)
I0704 13:25:07.350659 25725 layer_factory.hpp:74] Creating layer conv2/3x3_reduce
I0704 13:25:07.350667 25725 net.cpp:90] Creating Layer conv2/3x3_reduce
I0704 13:25:07.350672 25725 net.cpp:410] conv2/3x3_reduce <- pool1/norm1
I0704 13:25:07.350678 25725 net.cpp:368] conv2/3x3_reduce -> conv2/3x3_reduce
I0704 13:25:07.350687 25725 net.cpp:120] Setting up conv2/3x3_reduce
I0704 13:25:07.350896 25725 net.cpp:127] Top shape: 30 64 56 56 (6021120)
I0704 13:25:07.350909 25725 layer_factory.hpp:74] Creating layer conv2/relu_3x3_reduce
I0704 13:25:07.350917 25725 net.cpp:90] Creating Layer conv2/relu_3x3_reduce
I0704 13:25:07.350922 25725 net.cpp:410] conv2/relu_3x3_reduce <- conv2/3x3_reduce
I0704 13:25:07.350929 25725 net.cpp:357] conv2/relu_3x3_reduce -> conv2/3x3_reduce (in-place)
I0704 13:25:07.350934 25725 net.cpp:120] Setting up conv2/relu_3x3_reduce
I0704 13:25:07.350970 25725 net.cpp:127] Top shape: 30 64 56 56 (6021120)
I0704 13:25:07.350977 25725 layer_factory.hpp:74] Creating layer conv2/3x3
I0704 13:25:07.350986 25725 net.cpp:90] Creating Layer conv2/3x3
I0704 13:25:07.350991 25725 net.cpp:410] conv2/3x3 <- conv2/3x3_reduce
I0704 13:25:07.350996 25725 net.cpp:368] conv2/3x3 -> conv2/3x3
I0704 13:25:07.351003 25725 net.cpp:120] Setting up conv2/3x3
I0704 13:25:07.351692 25725 net.cpp:127] Top shape: 30 192 56 56 (18063360)
I0704 13:25:07.351707 25725 layer_factory.hpp:74] Creating layer conv2/relu_3x3
I0704 13:25:07.351716 25725 net.cpp:90] Creating Layer conv2/relu_3x3
I0704 13:25:07.351721 25725 net.cpp:410] conv2/relu_3x3 <- conv2/3x3
I0704 13:25:07.351727 25725 net.cpp:357] conv2/relu_3x3 -> conv2/3x3 (in-place)
I0704 13:25:07.351732 25725 net.cpp:120] Setting up conv2/relu_3x3
I0704 13:25:07.351769 25725 net.cpp:127] Top shape: 30 192 56 56 (18063360)
I0704 13:25:07.351776 25725 layer_factory.hpp:74] Creating layer conv2/norm2
I0704 13:25:07.351783 25725 net.cpp:90] Creating Layer conv2/norm2
I0704 13:25:07.351788 25725 net.cpp:410] conv2/norm2 <- conv2/3x3
I0704 13:25:07.351794 25725 net.cpp:368] conv2/norm2 -> conv2/norm2
I0704 13:25:07.351799 25725 net.cpp:120] Setting up conv2/norm2
I0704 13:25:07.351805 25725 net.cpp:127] Top shape: 30 192 56 56 (18063360)
I0704 13:25:07.351810 25725 layer_factory.hpp:74] Creating layer pool2/3x3_s2
I0704 13:25:07.351832 25725 net.cpp:90] Creating Layer pool2/3x3_s2
I0704 13:25:07.351837 25725 net.cpp:410] pool2/3x3_s2 <- conv2/norm2
I0704 13:25:07.351843 25725 net.cpp:368] pool2/3x3_s2 -> pool2/3x3_s2
I0704 13:25:07.351850 25725 net.cpp:120] Setting up pool2/3x3_s2
I0704 13:25:07.351886 25725 net.cpp:127] Top shape: 30 192 28 28 (4515840)
I0704 13:25:07.351893 25725 layer_factory.hpp:74] Creating layer pool2/3x3_s2_pool2/3x3_s2_0_split
I0704 13:25:07.351900 25725 net.cpp:90] Creating Layer pool2/3x3_s2_pool2/3x3_s2_0_split
I0704 13:25:07.351904 25725 net.cpp:410] pool2/3x3_s2_pool2/3x3_s2_0_split <- pool2/3x3_s2
I0704 13:25:07.351910 25725 net.cpp:368] pool2/3x3_s2_pool2/3x3_s2_0_split -> pool2/3x3_s2_pool2/3x3_s2_0_split_0
I0704 13:25:07.351917 25725 net.cpp:368] pool2/3x3_s2_pool2/3x3_s2_0_split -> pool2/3x3_s2_pool2/3x3_s2_0_split_1
I0704 13:25:07.351924 25725 net.cpp:368] pool2/3x3_s2_pool2/3x3_s2_0_split -> pool2/3x3_s2_pool2/3x3_s2_0_split_2
I0704 13:25:07.351930 25725 net.cpp:368] pool2/3x3_s2_pool2/3x3_s2_0_split -> pool2/3x3_s2_pool2/3x3_s2_0_split_3
I0704 13:25:07.351936 25725 net.cpp:120] Setting up pool2/3x3_s2_pool2/3x3_s2_0_split
I0704 13:25:07.351943 25725 net.cpp:127] Top shape: 30 192 28 28 (4515840)
I0704 13:25:07.351948 25725 net.cpp:127] Top shape: 30 192 28 28 (4515840)
I0704 13:25:07.351953 25725 net.cpp:127] Top shape: 30 192 28 28 (4515840)
I0704 13:25:07.351958 25725 net.cpp:127] Top shape: 30 192 28 28 (4515840)
I0704 13:25:07.351961 25725 layer_factory.hpp:74] Creating layer inception_3a/1x1
I0704 13:25:07.351969 25725 net.cpp:90] Creating Layer inception_3a/1x1
I0704 13:25:07.351972 25725 net.cpp:410] inception_3a/1x1 <- pool2/3x3_s2_pool2/3x3_s2_0_split_0
I0704 13:25:07.351979 25725 net.cpp:368] inception_3a/1x1 -> inception_3a/1x1
I0704 13:25:07.351986 25725 net.cpp:120] Setting up inception_3a/1x1
I0704 13:25:07.352226 25725 net.cpp:127] Top shape: 30 64 28 28 (1505280)
I0704 13:25:07.352239 25725 layer_factory.hpp:74] Creating layer inception_3a/relu_1x1
I0704 13:25:07.352247 25725 net.cpp:90] Creating Layer inception_3a/relu_1x1
I0704 13:25:07.352252 25725 net.cpp:410] inception_3a/relu_1x1 <- inception_3a/1x1
I0704 13:25:07.352258 25725 net.cpp:357] inception_3a/relu_1x1 -> inception_3a/1x1 (in-place)
I0704 13:25:07.352264 25725 net.cpp:120] Setting up inception_3a/relu_1x1
I0704 13:25:07.352366 25725 net.cpp:127] Top shape: 30 64 28 28 (1505280)
I0704 13:25:07.352376 25725 layer_factory.hpp:74] Creating layer inception_3a/3x3_reduce
I0704 13:25:07.352383 25725 net.cpp:90] Creating Layer inception_3a/3x3_reduce
I0704 13:25:07.352388 25725 net.cpp:410] inception_3a/3x3_reduce <- pool2/3x3_s2_pool2/3x3_s2_0_split_1
I0704 13:25:07.352396 25725 net.cpp:368] inception_3a/3x3_reduce -> inception_3a/3x3_reduce
I0704 13:25:07.352402 25725 net.cpp:120] Setting up inception_3a/3x3_reduce
I0704 13:25:07.352684 25725 net.cpp:127] Top shape: 30 96 28 28 (2257920)
I0704 13:25:07.352699 25725 layer_factory.hpp:74] Creating layer inception_3a/relu_3x3_reduce
I0704 13:25:07.352708 25725 net.cpp:90] Creating Layer inception_3a/relu_3x3_reduce
I0704 13:25:07.352715 25725 net.cpp:410] inception_3a/relu_3x3_reduce <- inception_3a/3x3_reduce
I0704 13:25:07.352720 25725 net.cpp:357] inception_3a/relu_3x3_reduce -> inception_3a/3x3_reduce (in-place)
I0704 13:25:07.352726 25725 net.cpp:120] Setting up inception_3a/relu_3x3_reduce
I0704 13:25:07.352766 25725 net.cpp:127] Top shape: 30 96 28 28 (2257920)
I0704 13:25:07.352773 25725 layer_factory.hpp:74] Creating layer inception_3a/3x3
I0704 13:25:07.352782 25725 net.cpp:90] Creating Layer inception_3a/3x3
I0704 13:25:07.352789 25725 net.cpp:410] inception_3a/3x3 <- inception_3a/3x3_reduce
I0704 13:25:07.352797 25725 net.cpp:368] inception_3a/3x3 -> inception_3a/3x3
I0704 13:25:07.352803 25725 net.cpp:120] Setting up inception_3a/3x3
I0704 13:25:07.353531 25725 net.cpp:127] Top shape: 30 128 28 28 (3010560)
I0704 13:25:07.353544 25725 layer_factory.hpp:74] Creating layer inception_3a/relu_3x3
I0704 13:25:07.353551 25725 net.cpp:90] Creating Layer inception_3a/relu_3x3
I0704 13:25:07.353564 25725 net.cpp:410] inception_3a/relu_3x3 <- inception_3a/3x3
I0704 13:25:07.353570 25725 net.cpp:357] inception_3a/relu_3x3 -> inception_3a/3x3 (in-place)
I0704 13:25:07.353576 25725 net.cpp:120] Setting up inception_3a/relu_3x3
I0704 13:25:07.353620 25725 net.cpp:127] Top shape: 30 128 28 28 (3010560)
I0704 13:25:07.353626 25725 layer_factory.hpp:74] Creating layer inception_3a/5x5_reduce
I0704 13:25:07.353633 25725 net.cpp:90] Creating Layer inception_3a/5x5_reduce
I0704 13:25:07.353638 25725 net.cpp:410] inception_3a/5x5_reduce <- pool2/3x3_s2_pool2/3x3_s2_0_split_2
I0704 13:25:07.353646 25725 net.cpp:368] inception_3a/5x5_reduce -> inception_3a/5x5_reduce
I0704 13:25:07.353653 25725 net.cpp:120] Setting up inception_3a/5x5_reduce
I0704 13:25:07.353868 25725 net.cpp:127] Top shape: 30 16 28 28 (376320)
I0704 13:25:07.353879 25725 layer_factory.hpp:74] Creating layer inception_3a/relu_5x5_reduce
I0704 13:25:07.353888 25725 net.cpp:90] Creating Layer inception_3a/relu_5x5_reduce
I0704 13:25:07.353893 25725 net.cpp:410] inception_3a/relu_5x5_reduce <- inception_3a/5x5_reduce
I0704 13:25:07.353899 25725 net.cpp:357] inception_3a/relu_5x5_reduce -> inception_3a/5x5_reduce (in-place)
I0704 13:25:07.353905 25725 net.cpp:120] Setting up inception_3a/relu_5x5_reduce
I0704 13:25:07.354010 25725 net.cpp:127] Top shape: 30 16 28 28 (376320)
I0704 13:25:07.354022 25725 layer_factory.hpp:74] Creating layer inception_3a/5x5
I0704 13:25:07.354029 25725 net.cpp:90] Creating Layer inception_3a/5x5
I0704 13:25:07.354037 25725 net.cpp:410] inception_3a/5x5 <- inception_3a/5x5_reduce
I0704 13:25:07.354043 25725 net.cpp:368] inception_3a/5x5 -> inception_3a/5x5
I0704 13:25:07.354049 25725 net.cpp:120] Setting up inception_3a/5x5
I0704 13:25:07.354302 25725 net.cpp:127] Top shape: 30 32 28 28 (752640)
I0704 13:25:07.354315 25725 layer_factory.hpp:74] Creating layer inception_3a/relu_5x5
I0704 13:25:07.354322 25725 net.cpp:90] Creating Layer inception_3a/relu_5x5
I0704 13:25:07.354327 25725 net.cpp:410] inception_3a/relu_5x5 <- inception_3a/5x5
I0704 13:25:07.354334 25725 net.cpp:357] inception_3a/relu_5x5 -> inception_3a/5x5 (in-place)
I0704 13:25:07.354341 25725 net.cpp:120] Setting up inception_3a/relu_5x5
I0704 13:25:07.354379 25725 net.cpp:127] Top shape: 30 32 28 28 (752640)
I0704 13:25:07.354387 25725 layer_factory.hpp:74] Creating layer inception_3a/pool
I0704 13:25:07.354392 25725 layer_factory.cpp:55] CUDNN does not support padding or multiple tops. Using Caffe's own pooling layer.
I0704 13:25:07.354396 25725 net.cpp:90] Creating Layer inception_3a/pool
I0704 13:25:07.354403 25725 net.cpp:410] inception_3a/pool <- pool2/3x3_s2_pool2/3x3_s2_0_split_3
I0704 13:25:07.354408 25725 net.cpp:368] inception_3a/pool -> inception_3a/pool
I0704 13:25:07.354414 25725 net.cpp:120] Setting up inception_3a/pool
I0704 13:25:07.354421 25725 net.cpp:127] Top shape: 30 192 28 28 (4515840)
I0704 13:25:07.354425 25725 layer_factory.hpp:74] Creating layer inception_3a/pool_proj
I0704 13:25:07.354434 25725 net.cpp:90] Creating Layer inception_3a/pool_proj
I0704 13:25:07.354439 25725 net.cpp:410] inception_3a/pool_proj <- inception_3a/pool
I0704 13:25:07.354445 25725 net.cpp:368] inception_3a/pool_proj -> inception_3a/pool_proj
I0704 13:25:07.354452 25725 net.cpp:120] Setting up inception_3a/pool_proj
I0704 13:25:07.354672 25725 net.cpp:127] Top shape: 30 32 28 28 (752640)
I0704 13:25:07.354686 25725 layer_factory.hpp:74] Creating layer inception_3a/relu_pool_proj
I0704 13:25:07.354696 25725 net.cpp:90] Creating Layer inception_3a/relu_pool_proj
I0704 13:25:07.354701 25725 net.cpp:410] inception_3a/relu_pool_proj <- inception_3a/pool_proj
I0704 13:25:07.354707 25725 net.cpp:357] inception_3a/relu_pool_proj -> inception_3a/pool_proj (in-place)
I0704 13:25:07.354712 25725 net.cpp:120] Setting up inception_3a/relu_pool_proj
I0704 13:25:07.354753 25725 net.cpp:127] Top shape: 30 32 28 28 (752640)
I0704 13:25:07.354760 25725 layer_factory.hpp:74] Creating layer inception_3a/output
I0704 13:25:07.354778 25725 net.cpp:90] Creating Layer inception_3a/output
I0704 13:25:07.354784 25725 net.cpp:410] inception_3a/output <- inception_3a/1x1
I0704 13:25:07.354789 25725 net.cpp:410] inception_3a/output <- inception_3a/3x3
I0704 13:25:07.354794 25725 net.cpp:410] inception_3a/output <- inception_3a/5x5
I0704 13:25:07.354799 25725 net.cpp:410] inception_3a/output <- inception_3a/pool_proj
I0704 13:25:07.354804 25725 net.cpp:368] inception_3a/output -> inception_3a/output
I0704 13:25:07.354811 25725 net.cpp:120] Setting up inception_3a/output
I0704 13:25:07.354820 25725 net.cpp:127] Top shape: 30 256 28 28 (6021120)
I0704 13:25:07.354825 25725 layer_factory.hpp:74] Creating layer inception_3a/output_inception_3a/output_0_split
I0704 13:25:07.354832 25725 net.cpp:90] Creating Layer inception_3a/output_inception_3a/output_0_split
I0704 13:25:07.354836 25725 net.cpp:410] inception_3a/output_inception_3a/output_0_split <- inception_3a/output
I0704 13:25:07.354842 25725 net.cpp:368] inception_3a/output_inception_3a/output_0_split -> inception_3a/output_inception_3a/output_0_split_0
I0704 13:25:07.354848 25725 net.cpp:368] inception_3a/output_inception_3a/output_0_split -> inception_3a/output_inception_3a/output_0_split_1
I0704 13:25:07.354856 25725 net.cpp:368] inception_3a/output_inception_3a/output_0_split -> inception_3a/output_inception_3a/output_0_split_2
I0704 13:25:07.354861 25725 net.cpp:368] inception_3a/output_inception_3a/output_0_split -> inception_3a/output_inception_3a/output_0_split_3
I0704 13:25:07.354867 25725 net.cpp:120] Setting up inception_3a/output_inception_3a/output_0_split
I0704 13:25:07.354874 25725 net.cpp:127] Top shape: 30 256 28 28 (6021120)
I0704 13:25:07.354879 25725 net.cpp:127] Top shape: 30 256 28 28 (6021120)
I0704 13:25:07.354884 25725 net.cpp:127] Top shape: 30 256 28 28 (6021120)
I0704 13:25:07.354888 25725 net.cpp:127] Top shape: 30 256 28 28 (6021120)
I0704 13:25:07.354893 25725 layer_factory.hpp:74] Creating layer inception_3b/1x1
I0704 13:25:07.354899 25725 net.cpp:90] Creating Layer inception_3b/1x1
I0704 13:25:07.354905 25725 net.cpp:410] inception_3b/1x1 <- inception_3a/output_inception_3a/output_0_split_0
I0704 13:25:07.354912 25725 net.cpp:368] inception_3b/1x1 -> inception_3b/1x1
I0704 13:25:07.354918 25725 net.cpp:120] Setting up inception_3b/1x1
I0704 13:25:07.355273 25725 net.cpp:127] Top shape: 30 128 28 28 (3010560)
I0704 13:25:07.355285 25725 layer_factory.hpp:74] Creating layer inception_3b/relu_1x1
I0704 13:25:07.355294 25725 net.cpp:90] Creating Layer inception_3b/relu_1x1
I0704 13:25:07.355300 25725 net.cpp:410] inception_3b/relu_1x1 <- inception_3b/1x1
I0704 13:25:07.355311 25725 net.cpp:357] inception_3b/relu_1x1 -> inception_3b/1x1 (in-place)
I0704 13:25:07.355319 25725 net.cpp:120] Setting up inception_3b/relu_1x1
I0704 13:25:07.355358 25725 net.cpp:127] Top shape: 30 128 28 28 (3010560)
I0704 13:25:07.355366 25725 layer_factory.hpp:74] Creating layer inception_3b/3x3_reduce
I0704 13:25:07.355373 25725 net.cpp:90] Creating Layer inception_3b/3x3_reduce
I0704 13:25:07.355379 25725 net.cpp:410] inception_3b/3x3_reduce <- inception_3a/output_inception_3a/output_0_split_1
I0704 13:25:07.355386 25725 net.cpp:368] inception_3b/3x3_reduce -> inception_3b/3x3_reduce
I0704 13:25:07.355392 25725 net.cpp:120] Setting up inception_3b/3x3_reduce
I0704 13:25:07.355744 25725 net.cpp:127] Top shape: 30 128 28 28 (3010560)
I0704 13:25:07.355757 25725 layer_factory.hpp:74] Creating layer inception_3b/relu_3x3_reduce
I0704 13:25:07.355765 25725 net.cpp:90] Creating Layer inception_3b/relu_3x3_reduce
I0704 13:25:07.355772 25725 net.cpp:410] inception_3b/relu_3x3_reduce <- inception_3b/3x3_reduce
I0704 13:25:07.355777 25725 net.cpp:357] inception_3b/relu_3x3_reduce -> inception_3b/3x3_reduce (in-place)
I0704 13:25:07.355783 25725 net.cpp:120] Setting up inception_3b/relu_3x3_reduce
I0704 13:25:07.355890 25725 net.cpp:127] Top shape: 30 128 28 28 (3010560)
I0704 13:25:07.355900 25725 layer_factory.hpp:74] Creating layer inception_3b/3x3
I0704 13:25:07.355908 25725 net.cpp:90] Creating Layer inception_3b/3x3
I0704 13:25:07.355921 25725 net.cpp:410] inception_3b/3x3 <- inception_3b/3x3_reduce
I0704 13:25:07.355929 25725 net.cpp:368] inception_3b/3x3 -> inception_3b/3x3
I0704 13:25:07.355937 25725 net.cpp:120] Setting up inception_3b/3x3
I0704 13:25:07.357208 25725 net.cpp:127] Top shape: 30 192 28 28 (4515840)
I0704 13:25:07.357221 25725 layer_factory.hpp:74] Creating layer inception_3b/relu_3x3
I0704 13:25:07.357229 25725 net.cpp:90] Creating Layer inception_3b/relu_3x3
I0704 13:25:07.357235 25725 net.cpp:410] inception_3b/relu_3x3 <- inception_3b/3x3
I0704 13:25:07.357240 25725 net.cpp:357] inception_3b/relu_3x3 -> inception_3b/3x3 (in-place)
I0704 13:25:07.357246 25725 net.cpp:120] Setting up inception_3b/relu_3x3
I0704 13:25:07.357287 25725 net.cpp:127] Top shape: 30 192 28 28 (4515840)
I0704 13:25:07.357295 25725 layer_factory.hpp:74] Creating layer inception_3b/5x5_reduce
I0704 13:25:07.357303 25725 net.cpp:90] Creating Layer inception_3b/5x5_reduce
I0704 13:25:07.357308 25725 net.cpp:410] inception_3b/5x5_reduce <- inception_3a/output_inception_3a/output_0_split_2
I0704 13:25:07.357314 25725 net.cpp:368] inception_3b/5x5_reduce -> inception_3b/5x5_reduce
I0704 13:25:07.357321 25725 net.cpp:120] Setting up inception_3b/5x5_reduce
I0704 13:25:07.357559 25725 net.cpp:127] Top shape: 30 32 28 28 (752640)
I0704 13:25:07.357573 25725 layer_factory.hpp:74] Creating layer inception_3b/relu_5x5_reduce
I0704 13:25:07.357579 25725 net.cpp:90] Creating Layer inception_3b/relu_5x5_reduce
I0704 13:25:07.357584 25725 net.cpp:410] inception_3b/relu_5x5_reduce <- inception_3b/5x5_reduce
I0704 13:25:07.357590 25725 net.cpp:357] inception_3b/relu_5x5_reduce -> inception_3b/5x5_reduce (in-place)
I0704 13:25:07.357596 25725 net.cpp:120] Setting up inception_3b/relu_5x5_reduce
I0704 13:25:07.357636 25725 net.cpp:127] Top shape: 30 32 28 28 (752640)
I0704 13:25:07.357643 25725 layer_factory.hpp:74] Creating layer inception_3b/5x5
I0704 13:25:07.357651 25725 net.cpp:90] Creating Layer inception_3b/5x5
I0704 13:25:07.357656 25725 net.cpp:410] inception_3b/5x5 <- inception_3b/5x5_reduce
I0704 13:25:07.357663 25725 net.cpp:368] inception_3b/5x5 -> inception_3b/5x5
I0704 13:25:07.357671 25725 net.cpp:120] Setting up inception_3b/5x5
I0704 13:25:07.358242 25725 net.cpp:127] Top shape: 30 96 28 28 (2257920)
I0704 13:25:07.358255 25725 layer_factory.hpp:74] Creating layer inception_3b/relu_5x5
I0704 13:25:07.358263 25725 net.cpp:90] Creating Layer inception_3b/relu_5x5
I0704 13:25:07.358268 25725 net.cpp:410] inception_3b/relu_5x5 <- inception_3b/5x5
I0704 13:25:07.358273 25725 net.cpp:357] inception_3b/relu_5x5 -> inception_3b/5x5 (in-place)
I0704 13:25:07.358279 25725 net.cpp:120] Setting up inception_3b/relu_5x5
I0704 13:25:07.358319 25725 net.cpp:127] Top shape: 30 96 28 28 (2257920)
I0704 13:25:07.358325 25725 layer_factory.hpp:74] Creating layer inception_3b/pool
I0704 13:25:07.358330 25725 layer_factory.cpp:55] CUDNN does not support padding or multiple tops. Using Caffe's own pooling layer.
I0704 13:25:07.358336 25725 net.cpp:90] Creating Layer inception_3b/pool
I0704 13:25:07.358341 25725 net.cpp:410] inception_3b/pool <- inception_3a/output_inception_3a/output_0_split_3
I0704 13:25:07.358347 25725 net.cpp:368] inception_3b/pool -> inception_3b/pool
I0704 13:25:07.358355 25725 net.cpp:120] Setting up inception_3b/pool
I0704 13:25:07.358361 25725 net.cpp:127] Top shape: 30 256 28 28 (6021120)
I0704 13:25:07.358366 25725 layer_factory.hpp:74] Creating layer inception_3b/pool_proj
I0704 13:25:07.358373 25725 net.cpp:90] Creating Layer inception_3b/pool_proj
I0704 13:25:07.358378 25725 net.cpp:410] inception_3b/pool_proj <- inception_3b/pool
I0704 13:25:07.358384 25725 net.cpp:368] inception_3b/pool_proj -> inception_3b/pool_proj
I0704 13:25:07.358392 25725 net.cpp:120] Setting up inception_3b/pool_proj
I0704 13:25:07.358665 25725 net.cpp:127] Top shape: 30 64 28 28 (1505280)
I0704 13:25:07.358677 25725 layer_factory.hpp:74] Creating layer inception_3b/relu_pool_proj
I0704 13:25:07.358685 25725 net.cpp:90] Creating Layer inception_3b/relu_pool_proj
I0704 13:25:07.358698 25725 net.cpp:410] inception_3b/relu_pool_proj <- inception_3b/pool_proj
I0704 13:25:07.358705 25725 net.cpp:357] inception_3b/relu_pool_proj -> inception_3b/pool_proj (in-place)
I0704 13:25:07.358711 25725 net.cpp:120] Setting up inception_3b/relu_pool_proj
I0704 13:25:07.358819 25725 net.cpp:127] Top shape: 30 64 28 28 (1505280)
I0704 13:25:07.358829 25725 layer_factory.hpp:74] Creating layer inception_3b/output
I0704 13:25:07.358835 25725 net.cpp:90] Creating Layer inception_3b/output
I0704 13:25:07.358840 25725 net.cpp:410] inception_3b/output <- inception_3b/1x1
I0704 13:25:07.358845 25725 net.cpp:410] inception_3b/output <- inception_3b/3x3
I0704 13:25:07.358850 25725 net.cpp:410] inception_3b/output <- inception_3b/5x5
I0704 13:25:07.358855 25725 net.cpp:410] inception_3b/output <- inception_3b/pool_proj
I0704 13:25:07.358862 25725 net.cpp:368] inception_3b/output -> inception_3b/output
I0704 13:25:07.358870 25725 net.cpp:120] Setting up inception_3b/output
I0704 13:25:07.358875 25725 net.cpp:127] Top shape: 30 480 28 28 (11289600)
I0704 13:25:07.358880 25725 layer_factory.hpp:74] Creating layer pool3/3x3_s2
I0704 13:25:07.358886 25725 net.cpp:90] Creating Layer pool3/3x3_s2
I0704 13:25:07.358891 25725 net.cpp:410] pool3/3x3_s2 <- inception_3b/output
I0704 13:25:07.358898 25725 net.cpp:368] pool3/3x3_s2 -> pool3/3x3_s2
I0704 13:25:07.358904 25725 net.cpp:120] Setting up pool3/3x3_s2
I0704 13:25:07.358943 25725 net.cpp:127] Top shape: 30 480 14 14 (2822400)
I0704 13:25:07.358950 25725 layer_factory.hpp:74] Creating layer pool3/3x3_s2_pool3/3x3_s2_0_split
I0704 13:25:07.358958 25725 net.cpp:90] Creating Layer pool3/3x3_s2_pool3/3x3_s2_0_split
I0704 13:25:07.358963 25725 net.cpp:410] pool3/3x3_s2_pool3/3x3_s2_0_split <- pool3/3x3_s2
I0704 13:25:07.358968 25725 net.cpp:368] pool3/3x3_s2_pool3/3x3_s2_0_split -> pool3/3x3_s2_pool3/3x3_s2_0_split_0
I0704 13:25:07.358975 25725 net.cpp:368] pool3/3x3_s2_pool3/3x3_s2_0_split -> pool3/3x3_s2_pool3/3x3_s2_0_split_1
I0704 13:25:07.358981 25725 net.cpp:368] pool3/3x3_s2_pool3/3x3_s2_0_split -> pool3/3x3_s2_pool3/3x3_s2_0_split_2
I0704 13:25:07.358988 25725 net.cpp:368] pool3/3x3_s2_pool3/3x3_s2_0_split -> pool3/3x3_s2_pool3/3x3_s2_0_split_3
I0704 13:25:07.358994 25725 net.cpp:120] Setting up pool3/3x3_s2_pool3/3x3_s2_0_split
I0704 13:25:07.358999 25725 net.cpp:127] Top shape: 30 480 14 14 (2822400)
I0704 13:25:07.359004 25725 net.cpp:127] Top shape: 30 480 14 14 (2822400)
I0704 13:25:07.359009 25725 net.cpp:127] Top shape: 30 480 14 14 (2822400)
I0704 13:25:07.359014 25725 net.cpp:127] Top shape: 30 480 14 14 (2822400)
I0704 13:25:07.359019 25725 layer_factory.hpp:74] Creating layer inception_4a/1x1
I0704 13:25:07.359025 25725 net.cpp:90] Creating Layer inception_4a/1x1
I0704 13:25:07.359030 25725 net.cpp:410] inception_4a/1x1 <- pool3/3x3_s2_pool3/3x3_s2_0_split_0
I0704 13:25:07.359037 25725 net.cpp:368] inception_4a/1x1 -> inception_4a/1x1
I0704 13:25:07.359043 25725 net.cpp:120] Setting up inception_4a/1x1
I0704 13:25:07.359694 25725 net.cpp:127] Top shape: 30 192 14 14 (1128960)
I0704 13:25:07.359707 25725 layer_factory.hpp:74] Creating layer inception_4a/relu_1x1
I0704 13:25:07.359715 25725 net.cpp:90] Creating Layer inception_4a/relu_1x1
I0704 13:25:07.359721 25725 net.cpp:410] inception_4a/relu_1x1 <- inception_4a/1x1
I0704 13:25:07.359726 25725 net.cpp:357] inception_4a/relu_1x1 -> inception_4a/1x1 (in-place)
I0704 13:25:07.359735 25725 net.cpp:120] Setting up inception_4a/relu_1x1
I0704 13:25:07.359773 25725 net.cpp:127] Top shape: 30 192 14 14 (1128960)
I0704 13:25:07.359781 25725 layer_factory.hpp:74] Creating layer inception_4a/3x3_reduce
I0704 13:25:07.359788 25725 net.cpp:90] Creating Layer inception_4a/3x3_reduce
I0704 13:25:07.359793 25725 net.cpp:410] inception_4a/3x3_reduce <- pool3/3x3_s2_pool3/3x3_s2_0_split_1
I0704 13:25:07.359801 25725 net.cpp:368] inception_4a/3x3_reduce -> inception_4a/3x3_reduce
I0704 13:25:07.359807 25725 net.cpp:120] Setting up inception_4a/3x3_reduce
I0704 13:25:07.360226 25725 net.cpp:127] Top shape: 30 96 14 14 (564480)
I0704 13:25:07.360249 25725 layer_factory.hpp:74] Creating layer inception_4a/relu_3x3_reduce
I0704 13:25:07.360256 25725 net.cpp:90] Creating Layer inception_4a/relu_3x3_reduce
I0704 13:25:07.360262 25725 net.cpp:410] inception_4a/relu_3x3_reduce <- inception_4a/3x3_reduce
I0704 13:25:07.360268 25725 net.cpp:357] inception_4a/relu_3x3_reduce -> inception_4a/3x3_reduce (in-place)
I0704 13:25:07.360275 25725 net.cpp:120] Setting up inception_4a/relu_3x3_reduce
I0704 13:25:07.360314 25725 net.cpp:127] Top shape: 30 96 14 14 (564480)
I0704 13:25:07.360322 25725 layer_factory.hpp:74] Creating layer inception_4a/3x3
I0704 13:25:07.360330 25725 net.cpp:90] Creating Layer inception_4a/3x3
I0704 13:25:07.360337 25725 net.cpp:410] inception_4a/3x3 <- inception_4a/3x3_reduce
I0704 13:25:07.360342 25725 net.cpp:368] inception_4a/3x3 -> inception_4a/3x3
I0704 13:25:07.360348 25725 net.cpp:120] Setting up inception_4a/3x3
I0704 13:25:07.361413 25725 net.cpp:127] Top shape: 30 208 14 14 (1223040)
I0704 13:25:07.361426 25725 layer_factory.hpp:74] Creating layer inception_4a/relu_3x3
I0704 13:25:07.361433 25725 net.cpp:90] Creating Layer inception_4a/relu_3x3
I0704 13:25:07.361438 25725 net.cpp:410] inception_4a/relu_3x3 <- inception_4a/3x3
I0704 13:25:07.361445 25725 net.cpp:357] inception_4a/relu_3x3 -> inception_4a/3x3 (in-place)
I0704 13:25:07.361451 25725 net.cpp:120] Setting up inception_4a/relu_3x3
I0704 13:25:07.361557 25725 net.cpp:127] Top shape: 30 208 14 14 (1223040)
I0704 13:25:07.361567 25725 layer_factory.hpp:74] Creating layer inception_4a/5x5_reduce
I0704 13:25:07.361575 25725 net.cpp:90] Creating Layer inception_4a/5x5_reduce
I0704 13:25:07.361582 25725 net.cpp:410] inception_4a/5x5_reduce <- pool3/3x3_s2_pool3/3x3_s2_0_split_2
I0704 13:25:07.361588 25725 net.cpp:368] inception_4a/5x5_reduce -> inception_4a/5x5_reduce
I0704 13:25:07.361595 25725 net.cpp:120] Setting up inception_4a/5x5_reduce
I0704 13:25:07.361827 25725 net.cpp:127] Top shape: 30 16 14 14 (94080)
I0704 13:25:07.361840 25725 layer_factory.hpp:74] Creating layer inception_4a/relu_5x5_reduce
I0704 13:25:07.361846 25725 net.cpp:90] Creating Layer inception_4a/relu_5x5_reduce
I0704 13:25:07.361852 25725 net.cpp:410] inception_4a/relu_5x5_reduce <- inception_4a/5x5_reduce
I0704 13:25:07.361857 25725 net.cpp:357] inception_4a/relu_5x5_reduce -> inception_4a/5x5_reduce (in-place)
I0704 13:25:07.361865 25725 net.cpp:120] Setting up inception_4a/relu_5x5_reduce
I0704 13:25:07.361904 25725 net.cpp:127] Top shape: 30 16 14 14 (94080)
I0704 13:25:07.361912 25725 layer_factory.hpp:74] Creating layer inception_4a/5x5
I0704 13:25:07.361919 25725 net.cpp:90] Creating Layer inception_4a/5x5
I0704 13:25:07.361924 25725 net.cpp:410] inception_4a/5x5 <- inception_4a/5x5_reduce
I0704 13:25:07.361930 25725 net.cpp:368] inception_4a/5x5 -> inception_4a/5x5
I0704 13:25:07.361937 25725 net.cpp:120] Setting up inception_4a/5x5
I0704 13:25:07.362226 25725 net.cpp:127] Top shape: 30 48 14 14 (282240)
I0704 13:25:07.362239 25725 layer_factory.hpp:74] Creating layer inception_4a/relu_5x5
I0704 13:25:07.362246 25725 net.cpp:90] Creating Layer inception_4a/relu_5x5
I0704 13:25:07.362252 25725 net.cpp:410] inception_4a/relu_5x5 <- inception_4a/5x5
I0704 13:25:07.362258 25725 net.cpp:357] inception_4a/relu_5x5 -> inception_4a/5x5 (in-place)
I0704 13:25:07.362264 25725 net.cpp:120] Setting up inception_4a/relu_5x5
I0704 13:25:07.362303 25725 net.cpp:127] Top shape: 30 48 14 14 (282240)
I0704 13:25:07.362310 25725 layer_factory.hpp:74] Creating layer inception_4a/pool
I0704 13:25:07.362315 25725 layer_factory.cpp:55] CUDNN does not support padding or multiple tops. Using Caffe's own pooling layer.
I0704 13:25:07.362323 25725 net.cpp:90] Creating Layer inception_4a/pool
I0704 13:25:07.362328 25725 net.cpp:410] inception_4a/pool <- pool3/3x3_s2_pool3/3x3_s2_0_split_3
I0704 13:25:07.362334 25725 net.cpp:368] inception_4a/pool -> inception_4a/pool
I0704 13:25:07.362339 25725 net.cpp:120] Setting up inception_4a/pool
I0704 13:25:07.362347 25725 net.cpp:127] Top shape: 30 480 14 14 (2822400)
I0704 13:25:07.362359 25725 layer_factory.hpp:74] Creating layer inception_4a/pool_proj
I0704 13:25:07.362366 25725 net.cpp:90] Creating Layer inception_4a/pool_proj
I0704 13:25:07.362371 25725 net.cpp:410] inception_4a/pool_proj <- inception_4a/pool
I0704 13:25:07.362378 25725 net.cpp:368] inception_4a/pool_proj -> inception_4a/pool_proj
I0704 13:25:07.362385 25725 net.cpp:120] Setting up inception_4a/pool_proj
I0704 13:25:07.362728 25725 net.cpp:127] Top shape: 30 64 14 14 (376320)
I0704 13:25:07.362741 25725 layer_factory.hpp:74] Creating layer inception_4a/relu_pool_proj
I0704 13:25:07.362748 25725 net.cpp:90] Creating Layer inception_4a/relu_pool_proj
I0704 13:25:07.362753 25725 net.cpp:410] inception_4a/relu_pool_proj <- inception_4a/pool_proj
I0704 13:25:07.362759 25725 net.cpp:357] inception_4a/relu_pool_proj -> inception_4a/pool_proj (in-place)
I0704 13:25:07.362766 25725 net.cpp:120] Setting up inception_4a/relu_pool_proj
I0704 13:25:07.362872 25725 net.cpp:127] Top shape: 30 64 14 14 (376320)
I0704 13:25:07.362881 25725 layer_factory.hpp:74] Creating layer inception_4a/output
I0704 13:25:07.362889 25725 net.cpp:90] Creating Layer inception_4a/output
I0704 13:25:07.362893 25725 net.cpp:410] inception_4a/output <- inception_4a/1x1
I0704 13:25:07.362898 25725 net.cpp:410] inception_4a/output <- inception_4a/3x3
I0704 13:25:07.362903 25725 net.cpp:410] inception_4a/output <- inception_4a/5x5
I0704 13:25:07.362908 25725 net.cpp:410] inception_4a/output <- inception_4a/pool_proj
I0704 13:25:07.362915 25725 net.cpp:368] inception_4a/output -> inception_4a/output
I0704 13:25:07.362920 25725 net.cpp:120] Setting up inception_4a/output
I0704 13:25:07.362927 25725 net.cpp:127] Top shape: 30 512 14 14 (3010560)
I0704 13:25:07.362931 25725 layer_factory.hpp:74] Creating layer inception_4a/output_inception_4a/output_0_split
I0704 13:25:07.362938 25725 net.cpp:90] Creating Layer inception_4a/output_inception_4a/output_0_split
I0704 13:25:07.362942 25725 net.cpp:410] inception_4a/output_inception_4a/output_0_split <- inception_4a/output
I0704 13:25:07.362949 25725 net.cpp:368] inception_4a/output_inception_4a/output_0_split -> inception_4a/output_inception_4a/output_0_split_0
I0704 13:25:07.362957 25725 net.cpp:368] inception_4a/output_inception_4a/output_0_split -> inception_4a/output_inception_4a/output_0_split_1
I0704 13:25:07.362963 25725 net.cpp:368] inception_4a/output_inception_4a/output_0_split -> inception_4a/output_inception_4a/output_0_split_2
I0704 13:25:07.362969 25725 net.cpp:368] inception_4a/output_inception_4a/output_0_split -> inception_4a/output_inception_4a/output_0_split_3
I0704 13:25:07.362977 25725 net.cpp:368] inception_4a/output_inception_4a/output_0_split -> inception_4a/output_inception_4a/output_0_split_4
I0704 13:25:07.362983 25725 net.cpp:120] Setting up inception_4a/output_inception_4a/output_0_split
I0704 13:25:07.362989 25725 net.cpp:127] Top shape: 30 512 14 14 (3010560)
I0704 13:25:07.362994 25725 net.cpp:127] Top shape: 30 512 14 14 (3010560)
I0704 13:25:07.362999 25725 net.cpp:127] Top shape: 30 512 14 14 (3010560)
I0704 13:25:07.363004 25725 net.cpp:127] Top shape: 30 512 14 14 (3010560)
I0704 13:25:07.363008 25725 net.cpp:127] Top shape: 30 512 14 14 (3010560)
I0704 13:25:07.363013 25725 layer_factory.hpp:74] Creating layer loss1/ave_pool
I0704 13:25:07.363019 25725 net.cpp:90] Creating Layer loss1/ave_pool
I0704 13:25:07.363023 25725 net.cpp:410] loss1/ave_pool <- inception_4a/output_inception_4a/output_0_split_0
I0704 13:25:07.363029 25725 net.cpp:368] loss1/ave_pool -> loss1/ave_pool
I0704 13:25:07.363035 25725 net.cpp:120] Setting up loss1/ave_pool
I0704 13:25:07.363077 25725 net.cpp:127] Top shape: 30 512 4 4 (245760)
I0704 13:25:07.363085 25725 layer_factory.hpp:74] Creating layer loss1/conv
I0704 13:25:07.363092 25725 net.cpp:90] Creating Layer loss1/conv
I0704 13:25:07.363097 25725 net.cpp:410] loss1/conv <- loss1/ave_pool
I0704 13:25:07.363104 25725 net.cpp:368] loss1/conv -> loss1/conv
I0704 13:25:07.363111 25725 net.cpp:120] Setting up loss1/conv
I0704 13:25:07.363643 25725 net.cpp:127] Top shape: 30 128 4 4 (61440)
I0704 13:25:07.363656 25725 layer_factory.hpp:74] Creating layer loss1/relu_conv
I0704 13:25:07.363663 25725 net.cpp:90] Creating Layer loss1/relu_conv
I0704 13:25:07.363668 25725 net.cpp:410] loss1/relu_conv <- loss1/conv
I0704 13:25:07.363675 25725 net.cpp:357] loss1/relu_conv -> loss1/conv (in-place)
I0704 13:25:07.363682 25725 net.cpp:120] Setting up loss1/relu_conv
I0704 13:25:07.363721 25725 net.cpp:127] Top shape: 30 128 4 4 (61440)
I0704 13:25:07.363729 25725 layer_factory.hpp:74] Creating layer loss1/fc
I0704 13:25:07.363737 25725 net.cpp:90] Creating Layer loss1/fc
I0704 13:25:07.363742 25725 net.cpp:410] loss1/fc <- loss1/conv
I0704 13:25:07.363749 25725 net.cpp:368] loss1/fc -> loss1/fc
I0704 13:25:07.363759 25725 net.cpp:120] Setting up loss1/fc
I0704 13:25:07.373642 25725 net.cpp:127] Top shape: 30 1024 (30720)
I0704 13:25:07.373670 25725 layer_factory.hpp:74] Creating layer loss1/relu_fc
I0704 13:25:07.373682 25725 net.cpp:90] Creating Layer loss1/relu_fc
I0704 13:25:07.373687 25725 net.cpp:410] loss1/relu_fc <- loss1/fc
I0704 13:25:07.373694 25725 net.cpp:357] loss1/relu_fc -> loss1/fc (in-place)
I0704 13:25:07.373702 25725 net.cpp:120] Setting up loss1/relu_fc
I0704 13:25:07.373775 25725 net.cpp:127] Top shape: 30 1024 (30720)
I0704 13:25:07.373783 25725 layer_factory.hpp:74] Creating layer loss1/drop_fc
I0704 13:25:07.373800 25725 net.cpp:90] Creating Layer loss1/drop_fc
I0704 13:25:07.373806 25725 net.cpp:410] loss1/drop_fc <- loss1/fc
I0704 13:25:07.373811 25725 net.cpp:357] loss1/drop_fc -> loss1/fc (in-place)
I0704 13:25:07.373819 25725 net.cpp:120] Setting up loss1/drop_fc
I0704 13:25:07.373828 25725 net.cpp:127] Top shape: 30 1024 (30720)
I0704 13:25:07.373834 25725 layer_factory.hpp:74] Creating layer stanford_cars_loss1/classifier
I0704 13:25:07.373843 25725 net.cpp:90] Creating Layer stanford_cars_loss1/classifier
I0704 13:25:07.373848 25725 net.cpp:410] stanford_cars_loss1/classifier <- loss1/fc
I0704 13:25:07.373855 25725 net.cpp:368] stanford_cars_loss1/classifier -> stanford_cars_loss1/classifier
I0704 13:25:07.373862 25725 net.cpp:120] Setting up stanford_cars_loss1/classifier
I0704 13:25:07.374852 25725 net.cpp:127] Top shape: 30 196 (5880)
I0704 13:25:07.374862 25725 layer_factory.hpp:74] Creating layer loss1/loss
I0704 13:25:07.374871 25725 net.cpp:90] Creating Layer loss1/loss
I0704 13:25:07.374877 25725 net.cpp:410] loss1/loss <- stanford_cars_loss1/classifier
I0704 13:25:07.374882 25725 net.cpp:410] loss1/loss <- label_data_1_split_0
I0704 13:25:07.374888 25725 net.cpp:368] loss1/loss -> loss1/loss1
I0704 13:25:07.374896 25725 net.cpp:120] Setting up loss1/loss
I0704 13:25:07.374903 25725 layer_factory.hpp:74] Creating layer loss1/loss
I0704 13:25:07.375082 25725 net.cpp:127] Top shape: (1)
I0704 13:25:07.375092 25725 net.cpp:129]     with loss weight 0.3
I0704 13:25:07.375110 25725 layer_factory.hpp:74] Creating layer inception_4b/1x1
I0704 13:25:07.375119 25725 net.cpp:90] Creating Layer inception_4b/1x1
I0704 13:25:07.375125 25725 net.cpp:410] inception_4b/1x1 <- inception_4a/output_inception_4a/output_0_split_1
I0704 13:25:07.375133 25725 net.cpp:368] inception_4b/1x1 -> inception_4b/1x1
I0704 13:25:07.375140 25725 net.cpp:120] Setting up inception_4b/1x1
I0704 13:25:07.375797 25725 net.cpp:127] Top shape: 30 160 14 14 (940800)
I0704 13:25:07.375810 25725 layer_factory.hpp:74] Creating layer inception_4b/relu_1x1
I0704 13:25:07.375818 25725 net.cpp:90] Creating Layer inception_4b/relu_1x1
I0704 13:25:07.375823 25725 net.cpp:410] inception_4b/relu_1x1 <- inception_4b/1x1
I0704 13:25:07.375830 25725 net.cpp:357] inception_4b/relu_1x1 -> inception_4b/1x1 (in-place)
I0704 13:25:07.375836 25725 net.cpp:120] Setting up inception_4b/relu_1x1
I0704 13:25:07.375879 25725 net.cpp:127] Top shape: 30 160 14 14 (940800)
I0704 13:25:07.375885 25725 layer_factory.hpp:74] Creating layer inception_4b/3x3_reduce
I0704 13:25:07.375892 25725 net.cpp:90] Creating Layer inception_4b/3x3_reduce
I0704 13:25:07.375897 25725 net.cpp:410] inception_4b/3x3_reduce <- inception_4a/output_inception_4a/output_0_split_2
I0704 13:25:07.375921 25725 net.cpp:368] inception_4b/3x3_reduce -> inception_4b/3x3_reduce
I0704 13:25:07.375929 25725 net.cpp:120] Setting up inception_4b/3x3_reduce
I0704 13:25:07.376411 25725 net.cpp:127] Top shape: 30 112 14 14 (658560)
I0704 13:25:07.376425 25725 layer_factory.hpp:74] Creating layer inception_4b/relu_3x3_reduce
I0704 13:25:07.376430 25725 net.cpp:90] Creating Layer inception_4b/relu_3x3_reduce
I0704 13:25:07.376436 25725 net.cpp:410] inception_4b/relu_3x3_reduce <- inception_4b/3x3_reduce
I0704 13:25:07.376441 25725 net.cpp:357] inception_4b/relu_3x3_reduce -> inception_4b/3x3_reduce (in-place)
I0704 13:25:07.376448 25725 net.cpp:120] Setting up inception_4b/relu_3x3_reduce
I0704 13:25:07.376488 25725 net.cpp:127] Top shape: 30 112 14 14 (658560)
I0704 13:25:07.376495 25725 layer_factory.hpp:74] Creating layer inception_4b/3x3
I0704 13:25:07.376502 25725 net.cpp:90] Creating Layer inception_4b/3x3
I0704 13:25:07.376507 25725 net.cpp:410] inception_4b/3x3 <- inception_4b/3x3_reduce
I0704 13:25:07.376515 25725 net.cpp:368] inception_4b/3x3 -> inception_4b/3x3
I0704 13:25:07.376523 25725 net.cpp:120] Setting up inception_4b/3x3
I0704 13:25:07.377815 25725 net.cpp:127] Top shape: 30 224 14 14 (1317120)
I0704 13:25:07.377827 25725 layer_factory.hpp:74] Creating layer inception_4b/relu_3x3
I0704 13:25:07.377835 25725 net.cpp:90] Creating Layer inception_4b/relu_3x3
I0704 13:25:07.377840 25725 net.cpp:410] inception_4b/relu_3x3 <- inception_4b/3x3
I0704 13:25:07.377846 25725 net.cpp:357] inception_4b/relu_3x3 -> inception_4b/3x3 (in-place)
I0704 13:25:07.377852 25725 net.cpp:120] Setting up inception_4b/relu_3x3
I0704 13:25:07.377893 25725 net.cpp:127] Top shape: 30 224 14 14 (1317120)
I0704 13:25:07.377900 25725 layer_factory.hpp:74] Creating layer inception_4b/5x5_reduce
I0704 13:25:07.377908 25725 net.cpp:90] Creating Layer inception_4b/5x5_reduce
I0704 13:25:07.377913 25725 net.cpp:410] inception_4b/5x5_reduce <- inception_4a/output_inception_4a/output_0_split_3
I0704 13:25:07.377920 25725 net.cpp:368] inception_4b/5x5_reduce -> inception_4b/5x5_reduce
I0704 13:25:07.377928 25725 net.cpp:120] Setting up inception_4b/5x5_reduce
I0704 13:25:07.378193 25725 net.cpp:127] Top shape: 30 24 14 14 (141120)
I0704 13:25:07.378206 25725 layer_factory.hpp:74] Creating layer inception_4b/relu_5x5_reduce
I0704 13:25:07.378212 25725 net.cpp:90] Creating Layer inception_4b/relu_5x5_reduce
I0704 13:25:07.378217 25725 net.cpp:410] inception_4b/relu_5x5_reduce <- inception_4b/5x5_reduce
I0704 13:25:07.378224 25725 net.cpp:357] inception_4b/relu_5x5_reduce -> inception_4b/5x5_reduce (in-place)
I0704 13:25:07.378232 25725 net.cpp:120] Setting up inception_4b/relu_5x5_reduce
I0704 13:25:07.378340 25725 net.cpp:127] Top shape: 30 24 14 14 (141120)
I0704 13:25:07.378350 25725 layer_factory.hpp:74] Creating layer inception_4b/5x5
I0704 13:25:07.378357 25725 net.cpp:90] Creating Layer inception_4b/5x5
I0704 13:25:07.378362 25725 net.cpp:410] inception_4b/5x5 <- inception_4b/5x5_reduce
I0704 13:25:07.378370 25725 net.cpp:368] inception_4b/5x5 -> inception_4b/5x5
I0704 13:25:07.378376 25725 net.cpp:120] Setting up inception_4b/5x5
I0704 13:25:07.378761 25725 net.cpp:127] Top shape: 30 64 14 14 (376320)
I0704 13:25:07.378773 25725 layer_factory.hpp:74] Creating layer inception_4b/relu_5x5
I0704 13:25:07.378779 25725 net.cpp:90] Creating Layer inception_4b/relu_5x5
I0704 13:25:07.378785 25725 net.cpp:410] inception_4b/relu_5x5 <- inception_4b/5x5
I0704 13:25:07.378792 25725 net.cpp:357] inception_4b/relu_5x5 -> inception_4b/5x5 (in-place)
I0704 13:25:07.378798 25725 net.cpp:120] Setting up inception_4b/relu_5x5
I0704 13:25:07.378839 25725 net.cpp:127] Top shape: 30 64 14 14 (376320)
I0704 13:25:07.378845 25725 layer_factory.hpp:74] Creating layer inception_4b/pool
I0704 13:25:07.378850 25725 layer_factory.cpp:55] CUDNN does not support padding or multiple tops. Using Caffe's own pooling layer.
I0704 13:25:07.378856 25725 net.cpp:90] Creating Layer inception_4b/pool
I0704 13:25:07.378867 25725 net.cpp:410] inception_4b/pool <- inception_4a/output_inception_4a/output_0_split_4
I0704 13:25:07.378875 25725 net.cpp:368] inception_4b/pool -> inception_4b/pool
I0704 13:25:07.378886 25725 net.cpp:120] Setting up inception_4b/pool
I0704 13:25:07.378896 25725 net.cpp:127] Top shape: 30 512 14 14 (3010560)
I0704 13:25:07.378901 25725 layer_factory.hpp:74] Creating layer inception_4b/pool_proj
I0704 13:25:07.378908 25725 net.cpp:90] Creating Layer inception_4b/pool_proj
I0704 13:25:07.378913 25725 net.cpp:410] inception_4b/pool_proj <- inception_4b/pool
I0704 13:25:07.378921 25725 net.cpp:368] inception_4b/pool_proj -> inception_4b/pool_proj
I0704 13:25:07.378927 25725 net.cpp:120] Setting up inception_4b/pool_proj
I0704 13:25:07.379284 25725 net.cpp:127] Top shape: 30 64 14 14 (376320)
I0704 13:25:07.379297 25725 layer_factory.hpp:74] Creating layer inception_4b/relu_pool_proj
I0704 13:25:07.379304 25725 net.cpp:90] Creating Layer inception_4b/relu_pool_proj
I0704 13:25:07.379315 25725 net.cpp:410] inception_4b/relu_pool_proj <- inception_4b/pool_proj
I0704 13:25:07.379322 25725 net.cpp:357] inception_4b/relu_pool_proj -> inception_4b/pool_proj (in-place)
I0704 13:25:07.379328 25725 net.cpp:120] Setting up inception_4b/relu_pool_proj
I0704 13:25:07.379370 25725 net.cpp:127] Top shape: 30 64 14 14 (376320)
I0704 13:25:07.379379 25725 layer_factory.hpp:74] Creating layer inception_4b/output
I0704 13:25:07.379385 25725 net.cpp:90] Creating Layer inception_4b/output
I0704 13:25:07.379390 25725 net.cpp:410] inception_4b/output <- inception_4b/1x1
I0704 13:25:07.379396 25725 net.cpp:410] inception_4b/output <- inception_4b/3x3
I0704 13:25:07.379401 25725 net.cpp:410] inception_4b/output <- inception_4b/5x5
I0704 13:25:07.379406 25725 net.cpp:410] inception_4b/output <- inception_4b/pool_proj
I0704 13:25:07.379411 25725 net.cpp:368] inception_4b/output -> inception_4b/output
I0704 13:25:07.379417 25725 net.cpp:120] Setting up inception_4b/output
I0704 13:25:07.379425 25725 net.cpp:127] Top shape: 30 512 14 14 (3010560)
I0704 13:25:07.379429 25725 layer_factory.hpp:74] Creating layer inception_4b/output_inception_4b/output_0_split
I0704 13:25:07.379436 25725 net.cpp:90] Creating Layer inception_4b/output_inception_4b/output_0_split
I0704 13:25:07.379441 25725 net.cpp:410] inception_4b/output_inception_4b/output_0_split <- inception_4b/output
I0704 13:25:07.379447 25725 net.cpp:368] inception_4b/output_inception_4b/output_0_split -> inception_4b/output_inception_4b/output_0_split_0
I0704 13:25:07.379454 25725 net.cpp:368] inception_4b/output_inception_4b/output_0_split -> inception_4b/output_inception_4b/output_0_split_1
I0704 13:25:07.379462 25725 net.cpp:368] inception_4b/output_inception_4b/output_0_split -> inception_4b/output_inception_4b/output_0_split_2
I0704 13:25:07.379467 25725 net.cpp:368] inception_4b/output_inception_4b/output_0_split -> inception_4b/output_inception_4b/output_0_split_3
I0704 13:25:07.379473 25725 net.cpp:120] Setting up inception_4b/output_inception_4b/output_0_split
I0704 13:25:07.379479 25725 net.cpp:127] Top shape: 30 512 14 14 (3010560)
I0704 13:25:07.379485 25725 net.cpp:127] Top shape: 30 512 14 14 (3010560)
I0704 13:25:07.379489 25725 net.cpp:127] Top shape: 30 512 14 14 (3010560)
I0704 13:25:07.379494 25725 net.cpp:127] Top shape: 30 512 14 14 (3010560)
I0704 13:25:07.379498 25725 layer_factory.hpp:74] Creating layer inception_4c/1x1
I0704 13:25:07.379508 25725 net.cpp:90] Creating Layer inception_4c/1x1
I0704 13:25:07.379513 25725 net.cpp:410] inception_4c/1x1 <- inception_4b/output_inception_4b/output_0_split_0
I0704 13:25:07.379518 25725 net.cpp:368] inception_4c/1x1 -> inception_4c/1x1
I0704 13:25:07.379525 25725 net.cpp:120] Setting up inception_4c/1x1
I0704 13:25:07.380043 25725 net.cpp:127] Top shape: 30 128 14 14 (752640)
I0704 13:25:07.380055 25725 layer_factory.hpp:74] Creating layer inception_4c/relu_1x1
I0704 13:25:07.380064 25725 net.cpp:90] Creating Layer inception_4c/relu_1x1
I0704 13:25:07.380069 25725 net.cpp:410] inception_4c/relu_1x1 <- inception_4c/1x1
I0704 13:25:07.380084 25725 net.cpp:357] inception_4c/relu_1x1 -> inception_4c/1x1 (in-place)
I0704 13:25:07.380090 25725 net.cpp:120] Setting up inception_4c/relu_1x1
I0704 13:25:07.380131 25725 net.cpp:127] Top shape: 30 128 14 14 (752640)
I0704 13:25:07.380138 25725 layer_factory.hpp:74] Creating layer inception_4c/3x3_reduce
I0704 13:25:07.380146 25725 net.cpp:90] Creating Layer inception_4c/3x3_reduce
I0704 13:25:07.380151 25725 net.cpp:410] inception_4c/3x3_reduce <- inception_4b/output_inception_4b/output_0_split_1
I0704 13:25:07.380157 25725 net.cpp:368] inception_4c/3x3_reduce -> inception_4c/3x3_reduce
I0704 13:25:07.380166 25725 net.cpp:120] Setting up inception_4c/3x3_reduce
I0704 13:25:07.380681 25725 net.cpp:127] Top shape: 30 128 14 14 (752640)
I0704 13:25:07.380693 25725 layer_factory.hpp:74] Creating layer inception_4c/relu_3x3_reduce
I0704 13:25:07.380702 25725 net.cpp:90] Creating Layer inception_4c/relu_3x3_reduce
I0704 13:25:07.380707 25725 net.cpp:410] inception_4c/relu_3x3_reduce <- inception_4c/3x3_reduce
I0704 13:25:07.380713 25725 net.cpp:357] inception_4c/relu_3x3_reduce -> inception_4c/3x3_reduce (in-place)
I0704 13:25:07.380719 25725 net.cpp:120] Setting up inception_4c/relu_3x3_reduce
I0704 13:25:07.380825 25725 net.cpp:127] Top shape: 30 128 14 14 (752640)
I0704 13:25:07.380836 25725 layer_factory.hpp:74] Creating layer inception_4c/3x3
I0704 13:25:07.380843 25725 net.cpp:90] Creating Layer inception_4c/3x3
I0704 13:25:07.380849 25725 net.cpp:410] inception_4c/3x3 <- inception_4c/3x3_reduce
I0704 13:25:07.380856 25725 net.cpp:368] inception_4c/3x3 -> inception_4c/3x3
I0704 13:25:07.380863 25725 net.cpp:120] Setting up inception_4c/3x3
I0704 13:25:07.382490 25725 net.cpp:127] Top shape: 30 256 14 14 (1505280)
I0704 13:25:07.382509 25725 layer_factory.hpp:74] Creating layer inception_4c/relu_3x3
I0704 13:25:07.382519 25725 net.cpp:90] Creating Layer inception_4c/relu_3x3
I0704 13:25:07.382524 25725 net.cpp:410] inception_4c/relu_3x3 <- inception_4c/3x3
I0704 13:25:07.382529 25725 net.cpp:357] inception_4c/relu_3x3 -> inception_4c/3x3 (in-place)
I0704 13:25:07.382535 25725 net.cpp:120] Setting up inception_4c/relu_3x3
I0704 13:25:07.382577 25725 net.cpp:127] Top shape: 30 256 14 14 (1505280)
I0704 13:25:07.382585 25725 layer_factory.hpp:74] Creating layer inception_4c/5x5_reduce
I0704 13:25:07.382592 25725 net.cpp:90] Creating Layer inception_4c/5x5_reduce
I0704 13:25:07.382597 25725 net.cpp:410] inception_4c/5x5_reduce <- inception_4b/output_inception_4b/output_0_split_2
I0704 13:25:07.382604 25725 net.cpp:368] inception_4c/5x5_reduce -> inception_4c/5x5_reduce
I0704 13:25:07.382611 25725 net.cpp:120] Setting up inception_4c/5x5_reduce
I0704 13:25:07.382870 25725 net.cpp:127] Top shape: 30 24 14 14 (141120)
I0704 13:25:07.382884 25725 layer_factory.hpp:74] Creating layer inception_4c/relu_5x5_reduce
I0704 13:25:07.382890 25725 net.cpp:90] Creating Layer inception_4c/relu_5x5_reduce
I0704 13:25:07.382896 25725 net.cpp:410] inception_4c/relu_5x5_reduce <- inception_4c/5x5_reduce
I0704 13:25:07.382904 25725 net.cpp:357] inception_4c/relu_5x5_reduce -> inception_4c/5x5_reduce (in-place)
I0704 13:25:07.382910 25725 net.cpp:120] Setting up inception_4c/relu_5x5_reduce
I0704 13:25:07.382949 25725 net.cpp:127] Top shape: 30 24 14 14 (141120)
I0704 13:25:07.382956 25725 layer_factory.hpp:74] Creating layer inception_4c/5x5
I0704 13:25:07.382963 25725 net.cpp:90] Creating Layer inception_4c/5x5
I0704 13:25:07.382969 25725 net.cpp:410] inception_4c/5x5 <- inception_4c/5x5_reduce
I0704 13:25:07.382975 25725 net.cpp:368] inception_4c/5x5 -> inception_4c/5x5
I0704 13:25:07.382982 25725 net.cpp:120] Setting up inception_4c/5x5
I0704 13:25:07.383394 25725 net.cpp:127] Top shape: 30 64 14 14 (376320)
I0704 13:25:07.383406 25725 layer_factory.hpp:74] Creating layer inception_4c/relu_5x5
I0704 13:25:07.383414 25725 net.cpp:90] Creating Layer inception_4c/relu_5x5
I0704 13:25:07.383419 25725 net.cpp:410] inception_4c/relu_5x5 <- inception_4c/5x5
I0704 13:25:07.383425 25725 net.cpp:357] inception_4c/relu_5x5 -> inception_4c/5x5 (in-place)
I0704 13:25:07.383440 25725 net.cpp:120] Setting up inception_4c/relu_5x5
I0704 13:25:07.383549 25725 net.cpp:127] Top shape: 30 64 14 14 (376320)
I0704 13:25:07.383559 25725 layer_factory.hpp:74] Creating layer inception_4c/pool
I0704 13:25:07.383564 25725 layer_factory.cpp:55] CUDNN does not support padding or multiple tops. Using Caffe's own pooling layer.
I0704 13:25:07.383570 25725 net.cpp:90] Creating Layer inception_4c/pool
I0704 13:25:07.383575 25725 net.cpp:410] inception_4c/pool <- inception_4b/output_inception_4b/output_0_split_3
I0704 13:25:07.383584 25725 net.cpp:368] inception_4c/pool -> inception_4c/pool
I0704 13:25:07.383590 25725 net.cpp:120] Setting up inception_4c/pool
I0704 13:25:07.383597 25725 net.cpp:127] Top shape: 30 512 14 14 (3010560)
I0704 13:25:07.383602 25725 layer_factory.hpp:74] Creating layer inception_4c/pool_proj
I0704 13:25:07.383610 25725 net.cpp:90] Creating Layer inception_4c/pool_proj
I0704 13:25:07.383615 25725 net.cpp:410] inception_4c/pool_proj <- inception_4c/pool
I0704 13:25:07.383620 25725 net.cpp:368] inception_4c/pool_proj -> inception_4c/pool_proj
I0704 13:25:07.383627 25725 net.cpp:120] Setting up inception_4c/pool_proj
I0704 13:25:07.383983 25725 net.cpp:127] Top shape: 30 64 14 14 (376320)
I0704 13:25:07.383996 25725 layer_factory.hpp:74] Creating layer inception_4c/relu_pool_proj
I0704 13:25:07.384002 25725 net.cpp:90] Creating Layer inception_4c/relu_pool_proj
I0704 13:25:07.384007 25725 net.cpp:410] inception_4c/relu_pool_proj <- inception_4c/pool_proj
I0704 13:25:07.384013 25725 net.cpp:357] inception_4c/relu_pool_proj -> inception_4c/pool_proj (in-place)
I0704 13:25:07.384021 25725 net.cpp:120] Setting up inception_4c/relu_pool_proj
I0704 13:25:07.384062 25725 net.cpp:127] Top shape: 30 64 14 14 (376320)
I0704 13:25:07.384069 25725 layer_factory.hpp:74] Creating layer inception_4c/output
I0704 13:25:07.384075 25725 net.cpp:90] Creating Layer inception_4c/output
I0704 13:25:07.384080 25725 net.cpp:410] inception_4c/output <- inception_4c/1x1
I0704 13:25:07.384085 25725 net.cpp:410] inception_4c/output <- inception_4c/3x3
I0704 13:25:07.384091 25725 net.cpp:410] inception_4c/output <- inception_4c/5x5
I0704 13:25:07.384096 25725 net.cpp:410] inception_4c/output <- inception_4c/pool_proj
I0704 13:25:07.384101 25725 net.cpp:368] inception_4c/output -> inception_4c/output
I0704 13:25:07.384107 25725 net.cpp:120] Setting up inception_4c/output
I0704 13:25:07.384114 25725 net.cpp:127] Top shape: 30 512 14 14 (3010560)
I0704 13:25:07.384119 25725 layer_factory.hpp:74] Creating layer inception_4c/output_inception_4c/output_0_split
I0704 13:25:07.384125 25725 net.cpp:90] Creating Layer inception_4c/output_inception_4c/output_0_split
I0704 13:25:07.384130 25725 net.cpp:410] inception_4c/output_inception_4c/output_0_split <- inception_4c/output
I0704 13:25:07.384136 25725 net.cpp:368] inception_4c/output_inception_4c/output_0_split -> inception_4c/output_inception_4c/output_0_split_0
I0704 13:25:07.384143 25725 net.cpp:368] inception_4c/output_inception_4c/output_0_split -> inception_4c/output_inception_4c/output_0_split_1
I0704 13:25:07.384150 25725 net.cpp:368] inception_4c/output_inception_4c/output_0_split -> inception_4c/output_inception_4c/output_0_split_2
I0704 13:25:07.384157 25725 net.cpp:368] inception_4c/output_inception_4c/output_0_split -> inception_4c/output_inception_4c/output_0_split_3
I0704 13:25:07.384163 25725 net.cpp:120] Setting up inception_4c/output_inception_4c/output_0_split
I0704 13:25:07.384169 25725 net.cpp:127] Top shape: 30 512 14 14 (3010560)
I0704 13:25:07.384176 25725 net.cpp:127] Top shape: 30 512 14 14 (3010560)
I0704 13:25:07.384179 25725 net.cpp:127] Top shape: 30 512 14 14 (3010560)
I0704 13:25:07.384184 25725 net.cpp:127] Top shape: 30 512 14 14 (3010560)
I0704 13:25:07.384189 25725 layer_factory.hpp:74] Creating layer inception_4d/1x1
I0704 13:25:07.384196 25725 net.cpp:90] Creating Layer inception_4d/1x1
I0704 13:25:07.384202 25725 net.cpp:410] inception_4d/1x1 <- inception_4c/output_inception_4c/output_0_split_0
I0704 13:25:07.384213 25725 net.cpp:368] inception_4d/1x1 -> inception_4d/1x1
I0704 13:25:07.384220 25725 net.cpp:120] Setting up inception_4d/1x1
I0704 13:25:07.384701 25725 net.cpp:127] Top shape: 30 112 14 14 (658560)
I0704 13:25:07.384714 25725 layer_factory.hpp:74] Creating layer inception_4d/relu_1x1
I0704 13:25:07.384721 25725 net.cpp:90] Creating Layer inception_4d/relu_1x1
I0704 13:25:07.384727 25725 net.cpp:410] inception_4d/relu_1x1 <- inception_4d/1x1
I0704 13:25:07.384733 25725 net.cpp:357] inception_4d/relu_1x1 -> inception_4d/1x1 (in-place)
I0704 13:25:07.384739 25725 net.cpp:120] Setting up inception_4d/relu_1x1
I0704 13:25:07.384779 25725 net.cpp:127] Top shape: 30 112 14 14 (658560)
I0704 13:25:07.384786 25725 layer_factory.hpp:74] Creating layer inception_4d/3x3_reduce
I0704 13:25:07.384793 25725 net.cpp:90] Creating Layer inception_4d/3x3_reduce
I0704 13:25:07.384799 25725 net.cpp:410] inception_4d/3x3_reduce <- inception_4c/output_inception_4c/output_0_split_1
I0704 13:25:07.384805 25725 net.cpp:368] inception_4d/3x3_reduce -> inception_4d/3x3_reduce
I0704 13:25:07.384812 25725 net.cpp:120] Setting up inception_4d/3x3_reduce
I0704 13:25:07.385390 25725 net.cpp:127] Top shape: 30 144 14 14 (846720)
I0704 13:25:07.385403 25725 layer_factory.hpp:74] Creating layer inception_4d/relu_3x3_reduce
I0704 13:25:07.385411 25725 net.cpp:90] Creating Layer inception_4d/relu_3x3_reduce
I0704 13:25:07.385416 25725 net.cpp:410] inception_4d/relu_3x3_reduce <- inception_4d/3x3_reduce
I0704 13:25:07.385422 25725 net.cpp:357] inception_4d/relu_3x3_reduce -> inception_4d/3x3_reduce (in-place)
I0704 13:25:07.385429 25725 net.cpp:120] Setting up inception_4d/relu_3x3_reduce
I0704 13:25:07.385468 25725 net.cpp:127] Top shape: 30 144 14 14 (846720)
I0704 13:25:07.385476 25725 layer_factory.hpp:74] Creating layer inception_4d/3x3
I0704 13:25:07.385483 25725 net.cpp:90] Creating Layer inception_4d/3x3
I0704 13:25:07.385490 25725 net.cpp:410] inception_4d/3x3 <- inception_4d/3x3_reduce
I0704 13:25:07.385496 25725 net.cpp:368] inception_4d/3x3 -> inception_4d/3x3
I0704 13:25:07.385504 25725 net.cpp:120] Setting up inception_4d/3x3
I0704 13:25:07.387511 25725 net.cpp:127] Top shape: 30 288 14 14 (1693440)
I0704 13:25:07.387524 25725 layer_factory.hpp:74] Creating layer inception_4d/relu_3x3
I0704 13:25:07.387531 25725 net.cpp:90] Creating Layer inception_4d/relu_3x3
I0704 13:25:07.387537 25725 net.cpp:410] inception_4d/relu_3x3 <- inception_4d/3x3
I0704 13:25:07.387543 25725 net.cpp:357] inception_4d/relu_3x3 -> inception_4d/3x3 (in-place)
I0704 13:25:07.387550 25725 net.cpp:120] Setting up inception_4d/relu_3x3
I0704 13:25:07.387658 25725 net.cpp:127] Top shape: 30 288 14 14 (1693440)
I0704 13:25:07.387668 25725 layer_factory.hpp:74] Creating layer inception_4d/5x5_reduce
I0704 13:25:07.387677 25725 net.cpp:90] Creating Layer inception_4d/5x5_reduce
I0704 13:25:07.387682 25725 net.cpp:410] inception_4d/5x5_reduce <- inception_4c/output_inception_4c/output_0_split_2
I0704 13:25:07.387689 25725 net.cpp:368] inception_4d/5x5_reduce -> inception_4d/5x5_reduce
I0704 13:25:07.387696 25725 net.cpp:120] Setting up inception_4d/5x5_reduce
I0704 13:25:07.387975 25725 net.cpp:127] Top shape: 30 32 14 14 (188160)
I0704 13:25:07.387989 25725 layer_factory.hpp:74] Creating layer inception_4d/relu_5x5_reduce
I0704 13:25:07.387995 25725 net.cpp:90] Creating Layer inception_4d/relu_5x5_reduce
I0704 13:25:07.388002 25725 net.cpp:410] inception_4d/relu_5x5_reduce <- inception_4d/5x5_reduce
I0704 13:25:07.388007 25725 net.cpp:357] inception_4d/relu_5x5_reduce -> inception_4d/5x5_reduce (in-place)
I0704 13:25:07.388015 25725 net.cpp:120] Setting up inception_4d/relu_5x5_reduce
I0704 13:25:07.388054 25725 net.cpp:127] Top shape: 30 32 14 14 (188160)
I0704 13:25:07.388062 25725 layer_factory.hpp:74] Creating layer inception_4d/5x5
I0704 13:25:07.388069 25725 net.cpp:90] Creating Layer inception_4d/5x5
I0704 13:25:07.388074 25725 net.cpp:410] inception_4d/5x5 <- inception_4d/5x5_reduce
I0704 13:25:07.388082 25725 net.cpp:368] inception_4d/5x5 -> inception_4d/5x5
I0704 13:25:07.388097 25725 net.cpp:120] Setting up inception_4d/5x5
I0704 13:25:07.388563 25725 net.cpp:127] Top shape: 30 64 14 14 (376320)
I0704 13:25:07.388576 25725 layer_factory.hpp:74] Creating layer inception_4d/relu_5x5
I0704 13:25:07.388584 25725 net.cpp:90] Creating Layer inception_4d/relu_5x5
I0704 13:25:07.388591 25725 net.cpp:410] inception_4d/relu_5x5 <- inception_4d/5x5
I0704 13:25:07.388595 25725 net.cpp:357] inception_4d/relu_5x5 -> inception_4d/5x5 (in-place)
I0704 13:25:07.388603 25725 net.cpp:120] Setting up inception_4d/relu_5x5
I0704 13:25:07.388644 25725 net.cpp:127] Top shape: 30 64 14 14 (376320)
I0704 13:25:07.388650 25725 layer_factory.hpp:74] Creating layer inception_4d/pool
I0704 13:25:07.388655 25725 layer_factory.cpp:55] CUDNN does not support padding or multiple tops. Using Caffe's own pooling layer.
I0704 13:25:07.388661 25725 net.cpp:90] Creating Layer inception_4d/pool
I0704 13:25:07.388666 25725 net.cpp:410] inception_4d/pool <- inception_4c/output_inception_4c/output_0_split_3
I0704 13:25:07.388674 25725 net.cpp:368] inception_4d/pool -> inception_4d/pool
I0704 13:25:07.388679 25725 net.cpp:120] Setting up inception_4d/pool
I0704 13:25:07.388686 25725 net.cpp:127] Top shape: 30 512 14 14 (3010560)
I0704 13:25:07.388691 25725 layer_factory.hpp:74] Creating layer inception_4d/pool_proj
I0704 13:25:07.388698 25725 net.cpp:90] Creating Layer inception_4d/pool_proj
I0704 13:25:07.388703 25725 net.cpp:410] inception_4d/pool_proj <- inception_4d/pool
I0704 13:25:07.388710 25725 net.cpp:368] inception_4d/pool_proj -> inception_4d/pool_proj
I0704 13:25:07.388716 25725 net.cpp:120] Setting up inception_4d/pool_proj
I0704 13:25:07.389075 25725 net.cpp:127] Top shape: 30 64 14 14 (376320)
I0704 13:25:07.389087 25725 layer_factory.hpp:74] Creating layer inception_4d/relu_pool_proj
I0704 13:25:07.389094 25725 net.cpp:90] Creating Layer inception_4d/relu_pool_proj
I0704 13:25:07.389101 25725 net.cpp:410] inception_4d/relu_pool_proj <- inception_4d/pool_proj
I0704 13:25:07.389107 25725 net.cpp:357] inception_4d/relu_pool_proj -> inception_4d/pool_proj (in-place)
I0704 13:25:07.389113 25725 net.cpp:120] Setting up inception_4d/relu_pool_proj
I0704 13:25:07.389154 25725 net.cpp:127] Top shape: 30 64 14 14 (376320)
I0704 13:25:07.389161 25725 layer_factory.hpp:74] Creating layer inception_4d/output
I0704 13:25:07.389168 25725 net.cpp:90] Creating Layer inception_4d/output
I0704 13:25:07.389173 25725 net.cpp:410] inception_4d/output <- inception_4d/1x1
I0704 13:25:07.389179 25725 net.cpp:410] inception_4d/output <- inception_4d/3x3
I0704 13:25:07.389183 25725 net.cpp:410] inception_4d/output <- inception_4d/5x5
I0704 13:25:07.389189 25725 net.cpp:410] inception_4d/output <- inception_4d/pool_proj
I0704 13:25:07.389194 25725 net.cpp:368] inception_4d/output -> inception_4d/output
I0704 13:25:07.389200 25725 net.cpp:120] Setting up inception_4d/output
I0704 13:25:07.389206 25725 net.cpp:127] Top shape: 30 528 14 14 (3104640)
I0704 13:25:07.389211 25725 layer_factory.hpp:74] Creating layer inception_4d/output_inception_4d/output_0_split
I0704 13:25:07.389217 25725 net.cpp:90] Creating Layer inception_4d/output_inception_4d/output_0_split
I0704 13:25:07.389222 25725 net.cpp:410] inception_4d/output_inception_4d/output_0_split <- inception_4d/output
I0704 13:25:07.389227 25725 net.cpp:368] inception_4d/output_inception_4d/output_0_split -> inception_4d/output_inception_4d/output_0_split_0
I0704 13:25:07.389235 25725 net.cpp:368] inception_4d/output_inception_4d/output_0_split -> inception_4d/output_inception_4d/output_0_split_1
I0704 13:25:07.389242 25725 net.cpp:368] inception_4d/output_inception_4d/output_0_split -> inception_4d/output_inception_4d/output_0_split_2
I0704 13:25:07.389248 25725 net.cpp:368] inception_4d/output_inception_4d/output_0_split -> inception_4d/output_inception_4d/output_0_split_3
I0704 13:25:07.389255 25725 net.cpp:368] inception_4d/output_inception_4d/output_0_split -> inception_4d/output_inception_4d/output_0_split_4
I0704 13:25:07.389261 25725 net.cpp:120] Setting up inception_4d/output_inception_4d/output_0_split
I0704 13:25:07.389273 25725 net.cpp:127] Top shape: 30 528 14 14 (3104640)
I0704 13:25:07.389279 25725 net.cpp:127] Top shape: 30 528 14 14 (3104640)
I0704 13:25:07.389284 25725 net.cpp:127] Top shape: 30 528 14 14 (3104640)
I0704 13:25:07.389289 25725 net.cpp:127] Top shape: 30 528 14 14 (3104640)
I0704 13:25:07.389293 25725 net.cpp:127] Top shape: 30 528 14 14 (3104640)
I0704 13:25:07.389298 25725 layer_factory.hpp:74] Creating layer loss2/ave_pool
I0704 13:25:07.389303 25725 net.cpp:90] Creating Layer loss2/ave_pool
I0704 13:25:07.389308 25725 net.cpp:410] loss2/ave_pool <- inception_4d/output_inception_4d/output_0_split_0
I0704 13:25:07.389314 25725 net.cpp:368] loss2/ave_pool -> loss2/ave_pool
I0704 13:25:07.389320 25725 net.cpp:120] Setting up loss2/ave_pool
I0704 13:25:07.389435 25725 net.cpp:127] Top shape: 30 528 4 4 (253440)
I0704 13:25:07.389444 25725 layer_factory.hpp:74] Creating layer loss2/conv
I0704 13:25:07.389451 25725 net.cpp:90] Creating Layer loss2/conv
I0704 13:25:07.389456 25725 net.cpp:410] loss2/conv <- loss2/ave_pool
I0704 13:25:07.389463 25725 net.cpp:368] loss2/conv -> loss2/conv
I0704 13:25:07.389471 25725 net.cpp:120] Setting up loss2/conv
I0704 13:25:07.389998 25725 net.cpp:127] Top shape: 30 128 4 4 (61440)
I0704 13:25:07.390010 25725 layer_factory.hpp:74] Creating layer loss2/relu_conv
I0704 13:25:07.390017 25725 net.cpp:90] Creating Layer loss2/relu_conv
I0704 13:25:07.390022 25725 net.cpp:410] loss2/relu_conv <- loss2/conv
I0704 13:25:07.390028 25725 net.cpp:357] loss2/relu_conv -> loss2/conv (in-place)
I0704 13:25:07.390034 25725 net.cpp:120] Setting up loss2/relu_conv
I0704 13:25:07.390074 25725 net.cpp:127] Top shape: 30 128 4 4 (61440)
I0704 13:25:07.390081 25725 layer_factory.hpp:74] Creating layer loss2/fc
I0704 13:25:07.390089 25725 net.cpp:90] Creating Layer loss2/fc
I0704 13:25:07.390094 25725 net.cpp:410] loss2/fc <- loss2/conv
I0704 13:25:07.390100 25725 net.cpp:368] loss2/fc -> loss2/fc
I0704 13:25:07.390107 25725 net.cpp:120] Setting up loss2/fc
I0704 13:25:07.399723 25725 net.cpp:127] Top shape: 30 1024 (30720)
I0704 13:25:07.399755 25725 layer_factory.hpp:74] Creating layer loss2/relu_fc
I0704 13:25:07.399766 25725 net.cpp:90] Creating Layer loss2/relu_fc
I0704 13:25:07.399775 25725 net.cpp:410] loss2/relu_fc <- loss2/fc
I0704 13:25:07.399781 25725 net.cpp:357] loss2/relu_fc -> loss2/fc (in-place)
I0704 13:25:07.399788 25725 net.cpp:120] Setting up loss2/relu_fc
I0704 13:25:07.399869 25725 net.cpp:127] Top shape: 30 1024 (30720)
I0704 13:25:07.399876 25725 layer_factory.hpp:74] Creating layer loss2/drop_fc
I0704 13:25:07.399894 25725 net.cpp:90] Creating Layer loss2/drop_fc
I0704 13:25:07.399899 25725 net.cpp:410] loss2/drop_fc <- loss2/fc
I0704 13:25:07.399904 25725 net.cpp:357] loss2/drop_fc -> loss2/fc (in-place)
I0704 13:25:07.399910 25725 net.cpp:120] Setting up loss2/drop_fc
I0704 13:25:07.399917 25725 net.cpp:127] Top shape: 30 1024 (30720)
I0704 13:25:07.399922 25725 layer_factory.hpp:74] Creating layer stanford_cars_loss2/classifier
I0704 13:25:07.399932 25725 net.cpp:90] Creating Layer stanford_cars_loss2/classifier
I0704 13:25:07.399937 25725 net.cpp:410] stanford_cars_loss2/classifier <- loss2/fc
I0704 13:25:07.399945 25725 net.cpp:368] stanford_cars_loss2/classifier -> stanford_cars_loss2/classifier
I0704 13:25:07.399952 25725 net.cpp:120] Setting up stanford_cars_loss2/classifier
I0704 13:25:07.401159 25725 net.cpp:127] Top shape: 30 196 (5880)
I0704 13:25:07.401192 25725 layer_factory.hpp:74] Creating layer stanford_cars_loss2/loss
I0704 13:25:07.401201 25725 net.cpp:90] Creating Layer stanford_cars_loss2/loss
I0704 13:25:07.401218 25725 net.cpp:410] stanford_cars_loss2/loss <- stanford_cars_loss2/classifier
I0704 13:25:07.401224 25725 net.cpp:410] stanford_cars_loss2/loss <- label_data_1_split_1
I0704 13:25:07.401239 25725 net.cpp:368] stanford_cars_loss2/loss -> loss2/loss1
I0704 13:25:07.401247 25725 net.cpp:120] Setting up stanford_cars_loss2/loss
I0704 13:25:07.401252 25725 layer_factory.hpp:74] Creating layer stanford_cars_loss2/loss
I0704 13:25:07.401332 25725 net.cpp:127] Top shape: (1)
I0704 13:25:07.401340 25725 net.cpp:129]     with loss weight 0.3
I0704 13:25:07.401350 25725 layer_factory.hpp:74] Creating layer inception_4e/1x1
I0704 13:25:07.401360 25725 net.cpp:90] Creating Layer inception_4e/1x1
I0704 13:25:07.401365 25725 net.cpp:410] inception_4e/1x1 <- inception_4d/output_inception_4d/output_0_split_1
I0704 13:25:07.401373 25725 net.cpp:368] inception_4e/1x1 -> inception_4e/1x1
I0704 13:25:07.401381 25725 net.cpp:120] Setting up inception_4e/1x1
I0704 13:25:07.402362 25725 net.cpp:127] Top shape: 30 256 14 14 (1505280)
I0704 13:25:07.402384 25725 layer_factory.hpp:74] Creating layer inception_4e/relu_1x1
I0704 13:25:07.402403 25725 net.cpp:90] Creating Layer inception_4e/relu_1x1
I0704 13:25:07.402410 25725 net.cpp:410] inception_4e/relu_1x1 <- inception_4e/1x1
I0704 13:25:07.402415 25725 net.cpp:357] inception_4e/relu_1x1 -> inception_4e/1x1 (in-place)
I0704 13:25:07.402421 25725 net.cpp:120] Setting up inception_4e/relu_1x1
I0704 13:25:07.402541 25725 net.cpp:127] Top shape: 30 256 14 14 (1505280)
I0704 13:25:07.402561 25725 layer_factory.hpp:74] Creating layer inception_4e/3x3_reduce
I0704 13:25:07.402570 25725 net.cpp:90] Creating Layer inception_4e/3x3_reduce
I0704 13:25:07.402575 25725 net.cpp:410] inception_4e/3x3_reduce <- inception_4d/output_inception_4d/output_0_split_2
I0704 13:25:07.402582 25725 net.cpp:368] inception_4e/3x3_reduce -> inception_4e/3x3_reduce
I0704 13:25:07.402590 25725 net.cpp:120] Setting up inception_4e/3x3_reduce
I0704 13:25:07.403380 25725 net.cpp:127] Top shape: 30 160 14 14 (940800)
I0704 13:25:07.403408 25725 layer_factory.hpp:74] Creating layer inception_4e/relu_3x3_reduce
I0704 13:25:07.403416 25725 net.cpp:90] Creating Layer inception_4e/relu_3x3_reduce
I0704 13:25:07.403424 25725 net.cpp:410] inception_4e/relu_3x3_reduce <- inception_4e/3x3_reduce
I0704 13:25:07.403430 25725 net.cpp:357] inception_4e/relu_3x3_reduce -> inception_4e/3x3_reduce (in-place)
I0704 13:25:07.403437 25725 net.cpp:120] Setting up inception_4e/relu_3x3_reduce
I0704 13:25:07.403494 25725 net.cpp:127] Top shape: 30 160 14 14 (940800)
I0704 13:25:07.403501 25725 layer_factory.hpp:74] Creating layer inception_4e/3x3
I0704 13:25:07.403520 25725 net.cpp:90] Creating Layer inception_4e/3x3
I0704 13:25:07.403525 25725 net.cpp:410] inception_4e/3x3 <- inception_4e/3x3_reduce
I0704 13:25:07.403532 25725 net.cpp:368] inception_4e/3x3 -> inception_4e/3x3
I0704 13:25:07.403540 25725 net.cpp:120] Setting up inception_4e/3x3
I0704 13:25:07.406069 25725 net.cpp:127] Top shape: 30 320 14 14 (1881600)
I0704 13:25:07.406092 25725 layer_factory.hpp:74] Creating layer inception_4e/relu_3x3
I0704 13:25:07.406101 25725 net.cpp:90] Creating Layer inception_4e/relu_3x3
I0704 13:25:07.406107 25725 net.cpp:410] inception_4e/relu_3x3 <- inception_4e/3x3
I0704 13:25:07.406113 25725 net.cpp:357] inception_4e/relu_3x3 -> inception_4e/3x3 (in-place)
I0704 13:25:07.406121 25725 net.cpp:120] Setting up inception_4e/relu_3x3
I0704 13:25:07.406172 25725 net.cpp:127] Top shape: 30 320 14 14 (1881600)
I0704 13:25:07.406179 25725 layer_factory.hpp:74] Creating layer inception_4e/5x5_reduce
I0704 13:25:07.406200 25725 net.cpp:90] Creating Layer inception_4e/5x5_reduce
I0704 13:25:07.406206 25725 net.cpp:410] inception_4e/5x5_reduce <- inception_4d/output_inception_4d/output_0_split_3
I0704 13:25:07.406213 25725 net.cpp:368] inception_4e/5x5_reduce -> inception_4e/5x5_reduce
I0704 13:25:07.406221 25725 net.cpp:120] Setting up inception_4e/5x5_reduce
I0704 13:25:07.406522 25725 net.cpp:127] Top shape: 30 32 14 14 (188160)
I0704 13:25:07.406544 25725 layer_factory.hpp:74] Creating layer inception_4e/relu_5x5_reduce
I0704 13:25:07.406553 25725 net.cpp:90] Creating Layer inception_4e/relu_5x5_reduce
I0704 13:25:07.406558 25725 net.cpp:410] inception_4e/relu_5x5_reduce <- inception_4e/5x5_reduce
I0704 13:25:07.406564 25725 net.cpp:357] inception_4e/relu_5x5_reduce -> inception_4e/5x5_reduce (in-place)
I0704 13:25:07.406582 25725 net.cpp:120] Setting up inception_4e/relu_5x5_reduce
I0704 13:25:07.406707 25725 net.cpp:127] Top shape: 30 32 14 14 (188160)
I0704 13:25:07.406716 25725 layer_factory.hpp:74] Creating layer inception_4e/5x5
I0704 13:25:07.406745 25725 net.cpp:90] Creating Layer inception_4e/5x5
I0704 13:25:07.406751 25725 net.cpp:410] inception_4e/5x5 <- inception_4e/5x5_reduce
I0704 13:25:07.406759 25725 net.cpp:368] inception_4e/5x5 -> inception_4e/5x5
I0704 13:25:07.406766 25725 net.cpp:120] Setting up inception_4e/5x5
I0704 13:25:07.407548 25725 net.cpp:127] Top shape: 30 128 14 14 (752640)
I0704 13:25:07.407572 25725 layer_factory.hpp:74] Creating layer inception_4e/relu_5x5
I0704 13:25:07.407579 25725 net.cpp:90] Creating Layer inception_4e/relu_5x5
I0704 13:25:07.407585 25725 net.cpp:410] inception_4e/relu_5x5 <- inception_4e/5x5
I0704 13:25:07.407591 25725 net.cpp:357] inception_4e/relu_5x5 -> inception_4e/5x5 (in-place)
I0704 13:25:07.407598 25725 net.cpp:120] Setting up inception_4e/relu_5x5
I0704 13:25:07.407650 25725 net.cpp:127] Top shape: 30 128 14 14 (752640)
I0704 13:25:07.407657 25725 layer_factory.hpp:74] Creating layer inception_4e/pool
I0704 13:25:07.407673 25725 layer_factory.cpp:55] CUDNN does not support padding or multiple tops. Using Caffe's own pooling layer.
I0704 13:25:07.407680 25725 net.cpp:90] Creating Layer inception_4e/pool
I0704 13:25:07.407686 25725 net.cpp:410] inception_4e/pool <- inception_4d/output_inception_4d/output_0_split_4
I0704 13:25:07.407692 25725 net.cpp:368] inception_4e/pool -> inception_4e/pool
I0704 13:25:07.407698 25725 net.cpp:120] Setting up inception_4e/pool
I0704 13:25:07.407706 25725 net.cpp:127] Top shape: 30 528 14 14 (3104640)
I0704 13:25:07.407711 25725 layer_factory.hpp:74] Creating layer inception_4e/pool_proj
I0704 13:25:07.407719 25725 net.cpp:90] Creating Layer inception_4e/pool_proj
I0704 13:25:07.407724 25725 net.cpp:410] inception_4e/pool_proj <- inception_4e/pool
I0704 13:25:07.407732 25725 net.cpp:368] inception_4e/pool_proj -> inception_4e/pool_proj
I0704 13:25:07.407737 25725 net.cpp:120] Setting up inception_4e/pool_proj
I0704 13:25:07.408275 25725 net.cpp:127] Top shape: 30 128 14 14 (752640)
I0704 13:25:07.408298 25725 layer_factory.hpp:74] Creating layer inception_4e/relu_pool_proj
I0704 13:25:07.408304 25725 net.cpp:90] Creating Layer inception_4e/relu_pool_proj
I0704 13:25:07.408310 25725 net.cpp:410] inception_4e/relu_pool_proj <- inception_4e/pool_proj
I0704 13:25:07.408318 25725 net.cpp:357] inception_4e/relu_pool_proj -> inception_4e/pool_proj (in-place)
I0704 13:25:07.408324 25725 net.cpp:120] Setting up inception_4e/relu_pool_proj
I0704 13:25:07.408375 25725 net.cpp:127] Top shape: 30 128 14 14 (752640)
I0704 13:25:07.408382 25725 layer_factory.hpp:74] Creating layer inception_4e/output
I0704 13:25:07.408399 25725 net.cpp:90] Creating Layer inception_4e/output
I0704 13:25:07.408404 25725 net.cpp:410] inception_4e/output <- inception_4e/1x1
I0704 13:25:07.408409 25725 net.cpp:410] inception_4e/output <- inception_4e/3x3
I0704 13:25:07.408414 25725 net.cpp:410] inception_4e/output <- inception_4e/5x5
I0704 13:25:07.408419 25725 net.cpp:410] inception_4e/output <- inception_4e/pool_proj
I0704 13:25:07.408426 25725 net.cpp:368] inception_4e/output -> inception_4e/output
I0704 13:25:07.408432 25725 net.cpp:120] Setting up inception_4e/output
I0704 13:25:07.408439 25725 net.cpp:127] Top shape: 30 832 14 14 (4892160)
I0704 13:25:07.408444 25725 layer_factory.hpp:74] Creating layer pool4/3x3_s2
I0704 13:25:07.408450 25725 net.cpp:90] Creating Layer pool4/3x3_s2
I0704 13:25:07.408455 25725 net.cpp:410] pool4/3x3_s2 <- inception_4e/output
I0704 13:25:07.408463 25725 net.cpp:368] pool4/3x3_s2 -> pool4/3x3_s2
I0704 13:25:07.408469 25725 net.cpp:120] Setting up pool4/3x3_s2
I0704 13:25:07.408520 25725 net.cpp:127] Top shape: 30 832 7 7 (1223040)
I0704 13:25:07.408527 25725 layer_factory.hpp:74] Creating layer pool4/3x3_s2_pool4/3x3_s2_0_split
I0704 13:25:07.408545 25725 net.cpp:90] Creating Layer pool4/3x3_s2_pool4/3x3_s2_0_split
I0704 13:25:07.408557 25725 net.cpp:410] pool4/3x3_s2_pool4/3x3_s2_0_split <- pool4/3x3_s2
I0704 13:25:07.408565 25725 net.cpp:368] pool4/3x3_s2_pool4/3x3_s2_0_split -> pool4/3x3_s2_pool4/3x3_s2_0_split_0
I0704 13:25:07.408571 25725 net.cpp:368] pool4/3x3_s2_pool4/3x3_s2_0_split -> pool4/3x3_s2_pool4/3x3_s2_0_split_1
I0704 13:25:07.408578 25725 net.cpp:368] pool4/3x3_s2_pool4/3x3_s2_0_split -> pool4/3x3_s2_pool4/3x3_s2_0_split_2
I0704 13:25:07.408584 25725 net.cpp:368] pool4/3x3_s2_pool4/3x3_s2_0_split -> pool4/3x3_s2_pool4/3x3_s2_0_split_3
I0704 13:25:07.408591 25725 net.cpp:120] Setting up pool4/3x3_s2_pool4/3x3_s2_0_split
I0704 13:25:07.408597 25725 net.cpp:127] Top shape: 30 832 7 7 (1223040)
I0704 13:25:07.408602 25725 net.cpp:127] Top shape: 30 832 7 7 (1223040)
I0704 13:25:07.408607 25725 net.cpp:127] Top shape: 30 832 7 7 (1223040)
I0704 13:25:07.408612 25725 net.cpp:127] Top shape: 30 832 7 7 (1223040)
I0704 13:25:07.408617 25725 layer_factory.hpp:74] Creating layer inception_5a/1x1
I0704 13:25:07.408624 25725 net.cpp:90] Creating Layer inception_5a/1x1
I0704 13:25:07.408629 25725 net.cpp:410] inception_5a/1x1 <- pool4/3x3_s2_pool4/3x3_s2_0_split_0
I0704 13:25:07.408635 25725 net.cpp:368] inception_5a/1x1 -> inception_5a/1x1
I0704 13:25:07.408643 25725 net.cpp:120] Setting up inception_5a/1x1
I0704 13:25:07.409947 25725 net.cpp:127] Top shape: 30 256 7 7 (376320)
I0704 13:25:07.409971 25725 layer_factory.hpp:74] Creating layer inception_5a/relu_1x1
I0704 13:25:07.409979 25725 net.cpp:90] Creating Layer inception_5a/relu_1x1
I0704 13:25:07.409984 25725 net.cpp:410] inception_5a/relu_1x1 <- inception_5a/1x1
I0704 13:25:07.409991 25725 net.cpp:357] inception_5a/relu_1x1 -> inception_5a/1x1 (in-place)
I0704 13:25:07.409998 25725 net.cpp:120] Setting up inception_5a/relu_1x1
I0704 13:25:07.410117 25725 net.cpp:127] Top shape: 30 256 7 7 (376320)
I0704 13:25:07.410126 25725 layer_factory.hpp:74] Creating layer inception_5a/3x3_reduce
I0704 13:25:07.410135 25725 net.cpp:90] Creating Layer inception_5a/3x3_reduce
I0704 13:25:07.410140 25725 net.cpp:410] inception_5a/3x3_reduce <- pool4/3x3_s2_pool4/3x3_s2_0_split_1
I0704 13:25:07.410147 25725 net.cpp:368] inception_5a/3x3_reduce -> inception_5a/3x3_reduce
I0704 13:25:07.410154 25725 net.cpp:120] Setting up inception_5a/3x3_reduce
I0704 13:25:07.411002 25725 net.cpp:127] Top shape: 30 160 7 7 (235200)
I0704 13:25:07.411013 25725 layer_factory.hpp:74] Creating layer inception_5a/relu_3x3_reduce
I0704 13:25:07.411021 25725 net.cpp:90] Creating Layer inception_5a/relu_3x3_reduce
I0704 13:25:07.411026 25725 net.cpp:410] inception_5a/relu_3x3_reduce <- inception_5a/3x3_reduce
I0704 13:25:07.411032 25725 net.cpp:357] inception_5a/relu_3x3_reduce -> inception_5a/3x3_reduce (in-place)
I0704 13:25:07.411039 25725 net.cpp:120] Setting up inception_5a/relu_3x3_reduce
I0704 13:25:07.411082 25725 net.cpp:127] Top shape: 30 160 7 7 (235200)
I0704 13:25:07.411087 25725 layer_factory.hpp:74] Creating layer inception_5a/3x3
I0704 13:25:07.411095 25725 net.cpp:90] Creating Layer inception_5a/3x3
I0704 13:25:07.411100 25725 net.cpp:410] inception_5a/3x3 <- inception_5a/3x3_reduce
I0704 13:25:07.411108 25725 net.cpp:368] inception_5a/3x3 -> inception_5a/3x3
I0704 13:25:07.411115 25725 net.cpp:120] Setting up inception_5a/3x3
I0704 13:25:07.413571 25725 net.cpp:127] Top shape: 30 320 7 7 (470400)
I0704 13:25:07.413583 25725 layer_factory.hpp:74] Creating layer inception_5a/relu_3x3
I0704 13:25:07.413590 25725 net.cpp:90] Creating Layer inception_5a/relu_3x3
I0704 13:25:07.413595 25725 net.cpp:410] inception_5a/relu_3x3 <- inception_5a/3x3
I0704 13:25:07.413602 25725 net.cpp:357] inception_5a/relu_3x3 -> inception_5a/3x3 (in-place)
I0704 13:25:07.413609 25725 net.cpp:120] Setting up inception_5a/relu_3x3
I0704 13:25:07.413651 25725 net.cpp:127] Top shape: 30 320 7 7 (470400)
I0704 13:25:07.413657 25725 layer_factory.hpp:74] Creating layer inception_5a/5x5_reduce
I0704 13:25:07.413666 25725 net.cpp:90] Creating Layer inception_5a/5x5_reduce
I0704 13:25:07.413671 25725 net.cpp:410] inception_5a/5x5_reduce <- pool4/3x3_s2_pool4/3x3_s2_0_split_2
I0704 13:25:07.413686 25725 net.cpp:368] inception_5a/5x5_reduce -> inception_5a/5x5_reduce
I0704 13:25:07.413693 25725 net.cpp:120] Setting up inception_5a/5x5_reduce
I0704 13:25:07.414031 25725 net.cpp:127] Top shape: 30 32 7 7 (47040)
I0704 13:25:07.414041 25725 layer_factory.hpp:74] Creating layer inception_5a/relu_5x5_reduce
I0704 13:25:07.414048 25725 net.cpp:90] Creating Layer inception_5a/relu_5x5_reduce
I0704 13:25:07.414053 25725 net.cpp:410] inception_5a/relu_5x5_reduce <- inception_5a/5x5_reduce
I0704 13:25:07.414060 25725 net.cpp:357] inception_5a/relu_5x5_reduce -> inception_5a/5x5_reduce (in-place)
I0704 13:25:07.414067 25725 net.cpp:120] Setting up inception_5a/relu_5x5_reduce
I0704 13:25:07.414108 25725 net.cpp:127] Top shape: 30 32 7 7 (47040)
I0704 13:25:07.414114 25725 layer_factory.hpp:74] Creating layer inception_5a/5x5
I0704 13:25:07.414122 25725 net.cpp:90] Creating Layer inception_5a/5x5
I0704 13:25:07.414127 25725 net.cpp:410] inception_5a/5x5 <- inception_5a/5x5_reduce
I0704 13:25:07.414134 25725 net.cpp:368] inception_5a/5x5 -> inception_5a/5x5
I0704 13:25:07.414140 25725 net.cpp:120] Setting up inception_5a/5x5
I0704 13:25:07.414861 25725 net.cpp:127] Top shape: 30 128 7 7 (188160)
I0704 13:25:07.414873 25725 layer_factory.hpp:74] Creating layer inception_5a/relu_5x5
I0704 13:25:07.414880 25725 net.cpp:90] Creating Layer inception_5a/relu_5x5
I0704 13:25:07.414885 25725 net.cpp:410] inception_5a/relu_5x5 <- inception_5a/5x5
I0704 13:25:07.414891 25725 net.cpp:357] inception_5a/relu_5x5 -> inception_5a/5x5 (in-place)
I0704 13:25:07.414897 25725 net.cpp:120] Setting up inception_5a/relu_5x5
I0704 13:25:07.415004 25725 net.cpp:127] Top shape: 30 128 7 7 (188160)
I0704 13:25:07.415014 25725 layer_factory.hpp:74] Creating layer inception_5a/pool
I0704 13:25:07.415019 25725 layer_factory.cpp:55] CUDNN does not support padding or multiple tops. Using Caffe's own pooling layer.
I0704 13:25:07.415024 25725 net.cpp:90] Creating Layer inception_5a/pool
I0704 13:25:07.415030 25725 net.cpp:410] inception_5a/pool <- pool4/3x3_s2_pool4/3x3_s2_0_split_3
I0704 13:25:07.415037 25725 net.cpp:368] inception_5a/pool -> inception_5a/pool
I0704 13:25:07.415045 25725 net.cpp:120] Setting up inception_5a/pool
I0704 13:25:07.415052 25725 net.cpp:127] Top shape: 30 832 7 7 (1223040)
I0704 13:25:07.415056 25725 layer_factory.hpp:74] Creating layer inception_5a/pool_proj
I0704 13:25:07.415065 25725 net.cpp:90] Creating Layer inception_5a/pool_proj
I0704 13:25:07.415069 25725 net.cpp:410] inception_5a/pool_proj <- inception_5a/pool
I0704 13:25:07.415076 25725 net.cpp:368] inception_5a/pool_proj -> inception_5a/pool_proj
I0704 13:25:07.415082 25725 net.cpp:120] Setting up inception_5a/pool_proj
I0704 13:25:07.415830 25725 net.cpp:127] Top shape: 30 128 7 7 (188160)
I0704 13:25:07.415843 25725 layer_factory.hpp:74] Creating layer inception_5a/relu_pool_proj
I0704 13:25:07.415850 25725 net.cpp:90] Creating Layer inception_5a/relu_pool_proj
I0704 13:25:07.415855 25725 net.cpp:410] inception_5a/relu_pool_proj <- inception_5a/pool_proj
I0704 13:25:07.415861 25725 net.cpp:357] inception_5a/relu_pool_proj -> inception_5a/pool_proj (in-place)
I0704 13:25:07.415868 25725 net.cpp:120] Setting up inception_5a/relu_pool_proj
I0704 13:25:07.415909 25725 net.cpp:127] Top shape: 30 128 7 7 (188160)
I0704 13:25:07.415915 25725 layer_factory.hpp:74] Creating layer inception_5a/output
I0704 13:25:07.415921 25725 net.cpp:90] Creating Layer inception_5a/output
I0704 13:25:07.415926 25725 net.cpp:410] inception_5a/output <- inception_5a/1x1
I0704 13:25:07.415931 25725 net.cpp:410] inception_5a/output <- inception_5a/3x3
I0704 13:25:07.415936 25725 net.cpp:410] inception_5a/output <- inception_5a/5x5
I0704 13:25:07.415940 25725 net.cpp:410] inception_5a/output <- inception_5a/pool_proj
I0704 13:25:07.415946 25725 net.cpp:368] inception_5a/output -> inception_5a/output
I0704 13:25:07.415952 25725 net.cpp:120] Setting up inception_5a/output
I0704 13:25:07.415958 25725 net.cpp:127] Top shape: 30 832 7 7 (1223040)
I0704 13:25:07.415969 25725 layer_factory.hpp:74] Creating layer inception_5a/output_inception_5a/output_0_split
I0704 13:25:07.415977 25725 net.cpp:90] Creating Layer inception_5a/output_inception_5a/output_0_split
I0704 13:25:07.415982 25725 net.cpp:410] inception_5a/output_inception_5a/output_0_split <- inception_5a/output
I0704 13:25:07.415988 25725 net.cpp:368] inception_5a/output_inception_5a/output_0_split -> inception_5a/output_inception_5a/output_0_split_0
I0704 13:25:07.415995 25725 net.cpp:368] inception_5a/output_inception_5a/output_0_split -> inception_5a/output_inception_5a/output_0_split_1
I0704 13:25:07.416002 25725 net.cpp:368] inception_5a/output_inception_5a/output_0_split -> inception_5a/output_inception_5a/output_0_split_2
I0704 13:25:07.416008 25725 net.cpp:368] inception_5a/output_inception_5a/output_0_split -> inception_5a/output_inception_5a/output_0_split_3
I0704 13:25:07.416014 25725 net.cpp:120] Setting up inception_5a/output_inception_5a/output_0_split
I0704 13:25:07.416020 25725 net.cpp:127] Top shape: 30 832 7 7 (1223040)
I0704 13:25:07.416025 25725 net.cpp:127] Top shape: 30 832 7 7 (1223040)
I0704 13:25:07.416030 25725 net.cpp:127] Top shape: 30 832 7 7 (1223040)
I0704 13:25:07.416035 25725 net.cpp:127] Top shape: 30 832 7 7 (1223040)
I0704 13:25:07.416039 25725 layer_factory.hpp:74] Creating layer inception_5b/1x1
I0704 13:25:07.416046 25725 net.cpp:90] Creating Layer inception_5b/1x1
I0704 13:25:07.416051 25725 net.cpp:410] inception_5b/1x1 <- inception_5a/output_inception_5a/output_0_split_0
I0704 13:25:07.416059 25725 net.cpp:368] inception_5b/1x1 -> inception_5b/1x1
I0704 13:25:07.416064 25725 net.cpp:120] Setting up inception_5b/1x1
I0704 13:25:07.417814 25725 net.cpp:127] Top shape: 30 384 7 7 (564480)
I0704 13:25:07.417826 25725 layer_factory.hpp:74] Creating layer inception_5b/relu_1x1
I0704 13:25:07.417832 25725 net.cpp:90] Creating Layer inception_5b/relu_1x1
I0704 13:25:07.417839 25725 net.cpp:410] inception_5b/relu_1x1 <- inception_5b/1x1
I0704 13:25:07.417845 25725 net.cpp:357] inception_5b/relu_1x1 -> inception_5b/1x1 (in-place)
I0704 13:25:07.417851 25725 net.cpp:120] Setting up inception_5b/relu_1x1
I0704 13:25:07.417891 25725 net.cpp:127] Top shape: 30 384 7 7 (564480)
I0704 13:25:07.417896 25725 layer_factory.hpp:74] Creating layer inception_5b/3x3_reduce
I0704 13:25:07.417904 25725 net.cpp:90] Creating Layer inception_5b/3x3_reduce
I0704 13:25:07.417909 25725 net.cpp:410] inception_5b/3x3_reduce <- inception_5a/output_inception_5a/output_0_split_1
I0704 13:25:07.417917 25725 net.cpp:368] inception_5b/3x3_reduce -> inception_5b/3x3_reduce
I0704 13:25:07.417923 25725 net.cpp:120] Setting up inception_5b/3x3_reduce
I0704 13:25:07.418896 25725 net.cpp:127] Top shape: 30 192 7 7 (282240)
I0704 13:25:07.418907 25725 layer_factory.hpp:74] Creating layer inception_5b/relu_3x3_reduce
I0704 13:25:07.418915 25725 net.cpp:90] Creating Layer inception_5b/relu_3x3_reduce
I0704 13:25:07.418920 25725 net.cpp:410] inception_5b/relu_3x3_reduce <- inception_5b/3x3_reduce
I0704 13:25:07.418926 25725 net.cpp:357] inception_5b/relu_3x3_reduce -> inception_5b/3x3_reduce (in-place)
I0704 13:25:07.418932 25725 net.cpp:120] Setting up inception_5b/relu_3x3_reduce
I0704 13:25:07.418973 25725 net.cpp:127] Top shape: 30 192 7 7 (282240)
I0704 13:25:07.418979 25725 layer_factory.hpp:74] Creating layer inception_5b/3x3
I0704 13:25:07.418987 25725 net.cpp:90] Creating Layer inception_5b/3x3
I0704 13:25:07.418992 25725 net.cpp:410] inception_5b/3x3 <- inception_5b/3x3_reduce
I0704 13:25:07.418998 25725 net.cpp:368] inception_5b/3x3 -> inception_5b/3x3
I0704 13:25:07.419016 25725 net.cpp:120] Setting up inception_5b/3x3
I0704 13:25:07.422433 25725 net.cpp:127] Top shape: 30 384 7 7 (564480)
I0704 13:25:07.422446 25725 layer_factory.hpp:74] Creating layer inception_5b/relu_3x3
I0704 13:25:07.422454 25725 net.cpp:90] Creating Layer inception_5b/relu_3x3
I0704 13:25:07.422459 25725 net.cpp:410] inception_5b/relu_3x3 <- inception_5b/3x3
I0704 13:25:07.422466 25725 net.cpp:357] inception_5b/relu_3x3 -> inception_5b/3x3 (in-place)
I0704 13:25:07.422482 25725 net.cpp:120] Setting up inception_5b/relu_3x3
I0704 13:25:07.422593 25725 net.cpp:127] Top shape: 30 384 7 7 (564480)
I0704 13:25:07.422601 25725 layer_factory.hpp:74] Creating layer inception_5b/5x5_reduce
I0704 13:25:07.422610 25725 net.cpp:90] Creating Layer inception_5b/5x5_reduce
I0704 13:25:07.422616 25725 net.cpp:410] inception_5b/5x5_reduce <- inception_5a/output_inception_5a/output_0_split_2
I0704 13:25:07.422621 25725 net.cpp:368] inception_5b/5x5_reduce -> inception_5b/5x5_reduce
I0704 13:25:07.422629 25725 net.cpp:120] Setting up inception_5b/5x5_reduce
I0704 13:25:07.423028 25725 net.cpp:127] Top shape: 30 48 7 7 (70560)
I0704 13:25:07.423040 25725 layer_factory.hpp:74] Creating layer inception_5b/relu_5x5_reduce
I0704 13:25:07.423048 25725 net.cpp:90] Creating Layer inception_5b/relu_5x5_reduce
I0704 13:25:07.423053 25725 net.cpp:410] inception_5b/relu_5x5_reduce <- inception_5b/5x5_reduce
I0704 13:25:07.423059 25725 net.cpp:357] inception_5b/relu_5x5_reduce -> inception_5b/5x5_reduce (in-place)
I0704 13:25:07.423065 25725 net.cpp:120] Setting up inception_5b/relu_5x5_reduce
I0704 13:25:07.423106 25725 net.cpp:127] Top shape: 30 48 7 7 (70560)
I0704 13:25:07.423112 25725 layer_factory.hpp:74] Creating layer inception_5b/5x5
I0704 13:25:07.423120 25725 net.cpp:90] Creating Layer inception_5b/5x5
I0704 13:25:07.423125 25725 net.cpp:410] inception_5b/5x5 <- inception_5b/5x5_reduce
I0704 13:25:07.423132 25725 net.cpp:368] inception_5b/5x5 -> inception_5b/5x5
I0704 13:25:07.423140 25725 net.cpp:120] Setting up inception_5b/5x5
I0704 13:25:07.424093 25725 net.cpp:127] Top shape: 30 128 7 7 (188160)
I0704 13:25:07.424103 25725 layer_factory.hpp:74] Creating layer inception_5b/relu_5x5
I0704 13:25:07.424110 25725 net.cpp:90] Creating Layer inception_5b/relu_5x5
I0704 13:25:07.424116 25725 net.cpp:410] inception_5b/relu_5x5 <- inception_5b/5x5
I0704 13:25:07.424123 25725 net.cpp:357] inception_5b/relu_5x5 -> inception_5b/5x5 (in-place)
I0704 13:25:07.424129 25725 net.cpp:120] Setting up inception_5b/relu_5x5
I0704 13:25:07.424170 25725 net.cpp:127] Top shape: 30 128 7 7 (188160)
I0704 13:25:07.424175 25725 layer_factory.hpp:74] Creating layer inception_5b/pool
I0704 13:25:07.424180 25725 layer_factory.cpp:55] CUDNN does not support padding or multiple tops. Using Caffe's own pooling layer.
I0704 13:25:07.424186 25725 net.cpp:90] Creating Layer inception_5b/pool
I0704 13:25:07.424190 25725 net.cpp:410] inception_5b/pool <- inception_5a/output_inception_5a/output_0_split_3
I0704 13:25:07.424197 25725 net.cpp:368] inception_5b/pool -> inception_5b/pool
I0704 13:25:07.424204 25725 net.cpp:120] Setting up inception_5b/pool
I0704 13:25:07.424211 25725 net.cpp:127] Top shape: 30 832 7 7 (1223040)
I0704 13:25:07.424216 25725 layer_factory.hpp:74] Creating layer inception_5b/pool_proj
I0704 13:25:07.424223 25725 net.cpp:90] Creating Layer inception_5b/pool_proj
I0704 13:25:07.424228 25725 net.cpp:410] inception_5b/pool_proj <- inception_5b/pool
I0704 13:25:07.424234 25725 net.cpp:368] inception_5b/pool_proj -> inception_5b/pool_proj
I0704 13:25:07.424240 25725 net.cpp:120] Setting up inception_5b/pool_proj
I0704 13:25:07.424963 25725 net.cpp:127] Top shape: 30 128 7 7 (188160)
I0704 13:25:07.424976 25725 layer_factory.hpp:74] Creating layer inception_5b/relu_pool_proj
I0704 13:25:07.424983 25725 net.cpp:90] Creating Layer inception_5b/relu_pool_proj
I0704 13:25:07.424988 25725 net.cpp:410] inception_5b/relu_pool_proj <- inception_5b/pool_proj
I0704 13:25:07.424995 25725 net.cpp:357] inception_5b/relu_pool_proj -> inception_5b/pool_proj (in-place)
I0704 13:25:07.425001 25725 net.cpp:120] Setting up inception_5b/relu_pool_proj
I0704 13:25:07.425112 25725 net.cpp:127] Top shape: 30 128 7 7 (188160)
I0704 13:25:07.425120 25725 layer_factory.hpp:74] Creating layer inception_5b/output
I0704 13:25:07.425127 25725 net.cpp:90] Creating Layer inception_5b/output
I0704 13:25:07.425132 25725 net.cpp:410] inception_5b/output <- inception_5b/1x1
I0704 13:25:07.425137 25725 net.cpp:410] inception_5b/output <- inception_5b/3x3
I0704 13:25:07.425148 25725 net.cpp:410] inception_5b/output <- inception_5b/5x5
I0704 13:25:07.425153 25725 net.cpp:410] inception_5b/output <- inception_5b/pool_proj
I0704 13:25:07.425158 25725 net.cpp:368] inception_5b/output -> inception_5b/output
I0704 13:25:07.425165 25725 net.cpp:120] Setting up inception_5b/output
I0704 13:25:07.425173 25725 net.cpp:127] Top shape: 30 1024 7 7 (1505280)
I0704 13:25:07.425176 25725 layer_factory.hpp:74] Creating layer pool5/7x7_s1
I0704 13:25:07.425184 25725 net.cpp:90] Creating Layer pool5/7x7_s1
I0704 13:25:07.425189 25725 net.cpp:410] pool5/7x7_s1 <- inception_5b/output
I0704 13:25:07.425194 25725 net.cpp:368] pool5/7x7_s1 -> pool5/7x7_s1
I0704 13:25:07.425200 25725 net.cpp:120] Setting up pool5/7x7_s1
I0704 13:25:07.425243 25725 net.cpp:127] Top shape: 30 1024 1 1 (30720)
I0704 13:25:07.425250 25725 layer_factory.hpp:74] Creating layer pool5/drop_7x7_s1
I0704 13:25:07.425256 25725 net.cpp:90] Creating Layer pool5/drop_7x7_s1
I0704 13:25:07.425261 25725 net.cpp:410] pool5/drop_7x7_s1 <- pool5/7x7_s1
I0704 13:25:07.425266 25725 net.cpp:357] pool5/drop_7x7_s1 -> pool5/7x7_s1 (in-place)
I0704 13:25:07.425272 25725 net.cpp:120] Setting up pool5/drop_7x7_s1
I0704 13:25:07.425278 25725 net.cpp:127] Top shape: 30 1024 1 1 (30720)
I0704 13:25:07.425283 25725 layer_factory.hpp:74] Creating layer stanford_cars_loss3/classifier
I0704 13:25:07.425290 25725 net.cpp:90] Creating Layer stanford_cars_loss3/classifier
I0704 13:25:07.425294 25725 net.cpp:410] stanford_cars_loss3/classifier <- pool5/7x7_s1
I0704 13:25:07.425302 25725 net.cpp:368] stanford_cars_loss3/classifier -> stanford_cars_loss3/classifier
I0704 13:25:07.425308 25725 net.cpp:120] Setting up stanford_cars_loss3/classifier
I0704 13:25:07.426288 25725 net.cpp:127] Top shape: 30 196 (5880)
I0704 13:25:07.426297 25725 layer_factory.hpp:74] Creating layer loss3/loss3
I0704 13:25:07.426304 25725 net.cpp:90] Creating Layer loss3/loss3
I0704 13:25:07.426309 25725 net.cpp:410] loss3/loss3 <- stanford_cars_loss3/classifier
I0704 13:25:07.426316 25725 net.cpp:410] loss3/loss3 <- label_data_1_split_2
I0704 13:25:07.426321 25725 net.cpp:368] loss3/loss3 -> loss3/loss3
I0704 13:25:07.426327 25725 net.cpp:120] Setting up loss3/loss3
…
I0704 13:25:07.430146 25725 net.cpp:287] The NetState phase (1) differed from the phase (0) specified by a rule in layer data
I0704 13:25:07.430861 25725 net.cpp:42] Initializing net from parameters: 
name: "GoogleNet"
state {
  phase: TEST
}
layer {
  name: "data"
  type: "Data"
  top: "data"
  top: "label"
  include {
    phase: TEST
  }
  transform_param {
    mirror: false
    crop_size: 224
    mean_value: 104
    mean_value: 117
    mean_value: 123
  }
  data_param {
    source: "examples/stanford_cars/stanford_cars_val_lmdb"
    batch_size: 10
    backend: LMDB
  }
}
layer {
  name: "conv1/7x7_s2"
  type: "Convolution"
  bottom: "data"
  top: "conv1/7x7_s2"
  param {
    lr_mult: 1
    decay_mult: 1
  }
  param {
    lr_mult: 2
    decay_mult: 0
  }
  convolution_param {
    num_output: 64
    pad: 3
    kernel_size: 7
    stride: 2
    weight_filler {
      type: "xavier"
      std: 0.1
    }
    bias_filler {
      type: "constant"
      value: 0.2
    }
  }
}
layer {
  name: "conv1/relu_7x7"
  type: "ReLU"
  bottom: "conv1/7x7_s2"
  top: "conv1/7x7_s2"
}
layer {
  name: "pool1/3x3_s2"
  type: "Pooling"
  bottom: "conv1/7x7_s2"
  top: "pool1/3x3_s2"
  pooling_param {
    pool: MAX
    kernel_size: 3
    stride: 2
  }
}
layer {
  name: "pool1/norm1"
  type: "LRN"
  bottom: "pool1/3x3_s2"
  top: "pool1/norm1"
  lrn_param {
    local_size: 5
    alpha: 0.0001
    beta: 0.75
  }
}
layer {
  name: "conv2/3x3_reduce"
  type: "Convolution"
  bottom: "pool1/norm1"
  top: "conv2/3x3_reduce"
  param {
    lr_mult: 1
    decay_mult: 1
  }
  param {
    lr_mult: 2
    decay_mult: 0
  }
  convolution_param {
    num_output: 64
    kernel_size: 1
    weight_filler {
      type: "xavier"
      std: 0.1
    }
    bias_filler {
      type: "constant"
      value: 0.2
    }
  }
}
layer {
  name: "conv2/relu_3x3_reduce"
  type: "ReLU"
  bottom: "conv2/3x3_reduce"
  top: "conv2/3x3_reduce"
}
layer {
  name: "conv2/3x3"
  type: "Convolution"
  bottom: "conv2/3x3_reduce"
  top: "conv2/3x3"
  param {
    lr_mult: 1
    decay_mult: 1
  }
  param {
    lr_mult: 2
    decay_mult: 0
  }
  convolution_param {
    num_output: 192
    pad: 1
    kernel_size: 3
    weight_filler {
      type: "xavier"
      std: 0.03
    }
    bias_filler {
      type: "constant"
      value: 0.2
    }
  }
}
layer {
  name: "conv2/relu_3x3"
  type: "ReLU"
  bottom: "conv2/3x3"
  top: "conv2/3x3"
}
layer {
  name: "conv2/norm2"
  type: "LRN"
  bottom: "conv2/3x3"
  top: "conv2/norm2"
  lrn_param {
    local_size: 5
    alpha: 0.0001
    beta: 0.75
  }
}
layer {
  name: "pool2/3x3_s2"
  type: "Pooling"
  bottom: "conv2/norm2"
  top: "pool2/3x3_s2"
  pooling_param {
    pool: MAX
    kernel_size: 3
    stride: 2
  }
}
layer {
  name: "inception_3a/1x1"
  type: "Convolution"
  bottom: "pool2/3x3_s2"
  top: "inception_3a/1x1"
  param {
    lr_mult: 1
    decay_mult: 1
  }
  param {
    lr_mult: 2
    decay_mult: 0
  }
  convolution_param {
    num_output: 64
    kernel_size: 1
    weight_filler {
      type: "xavier"
      std: 0.03
    }
    bias_filler {
      type: "constant"
      value: 0.2
    }
  }
}
layer {
  name: "inception_3a/relu_1x1"
  type: "ReLU"
  bottom: "inception_3a/1x1"
  top: "inception_3a/1x1"
}
layer {
  name: "inception_3a/3x3_reduce"
  type: "Convolution"
  bottom: "pool2/3x3_s2"
  top: "inception_3a/3x3_reduce"
  param {
    lr_mult: 1
    decay_mult: 1
  }
  param {
    lr_mult: 2
    decay_mult: 0
  }
  convolution_param {
    num_output: 96
    kernel_size: 1
    weight_filler {
      type: "xavier"
      std: 0.09
    }
    bias_filler {
      type: "constant"
      value: 0.2
    }
  }
}
layer {
  name: "inception_3a/relu_3x3_reduce"
  type: "ReLU"
  bottom: "inception_3a/3x3_reduce"
  top: "inception_3a/3x3_reduce"
}
layer {
  name: "inception_3a/3x3"
  type: "Convolution"
  bottom: "inception_3a/3x3_reduce"
  top: "inception_3a/3x3"
  param {
    lr_mult: 1
    decay_mult: 1
  }
  param {
    lr_mult: 2
    decay_mult: 0
  }
  convolution_param {
    num_output: 128
    pad: 1
    kernel_size: 3
    weight_filler {
      type: "xavier"
      std: 0.03
    }
    bias_filler {
      type: "constant"
      value: 0.2
    }
  }
}
layer {
  name: "inception_3a/relu_3x3"
  type: "ReLU"
  bottom: "inception_3a/3x3"
  top: "inception_3a/3x3"
}
layer {
  name: "inception_3a/5x5_reduce"
  type: "Convolution"
  bottom: "pool2/3x3_s2"
  top: "inception_3a/5x5_reduce"
  param {
    lr_mult: 1
    decay_mult: 1
  }
  param {
    lr_mult: 2
    decay_mult: 0
  }
  convolution_param {
    num_output: 16
    kernel_size: 1
    weight_filler {
      type: "xavier"
      std: 0.2
    }
    bias_filler {
      type: "constant"
      value: 0.2
    }
  }
}
layer {
  name: "inception_3a/relu_5x5_reduce"
  type: "ReLU"
  bottom: "inception_3a/5x5_reduce"
  top: "inception_3a/5x5_reduce"
}
layer {
  name: "inception_3a/5x5"
  type: "Convolution"
  bottom: "inception_3a/5x5_reduce"
  top: "inception_3a/5x5"
  param {
    lr_mult: 1
    decay_mult: 1
  }
  param {
    lr_mult: 2
    decay_mult: 0
  }
  convolution_param {
    num_output: 32
    pad: 2
    kernel_size: 5
    weight_filler {
      type: "xavier"
      std: 0.03
    }
    bias_filler {
      type: "constant"
      value: 0.2
    }
  }
}
layer {
  name: "inception_3a/relu_5x5"
  type: "ReLU"
  bottom: "inception_3a/5x5"
  top: "inception_3a/5x5"
}
layer {
  name: "inception_3a/pool"
  type: "Pooling"
  bottom: "pool2/3x3_s2"
  top: "inception_3a/pool"
  pooling_param {
    pool: MAX
    kernel_size: 3
    stride: 1
    pad: 1
  }
}
layer {
  name: "inception_3a/pool_proj"
  type: "Convolution"
  bottom: "inception_3a/pool"
  top: "inception_3a/pool_proj"
  param {
    lr_mult: 1
    decay_mult: 1
  }
  param {
    lr_mult: 2
    decay_mult: 0
  }
  convolution_param {
    num_output: 32
    kernel_size: 1
    weight_filler {
      type: "xavier"
      std: 0.1
    }
    bias_filler {
      type: "constant"
      value: 0.2
    }
  }
}
layer {
  name: "inception_3a/relu_pool_proj"
  type: "ReLU"
  bottom: "inception_3a/pool_proj"
  top: "inception_3a/pool_proj"
}
layer {
  name: "inception_3a/output"
  type: "Concat"
  bottom: "inception_3a/1x1"
  bottom: "inception_3a/3x3"
  bottom: "inception_3a/5x5"
  bottom: "inception_3a/pool_proj"
  top: "inception_3a/output"
}
layer {
  name: "inception_3b/1x1"
  type: "Convolution"
  bottom: "inception_3a/output"
  top: "inception_3b/1x1"
  param {
    lr_mult: 1
    decay_mult: 1
  }
  param {
    lr_mult: 2
    decay_mult: 0
  }
  convolution_param {
    num_output: 128
    kernel_size: 1
    weight_filler {
      type: "xavier"
      std: 0.03
    }
    bias_filler {
      type: "constant"
      value: 0.2
    }
  }
}
layer {
  name: "inception_3b/relu_1x1"
  type: "ReLU"
  bottom: "inception_3b/1x1"
  top: "inception_3b/1x1"
}
layer {
  name: "inception_3b/3x3_reduce"
  type: "Convolution"
  bottom: "inception_3a/output"
  top: "inception_3b/3x3_reduce"
  param {
    lr_mult: 1
    decay_mult: 1
  }
  param {
    lr_mult: 2
    decay_mult: 0
  }
  convolution_param {
    num_output: 128
    kernel_size: 1
    weight_filler {
      type: "xavier"
      std: 0.09
    }
    bias_filler {
      type: "constant"
      value: 0.2
    }
  }
}
layer {
  name: "inception_3b/relu_3x3_reduce"
  type: "ReLU"
  bottom: "inception_3b/3x3_reduce"
  top: "inception_3b/3x3_reduce"
}
layer {
  name: "inception_3b/3x3"
  type: "Convolution"
  bottom: "inception_3b/3x3_reduce"
  top: "inception_3b/3x3"
  param {
    lr_mult: 1
    decay_mult: 1
  }
  param {
    lr_mult: 2
    decay_mult: 0
  }
  convolution_param {
    num_output: 192
    pad: 1
    kernel_size: 3
    weight_filler {
      type: "xavier"
      std: 0.03
    }
    bias_filler {
      type: "constant"
      value: 0.2
    }
  }
}
layer {
  name: "inception_3b/relu_3x3"
  type: "ReLU"
  bottom: "inception_3b/3x3"
  top: "inception_3b/3x3"
}
layer {
  name: "inception_3b/5x5_reduce"
  type: "Convolution"
  bottom: "inception_3a/output"
  top: "inception_3b/5x5_reduce"
  param {
    lr_mult: 1
    decay_mult: 1
  }
  param {
    lr_mult: 2
    decay_mult: 0
  }
  convolution_param {
    num_output: 32
    kernel_size: 1
    weight_filler {
      type: "xavier"
      std: 0.2
    }
    bias_filler {
      type: "constant"
      value: 0.2
    }
  }
}
layer {
  name: "inception_3b/relu_5x5_reduce"
  type: "ReLU"
  bottom: "inception_3b/5x5_reduce"
  top: "inception_3b/5x5_reduce"
}
layer {
  name: "inception_3b/5x5"
  type: "Convolution"
  bottom: "inception_3b/5x5_reduce"
  top: "inception_3b/5x5"
  param {
    lr_mult: 1
    decay_mult: 1
  }
  param {
    lr_mult: 2
    decay_mult: 0
  }
  convolution_param {
    num_output: 96
    pad: 2
    kernel_size: 5
    weight_filler {
      type: "xavier"
      std: 0.03
    }
    bias_filler {
      type: "constant"
      value: 0.2
    }
  }
}
layer {
  name: "inception_3b/relu_5x5"
  type: "ReLU"
  bottom: "inception_3b/5x5"
  top: "inception_3b/5x5"
}
layer {
  name: "inception_3b/pool"
  type: "Pooling"
  bottom: "inception_3a/output"
  top: "inception_3b/pool"
  pooling_param {
    pool: MAX
    kernel_size: 3
    stride: 1
    pad: 1
  }
}
layer {
  name: "inception_3b/pool_proj"
  type: "Convolution"
  bottom: "inception_3b/pool"
  top: "inception_3b/pool_proj"
  param {
    lr_mult: 1
    decay_mult: 1
  }
  param {
    lr_mult: 2
    decay_mult: 0
  }
  convolution_param {
    num_output: 64
    kernel_size: 1
    weight_filler {
      type: "xavier"
      std: 0.1
    }
    bias_filler {
      type: "constant"
      value: 0.2
    }
  }
}
layer {
  name: "inception_3b/relu_pool_proj"
  type: "ReLU"
  bottom: "inception_3b/pool_proj"
  top: "inception_3b/pool_proj"
}
layer {
  name: "inception_3b/output"
  type: "Concat"
  bottom: "inception_3b/1x1"
  bottom: "inception_3b/3x3"
  bottom: "inception_3b/5x5"
  bottom: "inception_3b/pool_proj"
  top: "inception_3b/output"
}
layer {
  name: "pool3/3x3_s2"
  type: "Pooling"
  bottom: "inception_3b/output"
  top: "pool3/3x3_s2"
  pooling_param {
    pool: MAX
    kernel_size: 3
    stride: 2
  }
}
layer {
  name: "inception_4a/1x1"
  type: "Convolution"
  bottom: "pool3/3x3_s2"
  top: "inception_4a/1x1"
  param {
    lr_mult: 1
    decay_mult: 1
  }
  param {
    lr_mult: 2
    decay_mult: 0
  }
  convolution_param {
    num_output: 192
    kernel_size: 1
    weight_filler {
      type: "xavier"
      std: 0.03
    }
    bias_filler {
      type: "constant"
      value: 0.2
    }
  }
}
layer {
  name: "inception_4a/relu_1x1"
  type: "ReLU"
  bottom: "inception_4a/1x1"
  top: "inception_4a/1x1"
}
layer {
  name: "inception_4a/3x3_reduce"
  type: "Convolution"
  bottom: "pool3/3x3_s2"
  top: "inception_4a/3x3_reduce"
  param {
    lr_mult: 1
    decay_mult: 1
  }
  param {
    lr_mult: 2
    decay_mult: 0
  }
  convolution_param {
    num_output: 96
    kernel_size: 1
    weight_filler {
      type: "xavier"
      std: 0.09
    }
    bias_filler {
      type: "constant"
      value: 0.2
    }
  }
}
layer {
  name: "inception_4a/relu_3x3_reduce"
  type: "ReLU"
  bottom: "inception_4a/3x3_reduce"
  top: "inception_4a/3x3_reduce"
}
layer {
  name: "inception_4a/3x3"
  type: "Convolution"
  bottom: "inception_4a/3x3_reduce"
  top: "inception_4a/3x3"
  param {
    lr_mult: 1
    decay_mult: 1
  }
  param {
    lr_mult: 2
    decay_mult: 0
  }
  convolution_param {
    num_output: 208
    pad: 1
    kernel_size: 3
    weight_filler {
      type: "xavier"
      std: 0.03
    }
    bias_filler {
      type: "constant"
      value: 0.2
    }
  }
}
layer {
  name: "inception_4a/relu_3x3"
  type: "ReLU"
  bottom: "inception_4a/3x3"
  top: "inception_4a/3x3"
}
layer {
  name: "inception_4a/5x5_reduce"
  type: "Convolution"
  bottom: "pool3/3x3_s2"
  top: "inception_4a/5x5_reduce"
  param {
    lr_mult: 1
    decay_mult: 1
  }
  param {
    lr_mult: 2
    decay_mult: 0
  }
  convolution_param {
    num_output: 16
    kernel_size: 1
    weight_filler {
      type: "xavier"
      std: 0.2
    }
    bias_filler {
      type: "constant"
      value: 0.2
    }
  }
}
layer {
  name: "inception_4a/relu_5x5_reduce"
  type: "ReLU"
  bottom: "inception_4a/5x5_reduce"
  top: "inception_4a/5x5_reduce"
}
layer {
  name: "inception_4a/5x5"
  type: "Convolution"
  bottom: "inception_4a/5x5_reduce"
  top: "inception_4a/5x5"
  param {
    lr_mult: 1
    decay_mult: 1
  }
  param {
    lr_mult: 2
    decay_mult: 0
  }
  convolution_param {
    num_output: 48
    pad: 2
    kernel_size: 5
    weight_filler {
      type: "xavier"
      std: 0.03
    }
    bias_filler {
      type: "constant"
      value: 0.2
    }
  }
}
layer {
  name: "inception_4a/relu_5x5"
  type: "ReLU"
  bottom: "inception_4a/5x5"
  top: "inception_4a/5x5"
}
layer {
  name: "inception_4a/pool"
  type: "Pooling"
  bottom: "pool3/3x3_s2"
  top: "inception_4a/pool"
  pooling_param {
    pool: MAX
    kernel_size: 3
    stride: 1
    pad: 1
  }
}
layer {
  name: "inception_4a/pool_proj"
  type: "Convolution"
  bottom: "inception_4a/pool"
  top: "inception_4a/pool_proj"
  param {
    lr_mult: 1
    decay_mult: 1
  }
  param {
    lr_mult: 2
    decay_mult: 0
  }
  convolution_param {
    num_output: 64
    kernel_size: 1
    weight_filler {
      type: "xavier"
      std: 0.1
    }
    bias_filler {
      type: "constant"
      value: 0.2
    }
  }
}
layer {
  name: "inception_4a/relu_pool_proj"
  type: "ReLU"
  bottom: "inception_4a/pool_proj"
  top: "inception_4a/pool_proj"
}
layer {
  name: "inception_4a/output"
  type: "Concat"
  bottom: "inception_4a/1x1"
  bottom: "inception_4a/3x3"
  bottom: "inception_4a/5x5"
  bottom: "inception_4a/pool_proj"
  top: "inception_4a/output"
}
layer {
  name: "loss1/ave_pool"
  type: "Pooling"
  bottom: "inception_4a/output"
  top: "loss1/ave_pool"
  pooling_param {
    pool: AVE
    kernel_size: 5
    stride: 3
  }
}
layer {
  name: "loss1/conv"
  type: "Convolution"
  bottom: "loss1/ave_pool"
  top: "loss1/conv"
  param {
    lr_mult: 1
    decay_mult: 1
  }
  param {
    lr_mult: 2
    decay_mult: 0
  }
  convolution_param {
    num_output: 128
    kernel_size: 1
    weight_filler {
      type: "xavier"
      std: 0.08
    }
    bias_filler {
      type: "constant"
      value: 0.2
    }
  }
}
layer {
  name: "loss1/relu_conv"
  type: "ReLU"
  bottom: "loss1/conv"
  top: "loss1/conv"
}
layer {
  name: "loss1/fc"
  type: "InnerProduct"
  bottom: "loss1/conv"
  top: "loss1/fc"
  param {
    lr_mult: 1
    decay_mult: 1
  }
  param {
    lr_mult: 2
    decay_mult: 0
  }
  inner_product_param {
    num_output: 1024
    weight_filler {
      type: "xavier"
      std: 0.02
    }
    bias_filler {
      type: "constant"
      value: 0.2
    }
  }
}
layer {
  name: "loss1/relu_fc"
  type: "ReLU"
  bottom: "loss1/fc"
  top: "loss1/fc"
}
layer {
  name: "loss1/drop_fc"
  type: "Dropout"
  bottom: "loss1/fc"
  top: "loss1/fc"
  dropout_param {
    dropout_ratio: 0.2
  }
}
layer {
  name: "stanford_cars_loss1/classifier"
  type: "InnerProduct"
  bottom: "loss1/fc"
  top: "stanford_cars_loss1/classifier"
  param {
    lr_mult: 1
    decay_mult: 1
  }
  param {
    lr_mult: 2
    decay_mult: 0
  }
  inner_product_param {
    num_output: 196
    weight_filler {
      type: "xavier"
      std: 0.0009765625
    }
    bias_filler {
      type: "constant"
      value: 0
    }
  }
}
layer {
  name: "loss1/loss"
  type: "SoftmaxWithLoss"
  bottom: "stanford_cars_loss1/classifier"
  bottom: "label"
  top: "loss1/loss1"
  loss_weight: 0.3
}
layer {
  name: "loss1/top-1"
  type: "Accuracy"
  bottom: "stanford_cars_loss1/classifier"
  bottom: "label"
  top: "loss1/top-1"
  include {
    phase: TEST
  }
}
layer {
  name: "loss1/top-5"
  type: "Accuracy"
  bottom: "stanford_cars_loss1/classifier"
  bottom: "label"
  top: "loss1/top-5"
  include {
    phase: TEST
  }
  accuracy_param {
    top_k: 5
  }
}
layer {
  name: "inception_4b/1x1"
  type: "Convolution"
  bottom: "inception_4a/output"
  top: "inception_4b/1x1"
  param {
    lr_mult: 1
    decay_mult: 1
  }
  param {
    lr_mult: 2
    decay_mult: 0
  }
  convolution_param {
    num_output: 160
    kernel_size: 1
    weight_filler {
      type: "xavier"
      std: 0.03
    }
    bias_filler {
      type: "constant"
      value: 0.2
    }
  }
}
layer {
  name: "inception_4b/relu_1x1"
  type: "ReLU"
  bottom: "inception_4b/1x1"
  top: "inception_4b/1x1"
}
layer {
  name: "inception_4b/3x3_reduce"
  type: "Convolution"
  bottom: "inception_4a/output"
  top: "inception_4b/3x3_reduce"
  param {
    lr_mult: 1
    decay_mult: 1
  }
  param {
    lr_mult: 2
    decay_mult: 0
  }
  convolution_param {
    num_output: 112
    kernel_size: 1
    weight_filler {
      type: "xavier"
      std: 0.09
    }
    bias_filler {
      type: "constant"
      value: 0.2
    }
  }
}
layer {
  name: "inception_4b/relu_3x3_reduce"
  type: "ReLU"
  bottom: "inception_4b/3x3_reduce"
  top: "inception_4b/3x3_reduce"
}
layer {
  name: "inception_4b/3x3"
  type: "Convolution"
  bottom: "inception_4b/3x3_reduce"
  top: "inception_4b/3x3"
  param {
    lr_mult: 1
    decay_mult: 1
  }
  param {
    lr_mult: 2
    decay_mult: 0
  }
  convolution_param {
    num_output: 224
    pad: 1
    kernel_size: 3
    weight_filler {
      type: "xavier"
      std: 0.03
    }
    bias_filler {
      type: "constant"
      value: 0.2
    }
  }
}
layer {
  name: "inception_4b/relu_3x3"
  type: "ReLU"
  bottom: "inception_4b/3x3"
  top: "inception_4b/3x3"
}
layer {
  name: "inception_4b/5x5_reduce"
  type: "Convolution"
  bottom: "inception_4a/output"
  top: "inception_4b/5x5_reduce"
  param {
    lr_mult: 1
    decay_mult: 1
  }
  param {
    lr_mult: 2
    decay_mult: 0
  }
  convolution_param {
    num_output: 24
    kernel_size: 1
    weight_filler {
      type: "xavier"
      std: 0.2
    }
    bias_filler {
      type: "constant"
      value: 0.2
    }
  }
}
layer {
  name: "inception_4b/relu_5x5_reduce"
  type: "ReLU"
  bottom: "inception_4b/5x5_reduce"
  top: "inception_4b/5x5_reduce"
}
layer {
  name: "inception_4b/5x5"
  type: "Convolution"
  bottom: "inception_4b/5x5_reduce"
  top: "inception_4b/5x5"
  param {
    lr_mult: 1
    decay_mult: 1
  }
  param {
    lr_mult: 2
    decay_mult: 0
  }
  convolution_param {
    num_output: 64
    pad: 2
    kernel_size: 5
    weight_filler {
      type: "xavier"
      std: 0.03
    }
    bias_filler {
      type: "constant"
      value: 0.2
    }
  }
}
layer {
  name: "inception_4b/relu_5x5"
  type: "ReLU"
  bottom: "inception_4b/5x5"
  top: "inception_4b/5x5"
}
layer {
  name: "inception_4b/pool"
  type: "Pooling"
  bottom: "inception_4a/output"
  top: "inception_4b/pool"
  pooling_param {
    pool: MAX
    kernel_size: 3
    stride: 1
    pad: 1
  }
}
layer {
  name: "inception_4b/pool_proj"
  type: "Convolution"
  bottom: "inception_4b/pool"
  top: "inception_4b/pool_proj"
  param {
    lr_mult: 1
    decay_mult: 1
  }
  param {
    lr_mult: 2
    decay_mult: 0
  }
  convolution_param {
    num_output: 64
    kernel_size: 1
    weight_filler {
      type: "xavier"
      std: 0.1
    }
    bias_filler {
      type: "constant"
      value: 0.2
    }
  }
}
layer {
  name: "inception_4b/relu_pool_proj"
  type: "ReLU"
  bottom: "inception_4b/pool_proj"
  top: "inception_4b/pool_proj"
}
layer {
  name: "inception_4b/output"
  type: "Concat"
  bottom: "inception_4b/1x1"
  bottom: "inception_4b/3x3"
  bottom: "inception_4b/5x5"
  bottom: "inception_4b/pool_proj"
  top: "inception_4b/output"
}
layer {
  name: "inception_4c/1x1"
  type: "Convolution"
  bottom: "inception_4b/output"
  top: "inception_4c/1x1"
  param {
    lr_mult: 1
    decay_mult: 1
  }
  param {
    lr_mult: 2
    decay_mult: 0
  }
  convolution_param {
    num_output: 128
    kernel_size: 1
    weight_filler {
      type: "xavier"
      std: 0.03
    }
    bias_filler {
      type: "constant"
      value: 0.2
    }
  }
}
layer {
  name: "inception_4c/relu_1x1"
  type: "ReLU"
  bottom: "inception_4c/1x1"
  top: "inception_4c/1x1"
}
layer {
  name: "inception_4c/3x3_reduce"
  type: "Convolution"
  bottom: "inception_4b/output"
  top: "inception_4c/3x3_reduce"
  param {
    lr_mult: 1
    decay_mult: 1
  }
  param {
    lr_mult: 2
    decay_mult: 0
  }
  convolution_param {
    num_output: 128
    kernel_size: 1
    weight_filler {
      type: "xavier"
      std: 0.09
    }
    bias_filler {
      type: "constant"
      value: 0.2
    }
  }
}
layer {
  name: "inception_4c/relu_3x3_reduce"
  type: "ReLU"
  bottom: "inception_4c/3x3_reduce"
  top: "inception_4c/3x3_reduce"
}
layer {
  name: "inception_4c/3x3"
  type: "Convolution"
  bottom: "inception_4c/3x3_reduce"
  top: "inception_4c/3x3"
  param {
    lr_mult: 1
    decay_mult: 1
  }
  param {
    lr_mult: 2
    decay_mult: 0
  }
  convolution_param {
    num_output: 256
    pad: 1
    kernel_size: 3
    weight_filler {
      type: "xavier"
      std: 0.03
    }
    bias_filler {
      type: "constant"
      value: 0.2
    }
  }
}
layer {
  name: "inception_4c/relu_3x3"
  type: "ReLU"
  bottom: "inception_4c/3x3"
  top: "inception_4c/3x3"
}
layer {
  name: "inception_4c/5x5_reduce"
  type: "Convolution"
  bottom: "inception_4b/output"
  top: "inception_4c/5x5_reduce"
  param {
    lr_mult: 1
    decay_mult: 1
  }
  param {
    lr_mult: 2
    decay_mult: 0
  }
  convolution_param {
    num_output: 24
    kernel_size: 1
    weight_filler {
      type: "xavier"
      std: 0.2
    }
    bias_filler {
      type: "constant"
      value: 0.2
    }
  }
}
layer {
  name: "inception_4c/relu_5x5_reduce"
  type: "ReLU"
  bottom: "inception_4c/5x5_reduce"
  top: "inception_4c/5x5_reduce"
}
layer {
  name: "inception_4c/5x5"
  type: "Convolution"
  bottom: "inception_4c/5x5_reduce"
  top: "inception_4c/5x5"
  param {
    lr_mult: 1
    decay_mult: 1
  }
  param {
    lr_mult: 2
    decay_mult: 0
  }
  convolution_param {
    num_output: 64
    pad: 2
    kernel_size: 5
    weight_filler {
      type: "xavier"
      std: 0.03
    }
    bias_filler {
      type: "constant"
      value: 0.2
    }
  }
}
layer {
  name: "inception_4c/relu_5x5"
  type: "ReLU"
  bottom: "inception_4c/5x5"
  top: "inception_4c/5x5"
}
layer {
  name: "inception_4c/pool"
  type: "Pooling"
  bottom: "inception_4b/output"
  top: "inception_4c/pool"
  pooling_param {
    pool: MAX
    kernel_size: 3
    stride: 1
    pad: 1
  }
}
layer {
  name: "inception_4c/pool_proj"
  type: "Convolution"
  bottom: "inception_4c/pool"
  top: "inception_4c/pool_proj"
  param {
    lr_mult: 1
    decay_mult: 1
  }
  param {
    lr_mult: 2
    decay_mult: 0
  }
  convolution_param {
    num_output: 64
    kernel_size: 1
    weight_filler {
      type: "xavier"
      std: 0.1
    }
    bias_filler {
      type: "constant"
      value: 0.2
    }
  }
}
layer {
  name: "inception_4c/relu_pool_proj"
  type: "ReLU"
  bottom: "inception_4c/pool_proj"
  top: "inception_4c/pool_proj"
}
layer {
  name: "inception_4c/output"
  type: "Concat"
  bottom: "inception_4c/1x1"
  bottom: "inception_4c/3x3"
  bottom: "inception_4c/5x5"
  bottom: "inception_4c/pool_proj"
  top: "inception_4c/output"
}
layer {
  name: "inception_4d/1x1"
  type: "Convolution"
  bottom: "inception_4c/output"
  top: "inception_4d/1x1"
  param {
    lr_mult: 1
    decay_mult: 1
  }
  param {
    lr_mult: 2
    decay_mult: 0
  }
  convolution_param {
    num_output: 112
    kernel_size: 1
    weight_filler {
      type: "xavier"
      std: 0.03
    }
    bias_filler {
      type: "constant"
      value: 0.2
    }
  }
}
layer {
  name: "inception_4d/relu_1x1"
  type: "ReLU"
  bottom: "inception_4d/1x1"
  top: "inception_4d/1x1"
}
layer {
  name: "inception_4d/3x3_reduce"
  type: "Convolution"
  bottom: "inception_4c/output"
  top: "inception_4d/3x3_reduce"
  param {
    lr_mult: 1
    decay_mult: 1
  }
  param {
    lr_mult: 2
    decay_mult: 0
  }
  convolution_param {
    num_output: 144
    kernel_size: 1
    weight_filler {
      type: "xavier"
      std: 0.09
    }
    bias_filler {
      type: "constant"
      value: 0.2
    }
  }
}
layer {
  name: "inception_4d/relu_3x3_reduce"
  type: "ReLU"
  bottom: "inception_4d/3x3_reduce"
  top: "inception_4d/3x3_reduce"
}
layer {
  name: "inception_4d/3x3"
  type: "Convolution"
  bottom: "inception_4d/3x3_reduce"
  top: "inception_4d/3x3"
  param {
    lr_mult: 1
    decay_mult: 1
  }
  param {
    lr_mult: 2
    decay_mult: 0
  }
  convolution_param {
    num_output: 288
    pad: 1
    kernel_size: 3
    weight_filler {
      type: "xavier"
      std: 0.03
    }
    bias_filler {
      type: "constant"
      value: 0.2
    }
  }
}
layer {
  name: "inception_4d/relu_3x3"
  type: "ReLU"
  bottom: "inception_4d/3x3"
  top: "inception_4d/3x3"
}
layer {
  name: "inception_4d/5x5_reduce"
  type: "Convolution"
  bottom: "inception_4c/output"
  top: "inception_4d/5x5_reduce"
  param {
    lr_mult: 1
    decay_mult: 1
  }
  param {
    lr_mult: 2
    decay_mult: 0
  }
  convolution_param {
    num_output: 32
    kernel_size: 1
    weight_filler {
      type: "xavier"
      std: 0.2
    }
    bias_filler {
      type: "constant"
      value: 0.2
    }
  }
}
layer {
  name: "inception_4d/relu_5x5_reduce"
  type: "ReLU"
  bottom: "inception_4d/5x5_reduce"
  top: "inception_4d/5x5_reduce"
}
layer {
  name: "inception_4d/5x5"
  type: "Convolution"
  bottom: "inception_4d/5x5_reduce"
  top: "inception_4d/5x5"
  param {
    lr_mult: 1
    decay_mult: 1
  }
  param {
    lr_mult: 2
    decay_mult: 0
  }
  convolution_param {
    num_output: 64
    pad: 2
    kernel_size: 5
    weight_filler {
      type: "xavier"
      std: 0.03
    }
    bias_filler {
      type: "constant"
      value: 0.2
    }
  }
}
layer {
  name: "inception_4d/relu_5x5"
  type: "ReLU"
  bottom: "inception_4d/5x5"
  top: "inception_4d/5x5"
}
layer {
  name: "inception_4d/pool"
  type: "Pooling"
  bottom: "inception_4c/output"
  top: "inception_4d/pool"
  pooling_param {
    pool: MAX
    kernel_size: 3
    stride: 1
    pad: 1
  }
}
layer {
  name: "inception_4d/pool_proj"
  type: "Convolution"
  bottom: "inception_4d/pool"
  top: "inception_4d/pool_proj"
  param {
    lr_mult: 1
    decay_mult: 1
  }
  param {
    lr_mult: 2
    decay_mult: 0
  }
  convolution_param {
    num_output: 64
    kernel_size: 1
…
I0704 13:25:07.529472 25725 net.cpp:127] Top shape: 10 128 14 14 (250880)
I0704 13:25:07.529484 25725 layer_factory.hpp:74] Creating layer inception_4c/relu_1x1
I0704 13:25:07.529491 25725 net.cpp:90] Creating Layer inception_4c/relu_1x1
I0704 13:25:07.529496 25725 net.cpp:410] inception_4c/relu_1x1 <- inception_4c/1x1
I0704 13:25:07.529502 25725 net.cpp:357] inception_4c/relu_1x1 -> inception_4c/1x1 (in-place)
I0704 13:25:07.529508 25725 net.cpp:120] Setting up inception_4c/relu_1x1
I0704 13:25:07.529556 25725 net.cpp:127] Top shape: 10 128 14 14 (250880)
I0704 13:25:07.529562 25725 layer_factory.hpp:74] Creating layer inception_4c/3x3_reduce
I0704 13:25:07.529570 25725 net.cpp:90] Creating Layer inception_4c/3x3_reduce
I0704 13:25:07.529575 25725 net.cpp:410] inception_4c/3x3_reduce <- inception_4b/output_inception_4b/output_0_split_1
I0704 13:25:07.529583 25725 net.cpp:368] inception_4c/3x3_reduce -> inception_4c/3x3_reduce
I0704 13:25:07.529590 25725 net.cpp:120] Setting up inception_4c/3x3_reduce
I0704 13:25:07.530117 25725 net.cpp:127] Top shape: 10 128 14 14 (250880)
I0704 13:25:07.530130 25725 layer_factory.hpp:74] Creating layer inception_4c/relu_3x3_reduce
I0704 13:25:07.530136 25725 net.cpp:90] Creating Layer inception_4c/relu_3x3_reduce
I0704 13:25:07.530141 25725 net.cpp:410] inception_4c/relu_3x3_reduce <- inception_4c/3x3_reduce
I0704 13:25:07.530148 25725 net.cpp:357] inception_4c/relu_3x3_reduce -> inception_4c/3x3_reduce (in-place)
I0704 13:25:07.530154 25725 net.cpp:120] Setting up inception_4c/relu_3x3_reduce
I0704 13:25:07.530269 25725 net.cpp:127] Top shape: 10 128 14 14 (250880)
I0704 13:25:07.530279 25725 layer_factory.hpp:74] Creating layer inception_4c/3x3
I0704 13:25:07.530287 25725 net.cpp:90] Creating Layer inception_4c/3x3
I0704 13:25:07.530292 25725 net.cpp:410] inception_4c/3x3 <- inception_4c/3x3_reduce
I0704 13:25:07.530298 25725 net.cpp:368] inception_4c/3x3 -> inception_4c/3x3
I0704 13:25:07.530305 25725 net.cpp:120] Setting up inception_4c/3x3
I0704 13:25:07.531954 25725 net.cpp:127] Top shape: 10 256 14 14 (501760)
I0704 13:25:07.531972 25725 layer_factory.hpp:74] Creating layer inception_4c/relu_3x3
I0704 13:25:07.531980 25725 net.cpp:90] Creating Layer inception_4c/relu_3x3
I0704 13:25:07.531985 25725 net.cpp:410] inception_4c/relu_3x3 <- inception_4c/3x3
I0704 13:25:07.531991 25725 net.cpp:357] inception_4c/relu_3x3 -> inception_4c/3x3 (in-place)
I0704 13:25:07.531997 25725 net.cpp:120] Setting up inception_4c/relu_3x3
I0704 13:25:07.532040 25725 net.cpp:127] Top shape: 10 256 14 14 (501760)
I0704 13:25:07.532047 25725 layer_factory.hpp:74] Creating layer inception_4c/5x5_reduce
I0704 13:25:07.532054 25725 net.cpp:90] Creating Layer inception_4c/5x5_reduce
I0704 13:25:07.532059 25725 net.cpp:410] inception_4c/5x5_reduce <- inception_4b/output_inception_4b/output_0_split_2
I0704 13:25:07.532066 25725 net.cpp:368] inception_4c/5x5_reduce -> inception_4c/5x5_reduce
I0704 13:25:07.532073 25725 net.cpp:120] Setting up inception_4c/5x5_reduce
I0704 13:25:07.532337 25725 net.cpp:127] Top shape: 10 24 14 14 (47040)
I0704 13:25:07.532348 25725 layer_factory.hpp:74] Creating layer inception_4c/relu_5x5_reduce
I0704 13:25:07.532356 25725 net.cpp:90] Creating Layer inception_4c/relu_5x5_reduce
I0704 13:25:07.532361 25725 net.cpp:410] inception_4c/relu_5x5_reduce <- inception_4c/5x5_reduce
I0704 13:25:07.532367 25725 net.cpp:357] inception_4c/relu_5x5_reduce -> inception_4c/5x5_reduce (in-place)
I0704 13:25:07.532373 25725 net.cpp:120] Setting up inception_4c/relu_5x5_reduce
I0704 13:25:07.532413 25725 net.cpp:127] Top shape: 10 24 14 14 (47040)
I0704 13:25:07.532419 25725 layer_factory.hpp:74] Creating layer inception_4c/5x5
I0704 13:25:07.532428 25725 net.cpp:90] Creating Layer inception_4c/5x5
I0704 13:25:07.532433 25725 net.cpp:410] inception_4c/5x5 <- inception_4c/5x5_reduce
I0704 13:25:07.532439 25725 net.cpp:368] inception_4c/5x5 -> inception_4c/5x5
I0704 13:25:07.532445 25725 net.cpp:120] Setting up inception_4c/5x5
I0704 13:25:07.532845 25725 net.cpp:127] Top shape: 10 64 14 14 (125440)
I0704 13:25:07.532855 25725 layer_factory.hpp:74] Creating layer inception_4c/relu_5x5
I0704 13:25:07.532862 25725 net.cpp:90] Creating Layer inception_4c/relu_5x5
I0704 13:25:07.532867 25725 net.cpp:410] inception_4c/relu_5x5 <- inception_4c/5x5
I0704 13:25:07.532873 25725 net.cpp:357] inception_4c/relu_5x5 -> inception_4c/5x5 (in-place)
I0704 13:25:07.532879 25725 net.cpp:120] Setting up inception_4c/relu_5x5
I0704 13:25:07.532922 25725 net.cpp:127] Top shape: 10 64 14 14 (125440)
I0704 13:25:07.532934 25725 layer_factory.hpp:74] Creating layer inception_4c/pool
I0704 13:25:07.532940 25725 layer_factory.cpp:55] CUDNN does not support padding or multiple tops. Using Caffe's own pooling layer.
I0704 13:25:07.532945 25725 net.cpp:90] Creating Layer inception_4c/pool
I0704 13:25:07.532950 25725 net.cpp:410] inception_4c/pool <- inception_4b/output_inception_4b/output_0_split_3
I0704 13:25:07.532956 25725 net.cpp:368] inception_4c/pool -> inception_4c/pool
I0704 13:25:07.532963 25725 net.cpp:120] Setting up inception_4c/pool
I0704 13:25:07.532970 25725 net.cpp:127] Top shape: 10 512 14 14 (1003520)
I0704 13:25:07.532974 25725 layer_factory.hpp:74] Creating layer inception_4c/pool_proj
I0704 13:25:07.532980 25725 net.cpp:90] Creating Layer inception_4c/pool_proj
I0704 13:25:07.532985 25725 net.cpp:410] inception_4c/pool_proj <- inception_4c/pool
I0704 13:25:07.532992 25725 net.cpp:368] inception_4c/pool_proj -> inception_4c/pool_proj
I0704 13:25:07.532999 25725 net.cpp:120] Setting up inception_4c/pool_proj
I0704 13:25:07.533366 25725 net.cpp:127] Top shape: 10 64 14 14 (125440)
I0704 13:25:07.533377 25725 layer_factory.hpp:74] Creating layer inception_4c/relu_pool_proj
I0704 13:25:07.533383 25725 net.cpp:90] Creating Layer inception_4c/relu_pool_proj
I0704 13:25:07.533390 25725 net.cpp:410] inception_4c/relu_pool_proj <- inception_4c/pool_proj
I0704 13:25:07.533395 25725 net.cpp:357] inception_4c/relu_pool_proj -> inception_4c/pool_proj (in-place)
I0704 13:25:07.555534 25725 net.cpp:120] Setting up inception_4c/relu_pool_proj
I0704 13:25:07.555790 25725 net.cpp:127] Top shape: 10 64 14 14 (125440)
I0704 13:25:07.555801 25725 layer_factory.hpp:74] Creating layer inception_4c/output
I0704 13:25:07.555814 25725 net.cpp:90] Creating Layer inception_4c/output
I0704 13:25:07.555819 25725 net.cpp:410] inception_4c/output <- inception_4c/1x1
I0704 13:25:07.555826 25725 net.cpp:410] inception_4c/output <- inception_4c/3x3
I0704 13:25:07.555831 25725 net.cpp:410] inception_4c/output <- inception_4c/5x5
I0704 13:25:07.555836 25725 net.cpp:410] inception_4c/output <- inception_4c/pool_proj
I0704 13:25:07.555840 25725 net.cpp:368] inception_4c/output -> inception_4c/output
I0704 13:25:07.555848 25725 net.cpp:120] Setting up inception_4c/output
I0704 13:25:07.555857 25725 net.cpp:127] Top shape: 10 512 14 14 (1003520)
I0704 13:25:07.555862 25725 layer_factory.hpp:74] Creating layer inception_4c/output_inception_4c/output_0_split
I0704 13:25:07.555868 25725 net.cpp:90] Creating Layer inception_4c/output_inception_4c/output_0_split
I0704 13:25:07.555873 25725 net.cpp:410] inception_4c/output_inception_4c/output_0_split <- inception_4c/output
I0704 13:25:07.555881 25725 net.cpp:368] inception_4c/output_inception_4c/output_0_split -> inception_4c/output_inception_4c/output_0_split_0
I0704 13:25:07.555887 25725 net.cpp:368] inception_4c/output_inception_4c/output_0_split -> inception_4c/output_inception_4c/output_0_split_1
I0704 13:25:07.555894 25725 net.cpp:368] inception_4c/output_inception_4c/output_0_split -> inception_4c/output_inception_4c/output_0_split_2
I0704 13:25:07.555901 25725 net.cpp:368] inception_4c/output_inception_4c/output_0_split -> inception_4c/output_inception_4c/output_0_split_3
I0704 13:25:07.555907 25725 net.cpp:120] Setting up inception_4c/output_inception_4c/output_0_split
I0704 13:25:07.555913 25725 net.cpp:127] Top shape: 10 512 14 14 (1003520)
I0704 13:25:07.555918 25725 net.cpp:127] Top shape: 10 512 14 14 (1003520)
I0704 13:25:07.555923 25725 net.cpp:127] Top shape: 10 512 14 14 (1003520)
I0704 13:25:07.555927 25725 net.cpp:127] Top shape: 10 512 14 14 (1003520)
I0704 13:25:07.555932 25725 layer_factory.hpp:74] Creating layer inception_4d/1x1
I0704 13:25:07.555941 25725 net.cpp:90] Creating Layer inception_4d/1x1
I0704 13:25:07.555946 25725 net.cpp:410] inception_4d/1x1 <- inception_4c/output_inception_4c/output_0_split_0
I0704 13:25:07.555953 25725 net.cpp:368] inception_4d/1x1 -> inception_4d/1x1
I0704 13:25:07.555960 25725 net.cpp:120] Setting up inception_4d/1x1
I0704 13:25:07.556582 25725 net.cpp:127] Top shape: 10 112 14 14 (219520)
I0704 13:25:07.556605 25725 layer_factory.hpp:74] Creating layer inception_4d/relu_1x1
I0704 13:25:07.556614 25725 net.cpp:90] Creating Layer inception_4d/relu_1x1
I0704 13:25:07.556619 25725 net.cpp:410] inception_4d/relu_1x1 <- inception_4d/1x1
I0704 13:25:07.556625 25725 net.cpp:357] inception_4d/relu_1x1 -> inception_4d/1x1 (in-place)
I0704 13:25:07.556632 25725 net.cpp:120] Setting up inception_4d/relu_1x1
I0704 13:25:07.556674 25725 net.cpp:127] Top shape: 10 112 14 14 (219520)
I0704 13:25:07.556679 25725 layer_factory.hpp:74] Creating layer inception_4d/3x3_reduce
I0704 13:25:07.556687 25725 net.cpp:90] Creating Layer inception_4d/3x3_reduce
I0704 13:25:07.556694 25725 net.cpp:410] inception_4d/3x3_reduce <- inception_4c/output_inception_4c/output_0_split_1
I0704 13:25:07.556700 25725 net.cpp:368] inception_4d/3x3_reduce -> inception_4d/3x3_reduce
I0704 13:25:07.556709 25725 net.cpp:120] Setting up inception_4d/3x3_reduce
I0704 13:25:07.557410 25725 net.cpp:127] Top shape: 10 144 14 14 (282240)
I0704 13:25:07.557422 25725 layer_factory.hpp:74] Creating layer inception_4d/relu_3x3_reduce
I0704 13:25:07.557430 25725 net.cpp:90] Creating Layer inception_4d/relu_3x3_reduce
I0704 13:25:07.557435 25725 net.cpp:410] inception_4d/relu_3x3_reduce <- inception_4d/3x3_reduce
I0704 13:25:07.557441 25725 net.cpp:357] inception_4d/relu_3x3_reduce -> inception_4d/3x3_reduce (in-place)
I0704 13:25:07.557448 25725 net.cpp:120] Setting up inception_4d/relu_3x3_reduce
I0704 13:25:07.557492 25725 net.cpp:127] Top shape: 10 144 14 14 (282240)
I0704 13:25:07.557498 25725 layer_factory.hpp:74] Creating layer inception_4d/3x3
I0704 13:25:07.557507 25725 net.cpp:90] Creating Layer inception_4d/3x3
I0704 13:25:07.557512 25725 net.cpp:410] inception_4d/3x3 <- inception_4d/3x3_reduce
I0704 13:25:07.557518 25725 net.cpp:368] inception_4d/3x3 -> inception_4d/3x3
I0704 13:25:07.557524 25725 net.cpp:120] Setting up inception_4d/3x3
I0704 13:25:07.559553 25725 net.cpp:127] Top shape: 10 288 14 14 (564480)
I0704 13:25:07.559566 25725 layer_factory.hpp:74] Creating layer inception_4d/relu_3x3
I0704 13:25:07.559572 25725 net.cpp:90] Creating Layer inception_4d/relu_3x3
I0704 13:25:07.559577 25725 net.cpp:410] inception_4d/relu_3x3 <- inception_4d/3x3
I0704 13:25:07.559582 25725 net.cpp:357] inception_4d/relu_3x3 -> inception_4d/3x3 (in-place)
I0704 13:25:07.559588 25725 net.cpp:120] Setting up inception_4d/relu_3x3
I0704 13:25:07.559702 25725 net.cpp:127] Top shape: 10 288 14 14 (564480)
I0704 13:25:07.559711 25725 layer_factory.hpp:74] Creating layer inception_4d/5x5_reduce
I0704 13:25:07.559720 25725 net.cpp:90] Creating Layer inception_4d/5x5_reduce
I0704 13:25:07.559725 25725 net.cpp:410] inception_4d/5x5_reduce <- inception_4c/output_inception_4c/output_0_split_2
I0704 13:25:07.559732 25725 net.cpp:368] inception_4d/5x5_reduce -> inception_4d/5x5_reduce
I0704 13:25:07.559739 25725 net.cpp:120] Setting up inception_4d/5x5_reduce
I0704 13:25:07.560029 25725 net.cpp:127] Top shape: 10 32 14 14 (62720)
I0704 13:25:07.560039 25725 layer_factory.hpp:74] Creating layer inception_4d/relu_5x5_reduce
I0704 13:25:07.560045 25725 net.cpp:90] Creating Layer inception_4d/relu_5x5_reduce
I0704 13:25:07.560050 25725 net.cpp:410] inception_4d/relu_5x5_reduce <- inception_4d/5x5_reduce
I0704 13:25:07.560057 25725 net.cpp:357] inception_4d/relu_5x5_reduce -> inception_4d/5x5_reduce (in-place)
I0704 13:25:07.560063 25725 net.cpp:120] Setting up inception_4d/relu_5x5_reduce
I0704 13:25:07.560107 25725 net.cpp:127] Top shape: 10 32 14 14 (62720)
I0704 13:25:07.560113 25725 layer_factory.hpp:74] Creating layer inception_4d/5x5
I0704 13:25:07.560120 25725 net.cpp:90] Creating Layer inception_4d/5x5
I0704 13:25:07.560125 25725 net.cpp:410] inception_4d/5x5 <- inception_4d/5x5_reduce
I0704 13:25:07.560132 25725 net.cpp:368] inception_4d/5x5 -> inception_4d/5x5
I0704 13:25:07.560139 25725 net.cpp:120] Setting up inception_4d/5x5
I0704 13:25:07.560600 25725 net.cpp:127] Top shape: 10 64 14 14 (125440)
I0704 13:25:07.560618 25725 layer_factory.hpp:74] Creating layer inception_4d/relu_5x5
I0704 13:25:07.560624 25725 net.cpp:90] Creating Layer inception_4d/relu_5x5
I0704 13:25:07.560631 25725 net.cpp:410] inception_4d/relu_5x5 <- inception_4d/5x5
I0704 13:25:07.560636 25725 net.cpp:357] inception_4d/relu_5x5 -> inception_4d/5x5 (in-place)
I0704 13:25:07.560642 25725 net.cpp:120] Setting up inception_4d/relu_5x5
I0704 13:25:07.560686 25725 net.cpp:127] Top shape: 10 64 14 14 (125440)
I0704 13:25:07.560693 25725 layer_factory.hpp:74] Creating layer inception_4d/pool
I0704 13:25:07.560698 25725 layer_factory.cpp:55] CUDNN does not support padding or multiple tops. Using Caffe's own pooling layer.
I0704 13:25:07.560703 25725 net.cpp:90] Creating Layer inception_4d/pool
I0704 13:25:07.560708 25725 net.cpp:410] inception_4d/pool <- inception_4c/output_inception_4c/output_0_split_3
I0704 13:25:07.560714 25725 net.cpp:368] inception_4d/pool -> inception_4d/pool
I0704 13:25:07.560720 25725 net.cpp:120] Setting up inception_4d/pool
I0704 13:25:07.560729 25725 net.cpp:127] Top shape: 10 512 14 14 (1003520)
I0704 13:25:07.560732 25725 layer_factory.hpp:74] Creating layer inception_4d/pool_proj
I0704 13:25:07.560741 25725 net.cpp:90] Creating Layer inception_4d/pool_proj
I0704 13:25:07.560746 25725 net.cpp:410] inception_4d/pool_proj <- inception_4d/pool
I0704 13:25:07.560753 25725 net.cpp:368] inception_4d/pool_proj -> inception_4d/pool_proj
I0704 13:25:07.560760 25725 net.cpp:120] Setting up inception_4d/pool_proj
I0704 13:25:07.561131 25725 net.cpp:127] Top shape: 10 64 14 14 (125440)
I0704 13:25:07.561142 25725 layer_factory.hpp:74] Creating layer inception_4d/relu_pool_proj
I0704 13:25:07.561151 25725 net.cpp:90] Creating Layer inception_4d/relu_pool_proj
I0704 13:25:07.561156 25725 net.cpp:410] inception_4d/relu_pool_proj <- inception_4d/pool_proj
I0704 13:25:07.561162 25725 net.cpp:357] inception_4d/relu_pool_proj -> inception_4d/pool_proj (in-place)
I0704 13:25:07.561169 25725 net.cpp:120] Setting up inception_4d/relu_pool_proj
I0704 13:25:07.561213 25725 net.cpp:127] Top shape: 10 64 14 14 (125440)
I0704 13:25:07.561218 25725 layer_factory.hpp:74] Creating layer inception_4d/output
I0704 13:25:07.561224 25725 net.cpp:90] Creating Layer inception_4d/output
I0704 13:25:07.561229 25725 net.cpp:410] inception_4d/output <- inception_4d/1x1
I0704 13:25:07.561234 25725 net.cpp:410] inception_4d/output <- inception_4d/3x3
I0704 13:25:07.561239 25725 net.cpp:410] inception_4d/output <- inception_4d/5x5
I0704 13:25:07.561244 25725 net.cpp:410] inception_4d/output <- inception_4d/pool_proj
I0704 13:25:07.561249 25725 net.cpp:368] inception_4d/output -> inception_4d/output
I0704 13:25:07.561255 25725 net.cpp:120] Setting up inception_4d/output
I0704 13:25:07.561262 25725 net.cpp:127] Top shape: 10 528 14 14 (1034880)
I0704 13:25:07.561266 25725 layer_factory.hpp:74] Creating layer inception_4d/output_inception_4d/output_0_split
I0704 13:25:07.561272 25725 net.cpp:90] Creating Layer inception_4d/output_inception_4d/output_0_split
I0704 13:25:07.561278 25725 net.cpp:410] inception_4d/output_inception_4d/output_0_split <- inception_4d/output
I0704 13:25:07.561285 25725 net.cpp:368] inception_4d/output_inception_4d/output_0_split -> inception_4d/output_inception_4d/output_0_split_0
I0704 13:25:07.561290 25725 net.cpp:368] inception_4d/output_inception_4d/output_0_split -> inception_4d/output_inception_4d/output_0_split_1
I0704 13:25:07.561297 25725 net.cpp:368] inception_4d/output_inception_4d/output_0_split -> inception_4d/output_inception_4d/output_0_split_2
I0704 13:25:07.561303 25725 net.cpp:368] inception_4d/output_inception_4d/output_0_split -> inception_4d/output_inception_4d/output_0_split_3
I0704 13:25:07.561311 25725 net.cpp:368] inception_4d/output_inception_4d/output_0_split -> inception_4d/output_inception_4d/output_0_split_4
I0704 13:25:07.561316 25725 net.cpp:120] Setting up inception_4d/output_inception_4d/output_0_split
I0704 13:25:07.561322 25725 net.cpp:127] Top shape: 10 528 14 14 (1034880)
I0704 13:25:07.561327 25725 net.cpp:127] Top shape: 10 528 14 14 (1034880)
I0704 13:25:07.561337 25725 net.cpp:127] Top shape: 10 528 14 14 (1034880)
I0704 13:25:07.561342 25725 net.cpp:127] Top shape: 10 528 14 14 (1034880)
I0704 13:25:07.561347 25725 net.cpp:127] Top shape: 10 528 14 14 (1034880)
I0704 13:25:07.561352 25725 layer_factory.hpp:74] Creating layer loss2/ave_pool
I0704 13:25:07.561358 25725 net.cpp:90] Creating Layer loss2/ave_pool
I0704 13:25:07.561363 25725 net.cpp:410] loss2/ave_pool <- inception_4d/output_inception_4d/output_0_split_0
I0704 13:25:07.561370 25725 net.cpp:368] loss2/ave_pool -> loss2/ave_pool
I0704 13:25:07.561377 25725 net.cpp:120] Setting up loss2/ave_pool
I0704 13:25:07.561496 25725 net.cpp:127] Top shape: 10 528 4 4 (84480)
I0704 13:25:07.561504 25725 layer_factory.hpp:74] Creating layer loss2/conv
I0704 13:25:07.561511 25725 net.cpp:90] Creating Layer loss2/conv
I0704 13:25:07.586411 25725 net.cpp:410] loss2/conv <- loss2/ave_pool
I0704 13:25:07.586436 25725 net.cpp:368] loss2/conv -> loss2/conv
I0704 13:25:07.586448 25725 net.cpp:120] Setting up loss2/conv
I0704 13:25:07.587168 25725 net.cpp:127] Top shape: 10 128 4 4 (20480)
I0704 13:25:07.587183 25725 layer_factory.hpp:74] Creating layer loss2/relu_conv
I0704 13:25:07.587190 25725 net.cpp:90] Creating Layer loss2/relu_conv
I0704 13:25:07.587195 25725 net.cpp:410] loss2/relu_conv <- loss2/conv
I0704 13:25:07.587203 25725 net.cpp:357] loss2/relu_conv -> loss2/conv (in-place)
I0704 13:25:07.587209 25725 net.cpp:120] Setting up loss2/relu_conv
I0704 13:25:07.587251 25725 net.cpp:127] Top shape: 10 128 4 4 (20480)
I0704 13:25:07.587257 25725 layer_factory.hpp:74] Creating layer loss2/fc
I0704 13:25:07.587266 25725 net.cpp:90] Creating Layer loss2/fc
I0704 13:25:07.587271 25725 net.cpp:410] loss2/fc <- loss2/conv
I0704 13:25:07.587276 25725 net.cpp:368] loss2/fc -> loss2/fc
I0704 13:25:07.587285 25725 net.cpp:120] Setting up loss2/fc
I0704 13:25:07.597102 25725 net.cpp:127] Top shape: 10 1024 (10240)
I0704 13:25:07.597129 25725 layer_factory.hpp:74] Creating layer loss2/relu_fc
I0704 13:25:07.597139 25725 net.cpp:90] Creating Layer loss2/relu_fc
I0704 13:25:07.597147 25725 net.cpp:410] loss2/relu_fc <- loss2/fc
I0704 13:25:07.597153 25725 net.cpp:357] loss2/relu_fc -> loss2/fc (in-place)
I0704 13:25:07.597160 25725 net.cpp:120] Setting up loss2/relu_fc
I0704 13:25:07.597235 25725 net.cpp:127] Top shape: 10 1024 (10240)
I0704 13:25:07.597242 25725 layer_factory.hpp:74] Creating layer loss2/drop_fc
I0704 13:25:07.597249 25725 net.cpp:90] Creating Layer loss2/drop_fc
I0704 13:25:07.597254 25725 net.cpp:410] loss2/drop_fc <- loss2/fc
I0704 13:25:07.597260 25725 net.cpp:357] loss2/drop_fc -> loss2/fc (in-place)
I0704 13:25:07.597266 25725 net.cpp:120] Setting up loss2/drop_fc
I0704 13:25:07.597272 25725 net.cpp:127] Top shape: 10 1024 (10240)
I0704 13:25:07.597277 25725 layer_factory.hpp:74] Creating layer stanford_cars_loss2/classifier
I0704 13:25:07.597285 25725 net.cpp:90] Creating Layer stanford_cars_loss2/classifier
I0704 13:25:07.597290 25725 net.cpp:410] stanford_cars_loss2/classifier <- loss2/fc
I0704 13:25:07.597300 25725 net.cpp:368] stanford_cars_loss2/classifier -> stanford_cars_loss2/classifier
I0704 13:25:07.597307 25725 net.cpp:120] Setting up stanford_cars_loss2/classifier
I0704 13:25:07.598302 25725 net.cpp:127] Top shape: 10 196 (1960)
I0704 13:25:07.598312 25725 layer_factory.hpp:74] Creating layer stanford_cars_loss2/classifier_stanford_cars_loss2/classifier_0_split
I0704 13:25:07.598320 25725 net.cpp:90] Creating Layer stanford_cars_loss2/classifier_stanford_cars_loss2/classifier_0_split
I0704 13:25:07.598325 25725 net.cpp:410] stanford_cars_loss2/classifier_stanford_cars_loss2/classifier_0_split <- stanford_cars_loss2/classifier
I0704 13:25:07.598331 25725 net.cpp:368] stanford_cars_loss2/classifier_stanford_cars_loss2/classifier_0_split -> stanford_cars_loss2/classifier_stanford_cars_loss2/classifier_0_split_0
I0704 13:25:07.598338 25725 net.cpp:368] stanford_cars_loss2/classifier_stanford_cars_loss2/classifier_0_split -> stanford_cars_loss2/classifier_stanford_cars_loss2/classifier_0_split_1
I0704 13:25:07.598363 25725 net.cpp:368] stanford_cars_loss2/classifier_stanford_cars_loss2/classifier_0_split -> stanford_cars_loss2/classifier_stanford_cars_loss2/classifier_0_split_2
I0704 13:25:07.598371 25725 net.cpp:120] Setting up stanford_cars_loss2/classifier_stanford_cars_loss2/classifier_0_split
I0704 13:25:07.598378 25725 net.cpp:127] Top shape: 10 196 (1960)
I0704 13:25:07.598383 25725 net.cpp:127] Top shape: 10 196 (1960)
I0704 13:25:07.598387 25725 net.cpp:127] Top shape: 10 196 (1960)
I0704 13:25:07.598392 25725 layer_factory.hpp:74] Creating layer stanford_cars_loss2/loss
I0704 13:25:07.598398 25725 net.cpp:90] Creating Layer stanford_cars_loss2/loss
I0704 13:25:07.598402 25725 net.cpp:410] stanford_cars_loss2/loss <- stanford_cars_loss2/classifier_stanford_cars_loss2/classifier_0_split_0
I0704 13:25:07.598408 25725 net.cpp:410] stanford_cars_loss2/loss <- label_data_1_split_3
…
I0704 13:25:07.598559 25725 net.cpp:368] loss2/top-5 -> loss2/top-5
I0704 13:25:07.598565 25725 net.cpp:120] Setting up loss2/top-5
I0704 13:25:07.598570 25725 net.cpp:127] Top shape: (1)
I0704 13:25:07.598574 25725 layer_factory.hpp:74] Creating layer inception_4e/1x1
I0704 13:25:07.598583 25725 net.cpp:90] Creating Layer inception_4e/1x1
I0704 13:25:07.598588 25725 net.cpp:410] inception_4e/1x1 <- inception_4d/output_inception_4d/output_0_split_1
I0704 13:25:07.598595 25725 net.cpp:368] inception_4e/1x1 -> inception_4e/1x1
I0704 13:25:07.598601 25725 net.cpp:120] Setting up inception_4e/1x1
I0704 13:25:07.599566 25725 net.cpp:127] Top shape: 10 256 14 14 (501760)
I0704 13:25:07.599580 25725 layer_factory.hpp:74] Creating layer inception_4e/relu_1x1
I0704 13:25:07.599586 25725 net.cpp:90] Creating Layer inception_4e/relu_1x1
I0704 13:25:07.599591 25725 net.cpp:410] inception_4e/relu_1x1 <- inception_4e/1x1
I0704 13:25:07.599598 25725 net.cpp:357] inception_4e/relu_1x1 -> inception_4e/1x1 (in-place)
I0704 13:25:07.599604 25725 net.cpp:120] Setting up inception_4e/relu_1x1
I0704 13:25:07.599722 25725 net.cpp:127] Top shape: 10 256 14 14 (501760)
I0704 13:25:07.599732 25725 layer_factory.hpp:74] Creating layer inception_4e/3x3_reduce
I0704 13:25:07.599750 25725 net.cpp:90] Creating Layer inception_4e/3x3_reduce
I0704 13:25:07.599756 25725 net.cpp:410] inception_4e/3x3_reduce <- inception_4d/output_inception_4d/output_0_split_2
I0704 13:25:07.599763 25725 net.cpp:368] inception_4e/3x3_reduce -> inception_4e/3x3_reduce
I0704 13:25:07.599771 25725 net.cpp:120] Setting up inception_4e/3x3_reduce
I0704 13:25:07.600396 25725 net.cpp:127] Top shape: 10 160 14 14 (313600)
I0704 13:25:07.600407 25725 layer_factory.hpp:74] Creating layer inception_4e/relu_3x3_reduce
I0704 13:25:07.600414 25725 net.cpp:90] Creating Layer inception_4e/relu_3x3_reduce
I0704 13:25:07.600419 25725 net.cpp:410] inception_4e/relu_3x3_reduce <- inception_4e/3x3_reduce
I0704 13:25:07.600433 25725 net.cpp:357] inception_4e/relu_3x3_reduce -> inception_4e/3x3_reduce (in-place)
I0704 13:25:07.600440 25725 net.cpp:120] Setting up inception_4e/relu_3x3_reduce
I0704 13:25:07.600486 25725 net.cpp:127] Top shape: 10 160 14 14 (313600)
I0704 13:25:07.600492 25725 layer_factory.hpp:74] Creating layer inception_4e/3x3
I0704 13:25:07.600498 25725 net.cpp:90] Creating Layer inception_4e/3x3
I0704 13:25:07.600503 25725 net.cpp:410] inception_4e/3x3 <- inception_4e/3x3_reduce
I0704 13:25:07.600510 25725 net.cpp:368] inception_4e/3x3 -> inception_4e/3x3
I0704 13:25:07.600517 25725 net.cpp:120] Setting up inception_4e/3x3
I0704 13:25:07.602957 25725 net.cpp:127] Top shape: 10 320 14 14 (627200)
I0704 13:25:07.602968 25725 layer_factory.hpp:74] Creating layer inception_4e/relu_3x3
I0704 13:25:07.602974 25725 net.cpp:90] Creating Layer inception_4e/relu_3x3
I0704 13:25:07.602980 25725 net.cpp:410] inception_4e/relu_3x3 <- inception_4e/3x3
I0704 13:25:07.602987 25725 net.cpp:357] inception_4e/relu_3x3 -> inception_4e/3x3 (in-place)
I0704 13:25:07.602993 25725 net.cpp:120] Setting up inception_4e/relu_3x3
I0704 13:25:07.603035 25725 net.cpp:127] Top shape: 10 320 14 14 (627200)
I0704 13:25:07.603041 25725 layer_factory.hpp:74] Creating layer inception_4e/5x5_reduce
I0704 13:25:07.603049 25725 net.cpp:90] Creating Layer inception_4e/5x5_reduce
I0704 13:25:07.603054 25725 net.cpp:410] inception_4e/5x5_reduce <- inception_4d/output_inception_4d/output_0_split_3
I0704 13:25:07.603060 25725 net.cpp:368] inception_4e/5x5_reduce -> inception_4e/5x5_reduce
I0704 13:25:07.603067 25725 net.cpp:120] Setting up inception_4e/5x5_reduce
I0704 13:25:07.603409 25725 net.cpp:127] Top shape: 10 32 14 14 (62720)
I0704 13:25:07.603420 25725 layer_factory.hpp:74] Creating layer inception_4e/relu_5x5_reduce
I0704 13:25:07.603426 25725 net.cpp:90] Creating Layer inception_4e/relu_5x5_reduce
I0704 13:25:07.603431 25725 net.cpp:410] inception_4e/relu_5x5_reduce <- inception_4e/5x5_reduce
I0704 13:25:07.603437 25725 net.cpp:357] inception_4e/relu_5x5_reduce -> inception_4e/5x5_reduce (in-place)
I0704 13:25:07.603443 25725 net.cpp:120] Setting up inception_4e/relu_5x5_reduce
I0704 13:25:07.603482 25725 net.cpp:127] Top shape: 10 32 14 14 (62720)
I0704 13:25:07.603488 25725 layer_factory.hpp:74] Creating layer inception_4e/5x5
I0704 13:25:07.603495 25725 net.cpp:90] Creating Layer inception_4e/5x5
I0704 13:25:07.603500 25725 net.cpp:410] inception_4e/5x5 <- inception_4e/5x5_reduce
I0704 13:25:07.603507 25725 net.cpp:368] inception_4e/5x5 -> inception_4e/5x5
I0704 13:25:07.603513 25725 net.cpp:120] Setting up inception_4e/5x5
I0704 13:25:07.604218 25725 net.cpp:127] Top shape: 10 128 14 14 (250880)
I0704 13:25:07.604230 25725 layer_factory.hpp:74] Creating layer inception_4e/relu_5x5
I0704 13:25:07.604238 25725 net.cpp:90] Creating Layer inception_4e/relu_5x5
I0704 13:25:07.604243 25725 net.cpp:410] inception_4e/relu_5x5 <- inception_4e/5x5
I0704 13:25:07.604249 25725 net.cpp:357] inception_4e/relu_5x5 -> inception_4e/5x5 (in-place)
I0704 13:25:07.604255 25725 net.cpp:120] Setting up inception_4e/relu_5x5
I0704 13:25:07.604370 25725 net.cpp:127] Top shape: 10 128 14 14 (250880)
I0704 13:25:07.604379 25725 layer_factory.hpp:74] Creating layer inception_4e/pool
I0704 13:25:07.604384 25725 layer_factory.cpp:55] CUDNN does not support padding or multiple tops. Using Caffe's own pooling layer.
I0704 13:25:07.604392 25725 net.cpp:90] Creating Layer inception_4e/pool
I0704 13:25:07.604396 25725 net.cpp:410] inception_4e/pool <- inception_4d/output_inception_4d/output_0_split_4
I0704 13:25:07.604403 25725 net.cpp:368] inception_4e/pool -> inception_4e/pool
I0704 13:25:07.604408 25725 net.cpp:120] Setting up inception_4e/pool
I0704 13:25:07.604416 25725 net.cpp:127] Top shape: 10 528 14 14 (1034880)
I0704 13:25:07.604420 25725 layer_factory.hpp:74] Creating layer inception_4e/pool_proj
I0704 13:25:07.604429 25725 net.cpp:90] Creating Layer inception_4e/pool_proj
I0704 13:25:07.604439 25725 net.cpp:410] inception_4e/pool_proj <- inception_4e/pool
I0704 13:25:07.604447 25725 net.cpp:368] inception_4e/pool_proj -> inception_4e/pool_proj
I0704 13:25:07.604454 25725 net.cpp:120] Setting up inception_4e/pool_proj
I0704 13:25:07.616094 25725 net.cpp:127] Top shape: 10 128 14 14 (250880)
I0704 13:25:07.616109 25725 layer_factory.hpp:74] Creating layer inception_4e/relu_pool_proj
I0704 13:25:07.616117 25725 net.cpp:90] Creating Layer inception_4e/relu_pool_proj
I0704 13:25:07.616122 25725 net.cpp:410] inception_4e/relu_pool_proj <- inception_4e/pool_proj
I0704 13:25:07.616129 25725 net.cpp:357] inception_4e/relu_pool_proj -> inception_4e/pool_proj (in-place)
I0704 13:25:07.616137 25725 net.cpp:120] Setting up inception_4e/relu_pool_proj
I0704 13:25:07.616180 25725 net.cpp:127] Top shape: 10 128 14 14 (250880)
I0704 13:25:07.616186 25725 layer_factory.hpp:74] Creating layer inception_4e/output
I0704 13:25:07.616194 25725 net.cpp:90] Creating Layer inception_4e/output
I0704 13:25:07.616199 25725 net.cpp:410] inception_4e/output <- inception_4e/1x1
I0704 13:25:07.616204 25725 net.cpp:410] inception_4e/output <- inception_4e/3x3
I0704 13:25:07.616209 25725 net.cpp:410] inception_4e/output <- inception_4e/5x5
I0704 13:25:07.616214 25725 net.cpp:410] inception_4e/output <- inception_4e/pool_proj
I0704 13:25:07.616219 25725 net.cpp:368] inception_4e/output -> inception_4e/output
I0704 13:25:07.616226 25725 net.cpp:120] Setting up inception_4e/output
I0704 13:25:07.616233 25725 net.cpp:127] Top shape: 10 832 14 14 (1630720)
I0704 13:25:07.616238 25725 layer_factory.hpp:74] Creating layer pool4/3x3_s2
I0704 13:25:07.616245 25725 net.cpp:90] Creating Layer pool4/3x3_s2
I0704 13:25:07.616250 25725 net.cpp:410] pool4/3x3_s2 <- inception_4e/output
I0704 13:25:07.616256 25725 net.cpp:368] pool4/3x3_s2 -> pool4/3x3_s2
I0704 13:25:07.616262 25725 net.cpp:120] Setting up pool4/3x3_s2
I0704 13:25:07.616307 25725 net.cpp:127] Top shape: 10 832 7 7 (407680)
I0704 13:25:07.616314 25725 layer_factory.hpp:74] Creating layer pool4/3x3_s2_pool4/3x3_s2_0_split
I0704 13:25:07.616320 25725 net.cpp:90] Creating Layer pool4/3x3_s2_pool4/3x3_s2_0_split
I0704 13:25:07.616325 25725 net.cpp:410] pool4/3x3_s2_pool4/3x3_s2_0_split <- pool4/3x3_s2
I0704 13:25:07.616332 25725 net.cpp:368] pool4/3x3_s2_pool4/3x3_s2_0_split -> pool4/3x3_s2_pool4/3x3_s2_0_split_0
I0704 13:25:07.616338 25725 net.cpp:368] pool4/3x3_s2_pool4/3x3_s2_0_split -> pool4/3x3_s2_pool4/3x3_s2_0_split_1
I0704 13:25:07.616344 25725 net.cpp:368] pool4/3x3_s2_pool4/3x3_s2_0_split -> pool4/3x3_s2_pool4/3x3_s2_0_split_2
I0704 13:25:07.616361 25725 net.cpp:368] pool4/3x3_s2_pool4/3x3_s2_0_split -> pool4/3x3_s2_pool4/3x3_s2_0_split_3
I0704 13:25:07.616369 25725 net.cpp:120] Setting up pool4/3x3_s2_pool4/3x3_s2_0_split
I0704 13:25:07.616375 25725 net.cpp:127] Top shape: 10 832 7 7 (407680)
I0704 13:25:07.616380 25725 net.cpp:127] Top shape: 10 832 7 7 (407680)
I0704 13:25:07.616385 25725 net.cpp:127] Top shape: 10 832 7 7 (407680)
I0704 13:25:07.616390 25725 net.cpp:127] Top shape: 10 832 7 7 (407680)
I0704 13:25:07.616395 25725 layer_factory.hpp:74] Creating layer inception_5a/1x1
I0704 13:25:07.616402 25725 net.cpp:90] Creating Layer inception_5a/1x1
I0704 13:25:07.616408 25725 net.cpp:410] inception_5a/1x1 <- pool4/3x3_s2_pool4/3x3_s2_0_split_0
I0704 13:25:07.616415 25725 net.cpp:368] inception_5a/1x1 -> inception_5a/1x1
I0704 13:25:07.616421 25725 net.cpp:120] Setting up inception_5a/1x1
I0704 13:25:07.617866 25725 net.cpp:127] Top shape: 10 256 7 7 (125440)
I0704 13:25:07.617879 25725 layer_factory.hpp:74] Creating layer inception_5a/relu_1x1
I0704 13:25:07.617887 25725 net.cpp:90] Creating Layer inception_5a/relu_1x1
I0704 13:25:07.617892 25725 net.cpp:410] inception_5a/relu_1x1 <- inception_5a/1x1
I0704 13:25:07.617898 25725 net.cpp:357] inception_5a/relu_1x1 -> inception_5a/1x1 (in-place)
I0704 13:25:07.617905 25725 net.cpp:120] Setting up inception_5a/relu_1x1
I0704 13:25:07.618022 25725 net.cpp:127] Top shape: 10 256 7 7 (125440)
I0704 13:25:07.618031 25725 layer_factory.hpp:74] Creating layer inception_5a/3x3_reduce
I0704 13:25:07.618052 25725 net.cpp:90] Creating Layer inception_5a/3x3_reduce
I0704 13:25:07.618058 25725 net.cpp:410] inception_5a/3x3_reduce <- pool4/3x3_s2_pool4/3x3_s2_0_split_1
I0704 13:25:07.618065 25725 net.cpp:368] inception_5a/3x3_reduce -> inception_5a/3x3_reduce
I0704 13:25:07.618072 25725 net.cpp:120] Setting up inception_5a/3x3_reduce
I0704 13:25:07.619097 25725 net.cpp:127] Top shape: 10 160 7 7 (78400)
I0704 13:25:07.619110 25725 layer_factory.hpp:74] Creating layer inception_5a/relu_3x3_reduce
I0704 13:25:07.619118 25725 net.cpp:90] Creating Layer inception_5a/relu_3x3_reduce
I0704 13:25:07.619123 25725 net.cpp:410] inception_5a/relu_3x3_reduce <- inception_5a/3x3_reduce
I0704 13:25:07.619129 25725 net.cpp:357] inception_5a/relu_3x3_reduce -> inception_5a/3x3_reduce (in-place)
I0704 13:25:07.619135 25725 net.cpp:120] Setting up inception_5a/relu_3x3_reduce
I0704 13:25:07.619218 25725 net.cpp:127] Top shape: 10 160 7 7 (78400)
I0704 13:25:07.619225 25725 layer_factory.hpp:74] Creating layer inception_5a/3x3
I0704 13:25:07.619231 25725 net.cpp:90] Creating Layer inception_5a/3x3
I0704 13:25:07.619237 25725 net.cpp:410] inception_5a/3x3 <- inception_5a/3x3_reduce
I0704 13:25:07.619243 25725 net.cpp:368] inception_5a/3x3 -> inception_5a/3x3
I0704 13:25:07.619251 25725 net.cpp:120] Setting up inception_5a/3x3
I0704 13:25:07.621729 25725 net.cpp:127] Top shape: 10 320 7 7 (156800)
I0704 13:25:07.621742 25725 layer_factory.hpp:74] Creating layer inception_5a/relu_3x3
I0704 13:25:07.621749 25725 net.cpp:90] Creating Layer inception_5a/relu_3x3
I0704 13:25:07.621754 25725 net.cpp:410] inception_5a/relu_3x3 <- inception_5a/3x3
I0704 13:25:07.621760 25725 net.cpp:357] inception_5a/relu_3x3 -> inception_5a/3x3 (in-place)
I0704 13:25:07.621767 25725 net.cpp:120] Setting up inception_5a/relu_3x3
I0704 13:25:07.621810 25725 net.cpp:127] Top shape: 10 320 7 7 (156800)
I0704 13:25:07.621816 25725 layer_factory.hpp:74] Creating layer inception_5a/5x5_reduce
I0704 13:25:07.621824 25725 net.cpp:90] Creating Layer inception_5a/5x5_reduce
I0704 13:25:07.621829 25725 net.cpp:410] inception_5a/5x5_reduce <- pool4/3x3_s2_pool4/3x3_s2_0_split_2
I0704 13:25:07.621836 25725 net.cpp:368] inception_5a/5x5_reduce -> inception_5a/5x5_reduce
I0704 13:25:07.621844 25725 net.cpp:120] Setting up inception_5a/5x5_reduce
I0704 13:25:07.622184 25725 net.cpp:127] Top shape: 10 32 7 7 (15680)
I0704 13:25:07.622195 25725 layer_factory.hpp:74] Creating layer inception_5a/relu_5x5_reduce
I0704 13:25:07.622200 25725 net.cpp:90] Creating Layer inception_5a/relu_5x5_reduce
I0704 13:25:07.622206 25725 net.cpp:410] inception_5a/relu_5x5_reduce <- inception_5a/5x5_reduce
I0704 13:25:07.622212 25725 net.cpp:357] inception_5a/relu_5x5_reduce -> inception_5a/5x5_reduce (in-place)
I0704 13:25:07.622218 25725 net.cpp:120] Setting up inception_5a/relu_5x5_reduce
I0704 13:25:07.622261 25725 net.cpp:127] Top shape: 10 32 7 7 (15680)
I0704 13:25:07.622267 25725 layer_factory.hpp:74] Creating layer inception_5a/5x5
I0704 13:25:07.622273 25725 net.cpp:90] Creating Layer inception_5a/5x5
I0704 13:25:07.622278 25725 net.cpp:410] inception_5a/5x5 <- inception_5a/5x5_reduce
I0704 13:25:07.622284 25725 net.cpp:368] inception_5a/5x5 -> inception_5a/5x5
I0704 13:25:07.622292 25725 net.cpp:120] Setting up inception_5a/5x5
I0704 13:25:07.622999 25725 net.cpp:127] Top shape: 10 128 7 7 (62720)
I0704 13:25:07.623011 25725 layer_factory.hpp:74] Creating layer inception_5a/relu_5x5
I0704 13:25:07.623018 25725 net.cpp:90] Creating Layer inception_5a/relu_5x5
I0704 13:25:07.623023 25725 net.cpp:410] inception_5a/relu_5x5 <- inception_5a/5x5
I0704 13:25:07.623028 25725 net.cpp:357] inception_5a/relu_5x5 -> inception_5a/5x5 (in-place)
I0704 13:25:07.623034 25725 net.cpp:120] Setting up inception_5a/relu_5x5
I0704 13:25:07.623152 25725 net.cpp:127] Top shape: 10 128 7 7 (62720)
I0704 13:25:07.623162 25725 layer_factory.hpp:74] Creating layer inception_5a/pool
I0704 13:25:07.623167 25725 layer_factory.cpp:55] CUDNN does not support padding or multiple tops. Using Caffe's own pooling layer.
I0704 13:25:07.623183 25725 net.cpp:90] Creating Layer inception_5a/pool
I0704 13:25:07.623188 25725 net.cpp:410] inception_5a/pool <- pool4/3x3_s2_pool4/3x3_s2_0_split_3
I0704 13:25:07.623194 25725 net.cpp:368] inception_5a/pool -> inception_5a/pool
I0704 13:25:07.623201 25725 net.cpp:120] Setting up inception_5a/pool
I0704 13:25:07.623208 25725 net.cpp:127] Top shape: 10 832 7 7 (407680)
I0704 13:25:07.623214 25725 layer_factory.hpp:74] Creating layer inception_5a/pool_proj
I0704 13:25:07.623221 25725 net.cpp:90] Creating Layer inception_5a/pool_proj
I0704 13:25:07.623226 25725 net.cpp:410] inception_5a/pool_proj <- inception_5a/pool
I0704 13:25:07.623232 25725 net.cpp:368] inception_5a/pool_proj -> inception_5a/pool_proj
I0704 13:25:07.623239 25725 net.cpp:120] Setting up inception_5a/pool_proj
I0704 13:25:07.623978 25725 net.cpp:127] Top shape: 10 128 7 7 (62720)
I0704 13:25:07.623989 25725 layer_factory.hpp:74] Creating layer inception_5a/relu_pool_proj
I0704 13:25:07.623997 25725 net.cpp:90] Creating Layer inception_5a/relu_pool_proj
I0704 13:25:07.624003 25725 net.cpp:410] inception_5a/relu_pool_proj <- inception_5a/pool_proj
I0704 13:25:07.624008 25725 net.cpp:357] inception_5a/relu_pool_proj -> inception_5a/pool_proj (in-place)
I0704 13:25:07.624014 25725 net.cpp:120] Setting up inception_5a/relu_pool_proj
I0704 13:25:07.624058 25725 net.cpp:127] Top shape: 10 128 7 7 (62720)
I0704 13:25:07.624064 25725 layer_factory.hpp:74] Creating layer inception_5a/output
I0704 13:25:07.624071 25725 net.cpp:90] Creating Layer inception_5a/output
I0704 13:25:07.624076 25725 net.cpp:410] inception_5a/output <- inception_5a/1x1
I0704 13:25:07.624081 25725 net.cpp:410] inception_5a/output <- inception_5a/3x3
I0704 13:25:07.624086 25725 net.cpp:410] inception_5a/output <- inception_5a/5x5
I0704 13:25:07.624091 25725 net.cpp:410] inception_5a/output <- inception_5a/pool_proj
I0704 13:25:07.624096 25725 net.cpp:368] inception_5a/output -> inception_5a/output
I0704 13:25:07.624102 25725 net.cpp:120] Setting up inception_5a/output
I0704 13:25:07.624109 25725 net.cpp:127] Top shape: 10 832 7 7 (407680)
I0704 13:25:07.624114 25725 layer_factory.hpp:74] Creating layer inception_5a/output_inception_5a/output_0_split
I0704 13:25:07.624121 25725 net.cpp:90] Creating Layer inception_5a/output_inception_5a/output_0_split
I0704 13:25:07.624126 25725 net.cpp:410] inception_5a/output_inception_5a/output_0_split <- inception_5a/output
I0704 13:25:07.624131 25725 net.cpp:368] inception_5a/output_inception_5a/output_0_split -> inception_5a/output_inception_5a/output_0_split_0
I0704 13:25:07.624138 25725 net.cpp:368] inception_5a/output_inception_5a/output_0_split -> inception_5a/output_inception_5a/output_0_split_1
I0704 13:25:07.624145 25725 net.cpp:368] inception_5a/output_inception_5a/output_0_split -> inception_5a/output_inception_5a/output_0_split_2
I0704 13:25:07.624151 25725 net.cpp:368] inception_5a/output_inception_5a/output_0_split -> inception_5a/output_inception_5a/output_0_split_3
I0704 13:25:07.624157 25725 net.cpp:120] Setting up inception_5a/output_inception_5a/output_0_split
I0704 13:25:07.624163 25725 net.cpp:127] Top shape: 10 832 7 7 (407680)
I0704 13:25:07.624168 25725 net.cpp:127] Top shape: 10 832 7 7 (407680)
I0704 13:25:07.624172 25725 net.cpp:127] Top shape: 10 832 7 7 (407680)
I0704 13:25:07.624177 25725 net.cpp:127] Top shape: 10 832 7 7 (407680)
I0704 13:25:07.624181 25725 layer_factory.hpp:74] Creating layer inception_5b/1x1
I0704 13:25:07.624189 25725 net.cpp:90] Creating Layer inception_5b/1x1
I0704 13:25:07.624194 25725 net.cpp:410] inception_5b/1x1 <- inception_5a/output_inception_5a/output_0_split_0
I0704 13:25:07.624200 25725 net.cpp:368] inception_5b/1x1 -> inception_5b/1x1
I0704 13:25:07.624207 25725 net.cpp:120] Setting up inception_5b/1x1
I0704 13:25:07.626019 25725 net.cpp:127] Top shape: 10 384 7 7 (188160)
I0704 13:25:07.626032 25725 layer_factory.hpp:74] Creating layer inception_5b/relu_1x1
I0704 13:25:07.626039 25725 net.cpp:90] Creating Layer inception_5b/relu_1x1
I0704 13:25:07.646505 25725 net.cpp:410] inception_5b/relu_1x1 <- inception_5b/1x1
I0704 13:25:07.646518 25725 net.cpp:357] inception_5b/relu_1x1 -> inception_5b/1x1 (in-place)
I0704 13:25:07.646528 25725 net.cpp:120] Setting up inception_5b/relu_1x1
I0704 13:25:07.646581 25725 net.cpp:127] Top shape: 10 384 7 7 (188160)
I0704 13:25:07.646589 25725 layer_factory.hpp:74] Creating layer inception_5b/3x3_reduce
I0704 13:25:07.646596 25725 net.cpp:90] Creating Layer inception_5b/3x3_reduce
I0704 13:25:07.646602 25725 net.cpp:410] inception_5b/3x3_reduce <- inception_5a/output_inception_5a/output_0_split_1
I0704 13:25:07.646610 25725 net.cpp:368] inception_5b/3x3_reduce -> inception_5b/3x3_reduce
I0704 13:25:07.646617 25725 net.cpp:120] Setting up inception_5b/3x3_reduce
I0704 13:25:07.647724 25725 net.cpp:127] Top shape: 10 192 7 7 (94080)
I0704 13:25:07.647742 25725 layer_factory.hpp:74] Creating layer inception_5b/relu_3x3_reduce
I0704 13:25:07.647750 25725 net.cpp:90] Creating Layer inception_5b/relu_3x3_reduce
I0704 13:25:07.647759 25725 net.cpp:410] inception_5b/relu_3x3_reduce <- inception_5b/3x3_reduce
I0704 13:25:07.647790 25725 net.cpp:357] inception_5b/relu_3x3_reduce -> inception_5b/3x3_reduce (in-place)
I0704 13:25:07.647802 25725 net.cpp:120] Setting up inception_5b/relu_3x3_reduce
I0704 13:25:07.647871 25725 net.cpp:127] Top shape: 10 192 7 7 (94080)
I0704 13:25:07.647879 25725 layer_factory.hpp:74] Creating layer inception_5b/3x3
I0704 13:25:07.647888 25725 net.cpp:90] Creating Layer inception_5b/3x3
I0704 13:25:07.647894 25725 net.cpp:410] inception_5b/3x3 <- inception_5b/3x3_reduce
I0704 13:25:07.647902 25725 net.cpp:368] inception_5b/3x3 -> inception_5b/3x3
I0704 13:25:07.647909 25725 net.cpp:120] Setting up inception_5b/3x3
I0704 13:25:07.651474 25725 net.cpp:127] Top shape: 10 384 7 7 (188160)
I0704 13:25:07.651489 25725 layer_factory.hpp:74] Creating layer inception_5b/relu_3x3
I0704 13:25:07.651497 25725 net.cpp:90] Creating Layer inception_5b/relu_3x3
I0704 13:25:07.651504 25725 net.cpp:410] inception_5b/relu_3x3 <- inception_5b/3x3
I0704 13:25:07.651510 25725 net.cpp:357] inception_5b/relu_3x3 -> inception_5b/3x3 (in-place)
I0704 13:25:07.651516 25725 net.cpp:120] Setting up inception_5b/relu_3x3
I0704 13:25:07.651636 25725 net.cpp:127] Top shape: 10 384 7 7 (188160)
I0704 13:25:07.651645 25725 layer_factory.hpp:74] Creating layer inception_5b/5x5_reduce
I0704 13:25:07.651654 25725 net.cpp:90] Creating Layer inception_5b/5x5_reduce
I0704 13:25:07.651659 25725 net.cpp:410] inception_5b/5x5_reduce <- inception_5a/output_inception_5a/output_0_split_2
I0704 13:25:07.651666 25725 net.cpp:368] inception_5b/5x5_reduce -> inception_5b/5x5_reduce
I0704 13:25:07.651674 25725 net.cpp:120] Setting up inception_5b/5x5_reduce
I0704 13:25:07.652083 25725 net.cpp:127] Top shape: 10 48 7 7 (23520)
I0704 13:25:07.652096 25725 layer_factory.hpp:74] Creating layer inception_5b/relu_5x5_reduce
I0704 13:25:07.652102 25725 net.cpp:90] Creating Layer inception_5b/relu_5x5_reduce
I0704 13:25:07.652107 25725 net.cpp:410] inception_5b/relu_5x5_reduce <- inception_5b/5x5_reduce
I0704 13:25:07.652114 25725 net.cpp:357] inception_5b/relu_5x5_reduce -> inception_5b/5x5_reduce (in-place)
I0704 13:25:07.652122 25725 net.cpp:120] Setting up inception_5b/relu_5x5_reduce
I0704 13:25:07.652164 25725 net.cpp:127] Top shape: 10 48 7 7 (23520)
I0704 13:25:07.652170 25725 layer_factory.hpp:74] Creating layer inception_5b/5x5
I0704 13:25:07.652179 25725 net.cpp:90] Creating Layer inception_5b/5x5
I0704 13:25:07.652184 25725 net.cpp:410] inception_5b/5x5 <- inception_5b/5x5_reduce
I0704 13:25:07.652190 25725 net.cpp:368] inception_5b/5x5 -> inception_5b/5x5
I0704 13:25:07.652196 25725 net.cpp:120] Setting up inception_5b/5x5
I0704 13:25:07.653156 25725 net.cpp:127] Top shape: 10 128 7 7 (62720)
I0704 13:25:07.653168 25725 layer_factory.hpp:74] Creating layer inception_5b/relu_5x5
I0704 13:25:07.653175 25725 net.cpp:90] Creating Layer inception_5b/relu_5x5
I0704 13:25:07.653182 25725 net.cpp:410] inception_5b/relu_5x5 <- inception_5b/5x5
I0704 13:25:07.653203 25725 net.cpp:357] inception_5b/relu_5x5 -> inception_5b/5x5 (in-place)
I0704 13:25:07.653209 25725 net.cpp:120] Setting up inception_5b/relu_5x5
I0704 13:25:07.653252 25725 net.cpp:127] Top shape: 10 128 7 7 (62720)
I0704 13:25:07.653259 25725 layer_factory.hpp:74] Creating layer inception_5b/pool
I0704 13:25:07.653264 25725 layer_factory.cpp:55] CUDNN does not support padding or multiple tops. Using Caffe's own pooling layer.
I0704 13:25:07.653270 25725 net.cpp:90] Creating Layer inception_5b/pool
I0704 13:25:07.653275 25725 net.cpp:410] inception_5b/pool <- inception_5a/output_inception_5a/output_0_split_3
I0704 13:25:07.653281 25725 net.cpp:368] inception_5b/pool -> inception_5b/pool
I0704 13:25:07.653287 25725 net.cpp:120] Setting up inception_5b/pool
I0704 13:25:07.653295 25725 net.cpp:127] Top shape: 10 832 7 7 (407680)
I0704 13:25:07.653300 25725 layer_factory.hpp:74] Creating layer inception_5b/pool_proj
I0704 13:25:07.653307 25725 net.cpp:90] Creating Layer inception_5b/pool_proj
I0704 13:25:07.653312 25725 net.cpp:410] inception_5b/pool_proj <- inception_5b/pool
I0704 13:25:07.653318 25725 net.cpp:368] inception_5b/pool_proj -> inception_5b/pool_proj
I0704 13:25:07.653324 25725 net.cpp:120] Setting up inception_5b/pool_proj
I0704 13:25:07.654054 25725 net.cpp:127] Top shape: 10 128 7 7 (62720)
I0704 13:25:07.654067 25725 layer_factory.hpp:74] Creating layer inception_5b/relu_pool_proj
I0704 13:25:07.654072 25725 net.cpp:90] Creating Layer inception_5b/relu_pool_proj
I0704 13:25:07.654078 25725 net.cpp:410] inception_5b/relu_pool_proj <- inception_5b/pool_proj
I0704 13:25:07.654084 25725 net.cpp:357] inception_5b/relu_pool_proj -> inception_5b/pool_proj (in-place)
I0704 13:25:07.654090 25725 net.cpp:120] Setting up inception_5b/relu_pool_proj
I0704 13:25:07.654132 25725 net.cpp:127] Top shape: 10 128 7 7 (62720)
I0704 13:25:07.654139 25725 layer_factory.hpp:74] Creating layer inception_5b/output
I0704 13:25:07.654145 25725 net.cpp:90] Creating Layer inception_5b/output
I0704 13:25:07.654150 25725 net.cpp:410] inception_5b/output <- inception_5b/1x1
I0704 13:25:07.654155 25725 net.cpp:410] inception_5b/output <- inception_5b/3x3
I0704 13:25:07.654160 25725 net.cpp:410] inception_5b/output <- inception_5b/5x5
I0704 13:25:07.654165 25725 net.cpp:410] inception_5b/output <- inception_5b/pool_proj
I0704 13:25:07.654170 25725 net.cpp:368] inception_5b/output -> inception_5b/output
I0704 13:25:07.654176 25725 net.cpp:120] Setting up inception_5b/output
I0704 13:25:07.654183 25725 net.cpp:127] Top shape: 10 1024 7 7 (501760)
I0704 13:25:07.654188 25725 layer_factory.hpp:74] Creating layer pool5/7x7_s1
I0704 13:25:07.654194 25725 net.cpp:90] Creating Layer pool5/7x7_s1
I0704 13:25:07.654199 25725 net.cpp:410] pool5/7x7_s1 <- inception_5b/output
I0704 13:25:07.654206 25725 net.cpp:368] pool5/7x7_s1 -> pool5/7x7_s1
I0704 13:25:07.654211 25725 net.cpp:120] Setting up pool5/7x7_s1
I0704 13:25:07.654330 25725 net.cpp:127] Top shape: 10 1024 1 1 (10240)
I0704 13:25:07.654338 25725 layer_factory.hpp:74] Creating layer pool5/drop_7x7_s1
I0704 13:25:07.654345 25725 net.cpp:90] Creating Layer pool5/drop_7x7_s1
I0704 13:25:07.654350 25725 net.cpp:410] pool5/drop_7x7_s1 <- pool5/7x7_s1
I0704 13:25:07.654356 25725 net.cpp:357] pool5/drop_7x7_s1 -> pool5/7x7_s1 (in-place)
I0704 13:25:07.654362 25725 net.cpp:120] Setting up pool5/drop_7x7_s1
I0704 13:25:07.654368 25725 net.cpp:127] Top shape: 10 1024 1 1 (10240)
I0704 13:25:07.654373 25725 layer_factory.hpp:74] Creating layer stanford_cars_loss3/classifier
I0704 13:25:07.654381 25725 net.cpp:90] Creating Layer stanford_cars_loss3/classifier
I0704 13:25:07.654386 25725 net.cpp:410] stanford_cars_loss3/classifier <- pool5/7x7_s1
I0704 13:25:07.654392 25725 net.cpp:368] stanford_cars_loss3/classifier -> stanford_cars_loss3/classifier
I0704 13:25:07.654399 25725 net.cpp:120] Setting up stanford_cars_loss3/classifier
I0704 13:25:07.655390 25725 net.cpp:127] Top shape: 10 196 (1960)
I0704 13:25:07.655400 25725 layer_factory.hpp:74] Creating layer stanford_cars_loss3/classifier_stanford_cars_loss3/classifier_0_split
I0704 13:25:07.655413 25725 net.cpp:90] Creating Layer stanford_cars_loss3/classifier_stanford_cars_loss3/classifier_0_split
I0704 13:25:07.655418 25725 net.cpp:410] stanford_cars_loss3/classifier_stanford_cars_loss3/classifier_0_split <- stanford_cars_loss3/classifier
I0704 13:25:07.655426 25725 net.cpp:368] stanford_cars_loss3/classifier_stanford_cars_loss3/classifier_0_split -> stanford_cars_loss3/classifier_stanford_cars_loss3/classifier_0_split_0
I0704 13:25:07.655433 25725 net.cpp:368] stanford_cars_loss3/classifier_stanford_cars_loss3/classifier_0_split -> stanford_cars_loss3/classifier_stanford_cars_loss3/classifier_0_split_1
I0704 13:25:07.655439 25725 net.cpp:368] stanford_cars_loss3/classifier_stanford_cars_loss3/classifier_0_split -> stanford_cars_loss3/classifier_stanford_cars_loss3/classifier_0_split_2
I0704 13:25:07.655446 25725 net.cpp:120] Setting up stanford_cars_loss3/classifier_stanford_cars_loss3/classifier_0_split
I0704 13:25:07.655452 25725 net.cpp:127] Top shape: 10 196 (1960)
I0704 13:25:07.655457 25725 net.cpp:127] Top shape: 10 196 (1960)
I0704 13:25:07.655462 25725 net.cpp:127] Top shape: 10 196 (1960)
I0704 13:25:07.655465 25725 layer_factory.hpp:74] Creating layer loss3/loss3
I0704 13:25:07.655472 25725 net.cpp:90] Creating Layer loss3/loss3
I0704 13:25:07.655477 25725 net.cpp:410] loss3/loss3 <- stanford_cars_loss3/classifier_stanford_cars_loss3/classifier_0_split_0
I0704 13:25:07.655482 25725 net.cpp:410] loss3/loss3 <- label_data_1_split_6
I0704 13:25:07.655488 25725 net.cpp:368] loss3/loss3 -> loss3/loss3
…
