…
I0701 20:56:07.867801 29064 net.cpp:287] The NetState phase (0) differed from the phase (1) specified by a rule in layer loss3/top-5
I0701 20:56:07.868427 29064 net.cpp:42] Initializing net from parameters: 
name: "GoogleNet"
state {
  phase: TRAIN
}
layer {
  name: "data"
  type: "Data"
  top: "data"
  top: "label"
  include {
    phase: TRAIN
  }
  transform_param {
    mirror: true
    crop_size: 224
    mean_value: 104
    mean_value: 117
    mean_value: 123
  }
  data_param {
    source: "examples/stanford_cars/stanford_cars_train_lmdb"
    batch_size: 30
    backend: LMDB
  }
}
layer {
  name: "conv1/7x7_s2"
  type: "Convolution"
  bottom: "data"
  top: "conv1/7x7_s2"
  param {
    lr_mult: 1
    decay_mult: 1
  }
  param {
    lr_mult: 2
    decay_mult: 0
  }
  convolution_param {
    num_output: 64
    pad: 3
    kernel_size: 7
    stride: 2
    weight_filler {
      type: "xavier"
      std: 0.1
    }
    bias_filler {
      type: "constant"
      value: 0.2
    }
  }
}
layer {
  name: "conv1/relu_7x7"
  type: "ReLU"
  bottom: "conv1/7x7_s2"
  top: "conv1/7x7_s2"
}
layer {
  name: "pool1/3x3_s2"
  type: "Pooling"
  bottom: "conv1/7x7_s2"
  top: "pool1/3x3_s2"
  pooling_param {
    pool: MAX
    kernel_size: 3
    stride: 2
  }
}
layer {
  name: "pool1/norm1"
  type: "LRN"
  bottom: "pool1/3x3_s2"
  top: "pool1/norm1"
  lrn_param {
    local_size: 5
    alpha: 0.0001
    beta: 0.75
  }
}
layer {
  name: "conv2/3x3_reduce"
  type: "Convolution"
  bottom: "pool1/norm1"
  top: "conv2/3x3_reduce"
  param {
    lr_mult: 1
    decay_mult: 1
  }
  param {
    lr_mult: 2
    decay_mult: 0
  }
  convolution_param {
    num_output: 64
    kernel_size: 1
    weight_filler {
      type: "xavier"
      std: 0.1
    }
    bias_filler {
      type: "constant"
      value: 0.2
    }
  }
}
layer {
  name: "conv2/relu_3x3_reduce"
  type: "ReLU"
  bottom: "conv2/3x3_reduce"
  top: "conv2/3x3_reduce"
}
layer {
  name: "conv2/3x3"
  type: "Convolution"
  bottom: "conv2/3x3_reduce"
  top: "conv2/3x3"
  param {
    lr_mult: 1
    decay_mult: 1
  }
  param {
    lr_mult: 2
    decay_mult: 0
  }
  convolution_param {
    num_output: 192
    pad: 1
    kernel_size: 3
    weight_filler {
      type: "xavier"
      std: 0.03
    }
    bias_filler {
      type: "constant"
      value: 0.2
    }
  }
}
layer {
  name: "conv2/relu_3x3"
  type: "ReLU"
  bottom: "conv2/3x3"
  top: "conv2/3x3"
}
layer {
  name: "conv2/norm2"
  type: "LRN"
  bottom: "conv2/3x3"
  top: "conv2/norm2"
  lrn_param {
    local_size: 5
    alpha: 0.0001
    beta: 0.75
  }
}
layer {
  name: "pool2/3x3_s2"
  type: "Pooling"
  bottom: "conv2/norm2"
  top: "pool2/3x3_s2"
  pooling_param {
    pool: MAX
    kernel_size: 3
    stride: 2
  }
}
layer {
  name: "inception_3a/1x1"
  type: "Convolution"
  bottom: "pool2/3x3_s2"
  top: "inception_3a/1x1"
  param {
    lr_mult: 1
    decay_mult: 1
  }
  param {
    lr_mult: 2
    decay_mult: 0
  }
  convolution_param {
    num_output: 64
    kernel_size: 1
    weight_filler {
      type: "xavier"
      std: 0.03
    }
    bias_filler {
      type: "constant"
      value: 0.2
    }
  }
}
layer {
  name: "inception_3a/relu_1x1"
  type: "ReLU"
  bottom: "inception_3a/1x1"
  top: "inception_3a/1x1"
}
layer {
  name: "inception_3a/3x3_reduce"
  type: "Convolution"
  bottom: "pool2/3x3_s2"
  top: "inception_3a/3x3_reduce"
  param {
    lr_mult: 1
    decay_mult: 1
  }
  param {
    lr_mult: 2
    decay_mult: 0
  }
  convolution_param {
    num_output: 96
    kernel_size: 1
    weight_filler {
      type: "xavier"
      std: 0.09
    }
    bias_filler {
      type: "constant"
      value: 0.2
    }
  }
}
layer {
  name: "inception_3a/relu_3x3_reduce"
  type: "ReLU"
  bottom: "inception_3a/3x3_reduce"
  top: "inception_3a/3x3_reduce"
}
layer {
  name: "inception_3a/3x3"
  type: "Convolution"
  bottom: "inception_3a/3x3_reduce"
  top: "inception_3a/3x3"
  param {
    lr_mult: 1
    decay_mult: 1
  }
  param {
    lr_mult: 2
    decay_mult: 0
  }
  convolution_param {
    num_output: 128
    pad: 1
    kernel_size: 3
    weight_filler {
      type: "xavier"
      std: 0.03
    }
    bias_filler {
      type: "constant"
      value: 0.2
    }
  }
}
layer {
  name: "inception_3a/relu_3x3"
  type: "ReLU"
  bottom: "inception_3a/3x3"
  top: "inception_3a/3x3"
}
layer {
  name: "inception_3a/5x5_reduce"
  type: "Convolution"
  bottom: "pool2/3x3_s2"
  top: "inception_3a/5x5_reduce"
  param {
    lr_mult: 1
    decay_mult: 1
  }
  param {
    lr_mult: 2
    decay_mult: 0
  }
  convolution_param {
    num_output: 16
    kernel_size: 1
    weight_filler {
      type: "xavier"
      std: 0.2
    }
    bias_filler {
      type: "constant"
      value: 0.2
    }
  }
}
layer {
  name: "inception_3a/relu_5x5_reduce"
  type: "ReLU"
  bottom: "inception_3a/5x5_reduce"
  top: "inception_3a/5x5_reduce"
}
layer {
  name: "inception_3a/5x5"
  type: "Convolution"
  bottom: "inception_3a/5x5_reduce"
  top: "inception_3a/5x5"
  param {
    lr_mult: 1
    decay_mult: 1
  }
  param {
    lr_mult: 2
    decay_mult: 0
  }
  convolution_param {
    num_output: 32
    pad: 2
    kernel_size: 5
    weight_filler {
      type: "xavier"
      std: 0.03
    }
    bias_filler {
      type: "constant"
      value: 0.2
    }
  }
}
layer {
  name: "inception_3a/relu_5x5"
  type: "ReLU"
  bottom: "inception_3a/5x5"
  top: "inception_3a/5x5"
}
layer {
  name: "inception_3a/pool"
  type: "Pooling"
  bottom: "pool2/3x3_s2"
  top: "inception_3a/pool"
  pooling_param {
    pool: MAX
    kernel_size: 3
    stride: 1
    pad: 1
  }
}
layer {
  name: "inception_3a/pool_proj"
  type: "Convolution"
  bottom: "inception_3a/pool"
  top: "inception_3a/pool_proj"
  param {
    lr_mult: 1
    decay_mult: 1
  }
  param {
    lr_mult: 2
    decay_mult: 0
  }
  convolution_param {
    num_output: 32
    kernel_size: 1
    weight_filler {
      type: "xavier"
      std: 0.1
    }
    bias_filler {
      type: "constant"
      value: 0.2
    }
  }
}
layer {
  name: "inception_3a/relu_pool_proj"
  type: "ReLU"
  bottom: "inception_3a/pool_proj"
  top: "inception_3a/pool_proj"
}
layer {
  name: "inception_3a/output"
  type: "Concat"
  bottom: "inception_3a/1x1"
  bottom: "inception_3a/3x3"
  bottom: "inception_3a/5x5"
  bottom: "inception_3a/pool_proj"
  top: "inception_3a/output"
}
layer {
  name: "inception_3b/1x1"
  type: "Convolution"
  bottom: "inception_3a/output"
  top: "inception_3b/1x1"
  param {
    lr_mult: 1
    decay_mult: 1
  }
  param {
    lr_mult: 2
    decay_mult: 0
  }
  convolution_param {
    num_output: 128
    kernel_size: 1
    weight_filler {
      type: "xavier"
      std: 0.03
    }
    bias_filler {
      type: "constant"
      value: 0.2
    }
  }
}
layer {
  name: "inception_3b/relu_1x1"
  type: "ReLU"
  bottom: "inception_3b/1x1"
  top: "inception_3b/1x1"
}
layer {
  name: "inception_3b/3x3_reduce"
  type: "Convolution"
  bottom: "inception_3a/output"
  top: "inception_3b/3x3_reduce"
  param {
    lr_mult: 1
    decay_mult: 1
  }
  param {
    lr_mult: 2
    decay_mult: 0
  }
  convolution_param {
    num_output: 128
    kernel_size: 1
    weight_filler {
      type: "xavier"
      std: 0.09
    }
    bias_filler {
      type: "constant"
      value: 0.2
    }
  }
}
layer {
  name: "inception_3b/relu_3x3_reduce"
  type: "ReLU"
  bottom: "inception_3b/3x3_reduce"
  top: "inception_3b/3x3_reduce"
}
layer {
  name: "inception_3b/3x3"
  type: "Convolution"
  bottom: "inception_3b/3x3_reduce"
  top: "inception_3b/3x3"
  param {
    lr_mult: 1
    decay_mult: 1
  }
  param {
    lr_mult: 2
    decay_mult: 0
  }
  convolution_param {
    num_output: 192
    pad: 1
    kernel_size: 3
    weight_filler {
      type: "xavier"
      std: 0.03
    }
    bias_filler {
      type: "constant"
      value: 0.2
    }
  }
}
layer {
  name: "inception_3b/relu_3x3"
  type: "ReLU"
  bottom: "inception_3b/3x3"
  top: "inception_3b/3x3"
}
layer {
  name: "inception_3b/5x5_reduce"
  type: "Convolution"
  bottom: "inception_3a/output"
  top: "inception_3b/5x5_reduce"
  param {
    lr_mult: 1
    decay_mult: 1
  }
  param {
    lr_mult: 2
    decay_mult: 0
  }
  convolution_param {
    num_output: 32
    kernel_size: 1
    weight_filler {
      type: "xavier"
      std: 0.2
    }
    bias_filler {
      type: "constant"
      value: 0.2
    }
  }
}
layer {
  name: "inception_3b/relu_5x5_reduce"
  type: "ReLU"
  bottom: "inception_3b/5x5_reduce"
  top: "inception_3b/5x5_reduce"
}
layer {
  name: "inception_3b/5x5"
  type: "Convolution"
  bottom: "inception_3b/5x5_reduce"
  top: "inception_3b/5x5"
  param {
    lr_mult: 1
    decay_mult: 1
  }
  param {
    lr_mult: 2
    decay_mult: 0
  }
  convolution_param {
    num_output: 96
    pad: 2
    kernel_size: 5
    weight_filler {
      type: "xavier"
      std: 0.03
    }
    bias_filler {
      type: "constant"
      value: 0.2
    }
  }
}
layer {
  name: "inception_3b/relu_5x5"
  type: "ReLU"
  bottom: "inception_3b/5x5"
  top: "inception_3b/5x5"
}
layer {
  name: "inception_3b/pool"
  type: "Pooling"
  bottom: "inception_3a/output"
  top: "inception_3b/pool"
  pooling_param {
    pool: MAX
    kernel_size: 3
    stride: 1
    pad: 1
  }
}
layer {
  name: "inception_3b/pool_proj"
  type: "Convolution"
  bottom: "inception_3b/pool"
  top: "inception_3b/pool_proj"
  param {
    lr_mult: 1
    decay_mult: 1
  }
  param {
    lr_mult: 2
    decay_mult: 0
  }
  convolution_param {
    num_output: 64
    kernel_size: 1
    weight_filler {
      type: "xavier"
      std: 0.1
    }
    bias_filler {
      type: "constant"
      value: 0.2
    }
  }
}
layer {
  name: "inception_3b/relu_pool_proj"
  type: "ReLU"
  bottom: "inception_3b/pool_proj"
  top: "inception_3b/pool_proj"
}
layer {
  name: "inception_3b/output"
  type: "Concat"
  bottom: "inception_3b/1x1"
  bottom: "inception_3b/3x3"
  bottom: "inception_3b/5x5"
  bottom: "inception_3b/pool_proj"
  top: "inception_3b/output"
}
layer {
  name: "pool3/3x3_s2"
  type: "Pooling"
  bottom: "inception_3b/output"
  top: "pool3/3x3_s2"
  pooling_param {
    pool: MAX
    kernel_size: 3
    stride: 2
  }
}
layer {
  name: "inception_4a/1x1"
  type: "Convolution"
  bottom: "pool3/3x3_s2"
  top: "inception_4a/1x1"
  param {
    lr_mult: 1
    decay_mult: 1
  }
  param {
    lr_mult: 2
    decay_mult: 0
  }
  convolution_param {
    num_output: 192
    kernel_size: 1
    weight_filler {
      type: "xavier"
      std: 0.03
    }
    bias_filler {
      type: "constant"
      value: 0.2
    }
  }
}
layer {
  name: "inception_4a/relu_1x1"
  type: "ReLU"
  bottom: "inception_4a/1x1"
  top: "inception_4a/1x1"
}
layer {
  name: "inception_4a/3x3_reduce"
  type: "Convolution"
  bottom: "pool3/3x3_s2"
  top: "inception_4a/3x3_reduce"
  param {
    lr_mult: 1
    decay_mult: 1
  }
  param {
    lr_mult: 2
    decay_mult: 0
  }
  convolution_param {
    num_output: 96
    kernel_size: 1
    weight_filler {
      type: "xavier"
      std: 0.09
    }
    bias_filler {
      type: "constant"
      value: 0.2
    }
  }
}
layer {
  name: "inception_4a/relu_3x3_reduce"
  type: "ReLU"
  bottom: "inception_4a/3x3_reduce"
  top: "inception_4a/3x3_reduce"
}
layer {
  name: "inception_4a/3x3"
  type: "Convolution"
  bottom: "inception_4a/3x3_reduce"
  top: "inception_4a/3x3"
  param {
    lr_mult: 1
    decay_mult: 1
  }
  param {
    lr_mult: 2
    decay_mult: 0
  }
  convolution_param {
    num_output: 208
    pad: 1
    kernel_size: 3
    weight_filler {
      type: "xavier"
      std: 0.03
    }
    bias_filler {
      type: "constant"
      value: 0.2
    }
  }
}
layer {
  name: "inception_4a/relu_3x3"
  type: "ReLU"
  bottom: "inception_4a/3x3"
  top: "inception_4a/3x3"
}
layer {
  name: "inception_4a/5x5_reduce"
  type: "Convolution"
  bottom: "pool3/3x3_s2"
  top: "inception_4a/5x5_reduce"
  param {
    lr_mult: 1
    decay_mult: 1
  }
  param {
    lr_mult: 2
    decay_mult: 0
  }
  convolution_param {
    num_output: 16
    kernel_size: 1
    weight_filler {
      type: "xavier"
      std: 0.2
    }
    bias_filler {
      type: "constant"
      value: 0.2
    }
  }
}
layer {
  name: "inception_4a/relu_5x5_reduce"
  type: "ReLU"
  bottom: "inception_4a/5x5_reduce"
  top: "inception_4a/5x5_reduce"
}
layer {
  name: "inception_4a/5x5"
  type: "Convolution"
  bottom: "inception_4a/5x5_reduce"
  top: "inception_4a/5x5"
  param {
    lr_mult: 1
    decay_mult: 1
  }
  param {
    lr_mult: 2
    decay_mult: 0
  }
  convolution_param {
    num_output: 48
    pad: 2
    kernel_size: 5
    weight_filler {
      type: "xavier"
      std: 0.03
    }
    bias_filler {
      type: "constant"
      value: 0.2
    }
  }
}
layer {
  name: "inception_4a/relu_5x5"
  type: "ReLU"
  bottom: "inception_4a/5x5"
  top: "inception_4a/5x5"
}
layer {
  name: "inception_4a/pool"
  type: "Pooling"
  bottom: "pool3/3x3_s2"
  top: "inception_4a/pool"
  pooling_param {
    pool: MAX
    kernel_size: 3
    stride: 1
    pad: 1
  }
}
layer {
  name: "inception_4a/pool_proj"
  type: "Convolution"
  bottom: "inception_4a/pool"
  top: "inception_4a/pool_proj"
  param {
    lr_mult: 1
    decay_mult: 1
  }
  param {
    lr_mult: 2
    decay_mult: 0
  }
  convolution_param {
    num_output: 64
    kernel_size: 1
    weight_filler {
      type: "xavier"
      std: 0.1
    }
    bias_filler {
      type: "constant"
      value: 0.2
    }
  }
}
layer {
  name: "inception_4a/relu_pool_proj"
  type: "ReLU"
  bottom: "inception_4a/pool_proj"
  top: "inception_4a/pool_proj"
}
layer {
  name: "inception_4a/output"
  type: "Concat"
  bottom: "inception_4a/1x1"
  bottom: "inception_4a/3x3"
  bottom: "inception_4a/5x5"
  bottom: "inception_4a/pool_proj"
  top: "inception_4a/output"
}
layer {
  name: "loss1/ave_pool"
  type: "Pooling"
  bottom: "inception_4a/output"
  top: "loss1/ave_pool"
  pooling_param {
    pool: AVE
    kernel_size: 5
    stride: 3
  }
}
layer {
  name: "loss1/conv"
  type: "Convolution"
  bottom: "loss1/ave_pool"
  top: "loss1/conv"
  param {
    lr_mult: 1
    decay_mult: 1
  }
  param {
    lr_mult: 2
    decay_mult: 0
  }
  convolution_param {
    num_output: 128
    kernel_size: 1
    weight_filler {
      type: "xavier"
      std: 0.08
    }
    bias_filler {
      type: "constant"
      value: 0.2
    }
  }
}
layer {
  name: "loss1/relu_conv"
  type: "ReLU"
  bottom: "loss1/conv"
  top: "loss1/conv"
}
layer {
  name: "loss1/fc"
  type: "InnerProduct"
  bottom: "loss1/conv"
  top: "loss1/fc"
  param {
    lr_mult: 1
    decay_mult: 1
  }
  param {
    lr_mult: 2
    decay_mult: 0
  }
  inner_product_param {
    num_output: 1024
    weight_filler {
      type: "xavier"
      std: 0.02
    }
    bias_filler {
      type: "constant"
      value: 0.2
    }
  }
}
layer {
  name: "loss1/relu_fc"
  type: "ReLU"
  bottom: "loss1/fc"
  top: "loss1/fc"
}
layer {
  name: "loss1/drop_fc"
  type: "Dropout"
  bottom: "loss1/fc"
  top: "loss1/fc"
  dropout_param {
    dropout_ratio: 0.2
  }
}
layer {
  name: "stanford_cars_loss1/classifier"
  type: "InnerProduct"
  bottom: "loss1/fc"
  top: "stanford_cars_loss1/classifier"
  param {
    lr_mult: 1
    decay_mult: 1
  }
  param {
    lr_mult: 2
    decay_mult: 0
  }
  inner_product_param {
    num_output: 196
    weight_filler {
      type: "xavier"
      std: 0.0009765625
    }
    bias_filler {
      type: "constant"
      value: 0
    }
  }
}
layer {
  name: "loss1/loss"
  type: "SoftmaxWithLoss"
  bottom: "stanford_cars_loss1/classifier"
  bottom: "label"
  top: "loss1/loss1"
  loss_weight: 0.3
}
layer {
  name: "inception_4b/1x1"
  type: "Convolution"
  bottom: "inception_4a/output"
  top: "inception_4b/1x1"
  param {
    lr_mult: 1
    decay_mult: 1
  }
  param {
    lr_mult: 2
    decay_mult: 0
  }
  convolution_param {
    num_output: 160
    kernel_size: 1
    weight_filler {
      type: "xavier"
      std: 0.03
    }
    bias_filler {
      type: "constant"
      value: 0.2
    }
  }
}
layer {
  name: "inception_4b/relu_1x1"
  type: "ReLU"
  bottom: "inception_4b/1x1"
  top: "inception_4b/1x1"
}
layer {
  name: "inception_4b/3x3_reduce"
  type: "Convolution"
  bottom: "inception_4a/output"
  top: "inception_4b/3x3_reduce"
  param {
    lr_mult: 1
    decay_mult: 1
  }
  param {
    lr_mult: 2
    decay_mult: 0
  }
  convolution_param {
    num_output: 112
    kernel_size: 1
    weight_filler {
      type: "xavier"
      std: 0.09
    }
    bias_filler {
      type: "constant"
      value: 0.2
    }
  }
}
layer {
  name: "inception_4b/relu_3x3_reduce"
  type: "ReLU"
  bottom: "inception_4b/3x3_reduce"
  top: "inception_4b/3x3_reduce"
}
layer {
  name: "inception_4b/3x3"
  type: "Convolution"
  bottom: "inception_4b/3x3_reduce"
  top: "inception_4b/3x3"
  param {
    lr_mult: 1
    decay_mult: 1
  }
  param {
    lr_mult: 2
    decay_mult: 0
  }
  convolution_param {
    num_output: 224
    pad: 1
    kernel_size: 3
    weight_filler {
      type: "xavier"
      std: 0.03
    }
    bias_filler {
      type: "constant"
      value: 0.2
    }
  }
}
layer {
  name: "inception_4b/relu_3x3"
  type: "ReLU"
  bottom: "inception_4b/3x3"
  top: "inception_4b/3x3"
}
layer {
  name: "inception_4b/5x5_reduce"
  type: "Convolution"
  bottom: "inception_4a/output"
  top: "inception_4b/5x5_reduce"
  param {
    lr_mult: 1
    decay_mult: 1
  }
  param {
    lr_mult: 2
    decay_mult: 0
  }
  convolution_param {
    num_output: 24
    kernel_size: 1
    weight_filler {
      type: "xavier"
      std: 0.2
    }
    bias_filler {
      type: "constant"
      value: 0.2
    }
  }
}
layer {
  name: "inception_4b/relu_5x5_reduce"
  type: "ReLU"
  bottom: "inception_4b/5x5_reduce"
  top: "inception_4b/5x5_reduce"
}
layer {
  name: "inception_4b/5x5"
  type: "Convolution"
  bottom: "inception_4b/5x5_reduce"
  top: "inception_4b/5x5"
  param {
    lr_mult: 1
    decay_mult: 1
  }
  param {
    lr_mult: 2
    decay_mult: 0
  }
  convolution_param {
    num_output: 64
    pad: 2
    kernel_size: 5
    weight_filler {
      type: "xavier"
      std: 0.03
    }
    bias_filler {
      type: "constant"
      value: 0.2
    }
  }
}
layer {
  name: "inception_4b/relu_5x5"
  type: "ReLU"
  bottom: "inception_4b/5x5"
  top: "inception_4b/5x5"
}
layer {
  name: "inception_4b/pool"
  type: "Pooling"
  bottom: "inception_4a/output"
  top: "inception_4b/pool"
  pooling_param {
    pool: MAX
    kernel_size: 3
    stride: 1
    pad: 1
  }
}
layer {
  name: "inception_4b/pool_proj"
  type: "Convolution"
  bottom: "inception_4b/pool"
  top: "inception_4b/pool_proj"
  param {
    lr_mult: 1
    decay_mult: 1
  }
  param {
    lr_mult: 2
    decay_mult: 0
  }
  convolution_param {
    num_output: 64
    kernel_size: 1
    weight_filler {
      type: "xavier"
      std: 0.1
    }
    bias_filler {
      type: "constant"
      value: 0.2
    }
  }
}
layer {
  name: "inception_4b/relu_pool_proj"
  type: "ReLU"
  bottom: "inception_4b/pool_proj"
  top: "inception_4b/pool_proj"
}
layer {
  name: "inception_4b/output"
  type: "Concat"
  bottom: "inception_4b/1x1"
  bottom: "inception_4b/3x3"
  bottom: "inception_4b/5x5"
  bottom: "inception_4b/pool_proj"
  top: "inception_4b/output"
}
layer {
  name: "inception_4c/1x1"
  type: "Convolution"
  bottom: "inception_4b/output"
  top: "inception_4c/1x1"
  param {
    lr_mult: 1
    decay_mult: 1
  }
  param {
    lr_mult: 2
    decay_mult: 0
  }
  convolution_param {
    num_output: 128
    kernel_size: 1
    weight_filler {
      type: "xavier"
      std: 0.03
    }
    bias_filler {
      type: "constant"
      value: 0.2
    }
  }
}
layer {
  name: "inception_4c/relu_1x1"
  type: "ReLU"
  bottom: "inception_4c/1x1"
  top: "inception_4c/1x1"
}
layer {
  name: "inception_4c/3x3_reduce"
  type: "Convolution"
  bottom: "inception_4b/output"
  top: "inception_4c/3x3_reduce"
  param {
    lr_mult: 1
    decay_mult: 1
  }
  param {
    lr_mult: 2
    decay_mult: 0
  }
  convolution_param {
    num_output: 128
    kernel_size: 1
    weight_filler {
      type: "xavier"
      std: 0.09
    }
    bias_filler {
      type: "constant"
      value: 0.2
    }
  }
}
layer {
  name: "inception_4c/relu_3x3_reduce"
  type: "ReLU"
  bottom: "inception_4c/3x3_reduce"
  top: "inception_4c/3x3_reduce"
}
layer {
  name: "inception_4c/3x3"
  type: "Convolution"
  bottom: "inception_4c/3x3_reduce"
  top: "inception_4c/3x3"
  param {
    lr_mult: 1
    decay_mult: 1
  }
  param {
    lr_mult: 2
    decay_mult: 0
  }
  convolution_param {
    num_output: 256
    pad: 1
    kernel_size: 3
    weight_filler {
      type: "xavier"
      std: 0.03
    }
    bias_filler {
      type: "constant"
      value: 0.2
    }
  }
}
layer {
  name: "inception_4c/relu_3x3"
  type: "ReLU"
  bottom: "inception_4c/3x3"
  top: "inception_4c/3x3"
}
layer {
  name: "inception_4c/5x5_reduce"
  type: "Convolution"
  bottom: "inception_4b/output"
  top: "inception_4c/5x5_reduce"
  param {
    lr_mult: 1
    decay_mult: 1
  }
  param {
    lr_mult: 2
    decay_mult: 0
  }
  convolution_param {
    num_output: 24
    kernel_size: 1
    weight_filler {
      type: "xavier"
      std: 0.2
    }
    bias_filler {
      type: "constant"
      value: 0.2
    }
  }
}
layer {
  name: "inception_4c/relu_5x5_reduce"
  type: "ReLU"
  bottom: "inception_4c/5x5_reduce"
  top: "inception_4c/5x5_reduce"
}
layer {
  name: "inception_4c/5x5"
  type: "Convolution"
  bottom: "inception_4c/5x5_reduce"
  top: "inception_4c/5x5"
  param {
    lr_mult: 1
    decay_mult: 1
  }
  param {
    lr_mult: 2
    decay_mult: 0
  }
  convolution_param {
    num_output: 64
    pad: 2
    kernel_size: 5
    weight_filler {
      type: "xavier"
      std: 0.03
    }
    bias_filler {
      type: "constant"
      value: 0.2
    }
  }
}
layer {
  name: "inception_4c/relu_5x5"
  type: "ReLU"
  bottom: "inception_4c/5x5"
  top: "inception_4c/5x5"
}
layer {
  name: "inception_4c/pool"
  type: "Pooling"
  bottom: "inception_4b/output"
  top: "inception_4c/pool"
  pooling_param {
    pool: MAX
    kernel_size: 3
    stride: 1
    pad: 1
  }
}
layer {
  name: "inception_4c/pool_proj"
  type: "Convolution"
  bottom: "inception_4c/pool"
  top: "inception_4c/pool_proj"
  param {
    lr_mult: 1
    decay_mult: 1
  }
  param {
    lr_mult: 2
    decay_mult: 0
  }
  convolution_param {
    num_output: 64
    kernel_size: 1
    weight_filler {
      type: "xavier"
      std: 0.1
    }
    bias_filler {
      type: "constant"
      value: 0.2
    }
  }
}
layer {
  name: "inception_4c/relu_pool_proj"
  type: "ReLU"
  bottom: "inception_4c/pool_proj"
  top: "inception_4c/pool_proj"
}
layer {
  name: "inception_4c/output"
  type: "Concat"
  bottom: "inception_4c/1x1"
  bottom: "inception_4c/3x3"
  bottom: "inception_4c/5x5"
  bottom: "inception_4c/pool_proj"
  top: "inception_4c/output"
}
layer {
  name: "inception_4d/1x1"
  type: "Convolution"
  bottom: "inception_4c/output"
  top: "inception_4d/1x1"
  param {
    lr_mult: 1
    decay_mult: 1
  }
  param {
    lr_mult: 2
    decay_mult: 0
  }
  convolution_param {
    num_output: 112
    kernel_size: 1
    weight_filler {
      type: "xavier"
      std: 0.03
    }
    bias_filler {
      type: "constant"
      value: 0.2
    }
  }
}
layer {
  name: "inception_4d/relu_1x1"
  type: "ReLU"
  bottom: "inception_4d/1x1"
  top: "inception_4d/1x1"
}
layer {
  name: "inception_4d/3x3_reduce"
  type: "Convolution"
  bottom: "inception_4c/output"
  top: "inception_4d/3x3_reduce"
  param {
    lr_mult: 1
    decay_mult: 1
  }
  param {
    lr_mult: 2
    decay_mult: 0
  }
  convolution_param {
    num_output: 144
    kernel_size: 1
    weight_filler {
      type: "xavier"
      std: 0.09
    }
    bias_filler {
      type: "constant"
      value: 0.2
    }
  }
}
layer {
  name: "inception_4d/relu_3x3_reduce"
  type: "ReLU"
  bottom: "inception_4d/3x3_reduce"
  top: "inception_4d/3x3_reduce"
}
layer {
  name: "inception_4d/3x3"
  type: "Convolution"
  bottom: "inception_4d/3x3_reduce"
  top: "inception_4d/3x3"
  param {
    lr_mult: 1
    decay_mult: 1
  }
  param {
    lr_mult: 2
    decay_mult: 0
  }
  convolution_param {
    num_output: 288
    pad: 1
    kernel_size: 3
    weight_filler {
      type: "xavier"
      std: 0.03
    }
    bias_filler {
      type: "constant"
      value: 0.2
    }
  }
}
layer {
  name: "inception_4d/relu_3x3"
  type: "ReLU"
  bottom: "inception_4d/3x3"
  top: "inception_4d/3x3"
}
layer {
  name: "inception_4d/5x5_reduce"
  type: "Convolution"
  bottom: "inception_4c/output"
  top: "inception_4d/5x5_reduce"
  param {
    lr_mult: 1
    decay_mult: 1
  }
  param {
    lr_mult: 2
    decay_mult: 0
  }
  convolution_param {
    num_output: 32
    kernel_size: 1
    weight_filler {
      type: "xavier"
      std: 0.2
    }
    bias_filler {
      type: "constant"
      value: 0.2
    }
  }
}
layer {
  name: "inception_4d/relu_5x5_reduce"
  type: "ReLU"
  bottom: "inception_4d/5x5_reduce"
  top: "inception_4d/5x5_reduce"
}
layer {
  name: "inception_4d/5x5"
  type: "Convolution"
  bottom: "inception_4d/5x5_reduce"
  top: "inception_4d/5x5"
  param {
    lr_mult: 1
    decay_mult: 1
  }
  param {
    lr_mult: 2
    decay_mult: 0
  }
  convolution_param {
    num_output: 64
    pad: 2
    kernel_size: 5
    weight_filler {
      type: "xavier"
      std: 0.03
    }
    bias_filler {
      type: "constant"
      value: 0.2
    }
  }
}
layer {
  name: "inception_4d/relu_5x5"
  type: "ReLU"
  bottom: "inception_4d/5x5"
  top: "inception_4d/5x5"
}
layer {
  name: "inception_4d/pool"
  type: "Pooling"
  bottom: "inception_4c/output"
  top: "inception_4d/pool"
  pooling_param {
    pool: MAX
    kernel_size: 3
    stride: 1
    pad: 1
  }
}
layer {
  name: "inception_4d/pool_proj"
  type: "Convolution"
  bottom: "inception_4d/pool"
  top: "inception_4d/pool_proj"
  param {
    lr_mult: 1
    decay_mult: 1
  }
  param {
    lr_mult: 2
    decay_mult: 0
  }
  convolution_param {
    num_output: 64
    kernel_size: 1
    weight_filler {
      type: "xavier"
      std: 0.1
    }
    bias_filler {
      type: "constant"
      value: 0.2
    }
  }
}
layer {
  name: "inception_4d/relu_pool_proj"
  type: "ReLU"
  bottom: "inception_4d/pool_proj"
  top: "inception_4d/pool_proj"
}
layer {
  name: "inception_4d/output"
  type: "Concat"
  bottom: "inception_4d/1x1"
  bottom: "inception_4d/3x3"
  bottom: "inception_4d/5x5"
  bottom: "inception_4d/pool_proj"
  top: "inception_4d/output"
}
layer {
  name: "loss2/ave_pool"
  type: "Pooling"
  bottom: "inception_4d/output"
  top: "loss2/ave_pool"
  pooling_param {
    pool: AVE
    kernel_size: 5
    stride: 3
  }
}
layer {
  name: "loss2/conv"
  type: "Convolution"
  bottom: "loss2/ave_pool"
  top: "loss2/conv"
  param {
    lr_mult: 1
    decay_mult: 1
  }
  param {
    lr_mult: 2
    decay_mult: 0
  }
  convolution_param {
    num_output: 128
    kernel_size: 1
    weight_filler {
      type: "xavier"
      std: 0.08
    }
    bias_filler {
      type: "constant"
      value: 0.2
    }
  }
}
layer {
  name: "loss2/relu_conv"
  type: "ReLU"
  bottom: "loss2/conv"
  top: "loss2/conv"
}
layer {
  name: "loss2/fc"
  type: "InnerProduct"
  bottom: "loss2/conv"
  top: "loss2/fc"
  param {
    lr_mult: 1
    decay_mult: 1
  }
  param {
    lr_mult: 2
    decay_mult: 0
  }
  inner_product_param {
    num_output: 1024
    weight_filler {
      type: "xavier"
      std: 0.02
    }
    bias_filler {
      type: "constant"
      value: 0.2
    }
  }
}
layer {
  name: "loss2/relu_fc"
  type: "ReLU"
  bottom: "loss2/fc"
  top: "loss2/fc"
}
layer {
  name: "loss2/drop_fc"
  type: "Dropout"
  bottom: "loss2/fc"
  top: "loss2/fc"
  dropout_param {
    dropout_ratio: 0.2
  }
}
layer {
  name: "stanford_cars_loss2/classifier"
  type: "InnerProduct"
  bottom: "loss2/fc"
  top: "stanford_cars_loss2/classifier"
  param {
    lr_mult: 1
    decay_mult: 1
  }
  param {
    lr_mult: 2
    decay_mult: 0
  }
  inner_product_param {
    num_output: 196
    weight_filler {
      type: "xavier"
      std: 0.0009765625
    }
    bias_filler {
      type: "constant"
      value: 0
    }
  }
}
layer {
  name: "stanford_cars_loss2/loss"
  type: "SoftmaxWithLoss"
  bottom: "stanford_cars_loss2/classifier"
  bottom: "label"
  top: "loss2/loss1"
  loss_weight: 0.3
}
layer {
  name: "inception_4e/1x1"
  type: "Convolution"
  bottom: "inception_4d/output"
  top: "inception_4e/1x1"
  param {
    lr_mult: 1
    decay_mult: 1
  }
  param {
    lr_mult: 2
    decay_mult: 0
  }
  convolution_param {
    num_output: 256
    kernel_size: 1
    weight_filler {
      type: "xavier"
      std: 0.03
    }
    bias_filler {
      type: "constant"
      value: 0.2
    }
  }
}
layer {
  name: "inception_4e/relu_1x1"
  type: "ReLU"
  bottom: "inception_4e/1x1"
  top: "inception_4e/1x1"
}
layer {
  name: "inception_4e/3x3_reduce"
  type: "Convolution"
  bottom: "inception_4d/output"
  top: "inception_4e/3x3_reduce"
  param {
    lr_mult: 1
    decay_mult: 1
  }
  param {
    lr_mult: 2
    decay_mult: 0
  }
  convolution_param {
    num_output: 160
    kernel_size: 1
    weight_filler {
      type: "xavier"
      std: 0.09
    }
    bias_filler {
      type: "constant"
      value: 0.2
    }
  }
}
layer {
  name: "inception_4e/relu_3x3_reduce"
  type: "ReLU"
  bottom: "inception_4e/3x3_reduce"
  top: "inception_4e/3x3_reduce"
}
layer {
  name: "inception_4e/3x3"
  type: "Convolution"
  bottom: "inception_4e/3x3_reduce"
  top: "inception_4e/3x3"
  param {
    lr_mult: 1
    decay_mult: 1
  }
  param {
    lr_mult: 2
    decay_mult: 0
  }
  convolution_param {
    num_output: 320
    pad: 1
    kernel_size: 3
    weight_filler {
      type: "xavier"
      std: 0.03
    }
    bias_filler {
      type: "constant"
      value: 0.2
    }
  }
}
layer {
  name: "inception_4e/relu_3x3"
  type: "ReLU"
  bottom: "inception_4e/3x3"
  top: "inception_4e/3x3"
}
layer {
  name: "inception_4e/5x5_reduce"
  type: "Convolution"
  bottom: "inception_4d/output"
  top: "inception_4e/5x5_reduce"
  param {
    lr_mult: 1
    decay_mult: 1
  }
  param {
    lr_mult: 2
    decay_mult: 0
  }
  convolution_param {
    num_output: 32
    kernel_size: 1
    weight_filler {
      type: "xavier"
      std: 0.2
    }
    
I0701 20:56:07.879528 29064 layer_factory.hpp:74] Creating layer data
I0701 20:56:07.934527 29064 net.cpp:90] Creating Layer data
I0701 20:56:07.934552 29064 net.cpp:368] data -> data
I0701 20:56:07.934578 29064 net.cpp:368] data -> label
I0701 20:56:07.934602 29064 net.cpp:120] Setting up data
I0701 20:56:07.982245 29064 db.cpp:34] Opened lmdb examples/stanford_cars/stanford_cars_train_lmdb
I0701 20:56:08.005121 29064 data_layer.cpp:67] output data size: 30,3,224,224
I0701 20:56:08.007838 29064 net.cpp:127] Top shape: 30 3 224 224 (4515840)
I0701 20:56:08.007866 29064 net.cpp:127] Top shape: 30 (30)
I0701 20:56:08.007875 29064 layer_factory.hpp:74] Creating layer label_data_1_split
I0701 20:56:08.008160 29064 net.cpp:90] Creating Layer label_data_1_split
I0701 20:56:08.008183 29064 net.cpp:410] label_data_1_split <- label
I0701 20:56:08.008211 29064 net.cpp:368] label_data_1_split -> label_data_1_split_0
I0701 20:56:08.008229 29064 net.cpp:368] label_data_1_split -> label_data_1_split_1
I0701 20:56:08.008241 29064 net.cpp:368] label_data_1_split -> label_data_1_split_2
I0701 20:56:08.008249 29064 net.cpp:120] Setting up label_data_1_split
I0701 20:56:08.008261 29064 net.cpp:127] Top shape: 30 (30)
I0701 20:56:08.008294 29064 net.cpp:127] Top shape: 30 (30)
I0701 20:56:08.008311 29064 net.cpp:127] Top shape: 30 (30)
I0701 20:56:08.008316 29064 layer_factory.hpp:74] Creating layer conv1/7x7_s2
I0701 20:56:08.008327 29064 net.cpp:90] Creating Layer conv1/7x7_s2
I0701 20:56:08.008335 29064 net.cpp:410] conv1/7x7_s2 <- data
I0701 20:56:08.008342 29064 net.cpp:368] conv1/7x7_s2 -> conv1/7x7_s2
I0701 20:56:08.008358 29064 net.cpp:120] Setting up conv1/7x7_s2
I0701 20:56:09.018674 29064 net.cpp:127] Top shape: 30 64 112 112 (24084480)
I0701 20:56:09.018702 29064 layer_factory.hpp:74] Creating layer conv1/relu_7x7
I0701 20:56:09.018709 29064 net.cpp:90] Creating Layer conv1/relu_7x7
I0701 20:56:09.018713 29064 net.cpp:410] conv1/relu_7x7 <- conv1/7x7_s2
I0701 20:56:09.018718 29064 net.cpp:357] conv1/relu_7x7 -> conv1/7x7_s2 (in-place)
I0701 20:56:09.018724 29064 net.cpp:120] Setting up conv1/relu_7x7
I0701 20:56:09.018762 29064 net.cpp:127] Top shape: 30 64 112 112 (24084480)
I0701 20:56:09.018766 29064 layer_factory.hpp:74] Creating layer pool1/3x3_s2
I0701 20:56:09.018774 29064 net.cpp:90] Creating Layer pool1/3x3_s2
I0701 20:56:09.018776 29064 net.cpp:410] pool1/3x3_s2 <- conv1/7x7_s2
I0701 20:56:09.018780 29064 net.cpp:368] pool1/3x3_s2 -> pool1/3x3_s2
I0701 20:56:09.018785 29064 net.cpp:120] Setting up pool1/3x3_s2
I0701 20:56:09.018898 29064 net.cpp:127] Top shape: 30 64 56 56 (6021120)
I0701 20:56:09.018903 29064 layer_factory.hpp:74] Creating layer pool1/norm1
I0701 20:56:09.018909 29064 net.cpp:90] Creating Layer pool1/norm1
I0701 20:56:09.018913 29064 net.cpp:410] pool1/norm1 <- pool1/3x3_s2
I0701 20:56:09.018916 29064 net.cpp:368] pool1/norm1 -> pool1/norm1
I0701 20:56:09.018921 29064 net.cpp:120] Setting up pool1/norm1
I0701 20:56:09.018928 29064 net.cpp:127] Top shape: 30 64 56 56 (6021120)
I0701 20:56:09.018929 29064 layer_factory.hpp:74] Creating layer conv2/3x3_reduce
I0701 20:56:09.018936 29064 net.cpp:90] Creating Layer conv2/3x3_reduce
I0701 20:56:09.018939 29064 net.cpp:410] conv2/3x3_reduce <- pool1/norm1
I0701 20:56:09.018942 29064 net.cpp:368] conv2/3x3_reduce -> conv2/3x3_reduce
I0701 20:56:09.018949 29064 net.cpp:120] Setting up conv2/3x3_reduce
I0701 20:56:09.019151 29064 net.cpp:127] Top shape: 30 64 56 56 (6021120)
I0701 20:56:09.019160 29064 layer_factory.hpp:74] Creating layer conv2/relu_3x3_reduce
I0701 20:56:09.019165 29064 net.cpp:90] Creating Layer conv2/relu_3x3_reduce
I0701 20:56:09.019168 29064 net.cpp:410] conv2/relu_3x3_reduce <- conv2/3x3_reduce
I0701 20:56:09.019171 29064 net.cpp:357] conv2/relu_3x3_reduce -> conv2/3x3_reduce (in-place)
I0701 20:56:09.019176 29064 net.cpp:120] Setting up conv2/relu_3x3_reduce
I0701 20:56:09.019208 29064 net.cpp:127] Top shape: 30 64 56 56 (6021120)
I0701 20:56:09.019212 29064 layer_factory.hpp:74] Creating layer conv2/3x3
I0701 20:56:09.019217 29064 net.cpp:90] Creating Layer conv2/3x3
I0701 20:56:09.019220 29064 net.cpp:410] conv2/3x3 <- conv2/3x3_reduce
I0701 20:56:09.019224 29064 net.cpp:368] conv2/3x3 -> conv2/3x3
I0701 20:56:09.019228 29064 net.cpp:120] Setting up conv2/3x3
I0701 20:56:09.019980 29064 net.cpp:127] Top shape: 30 192 56 56 (18063360)
I0701 20:56:09.019994 29064 layer_factory.hpp:74] Creating layer conv2/relu_3x3
I0701 20:56:09.020002 29064 net.cpp:90] Creating Layer conv2/relu_3x3
I0701 20:56:09.020009 29064 net.cpp:410] conv2/relu_3x3 <- conv2/3x3
I0701 20:56:09.020015 29064 net.cpp:357] conv2/relu_3x3 -> conv2/3x3 (in-place)
I0701 20:56:09.020020 29064 net.cpp:120] Setting up conv2/relu_3x3
I0701 20:56:09.020081 29064 net.cpp:127] Top shape: 30 192 56 56 (18063360)
I0701 20:56:09.020088 29064 layer_factory.hpp:74] Creating layer conv2/norm2
I0701 20:56:09.020095 29064 net.cpp:90] Creating Layer conv2/norm2
I0701 20:56:09.020100 29064 net.cpp:410] conv2/norm2 <- conv2/3x3
I0701 20:56:09.020107 29064 net.cpp:368] conv2/norm2 -> conv2/norm2
I0701 20:56:09.020112 29064 net.cpp:120] Setting up conv2/norm2
I0701 20:56:09.020119 29064 net.cpp:127] Top shape: 30 192 56 56 (18063360)
I0701 20:56:09.020135 29064 layer_factory.hpp:74] Creating layer pool2/3x3_s2
I0701 20:56:09.020161 29064 net.cpp:90] Creating Layer pool2/3x3_s2
I0701 20:56:09.020169 29064 net.cpp:410] pool2/3x3_s2 <- conv2/norm2
I0701 20:56:09.020174 29064 net.cpp:368] pool2/3x3_s2 -> pool2/3x3_s2
I0701 20:56:09.020181 29064 net.cpp:120] Setting up pool2/3x3_s2
I0701 20:56:09.020229 29064 net.cpp:127] Top shape: 30 192 28 28 (4515840)
I0701 20:56:09.020236 29064 layer_factory.hpp:74] Creating layer pool2/3x3_s2_pool2/3x3_s2_0_split
I0701 20:56:09.020244 29064 net.cpp:90] Creating Layer pool2/3x3_s2_pool2/3x3_s2_0_split
I0701 20:56:09.020249 29064 net.cpp:410] pool2/3x3_s2_pool2/3x3_s2_0_split <- pool2/3x3_s2
I0701 20:56:09.020256 29064 net.cpp:368] pool2/3x3_s2_pool2/3x3_s2_0_split -> pool2/3x3_s2_pool2/3x3_s2_0_split_0
I0701 20:56:09.020262 29064 net.cpp:368] pool2/3x3_s2_pool2/3x3_s2_0_split -> pool2/3x3_s2_pool2/3x3_s2_0_split_1
I0701 20:56:09.020269 29064 net.cpp:368] pool2/3x3_s2_pool2/3x3_s2_0_split -> pool2/3x3_s2_pool2/3x3_s2_0_split_2
I0701 20:56:09.020287 29064 net.cpp:368] pool2/3x3_s2_pool2/3x3_s2_0_split -> pool2/3x3_s2_pool2/3x3_s2_0_split_3
I0701 20:56:09.020292 29064 net.cpp:120] Setting up pool2/3x3_s2_pool2/3x3_s2_0_split
I0701 20:56:09.020299 29064 net.cpp:127] Top shape: 30 192 28 28 (4515840)
I0701 20:56:09.020305 29064 net.cpp:127] Top shape: 30 192 28 28 (4515840)
I0701 20:56:09.020310 29064 net.cpp:127] Top shape: 30 192 28 28 (4515840)
I0701 20:56:09.020316 29064 net.cpp:127] Top shape: 30 192 28 28 (4515840)
I0701 20:56:09.020320 29064 layer_factory.hpp:74] Creating layer inception_3a/1x1
I0701 20:56:09.020336 29064 net.cpp:90] Creating Layer inception_3a/1x1
I0701 20:56:09.020342 29064 net.cpp:410] inception_3a/1x1 <- pool2/3x3_s2_pool2/3x3_s2_0_split_0
I0701 20:56:09.020349 29064 net.cpp:368] inception_3a/1x1 -> inception_3a/1x1
I0701 20:56:09.020356 29064 net.cpp:120] Setting up inception_3a/1x1
I0701 20:56:09.020594 29064 net.cpp:127] Top shape: 30 64 28 28 (1505280)
I0701 20:56:09.020606 29064 layer_factory.hpp:74] Creating layer inception_3a/relu_1x1
I0701 20:56:09.020613 29064 net.cpp:90] Creating Layer inception_3a/relu_1x1
I0701 20:56:09.020620 29064 net.cpp:410] inception_3a/relu_1x1 <- inception_3a/1x1
I0701 20:56:09.020627 29064 net.cpp:357] inception_3a/relu_1x1 -> inception_3a/1x1 (in-place)
I0701 20:56:09.020632 29064 net.cpp:120] Setting up inception_3a/relu_1x1
I0701 20:56:09.020735 29064 net.cpp:127] Top shape: 30 64 28 28 (1505280)
I0701 20:56:09.020745 29064 layer_factory.hpp:74] Creating layer inception_3a/3x3_reduce
I0701 20:56:09.020753 29064 net.cpp:90] Creating Layer inception_3a/3x3_reduce
I0701 20:56:09.020759 29064 net.cpp:410] inception_3a/3x3_reduce <- pool2/3x3_s2_pool2/3x3_s2_0_split_1
I0701 20:56:09.020766 29064 net.cpp:368] inception_3a/3x3_reduce -> inception_3a/3x3_reduce
I0701 20:56:09.020773 29064 net.cpp:120] Setting up inception_3a/3x3_reduce
I0701 20:56:09.021035 29064 net.cpp:127] Top shape: 30 96 28 28 (2257920)
I0701 20:56:09.021049 29064 layer_factory.hpp:74] Creating layer inception_3a/relu_3x3_reduce
I0701 20:56:09.021056 29064 net.cpp:90] Creating Layer inception_3a/relu_3x3_reduce
I0701 20:56:09.021062 29064 net.cpp:410] inception_3a/relu_3x3_reduce <- inception_3a/3x3_reduce
I0701 20:56:09.021069 29064 net.cpp:357] inception_3a/relu_3x3_reduce -> inception_3a/3x3_reduce (in-place)
I0701 20:56:09.021075 29064 net.cpp:120] Setting up inception_3a/relu_3x3_reduce
I0701 20:56:09.021112 29064 net.cpp:127] Top shape: 30 96 28 28 (2257920)
I0701 20:56:09.021118 29064 layer_factory.hpp:74] Creating layer inception_3a/3x3
I0701 20:56:09.021126 29064 net.cpp:90] Creating Layer inception_3a/3x3
I0701 20:56:09.021131 29064 net.cpp:410] inception_3a/3x3 <- inception_3a/3x3_reduce
I0701 20:56:09.021138 29064 net.cpp:368] inception_3a/3x3 -> inception_3a/3x3
I0701 20:56:09.021145 29064 net.cpp:120] Setting up inception_3a/3x3
I0701 20:56:09.021848 29064 net.cpp:127] Top shape: 30 128 28 28 (3010560)
I0701 20:56:09.021862 29064 layer_factory.hpp:74] Creating layer inception_3a/relu_3x3
I0701 20:56:09.021868 29064 net.cpp:90] Creating Layer inception_3a/relu_3x3
I0701 20:56:09.021880 29064 net.cpp:410] inception_3a/relu_3x3 <- inception_3a/3x3
I0701 20:56:09.021888 29064 net.cpp:357] inception_3a/relu_3x3 -> inception_3a/3x3 (in-place)
I0701 20:56:09.021895 29064 net.cpp:120] Setting up inception_3a/relu_3x3
I0701 20:56:09.021935 29064 net.cpp:127] Top shape: 30 128 28 28 (3010560)
I0701 20:56:09.021942 29064 layer_factory.hpp:74] Creating layer inception_3a/5x5_reduce
I0701 20:56:09.021950 29064 net.cpp:90] Creating Layer inception_3a/5x5_reduce
I0701 20:56:09.021956 29064 net.cpp:410] inception_3a/5x5_reduce <- pool2/3x3_s2_pool2/3x3_s2_0_split_2
I0701 20:56:09.021963 29064 net.cpp:368] inception_3a/5x5_reduce -> inception_3a/5x5_reduce
I0701 20:56:09.021970 29064 net.cpp:120] Setting up inception_3a/5x5_reduce
I0701 20:56:09.022183 29064 net.cpp:127] Top shape: 30 16 28 28 (376320)
I0701 20:56:09.022195 29064 layer_factory.hpp:74] Creating layer inception_3a/relu_5x5_reduce
I0701 20:56:09.022203 29064 net.cpp:90] Creating Layer inception_3a/relu_5x5_reduce
I0701 20:56:09.022210 29064 net.cpp:410] inception_3a/relu_5x5_reduce <- inception_3a/5x5_reduce
I0701 20:56:09.022217 29064 net.cpp:357] inception_3a/relu_5x5_reduce -> inception_3a/5x5_reduce (in-place)
I0701 20:56:09.022223 29064 net.cpp:120] Setting up inception_3a/relu_5x5_reduce
I0701 20:56:09.022336 29064 net.cpp:127] Top shape: 30 16 28 28 (376320)
I0701 20:56:09.022346 29064 layer_factory.hpp:74] Creating layer inception_3a/5x5
I0701 20:56:09.022354 29064 net.cpp:90] Creating Layer inception_3a/5x5
I0701 20:56:09.022361 29064 net.cpp:410] inception_3a/5x5 <- inception_3a/5x5_reduce
I0701 20:56:09.022367 29064 net.cpp:368] inception_3a/5x5 -> inception_3a/5x5
I0701 20:56:09.022374 29064 net.cpp:120] Setting up inception_3a/5x5
I0701 20:56:09.022639 29064 net.cpp:127] Top shape: 30 32 28 28 (752640)
I0701 20:56:09.022651 29064 layer_factory.hpp:74] Creating layer inception_3a/relu_5x5
I0701 20:56:09.022660 29064 net.cpp:90] Creating Layer inception_3a/relu_5x5
I0701 20:56:09.022665 29064 net.cpp:410] inception_3a/relu_5x5 <- inception_3a/5x5
I0701 20:56:09.022671 29064 net.cpp:357] inception_3a/relu_5x5 -> inception_3a/5x5 (in-place)
I0701 20:56:09.022677 29064 net.cpp:120] Setting up inception_3a/relu_5x5
I0701 20:56:09.022717 29064 net.cpp:127] Top shape: 30 32 28 28 (752640)
I0701 20:56:09.022724 29064 layer_factory.hpp:74] Creating layer inception_3a/pool
I0701 20:56:09.022730 29064 layer_factory.cpp:55] CUDNN does not support padding or multiple tops. Using Caffe's own pooling layer.
I0701 20:56:09.022737 29064 net.cpp:90] Creating Layer inception_3a/pool
I0701 20:56:09.022742 29064 net.cpp:410] inception_3a/pool <- pool2/3x3_s2_pool2/3x3_s2_0_split_3
I0701 20:56:09.022748 29064 net.cpp:368] inception_3a/pool -> inception_3a/pool
I0701 20:56:09.022755 29064 net.cpp:120] Setting up inception_3a/pool
I0701 20:56:09.022763 29064 net.cpp:127] Top shape: 30 192 28 28 (4515840)
I0701 20:56:09.022768 29064 layer_factory.hpp:74] Creating layer inception_3a/pool_proj
I0701 20:56:09.022775 29064 net.cpp:90] Creating Layer inception_3a/pool_proj
I0701 20:56:09.022780 29064 net.cpp:410] inception_3a/pool_proj <- inception_3a/pool
I0701 20:56:09.022789 29064 net.cpp:368] inception_3a/pool_proj -> inception_3a/pool_proj
I0701 20:56:09.022796 29064 net.cpp:120] Setting up inception_3a/pool_proj
I0701 20:56:09.023016 29064 net.cpp:127] Top shape: 30 32 28 28 (752640)
I0701 20:56:09.023031 29064 layer_factory.hpp:74] Creating layer inception_3a/relu_pool_proj
I0701 20:56:09.023038 29064 net.cpp:90] Creating Layer inception_3a/relu_pool_proj
I0701 20:56:09.023043 29064 net.cpp:410] inception_3a/relu_pool_proj <- inception_3a/pool_proj
I0701 20:56:09.023051 29064 net.cpp:357] inception_3a/relu_pool_proj -> inception_3a/pool_proj (in-place)
I0701 20:56:09.023056 29064 net.cpp:120] Setting up inception_3a/relu_pool_proj
I0701 20:56:09.023098 29064 net.cpp:127] Top shape: 30 32 28 28 (752640)
I0701 20:56:09.023105 29064 layer_factory.hpp:74] Creating layer inception_3a/output
I0701 20:56:09.023114 29064 net.cpp:90] Creating Layer inception_3a/output
I0701 20:56:09.023125 29064 net.cpp:410] inception_3a/output <- inception_3a/1x1
I0701 20:56:09.023133 29064 net.cpp:410] inception_3a/output <- inception_3a/3x3
I0701 20:56:09.023138 29064 net.cpp:410] inception_3a/output <- inception_3a/5x5
I0701 20:56:09.023143 29064 net.cpp:410] inception_3a/output <- inception_3a/pool_proj
I0701 20:56:09.023149 29064 net.cpp:368] inception_3a/output -> inception_3a/output
I0701 20:56:09.023156 29064 net.cpp:120] Setting up inception_3a/output
I0701 20:56:09.023167 29064 net.cpp:127] Top shape: 30 256 28 28 (6021120)
I0701 20:56:09.023174 29064 layer_factory.hpp:74] Creating layer inception_3a/output_inception_3a/output_0_split
I0701 20:56:09.023180 29064 net.cpp:90] Creating Layer inception_3a/output_inception_3a/output_0_split
I0701 20:56:09.023185 29064 net.cpp:410] inception_3a/output_inception_3a/output_0_split <- inception_3a/output
I0701 20:56:09.023191 29064 net.cpp:368] inception_3a/output_inception_3a/output_0_split -> inception_3a/output_inception_3a/output_0_split_0
I0701 20:56:09.023198 29064 net.cpp:368] inception_3a/output_inception_3a/output_0_split -> inception_3a/output_inception_3a/output_0_split_1
I0701 20:56:09.023206 29064 net.cpp:368] inception_3a/output_inception_3a/output_0_split -> inception_3a/output_inception_3a/output_0_split_2
I0701 20:56:09.023213 29064 net.cpp:368] inception_3a/output_inception_3a/output_0_split -> inception_3a/output_inception_3a/output_0_split_3
I0701 20:56:09.023219 29064 net.cpp:120] Setting up inception_3a/output_inception_3a/output_0_split
I0701 20:56:09.023226 29064 net.cpp:127] Top shape: 30 256 28 28 (6021120)
I0701 20:56:09.023232 29064 net.cpp:127] Top shape: 30 256 28 28 (6021120)
I0701 20:56:09.023237 29064 net.cpp:127] Top shape: 30 256 28 28 (6021120)
I0701 20:56:09.023242 29064 net.cpp:127] Top shape: 30 256 28 28 (6021120)
I0701 20:56:09.023247 29064 layer_factory.hpp:74] Creating layer inception_3b/1x1
I0701 20:56:09.023255 29064 net.cpp:90] Creating Layer inception_3b/1x1
I0701 20:56:09.023260 29064 net.cpp:410] inception_3b/1x1 <- inception_3a/output_inception_3a/output_0_split_0
I0701 20:56:09.023267 29064 net.cpp:368] inception_3b/1x1 -> inception_3b/1x1
I0701 20:56:09.023274 29064 net.cpp:120] Setting up inception_3b/1x1
I0701 20:56:09.023644 29064 net.cpp:127] Top shape: 30 128 28 28 (3010560)
I0701 20:56:09.023658 29064 layer_factory.hpp:74] Creating layer inception_3b/relu_1x1
I0701 20:56:09.023665 29064 net.cpp:90] Creating Layer inception_3b/relu_1x1
I0701 20:56:09.023670 29064 net.cpp:410] inception_3b/relu_1x1 <- inception_3b/1x1
I0701 20:56:09.023679 29064 net.cpp:357] inception_3b/relu_1x1 -> inception_3b/1x1 (in-place)
I0701 20:56:09.023684 29064 net.cpp:120] Setting up inception_3b/relu_1x1
I0701 20:56:09.023725 29064 net.cpp:127] Top shape: 30 128 28 28 (3010560)
I0701 20:56:09.023732 29064 layer_factory.hpp:74] Creating layer inception_3b/3x3_reduce
I0701 20:56:09.023741 29064 net.cpp:90] Creating Layer inception_3b/3x3_reduce
I0701 20:56:09.023746 29064 net.cpp:410] inception_3b/3x3_reduce <- inception_3a/output_inception_3a/output_0_split_1
I0701 20:56:09.023753 29064 net.cpp:368] inception_3b/3x3_reduce -> inception_3b/3x3_reduce
I0701 20:56:09.023761 29064 net.cpp:120] Setting up inception_3b/3x3_reduce
I0701 20:56:09.024132 29064 net.cpp:127] Top shape: 30 128 28 28 (3010560)
I0701 20:56:09.024143 29064 layer_factory.hpp:74] Creating layer inception_3b/relu_3x3_reduce
I0701 20:56:09.024152 29064 net.cpp:90] Creating Layer inception_3b/relu_3x3_reduce
I0701 20:56:09.024157 29064 net.cpp:410] inception_3b/relu_3x3_reduce <- inception_3b/3x3_reduce
I0701 20:56:09.024163 29064 net.cpp:357] inception_3b/relu_3x3_reduce -> inception_3b/3x3_reduce (in-place)
I0701 20:56:09.024169 29064 net.cpp:120] Setting up inception_3b/relu_3x3_reduce
I0701 20:56:09.024286 29064 net.cpp:127] Top shape: 30 128 28 28 (3010560)
I0701 20:56:09.024294 29064 layer_factory.hpp:74] Creating layer inception_3b/3x3
I0701 20:56:09.024304 29064 net.cpp:90] Creating Layer inception_3b/3x3
I0701 20:56:09.024319 29064 net.cpp:410] inception_3b/3x3 <- inception_3b/3x3_reduce
I0701 20:56:09.024328 29064 net.cpp:368] inception_3b/3x3 -> inception_3b/3x3
I0701 20:56:09.024338 29064 net.cpp:120] Setting up inception_3b/3x3
I0701 20:56:09.025609 29064 net.cpp:127] Top shape: 30 192 28 28 (4515840)
I0701 20:56:09.025622 29064 layer_factory.hpp:74] Creating layer inception_3b/relu_3x3
I0701 20:56:09.025629 29064 net.cpp:90] Creating Layer inception_3b/relu_3x3
I0701 20:56:09.025635 29064 net.cpp:410] inception_3b/relu_3x3 <- inception_3b/3x3
I0701 20:56:09.025641 29064 net.cpp:357] inception_3b/relu_3x3 -> inception_3b/3x3 (in-place)
I0701 20:56:09.025648 29064 net.cpp:120] Setting up inception_3b/relu_3x3
I0701 20:56:09.025689 29064 net.cpp:127] Top shape: 30 192 28 28 (4515840)
I0701 20:56:09.025697 29064 layer_factory.hpp:74] Creating layer inception_3b/5x5_reduce
I0701 20:56:09.025704 29064 net.cpp:90] Creating Layer inception_3b/5x5_reduce
I0701 20:56:09.025710 29064 net.cpp:410] inception_3b/5x5_reduce <- inception_3a/output_inception_3a/output_0_split_2
I0701 20:56:09.025717 29064 net.cpp:368] inception_3b/5x5_reduce -> inception_3b/5x5_reduce
I0701 20:56:09.025725 29064 net.cpp:120] Setting up inception_3b/5x5_reduce
I0701 20:56:09.025977 29064 net.cpp:127] Top shape: 30 32 28 28 (752640)
I0701 20:56:09.025990 29064 layer_factory.hpp:74] Creating layer inception_3b/relu_5x5_reduce
I0701 20:56:09.025997 29064 net.cpp:90] Creating Layer inception_3b/relu_5x5_reduce
I0701 20:56:09.026003 29064 net.cpp:410] inception_3b/relu_5x5_reduce <- inception_3b/5x5_reduce
I0701 20:56:09.026010 29064 net.cpp:357] inception_3b/relu_5x5_reduce -> inception_3b/5x5_reduce (in-place)
I0701 20:56:09.026016 29064 net.cpp:120] Setting up inception_3b/relu_5x5_reduce
I0701 20:56:09.026057 29064 net.cpp:127] Top shape: 30 32 28 28 (752640)
I0701 20:56:09.026063 29064 layer_factory.hpp:74] Creating layer inception_3b/5x5
I0701 20:56:09.026072 29064 net.cpp:90] Creating Layer inception_3b/5x5
I0701 20:56:09.026077 29064 net.cpp:410] inception_3b/5x5 <- inception_3b/5x5_reduce
I0701 20:56:09.026084 29064 net.cpp:368] inception_3b/5x5 -> inception_3b/5x5
I0701 20:56:09.026093 29064 net.cpp:120] Setting up inception_3b/5x5
I0701 20:56:09.026662 29064 net.cpp:127] Top shape: 30 96 28 28 (2257920)
I0701 20:56:09.026674 29064 layer_factory.hpp:74] Creating layer inception_3b/relu_5x5
I0701 20:56:09.026681 29064 net.cpp:90] Creating Layer inception_3b/relu_5x5
I0701 20:56:09.026687 29064 net.cpp:410] inception_3b/relu_5x5 <- inception_3b/5x5
I0701 20:56:09.026695 29064 net.cpp:357] inception_3b/relu_5x5 -> inception_3b/5x5 (in-place)
I0701 20:56:09.026700 29064 net.cpp:120] Setting up inception_3b/relu_5x5
I0701 20:56:09.026741 29064 net.cpp:127] Top shape: 30 96 28 28 (2257920)
I0701 20:56:09.026747 29064 layer_factory.hpp:74] Creating layer inception_3b/pool
I0701 20:56:09.026753 29064 layer_factory.cpp:55] CUDNN does not support padding or multiple tops. Using Caffe's own pooling layer.
I0701 20:56:09.026759 29064 net.cpp:90] Creating Layer inception_3b/pool
I0701 20:56:09.026764 29064 net.cpp:410] inception_3b/pool <- inception_3a/output_inception_3a/output_0_split_3
I0701 20:56:09.026772 29064 net.cpp:368] inception_3b/pool -> inception_3b/pool
I0701 20:56:09.026778 29064 net.cpp:120] Setting up inception_3b/pool
I0701 20:56:09.026785 29064 net.cpp:127] Top shape: 30 256 28 28 (6021120)
I0701 20:56:09.026792 29064 layer_factory.hpp:74] Creating layer inception_3b/pool_proj
I0701 20:56:09.026798 29064 net.cpp:90] Creating Layer inception_3b/pool_proj
I0701 20:56:09.026804 29064 net.cpp:410] inception_3b/pool_proj <- inception_3b/pool
I0701 20:56:09.026811 29064 net.cpp:368] inception_3b/pool_proj -> inception_3b/pool_proj
I0701 20:56:09.026818 29064 net.cpp:120] Setting up inception_3b/pool_proj
I0701 20:56:09.027099 29064 net.cpp:127] Top shape: 30 64 28 28 (1505280)
I0701 20:56:09.027112 29064 layer_factory.hpp:74] Creating layer inception_3b/relu_pool_proj
I0701 20:56:09.027118 29064 net.cpp:90] Creating Layer inception_3b/relu_pool_proj
I0701 20:56:09.027132 29064 net.cpp:410] inception_3b/relu_pool_proj <- inception_3b/pool_proj
I0701 20:56:09.027139 29064 net.cpp:357] inception_3b/relu_pool_proj -> inception_3b/pool_proj (in-place)
I0701 20:56:09.027146 29064 net.cpp:120] Setting up inception_3b/relu_pool_proj
I0701 20:56:09.027256 29064 net.cpp:127] Top shape: 30 64 28 28 (1505280)
I0701 20:56:09.027266 29064 layer_factory.hpp:74] Creating layer inception_3b/output
I0701 20:56:09.027272 29064 net.cpp:90] Creating Layer inception_3b/output
I0701 20:56:09.027277 29064 net.cpp:410] inception_3b/output <- inception_3b/1x1
I0701 20:56:09.027284 29064 net.cpp:410] inception_3b/output <- inception_3b/3x3
I0701 20:56:09.027289 29064 net.cpp:410] inception_3b/output <- inception_3b/5x5
I0701 20:56:09.027295 29064 net.cpp:410] inception_3b/output <- inception_3b/pool_proj
I0701 20:56:09.027302 29064 net.cpp:368] inception_3b/output -> inception_3b/output
I0701 20:56:09.027312 29064 net.cpp:120] Setting up inception_3b/output
I0701 20:56:09.027319 29064 net.cpp:127] Top shape: 30 480 28 28 (11289600)
I0701 20:56:09.027324 29064 layer_factory.hpp:74] Creating layer pool3/3x3_s2
I0701 20:56:09.027331 29064 net.cpp:90] Creating Layer pool3/3x3_s2
I0701 20:56:09.027338 29064 net.cpp:410] pool3/3x3_s2 <- inception_3b/output
I0701 20:56:09.027343 29064 net.cpp:368] pool3/3x3_s2 -> pool3/3x3_s2
I0701 20:56:09.027349 29064 net.cpp:120] Setting up pool3/3x3_s2
I0701 20:56:09.027390 29064 net.cpp:127] Top shape: 30 480 14 14 (2822400)
I0701 20:56:09.027397 29064 layer_factory.hpp:74] Creating layer pool3/3x3_s2_pool3/3x3_s2_0_split
I0701 20:56:09.027403 29064 net.cpp:90] Creating Layer pool3/3x3_s2_pool3/3x3_s2_0_split
I0701 20:56:09.027410 29064 net.cpp:410] pool3/3x3_s2_pool3/3x3_s2_0_split <- pool3/3x3_s2
I0701 20:56:09.027415 29064 net.cpp:368] pool3/3x3_s2_pool3/3x3_s2_0_split -> pool3/3x3_s2_pool3/3x3_s2_0_split_0
I0701 20:56:09.027422 29064 net.cpp:368] pool3/3x3_s2_pool3/3x3_s2_0_split -> pool3/3x3_s2_pool3/3x3_s2_0_split_1
I0701 20:56:09.027429 29064 net.cpp:368] pool3/3x3_s2_pool3/3x3_s2_0_split -> pool3/3x3_s2_pool3/3x3_s2_0_split_2
I0701 20:56:09.027436 29064 net.cpp:368] pool3/3x3_s2_pool3/3x3_s2_0_split -> pool3/3x3_s2_pool3/3x3_s2_0_split_3
I0701 20:56:09.027441 29064 net.cpp:120] Setting up pool3/3x3_s2_pool3/3x3_s2_0_split
I0701 20:56:09.027449 29064 net.cpp:127] Top shape: 30 480 14 14 (2822400)
I0701 20:56:09.027454 29064 net.cpp:127] Top shape: 30 480 14 14 (2822400)
I0701 20:56:09.027459 29064 net.cpp:127] Top shape: 30 480 14 14 (2822400)
I0701 20:56:09.027465 29064 net.cpp:127] Top shape: 30 480 14 14 (2822400)
I0701 20:56:09.027469 29064 layer_factory.hpp:74] Creating layer inception_4a/1x1
I0701 20:56:09.027477 29064 net.cpp:90] Creating Layer inception_4a/1x1
I0701 20:56:09.027483 29064 net.cpp:410] inception_4a/1x1 <- pool3/3x3_s2_pool3/3x3_s2_0_split_0
I0701 20:56:09.027489 29064 net.cpp:368] inception_4a/1x1 -> inception_4a/1x1
I0701 20:56:09.027497 29064 net.cpp:120] Setting up inception_4a/1x1
I0701 20:56:09.028149 29064 net.cpp:127] Top shape: 30 192 14 14 (1128960)
I0701 20:56:09.028162 29064 layer_factory.hpp:74] Creating layer inception_4a/relu_1x1
I0701 20:56:09.028170 29064 net.cpp:90] Creating Layer inception_4a/relu_1x1
I0701 20:56:09.028175 29064 net.cpp:410] inception_4a/relu_1x1 <- inception_4a/1x1
I0701 20:56:09.028182 29064 net.cpp:357] inception_4a/relu_1x1 -> inception_4a/1x1 (in-place)
I0701 20:56:09.028189 29064 net.cpp:120] Setting up inception_4a/relu_1x1
I0701 20:56:09.028231 29064 net.cpp:127] Top shape: 30 192 14 14 (1128960)
I0701 20:56:09.028239 29064 layer_factory.hpp:74] Creating layer inception_4a/3x3_reduce
I0701 20:56:09.028246 29064 net.cpp:90] Creating Layer inception_4a/3x3_reduce
I0701 20:56:09.028251 29064 net.cpp:410] inception_4a/3x3_reduce <- pool3/3x3_s2_pool3/3x3_s2_0_split_1
I0701 20:56:09.028259 29064 net.cpp:368] inception_4a/3x3_reduce -> inception_4a/3x3_reduce
I0701 20:56:09.028266 29064 net.cpp:120] Setting up inception_4a/3x3_reduce
I0701 20:56:09.028695 29064 net.cpp:127] Top shape: 30 96 14 14 (564480)
I0701 20:56:09.028718 29064 layer_factory.hpp:74] Creating layer inception_4a/relu_3x3_reduce
I0701 20:56:09.028728 29064 net.cpp:90] Creating Layer inception_4a/relu_3x3_reduce
I0701 20:56:09.028734 29064 net.cpp:410] inception_4a/relu_3x3_reduce <- inception_4a/3x3_reduce
I0701 20:56:09.028740 29064 net.cpp:357] inception_4a/relu_3x3_reduce -> inception_4a/3x3_reduce (in-place)
I0701 20:56:09.028748 29064 net.cpp:120] Setting up inception_4a/relu_3x3_reduce
I0701 20:56:09.028786 29064 net.cpp:127] Top shape: 30 96 14 14 (564480)
I0701 20:56:09.028794 29064 layer_factory.hpp:74] Creating layer inception_4a/3x3
I0701 20:56:09.028801 29064 net.cpp:90] Creating Layer inception_4a/3x3
I0701 20:56:09.028807 29064 net.cpp:410] inception_4a/3x3 <- inception_4a/3x3_reduce
I0701 20:56:09.028815 29064 net.cpp:368] inception_4a/3x3 -> inception_4a/3x3
I0701 20:56:09.028821 29064 net.cpp:120] Setting up inception_4a/3x3
I0701 20:56:09.029896 29064 net.cpp:127] Top shape: 30 208 14 14 (1223040)
I0701 20:56:09.029908 29064 layer_factory.hpp:74] Creating layer inception_4a/relu_3x3
I0701 20:56:09.029917 29064 net.cpp:90] Creating Layer inception_4a/relu_3x3
I0701 20:56:09.029922 29064 net.cpp:410] inception_4a/relu_3x3 <- inception_4a/3x3
I0701 20:56:09.029928 29064 net.cpp:357] inception_4a/relu_3x3 -> inception_4a/3x3 (in-place)
I0701 20:56:09.029935 29064 net.cpp:120] Setting up inception_4a/relu_3x3
I0701 20:56:09.030040 29064 net.cpp:127] Top shape: 30 208 14 14 (1223040)
I0701 20:56:09.030050 29064 layer_factory.hpp:74] Creating layer inception_4a/5x5_reduce
I0701 20:56:09.030058 29064 net.cpp:90] Creating Layer inception_4a/5x5_reduce
I0701 20:56:09.030064 29064 net.cpp:410] inception_4a/5x5_reduce <- pool3/3x3_s2_pool3/3x3_s2_0_split_2
I0701 20:56:09.030071 29064 net.cpp:368] inception_4a/5x5_reduce -> inception_4a/5x5_reduce
I0701 20:56:09.030078 29064 net.cpp:120] Setting up inception_4a/5x5_reduce
I0701 20:56:09.030313 29064 net.cpp:127] Top shape: 30 16 14 14 (94080)
I0701 20:56:09.030324 29064 layer_factory.hpp:74] Creating layer inception_4a/relu_5x5_reduce
I0701 20:56:09.030331 29064 net.cpp:90] Creating Layer inception_4a/relu_5x5_reduce
I0701 20:56:09.030338 29064 net.cpp:410] inception_4a/relu_5x5_reduce <- inception_4a/5x5_reduce
I0701 20:56:09.030344 29064 net.cpp:357] inception_4a/relu_5x5_reduce -> inception_4a/5x5_reduce (in-place)
I0701 20:56:09.030350 29064 net.cpp:120] Setting up inception_4a/relu_5x5_reduce
I0701 20:56:09.030422 29064 net.cpp:127] Top shape: 30 16 14 14 (94080)
I0701 20:56:09.030431 29064 layer_factory.hpp:74] Creating layer inception_4a/5x5
I0701 20:56:09.030448 29064 net.cpp:90] Creating Layer inception_4a/5x5
I0701 20:56:09.030462 29064 net.cpp:410] inception_4a/5x5 <- inception_4a/5x5_reduce
I0701 20:56:09.030470 29064 net.cpp:368] inception_4a/5x5 -> inception_4a/5x5
I0701 20:56:09.030478 29064 net.cpp:120] Setting up inception_4a/5x5
I0701 20:56:09.030776 29064 net.cpp:127] Top shape: 30 48 14 14 (282240)
I0701 20:56:09.030798 29064 layer_factory.hpp:74] Creating layer inception_4a/relu_5x5
I0701 20:56:09.030807 29064 net.cpp:90] Creating Layer inception_4a/relu_5x5
I0701 20:56:09.030812 29064 net.cpp:410] inception_4a/relu_5x5 <- inception_4a/5x5
I0701 20:56:09.030818 29064 net.cpp:357] inception_4a/relu_5x5 -> inception_4a/5x5 (in-place)
I0701 20:56:09.030825 29064 net.cpp:120] Setting up inception_4a/relu_5x5
I0701 20:56:09.030875 29064 net.cpp:127] Top shape: 30 48 14 14 (282240)
I0701 20:56:09.030892 29064 layer_factory.hpp:74] Creating layer inception_4a/pool
I0701 20:56:09.030900 29064 layer_factory.cpp:55] CUDNN does not support padding or multiple tops. Using Caffe's own pooling layer.
I0701 20:56:09.030905 29064 net.cpp:90] Creating Layer inception_4a/pool
I0701 20:56:09.030910 29064 net.cpp:410] inception_4a/pool <- pool3/3x3_s2_pool3/3x3_s2_0_split_3
I0701 20:56:09.030918 29064 net.cpp:368] inception_4a/pool -> inception_4a/pool
I0701 20:56:09.030925 29064 net.cpp:120] Setting up inception_4a/pool
I0701 20:56:09.030933 29064 net.cpp:127] Top shape: 30 480 14 14 (2822400)
I0701 20:56:09.030946 29064 layer_factory.hpp:74] Creating layer inception_4a/pool_proj
I0701 20:56:09.030954 29064 net.cpp:90] Creating Layer inception_4a/pool_proj
I0701 20:56:09.030961 29064 net.cpp:410] inception_4a/pool_proj <- inception_4a/pool
I0701 20:56:09.030968 29064 net.cpp:368] inception_4a/pool_proj -> inception_4a/pool_proj
I0701 20:56:09.030975 29064 net.cpp:120] Setting up inception_4a/pool_proj
I0701 20:56:09.031401 29064 net.cpp:127] Top shape: 30 64 14 14 (376320)
I0701 20:56:09.031424 29064 layer_factory.hpp:74] Creating layer inception_4a/relu_pool_proj
I0701 20:56:09.031440 29064 net.cpp:90] Creating Layer inception_4a/relu_pool_proj
I0701 20:56:09.031445 29064 net.cpp:410] inception_4a/relu_pool_proj <- inception_4a/pool_proj
I0701 20:56:09.031452 29064 net.cpp:357] inception_4a/relu_pool_proj -> inception_4a/pool_proj (in-place)
I0701 20:56:09.031468 29064 net.cpp:120] Setting up inception_4a/relu_pool_proj
I0701 20:56:09.031576 29064 net.cpp:127] Top shape: 30 64 14 14 (376320)
I0701 20:56:09.031586 29064 layer_factory.hpp:74] Creating layer inception_4a/output
I0701 20:56:09.031594 29064 net.cpp:90] Creating Layer inception_4a/output
I0701 20:56:09.031599 29064 net.cpp:410] inception_4a/output <- inception_4a/1x1
I0701 20:56:09.031605 29064 net.cpp:410] inception_4a/output <- inception_4a/3x3
I0701 20:56:09.031610 29064 net.cpp:410] inception_4a/output <- inception_4a/5x5
I0701 20:56:09.031615 29064 net.cpp:410] inception_4a/output <- inception_4a/pool_proj
I0701 20:56:09.031621 29064 net.cpp:368] inception_4a/output -> inception_4a/output
I0701 20:56:09.031628 29064 net.cpp:120] Setting up inception_4a/output
I0701 20:56:09.031635 29064 net.cpp:127] Top shape: 30 512 14 14 (3010560)
I0701 20:56:09.031641 29064 layer_factory.hpp:74] Creating layer inception_4a/output_inception_4a/output_0_split
I0701 20:56:09.031648 29064 net.cpp:90] Creating Layer inception_4a/output_inception_4a/output_0_split
I0701 20:56:09.031653 29064 net.cpp:410] inception_4a/output_inception_4a/output_0_split <- inception_4a/output
I0701 20:56:09.031661 29064 net.cpp:368] inception_4a/output_inception_4a/output_0_split -> inception_4a/output_inception_4a/output_0_split_0
I0701 20:56:09.031667 29064 net.cpp:368] inception_4a/output_inception_4a/output_0_split -> inception_4a/output_inception_4a/output_0_split_1
I0701 20:56:09.031676 29064 net.cpp:368] inception_4a/output_inception_4a/output_0_split -> inception_4a/output_inception_4a/output_0_split_2
I0701 20:56:09.031683 29064 net.cpp:368] inception_4a/output_inception_4a/output_0_split -> inception_4a/output_inception_4a/output_0_split_3
I0701 20:56:09.031689 29064 net.cpp:368] inception_4a/output_inception_4a/output_0_split -> inception_4a/output_inception_4a/output_0_split_4
I0701 20:56:09.031695 29064 net.cpp:120] Setting up inception_4a/output_inception_4a/output_0_split
I0701 20:56:09.031702 29064 net.cpp:127] Top shape: 30 512 14 14 (3010560)
I0701 20:56:09.031708 29064 net.cpp:127] Top shape: 30 512 14 14 (3010560)
I0701 20:56:09.031714 29064 net.cpp:127] Top shape: 30 512 14 14 (3010560)
I0701 20:56:09.031719 29064 net.cpp:127] Top shape: 30 512 14 14 (3010560)
I0701 20:56:09.031724 29064 net.cpp:127] Top shape: 30 512 14 14 (3010560)
I0701 20:56:09.031729 29064 layer_factory.hpp:74] Creating layer loss1/ave_pool
I0701 20:56:09.031735 29064 net.cpp:90] Creating Layer loss1/ave_pool
I0701 20:56:09.031740 29064 net.cpp:410] loss1/ave_pool <- inception_4a/output_inception_4a/output_0_split_0
I0701 20:56:09.031747 29064 net.cpp:368] loss1/ave_pool -> loss1/ave_pool
I0701 20:56:09.031754 29064 net.cpp:120] Setting up loss1/ave_pool
I0701 20:56:09.031795 29064 net.cpp:127] Top shape: 30 512 4 4 (245760)
I0701 20:56:09.031802 29064 layer_factory.hpp:74] Creating layer loss1/conv
I0701 20:56:09.031810 29064 net.cpp:90] Creating Layer loss1/conv
I0701 20:56:09.031816 29064 net.cpp:410] loss1/conv <- loss1/ave_pool
I0701 20:56:09.031823 29064 net.cpp:368] loss1/conv -> loss1/conv
I0701 20:56:09.031831 29064 net.cpp:120] Setting up loss1/conv
I0701 20:56:09.032351 29064 net.cpp:127] Top shape: 30 128 4 4 (61440)
I0701 20:56:09.032371 29064 layer_factory.hpp:74] Creating layer loss1/relu_conv
I0701 20:56:09.032379 29064 net.cpp:90] Creating Layer loss1/relu_conv
I0701 20:56:09.032385 29064 net.cpp:410] loss1/relu_conv <- loss1/conv
I0701 20:56:09.032392 29064 net.cpp:357] loss1/relu_conv -> loss1/conv (in-place)
I0701 20:56:09.032399 29064 net.cpp:120] Setting up loss1/relu_conv
I0701 20:56:09.032440 29064 net.cpp:127] Top shape: 30 128 4 4 (61440)
I0701 20:56:09.032448 29064 layer_factory.hpp:74] Creating layer loss1/fc
I0701 20:56:09.032459 29064 net.cpp:90] Creating Layer loss1/fc
I0701 20:56:09.032464 29064 net.cpp:410] loss1/fc <- loss1/conv
I0701 20:56:09.032471 29064 net.cpp:368] loss1/fc -> loss1/fc
I0701 20:56:09.032482 29064 net.cpp:120] Setting up loss1/fc
I0701 20:56:09.042350 29064 net.cpp:127] Top shape: 30 1024 (30720)
I0701 20:56:09.042378 29064 layer_factory.hpp:74] Creating layer loss1/relu_fc
I0701 20:56:09.042388 29064 net.cpp:90] Creating Layer loss1/relu_fc
I0701 20:56:09.042395 29064 net.cpp:410] loss1/relu_fc <- loss1/fc
I0701 20:56:09.042403 29064 net.cpp:357] loss1/relu_fc -> loss1/fc (in-place)
I0701 20:56:09.042412 29064 net.cpp:120] Setting up loss1/relu_fc
I0701 20:56:09.042484 29064 net.cpp:127] Top shape: 30 1024 (30720)
I0701 20:56:09.042491 29064 layer_factory.hpp:74] Creating layer loss1/drop_fc
I0701 20:56:09.042508 29064 net.cpp:90] Creating Layer loss1/drop_fc
I0701 20:56:09.042515 29064 net.cpp:410] loss1/drop_fc <- loss1/fc
I0701 20:56:09.042521 29064 net.cpp:357] loss1/drop_fc -> loss1/fc (in-place)
I0701 20:56:09.042529 29064 net.cpp:120] Setting up loss1/drop_fc
I0701 20:56:09.042538 29064 net.cpp:127] Top shape: 30 1024 (30720)
I0701 20:56:09.042544 29064 layer_factory.hpp:74] Creating layer stanford_cars_loss1/classifier
I0701 20:56:09.042552 29064 net.cpp:90] Creating Layer stanford_cars_loss1/classifier
I0701 20:56:09.042557 29064 net.cpp:410] stanford_cars_loss1/classifier <- loss1/fc
I0701 20:56:09.042564 29064 net.cpp:368] stanford_cars_loss1/classifier -> stanford_cars_loss1/classifier
I0701 20:56:09.042572 29064 net.cpp:120] Setting up stanford_cars_loss1/classifier
I0701 20:56:09.043570 29064 net.cpp:127] Top shape: 30 196 (5880)
I0701 20:56:09.043581 29064 layer_factory.hpp:74] Creating layer loss1/loss
I0701 20:56:09.043589 29064 net.cpp:90] Creating Layer loss1/loss
I0701 20:56:09.043596 29064 net.cpp:410] loss1/loss <- stanford_cars_loss1/classifier
I0701 20:56:09.043601 29064 net.cpp:410] loss1/loss <- label_data_1_split_0
I0701 20:56:09.043607 29064 net.cpp:368] loss1/loss -> loss1/loss1
I0701 20:56:09.043615 29064 net.cpp:120] Setting up loss1/loss
I0701 20:56:09.043623 29064 layer_factory.hpp:74] Creating layer loss1/loss
I0701 20:56:09.043808 29064 net.cpp:127] Top shape: (1)
I0701 20:56:09.043819 29064 net.cpp:129]     with loss weight 0.3
I0701 20:56:09.043838 29064 layer_factory.hpp:74] Creating layer inception_4b/1x1
I0701 20:56:09.043846 29064 net.cpp:90] Creating Layer inception_4b/1x1
I0701 20:56:09.043853 29064 net.cpp:410] inception_4b/1x1 <- inception_4a/output_inception_4a/output_0_split_1
I0701 20:56:09.043861 29064 net.cpp:368] inception_4b/1x1 -> inception_4b/1x1
I0701 20:56:09.043869 29064 net.cpp:120] Setting up inception_4b/1x1
I0701 20:56:09.044471 29064 net.cpp:127] Top shape: 30 160 14 14 (940800)
I0701 20:56:09.044483 29064 layer_factory.hpp:74] Creating layer inception_4b/relu_1x1
I0701 20:56:09.044492 29064 net.cpp:90] Creating Layer inception_4b/relu_1x1
I0701 20:56:09.044498 29064 net.cpp:410] inception_4b/relu_1x1 <- inception_4b/1x1
I0701 20:56:09.044505 29064 net.cpp:357] inception_4b/relu_1x1 -> inception_4b/1x1 (in-place)
I0701 20:56:09.044512 29064 net.cpp:120] Setting up inception_4b/relu_1x1
I0701 20:56:09.044553 29064 net.cpp:127] Top shape: 30 160 14 14 (940800)
I0701 20:56:09.044561 29064 layer_factory.hpp:74] Creating layer inception_4b/3x3_reduce
I0701 20:56:09.044569 29064 net.cpp:90] Creating Layer inception_4b/3x3_reduce
I0701 20:56:09.044574 29064 net.cpp:410] inception_4b/3x3_reduce <- inception_4a/output_inception_4a/output_0_split_2
I0701 20:56:09.044598 29064 net.cpp:368] inception_4b/3x3_reduce -> inception_4b/3x3_reduce
I0701 20:56:09.044607 29064 net.cpp:120] Setting up inception_4b/3x3_reduce
I0701 20:56:09.045088 29064 net.cpp:127] Top shape: 30 112 14 14 (658560)
I0701 20:56:09.045100 29064 layer_factory.hpp:74] Creating layer inception_4b/relu_3x3_reduce
I0701 20:56:09.045107 29064 net.cpp:90] Creating Layer inception_4b/relu_3x3_reduce
I0701 20:56:09.045114 29064 net.cpp:410] inception_4b/relu_3x3_reduce <- inception_4b/3x3_reduce
I0701 20:56:09.045121 29064 net.cpp:357] inception_4b/relu_3x3_reduce -> inception_4b/3x3_reduce (in-place)
I0701 20:56:09.045128 29064 net.cpp:120] Setting up inception_4b/relu_3x3_reduce
I0701 20:56:09.045168 29064 net.cpp:127] Top shape: 30 112 14 14 (658560)
I0701 20:56:09.045176 29064 layer_factory.hpp:74] Creating layer inception_4b/3x3
I0701 20:56:09.045183 29064 net.cpp:90] Creating Layer inception_4b/3x3
I0701 20:56:09.045189 29064 net.cpp:410] inception_4b/3x3 <- inception_4b/3x3_reduce
I0701 20:56:09.045195 29064 net.cpp:368] inception_4b/3x3 -> inception_4b/3x3
I0701 20:56:09.045203 29064 net.cpp:120] Setting up inception_4b/3x3
I0701 20:56:09.046514 29064 net.cpp:127] Top shape: 30 224 14 14 (1317120)
I0701 20:56:09.046537 29064 layer_factory.hpp:74] Creating layer inception_4b/relu_3x3
I0701 20:56:09.046545 29064 net.cpp:90] Creating Layer inception_4b/relu_3x3
I0701 20:56:09.046551 29064 net.cpp:410] inception_4b/relu_3x3 <- inception_4b/3x3
I0701 20:56:09.046557 29064 net.cpp:357] inception_4b/relu_3x3 -> inception_4b/3x3 (in-place)
I0701 20:56:09.046564 29064 net.cpp:120] Setting up inception_4b/relu_3x3
I0701 20:56:09.046615 29064 net.cpp:127] Top shape: 30 224 14 14 (1317120)
I0701 20:56:09.046633 29064 layer_factory.hpp:74] Creating layer inception_4b/5x5_reduce
I0701 20:56:09.046643 29064 net.cpp:90] Creating Layer inception_4b/5x5_reduce
I0701 20:56:09.046648 29064 net.cpp:410] inception_4b/5x5_reduce <- inception_4a/output_inception_4a/output_0_split_3
I0701 20:56:09.046654 29064 net.cpp:368] inception_4b/5x5_reduce -> inception_4b/5x5_reduce
I0701 20:56:09.046663 29064 net.cpp:120] Setting up inception_4b/5x5_reduce
I0701 20:56:09.046936 29064 net.cpp:127] Top shape: 30 24 14 14 (141120)
I0701 20:56:09.046957 29064 layer_factory.hpp:74] Creating layer inception_4b/relu_5x5_reduce
I0701 20:56:09.046965 29064 net.cpp:90] Creating Layer inception_4b/relu_5x5_reduce
I0701 20:56:09.046972 29064 net.cpp:410] inception_4b/relu_5x5_reduce <- inception_4b/5x5_reduce
I0701 20:56:09.046977 29064 net.cpp:357] inception_4b/relu_5x5_reduce -> inception_4b/5x5_reduce (in-place)
I0701 20:56:09.046984 29064 net.cpp:120] Setting up inception_4b/relu_5x5_reduce
I0701 20:56:09.047103 29064 net.cpp:127] Top shape: 30 24 14 14 (141120)
I0701 20:56:09.047122 29064 layer_factory.hpp:74] Creating layer inception_4b/5x5
I0701 20:56:09.047132 29064 net.cpp:90] Creating Layer inception_4b/5x5
I0701 20:56:09.047137 29064 net.cpp:410] inception_4b/5x5 <- inception_4b/5x5_reduce
I0701 20:56:09.047145 29064 net.cpp:368] inception_4b/5x5 -> inception_4b/5x5
I0701 20:56:09.047152 29064 net.cpp:120] Setting up inception_4b/5x5
I0701 20:56:09.047598 29064 net.cpp:127] Top shape: 30 64 14 14 (376320)
I0701 20:56:09.047621 29064 layer_factory.hpp:74] Creating layer inception_4b/relu_5x5
I0701 20:56:09.047639 29064 net.cpp:90] Creating Layer inception_4b/relu_5x5
I0701 20:56:09.047646 29064 net.cpp:410] inception_4b/relu_5x5 <- inception_4b/5x5
I0701 20:56:09.047662 29064 net.cpp:357] inception_4b/relu_5x5 -> inception_4b/5x5 (in-place)
I0701 20:56:09.047668 29064 net.cpp:120] Setting up inception_4b/relu_5x5
I0701 20:56:09.047719 29064 net.cpp:127] Top shape: 30 64 14 14 (376320)
I0701 20:56:09.047726 29064 layer_factory.hpp:74] Creating layer inception_4b/pool
I0701 20:56:09.047742 29064 layer_factory.cpp:55] CUDNN does not support padding or multiple tops. Using Caffe's own pooling layer.
I0701 20:56:09.047749 29064 net.cpp:90] Creating Layer inception_4b/pool
I0701 20:56:09.047763 29064 net.cpp:410] inception_4b/pool <- inception_4a/output_inception_4a/output_0_split_4
I0701 20:56:09.047771 29064 net.cpp:368] inception_4b/pool -> inception_4b/pool
I0701 20:56:09.047783 29064 net.cpp:120] Setting up inception_4b/pool
I0701 20:56:09.047794 29064 net.cpp:127] Top shape: 30 512 14 14 (3010560)
I0701 20:56:09.047799 29064 layer_factory.hpp:74] Creating layer inception_4b/pool_proj
I0701 20:56:09.047808 29064 net.cpp:90] Creating Layer inception_4b/pool_proj
I0701 20:56:09.047814 29064 net.cpp:410] inception_4b/pool_proj <- inception_4b/pool
I0701 20:56:09.047821 29064 net.cpp:368] inception_4b/pool_proj -> inception_4b/pool_proj
I0701 20:56:09.047828 29064 net.cpp:120] Setting up inception_4b/pool_proj
I0701 20:56:09.048241 29064 net.cpp:127] Top shape: 30 64 14 14 (376320)
I0701 20:56:09.048254 29064 layer_factory.hpp:74] Creating layer inception_4b/relu_pool_proj
I0701 20:56:09.048260 29064 net.cpp:90] Creating Layer inception_4b/relu_pool_proj
I0701 20:56:09.048266 29064 net.cpp:410] inception_4b/relu_pool_proj <- inception_4b/pool_proj
I0701 20:56:09.048274 29064 net.cpp:357] inception_4b/relu_pool_proj -> inception_4b/pool_proj (in-place)
I0701 20:56:09.048280 29064 net.cpp:120] Setting up inception_4b/relu_pool_proj
I0701 20:56:09.048321 29064 net.cpp:127] Top shape: 30 64 14 14 (376320)
I0701 20:56:09.048328 29064 layer_factory.hpp:74] Creating layer inception_4b/output
I0701 20:56:09.048336 29064 net.cpp:90] Creating Layer inception_4b/output
I0701 20:56:09.048341 29064 net.cpp:410] inception_4b/output <- inception_4b/1x1
I0701 20:56:09.048346 29064 net.cpp:410] inception_4b/output <- inception_4b/3x3
I0701 20:56:09.048352 29064 net.cpp:410] inception_4b/output <- inception_4b/5x5
I0701 20:56:09.048357 29064 net.cpp:410] inception_4b/output <- inception_4b/pool_proj
I0701 20:56:09.048363 29064 net.cpp:368] inception_4b/output -> inception_4b/output
I0701 20:56:09.048370 29064 net.cpp:120] Setting up inception_4b/output
I0701 20:56:09.048377 29064 net.cpp:127] Top shape: 30 512 14 14 (3010560)
I0701 20:56:09.048382 29064 layer_factory.hpp:74] Creating layer inception_4b/output_inception_4b/output_0_split
I0701 20:56:09.048390 29064 net.cpp:90] Creating Layer inception_4b/output_inception_4b/output_0_split
I0701 20:56:09.048395 29064 net.cpp:410] inception_4b/output_inception_4b/output_0_split <- inception_4b/output
I0701 20:56:09.048403 29064 net.cpp:368] inception_4b/output_inception_4b/output_0_split -> inception_4b/output_inception_4b/output_0_split_0
I0701 20:56:09.048409 29064 net.cpp:368] inception_4b/output_inception_4b/output_0_split -> inception_4b/output_inception_4b/output_0_split_1
I0701 20:56:09.048416 29064 net.cpp:368] inception_4b/output_inception_4b/output_0_split -> inception_4b/output_inception_4b/output_0_split_2
I0701 20:56:09.048424 29064 net.cpp:368] inception_4b/output_inception_4b/output_0_split -> inception_4b/output_inception_4b/output_0_split_3
I0701 20:56:09.048429 29064 net.cpp:120] Setting up inception_4b/output_inception_4b/output_0_split
I0701 20:56:09.048437 29064 net.cpp:127] Top shape: 30 512 14 14 (3010560)
I0701 20:56:09.048444 29064 net.cpp:127] Top shape: 30 512 14 14 (3010560)
I0701 20:56:09.048449 29064 net.cpp:127] Top shape: 30 512 14 14 (3010560)
I0701 20:56:09.048454 29064 net.cpp:127] Top shape: 30 512 14 14 (3010560)
I0701 20:56:09.048459 29064 layer_factory.hpp:74] Creating layer inception_4c/1x1
I0701 20:56:09.048465 29064 net.cpp:90] Creating Layer inception_4c/1x1
I0701 20:56:09.048470 29064 net.cpp:410] inception_4c/1x1 <- inception_4b/output_inception_4b/output_0_split_0
I0701 20:56:09.048478 29064 net.cpp:368] inception_4c/1x1 -> inception_4c/1x1
I0701 20:56:09.048485 29064 net.cpp:120] Setting up inception_4c/1x1
I0701 20:56:09.049005 29064 net.cpp:127] Top shape: 30 128 14 14 (752640)
I0701 20:56:09.049018 29064 layer_factory.hpp:74] Creating layer inception_4c/relu_1x1
I0701 20:56:09.049026 29064 net.cpp:90] Creating Layer inception_4c/relu_1x1
I0701 20:56:09.049031 29064 net.cpp:410] inception_4c/relu_1x1 <- inception_4c/1x1
I0701 20:56:09.049043 29064 net.cpp:357] inception_4c/relu_1x1 -> inception_4c/1x1 (in-place)
I0701 20:56:09.049052 29064 net.cpp:120] Setting up inception_4c/relu_1x1
I0701 20:56:09.049091 29064 net.cpp:127] Top shape: 30 128 14 14 (752640)
I0701 20:56:09.049099 29064 layer_factory.hpp:74] Creating layer inception_4c/3x3_reduce
I0701 20:56:09.049106 29064 net.cpp:90] Creating Layer inception_4c/3x3_reduce
I0701 20:56:09.049113 29064 net.cpp:410] inception_4c/3x3_reduce <- inception_4b/output_inception_4b/output_0_split_1
I0701 20:56:09.049119 29064 net.cpp:368] inception_4c/3x3_reduce -> inception_4c/3x3_reduce
I0701 20:56:09.049127 29064 net.cpp:120] Setting up inception_4c/3x3_reduce
I0701 20:56:09.049723 29064 net.cpp:127] Top shape: 30 128 14 14 (752640)
I0701 20:56:09.049746 29064 layer_factory.hpp:74] Creating layer inception_4c/relu_3x3_reduce
I0701 20:56:09.049753 29064 net.cpp:90] Creating Layer inception_4c/relu_3x3_reduce
I0701 20:56:09.049758 29064 net.cpp:410] inception_4c/relu_3x3_reduce <- inception_4c/3x3_reduce
I0701 20:56:09.049765 29064 net.cpp:357] inception_4c/relu_3x3_reduce -> inception_4c/3x3_reduce (in-place)
I0701 20:56:09.049772 29064 net.cpp:120] Setting up inception_4c/relu_3x3_reduce
I0701 20:56:09.049890 29064 net.cpp:127] Top shape: 30 128 14 14 (752640)
I0701 20:56:09.049899 29064 layer_factory.hpp:74] Creating layer inception_4c/3x3
I0701 20:56:09.049918 29064 net.cpp:90] Creating Layer inception_4c/3x3
I0701 20:56:09.049924 29064 net.cpp:410] inception_4c/3x3 <- inception_4c/3x3_reduce
I0701 20:56:09.049942 29064 net.cpp:368] inception_4c/3x3 -> inception_4c/3x3
I0701 20:56:09.049959 29064 net.cpp:120] Setting up inception_4c/3x3
I0701 20:56:09.051729 29064 net.cpp:127] Top shape: 30 256 14 14 (1505280)
I0701 20:56:09.051759 29064 layer_factory.hpp:74] Creating layer inception_4c/relu_3x3
I0701 20:56:09.051769 29064 net.cpp:90] Creating Layer inception_4c/relu_3x3
I0701 20:56:09.051774 29064 net.cpp:410] inception_4c/relu_3x3 <- inception_4c/3x3
I0701 20:56:09.051781 29064 net.cpp:357] inception_4c/relu_3x3 -> inception_4c/3x3 (in-place)
I0701 20:56:09.051789 29064 net.cpp:120] Setting up inception_4c/relu_3x3
I0701 20:56:09.051841 29064 net.cpp:127] Top shape: 30 256 14 14 (1505280)
I0701 20:56:09.051848 29064 layer_factory.hpp:74] Creating layer inception_4c/5x5_reduce
I0701 20:56:09.051867 29064 net.cpp:90] Creating Layer inception_4c/5x5_reduce
I0701 20:56:09.051872 29064 net.cpp:410] inception_4c/5x5_reduce <- inception_4b/output_inception_4b/output_0_split_2
I0701 20:56:09.051879 29064 net.cpp:368] inception_4c/5x5_reduce -> inception_4c/5x5_reduce
I0701 20:56:09.051887 29064 net.cpp:120] Setting up inception_4c/5x5_reduce
I0701 20:56:09.052157 29064 net.cpp:127] Top shape: 30 24 14 14 (141120)
I0701 20:56:09.052180 29064 layer_factory.hpp:74] Creating layer inception_4c/relu_5x5_reduce
I0701 20:56:09.052187 29064 net.cpp:90] Creating Layer inception_4c/relu_5x5_reduce
I0701 20:56:09.052193 29064 net.cpp:410] inception_4c/relu_5x5_reduce <- inception_4c/5x5_reduce
I0701 20:56:09.052201 29064 net.cpp:357] inception_4c/relu_5x5_reduce -> inception_4c/5x5_reduce (in-place)
I0701 20:56:09.052207 29064 net.cpp:120] Setting up inception_4c/relu_5x5_reduce
I0701 20:56:09.052256 29064 net.cpp:127] Top shape: 30 24 14 14 (141120)
I0701 20:56:09.052263 29064 layer_factory.hpp:74] Creating layer inception_4c/5x5
I0701 20:56:09.052281 29064 net.cpp:90] Creating Layer inception_4c/5x5
I0701 20:56:09.052287 29064 net.cpp:410] inception_4c/5x5 <- inception_4c/5x5_reduce
I0701 20:56:09.052294 29064 net.cpp:368] inception_4c/5x5 -> inception_4c/5x5
I0701 20:56:09.052302 29064 net.cpp:120] Setting up inception_4c/5x5
I0701 20:56:09.052697 29064 net.cpp:127] Top shape: 30 64 14 14 (376320)
I0701 20:56:09.052719 29064 layer_factory.hpp:74] Creating layer inception_4c/relu_5x5
I0701 20:56:09.052726 29064 net.cpp:90] Creating Layer inception_4c/relu_5x5
I0701 20:56:09.052732 29064 net.cpp:410] inception_4c/relu_5x5 <- inception_4c/5x5
I0701 20:56:09.052739 29064 net.cpp:357] inception_4c/relu_5x5 -> inception_4c/5x5 (in-place)
I0701 20:56:09.052755 29064 net.cpp:120] Setting up inception_4c/relu_5x5
I0701 20:56:09.052875 29064 net.cpp:127] Top shape: 30 64 14 14 (376320)
I0701 20:56:09.052893 29064 layer_factory.hpp:74] Creating layer inception_4c/pool
I0701 20:56:09.052901 29064 layer_factory.cpp:55] CUDNN does not support padding or multiple tops. Using Caffe's own pooling layer.
I0701 20:56:09.052908 29064 net.cpp:90] Creating Layer inception_4c/pool
I0701 20:56:09.052914 29064 net.cpp:410] inception_4c/pool <- inception_4b/output_inception_4b/output_0_split_3
I0701 20:56:09.052922 29064 net.cpp:368] inception_4c/pool -> inception_4c/pool
I0701 20:56:09.052928 29064 net.cpp:120] Setting up inception_4c/pool
I0701 20:56:09.052937 29064 net.cpp:127] Top shape: 30 512 14 14 (3010560)
I0701 20:56:09.052943 29064 layer_factory.hpp:74] Creating layer inception_4c/pool_proj
I0701 20:56:09.052950 29064 net.cpp:90] Creating Layer inception_4c/pool_proj
I0701 20:56:09.052956 29064 net.cpp:410] inception_4c/pool_proj <- inception_4c/pool
I0701 20:56:09.052963 29064 net.cpp:368] inception_4c/pool_proj -> inception_4c/pool_proj
I0701 20:56:09.052970 29064 net.cpp:120] Setting up inception_4c/pool_proj
I0701 20:56:09.053336 29064 net.cpp:127] Top shape: 30 64 14 14 (376320)
I0701 20:56:09.053359 29064 layer_factory.hpp:74] Creating layer inception_4c/relu_pool_proj
I0701 20:56:09.053366 29064 net.cpp:90] Creating Layer inception_4c/relu_pool_proj
I0701 20:56:09.053372 29064 net.cpp:410] inception_4c/relu_pool_proj <- inception_4c/pool_proj
I0701 20:56:09.053378 29064 net.cpp:357] inception_4c/relu_pool_proj -> inception_4c/pool_proj (in-place)
I0701 20:56:09.053385 29064 net.cpp:120] Setting up inception_4c/relu_pool_proj
I0701 20:56:09.053442 29064 net.cpp:127] Top shape: 30 64 14 14 (376320)
I0701 20:56:09.053448 29064 layer_factory.hpp:74] Creating layer inception_4c/output
I0701 20:56:09.053467 29064 net.cpp:90] Creating Layer inception_4c/output
I0701 20:56:09.053472 29064 net.cpp:410] inception_4c/output <- inception_4c/1x1
I0701 20:56:09.053478 29064 net.cpp:410] inception_4c/output <- inception_4c/3x3
I0701 20:56:09.053483 29064 net.cpp:410] inception_4c/output <- inception_4c/5x5
I0701 20:56:09.053489 29064 net.cpp:410] inception_4c/output <- inception_4c/pool_proj
I0701 20:56:09.053495 29064 net.cpp:368] inception_4c/output -> inception_4c/output
I0701 20:56:09.053503 29064 net.cpp:120] Setting up inception_4c/output
I0701 20:56:09.053509 29064 net.cpp:127] Top shape: 30 512 14 14 (3010560)
I0701 20:56:09.053514 29064 layer_factory.hpp:74] Creating layer inception_4c/output_inception_4c/output_0_split
I0701 20:56:09.053521 29064 net.cpp:90] Creating Layer inception_4c/output_inception_4c/output_0_split
I0701 20:56:09.053526 29064 net.cpp:410] inception_4c/output_inception_4c/output_0_split <- inception_4c/output
I0701 20:56:09.053534 29064 net.cpp:368] inception_4c/output_inception_4c/output_0_split -> inception_4c/output_inception_4c/output_0_split_0
I0701 20:56:09.053541 29064 net.cpp:368] inception_4c/output_inception_4c/output_0_split -> inception_4c/output_inception_4c/output_0_split_1
I0701 20:56:09.053549 29064 net.cpp:368] inception_4c/output_inception_4c/output_0_split -> inception_4c/output_inception_4c/output_0_split_2
I0701 20:56:09.053555 29064 net.cpp:368] inception_4c/output_inception_4c/output_0_split -> inception_4c/output_inception_4c/output_0_split_3
I0701 20:56:09.053562 29064 net.cpp:120] Setting up inception_4c/output_inception_4c/output_0_split
I0701 20:56:09.053570 29064 net.cpp:127] Top shape: 30 512 14 14 (3010560)
I0701 20:56:09.053575 29064 net.cpp:127] Top shape: 30 512 14 14 (3010560)
I0701 20:56:09.053580 29064 net.cpp:127] Top shape: 30 512 14 14 (3010560)
I0701 20:56:09.053586 29064 net.cpp:127] Top shape: 30 512 14 14 (3010560)
I0701 20:56:09.053591 29064 layer_factory.hpp:74] Creating layer inception_4d/1x1
I0701 20:56:09.053598 29064 net.cpp:90] Creating Layer inception_4d/1x1
I0701 20:56:09.053604 29064 net.cpp:410] inception_4d/1x1 <- inception_4c/output_inception_4c/output_0_split_0
I0701 20:56:09.053618 29064 net.cpp:368] inception_4d/1x1 -> inception_4d/1x1
I0701 20:56:09.053627 29064 net.cpp:120] Setting up inception_4d/1x1
I0701 20:56:09.054116 29064 net.cpp:127] Top shape: 30 112 14 14 (658560)
I0701 20:56:09.054138 29064 layer_factory.hpp:74] Creating layer inception_4d/relu_1x1
I0701 20:56:09.054147 29064 net.cpp:90] Creating Layer inception_4d/relu_1x1
I0701 20:56:09.054152 29064 net.cpp:410] inception_4d/relu_1x1 <- inception_4d/1x1
I0701 20:56:09.054159 29064 net.cpp:357] inception_4d/relu_1x1 -> inception_4d/1x1 (in-place)
I0701 20:56:09.054165 29064 net.cpp:120] Setting up inception_4d/relu_1x1
I0701 20:56:09.054216 29064 net.cpp:127] Top shape: 30 112 14 14 (658560)
I0701 20:56:09.054224 29064 layer_factory.hpp:74] Creating layer inception_4d/3x3_reduce
I0701 20:56:09.054240 29064 net.cpp:90] Creating Layer inception_4d/3x3_reduce
I0701 20:56:09.054245 29064 net.cpp:410] inception_4d/3x3_reduce <- inception_4c/output_inception_4c/output_0_split_1
I0701 20:56:09.054253 29064 net.cpp:368] inception_4d/3x3_reduce -> inception_4d/3x3_reduce
I0701 20:56:09.054261 29064 net.cpp:120] Setting up inception_4d/3x3_reduce
I0701 20:56:09.054828 29064 net.cpp:127] Top shape: 30 144 14 14 (846720)
I0701 20:56:09.054850 29064 layer_factory.hpp:74] Creating layer inception_4d/relu_3x3_reduce
I0701 20:56:09.054858 29064 net.cpp:90] Creating Layer inception_4d/relu_3x3_reduce
I0701 20:56:09.054864 29064 net.cpp:410] inception_4d/relu_3x3_reduce <- inception_4d/3x3_reduce
I0701 20:56:09.054870 29064 net.cpp:357] inception_4d/relu_3x3_reduce -> inception_4d/3x3_reduce (in-place)
I0701 20:56:09.054878 29064 net.cpp:120] Setting up inception_4d/relu_3x3_reduce
I0701 20:56:09.054931 29064 net.cpp:127] Top shape: 30 144 14 14 (846720)
I0701 20:56:09.054947 29064 layer_factory.hpp:74] Creating layer inception_4d/3x3
I0701 20:56:09.054956 29064 net.cpp:90] Creating Layer inception_4d/3x3
I0701 20:56:09.054962 29064 net.cpp:410] inception_4d/3x3 <- inception_4d/3x3_reduce
I0701 20:56:09.054970 29064 net.cpp:368] inception_4d/3x3 -> inception_4d/3x3
I0701 20:56:09.054976 29064 net.cpp:120] Setting up inception_4d/3x3
I0701 20:56:09.057371 29064 net.cpp:127] Top shape: 30 288 14 14 (1693440)
I0701 20:56:09.057409 29064 layer_factory.hpp:74] Creating layer inception_4d/relu_3x3
I0701 20:56:09.057418 29064 net.cpp:90] Creating Layer inception_4d/relu_3x3
I0701 20:56:09.057425 29064 net.cpp:410] inception_4d/relu_3x3 <- inception_4d/3x3
I0701 20:56:09.057432 29064 net.cpp:357] inception_4d/relu_3x3 -> inception_4d/3x3 (in-place)
I0701 20:56:09.057440 29064 net.cpp:120] Setting up inception_4d/relu_3x3
I0701 20:56:09.057610 29064 net.cpp:127] Top shape: 30 288 14 14 (1693440)
I0701 20:56:09.057631 29064 layer_factory.hpp:74] Creating layer inception_4d/5x5_reduce
I0701 20:56:09.057641 29064 net.cpp:90] Creating Layer inception_4d/5x5_reduce
I0701 20:56:09.057649 29064 net.cpp:410] inception_4d/5x5_reduce <- inception_4c/output_inception_4c/output_0_split_2
I0701 20:56:09.057662 29064 net.cpp:368] inception_4d/5x5_reduce -> inception_4d/5x5_reduce
I0701 20:56:09.057677 29064 net.cpp:120] Setting up inception_4d/5x5_reduce
I0701 20:56:09.058010 29064 net.cpp:127] Top shape: 30 32 14 14 (188160)
I0701 20:56:09.058025 29064 layer_factory.hpp:74] Creating layer inception_4d/relu_5x5_reduce
I0701 20:56:09.058033 29064 net.cpp:90] Creating Layer inception_4d/relu_5x5_reduce
I0701 20:56:09.058038 29064 net.cpp:410] inception_4d/relu_5x5_reduce <- inception_4d/5x5_reduce
I0701 20:56:09.058046 29064 net.cpp:357] inception_4d/relu_5x5_reduce -> inception_4d/5x5_reduce (in-place)
I0701 20:56:09.058053 29064 net.cpp:120] Setting up inception_4d/relu_5x5_reduce
I0701 20:56:09.058094 29064 net.cpp:127] Top shape: 30 32 14 14 (188160)
I0701 20:56:09.058101 29064 layer_factory.hpp:74] Creating layer inception_4d/5x5
I0701 20:56:09.058109 29064 net.cpp:90] Creating Layer inception_4d/5x5
I0701 20:56:09.058115 29064 net.cpp:410] inception_4d/5x5 <- inception_4d/5x5_reduce
I0701 20:56:09.058121 29064 net.cpp:368] inception_4d/5x5 -> inception_4d/5x5
I0701 20:56:09.058142 29064 net.cpp:120] Setting up inception_4d/5x5
I0701 20:56:09.058612 29064 net.cpp:127] Top shape: 30 64 14 14 (376320)
I0701 20:56:09.058625 29064 layer_factory.hpp:74] Creating layer inception_4d/relu_5x5
I0701 20:56:09.058634 29064 net.cpp:90] Creating Layer inception_4d/relu_5x5
I0701 20:56:09.058640 29064 net.cpp:410] inception_4d/relu_5x5 <- inception_4d/5x5
I0701 20:56:09.058646 29064 net.cpp:357] inception_4d/relu_5x5 -> inception_4d/5x5 (in-place)
I0701 20:56:09.058652 29064 net.cpp:120] Setting up inception_4d/relu_5x5
I0701 20:56:09.058696 29064 net.cpp:127] Top shape: 30 64 14 14 (376320)
I0701 20:56:09.058702 29064 layer_factory.hpp:74] Creating layer inception_4d/pool
I0701 20:56:09.058708 29064 layer_factory.cpp:55] CUDNN does not support padding or multiple tops. Using Caffe's own pooling layer.
I0701 20:56:09.058717 29064 net.cpp:90] Creating Layer inception_4d/pool
I0701 20:56:09.058722 29064 net.cpp:410] inception_4d/pool <- inception_4c/output_inception_4c/output_0_split_3
I0701 20:56:09.058728 29064 net.cpp:368] inception_4d/pool -> inception_4d/pool
I0701 20:56:09.058734 29064 net.cpp:120] Setting up inception_4d/pool
I0701 20:56:09.058743 29064 net.cpp:127] Top shape: 30 512 14 14 (3010560)
I0701 20:56:09.058748 29064 layer_factory.hpp:74] Creating layer inception_4d/pool_proj
I0701 20:56:09.058756 29064 net.cpp:90] Creating Layer inception_4d/pool_proj
I0701 20:56:09.058761 29064 net.cpp:410] inception_4d/pool_proj <- inception_4d/pool
I0701 20:56:09.058769 29064 net.cpp:368] inception_4d/pool_proj -> inception_4d/pool_proj
I0701 20:56:09.058776 29064 net.cpp:120] Setting up inception_4d/pool_proj
I0701 20:56:09.059137 29064 net.cpp:127] Top shape: 30 64 14 14 (376320)
I0701 20:56:09.059150 29064 layer_factory.hpp:74] Creating layer inception_4d/relu_pool_proj
I0701 20:56:09.059159 29064 net.cpp:90] Creating Layer inception_4d/relu_pool_proj
I0701 20:56:09.059165 29064 net.cpp:410] inception_4d/relu_pool_proj <- inception_4d/pool_proj
I0701 20:56:09.059171 29064 net.cpp:357] inception_4d/relu_pool_proj -> inception_4d/pool_proj (in-place)
I0701 20:56:09.059177 29064 net.cpp:120] Setting up inception_4d/relu_pool_proj
I0701 20:56:09.059217 29064 net.cpp:127] Top shape: 30 64 14 14 (376320)
I0701 20:56:09.059226 29064 layer_factory.hpp:74] Creating layer inception_4d/output
I0701 20:56:09.059233 29064 net.cpp:90] Creating Layer inception_4d/output
I0701 20:56:09.059238 29064 net.cpp:410] inception_4d/output <- inception_4d/1x1
I0701 20:56:09.059244 29064 net.cpp:410] inception_4d/output <- inception_4d/3x3
I0701 20:56:09.059250 29064 net.cpp:410] inception_4d/output <- inception_4d/5x5
I0701 20:56:09.059255 29064 net.cpp:410] inception_4d/output <- inception_4d/pool_proj
I0701 20:56:09.059262 29064 net.cpp:368] inception_4d/output -> inception_4d/output
I0701 20:56:09.059268 29064 net.cpp:120] Setting up inception_4d/output
I0701 20:56:09.059275 29064 net.cpp:127] Top shape: 30 528 14 14 (3104640)
I0701 20:56:09.059280 29064 layer_factory.hpp:74] Creating layer inception_4d/output_inception_4d/output_0_split
I0701 20:56:09.059288 29064 net.cpp:90] Creating Layer inception_4d/output_inception_4d/output_0_split
I0701 20:56:09.059293 29064 net.cpp:410] inception_4d/output_inception_4d/output_0_split <- inception_4d/output
I0701 20:56:09.059300 29064 net.cpp:368] inception_4d/output_inception_4d/output_0_split -> inception_4d/output_inception_4d/output_0_split_0
I0701 20:56:09.059314 29064 net.cpp:368] inception_4d/output_inception_4d/output_0_split -> inception_4d/output_inception_4d/output_0_split_1
I0701 20:56:09.059322 29064 net.cpp:368] inception_4d/output_inception_4d/output_0_split -> inception_4d/output_inception_4d/output_0_split_2
I0701 20:56:09.059329 29064 net.cpp:368] inception_4d/output_inception_4d/output_0_split -> inception_4d/output_inception_4d/output_0_split_3
I0701 20:56:09.059335 29064 net.cpp:368] inception_4d/output_inception_4d/output_0_split -> inception_4d/output_inception_4d/output_0_split_4
I0701 20:56:09.059342 29064 net.cpp:120] Setting up inception_4d/output_inception_4d/output_0_split
I0701 20:56:09.059357 29064 net.cpp:127] Top shape: 30 528 14 14 (3104640)
I0701 20:56:09.059365 29064 net.cpp:127] Top shape: 30 528 14 14 (3104640)
I0701 20:56:09.059370 29064 net.cpp:127] Top shape: 30 528 14 14 (3104640)
I0701 20:56:09.059375 29064 net.cpp:127] Top shape: 30 528 14 14 (3104640)
I0701 20:56:09.059381 29064 net.cpp:127] Top shape: 30 528 14 14 (3104640)
I0701 20:56:09.059386 29064 layer_factory.hpp:74] Creating layer loss2/ave_pool
I0701 20:56:09.059392 29064 net.cpp:90] Creating Layer loss2/ave_pool
I0701 20:56:09.059397 29064 net.cpp:410] loss2/ave_pool <- inception_4d/output_inception_4d/output_0_split_0
I0701 20:56:09.059404 29064 net.cpp:368] loss2/ave_pool -> loss2/ave_pool
I0701 20:56:09.059411 29064 net.cpp:120] Setting up loss2/ave_pool
I0701 20:56:09.059525 29064 net.cpp:127] Top shape: 30 528 4 4 (253440)
I0701 20:56:09.059535 29064 layer_factory.hpp:74] Creating layer loss2/conv
I0701 20:56:09.059543 29064 net.cpp:90] Creating Layer loss2/conv
I0701 20:56:09.059550 29064 net.cpp:410] loss2/conv <- loss2/ave_pool
I0701 20:56:09.059556 29064 net.cpp:368] loss2/conv -> loss2/conv
I0701 20:56:09.059564 29064 net.cpp:120] Setting up loss2/conv
I0701 20:56:09.060101 29064 net.cpp:127] Top shape: 30 128 4 4 (61440)
I0701 20:56:09.060113 29064 layer_factory.hpp:74] Creating layer loss2/relu_conv
I0701 20:56:09.060122 29064 net.cpp:90] Creating Layer loss2/relu_conv
I0701 20:56:09.060127 29064 net.cpp:410] loss2/relu_conv <- loss2/conv
I0701 20:56:09.060132 29064 net.cpp:357] loss2/relu_conv -> loss2/conv (in-place)
I0701 20:56:09.060139 29064 net.cpp:120] Setting up loss2/relu_conv
I0701 20:56:09.060180 29064 net.cpp:127] Top shape: 30 128 4 4 (61440)
I0701 20:56:09.060189 29064 layer_factory.hpp:74] Creating layer loss2/fc
I0701 20:56:09.060196 29064 net.cpp:90] Creating Layer loss2/fc
I0701 20:56:09.060201 29064 net.cpp:410] loss2/fc <- loss2/conv
I0701 20:56:09.060209 29064 net.cpp:368] loss2/fc -> loss2/fc
I0701 20:56:09.060216 29064 net.cpp:120] Setting up loss2/fc
I0701 20:56:09.069808 29064 net.cpp:127] Top shape: 30 1024 (30720)
I0701 20:56:09.069831 29064 layer_factory.hpp:74] Creating layer loss2/relu_fc
I0701 20:56:09.069841 29064 net.cpp:90] Creating Layer loss2/relu_fc
I0701 20:56:09.069849 29064 net.cpp:410] loss2/relu_fc <- loss2/fc
I0701 20:56:09.069855 29064 net.cpp:357] loss2/relu_fc -> loss2/fc (in-place)
I0701 20:56:09.069864 29064 net.cpp:120] Setting up loss2/relu_fc
I0701 20:56:09.069936 29064 net.cpp:127] Top shape: 30 1024 (30720)
I0701 20:56:09.069944 29064 layer_factory.hpp:74] Creating layer loss2/drop_fc
I0701 20:56:09.069952 29064 net.cpp:90] Creating Layer loss2/drop_fc
I0701 20:56:09.069958 29064 net.cpp:410] loss2/drop_fc <- loss2/fc
I0701 20:56:09.069967 29064 net.cpp:357] loss2/drop_fc -> loss2/fc (in-place)
I0701 20:56:09.069972 29064 net.cpp:120] Setting up loss2/drop_fc
I0701 20:56:09.069979 29064 net.cpp:127] Top shape: 30 1024 (30720)
I0701 20:56:09.069984 29064 layer_factory.hpp:74] Creating layer stanford_cars_loss2/classifier
I0701 20:56:09.069993 29064 net.cpp:90] Creating Layer stanford_cars_loss2/classifier
I0701 20:56:09.069998 29064 net.cpp:410] stanford_cars_loss2/classifier <- loss2/fc
I0701 20:56:09.070005 29064 net.cpp:368] stanford_cars_loss2/classifier -> stanford_cars_loss2/classifier
I0701 20:56:09.070014 29064 net.cpp:120] Setting up stanford_cars_loss2/classifier
I0701 20:56:09.071002 29064 net.cpp:127] Top shape: 30 196 (5880)
I0701 20:56:09.071012 29064 layer_factory.hpp:74] Creating layer stanford_cars_loss2/loss
I0701 20:56:09.071018 29064 net.cpp:90] Creating Layer stanford_cars_loss2/loss
I0701 20:56:09.071025 29064 net.cpp:410] stanford_cars_loss2/loss <- stanford_cars_loss2/classifier
I0701 20:56:09.071032 29064 net.cpp:410] stanford_cars_loss2/loss <- label_data_1_split_1
I0701 20:56:09.071038 29064 net.cpp:368] stanford_cars_loss2/loss -> loss2/loss1
I0701 20:56:09.071045 29064 net.cpp:120] Setting up stanford_cars_loss2/loss
I0701 20:56:09.071051 29064 layer_factory.hpp:74] Creating layer stanford_cars_loss2/loss
I0701 20:56:09.071130 29064 net.cpp:127] Top shape: (1)
I0701 20:56:09.071137 29064 net.cpp:129]     with loss weight 0.3
I0701 20:56:09.071149 29064 layer_factory.hpp:74] Creating layer inception_4e/1x1
I0701 20:56:09.071158 29064 net.cpp:90] Creating Layer inception_4e/1x1
I0701 20:56:09.071164 29064 net.cpp:410] inception_4e/1x1 <- inception_4d/output_inception_4d/output_0_split_1
I0701 20:56:09.071173 29064 net.cpp:368] inception_4e/1x1 -> inception_4e/1x1
I0701 20:56:09.071180 29064 net.cpp:120] Setting up inception_4e/1x1
I0701 20:56:09.072134 29064 net.cpp:127] Top shape: 30 256 14 14 (1505280)
I0701 20:56:09.072147 29064 layer_factory.hpp:74] Creating layer inception_4e/relu_1x1
I0701 20:56:09.072154 29064 net.cpp:90] Creating Layer inception_4e/relu_1x1
I0701 20:56:09.072161 29064 net.cpp:410] inception_4e/relu_1x1 <- inception_4e/1x1
I0701 20:56:09.072168 29064 net.cpp:357] inception_4e/relu_1x1 -> inception_4e/1x1 (in-place)
I0701 20:56:09.072175 29064 net.cpp:120] Setting up inception_4e/relu_1x1
I0701 20:56:09.072285 29064 net.cpp:127] Top shape: 30 256 14 14 (1505280)
I0701 20:56:09.072295 29064 layer_factory.hpp:74] Creating layer inception_4e/3x3_reduce
I0701 20:56:09.072304 29064 net.cpp:90] Creating Layer inception_4e/3x3_reduce
I0701 20:56:09.072309 29064 net.cpp:410] inception_4e/3x3_reduce <- inception_4d/output_inception_4d/output_0_split_2
I0701 20:56:09.072316 29064 net.cpp:368] inception_4e/3x3_reduce -> inception_4e/3x3_reduce
I0701 20:56:09.072324 29064 net.cpp:120] Setting up inception_4e/3x3_reduce
I0701 20:56:09.072940 29064 net.cpp:127] Top shape: 30 160 14 14 (940800)
I0701 20:56:09.072952 29064 layer_factory.hpp:74] Creating layer inception_4e/relu_3x3_reduce
I0701 20:56:09.072960 29064 net.cpp:90] Creating Layer inception_4e/relu_3x3_reduce
I0701 20:56:09.072967 29064 net.cpp:410] inception_4e/relu_3x3_reduce <- inception_4e/3x3_reduce
I0701 20:56:09.072973 29064 net.cpp:357] inception_4e/relu_3x3_reduce -> inception_4e/3x3_reduce (in-place)
I0701 20:56:09.072979 29064 net.cpp:120] Setting up inception_4e/relu_3x3_reduce
I0701 20:56:09.073022 29064 net.cpp:127] Top shape: 30 160 14 14 (940800)
I0701 20:56:09.073029 29064 layer_factory.hpp:74] Creating layer inception_4e/3x3
I0701 20:56:09.073038 29064 net.cpp:90] Creating Layer inception_4e/3x3
I0701 20:56:09.073045 29064 net.cpp:410] inception_4e/3x3 <- inception_4e/3x3_reduce
I0701 20:56:09.073051 29064 net.cpp:368] inception_4e/3x3 -> inception_4e/3x3
I0701 20:56:09.073058 29064 net.cpp:120] Setting up inception_4e/3x3
I0701 20:56:09.075496 29064 net.cpp:127] Top shape: 30 320 14 14 (1881600)
I0701 20:56:09.075510 29064 layer_factory.hpp:74] Creating layer inception_4e/relu_3x3
I0701 20:56:09.075518 29064 net.cpp:90] Creating Layer inception_4e/relu_3x3
I0701 20:56:09.075525 29064 net.cpp:410] inception_4e/relu_3x3 <- inception_4e/3x3
I0701 20:56:09.075531 29064 net.cpp:357] inception_4e/relu_3x3 -> inception_4e/3x3 (in-place)
I0701 20:56:09.075536 29064 net.cpp:120] Setting up inception_4e/relu_3x3
I0701 20:56:09.075578 29064 net.cpp:127] Top shape: 30 320 14 14 (1881600)
I0701 20:56:09.075585 29064 layer_factory.hpp:74] Creating layer inception_4e/5x5_reduce
I0701 20:56:09.075593 29064 net.cpp:90] Creating Layer inception_4e/5x5_reduce
I0701 20:56:09.075599 29064 net.cpp:410] inception_4e/5x5_reduce <- inception_4d/output_inception_4d/output_0_split_3
I0701 20:56:09.075608 29064 net.cpp:368] inception_4e/5x5_reduce -> inception_4e/5x5_reduce
I0701 20:56:09.075614 29064 net.cpp:120] Setting up inception_4e/5x5_reduce
I0701 20:56:09.075898 29064 net.cpp:127] Top shape: 30 32 14 14 (188160)
I0701 20:56:09.075911 29064 layer_factory.hpp:74] Creating layer inception_4e/relu_5x5_reduce
I0701 20:56:09.075918 29064 net.cpp:90] Creating Layer inception_4e/relu_5x5_reduce
I0701 20:56:09.075924 29064 net.cpp:410] inception_4e/relu_5x5_reduce <- inception_4e/5x5_reduce
I0701 20:56:09.075930 29064 net.cpp:357] inception_4e/relu_5x5_reduce -> inception_4e/5x5_reduce (in-place)
I0701 20:56:09.075937 29064 net.cpp:120] Setting up inception_4e/relu_5x5_reduce
I0701 20:56:09.076056 29064 net.cpp:127] Top shape: 30 32 14 14 (188160)
I0701 20:56:09.076066 29064 layer_factory.hpp:74] Creating layer inception_4e/5x5
I0701 20:56:09.076083 29064 net.cpp:90] Creating Layer inception_4e/5x5
I0701 20:56:09.076089 29064 net.cpp:410] inception_4e/5x5 <- inception_4e/5x5_reduce
I0701 20:56:09.076097 29064 net.cpp:368] inception_4e/5x5 -> inception_4e/5x5
I0701 20:56:09.076104 29064 net.cpp:120] Setting up inception_4e/5x5
I0701 20:56:09.076808 29064 net.cpp:127] Top shape: 30 128 14 14 (752640)
I0701 20:56:09.076822 29064 layer_factory.hpp:74] Creating layer inception_4e/relu_5x5
I0701 20:56:09.076828 29064 net.cpp:90] Creating Layer inception_4e/relu_5x5
I0701 20:56:09.076835 29064 net.cpp:410] inception_4e/relu_5x5 <- inception_4e/5x5
I0701 20:56:09.076841 29064 net.cpp:357] inception_4e/relu_5x5 -> inception_4e/5x5 (in-place)
I0701 20:56:09.076848 29064 net.cpp:120] Setting up inception_4e/relu_5x5
I0701 20:56:09.076889 29064 net.cpp:127] Top shape: 30 128 14 14 (752640)
I0701 20:56:09.076896 29064 layer_factory.hpp:74] Creating layer inception_4e/pool
I0701 20:56:09.076902 29064 layer_factory.cpp:55] CUDNN does not support padding or multiple tops. Using Caffe's own pooling layer.
I0701 20:56:09.076910 29064 net.cpp:90] Creating Layer inception_4e/pool
I0701 20:56:09.076915 29064 net.cpp:410] inception_4e/pool <- inception_4d/output_inception_4d/output_0_split_4
I0701 20:56:09.076921 29064 net.cpp:368] inception_4e/pool -> inception_4e/pool
I0701 20:56:09.076928 29064 net.cpp:120] Setting up inception_4e/pool
I0701 20:56:09.076936 29064 net.cpp:127] Top shape: 30 528 14 14 (3104640)
I0701 20:56:09.076941 29064 layer_factory.hpp:74] Creating layer inception_4e/pool_proj
I0701 20:56:09.076949 29064 net.cpp:90] Creating Layer inception_4e/pool_proj
I0701 20:56:09.076956 29064 net.cpp:410] inception_4e/pool_proj <- inception_4e/pool
I0701 20:56:09.076962 29064 net.cpp:368] inception_4e/pool_proj -> inception_4e/pool_proj
I0701 20:56:09.076969 29064 net.cpp:120] Setting up inception_4e/pool_proj
I0701 20:56:09.077502 29064 net.cpp:127] Top shape: 30 128 14 14 (752640)
I0701 20:56:09.077514 29064 layer_factory.hpp:74] Creating layer inception_4e/relu_pool_proj
I0701 20:56:09.077523 29064 net.cpp:90] Creating Layer inception_4e/relu_pool_proj
I0701 20:56:09.077529 29064 net.cpp:410] inception_4e/relu_pool_proj <- inception_4e/pool_proj
I0701 20:56:09.077535 29064 net.cpp:357] inception_4e/relu_pool_proj -> inception_4e/pool_proj (in-place)
I0701 20:56:09.077541 29064 net.cpp:120] Setting up inception_4e/relu_pool_proj
I0701 20:56:09.077584 29064 net.cpp:127] Top shape: 30 128 14 14 (752640)
I0701 20:56:09.077590 29064 layer_factory.hpp:74] Creating layer inception_4e/output
I0701 20:56:09.077599 29064 net.cpp:90] Creating Layer inception_4e/output
I0701 20:56:09.077603 29064 net.cpp:410] inception_4e/output <- inception_4e/1x1
I0701 20:56:09.077610 29064 net.cpp:410] inception_4e/output <- inception_4e/3x3
I0701 20:56:09.077615 29064 net.cpp:410] inception_4e/output <- inception_4e/5x5
I0701 20:56:09.077620 29064 net.cpp:410] inception_4e/output <- inception_4e/pool_proj
I0701 20:56:09.077626 29064 net.cpp:368] inception_4e/output -> inception_4e/output
I0701 20:56:09.077632 29064 net.cpp:120] Setting up inception_4e/output
I0701 20:56:09.077641 29064 net.cpp:127] Top shape: 30 832 14 14 (4892160)
I0701 20:56:09.077646 29064 layer_factory.hpp:74] Creating layer pool4/3x3_s2
I0701 20:56:09.077653 29064 net.cpp:90] Creating Layer pool4/3x3_s2
I0701 20:56:09.077658 29064 net.cpp:410] pool4/3x3_s2 <- inception_4e/output
I0701 20:56:09.077664 29064 net.cpp:368] pool4/3x3_s2 -> pool4/3x3_s2
I0701 20:56:09.077672 29064 net.cpp:120] Setting up pool4/3x3_s2
I0701 20:56:09.077713 29064 net.cpp:127] Top shape: 30 832 7 7 (1223040)
I0701 20:56:09.077720 29064 layer_factory.hpp:74] Creating layer pool4/3x3_s2_pool4/3x3_s2_0_split
I0701 20:56:09.077728 29064 net.cpp:90] Creating Layer pool4/3x3_s2_pool4/3x3_s2_0_split
I0701 20:56:09.077733 29064 net.cpp:410] pool4/3x3_s2_pool4/3x3_s2_0_split <- pool4/3x3_s2
I0701 20:56:09.077745 29064 net.cpp:368] pool4/3x3_s2_pool4/3x3_s2_0_split -> pool4/3x3_s2_pool4/3x3_s2_0_split_0
I0701 20:56:09.077754 29064 net.cpp:368] pool4/3x3_s2_pool4/3x3_s2_0_split -> pool4/3x3_s2_pool4/3x3_s2_0_split_1
I0701 20:56:09.077760 29064 net.cpp:368] pool4/3x3_s2_pool4/3x3_s2_0_split -> pool4/3x3_s2_pool4/3x3_s2_0_split_2
I0701 20:56:09.077767 29064 net.cpp:368] pool4/3x3_s2_pool4/3x3_s2_0_split -> pool4/3x3_s2_pool4/3x3_s2_0_split_3
I0701 20:56:09.077774 29064 net.cpp:120] Setting up pool4/3x3_s2_pool4/3x3_s2_0_split
I0701 20:56:09.077780 29064 net.cpp:127] Top shape: 30 832 7 7 (1223040)
I0701 20:56:09.077786 29064 net.cpp:127] Top shape: 30 832 7 7 (1223040)
I0701 20:56:09.077791 29064 net.cpp:127] Top shape: 30 832 7 7 (1223040)
I0701 20:56:09.077797 29064 net.cpp:127] Top shape: 30 832 7 7 (1223040)
I0701 20:56:09.077802 29064 layer_factory.hpp:74] Creating layer inception_5a/1x1
I0701 20:56:09.077811 29064 net.cpp:90] Creating Layer inception_5a/1x1
I0701 20:56:09.077816 29064 net.cpp:410] inception_5a/1x1 <- pool4/3x3_s2_pool4/3x3_s2_0_split_0
I0701 20:56:09.077823 29064 net.cpp:368] inception_5a/1x1 -> inception_5a/1x1
I0701 20:56:09.077831 29064 net.cpp:120] Setting up inception_5a/1x1
I0701 20:56:09.079102 29064 net.cpp:127] Top shape: 30 256 7 7 (376320)
I0701 20:56:09.079120 29064 layer_factory.hpp:74] Creating layer inception_5a/relu_1x1
I0701 20:56:09.079133 29064 net.cpp:90] Creating Layer inception_5a/relu_1x1
I0701 20:56:09.079140 29064 net.cpp:410] inception_5a/relu_1x1 <- inception_5a/1x1
I0701 20:56:09.079148 29064 net.cpp:357] inception_5a/relu_1x1 -> inception_5a/1x1 (in-place)
I0701 20:56:09.079154 29064 net.cpp:120] Setting up inception_5a/relu_1x1
I0701 20:56:09.079298 29064 net.cpp:127] Top shape: 30 256 7 7 (376320)
I0701 20:56:09.079325 29064 layer_factory.hpp:74] Creating layer inception_5a/3x3_reduce
I0701 20:56:09.079345 29064 net.cpp:90] Creating Layer inception_5a/3x3_reduce
I0701 20:56:09.079351 29064 net.cpp:410] inception_5a/3x3_reduce <- pool4/3x3_s2_pool4/3x3_s2_0_split_1
I0701 20:56:09.079358 29064 net.cpp:368] inception_5a/3x3_reduce -> inception_5a/3x3_reduce
I0701 20:56:09.079366 29064 net.cpp:120] Setting up inception_5a/3x3_reduce
I0701 20:56:09.080421 29064 net.cpp:127] Top shape: 30 160 7 7 (235200)
I0701 20:56:09.080436 29064 layer_factory.hpp:74] Creating layer inception_5a/relu_3x3_reduce
I0701 20:56:09.080443 29064 net.cpp:90] Creating Layer inception_5a/relu_3x3_reduce
I0701 20:56:09.080449 29064 net.cpp:410] inception_5a/relu_3x3_reduce <- inception_5a/3x3_reduce
I0701 20:56:09.080457 29064 net.cpp:357] inception_5a/relu_3x3_reduce -> inception_5a/3x3_reduce (in-place)
I0701 20:56:09.080464 29064 net.cpp:120] Setting up inception_5a/relu_3x3_reduce
I0701 20:56:09.080508 29064 net.cpp:127] Top shape: 30 160 7 7 (235200)
I0701 20:56:09.080515 29064 layer_factory.hpp:74] Creating layer inception_5a/3x3
I0701 20:56:09.080524 29064 net.cpp:90] Creating Layer inception_5a/3x3
I0701 20:56:09.080530 29064 net.cpp:410] inception_5a/3x3 <- inception_5a/3x3_reduce
I0701 20:56:09.080538 29064 net.cpp:368] inception_5a/3x3 -> inception_5a/3x3
I0701 20:56:09.080544 29064 net.cpp:120] Setting up inception_5a/3x3
I0701 20:56:09.083160 29064 net.cpp:127] Top shape: 30 320 7 7 (470400)
I0701 20:56:09.083185 29064 layer_factory.hpp:74] Creating layer inception_5a/relu_3x3
I0701 20:56:09.083194 29064 net.cpp:90] Creating Layer inception_5a/relu_3x3
I0701 20:56:09.083200 29064 net.cpp:410] inception_5a/relu_3x3 <- inception_5a/3x3
I0701 20:56:09.083207 29064 net.cpp:357] inception_5a/relu_3x3 -> inception_5a/3x3 (in-place)
I0701 20:56:09.083214 29064 net.cpp:120] Setting up inception_5a/relu_3x3
I0701 20:56:09.083266 29064 net.cpp:127] Top shape: 30 320 7 7 (470400)
I0701 20:56:09.083273 29064 layer_factory.hpp:74] Creating layer inception_5a/5x5_reduce
I0701 20:56:09.083292 29064 net.cpp:90] Creating Layer inception_5a/5x5_reduce
I0701 20:56:09.083299 29064 net.cpp:410] inception_5a/5x5_reduce <- pool4/3x3_s2_pool4/3x3_s2_0_split_2
I0701 20:56:09.083335 29064 net.cpp:368] inception_5a/5x5_reduce -> inception_5a/5x5_reduce
I0701 20:56:09.083345 29064 net.cpp:120] Setting up inception_5a/5x5_reduce
I0701 20:56:09.083703 29064 net.cpp:127] Top shape: 30 32 7 7 (47040)
I0701 20:56:09.083726 29064 layer_factory.hpp:74] Creating layer inception_5a/relu_5x5_reduce
I0701 20:56:09.083734 29064 net.cpp:90] Creating Layer inception_5a/relu_5x5_reduce
I0701 20:56:09.083740 29064 net.cpp:410] inception_5a/relu_5x5_reduce <- inception_5a/5x5_reduce
I0701 20:56:09.083747 29064 net.cpp:357] inception_5a/relu_5x5_reduce -> inception_5a/5x5_reduce (in-place)
I0701 20:56:09.083755 29064 net.cpp:120] Setting up inception_5a/relu_5x5_reduce
I0701 20:56:09.083807 29064 net.cpp:127] Top shape: 30 32 7 7 (47040)
I0701 20:56:09.083814 29064 layer_factory.hpp:74] Creating layer inception_5a/5x5
I0701 20:56:09.083832 29064 net.cpp:90] Creating Layer inception_5a/5x5
I0701 20:56:09.083838 29064 net.cpp:410] inception_5a/5x5 <- inception_5a/5x5_reduce
I0701 20:56:09.083847 29064 net.cpp:368] inception_5a/5x5 -> inception_5a/5x5
I0701 20:56:09.083853 29064 net.cpp:120] Setting up inception_5a/5x5
I0701 20:56:09.084619 29064 net.cpp:127] Top shape: 30 128 7 7 (188160)
I0701 20:56:09.084642 29064 layer_factory.hpp:74] Creating layer inception_5a/relu_5x5
I0701 20:56:09.084650 29064 net.cpp:90] Creating Layer inception_5a/relu_5x5
I0701 20:56:09.084656 29064 net.cpp:410] inception_5a/relu_5x5 <- inception_5a/5x5
I0701 20:56:09.084663 29064 net.cpp:357] inception_5a/relu_5x5 -> inception_5a/5x5 (in-place)
I0701 20:56:09.084671 29064 net.cpp:120] Setting up inception_5a/relu_5x5
I0701 20:56:09.084789 29064 net.cpp:127] Top shape: 30 128 7 7 (188160)
I0701 20:56:09.084808 29064 layer_factory.hpp:74] Creating layer inception_5a/pool
I0701 20:56:09.084815 29064 layer_factory.cpp:55] CUDNN does not support padding or multiple tops. Using Caffe's own pooling layer.
I0701 20:56:09.084822 29064 net.cpp:90] Creating Layer inception_5a/pool
I0701 20:56:09.084827 29064 net.cpp:410] inception_5a/pool <- pool4/3x3_s2_pool4/3x3_s2_0_split_3
I0701 20:56:09.084836 29064 net.cpp:368] inception_5a/pool -> inception_5a/pool
I0701 20:56:09.084844 29064 net.cpp:120] Setting up inception_5a/pool
I0701 20:56:09.084852 29064 net.cpp:127] Top shape: 30 832 7 7 (1223040)
I0701 20:56:09.084858 29064 layer_factory.hpp:74] Creating layer inception_5a/pool_proj
I0701 20:56:09.084867 29064 net.cpp:90] Creating Layer inception_5a/pool_proj
I0701 20:56:09.084873 29064 net.cpp:410] inception_5a/pool_proj <- inception_5a/pool
I0701 20:56:09.084880 29064 net.cpp:368] inception_5a/pool_proj -> inception_5a/pool_proj
I0701 20:56:09.084887 29064 net.cpp:120] Setting up inception_5a/pool_proj
I0701 20:56:09.085619 29064 net.cpp:127] Top shape: 30 128 7 7 (188160)
I0701 20:56:09.085643 29064 layer_factory.hpp:74] Creating layer inception_5a/relu_pool_proj
I0701 20:56:09.085649 29064 net.cpp:90] Creating Layer inception_5a/relu_pool_proj
I0701 20:56:09.085655 29064 net.cpp:410] inception_5a/relu_pool_proj <- inception_5a/pool_proj
I0701 20:56:09.085664 29064 net.cpp:357] inception_5a/relu_pool_proj -> inception_5a/pool_proj (in-place)
I0701 20:56:09.085670 29064 net.cpp:120] Setting up inception_5a/relu_pool_proj
I0701 20:56:09.085721 29064 net.cpp:127] Top shape: 30 128 7 7 (188160)
I0701 20:56:09.085738 29064 layer_factory.hpp:74] Creating layer inception_5a/output
I0701 20:56:09.085747 29064 net.cpp:90] Creating Layer inception_5a/output
I0701 20:56:09.085752 29064 net.cpp:410] inception_5a/output <- inception_5a/1x1
I0701 20:56:09.085757 29064 net.cpp:410] inception_5a/output <- inception_5a/3x3
I0701 20:56:09.085763 29064 net.cpp:410] inception_5a/output <- inception_5a/5x5
I0701 20:56:09.085769 29064 net.cpp:410] inception_5a/output <- inception_5a/pool_proj
I0701 20:56:09.085777 29064 net.cpp:368] inception_5a/output -> inception_5a/output
I0701 20:56:09.085783 29064 net.cpp:120] Setting up inception_5a/output
I0701 20:56:09.085791 29064 net.cpp:127] Top shape: 30 832 7 7 (1223040)
I0701 20:56:09.085796 29064 layer_factory.hpp:74] Creating layer inception_5a/output_inception_5a/output_0_split
I0701 20:56:09.085811 29064 net.cpp:90] Creating Layer inception_5a/output_inception_5a/output_0_split
I0701 20:56:09.085819 29064 net.cpp:410] inception_5a/output_inception_5a/output_0_split <- inception_5a/output
I0701 20:56:09.085824 29064 net.cpp:368] inception_5a/output_inception_5a/output_0_split -> inception_5a/output_inception_5a/output_0_split_0
I0701 20:56:09.085832 29064 net.cpp:368] inception_5a/output_inception_5a/output_0_split -> inception_5a/output_inception_5a/output_0_split_1
I0701 20:56:09.085839 29064 net.cpp:368] inception_5a/output_inception_5a/output_0_split -> inception_5a/output_inception_5a/output_0_split_2
I0701 20:56:09.085847 29064 net.cpp:368] inception_5a/output_inception_5a/output_0_split -> inception_5a/output_inception_5a/output_0_split_3
I0701 20:56:09.085855 29064 net.cpp:120] Setting up inception_5a/output_inception_5a/output_0_split
I0701 20:56:09.085862 29064 net.cpp:127] Top shape: 30 832 7 7 (1223040)
I0701 20:56:09.085868 29064 net.cpp:127] Top shape: 30 832 7 7 (1223040)
I0701 20:56:09.085873 29064 net.cpp:127] Top shape: 30 832 7 7 (1223040)
I0701 20:56:09.085878 29064 net.cpp:127] Top shape: 30 832 7 7 (1223040)
I0701 20:56:09.085883 29064 layer_factory.hpp:74] Creating layer inception_5b/1x1
I0701 20:56:09.085892 29064 net.cpp:90] Creating Layer inception_5b/1x1
I0701 20:56:09.085897 29064 net.cpp:410] inception_5b/1x1 <- inception_5a/output_inception_5a/output_0_split_0
I0701 20:56:09.085904 29064 net.cpp:368] inception_5b/1x1 -> inception_5b/1x1
I0701 20:56:09.085911 29064 net.cpp:120] Setting up inception_5b/1x1
I0701 20:56:09.087687 29064 net.cpp:127] Top shape: 30 384 7 7 (564480)
I0701 20:56:09.087710 29064 layer_factory.hpp:74] Creating layer inception_5b/relu_1x1
I0701 20:56:09.087719 29064 net.cpp:90] Creating Layer inception_5b/relu_1x1
I0701 20:56:09.087725 29064 net.cpp:410] inception_5b/relu_1x1 <- inception_5b/1x1
I0701 20:56:09.087731 29064 net.cpp:357] inception_5b/relu_1x1 -> inception_5b/1x1 (in-place)
I0701 20:56:09.087738 29064 net.cpp:120] Setting up inception_5b/relu_1x1
I0701 20:56:09.087790 29064 net.cpp:127] Top shape: 30 384 7 7 (564480)
I0701 20:56:09.087797 29064 layer_factory.hpp:74] Creating layer inception_5b/3x3_reduce
I0701 20:56:09.087815 29064 net.cpp:90] Creating Layer inception_5b/3x3_reduce
I0701 20:56:09.087821 29064 net.cpp:410] inception_5b/3x3_reduce <- inception_5a/output_inception_5a/output_0_split_1
I0701 20:56:09.087828 29064 net.cpp:368] inception_5b/3x3_reduce -> inception_5b/3x3_reduce
I0701 20:56:09.087836 29064 net.cpp:120] Setting up inception_5b/3x3_reduce
I0701 20:56:09.088824 29064 net.cpp:127] Top shape: 30 192 7 7 (282240)
I0701 20:56:09.088846 29064 layer_factory.hpp:74] Creating layer inception_5b/relu_3x3_reduce
I0701 20:56:09.088855 29064 net.cpp:90] Creating Layer inception_5b/relu_3x3_reduce
I0701 20:56:09.088860 29064 net.cpp:410] inception_5b/relu_3x3_reduce <- inception_5b/3x3_reduce
I0701 20:56:09.088867 29064 net.cpp:357] inception_5b/relu_3x3_reduce -> inception_5b/3x3_reduce (in-place)
I0701 20:56:09.088874 29064 net.cpp:120] Setting up inception_5b/relu_3x3_reduce
I0701 20:56:09.088925 29064 net.cpp:127] Top shape: 30 192 7 7 (282240)
I0701 20:56:09.088932 29064 layer_factory.hpp:74] Creating layer inception_5b/3x3
I0701 20:56:09.088951 29064 net.cpp:90] Creating Layer inception_5b/3x3
I0701 20:56:09.088956 29064 net.cpp:410] inception_5b/3x3 <- inception_5b/3x3_reduce
I0701 20:56:09.088964 29064 net.cpp:368] inception_5b/3x3 -> inception_5b/3x3
I0701 20:56:09.088982 29064 net.cpp:120] Setting up inception_5b/3x3
I0701 20:56:09.092242 29064 net.cpp:127] Top shape: 30 384 7 7 (564480)
I0701 20:56:09.092264 29064 layer_factory.hpp:74] Creating layer inception_5b/relu_3x3
I0701 20:56:09.092272 29064 net.cpp:90] Creating Layer inception_5b/relu_3x3
I0701 20:56:09.092278 29064 net.cpp:410] inception_5b/relu_3x3 <- inception_5b/3x3
I0701 20:56:09.092284 29064 net.cpp:357] inception_5b/relu_3x3 -> inception_5b/3x3 (in-place)
I0701 20:56:09.092303 29064 net.cpp:120] Setting up inception_5b/relu_3x3
I0701 20:56:09.092429 29064 net.cpp:127] Top shape: 30 384 7 7 (564480)
I0701 20:56:09.092449 29064 layer_factory.hpp:74] Creating layer inception_5b/5x5_reduce
I0701 20:56:09.092458 29064 net.cpp:90] Creating Layer inception_5b/5x5_reduce
I0701 20:56:09.092464 29064 net.cpp:410] inception_5b/5x5_reduce <- inception_5a/output_inception_5a/output_0_split_2
I0701 20:56:09.092473 29064 net.cpp:368] inception_5b/5x5_reduce -> inception_5b/5x5_reduce
I0701 20:56:09.092480 29064 net.cpp:120] Setting up inception_5b/5x5_reduce
I0701 20:56:09.092888 29064 net.cpp:127] Top shape: 30 48 7 7 (70560)
I0701 20:56:09.092911 29064 layer_factory.hpp:74] Creating layer inception_5b/relu_5x5_reduce
I0701 20:56:09.092919 29064 net.cpp:90] Creating Layer inception_5b/relu_5x5_reduce
I0701 20:56:09.092924 29064 net.cpp:410] inception_5b/relu_5x5_reduce <- inception_5b/5x5_reduce
I0701 20:56:09.092932 29064 net.cpp:357] inception_5b/relu_5x5_reduce -> inception_5b/5x5_reduce (in-place)
I0701 20:56:09.092939 29064 net.cpp:120] Setting up inception_5b/relu_5x5_reduce
I0701 20:56:09.092993 29064 net.cpp:127] Top shape: 30 48 7 7 (70560)
I0701 20:56:09.092999 29064 layer_factory.hpp:74] Creating layer inception_5b/5x5
I0701 20:56:09.093017 29064 net.cpp:90] Creating Layer inception_5b/5x5
I0701 20:56:09.093024 29064 net.cpp:410] inception_5b/5x5 <- inception_5b/5x5_reduce
I0701 20:56:09.093030 29064 net.cpp:368] inception_5b/5x5 -> inception_5b/5x5
I0701 20:56:09.093039 29064 net.cpp:120] Setting up inception_5b/5x5
I0701 20:56:09.093997 29064 net.cpp:127] Top shape: 30 128 7 7 (188160)
I0701 20:56:09.094019 29064 layer_factory.hpp:74] Creating layer inception_5b/relu_5x5
I0701 20:56:09.094027 29064 net.cpp:90] Creating Layer inception_5b/relu_5x5
I0701 20:56:09.094033 29064 net.cpp:410] inception_5b/relu_5x5 <- inception_5b/5x5
I0701 20:56:09.094039 29064 net.cpp:357] inception_5b/relu_5x5 -> inception_5b/5x5 (in-place)
I0701 20:56:09.094048 29064 net.cpp:120] Setting up inception_5b/relu_5x5
I0701 20:56:09.094099 29064 net.cpp:127] Top shape: 30 128 7 7 (188160)
I0701 20:56:09.094106 29064 layer_factory.hpp:74] Creating layer inception_5b/pool
I0701 20:56:09.094121 29064 layer_factory.cpp:55] CUDNN does not support padding or multiple tops. Using Caffe's own pooling layer.
I0701 20:56:09.094128 29064 net.cpp:90] Creating Layer inception_5b/pool
I0701 20:56:09.094135 29064 net.cpp:410] inception_5b/pool <- inception_5a/output_inception_5a/output_0_split_3
I0701 20:56:09.094141 29064 net.cpp:368] inception_5b/pool -> inception_5b/pool
I0701 20:56:09.094148 29064 net.cpp:120] Setting up inception_5b/pool
I0701 20:56:09.094156 29064 net.cpp:127] Top shape: 30 832 7 7 (1223040)
I0701 20:56:09.094161 29064 layer_factory.hpp:74] Creating layer inception_5b/pool_proj
I0701 20:56:09.094169 29064 net.cpp:90] Creating Layer inception_5b/pool_proj
I0701 20:56:09.094174 29064 net.cpp:410] inception_5b/pool_proj <- inception_5b/pool
I0701 20:56:09.094182 29064 net.cpp:368] inception_5b/pool_proj -> inception_5b/pool_proj
I0701 20:56:09.094188 29064 net.cpp:120] Setting up inception_5b/pool_proj
I0701 20:56:09.094924 29064 net.cpp:127] Top shape: 30 128 7 7 (188160)
I0701 20:56:09.094948 29064 layer_factory.hpp:74] Creating layer inception_5b/relu_pool_proj
I0701 20:56:09.094955 29064 net.cpp:90] Creating Layer inception_5b/relu_pool_proj
I0701 20:56:09.094960 29064 net.cpp:410] inception_5b/relu_pool_proj <- inception_5b/pool_proj
I0701 20:56:09.094969 29064 net.cpp:357] inception_5b/relu_pool_proj -> inception_5b/pool_proj (in-place)
I0701 20:56:09.094975 29064 net.cpp:120] Setting up inception_5b/relu_pool_proj
I0701 20:56:09.095096 29064 net.cpp:127] Top shape: 30 128 7 7 (188160)
I0701 20:56:09.095118 29064 layer_factory.hpp:74] Creating layer inception_5b/output
I0701 20:56:09.095124 29064 net.cpp:90] Creating Layer inception_5b/output
I0701 20:56:09.095130 29064 net.cpp:410] inception_5b/output <- inception_5b/1x1
I0701 20:56:09.095136 29064 net.cpp:410] inception_5b/output <- inception_5b/3x3
I0701 20:56:09.095149 29064 net.cpp:410] inception_5b/output <- inception_5b/5x5
I0701 20:56:09.095156 29064 net.cpp:410] inception_5b/output <- inception_5b/pool_proj
I0701 20:56:09.095162 29064 net.cpp:368] inception_5b/output -> inception_5b/output
I0701 20:56:09.095170 29064 net.cpp:120] Setting up inception_5b/output
I0701 20:56:09.095177 29064 net.cpp:127] Top shape: 30 1024 7 7 (1505280)
I0701 20:56:09.095183 29064 layer_factory.hpp:74] Creating layer pool5/7x7_s1
I0701 20:56:09.095191 29064 net.cpp:90] Creating Layer pool5/7x7_s1
I0701 20:56:09.095197 29064 net.cpp:410] pool5/7x7_s1 <- inception_5b/output
I0701 20:56:09.095203 29064 net.cpp:368] pool5/7x7_s1 -> pool5/7x7_s1
I0701 20:56:09.095211 29064 net.cpp:120] Setting up pool5/7x7_s1
I0701 20:56:09.095265 29064 net.cpp:127] Top shape: 30 1024 1 1 (30720)
I0701 20:56:09.095273 29064 layer_factory.hpp:74] Creating layer pool5/drop_7x7_s1
I0701 20:56:09.095289 29064 net.cpp:90] Creating Layer pool5/drop_7x7_s1
I0701 20:56:09.095295 29064 net.cpp:410] pool5/drop_7x7_s1 <- pool5/7x7_s1
I0701 20:56:09.095302 29064 net.cpp:357] pool5/drop_7x7_s1 -> pool5/7x7_s1 (in-place)
I0701 20:56:09.095314 29064 net.cpp:120] Setting up pool5/drop_7x7_s1
I0701 20:56:09.095322 29064 net.cpp:127] Top shape: 30 1024 1 1 (30720)
I0701 20:56:09.095327 29064 layer_factory.hpp:74] Creating layer stanford_cars_loss3/classifier
I0701 20:56:09.095336 29064 net.cpp:90] Creating Layer stanford_cars_loss3/classifier
I0701 20:56:09.095342 29064 net.cpp:410] stanford_cars_loss3/classifier <- pool5/7x7_s1
I0701 20:56:09.095350 29064 net.cpp:368] stanford_cars_loss3/classifier -> stanford_cars_loss3/classifier
I0701 20:56:09.095357 29064 net.cpp:120] Setting up stanford_cars_loss3/classifier
I0701 20:56:09.096349 29064 net.cpp:127] Top shape: 30 196 (5880)
I0701 20:56:09.096369 29064 layer_factory.hpp:74] Creating layer loss3/loss3
I0701 20:56:09.096376 29064 net.cpp:90] Creating Layer loss3/loss3
I0701 20:56:09.096381 29064 net.cpp:410] loss3/loss3 <- stanford_cars_loss3/classifier
I0701 20:56:09.096388 29064 net.cpp:410] loss3/loss3 <- label_data_1_split_2
I0701 20:56:09.096395 29064 net.cpp:368] loss3/loss3 -> loss3/loss3
I0701 20:56:09.096403 29064 net.cpp:120] Setting up loss3/loss3
…
I0701 20:56:09.100383 29064 net.cpp:287] The NetState phase (1) differed from the phase (0) specified by a rule in layer data
I0701 20:56:09.101052 29064 net.cpp:42] Initializing net from parameters: 
name: "GoogleNet"
state {
  phase: TEST
}
layer {
  name: "data"
  type: "Data"
  top: "data"
  top: "label"
  include {
    phase: TEST
  }
  transform_param {
    mirror: false
    crop_size: 224
    mean_value: 104
    mean_value: 117
    mean_value: 123
  }
  data_param {
    source: "examples/stanford_cars/stanford_cars_val_lmdb"
    batch_size: 10
    backend: LMDB
  }
}
layer {
  name: "conv1/7x7_s2"
  type: "Convolution"
  bottom: "data"
  top: "conv1/7x7_s2"
  param {
    lr_mult: 1
    decay_mult: 1
  }
  param {
    lr_mult: 2
    decay_mult: 0
  }
  convolution_param {
    num_output: 64
    pad: 3
    kernel_size: 7
    stride: 2
    weight_filler {
      type: "xavier"
      std: 0.1
    }
    bias_filler {
      type: "constant"
      value: 0.2
    }
  }
}
layer {
  name: "conv1/relu_7x7"
  type: "ReLU"
  bottom: "conv1/7x7_s2"
  top: "conv1/7x7_s2"
}
layer {
  name: "pool1/3x3_s2"
  type: "Pooling"
  bottom: "conv1/7x7_s2"
  top: "pool1/3x3_s2"
  pooling_param {
    pool: MAX
    kernel_size: 3
    stride: 2
  }
}
layer {
  name: "pool1/norm1"
  type: "LRN"
  bottom: "pool1/3x3_s2"
  top: "pool1/norm1"
  lrn_param {
    local_size: 5
    alpha: 0.0001
    beta: 0.75
  }
}
layer {
  name: "conv2/3x3_reduce"
  type: "Convolution"
  bottom: "pool1/norm1"
  top: "conv2/3x3_reduce"
  param {
    lr_mult: 1
    decay_mult: 1
  }
  param {
    lr_mult: 2
    decay_mult: 0
  }
  convolution_param {
    num_output: 64
    kernel_size: 1
    weight_filler {
      type: "xavier"
      std: 0.1
    }
    bias_filler {
      type: "constant"
      value: 0.2
    }
  }
}
layer {
  name: "conv2/relu_3x3_reduce"
  type: "ReLU"
  bottom: "conv2/3x3_reduce"
  top: "conv2/3x3_reduce"
}
layer {
  name: "conv2/3x3"
  type: "Convolution"
  bottom: "conv2/3x3_reduce"
  top: "conv2/3x3"
  param {
    lr_mult: 1
    decay_mult: 1
  }
  param {
    lr_mult: 2
    decay_mult: 0
  }
  convolution_param {
    num_output: 192
    pad: 1
    kernel_size: 3
    weight_filler {
      type: "xavier"
      std: 0.03
    }
    bias_filler {
      type: "constant"
      value: 0.2
    }
  }
}
layer {
  name: "conv2/relu_3x3"
  type: "ReLU"
  bottom: "conv2/3x3"
  top: "conv2/3x3"
}
layer {
  name: "conv2/norm2"
  type: "LRN"
  bottom: "conv2/3x3"
  top: "conv2/norm2"
  lrn_param {
    local_size: 5
    alpha: 0.0001
    beta: 0.75
  }
}
layer {
  name: "pool2/3x3_s2"
  type: "Pooling"
  bottom: "conv2/norm2"
  top: "pool2/3x3_s2"
  pooling_param {
    pool: MAX
    kernel_size: 3
    stride: 2
  }
}
layer {
  name: "inception_3a/1x1"
  type: "Convolution"
  bottom: "pool2/3x3_s2"
  top: "inception_3a/1x1"
  param {
    lr_mult: 1
    decay_mult: 1
  }
  param {
    lr_mult: 2
    decay_mult: 0
  }
  convolution_param {
    num_output: 64
    kernel_size: 1
    weight_filler {
      type: "xavier"
      std: 0.03
    }
    bias_filler {
      type: "constant"
      value: 0.2
    }
  }
}
layer {
  name: "inception_3a/relu_1x1"
  type: "ReLU"
  bottom: "inception_3a/1x1"
  top: "inception_3a/1x1"
}
layer {
  name: "inception_3a/3x3_reduce"
  type: "Convolution"
  bottom: "pool2/3x3_s2"
  top: "inception_3a/3x3_reduce"
  param {
    lr_mult: 1
    decay_mult: 1
  }
  param {
    lr_mult: 2
    decay_mult: 0
  }
  convolution_param {
    num_output: 96
    kernel_size: 1
    weight_filler {
      type: "xavier"
      std: 0.09
    }
    bias_filler {
      type: "constant"
      value: 0.2
    }
  }
}
layer {
  name: "inception_3a/relu_3x3_reduce"
  type: "ReLU"
  bottom: "inception_3a/3x3_reduce"
  top: "inception_3a/3x3_reduce"
}
layer {
  name: "inception_3a/3x3"
  type: "Convolution"
  bottom: "inception_3a/3x3_reduce"
  top: "inception_3a/3x3"
  param {
    lr_mult: 1
    decay_mult: 1
  }
  param {
    lr_mult: 2
    decay_mult: 0
  }
  convolution_param {
    num_output: 128
    pad: 1
    kernel_size: 3
    weight_filler {
      type: "xavier"
      std: 0.03
    }
    bias_filler {
      type: "constant"
      value: 0.2
    }
  }
}
layer {
  name: "inception_3a/relu_3x3"
  type: "ReLU"
  bottom: "inception_3a/3x3"
  top: "inception_3a/3x3"
}
layer {
  name: "inception_3a/5x5_reduce"
  type: "Convolution"
  bottom: "pool2/3x3_s2"
  top: "inception_3a/5x5_reduce"
  param {
    lr_mult: 1
    decay_mult: 1
  }
  param {
    lr_mult: 2
    decay_mult: 0
  }
  convolution_param {
    num_output: 16
    kernel_size: 1
    weight_filler {
      type: "xavier"
      std: 0.2
    }
    bias_filler {
      type: "constant"
      value: 0.2
    }
  }
}
layer {
  name: "inception_3a/relu_5x5_reduce"
  type: "ReLU"
  bottom: "inception_3a/5x5_reduce"
  top: "inception_3a/5x5_reduce"
}
layer {
  name: "inception_3a/5x5"
  type: "Convolution"
  bottom: "inception_3a/5x5_reduce"
  top: "inception_3a/5x5"
  param {
    lr_mult: 1
    decay_mult: 1
  }
  param {
    lr_mult: 2
    decay_mult: 0
  }
  convolution_param {
    num_output: 32
    pad: 2
    kernel_size: 5
    weight_filler {
      type: "xavier"
      std: 0.03
    }
    bias_filler {
      type: "constant"
      value: 0.2
    }
  }
}
layer {
  name: "inception_3a/relu_5x5"
  type: "ReLU"
  bottom: "inception_3a/5x5"
  top: "inception_3a/5x5"
}
layer {
  name: "inception_3a/pool"
  type: "Pooling"
  bottom: "pool2/3x3_s2"
  top: "inception_3a/pool"
  pooling_param {
    pool: MAX
    kernel_size: 3
    stride: 1
    pad: 1
  }
}
layer {
  name: "inception_3a/pool_proj"
  type: "Convolution"
  bottom: "inception_3a/pool"
  top: "inception_3a/pool_proj"
  param {
    lr_mult: 1
    decay_mult: 1
  }
  param {
    lr_mult: 2
    decay_mult: 0
  }
  convolution_param {
    num_output: 32
    kernel_size: 1
    weight_filler {
      type: "xavier"
      std: 0.1
    }
    bias_filler {
      type: "constant"
      value: 0.2
    }
  }
}
layer {
  name: "inception_3a/relu_pool_proj"
  type: "ReLU"
  bottom: "inception_3a/pool_proj"
  top: "inception_3a/pool_proj"
}
layer {
  name: "inception_3a/output"
  type: "Concat"
  bottom: "inception_3a/1x1"
  bottom: "inception_3a/3x3"
  bottom: "inception_3a/5x5"
  bottom: "inception_3a/pool_proj"
  top: "inception_3a/output"
}
layer {
  name: "inception_3b/1x1"
  type: "Convolution"
  bottom: "inception_3a/output"
  top: "inception_3b/1x1"
  param {
    lr_mult: 1
    decay_mult: 1
  }
  param {
    lr_mult: 2
    decay_mult: 0
  }
  convolution_param {
    num_output: 128
    kernel_size: 1
    weight_filler {
      type: "xavier"
      std: 0.03
    }
    bias_filler {
      type: "constant"
      value: 0.2
    }
  }
}
layer {
  name: "inception_3b/relu_1x1"
  type: "ReLU"
  bottom: "inception_3b/1x1"
  top: "inception_3b/1x1"
}
layer {
  name: "inception_3b/3x3_reduce"
  type: "Convolution"
  bottom: "inception_3a/output"
  top: "inception_3b/3x3_reduce"
  param {
    lr_mult: 1
    decay_mult: 1
  }
  param {
    lr_mult: 2
    decay_mult: 0
  }
  convolution_param {
    num_output: 128
    kernel_size: 1
    weight_filler {
      type: "xavier"
      std: 0.09
    }
    bias_filler {
      type: "constant"
      value: 0.2
    }
  }
}
layer {
  name: "inception_3b/relu_3x3_reduce"
  type: "ReLU"
  bottom: "inception_3b/3x3_reduce"
  top: "inception_3b/3x3_reduce"
}
layer {
  name: "inception_3b/3x3"
  type: "Convolution"
  bottom: "inception_3b/3x3_reduce"
  top: "inception_3b/3x3"
  param {
    lr_mult: 1
    decay_mult: 1
  }
  param {
    lr_mult: 2
    decay_mult: 0
  }
  convolution_param {
    num_output: 192
    pad: 1
    kernel_size: 3
    weight_filler {
      type: "xavier"
      std: 0.03
    }
    bias_filler {
      type: "constant"
      value: 0.2
    }
  }
}
layer {
  name: "inception_3b/relu_3x3"
  type: "ReLU"
  bottom: "inception_3b/3x3"
  top: "inception_3b/3x3"
}
layer {
  name: "inception_3b/5x5_reduce"
  type: "Convolution"
  bottom: "inception_3a/output"
  top: "inception_3b/5x5_reduce"
  param {
    lr_mult: 1
    decay_mult: 1
  }
  param {
    lr_mult: 2
    decay_mult: 0
  }
  convolution_param {
    num_output: 32
    kernel_size: 1
    weight_filler {
      type: "xavier"
      std: 0.2
    }
    bias_filler {
      type: "constant"
      value: 0.2
    }
  }
}
layer {
  name: "inception_3b/relu_5x5_reduce"
  type: "ReLU"
  bottom: "inception_3b/5x5_reduce"
  top: "inception_3b/5x5_reduce"
}
layer {
  name: "inception_3b/5x5"
  type: "Convolution"
  bottom: "inception_3b/5x5_reduce"
  top: "inception_3b/5x5"
  param {
    lr_mult: 1
    decay_mult: 1
  }
  param {
    lr_mult: 2
    decay_mult: 0
  }
  convolution_param {
    num_output: 96
    pad: 2
    kernel_size: 5
    weight_filler {
      type: "xavier"
      std: 0.03
    }
    bias_filler {
      type: "constant"
      value: 0.2
    }
  }
}
layer {
  name: "inception_3b/relu_5x5"
  type: "ReLU"
  bottom: "inception_3b/5x5"
  top: "inception_3b/5x5"
}
layer {
  name: "inception_3b/pool"
  type: "Pooling"
  bottom: "inception_3a/output"
  top: "inception_3b/pool"
  pooling_param {
    pool: MAX
    kernel_size: 3
    stride: 1
    pad: 1
  }
}
layer {
  name: "inception_3b/pool_proj"
  type: "Convolution"
  bottom: "inception_3b/pool"
  top: "inception_3b/pool_proj"
  param {
    lr_mult: 1
    decay_mult: 1
  }
  param {
    lr_mult: 2
    decay_mult: 0
  }
  convolution_param {
    num_output: 64
    kernel_size: 1
    weight_filler {
      type: "xavier"
      std: 0.1
    }
    bias_filler {
      type: "constant"
      value: 0.2
    }
  }
}
layer {
  name: "inception_3b/relu_pool_proj"
  type: "ReLU"
  bottom: "inception_3b/pool_proj"
  top: "inception_3b/pool_proj"
}
layer {
  name: "inception_3b/output"
  type: "Concat"
  bottom: "inception_3b/1x1"
  bottom: "inception_3b/3x3"
  bottom: "inception_3b/5x5"
  bottom: "inception_3b/pool_proj"
  top: "inception_3b/output"
}
layer {
  name: "pool3/3x3_s2"
  type: "Pooling"
  bottom: "inception_3b/output"
  top: "pool3/3x3_s2"
  pooling_param {
    pool: MAX
    kernel_size: 3
    stride: 2
  }
}
layer {
  name: "inception_4a/1x1"
  type: "Convolution"
  bottom: "pool3/3x3_s2"
  top: "inception_4a/1x1"
  param {
    lr_mult: 1
    decay_mult: 1
  }
  param {
    lr_mult: 2
    decay_mult: 0
  }
  convolution_param {
    num_output: 192
    kernel_size: 1
    weight_filler {
      type: "xavier"
      std: 0.03
    }
    bias_filler {
      type: "constant"
      value: 0.2
    }
  }
}
layer {
  name: "inception_4a/relu_1x1"
  type: "ReLU"
  bottom: "inception_4a/1x1"
  top: "inception_4a/1x1"
}
layer {
  name: "inception_4a/3x3_reduce"
  type: "Convolution"
  bottom: "pool3/3x3_s2"
  top: "inception_4a/3x3_reduce"
  param {
    lr_mult: 1
    decay_mult: 1
  }
  param {
    lr_mult: 2
    decay_mult: 0
  }
  convolution_param {
    num_output: 96
    kernel_size: 1
    weight_filler {
      type: "xavier"
      std: 0.09
    }
    bias_filler {
      type: "constant"
      value: 0.2
    }
  }
}
layer {
  name: "inception_4a/relu_3x3_reduce"
  type: "ReLU"
  bottom: "inception_4a/3x3_reduce"
  top: "inception_4a/3x3_reduce"
}
layer {
  name: "inception_4a/3x3"
  type: "Convolution"
  bottom: "inception_4a/3x3_reduce"
  top: "inception_4a/3x3"
  param {
    lr_mult: 1
    decay_mult: 1
  }
  param {
    lr_mult: 2
    decay_mult: 0
  }
  convolution_param {
    num_output: 208
    pad: 1
    kernel_size: 3
    weight_filler {
      type: "xavier"
      std: 0.03
    }
    bias_filler {
      type: "constant"
      value: 0.2
    }
  }
}
layer {
  name: "inception_4a/relu_3x3"
  type: "ReLU"
  bottom: "inception_4a/3x3"
  top: "inception_4a/3x3"
}
layer {
  name: "inception_4a/5x5_reduce"
  type: "Convolution"
  bottom: "pool3/3x3_s2"
  top: "inception_4a/5x5_reduce"
  param {
    lr_mult: 1
    decay_mult: 1
  }
  param {
    lr_mult: 2
    decay_mult: 0
  }
  convolution_param {
    num_output: 16
    kernel_size: 1
    weight_filler {
      type: "xavier"
      std: 0.2
    }
    bias_filler {
      type: "constant"
      value: 0.2
    }
  }
}
layer {
  name: "inception_4a/relu_5x5_reduce"
  type: "ReLU"
  bottom: "inception_4a/5x5_reduce"
  top: "inception_4a/5x5_reduce"
}
layer {
  name: "inception_4a/5x5"
  type: "Convolution"
  bottom: "inception_4a/5x5_reduce"
  top: "inception_4a/5x5"
  param {
    lr_mult: 1
    decay_mult: 1
  }
  param {
    lr_mult: 2
    decay_mult: 0
  }
  convolution_param {
    num_output: 48
    pad: 2
    kernel_size: 5
    weight_filler {
      type: "xavier"
      std: 0.03
    }
    bias_filler {
      type: "constant"
      value: 0.2
    }
  }
}
layer {
  name: "inception_4a/relu_5x5"
  type: "ReLU"
  bottom: "inception_4a/5x5"
  top: "inception_4a/5x5"
}
layer {
  name: "inception_4a/pool"
  type: "Pooling"
  bottom: "pool3/3x3_s2"
  top: "inception_4a/pool"
  pooling_param {
    pool: MAX
    kernel_size: 3
    stride: 1
    pad: 1
  }
}
layer {
  name: "inception_4a/pool_proj"
  type: "Convolution"
  bottom: "inception_4a/pool"
  top: "inception_4a/pool_proj"
  param {
    lr_mult: 1
    decay_mult: 1
  }
  param {
    lr_mult: 2
    decay_mult: 0
  }
  convolution_param {
    num_output: 64
    kernel_size: 1
    weight_filler {
      type: "xavier"
      std: 0.1
    }
    bias_filler {
      type: "constant"
      value: 0.2
    }
  }
}
layer {
  name: "inception_4a/relu_pool_proj"
  type: "ReLU"
  bottom: "inception_4a/pool_proj"
  top: "inception_4a/pool_proj"
}
layer {
  name: "inception_4a/output"
  type: "Concat"
  bottom: "inception_4a/1x1"
  bottom: "inception_4a/3x3"
  bottom: "inception_4a/5x5"
  bottom: "inception_4a/pool_proj"
  top: "inception_4a/output"
}
layer {
  name: "loss1/ave_pool"
  type: "Pooling"
  bottom: "inception_4a/output"
  top: "loss1/ave_pool"
  pooling_param {
    pool: AVE
    kernel_size: 5
    stride: 3
  }
}
layer {
  name: "loss1/conv"
  type: "Convolution"
  bottom: "loss1/ave_pool"
  top: "loss1/conv"
  param {
    lr_mult: 1
    decay_mult: 1
  }
  param {
    lr_mult: 2
    decay_mult: 0
  }
  convolution_param {
    num_output: 128
    kernel_size: 1
    weight_filler {
      type: "xavier"
      std: 0.08
    }
    bias_filler {
      type: "constant"
      value: 0.2
    }
  }
}
layer {
  name: "loss1/relu_conv"
  type: "ReLU"
  bottom: "loss1/conv"
  top: "loss1/conv"
}
layer {
  name: "loss1/fc"
  type: "InnerProduct"
  bottom: "loss1/conv"
  top: "loss1/fc"
  param {
    lr_mult: 1
    decay_mult: 1
  }
  param {
    lr_mult: 2
    decay_mult: 0
  }
  inner_product_param {
    num_output: 1024
    weight_filler {
      type: "xavier"
      std: 0.02
    }
    bias_filler {
      type: "constant"
      value: 0.2
    }
  }
}
layer {
  name: "loss1/relu_fc"
  type: "ReLU"
  bottom: "loss1/fc"
  top: "loss1/fc"
}
layer {
  name: "loss1/drop_fc"
  type: "Dropout"
  bottom: "loss1/fc"
  top: "loss1/fc"
  dropout_param {
    dropout_ratio: 0.2
  }
}
layer {
  name: "stanford_cars_loss1/classifier"
  type: "InnerProduct"
  bottom: "loss1/fc"
  top: "stanford_cars_loss1/classifier"
  param {
    lr_mult: 1
    decay_mult: 1
  }
  param {
    lr_mult: 2
    decay_mult: 0
  }
  inner_product_param {
    num_output: 196
    weight_filler {
      type: "xavier"
      std: 0.0009765625
    }
    bias_filler {
      type: "constant"
      value: 0
    }
  }
}
layer {
  name: "loss1/loss"
  type: "SoftmaxWithLoss"
  bottom: "stanford_cars_loss1/classifier"
  bottom: "label"
  top: "loss1/loss1"
  loss_weight: 0.3
}
layer {
  name: "loss1/top-1"
  type: "Accuracy"
  bottom: "stanford_cars_loss1/classifier"
  bottom: "label"
  top: "loss1/top-1"
  include {
    phase: TEST
  }
}
layer {
  name: "loss1/top-5"
  type: "Accuracy"
  bottom: "stanford_cars_loss1/classifier"
  bottom: "label"
  top: "loss1/top-5"
  include {
    phase: TEST
  }
  accuracy_param {
    top_k: 5
  }
}
layer {
  name: "inception_4b/1x1"
  type: "Convolution"
  bottom: "inception_4a/output"
  top: "inception_4b/1x1"
  param {
    lr_mult: 1
    decay_mult: 1
  }
  param {
    lr_mult: 2
    decay_mult: 0
  }
  convolution_param {
    num_output: 160
    kernel_size: 1
    weight_filler {
      type: "xavier"
      std: 0.03
    }
    bias_filler {
      type: "constant"
      value: 0.2
    }
  }
}
layer {
  name: "inception_4b/relu_1x1"
  type: "ReLU"
  bottom: "inception_4b/1x1"
  top: "inception_4b/1x1"
}
layer {
  name: "inception_4b/3x3_reduce"
  type: "Convolution"
  bottom: "inception_4a/output"
  top: "inception_4b/3x3_reduce"
  param {
    lr_mult: 1
    decay_mult: 1
  }
  param {
    lr_mult: 2
    decay_mult: 0
  }
  convolution_param {
    num_output: 112
    kernel_size: 1
    weight_filler {
      type: "xavier"
      std: 0.09
    }
    bias_filler {
      type: "constant"
      value: 0.2
    }
  }
}
layer {
  name: "inception_4b/relu_3x3_reduce"
  type: "ReLU"
  bottom: "inception_4b/3x3_reduce"
  top: "inception_4b/3x3_reduce"
}
layer {
  name: "inception_4b/3x3"
  type: "Convolution"
  bottom: "inception_4b/3x3_reduce"
  top: "inception_4b/3x3"
  param {
    lr_mult: 1
    decay_mult: 1
  }
  param {
    lr_mult: 2
    decay_mult: 0
  }
  convolution_param {
    num_output: 224
    pad: 1
    kernel_size: 3
    weight_filler {
      type: "xavier"
      std: 0.03
    }
    bias_filler {
      type: "constant"
      value: 0.2
    }
  }
}
layer {
  name: "inception_4b/relu_3x3"
  type: "ReLU"
  bottom: "inception_4b/3x3"
  top: "inception_4b/3x3"
}
layer {
  name: "inception_4b/5x5_reduce"
  type: "Convolution"
  bottom: "inception_4a/output"
  top: "inception_4b/5x5_reduce"
  param {
    lr_mult: 1
    decay_mult: 1
  }
  param {
    lr_mult: 2
    decay_mult: 0
  }
  convolution_param {
    num_output: 24
    kernel_size: 1
    weight_filler {
      type: "xavier"
      std: 0.2
    }
    bias_filler {
      type: "constant"
      value: 0.2
    }
  }
}
layer {
  name: "inception_4b/relu_5x5_reduce"
  type: "ReLU"
  bottom: "inception_4b/5x5_reduce"
  top: "inception_4b/5x5_reduce"
}
layer {
  name: "inception_4b/5x5"
  type: "Convolution"
  bottom: "inception_4b/5x5_reduce"
  top: "inception_4b/5x5"
  param {
    lr_mult: 1
    decay_mult: 1
  }
  param {
    lr_mult: 2
    decay_mult: 0
  }
  convolution_param {
    num_output: 64
    pad: 2
    kernel_size: 5
    weight_filler {
      type: "xavier"
      std: 0.03
    }
    bias_filler {
      type: "constant"
      value: 0.2
    }
  }
}
layer {
  name: "inception_4b/relu_5x5"
  type: "ReLU"
  bottom: "inception_4b/5x5"
  top: "inception_4b/5x5"
}
layer {
  name: "inception_4b/pool"
  type: "Pooling"
  bottom: "inception_4a/output"
  top: "inception_4b/pool"
  pooling_param {
    pool: MAX
    kernel_size: 3
    stride: 1
    pad: 1
  }
}
layer {
  name: "inception_4b/pool_proj"
  type: "Convolution"
  bottom: "inception_4b/pool"
  top: "inception_4b/pool_proj"
  param {
    lr_mult: 1
    decay_mult: 1
  }
  param {
    lr_mult: 2
    decay_mult: 0
  }
  convolution_param {
    num_output: 64
    kernel_size: 1
    weight_filler {
      type: "xavier"
      std: 0.1
    }
    bias_filler {
      type: "constant"
      value: 0.2
    }
  }
}
layer {
  name: "inception_4b/relu_pool_proj"
  type: "ReLU"
  bottom: "inception_4b/pool_proj"
  top: "inception_4b/pool_proj"
}
layer {
  name: "inception_4b/output"
  type: "Concat"
  bottom: "inception_4b/1x1"
  bottom: "inception_4b/3x3"
  bottom: "inception_4b/5x5"
  bottom: "inception_4b/pool_proj"
  top: "inception_4b/output"
}
layer {
  name: "inception_4c/1x1"
  type: "Convolution"
  bottom: "inception_4b/output"
  top: "inception_4c/1x1"
  param {
    lr_mult: 1
    decay_mult: 1
  }
  param {
    lr_mult: 2
    decay_mult: 0
  }
  convolution_param {
    num_output: 128
    kernel_size: 1
    weight_filler {
      type: "xavier"
      std: 0.03
    }
    bias_filler {
      type: "constant"
      value: 0.2
    }
  }
}
layer {
  name: "inception_4c/relu_1x1"
  type: "ReLU"
  bottom: "inception_4c/1x1"
  top: "inception_4c/1x1"
}
layer {
  name: "inception_4c/3x3_reduce"
  type: "Convolution"
  bottom: "inception_4b/output"
  top: "inception_4c/3x3_reduce"
  param {
    lr_mult: 1
    decay_mult: 1
  }
  param {
    lr_mult: 2
    decay_mult: 0
  }
  convolution_param {
    num_output: 128
    kernel_size: 1
    weight_filler {
      type: "xavier"
      std: 0.09
    }
    bias_filler {
      type: "constant"
      value: 0.2
    }
  }
}
layer {
  name: "inception_4c/relu_3x3_reduce"
  type: "ReLU"
  bottom: "inception_4c/3x3_reduce"
  top: "inception_4c/3x3_reduce"
}
layer {
  name: "inception_4c/3x3"
  type: "Convolution"
  bottom: "inception_4c/3x3_reduce"
  top: "inception_4c/3x3"
  param {
    lr_mult: 1
    decay_mult: 1
  }
  param {
    lr_mult: 2
    decay_mult: 0
  }
  convolution_param {
    num_output: 256
    pad: 1
    kernel_size: 3
    weight_filler {
      type: "xavier"
      std: 0.03
    }
    bias_filler {
      type: "constant"
      value: 0.2
    }
  }
}
layer {
  name: "inception_4c/relu_3x3"
  type: "ReLU"
  bottom: "inception_4c/3x3"
  top: "inception_4c/3x3"
}
layer {
  name: "inception_4c/5x5_reduce"
  type: "Convolution"
  bottom: "inception_4b/output"
  top: "inception_4c/5x5_reduce"
  param {
    lr_mult: 1
    decay_mult: 1
  }
  param {
    lr_mult: 2
    decay_mult: 0
  }
  convolution_param {
    num_output: 24
    kernel_size: 1
    weight_filler {
      type: "xavier"
      std: 0.2
    }
    bias_filler {
      type: "constant"
      value: 0.2
    }
  }
}
layer {
  name: "inception_4c/relu_5x5_reduce"
  type: "ReLU"
  bottom: "inception_4c/5x5_reduce"
  top: "inception_4c/5x5_reduce"
}
layer {
  name: "inception_4c/5x5"
  type: "Convolution"
  bottom: "inception_4c/5x5_reduce"
  top: "inception_4c/5x5"
  param {
    lr_mult: 1
    decay_mult: 1
  }
  param {
    lr_mult: 2
    decay_mult: 0
  }
  convolution_param {
    num_output: 64
    pad: 2
    kernel_size: 5
    weight_filler {
      type: "xavier"
      std: 0.03
    }
    bias_filler {
      type: "constant"
      value: 0.2
    }
  }
}
layer {
  name: "inception_4c/relu_5x5"
  type: "ReLU"
  bottom: "inception_4c/5x5"
  top: "inception_4c/5x5"
}
layer {
  name: "inception_4c/pool"
  type: "Pooling"
  bottom: "inception_4b/output"
  top: "inception_4c/pool"
  pooling_param {
    pool: MAX
    kernel_size: 3
    stride: 1
    pad: 1
  }
}
layer {
  name: "inception_4c/pool_proj"
  type: "Convolution"
  bottom: "inception_4c/pool"
  top: "inception_4c/pool_proj"
  param {
    lr_mult: 1
    decay_mult: 1
  }
  param {
    lr_mult: 2
    decay_mult: 0
  }
  convolution_param {
    num_output: 64
    kernel_size: 1
    weight_filler {
      type: "xavier"
      std: 0.1
    }
    bias_filler {
      type: "constant"
      value: 0.2
    }
  }
}
layer {
  name: "inception_4c/relu_pool_proj"
  type: "ReLU"
  bottom: "inception_4c/pool_proj"
  top: "inception_4c/pool_proj"
}
layer {
  name: "inception_4c/output"
  type: "Concat"
  bottom: "inception_4c/1x1"
  bottom: "inception_4c/3x3"
  bottom: "inception_4c/5x5"
  bottom: "inception_4c/pool_proj"
  top: "inception_4c/output"
}
layer {
  name: "inception_4d/1x1"
  type: "Convolution"
  bottom: "inception_4c/output"
  top: "inception_4d/1x1"
  param {
    lr_mult: 1
    decay_mult: 1
  }
  param {
    lr_mult: 2
    decay_mult: 0
  }
  convolution_param {
    num_output: 112
    kernel_size: 1
    weight_filler {
      type: "xavier"
      std: 0.03
    }
    bias_filler {
      type: "constant"
      value: 0.2
    }
  }
}
layer {
  name: "inception_4d/relu_1x1"
  type: "ReLU"
  bottom: "inception_4d/1x1"
  top: "inception_4d/1x1"
}
layer {
  name: "inception_4d/3x3_reduce"
  type: "Convolution"
  bottom: "inception_4c/output"
  top: "inception_4d/3x3_reduce"
  param {
    lr_mult: 1
    decay_mult: 1
  }
  param {
    lr_mult: 2
    decay_mult: 0
  }
  convolution_param {
    num_output: 144
    kernel_size: 1
    weight_filler {
      type: "xavier"
      std: 0.09
    }
    bias_filler {
      type: "constant"
      value: 0.2
    }
  }
}
layer {
  name: "inception_4d/relu_3x3_reduce"
  type: "ReLU"
  bottom: "inception_4d/3x3_reduce"
  top: "inception_4d/3x3_reduce"
}
layer {
  name: "inception_4d/3x3"
  type: "Convolution"
  bottom: "inception_4d/3x3_reduce"
  top: "inception_4d/3x3"
  param {
    lr_mult: 1
    decay_mult: 1
  }
  param {
    lr_mult: 2
    decay_mult: 0
  }
  convolution_param {
    num_output: 288
    pad: 1
    kernel_size: 3
    weight_filler {
      type: "xavier"
      std: 0.03
    }
    bias_filler {
      type: "constant"
      value: 0.2
    }
  }
}
layer {
  name: "inception_4d/relu_3x3"
  type: "ReLU"
  bottom: "inception_4d/3x3"
  top: "inception_4d/3x3"
}
layer {
  name: "inception_4d/5x5_reduce"
  type: "Convolution"
  bottom: "inception_4c/output"
  top: "inception_4d/5x5_reduce"
  param {
    lr_mult: 1
    decay_mult: 1
  }
  param {
    lr_mult: 2
    decay_mult: 0
  }
  convolution_param {
    num_output: 32
    kernel_size: 1
    weight_filler {
      type: "xavier"
      std: 0.2
    }
    bias_filler {
      type: "constant"
      value: 0.2
    }
  }
}
layer {
  name: "inception_4d/relu_5x5_reduce"
  type: "ReLU"
  bottom: "inception_4d/5x5_reduce"
  top: "inception_4d/5x5_reduce"
}
layer {
  name: "inception_4d/5x5"
  type: "Convolution"
  bottom: "inception_4d/5x5_reduce"
  top: "inception_4d/5x5"
  param {
    lr_mult: 1
    decay_mult: 1
  }
  param {
    lr_mult: 2
    decay_mult: 0
  }
  convolution_param {
    num_output: 64
    pad: 2
    kernel_size: 5
    weight_filler {
      type: "xavier"
      std: 0.03
    }
    bias_filler {
      type: "constant"
      value: 0.2
    }
  }
}
layer {
  name: "inception_4d/relu_5x5"
  type: "ReLU"
  bottom: "inception_4d/5x5"
  top: "inception_4d/5x5"
}
layer {
  name: "inception_4d/pool"
  type: "Pooling"
  bottom: "inception_4c/output"
  top: "inception_4d/pool"
  pooling_param {
    pool: MAX
    kernel_size: 3
    stride: 1
    pad: 1
  }
}
layer {
  name: "inception_4d/pool_proj"
  type: "Convolution"
  bottom: "inception_4d/pool"
  top: "inception_4d/pool_proj"
  param {
    lr_mult: 1
    decay_mult: 1
  }
  param {
    lr_mult: 2
    decay_mult: 0
  }
  convolution_param {
    num_output: 64
    kernel_size: 1
…
I0701 20:56:09.198407 29064 net.cpp:127] Top shape: 10 128 14 14 (250880)
I0701 20:56:09.198420 29064 layer_factory.hpp:74] Creating layer inception_4c/relu_1x1
I0701 20:56:09.198426 29064 net.cpp:90] Creating Layer inception_4c/relu_1x1
I0701 20:56:09.198432 29064 net.cpp:410] inception_4c/relu_1x1 <- inception_4c/1x1
I0701 20:56:09.198439 29064 net.cpp:357] inception_4c/relu_1x1 -> inception_4c/1x1 (in-place)
I0701 20:56:09.198446 29064 net.cpp:120] Setting up inception_4c/relu_1x1
I0701 20:56:09.198494 29064 net.cpp:127] Top shape: 10 128 14 14 (250880)
I0701 20:56:09.198501 29064 layer_factory.hpp:74] Creating layer inception_4c/3x3_reduce
I0701 20:56:09.198509 29064 net.cpp:90] Creating Layer inception_4c/3x3_reduce
I0701 20:56:09.198514 29064 net.cpp:410] inception_4c/3x3_reduce <- inception_4b/output_inception_4b/output_0_split_1
I0701 20:56:09.198521 29064 net.cpp:368] inception_4c/3x3_reduce -> inception_4c/3x3_reduce
I0701 20:56:09.198529 29064 net.cpp:120] Setting up inception_4c/3x3_reduce
I0701 20:56:09.199056 29064 net.cpp:127] Top shape: 10 128 14 14 (250880)
I0701 20:56:09.199067 29064 layer_factory.hpp:74] Creating layer inception_4c/relu_3x3_reduce
I0701 20:56:09.199074 29064 net.cpp:90] Creating Layer inception_4c/relu_3x3_reduce
I0701 20:56:09.199080 29064 net.cpp:410] inception_4c/relu_3x3_reduce <- inception_4c/3x3_reduce
I0701 20:56:09.199087 29064 net.cpp:357] inception_4c/relu_3x3_reduce -> inception_4c/3x3_reduce (in-place)
I0701 20:56:09.199093 29064 net.cpp:120] Setting up inception_4c/relu_3x3_reduce
I0701 20:56:09.199206 29064 net.cpp:127] Top shape: 10 128 14 14 (250880)
I0701 20:56:09.199215 29064 layer_factory.hpp:74] Creating layer inception_4c/3x3
I0701 20:56:09.199224 29064 net.cpp:90] Creating Layer inception_4c/3x3
I0701 20:56:09.199230 29064 net.cpp:410] inception_4c/3x3 <- inception_4c/3x3_reduce
I0701 20:56:09.199237 29064 net.cpp:368] inception_4c/3x3 -> inception_4c/3x3
I0701 20:56:09.199244 29064 net.cpp:120] Setting up inception_4c/3x3
I0701 20:56:09.201082 29064 net.cpp:127] Top shape: 10 256 14 14 (501760)
I0701 20:56:09.201114 29064 layer_factory.hpp:74] Creating layer inception_4c/relu_3x3
I0701 20:56:09.201123 29064 net.cpp:90] Creating Layer inception_4c/relu_3x3
I0701 20:56:09.201129 29064 net.cpp:410] inception_4c/relu_3x3 <- inception_4c/3x3
I0701 20:56:09.201136 29064 net.cpp:357] inception_4c/relu_3x3 -> inception_4c/3x3 (in-place)
I0701 20:56:09.201143 29064 net.cpp:120] Setting up inception_4c/relu_3x3
I0701 20:56:09.201207 29064 net.cpp:127] Top shape: 10 256 14 14 (501760)
I0701 20:56:09.201215 29064 layer_factory.hpp:74] Creating layer inception_4c/5x5_reduce
I0701 20:56:09.201222 29064 net.cpp:90] Creating Layer inception_4c/5x5_reduce
I0701 20:56:09.201228 29064 net.cpp:410] inception_4c/5x5_reduce <- inception_4b/output_inception_4b/output_0_split_2
I0701 20:56:09.201236 29064 net.cpp:368] inception_4c/5x5_reduce -> inception_4c/5x5_reduce
I0701 20:56:09.201254 29064 net.cpp:120] Setting up inception_4c/5x5_reduce
I0701 20:56:09.201655 29064 net.cpp:127] Top shape: 10 24 14 14 (47040)
I0701 20:56:09.201673 29064 layer_factory.hpp:74] Creating layer inception_4c/relu_5x5_reduce
I0701 20:56:09.201685 29064 net.cpp:90] Creating Layer inception_4c/relu_5x5_reduce
I0701 20:56:09.201694 29064 net.cpp:410] inception_4c/relu_5x5_reduce <- inception_4c/5x5_reduce
I0701 20:56:09.201704 29064 net.cpp:357] inception_4c/relu_5x5_reduce -> inception_4c/5x5_reduce (in-place)
I0701 20:56:09.201714 29064 net.cpp:120] Setting up inception_4c/relu_5x5_reduce
I0701 20:56:09.201771 29064 net.cpp:127] Top shape: 10 24 14 14 (47040)
I0701 20:56:09.201799 29064 layer_factory.hpp:74] Creating layer inception_4c/5x5
I0701 20:56:09.201809 29064 net.cpp:90] Creating Layer inception_4c/5x5
I0701 20:56:09.201815 29064 net.cpp:410] inception_4c/5x5 <- inception_4c/5x5_reduce
I0701 20:56:09.201823 29064 net.cpp:368] inception_4c/5x5 -> inception_4c/5x5
I0701 20:56:09.201840 29064 net.cpp:120] Setting up inception_4c/5x5
I0701 20:56:09.202292 29064 net.cpp:127] Top shape: 10 64 14 14 (125440)
I0701 20:56:09.202304 29064 layer_factory.hpp:74] Creating layer inception_4c/relu_5x5
I0701 20:56:09.202321 29064 net.cpp:90] Creating Layer inception_4c/relu_5x5
I0701 20:56:09.202328 29064 net.cpp:410] inception_4c/relu_5x5 <- inception_4c/5x5
I0701 20:56:09.202335 29064 net.cpp:357] inception_4c/relu_5x5 -> inception_4c/5x5 (in-place)
I0701 20:56:09.202350 29064 net.cpp:120] Setting up inception_4c/relu_5x5
I0701 20:56:09.202392 29064 net.cpp:127] Top shape: 10 64 14 14 (125440)
I0701 20:56:09.202410 29064 layer_factory.hpp:74] Creating layer inception_4c/pool
I0701 20:56:09.202416 29064 layer_factory.cpp:55] CUDNN does not support padding or multiple tops. Using Caffe's own pooling layer.
I0701 20:56:09.202424 29064 net.cpp:90] Creating Layer inception_4c/pool
I0701 20:56:09.202430 29064 net.cpp:410] inception_4c/pool <- inception_4b/output_inception_4b/output_0_split_3
I0701 20:56:09.202435 29064 net.cpp:368] inception_4c/pool -> inception_4c/pool
I0701 20:56:09.202442 29064 net.cpp:120] Setting up inception_4c/pool
I0701 20:56:09.202450 29064 net.cpp:127] Top shape: 10 512 14 14 (1003520)
I0701 20:56:09.202455 29064 layer_factory.hpp:74] Creating layer inception_4c/pool_proj
I0701 20:56:09.202463 29064 net.cpp:90] Creating Layer inception_4c/pool_proj
I0701 20:56:09.202468 29064 net.cpp:410] inception_4c/pool_proj <- inception_4c/pool
I0701 20:56:09.202474 29064 net.cpp:368] inception_4c/pool_proj -> inception_4c/pool_proj
I0701 20:56:09.202481 29064 net.cpp:120] Setting up inception_4c/pool_proj
I0701 20:56:09.202886 29064 net.cpp:127] Top shape: 10 64 14 14 (125440)
I0701 20:56:09.202903 29064 layer_factory.hpp:74] Creating layer inception_4c/relu_pool_proj
I0701 20:56:09.202913 29064 net.cpp:90] Creating Layer inception_4c/relu_pool_proj
I0701 20:56:09.202919 29064 net.cpp:410] inception_4c/relu_pool_proj <- inception_4c/pool_proj
I0701 20:56:09.202926 29064 net.cpp:357] inception_4c/relu_pool_proj -> inception_4c/pool_proj (in-place)
I0701 20:56:09.202937 29064 net.cpp:120] Setting up inception_4c/relu_pool_proj
I0701 20:56:09.203085 29064 net.cpp:127] Top shape: 10 64 14 14 (125440)
I0701 20:56:09.203095 29064 layer_factory.hpp:74] Creating layer inception_4c/output
I0701 20:56:09.203104 29064 net.cpp:90] Creating Layer inception_4c/output
I0701 20:56:09.203119 29064 net.cpp:410] inception_4c/output <- inception_4c/1x1
I0701 20:56:09.203125 29064 net.cpp:410] inception_4c/output <- inception_4c/3x3
I0701 20:56:09.203130 29064 net.cpp:410] inception_4c/output <- inception_4c/5x5
I0701 20:56:09.203135 29064 net.cpp:410] inception_4c/output <- inception_4c/pool_proj
I0701 20:56:09.203141 29064 net.cpp:368] inception_4c/output -> inception_4c/output
I0701 20:56:09.203148 29064 net.cpp:120] Setting up inception_4c/output
I0701 20:56:09.203155 29064 net.cpp:127] Top shape: 10 512 14 14 (1003520)
I0701 20:56:09.203161 29064 layer_factory.hpp:74] Creating layer inception_4c/output_inception_4c/output_0_split
I0701 20:56:09.203167 29064 net.cpp:90] Creating Layer inception_4c/output_inception_4c/output_0_split
I0701 20:56:09.203173 29064 net.cpp:410] inception_4c/output_inception_4c/output_0_split <- inception_4c/output
I0701 20:56:09.203178 29064 net.cpp:368] inception_4c/output_inception_4c/output_0_split -> inception_4c/output_inception_4c/output_0_split_0
I0701 20:56:09.203186 29064 net.cpp:368] inception_4c/output_inception_4c/output_0_split -> inception_4c/output_inception_4c/output_0_split_1
I0701 20:56:09.203193 29064 net.cpp:368] inception_4c/output_inception_4c/output_0_split -> inception_4c/output_inception_4c/output_0_split_2
I0701 20:56:09.203199 29064 net.cpp:368] inception_4c/output_inception_4c/output_0_split -> inception_4c/output_inception_4c/output_0_split_3
I0701 20:56:09.203205 29064 net.cpp:120] Setting up inception_4c/output_inception_4c/output_0_split
I0701 20:56:09.203212 29064 net.cpp:127] Top shape: 10 512 14 14 (1003520)
I0701 20:56:09.203217 29064 net.cpp:127] Top shape: 10 512 14 14 (1003520)
I0701 20:56:09.203222 29064 net.cpp:127] Top shape: 10 512 14 14 (1003520)
I0701 20:56:09.203227 29064 net.cpp:127] Top shape: 10 512 14 14 (1003520)
I0701 20:56:09.203233 29064 layer_factory.hpp:74] Creating layer inception_4d/1x1
I0701 20:56:09.203240 29064 net.cpp:90] Creating Layer inception_4d/1x1
I0701 20:56:09.203245 29064 net.cpp:410] inception_4d/1x1 <- inception_4c/output_inception_4c/output_0_split_0
I0701 20:56:09.203253 29064 net.cpp:368] inception_4d/1x1 -> inception_4d/1x1
I0701 20:56:09.203260 29064 net.cpp:120] Setting up inception_4d/1x1
I0701 20:56:09.203781 29064 net.cpp:127] Top shape: 10 112 14 14 (219520)
I0701 20:56:09.203801 29064 layer_factory.hpp:74] Creating layer inception_4d/relu_1x1
I0701 20:56:09.203810 29064 net.cpp:90] Creating Layer inception_4d/relu_1x1
I0701 20:56:09.203816 29064 net.cpp:410] inception_4d/relu_1x1 <- inception_4d/1x1
I0701 20:56:09.203822 29064 net.cpp:357] inception_4d/relu_1x1 -> inception_4d/1x1 (in-place)
I0701 20:56:09.203830 29064 net.cpp:120] Setting up inception_4d/relu_1x1
I0701 20:56:09.203882 29064 net.cpp:127] Top shape: 10 112 14 14 (219520)
I0701 20:56:09.203888 29064 layer_factory.hpp:74] Creating layer inception_4d/3x3_reduce
I0701 20:56:09.203896 29064 net.cpp:90] Creating Layer inception_4d/3x3_reduce
I0701 20:56:09.203903 29064 net.cpp:410] inception_4d/3x3_reduce <- inception_4c/output_inception_4c/output_0_split_1
I0701 20:56:09.203909 29064 net.cpp:368] inception_4d/3x3_reduce -> inception_4d/3x3_reduce
I0701 20:56:09.203927 29064 net.cpp:120] Setting up inception_4d/3x3_reduce
I0701 20:56:09.204496 29064 net.cpp:127] Top shape: 10 144 14 14 (282240)
I0701 20:56:09.204507 29064 layer_factory.hpp:74] Creating layer inception_4d/relu_3x3_reduce
I0701 20:56:09.204514 29064 net.cpp:90] Creating Layer inception_4d/relu_3x3_reduce
I0701 20:56:09.204520 29064 net.cpp:410] inception_4d/relu_3x3_reduce <- inception_4d/3x3_reduce
I0701 20:56:09.204527 29064 net.cpp:357] inception_4d/relu_3x3_reduce -> inception_4d/3x3_reduce (in-place)
I0701 20:56:09.204535 29064 net.cpp:120] Setting up inception_4d/relu_3x3_reduce
I0701 20:56:09.204577 29064 net.cpp:127] Top shape: 10 144 14 14 (282240)
I0701 20:56:09.204583 29064 layer_factory.hpp:74] Creating layer inception_4d/3x3
I0701 20:56:09.204591 29064 net.cpp:90] Creating Layer inception_4d/3x3
I0701 20:56:09.204596 29064 net.cpp:410] inception_4d/3x3 <- inception_4d/3x3_reduce
I0701 20:56:09.204603 29064 net.cpp:368] inception_4d/3x3 -> inception_4d/3x3
I0701 20:56:09.204610 29064 net.cpp:120] Setting up inception_4d/3x3
I0701 20:56:09.206629 29064 net.cpp:127] Top shape: 10 288 14 14 (564480)
I0701 20:56:09.206640 29064 layer_factory.hpp:74] Creating layer inception_4d/relu_3x3
I0701 20:56:09.206647 29064 net.cpp:90] Creating Layer inception_4d/relu_3x3
I0701 20:56:09.206653 29064 net.cpp:410] inception_4d/relu_3x3 <- inception_4d/3x3
I0701 20:56:09.206660 29064 net.cpp:357] inception_4d/relu_3x3 -> inception_4d/3x3 (in-place)
I0701 20:56:09.206666 29064 net.cpp:120] Setting up inception_4d/relu_3x3
I0701 20:56:09.206779 29064 net.cpp:127] Top shape: 10 288 14 14 (564480)
I0701 20:56:09.206789 29064 layer_factory.hpp:74] Creating layer inception_4d/5x5_reduce
I0701 20:56:09.206796 29064 net.cpp:90] Creating Layer inception_4d/5x5_reduce
I0701 20:56:09.206802 29064 net.cpp:410] inception_4d/5x5_reduce <- inception_4c/output_inception_4c/output_0_split_2
I0701 20:56:09.206810 29064 net.cpp:368] inception_4d/5x5_reduce -> inception_4d/5x5_reduce
I0701 20:56:09.206817 29064 net.cpp:120] Setting up inception_4d/5x5_reduce
I0701 20:56:09.207103 29064 net.cpp:127] Top shape: 10 32 14 14 (62720)
I0701 20:56:09.207115 29064 layer_factory.hpp:74] Creating layer inception_4d/relu_5x5_reduce
I0701 20:56:09.207123 29064 net.cpp:90] Creating Layer inception_4d/relu_5x5_reduce
I0701 20:56:09.207129 29064 net.cpp:410] inception_4d/relu_5x5_reduce <- inception_4d/5x5_reduce
I0701 20:56:09.207134 29064 net.cpp:357] inception_4d/relu_5x5_reduce -> inception_4d/5x5_reduce (in-place)
I0701 20:56:09.207141 29064 net.cpp:120] Setting up inception_4d/relu_5x5_reduce
I0701 20:56:09.207185 29064 net.cpp:127] Top shape: 10 32 14 14 (62720)
I0701 20:56:09.207190 29064 layer_factory.hpp:74] Creating layer inception_4d/5x5
I0701 20:56:09.207197 29064 net.cpp:90] Creating Layer inception_4d/5x5
I0701 20:56:09.207202 29064 net.cpp:410] inception_4d/5x5 <- inception_4d/5x5_reduce
I0701 20:56:09.207211 29064 net.cpp:368] inception_4d/5x5 -> inception_4d/5x5
I0701 20:56:09.207218 29064 net.cpp:120] Setting up inception_4d/5x5
I0701 20:56:09.207682 29064 net.cpp:127] Top shape: 10 64 14 14 (125440)
I0701 20:56:09.207695 29064 layer_factory.hpp:74] Creating layer inception_4d/relu_5x5
I0701 20:56:09.207710 29064 net.cpp:90] Creating Layer inception_4d/relu_5x5
I0701 20:56:09.207716 29064 net.cpp:410] inception_4d/relu_5x5 <- inception_4d/5x5
I0701 20:56:09.207722 29064 net.cpp:357] inception_4d/relu_5x5 -> inception_4d/5x5 (in-place)
I0701 20:56:09.207729 29064 net.cpp:120] Setting up inception_4d/relu_5x5
I0701 20:56:09.207773 29064 net.cpp:127] Top shape: 10 64 14 14 (125440)
I0701 20:56:09.207779 29064 layer_factory.hpp:74] Creating layer inception_4d/pool
I0701 20:56:09.207785 29064 layer_factory.cpp:55] CUDNN does not support padding or multiple tops. Using Caffe's own pooling layer.
I0701 20:56:09.207792 29064 net.cpp:90] Creating Layer inception_4d/pool
I0701 20:56:09.207797 29064 net.cpp:410] inception_4d/pool <- inception_4c/output_inception_4c/output_0_split_3
I0701 20:56:09.207803 29064 net.cpp:368] inception_4d/pool -> inception_4d/pool
I0701 20:56:09.207809 29064 net.cpp:120] Setting up inception_4d/pool
I0701 20:56:09.207818 29064 net.cpp:127] Top shape: 10 512 14 14 (1003520)
I0701 20:56:09.207823 29064 layer_factory.hpp:74] Creating layer inception_4d/pool_proj
I0701 20:56:09.207829 29064 net.cpp:90] Creating Layer inception_4d/pool_proj
I0701 20:56:09.207835 29064 net.cpp:410] inception_4d/pool_proj <- inception_4d/pool
I0701 20:56:09.207842 29064 net.cpp:368] inception_4d/pool_proj -> inception_4d/pool_proj
I0701 20:56:09.207849 29064 net.cpp:120] Setting up inception_4d/pool_proj
I0701 20:56:09.208259 29064 net.cpp:127] Top shape: 10 64 14 14 (125440)
I0701 20:56:09.208272 29064 layer_factory.hpp:74] Creating layer inception_4d/relu_pool_proj
I0701 20:56:09.208281 29064 net.cpp:90] Creating Layer inception_4d/relu_pool_proj
I0701 20:56:09.208287 29064 net.cpp:410] inception_4d/relu_pool_proj <- inception_4d/pool_proj
I0701 20:56:09.208293 29064 net.cpp:357] inception_4d/relu_pool_proj -> inception_4d/pool_proj (in-place)
I0701 20:56:09.208300 29064 net.cpp:120] Setting up inception_4d/relu_pool_proj
I0701 20:56:09.208343 29064 net.cpp:127] Top shape: 10 64 14 14 (125440)
I0701 20:56:09.208348 29064 layer_factory.hpp:74] Creating layer inception_4d/output
I0701 20:56:09.208355 29064 net.cpp:90] Creating Layer inception_4d/output
I0701 20:56:09.208361 29064 net.cpp:410] inception_4d/output <- inception_4d/1x1
I0701 20:56:09.208366 29064 net.cpp:410] inception_4d/output <- inception_4d/3x3
I0701 20:56:09.208372 29064 net.cpp:410] inception_4d/output <- inception_4d/5x5
I0701 20:56:09.208377 29064 net.cpp:410] inception_4d/output <- inception_4d/pool_proj
I0701 20:56:09.208384 29064 net.cpp:368] inception_4d/output -> inception_4d/output
I0701 20:56:09.208390 29064 net.cpp:120] Setting up inception_4d/output
I0701 20:56:09.208398 29064 net.cpp:127] Top shape: 10 528 14 14 (1034880)
I0701 20:56:09.208403 29064 layer_factory.hpp:74] Creating layer inception_4d/output_inception_4d/output_0_split
I0701 20:56:09.208410 29064 net.cpp:90] Creating Layer inception_4d/output_inception_4d/output_0_split
I0701 20:56:09.208415 29064 net.cpp:410] inception_4d/output_inception_4d/output_0_split <- inception_4d/output
I0701 20:56:09.208421 29064 net.cpp:368] inception_4d/output_inception_4d/output_0_split -> inception_4d/output_inception_4d/output_0_split_0
I0701 20:56:09.208428 29064 net.cpp:368] inception_4d/output_inception_4d/output_0_split -> inception_4d/output_inception_4d/output_0_split_1
I0701 20:56:09.208436 29064 net.cpp:368] inception_4d/output_inception_4d/output_0_split -> inception_4d/output_inception_4d/output_0_split_2
I0701 20:56:09.208442 29064 net.cpp:368] inception_4d/output_inception_4d/output_0_split -> inception_4d/output_inception_4d/output_0_split_3
I0701 20:56:09.208451 29064 net.cpp:368] inception_4d/output_inception_4d/output_0_split -> inception_4d/output_inception_4d/output_0_split_4
I0701 20:56:09.208456 29064 net.cpp:120] Setting up inception_4d/output_inception_4d/output_0_split
I0701 20:56:09.208463 29064 net.cpp:127] Top shape: 10 528 14 14 (1034880)
I0701 20:56:09.208469 29064 net.cpp:127] Top shape: 10 528 14 14 (1034880)
I0701 20:56:09.208482 29064 net.cpp:127] Top shape: 10 528 14 14 (1034880)
I0701 20:56:09.208487 29064 net.cpp:127] Top shape: 10 528 14 14 (1034880)
I0701 20:56:09.208492 29064 net.cpp:127] Top shape: 10 528 14 14 (1034880)
I0701 20:56:09.208497 29064 layer_factory.hpp:74] Creating layer loss2/ave_pool
I0701 20:56:09.208503 29064 net.cpp:90] Creating Layer loss2/ave_pool
I0701 20:56:09.208508 29064 net.cpp:410] loss2/ave_pool <- inception_4d/output_inception_4d/output_0_split_0
I0701 20:56:09.208516 29064 net.cpp:368] loss2/ave_pool -> loss2/ave_pool
I0701 20:56:09.208523 29064 net.cpp:120] Setting up loss2/ave_pool
I0701 20:56:09.208643 29064 net.cpp:127] Top shape: 10 528 4 4 (84480)
I0701 20:56:09.208652 29064 layer_factory.hpp:74] Creating layer loss2/conv
I0701 20:56:09.208660 29064 net.cpp:90] Creating Layer loss2/conv
I0701 20:56:09.208665 29064 net.cpp:410] loss2/conv <- loss2/ave_pool
I0701 20:56:09.208674 29064 net.cpp:368] loss2/conv -> loss2/conv
I0701 20:56:09.208681 29064 net.cpp:120] Setting up loss2/conv
I0701 20:56:09.209218 29064 net.cpp:127] Top shape: 10 128 4 4 (20480)
I0701 20:56:09.209229 29064 layer_factory.hpp:74] Creating layer loss2/relu_conv
I0701 20:56:09.209238 29064 net.cpp:90] Creating Layer loss2/relu_conv
I0701 20:56:09.209244 29064 net.cpp:410] loss2/relu_conv <- loss2/conv
I0701 20:56:09.209249 29064 net.cpp:357] loss2/relu_conv -> loss2/conv (in-place)
I0701 20:56:09.209255 29064 net.cpp:120] Setting up loss2/relu_conv
I0701 20:56:09.209298 29064 net.cpp:127] Top shape: 10 128 4 4 (20480)
I0701 20:56:09.209305 29064 layer_factory.hpp:74] Creating layer loss2/fc
I0701 20:56:09.209313 29064 net.cpp:90] Creating Layer loss2/fc
I0701 20:56:09.209318 29064 net.cpp:410] loss2/fc <- loss2/conv
I0701 20:56:09.209326 29064 net.cpp:368] loss2/fc -> loss2/fc
I0701 20:56:09.209332 29064 net.cpp:120] Setting up loss2/fc
I0701 20:56:09.219015 29064 net.cpp:127] Top shape: 10 1024 (10240)
I0701 20:56:09.219043 29064 layer_factory.hpp:74] Creating layer loss2/relu_fc
I0701 20:56:09.219054 29064 net.cpp:90] Creating Layer loss2/relu_fc
I0701 20:56:09.219063 29064 net.cpp:410] loss2/relu_fc <- loss2/fc
I0701 20:56:09.219070 29064 net.cpp:357] loss2/relu_fc -> loss2/fc (in-place)
I0701 20:56:09.219079 29064 net.cpp:120] Setting up loss2/relu_fc
I0701 20:56:09.219158 29064 net.cpp:127] Top shape: 10 1024 (10240)
I0701 20:56:09.219166 29064 layer_factory.hpp:74] Creating layer loss2/drop_fc
I0701 20:56:09.219172 29064 net.cpp:90] Creating Layer loss2/drop_fc
I0701 20:56:09.219177 29064 net.cpp:410] loss2/drop_fc <- loss2/fc
I0701 20:56:09.219183 29064 net.cpp:357] loss2/drop_fc -> loss2/fc (in-place)
I0701 20:56:09.219190 29064 net.cpp:120] Setting up loss2/drop_fc
I0701 20:56:09.219197 29064 net.cpp:127] Top shape: 10 1024 (10240)
I0701 20:56:09.219202 29064 layer_factory.hpp:74] Creating layer stanford_cars_loss2/classifier
I0701 20:56:09.219210 29064 net.cpp:90] Creating Layer stanford_cars_loss2/classifier
I0701 20:56:09.219215 29064 net.cpp:410] stanford_cars_loss2/classifier <- loss2/fc
I0701 20:56:09.219224 29064 net.cpp:368] stanford_cars_loss2/classifier -> stanford_cars_loss2/classifier
I0701 20:56:09.219233 29064 net.cpp:120] Setting up stanford_cars_loss2/classifier
I0701 20:56:09.220229 29064 net.cpp:127] Top shape: 10 196 (1960)
I0701 20:56:09.220238 29064 layer_factory.hpp:74] Creating layer stanford_cars_loss2/classifier_stanford_cars_loss2/classifier_0_split
I0701 20:56:09.220247 29064 net.cpp:90] Creating Layer stanford_cars_loss2/classifier_stanford_cars_loss2/classifier_0_split
I0701 20:56:09.220252 29064 net.cpp:410] stanford_cars_loss2/classifier_stanford_cars_loss2/classifier_0_split <- stanford_cars_loss2/classifier
I0701 20:56:09.220259 29064 net.cpp:368] stanford_cars_loss2/classifier_stanford_cars_loss2/classifier_0_split -> stanford_cars_loss2/classifier_stanford_cars_loss2/classifier_0_split_0
I0701 20:56:09.220268 29064 net.cpp:368] stanford_cars_loss2/classifier_stanford_cars_loss2/classifier_0_split -> stanford_cars_loss2/classifier_stanford_cars_loss2/classifier_0_split_1
I0701 20:56:09.220293 29064 net.cpp:368] stanford_cars_loss2/classifier_stanford_cars_loss2/classifier_0_split -> stanford_cars_loss2/classifier_stanford_cars_loss2/classifier_0_split_2
I0701 20:56:09.220299 29064 net.cpp:120] Setting up stanford_cars_loss2/classifier_stanford_cars_loss2/classifier_0_split
I0701 20:56:09.220306 29064 net.cpp:127] Top shape: 10 196 (1960)
I0701 20:56:09.220311 29064 net.cpp:127] Top shape: 10 196 (1960)
I0701 20:56:09.220316 29064 net.cpp:127] Top shape: 10 196 (1960)
I0701 20:56:09.220321 29064 layer_factory.hpp:74] Creating layer stanford_cars_loss2/loss
I0701 20:56:09.220329 29064 net.cpp:90] Creating Layer stanford_cars_loss2/loss
I0701 20:56:09.220334 29064 net.cpp:410] stanford_cars_loss2/loss <- stanford_cars_loss2/classifier_stanford_cars_loss2/classifier_0_split_0
I0701 20:56:09.220340 29064 net.cpp:410] stanford_cars_loss2/loss <- label_data_1_split_3
…
I0701 20:56:09.220501 29064 net.cpp:368] loss2/top-5 -> loss2/top-5
I0701 20:56:09.220509 29064 net.cpp:120] Setting up loss2/top-5
I0701 20:56:09.220513 29064 net.cpp:127] Top shape: (1)
I0701 20:56:09.220518 29064 layer_factory.hpp:74] Creating layer inception_4e/1x1
I0701 20:56:09.220525 29064 net.cpp:90] Creating Layer inception_4e/1x1
I0701 20:56:09.220531 29064 net.cpp:410] inception_4e/1x1 <- inception_4d/output_inception_4d/output_0_split_1
I0701 20:56:09.220537 29064 net.cpp:368] inception_4e/1x1 -> inception_4e/1x1
I0701 20:56:09.220545 29064 net.cpp:120] Setting up inception_4e/1x1
I0701 20:56:09.221498 29064 net.cpp:127] Top shape: 10 256 14 14 (501760)
I0701 20:56:09.221511 29064 layer_factory.hpp:74] Creating layer inception_4e/relu_1x1
I0701 20:56:09.221518 29064 net.cpp:90] Creating Layer inception_4e/relu_1x1
I0701 20:56:09.221524 29064 net.cpp:410] inception_4e/relu_1x1 <- inception_4e/1x1
I0701 20:56:09.221531 29064 net.cpp:357] inception_4e/relu_1x1 -> inception_4e/1x1 (in-place)
I0701 20:56:09.221537 29064 net.cpp:120] Setting up inception_4e/relu_1x1
I0701 20:56:09.221655 29064 net.cpp:127] Top shape: 10 256 14 14 (501760)
I0701 20:56:09.221664 29064 layer_factory.hpp:74] Creating layer inception_4e/3x3_reduce
I0701 20:56:09.221683 29064 net.cpp:90] Creating Layer inception_4e/3x3_reduce
I0701 20:56:09.221689 29064 net.cpp:410] inception_4e/3x3_reduce <- inception_4d/output_inception_4d/output_0_split_2
I0701 20:56:09.221696 29064 net.cpp:368] inception_4e/3x3_reduce -> inception_4e/3x3_reduce
I0701 20:56:09.221704 29064 net.cpp:120] Setting up inception_4e/3x3_reduce
I0701 20:56:09.222334 29064 net.cpp:127] Top shape: 10 160 14 14 (313600)
I0701 20:56:09.222347 29064 layer_factory.hpp:74] Creating layer inception_4e/relu_3x3_reduce
I0701 20:56:09.222354 29064 net.cpp:90] Creating Layer inception_4e/relu_3x3_reduce
I0701 20:56:09.222360 29064 net.cpp:410] inception_4e/relu_3x3_reduce <- inception_4e/3x3_reduce
I0701 20:56:09.222375 29064 net.cpp:357] inception_4e/relu_3x3_reduce -> inception_4e/3x3_reduce (in-place)
I0701 20:56:09.222383 29064 net.cpp:120] Setting up inception_4e/relu_3x3_reduce
I0701 20:56:09.222427 29064 net.cpp:127] Top shape: 10 160 14 14 (313600)
I0701 20:56:09.222434 29064 layer_factory.hpp:74] Creating layer inception_4e/3x3
I0701 20:56:09.222441 29064 net.cpp:90] Creating Layer inception_4e/3x3
I0701 20:56:09.222446 29064 net.cpp:410] inception_4e/3x3 <- inception_4e/3x3_reduce
I0701 20:56:09.222453 29064 net.cpp:368] inception_4e/3x3 -> inception_4e/3x3
I0701 20:56:09.222461 29064 net.cpp:120] Setting up inception_4e/3x3
I0701 20:56:09.224989 29064 net.cpp:127] Top shape: 10 320 14 14 (627200)
I0701 20:56:09.225003 29064 layer_factory.hpp:74] Creating layer inception_4e/relu_3x3
I0701 20:56:09.225011 29064 net.cpp:90] Creating Layer inception_4e/relu_3x3
I0701 20:56:09.225018 29064 net.cpp:410] inception_4e/relu_3x3 <- inception_4e/3x3
I0701 20:56:09.225024 29064 net.cpp:357] inception_4e/relu_3x3 -> inception_4e/3x3 (in-place)
I0701 20:56:09.225030 29064 net.cpp:120] Setting up inception_4e/relu_3x3
I0701 20:56:09.225074 29064 net.cpp:127] Top shape: 10 320 14 14 (627200)
I0701 20:56:09.225080 29064 layer_factory.hpp:74] Creating layer inception_4e/5x5_reduce
I0701 20:56:09.225088 29064 net.cpp:90] Creating Layer inception_4e/5x5_reduce
I0701 20:56:09.225093 29064 net.cpp:410] inception_4e/5x5_reduce <- inception_4d/output_inception_4d/output_0_split_3
I0701 20:56:09.225101 29064 net.cpp:368] inception_4e/5x5_reduce -> inception_4e/5x5_reduce
I0701 20:56:09.225108 29064 net.cpp:120] Setting up inception_4e/5x5_reduce
I0701 20:56:09.225450 29064 net.cpp:127] Top shape: 10 32 14 14 (62720)
I0701 20:56:09.225462 29064 layer_factory.hpp:74] Creating layer inception_4e/relu_5x5_reduce
I0701 20:56:09.225471 29064 net.cpp:90] Creating Layer inception_4e/relu_5x5_reduce
I0701 20:56:09.225476 29064 net.cpp:410] inception_4e/relu_5x5_reduce <- inception_4e/5x5_reduce
I0701 20:56:09.225482 29064 net.cpp:357] inception_4e/relu_5x5_reduce -> inception_4e/5x5_reduce (in-place)
I0701 20:56:09.225488 29064 net.cpp:120] Setting up inception_4e/relu_5x5_reduce
I0701 20:56:09.225528 29064 net.cpp:127] Top shape: 10 32 14 14 (62720)
I0701 20:56:09.225534 29064 layer_factory.hpp:74] Creating layer inception_4e/5x5
I0701 20:56:09.225541 29064 net.cpp:90] Creating Layer inception_4e/5x5
I0701 20:56:09.225546 29064 net.cpp:410] inception_4e/5x5 <- inception_4e/5x5_reduce
I0701 20:56:09.225553 29064 net.cpp:368] inception_4e/5x5 -> inception_4e/5x5
I0701 20:56:09.225560 29064 net.cpp:120] Setting up inception_4e/5x5
I0701 20:56:09.226274 29064 net.cpp:127] Top shape: 10 128 14 14 (250880)
I0701 20:56:09.226285 29064 layer_factory.hpp:74] Creating layer inception_4e/relu_5x5
I0701 20:56:09.226292 29064 net.cpp:90] Creating Layer inception_4e/relu_5x5
I0701 20:56:09.226299 29064 net.cpp:410] inception_4e/relu_5x5 <- inception_4e/5x5
I0701 20:56:09.226305 29064 net.cpp:357] inception_4e/relu_5x5 -> inception_4e/5x5 (in-place)
I0701 20:56:09.226311 29064 net.cpp:120] Setting up inception_4e/relu_5x5
I0701 20:56:09.226431 29064 net.cpp:127] Top shape: 10 128 14 14 (250880)
I0701 20:56:09.226440 29064 layer_factory.hpp:74] Creating layer inception_4e/pool
I0701 20:56:09.226446 29064 layer_factory.cpp:55] CUDNN does not support padding or multiple tops. Using Caffe's own pooling layer.
I0701 20:56:09.226452 29064 net.cpp:90] Creating Layer inception_4e/pool
I0701 20:56:09.226457 29064 net.cpp:410] inception_4e/pool <- inception_4d/output_inception_4d/output_0_split_4
I0701 20:56:09.226464 29064 net.cpp:368] inception_4e/pool -> inception_4e/pool
I0701 20:56:09.226471 29064 net.cpp:120] Setting up inception_4e/pool
I0701 20:56:09.226479 29064 net.cpp:127] Top shape: 10 528 14 14 (1034880)
I0701 20:56:09.226483 29064 layer_factory.hpp:74] Creating layer inception_4e/pool_proj
I0701 20:56:09.226491 29064 net.cpp:90] Creating Layer inception_4e/pool_proj
I0701 20:56:09.226498 29064 net.cpp:410] inception_4e/pool_proj <- inception_4e/pool
I0701 20:56:09.226516 29064 net.cpp:368] inception_4e/pool_proj -> inception_4e/pool_proj
I0701 20:56:09.226524 29064 net.cpp:120] Setting up inception_4e/pool_proj
I0701 20:56:09.227076 29064 net.cpp:127] Top shape: 10 128 14 14 (250880)
I0701 20:56:09.227087 29064 layer_factory.hpp:74] Creating layer inception_4e/relu_pool_proj
I0701 20:56:09.227094 29064 net.cpp:90] Creating Layer inception_4e/relu_pool_proj
I0701 20:56:09.227100 29064 net.cpp:410] inception_4e/relu_pool_proj <- inception_4e/pool_proj
I0701 20:56:09.227107 29064 net.cpp:357] inception_4e/relu_pool_proj -> inception_4e/pool_proj (in-place)
I0701 20:56:09.227113 29064 net.cpp:120] Setting up inception_4e/relu_pool_proj
I0701 20:56:09.227156 29064 net.cpp:127] Top shape: 10 128 14 14 (250880)
I0701 20:56:09.227162 29064 layer_factory.hpp:74] Creating layer inception_4e/output
I0701 20:56:09.227170 29064 net.cpp:90] Creating Layer inception_4e/output
I0701 20:56:09.227175 29064 net.cpp:410] inception_4e/output <- inception_4e/1x1
I0701 20:56:09.227180 29064 net.cpp:410] inception_4e/output <- inception_4e/3x3
I0701 20:56:09.227186 29064 net.cpp:410] inception_4e/output <- inception_4e/5x5
I0701 20:56:09.227191 29064 net.cpp:410] inception_4e/output <- inception_4e/pool_proj
I0701 20:56:09.227197 29064 net.cpp:368] inception_4e/output -> inception_4e/output
I0701 20:56:09.227205 29064 net.cpp:120] Setting up inception_4e/output
I0701 20:56:09.227211 29064 net.cpp:127] Top shape: 10 832 14 14 (1630720)
I0701 20:56:09.227216 29064 layer_factory.hpp:74] Creating layer pool4/3x3_s2
I0701 20:56:09.227224 29064 net.cpp:90] Creating Layer pool4/3x3_s2
I0701 20:56:09.227229 29064 net.cpp:410] pool4/3x3_s2 <- inception_4e/output
I0701 20:56:09.227236 29064 net.cpp:368] pool4/3x3_s2 -> pool4/3x3_s2
I0701 20:56:09.227241 29064 net.cpp:120] Setting up pool4/3x3_s2
I0701 20:56:09.227284 29064 net.cpp:127] Top shape: 10 832 7 7 (407680)
I0701 20:56:09.230484 29064 layer_factory.hpp:74] Creating layer pool4/3x3_s2_pool4/3x3_s2_0_split
I0701 20:56:09.230495 29064 net.cpp:90] Creating Layer pool4/3x3_s2_pool4/3x3_s2_0_split
I0701 20:56:09.230501 29064 net.cpp:410] pool4/3x3_s2_pool4/3x3_s2_0_split <- pool4/3x3_s2
I0701 20:56:09.230509 29064 net.cpp:368] pool4/3x3_s2_pool4/3x3_s2_0_split -> pool4/3x3_s2_pool4/3x3_s2_0_split_0
I0701 20:56:09.230517 29064 net.cpp:368] pool4/3x3_s2_pool4/3x3_s2_0_split -> pool4/3x3_s2_pool4/3x3_s2_0_split_1
I0701 20:56:09.230525 29064 net.cpp:368] pool4/3x3_s2_pool4/3x3_s2_0_split -> pool4/3x3_s2_pool4/3x3_s2_0_split_2
I0701 20:56:09.230542 29064 net.cpp:368] pool4/3x3_s2_pool4/3x3_s2_0_split -> pool4/3x3_s2_pool4/3x3_s2_0_split_3
I0701 20:56:09.230551 29064 net.cpp:120] Setting up pool4/3x3_s2_pool4/3x3_s2_0_split
I0701 20:56:09.230558 29064 net.cpp:127] Top shape: 10 832 7 7 (407680)
I0701 20:56:09.230564 29064 net.cpp:127] Top shape: 10 832 7 7 (407680)
I0701 20:56:09.230571 29064 net.cpp:127] Top shape: 10 832 7 7 (407680)
I0701 20:56:09.230576 29064 net.cpp:127] Top shape: 10 832 7 7 (407680)
I0701 20:56:09.230581 29064 layer_factory.hpp:74] Creating layer inception_5a/1x1
I0701 20:56:09.230589 29064 net.cpp:90] Creating Layer inception_5a/1x1
I0701 20:56:09.230594 29064 net.cpp:410] inception_5a/1x1 <- pool4/3x3_s2_pool4/3x3_s2_0_split_0
I0701 20:56:09.230602 29064 net.cpp:368] inception_5a/1x1 -> inception_5a/1x1
I0701 20:56:09.230609 29064 net.cpp:120] Setting up inception_5a/1x1
I0701 20:56:09.232098 29064 net.cpp:127] Top shape: 10 256 7 7 (125440)
I0701 20:56:09.232118 29064 layer_factory.hpp:74] Creating layer inception_5a/relu_1x1
I0701 20:56:09.232142 29064 net.cpp:90] Creating Layer inception_5a/relu_1x1
I0701 20:56:09.232152 29064 net.cpp:410] inception_5a/relu_1x1 <- inception_5a/1x1
I0701 20:56:09.232172 29064 net.cpp:357] inception_5a/relu_1x1 -> inception_5a/1x1 (in-place)
I0701 20:56:09.232182 29064 net.cpp:120] Setting up inception_5a/relu_1x1
I0701 20:56:09.232328 29064 net.cpp:127] Top shape: 10 256 7 7 (125440)
I0701 20:56:09.232339 29064 layer_factory.hpp:74] Creating layer inception_5a/3x3_reduce
I0701 20:56:09.232367 29064 net.cpp:90] Creating Layer inception_5a/3x3_reduce
I0701 20:56:09.232375 29064 net.cpp:410] inception_5a/3x3_reduce <- pool4/3x3_s2_pool4/3x3_s2_0_split_1
I0701 20:56:09.232383 29064 net.cpp:368] inception_5a/3x3_reduce -> inception_5a/3x3_reduce
I0701 20:56:09.232391 29064 net.cpp:120] Setting up inception_5a/3x3_reduce
I0701 20:56:09.233273 29064 net.cpp:127] Top shape: 10 160 7 7 (78400)
I0701 20:56:09.233289 29064 layer_factory.hpp:74] Creating layer inception_5a/relu_3x3_reduce
I0701 20:56:09.233311 29064 net.cpp:90] Creating Layer inception_5a/relu_3x3_reduce
I0701 20:56:09.233319 29064 net.cpp:410] inception_5a/relu_3x3_reduce <- inception_5a/3x3_reduce
I0701 20:56:09.233327 29064 net.cpp:357] inception_5a/relu_3x3_reduce -> inception_5a/3x3_reduce (in-place)
I0701 20:56:09.233335 29064 net.cpp:120] Setting up inception_5a/relu_3x3_reduce
I0701 20:56:09.233389 29064 net.cpp:127] Top shape: 10 160 7 7 (78400)
I0701 20:56:09.233407 29064 layer_factory.hpp:74] Creating layer inception_5a/3x3
I0701 20:56:09.233415 29064 net.cpp:90] Creating Layer inception_5a/3x3
I0701 20:56:09.233429 29064 net.cpp:410] inception_5a/3x3 <- inception_5a/3x3_reduce
I0701 20:56:09.233438 29064 net.cpp:368] inception_5a/3x3 -> inception_5a/3x3
I0701 20:56:09.233444 29064 net.cpp:120] Setting up inception_5a/3x3
I0701 20:56:09.236071 29064 net.cpp:127] Top shape: 10 320 7 7 (156800)
I0701 20:56:09.236085 29064 layer_factory.hpp:74] Creating layer inception_5a/relu_3x3
I0701 20:56:09.236094 29064 net.cpp:90] Creating Layer inception_5a/relu_3x3
I0701 20:56:09.236100 29064 net.cpp:410] inception_5a/relu_3x3 <- inception_5a/3x3
I0701 20:56:09.236106 29064 net.cpp:357] inception_5a/relu_3x3 -> inception_5a/3x3 (in-place)
I0701 20:56:09.236114 29064 net.cpp:120] Setting up inception_5a/relu_3x3
I0701 20:56:09.236156 29064 net.cpp:127] Top shape: 10 320 7 7 (156800)
I0701 20:56:09.236163 29064 layer_factory.hpp:74] Creating layer inception_5a/5x5_reduce
I0701 20:56:09.236172 29064 net.cpp:90] Creating Layer inception_5a/5x5_reduce
I0701 20:56:09.236178 29064 net.cpp:410] inception_5a/5x5_reduce <- pool4/3x3_s2_pool4/3x3_s2_0_split_2
I0701 20:56:09.236186 29064 net.cpp:368] inception_5a/5x5_reduce -> inception_5a/5x5_reduce
I0701 20:56:09.236193 29064 net.cpp:120] Setting up inception_5a/5x5_reduce
I0701 20:56:09.236538 29064 net.cpp:127] Top shape: 10 32 7 7 (15680)
I0701 20:56:09.236551 29064 layer_factory.hpp:74] Creating layer inception_5a/relu_5x5_reduce
I0701 20:56:09.236557 29064 net.cpp:90] Creating Layer inception_5a/relu_5x5_reduce
I0701 20:56:09.236563 29064 net.cpp:410] inception_5a/relu_5x5_reduce <- inception_5a/5x5_reduce
I0701 20:56:09.236570 29064 net.cpp:357] inception_5a/relu_5x5_reduce -> inception_5a/5x5_reduce (in-place)
I0701 20:56:09.236577 29064 net.cpp:120] Setting up inception_5a/relu_5x5_reduce
I0701 20:56:09.236620 29064 net.cpp:127] Top shape: 10 32 7 7 (15680)
I0701 20:56:09.236626 29064 layer_factory.hpp:74] Creating layer inception_5a/5x5
I0701 20:56:09.236634 29064 net.cpp:90] Creating Layer inception_5a/5x5
I0701 20:56:09.236639 29064 net.cpp:410] inception_5a/5x5 <- inception_5a/5x5_reduce
I0701 20:56:09.236647 29064 net.cpp:368] inception_5a/5x5 -> inception_5a/5x5
I0701 20:56:09.236654 29064 net.cpp:120] Setting up inception_5a/5x5
I0701 20:56:09.237364 29064 net.cpp:127] Top shape: 10 128 7 7 (62720)
I0701 20:56:09.237375 29064 layer_factory.hpp:74] Creating layer inception_5a/relu_5x5
I0701 20:56:09.237382 29064 net.cpp:90] Creating Layer inception_5a/relu_5x5
I0701 20:56:09.237387 29064 net.cpp:410] inception_5a/relu_5x5 <- inception_5a/5x5
I0701 20:56:09.237395 29064 net.cpp:357] inception_5a/relu_5x5 -> inception_5a/5x5 (in-place)
I0701 20:56:09.237401 29064 net.cpp:120] Setting up inception_5a/relu_5x5
I0701 20:56:09.237519 29064 net.cpp:127] Top shape: 10 128 7 7 (62720)
I0701 20:56:09.237529 29064 layer_factory.hpp:74] Creating layer inception_5a/pool
I0701 20:56:09.237534 29064 layer_factory.cpp:55] CUDNN does not support padding or multiple tops. Using Caffe's own pooling layer.
I0701 20:56:09.237552 29064 net.cpp:90] Creating Layer inception_5a/pool
I0701 20:56:09.237558 29064 net.cpp:410] inception_5a/pool <- pool4/3x3_s2_pool4/3x3_s2_0_split_3
I0701 20:56:09.237566 29064 net.cpp:368] inception_5a/pool -> inception_5a/pool
I0701 20:56:09.237575 29064 net.cpp:120] Setting up inception_5a/pool
I0701 20:56:09.237582 29064 net.cpp:127] Top shape: 10 832 7 7 (407680)
I0701 20:56:09.237588 29064 layer_factory.hpp:74] Creating layer inception_5a/pool_proj
I0701 20:56:09.237596 29064 net.cpp:90] Creating Layer inception_5a/pool_proj
I0701 20:56:09.237601 29064 net.cpp:410] inception_5a/pool_proj <- inception_5a/pool
I0701 20:56:09.237608 29064 net.cpp:368] inception_5a/pool_proj -> inception_5a/pool_proj
I0701 20:56:09.237615 29064 net.cpp:120] Setting up inception_5a/pool_proj
I0701 20:56:09.238351 29064 net.cpp:127] Top shape: 10 128 7 7 (62720)
I0701 20:56:09.238363 29064 layer_factory.hpp:74] Creating layer inception_5a/relu_pool_proj
I0701 20:56:09.238370 29064 net.cpp:90] Creating Layer inception_5a/relu_pool_proj
I0701 20:56:09.238376 29064 net.cpp:410] inception_5a/relu_pool_proj <- inception_5a/pool_proj
I0701 20:56:09.238384 29064 net.cpp:357] inception_5a/relu_pool_proj -> inception_5a/pool_proj (in-place)
I0701 20:56:09.238390 29064 net.cpp:120] Setting up inception_5a/relu_pool_proj
I0701 20:56:09.238433 29064 net.cpp:127] Top shape: 10 128 7 7 (62720)
I0701 20:56:09.238440 29064 layer_factory.hpp:74] Creating layer inception_5a/output
I0701 20:56:09.238447 29064 net.cpp:90] Creating Layer inception_5a/output
I0701 20:56:09.238452 29064 net.cpp:410] inception_5a/output <- inception_5a/1x1
I0701 20:56:09.238458 29064 net.cpp:410] inception_5a/output <- inception_5a/3x3
I0701 20:56:09.238463 29064 net.cpp:410] inception_5a/output <- inception_5a/5x5
I0701 20:56:09.238469 29064 net.cpp:410] inception_5a/output <- inception_5a/pool_proj
I0701 20:56:09.238476 29064 net.cpp:368] inception_5a/output -> inception_5a/output
I0701 20:56:09.238482 29064 net.cpp:120] Setting up inception_5a/output
I0701 20:56:09.238490 29064 net.cpp:127] Top shape: 10 832 7 7 (407680)
I0701 20:56:09.238495 29064 layer_factory.hpp:74] Creating layer inception_5a/output_inception_5a/output_0_split
I0701 20:56:09.238502 29064 net.cpp:90] Creating Layer inception_5a/output_inception_5a/output_0_split
I0701 20:56:09.238507 29064 net.cpp:410] inception_5a/output_inception_5a/output_0_split <- inception_5a/output
I0701 20:56:09.238512 29064 net.cpp:368] inception_5a/output_inception_5a/output_0_split -> inception_5a/output_inception_5a/output_0_split_0
I0701 20:56:09.238520 29064 net.cpp:368] inception_5a/output_inception_5a/output_0_split -> inception_5a/output_inception_5a/output_0_split_1
I0701 20:56:09.238528 29064 net.cpp:368] inception_5a/output_inception_5a/output_0_split -> inception_5a/output_inception_5a/output_0_split_2
I0701 20:56:09.238534 29064 net.cpp:368] inception_5a/output_inception_5a/output_0_split -> inception_5a/output_inception_5a/output_0_split_3
I0701 20:56:09.238541 29064 net.cpp:120] Setting up inception_5a/output_inception_5a/output_0_split
I0701 20:56:09.238548 29064 net.cpp:127] Top shape: 10 832 7 7 (407680)
I0701 20:56:09.238554 29064 net.cpp:127] Top shape: 10 832 7 7 (407680)
I0701 20:56:09.238559 29064 net.cpp:127] Top shape: 10 832 7 7 (407680)
I0701 20:56:09.238564 29064 net.cpp:127] Top shape: 10 832 7 7 (407680)
I0701 20:56:09.238569 29064 layer_factory.hpp:74] Creating layer inception_5b/1x1
I0701 20:56:09.238575 29064 net.cpp:90] Creating Layer inception_5b/1x1
I0701 20:56:09.238581 29064 net.cpp:410] inception_5b/1x1 <- inception_5a/output_inception_5a/output_0_split_0
I0701 20:56:09.238587 29064 net.cpp:368] inception_5b/1x1 -> inception_5b/1x1
I0701 20:56:09.238595 29064 net.cpp:120] Setting up inception_5b/1x1
I0701 20:56:09.240408 29064 net.cpp:127] Top shape: 10 384 7 7 (188160)
I0701 20:56:09.240422 29064 layer_factory.hpp:74] Creating layer inception_5b/relu_1x1
I0701 20:56:09.240430 29064 net.cpp:90] Creating Layer inception_5b/relu_1x1
I0701 20:56:09.240444 29064 net.cpp:410] inception_5b/relu_1x1 <- inception_5b/1x1
I0701 20:56:09.240452 29064 net.cpp:357] inception_5b/relu_1x1 -> inception_5b/1x1 (in-place)
I0701 20:56:09.240458 29064 net.cpp:120] Setting up inception_5b/relu_1x1
I0701 20:56:09.240502 29064 net.cpp:127] Top shape: 10 384 7 7 (188160)
I0701 20:56:09.240509 29064 layer_factory.hpp:74] Creating layer inception_5b/3x3_reduce
I0701 20:56:09.240517 29064 net.cpp:90] Creating Layer inception_5b/3x3_reduce
I0701 20:56:09.240522 29064 net.cpp:410] inception_5b/3x3_reduce <- inception_5a/output_inception_5a/output_0_split_1
I0701 20:56:09.240530 29064 net.cpp:368] inception_5b/3x3_reduce -> inception_5b/3x3_reduce
I0701 20:56:09.240537 29064 net.cpp:120] Setting up inception_5b/3x3_reduce
I0701 20:56:09.241525 29064 net.cpp:127] Top shape: 10 192 7 7 (94080)
I0701 20:56:09.241538 29064 layer_factory.hpp:74] Creating layer inception_5b/relu_3x3_reduce
I0701 20:56:09.241545 29064 net.cpp:90] Creating Layer inception_5b/relu_3x3_reduce
I0701 20:56:09.241551 29064 net.cpp:410] inception_5b/relu_3x3_reduce <- inception_5b/3x3_reduce
I0701 20:56:09.241559 29064 net.cpp:357] inception_5b/relu_3x3_reduce -> inception_5b/3x3_reduce (in-place)
I0701 20:56:09.241564 29064 net.cpp:120] Setting up inception_5b/relu_3x3_reduce
I0701 20:56:09.241607 29064 net.cpp:127] Top shape: 10 192 7 7 (94080)
I0701 20:56:09.241613 29064 layer_factory.hpp:74] Creating layer inception_5b/3x3
I0701 20:56:09.241621 29064 net.cpp:90] Creating Layer inception_5b/3x3
I0701 20:56:09.241627 29064 net.cpp:410] inception_5b/3x3 <- inception_5b/3x3_reduce
I0701 20:56:09.241634 29064 net.cpp:368] inception_5b/3x3 -> inception_5b/3x3
I0701 20:56:09.241642 29064 net.cpp:120] Setting up inception_5b/3x3
I0701 20:56:09.245106 29064 net.cpp:127] Top shape: 10 384 7 7 (188160)
I0701 20:56:09.245120 29064 layer_factory.hpp:74] Creating layer inception_5b/relu_3x3
I0701 20:56:09.245127 29064 net.cpp:90] Creating Layer inception_5b/relu_3x3
I0701 20:56:09.245132 29064 net.cpp:410] inception_5b/relu_3x3 <- inception_5b/3x3
I0701 20:56:09.245141 29064 net.cpp:357] inception_5b/relu_3x3 -> inception_5b/3x3 (in-place)
I0701 20:56:09.245147 29064 net.cpp:120] Setting up inception_5b/relu_3x3
I0701 20:56:09.245265 29064 net.cpp:127] Top shape: 10 384 7 7 (188160)
I0701 20:56:09.245273 29064 layer_factory.hpp:74] Creating layer inception_5b/5x5_reduce
I0701 20:56:09.245281 29064 net.cpp:90] Creating Layer inception_5b/5x5_reduce
I0701 20:56:09.262189 29064 net.cpp:410] inception_5b/5x5_reduce <- inception_5a/output_inception_5a/output_0_split_2
I0701 20:56:09.262220 29064 net.cpp:368] inception_5b/5x5_reduce -> inception_5b/5x5_reduce
I0701 20:56:09.262234 29064 net.cpp:120] Setting up inception_5b/5x5_reduce
I0701 20:56:09.262819 29064 net.cpp:127] Top shape: 10 48 7 7 (23520)
I0701 20:56:09.262832 29064 layer_factory.hpp:74] Creating layer inception_5b/relu_5x5_reduce
I0701 20:56:09.262841 29064 net.cpp:90] Creating Layer inception_5b/relu_5x5_reduce
I0701 20:56:09.262847 29064 net.cpp:410] inception_5b/relu_5x5_reduce <- inception_5b/5x5_reduce
I0701 20:56:09.262855 29064 net.cpp:357] inception_5b/relu_5x5_reduce -> inception_5b/5x5_reduce (in-place)
I0701 20:56:09.262861 29064 net.cpp:120] Setting up inception_5b/relu_5x5_reduce
I0701 20:56:09.262905 29064 net.cpp:127] Top shape: 10 48 7 7 (23520)
I0701 20:56:09.262912 29064 layer_factory.hpp:74] Creating layer inception_5b/5x5
I0701 20:56:09.262920 29064 net.cpp:90] Creating Layer inception_5b/5x5
I0701 20:56:09.262926 29064 net.cpp:410] inception_5b/5x5 <- inception_5b/5x5_reduce
I0701 20:56:09.262933 29064 net.cpp:368] inception_5b/5x5 -> inception_5b/5x5
I0701 20:56:09.262940 29064 net.cpp:120] Setting up inception_5b/5x5
I0701 20:56:09.264185 29064 net.cpp:127] Top shape: 10 128 7 7 (62720)
I0701 20:56:09.264201 29064 layer_factory.hpp:74] Creating layer inception_5b/relu_5x5
I0701 20:56:09.264210 29064 net.cpp:90] Creating Layer inception_5b/relu_5x5
I0701 20:56:09.264216 29064 net.cpp:410] inception_5b/relu_5x5 <- inception_5b/5x5
I0701 20:56:09.264240 29064 net.cpp:357] inception_5b/relu_5x5 -> inception_5b/5x5 (in-place)
I0701 20:56:09.264247 29064 net.cpp:120] Setting up inception_5b/relu_5x5
I0701 20:56:09.264302 29064 net.cpp:127] Top shape: 10 128 7 7 (62720)
I0701 20:56:09.264308 29064 layer_factory.hpp:74] Creating layer inception_5b/pool
I0701 20:56:09.264314 29064 layer_factory.cpp:55] CUDNN does not support padding or multiple tops. Using Caffe's own pooling layer.
I0701 20:56:09.264322 29064 net.cpp:90] Creating Layer inception_5b/pool
I0701 20:56:09.264327 29064 net.cpp:410] inception_5b/pool <- inception_5a/output_inception_5a/output_0_split_3
I0701 20:56:09.264333 29064 net.cpp:368] inception_5b/pool -> inception_5b/pool
I0701 20:56:09.264340 29064 net.cpp:120] Setting up inception_5b/pool
I0701 20:56:09.264349 29064 net.cpp:127] Top shape: 10 832 7 7 (407680)
I0701 20:56:09.264354 29064 layer_factory.hpp:74] Creating layer inception_5b/pool_proj
I0701 20:56:09.264372 29064 net.cpp:90] Creating Layer inception_5b/pool_proj
I0701 20:56:09.264377 29064 net.cpp:410] inception_5b/pool_proj <- inception_5b/pool
I0701 20:56:09.264384 29064 net.cpp:368] inception_5b/pool_proj -> inception_5b/pool_proj
I0701 20:56:09.264392 29064 net.cpp:120] Setting up inception_5b/pool_proj
I0701 20:56:09.265135 29064 net.cpp:127] Top shape: 10 128 7 7 (62720)
I0701 20:56:09.265147 29064 layer_factory.hpp:74] Creating layer inception_5b/relu_pool_proj
I0701 20:56:09.265156 29064 net.cpp:90] Creating Layer inception_5b/relu_pool_proj
I0701 20:56:09.265161 29064 net.cpp:410] inception_5b/relu_pool_proj <- inception_5b/pool_proj
I0701 20:56:09.265167 29064 net.cpp:357] inception_5b/relu_pool_proj -> inception_5b/pool_proj (in-place)
I0701 20:56:09.265174 29064 net.cpp:120] Setting up inception_5b/relu_pool_proj
I0701 20:56:09.265216 29064 net.cpp:127] Top shape: 10 128 7 7 (62720)
I0701 20:56:09.265224 29064 layer_factory.hpp:74] Creating layer inception_5b/output
I0701 20:56:09.265236 29064 net.cpp:90] Creating Layer inception_5b/output
I0701 20:56:09.265245 29064 net.cpp:410] inception_5b/output <- inception_5b/1x1
I0701 20:56:09.265252 29064 net.cpp:410] inception_5b/output <- inception_5b/3x3
I0701 20:56:09.265257 29064 net.cpp:410] inception_5b/output <- inception_5b/5x5
I0701 20:56:09.265262 29064 net.cpp:410] inception_5b/output <- inception_5b/pool_proj
I0701 20:56:09.265269 29064 net.cpp:368] inception_5b/output -> inception_5b/output
I0701 20:56:09.265275 29064 net.cpp:120] Setting up inception_5b/output
I0701 20:56:09.265283 29064 net.cpp:127] Top shape: 10 1024 7 7 (501760)
I0701 20:56:09.265288 29064 layer_factory.hpp:74] Creating layer pool5/7x7_s1
I0701 20:56:09.265295 29064 net.cpp:90] Creating Layer pool5/7x7_s1
I0701 20:56:09.265300 29064 net.cpp:410] pool5/7x7_s1 <- inception_5b/output
I0701 20:56:09.265307 29064 net.cpp:368] pool5/7x7_s1 -> pool5/7x7_s1
I0701 20:56:09.265314 29064 net.cpp:120] Setting up pool5/7x7_s1
I0701 20:56:09.265434 29064 net.cpp:127] Top shape: 10 1024 1 1 (10240)
I0701 20:56:09.265442 29064 layer_factory.hpp:74] Creating layer pool5/drop_7x7_s1
I0701 20:56:09.265450 29064 net.cpp:90] Creating Layer pool5/drop_7x7_s1
I0701 20:56:09.265455 29064 net.cpp:410] pool5/drop_7x7_s1 <- pool5/7x7_s1
I0701 20:56:09.265461 29064 net.cpp:357] pool5/drop_7x7_s1 -> pool5/7x7_s1 (in-place)
I0701 20:56:09.265468 29064 net.cpp:120] Setting up pool5/drop_7x7_s1
I0701 20:56:09.265475 29064 net.cpp:127] Top shape: 10 1024 1 1 (10240)
I0701 20:56:09.265480 29064 layer_factory.hpp:74] Creating layer stanford_cars_loss3/classifier
I0701 20:56:09.265489 29064 net.cpp:90] Creating Layer stanford_cars_loss3/classifier
I0701 20:56:09.265494 29064 net.cpp:410] stanford_cars_loss3/classifier <- pool5/7x7_s1
I0701 20:56:09.265501 29064 net.cpp:368] stanford_cars_loss3/classifier -> stanford_cars_loss3/classifier
I0701 20:56:09.265508 29064 net.cpp:120] Setting up stanford_cars_loss3/classifier
I0701 20:56:09.266500 29064 net.cpp:127] Top shape: 10 196 (1960)
I0701 20:56:09.266511 29064 layer_factory.hpp:74] Creating layer stanford_cars_loss3/classifier_stanford_cars_loss3/classifier_0_split
I0701 20:56:09.266526 29064 net.cpp:90] Creating Layer stanford_cars_loss3/classifier_stanford_cars_loss3/classifier_0_split
I0701 20:56:09.266532 29064 net.cpp:410] stanford_cars_loss3/classifier_stanford_cars_loss3/classifier_0_split <- stanford_cars_loss3/classifier
I0701 20:56:09.266541 29064 net.cpp:368] stanford_cars_loss3/classifier_stanford_cars_loss3/classifier_0_split -> stanford_cars_loss3/classifier_stanford_cars_loss3/classifier_0_split_0
I0701 20:56:09.266548 29064 net.cpp:368] stanford_cars_loss3/classifier_stanford_cars_loss3/classifier_0_split -> stanford_cars_loss3/classifier_stanford_cars_loss3/classifier_0_split_1
I0701 20:56:09.266556 29064 net.cpp:368] stanford_cars_loss3/classifier_stanford_cars_loss3/classifier_0_split -> stanford_cars_loss3/classifier_stanford_cars_loss3/classifier_0_split_2
I0701 20:56:09.266562 29064 net.cpp:120] Setting up stanford_cars_loss3/classifier_stanford_cars_loss3/classifier_0_split
I0701 20:56:09.266569 29064 net.cpp:127] Top shape: 10 196 (1960)
I0701 20:56:09.266574 29064 net.cpp:127] Top shape: 10 196 (1960)
I0701 20:56:09.266579 29064 net.cpp:127] Top shape: 10 196 (1960)
I0701 20:56:09.266584 29064 layer_factory.hpp:74] Creating layer loss3/loss3
I0701 20:56:09.266592 29064 net.cpp:90] Creating Layer loss3/loss3
I0701 20:56:09.266597 29064 net.cpp:410] loss3/loss3 <- stanford_cars_loss3/classifier_stanford_cars_loss3/classifier_0_split_0
I0701 20:56:09.266602 29064 net.cpp:410] loss3/loss3 <- label_data_1_split_6
I0701 20:56:09.266609 29064 net.cpp:368] loss3/loss3 -> loss3/loss3
…
